checkpoints/14_best_model3.pth (torch, 369185 bytes, 37 tensors)

conv1.weight f4 [16, 1, 3, 3]
00000000: 758c 7fbd 1ee4 aabe 38f8 f1bd 69e7 4e3b
00000010: 51aa 963e c1b0 813e b62a 2c3e 15dc 303e
00000020: b331 9b3e 157d b03d 63c6 0f3e 97d1 0dbe
00000030: c59e c9bc 5d8d 49bd 8564 02be 1de9 6b3e
00000040: d5bd 95bd 2093 9ebd 0708 823e be38 e8bd
00000050: 88aa 953e 4cc6 033e e4da 8cbe a27c 993e
00000060: 158e dc3d ca72 5cbb ca35 8abe 78f3 84be
00000070: a139 69bd 3dc0 6e3c 0d7a 8c3e dd25 263e
00000080: 1c04 4fbd 14c0 b4be 5533 07be 788b 333e
00000090: 1713 c0be 705a 2abe d97a 2d3e 0dfb ddbe
000000a0: 082a 11be 77e3 353c 19c7 67be d4e4 853e
000000b0: 30a5 333e acf5 113e 61eb 493d 5c3c 7bbe
000000c0: e9db a1be 1ea6 c4be d145 a93c 8330 1fbe
000000d0: b864 933c 408b 6bbe c468 8fbe 32f2 7cbe
000000e0: 5022 1c3e 2bb1 e9bd 8950 94ba af37 9bbe
000000f0: e6b4 05bd 39d6 293e 3c72 78be 496c 87be
00000100: c53f 4ebe 0488 ebbd 68cb af3c e06d 93be
00000110: 7010 4cbd fa4e 8b3e 49f5 c1be 4b8d df3d
00000120: 2042 7ebc fd3b f8bc 94b2 623e e836 983e
00000130: 1593 8b3e 96a8 80be 92ec 903e 6d88 b73e
00000140: 3add 55be 7cfb 513e 33a1 973d 6fb0 9d3d
00000150: 9ebe 0bbe cc34 703e e3e0 9ebe a51d 2fbd
00000160: 462b 5a3e 256c 9cbe b386 253e d5ac a3be
00000170: 1f3c d2bd 6243 0e3e 23e8 44be b5c0 623e
00000180: 6639 8cbe 41c4 3fbc 43f0 e03d 319a 14be
00000190: 4833 ec3d 862a 953e 52bf 3e3e 93dd adbe
000001a0: 0f6f d83d cfe6 85be 4a74 cabe 03e8 80be
000001b0: e01e 2abd 2149 553e dc61 8bbe 6761 adbb
000001c0: 290d d3bc 0b27 abbb 0bd1 5cbe 4fcf b63b
000001d0: 1716 dcbe f6da 1abe e2cf 78bb 2b33 81be
000001e0: 045d 13be c781 8a3e 60d1 68be 74db f1bc
000001f0: 7cf6 653e 560c 99be ff39 93be 92e8 c8bd
00000200: 81bd b1bc a9e1 0cbe 705a d2be e1d4 abbe
00000210: 16b7 423e d254 71bd 1ec2 2f3e 2012 843d
00000220: 7bcd bbbe 2251 9cbe ec2f c1be 05b6 663e
00000230: c24c 18bd 3fc6 5cbe 10a2 34be 0574 9a3e
-0.06238981 -0.33377165 -0.11814922 0.0031571037 0.29426816 0.25330165 0.16813168 0.17271455
0.30311355 0.086176075 0.14040522 -0.13849483 -0.02461184 -0.04920708 -0.12733658 0.23038144
-0.07311598 -0.077429056 0.2539675 -0.11338948 0.29231668 0.12868613 -0.2751075 0.299779
0.107692875 -0.0033637756 -0.26994163 -0.25967002 -0.056939725 0.0145722 0.27436867 0.16225381
-0.05054103 -0.35302794 -0.13203175 0.17533672 -0.37514564 -0.16636062 0.16941394 -0.433556
-0.1417619 0.011101595 -0.22634543 0.26151145 0.17543483 0.14253873 0.04929674 -0.24534744
-0.3161309 -0.38407987 0.020663174 -0.1554585 0.017992362 -0.23002338 -0.28009617 -0.24701765
0.15247464 -0.11410745 -0.0011315505 -0.3031592 -0.03264322 0.16585626 -0.24262327 -0.26449803
-0.20141514 -0.11500552 0.021459296 -0.28794765 -0.049820364 0.27208692 -0.3788245 0.10915621
-0.015518695 -0.030302042 0.22138435 0.2972939 0.27260652 -0.2512862 0.2830549 0.35846272
-0.20885172 0.2050609 0.07403793 0.07699668 -0.13646933 0.2345764 -0.3103095 -0.04275288
0.2130557 -0.30551258 0.16164665 -0.31967798 -0.102653734 0.13892892 -0.19229178 0.22143824
-0.27387542 -0.011704505 0.10983326 -0.14511944 0.115332186 0.29134005 0.1862767 -0.3395811
0.10568058 -0.26152655 -0.39541847 -0.2517701 -0.04153335 0.20828678 -0.27223098 -0.0052911523
-0.025763111 -0.00522316 -0.21564119 0.0055789123 -0.42985603 -0.1512259 -0.0037965705 -0.2523435
-0.14390951 0.27052137 -0.2273612 -0.029523589 0.22457308 -0.29892224 -0.28755185 -0.09809984
-0.021696808 -0.13757958 -0.41084623 -0.3356085 0.19015154 -0.05891878 0.17163894 0.064487696
-0.36680207 -0.3053065 -0.37731874 0.22530372 -0.037182577 -0.2156 -0.17639947 0.3016664

conv1.bias f4 [16]
00000000: 13a5 83bd f369 26be 3261 953e a65d 7c3d
00000010: 5782 1abd c0ec 043e c6e5 b8be 629e c8bc
00000020: b9e4 283e 9379 0d3e 7582 7cbe a3a1 3b3e
00000030: e1ed 3abc 1b06 0fbe f553 783e c1c4 ebbd
-0.0642797 -0.16251354 0.29175717 0.061612748 -0.037721958 0.12980938 -0.36112803 -0.024489585
0.16493501 0.13815908 -0.2465914 0.18323378 -0.011409254 -0.13967173 0.24250777 -0.11512137

conv2.weight f4 [16, 16, 3, 3]
00000000: 40da 26bd eba7 353d c04d f939 7820 a23d
00000010: b833 07bc b5f0 55bc 77a8 debd 544d 8bbd
00000020: 63e3 203d 2a29 443d 6bca 5a3d c3b3 f03d
00000030: cb01 a73c 9df9 413d 707a 3f3d 22c6 3b3d
00000040: 9a1b 15bd 5793 a5bd 9e16 893c 7e42 44bc
00000050: 5ee8 de3c afe1 4a3c 374d 22bd e6f4 f3bc
00000060: e4bd 523c 2f51 953c 6434 24bd ed44 01bb
00000070: 4281 f73c 012d 883c f297 26bd 7bfa 3abd
00000080: 33d6 e33c 0245 45bc fec8 2d3d 93e7 5ebb
00000090: fe51 d2bd 9764 2d3d f419 263d 0f3e 38bc
000000a0: 4a16 9e3d 0243 603d 2f96 003c 6a46 debc
000000b0: 3bb6 7239 ebae 67bd 60be 04bd c01e a53c
000000c0: 8095 5dbd dc0e 1a3c d8c4 adbc 247a c43b
000000d0: fa85 003e b382 9a3d f0b0 d3bd dcca d9bd
000000e0: 84b2 3abd 6b04 3ebd 5508 e9bd 10e4 fabc
000000f0: 1d7b be3d dcc5 3cbc 6715 8b3c 4475 563d
00000100: 7262 a63d 3e06 87bd 5f68 823d 06e8 893d
00000110: affc c4bd 206c 533d 5268 a4bc 086b e03b
00000120: 7653 fa3b 99ea 2fbc 8310 9f3d 3573 07bd
00000130: 32e1 5a3d 524f 853d fcc8 b9bd 235b edbd
00000140: 87c8 a9bb 24f7 443d 8d15 5abd 7556 14bb
00000150: bbda ac3d 78d9 503d e25c 563c 297a 433d
00000160: 96e2 6cbd f652 79bd a0d4 433b b484 ac3b
00000170: 252c d83c 5a71 36bd 046d df3b f359 e3bc
00000180: e351 633d a6b8 bcbc e601 573d 8cf2 0d3d
00000190: 4049 36bb 937b babd 8412 f13a e91f b23c
000001a0: 699a ab3b b528 343e 0b18 543d c9bd 8b3d
000001b0: fc39 7f3d b674 22bd bfcb 02bd 91e6 683c
000001c0: 29db cf3c e5bd 823d 7916 963b 842b a73d
000001d0: 0017 3d3d e3e9 15bc 7eb8 4ebd 9040 90bd
000001e0: 893e 16bd 7402 dfbd fd48 853d 05f2 b83c
000001f0: a930 05be 8abd 96bd 7d1e 5dbd 7dc2 5dbd
00000200: f856 cb3c bf60 e13c 184e a1bc 759e 90bd
00000210: 6b9a aabc 4b8f 223d f49b 66bd 4125 2fbd
00000220: 607d 873d 7fca 913d a796 c03b 4fdc ba3d
00000230: 67f1 46bd c7db 30bd 5e82 a13d c2f8 c1bc
00000240: d775 163d a717 593d ba6a 9fbd 7bf4 83bd
00000250: c2bb c6bc 3e08 bfbd 19b2 913c ded4 47bd
00000260: 85d3 00be 753e 8a3c 3fd8 5abc d4e3 6fbc
00000270: b70b d339 fbdb ae3c 5be6 8bbc e022 893c
00000280: dfb7 963d b32b 6e3c 30f2 513d 32f4 c83c
00000290: 40c1 57bd c9cd 48bd d770 193d 83f2 55bd
000002a0: 6e0c 233d 06f1 8b3d fc19 63bc be09 c83c
000002b0: 7d92 b23d b8ec 003d 781e 5fbd b65d 623c
000002c0: ac17 ab3c 17a3 00be 3fc8 f5bb f7dd 0e3e
000002d0: e61f 5fbd a405 503c 6356 53bd 1a36 3abd
000002e0: d9f8 4e3d 4027 113b 6a72 a2bd b59a 9fbd
000002f0: 8fdf 083c e7d7 c93c 5979 b3bc 99b9 043d
00000300: a51f a13d 5f00 ff3d 0ba9 bc3d c9d8 613d
00000310: 4a4f b73d 8729 dc3d e0b1 2fbd da62 a1bc
00000320: 2830 ad3d fa30 213a ad85 ce3d 4735 263e
00000330: 2fd6 1d3d cd20 ad3d c293 4e3d bcab 323d
00000340: 400c 44bd 4e4e 703c 0808 d6bb 798e 8ebc
00000350: e88f d43d d21d 7a3d 6341 003d 3a44 153d
00000360: e95c 50bd 2e53 8e3c fecf c4bb 2cb2 32bd
00000370: 0fae 7c3b 7a7f 89bc 55c9 32bd c09f e2bc
00000380: fbd5 143d 048d 723d b995 a73c db51 2e3d
00000390: 672e c33d d3d2 84bd 7bfa e7bb e968 f5bb
000003a0: dd97 29bd fa79 713c a7c1 e7bc 1335 8b3d
000003b0: 84f3 123d 34b3 2a3d 118f 12bd a54c 843d
000003c0: 2691 5abb 02b2 8c3c 80e9 143e a707 5d3d
000003d0: cb95 84bd 3d7c 133d 9c99 02bc c2d9 dcbc
000003e0: b0d0 f03d 5cdb c33d e2c2 053b 9f76 0bbd
000003f0: 9f17 56bd 34b1 6d3d df90 7ebc d832 743d
-0.040735483 0.044349592 0.0004755091 0.07916349 -0.008252077 -0.013057877 -0.10871976 -0.068018585
0.039279353 0.04789082 0.053415697 0.11753037 0.020386597 0.04735719 0.046747625 0.04584325
-0.036403276 -0.080847435 0.016734418 -0.011978744 0.02721041 0.012382909 -0.03962442 -0.029779863
0.012862656 0.018227188 -0.040089026 -0.001972492 0.030213002 0.016623022 -0.04067225 -0.045649033
0.0278121 -0.0120403785 0.04242801 -0.003401254 -0.10269545 0.042332258 0.040552095 -0.011245265
0.07719095 0.054751404 0.007848307 -0.027133185 0.00023146805 -0.0565633 -0.03240812 0.020156264
-0.054097652 0.009402957 -0.021212026 0.0059960056 0.12551108 0.0754446 -0.103364825 -0.106343955
-0.045580402 -0.046390932 -0.11378542 -0.030626327 0.09300826 -0.011521783 0.016977979 0.052357927
0.08124246 -0.065929875 0.063675635 0.06733708 -0.09618508 0.051616788 -0.020069275 0.0068486966
0.007639344 -0.010737085 0.07766821 -0.033068854 0.05343742 0.0650927 -0.09071538 -0.115896486
-0.0051813754 0.048087254 -0.05324321 -0.002263454 0.08440157 0.050988644 0.013083668 0.047723923
-0.057833277 -0.060870133 0.0029881373 0.005264843 0.026388237 -0.044541694 0.0068184156 -0.027752852
0.055498015 -0.023037266 0.052492045 0.03465514 -0.0027814656 -0.09105601 0.0018392359 0.021743732
0.005236913 0.17593654 0.05178074 0.06823308 0.062311158 -0.039662085 -0.03193259 0.014215128
0.025373058 0.06383876 0.0045803157 0.08162597 0.046164513 -0.009150001 -0.050468914 -0.07043564
-0.036680732 -0.1088914 0.06508062 0.022576341 -0.13006844 -0.073603705 -0.053984154 -0.054140557
0.024821743 0.027511952 -0.019690558 -0.07061473 -0.020825585 0.039687436 -0.056301072 -0.042760137
0.0661571 0.07118701 0.005877334 0.09124052 -0.048570063 -0.043178346 0.07886194 -0.023678187
0.036733475 0.053001072 -0.07784028 -0.06443115 -0.024259452 -0.09327744 0.017785119 -0.04878699
-0.12580688 0.016875485 -0.013357221 -0.014641721 0.00040253784 0.02134513 -0.017077615 0.016740263
0.073592894 0.014536786 0.05125636 0.024530504 -0.052674532 -0.049024377 0.037461128 -0.05223323
0.039806776 0.06833081 -0.013861176 0.024418708 0.08719347 0.031475753 -0.054472417 0.013816288
0.020885311 -0.12562214 -0.007500678 0.1395186 -0.05447378 0.012696657 -0.051596057 -0.04546175
0.05053029 0.002214864 -0.07931979 -0.0779318 0.008354082 0.024639083 -0.021908449 0.032403562
0.07867364 0.12451243 0.0921193 0.055138383 0.0895067 0.10750108 -0.042894244 -0.019700456
0.08456451 0.00061489607 0.100840904 0.16231261 0.03853434 0.08453522 0.05043388 0.04362081
-0.047863245 0.014667107 -0.006531719 -0.01740192 0.103790104 0.061063595 0.031312358 0.03644202
-0.050869856 0.017373648 -0.00600624 -0.04362695 0.0038555895 -0.016784418 -0.043649036 -0.027664065
0.03633688 0.059216514 0.020457136 0.042558532 0.09530335 -0.06485524 -0.00707942 -0.007489313
-0.041404594 0.014738554 -0.028290583 0.067972325 0.035876766 0.041674808 -0.03578097 0.06459931
-0.0033350675 0.017174724 0.14542198 0.053962376 -0.06473883 0.036007155 -0.007971194 -0.026959304
0.11758554 0.09563324 0.0020410349 -0.034048673 -0.05226862 0.058030322 -0.01553747 0.0596188

conv2.bias f4 [16]
00000000: 0e73 79bd e6af f9bb f002 8cbd bd37 98bc
00000010: 429a 7abd 8922 973d df4c 843d 1615 3ebd
00000020: 1734 173d f186 6a3b add5 813d 8115 60bc
00000030: a3d8 163d fb7c 01bd 12fa 71bd fe1b 45bb
-0.06090074 -0.0076198457 -0.06836498 -0.018581266 -0.061182268 0.07379634 0.064599745 -0.046406828
0.03691491 0.0035785998 0.063395835 -0.013677002 0.036827695 -0.03161333 -0.059076376 -0.00300765

bn11.weight f4 [16]
00000000: fb60 793f 8f92 773f 7180 733f f1a1 763f
00000010: 8181 863f 1511 8a3f 037d 8a3f 0a2f 853f
00000020: 9003 7a3f 0d97 733f c9be 7a3f 37c1 883f
00000030: 7bd0 823f 3e9b 833f 7a10 873f 98b3 823f
0.97413605 0.96708006 0.9511786 0.9634085 1.0508271 1.0786463 1.08194 1.040498
0.97661686 0.9515236 0.97947365 1.0683964 1.0219873 1.0281751 1.0551903 1.0211058

bn11.bias f4 [16]
00000000: 6d20 993d 0740 0bbd 0574 d43c 474b 84bc
00000010: 8a8f 103d 87ac 063d 0536 683d c985 46bd
00000020: 8de5 023d a0eb 6db9 3f32 83bd ab08 053c
00000030: 1d4a 263c 9dd7 e23b 3783 143d c675 863c
0.07476888 -0.033996608 0.025934229 -0.016149176 0.03529314 0.03287938 0.056692142 -0.04846743
0.031957198 -0.00022689858 -0.06406068 0.008119742 0.010149506 0.0069226758 0.03625795 0.01641358

bn11.running_mean f4 [16]
00000000: 79d8 5ebd 18e5 26be 9b6d 983e d8e0 6e3d
00000010: bfe3 44bd bc98 e93d 727e bfbe 302b 19bd
00000020: 9579 363e 1a95 0d3e b11a 80be e7ba 313e
00000030: bd29 b8bc e801 18be 1c05 6a3e 89ec 02be
-0.054405663 -0.1629833 0.29771122 0.058319896 -0.048068758 0.11406085 -0.37401158 -0.037394702
0.17819817 0.13826409 -0.25020364 0.17356454 -0.02248084 -0.14844477 0.22853512 -0.12785544

bn11.running_var f4 [16]
00000000: 8b27 853a 69d2 4e39 a03c e239 5d43 9039
00000010: 1ec1 b03a f1e4 7b3a a7f8 323a b648 723a
00000020: 554b 983a b5de d339 4ca2 b839 23a4 933a
00000030: a64e 0b3a fd2e f139 5412 993a 9d13 783a
0.001015888 0.00019724075 0.00043151248 0.0002751601 0.0013485288 0.0009609005 0.0006827213 0.0009242402
0.001161913 0.00040410986 0.00035216135 0.0011264127 0.0005314149 0.0004600211 0.0011678436 0.0009463372

bn12.weight f4 [16]
00000000: c336 743f 8149 7c3f 56c7 7e3f 7f69 7e3f
00000010: 0ef2 7d3f a27a 793f 4312 783f d639 693f
00000020: 27a3 813f 29a2 843f b77e 733f 74d0 793f
00000030: 4cd4 6f3f 183c 843f d6a0 8b3f f3df 813f
0.9539606 0.9854966 0.9952291 0.99379724 0.9919747 0.9745275 0.96902865 0.91103876
1.0127915 1.0361987 0.95115227 0.975837 0.93683314 1.0330839 1.0908458 1.0146469

bn12.bias f4 [16]
00000000: 7dea f3bc 076a a9bd 5093 fdbd 4929 f0bd
00000010: ac06 3abe e21a 8cbe 3e10 02bd 2072 e4bc
00000020: 4447 4fbd 124b 5dbe d9dd 26bc 9bd7 acbc
00000030: 1fe6 d5bd eafc a8bd e34a 5abe baef b93c
-0.029774899 -0.08272176 -0.12381613 -0.117266245 -0.18166608 -0.2736426 -0.03175377 -0.02788645
-0.050605074 -0.21610668 -0.010184729 -0.021098902 -0.10444283 -0.082513645 -0.2131763 0.022697318

bn12.running_mean f4 [16]
00000000: f2f1 52bd 24ad 313f 7573 0c3f 5786 a33e
00000010: 9c5d 083f 77ed 703f cd6a c23d 416a 683e
00000020: 3c31 103e 2002 2c3f a2b6 7d3c c42c 2dbf
00000030: 6723 6d3e 0592 713e ae32 133f a486 6cbf
-0.05150027 0.69404817 0.54863673 0.3193843 0.53267837 0.9411234 0.09493027 0.22696783
0.14081281 0.6719074 0.015485438 -0.6764643 0.23158036 0.23590858 0.57499206 -0.92392945

bn12.running_var f4 [16]
00000000: 418b 653e e731 853e 19c2 623e cd44 363e
00000010: 4927 b03e a3ce 493e 4241 ab3e c462 363e
00000020: 7c23 4f3e ffee 2c3e 55e0 c13e a77f e43e
00000030: d709 453e bc6d fc3e f1dd 023e eee4 bd3e
0.22416402 0.26014635 0.22144355 0.17799683 0.34404972 0.19707732 0.33448225 0.17811114
0.2022838 0.16888045 0.37866464 0.4462864 0.19242035 0.4930247 0.12779976 0.37088722

conv3.weight f4 [32, 16, 3, 3]
00000000: a759 67bd b552 6b3d eb77 05be 4ed5 b4bd
00000010: 27a2 f43c 3eac 04bd 1c95 673d 6d46 553d
00000020: 0b65 273d c3e6 0f3b 656b b9bb 5184 0bbd
00000030: cb57 4dbd cbea 5e3c 4bfb 423c 1c4a 893a
00000040: 5490 8abd 8abc 993d ca26 453d 92e1 45bc
00000050: 3a39 f3bd ba38 813d 16cd 8e3c 3d0d 323d
00000060: 67a2 1d3d 3561 eabc d6fe 353d 3656 973d
00000070: 597b 80bd e109 8bbc 180c 803c 8887 2ebd
00000080: ac9e 19bd 634d 24bd c280 123d ccdd 183d
00000090: 214c 5a3d 0bf7 8e3d 4a14 413c 6d65 e9bc
000000a0: 2b99 263d 0967 75bc 856c 1abc e2c6 f5bc
000000b0: 4879 ca3d c802 00bb ac5c 45bd 39ca 9ab9
000000c0: 27fe a33d fe5f 6b3d 693b 093d 19d8 d5bc
000000d0: f8e2 bcbc 9670 d83d cca5 82bc ee85 f2bb
000000e0: 387c ec3d f832 293d 5f2a 6fbd c7d8 533d
000000f0: 0a16 543d 7145 efbc d750 473c ba1f 463d
00000100: ce3a 51bb aad2 91bc cca1 38bc 3865 d8bc
00000110: 208d 44bd bc14 3c3c 1403 133d 3c0f 02bd
00000120: 4350 09bc fbb1 13bd 9cb6 5cbc 0c89 95bc
00000130: cf4e 03bd 0e73 153d 42b3 d93c 0f26 64bd
00000140: 292b 83bc 8cbc 0f3e f39a 76bd 4000 30bd
00000150: 1640 c23d eab2 353d 80d8 7f3c 7cc4 8abd
00000160: 0f0b 7c3d 4e7c 81bb 8a98 0dbd 4a5e 433d
00000170: 7373 4a3d 8abd 6f3d 9e3a c43c e367 793d
00000180: 8bbf 733d 8770 6c3d ae8f 3ebd 256e 0b3d
00000190: 442e 59bd cd52 84bd de04 54bc 763f 163d
000001a0: b7ba f1ba 8e82 aeb9 0f33 753d ebc8 3f3d
000001b0: fe77 093d e46b 5abd 1a72 aebd 546d 983d
000001c0: 5889 c13c 58af 19bd e33a 80bc 4f61 83bc
000001d0: e02c 803d 2ab0 af3d e8af 9239 5339 983c
000001e0: de78 67bd 4f9d 8fbd a3f1 253d 039e 12bc
000001f0: 8e98 de3c 2c04 37bc b92d 8d3d c7de 2cbd
00000200: 43f3 f1bd 816f ebbb 9189 c43d 89b6 19bd
00000210: 7380 6b3d c0b7 4b3d 400d 2ebd 7a8e ddbc
00000220: b036 5dbd cc62 523c 7fe6 253c 961d 283d
00000230: e059 a93d 1605 91bd f95f 913c a368 b13d
00000240: 4241 e33c a8bc 443b a433 a93c 29c7 023c
00000250: 6405 cebc b382 9c3c 99c5 f23c b571 32bd
00000260: da42 63bd a8d3 67bd 993a 5a3d 7eb3 f53c
00000270: 51ec 50bd 2f33 a43d e32a 3fbd e7bf 883d
00000280: 67d5 673d 701d e1bc a89a c4bc b5b5 90bd
00000290: eea7 783c bb53 f0bc cb08 38bd 8291 d23d
000002a0: 2d02 c13d 3e01 113e bcd5 87bc 74eb 063d
000002b0: 9a16 6b3d 518a f93c 600e de3b 0f41 093d
000002c0: d928 9abc 9e4d 56bc f6d0 4db9 5ab7 62bd
000002d0: 3ba0 da3c cbd3 10bd 53be 0b3c 2fc0 8b3c
000002e0: c9c3 823d 1fb4 87bd 4f24 103d 4843 853d
000002f0: 6f96 80bd 9c28 5f3d bd09 843d aaa9 33bd
00000300: 5dc4 1f3d f884 d13d b1c8 983d 79fc ce3d
00000310: efc0 d83d 05d7 063d e148 703c 3c5c cabc
00000320: d774 ecba 69db c4bc 0280 afbd 5f09 91bd
00000330: a022 7ebd 8b37 873c bc9a 863d b68f b03c
00000340: f3c7 8abd 70e6 753b 4222 833b 6bbb 853c
00000350: f869 9b3d bbf8 93bd 095b a53c 4f59 9fbd
00000360: 63d4 29bd 83fd 57bd 2b58 8fbc 07a7 72bd
00000370: 20b9 a2bd d6c1 6ebd 5470 523d 7ef1 a6bd
00000380: 7c1e 423d e970 27bd 01b4 943d 8eda e2bc
00000390: ce73 033d d1a5 953d 9dbe 8d3c 993b 733d
000003a0: ff85 c23d 6163 1f3d dfdb 4fbd 0d1e 3e3d
000003b0: 83ce 573d 54b4 b9bd 37c2 303d b302 2abd
000003c0: 08ca 403d 1ab5 48bd cd94 283d fbf1 393d
000003d0: e68b 303d 5b4c 20bd 76b7 0a3d 9dc3 6dbc
000003e0: a3d2 233d 7bac 00bc 98f5 a33c a601 043c
000003f0: 1513 643d eb64 80ba 4d2a a23d 293c 17bc
-0.056481984 0.057451922 -0.13034026 -0.08829747 0.029862477 -0.032390825 0.056538686 0.052069116
0.040867846 0.0021957613 -0.0056585544 -0.034061734 -0.050132554 0.013605784 0.011900733 0.0010474357
-0.0676581 0.07506664 0.048132695 -0.012077706 -0.118761495 0.06309648 0.017431777 0.043469656
0.038484957 -0.028610805 0.044432484 0.0738949 -0.06273527 -0.016972484 0.015630767 -0.04260972
-0.037504837 -0.040112864 0.035767324 0.037320897 0.05329526 0.069807135 0.011784622 -0.028490746
0.040673416 -0.014978179 -0.009425287 -0.030002061 0.09886414 -0.0019532908 -0.048184082 -0.00029523837
0.0800746 0.057464592 0.033503924 -0.02610402 -0.023057446 0.10568349 -0.015948199 -0.0074012196
0.1154713 0.041308373 -0.058390018 0.051720407 0.05177883 -0.029207917 0.01216527 0.0483701
-0.003192592 -0.017800648 -0.011269044 -0.026415452 -0.04798615 0.011479553 0.035891607 -0.03175281
-0.008380952 -0.036058407 -0.013471272 -0.018253826 -0.03205758 0.036486678 0.026574735 -0.055700358
-0.016011791 0.14036769 -0.060206365 -0.04296899 0.0948488 0.04436008 0.0156155825 -0.06775758
0.061533984 -0.003951586 -0.0345693 0.047697343 0.049426507 0.058530368 0.023953732 0.06089009
0.05950884 0.057724502 -0.046523742 0.03404059 -0.053022638 -0.064611055 -0.012940614 0.036681615
-0.0018442486 -0.00033285137 0.059863146 0.04682247 0.0335617 -0.05332555 -0.08517857 0.07442728
0.02362506 -0.037520736 -0.01565308 -0.016037611 0.06258559 0.085785225 0.0002797835 0.018582022
-0.056511752 -0.07012426 0.040513646 -0.008948806 0.027172353 -0.011170428 0.068934865 -0.042204645
-0.118139766 -0.007184923 0.09596551 -0.037527595 0.057495546 0.049735785 -0.042493105 -0.027045477
-0.054007232 0.012840938 0.010125755 0.04104384 0.082690954 -0.07081048 0.017745959 0.08662536
0.027741078 0.0030019674 0.020654507 0.007982054 -0.025149055 0.019105291 0.029635238 -0.04356547
-0.055483676 -0.056598336 0.05327854 0.029992815 -0.05100662 0.08017575 -0.04667176 0.066772275
0.0566 -0.027479857 -0.023999527 -0.07065908 0.015176756 -0.0293368 -0.04493026 0.1028166
0.09424243 0.1416063 -0.016581409 0.03293939 0.0573946 0.030461462 0.006776616 0.03350931
-0.018818306 -0.013080029 -0.00019628168 -0.05535064 0.026687732 -0.03535823 0.008529264 0.017059414
0.06384999 -0.06626152 0.035190877 0.065069735 -0.06278693 0.054482087 0.0644717 -0.043862976
0.039005626 0.1023044 0.07460154 0.10106749 0.10583674 0.032919902 0.014665813 -0.024702184
-0.0018040192 -0.024030404 -0.085693374 -0.070818655 -0.06204474 0.016505977 0.06572482 0.021552902
-0.067764185 0.0037521385 0.0040018866 0.01632472 0.07588571 -0.07225176 0.02018501 -0.07780706
-0.041462313 -0.052732002 -0.017498096 -0.05924132 -0.07945466 -0.058290325 0.051376656 -0.0815153
0.047392353 -0.040879164 0.072608955 -0.027692106 0.03209286 0.073070176 0.017302806 0.05938301
0.09498214 0.038913134 -0.050746795 0.046415377 0.05268718 -0.09067598 0.043153968 -0.04150648
0.047067672 -0.049000837 0.041157532 0.045396786 0.043102168 -0.03913532 0.03386637 -0.01451197
0.0399958 -0.007853623 0.02001457 0.008057034 0.05568226 -0.0009795701 0.079182245 -0.009230652

conv3.bias f4 [32]
00000000: 7cfb 513c 365b 98bd 3924 2c3a eca4 993d
00000010: e20b 83bc b511 97bd 8550 033b 06fe 1cbd
00000020: 346e f03c 13e2 f83a 65ae 17bd a026 88bd
00000030: 35cd 36bd 8e75 05bd 5136 a3bd 6385 89bc
00000040: 33c4 9cbd 9eca 7dbd 4434 a7bc bae2 2c3c
00000050: 4d64 a2bd 6a17 17bd cf0a 11bd 5b40 8cbb
00000060: 2532 adbc 945a b1ba c0bd 9c3c f9de 963b
00000070: d0ec 663d 0bfc 343a 96c7 8d3d 34cc 0c3d
0.012816306 -0.07439272 0.0006566677 0.075021595 -0.015996877 -0.07376424 0.0020037007 -0.038328193
0.029349424 0.0018988274 -0.03703155 -0.06647992 -0.044629294 -0.032582812 -0.079693444 -0.016787237
-0.076546095 -0.06196081 -0.020410664 0.010552103 -0.07929287 -0.036887564 -0.0354107 -0.0042801327
-0.021142075 -0.0013531023 0.019133449 0.004604217 0.056378186 0.00069040124 0.069228336 0.03437443

conv4.weight f4 [32, 32, 3, 3]
00000000: 8581 f13c d277 61bd d805 05bc 6b33 23bd
00000010: fa8c 5abd 98c2 d5bc adf5 84bd fc83 d8bd
00000020: fe97 0a3c 15b0 90bc 3c4b a43c 39d9 cc3c
00000030: 7bc0 853c 3197 363c 3d87 9abc 974c aebd
00000040: 1a9a 3b3c c301 1e3d 4d6c 8cbc b673 99bd
00000050: 2157 98bd 6776 c93b f6db 573d 0179 cebb
00000060: 6786 253d 7d7a 113b ee49 983d 658a b1bb
00000070: c675 b63a 26f1 43bd dd66 0c3d 0dcb 52bb
00000080: 86a7 3b3d 9649 db3c 3b68 66bd e023 83bd
00000090: b130 8c3d fb01 fb3c 251f 843c 53cc f93c
000000a0: 9726 5bbd 4a5e 02bd 5022 bf3c 5bdc 0ebc
000000b0: 9375 e03c 709f 2a3d df4d e93c 6367 453d
000000c0: 2566 c0bc c3b4 243c 1499 19bc 76eb d8bc
000000d0: 121c 4fbc 2ec1 a43b 3ff1 87bc b1c7 863d
000000e0: d606 e73c 850e 51bd fac2 34bc 2f5c 38bd
000000f0: 0078 93bc 0bb1 22bd bf86 b9bc 7a53 2ebd
00000100: 1e8a b5bd 23e8 1bbd eec7 30bc 2695 ff3c
00000110: 1124 48bd 8013 b43b 4a05 74bd ff0b 3cbb
00000120: ba7e babd fc78 433d 4e9e 973d 0f81 ae3c
00000130: 0d77 66bd 9064 64bc 940c 38bd 06e9 053d
00000140: 4093 21bc 2115 003d 4dc3 803d 9abe 693c
00000150: 521d 87bc 08c1 d43b 7587 533d f454 a53c
00000160: 97fc 4abd 9d69 f73c 04cd bebd 3c0f f1bc
00000170: 6595 8a3d b1c6 88bd 23a6 333d 3829 383c
00000180: ce1e 3d3d a754 1fbc 4f1f 10bb 0578 dfbc
00000190: 8238 cebd 287c 5cbd 87a3 a2b9 4206 08bd
000001a0: f507 eb3c b51c d23b 9394 ee3b 4957 0bba
000001b0: 15b5 3dbd 1e14 523d 3a9e f93c 94c0 bbbd
000001c0: d657 a0bd e625 293c 423f 2cbd c59a 95bd
000001d0: 0990 86bd 6f81 c13b 54f7 703d d267 483c
000001e0: 3821 a13d 60c8 503d 11cf 1abd 6c1b 743d
000001f0: b824 ffbc 672b 6b3d 41db 6a3c d308 eebc
00000200: d08f 6dbc 77ae 483d f230 6fbd 8cf9 543c
00000210: 311f be3c ef7c 623b 3fba a9bd 5eba cfbc
00000220: ad9a 44bd f8d9 ffbc 08f5 7bbc 708b 09bd
00000230: 99a1 4dbd dcd8 813d 4620 f03c 6984 a93d
00000240: f94d a238 2f11 483c 88c5 bf3d f785 9fbd
00000250: c393 54bb d85e 4b3c e69d 2a3c bc25 bfbb
00000260: 2c9e b6bc dd5a 92bc a38c 5ebd a315 e0bb
00000270: e982 bfbc 8150 7a3c 5703 6c3d 39be 70bd
00000280: c46c 6d3c 36b3 763c 1175 ffbc bcf4 5cbd
00000290: 5744 d93c f189 65bd d050 83bc cce1 f4b9
000002a0: 88e3 333d 3c00 b2bb 71dc e53c 92b4 293d
000002b0: 31f8 9f3c 7258 e9bc 943b 253d 3cf0 30bd
000002c0: 4a20 f43c 39ba 9b3c 87df 163c f422 5c3d
000002d0: a144 02bd 2588 f4bc 87e6 043d c212 763c
000002e0: d391 603c 6244 863d 64b4 153c a1d7 853b
000002f0: b25b 02bd 5d3b 61bd 6342 e5bc aa06 613b
00000300: d7fd 52bc 7463 f2bb 3f96 9e3b 7fb0 71bd
00000310: 0594 ddbc 5f2c 81bc 5244 db3c 8461 1a3a
00000320: ce73 3e3c 64b8 8abc 98f6 16bd 6f49 5abc
00000330: bc9d 8ebd f257 053d 32a3 56bd cde2 0f3d
00000340: 7d08 033d 55e5 ca3c 43c4 12bd 8840 c03c
00000350: 1ef9 25bd 3cb1 c53c ccae fb3c df14 e8bc
00000360: fbb1 fabc c433 01bd a6b6 51bb c452 c4bb
00000370: baa2 cfbc d2c9 ef3c 8010 b33c 489b b4bc
00000380: 6bd0 febb 5991 59bd 8157 4ebc 9609 c43c
00000390: 001a 353d 1a90 213c 0a26 33ba f343 473d
000003a0: 9cfe 51bc d03e 973c cb69 91bc c8c8 073d
000003b0: 257a eb3c 3c79 27bd 6842 6ebc 84af b5bc
000003c0: d746 2f3c a77f 893b 46b5 92bd d23c e4bc
000003d0: 262e dabc 1359 46bb 7202 4d3d 08dd f2bc
000003e0: 9dc4 3abc 7d05 4fbd f242 9e3d 95d8 99bc
000003f0: 72e2 953c bc0e 793c 1c1c b7bd a888 583d
0.029480705 -0.05504591 -0.008119069 -0.039843958 -0.053357102 -0.026093766 -0.064921714 -0.10572049
0.008459089 -0.017662087 0.020055406 0.025005924 0.016327133 0.011144445 -0.018863315 -0.08510702
0.011450315 0.0385759 -0.017141486 -0.07492773 -0.074384935 0.006148148 0.052700005 -0.006301046
0.04041138 0.0022198253 0.07435976 -0.0054181092 0.0013920597 -0.0478374 0.034277786 -0.0032164485
0.04581406 0.026768487 -0.056251746 -0.06403327 0.06845225 0.030640593 0.016128132 0.030492937
-0.0535036 -0.031828202 0.023331791 -0.008719529 0.027399814 0.041655958 0.028479515 0.0481943
-0.023486206 0.010052863 -0.009374876 -0.026479464 -0.01264097 0.0050279116 -0.016594527 0.06581057
0.028201502 -0.051039238 -0.011032814 -0.045009788 -0.018001556 -0.039719623 -0.02264726 -0.04256008
-0.088642344 -0.03806318 -0.010789854 0.03119905 -0.04886252 0.0054954886 -0.059575357 -0.0028693674
-0.091062024 0.0477228 0.07403241 0.021301774 -0.05626588 -0.013939992 -0.04493387 0.03269293
-0.009861767 0.03127015 0.06287251 0.014266634 -0.016493473 0.0064927377 0.051642854 0.02018211
-0.049557295 0.030201728 -0.093164474 -0.02942621 0.06766776 -0.066785224 0.043859612 0.011240296
0.046171956 -0.009724773 -0.0021991318 -0.02727891 -0.10069372 -0.053829342 -0.00031020885 -0.033209093
0.028690318 0.0064121136 0.007280895 -0.00053154357 -0.04631527 0.051288716 0.030470956 -0.09167591
-0.078292534 0.010323977 -0.042052515 -0.073049106 -0.06570441 0.0059053223 0.05882962 0.012231784
0.07867664 0.050972342 -0.03779513 0.059596464 -0.031145439 0.05741444 0.014334501 -0.029056942
-0.01449962 0.048994508 -0.058396287 0.01299895 0.023208233 0.003455933 -0.08287477 -0.025357421
-0.047999073 -0.031231865 -0.015378244 -0.033580244 -0.05020294 0.06340191 0.029312264 0.08277208
7.7392855e-05 0.012211128 0.09363848 -0.07789224 -0.0032436706 0.012412749 0.0104136225 -0.0058333557
-0.02229222 -0.017865593 -0.05433334 -0.006838517 -0.023377853 0.015277983 0.057620373 -0.05877516
0.014491264 0.015057376 -0.031183751 -0.053944334 0.026521845 -0.056039754 -0.016029745 -0.00046707538
0.043918163 -0.005432157 0.028059216 0.04143197 0.019527527 -0.028484557 0.04034002 -0.043197855
0.029800553 0.019009696 0.0092085665 0.05374427 -0.03180373 -0.029850075 0.03244641 0.015019121
0.013706642 0.06556012 0.009137247 0.004084543 -0.03182573 -0.054988254 -0.027985757 0.0034336247
-0.012877903 -0.0073971096 0.004839688 -0.05900621 -0.02704812 -0.015768228 0.026765976 0.0005889165
0.01162429 -0.016933627 -0.036856264 -0.013323172 -0.06963679 0.032554574 -0.05240173 0.035128403
0.031990517 0.024767557 -0.0358317 0.02346827 -0.04052078 0.024132363 0.030722998 -0.028330265
-0.030602446 -0.03154351 -0.0031999736 -0.0059913117 -0.025346149 0.02927104 0.021858454 -0.0220467
-0.00777631 -0.05311713 -0.012594105 0.023930352 0.04421425 0.009861017 -0.00068339764 0.048648786
-0.012817051 0.018462569 -0.017750641 0.033150464 0.028744766 -0.040887102 -0.0145422 -0.022178419
0.010698042 0.0041961255 -0.071634814 -0.027861033 -0.026633333 -0.0030265495 0.05005116 -0.029646412
-0.011399415 -0.050542343 0.077276126 -0.018780032 0.018296454 0.015201267 -0.08940908 0.0528647

conv4.bias f4 [32]
00000000: e45a 5b3d 5d8c 283d fb23 4f3d 92c4 ffbc
00000010: fcb3 b0bc 897d 083c c8fd 483d 540a c93c
00000020: 8765 83bb 4a0d 21bd 9e84 b4bc 8332 dc3b
00000030: ad85 083d 34ea 8dbb 2a80 8dbc 8941 bbbb
00000040: f508 723c ad79 0b3d e977 bdba f711 d03c
00000050: 0ebd 413d 6aa6 2b3d 6152 493d 8a7e f13c
00000060: 945b 8fbc efca c8bc 1502 3cbd 3148 2c3b
00000070: 7a86 92bb a08f a6bc b97a c7bb 998d 543d
0.053553477 0.041149486 0.050571423 -0.031221662 -0.021570198 0.008330711 0.04907015 0.024541058
-0.0040099057 -0.039319314 -0.022035893 0.0067198887 0.03333061 -0.0043308977 -0.017273027 -0.0057145995
0.014772643 0.034051586 -0.0014455292 0.025399191 0.047299437 0.04190675 0.04915083 0.029479284
-0.017499723 -0.024510829 -0.045900423 0.0026288147 -0.0044715973 -0.020332158 -0.0060876277 0.05189285

bn21.weight f4 [32]
00000000: cf2a 793f b6d8 813f 5b56 833f 7157 743f
00000010: 967f 793f 1e45 7d3f 2cc7 7c3f a968 7f3f
00000020: 2efe 7c3f 2b06 843f 9819 833f 760f 883f
00000030: 6488 813f 06cc 803f c820 7d3f 5344 723f
00000040: 3f2f 7e3f ca3d 733f 04d4 783f 7e21 7e3f
00000050: 7063 813f e926 7f3f 9710 783f 2bff 793f
00000060: 1cc5 6f3f 6c95 803f 0e5d 763f c62a 7c3f
00000070: 5017 813f 883c 7d3f 11aa 7e3f 1293 803f
0.97330946 1.014426 1.0260729 0.95445925 0.97460306 0.9893359 0.9874141 0.99769074
0.9882535 1.0314382 1.0242186 1.0629718 1.0119748 1.0062263 0.98878145 0.94635504
0.9929084 0.9501616 0.9719851 0.99269855 1.0108471 0.9966875 0.96900314 0.9765498
0.9366014 1.00456 0.9623574 0.9850277 1.008524 0.9892049 0.9947825 1.0044882

bn21.bias f4 [32]
00000000: 260c b0bd a98f 1ebe 06e3 1dbe a08e 85bd
00000010: d40d 17be e78f 0bbe 24a3 a13c c0b3 1d3d
00000020: 24e2 f1bd 7fe7 38be 51ee c837 f7f4 5dbe
00000030: 647c 04be bc36 353d a434 f9bb b078 0ebe
00000040: 210a 123d df65 16be ea01 90bd afae 68bd
00000050: 7b36 97bb df69 26bc bda7 93bd 621a 02be
00000060: 92fb afbd 453e bbbd 0710 1ebe 2879 febd
00000070: 478e 36be a422 43be 2a41 44be 0dcb 373d
-0.08596067 -0.1548449 -0.15418634 -0.06521344 -0.14751369 -0.13629113 0.019731112 0.0385015
-0.11810711 -0.18057059 2.3952833e-05 -0.21675478 -0.12938076 0.044241652 -0.007605152 -0.13913226
0.03565419 -0.14687298 -0.07031615 -0.056807216 -0.004614649 -0.010157078 -0.07209728 -0.12705377
-0.08592905 -0.09142736 -0.15435801 -0.124254525 -0.17827712 -0.19056183 -0.19165483 0.04487138

bn21.running_mean f4 [32]
00000000: 5ba9 cf3e 92e9 553f 91c7 ef3e 7624 c8bd
00000010: 3f8d 2d3f 413f c23e a126 f8be 3406 19bf
00000020: b182 263f fd91 d83d 110b 27bf c462 bc3d
00000030: b0c9 013f 737f 88bf 9af7 debe 56d2 593f
00000040: 6d1b 20bf 1dba e83d 0ce2 833e b9e8 fdb9
00000050: a025 d3be 346c 17bf 5c2c 8c3e b91a 3f3f
00000060: 3a79 be3b d359 403f f357 373f 7176 143f
00000070: e769 6c3f 2fb6 543e 347d ab3e 5f22 0abf
0.40558895 0.83559525 0.46831945 -0.09772579 0.6779365 0.37938884 -0.48466972 -0.5977509
0.6504317 0.1057472 -0.6525126 0.091985255 0.50698376 -1.0663894 -0.4354828 0.8508657
-0.6254185 0.11363623 0.25758398 -0.00048429312 -0.41239643 -0.5914948 0.27377594 0.7465015
0.005812791 0.7513706 0.71618575 0.5799323 0.92349094 0.20772623 0.3349396 -0.53958696

bn21.running_var f4 [32]
00000000: d07b ca3d 2818 233e aec4 af3d 296a 033e
00000010: 7ead 5e3e 59ec 213e d478 9e3d ddec 803e
00000020: e82c 233e 78b7 863d 1118 a23d 1e1f 883d
00000030: 1545 bd3d 3de1 6a3e a942 1e3e 4490 383e
00000040: 218b d43d 0951 1b3e 96b1 3d3e 9444 623d
00000050: 835e 813e 03e6 873e de2c 133e 963f 443e
00000060: bdfd f03d 92bd 473e 36cf 3b3e 44e3 363e
00000070: b543 6f3e eae5 a03d cded d03d 8080 843e
0.098868966 0.15927184 0.085824355 0.12833466 0.2174587 0.15812816 0.0773789 0.25180712
0.15935099 0.06577963 0.079147466 0.0664656 0.09241692 0.22937484 0.15455116 0.18023783
0.10378099 0.15167631 0.18524775 0.055241182 0.2526742 0.26542673 0.14372584 0.19164881
0.11767147 0.19505909 0.18340763 0.17860132 0.23365672 0.078563526 0.10201607 0.25879288

bn22.weight f4 [32]
00000000: d51c 813f 64fe 7b3f 26f7 843f d90a 883f
00000010: 1d4e 7b3f 1cbe 813f eb17 6d3f c5c4 8a3f
00000020: 98f4 7e3f 3f31 743f 00ad 743f 9e56 7f3f
00000030: 08af 6d3f 0311 6f3f 4cec 833f 2f36 7e3f
00000040: f3af 713f 59b6 7d3f 722d 813f 6a6e 7c3f
00000050: 2e5c 813f 71ef 7d3f f6c7 743f 0996 843f
00000060: 35d8 7b3f 8aea 753f 3a5c 753f 5365 7b3f
00000070: 7be7 6e3f cd00 6d3f b3f6 803f 3e08 863f
1.0086924 0.98435044 1.0387924 1.062831 0.98166066 1.0136142 0.9261462 1.0841299
0.9959197 0.95387644 0.9557648 0.9974154 0.928452 0.9338533 1.0306487 0.9930143
0.944091 0.99106365 1.0091994 0.9860598 1.0106256 0.99193484 0.95617616 1.0358287
0.9837678 0.96061003 0.9584385 0.98201483 0.9332196 0.92579347 1.0075287 1.0471265

bn22.bias f4 [32]
00000000: e4f0 11bd 3faf 5cbe f3e7 17be e61b 06be
00000010: f534 7cbe c52a 72be a2ec 1abe aae3 09be
00000020: 5392 5fbe 9a79 afbd b216 1cbe 4aad 14be
00000030: 6102 30be bba3 7fbe a14b 0fbe ef6d 42bd
00000040: 2b24 e5bc d1a1 75be 7229 983c 31f1 0fbe
00000050: b3f3 5abe 197d 15be aacc c0bd 45f4 4cbe
00000060: 5655 22bd 8544 9dbd 1545 f4bd 187f 93bc
00000070: 6bfa debd 4026 4cbe 2f63 cbbc 04fa 78be
-0.03563012 -0.21551226 -0.14834575 -0.1309658 -0.24629577 -0.23649128 -0.15129331 -0.13465753
-0.21833162 -0.085681155 -0.15243033 -0.1451923 -0.17188407 -0.24964802 -0.13993694 -0.047468122
-0.027971348 -0.2398751 0.01857445 -0.14056851 -0.21382026 -0.14598502 -0.094140366 -0.20015056
-0.039632164 -0.07679085 -0.11927239 -0.018004939 -0.10887607 -0.19936466 -0.024827568 -0.24314123

bn22.running_mean f4 [32]
00000000: e18d 97be bea9 d53e 0c28 413e 7da5 b2bd
00000010: d345 203f 4191 2d3f 32d6 9f3f 362a 93be
00000020: 972c c53d 82ea d53f 31d4 6f3f a461 7e3e
00000030: 587f 593f 66e3 b33e 8fd8 493f 094f ffbe
00000040: 2773 273d cd8d 6d3f a72e 08bf 4179 533d
00000050: 671b d53c 0911 ed3d d272 ae3f 0a16 1f3e
00000060: 337f 7abe e372 47bd 3ee7 013f dfa8 a6bc
00000070: b353 683f b733 a53f 639f febe 0cb1 31bd
-0.29600433 0.41731066 0.18862933 -0.08722971 0.62606543 0.67799765 1.2487242 -0.28743142
0.096276455 1.6712191 0.93683153 0.24841934 0.84959936 0.3513443 0.7884607 -0.49864987
0.040881302 0.92794496 -0.53196186 0.05162931 0.026014043 0.11575515 1.362879 0.15535751
-0.24462585 -0.04869355 0.5074347 -0.020344196 0.90752715 1.2906407 -0.49730977 -0.043381736

bn22.running_var f4 [32]
00000000: 487f 0d3e dc83 ec3d d9c6 6d3e c4b6 7c3e
00000010: 6721 4a3e b6fe 923e f5a4 9d3e a9cd 893e
00000020: c486 493e 09b4 fb3e 43c4 923e 4488 393e
00000030: 42ac 963e 4d38 3d3e 3da9 513e bce1 4a3e
00000040: a8ee c13e f052 643e f06a 153f 1cc4 ea3d
00000050: a779 153e 07ba a13e 53a8 cb3e 8249 123e
00000060: 0f27 573e c583 793e a7e8 673e 18c9 1f3e
00000070: d201 a63e e3f5 af3e 2495 2a3e d84c 6b3e
0.13818085 0.11548588 0.23220386 0.24679095 0.19739304 0.28709954 0.30789915 0.2691472
0.19680315 0.49160793 0.2866536 0.18118387 0.29428297 0.18478508 0.20474716 0.19812673
0.37877393 0.22297263 0.583663 0.11463186 0.14597188 0.3158724 0.3977686 0.14285854
0.21010993 0.24366672 0.22647344 0.15604055 0.32423264 0.34367284 0.16658455 0.22978532

conv5.weight f4 [64, 32, 3, 3]
00000000: 1a42 8cbd edfb d03d db83 08bd 4b04 8d3b
00000010: baae 2fbd 362f 8c3d 2113 0dbe 3709 ff3b
00000020: ec69 8ebd a6b7 803d c040 ee3b dc5d 303d
00000030: 35b4 053d 11f7 123d 567a 92bc ee13 8a3d
00000040: 7076 fcbb 2197 3b3b ca95 003d 3500 c9bc
00000050: a8bf 3dbd cf3c 7dbc 3fd0 76bc 7293 4f3b
00000060: e5a4 0a3d 4faa 9ebd 6f97 bfbc bfd3 e73c
00000070: b387 9e3c 7229 ae3d d240 d63c 6645 52bc
00000080: 3867 2ebc f54b 163d 25c6 21bd fff0 f43c
00000090: 2310 6a3c 3842 21bd e83e 253c 8c67 8c3a
000000a0: dc06 4d3d 09f6 a53c 008f 56bd 39e3 a13a
000000b0: f0ad 393d 9d5d 5b3d 6f4c aabd 5db7 81bc
000000c0: 980f 19bd 99c9 583d 1193 053b 3ec3 623c
000000d0: 2d27 e7bc 6e49 5f3d 69f0 51bd 579d 11bd
000000e0: 2754 0ebd 3cb7 f13c a34f 45bd 17b7 333c
000000f0: 7a75 b4bd 8733 1bbc 67b6 1bbd dd58 fd3c
00000100: 0625 393d ae0c 083c 80b8 1ebd 8235 0c3d
00000110: 4356 2f3c 611d b43b 86d1 943d 95fc a43b
00000120: c6a9 51bd 6991 27bd 56dd 01bb aaeb d63c
00000130: 8f95 d6bc 095a be3b 1836 863c ffbc 8bbc
00000140: 9fc7 a43d d804 1e3d 3a64 6abd 0c20 02bc
00000150: 2977 e33b 3ac5 23bc 9970 55bd 89c0 96bc
00000160: 5adf c5bb 9023 d1bc 6ac6 453d 4d8f 0bbd
00000170: 99c0 4dbd 2c1e bfbb bc26 a83c ea95 6dbc
00000180: 3a12 01bd 6fd2 1c3c 8114 b33d 28ad 7bbd
00000190: 1c3c 76bc 5595 4d3c 7b93 aebc bf35 6ebc
000001a0: 4c98 fa3c 79d8 a03b 6a4c 433c e3eb 1d3d
000001b0: dfb4 a43c 9d9d 9d3c 0fec 723a 1cc7 50bd
000001c0: 81a9 943b fa0e 013d 3526 99bd a6f3 8fbd
000001d0: 958b 803d e681 c4bc e565 d6bc 13d0 543d
000001e0: 73e7 ecbb 2132 7ebc dacb 853d 299f 133b
000001f0: 56a5 ea3c e4bb 42bc 704c 85bd 66dc 16bb
00000200: 3605 f6bc 89a3 e8bc 02fd 73bd c063 233d
00000210: c7a7 22bd 6e8f 9a3d 8a42 e83c 14a8 01bd
00000220: c194 6f3d f9ce 8bbd 5929 4dbd 8543 92bd
00000230: 6ac9 df3c c0eb c4bd e9cb ec3a 7e66 acbd
00000240: 62ec 96bd 3714 eebb 48b4 1dbd 99e1 a13b
00000250: 1c07 a33c 367e b33c 55b9 4ebd 1c77 13bd
00000260: 6a94 45bd e07a a43c 730f 193d 2e7d 46bd
00000270: b27f ac3a 3c03 22bd 3eb3 0ebd 6467 4abd
00000280: 5ea4 cb3c 094a 703d e1f4 fd3c e60c ed3b
00000290: eb16 92bc 4aa8 14bd 6b43 48bd 86a1 383d
000002a0: aee8 003d a8d3 1abd 58b0 bcbc 3db2 ae3c
000002b0: 8b1e 49bd beb5 b83c c744 5dbc 7eef 68bc
000002c0: 8f1a 493d fe49 54bd 8fd2 14bd 9804 673d
000002d0: dfe8 ebbc 82d2 39bb b9c0 41bd 24e5 363d
000002e0: 8fa0 033d c340 14bd 7a5c 39bd d940 cabc
000002f0: aef5 3bbd c084 e0bc 8773 76bb 31da 693b
00000300: 24f6 4ebd 8acc 49bc 5266 f53c 3311 1fbd
00000310: f2c7 13bc 5335 513d 4a96 dc3a c8c7 0a3c
00000320: 8c41 8bbc 8317 5bbd 1ec1 6ebd 8d64 023b
00000330: a9ca 633c 3cbc a7bb 948c 8ebc 8d8c 71bd
00000340: 489f 8bbc 5792 683c b49a 3c3d d6e8 8f3a
00000350: ff0a 603d 2ee1 443d 73de 003d 537c 82bb
00000360: 7830 7c3b 75a1 4a3c 76a5 263b 72cb 1b3c
00000370: f0a2 2fbd 4eaf 703c 803d 003c ad16 053d
00000380: 6e8a 003d 64f2 543d 61f6 5abc 9ca3 26bd
00000390: db13 75bd ea68 303d 3136 98bc a424 d43c
000003a0: 3991 f2bc 4d62 643d c028 7fbd 8f0a b3bb
000003b0: 5576 90bd 4adf 14bd ede7 663c f8f9 45bd
000003c0: 3a97 b63c b8a2 9f3c 76f8 65bc a5f1 b63c
000003d0: 092b 57bd 0dc9 33bc f269 76bd 3d24 90bd
000003e0: e1a0 9f3c 10d9 84bc ea16 74bc c4b4 8dbb
000003f0: 1419 cabd 3bfa 4ebd 692d f8bd 76e1 6cbb
-0.06848545 0.10204301 -0.033328872 0.0043034903 -0.04289124 0.06844942 -0.13776828 0.007783081
-0.06953797 0.06285028 0.0072709024 0.04305826 0.032642562 0.035880152 -0.0178806 0.067420825
-0.0077045485 0.0028624015 0.03139285 -0.024536232 -0.046325356 -0.015456392 -0.015064298 0.0031673578
0.033848662 -0.077473275 -0.023387639 0.02829921 0.019351816 0.08503999 0.026153956 -0.012833929
-0.010644726 0.036693532 -0.039495606 0.029900072 0.014286074 -0.03936979 0.010085799 0.0010712012
0.05005537 0.02025892 -0.05238247 0.0012351043 0.045331895 0.053556073 -0.0831536 -0.015834505
-0.037368387 0.052926634 0.0020381848 0.013840495 -0.028216923 0.054513387 -0.051254664 -0.03555044
-0.034748223 0.029506318 -0.04817165 0.010968945 -0.088114694 -0.009472734 -0.03801575 0.030926162
0.045201324 0.008303804 -0.03875017 0.034230717 0.010701719 0.0054966663 0.07266526 0.005034993
-0.0511873 -0.04091016 -0.0019815764 0.02623542 -0.026194362 0.005809073 0.016383216 -0.017057894
0.08045887 0.038578838 -0.05722449 -0.007942211 0.006941695 -0.009995753 -0.052109335 -0.018402355
-0.0060385885 -0.025529653 0.048284926 -0.03407221 -0.050232504 -0.005832454 0.020526282 -0.014501074
-0.031511523 0.009571656 0.08744145 -0.06144443 -0.01502898 0.012547811 -0.021310559 -0.014539181
0.030590199 0.004908618 0.011920074 0.038555037 0.020105777 0.019240195 0.0009266743 -0.050971135
0.004536808 0.031508423 -0.074779905 -0.07028894 0.06276623 -0.023987722 -0.026171634 0.051956248
-0.0072297393 -0.015514881 0.06533022 0.0022525287 0.028643291 -0.011885617 -0.0650872 -0.0023019551
-0.030031782 -0.028398292 -0.05956746 0.03989005 -0.039710786 0.07546888 0.02835204 -0.031654432
0.058491472 -0.06826586 -0.05008826 -0.071417846 0.027317721 -0.09615278 0.0018066141 -0.08417986
-0.07369305 -0.0072655934 -0.038502008 0.0049402234 0.019900851 0.021910768 -0.050469715 -0.036002263
-0.04823724 0.020078123 0.03736825 -0.048459224 0.0013160615 -0.039553866 -0.034838907 -0.049415007
0.02485865 0.058664355 0.031000556 0.0072342036 -0.017833194 -0.036293305 -0.04889242 0.045075916
0.0314719 -0.037799507 -0.023033306 0.021325225 -0.049101394 0.022547599 -0.013505167 -0.014217256
0.049097594 -0.051828377 -0.036333617 0.056400865 -0.028797565 -0.0028354232 -0.047302935 0.04465212
0.032135542 -0.036194574 -0.04525421 -0.024689125 -0.045888595 -0.02740705 -0.003760548 0.003568303
-0.050527707 -0.012316832 0.029956017 -0.03883476 -0.009019839 0.051076245 0.0016829458 0.008470483
-0.016999029 -0.05348922 -0.05828964 0.0019896359 0.013903298 -0.005118875 -0.017401017 -0.05897193
-0.017043725 0.014195046 0.046045974 0.0010979425 0.054697987 0.04806631 0.031462144 -0.0039821058
0.0038481038 0.012367596 0.0025428212 0.009508954 -0.04288 0.014690233 0.007827163 0.03249233
0.031382017 0.051988974 -0.013364405 -0.040683374 -0.05983339 0.043068804 -0.018580528 0.025896378
-0.029610263 0.05575781 -0.06229472 -0.005463905 -0.0705382 -0.036345758 0.014093381 -0.048334092
0.022288907 0.01948677 -0.0140362885 0.022332022 -0.052531276 -0.010973227 -0.06015963 -0.07038162
0.019485893 -0.016216785 -0.014898041 -0.0043245275 -0.098680645 -0.050531607 -0.12118036 -0.0036145127

conv5.bias f4 [64]
00000000: d7c5 c13a abb8 9bbc 711d 42bd 3b2f 433d
00000010: dccc 17bd ea57 403d edff 483c 6481 0c3d
00000020: fd5c dabb 3c33 2abc a198 943c bc4b 4bbd
00000030: fb77 22bc c0c5 593d 612f 003d e74b b43c
00000040: 4245 80bc 5d11 85bb 631d 5fbd 542e 71bb
00000050: 3760 3a3d 5b8b 803c 512a bfbc 33fc d2bc
00000060: 91fb d1bc 5280 5cbc e4ff 3cbc c856 ea3b
00000070: 448d c23c 7cc2 073d 1bbe 2a3d b77f 263c
00000080: fdb4 853c 5517 173c c51e bebc fec1 37bd
00000090: 5741 d9bc f6e7 c3bc 3c96 b83c 62ff 37bc
000000a0: 0f75 b83c 71f9 5cbd 242a 5aba cb29 bbbc
000000b0: e491 81bb 8dfa cbbc 511d ffbc b3a6 4fbd
000000c0: 9615 c0bc 7943 633d 5d3b 2f3d 9edd a7bc
000000d0: 9267 3b3d 32b9 103d c69a e7bb 6fb4 11bc
000000e0: 8719 673d e3ef a2bc c209 c6bc cd4d df3c
000000f0: 35e0 3e3d 1806 9d3c 0319 cf3c f729 74bb
0.0014783692 -0.019008955 -0.04739136 0.047652464 -0.037060603 0.04695884 0.012268049 0.034303084
-0.006663917 -0.010388192 0.018139185 -0.049632773 -0.009916301 0.053167105 0.031295184 0.02200885
-0.015658025 -0.0040609078 -0.054471385 -0.0036801295 0.045501914 0.01569145 -0.023335608 -0.025755024
-0.025632652 -0.013458328 -0.011535618 0.0071514584 0.023749001 0.03314446 0.041685205 0.0101622855
0.016321654 0.009221871 -0.023208031 -0.04486274 -0.026520414 -0.023914319 0.022532575 -0.011230322
0.022516755 -0.053948823 -0.00083223195 -0.022847077 -0.003954159 -0.024899745 -0.031141909 -0.050696086
-0.023447793 0.05548427 0.042781223 -0.020491417 0.04575307 0.035332866 -0.007068011 -0.008893116
0.05642083 -0.019889778 -0.024174575 0.027258778 0.04660054 0.019167945 0.025280481 -0.0037256458

conv6.weight f4 [64, 64, 3, 3]
00000000: ba4a a63c 6b83 02bd a003 06bd 8bbb ec3b
00000010: 4050 f8bb 0858 9c3b d23b 703d 7d53 9c3c
00000020: ed94 9bb9 9992 3a3b 7e73 953c 182a 68bd
00000030: 20d3 2b3c 35af e9bc 3805 09bd bcec be3c
00000040: 6b98 603c 54a9 f8bb 2179 08bd 07c0 d13c
00000050: 875d c6bd b82e 083c 6adb 6d3d 1983 e2bc
00000060: 41d4 25bd 5e05 1c3d f370 fbbc fede 0f3c
00000070: 1d68 a83b 6afa 5dbd e8da 1e3b d420 19bc
00000080: 093e e03c c850 dd3c 1d00 b13c ea56 86ba
00000090: 9aa2 46bc 3087 623d 6bf3 b2bb dddf 3fbd
000000a0: ebc7 89bc 3133 8abd 2d3d 1b3d 9a1d 8c3d
000000b0: 9441 663d d0c6 473b 02cd 72bd e9ce 433c
000000c0: 302f 1bbd 6a96 4ebe 02f1 f2bc fbd7 3fbd
000000d0: d59c 8abd fe99 163d 0241 e9bb 0f83 613c
000000e0: e465 06bd 5bf3 4fbc 1ec3 3d3d 2e89 403d
000000f0: 8ed0 233d d57d e1bc 5fa1 173d 3a3c ccbb
00000100: 18ac 773c c5d7 45bd 7356 deb9 24b3 1e3d
00000110: 4f4d 093d d261 043d 1b1c 503d 1a5f 2bbc
00000120: 1a70 cebd ef1a 733d 7101 23b9 c854 a7bc
00000130: 53f4 613c ce72 673d 05b6 d8bb b962 4b3c
00000140: 6d76 86bc 5c92 09bd bead fdbd 417a 17bd
00000150: 079b 693c f41f b53a 8477 0fbd 0af2 38bc
00000160: cfab 0abd d523 483c 31bb 0fbd 87b0 f63c
00000170: d0ee 1839 4afe a7bd 2a00 9abb baca 00bd
00000180: 2748 30bd 003d 07bd af24 283c 0204 19bb
00000190: 9a04 3a3c f203 61bd 3e02 27bc e643 90bd
000001a0: 22a7 4e3c 8e3d 283d 6948 283d 469a a5bd
000001b0: 58b6 8f3b 1f2f 0fbe abcb 353c aaa2 e63b
000001c0: 13c9 cfbd 84ab 8a3c b13a cabb 2993 16be
000001d0: 2636 64bd 5833 b83b f3d7 c7bb f787 37bc
000001e0: a9af f53c 6bcc 163d 804f 793d c8c5 933d
000001f0: 5055 523c 5b3d 32ba a300 84bc bdfa fbbb
00000200: d8b0 b93c 6654 663c 78fc 04be ffdf 793c
00000210: 91c6 0abc 97ae 683c cae6 013d 918e 5abd
00000220: c264 c4bc b8bf 4cbd 9a31 bd3b 0559 3fbc
00000230: e291 6ebd 0848 12bc 9a58 6ebc 6c46 43bd
00000240: f1d4 6bbb 9fee 823c 5e21 7f3c 753b db3c
00000250: 0f90 943c 6eba e4bb 3a18 50bd 01d2 20bd
00000260: c810 7dbc 9acb f13c c23b 433c e380 183d
00000270: 6472 fbbc d19a ddbc 8cb1 d1bc 4ba1 de3c
00000280: 9392 29bc 8705 553d 6f51 b3bd ff56 97bd
00000290: e223 6ebe e0e9 6a3c cc0d 5f3c f1d8 57bd
000002a0: f4cd 92bb ad5c 1b3c 0b86 eebc 5904 dd3c
000002b0: f1da f03c 8c3d 00bd 3001 36bd e501 4cbd
000002c0: 3b39 07bd 3cb9 323c 2ebb 7b3d bc3d c83c
000002d0: 0b36 66bd b432 3cbd fbac 9bbc 6a6b 1c3c
000002e0: ca84 a9bd a3ea 6bbd 27c4 c53b 1a81 14bd
000002f0: f624 0bbc 40e5 b2bc 5a17 80bd 586f 8cbb
00000300: 8161 4bbd a5fa 513c ff9e ddbc 2104 acbc
00000310: 4899 85bd 7247 c3bc a6a2 2d3d 644a b9bc
00000320: 8483 a3bd 2b6a 773c 35f2 673d 5044 20bd
00000330: 29a2 a0bc d6af 203d b80b 37bc 125c bfbc
00000340: d82d 49bd a874 633c eacd d9bb a2bd ba3b
00000350: b236 53bc c1ae 8ebc 0638 d9bc 4929 d3bc
00000360: 60f1 9dbb e4e4 383d e450 913c 2501 78bd
00000370: 9c6f 15bd 8f4b 09be 01a3 723d a4c2 97bc
00000380: e5d9 b33b a929 053d f1a1 123d caea 65bd
00000390: ee77 1ebd 0180 c7bc 811f 7bbd cf92 083c
000003a0: f262 00bc 7a19 2bbd 127e 853c 4369 843c
000003b0: 222c 82bc 1491 88bd 3b5e a93b 1291 503d
000003c0: 8ce0 05bd d88f 8e3c 8674 513c afd7 943d
000003d0: fd9c 0ebe 76f4 68bb d8ee cd3c c909 7cbd
000003e0: fe55 da3c c589 793d 1e79 35bd f856 1c3d
000003f0: 62d1 06bd 5c42 0ebd ab58 91bc d874 bf3b
0.020299304 -0.03186361 -0.0327183 0.0072245053 -0.007577926 0.0047712363 0.0586508 0.019082779
-0.00029674862 0.0028468727 0.018243548 -0.05668077 0.010487348 -0.028525928 -0.033452243 0.023306243
0.013708214 -0.007588545 -0.033318643 0.025604261 -0.09685808 0.00831192 0.058070578 -0.027650403
-0.040485624 0.038091056 -0.030693507 0.008781193 0.0051393644 -0.05419389 0.0024239365 -0.009346206
0.02737333 0.027016059 0.0216065 -0.0010249291 -0.012123728 0.055304706 -0.0054611466 -0.046844352
-0.016818961 -0.06748045 0.03790014 0.068415835 0.056214884 0.0030483492 -0.059277542 0.011951187
-0.0378868 -0.20174566 -0.029655937 -0.046836834 -0.067681946 0.036767952 -0.0071183452 0.013764157
-0.032812014 -0.012692298 0.046328656 0.047005825 0.039993815 -0.027525822 0.03701913 -0.0062327655
0.015116714 -0.048301477 -0.0004240755 0.03874506 0.033520993 0.03231985 0.050808053 -0.010459686
-0.100799754 0.059351858 -0.00015545428 -0.020426169 0.013791162 0.05650597 -0.0066134953 0.012413674
-0.016413892 -0.033586845 -0.12386654 -0.036981825 0.014258153 0.0013818727 -0.03502609 -0.011288175
-0.033855256 0.012215574 -0.03509063 0.030113472 0.00014584814 -0.08202799 -0.0046997266 -0.031443335
-0.04303756 -0.03301716 0.010262652 -0.0023348336 0.011353636 -0.054935403 -0.010193406 -0.070442006
0.01261309 0.041074328 0.04108468 -0.08086066 0.0043857507 -0.13982819 0.0110959215 0.007038434
-0.10145774 0.016927488 -0.0061715473 -0.14704575 -0.055715702 0.005621355 -0.006098741 -0.01120185
0.029990988 0.036816042 0.060866833 0.07215458 0.012837723 -0.0006799304 -0.016113585 -0.0076898024
0.022667333 0.014058208 -0.12986934 0.015251159 -0.0084701935 0.014201782 0.03171424 -0.05335862
-0.023973826 -0.049987525 0.005773735 -0.011678939 -0.058244593 -0.008928306 -0.014547491 -0.04767458
-0.0035985077 0.015982924 0.01557192 0.02676175 0.018135099 -0.006980232 -0.050804354 -0.039262775
-0.0154458955 0.02951603 0.011916103 0.03723229 -0.030694194 -0.027051361 -0.025597356 0.02717652
-0.010349887 0.052007224 -0.087557666 -0.0738964 -0.23255876 0.014337987 0.013614129 -0.052697126
-0.004480118 0.009482545 -0.029116651 0.026979612 0.029401274 -0.031308696 -0.044434726 -0.049806494
-0.033013564 0.010908421 0.061457805 0.0244435 -0.056203883 -0.04594679 -0.019003382 0.009547094
-0.08277281 -0.057596814 0.006035346 -0.036255933 -0.008492699 -0.02183783 -0.06254454 -0.004285734
-0.049653534 0.012816106 -0.027053354 -0.020998063 -0.06523377 -0.023837779 0.04239144 -0.02261848
-0.07984069 0.015100996 0.05662747 -0.039127648 -0.019608574 0.03923019 -0.011172228 -0.023359332
-0.049115986 0.0138827935 -0.0066468613 0.0056988755 -0.012891458 -0.017417314 -0.026515972 -0.025776522
-0.004820034 0.045140162 0.017738767 -0.060547967 -0.036483392 -0.1340773 0.059237484 -0.01852543
0.0054886215 0.032510433 0.03579897 -0.056132115 -0.038688593 -0.02435303 -0.06130934 0.008335783
-0.00783609 -0.041772343 0.016295467 0.016163474 -0.015890185 -0.066682965 0.005168704 0.0509196
-0.032684848 0.017402574 0.012784129 0.07267701 -0.13927074 -0.00355461 0.025138304 -0.06153277
0.026652332 0.060922403 -0.04430496 0.038168877 -0.032914527 -0.034731254 -0.017742475 0.0058427863

conv6.bias f4 [64]
00000000: e2ce 6ebc 7d79 20bd 6662 d8bc 0faf aabc
00000010: f213 d83c f26b a43c 65a0 a7bc 3383 13bb
00000020: f1bc 013c 34b1 92bc fcd1 d63c 9db5 543b
00000030: e503 493b 25cc dd3c f84a ad39 80b5 f9bc
00000040: 0989 03bd 35d8 9dbc 6570 713a a873 b43c
00000050: 1f43 cc3c c16d b1bc d0de f93c 7d4a d2bc
00000060: 94b7 c33b 78b9 0ebb bc9f 813b d63c 273d
00000070: 6e4a ee3c e566 96bb 3357 1d3d 7d2b e9bb
00000080: 5df2 bd3b 4bee f3bc 93aa f6bb ba3d 963b
00000090: f9d9 fcba cf24 733c 5ff9 96bb 9b9f 5e3c
000000a0: e17b cabc d517 0fbd ff52 953c 2cc5 053d
000000b0: 5bec 0cbc 3f8c 5f3c 89c3 96bc 03ad df3b
000000c0: 8287 08bd 6186 e33c 6887 cebb 3e8b 273d
000000d0: 7a08 1bbb c438 193d 7e92 1c3d 4714 1abd
000000e0: ae3b 983b b42b 8f3c 7849 f1bc f450 253c
000000f0: 3d0f bebc dbbc c0bc de6e d3bc 2416 02bd
-0.014575692 -0.03917836 -0.026414108 -0.020835428 0.026376698 0.020071004 -0.020462224 -0.002250862
0.007918582 -0.017906763 0.026223175 0.0032456883 0.0030672487 0.027074883 0.00033052987 -0.030482054
-0.03211311 -0.019268135 0.00092101685 0.022027805 0.02493435 -0.02165878 0.030501753 -0.025670284
0.005972812 -0.0021778028 0.0039558094 0.040829502 0.029088225 -0.0045899027 0.038413238 -0.00711578
0.005796714 -0.029776713 -0.0075276583 0.004584995 -0.0019291035 0.014840319 -0.004607364 0.013587858
-0.024717273 -0.034934837 0.018228052 0.03265874 -0.008601273 0.013644277 -0.018403785 0.0068260445
-0.033332355 0.027774038 -0.006302763 0.040904276 -0.0023656175 0.03740765 0.038225643 -0.037616994
0.0046457862 0.017476894 -0.029453978 0.0100901015 -0.023200626 -0.023527553 -0.025809702 -0.031759396
