checkpoints/15_best_model2.pth (torch, 307745 bytes, 37 tensors)

conv1.weight f4 [16, 1, 3, 3]
000000 d0 8d 39 3e c8 f3 1f 3e e4 c1 63 be aa ff 70 3e
       0.18120503 0.15620339 -0.22241932 0.23535028
000010 33 9b 34 be 9d 17 b1 be f4 f9 b5 3d cf 53 d5 bc
       -0.17637329 -0.34588328 0.088855654 -0.02604094
000020 cb 98 64 be 36 b2 54 bd 9d 3a fb bd ad 6b 94 bd
       -0.22323911 -0.051927768 -0.12267039 -0.072471
000030 b6 27 79 bd b7 2a 2c be 2c b9 74 be d3 8d 23 3e
       -0.060828887 -0.1681317 -0.23898762 0.1597207
000040 ae 2c 14 be 6a 07 2c 3e c5 80 48 3e 9b a5 40 3e
       -0.14470169 0.16799703 0.19580372 0.18813173
000050 7d 5c 29 3e b0 7d 0a be 7b 3e 9d be 6b a6 0c be
       0.16539188 -0.13524508 -0.3071173 -0.13735358
000060 ac 3f ff 3d f7 c3 a3 be c6 29 84 be 6c 5e 93 3e
       0.12463316 -0.31985447 -0.2581312 0.28782976
000070 27 96 96 be 8d 83 21 3e ae 4c 9d 3e db fd 52 3d
       -0.29411432 0.15772839 0.30722564 0.051511627
000080 80 97 80 be 53 b2 30 be b5 03 93 be 9f 87 87 be
       -0.25115585 -0.17255525 -0.28713766 -0.26470658
000090 6e b0 50 be 3b 2c b1 3d 13 3e 33 be ba e3 3a 3e
       -0.20379803 0.086510144 -0.17504148 0.18250933
0000a0 1d d4 b8 3d 97 5c c2 3c c2 b9 a2 bd ad af a7 3d
       0.090248324 0.02372579 -0.07945587 0.08187804
0000b0 02 8b 08 be 93 cb 09 bd 76 1a 72 3d 60 87 b3 be
       -0.13334277 -0.03364141 0.059107266 -0.3506422
0000c0 4d 7f 60 be 79 17 07 3e 64 1d 37 3e f1 aa 88 be
       -0.21923561 0.13192548 0.17882305 -0.26692918
0000d0 39 8d 37 3e d2 b7 88 be 56 03 46 3e 64 d7 11 3e
       0.17924966 -0.26702744 0.1933721 0.14242321
0000e0 ef 6c 83 be c2 09 5d be 69 aa bd be 30 1d 20 be
       -0.25669047 -0.21585754 -0.37044075 -0.15636134
0000f0 79 ea ab be f4 33 6a 3e 49 7b cd bb 11 35 55 be
       -0.33577326 0.22871381 -0.0062708003 -0.20821024
000100 6d b3 72 be 42 dc 8a 3e 46 a9 93 be 86 ba 96 3e
       -0.23701258 0.27121168 -0.28840083 0.2943918
000110 cd e6 4d 3e 8f f9 4b 3e 28 8c a3 3d 1b c2 8b be
       0.20107575 0.19919418 0.07985717 -0.27296528
000120 61 36 c8 be 3d 32 94 be ad 67 e5 bd c0 ad e0 bd
       -0.39103988 -0.2894458 -0.11201415 -0.1097064
000130 eb 39 42 bd 8f 04 56 3d b3 4f 80 be de a6 3c 3d
       -0.047418516 0.05225044 -0.25060806 0.046057574
000140 11 5a b7 be 93 68 1f be b6 c8 56 3e 3f c0 80 3e
       -0.35810903 -0.15567236 0.20975003 0.25146672
000150 e5 27 02 be 9e 05 11 be dc 43 70 3e 20 3f 3e 3e
       -0.12710531 -0.14162299 0.23463386 0.18578768
000160 53 fc bf bd 7e 51 a5 be 28 1e 78 3e 84 5e e0 3d
       -0.09374299 -0.32288736 0.24230254 0.109555274
000170 10 29 b8 3d 95 17 04 3e ce 64 97 3e f0 1f 07 be
       0.08992207 0.12899621 0.29569095 -0.13195777
000180 55 64 24 be af 9a 7b be 86 24 d3 3d 24 b3 f4 bd
       -0.16053899 -0.24570726 0.10309701 -0.11948231
000190 58 11 d4 bd e4 e7 95 bd 27 85 c2 3d 67 e9 22 3e
       -0.103548706 -0.0731962 0.09498053 0.15909348
0001a0 ab f3 bf be f7 d0 62 3e 68 db 6c be b0 7c 8c be
       -0.3749059 0.22150026 -0.23130572 -0.2743888
0001b0 81 f3 e0 bd 77 a4 13 3d 2a fa 62 3e 31 f2 aa 3d
       -0.10983945 0.036045518 0.22165743 0.083469756
0001c0 df 9c 25 be ae d0 a2 3e 25 07 9c be a0 97 ae be
       -0.16173123 0.31799835 -0.304742 -0.34100056
0001d0 20 f5 82 3e fc 8a 35 3e b6 50 53 3e 29 8b ed 3d
       0.2557764 0.177288 0.20636258 0.11598808
0001e0 18 06 70 3d 8e 97 46 bd d2 af 74 be c8 9c 3d be
       0.05859956 -0.048484378 -0.23895195 -0.18516839
0001f0 ff 8d 83 3e 49 d6 c3 be 38 3a f1 3c eb 1c d0 be
       0.25694272 -0.38249424 0.029446706 -0.40647063
000200 26 88 54 be cf 7e 18 be 81 5e 77 be ed 41 cd be
       -0.20755062 -0.14892124 -0.24157144 -0.4008936
000210 79 53 f9 3b f4 e4 34 be ad f9 ae 3d 45 2f a0 be
       0.0076088277 -0.17665464 0.085437156 -0.31286064
000220 8e 44 8f 3b 0f dc 86 3e 17 ee 10 3d 40 40 8b bd
       0.004372186 0.26339766 0.03538331 -0.06799364
000230 f2 4a c1 3c 9e 93 9a be e9 ad 07 3e ae 96 71 3e
       0.023595307 -0.30190748 0.13249935 0.23592636

conv1.bias f4 [16]
000000 90 6e ae 3e 8d 0f aa be 38 28 a0 3d 6a 28 be 3e
       0.34068727 -0.3321499 0.07820171 0.37140208
000010 6b 91 83 3e ff c8 8f 3e d8 72 79 be 08 c5 40 3e
       0.25696883 0.28083035 -0.24360216 0.18825161
000020 93 05 54 3d bf 5a cc bd 1d d1 ab be cc 13 1a 3e
       0.05176313 -0.09978246 -0.33557978 0.15046614
000030 8a 06 32 3d c2 67 84 be 38 0c da bd c4 97 63 3c
       0.043463267 -0.2586041 -0.10646862 0.013891164

conv2.weight f4 [16, 16, 3, 3]
000000 f9 84 59 3d ea e0 47 3d 70 8f a7 3d 68 c2 4f bd
       0.05310533 0.04879848 0.081816554 -0.05072251
000010 ec c8 61 3d 6d 1a a2 3d 7c 3b a9 bc 6b a0 b9 3d
       0.055123255 0.079151966 -0.020658247 0.090638004
000020 3f 19 89 bd a1 08 a3 3c 9b 90 11 bd 0d 2a 39 3e
       -0.066942684 0.019901576 -0.035538297 0.18082447
000030 22 ca 91 bd a7 46 87 bd c8 8d 82 3c 37 b7 99 bc
       -0.07118632 -0.06605273 0.015936747 -0.018764121
000040 bc 4d 98 3c 72 e5 e2 bc 9a f7 40 bd 1d 92 fe bd
       0.018591754 -0.027697299 -0.04711113 -0.12430213
000050 d7 6f 24 3d 8e 6d 2a bc 3b 10 aa 3d ca c8 b2 3d
       0.04014572 -0.010402096 0.08303877 0.08729704
000060 2b b1 3d 3d da 17 92 bc 99 23 25 3b f8 30 f6 3c
       0.04631154 -0.017833639 0.002519822 0.030052647
000070 84 f3 c0 3d 0d df 86 3d 1e a3 b3 3d 15 df 03 3d
       0.09421447 0.06585512 0.087713465 0.03219517
000080 1b d0 1f 3d 41 72 19 3c b8 e4 33 3c 85 67 7c 3d
       0.039016824 0.009365619 0.010979824 0.06162216
000090 e7 fd 8f 3d 9e 36 87 bd 7f 06 a6 bc 50 e2 ed bd
       0.0703085 -0.06602214 -0.02026677 -0.11615431
0000a0 c7 27 d5 3c 9d 2f 52 bd 83 42 79 bd 98 f3 5d 3d
       0.026019944 -0.05131494 -0.060854446 0.054187387
0000b0 7c ca d8 bd 0b c8 45 bd f9 11 c3 bc 26 0f aa bd
       -0.10585496 -0.04828648 -0.023812281 -0.083036706
0000c0 ee 46 76 bc ae 3b 48 bc 98 f1 83 bd b8 2d 94 bd
       -0.015031559 -0.01222126 -0.06442565 -0.07235283
0000d0 d4 a0 1e bc 2e 0e a7 bd 68 32 75 bd c1 f2 c0 3c
       -0.009681899 -0.081570014 -0.059862524 0.023553254
0000e0 65 56 e3 bb 52 c9 bf bc b0 be 45 bd b8 a6 a2 bc
       -0.0069377893 -0.023411427 -0.048277557 -0.019854888
0000f0 b6 75 02 bc 76 7c 56 bd b6 5c 89 3d 42 c3 86 3c
       -0.007962635 -0.05236479 0.06707136 0.016450528
000100 41 36 83 bd 5e 70 67 bd 7e 9a 86 3b c8 9b 9d bd
       -0.064068325 -0.056503646 0.0041077724 -0.076957285
000110 0d 79 75 bc be d5 0f bc 7c 9c 55 bd 6e 69 7d bd
       -0.014982474 -0.008778987 -0.05215119 -0.061868124
000120 a6 87 6f bd 04 97 01 bd c5 c0 df bc 03 d4 0e bd
       -0.058478974 -0.03163816 -0.0273136 -0.03487016
000130 7d 7b d2 3c 05 0e 70 3b 9d 6e 04 3d 2a b2 68 3c
       0.02569365 0.003662945 0.03233205 0.014202634
000140 db 22 05 3d 1e 67 85 bd f0 2d c1 bd 9f 5c bc bd
       0.032503944 -0.06513809 -0.0943259 -0.091973536
000150 1d 58 47 3c 76 f1 67 3d 1c 2c cf bd 4f 88 2e bd
       0.012167004 0.05662676 -0.10115835 -0.042610463
000160 95 b2 28 3d f7 b5 05 3d 5f e4 24 3d 7a fc a0 3c
       0.041185934 0.03264424 0.040256854 0.01965164
000170 dc 87 e3 bc 1a eb 54 3d bd 29 7e bd c2 f7 6d bd
       -0.027774744 0.051982023 -0.062051523 -0.05809761
000180 5b 83 44 3d 50 df 10 bd ac bf 93 bd f9 8f 16 3d
       0.047976833 -0.035369217 -0.07214293 0.036758397
000190 68 64 cc 3d 8a 5d 02 3b f7 35 47 bd 78 af 8f 3d
       0.099800885 0.001989218 -0.04863545 0.0701589
0001a0 89 18 ee 3b 23 5f a6 3c 96 a6 31 3a fe 32 1c ba
       0.0072661084 0.020309037 0.00067768374 -0.0005958526
0001b0 eb a5 3b bd 17 78 62 bd 85 1c 21 3d 8a 98 b7 3c
       -0.04581253 -0.055290308 0.03933384 0.022411603
0001c0 42 ba cd bd d6 5a b4 bc 30 36 a2 bd c8 2a 9f bc
       -0.100452915 -0.02201597 -0.07920492 -0.01942958
0001d0 fc 2f 96 3d 28 f6 a0 bd a3 e7 4f bd 17 b5 59 bd
       0.07333371 -0.078594506 -0.050758015 -0.053151216
0001e0 e2 77 93 3d 71 46 2b 3c e5 6f 48 bb 8a 91 13 3d
       0.072006 0.010453806 -0.0030584272 0.03602747
0001f0 c3 d6 07 3d 80 9d ca 3d 65 67 ee 3c d6 20 2a bd
       0.033163797 0.09893322 0.029102037 -0.04153522
000200 2a 0b fa 3d c9 22 a0 bd 19 cf b4 3d 72 a3 8b 3d
       0.122091606 -0.07819135 0.08828563 0.06818284
000210 4d b4 06 bd f8 27 0d bd 5e e8 1a 3e ed de a7 3c
       -0.032886792 -0.034461945 0.15127704 0.020492041
000220 ea 57 e4 bc 39 7d ce bd 3f 90 b6 3d 58 a0 a5 3c
       -0.027873952 -0.10082478 0.089142315 0.02021806
000230 5f 6e 97 3c f5 03 39 bc 1b 3f e4 bc ce 0f a0 bd
       0.018485246 -0.011292447 -0.027862122 -0.078155145
000240 98 22 8d bd 90 be 4d bd 93 26 41 3d b1 27 9b bd
       -0.06891364 -0.050230563 0.047155928 -0.0757593
000250 fd ee bd 3d a1 6d 0c 3b b2 ce 32 3d d5 3e be bc
       0.09274099 0.0021427649 0.04365415 -0.02322332
000260 e3 d6 4b 3d 65 9f 8b bd 04 08 42 bd ef e8 d3 bd
       0.04976548 -0.068175115 -0.047370926 -0.10347163
000270 bf 60 d4 bd 44 43 00 be e6 c5 70 bd 70 1a 4f bc
       -0.10370015 -0.1252566 -0.05878248 -0.012640581
000280 3f 5e ce bd 59 83 97 bd b0 80 96 bc 54 79 92 bd
       -0.1007657 -0.073980995 -0.01837191 -0.07152048
000290 8c 5c 64 3c a6 f8 44 3c 18 4c 8b 3b 04 29 ff bc
       0.0139380805 0.012022173 0.0042510144 -0.031147487
0002a0 ed 13 1e 3d 24 cf 06 3d 4d 55 29 bd 37 25 8a bc
       0.03859322 0.03291239 -0.041341115 -0.016863449
0002b0 32 f3 8d 3d 91 7b c2 3c 56 d6 d7 3a 25 17 77 3d
       0.069311514 0.023740562 0.0016467075 0.060324807
0002c0 be 27 bd 3c db e3 1a 3c bf c1 fc bc 7e 54 3f 3d
       0.02309024 0.009453739 -0.030854104 0.046711437
0002d0 3b cc 91 3d 7c 52 f6 bc a4 45 cf bc 51 99 36 bc
       0.07119032 -0.030068628 -0.025301762 -0.011144952
0002e0 5e aa 3c 3b 5d 30 57 3d 5b c4 99 bd 26 74 c3 bc
       0.002878807 0.052536357 -0.07508155 -0.023859095
0002f0 2c 71 e2 3c 48 b3 f2 bb 27 95 a0 bd 89 41 21 3c
       0.027641855 -0.007406626 -0.078409486 0.009842285
000300 77 01 38 bd b6 2e 7f 3d f6 d9 8a 3c f2 4a 11 3b
       -0.044923272 0.062300406 0.016949635 0.0022169915
000310 03 e7 04 bc 45 b8 d2 bd f1 0b da bd fc e6 86 3d
       -0.008111718 -0.10289053 -0.10646809 0.065870255
000320 98 1b f9 bc 4d 2b df bd e9 a2 22 3b c7 3f fd 3c
       -0.030408666 -0.10896931 0.002481634 0.0309142
000330 1e dc 2f 3c c6 80 d7 3a c3 74 28 3d bf 13 96 3c
       0.010733632 0.0016441576 0.041126978 0.018319963
000340 fc 61 9e 3c 0b f6 48 bc 6c 2a d3 3c c0 5b 85 bd
       0.019333832 -0.012265692 0.025777064 -0.065116405
000350 30 7e ef bc 65 a2 d4 3d c0 c4 d5 3c f3 bc df bc
       -0.029234976 0.10382537 0.026094794 -0.027311778
000360 e3 32 eb bd 2c cb c7 3c 2d a0 18 be b2 f9 ed bd
       -0.11484315 0.024388872 -0.14904852 -0.11619891
000370 f6 b6 43 be 49 c5 e9 bd 94 e8 2f bd a8 52 0b be
       -0.19112763 -0.11414582 -0.042946413 -0.1360575
000380 1c b1 1f be 8c c8 56 3d be 63 4b bc 07 4a f2 3c
       -0.15594906 0.05243735 -0.012413917 0.029576315
000390 6e e9 f5 3d fd 83 3b bd 19 15 95 3c d0 a8 92 3d
       0.12007414 -0.04578017 0.018198537 0.07161105
0003a0 fb 6c 98 3d 2c f5 8e bd 70 7b 48 3c 6e cb 7c 3d
       0.074426614 -0.069803566 0.012236461 0.061717443
0003b0 d0 76 68 3d a0 98 22 3d a0 3d 8e bd d2 77 46 3d
       0.056753933 0.039696336 -0.06945348 0.048454113
0003c0 b7 c5 e4 bd 0c a8 2d bd 88 32 ea bc 1f b3 2a be
       -0.111705236 -0.04239659 -0.028588548 -0.16669892
0003d0 34 49 3a 3d f0 b8 78 bc ac 91 a3 bd c8 c3 46 bd
       0.04547997 -0.015180811 -0.07986769 -0.048526555
0003e0 39 bc d3 bc ea 87 9f bd 6a b3 18 3d c7 18 02 3d
       -0.025846587 -0.077895954 0.037280478 0.03176191
0003f0 be fd b6 3c ee 79 c6 bc cc 7f be 3c e8 56 9c bb
       0.02233779 -0.024228062 0.023254298 -0.004771102

conv2.bias f4 [16]
000000 a7 5f 9c 3d d4 64 94 3d 74 8e 99 ba 15 fd 8a bb
       0.07635432 0.07245794 -0.0011715428 -0.0042415955
000010 9b d2 cc 3c 25 9d 16 3c d5 6f 89 bd 5b 80 9e 3d
       0.025002768 0.00919274 -0.067107834 0.077393256
000020 1c aa a7 3d 53 36 6c 3d e8 9a 71 bc a7 33 62 bd
       0.08186743 0.057668995 -0.014746405 -0.05522504
000030 b5 07 62 3c f5 4e 95 bc ff 56 13 bd 10 0a fc bc
       0.013795783 -0.018226126 -0.035971638 -0.030766517

bn11.weight f4 [16]
000000 30 a8 82 3f 4f 05 86 3f 31 e8 8c 3f 60 21 80 3f
       1.0207577 1.047037 1.1008359 1.0010185
000010 e1 a6 6e 3f 28 54 77 3f da 4b 83 3f 8d 17 72 3f
       0.93223387 0.9661279 1.0257523 0.94567186
000020 51 db 83 3f 4a ff 6d 3f 9e a9 74 3f 91 66 8b 3f
       1.0301305 0.92967665 0.95571315 1.0890676
000030 55 c4 81 3f 44 aa 76 3f 47 43 84 3f 0b 95 79 3f
       1.0138041 0.96353555 1.0333031 0.97493047

bn11.bias f4 [16]
000000 73 eb 16 be 60 3e 57 bd 75 39 93 bd de ac 86 3d
       -0.14738254 -0.05254972 -0.071886934 0.065759405
000010 8a b2 c4 3c db 56 0e bd f4 f8 48 bd c8 7f 4c 3c
       0.024010915 -0.0347508 -0.049065545 0.012481637
000020 a0 35 db bc 8e 7a a0 3d 6d 82 42 3d 84 4b cf bc
       -0.026758969 0.078358755 0.047487665 -0.025304563
000030 92 08 ac 3b 18 a4 7e bc b3 45 5c bd 72 2d 0f 3c
       0.005250045 -0.015542053 -0.053777408 0.008738862

bn11.running_mean f4 [16]
000000 54 13 ac 3e 30 f6 ad be af f2 91 3d 65 d4 ba 3e
       0.33608496 -0.3397689 0.07126366 0.3649017
000010 ec b2 82 3e 32 79 8b 3e 66 40 82 be 17 7e 41 3e
       0.25527132 0.27240902 -0.25439757 0.18895756
000020 8f 63 fc 3c 4e 57 cb bd 36 ac a8 be b5 e0 0f 3e
       0.030809192 -0.099287614 -0.32943887 0.14050563
000030 76 5c 32 3d c2 a3 84 be ab 81 02 be 14 55 6b 3c
       0.04354521 -0.25906187 -0.12744777 0.014363546

bn11.running_var f4 [16]
000000 68 58 5f 3a df ed cf 39 de 0f 68 3a 42 e5 5f 3a
       0.00085199485 0.00039659344 0.0008852462 0.0008540937
000010 7f 87 f3 38 d7 a5 b6 39 07 6a 45 3a b3 36 0d 3a
       0.00011612381 0.00034837305 0.0007530753 0.0005386874
000020 d9 2c 9e 3a 85 b2 f0 39 1e e5 00 3a 5c cc 41 3a
       0.0012067809 0.00045909375 0.00049169536 0.00073928176
000030 b5 0f 4e 3a e6 f2 06 3a 3d f9 e1 3a 77 da 03 3a
       0.0007860617 0.0005147889 0.0017240416 0.0005029807

bn12.weight f4 [16]
000000 10 e7 80 3f 10 39 65 3f 6a 8c 8f 3f 86 1d 79 3f
       1.0070515 0.89540195 1.1214726 0.97310674
000010 19 9f 91 3f cf d5 87 3f 54 1c 7a 3f 59 9a 60 3f
       1.1376678 1.0612124 0.97699475 0.87735516
000020 45 13 83 3f c3 ca 79 3f 6d f8 88 3f dc b8 88 3f
       1.0240256 0.97575015 1.0700814 1.0681415
000030 bf 04 79 3f 62 b2 79 3f 36 29 75 3f 29 56 82 3f
       0.97272867 0.97537816 0.9576601 1.0182544

bn12.bias f4 [16]
000000 08 a5 4a bd 16 ce 3a bd d1 9a d7 3c 49 1c 62 bc
       -0.049473792 -0.045606695 0.02631894 -0.013800689
000010 e3 60 13 bd d4 d1 09 3c a0 c4 8c bc d3 99 81 bc
       -0.03598107 0.008411843 -0.017183602 -0.01582042
000020 ba 43 87 bd 88 22 74 bc c0 d9 41 be 2b c2 e5 bd
       -0.06604715 -0.014900811 -0.18930721 -0.11218675
000030 5a 1e 3b bc ab c4 8f bd 3e a0 97 bc 8b 11 12 bc
       -0.011420811 -0.07019933 -0.018509027 -0.008915315

bn12.running_mean f4 [16]
000000 f8 32 5c bc 2c 7a 3c bf 44 e2 ba be 53 32 ee 3b
       -0.013439886 -0.7362392 -0.36500752 0.0072691827
000010 3b 02 ce be a9 6e 5d bf 54 94 21 be 76 9f e2 bb
       -0.40236077 -0.8649698 -0.15779239 -0.006915982
000020 53 8e 2e 3f 48 02 3e be 0c 87 81 be 41 7f c5 bc
       0.6818592 -0.18555558 -0.25298345 -0.024108531
000030 f9 d3 2d be 57 10 8f 3e a3 6f 90 3e be 66 b8 3e
       -0.16975392 0.27942154 0.28210172 0.36015886

bn12.running_var f4 [16]
000000 83 74 a3 3e a7 9e f7 3e 7a eb 27 3e 75 ab e5 3e
       0.3192483 0.4836323 0.16398421 0.44857374
000010 f8 f7 6b 3e 0d c6 96 3e 65 70 12 3f b3 7f a0 3e
       0.23043811 0.29447976 0.5720275 0.31347427
000020 47 f4 15 3e f1 89 a5 3e ba 72 e6 3d e2 32 6d 3e
       0.14643966 0.32331803 0.11252351 0.23163942
000030 fa fc 67 3e 10 13 37 3e 33 83 7e 3e 91 80 c4 3e
       0.22655097 0.17878366 0.24854736 0.38379338

conv3.weight f4 [32, 16, 3, 3]
000000 0f ee 73 3d 7b 08 bd bc 95 17 73 bd be 04 99 bd
       0.059553202 -0.023075333 -0.05934866 -0.074716076
000010 97 e3 3f 3d c6 70 a5 bd 6c b0 6a 3c 92 b6 d2 bd
       0.046847906 -0.080781505 0.014324289 -0.10288729
000020 bc a4 87 bd 26 48 00 3d 3f 30 a0 bd 03 95 0f bc
       -0.066232175 0.031318806 -0.07821702 -0.0087635545
000030 0e 73 b2 bd c1 56 ad bc ee 8b de bb 06 5b 6b 3d
       -0.08713351 -0.021159532 -0.0067915833 0.057459854
000040 15 49 98 bc fc f5 01 3d 71 40 a2 bd 2a c2 2e 3d
       -0.018589536 0.03172873 -0.079224475 0.042665638
000050 02 5b 89 bd ed 0e 18 bd e1 81 bb 3d e1 8b 81 3d
       -0.067068115 -0.03712361 0.09155632 0.06325508
000060 21 f2 fe bc 75 76 cc bd 10 4b d0 bc 07 4e 19 3d
       -0.031121315 -0.099835314 -0.025426418 0.03742793
000070 5f 2c 28 bd f8 82 29 bd d2 7e 12 bb 06 67 62 bb
       -0.04105794 -0.041384667 -0.0022353423 -0.003454627
000080 40 ba a7 3b d8 8a 5f be 82 5e f7 3c b6 13 e9 bc
       0.0051186383 -0.21830308 0.030196432 -0.028451782
000090 36 8f 8c 3b c6 59 ad bd af cd eb bd cf 86 dc 3c
       0.004289533 -0.084643885 -0.115138404 0.02691975
0000a0 49 50 54 bd d2 59 ff 3b c4 67 2e bd 6b 44 ee bd
       -0.05183438 0.00779269 -0.042579427 -0.116341434
0000b0 8a cc c0 3d 23 32 12 3d 75 7e ba bd 8a e3 03 bd
       0.09414013 0.035692345 -0.09106151 -0.03219942
0000c0 e5 6c af 3b ee 3d b8 bd a1 85 b6 bc 6e a5 17 be
       0.0053535574 -0.08996187 -0.022280516 -0.148092
0000d0 60 a4 fe bd b1 64 f4 ba 54 6c ea bc ba d9 60 bd
       -0.12433696 -0.0018645731 -0.028616108 -0.05489514
0000e0 95 df 81 3d 1d 17 11 bc 53 71 bd bb c1 e0 fd bc
       0.06341473 -0.008855608 -0.0057813316 -0.03099096
0000f0 e6 ce 9e bd 1c 01 b9 3c 5b 81 b3 bd 33 b4 0a bd
       -0.077543065 0.022583537 -0.08764907 -0.033863258
000100 49 4f 9f bc 34 a6 d6 3d 9e 4b 98 bc 29 45 0c bc
       -0.019446986 0.104809195 -0.018590745 -0.008561411
000110 ad 02 08 bc 5f 7d 0a bd 80 ff 84 bd 80 34 33 bd
       -0.008301419 -0.03381097 -0.06494045 -0.04375124
000120 eb c1 26 bd a7 a0 cd 3c 35 a9 5e bc ca 2b 88 3d
       -0.04071228 0.02510102 -0.013590147 0.06648977
000130 24 4b ab bd 93 00 fd 3c 02 b3 22 3e 78 e2 24 bc
       -0.08363941 0.030884063 0.15888599 -0.01006376
000140 e5 1d 3c bd 43 23 9e 3d 47 58 9a bc a0 8a 40 3b
       -0.045926947 0.077215694 -0.018840922 0.0029379502
000150 9c e5 c2 3d 5c fc bf 3d d3 a1 63 bb 02 dc d9 3b
       0.09516451 0.093743056 -0.0034733906 0.0066485414
000160 4a 6d 88 bd e8 82 5e 3d df 31 68 bd 3f 62 85 bd
       -0.0666147 0.05432406 -0.056688186 -0.065128796
000170 b6 98 85 bd 53 7b 44 3d c1 b4 a4 3b f1 f1 40 3c
       -0.06523268 0.047969174 0.0050264304 0.011776433
000180 14 f6 1f bb 5a 03 05 3c a4 1a 9a 3c eb 10 28 be
       -0.0024408149 0.008118475 0.018811531 -0.16412704
000190 2b 5b d6 bd f7 f9 f5 3c 97 b1 ed bd 26 dc 4c bd
       -0.10466608 0.03002642 -0.11606138 -0.050014637
0001a0 1c a3 23 bd 95 f9 a4 bc 62 22 7e 3e c5 53 c4 bc
       -0.039950475 -0.020138541 0.24817804 -0.023965726
0001b0 d9 76 28 3c 70 e5 73 3d 32 cf 23 bd 6a 36 a2 bd
       0.010282242 0.05954498 -0.03999252 -0.07920535
0001c0 9d d9 65 3d 18 dc 00 3d ed 59 fc bd 46 13 4a bd
       0.056115735 0.031459898 -0.123218395 -0.049334787
0001d0 28 be ea bb 31 06 03 be 83 d7 f5 bb 14 c6 75 3d
       -0.0071637817 -0.1279533 -0.0075024976 0.060003355
0001e0 01 56 52 bc e2 e1 51 3c 53 23 ff 3c 93 9f d1 3c
       -0.012837888 0.012810202 0.031144774 0.025588786
0001f0 ed a6 5f 3d 4c 46 34 bc ac 3c b0 3b 6a 78 3d 3c
       0.054602552 -0.011003088 0.0053783264 0.0115643535
000200 ef 60 94 3a 44 14 51 3d 7b 0d 6a 3c 74 45 22 bd
       0.0011320392 0.051044717 0.014285441 -0.039617017
000210 2f 53 68 bd ad 29 06 bc 6d 6e 44 bd 86 91 0f 3d
       -0.056719955 -0.008188647 -0.047956873 0.03505089
000220 5d aa 8c bd 8a 13 82 bd 65 86 7f bd d5 93 f9 bc
       -0.06868432 -0.06351383 -0.062384028 -0.030466
000230 34 b5 33 3d 9f 26 b1 3d 9e 6a ea bd ff 39 20 3d
       0.04387398 0.086499445 -0.11446117 0.03911781
000240 58 6d 9b bd 35 4d ae 3d 50 e9 91 bd bd 4c 39 3d
       -0.07589215 0.0851082 -0.07124579 0.0452392
000250 2f 8d 9f 3d 33 7d 86 3d 99 b7 f5 bc ca a7 0a 3d
       0.077906005 0.065668486 -0.029994773 0.033851422
000260 7b c9 9f bd c0 fc 91 3c 09 7f 86 bd be 0f 2b bd
       -0.07802101 0.017820716 -0.06567199 -0.04176306
000270 eb 3f 9a bd 9c c9 d1 bd 68 6e bb 3c ac 02 b6 bc
       -0.07531723 -0.10243532 0.022879794 -0.02221807
000280 e5 43 dc 3c 3f b7 58 bd 3b df 3f 3e 3d fa 2c 3e
       0.026887843 -0.052909132 0.187375 0.16892333
000290 ec 73 8e bc 9f b2 0c bd cc 13 fb bc f3 5e 86 3d
       -0.01738926 -0.034350034 -0.030649088 0.06561079
0002a0 19 02 8a 3c c4 41 d2 3b 9b 2a 8d 3d 2a f2 f1 3d
       0.016846703 0.0064165313 0.06892892 0.11813767
0002b0 d4 6c 44 3b ba 50 02 bc 9e 75 23 bd da b8 3b bd
       0.0029972093 -0.007953817 -0.03990709 -0.045830585
0002c0 9a 37 92 bd 57 dd 5a bc f8 fe 13 bd da 3c 0a 3d
       -0.071395114 -0.013358436 -0.03613183 0.03374944
0002d0 0c 6a 16 3d 69 f4 1b 3e 8d 96 73 3c 32 2d 79 3d
       0.036722228 0.15229954 0.014867437 0.060834117
0002e0 4d b8 67 3e 43 e3 30 bd b9 93 8f 3d 69 3d 2c bd
       0.22628899 -0.043185484 0.07010598 -0.042050753
0002f0 a5 41 7c bc b2 e0 fc 3d d9 a5 1d 3e f9 73 18 bc
       -0.01539651 0.12347545 0.15395297 -0.009304994
000300 f6 26 59 bd 79 a6 ad ba 1b ed b1 3c 75 86 2c 3c
       -0.05301567 -0.0013248465 0.021719506 0.010530104
000310 a6 e3 da bd 50 f3 23 bd d1 b3 64 3d 85 ed a2 bd
       -0.10687952 -0.040026963 0.05583555 -0.079554595
000320 07 b6 6b bd f2 b5 8b 3d 3b 82 28 bc fd 40 50 3d
       -0.05754664 0.06821813 -0.010284956 0.050843228
000330 da a3 ea ba 01 cf 63 3c 10 ea 9a 3d d1 52 53 bd
       -0.0017901615 0.013904334 0.07564175 -0.05159265
000340 ab a6 e3 bc ba c7 b1 3c 10 34 85 3d 71 1f b2 bd
       -0.027789434 0.021701682 0.06504071 -0.08697403
000350 a9 a9 58 bd 2e 6e dc bb 8c 18 af bc 40 b9 3a bd
       -0.052896176 -0.0067270016 -0.02137401 -0.045586824
000360 9a 0c ea bd c6 a6 86 3d 07 47 9a 3c 55 e0 1e be
       -0.11428185 0.06574778 0.018832697 -0.15515263
000370 18 fe 56 bd 2a 2a a9 3d 6b 28 86 3d 29 e5 8b 3d
       -0.052488416 0.08259995 0.06550678 0.06830818
000380 9f f4 2a 3d 80 c9 8c bc 7f 8b 0f 3d d3 b7 85 3d
       0.041737195 -0.017185926 0.035045143 0.06529202
000390 06 36 b7 bd 13 95 82 bb f6 27 36 bb 09 f2 ab 3d
       -0.08945851 -0.003985056 -0.0027794815 0.08395774
0003a0 8b 1e 70 3d 6e 84 92 3c f4 6f b1 3d fe 8f c4 bc
       0.058622878 0.017885413 0.086639315 -0.023994442
0003b0 71 80 40 bc 96 1f 46 3e 77 22 ac 3d 59 99 fd 3b
       -0.011749373 0.19347987 0.08405011 0.0077392277
0003c0 7b 94 56 3c fc aa cc bd 96 2a 08 bd 09 0d 8e 3d
       0.013096924 -0.0999355 -0.033243738 0.0693608
0003d0 59 8f 54 be 8f ae 26 3d 10 0e 75 bc ad 42 62 3d
       -0.20757808 0.040693816 -0.014956966 0.05523937
0003e0 7e 41 d2 3d 09 43 11 bd 92 56 89 3d d5 d2 98 bc
       0.10266398 -0.03546432 0.06705965 -0.01865522
0003f0 2f be 1d bc b1 8c 4b bd 08 b5 5e 3d 5c ad 19 bb
       -0.009627863 -0.04969472 0.054371864 -0.0023449278

conv3.bias f4 [32]
000000 f3 c3 a3 bd 60 e0 8c 3d 16 40 a0 bd 9c 6f 98 3d
       -0.07996359 0.06878734 -0.078247234 0.07443163
000010 77 4f a3 bd 3c 14 52 bd df ad 99 3d a4 21 35 bc
       -0.07974141 -0.05128883 0.075038664 -0.011055384
000020 cd fe aa 3d 06 28 84 bd e2 8a 72 bd 09 72 8a 3d
       0.08349381 -0.06452946 -0.05921448 0.06760032
000030 81 7d 77 3d 19 a4 37 bd aa 9a 72 3d d9 8d 7d 3c
       0.060422424 -0.04483423 0.05922953 0.015475714
000040 ec 9b 9d bd 08 05 1e bd 60 e3 a5 3d 43 e7 93 bc
       -0.07695755 -0.038579017 0.08100009 -0.01805461
000050 21 8f 09 3d 44 09 c3 bc a3 00 82 3d e5 47 ab bd
       0.033583764 -0.02380813 0.06347778 -0.08363322
000060 75 60 ad bd 40 e7 92 bd 6f 36 13 bd d5 ef a7 3d
       -0.08465663 -0.07173014 -0.035940584 0.08200041
000070 b0 c9 d7 3b 47 07 b6 bc a5 a4 c1 bc 11 2b 28 3d
       0.0065853223 -0.022220267 -0.023638079 0.041056696

conv4.weight f4 [32, 32, 3, 3]
000000 3a f9 f2 3c 89 56 cc bc 46 c3 ca bc a8 a6 38 bd
       0.029659856 -0.024943607 -0.024751317 -0.04508081
000010 b6 32 9a 3c 52 f5 89 bd 55 12 a3 3c 50 43 1e 3d
       0.018823009 -0.06736244 0.019906202 0.038638413
000020 d0 7c d9 3c 94 25 ca bd b4 83 3c bd 3a d0 b1 bd
       0.026548773 -0.09870449 -0.04602404 -0.08682294
000030 4a cd b5 3c a2 7b 94 bb 26 f1 2b bc 9a 00 80 bd
       0.022192616 -0.0045313397 -0.010494506 -0.06250115
000040 c4 5c ae 3c a7 dd ce bd 4c 4c 6b 3d 5e ce a7 bd
       0.021284468 -0.101008706 0.05744581 -0.08193658
000050 6f a8 dd bc 8a 51 9b bc a2 0a 79 bd ba ca 92 3d
       -0.027057854 -0.01895978 -0.060801156 0.07167573
000060 35 3b 79 3c b1 d7 88 bc 3c c1 42 3d 91 ac b0 3c
       0.01521187 -0.016704412 0.047547564 0.021566661
000070 e1 a5 f8 bd bc 8f 90 3d f7 80 f2 3c f7 ec 90 bc
       -0.12141014 0.07058665 0.02960251 -0.017691119
000080 73 cd 66 bc 45 fa 6d 3c c1 e4 66 bd e2 0d a8 bd
       -0.014087069 0.014525001 -0.0563705 -0.08205773
000090 27 ae 76 bd 30 14 9a 3a 50 5f a2 bc 54 39 ae 3c
       -0.06022468 0.0011755284 -0.01982084 0.02126757
0000a0 16 fd 67 3d 6e 59 95 39 8e f3 9a 3c 9d 6b e2 3b
       0.056637846 0.00028486125 0.018914964 0.006909801
0000b0 78 b1 f3 3c 4f a5 a2 3d 6e 72 33 3d 25 39 42 3d
       0.02974771 0.07941686 0.0438103 0.04741778
0000c0 3f 3e 2f bd cc 80 53 bd e9 87 32 bd cd 6b 09 3d
       -0.042783972 -0.051636502 -0.043586645 0.033550072
0000d0 e9 71 82 bd 05 44 82 3c 73 91 b4 3d 7d 55 20 3d
       -0.06369383 0.015901575 0.08816805 0.039144028
0000e0 8f eb b8 3c 94 bf b6 3c ae 26 f7 ba 9c 48 c1 3d
       0.02257326 0.022308148 -0.0018856132 0.09437677
0000f0 a6 9d 6d bc 7e 25 50 3d 56 00 18 3b 76 95 ba 3c
       -0.014502918 0.050817005 0.002319356 0.022776347
000100 03 09 4c bd ce e3 bd 3c c3 9e 36 bd f3 91 c5 3c
       -0.04981328 0.023179915 -0.044585 0.024117446
000110 ac eb a1 3c 72 08 08 3c 27 1d e9 3d 28 90 fb 3c
       0.019765697 0.008302795 0.113825135 0.030708387
000120 ed cb 3d bd be b8 d3 bc a6 27 7a bd 36 24 4f b9
       -0.046337057 -0.025844928 -0.061072968 -0.00019754548
000130 34 24 5d bd f1 0b aa 3d 24 c0 44 bd b3 7f d7 bc
       -0.053989604 0.08303059 -0.048034802 -0.026306009
000140 83 2d 1f 3c 4f 79 ef 3d fa db 34 3d f1 8a 95 3d
       0.009715441 0.1169306 0.0441551 0.073018916
000150 16 7c e1 bc 5a de c9 3b de fd 83 bc c3 66 c1 3c
       -0.02752499 0.0061605396 -0.016112264 0.02360857
000160 c6 57 05 bc 22 6a 98 3c 06 ce 0a 3c 22 60 20 3d
       -0.008138603 0.018605296 0.008471971 0.03915418
000170 16 0e 23 3b 3f ed 19 bd c2 73 fa 3c ee 18 d2 bc
       0.0024880222 -0.03757977 0.030572776 -0.025646653
000180 df d8 53 3d 68 33 e4 3c 0b 4f 82 3d 53 9a c9 3c
       0.051720496 0.027856544 0.063627325 0.02460972
000190 1f 13 d5 bc 48 59 13 3d 5f fe cd bc 5e 49 16 bd
       -0.026010094 0.035973817 -0.025145708 -0.036691062
0001a0 9e 5b 86 bc 09 17 51 3c ed de a7 bc ba 24 8a bd
       -0.016401108 0.01276184 -0.020492041 -0.06745286
0001b0 87 69 1b 3d b1 5d c4 bd e1 32 91 bd 96 8f 80 3d
       0.037942436 -0.09588183 -0.070897825 0.06277387
0001c0 3c 06 16 3c 3a 65 16 bc 9f 57 9c bd b1 97 d5 3b
       0.00915676 -0.009179408 -0.076339 0.006518327
0001d0 6e bc 0d bd 35 8e 1d 3d de 03 80 bd c5 48 e8 bc
       -0.03460353 0.038465697 -0.062507376 -0.028355012
0001e0 4c 9d 9e bd 2b 12 2d 3d 5e 76 a5 bc 72 fe db bc
       -0.07744846 0.042253654 -0.020198043 -0.026854727
0001f0 3e d9 7a 3c 35 0a ec 3b 47 da 19 3c 10 b5 eb 3c
       0.015310584 0.007203365 0.00939042 0.02877286
000200 3c ff 08 bc 95 fa 1b 3d 22 06 1d 3b 77 bb 9e 3d
       -0.008361634 0.03808077 0.0023959954 0.077506
000210 36 7f b1 bb 63 05 6a 3d a4 ea 0b bd 66 74 c4 bb
       -0.005416776 0.057134043 -0.034159318 -0.005995321
000220 cc c0 f3 bd ef 10 2f 3d 03 d7 92 3d 25 ee fe bd
       -0.119020075 0.04274076 0.071699165 -0.12447766
000230 96 e7 e4 3d ce aa 2e bd c0 db 14 bd f3 ea 64 bd
       0.11176984 -0.04264336 -0.036342382 -0.055888128
000240 8b d6 6c 3d 61 0d 19 bd 04 17 bf 3c 2a c1 86 3c
       0.05782179 -0.037366275 0.023326404 0.01644953
000250 34 f9 1d bd 68 28 14 bd a6 80 2e bd fe ec 84 3d
       -0.038567737 -0.036171347 -0.042603157 0.06490515
000260 7b 4c e2 bc e4 6d c8 3d 9c 24 1d bd 06 fd f3 3c
       -0.02762436 0.09786585 -0.03836499 0.029783737
000270 20 92 32 bd 9b 3e 8a bd c8 95 3f 3c 5d 3e 0e 3d
       -0.043596387 -0.06750222 0.0116934255 0.034727443
000280 eb ad 94 3d 07 4a d2 3b c4 f2 70 bd fd 48 47 bd
       0.07259735 0.006417516 -0.05882527 -0.04865359
000290 fb 68 41 3c 4d 86 9f bd 4d 76 fa bc fd f7 ff bc
       0.011804814 -0.07789288 -0.030573988 -0.03124618
0002a0 32 51 bc 3c 8b 17 2b bc 62 e5 85 bb ab b2 38 bc
       0.022987936 -0.010442625 -0.0040861825 -0.0112730665
0002b0 ad 21 74 bc 99 cc ea 3c 42 bb 70 bc a6 ec 6c bd
       -0.014900607 0.028662013 -0.014693083 -0.057842873
0002c0 c9 fe 8b bd 9e 85 31 3d 59 c6 09 3d f5 0a 5e bc
       -0.06835706 0.043340318 0.033636425 -0.013552417
0002d0 68 67 99 bc 5f a9 8c bc e1 cf a9 3c 6b 8f ff 3c
       -0.018726066 -0.017170606 0.020729007 0.031196317
0002e0 c6 23 83 3d 5b 90 71 bc 97 fa d2 3b 75 8e f4 3c
       0.064033076 -0.01474389 0.006438564 0.029853085
0002f0 1b b2 e9 bc ec 79 de ba 4e eb 6c 3c 1a d8 78 bd
       -0.02852731 -0.0016973591 0.014460398 -0.060752966
000300 45 80 d9 3d 2b 04 32 bd b2 95 41 3b 53 02 82 bd
       0.106201686 -0.043461006 0.0029538688 -0.063480996
000310 73 7a 8f 3c 84 5f 93 bc b2 6d a3 3c 1c 88 01 3e
       0.017514443 -0.017989881 0.019949768 0.12649578
000320 82 12 51 3b c8 d0 11 3e 4b 46 f2 bb 1a 8f 2c bc
       0.00319019 0.142398 -0.0073936335 -0.010532165
000330 1f b1 28 bd 2e 1a 75 3d 5a 09 8d 3c 00 1d 34 3d
       -0.04118454 0.05983942 0.017216373 0.04397297
000340 fe c1 66 3c 78 46 47 3d ec 23 2b 3b 84 76 c3 3b
       0.014084337 0.04865119 0.002611394 0.005965056
000350 16 53 23 bd 72 8c 2e 3d ca fb 6f bd 00 58 02 3d
       -0.03987416 0.042614408 -0.058589734 0.031822205
000360 64 4d 64 bd 9f 85 5b 3c 37 75 24 bd a0 1f 05 3d
       -0.055737868 0.013398557 -0.040150847 0.032500863
000370 b4 9d 56 bd 42 09 20 bd 33 0b aa bd a9 6a 0c bd
       -0.05239649 -0.03907133 -0.08302917 -0.034281407
000380 cb 9e 94 bd 55 ab 01 bd c1 9d 24 3d 08 f5 00 bc
       -0.0725685 -0.031657536 0.04018951 -0.00787092
000390 e4 1f dc 3c 56 d9 f6 bc 6c 22 54 3d 6e 16 0e 3d
       0.026870675 -0.03013293 0.05179064 0.03468936
0003a0 8e 52 37 3b 48 94 7f bd 36 3b 04 bd 28 2b 0e 3d
       0.002797279 -0.06239727 -0.03228303 0.034709126
0003b0 11 ef 5c bd 75 0a 2c bb 30 78 23 bd 42 aa 76 3d
       -0.05393893 -0.002625135 -0.03990954 0.060220964
0003c0 57 0a 21 3b e0 3d 0a bd cf ed c7 3b a0 73 18 3d
       0.0024572813 -0.033750415 0.006101347 0.037219644
0003d0 c3 73 16 bd 49 70 6e 3d 72 81 ca 3c cf f2 ba bd
       -0.036731493 0.058212552 0.024719927 -0.09128343
0003e0 f6 42 1a 3b 60 c3 9b bd ea 7e 73 3b af 42 a2 bd
       0.0023538447 -0.07605624 0.0037154504 -0.07922875
0003f0 e6 70 61 bd fc 9a 23 bd 25 37 98 3c 3e c9 87 3d
       -0.05503931 -0.039942726 0.018580982 0.06630181

conv4.bias f4 [32]
000000 2f 55 16 bd 02 e0 45 bd 8a 26 59 bd dd 25 5b bd
       -0.03670233 -0.048309334 -0.05301527 -0.053502906
000010 9f e8 30 bd 1c 45 18 3c ae da 45 bd f4 1c 4b 3d
       -0.043190595 0.009293821 -0.048304252 0.04958816
000020 3e ff ce bc 12 ed 9d 3b f4 a7 2e 3d fe a3 b0 3c
       -0.025268193 0.0048195207 0.04264064 0.021562573
000030 f9 58 07 3b 3b da a5 bb 2e 05 af 3c 6f 32 b1 3c
       0.0020652397 -0.0050614155 0.021364775 0.021630494
000040 8d 37 63 3d 67 bb ee bc 88 c0 3b 3c b7 16 0c 3c
       0.0554729 -0.029142095 0.011459477 0.0085503375
000050 ab b9 a0 3c 19 be 55 3b d2 56 f1 3c 95 ea 68 bd
       0.019619783 0.0032614528 0.029460344 -0.05686434
000060 db a7 99 3c c5 5a 8c bb 9c 58 5c bd b0 47 03 bd
       0.018756798 -0.0042832815 -0.053795442 -0.03205079
000070 bc 9e a8 3c cc 90 ac bc 73 e1 41 3d cc 6e 13 3d
       0.020583503 -0.021065138 0.047334146 0.035994336

bn21.weight f4 [32]
000000 c8 ae 77 3f df 23 83 3f 1f 61 7f 3f 85 65 7a 3f
       0.9675107 1.0245322 0.9975757 0.97811157
000010 69 fd 7d 3f 22 52 7d 3f df 7e 79 3f f2 59 7a 3f
       0.992148 0.9895345 0.97459215 0.97793496
000020 1b 1a 70 3f 77 c6 73 3f b7 73 75 3f 4f f8 80 3f
       0.93789834 0.9522471 0.9587969 1.0075778
000030 2f 8c 70 3f b5 58 85 3f 86 00 84 3f 7b 16 72 3f
       0.93963903 1.0417696 1.031266 0.9456555
000040 15 8d 72 3f a5 58 73 3f cc 66 80 3f d9 4b 77 3f
       0.94746524 0.95057136 1.0031371 0.9660011
000050 07 34 84 3f 93 7d 80 3f 87 38 7f 3f 12 03 80 3f
       1.0328377 1.0038322 0.9969563 1.0000937
000060 16 7c 84 3f 1c 1e 81 3f 62 ee 81 3f b1 f2 74 3f
       1.0350368 1.0087314 1.0150874 0.9568282
000070 e7 8b 73 3f be df 83 3f f7 0e 81 3f 88 9e 70 3f
       0.9513535 1.0302656 1.0082692 0.939919

bn21.bias f4 [32]
000000 fd 89 d8 bc e0 78 32 3a 24 f2 00 bd 40 1a a6 bd
       -0.026432985 0.0006808173 -0.031480923 -0.081104755
000010 7a 06 36 bd 5e 16 28 bd bb ab 8d bd 53 bb a6 bd
       -0.04443977 -0.041036956 -0.069175206 -0.08141198
000020 1b 69 a4 bd 39 5e 2d bd 7c d9 a7 bd 08 22 5d bd
       -0.0802786 -0.042326186 -0.08195779 -0.053987533
000030 2c fe c7 bd ac b8 98 bd 65 47 81 bc 16 a9 dc bd
       -0.09765276 -0.07457098 -0.015781114 -0.10774438
000040 b2 f0 bb bc 01 53 9f bd 66 96 23 bd fa 29 02 bd
       -0.02294192 -0.077795036 -0.039938353 -0.031778313
000050 7d ae 3f bc 87 a2 0a bd 90 98 14 bd 4c 75 8d bd
       -0.011699316 -0.033846404 -0.036278307 -0.06907138
000060 2e cf 1e bd a0 29 ac 3c bf c1 85 bd 5c 6d 19 be
       -0.0387718 0.021015942 -0.06531095 -0.14983124
000070 06 7d 3f bd f1 a2 85 bc 84 4a 1d bc 81 23 8c bd
       -0.04675009 -0.016313048 -0.009600285 -0.06842709

bn21.running_mean f4 [32]
000000 78 7b 98 bf ce fb 21 3f 0b fc cb be 2d 97 f1 bd
       -1.191268 0.6327485 -0.3984073 -0.117964126
000010 69 68 b9 3e df 0c 99 3e ed b1 74 3f 81 28 61 3f
       0.3621247 0.29892632 0.95583993 0.8795243
000020 c4 aa e8 3e 2d 55 4c 3e c6 1c ff be ab 95 94 bf
       0.45442784 0.19954367 -0.4982664 -1.1608175
000030 1d 29 32 3f 60 36 57 3f c0 2a e0 bb f2 b8 1a 3f
       0.69593984 0.84067345 -0.0068410337 0.60438454
000040 0e ff df be 6a 7b 68 3f 51 41 56 bf 74 5e 0c 3f
       -0.4374928 0.90813315 -0.83693415 0.54831624
000050 4b 5c 43 bf e1 b3 d3 be df 45 4f 3f c7 18 9f 3e
       -0.763127 -0.41348174 0.8096599 0.3107359
000060 9a 8c bb bf 9b 24 89 bf e3 68 25 bf d8 f4 03 3e
       -1.4652283 -1.0714296 -0.6461317 0.12886369
000070 62 07 0a bf 1a 7f ab bf f0 4b ac bf 3e 6f 3e 3f
       -0.53917515 -1.3398163 -1.3460674 0.7438849

bn21.running_var f4 [32]
000000 ca 13 c5 3e a0 1c d9 3d 98 01 cb 3e 85 b9 54 3e
       0.3849166 0.10601163 0.39649653 0.20773895
000010 1f 71 35 3e ef 5e 80 3e 5f fa 1b 3f bc d5 c5 3d
       0.17718934 0.2507243 0.6092891 0.09659907
000020 a6 db ba 3e 56 bb f8 3d 28 7d 9e 3e 76 23 46 3f
       0.36495703 0.121451065 0.30954862 0.7739786
000030 7c e6 8c 3e 0a 9c 05 3e 20 34 c1 3e 3d 45 6f 3e
       0.27519596 0.13047805 0.3773508 0.23366256
000040 0a 6c 70 3e 51 21 98 3e 72 f6 50 3e e7 2e 37 3f
       0.23478714 0.29712918 0.20406511 0.7155594
000050 9e 5d b7 3e 68 2e 19 3e 0d 90 12 3e 5d a5 75 3e
       0.35813612 0.14959109 0.14312764 0.23988862
000060 62 a5 78 3f e3 02 43 3f c9 87 08 3f 23 39 9b 3e
       0.97127354 0.7617628 0.5333219 0.3031703
000070 42 17 59 3e 13 ed 40 3e e9 6a db 3e ed b1 2f 3e
       0.21200278 0.18840437 0.42855003 0.17157717

bn22.weight f4 [32]
000000 09 ed 72 3f 6d 82 79 3f c8 bd 77 3f 03 f3 78 3f
       0.94892937 0.9746464 0.9677396 0.97245806
000010 be 14 81 3f 5d 6b 77 3f b4 99 83 3f 98 23 82 3f
       1.0084455 0.966482 1.0281281 1.0167112
000020 56 3e 76 3f 64 49 84 3f 26 64 86 3f af 79 77 3f
       0.9618887 1.0334897 1.0499313 0.9667005
000030 32 0d 7d 3f 23 aa 71 3f 43 ec 86 3f 18 d1 70 3f
       0.9884826 0.94400233 1.0540851 0.9406905
000040 7c 35 7c 3f f8 df 7c 3f 18 d8 78 3f fc c2 71 3f
       0.9851911 0.9877925 0.9720473 0.9443815
000050 1b 71 80 3f 84 fb 7a 3f 54 0f 77 3f b3 f3 83 3f
       1.0034517 0.9804003 0.96507764 1.0308746
000060 b5 a3 7f 3f be 32 82 3f 43 96 7b 3f 84 34 85 3f
       0.9985917 1.0171735 0.98276156 1.0406651
000070 cf 5c 89 3f 6e 6c 80 3f 31 63 85 3f af 5a 7c 3f
       1.0731448 1.003309 1.0420896 0.9857587

bn22.bias f4 [32]
000000 47 f3 39 bd 4e fc 95 bd 2d 1c 45 3c 86 1c 2a be
       -0.045398023 -0.07323514 0.012030643 -0.16612443
000010 86 85 91 bd 63 15 75 bd c5 7e 70 bb bf cc 53 3d
       -0.07105546 -0.05983485 -0.0036696654 0.051708933
000020 49 74 4e be f6 23 1d 3d 97 06 9e 3c 92 73 a2 3c
       -0.20161547 0.038364373 0.019290252 0.019830499
000030 32 b4 82 3c 2e b7 b9 bc b3 35 84 3d e7 60 b1 bd
       0.015955064 -0.022670355 0.06455555 -0.08661061
000040 77 d9 cf bb ed 67 f0 bb 2b d3 8f 3c 0c 24 4a 3d
       -0.0063430625 -0.0073366077 0.017556747 0.049350783
000050 e8 94 e8 bc 27 95 e3 3c 2f 3a d9 bd df f2 54 3c
       -0.028391317 0.027781082 -0.10606801 0.012997358
000060 0a 61 47 3d ed fa 22 3d b7 62 b8 3c 02 65 11 be
       0.048676528 0.039790083 0.022508008 -0.14198688
000070 58 cb 39 be 5f 53 1c 3d f0 bb 91 3c 49 b4 d5 bc
       -0.18143976 0.038165446 0.01778981 -0.026086943

bn22.running_mean f4 [32]
000000 f3 44 73 be dc 9f fc 3e dc 61 15 bf a7 c5 03 bf
       -0.23756771 0.49340713 -0.58352447 -0.5147347
000010 2f ec 4e bd 29 91 52 3e 33 f2 ba bf 7c d9 59 bf
       -0.05051821 0.20563187 -1.4605163 -0.8509748
000020 18 87 ce 3e b2 7b 56 be d0 ea 03 bf a7 a7 04 3f
       0.40337443 -0.20945624 -0.5153017 0.5181832
000030 c9 dd 0a 3f 66 4e 5a bf 94 00 e6 3e 78 1c 58 3f
       0.5424467 -0.85275877 0.44922316 0.8441844
000040 14 c8 e2 3e 1f 9d 97 bf da 1e 13 3f fe 0a 4a bf
       0.44293272 -1.1844825 0.5746895 -0.7892302
000050 14 aa 13 3f 70 1b 06 3f 8e 55 44 3f 0b 07 89 bf
       0.57681394 0.52385616 0.76693046 -1.0705274
000060 d8 d4 5a be 66 61 25 bf 53 ca 8a bf ee ff c5 3f
       -0.21370256 -0.64601743 -1.0842994 1.5468729
000070 2a d1 39 3f b0 95 5a bf ec aa 0a 3f 1b 20 64 3f
       0.72584784 -0.85384655 0.54167056 0.8911149

bn22.running_var f4 [32]
000000 64 63 97 3f 0a 66 39 3e 17 28 a7 3e ad ae c5 3e
       1.1827207 0.18105331 0.32647774 0.3860983
000010 69 a5 ca 3e 28 01 c7 3e 51 7f a4 3e e4 45 53 3f
       0.39579323 0.3886807 0.32128385 0.8252852
000020 11 a9 92 3e d0 0a 5e 3f 7b 7f 9c 3e 1a 0f fd 3e
       0.28644612 0.8673525 0.3056601 0.49425584
000030 a9 9f 84 3f cb c2 33 3f f8 3f c4 3e 81 7c e1 3e
       1.0361224 0.70219105 0.38330054 0.440403
000040 f5 f2 e6 3e 5b 58 a4 3e 37 22 42 3f af fb cd 3e
       0.45107237 0.3209866 0.7583346 0.40231082
000050 a3 1c 50 3f 24 49 d3 3e 4a 12 ff 3e 11 05 79 3f
       0.81293696 0.4126674 0.4981864 0.97273356
000060 87 e2 42 3f ed a5 ec 3e b8 7d 38 3f cc f2 0d 3f
       0.76126903 0.4622034 0.7206683 0.55448604
000070 b9 d5 f0 3e 72 aa 19 3f f7 2c b2 3e df 29 be 3e
       0.47038057 0.60025704 0.3479993 0.3714132

conv5.weight f4 [64, 32, 3, 3]
000000 37 3f b0 bb ae d8 44 3d aa 35 07 bc 9d 17 a9 3b
       -0.0053786295 0.048058204 -0.008252541 0.0051602856
000010 b8 6a 70 3d ca 33 6a bd 04 ff 1e 3c 5a 90 ff 3c
       0.058695525 -0.057178296 0.009704355 0.031196762
000020 d4 0e c8 bc cb 99 41 bc 23 be 57 3d 2e 46 3e bc
       -0.024421133 -0.011816452 0.052671563 -0.011613412
000030 c5 4f 90 3b 4e 50 1c bd 62 e4 a9 3c 1c 88 4c 3d
       0.0044040405 -0.038162522 0.020738784 0.04993449
000040 64 a8 22 bd f8 7a 28 3d a3 c0 06 3b cd f4 26 bd
       -0.03971137 0.041132897 0.0020561598 -0.040760804
000050 b3 a3 99 bd bc e5 e3 3c 46 fc 2a bd cc b1 f5 bc
       -0.07501926 0.027819507 -0.041744493 -0.029992007
000060 b6 57 00 bd 2d 3f 20 bc 75 75 88 bd fd 85 9c bd
       -0.031333648 -0.009780687 -0.06663028 -0.07642744
000070 92 07 cf bc b0 7e 0e bd 01 a9 8b bd b7 50 0b 3a
       -0.025272164 -0.034788787 -0.06819344 0.00053144566
000080 4b 36 af bb cb ca 2e bd cf 9e 0b bc a5 13 97 3b
       -0.0053470484 -0.042673867 -0.00852175 0.004610496
000090 7c 38 5a bd 93 84 21 be 53 71 d9 bd 32 98 aa bb
       -0.053276524 -0.1577323 -0.10617318 -0.0052061314
0000a0 b4 09 8a bd f2 20 07 bd 01 03 8e 3c ca b3 0e bd
       -0.06740132 -0.032990403 0.017335417 -0.03483943
0000b0 5b 5c 66 bd 33 0c 00 bd ee fd 12 3d ca 22 be 39
       -0.05624042 -0.031261634 0.035886697 0.00036265544
0000c0 b2 b2 95 3b b6 8a 00 3d 00 a0 47 ba eb a7 06 3c
       0.0045684213 0.031382285 -0.00076150894 0.008218746
0000d0 3c 3f 20 3d ae a2 d1 bc f2 3b 11 3d bd 7b dd 3d
       0.039122805 -0.025590267 0.03545756 0.10814617
0000e0 de 19 04 3e f1 46 5f 3d 82 97 29 3d d9 c8 95 3d
       0.12900493 0.054511014 0.041404255 0.07313699
0000f0 e5 6d 85 3d d2 e3 f7 3c e0 56 e3 3d a4 5d 50 bc
       0.06515101 0.03026 0.111005545 -0.012717638
000100 7c e1 f8 bd 32 3d ec bd 46 e4 74 3c c5 76 97 bd
       -0.12152383 -0.115351096 0.014947003 -0.073957
000110 1d 55 05 be 36 b2 61 bd ea 25 08 bd 7c 8a 5d bd
       -0.1302075 -0.055101596 -0.033239283 -0.054087147
000120 62 8f 3d 3d a6 ae 95 3c 29 e5 85 3c f0 01 ea 3b
       0.04627932 0.018271755 0.016344624 0.0071413442
000130 2f 9d 17 3c e7 8c 3d bd b2 55 94 bc 0a 28 6f 3b
       0.009253784 -0.046276953 -0.018107269 0.003649237
000140 db 4c 11 bc c3 c5 60 3d 61 93 a4 3d 6e 83 a7 3d
       -0.008868421 0.0548761 0.08035923 0.08179365
000150 cb 04 08 3c 80 f6 5d 3c 8f ca c8 3d cc 3d 58 bc
       0.008301924 0.01354754 0.0980426 -0.013198327
000160 32 2a 56 3c 63 11 c5 bc 99 b6 de 3c e4 f9 a4 bc
       0.013071584 -0.024056142 0.027186679 -0.020138688
000170 d6 87 11 bd 3b 7e 3f 3d b9 55 80 3d 51 e9 7c 3d
       -0.035529934 0.046751242 0.0626635 0.061745945
000180 6b bf b0 3c 86 f4 ae bb d2 5b 1f bd 04 88 c0 3c
       0.02157565 -0.005339208 -0.038905926 0.023502357
000190 1b 08 07 bd 54 67 a3 bc 9f 82 97 bd ee 03 89 bd
       -0.032966714 -0.019946732 -0.07397961 -0.06690203
0001a0 1a b1 cc 3a 18 ef 72 bc 15 d2 10 bd a5 a6 04 bd
       0.0015616745 -0.014827512 -0.0353566 -0.032385487
0001b0 74 2a d9 bc ae 63 f5 bc 43 86 88 3c 7a 66 1a 3d
       -0.026509501 -0.029954758 0.016665583 0.037695386
0001c0 1c d3 20 3d 44 c7 46 bd de e1 23 3d d0 d0 5c 3d
       0.03926383 -0.04852988 0.040010326 0.053910077
0001d0 b9 71 74 3c d0 52 78 bd ca 10 ea bc 18 b3 e4 bd
       0.014919692 -0.06062585 -0.028572459 -0.11166972
0001e0 82 b7 7d bd da d3 b1 3c ce da 1e bd 34 b2 b1 3c
       -0.061942585 0.021707464 -0.038782887 0.02169142
0001f0 47 ff 50 bd b6 9a bc 3c 45 62 f0 bc 1e 33 a2 3c
       -0.0510247 0.02302299 -0.029343734 0.019799765
000200 26 6f d1 3c 6f 09 29 b8 2b 08 5e 3d ea f3 24 3d
       0.025565695 -4.0301526e-05 0.05420701 0.040271677
000210 f3 f7 7f 3c bf 56 1b 3d c0 3b 50 3c d1 82 95 3d
       0.015623081 0.037924524 0.012709558 0.07300342
000220 0d 41 bb 3d 15 33 3f 3d e1 52 8a 3d da 97 a4 3d
       0.09143267 0.046679575 0.06754089 0.08036776
000230 01 86 56 3c 78 76 92 3d ba 97 87 3c 95 cf a2 bb
       0.013093472 0.07151502 0.016551841 -0.0049685934
000240 21 a5 95 bc 23 ec 95 bc a0 bc 71 bc a2 68 4c 3d
       -0.018267216 -0.018301075 -0.014754444 0.049904473
000250 1d bb bf 3c cb 51 46 bd f5 b0 9c 3b 1b 91 08 3d
       0.023404652 -0.048417848 0.004781837 0.03334151
000260 ba ac 33 3d 5e e0 1f bd 01 36 e8 bb f2 78 a0 bc
       0.043865897 -0.039032333 -0.007086516 -0.019588921
000270 10 11 8c bb c6 82 78 3d 2e bf 4b 3c 54 14 10 3d
       -0.004274495 0.06067159 0.0124357175 0.035175636
000280 1f 29 b3 3c 56 74 fe bc 29 b5 5f bc 73 27 e6 39
       0.021870194 -0.031061333 -0.013654032 0.0004389841
000290 49 69 dd 3c 95 21 e2 3b 4e 04 67 bd 9e 6c 9b 3c
       0.027027743 0.006900976 -0.05640059 0.018972691
0002a0 a7 65 04 3d f8 9e 04 bd 30 a0 0b bd 94 d2 16 bd
       0.032323506 -0.032378167 -0.034088314 -0.036821917
0002b0 79 af 03 be b8 13 09 be e3 7e 03 bd e0 08 b1 bd
       -0.12859906 -0.13386428 -0.03210343 -0.08644271
0002c0 dd 5d cd bc 32 d8 8d bd 43 1b 97 3d 65 45 40 bc
       -0.025069172 -0.069260016 0.07378247 -0.011735295
0002d0 2e 35 70 bd b9 85 8c bd 2f 24 6c bd cd 93 80 bd
       -0.058644466 -0.06861443 -0.057651695 -0.06278191
0002e0 87 03 1c bd d4 64 04 3a fa 99 b3 bc 52 09 38 bd
       -0.0380893 0.0005050425 -0.021924008 -0.044930764
0002f0 ce 21 57 3b 95 9d 43 bd 6a a8 76 bd 2c ba a5 bd
       0.0032826546 -0.047757704 -0.060219206 -0.0809215
000300 4e dc 25 bd 94 c5 f1 bb 50 b3 6a bc 10 2b 2d bd
       -0.040493302 -0.0073782895 -0.014324978 -0.042277396
000310 a2 cb cf bb 9a a4 48 bd 7d a5 a3 3d 29 d8 21 3d
       -0.0063414136 -0.0489851 0.07990549 0.039512787
000320 f9 3a 19 3d a0 73 dc bc a3 be 5a bb 88 a1 59 3d
       0.037409756 -0.026910603 -0.0033377788 0.053132564
000330 7c b4 31 bd 5e a8 35 bc 23 18 fd bc 06 81 0d 3c
       -0.043385014 -0.011087505 -0.030895298 0.008636719
000340 af fa 03 3e 11 df c9 3d bd 1c 90 bb ce 37 6b 3d
       0.12888597 0.09857 -0.004397957 0.057426266
000350 ed bc 6c 3d 55 ea 50 bc 2d 15 1a 3d 7f 8e 0f 3d
       0.05779736 -0.012751182 0.03761785 0.035048004
000360 61 79 1c 3d be 2a 29 bc 34 76 65 bd 1a d5 19 bc
       0.038201693 -0.010325132 -0.05602093 -0.009389186
000370 fd 48 82 bd 30 ac 8c bd 9f 98 b1 3c c2 52 46 bd
       -0.06361578 -0.0686878 0.02167922 -0.048418768
000380 14 6e e0 3c 1d bd 13 bd 8b 46 66 bc 87 e4 6d bd
       0.02739624 -0.036069024 -0.014054905 -0.05807927
000390 93 a0 6a 3c 15 f9 5b bd 7a 8e 1e be 48 8e de bc
       0.01432051 -0.05370434 -0.15484038 -0.027167454
0003a0 37 c1 a9 3c 57 97 bb bd 5d b0 a8 3c 6d 22 89 3b
       0.020722015 -0.09159725 0.020591909 0.004185012
0003b0 76 00 32 3d a9 dd f8 bc 43 04 ef 3c 58 74 c0 bd
       0.04345747 -0.030379133 0.029176837 -0.09397191
0003c0 ce 2f a8 bc 1d 30 aa bd 97 ea 98 bd 1c 96 60 3d
       -0.020530608 -0.08309958 -0.074666195 0.054830655
0003d0 a8 55 92 3d cb 9a cb 3c 2c 01 e2 bc de ab 9d bc
       0.07145244 0.024854084 -0.02758845 -0.019246992
0003e0 b8 9c 1b 3d 93 d3 fc 3c 75 8b d5 bb f3 3f 90 3d
       0.037991256 0.030862605 -0.0065168687 0.07043447
0003f0 97 80 32 3d 72 d9 13 bd f5 01 6c 3c 5e 22 5b bd
       0.043579664 -0.036096044 0.0144047635 -0.053499572

conv5.bias f4 [64]
000000 0d be a3 bb e7 bf 2d bc 0e 88 0c bd 14 49 16 3d
       -0.004997021 -0.010604835 -0.03430944 0.036690786
000010 7c af 32 3d 9b a3 21 bd 3c a3 1f 3d 1c 6f 03 3c
       0.043624386 -0.039462667 0.03897403 0.008022096
000020 cc 72 2a 3d f0 27 23 bd 76 f1 cb 3c 20 32 5f bd
       0.041613385 -0.03983301 0.024895411 -0.054491162
000030 d9 c9 76 3c 6f 96 27 3c a0 2a 6d 3d f6 e0 19 3c
       0.015062773 0.010228737 0.05790198 0.009392014
000040 65 57 67 bd b7 8e 44 3d 1f 0f ad 3c 78 89 1b 3d
       -0.05647983 0.047987666 0.021125374 0.037972897
000050 59 9e e8 3c be b3 f7 3c 23 aa 14 3d 57 d1 50 bd
       0.028395819 0.030237075 0.036295068 -0.050980892
000060 4f d3 70 bd 00 88 46 bd 38 9d f9 bb 50 a8 47 bb
       -0.05879527 -0.048469543 -0.007617619 -0.0030465312
000070 00 b2 43 3d 15 0f 99 3c be 9e ec 3c df 66 54 3d
       0.047777176 0.01868395 0.028884288 0.051855918
000080 8d 5f 1e bd 9c 99 36 bc 9c 10 8c 3c cd 28 5e 3d
       -0.038665343 -0.011145022 0.017097764 0.05423813
000090 39 08 35 bc 08 22 1d bd ed 9c 26 bd a1 71 6c 3d
       -0.011049324 -0.038362533 -0.040677 0.057725552
0000a0 b3 55 3f bc 1e 1c 02 bd 9e e6 4f 3d 46 bd c5 3c
       -0.011678147 -0.031765096 0.050757043 0.024138104
0000b0 17 4d 1e 3d 6a f4 0d 3b a9 6b 44 bc 0e 71 0e bd
       0.038647737 0.0021660575 -0.011988559 -0.034775786
0000c0 cd 6f 29 3d b3 a6 19 bd a6 f4 a9 3c 04 59 64 3d
       0.041366387 -0.037512492 0.02074654 0.055748954
0000d0 73 c5 5f 3d 10 68 cd 3c be 47 51 bc 01 cb 7d bc
       0.05463166 0.025074035 -0.012773452 -0.015490294
0000e0 8c 1f 1d 3c d7 d4 4f 3a 54 53 0e 3c ca 51 e4 bc
       0.009590041 0.0007928139 0.008686859 -0.027871031
0000f0 e8 db 64 3d 1b 5c 10 ba 65 67 12 ba 74 58 68 3d
       0.05587378 -0.0005506889 -0.0005584865 0.05672498
