checkpoints/15_best_model1.pth (torch, 307745 bytes, 37 tensors)

conv1.weight f4 [16, 1, 3, 3]
000000 97 96 98 3e 2a 50 0f 3e 21 25 58 3e 4e eb 83 3e
       0.2980239 0.13995424 0.21107914 0.2576546
000010 17 ce 09 be 1e d5 99 3e c8 ba 6f 3e 1f ef 40 3e
       -0.13457523 0.30045408 0.23411095 0.18841217
000020 5d 02 2a 3c 83 dd 81 be 54 ec 03 3e a3 52 b7 3c
       0.01037654 -0.25364313 0.12883121 0.022378271
000030 54 08 93 be 4e ef 30 3d 39 86 e6 bb c2 eb 1a be
       -0.2871729 0.04319697 -0.0070350436 -0.15128997
000040 2d 73 f1 bd 0e b7 a6 3c a2 e9 58 bd 29 26 0c 3d
       -0.11789546 0.02035096 -0.052957185 0.03421608
000050 2c d0 33 3e 25 32 42 be 40 d4 61 3e b6 17 c1 bd
       0.1755988 -0.18964441 0.22053623 -0.094283506
000060 3d d9 99 bd 09 c1 21 be 13 05 8f be e4 b9 c9 3d
       -0.07512138 -0.15796293 -0.2793356 0.09849909
000070 9d d8 12 3c f7 0d 64 be 45 f0 a4 3e 03 5a 90 3e
       0.008962777 -0.22270952 0.3221456 0.28193673
000080 9f 19 a3 bd 8f 01 04 be eb 0b 8d ba 30 a4 b8 3d
       -0.07963871 -0.1289122 -0.0010760998 0.09015691
000090 2c 0b 7f be 6a 22 26 be cb c2 d2 3a a1 60 82 be
       -0.24906605 -0.16224065 0.0016079781 -0.25464347
0000a0 ca 59 f2 bc 48 21 a0 3e e5 4e 7b bd b4 f4 5a 3e
       -0.02958383 0.31275392 -0.061354537 0.2138241
0000b0 32 5a 2d 3e 47 1f 0f 3e bb a6 59 3e 6c 51 a9 be
       0.16928938 0.13976775 0.21255009 -0.33069932
0000c0 89 e6 03 3e 05 e5 72 3e ca 13 9c 3d ea 3c f8 bd
       0.12880911 0.23720177 0.07620962 -0.121209934
0000d0 cb 8e 58 3d c4 01 3c 3e c6 f5 3f 3e 1e 54 83 3e
       0.052870553 0.18360049 0.18746099 0.25650114
0000e0 63 39 9d bd ef e6 dd 3d 6f c5 8e bc 60 f0 63 3e
       -0.07676961 0.10835063 -0.017428128 0.22259665
0000f0 13 c5 e2 3d a2 c6 7f 3e a4 2d 6a 3e 71 d1 1a 3e
       0.11072745 0.24978116 0.22868973 0.15118958
000100 2b 1f 9b 3e 33 ea 4e bd e1 8d 0d be ef da a3 3e
       0.30297217 -0.05051632 -0.13823654 0.3200297
000110 f0 22 90 bd 05 55 8a 3e f8 41 99 3d df 87 bf bd
       -0.07037914 0.2701799 0.07483286 -0.09352087
000120 4a 0e 9a 3e b5 be 5a 3d 9c c1 da 3c f2 78 84 be
       0.30089027 0.05340453 0.026703648 -0.25873524
000130 48 ea 30 3d ae d9 ba be 55 d1 ae 3d 26 cb 19 3e
       0.043192178 -0.364942 0.08536021 0.15018901
000140 1c 36 0c be ed f1 d8 3d 0f 1c 18 3e b8 98 9f be
       -0.13692516 0.10593019 0.14854454 -0.31171203
000150 7c 54 a1 3d f8 1a 4f 3c 9e 86 97 bd 05 ed 6d bd
       0.07877442 0.012640707 -0.07398723 -0.058087368
000160 bf 14 32 be 61 cf 97 3d 92 4d d5 3c 8f 47 8b bd
       -0.17390727 0.07412601 0.026037965 -0.06800758
000170 f3 4d 84 3e 82 d0 d4 3d 3d 2d 66 3e 8b 3c 3c bd
       0.2584072 0.10391332 0.22478195 -0.045956176
000180 0f 3d 37 3e fb 11 75 3e 47 c5 05 3d a8 bd 3a bd
       0.17894386 0.2393264 0.03265884 -0.045591027
000190 0b cd 9c 3e ba 4c 96 3e fa a4 ad be 2c 09 0f be
       0.30625185 0.29355413 -0.3391493 -0.13968343
0001a0 e1 0c 18 3e 6b 3f fe bd 92 5f 46 be a1 56 71 3e
       0.14848663 -0.1241444 -0.19372395 0.23568203
0001b0 2e a7 17 3d a5 cc 82 be bf 00 9f be 07 cf 8a 3e
       0.03702467 -0.25546756 -0.31055257 0.27111074
0001c0 ab 20 3d 3e f3 20 6c be 8c e5 0b 3e 06 77 ad 3b
       0.18469493 -0.23059444 0.13661784 0.0052937297
0001d0 47 a1 04 3d a4 f5 f8 3d 88 f1 1b be d8 85 03 3d
       0.03238037 0.12156227 -0.15228856 0.032110065
0001e0 62 cf b7 bd 29 5c 73 3e 86 00 d4 3e ef a7 9f 3e
       -0.08975102 0.23765625 0.4140665 0.3118281
0001f0 07 3b 51 be 7d 57 94 3e 67 04 a2 3e e8 90 94 be
       -0.20432673 0.28972998 0.31643984 -0.29016805
000200 9b 6d 9f bd d6 2d ec 3c 07 b9 c7 bd ad 95 46 be
       -0.077845775 0.02883045 -0.09752088 -0.19393034
000210 72 c9 58 be cc b3 97 be 65 9f 43 bd 2a e3 8d be
       -0.21170595 -0.29629362 -0.047759432 -0.27712375
000220 1c e3 05 be e5 71 9f bd f1 09 f6 3d fe 62 e1 bd
       -0.13074917 -0.077853955 0.12013615 -0.110052094
000230 e5 b3 f7 bd f1 88 ad 3d be 1c 67 bd 00 b0 9a be
       -0.12094859 0.08473385 -0.056423895 -0.30212402

conv1.bias f4 [16]
000000 0e 25 4e bd c0 80 71 3c 77 76 82 3e bc 10 3c 3e
       -0.050328307 0.014740169 0.25481007 0.18365759
000010 8a ff 93 be 1f 85 8f be f2 51 66 3e c5 8b 11 be
       -0.28905898 -0.2803125 0.22492197 -0.14213474
000020 d7 fb c2 3b f1 6a 37 3e 63 61 54 3e 80 38 55 3e
       0.005950432 0.17911889 0.20740275 0.20822334
000030 4d 7e 94 be 53 81 96 3e ba c8 8f 3e 39 68 ac 3e
       -0.2900261 0.29395542 0.2808283 0.33673266

conv2.weight f4 [16, 16, 3, 3]
000000 58 48 13 3c e0 64 bd bc 6f 67 fc 3c ec e3 85 3c
       0.008989416 -0.02311939 0.03081104 0.016344033
000010 af 64 2a bd 0c 69 ab bd 7f e5 4f 3d f8 46 9d 3c
       -0.041599926 -0.083696455 0.050755974 0.01919888
000020 ce 1d 0c 3d cf a2 3f bd c9 92 ea 3c f8 35 6e 3d
       0.03420811 -0.046786126 0.028634446 0.058156937
000030 7d b7 a4 bd 8f 68 f3 bb e7 75 ac bb 67 22 d5 3c
       -0.0804281 -0.007428236 -0.0052630785 0.02601738
000040 93 75 32 bd 4b cb de bc 80 bb a6 bd 45 35 7e bd
       -0.04356916 -0.027196547 -0.081412315 -0.06206252
000050 87 be 81 bc fb 74 ea bd b5 6e 1a 3d 79 2e 3e 3d
       -0.01583792 -0.114480935 0.037703235 0.04643104
000060 67 cd b3 3c 50 45 0d 3d 76 a8 91 bd 25 b1 9f bd
       0.02194853 0.03448993 -0.071122095 -0.077974595
000070 a9 91 a8 3d 41 39 31 3d 06 3d c9 bc 53 8a 24 3c
       0.082309075 0.043267492 -0.024565231 0.010042745
000080 05 28 bb 3c 0e bc 89 3d 23 66 8f 3d b4 2f d2 3b
       0.022846231 0.06725322 0.07001903 0.006414378
000090 49 13 97 bd 3f 40 80 3d 53 ab 17 3d 56 ab 63 3d
       -0.07376725 0.06262254 0.037028622 0.05558332
0000a0 25 79 17 bd 50 43 2a 3d 9f 6c 4a bd e4 c3 4e 3d
       -0.036980767 0.0415681 -0.049419995 0.050479785
0000b0 3a af 8f 3b 08 ef 83 3d 24 db a7 3b 33 a5 f9 bc
       0.0043849023 0.06442076 0.005122559 -0.030474281
0000c0 1a cb 92 3d 07 bb 7e 3d 78 7e c9 3a 14 21 a3 bc
       0.07167645 0.062190082 0.0015372774 -0.019913234
0000d0 f8 42 60 bd b5 b9 8d bc ae 15 af bd e7 f2 95 bd
       -0.054751366 -0.017300466 -0.08549057 -0.073217206
0000e0 9b 74 84 bd 93 66 0a bd 5f 36 6c 3d e6 f1 9b bd
       -0.06467553 -0.03378923 0.05766904 -0.07614498
0000f0 89 6b d8 ba 14 22 a5 3c c3 56 6a bd d2 eb 9e bd
       -0.001651154 0.020157851 -0.05721165 -0.07759823
000100 82 1b 90 bc 62 b7 ae bd 7f ff 1d 3c 22 21 8b 3d
       -0.017591242 -0.08531071 0.009643435 0.06793429
000110 29 c2 24 3d ed ac 3f 3d d6 f1 24 3d ab 8a 3f 3d
       0.040224228 0.046795774 0.040269695 0.046763103
000120 e3 0e c9 bc 8d c7 ac 3d 61 81 82 3c 7f 21 c2 bd
       -0.024543231 0.08436499 0.015930833 -0.09479045
000130 8f 67 52 3c 59 9a 1a bd 72 01 3e bc 4f 4d cd bc
       0.012842073 -0.037744854 -0.011597024 -0.025061278
000140 b2 30 8d 3d 99 4f e4 bc e2 59 39 3b 54 c4 ac 3c
       0.068940535 -0.027869986 0.0028282334 0.02108971
000150 04 0e 15 be 86 51 e4 bd 11 25 59 3d 7d 15 cf bd
       -0.14556128 -0.11148362 0.053013865 -0.101115204
000160 10 e0 2b 3d 25 8d 8b 3d 39 19 7f 3d e8 c0 7d 3c
       0.04196173 0.068140306 0.062279914 0.015487887
000170 50 af 97 bd 09 de 94 bc 74 c8 11 bd f4 d1 36 3d
       -0.07406485 -0.01817228 -0.035591558 0.04463382
000180 e6 a4 ab bc f0 b6 ef bc f9 dd 16 bd 97 1e 30 3d
       -0.020952653 -0.029262036 -0.036832783 0.042997923
000190 c0 62 e9 3c d0 04 87 3d 1c df d2 bc 4b 29 3b bd
       0.02848947 0.06592715 -0.025741152 -0.045693677
0001a0 37 39 d8 bc 8c 0e 32 bd ee eb 81 bb ec 32 e4 bd
       -0.02639447 -0.043470904 -0.0039648926 -0.11142525
0001b0 e3 41 ca bd c4 a3 64 bd ff 5f 52 3c b7 76 82 3c
       -0.09875848 -0.05582024 0.01284027 0.015925748
0001c0 cb 50 7d bd b5 f1 46 bd ac ba a5 3c 51 a3 81 bd
       -0.06184463 -0.048570354 0.020230614 -0.06329978
0001d0 12 bf 56 bd 6c 5c 20 3d 8d 4a 8d 3c 74 1e 76 3b
       -0.052428313 0.03915064 0.017247463 0.0037554773
0001e0 76 09 33 bd 9c 71 be bd de 68 35 bc 82 45 67 bd
       -0.043710195 -0.09299013 -0.011072366 -0.056462772
0001f0 ca af ee bc cc 8c 7e bd e6 7a 9f 3d 2f 9e f5 bd
       -0.029136557 -0.062145993 0.07787113 -0.11993062
000200 1d a4 97 3c cc f2 a0 bd 53 9e 8b bd 8c 8e da bd
       0.018510872 -0.0785881 -0.06817307 -0.1067172
000210 37 ba af bc cb 48 42 3d 42 19 82 bd 93 9a 50 3d
       -0.021451099 0.047432702 -0.06352474 0.050928663
000220 03 f5 78 3d 73 d9 94 bd 31 d6 ad bd 64 b8 58 3d
       0.060780536 -0.07268038 -0.084881194 0.052910224
000230 5a d6 c8 3c 11 49 76 bd 76 63 80 bd 80 f2 aa bd
       0.024516273 -0.060128275 -0.06268971 -0.083470345
000240 8f a2 44 3d 74 00 85 3c e9 bd 3e 3d f8 8a e5 bc
       0.04800659 0.016235568 0.04656783 -0.028020367
000250 2f 08 7f 3d 7c 5c 9d 3d 28 ac 99 3d 9f d0 0b 3b
       0.062263664 0.076836556 0.07503539 0.0021334065
000260 72 26 98 bd d4 0a 44 bd 3b 49 51 bc dd 26 46 bc
       -0.07429208 -0.04786189 -0.012773807 -0.012094227
000270 3d 3c 02 3c fa 8c 5b 3d a4 c0 cc 3c 2d 1c b9 bd
       0.007948932 0.053601243 0.024994202 -0.09038577
000280 9b aa 7d 3d d6 8d 94 3d 64 5f d1 bd 4c 42 c8 bd
       0.06193028 0.072536156 -0.102232724 -0.0977827
000290 04 f5 2a bc 01 8c c9 bc 27 3c 0c 3c 1d 37 c9 3c
       -0.010434393 -0.024602892 0.008559263 0.024562413
0002a0 55 d7 49 bc 97 4e 87 3c 6c 8b bb 3d 62 25 b3 bd
       -0.012319406 0.016516967 0.09157452 -0.087473646
0002b0 7a 08 11 bd 9a 6e 0c 3c 01 f7 2b 3d 40 2d 63 3d
       -0.035408475 0.008571291 0.04198361 0.055463076
0002c0 42 be 1c 3d 4d f9 74 3d f7 3a 16 bd bd 14 d7 3c
       0.03826738 0.059808064 -0.036677327 0.026255006
0002d0 0e 70 ba 3c c8 d4 ad 3c 81 e9 83 3d 1f af 1d bd
       0.02275851 0.021219626 0.06441022 -0.038497087
0002e0 a8 75 22 bd 1d 04 1b 3d ee 9b 44 bd 3f 48 02 bd
       -0.039662987 0.03784572 -0.04800027 -0.03180718
0002f0 ee 1f 5a bc dc 72 11 3d 20 cd 94 3d 6b 04 eb bc
       -0.013313277 0.03550993 0.07265687 -0.02868863
000300 a1 e3 5e 3d 24 cc cf 3c be 1e 7d 3d d7 ad 67 bd
       0.054416303 0.025365897 0.061796896 -0.05656227
000310 64 c9 9d 3d c3 a7 9f bd b0 c6 5e bd 1d 16 7b bd
       0.07704428 -0.0779567 -0.054388702 -0.061300386
000320 90 3c c4 3c a9 16 43 bd 0f 4e 05 3d d0 da 46 bd
       0.02395466 -0.047629032 0.032545146 -0.04854852
000330 0b 35 6d bd 0e dd b4 3c 4f 87 72 bd da dc 86 bd
       -0.057911914 0.022078063 -0.05921107 -0.06585093
000340 49 4f 0c 3b 36 ae 42 bd ec 1a 11 3d 90 54 da 3d
       0.0021409562 -0.04752942 0.035426065 0.1066066
000350 7b 2a 3a 3d fb 06 02 bc a2 91 b4 3d fe c5 82 3b
       0.04545067 -0.007936235 0.0881684 0.0039908877
000360 52 ff a0 bb e7 e1 8c bc c9 be e2 bc 4d 99 97 bb
       -0.004913249 -0.017197562 -0.027678864 -0.004626429
000370 b4 28 9d bd f4 75 c9 bd 50 0d a9 3c c8 85 2f 3c
       -0.07673779 -0.09836951 0.02063623 0.010713048
000380 3d 36 ca bb 62 e7 94 3d c0 12 c8 3c 67 f6 12 bd
       -0.0061710165 0.07270695 0.024423003 -0.03587952
000390 34 12 36 bd c9 c9 cf bd 3a aa 6d bd ec 73 36 bd
       -0.044450954 -0.10145909 -0.05802367 -0.044544145
0003a0 ba 11 6b bd c5 e5 38 3d 4c ab f8 3c ea 17 06 bd
       -0.057389952 0.045141 0.030355118 -0.03273765
0003b0 ab f3 39 bd 79 cd 2d bd 6b 37 83 3d 4f 87 8b bd
       -0.045398396 -0.042432282 0.064070545 -0.068129174
0003c0 0a 0a 27 bd 3a ec f8 bb d8 3a 70 3a 2d 04 10 bd
       -0.04078106 -0.00759652 0.0009164042 -0.035160232
0003d0 eb 34 b4 3b 84 7d 81 bd 4a cc 66 bd d7 c8 59 bd
       0.0054994724 -0.06322768 -0.05634717 -0.05317005
0003e0 8b 78 bf bc aa 3f f5 bb 50 b9 d5 ba ca 5a 9e bd
       -0.023372909 -0.007484396 -0.0016305838 -0.077321604
0003f0 97 c5 6e 3c 15 13 6b bd 29 5b 7d bd 83 cb 9e bd
       0.014573476 -0.057391245 -0.061854515 -0.077536605

conv2.bias f4 [16]
000000 35 3b 20 bd 4d 58 99 3d 1b 4c 1a 3d 8d c2 45 3d
       -0.039118964 0.07487545 0.037670236 0.04828124
000010 f2 c3 80 bd f8 f4 0d 3d e6 40 88 3d df 2a 8b bd
       -0.062873736 0.03465745 0.066530034 -0.067952864
000020 8c 01 02 3c e8 ca b2 3b 74 f9 45 3c 0f bb 51 3c
       0.007934939 0.005456317 0.0120834 0.012800946
000030 40 b2 a0 bb 6b 4b 8f 3c 1e d8 40 3d 87 b0 a2 3b
       -0.0049040616 0.017492017 0.047081105 0.0049648914

bn11.weight f4 [16]
000000 6d 86 76 3f 66 ae 86 3f fd ea 81 3f de fa 79 3f
       0.9629887 1.0521972 1.0149838 0.9764842
000010 7f 74 83 3f 04 12 5a 3f 54 d9 7f 3f 82 7b 78 3f
       1.0269927 0.8518374 0.9994099 0.9706346
000020 8c 3b 7e 3f 7c ed 82 3f e3 51 73 3f 90 5d 80 3f
       0.9930961 1.0228724 0.95046824 1.0028553
000030 e4 9a 84 3f 4f 8c 77 3f 99 aa 82 3f ea aa 83 3f
       1.0359769 0.9669847 1.0208312 1.0286534

bn11.bias f4 [16]
000000 0b 26 da 3b f2 05 1b bd 3d 9e 6e bd 13 b4 ad bc
       0.006657367 -0.037847467 -0.058256377 -0.02120403
000010 27 57 bd bc 6c ae 98 bc 5d d0 02 3d de 7e 8a 3d
       -0.023112847 -0.018637858 0.031936992 0.06762479
000020 28 97 16 bc 04 fb 51 3d f4 32 30 3d d8 97 7a 3d
       -0.009191312 0.051264778 0.043017343 0.061179966
000030 c7 1c 1e bd 14 a7 0f 3d a5 d5 3b bd 87 d2 26 bd
       -0.038601663 0.035071447 -0.045858044 -0.04072812

bn11.running_mean f4 [16]
000000 4e a3 ec bc 66 51 ca 3b 19 e7 7e 3e 7f 73 41 3e
       -0.028886463 0.006174254 0.24892844 0.18891715
000010 dd 62 94 be 09 59 8b be 84 b9 78 3e 5c 71 06 be
       -0.28981677 -0.27216366 0.24289519 -0.1312918
000020 45 b2 92 3b 19 7f 34 3e 33 3c 62 3e a7 40 57 3e
       0.004476818 0.17626609 0.22093277 0.21020757
000030 81 7c 95 be a9 80 9d 3e 3f 52 89 3e 26 19 a6 3e
       -0.2919655 0.30762222 0.2682056 0.32441062

bn11.running_var f4 [16]
000000 8e ec a1 3a b1 70 ed 39 1e ee bb 39 63 19 ef 39
       0.0012353824 0.00045288124 0.0003584483 0.00045604547
000010 ce bb 41 3a 3e cb 10 3a 9f 12 7d 3a af 71 28 3a
       0.0007390351 0.00055234495 0.0009653959 0.00064256316
000020 c2 0f bf 39 d9 0d 6f 39 5c e1 25 3a 4b 96 66 3a
       0.000364421 0.00022797975 0.00063278317 0.0008796199
000030 66 87 31 3a dd 64 55 3a 44 f4 5e 3a c4 c5 1e 3a
       0.000677219 0.0008140335 0.00085050263 0.0006056691

bn12.weight f4 [16]
000000 74 2b 86 3f 3d be 82 3f 7c a4 8d 3f 99 e6 76 3f
       1.0482011 1.0214306 1.1065822 0.96445614
000010 bc cb 7d 3f 93 bc 83 3f 7b 4e 6f 3f b8 e6 87 3f
       0.99139 1.0291923 0.93479127 1.0617285
000020 68 94 77 3f 5a 64 69 3f 83 02 75 3f 34 67 82 3f
       0.96710825 0.9116875 0.9570696 1.0187745
000030 c1 52 7c 3f a0 86 89 3f a0 cd 7f 3f 8d dd 7a 3f
       0.9856377 1.0744209 0.99923134 0.9799431

bn12.bias f4 [16]
000000 b3 4b 04 bd 3f be 66 bd b7 18 34 bd 18 85 25 bd
       -0.032298755 -0.056333777 -0.043968882 -0.04041013
000010 f3 d3 c5 3b 72 a4 ed bc d3 87 c0 3c b0 09 2f bd
       0.006037229 -0.029009078 0.023502266 -0.042733848
000020 04 62 34 3c 5f 8d f4 3b b9 1a c9 bc 15 ba b3 bc
       0.011009697 0.007463142 -0.024548875 -0.021939317
000030 ee 67 86 bc a7 9d ea 3c fe b4 e0 3c 5f d8 87 bc
       -0.01640698 0.028639628 0.027430054 -0.016582666

bn12.running_mean f4 [16]
000000 0e a3 fd be f4 2d 7c be e6 5c f4 be ff 96 05 3f
       -0.49538463 -0.24626905 -0.47727126 0.52183527
000010 fc db 11 bf 8a 79 65 3e 09 02 00 3e 1c 58 8c 3d
       -0.56976295 0.22409645 0.12500776 0.06852743
000020 22 1f 52 3e 92 f3 ce 3d b6 f8 ce 3d b4 ba f1 3d
       0.20519689 0.10105051 0.101060316 0.11803189
000030 64 7d 49 3d 37 13 5f be 4a 97 28 3e 11 8b 68 3e
       0.049191847 -0.21784674 0.16463962 0.227093

bn12.running_var f4 [16]
000000 01 c0 0d 3e 53 12 ce 3d 2f 58 20 3e b7 5e 34 3e
       0.13842775 0.10062089 0.1565864 0.17614256
000010 d9 0f 75 3e b1 13 46 3e f3 1c 58 3e 30 c1 16 3d
       0.23931827 0.19343449 0.21104793 0.03680533
000020 d3 2c d9 3e cd 77 ba 3e 55 85 97 3e 94 41 53 3e
       0.4241701 0.36419526 0.29593912 0.20630485
000030 a0 ef 1b 3f 53 65 1b 3e e9 01 75 3e 05 21 18 3e
       0.60912514 0.15175371 0.2392651 0.14856346

conv3.weight f4 [32, 16, 3, 3]
000000 bf a2 a4 bd 8b 81 8a 3c cc 0c a7 3b db a5 82 3d
       -0.08038854 0.016907474 0.005097961 0.06379291
000010 97 2e 88 bd bb 6f 84 3d 0d 19 f6 3c 0b 37 81 bc
       -0.06649511 0.064666234 0.030041242 -0.015773317
000020 78 1c 09 3e 6a ff 95 3b 1c 35 67 bd 4d fd 92 bd
       0.13389766 0.004577567 -0.056447133 -0.071772195
000030 88 7b bb 3d 3c d7 6f bb 65 c0 57 3d 39 b9 76 bc
       0.09154421 -0.0036596796 0.052673716 -0.015058809
000040 bd 38 9d 3d b4 49 e2 3d 5d 3e 67 3c d2 6e 21 3d
       0.076768376 0.11049214 0.01411399 0.039412327
000050 2d a7 57 bd 63 86 3a bd 1c db 83 bd f1 9a 44 bd
       -0.052649666 -0.045538317 -0.06438276 -0.047999326
000060 c3 e9 a2 3d 5e ae 1a 3c 7d 36 8d 3d 1e 5d 24 3c
       0.07954743 0.009440986 0.068951584 0.0100319665
000070 5d 2f 7a bd 1a 2e 23 3d 8f a9 5a 3d 72 3f 88 bd
       -0.061080325 0.039838888 0.05338436 -0.06652726
000080 a2 54 7d 3d 45 63 af bd 64 b1 74 3d 24 c4 4a bc
       0.06184829 -0.08563856 0.059739485 -0.012375865
000090 37 b4 b8 b9 e9 d0 80 3d a0 06 93 bb c1 b1 98 bd
       -0.00035229485 0.062898465 -0.0044868737 -0.07455779
0000a0 14 63 4a 3d d2 26 c4 3c ba b1 11 3d 98 54 85 3d
       0.049410895 0.023944292 0.035569884 0.065102756
0000b0 73 23 19 bd a9 88 ee 3b c1 db 28 bd 55 da a1 3d
       -0.037387323 0.0072794748 -0.0412252 0.07902972
0000c0 6a 6c 63 3d 55 1c eb 3d a4 8a 91 3d 70 f5 2e bd
       0.055523314 0.11480013 0.07106522 -0.042714536
0000d0 cd a2 27 3c 23 d9 61 3d 71 5d ca 3c 2f b9 c2 3c
       0.010231686 0.05513872 0.02470276 0.023769943
0000e0 52 85 63 bd dd fd 09 3d 00 86 57 bd 1f e6 75 3d
       -0.055547066 0.03368937 -0.052618027 0.060033914
0000f0 4e 05 90 3d ae a0 de 3d d2 6f 4a 3c 06 eb 27 3a
       0.07032262 0.10870491 0.012355762 0.00064055657
000100 eb 8b 12 3d 8a ac 89 bd 3b 5c 33 bd 9e a7 08 bd
       0.035777967 -0.06722362 -0.04378913 -0.033362977
000110 00 29 b9 3d 6e ba 2b 3d 0a c3 8a 3d 88 2e 8e 3d
       0.09041023 0.04192584 0.06775482 0.06942469
000120 77 4b 77 3d 9a 0c 8f bd ab 02 60 3d 0b 8b 90 3d
       0.060374703 -0.069848254 0.054690044 0.0705777
000130 da 14 aa bc e4 33 95 bc 45 cf 00 3c ef 03 43 bd
       -0.020761896 -0.01821322 0.007861917 -0.047611173
000140 d2 e5 94 3d 2d f3 04 bd ee b1 09 39 c2 40 7f 3b
       0.07270397 -0.032458473 0.00013131622 0.003894851
000150 da 0e 0f bd 48 77 58 3d dd 60 b2 3d c1 1c 19 bd
       -0.034926273 0.05284813 0.087098815 -0.037380937
000160 e6 af 8a bc 91 43 ca 3c ac a0 d4 3c d6 62 24 3d
       -0.016929578 0.024690421 0.02595552 0.04013332
000170 75 ee 49 3d e5 5e 54 bd 03 20 22 bd fc 37 20 3c
       0.049299676 -0.05184831 -0.03958131 0.009778973
000180 1f c1 1a 3c ac 0d 38 bd 8b 25 3a bd 6c 62 d2 b9
       0.009445458 -0.044934914 -0.04544596 -0.0004012765
000190 b3 be ad 3c e0 29 0d bc a4 48 86 bd 10 26 4a bd
       0.021209097 -0.008615941 -0.06556824 -0.049352705
0001a0 6e 1c 6b bd 8e 00 a0 3d 35 8e 26 bd ae 76 5a b8
       -0.05740016 0.07812606 -0.040662963 -5.208578e-05
0001b0 61 af 0a bd 51 86 8f 3b 8a 18 a5 bd 5b 49 7a bd
       -0.03385866 0.0043800254 -0.08061321 -0.061105113
0001c0 2a 7e 81 3d 21 6c 86 3d c5 d1 f1 bb 77 93 57 3d
       0.06322892 0.06563593 -0.007379743 0.052630868
0001d0 e9 2b 23 bd 45 5e 42 bc e1 fa 47 bd 9b 4d 41 bd
       -0.039836798 -0.011863296 -0.04882324 -0.04719315
0001e0 94 ff a4 bd 1b 0e 1e 3d 15 d1 b1 bc ed ca 4f 3d
       -0.0805656 0.03858767 -0.021706143 0.050730634
0001f0 bb 74 65 3d 36 3e 34 3d 10 40 c4 3a 66 d9 88 3c
       0.056019526 0.04400464 0.0014972705 0.016705226
000200 88 7e 37 3d 97 66 05 3d cb 79 25 3d 11 6a 56 bb
       0.044798404 0.03256854 0.040399354 -0.003271703
000210 3a de 96 bc 54 fd f8 bc d6 98 1d 3e 7f c3 b7 3c
       -0.018416513 -0.030394234 0.15390334 0.022432087
000220 9e d1 24 3d 1d d1 97 bd 13 c5 17 bd a4 b3 6c bd
       0.04023897 -0.07412932 -0.03705318 -0.057788506
000230 bd bf a6 3d ca c2 15 bd bb 2f 04 bd f0 75 ad bd
       0.0814204 -0.03656272 -0.03227208 -0.084697604
000240 fb bd 82 3d 8f 89 b9 3d 75 4f 2a 3d 90 f4 4a 3d
       0.06383892 0.0905944 0.041579682 0.04954964
000250 0f fd 43 bd 5a c1 81 bd 91 ac 0d be 29 58 c9 3d
       -0.047848757 -0.06335707 -0.1383536 0.09831268
000260 a2 89 eb 3b 98 d0 4b bc e2 dc 00 3e 0f e5 1f 3c
       0.007188038 -0.012439869 0.1258426 0.009759202
000270 ef 99 01 3b c2 47 22 bd a1 cd c0 3c 60 8c 32 bd
       0.001977559 -0.039619215 0.023535552 -0.043590903
000280 a7 93 b7 3d 91 19 ad bc 3d c2 1b 3c db c3 70 bd
       0.08963709 -0.021130355 0.009506759 -0.058780532
000290 b0 9c 25 bb b7 9b 06 bd d1 e9 9c bd 62 2f 42 3b
       -0.0025270395 -0.032863345 -0.076617844 0.0029630293
0002a0 c5 36 07 bc 7c b5 4a be 48 bb 52 bc c6 3b 06 3c
       -0.008252804 -0.19795793 -0.012862034 0.008192962
0002b0 53 88 65 bd 70 00 05 bd b4 9b 21 3d d9 03 7a 3d
       -0.056038212 -0.03247112 0.03945513 0.061038826
0002c0 e2 39 bc 3b a5 85 c5 3d c1 c3 cf 3d bb a0 68 bc
       0.005744205 0.09644631 0.10144759 -0.014198477
0002d0 07 ae cf 3a 8e 6e 1f bb 89 6b 15 3c f7 68 82 bd
       0.0015844711 -0.002432737 0.009119877 -0.06367677
0002e0 41 5d 0e 3d 7b c2 ba bc c4 fa c3 bd 1d 84 af bd
       0.034756903 -0.022797814 -0.09569314 -0.085701205
0002f0 0c e9 d2 bb ba ac cc bc 01 a4 13 bc e2 58 81 bd
       -0.0064364728 -0.024984706 -0.00901127 -0.06315781
000300 48 b2 81 bd 45 4c 2f 3d ab 6c c5 bd 02 b1 90 bc
       -0.063328326 0.042797346 -0.096398674 -0.017662529
000310 09 e0 a3 bb 13 b6 e1 bc 27 96 95 3c 77 41 67 bd
       -0.0050010723 -0.02755264 0.018260075 -0.056458917
000320 63 42 87 3d 7f a4 95 bd 27 07 86 3d 50 b4 86 3d
       0.06604459 -0.07306766 0.06544333 0.06577361
000330 92 dd 3f bd d2 a4 23 3d 3e c4 ad 3b 24 ec 84 3c
       -0.046842165 0.039952107 0.005302935 0.016225882
000340 ab 19 0a 3e 39 fb 31 bd 70 54 cf bc 26 71 07 3d
       0.13486354 -0.043452475 -0.025308818 0.03306689
000350 11 8a 5e bd 12 ed 62 bd ad 19 69 bd b2 57 00 be
       -0.05433089 -0.05540187 -0.056909252 -0.12533453
000360 b6 ef 81 3d 8d 7b 00 3d a3 8e e8 bc 28 ae 43 bd
       0.06344549 0.031367827 -0.028388327 -0.04777351
000370 13 ba 73 3d 43 47 78 3c 4e 23 28 bd 4f b8 83 3d
       0.059503626 0.015153709 -0.041049294 0.064316384
000380 fd b2 eb bc 50 6c e0 3c bd fa 35 bd 77 ef 74 3d
       -0.028771872 0.027395397 -0.044428576 0.059798684
000390 f9 da 3b bb ed 0e af 3c 68 4e 2a bd df f5 0f bd
       -0.0028664453 0.021369422 -0.04157868 -0.03514659
0003a0 ef de ca bc 80 11 a2 bd f4 01 a3 3a 4c ef 2a 3d
       -0.024764506 -0.07913494 0.0012436495 0.041732118
0003b0 5d 9b 27 3d 91 f5 63 bd 58 ce de bb ef fd c2 bd
       0.04091965 -0.055654112 -0.0067995004 -0.0952109
0003c0 c5 02 f9 bc f2 c4 68 bd 29 7a b4 bd 8b 2f c6 3c
       -0.030396828 -0.056828447 -0.08812363 0.024192592
0003d0 8b 94 74 3d 0b 85 d7 bc d7 06 41 3d d0 ad a3 bd
       0.059711974 -0.026308557 0.047125664 -0.079921365
0003e0 27 4f 63 bd 7e 90 8b 3d 85 7c 00 bb 89 34 e9 bc
       -0.055495407 0.06814669 -0.001960547 -0.028467434
0003f0 5f d7 ca 3c 33 a6 a0 bc 59 6e 4d bb 8e cc 2d bd
       0.0247609 -0.0196105 -0.003134629 -0.042431407

conv3.bias f4 [32]
000000 ef f6 a0 bd 63 e2 e6 3c 10 67 b6 bc 4a 96 f7 bc
       -0.07859599 0.028184121 -0.02226594 -0.03022303
000010 47 4b 78 bd f5 b7 1d 3c 5c 9f 4b bd 94 06 83 bd
       -0.060618665 0.009626378 -0.049712524 -0.06397739
000020 a6 a0 55 bc 5a a6 b3 bb 72 aa 5d 3d 2d d7 7c 3d
       -0.01303879 -0.005482477 0.054117627 0.061728645
000030 06 9e 36 bd 4a cd 10 3d 83 11 6c 3c c8 c0 99 3c
       -0.044584297 0.03535203 0.014408472 0.018768683
000040 03 66 96 3d 1c 4f 8f bc e9 bd 91 3d 8d a0 6d bd
       0.07343676 -0.017493777 0.071163006 -0.05801444
000050 2f 0a 46 bd b8 44 34 3d 7f 7e 70 3c de 11 cd 3c
       -0.048349556 0.044010848 0.0146785965 0.025032934
000060 52 15 d8 3c d6 d3 41 3d 62 54 70 bd 86 4d 96 bd
       0.026377354 0.047321163 -0.058674224 -0.07339005
000070 be b8 91 bd 0b c6 84 3d 4a ea 9a 3d 1b 4e 53 bd
       -0.07115315 0.06483086 0.07564218 -0.05158816

conv4.weight f4 [32, 32, 3, 3]
000000 95 2d 27 3d 34 5a 8b 3c 5b c4 a8 bc 24 5a bd 3a
       0.040814955 0.017010786 -0.020601442 0.001444642
000010 ab ad 62 3d 49 14 3f bd 2b 0f 8b 3c c6 72 09 3c
       0.055341404 -0.046650205 0.016975006 0.0083891805
000020 be 74 09 bd 0a 99 08 3d 90 ba b5 3c 91 07 32 3d
       -0.0335586 0.033349074 0.022183686 0.043464247
000030 7a 0d 6d bd e7 b6 18 3d fb a1 29 bd 26 7f 3a bc
       -0.05787418 0.037283804 -0.041414242 -0.011382854
000040 6d 53 8b bc 3c 27 95 bc 5f 51 4b 3c 74 b4 87 3d
       -0.017007554 -0.018207185 0.012409537 0.066262156
000050 48 9e ef 3c f9 76 42 3d 6c a2 b1 3c 69 73 24 3d
       0.02925028 0.047476742 0.021683894 0.040149126
000060 da d6 1f 3d 86 8c 74 3d 22 22 53 bc 58 9f 28 bd
       0.039023258 0.059704326 -0.012886556 -0.041167587
000070 bd ae e7 bc cb e9 6d 3d b0 72 65 3d f4 74 46 bd
       -0.028281564 0.05808429 0.056017578 -0.04845138
000080 10 23 58 3d d8 70 37 bd 67 2a e9 bc 5e fb 42 bd
       0.052767813 -0.04478535 -0.028462602 -0.047603004
000090 d1 85 be 3d 33 84 34 3c 58 ae 56 bd ac 3b b6 3c
       0.09302867 0.011017847 -0.05241236 0.02224525
0000a0 23 2a 04 bc de 36 33 3d f9 75 90 ba c8 f9 ab 3d
       -0.008066687 0.043753497 -0.0011021487 0.08397251
0000b0 ed 49 40 3c 3b ac be bd 81 19 8a bd d9 6d b6 bd
       0.011736375 -0.09310194 -0.06743146 -0.089076705
0000c0 5d 3a a2 3c 49 aa d2 3c 12 c6 42 3b d1 46 78 bd
       0.01980322 0.025715964 0.002972011 -0.06061441
0000d0 88 40 81 bd 4b 0c 29 bd 28 4d eb 3a 28 69 76 3d
       -0.063111365 -0.04127149 0.0017952072 0.06015888
0000e0 62 04 82 bc f8 79 51 3d 1b 3e 1c 3c 76 42 be bc
       -0.01587123 0.05114171 0.0095362915 -0.02322505
0000f0 14 44 50 bd f1 84 5a 3c 97 52 dc bc fa ae b9 bc
       -0.050846174 0.01333736 -0.02689485 -0.022666443
000100 9f f7 cc 3c 90 c8 3b bd c3 14 58 bc 28 9c 87 bd
       0.025020419 -0.04584557 -0.013188544 -0.06621581
000110 d1 f1 09 3d 53 8f a3 bd 9d 0c f1 bc fe 48 70 3c
       0.03367788 -0.07986321 -0.02942496 0.01466584
000120 77 cb 29 3c ba c8 02 bb 99 85 01 bc f1 1d a6 3c
       0.010363451 -0.0019956068 -0.007905387 0.020277949
000130 1c cf 95 bb 67 54 75 bc c7 31 9f bd d3 97 2d bd
       -0.0045718085 -0.014973736 -0.07773166 -0.04238112
000140 65 5c b1 bc 8f ba fd bb df 1f 6f bd 7d e0 ce 3c
       -0.021650502 -0.007743187 -0.058380004 0.025253529
000150 50 ab 2f bd 88 c2 49 bd b7 35 a1 bc 96 79 c9 bb
       -0.042887986 -0.049257785 -0.019678934 -0.0061485274
000160 9c c7 e1 3c ad bf e5 3c 4d 9a 21 3d 08 25 e5 bc
       0.027561001 0.0280455 0.039453793 -0.02797176
000170 11 d1 84 bd c0 d5 29 bd 7d 42 27 bd 73 fa 82 3d
       -0.06485189 -0.041463614 -0.040834893 0.06395426
000180 aa 96 20 bc 63 19 02 bd d3 08 38 3d 0f 6a 08 bc
       -0.009801546 -0.031762492 0.04493029 -0.008326068
000190 b0 11 3f bc 90 8f 22 3b b4 86 63 3c b9 f7 9a bd
       -0.011661932 0.0024804808 0.013887096 -0.075667806
0001a0 6d 00 f2 bc ce a1 c3 bb 1f 0b e5 3c 3f 47 cd 3b
       -0.029541219 -0.0059702164 0.027959405 0.0062645967
0001b0 32 20 7a bc c3 5c f7 3c 34 28 d4 bb c0 8a e8 bb
       -0.015266465 0.0301956 -0.006474519 -0.0070966184
0001c0 35 28 45 3d 56 c0 9d bd 5b 7e a4 3c f8 0d b2 bd
       0.048134048 -0.07702701 0.020079782 -0.086940706
0001d0 17 27 d0 3b 8c 1d 99 bd 0e c7 2d bd ea 44 fb bc
       0.006352316 -0.07476339 -0.04242616 -0.03067251
0001e0 d9 1a 1c bc 59 e1 c3 3d 6a e6 bd bc e6 f0 5f 3c
       -0.009527885 0.09564466 -0.023181159 0.0136682745
0001f0 dc 22 5b 3d 86 94 97 bd bb f8 d8 bb 2d ec e9 3c
       0.05350004 -0.074013755 -0.006621448 0.028555
000200 10 0e 26 bc d6 95 6b 3c 3d e1 1d 3c 14 96 19 3d
       -0.010135189 0.014378985 0.0096362205 0.03749664
000210 82 0b 9b 3c 1a 99 40 bc 3d e5 8b bc 10 bb 84 bd
       0.018926386 -0.011755252 -0.017077083 -0.06480992
000220 e4 eb d2 bb fd 22 b4 ba 12 70 1a bd f0 1f 9a bc
       -0.0064368118 -0.0013743337 -0.037704535 -0.018814057
000230 a6 c5 9b bd 5c d0 6f bb e1 15 92 3d 9d 79 48 bd
       -0.07606058 -0.0036592698 0.07133079 -0.048944104
000240 9f 53 fe 3c c9 3b a9 3c de e2 36 bd 0a 56 07 bc
       0.031045733 0.02065839 -0.04464995 -0.008260259
000250 1b 0b 4a bd 89 fb 9a bb bd 01 7f bd ab 23 a4 bc
       -0.049326997 -0.0047296924 -0.062257517 -0.020036539
000260 15 b6 b5 b8 47 6d 55 bd 89 be e9 ba 2a de 8d 3d
       -8.664668e-05 -0.052106168 -0.0017833273 0.0692714
000270 a3 f4 be bc 84 d9 94 bb ae f7 68 bc 82 96 66 bd
       -0.023310011 -0.0045425314 -0.014219208 -0.05629588
000280 b3 26 63 3a 4c ff aa bb 1f 15 05 3c e7 49 be 3b
       0.00086651294 -0.005218422 0.008122711 0.0058071497
000290 61 0b 70 3d a4 3b 78 bd cf ab 98 bd 70 ff ab bd
       0.0586046 -0.060603753 -0.07454645 -0.0839833
0002a0 a0 28 32 bd eb fe df bc 3c 4f 1f bd cb ed ad bd
       -0.043495774 -0.027343234 -0.038893923 -0.08492621
0002b0 86 4c 05 bd 10 ad 97 bc 6e 7c 1a bd de 98 c2 bc
       -0.03254368 -0.01851514 -0.03771632 -0.023754533
0002c0 42 d3 91 3a 3d d4 22 bd 79 bf 2f bd d2 ee 23 bd
       0.0011125582 -0.039753187 -0.042907212 -0.04002268
0002d0 bc 45 81 bd 3a fc 5b bd b9 34 26 bd ce f1 4f bc
       -0.06312129 -0.05370734 -0.040577624 -0.012691928
0002e0 92 5d a4 bd 78 f7 7d bd 6c 45 95 bc e1 7f 71 bd
       -0.080256596 -0.062003583 -0.01822158 -0.058959845
0002f0 cf fb 8a bb 69 a7 d2 3c 62 c9 10 bd 0a 4f 04 3d
       -0.0042414437 0.025714593 -0.035348304 0.03230194
000300 c0 78 90 bd 28 c1 dc bc 12 db 83 3c 75 e4 cb 3b
       -0.07054281 -0.026947573 0.016095672 0.0062223026
000310 52 01 3c 3c 70 d4 54 3d be 3a ba bd d9 e6 65 bd
       0.011474924 0.05196041 -0.090932354 -0.056128357
000320 d1 70 74 bd e6 53 da 3c 03 e9 88 bd 46 8e 23 3d
       -0.059677903 0.026651334 -0.066850685 0.039930604
000330 2f 47 bd 3c 77 f8 06 bd db 43 18 3c 5c d3 7b 3c
       0.023105232 -0.0329518 0.009293522 0.015370216
000340 fb 88 17 3d 07 cf 53 3b 84 b8 68 bb c1 0c 86 bc
       0.03699587 0.0032319443 -0.003551037 -0.016363503
000350 24 c5 08 bd b3 66 99 3c 3d 32 3f bd 8d ac 71 bc
       -0.033391133 0.018725729 -0.04667877 -0.014750612
000360 f0 83 43 3d 8f af ca 3c 8c 72 5f bd 27 f8 28 3d
       0.047733247 0.024741916 -0.0545526 0.04125228
000370 e0 f7 11 3d c9 8c ad 3c 30 83 b4 3c 0b 80 c2 3c
       0.035636783 0.021185296 0.022035211 0.023742696
000380 0e bc f4 3c 07 63 90 bd 15 d1 4d bd 66 6b 45 bd
       0.029874828 -0.07050138 -0.050248224 -0.048198126
000390 6b ba b6 3c ff d2 14 3d a3 77 dd ba a3 9c 63 bd
       0.022305688 0.036334034 -0.0016896616 -0.055569302
0003a0 82 8c 34 bd ae 38 28 3a 90 0a dc bc a9 09 1b bd
       -0.04407931 0.00064171373 -0.026860505 -0.03785101
0003b0 ca d7 9e 3c 4e 31 e3 3c f4 66 cd 3c 6e f2 2c bd
       0.019390006 0.027733471 0.025073506 -0.042223386
0003c0 08 73 94 bc ba 02 f2 ba 02 22 17 bc 43 d4 0b bb
       -0.018121257 -0.0018463947 -0.009224417 -0.0021336235
0003d0 38 dc 47 bd 03 15 cb bb c2 d8 29 bd d5 fb 1c bd
       -0.048794 -0.006197573 -0.041466482 -0.038326103
0003e0 5c 5e b3 3c c0 b7 a6 bc a8 a5 c3 3b c5 28 85 bd
       0.02189558 -0.02035129 0.0059706755 -0.06501917
0003f0 5e b1 1d bd f3 ab 29 bd 97 d5 61 3c 00 87 46 bd
       -0.03849923 -0.04142375 0.013783834 -0.04846859

conv4.bias f4 [32]
000000 15 f4 11 bc 68 9e 2f 3d 7b 6f 56 3d a3 ce ac bc
       -0.008908291 0.042875677 0.05235241 -0.021094626
000010 6a d6 63 3d 62 d3 50 bc 39 fc 1d 3d 82 e3 6a ba
       0.055624403 -0.01274571 0.038570616 -0.0008960293
000020 6d f5 3e 3d 3f c6 03 bd 3d 41 2f bb d0 59 31 3d
       0.046620775 -0.032171484 -0.0026741766 0.043298542
000030 ff 7e 2a bc 3a 0c f5 bb 04 39 06 3a 83 b7 2f bd
       -0.010406255 -0.007478264 0.00051201903 -0.04289962
000040 d3 24 70 bd b2 26 8c bb 23 cb 5a bd 7a 47 60 bd
       -0.05862887 -0.004277074 -0.053416383 -0.054755665
000050 26 7c 4f bd e7 01 58 bd 25 ae 2e bd b3 c4 20 ba
       -0.050655507 -0.05273619 -0.042646546 -0.0006132826
000060 10 8d 52 bd 7a 55 47 bd 8a d7 b9 3c 1c 14 08 3d
       -0.05140406 -0.0486655 0.022685785 0.033222303
000070 50 b4 15 bc a9 95 2d 3d 17 54 4e 3d 99 74 6e 3d
       -0.009137228 0.042379055 0.050373163 0.058216665

bn21.weight f4 [32]
000000 6f 91 78 3f cc 3e 82 3f 04 57 7f 3f a8 c5 7f 3f
       0.97096914 1.0175414 0.9974215 0.99910975
000010 0d 33 81 3f 4e a6 84 3f 7c cc 84 3f 29 37 7f 3f
       1.0093704 1.0363252 1.0374904 0.9969354
000020 d2 15 80 3f 32 ca 7f 3f ae 7b 80 3f 07 51 80 3f
       1.0006659 0.999179 1.0037744 1.0024728
000030 1f 17 7c 3f 84 ba 81 3f 61 6a 80 3f 22 c8 75 3f
       0.9847278 1.0135045 1.0032464 0.96008503
000040 e8 9f 81 3f 5d 3a 7c 3f 0d a1 80 3f 32 ca 7f 3f
       1.0126925 0.98526555 1.0049149 0.999179
000050 14 4c 74 3f b9 69 7e 3f ea 9f 7f 3f 9b 79 81 3f
       0.95428586 0.9938007 0.99853384 1.0115236
000060 a8 9c 81 3f 3c 55 7e 3f 01 56 80 3f d4 44 80 3f
       1.0125933 0.9934881 1.0026246 1.0021005
000070 a0 93 7f 3f 92 a2 7c 3f 2e 2a 81 3f 5c 5f 78 3f
       0.9983463 0.9868556 1.0090997 0.97020507

bn21.bias f4 [32]
000000 64 e4 06 bd 75 50 d9 bb 18 41 0f bc 0c ca a1 3a
       -0.032932654 -0.0066319057 -0.008743547 0.001234354
000010 5a 38 5b bb 14 13 95 3b b5 fb 02 bc 5b 63 61 bd
       -0.0033450336 0.0045493934 -0.007994582 -0.055026393
000020 0e f9 b4 39 44 13 2f bb e2 37 4e ba 9f e1 28 bb
       0.00034517836 -0.0026714364 -0.00078666036 -0.0025769246
000030 6f b5 99 bc df fc 74 3b d8 e9 e3 bc 3f ed 8a 3a
       -0.018763272 0.0037382168 -0.027821466 0.0010599269
000040 49 31 64 bc 78 8c a0 bc 04 b9 48 bc 70 84 44 bc
       -0.013927766 -0.01959823 -0.012251142 -0.011994466
000050 2e 63 5d bd 5d 03 1b bd 75 f7 dc 3b ed 94 91 bc
       -0.054049663 -0.037845004 0.0067433664 -0.017771209
000060 73 9a 30 bc c0 6f 81 bc 4b 8b a4 3b a7 c1 29 bc
       -0.010779011 -0.015800357 0.005021488 -0.010361112
000070 5a 06 df bc fb 23 35 bc 93 b5 e9 3b 0e 02 66 bc
       -0.027224708 -0.011055942 0.007132241 -0.014038576

bn21.running_mean f4 [32]
000000 5f b9 cc 3e d1 16 c0 be 7c b3 16 3e cb c9 74 bf
       0.39985177 -0.37517408 0.14716905 -0.9562041
000010 cb 5f 98 be 39 7f 48 bd 80 6c 4c 3e f8 78 9f 3d
       -0.29760584 -0.048949454 0.19963264 0.07786745
000020 8c c0 0c 3e 21 a6 7f bf 94 eb 84 be b6 b0 9d bf
       0.13745326 -0.9986287 -0.25960982 -1.2319553
000030 4a 40 17 3f e0 21 6a bd 55 c6 3c 3f 97 f8 76 3e
       0.5908247 -0.057161212 0.7374013 0.24118267
000040 cc f1 a4 3e 6a ed 28 3f 7b 38 4f 3f 5b c6 05 bf
       0.32215726 0.65987265 0.8094556 -0.5225579
000050 01 ea 9d 3e 64 a4 69 3f f1 7c 1d 3f c9 05 8c bf
       0.30842593 0.91266465 0.6151877 -1.0939265
000060 af bc a3 3e 5e c2 29 3f 6a 71 27 be 0e e1 af bf
       0.31979892 0.66312206 -0.16351858 -1.3740556
000070 ad 00 03 bd 9c 5d 99 3d 30 d0 74 3e 77 fd 3e be
       -0.031983066 0.07488558 0.23907542 -0.18651377

bn21.running_var f4 [32]
000000 c6 f8 b5 3d 2c 25 29 3e ca a2 21 3e a2 39 01 3f
       0.088853404 0.16518086 0.15784755 0.50478566
000010 dd 73 4f 3e a4 9d b9 3e bf c2 52 3e 3e d2 96 3e
       0.20259042 0.36253083 0.20582102 0.29457277
000020 fe 88 44 3e dc e5 11 3f f9 45 c3 3e 9a 55 3c 3f
       0.19192883 0.5699136 0.38139322 0.7356812
000030 31 40 c2 3e 78 b9 bd 3e 6c 90 e1 3e 2a d0 6c 3e
       0.379396 0.37055564 0.44055498 0.23126283
000040 fd 5a 8f 3e 44 db 9e 3e b4 79 ac 3e b1 3e 09 3e
       0.27999106 0.3102666 0.33686602 0.13402821
000050 c4 d8 ba 3e 55 a7 00 3f 75 00 12 3f 4a 87 29 3f
       0.36493504 0.5025533 0.5703195 0.6622206
000060 80 2e b0 3d 21 c6 79 3e 11 d6 64 3e f5 e1 1f 3f
       0.08602619 0.24391986 0.22347285 0.6245416
000070 31 c0 10 3e d1 f0 70 3e 02 6c 34 3e e4 4d 47 3e
       0.14135815 0.23529364 0.17619327 0.19463307

bn22.weight f4 [32]
000000 18 d2 80 3f c7 58 7e 3f 05 db 7b 3f 0b ce 85 3f
       1.0064116 0.99354213 0.9838107 1.0453504
000010 ee a7 7a 3f 42 e2 72 3f 78 6b 78 3f 09 4b 84 3f
       0.9791249 0.9487649 0.97038984 1.0335399
000020 89 f8 7e 3f 6f 9a 7b 3f 58 c8 75 3f fb 63 85 3f
       0.99597985 0.9828252 0.96008825 1.0421137
000030 e6 7d 81 3f 62 d8 7c 3f b3 f8 81 3f de 72 82 3f
       1.0116546 0.98767674 1.0154022 1.0191305
000040 17 2f 81 3f d7 11 79 3f 72 64 7b 3f 9a 52 77 3f
       1.0092496 0.97292846 0.9820014 0.96610415
000050 02 14 82 3f 46 93 8b 3f 2d 84 80 3f 02 4c 7b 3f
       1.0162356 1.0904319 1.0040337 0.98162854
000060 1b 91 81 3f 69 56 87 3f 39 e5 80 3f f8 8f 80 3f
       1.0122408 1.0573245 1.0069953 1.0043936
000070 15 4d 7d 3f 3a d5 7e 3f da 0f 7c 3f 3d 4b 81 3f
       0.9894574 0.9954411 0.9846169 1.0101086

bn22.bias f4 [32]
000000 b8 33 81 3d 2a 01 09 3d 15 8f 62 3d ea 0f b2 3c
       0.06308693 0.033448376 0.055312235 0.021736104
000010 5d 50 3b 3d a4 ac aa bd 33 2e 9a bc 0c 2b 40 3d
       0.045730937 -0.0833371 -0.018820858 0.046916053
000020 4c 75 3f 3d 85 72 3f 3d 75 b7 04 bd 8e ce 50 3d
       0.046742722 0.046740074 -0.03240152 0.050978236
000030 03 4c 35 3d b1 da 21 3c 4a 38 5d 3d 76 39 37 3d
       0.044261944 0.0098788 0.05400876 0.044732533
000040 70 9e 3a 3d 0a 42 9f bc 8b 42 45 bc df 45 d8 3b
       0.045561254 -0.01944067 -0.012039791 0.006600126
000050 94 68 46 3d d6 2e cd 3d 8d 2d 35 3d b2 8f 1c 3d
       0.048439577 0.10018699 0.044232894 0.038222976
000060 37 6c 0c 3d dc 57 b6 3d b7 5e 45 3d bd 65 9f 3d
       0.03428289 0.089034766 0.04818603 0.07783077
000070 e9 f7 4e bd f0 24 03 3d 1c 94 58 3d 05 30 35 3d
       -0.050529394 0.03201765 0.052875623 0.044235248

bn22.running_mean f4 [32]
000000 b1 8a 69 bf bf ec 43 bf 07 c1 58 be 4f c8 20 3d
       -0.9122725 -0.7653312 -0.21167384 0.03925353
000010 96 6e b1 bd d9 81 c1 3e d4 b0 30 bf 45 3b 57 bf
       -0.08663671 0.37794378 -0.6901982 -0.84074813
000020 a0 86 50 bf 02 fc 12 be 00 e9 f4 3e 57 82 a6 be
       -0.8145542 -0.14353946 0.47834015 -0.32521316
000030 2a 8a 8b be 65 79 fe be 2c a5 72 bf 60 6a a0 3d
       -0.27253848 -0.49701992 -0.9478328 0.078327894
000040 fc 46 4a bf df 95 0b 3d 11 a8 5c be e3 bd 22 bf
       -0.79014564 0.034078475 -0.21548487 -0.63570994
000050 ec 88 18 bf ce c3 96 bf a3 f0 dd be 56 63 55 bf
       -0.59583926 -1.1778505 -0.43347654 -0.833547
000060 42 6f f1 be e0 52 68 bf f3 bc 10 bf df 48 a7 bf
       -0.47155195 -0.9075146 -0.56538314 -1.3069113
000070 2d 02 25 3f 68 ac 00 3e 6b b2 2d 3a 82 28 28 bf
       0.64456445 0.12565768 0.00066260126 -0.6568681

bn22.running_var f4 [32]
000000 2a 85 0b 3f 58 16 5c 3e 2a 79 ca 3e a6 d5 20 3e
       0.5450007 0.21492898 0.39545566 0.157065
000010 41 8d 5b 3f 6c 2d 85 3e e4 29 36 3f ab 54 27 3f
       0.8576241 0.26011217 0.7115767 0.6536357
000020 29 c9 60 3f 4c 10 e4 3e 60 70 15 3f af 25 11 3f
       0.87806946 0.44543684 0.58374596 0.56698126
000030 dc a7 c5 3e 9c 49 e4 3e 12 26 dd 3e de 90 39 3f
       0.3860463 0.4458741 0.43193108 0.72486675
000040 84 9e 01 3f 35 53 ad 3e a3 ca 1e 3e 71 6a 1b 3f
       0.506325 0.33852544 0.15506987 0.6070929
000050 f4 c1 98 3f 70 c5 46 3f 60 5a 06 3f e8 30 75 3f
       1.193419 0.77645016 0.5248165 0.9577775
000060 8c a7 14 3f 53 15 1e 3f b7 6e a2 3e 92 db a2 3f
       0.58068156 0.6175129 0.31725094 1.2723258
000070 ca 74 f9 3e 92 48 4b 3f 89 89 cf 3e 08 cb 0b 3f
       0.48721915 0.7940761 0.40534618 0.54606676

conv5.weight f4 [64, 32, 3, 3]
000000 03 91 64 3c e7 28 14 bc 15 fe 23 bc 6f 61 c3 bd
       0.013950589 -0.009042955 -0.010009308 -0.09540068
000010 da 07 8e bd c5 03 7f 3d 93 48 3a bd 25 ef df bc
       -0.06935091 0.062259454 -0.04547937 -0.027335713
000020 74 81 9c 3c d7 0e d8 3c 9d 95 4a 3d ff 6f e1 3c
       0.019104697 0.026374264 0.04945909 0.027519224
000030 74 a9 27 bc a4 ef f5 bc af 82 d7 3b e9 df 24 bd
       -0.010233272 -0.030021496 0.006576858 -0.0402526
000040 22 d3 28 3c 5f ca 11 bc f4 9c 9e 3c 9f 95 35 3b
       0.010304244 -0.008898347 0.01936195 0.002770759
000050 55 65 28 3d 68 17 b0 bd 64 a9 61 3d ba ca 4d bd
       0.041112263 -0.085982144 0.055093184 -0.050242163
000060 15 9b 47 3d a9 fd d8 bc 2e c2 f6 bb d6 de 0d 3c
       0.048731882 -0.026488142 -0.0075304722 0.008659085
000070 64 e5 1e 3d c6 9c bf bc cf 06 53 3c 42 7b 80 3d
       0.038792983 -0.023390185 0.012880041 0.062735096
000080 ba a6 d4 39 97 c6 96 3d db 1b 9f bc ca 17 b6 bc
       0.00040560012 0.07362097 -0.019422462 -0.02222814
000090 fa 71 ea bc d1 43 8c bd 94 8e a3 39 3a 8a ca 3c
       -0.028618801 -0.068488725 0.00031196012 0.024724115
0000a0 42 57 d3 3c 4f 43 04 3d 78 3b 3d bd 5a 03 e2 bc
       0.025798444 0.032290753 -0.046199292 -0.027589489
0000b0 68 e5 3a 3d 15 ac 7f 3d b0 d7 0e 3d 4a ed 07 bc
       0.045628935 0.06241997 0.034873664 -0.00829632
0000c0 d9 39 8e 3d 37 95 cd 3b c9 bc d8 3c 96 b7 ac 3c
       0.06944627 0.0062738913 0.026457207 0.021083634
0000d0 b6 a4 03 3d b2 f8 29 bd 41 df a6 bc e0 71 00 3d
       0.032139502 -0.04149694 -0.020370128 0.0313586
0000e0 8a 81 03 bd 55 7b 0e 3d ab bf 25 bd 40 21 68 bb
       -0.03210596 0.034785587 -0.040465992 -0.003542021
0000f0 ce 9f 25 bc 0d 54 9b bd 42 15 9d bc f9 31 1b bd
       -0.010108901 -0.07584391 -0.019175176 -0.037889455
000100 66 d1 19 3b 1d 73 32 3d d7 82 7e be 42 1f ff bc
       0.0023470758 0.04356681 -0.24854599 -0.031142835
000110 7e 15 86 bb 7e 0e f0 bd f8 14 8e bc db 34 e3 3b
       -0.0040919175 -0.11721514 -0.017343983 0.006933791
000120 19 13 8b bd cf 5f d4 3c 78 93 56 3d f6 30 52 bd
       -0.06790752 0.025924591 0.05238673 -0.051316224
000130 6b cd 44 bd 0d cc 11 bd 90 23 34 be d6 39 50 bc
       -0.048047464 -0.03559499 -0.17591691 -0.012709102
000140 45 07 b2 bd d5 4e e4 3c 3f a3 b4 bc 8b cc 1e bc
       -0.08692793 0.027869621 -0.022050498 -0.0096923215
000150 4c 28 5e bd ea a5 37 3d 5f 14 cd 3c d4 54 9f bc
       -0.05423765 0.044835962 0.025034128 -0.019449629
000160 00 ff 2f 3c 51 2d e3 3c b8 2e 80 bc ab e9 c9 3c
       0.010741949 0.02773157 -0.015647277 0.024647554
000170 e3 5d ea 3c 44 3c 30 bc 73 cf 79 bd 72 dc 75 3c
       0.028609222 -0.010756556 -0.060988855 0.015006172
000180 91 fb 87 3d 78 09 39 bd de 93 5e 3d 9e 5c 84 3c
       0.06639779 -0.045175046 0.054340236 0.016157445
000190 cb 86 72 3c 98 27 b2 3b 56 64 86 3c f1 c4 d6 3c
       0.014802645 0.005436849 0.016405266 0.026216956
0001a0 32 70 5a 3b 65 bc 84 bd e3 b5 09 bd ca c0 e6 3c
       0.0033331034 -0.06481246 -0.033620726 0.0281681
0001b0 0b 6a e4 bc 99 85 83 bc 5d 67 ad bc b1 78 f8 bd
       -0.027882596 -0.016054915 -0.021167452 -0.12132395
0001c0 f5 59 f8 bc 38 98 d9 3c 5a cb 14 bd 55 18 13 bb
       -0.030316332 0.026561841 -0.036326744 -0.0022444923
0001d0 b2 51 40 bc c7 6c 30 3d 87 97 3c bd 43 63 b2 bc
       -0.011738228 0.04307249 -0.046042945 -0.021775847
0001e0 e5 bb 17 bd bf b1 5b bd a9 6f 1c bd fe 59 35 bc
       -0.037044425 -0.05363631 -0.038192425 -0.011068819
0001f0 42 c4 7f 3b ca cc db 3c f7 a6 14 bd fc 43 1e 3c
       0.003902689 0.02683105 -0.036292043 0.009659763
000200 19 74 29 bd cd 5c b9 bd 4f 55 93 bb 02 c5 7d bb
       -0.041370485 -0.090509035 -0.0044962536 -0.0038722162
000210 a5 5e cf bc 72 66 08 bd 29 7e 2e 3d dc 4e e9 3b
       -0.025313685 -0.033300824 0.042600784 0.0071199965
000220 97 4f f5 3c 6a 2c 0e 3b d2 8b 54 bd 12 0b 7f bc
       0.029945178 0.0021693953 -0.051891156 -0.015566604
000230 03 fa 80 3c ff 21 f4 3c 5b e8 4a bc 1b a0 8b bc
       0.015744215 0.029801367 -0.012384499 -0.017044118
000240 07 e0 7d bc 7a a4 cf 3b 5b e5 7a bd c9 80 47 bd
       -0.015495307 0.006336746 -0.061253887 -0.048706803
000250 4c 49 11 bc ac f0 4a bc 78 65 22 bd 7d 5d 31 3d
       -0.008867573 -0.012386482 -0.03964755 0.043302048
000260 fa f2 a7 bc 1c 0a 92 bc b4 c0 6d 3d a2 32 4d bd
       -0.020501602 -0.017827086 0.058045104 -0.050097115
000270 e4 96 45 3b 55 cc 39 3d 2f 7e 38 3d 25 02 d0 3c
       0.0030149752 0.04536088 0.045042213 0.025391648
000280 fa 22 20 3d ee d3 0f bd 57 23 56 3d fd 1a 49 3c
       0.039095856 -0.03511422 0.052279796 0.012274501
000290 f0 7f 00 3d ea b4 b9 3c 4a a8 09 3d 7b 12 32 bd
       0.03137201 0.022669274 0.03360776 -0.043474656
0002a0 19 5b 4c bd 06 c5 fb bc 50 a0 fb 3c 85 fd 33 3d
       -0.049891565 -0.030733597 0.030716091 0.043942947
0002b0 e1 a3 65 3d b4 20 8a 3d b5 0e 79 3c 02 f0 5a bd
       0.05606449 0.06744519 0.01520126 -0.053451546
0002c0 85 de 54 3d 34 fa bd 3c aa 17 27 3d c9 e6 97 bb
       0.051970024 0.023190595 0.040794052 -0.004635666
0002d0 83 b8 60 3d b5 e3 7e bd a8 07 3e bd 78 9e 07 bc
       0.054863464 -0.062228877 -0.04639402 -0.008277528
0002e0 9d c4 b7 bb 1e c1 1b bd 5c 0d b7 3c 30 32 f8 3c
       -0.005608155 -0.038025968 0.022345237 0.030297369
0002f0 eb 92 43 3c 7c 38 ad bd d5 e7 04 3d 76 54 19 3d
       0.011936883 -0.08458039 0.032447655 0.037434064
000300 eb d4 5f bb 1f 1a 8f bc 30 43 5a 3b 9d 5e 15 bc
       -0.0034154009 -0.01746851 0.0033304207 -0.009116796
000310 90 5d 4d bd 76 41 7c bd e4 32 1c bd 0c 73 e3 bc
       -0.050138056 -0.061585866 -0.03813447 -0.02776482
000320 9a 8a a5 bb 81 66 24 bd d0 7f 12 3d 5b b2 71 bd
       -0.005051923 -0.040136818 0.035766423 -0.059007984
000330 05 2c 78 3b 53 a4 a9 bc 68 59 54 bd d9 6e 64 bd
       0.0037868035 -0.020708239 -0.051843077 -0.055769775
000340 0b 8e 75 bd b2 61 42 3c 7c c1 12 bd ed 92 44 bd
       -0.059949916 0.011864113 -0.035829052 -0.04799168
000350 6b 59 19 bd 2d 09 78 bd 9a 44 8e 3c 2d b3 9a 3c
       -0.03743879 -0.060555626 0.017366696 0.018884266
000360 35 56 e8 bc da b3 f4 3c e4 73 0f bd b2 ad e1 bc
       -0.02836142 0.029870916 -0.03502263 -0.027548645
000370 e1 1b ae bc 3c c9 58 3c 58 0b 1f bd 05 4c 20 3c
       -0.021253528 0.013231572 -0.038829178 0.0097837495
000380 03 d7 3c bc dd 3b e4 3b ab f9 75 3d 9f e6 11 3d
       -0.011525872 0.006965144 0.060052555 0.035620328
000390 47 05 e7 bb a6 48 9a 3b 38 49 df bb d2 20 cc bd
       -0.0070501897 0.0047083674 -0.0068141483 -0.099671975
0003a0 a1 b7 d3 bc 09 6a 39 bc ec 5a 78 bc cd 11 e1 bc
       -0.025844397 -0.011316785 -0.015158396 -0.027474308
0003b0 f4 4d 0b 3d f6 17 89 bd 72 7d b0 bc 5c 0a 9a 3b
       0.03400989 -0.06694023 -0.021544192 0.004700942
0003c0 b0 4b 8f bd 0d 0a 9f bc d5 5a d2 bc b7 f2 01 3d
       -0.06996858 -0.019413972 -0.025678078 0.03172561
0003d0 31 30 a2 3c 6b ea e4 3c c0 e1 c6 bc ad 76 c4 3c
       0.01979837 0.02794381 -0.024277568 0.02398237
0003e0 d6 ca 8f 3d 20 ab 80 bc c6 a9 54 3d f1 64 c5 bc
       0.0702111 -0.015706599 0.05191972 -0.024095984
0003f0 c2 71 6b bd 87 3f cf bb d5 83 89 3a 41 aa c5 bc
       -0.057481535 -0.0063247117 0.001049156 -0.024129035

conv5.bias f4 [64]
000000 41 0d 0f bd 33 51 f3 bc 79 1b 76 bc f9 9e 55 bd
       -0.03492475 -0.029701805 -0.015021198 -0.05215356
000010 6e 79 d9 bb 5a 23 d0 3c fc e4 1a bc ff d3 03 3c
       -0.00663679 0.025407482 -0.009454008 0.008046149
000020 c3 9b 45 bd 9c 8a 67 bd 9f 88 2a bd 4c 44 7d 3c
       -0.04824425 -0.056528673 -0.0416342 0.015458178
000030 95 40 6d 3d 63 e6 69 bd a8 38 88 3c ef 22 39 3d
       0.05792292 -0.05710448 0.016628578 0.04519933
000040 15 cc 39 3d 9c e1 3d bb 78 f6 3e bd 26 44 d4 bc
       0.045360643 -0.0028973585 -0.04662177 -0.025911402
000050 fd f6 56 3d ee f8 b3 3b be 7a 5b bd b7 b9 23 bd
       0.05248164 0.005492321 -0.053583853 -0.039972033
000060 41 c1 6c bd 3d 54 20 bd 05 f1 1f 3d 1c 62 20 3d
       -0.05780149 -0.039142836 0.039048214 0.039156064
000070 2a c3 24 3c 8c b1 86 bc bc 8c 81 3c 79 10 1e 3c
       0.010056296 -0.016442083 0.015814178 0.009647482
000080 56 46 43 3d aa 09 86 3b be 2e 34 bc cc ed 05 bc
       0.0476745 0.0040905075 -0.010997472 -0.008174371
000090 8c cf 41 3d 12 c8 69 bc ff 1d 31 3d b2 36 5d bd
       0.047317073 -0.014268892 0.043241497 -0.05400724
0000a0 f8 ed 40 bb cd ed 52 3d 30 02 88 bc cf 19 1a bd
       -0.0029438715 0.051496316 -0.016602606 -0.03762227
0000b0 53 01 11 3c e9 5f e9 bc 6e a5 e3 bc d2 c0 30 bb
       0.008850413 -0.028488116 -0.027788844 -0.0026970399
0000c0 28 8f 1e 3d ba de 80 bc fe b4 e8 3b 7c 91 16 3d
       0.038710743 -0.015731204 0.007101654 0.03675984
0000d0 8a e5 0e 3d e3 e5 de 3c 7a 03 49 3d 74 11 f8 bc
       0.034886874 0.027209228 0.04907558 -0.03028176
0000e0 a5 d9 19 3d 85 58 3c bd b7 ba 0a 3d 4a 67 b6 bc
       0.037561078 -0.045982856 0.03386947 -0.022266049
0000f0 27 81 c5 3c e4 c6 03 3d 7c c5 21 3d 57 a5 24 bd
       0.024109436 0.0321721 0.039494976 -0.040196743
