checkpoints/24_best_model1.pth (torch, 304673 bytes, 37 tensors)

conv1.weight f4 [16, 1, 3, 3]
000000 e0 63 20 3e 67 2b 6e be 6a 52 81 be 76 46 5c 3e
       0.156631 -0.23258744 -0.2525819 0.21511254
000010 6e 62 a3 be f6 e5 a9 be e7 5d 18 3e 17 08 06 be
       -0.31911033 -0.3318326 0.14879571 -0.13089024
000020 3d d0 94 bd e1 c6 94 be 55 eb 16 be 88 52 4b be
       -0.07266281 -0.29057983 -0.1473821 -0.19855702
000030 d8 c1 6e be af 40 95 be bb 1b 02 be 01 90 6d 3d
       -0.23316133 -0.29150912 -0.12705891 0.05799866
000040 f3 b4 3e 3e 87 36 18 bd 07 45 c1 3c 74 fb 02 39
       0.18623714 -0.037161376 0.023592485 0.0001249144
000050 59 89 51 be 79 e4 d4 3d 85 bd 1e be f7 ae a1 be
       -0.2046255 0.1039514 -0.15501983 -0.315788
000060 b9 39 85 3e 16 95 ae be 5d ce ac be 20 fc 3e 3e
       0.260206 -0.3409812 -0.33751193 0.18650866
000070 02 d4 db bb a2 b7 3d bc 44 da 44 be 23 50 a4 be
       -0.006708623 -0.011579426 -0.19223887 -0.3209239
000080 69 30 9c be 6e bf 64 3e ca e0 91 3e cc b5 5b be
       -0.30505684 0.2233865 0.28491813 -0.21456069
000090 2c c1 6a be c9 71 88 be 00 85 b6 bc 37 31 36 be
       -0.22925252 -0.2664931 -0.022280216 -0.17792211
0000a0 3f 83 4d 3e c6 7f 7c 3e 26 46 2d 3e d4 59 d0 be
       0.20069598 0.24658117 0.16921291 -0.40693533
0000b0 e6 6d 22 be f6 7c 61 3d 53 e7 56 bd f8 64 85 3d
       -0.15862235 0.055050813 -0.0524667 0.06513399
0000c0 55 40 6a bd e0 bf ff 3d 22 9e 93 3d 65 35 88 bb
       -0.057190258 0.12487769 0.07207896 -0.0041567557
0000d0 e4 f9 92 3e db d0 6a 3e ac 1b b7 3c 03 0e 80 be
       0.28706276 0.22931235 0.022352062 -0.2501069
0000e0 22 49 19 bd ad 66 68 3e 08 41 0a 3e eb 72 71 be
       -0.03742326 0.22695418 0.1350137 -0.23578994
0000f0 c1 09 a1 be c2 8a e9 bd 96 87 d9 be 5c 1f e6 3d
       -0.31452754 -0.11403419 -0.42486256 0.1123645
000100 2f af 0b 3e f3 a7 29 3e f5 23 06 3e 08 77 5a 3e
       0.13641046 0.16567974 0.13099654 0.2133447
000110 46 38 48 bb 5f c1 0d bd 77 88 80 be 67 50 3c be
       -0.003055112 -0.03460824 -0.25104114 -0.18390046
000120 36 df 0a 3e 21 6b 3b be 94 cb 80 3e ed 09 c1 bc
       0.1356171 -0.18302585 0.25155318 -0.023564303
000130 cc 2b 8c bd da 98 53 3e a7 fb e0 3d 86 94 6a be
       -0.06844291 0.20663777 0.10985499 -0.2290822
000140 80 53 af 3e 62 f9 13 be c0 a2 00 3d 80 a1 97 3d
       0.34243393 -0.144506 0.03140521 0.074038506
000150 0e e0 97 be ab ad 17 3e a3 ca 7b 3d 49 7d 45 be
       -0.29663128 0.14812343 0.061472546 -0.19286074
000160 89 86 c7 3c 81 33 2e 3e fd f9 1f 3d 63 63 83 3e
       0.024356144 0.17011835 0.039056767 0.25661764
000170 72 68 4e 3d 5f 0d 8d bd 15 de ac bd cc a6 71 be
       0.050392576 -0.06887316 -0.08440796 -0.23598784
000180 91 d4 d7 3b 42 d6 a0 3d 4d dd a1 be c8 9a 32 bc
       0.006586619 0.078533664 -0.31614152 -0.010901161
000190 6b dc 25 bd 76 55 bb bc a6 95 73 be f9 84 8c be
       -0.04049341 -0.0228679 -0.23787555 -0.274452
0001a0 3f ab 1c 3e 11 aa 4c 3e 8a 74 01 3e 91 e8 03 bc
       0.152997 0.1998675 0.12642112 -0.008051054
0001b0 52 cb 2a 3e 23 20 10 be 73 9e bb be c5 6e 19 3e
       0.16679123 -0.14074759 -0.36644325 0.14983661
0001c0 8d 1a 9f 3d 91 6e 2a be 0b 94 5d 3e 67 23 be bd
       0.07768736 -0.1664374 0.21638505 -0.09284096
0001d0 d1 99 06 3e ba 06 64 be f4 6e 24 bd 59 cb 99 3d
       0.13144614 -0.22268191 -0.040144876 0.075094886
0001e0 24 91 4a bd 72 a3 3b bd 69 ea 10 3e 3b 04 90 be
       -0.049454823 -0.04581017 0.1415192 -0.28128228
0001f0 cf 42 89 be 4e 7c 92 3e 42 b4 4c 3e 1e a0 8b be
       -0.26808783 0.28610462 0.19990638 -0.27270597
000200 b9 6f c9 be c3 28 41 bd 2b 0b d7 be 78 8b 42 3e
       -0.3934305 -0.047158014 -0.42000708 0.18998516
000210 2f 31 f3 bd 6f 63 ac 3e 7b 11 b0 3e 31 d1 bd 3d
       -0.118746154 0.33669612 0.34388337 0.09268416
000220 90 42 54 bc 6c a8 4e be 83 b0 a2 3e 4f 9e 7c 3e
       -0.012955323 -0.20181435 0.31775293 0.24669765
000230 e3 e3 ec 3d c0 a8 91 3e 3a b4 58 bc 03 ef 35 be
       0.115669034 0.2844906 -0.013226563 -0.17766957

conv1.bias f4 [16]
000000 64 3a 55 3e 3a 20 07 be bb 51 19 3e 5b 0c 2e 3e
       0.20823056 -0.13195887 0.14972584 0.169969
000010 b8 36 53 be 1c 30 a2 bd 2a d0 97 be 68 7a 01 3d
       -0.20626342 -0.079193324 -0.29651004 0.031610876
000020 27 74 8a bc 7c b4 97 be 57 c2 37 be 07 98 82 3e
       -0.016901089 -0.29629886 -0.17945229 0.25506613
000030 d4 3c 38 be fe 03 6c be dd 77 13 3e de 80 3c 3e
       -0.17991954 -0.23048398 0.14401193 0.18408534

conv2.weight f4 [16, 16, 3, 3]
000000 de b2 93 bc af 7b 9e 3c e6 aa ac bd 6c 94 20 bc
       -0.018029626 0.019346086 -0.08431034 -0.0098010115
000010 4b be 87 3c 83 48 40 3d 83 e1 72 bd 14 24 a4 3d
       0.016570231 0.046944153 -0.059297096 0.08014694
000020 7e da d0 bc f6 9e c4 3d 93 db be 3d 0b c0 56 bc
       -0.02549481 0.09600632 0.09319224 -0.01310731
000030 bf 98 a8 3d 68 10 9f 3c 8f 7e c0 bc 52 27 6a 3d
       0.08232259 0.019417003 -0.023497848 0.057166405
000040 3b d8 a3 bd c5 d2 1f bd ee 5e 00 bd 27 f8 6a bd
       -0.08000227 -0.039019365 -0.031340532 -0.057365563
000050 22 08 86 bd 10 8f df 3c cc da 68 bb dd a3 cc bb
       -0.0654452 0.027289897 -0.0035530804 -0.00624512
000060 af a3 5a bd 40 c2 0f 3d 35 19 d3 bc 29 8d 24 3d
       -0.053378757 0.03509736 -0.025768856 0.040173683
000070 f4 d9 bc 3d 06 4b 88 3d b7 b7 98 3d 07 28 28 3d
       0.09221259 0.066549346 0.07456916 0.041053798
000080 69 4c f8 bc 57 3d 94 3c 9a 77 7d bd 5d a1 42 bc
       -0.030309873 0.018095655 -0.06188164 -0.011879292
000090 09 f7 a4 bc 3e b0 81 3d 4d 45 fc 3c 5c 6b 07 3d
       -0.020137327 0.06332444 0.030794764 0.03306137
0000a0 47 98 21 3d 80 51 d4 3c d2 12 40 3d 6e 40 48 bd
       0.039451864 0.025917768 0.04689295 -0.04888957
0000b0 61 9e 08 3d 40 f2 7c bd f0 0a b5 bd 54 7c 88 bd
       0.033354167 -0.061754465 -0.08839977 -0.06664339
0000c0 5d 3f 2f bd a0 9a 6c 3d 3d 24 57 3d 0e ba f3 3c
       -0.042785037 0.05776465 0.052524794 0.029751804
0000d0 e8 29 f8 3d 44 35 42 bd 0e c5 10 bd fb d7 82 bd
       0.12117368 -0.04741408 -0.035344176 -0.06388851
0000e0 e6 75 4f 3d b7 70 50 3d d1 1d 1d 3c c1 53 a7 3d
       0.050649546 0.050888743 0.009589628 0.08170272
0000f0 f3 8f 6d 3c 11 6a a3 3c 6a 33 9a bd 00 5f b2 bc
       0.014499652 0.019948037 -0.07529338 -0.021773815
000100 2a 7d b4 ba 3a cf c3 bd dc e1 9d bd b5 3a 2a 3c
       -0.0013770212 -0.0956101 -0.07709095 0.010389973
000110 dd 29 a2 bc e6 b0 4b 3d 68 60 04 bd f1 00 81 bd
       -0.019795353 0.04972925 -0.032318503 -0.06299008
000120 01 a9 cb 3c 58 19 04 3d 2a c9 7a 3d a5 dc 3d 3c
       0.02486086 0.032250732 0.061227 0.01158825
000130 67 d3 44 bd 1f a1 e0 3c b3 7d 1c bd d4 22 b6 bd
       -0.04805317 0.027420579 -0.038205814 -0.08893362
000140 a2 ac a4 bc 84 5c 8b bd f4 d8 21 bd 1f 36 cb 3c
       -0.020101849 -0.06804755 -0.039513543 0.02480608
000150 06 06 d3 bc 69 d7 f5 bb 17 8f 72 3d 99 82 10 3d
       -0.025759708 -0.0075024855 0.059218492 0.035280798
000160 16 be ef 3d da c3 29 be 9c be 99 3d 11 a7 9e bc
       0.11706178 -0.16578618 0.07507059 -0.019366773
000170 6f e2 31 bd f4 ec e0 3c 41 5d 29 bc 01 7c 4d 3d
       -0.043428835 0.027456738 -0.010337175 0.050167087
000180 1b 97 3c 3b f3 eb a7 3c db 51 a6 bb 24 06 99 3a
       0.002877659 0.020498252 -0.005075676 0.0011674804
000190 eb f4 a1 3d 9b 02 aa 3d 99 2d 62 bd 07 57 39 bd
       0.079080425 0.08301278 -0.055219267 -0.04524901
0001a0 85 21 44 bd 23 b6 1f bb c9 d7 b2 3d c6 0a d8 bc
       -0.04788353 -0.0024370037 0.08732564 -0.026372325
0001b0 ab 12 82 3d 81 65 31 3d 60 2d 45 3d 0b 11 77 bc
       0.06351217 0.043309692 0.048138976 -0.015079747
0001c0 30 40 b9 3d cf 73 bc 3c 90 7d 36 3b da ef 84 3d
       0.09045446 0.02300444 0.0027845837 0.064910606
0001d0 36 fb 5c bd 40 c1 0e bd d7 d6 8e bc d3 5e 31 bd
       -0.05395051 -0.034852266 -0.017436428 -0.043303322
0001e0 4b 58 a4 3d 79 0c b5 3d 71 ef 86 3c 5f e7 b6 bc
       0.08024653 0.088402696 0.016471596 -0.022327123
0001f0 9d 85 75 bd c7 60 c8 bd 64 36 93 3b d0 a2 4d 3d
       -0.059941877 -0.09784084 0.004492568 0.0502041
000200 16 1e 3a 3c 2e e5 1d 3c d0 5d 90 3c 16 83 69 3d
       0.011359712 0.00963716 0.017622858 0.05700978
000210 5b 1c 72 3d 52 e5 17 3d 44 57 e1 bc cf 64 a5 bc
       0.059109073 0.03708393 -0.027507432 -0.02018967
000220 0d c9 ee bd db 4f c8 bd 67 55 ce 3c 53 3e 1f bd
       -0.11659441 -0.09780856 0.025187207 -0.038877796
000230 f5 38 df 3c 5c 3a 81 3d eb 42 a9 3d ea 40 05 bc
       0.027248839 0.06309959 0.08264717 -0.0081331525
000240 09 f9 ef 3c b7 a0 41 bc d5 8f e8 bd 6d c6 9d 3b
       0.029293554 -0.011818103 -0.11355559 0.004814914
000250 e5 95 1e bc f7 e1 40 3d 31 14 9f bc 88 f1 ca bd
       -0.009679292 0.047090497 -0.019418808 -0.0990935
000260 65 72 56 3d e0 b1 f1 3c 2e 35 30 3c 49 d7 13 3d
       0.05235519 0.029503763 0.0107548665 0.036093984
000270 6b 50 ac 3c 0a b7 44 3d 9c 6e ce 3c 5e 46 ca bc
       0.02103444 0.048026122 0.025199227 -0.024691757
000280 21 72 23 be d3 40 ee bc e7 99 0e bc bf f9 69 bd
       -0.15961505 -0.029083645 -0.008703685 -0.057122942
000290 07 55 bd 3c 47 60 37 3d 06 52 7a bd 90 7e d5 bd
       0.023111833 0.04476955 -0.06111338 -0.104245305
0002a0 20 b8 5d bd 99 13 cf bc f9 7c 91 bc 3b 72 8a bc
       -0.054130673 -0.0252779 -0.017759787 -0.016900172
0002b0 5a c4 4c 3d e9 a3 c8 3c 52 d8 19 3d be dc d2 ba
       0.049991943 0.024492221 0.037559815 -0.0016087515
0002c0 df 98 aa 3d 84 46 e1 3c 15 85 fd 3c 8b 9c b5 bc
       0.08329939 0.027499445 0.030947248 -0.022169372
0002d0 ff 3d 39 3c f2 29 cb 3d 4d ba 5f 3d 51 37 7d bc
       0.011306285 0.0992011 0.05462103 -0.015455083
0002e0 ed 54 65 3a 3f c6 a7 3c e8 60 c1 3d 66 71 8a bd
       0.00087483117 0.020480273 0.094423115 -0.0675991
0002f0 b5 6a 18 bc 14 d1 93 bd 5c 5d 54 bc d0 34 ae bd
       -0.009302785 -0.07217613 -0.012961712 -0.08506167
000300 55 7a a2 3d 14 4e a2 3c e7 6a 55 be 8d f6 68 3c
       0.07933489 0.019812621 -0.20841561 0.014218939
000310 97 80 d4 3c 96 67 3a 3d 19 e9 3b 3d 3a 61 ae 3c
       0.025940223 0.045508943 0.045876596 0.021286596
000320 55 ca fe bd 3e 1a 16 bd 04 e7 6a bc 5c eb 80 bd
       -0.124409355 -0.03664612 -0.014337305 -0.06294891
000330 99 65 c6 bd 4d 74 fe bc 63 64 9a bc 23 fb 8b 3d
       -0.09687347 -0.031061316 -0.018846696 0.0683501
000340 36 42 03 3c ec 52 55 3d 31 2a 07 3d 6d fd 43 3d
       0.008011391 0.052081034 0.03299922 0.047849108
000350 ee eb 91 bd 8b 41 1e ba 3c 99 6d bb 48 ce 84 bd
       -0.07125078 -0.00060369883 -0.0036254665 -0.064846575
000360 c8 d6 d1 3c f6 e1 ab 3d 44 b8 93 3c 3e 64 ba 3c
       0.025615111 0.08392708 0.0180322 0.022752877
000370 f6 20 f4 bc 5c 04 f4 ba e6 1d db 3b 11 df e6 3c
       -0.029800873 -0.0018617022 0.006686914 0.028182538
000380 18 e6 bb 3c 5c 3e c7 bc b8 92 17 bd 3d 67 87 3d
       0.022936866 -0.024321727 -0.037005156 0.06611488
000390 53 93 4d 3d 3e 21 e0 bd fd 2c 3b bd 5e 33 19 3c
       0.050189327 -0.109438404 -0.0456972 0.009350626
0003a0 21 1c 84 bd e7 bc 3c bd 33 66 cd 3b 60 05 7f bc
       -0.06450678 -0.04607859 0.0062682866 -0.015565246
0003b0 65 f9 5b bd d2 f7 8b bd 88 fd e2 bb d0 46 81 3d
       -0.053704638 -0.06834377 -0.006927196 0.063123345
0003c0 2f 50 eb bd a1 68 29 bd 05 26 05 be 80 e8 a4 3d
       -0.11489903 -0.041359548 -0.13002785 0.08052158
0003d0 69 fd 2d 3c bb 66 2d bd 2c a5 a4 3c dc 12 06 3d
       0.0106195 -0.0423343 0.020098291 0.03273283
0003e0 47 46 76 3d 2e 20 7a 3c bc 4c 26 be 6a 31 7d bd
       0.060125615 0.015266461 -0.1624021 -0.061814703
0003f0 4d 79 93 3d 11 13 46 bd 3a 23 de bc bc 15 bb bc
       0.07200871 -0.048358027 -0.027116407 -0.022837512

conv2.bias f4 [16]
000000 ff bd 16 3d e2 cc 79 3d 64 2f 7e bd c2 b9 24 bc
       0.03680229 0.060986407 -0.062056914 -0.010054054
000010 43 c2 0b 3c a7 4c 94 bd 0a 01 fe bc 85 7d 8d bd
       0.008530202 -0.07241183 -0.031006355 -0.069087066
000020 70 a0 ae 3b 1a d2 a5 3d a8 0b 20 bd c6 c7 6f ba
       0.0053291842 0.08096714 -0.039073616 -0.0009146895
000030 fd 57 e3 bc 74 de cc 3c fd eb 6f bd 5f 2e 44 bd
       -0.027751917 0.025008418 -0.058574665 -0.047895785

bn11.weight f4 [16]
000000 3b 2d 80 3f cf 7d 88 3f aa ef 6e 3f a7 bc 72 3f
       1.0013803 1.0663394 0.9333445 0.9481911
000010 d9 69 7b 3f fe 8f 7a 3f 3e dc 84 3f 55 e1 76 3f
       0.98208386 0.97875965 1.0379713 0.9643758
000020 bd f6 6f 3f f2 34 80 3f 10 ae 81 3f 65 54 85 3f
       0.9373587 1.0016158 1.0131245 1.041638
000030 09 3a 72 3f 3c 9c 86 3f b6 e6 72 3f 72 97 7d 3f
       0.94619805 1.0516429 0.94883287 0.9905921

bn11.bias f4 [16]
000000 1a 50 12 be b9 f7 45 bd b1 a3 17 be 03 b3 e5 3d
       -0.14288369 -0.04833195 -0.14808537 0.112157844
000010 c7 06 40 bd 4c 44 b8 3d c6 64 0f bd 2a 24 e4 3d
       -0.046881463 0.089974016 -0.035008214 0.1113971
000020 78 17 b3 3d 06 cd ac bd 60 b1 b5 bd 47 59 cd bb
       0.08744711 -0.084375426 -0.08871722 -0.006266746
000030 1a e4 dc 39 cd 14 bd bd 9d b8 7d 3c 7e 6b f5 3d
       0.0004213162 -0.09232483 0.01548591 0.11983393

bn11.running_mean f4 [16]
000000 d9 18 49 3e 0a 5f 17 be b2 ee 0a 3e 24 ae 28 3e
       0.19638385 -0.14782348 0.13567618 0.1647268
000010 ad ae 5c be b2 b6 8c bd a9 3b 9f be a1 99 12 3d
       -0.21551009 -0.06870784 -0.31100205 0.035791043
000020 80 e0 12 bc 3c 9d 98 be 56 d5 3b be aa bc 81 3e
       -0.008964658 -0.2980746 -0.183431 0.25339252
000030 ec 8e 38 be 53 04 72 be aa a4 10 3e ff 26 46 3e
       -0.1802327 -0.23634462 0.14125314 0.19350813

bn11.running_var f4 [16]
000000 bd 4b 87 3a a7 03 b8 3a 9d f1 8e 3a 42 13 3e 3a
       0.0010322254 0.0014039174 0.0010905747 0.00072507944
000010 ef e1 1d 3a 5b b2 da 39 29 35 6e 3a 3e 53 21 3a
       0.00060227414 0.00041713085 0.0009086901 0.00061540667
000020 58 76 09 3a 93 7e b7 39 4d 5a b8 39 2e 83 cf 39
       0.000524377 0.00034998785 0.00035162494 0.00039579853
000030 15 c4 1a 3a 76 e0 4a 3a 9a 19 86 3a 85 c5 64 3a
       0.0005903852 0.0007739136 0.0010231019 0.00087269425

bn12.weight f4 [16]
000000 7c fa 7a 3f ba 46 81 3f 4c 95 7b 3f 44 38 80 3f
       0.9803846 1.0099709 0.98274684 1.0017171
000010 f4 08 85 3f 74 46 7e 3f ab c1 82 3f 9b f6 81 3f
       1.0393357 0.9932625 1.0215353 1.0153383
000020 1f 99 7a 3f 4f 15 83 3f 0c db 7d 3f f4 f3 85 3f
       0.97889894 1.0240878 0.99162364 1.0465074
000030 83 86 80 3f cf ba 7a 3f 84 41 7d 3f db 5a 80 3f
       1.004105 0.979413 0.98928094 1.0027727

bn12.bias f4 [16]
000000 9e bc 92 3c 9f 6f 19 3c 41 9d ac 3d fd 42 05 3d
       0.017912205 0.009364991 0.08428431 0.032534588
000010 40 c7 44 bd ff b7 ef bb c4 cc 1e bc 92 a0 65 3c
       -0.048041582 -0.007315635 -0.009692375 0.014015334
000020 12 58 16 bd 83 df 78 bd 87 54 2d 3c 6b 01 18 3d
       -0.036705084 -0.060760032 0.010579235 0.037110727
000030 07 98 53 bc 0a d9 6b bd 60 4b c5 3d 65 e2 c6 3b
       -0.012914664 -0.05758003 0.09633517 0.006069469

bn12.running_mean f4 [16]
000000 5c 40 2d 3e ff f3 1b be 7d 45 c3 bd 24 21 93 be
       0.16919082 -0.15229796 -0.09534738 -0.28736222
000010 3f 05 04 bf 31 a1 5a 3d 0c d5 06 3e ab 67 44 be
       -0.51570505 0.05337638 0.13167208 -0.19180171
000020 0b 2c 3f be de e7 fc be 4d 13 02 be 42 8d 30 be
       -0.18669145 -0.4939565 -0.12702675 -0.17241386
000030 6f 70 98 be 06 27 dc be cb 81 64 bf 32 b4 bc be
       -0.2977328 -0.42998523 -0.8926055 -0.36856228

bn12.running_var f4 [16]
000000 51 8a 35 3e b3 d3 56 3e 58 e4 19 3e 6f e8 83 3e
       0.17728545 0.20979194 0.15028512 0.2576327
000010 3e 9a e0 3d ee 08 13 3e 63 45 e0 3d 4c db 6d 3e
       0.10966919 0.14358875 0.109507345 0.23228186
000020 0f d0 f4 3d 4a a9 8b 3e 15 ae 88 3e 2f 4c 27 3e
       0.119537465 0.27277595 0.26695314 0.16337655
000030 17 2f 24 3e f2 72 46 3e f2 4d 5a 3e 6b 03 fa 3d
       0.16033588 0.19379786 0.21318796 0.12207683

conv3.weight f4 [32, 16, 3, 3]
000000 0f ec c0 bc c3 c8 1a bd c0 26 78 3d 40 cb 7e 3d
       -0.023550062 -0.037789118 0.06058383 0.062205553
000010 32 5b cb 3c 89 a8 22 3d d4 7b a4 bd 97 28 82 3d
       0.024823759 0.03971151 -0.08031431 0.06355398
000020 29 ef 56 3d a9 a4 90 bd 7f e7 be bd 3b 84 4b bd
       0.052474175 -0.070626564 -0.09321498 -0.04968665
000030 f6 58 21 bd 77 dd 7c bd 25 83 16 3d 9c 6c 04 bd
       -0.03939148 -0.061734643 0.036746163 -0.03233014
000040 3f 12 b6 bc 6b e8 03 bd 84 8a 99 bd 4a e1 bb bd
       -0.022225497 -0.032204073 -0.07497123 -0.0917383
000050 b1 ee 4d 3d 71 ef e2 bc a6 3f 6a 3d aa 8a 82 3d
       0.050276462 -0.027702065 0.057189606 0.06374104
000060 fc cf 64 bc 60 60 46 bc 04 f0 71 bd b6 39 b1 bb
       -0.013965603 -0.0121079385 -0.059066787 -0.005408491
000070 dd 82 a5 bd 39 3b 80 bd e7 61 8c bd 74 62 a5 bd
       -0.08081601 -0.06261296 -0.06854611 -0.08075419
000080 7d 3c 35 bd fa 19 e4 bc a2 a3 53 3d 43 7d 18 bb
       -0.04424714 -0.027844418 0.051669724 -0.0023268021
000090 96 ba 87 bd 80 69 8e bd 24 2c 56 bd 94 c5 45 3d
       -0.06627385 -0.06953716 -0.05228819 0.04828413
0000a0 13 bb 82 3d 17 fa 11 3d dc 14 d4 bc 94 ca 4b 3d
       0.06383338 0.035638895 -0.025888853 0.04975374
0000b0 94 e5 ea bb d1 13 c4 bd 73 26 b1 bc 48 1b 6f bd
       -0.007168481 -0.09574092 -0.02162478 -0.058375627
0000c0 9f 42 3a bd 33 88 46 bd 2f ca 96 bd 88 60 af bc
       -0.04547369 -0.048469733 -0.07362782 -0.021408334
0000d0 28 6f 4d bd 03 2e 6d 3d 47 10 68 bd 75 24 6b bb
       -0.050154835 0.05790521 -0.05665615 -0.0035879884
0000e0 94 63 3f bd ea 4a 83 bd 9c d8 b2 3a 09 d2 2c 3b
       -0.046725824 -0.06410773 0.0013644877 0.0026370308
0000f0 12 10 4e bd 98 f1 cf bd 66 48 2b 3d c6 41 70 3c
       -0.050308295 -0.10153502 0.04181709 0.014664119
000100 f5 d4 8d bd dc c2 e3 3b 76 e0 bd bd cb f8 a0 bd
       -0.06925384 0.0069507193 -0.09271328 -0.078599535
000110 82 4e a9 bd 79 be ae 3d b5 d9 11 3d ab 30 2d 3d
       -0.08266927 0.085324235 0.035608012 0.04228274
000120 06 03 81 3d af 76 c1 3c f8 c9 f4 bb 37 3e 22 3d
       0.06299405 0.023616163 -0.0074703656 0.039610114
000130 d8 44 66 3d a1 d5 bc bb a4 10 85 bd b4 ef f0 bb
       0.056218 -0.0057627712 -0.064973146 -0.0073527936
000140 f8 91 1e 3d d5 1b 03 be 81 98 ba 3c 04 8e f7 bd
       0.038713425 -0.12803586 0.022777798 -0.12087634
000150 ab 68 4c bd 36 b3 ae 3d 74 fb 79 bb 04 1e f3 bd
       -0.049904507 0.085302755 -0.0038144263 -0.118709594
000160 90 f1 e1 3b de e7 81 bd d3 df 8f bd c6 e2 1b bd
       0.0068952516 -0.06343053 -0.07025113 -0.038058065
000170 9f 74 a0 3c ca 4a 91 bc f8 a2 d8 3c 42 69 fc 3c
       0.01958686 -0.017735858 0.026444897 0.03081191
000180 12 2e 25 bc d6 67 78 bd aa 05 30 3d ef ee e2 3c
       -0.010081785 -0.0606459 0.04297415 0.027701823
000190 fc 13 5d bd 0f c5 c8 3c ad 5e 08 3d a1 25 ab bd
       -0.053974137 0.024508027 0.033293415 -0.083567865
0001a0 2b 53 b3 3b 9c 59 57 3d 8c 6f 79 bd 52 09 7a 3d
       0.005472561 0.052575693 -0.060897395 0.061044045
0001b0 73 d3 99 bd 00 cf bc b9 64 6d ca bd 71 fd 24 3d
       -0.07511034 -0.0003601238 -0.09884146 0.040280763
0001c0 5d 49 83 3d 51 7c 82 3b 4a 74 4c 3d 50 6b 8f bc
       0.06410477 0.003982105 0.04991559 -0.017507225
0001d0 31 87 c0 3c a7 c2 93 3d 73 bd 87 b8 a5 58 8b bd
       0.023501964 0.07214861 -6.472589e-05 -0.06804017
0001e0 98 91 af bc e0 27 ca 3c 4b d0 7c 3d f6 59 30 bd
       -0.02143173 0.024677217 0.06172208 -0.043054543
0001f0 fd d2 93 3d c5 a6 f8 3a 14 a6 ad bd 3e c8 2f bd
       0.07217977 0.00189706 -0.084789425 -0.042915575
000200 bb 99 0f 3d f6 4b 05 3d 8a b6 90 3d 15 15 c1 3c
       0.03505872 0.032543145 0.070660666 0.023569623
000210 9a 9a 44 bd a0 15 4b 3c 7a 11 35 3d 8d 2b 82 bd
       -0.047999002 0.0123952925 0.04420612 -0.06355963
000220 bf 01 b1 bd 46 02 ab bd 83 98 47 3b e8 7e 03 3d
       -0.08642911 -0.08350043 0.0030455894 0.03210345
000230 6a 1f 65 3d 49 7a 02 3d 0f 39 a6 bc e7 b0 65 3c
       0.055938162 0.0318549 -0.02029088 0.014019228
000240 1b 60 29 bd e3 cb 2c bd f0 9b 69 3d 4c c8 2c 3d
       -0.04135142 -0.04218663 0.05703348 0.042183205
000250 db e8 93 3c 33 7a 3b bd 05 d9 96 3a 77 36 9f bd
       0.01805537 -0.045770835 0.0011508769 -0.0777406
000260 44 27 16 bd 63 18 84 3d 28 92 1e 3d 06 68 d3 bd
       -0.03665854 0.06449964 0.038713604 -0.10322575
000270 08 0a 63 bd 72 af 48 bb 58 33 78 bd a4 be 00 3d
       -0.05542949 -0.0030622152 -0.06059584 0.03143181
000280 c5 91 a6 3d d7 c5 1f 3d b8 34 6b bc 1a d2 67 3d
       0.08133272 0.039007034 -0.014355831 0.056596853
000290 88 47 16 bc 75 c5 cf bd 29 c6 5e 3d a9 ef 2f bd
       -0.009172328 -0.10145084 0.0543882 -0.042953167
0002a0 2d df 7a 3d c8 ed 6c 3d da de 11 b9 4b b5 29 bd
       0.061247993 0.057843953 -0.00013911296 -0.04143266
0002b0 8c ff 51 3d 60 02 36 bd b0 2a 8e 3a 89 c3 9d bd
       0.0512691 -0.04443586 0.0010846462 -0.07703311
0002c0 de 67 df 3d 82 18 4a bd 66 5d f0 3d 2a 9f 41 bd
       0.10908483 -0.04933978 0.11736564 -0.04727093
0002d0 5c 7f de 3d d0 17 d8 3b 40 c9 f9 3d f4 59 cf bc
       0.108641356 0.0065946355 0.121965885 -0.025311448
0002e0 6a 96 14 bd 51 ac 2d 3d 41 2c 67 3d a7 9a 5d bd
       -0.03627626 0.04240066 0.05643869 -0.054102566
0002f0 58 bd 0b 3d 23 4d 43 3c 1a 4e a8 3d 1f 35 40 3d
       0.03411612 0.011920246 0.08218022 0.04692566
000300 6a 7f 56 3d 37 8b 84 3c e7 b8 23 bd bf 84 03 bc
       0.052367605 0.016179664 -0.03997126 -0.008027255
000310 d1 98 15 bc 5c 21 2b 3d 01 5b 30 3b 95 3d fb 3c
       -0.009130673 0.04177986 0.0026909711 0.030669013
000320 09 9d 9e 3d cc ad bc bc 6d 62 10 bd 57 c0 d4 3d
       0.07744796 -0.023032092 -0.035250116 0.103882484
000330 78 bc ed 3c 23 c5 f3 bb 05 18 0d bd 25 f8 65 bb
       0.029020533 -0.007439272 -0.034446735 -0.0035090533
000340 d8 61 23 bd 13 43 92 3d d6 a2 62 3c 6b cb f3 bc
       -0.039888233 0.071417 0.013832768 -0.029760083
000350 7a ea 33 3d bc 3a 53 3d 0c 1d 81 3d ce 91 26 bd
       0.043924786 0.051569685 0.063043684 -0.040666394
000360 cd 14 35 bd ec fa ab 3d 2b fa 6a bd b0 65 d6 3c
       -0.04420929 0.08397469 -0.057367485 0.026171535
000370 ea b7 e6 3c 57 c4 62 3d 3a 09 ed bc bb 66 85 bd
       0.028163869 0.055363026 -0.028935064 -0.06513735
000380 d3 3d 60 bd ce 9a 05 3b b5 fa a0 bc da 9d 49 bd
       -0.05474646 0.002038646 -0.019650796 -0.049222805
000390 71 54 e3 3c eb 4f d8 3b 88 da 68 3d c4 37 25 3d
       0.027750226 0.006601324 0.056849033 0.040336385
0003a0 2c 58 53 3d 24 3b 34 bd 13 75 22 3d b9 8f 12 3d
       0.05159776 -0.044001713 0.039662432 0.035781596
0003b0 3f b4 32 bd 84 ea 2b 3d 79 db f3 3c 91 8a 8d 3d
       -0.043628927 0.0419717 0.029767739 0.06911195
0003c0 bd 38 11 3d 6f ed 55 3d fc 89 bd bc 3d 0a 56 bc
       0.0354545 0.052228387 -0.023137085 -0.013063964
0003d0 25 5f a4 3d dc c0 b7 bd 9f 02 06 bd da 44 90 3a
       0.0802596 -0.08972332 -0.032717343 0.0011006847
0003e0 58 9c ee 3d 74 25 88 bc 45 fc 50 bc 0c f2 91 3d
       0.11650914 -0.016619422 -0.012755458 0.07126245
0003f0 42 cd e2 3c 46 84 91 bd 26 0b a7 3d 3e c9 97 bd
       0.027685765 -0.07105307 0.08156423 -0.07411431

conv3.bias f4 [32]
000000 15 2b a6 bc b2 99 03 3d 6b 49 07 bd ef 6a 5c bd
       -0.020284215 0.032128997 -0.033029 -0.053812917
000010 e2 4a a5 3d 63 21 fa bc 5c c0 a2 bd 75 17 84 bd
       0.080709234 -0.030533498 -0.07946846 -0.064497866
000020 5c da 9a bd 6a 32 39 bc 30 57 64 3c 09 6e 6d 3d
       -0.0756118 -0.011303524 0.013936803 0.057966266
000030 62 b8 a3 3d 73 3e 99 3d e4 cd 20 bb b0 e8 74 bd
       0.079941526 0.07482614 -0.0024536783 -0.05979222
000040 64 e4 64 3c 5b 67 97 bd 55 eb 8d 3d 0a bc 4f 3b
       0.013970468 -0.0739276 0.06929652 0.0031697773
000050 52 a1 65 3c 53 c2 0b bd 6c 30 ac 3b 2a 4b be 3c
       0.014015513 -0.03412087 0.005254796 0.0232292
000060 1f 2a 5b 3c e3 84 8f bc 60 ba 08 3d 0b 3a 1d 3d
       0.013376742 -0.01751942 0.033380866 0.038385432
000070 4f 67 a2 bd 24 c0 38 bd d5 90 af bb 93 cb d4 bc
       -0.07929861 -0.045105115 -0.0053578415 -0.025975978

conv4.weight f4 [32, 32, 3, 3]
000000 f9 f1 02 ba 41 3b 92 3d 39 6d 58 3d 2f 35 03 bc
       -0.0004995163 0.07140208 0.052838538 -0.008008285
000010 7d 1f 48 3c a0 a8 74 bb e8 b2 95 bc d2 57 3c 3c
       0.012214539 -0.0037331954 -0.018273786 0.011495547
000020 9c 37 e4 bc 4f 55 19 bd 35 2a 25 3d 11 f1 eb bb
       -0.027858548 -0.037434872 0.040323455 -0.007200368
000030 af 59 bb 3c 48 c5 35 3c 89 b0 4c 3d 86 6d d8 bc
       0.022869913 0.011094399 0.049973045 -0.026419412
000040 56 9f 90 3c cb cc 06 3b 7b 27 0c bd 60 b7 9e 3b
       0.017654102 0.0020568843 -0.03421734 0.0048436373
000050 d2 d8 3a bd 52 51 f8 3c d2 ad e4 3b 33 39 16 bc
       -0.045616932 0.030312214 0.006978729 -0.009168911
000060 e8 dc fc 3c 68 06 e3 3c 93 d1 1b 3d 41 29 a4 3c
       0.030867055 0.027713016 0.038041662 0.020039203
000070 f4 bd cb 3d 37 c2 7c 3d 83 af da bb e1 fe e1 bb
       0.0994834 0.061708655 -0.0066737547 -0.006896839
000080 2c 78 a9 3c af d8 c0 bc 88 1f 16 3c 76 55 bc bc
       0.020687185 -0.023540823 0.009162791 -0.02298997
000090 74 49 dc bb c1 7c 08 3d 29 2a 70 3d 7c 1f be 3d
       -0.0067226235 0.0333221 0.058633957 0.09283349
0000a0 57 bc 54 3d fb 0e bd 3d 3f 25 95 3b 3b 97 a4 3d
       0.051937427 0.09231373 0.004551559 0.080366574
0000b0 5e 0f f9 3c 64 e4 a0 bc 98 b8 0c 3d 90 1f 08 3d
       0.030402835 -0.019640155 0.03435573 0.033233225
0000c0 07 9d 4c 3d dd 0c 54 3d 96 81 44 3c 72 7b 00 3d
       0.04995444 0.05177008 0.011993786 0.031367727
0000d0 f4 01 61 bd 82 18 5b 3d f9 da 74 3c 35 8d 25 3b
       -0.054933503 0.05349017 0.014944785 0.0025261168
0000e0 ad 4f 1a bd d6 c2 15 bb af 32 88 bc 2e c4 7f 3b
       -0.03767364 -0.0022851727 -0.01662573 0.0039026844
0000f0 89 6e b4 3c 31 5c 62 3d 6b 5e f8 3b 6e c8 dd bc
       0.022025364 0.0552637 0.007579615 -0.027073111
000100 90 6c 00 3c 9d 90 e6 bb 5f 64 6f 3d d9 84 80 bc
       0.007838383 -0.007036282 0.05844533 -0.015688347
000110 56 f4 49 3d 1d 2c 55 3d c3 00 0e 3c 0a b8 2b 3d
       0.049305283 0.052044023 0.008667174 0.04192356
000120 c9 5b 3a bc 30 52 88 3c 2d b4 ba bc 1a c8 03 bd
       -0.011374422 0.016640753 -0.022790993 -0.032173254
000130 33 3a b3 bb fd ef 6d bc 86 33 44 3d 6b c8 58 bd
       -0.0054695844 -0.01452255 0.0479007 -0.05292551
000140 84 50 5b bd e8 35 06 3d f3 55 08 bc 9c d9 b0 3c
       -0.053543583 0.032766253 -0.008321273 0.02158814
000150 68 69 9d 3d 33 4e b2 3d 89 d8 25 3a 55 47 8e b8
       0.0768612 0.087063216 0.0006326517 -6.784374e-05
000160 80 23 20 3d 3f fd 2e bd fc d8 b0 bb b1 29 43 3c
       0.039096355 -0.042721983 -0.0053969603 0.0119117955
000170 9b 3e b4 bc d0 63 c1 3c 0e 2c 74 bc 7e ed bc bc
       -0.022002509 0.023607165 -0.014903082 -0.023062464
000180 58 57 10 bc 9a 5f 5b bb ef c4 26 bd 9b c0 02 bd
       -0.008809887 -0.003347373 -0.040715154 -0.031921964
000190 b0 51 d3 bc 57 f2 0d bd 6f a5 8f 3c df 35 1e b9
       -0.025795788 -0.03465494 0.01753494 -0.00015088123
0001a0 a4 af 72 bc 98 5a 5d 3d 39 44 0c bd d8 d0 04 3c
       -0.014812384 0.054041475 -0.03424475 0.008106433
0001b0 f9 fc dc 3c ae 38 60 3d cd 76 a1 3c 29 42 0e 3d
       0.026976096 0.054741554 0.019709969 0.034731064
0001c0 86 d1 35 3a 88 f2 82 3d dc fc 3c 3d 5a 41 d6 3c
       0.00069358235 0.063939154 0.046139583 0.026154209
0001d0 2d ce ce bc 21 6e b9 bc 30 81 cc bb 61 f6 4d 3d
       -0.025244797 -0.022635521 -0.0062409863 0.050283793
0001e0 05 f0 1f 3d 4a d8 02 3d 3b 74 99 3c 5a a8 d5 3b
       0.03904726 0.03194455 0.01873218 0.006520313
0001f0 e0 3a 0b bc ee 7f c9 bb 21 c1 2b 3d c4 94 18 bd
       -0.008497924 -0.0061492836 0.04193223 -0.03725125
000200 43 4d 8d bd b5 d1 05 3c 3a fe 83 3b 8f 72 82 3c
       -0.06899502 0.008167674 0.004028109 0.015923766
000210 5f 68 e9 ba c6 6e 09 bd b3 03 77 3c 90 52 78 bc
       -0.0017807594 -0.033552907 0.015076566 -0.015156403
000220 10 05 23 3c 0c 30 17 3d f0 13 06 3d 34 0f da bc
       0.009949937 0.036911055 0.032733858 -0.026618578
000230 4a b7 c7 bc 24 00 1f bc 72 84 b4 bc bb ad 10 3d
       -0.024379391 -0.009704623 -0.022035811 0.035321932
000240 5f 4f 96 3b 52 e0 66 3d 10 f8 57 bd e5 06 88 bb
       0.0045870985 0.056366272 -0.052726805 -0.0041512125
000250 ba 6d ac 3b a4 02 01 3d 3a 6f 40 3d 9a 9e 2a bd
       0.005262104 0.03149666 0.046981074 -0.04165516
000260 48 d9 8d bc d8 8f dd 3c 95 0f 4e 3d b9 82 6e 3d
       -0.017315522 0.02704613 0.05030783 0.058230136
000270 f3 41 1a 3d 74 be 73 3d 9a 52 fa 3c e7 33 dc 3c
       0.03766055 0.059507802 0.030556966 0.026880218
000280 b4 4c 6c 3d 8f b7 b5 bc 46 87 82 3c 91 b5 2d 3d
       0.057690337 -0.022182254 0.015933644 0.042409483
000290 19 85 35 bd 2e d1 12 3d f3 86 dd bc 94 a6 e2 bc
       -0.044316385 0.03584402 -0.027041888 -0.027667321
0002a0 d2 87 3b bd ae 5d 83 3d 08 53 42 3b d0 2a 0f 3d
       -0.045783825 0.06414352 0.0029651541 0.03495294
0002b0 a3 fd c2 ba ba 10 da 3c 38 46 72 3d a9 15 8e 3c
       -0.0014876615 0.026619304 0.059148997 0.017344313
0002c0 fc 07 41 3d ab 52 2e 3d f6 22 79 3c 79 c6 6f bc
       0.047126755 0.042559307 0.015206089 -0.014634722
0002d0 95 a6 10 bd da bf 87 3d 00 ca 3d 3c 6c 70 82 3d
       -0.035315115 0.0662839 0.011583805 0.06369099
0002e0 9e 8d b2 3c 0c eb 23 3b bf 30 3a bd a0 50 4a 3c
       0.021796044 0.0025011925 -0.045456644 0.012348324
0002f0 81 f8 11 3d ec 3f 4a bc 7d 17 c5 3c c3 dd ed 3c
       0.035637382 -0.012344342 0.024059052 0.029036408
000300 62 95 49 3d 47 f3 42 3d 24 ed 5c bb 1d 72 87 bc
       0.04921473 0.04759529 -0.0033710683 -0.016533906
000310 b8 5b d7 ba 5a bc 74 3d 9f 77 a0 bc 6b f9 09 bd
       -0.0016430533 0.05974994 -0.01958829 -0.03368513
000320 fd 45 70 3d 7b 66 c3 3c b8 f0 d0 bb 75 4c de bc
       0.058660496 0.023852577 -0.006376352 -0.027136067
000330 71 6d 2d 3d 75 ab 86 bc ab 53 b7 bb 2d 69 2d 3d
       0.0423407 -0.016439179 -0.005594691 0.04233663
000340 00 10 40 3c 47 58 c8 3c a2 80 5b bc 20 81 0a 3d
       0.011722565 0.024456156 -0.013397368 0.03381455
000350 f5 a2 bc bc 19 98 ff b9 b9 6e 3a bc 7b 28 f4 bc
       -0.023026923 -0.00048750712 -0.011378937 -0.029804459
000360 3e 37 4e 3d af 70 37 bd 56 68 b8 3b 74 03 48 3b
       0.05034565 -0.044785198 0.005627672 0.0030519636
000370 37 45 80 3d 92 e5 0a bd 48 5b ea 3c 8d 22 4b 3a
       0.06263202 -0.03391034 0.02860798 0.0007748984
000380 61 2a cd 3c cb c7 71 ba 47 fa c2 bc cd d3 8f bb
       0.025044622 -0.0009223192 -0.023800982 -0.0043892623
000390 5d e2 0e bc 30 7c 10 3d 21 ae 43 bc 6d 25 72 3c
       -0.008720961 0.035274684 -0.011943371 0.014779431
0003a0 44 6b b9 bb 9f 56 a6 3c cd 55 6a bd b1 61 7d bc
       -0.005658539 0.020304976 -0.057210732 -0.015465186
0003b0 e9 43 8c bc 97 f1 af 3c 75 bb cd bc 95 44 c8 bc
       -0.017122226 0.021477504 -0.0251138 -0.024446765
0003c0 96 ab 9a 3c 5b 8f 75 bc 07 a1 d5 bc a1 c2 dd 3b
       0.018880647 -0.014987792 -0.02607776 0.0067675863
0003d0 89 ae 90 3b 5f 8d 12 bd 88 5b 08 bd 95 d0 1e 3d
       0.0044153375 -0.035779353 -0.033290416 0.038773138
0003e0 ac 57 46 3a e7 a0 c6 ba 78 02 99 3c 2a b8 66 3a
       0.0007566165 -0.0015154154 0.018677935 0.00088012463
0003f0 57 97 18 3d 2e e5 f8 3b 87 12 ec 3c b3 a7 ec 3c
       0.037253704 0.0075956797 0.028817428 0.028888559

conv4.bias f4 [32]
000000 11 cf 1c ba 64 67 dd bb 54 30 68 3d 20 fd 33 3d
       -0.0005981783 -0.00675671 0.056686714 0.04394257
000010 c0 9f 12 3c 8e 42 b4 38 2b 5c 89 bb cf 9e 4e bd
       0.00894922 8.5954656e-05 -0.0041918955 -0.05044442
000020 6a d2 8c 3a 1a d4 3a bd 23 9a 13 3d a0 f7 8e bb
       0.0010743861 -0.045612432 0.036035668 -0.0043630153
000030 89 11 f4 ba 4f ff 2e 3d cd 88 6c bb 60 01 d1 3c
       -0.0018620949 0.04272395 -0.0036092282 0.025513351
000040 41 c5 15 3c fd ce bb bc 26 b4 02 bd 71 b9 02 3c
       0.009141267 -0.022925848 -0.031910084 0.007978783
000050 c7 52 ca ba 29 09 54 3d 77 de 14 bc 19 f2 26 3d
       -0.0015436047 0.05176655 -0.009086243 0.040758226
000060 86 8f 0f 3d ee 61 17 bd 27 7d c2 bc ae 65 14 bd
       0.035048984 -0.036958627 -0.023741318 -0.03622978
000070 56 81 2b bd 92 f7 e6 3c 98 c7 b4 3c 89 ec 53 bd
       -0.04187139 0.028194223 0.02206783 -0.05173925

bn21.weight f4 [32]
000000 43 68 7f 3f 11 c5 80 3f fb 8b 7e 3f 7d 23 7d 3f
       0.99768466 1.006014 0.99432343 0.98882276
000010 67 45 80 3f 96 4a 7f 3f bb 6d 7e 3f e2 9d 7f 3f
       1.002118 0.99723184 0.99386185 0.99850285
000020 73 07 81 3f de 03 83 3f 1e 1d 83 3f f4 5a 7c 3f
       1.0080398 1.0235555 1.0243261 0.98576283
000030 78 42 83 3f 5e ee 83 3f 80 1c 82 3f 88 ac 7d 3f
       1.025466 1.0307119 1.0164948 0.99091387
000040 3d 4a 77 3f ed 99 80 3f bb a4 81 3f c1 4f 82 3f
       0.96597654 1.0046974 1.0128397 1.0180589
000050 3d e5 7f 3f e2 cf 7d 3f 60 e6 80 3f e0 89 7b 3f
       0.99959165 0.9914533 1.0070305 0.98257256
000060 98 f0 7f 3f 54 31 7f 3f 28 6b 75 3f 75 e5 7d 3f
       0.9997649 0.99684644 0.9586663 0.9917825
000070 20 3d 7c 3f b3 d5 7d 3f 12 89 7c 3f 49 6c 81 3f
       0.9853077 0.99154204 0.9864665 1.0111171

bn21.bias f4 [32]
000000 03 67 f0 bc d3 c3 fc bc 2c 13 5f bc db 4c 16 3d
       -0.029345995 -0.030855095 -0.013615411 0.03669439
000010 dc 44 20 3c c3 31 cd bc 02 9a 98 bd 7b ce be bc
       0.009782042 -0.025048142 -0.0745125 -0.023291817
000020 ad 8c f2 bb 90 28 13 3a 0e 9f c9 bb db e5 23 bb
       -0.0074020238 0.0005613649 -0.006152994 -0.002500883
000030 f8 0d ec 3b 9c 6e ae 3b a1 47 26 ba d2 05 dd bc
       0.0072038136 0.0053232443 -0.0006343071 -0.026980314
000040 9b f7 5f bd c8 d1 82 b9 4f 78 75 bd c0 c1 0d 3c
       -0.054679494 -0.0002495183 -0.05992919 0.008652151
000050 04 cf 0d bd 3f f3 eb bd 57 ca 96 bc 52 4d aa bd
       -0.034621254 -0.11521005 -0.01840703 -0.08315529
000060 4a 42 5f bc 4a 1a c0 3c 90 8a 6b bd a5 a2 23 bc
       -0.013626644 0.023450036 -0.05750519 -0.009987508
000070 a4 65 e9 3c 32 72 02 bd 77 d3 2c bd e2 61 00 b9
       0.028490849 -0.031847186 -0.042193856 -0.00012243495

bn21.running_mean f4 [32]
000000 35 7f 8a bf 6a 39 3e 3f 3b 85 1f 3f e4 65 7a bf
       -1.082007 0.74306357 0.6231267 -0.9781172
000010 5e 64 37 3e 48 ad ce 3f b9 8e 9d 3d 40 16 84 bf
       0.17909381 1.6146631 0.07693238 -1.031929
000020 8b 57 bf 3d 44 95 35 3d 2f 75 5d bf 99 26 99 bd
       0.09342869 0.044331804 -0.8650693 -0.07478065
000030 d6 2b e3 be b2 43 a6 be 9e 38 16 3f 41 67 41 be
       -0.44369382 -0.32473522 0.5868014 -0.18887044
000040 ff ed 93 3f ed 02 4c bf c3 1b 12 3f e8 68 11 bf
       1.1557006 -0.79691964 0.5707361 -0.568007
000050 86 50 79 3f c3 31 1d 3f 15 9d 8c bf d4 6a 4b 3f
       0.97388494 0.61404055 -1.0985438 0.7945988
000060 f6 26 d7 3e 88 43 6f 3f 93 e0 6b bf 7a df 55 3f
       0.42021912 0.9346242 -0.9213955 0.83544123
000070 05 19 6e 3e a5 9e 93 be e5 e9 88 3f 1f 1b 36 bf
       0.23251732 -0.28831974 1.0696379 -0.71135134

bn21.running_var f4 [32]
000000 f4 6f ab 3e 3b 3f 47 3e 22 84 94 3e 18 6b 78 3e
       0.3348385 0.19457714 0.2900706 0.24259603
000010 37 02 44 3e 78 ce 11 3f 86 68 fe 3d 35 74 81 3e
       0.1914147 0.5695567 0.1242228 0.2528397
000020 75 a9 f7 3d 41 0f 10 3e 0c 88 b4 3e 88 47 60 3e
       0.12092868 0.14068319 0.35260046 0.21902287
000030 a6 35 96 3e 35 c5 20 3e d2 63 2d 3e 84 5c 2e 3e
       0.29337806 0.15700229 0.1693261 0.1702748
000040 a2 ce 89 3e 40 0d 7b 3e 95 20 e3 3d 0d 21 b3 3e
       0.2691546 0.24516773 0.11090199 0.34986153
000050 d5 fc 26 3e 34 fd 15 3e fd 0b 5e 3e be ad 3b 3e
       0.16307385 0.1464737 0.2168426 0.18327996
000060 6d 37 4e 3e ed b6 39 3e e2 cf 86 3e 8b 95 9c 3e
       0.20138331 0.18136187 0.26330477 0.30582842
000070 11 18 94 3d 7b 14 39 3e 99 d7 54 3e 5f 12 b2 3d
       0.07231153 0.18074219 0.20785369 0.0869491

bn22.weight f4 [32]
000000 19 76 80 3f 73 54 80 3f 09 d0 7c 3f 3a 5f 80 3f
       1.003604 1.0025772 0.98754936 1.0029061
000010 a6 d0 80 3f b6 b7 81 3f ad 91 80 3f 4e 40 83 3f
       1.0063674 1.0134189 1.0044457 1.0253999
000020 02 2f 7f 3f ea c3 7f 3f 09 aa 7f 3f ff a8 7f 3f
       0.99681103 0.99908316 0.9986883 0.9986724
000030 3c 44 7e 3f 51 e0 7b 3f f5 af 7b 3f a7 5c 7d 3f
       0.9932287 0.98389155 0.98315364 0.989695
000040 5f 5b 81 3f 02 45 7b 3f 2f ca 80 3f da 01 7a 3f
       1.0106009 0.9815217 1.0061702 0.97659075
000050 54 5c 82 3f b7 10 7a 3f dd 23 7d 3f 75 f8 7d 3f
       1.0184426 0.97681755 0.9888285 0.9920724
000060 e0 93 7e 3f 71 75 83 3f 56 45 7e 3f 22 7a 7b 3f
       0.9944439 1.0270215 0.9932455 0.98233235
000070 cc 30 80 3f 59 73 7e 3f 63 79 7f 3f 34 65 79 3f
       1.0014892 0.99394757 0.99794596 0.9742005

bn22.bias f4 [32]
000000 19 9c 1f be 6d ae 44 3d 52 be 9e bb 7a 10 3a 3d
       -0.1558689 0.048017908 -0.0048444653 0.04542587
000010 25 60 e9 bd 58 2f 02 3d 2d 5f 08 3d 33 eb 06 bd
       -0.11395291 0.03178343 0.03329389 -0.032939147
000020 b5 13 ce 3c 4e 3b b6 bd 1f 61 c3 ba b9 4f b6 bd
       0.025155881 -0.0889803 -0.0014906264 -0.08901925
000030 a0 50 2c 3c 1e d1 db bd 87 0a 00 bd cd 99 16 3c
       0.010517269 -0.10733245 -0.03126004 0.009191942
000040 dd 70 26 be e4 af ba 3c 3e f0 b6 bc b8 b9 9c bc
       -0.16253991 0.02278895 -0.022331353 -0.019131526
000050 d5 03 54 3d 6b db fb b8 52 84 68 bc c7 0b c6 bc
       0.051761467 -0.000120094825 -0.014191704 -0.024175538
000060 b5 f9 a5 3c 33 37 26 be 64 fe 86 bd 6b 04 91 bd
       0.020260671 -0.16231994 -0.0659149 -0.07080921
000070 d9 5c 4c 3d 58 e0 d2 bc b9 be c3 3c 5c 06 42 bd
       0.049893234 -0.025741741 0.023894655 -0.047369346

bn22.running_mean f4 [32]
000000 4b 48 8f 3f e3 aa a6 bf 16 91 ab b9 0d 2e ee be
       1.1193937 -1.30209 -0.0003272376 -0.4651951
000010 80 32 c3 3f 9f 32 e6 be ef b9 8f be a4 d1 18 bf
       1.5249786 -0.44960496 -0.28071544 -0.59694886
000020 ff 0f 92 bf c1 97 ea 3e 5b b5 6a 3e 0f 19 81 3f
       -1.1411132 0.45818904 0.22920744 1.0085772
000030 07 c0 3a be 9c 0b cd 3e 8f d8 e1 be 00 3f b0 be
       -0.18237315 0.4004792 -0.44110534 -0.34423065
000040 b8 24 4f 3d ac 77 9e bc 8e af ff 3e 32 35 8c be
       0.050572127 -0.019344173 0.49938625 -0.27384335
000050 d9 43 70 bf 95 fd 64 be dd 52 4e 3f f5 8c 2c 3f
       -0.9385353 -0.22362359 0.8059519 0.67402583
000060 d9 00 b7 be d3 0f 39 3f 23 b7 b3 be 0a a7 93 be
       -0.35742834 0.7228977 -0.3510066 -0.28838378
000070 fd a5 d4 bf d4 1c 60 be 56 55 a3 be 0b bc 95 be
       -1.6613156 -0.21885997 -0.31901044 -0.29245028

bn22.running_var f4 [32]
000000 67 de 86 3e 29 d9 ec 3e 8c 6a c5 3e 86 42 86 3f
       0.26341555 0.4625943 0.3855785 1.0489051
000010 20 e3 aa 3e f9 ad 3c 3f 72 2f 02 3f 6d 61 91 3e
       0.33376408 0.7370296 0.50853646 0.28394642
000020 f4 8a 8f 3f 92 bc 00 3f 33 19 d9 3e 2c dd fa 3e
       1.121428 0.50287735 0.42402038 0.48996866
000030 e3 83 12 3f 68 33 b2 3e 7f 51 26 3f 8d 39 82 3f
       0.57232493 0.34804845 0.64968103 1.0173813
000040 7d de ac 3e 4f 35 cb 3e 9d 97 ea 3e f7 3d 22 3f
       0.33763495 0.3968911 0.45818797 0.633758
000050 8f e8 88 3f 27 f4 66 3f 0a 69 9e 3e 83 ce 1c 3f
       1.0695971 0.90216297 0.30939513 0.6125261
000060 fe 6a a3 3f 40 2e b0 3e 65 6d 54 3f 75 f5 34 3f
       1.2767026 0.34410286 0.8297942 0.7068704
000070 c9 d7 32 3f 79 10 12 3f b6 13 07 3f 3d a9 f3 3e
       0.6986051 0.57056385 0.5276445 0.47590056

conv5.weight f4 [64, 32, 3, 3]
000000 89 78 32 3d 62 e0 8a 3d c6 4e ea 3c 6f d8 1d 3d
       0.043571983 0.06781079 0.028602015 0.038536485
000010 25 cf 8e 3c a4 c5 17 bc 44 a4 2c bd ae 8b 2b 3c
       0.017432759 -0.00926343 -0.042148843 0.010470314
000020 de a1 6e bd 79 8f 1a 3d 84 3a 68 3d d2 b5 3a 3d
       -0.058259837 0.037734482 0.05669643 0.045583554
000030 f4 24 73 3d 9a a5 f9 3c f1 13 0a 3d 0d a6 80 bb
       0.059361413 0.030474473 0.033710424 -0.003926045
000040 24 fe 4f b8 88 e0 45 bc 30 4b 6f 3b 1e 4d 32 bc
       -4.9589333e-05 -0.012077458 0.003651332 -0.010882644
000050 aa 1b c8 bc 31 ce 8a 3c 83 12 66 3d 7e 4d bc ba
       -0.024427254 0.016944023 0.056169998 -0.0014366356
000060 72 d1 8b bc 9e 9d de 3c 91 21 8e 3c 83 75 22 3d
       -0.017067645 0.027174767 0.01734999 0.03966285
000070 a7 73 11 bd 8e 58 08 3d 04 4b d7 3d ac b4 0e bb
       -0.035510685 0.033287577 0.10512355 -0.002177517
000080 82 a7 01 3d 78 8c d0 3d 79 41 6a 3d d2 1f b9 bc
       0.03165389 0.10183042 0.057191346 -0.02259818
000090 53 33 86 3d 44 ef a6 3c 29 57 f1 bc 1b 5d 32 3d
       0.06552758 0.020377763 -0.029460507 0.043545824
0000a0 4a 38 74 bc 4b 15 00 3d 71 62 1d 3d 92 d2 fd 3c
       -0.0149059985 0.031270307 0.03842396 0.030984197
0000b0 a3 15 34 3b 01 3b 5c 3d 2c 1b 90 3c f8 9e 95 3c
       0.0027478717 0.053767208 0.017591082 0.018264279
0000c0 9f 56 e9 bc 3a 49 d8 bc 4e bb 97 bc da 17 12 bd
       -0.028483687 -0.026402105 -0.018521931 -0.035667278
0000d0 5f 74 67 bd f7 53 26 bd c6 88 2f bd 2e a0 38 3c
       -0.056507464 -0.04060742 -0.042855047 0.011268659
0000e0 c5 64 78 39 e2 69 d8 bb be a0 81 3d 95 ff b6 3b
       0.00023688663 -0.006604419 0.06329487 0.005584667
0000f0 c6 37 c5 bc 9b 01 0f 3c 1c 67 1e bd 0b d7 46 3d
       -0.024074446 0.00872841 -0.03867255 0.048544925
000100 f3 3e cd 3c 1b f2 4b bd 64 c6 02 bd 47 24 ad 3b
       0.02505443 -0.049791437 -0.03192748 0.0052838656
000110 b5 a9 20 3d 0b c0 05 bd c8 fa 0a bd 35 0a 96 bc
       0.039224345 -0.03265385 -0.03393057 -0.018315414
000120 00 85 09 3d 92 13 53 bb b3 1e 78 3d d9 fc 80 bc
       0.033574104 -0.003220771 0.060576152 -0.015745567
000130 4b 42 80 3c 5c 55 65 3d 70 35 c5 bc 28 fe 80 3c
       0.015656611 0.05598961 -0.024073333 0.015746191
000140 a7 71 d4 3d 0d aa 02 3c 4b 43 b7 3b 32 64 bc 3c
       0.1037324 0.007975114 0.0055927387 0.022996996
000150 e5 90 cd bc 7d ee 1f bd dd c9 42 3c 31 82 1e 3d
       -0.025093505 -0.0390458 0.011888948 0.03869838
000160 92 01 3f bc 06 62 ca bb d8 83 8b bd a3 7b d7 3b
       -0.011658089 -0.006176236 -0.068122566 0.006576018
000170 65 07 2d 3b 22 c0 65 bc 06 33 02 3c 0c 0f 03 bc
       0.0026402113 -0.014022859 0.007946735 -0.007999193
000180 83 7d cd bc 7c 09 79 bc 65 64 f2 bc e7 04 44 3c
       -0.025084263 -0.015200015 -0.029588887 0.011964059
000190 d0 d0 98 bc 98 14 81 3d 42 b9 6e bb 67 82 cf 3c
       -0.018654257 0.06302756 -0.003642634 0.025330735
0001a0 8b fa 1d bd 19 66 6c 3d 20 a0 2c 3d 08 22 09 3b
       -0.038569015 0.057714555 0.042144895 0.0020924825
0001b0 1e 4c 3f 3c 29 a8 c4 bc 9c a9 f2 bd ee 8b 6f bd
       0.011675863 -0.024005966 -0.11848757 -0.058483057
0001c0 27 60 fa 3c 66 5b aa bb 7f 65 0b bd 84 65 fe b8
       0.030563427 -0.005198884 -0.03403234 -0.000121305726
0001d0 81 a0 81 bd 1a d6 ff 3c 67 9e 07 3d a5 80 13 bc
       -0.06329442 0.031230021 0.03311005 -0.009002839
0001e0 09 4b 83 bc cd 66 f7 3c 5a 4b 3c 3d c9 32 1a bc
       -0.01602699 0.030200386 0.0459703 -0.009411522
0001f0 12 dc 03 3d f9 78 1c 3c 1f 2f 2b 3d e2 9e 8e 3d
       0.032192297 0.0095503265 0.041792985 0.06963898
000200 a7 a9 45 bd 3d f8 c7 3b 7e 2f 56 3d 46 29 96 3c
       -0.048257496 0.0061025904 0.052291386 0.018330228
000210 b5 8d 6a 3c 6b 8f 06 3d e9 2d c1 3a 9f 2c 08 ba
       0.014316012 0.032851618 0.0014738414 -0.00051946373
000220 86 dd 39 3b ec 4d 51 3d e1 40 36 3d 6c ce 86 3d
       0.0028360798 0.051099703 0.044495467 0.065823406
000230 50 74 19 3d 41 1c c6 3d ba 98 dd 3b ce 91 ae 3d
       0.03746444 0.09673358 0.006762591 0.08523904
000240 2e a7 77 3c bc 82 e4 3c 79 80 5a 3c d4 9a cf bc
       0.015115542 0.02789437 0.013336294 -0.025342382
000250 67 40 ad bc 63 a7 04 bc f0 90 fb bc 05 06 08 bc
       -0.021148873 -0.008096549 -0.03070876 -0.008302216
000260 32 4a c9 bb b7 26 e7 3b 02 72 8e bb 5f c0 ae bc
       -0.006142878 0.0070541757 -0.004347087 -0.021331964
000270 56 0f dc bc af c0 cc 3b e9 23 1a bd 36 b8 bc bd
       -0.026862781 0.0062485556 -0.037631903 -0.09214823
000280 e8 16 94 3c 73 b6 a8 bc 1a eb b9 3c d9 73 9b bd
       0.018077329 -0.020594811 0.022695113 -0.075904556
000290 54 bf 85 bd 9a 19 4c 3d 4b cd 79 3c c4 aa cb 3c
       -0.065306336 0.049829103 0.0152467 0.0248617
0002a0 d7 70 49 3d a5 56 23 3b 26 e6 1b bd 09 26 2b 3d
       0.049179878 0.002492347 -0.038061284 0.04178432
0002b0 48 bc 9f bc 01 1a af 3d 66 7f 34 bb a3 76 8d bc
       -0.01949896 0.08549882 -0.0027541756 -0.017268484
0002c0 c0 40 63 bc 6e 8f 11 3d 5f 96 37 bc ce 44 39 3c
       -0.013870418 0.035537176 -0.011205285 0.011307908
0002d0 c5 aa f6 3c a6 42 5d 3c 1b 07 2c bb a0 35 88 3d
       0.030110726 0.01350466 -0.0026249352 0.06650853
0002e0 29 16 07 3b fa 99 a1 3c 69 a0 16 ba 30 f4 19 bd
       0.0020612574 0.019726742 -0.0005745949 -0.03758639
0002f0 a8 ef 70 3c bc 96 a5 3b 24 44 80 bc f7 70 02 bc
       0.014705576 0.0050533693 -0.015657492 -0.007961503
000300 8e 75 30 bc e3 15 58 bc 81 f1 34 bd da 37 43 3c
       -0.010770215 -0.013188812 -0.04417563 0.0119151715
000310 e2 3f ba 3c 68 70 41 3c 2a 99 a1 bd 38 50 6d 3c
       0.02273554 0.011806585 -0.07890542 0.014484458
000320 b4 58 02 bd b7 32 fe 3c a6 8a 7a bd ab 97 b3 bc
       -0.031822875 0.031030042 -0.06116738 -0.021922907
000330 36 42 32 bd 1f 67 97 bc d5 e4 06 3c ad b8 15 bd
       -0.043520175 -0.01848179 0.008233269 -0.036553074
000340 35 47 0c 3d 90 09 64 bc c6 e7 93 bc de dc 12 bd
       0.034247596 -0.0139182955 -0.018054854 -0.035855167
000350 b0 84 4f 3a 4c 52 a4 3c b3 d6 d1 bc 47 73 8b bc
       0.00079161953 0.020058773 -0.025615072 -0.017022742
000360 cd 5e 67 bd c1 ff 85 bd 0f b6 2d bd d5 83 86 3d
       -0.056486893 -0.06542922 -0.042409953 0.06568114
000370 2d e2 20 bd 6b fa 5b bd de 23 7c 3d 00 e7 a2 bc
       -0.039278198 -0.053705614 0.061557643 -0.01988554
000380 8c 29 a9 bd ef 1e ee bc d1 c6 83 3d d1 21 2d 3d
       -0.082598776 -0.029067485 0.064344056 0.042268578
000390 48 63 62 bc 73 79 15 bd 07 6d 85 bc ef ee d2 bb
       -0.013817616 -0.036492776 -0.01628734 -0.0064371745
0003a0 e3 88 fb 3c ab 38 02 bc bf 1a 05 bd bb c4 24 bb
       0.030704921 -0.007948081 -0.03249621 -0.0025141675
0003b0 f6 e2 16 3a 38 cf 98 bc ef f3 20 3d d8 64 42 bd
       0.0005755866 -0.018653497 0.039295133 -0.047459453
0003c0 5f ac 3d 3d 1e 36 1b 3d 4d 9c a7 3c a3 41 f2 3c
       0.046306964 0.037893407 0.020460272 0.029572314
0003d0 d4 76 8b 3a fe e8 80 3d bf 13 02 bd 07 68 81 bc
       0.0010640272 0.0629444 -0.031757113 -0.015796674
0003e0 c1 c0 88 bb cc 76 1a 3d 62 f4 eb 3c 55 ad 9a bc
       -0.0041733687 0.03771095 0.028803054 -0.01888148
0003f0 9b f5 12 3d b2 3c 6b 3d 88 37 44 3d 35 43 eb 3c
       0.03587876 0.05743093 0.04790452 0.02871857

conv5.bias f4 [64]
000000 ce 67 2e bd 56 82 86 3c cd 15 ae 3c 57 35 70 3b
       -0.042579465 0.01641957 0.02125063 0.0036652887
000010 6e a9 58 3d 1e 03 59 3d 4c 5e fa bb e8 77 4a bc
       0.052895956 0.05298149 -0.0076406356 -0.012357689
000020 2a 89 f2 3c bd 7e 2b 3d ac 6a c0 bb 49 50 44 3d
       0.02960642 0.041868914 -0.0058720913 0.04792813
000030 d3 50 e8 bc 57 77 11 3d 1d f9 9c bb ca f0 cd bc
       -0.028358852 0.035514202 -0.004790439 -0.025139231
000040 13 8a 41 bd 90 a2 9c 3b 29 4e 5a 3d 64 99 38 3d
       -0.04725082 0.004780121 0.053297196 0.04506816
000050 fe 9a aa bc ec bc 3e bd ae 9b c8 bc be 7a 39 3c
       -0.02082586 -0.04656689 -0.024488296 0.011320768
000060 03 14 4a bd 8c 3b 1c bd 81 5b 3d 3d df fd 66 bd
       -0.04933549 -0.038142726 0.046229843 -0.056394454
000070 31 40 a0 3c 20 c4 2b 3c 0c 74 0b 3d 59 35 c0 bc
       0.019561859 0.010483772 0.034046218 -0.023462938
000080 0b 97 0d bd 0a 11 39 3d e2 d3 86 bb 37 2a 64 3d
       -0.034567874 0.045182265 -0.004114614 0.05570432
000090 d1 15 9b 3c 08 ed 50 3d b0 05 44 bd eb 6b c6 bc
       0.018931301 0.0510073 -0.047856987 -0.024221381
0000a0 bd 1c 18 bd 31 f5 30 3d a1 84 3a 3d 9c 5b c1 bc
       -0.037136782 0.043202583 0.04553664 -0.023603253
0000b0 81 f5 c3 3c bf 10 52 bc ca 7c 03 bb fd 96 ca bb
       0.023920776 -0.012821375 -0.0020063394 -0.00618255
0000c0 4f 94 0c 3d 3c ce 2e 3d c4 c3 e6 3b 4a f9 26 3c
       0.034321126 0.04267715 0.00704238 0.010191271
0000d0 fb 6d dd bb 48 9f e1 3c 37 89 9e bc 4c 58 0e 3d
       -0.0067574955 0.027541772 -0.019352539 0.034752175
0000e0 b2 96 b9 3c a6 95 df 3c 9f 90 61 3d 98 50 cb bc
       0.022654865 0.027293038 0.055069562 -0.024818704
0000f0 8f 22 1e bd 55 4b 2a bd 1e 8c 1c bc 3e b4 f2 bc
       -0.038607176 -0.04157575 -0.009554891 -0.029626962
