checkpoints/30_best_model3.pth (torch, 309473 bytes, 37 tensors)

conv1.weight f4 [16, 4, 3, 3]
000000 ff e8 4f 3c 94 32 29 be 94 c5 d4 3c a3 d5 2a be
       0.012689828 -0.165232 0.025973119 -0.16683058
000010 18 3b fe bd 13 0e 26 3e b4 b4 b2 bd bd 04 ca 3c
       -0.12413615 0.16216306 -0.08725873 0.024660463
000020 24 9e 03 3e ab b2 ad bb c6 44 aa 3d cc 43 8d 3c
       0.12853295 -0.00530084 0.08313899 0.017244242
000030 95 bc b6 3d 39 a4 33 3d 65 50 75 3d df a8 a9 3d
       0.08922688 0.043857787 0.059891123 0.08284163
000040 e1 8d ca bc 9c eb 1f bc f8 bc b8 bd be 91 b5 3d
       -0.024725856 -0.0097607635 -0.09020418 0.08865689
000050 e2 b0 a8 3c a1 e9 10 3e b9 cc bd 3c 3b 35 00 3e
       0.020592157 0.14151622 0.023168908 0.12520306
000060 29 0f 25 bd 74 4e d0 3d e8 0e ee bd 14 10 c3 3b
       -0.04029766 0.10171214 -0.11623937 0.0059528444
000070 89 3c ea bd bf ff 2a bd b9 66 06 be aa 08 d0 bd
       -0.114373274 -0.041747805 -0.13125123 -0.101579025
000080 2f 1d 85 be 8c e6 2c 3c a2 0d 64 be 80 27 f7 3c
       -0.25998828 0.0105530135 -0.22270826 0.030170202
000090 61 5a 06 bd e6 7a 5e be 40 72 d0 3d f2 9a c5 bd
       -0.032801036 -0.2172657 0.101780415 -0.09648694
0000a0 4b e1 91 bd cf c5 1d 3e 23 5c 79 3d 4c df c9 bd
       -0.07123049 0.15407489 0.060878884 -0.098570436
0000b0 e3 c9 35 3c 90 69 c3 bd 96 e3 6b bd fe 3b cf 3d
       0.011095497 -0.09541619 -0.05759009 0.101188645
0000c0 62 77 f1 bc e8 95 88 bd 51 5e 00 3e d7 14 07 bd
       -0.029475871 -0.06669217 0.12535979 -0.03297886
0000d0 a2 cc 5a 3d b5 ab 9a 3d 67 a1 d6 3c 7d 8b 0c 3d
       0.05341781 0.07552282 0.02620001 0.034312714
0000e0 7a 2c 92 bd 50 14 34 be 97 e0 3b 3d 1a cf 02 3e
       -0.071373895 -0.17585874 0.045868482 0.12774315
0000f0 23 c1 87 3d 5a 42 8e bd 9a 76 fe 3c 5a 96 19 be
       0.06628635 -0.06946249 0.031062413 -0.14998761
000100 13 e1 57 be 74 db df bd 6e a4 58 be 71 b1 87 3b
       -0.21081953 -0.10930529 -0.21156475 0.0041410257
000110 a9 2c 33 3e 6d 36 fe bd 1d 99 9f bd 72 5f 01 3e
       0.17497505 -0.12412725 -0.07792876 0.12634066
000120 61 48 3d 3d 9c 78 90 bc 6a e9 28 3d f4 ec cd 3d
       0.046211604 -0.017635636 0.041238226 0.10054961
000130 99 a9 c0 3d da 9a ee 3b 68 e4 63 3e 0e 9d c1 3d
       0.09407348 0.0072816433 0.22255099 0.09453784
000140 11 69 02 3e e2 e6 c3 3c 1b e0 10 3c 3f 51 3c bd
       0.12735392 0.023913804 0.008842493 -0.04597592
000150 d3 26 d3 3d 78 dd c2 bd 3e 40 8b bd 4c 0d 21 3e
       0.103101395 -0.09514898 -0.067993626 0.15727729
000160 bc 7c b8 bd 90 7b 4e 3d a1 b9 72 bb 54 d3 a1 bd
       -0.09008166 0.050410807 -0.0037036913 -0.07901636
000170 9b bf 2d 3d 34 83 59 3d 2c 48 b7 bd 4e d0 08 bd
       0.042419057 0.05310364 -0.089493126 -0.03340178
000180 6c 61 da 3d cf cd 67 bd 7e 78 87 3d a5 7f 8d bd
       0.10663113 -0.05659276 0.06614779 -0.06909112
000190 db 12 06 3d c9 a1 ab 3d 43 75 8b 3e 43 91 3c bd
       0.032732826 0.083804674 0.272379 -0.04603697
0001a0 26 41 98 3d 9a 80 74 3e 56 ae 0d bd 0f 61 22 3e
       0.07434301 0.23877183 -0.034590088 0.15857337
0001b0 9b 38 ec 3d e9 17 35 3e 8e 9e 29 be d5 c0 36 3d
       0.11534234 0.17684902 -0.1656439 0.044617493
0001c0 f7 24 3b 3d ce 7d de 3d a5 bc 4b 3d ec 63 56 bd
       0.04568955 0.10863839 0.049740452 -0.052341387
0001d0 a9 ac 52 bd 5d c0 99 bd 41 a4 0c be d3 31 0f be
       -0.051434193 -0.075073935 -0.13734533 -0.1398385
0001e0 28 d7 3f be 3e ac 98 be 84 0b 3a bd 7f 06 e4 bd
       -0.1873442 -0.2981891 -0.04542114 -0.111340515
0001f0 94 e5 98 bd fa 0e 61 bd e7 4c ec bd 02 22 ac bd
       -0.074656636 -0.054945923 -0.115381055 -0.08404924
000200 71 dc b5 3c 8f cf 8e 3d 7c 4b 3e 3d 18 75 25 bd
       0.022199841 0.069731824 0.046458706 -0.040394872
000210 a6 e4 7d 3d f9 02 bd bd 1e 4c a0 3c c9 f5 6d 3d
       0.061985634 -0.092290826 0.019567546 0.058095727
000220 e6 29 e5 bc 81 c5 8e bd 7c 6d 89 3c 75 1f 32 3e
       -0.02797408 -0.06971265 0.016775839 0.17394812
000230 8d a8 31 3c 1d 2c e1 bd b4 7c 00 bd c1 f4 58 3d
       0.010843408 -0.10994742 -0.031368926 0.05296779
000240 1c ea 47 bc 07 f7 a8 3c 35 9c ec 3d 1b 59 28 3e
       -0.012201812 0.020625604 0.115532316 0.16440241
000250 8b e2 0a be 18 ed 4f be fe 67 16 3d 74 d8 57 bc
       -0.13562982 -0.20305288 0.03672027 -0.013174165
000260 e7 87 82 bc 4c a2 a7 bd 7d dd f8 3d ac 48 c5 3c
       -0.015933944 -0.081852525 0.121516205 0.024082504
000270 09 c6 a7 bd ce 3d cc bd 96 98 62 bd fb 28 b8 3d
       -0.08192069 -0.09972726 -0.0553213 0.089921914
000280 07 a3 40 3e 38 8c 17 3d 12 ec c6 bc 8a ec d5 3b
       0.1881219 0.036998957 -0.024282489 0.006528442
000290 e2 b9 9e be c8 9b 51 bd 04 a2 0e be b3 f7 06 be
       -0.31001192 -0.051173955 -0.13928992 -0.13180427
0002a0 6b a0 de 3d fa 2f 97 3d 0d b6 8c bd 90 c5 4e bd
       0.10870441 0.07382198 -0.06870661 -0.05048138
0002b0 55 e7 d0 bd a2 0d 4e bd e5 77 a8 3d 71 2a ee 3d
       -0.10200373 -0.05030597 0.08225993 0.11629189
0002c0 f4 81 d4 bc 69 eb cd 3d 76 44 85 3d 62 de 06 be
       -0.025940873 0.100546665 0.065071985 -0.1317077
0002d0 f0 36 9e bd 34 7c 34 3d 26 b1 18 bc 43 8c fc 3d
       -0.07725322 0.04406376 -0.009319579 0.1233144
0002e0 e9 97 a1 bd 6b 3e 8d 3e d5 2d e2 bc 18 8c 46 bd
       -0.07890303 0.27586684 -0.027609745 -0.048473448
0002f0 30 2b f4 3d a8 dc 99 bd ce f0 46 3d ab 78 9f bb
       0.119223 -0.0751279 0.048569493 -0.0048666797
000300 28 15 36 3d cc d7 04 be 6b b9 79 3d 8f 53 1e bd
       0.04445377 -0.12972945 0.060967844 -0.038653906
000310 69 74 e8 3d 22 06 de 3d bd 68 09 3d bb 20 af 3d
       0.113503285 0.108410135 0.03354715 0.08551165
000320 c2 66 bc 3d b5 ac fe 3b 59 23 1a be 2c db bd 3d
       0.09199287 0.007772053 -0.15052547 0.09270319
000330 39 29 b9 3b 26 28 c9 bd 36 ed 71 3d 15 ec 1b 3e
       0.005650666 -0.09822111 0.059064113 0.15226777
000340 f2 cf 26 3d fb cf 80 3e e8 46 12 bd ae e7 5c 3e
       0.040725656 0.25158677 -0.035712153 0.21572754
000350 5a cb 79 3c af 03 87 3d a6 2f 90 bd ac 01 16 3e
       0.015246237 0.065924995 -0.07040338 0.14649075
000360 d4 26 cf bd e4 83 55 be 8d e7 59 bd f4 71 b5 bd
       -0.10114828 -0.20851094 -0.05319934 -0.088596255
000370 c8 04 f9 3a 2f bd 16 3b e8 aa 74 3d 75 6d 57 bd
       0.0018998617 0.0023000946 0.0597333 -0.05259462
000380 18 31 2e 3b 3b 4a 6e bd 73 12 d9 bd 7e 43 e1 bd
       0.0026579555 -0.05817626 -0.10599222 -0.10999201
000390 94 4d 51 bd 2a 02 41 bc 9c 6b 08 be 0d db 3a 3c
       -0.051099375 -0.011780301 -0.133223 0.011404765
0003a0 5e 05 bb 3d c9 a5 8f bd b6 dc 15 3d 5d d0 3b 3d
       0.09131883 -0.07014043 0.03658744 0.045853008
0003b0 9b 05 77 3d 51 04 27 be 7f 0a d5 3c 4a d3 02 3e
       0.06030808 -0.1631024 0.026005981 0.12775913
0003c0 73 14 06 be ee 23 91 3d cf ab cb bd 99 d4 22 3d
       -0.13093738 0.07086931 -0.09944879 0.03975353
0003d0 ab 95 d2 3d 6b 4a fb 3d af 61 fd 3d a6 c7 73 bd
       0.10282453 0.122700535 0.12372147 -0.05951657
0003e0 f2 7b ec bd 4d 2b e4 3d c0 6a 8c bd c0 cd aa ba
       -0.11547078 0.111410715 -0.068562984 -0.0013031289
0003f0 d3 de 50 bd db 41 26 bb f0 bb 62 3d f8 27 93 3d
       -0.05099375 -0.0025368843 0.055355012 0.07185358

conv1.bias f4 [16]
000000 ca ba 17 3e 52 4f 1f 3d 80 45 75 bc 7e b9 93 bc
       0.14817348 0.038894005 -0.014970183 -0.018032786
000010 dd ae 56 bd ff cd b6 3d eb a8 c9 bd f9 ef ca 3d
       -0.052412856 0.089260094 -0.09846672 0.099090524
000020 4c f0 1d bd 66 31 bd 3d 31 a9 01 bd 58 71 3d bd
       -0.038559243 0.09237938 -0.031655494 -0.04625067
000030 e3 f2 24 3e 58 4c a4 3d d6 eb 07 3e 3e a5 bf bd
       0.16108279 0.08022374 0.13273558 -0.09357689

conv2.weight f4 [16, 16, 3, 3]
000000 df 9c 47 bc 01 01 90 bc fe 63 84 3c 7e 3a dd bb
       -0.012183397 -0.017578604 0.016160961 -0.0067513576
000010 9e a6 44 3b 34 cf 09 3d 39 11 06 3d 59 30 34 3c
       0.0030006538 0.03364487 0.03273127 0.010997855
000020 80 bb 90 bc 3b 3e 11 bd 51 7b 27 bc 28 70 5e 3d
       -0.017667532 -0.03545974 -0.010222272 0.05430618
000030 9b d0 1a bd cc c1 57 3c 24 7b dd 3b f4 e2 5b 3d
       -0.037796598 0.013168763 0.0067590643 0.053683236
000040 69 39 40 3d 33 14 86 bb dd 9b ce bc b7 65 3f 3d
       0.04692975 -0.0040917634 -0.025220806 0.046727862
000050 21 1a 28 bd c5 e9 aa bd bf 7e 73 3c 73 93 a6 bd
       -0.041040543 -0.08345369 0.014861762 -0.081335925
000060 cb 3b b0 bd e4 44 94 bd 11 74 4a bd 30 ec 45 3c
       -0.086051546 -0.07239702 -0.049427096 0.012080237
000070 a1 2b 10 bd 0c f4 28 3c 88 18 58 3d 1d 9d c0 bd
       -0.035197858 0.010312092 0.05275777 -0.09404967
000080 6a ac 73 bd f8 23 20 3d a3 cd c3 bd 88 39 fc bd
       -0.0594906 0.039096802 -0.095607065 -0.12315661
000090 77 11 a9 ba 0d 18 8f bd 4e 14 e0 3c 25 dc 34 bc
       -0.0012898882 -0.06987009 0.027353432 -0.011038815
0000a0 4f a7 5d bd 3e c6 ee bb 25 86 8e 3d a3 3c 59 3d
       -0.054114636 -0.007286816 0.0695918 0.053036343
0000b0 60 e9 2e bd c8 cb 91 b9 7d 07 0d 3d dc 35 a5 bc
       -0.042703032 -0.00027808384 0.03443097 -0.020167284
0000c0 47 30 92 bd 2f cd 28 3d 9c 5d e7 bb 48 77 d4 bb
       -0.071381144 0.041211303 -0.0070607197 -0.006483946
0000d0 45 07 4d 3d e7 aa 45 3d 5e 92 0b 3c b7 c9 b9 3b
       0.05005576 0.04825869 0.008518783 0.0056697982
0000e0 e5 8b b7 bd d4 9e f8 bd eb 5d 43 be cf 7b 3c bd
       -0.0896223 -0.12139669 -0.19078796 -0.04601651
0000f0 46 fd a1 bd 18 74 cd bd 2b e4 6e 3b a8 ee a5 bc
       -0.07909636 -0.10031909 0.0036451917 -0.020255402
000100 97 96 59 bd 3d b3 be 3b 62 04 8f bd 14 48 97 bd
       -0.05312213 0.0058197067 -0.06983258 -0.07386795
000110 d7 83 d8 39 71 b3 80 bd b5 01 a9 bd 82 2a c6 bc
       0.0004129696 -0.06284226 -0.08252279 -0.024190191
000120 44 0b 68 3c 44 52 e9 bd d1 c7 11 bc 7b 06 ac 3c
       0.014162842 -0.11392644 -0.008897738 0.020999184
000130 2f 03 24 bd 1c bc 12 3b 15 29 e8 bc 4f 4a 29 bd
       -0.0400421 0.0022389954 -0.028339902 -0.04133063
000140 3e 81 cc bd ae 21 ef bc 45 03 51 3d fe f9 86 3d
       -0.099855885 -0.029190864 0.05102851 0.06590651
000150 81 fb a1 3c 4d 59 30 bd bf a4 20 3d 3b f9 01 bb
       0.019773247 -0.043053914 0.039219614 -0.001983239
000160 9d 0c 9d 3a c7 35 a8 bd 4d a3 5c 3d 01 56 ef 3d
       0.0011981908 -0.08213382 0.053866673 0.11686326
000170 4c 55 90 3d 0e 16 a0 3d 08 7f 31 3d 8a f3 6a bb
       0.07047519 0.078167066 0.043334037 -0.0035850727
000180 7e ed e9 3c 00 d0 86 3d c7 63 f1 ba 10 ff 9d 3d
       0.028555628 0.065826416 -0.0018416577 0.07714665
000190 01 62 2b bd 6c d9 6c bd fd f2 08 3d 79 81 a5 3c
       -0.04184151 -0.057824537 0.033434857 0.020203339
0001a0 5e f7 bd 3c 1a 44 83 bd fa 34 56 3d 62 11 ad bd
       0.023189243 -0.06409474 0.052296616 -0.08450581
0001b0 d6 40 13 39 d0 95 99 3b 62 dd 06 bd f5 8a 32 3d
       0.00014043166 0.0046870485 -0.03292597 0.04358955
0001c0 80 48 26 bc ac 2b b4 3b 3f 2b 38 bd 44 21 c6 bd
       -0.010149121 0.00549837 -0.044963118 -0.09674314
0001d0 e3 5c af bd fa df 4f bd 09 42 47 bd af 11 d8 bb
       -0.085626386 -0.05075071 -0.04864696 -0.006593905
0001e0 b7 4e 86 bd 6e d7 36 bd 96 e5 86 bd 4b c4 15 bd
       -0.065579824 -0.044639044 -0.06586759 -0.036564153
0001f0 5c 9a 87 bd 15 de 27 bd 83 f1 86 bc e2 a5 d6 bc
       -0.066212386 -0.04098328 -0.016472584 -0.026202146
000200 ae 19 d8 3c d3 b5 23 bd 37 06 b6 3a 97 c2 a5 39
       0.026379433 -0.039968323 0.001388735 0.00031616233
000210 4c 65 12 bb de 85 d9 bc 5a 65 23 bd 9a 8a 20 3d
       -0.002233821 -0.02655309 -0.03989158 0.03919468
000220 b8 4e 60 bc 0d 18 4e bd 63 de 33 3b e3 c8 88 bd
       -0.013690643 -0.050315905 0.0027445785 -0.06678941
000230 0c 47 0d 3c 5d 25 a0 3c a1 76 0a bd fb bc 1b bd
       0.008622896 0.019549066 -0.03380454 -0.038022023
000240 a4 4f b8 3d f8 17 18 3c 76 35 d4 bc 9a af fa bc
       0.08999565 0.009283058 -0.025904398 -0.030601311
000250 03 ce 7e 3d 1b c6 11 bc 5f fa 69 3d c2 06 85 3d
       0.062208187 -0.00889733 0.057123538 0.064954296
000260 b9 37 7a bd c9 86 0d bc 83 7e e4 bc 9b 99 e3 bc
       -0.061088298 -0.008638092 -0.027892357 -0.027783206
000270 06 b0 1b bc 82 3e 8b bc bc 9c da 3c dc fe 17 3d
       -0.0095024165 -0.01699758 0.026686065 0.037108287
000280 d0 bf 9e bc 02 b6 55 3d e4 c9 0f bc d6 1e 94 bd
       -0.019378573 0.05217553 -0.008776162 -0.07232444
000290 be f4 39 3c 9e 27 d4 bc 0a f2 9d bc 55 5d 04 bd
       0.011349855 -0.025897797 -0.019280452 -0.03231557
0002a0 45 36 5b bb bc f3 e0 bc 1d 02 5c bc 55 34 94 bd
       -0.0033449095 -0.027459972 -0.013428238 -0.07236544
0002b0 dd 37 31 3d 41 af 7a bd 71 8c 16 bd 69 43 58 bc
       0.043266166 -0.06120229 -0.03675503 -0.013199666
0002c0 11 b4 00 bd 0f d5 ec 3d 96 62 1d bd d5 4f ad bd
       -0.031421725 0.11564075 -0.038424097 -0.084624924
0002d0 31 76 85 3d 44 17 cd 3c 36 87 19 3c 8f a5 f7 3c
       0.06516684 0.025035508 0.009370616 0.030230312
0002e0 5e 43 7a 3c 69 af 9e bd b8 37 76 bd 1c 8e 75 bd
       0.015274851 -0.077483006 -0.06011173 -0.05994998
0002f0 6a 6f 30 bd e4 2c a5 bd a5 b2 93 bd 0d 3e 18 3d
       -0.043075003 -0.08065203 -0.07211808 0.03716855
000300 a1 d6 14 3c 05 9d 3d 3d 83 52 75 3d fa 5f 1c 3d
       0.009084375 0.046292324 0.059893142 0.038177468
000310 54 67 84 3d c9 56 12 3c 6c 1e 50 3d 5f be 01 bc
       0.06465021 0.008931824 0.050810263 -0.007918923
000320 58 67 73 3d a3 8f b6 3d 97 ee 99 3c 01 28 ef 3c
       0.05942473 0.08914115 0.018790526 0.02919388
000330 e1 c7 58 bd ea ff 81 3d 8f 79 5f 3d 23 93 af 3a
       -0.052924994 0.0634764 0.054559287 0.0013395291
000340 ce 92 60 bc 64 2e 06 3d 8d 62 9e 3d fb d0 70 3c
       -0.013706876 0.032759085 0.07733641 0.014698262
000350 61 91 20 3d 12 57 86 3c 85 43 e3 3d 28 42 48 bd
       0.039201144 0.01639894 0.11096863 -0.048891217
000360 79 ce 77 bd 79 d1 c4 bd fa 9d d3 bd e9 b6 44 3c
       -0.060499642 -0.09610266 -0.10332866 0.0120065
000370 41 51 fc bc 0f 74 04 bd da fd 24 3d eb 5d 22 bc
       -0.030800464 -0.032337245 0.040281154 -0.009910087
000380 f5 07 c5 bd 71 b6 89 3d 4a 5f 03 3d 2a 08 64 bd
       -0.09620658 0.06724251 0.032073297 -0.05567185
000390 1e d5 70 3d 2c d8 99 3d 90 72 b4 3d 8d e6 93 3c
       0.058796994 0.07511935 0.088109136 0.018054271
0003a0 d4 e6 ac 3c 3a 4a 8d 3c 25 b8 1b bd b3 0b b4 bb
       0.021106161 0.017247308 -0.03801741 -0.0054945587
0003b0 fe 94 6e 3d 4e 46 75 3c 32 41 b7 3b b3 a6 ab bc
       0.05824756 0.014970375 0.0055924887 -0.020953512
0003c0 b0 b8 63 3c 5a 6f 64 bb 6f ce 0f bc 8d 0e 44 3d
       0.013899013 -0.003485641 -0.008777245 0.04786544
0003d0 0e 1b 7d 3c 60 4e 1d bc 1d 47 77 bc ee 70 00 bd
       0.015448345 -0.009601206 -0.015092638 -0.0313577
0003e0 a9 9f a7 bd 0e 42 31 bd 2c 1a 68 bd a2 01 1e bb
       -0.0818475 -0.043275885 -0.056665584 -0.002410986
0003f0 13 88 8f bd 3f d5 bb 3c 30 3c 0b be 78 3d 18 bb
       -0.07008376 0.022928832 -0.13597178 -0.0023229998

conv2.bias f4 [16]
000000 14 cb 50 bb 99 8d ee 3b 22 64 40 bd 8e b9 5b bd
       -0.0031859325 0.0072800633 -0.046970494 -0.053643756
000010 93 1b 8c 3d cb 24 2a 3b ad 13 a9 bd a2 c4 74 3d
       0.06841197 0.0025961872 -0.08255706 0.059757836
000020 32 ca 41 bd cb 4c 83 bd 35 e2 79 bd e1 bc e9 bc
       -0.04731197 -0.064111315 -0.061006743 -0.028532447
000030 d7 04 16 3d 0a f2 b3 bd 97 34 82 bd d4 4f fd bc
       0.03662571 -0.087864 -0.06357687 -0.030921854

bn11.weight f4 [16]
000000 4b 6b 66 3f 31 51 66 3f 34 fd 81 3f 15 52 86 3f
       0.90007466 0.8996764 1.0155396 1.04938
000010 a3 d3 6f 3f 25 bf 6a 3f 9d d6 84 3f f8 13 6e 3f
       0.93682307 0.91697913 1.0377995 0.9299922
000020 56 90 92 3f b7 ab 99 3f a7 62 7f 3f 13 b0 8f 3f
       1.1450298 1.2005528 0.99759907 1.1225609
000030 ca 04 8a 3f f6 0d 78 3f 97 a2 61 3f c0 63 67 3f
       1.0782712 0.968963 0.8813872 0.9038658

bn11.bias f4 [16]
000000 d3 e2 d9 bc ee 29 58 bd 5e ce 95 3d 72 02 9b bc
       -0.026597416 -0.052774362 0.07314752 -0.018922064
000010 e0 8a 81 3a a5 c3 eb 3d 6f 0d 50 bc 88 fd 64 ba
       0.0009883307 0.115119256 -0.012698515 -0.0008735289
000020 7d 2d da bc fd 3a 32 bd 3f ea a0 bc 3f 15 a8 bc
       -0.026633019 -0.043513287 -0.019642947 -0.020517943
000030 06 c2 fa bb 35 61 c0 bc 21 e7 18 bc 04 48 37 3c
       -0.007652524 -0.023483852 -0.009332449 0.011186603

bn11.running_mean f4 [16]
000000 4d 09 0b 3e 73 45 9c 3c be d0 e5 3c 74 6d 33 bd
       0.13577767 0.019076085 0.028053638 -0.043805555
000010 21 93 85 bd 30 e2 03 3e ed 32 f0 bd ea f9 b0 3d
       -0.06522203 0.12879252 -0.11728463 0.08641417
000020 70 a7 bc bd c0 a6 d6 3c e3 d3 78 bd 20 f6 d2 bd
       -0.09211624 0.02620256 -0.060748946 -0.10300851
000030 af f5 e5 3d 83 3a 93 3d 02 08 03 3e 10 66 d5 bd
       0.11228501 0.071888946 0.12796023 -0.104198575

bn11.running_var f4 [16]
000000 ab d0 bf 3a 5d 3a 25 3b ad c5 da 3b 4b bf 59 3b
       0.0014634331 0.002521179 0.006676397 0.0033225592
000010 bc 8e db 3a 8e 0d c2 3b 09 dc 0b 3b a1 80 e5 3a
       0.0016750912 0.005922026 0.0021340868 0.0017509648
000020 fe 00 3b 3c 98 24 8c 3c c0 c1 6f 3b de e5 50 3c
       0.011413811 0.017107293 0.003658399 0.012750117
000030 fb ce 18 3c b3 7d 54 3a 0f 23 45 3a 16 9d 8f 3a
       0.009326692 0.0008105889 0.0007520178 0.001095685

bn12.weight f4 [16]
000000 2c 79 7e 3f f8 ab 69 3f 2a 85 79 3f b9 4b 71 3f
       0.99403644 0.9127803 0.9746882 0.9425617
000010 09 29 81 3f 04 1a 6e 3f d7 82 77 3f fa 5a 75 3f
       1.0090648 0.93008447 0.9668402 0.95841944
000020 82 cb 74 3f 59 55 86 3f b9 ce 77 3f a2 d0 73 3f
       0.9562303 1.0494796 0.9679981 0.95240223
000030 f2 7d 5f 3f a5 ce 89 3f cc 39 77 3f 51 10 85 3f
       0.8730155 1.0766188 0.96572566 1.0395604

bn12.bias f4 [16]
000000 aa 42 7f 3c 17 40 65 3d f7 c6 36 3d b4 8f 4c 3c
       0.015579859 0.055969324 0.04462334 0.012485433
000010 0d 21 d6 3c 68 12 e9 3c 53 a9 22 3d d9 ee 02 3d
       0.026138807 0.02845116 0.03971226 0.031966064
000020 d7 53 ef 3c cd f5 c6 bd ee 75 56 3d 62 a9 b3 3c
       0.029214783 -0.097148515 0.05235856 0.021931354
000030 ad 65 b8 3c a8 f4 77 bd 2e 53 15 3d dc 21 d5 bd
       0.02250942 -0.060536057 0.03645628 -0.10406849

bn12.running_mean f4 [16]
000000 fa 5d 38 bf 3d ce 36 3e a8 88 29 bf 3c c2 b3 be
       -0.72018397 0.17852111 -0.66224146 -0.35109127
000010 6e 4f 40 bf e7 36 a8 3e 86 61 15 bf c7 16 12 bf
       -0.751212 0.32854387 -0.58351934 -0.57066005
000020 84 ae fc be cc 3f 60 3f 1a 32 b2 bf 5f a0 3a bf
       -0.49351895 0.87597346 -1.392154 -0.72900957
000030 ce 32 1f 3e 97 45 45 3f 85 7b 2f bf 18 0a 4c 3f
       0.15546724 0.7705931 -0.6854785 0.797029

bn12.running_var f4 [16]
000000 e9 f0 cc 3d f6 49 2c 3d 38 3e 8a 3e bb 18 0c 3e
       0.100068875 0.042062722 0.27000594 0.13681309
000010 a3 06 d6 3e 50 23 2a 3e 32 37 5c 3e 5d d8 b6 3e
       0.41801938 0.16615033 0.2150543 0.35711947
000020 0e 39 c3 3e 5a b1 5e 3d 98 8b 5b 3e 71 67 ce 3e
       0.38129467 0.054368354 0.2143997 0.40313295
000030 94 32 1b 3e b3 1f 32 3d 26 18 9f 3e 00 31 48 3d
       0.15156013 0.043487262 0.3107311 0.048874855

conv3.weight f4 [32, 16, 3, 3]
000000 ea 89 9c bd 95 82 6d bd 2e 91 71 3d 08 cc 3f 3d
       -0.076434925 -0.05798586 0.058976345 0.04682544
000010 5e 2c 7b 3d 42 ba 0d 3d ab 15 71 3c b9 4b 12 3d
       0.06132161 0.034601457 0.014714639 0.035716746
000020 bf 5c d3 3d 0c 66 2c 3d d0 76 da 3a 01 14 32 bc
       0.10320424 0.042089507 0.0016667489 -0.010869027
000030 e8 8a 7f 3d 0e ac cb 3c ed 87 6a 3d 80 48 32 3d
       0.06238833 0.024862316 0.057258535 0.043526173
000040 a9 d4 54 3c a1 8d a2 3b 7c 5b 14 3d 7a 1e b9 3c
       0.012990155 0.004960731 0.03622006 0.02259754
000050 6c a9 08 3c e6 9c 77 bc e2 d2 08 3d e1 74 c5 bc
       0.008341175 -0.015113091 0.03340424 -0.024103584
000060 fc 59 68 3c 97 0e 4a bc e4 68 3c 3d fe 25 8a bb
       0.01418161 -0.01233258 0.04599847 -0.004215955
000070 32 4a aa bc b3 7f 46 3d 6d d5 f7 bc c9 b6 1e bd
       -0.020787332 0.048461627 -0.030253137 -0.038748536
000080 47 f3 81 3d eb 1f 82 3d 41 29 22 bd 9a 92 c1 3c
       0.063452296 0.06353744 -0.039590124 0.023629475
000090 b4 bd 87 3d e7 ff 97 bd 0c 24 61 3d a5 25 16 3d
       0.0662798 -0.074218564 0.054966018 0.036656994
0000a0 6a 89 a7 bd 45 4e 55 bd 4f 6a 1b 3d 40 2a 9e bd
       -0.081805065 -0.052076597 0.03794318 -0.07722902
0000b0 8c fb 8b bc ad bd 88 3c 0c 02 3f 3d a2 65 07 bb
       -0.01708772 0.016692007 0.04663281 -0.0020659943
0000c0 aa 56 56 bd f9 e7 23 3d 1a 20 33 bb ad b0 f1 3b
       -0.052328743 0.04001615 -0.0027332366 0.0073757977
0000d0 f2 49 08 bd 7a 81 99 3d 89 8d b8 3d 9c f7 9f 3b
       -0.033273645 0.07495399 0.09011371 0.0048818123
0000e0 85 07 4c 3c ab 20 14 bb 0e 21 db 3d 63 cd 61 3d
       0.012452965 -0.002260248 0.10699664 0.055127513
0000f0 94 5e 33 bd 79 88 91 bc e1 4c 53 bd ac f4 61 bd
       -0.04379137 -0.01776527 -0.05158699 -0.055164978
000100 f2 c1 f7 3c be ba 1e bd 29 e2 2f 3d 9a 78 8f bd
       0.030243848 -0.03875231 0.042940293 -0.07005425
000110 55 bc bd 3b 86 4d 50 bd 1a 8b 38 bd b7 00 1b 3c
       0.005790273 -0.050855182 -0.045054533 0.00946062
000120 26 31 63 3d 01 a4 67 3d 67 ad 38 bd 61 ea 6a 3d
       0.055466793 0.05655289 -0.045087244 0.057352427
000130 95 7e 53 3d 4f 3d 16 bd ed b0 00 3c df e0 2d bd
       0.05163439 -0.036679562 0.007854682 -0.042450782
000140 f4 33 82 bd 58 a1 02 bd a3 ec ca bd e3 22 83 3d
       -0.063575655 -0.03189215 -0.09908416 0.064031385
000150 9f 22 45 bc f4 59 38 bd c8 08 ae 3c 34 83 81 bd
       -0.01203218 -0.04500766 0.021244422 -0.06323853
000160 93 c2 ee bd 46 4d 0c bd 3f 73 d4 3c dc ae 8c 3d
       -0.11658206 -0.03425338 0.02593386 0.06869289
000170 a5 5c b1 bc 5f f7 be 3c 4f 8a 08 bd 08 0a ba bc
       -0.021650622 0.023311315 -0.033335026 -0.022709861
000180 c0 78 5b bc 86 02 a2 3d fc 6f d1 3b f4 6b d3 bb
       -0.013395488 0.079106376 0.0063915234 -0.006452078
000190 7b a9 49 bd 96 f0 f9 3c ba 15 84 3d 4f 23 a8 3c
       -0.049233895 0.030510228 0.064494565 0.020524649
0001a0 95 48 ee 3c c5 fe 10 3d ed 40 80 3d d7 55 b0 3c
       0.029087344 0.035399217 0.062623836 0.021525307
0001b0 bc ba d3 bc 8b fd f7 3d fa ef 31 bc 56 60 a4 bb
       -0.025845878 0.12108906 -0.0108604375 -0.005016367
0001c0 95 d9 33 3d 90 6b bc 3d 19 44 ba 3d ce f7 9b 3c
       0.043908674 0.092002034 0.0909502 0.01903906
0001d0 a4 3f 04 3e 7e 71 85 bc 49 6d 2c 3c 57 0a c4 bd
       0.12914902 -0.016289469 0.0105241025 -0.09572285
0001e0 68 13 ed bd 99 54 f8 3b 55 37 94 3c 49 bc 93 3a
       -0.11575967 0.007578444 0.01809279 0.0011271323
0001f0 68 97 d1 bc 9a 59 99 3c e0 18 32 bd 91 c9 51 3c
       -0.025584891 0.018719483 -0.043480754 0.012804405
000200 1d d6 73 3c fb 73 5b bc 72 4d fd bb 57 78 32 bc
       0.014882592 -0.013394351 -0.0077301795 -0.010892949
000210 65 c7 f2 bc cc 70 8a 3d fc 85 c2 ba f6 a2 05 be
       -0.029636094 0.067597955 -0.0014840956 -0.13050446
000220 93 26 38 bd c5 b5 b2 3c 07 ac f9 bd 7a 53 5c bd
       -0.044958662 0.02181519 -0.12191015 -0.053790547
000230 df bc 81 bd 22 8e ca bd 82 87 0d bd 90 e4 08 3c
       -0.063348524 -0.09890391 -0.03455306 0.008355275
000240 a6 5b 16 3c d9 cf 0e 3c fc 73 76 bd 17 c2 96 bd
       0.009177124 0.008716547 -0.060169205 -0.073612384
000250 cd 70 86 3d 50 30 b6 bd f2 4c da 3d a4 45 cb 3d
       0.06564484 -0.08895934 0.106592074 0.09925392
000260 02 47 9b 3c 7b 2f e9 3c 9c d6 70 bb ac f1 0d 3c
       0.018954758 0.028465023 -0.003674901 0.008663576
000270 81 63 29 3c d6 62 b4 3b d3 b9 92 bd 8b 50 31 3d
       0.010338665 0.005504946 -0.071643494 0.043289702
000280 55 e8 58 bd 08 2c 8f bc 84 dd 85 3d e5 3d ec 3c
       -0.052955944 -0.01747705 0.065363914 0.028838107
000290 0e c3 1b 3e b3 b2 d4 3a 1e 63 47 bd e7 96 c9 3c
       0.15211126 0.0016227573 -0.04867851 0.024608089
0002a0 f7 a2 f4 3d 27 b1 95 3c 53 7e 36 3d 34 35 4f bb
       0.119451456 0.01827295 0.044554066 -0.0031617405
0002b0 b1 72 97 bb a6 d9 a4 3c 13 9a ae 3d b1 9f 81 3d
       -0.0046218266 0.020123314 0.08525481 0.06329287
0002c0 6b b3 26 bd 72 8f 04 3e 62 3d 24 bd c1 c6 f7 3c
       -0.04069845 0.12945345 -0.0400976 0.03024614
0002d0 0a 58 0a 3d 5f d2 af bd ab ce 90 bd c0 1f 35 3c
       0.033775367 -0.08585047 -0.07070669 0.011054933
0002e0 9c c2 41 bd 9c 9e ac bd f7 6c 6f bb 3a 7d 4f 3d
       -0.047304735 -0.0842869 -0.0036533454 0.050656535
0002f0 d2 ca 9e bd 28 0c 17 3d 06 2f 2a 3d 6e c7 7e 3d
       -0.07753529 0.036876827 0.04154875 0.06220191
000300 ac d8 b7 3d dd b2 1c bb 80 2b 99 bd 11 31 fb ba
       0.08976874 -0.0023910322 -0.07479 -0.0019164403
000310 4a 74 46 3d a9 63 65 3d 92 83 53 bd cd 9c a9 3d
       0.048450746 0.056003246 -0.051639147 0.082818605
000320 5d 65 30 3d a7 33 78 3d f1 2a 57 3c 78 90 4a bd
       0.043065418 0.060596135 0.013132797 -0.049454182
000330 83 74 42 3c 67 d2 3e 3c 20 83 05 bd 05 74 95 3d
       0.011868599 0.0116468435 -0.032595754 0.072975196
000340 c6 41 da bc 61 4d f9 3c 13 be c4 3d cf da 4b 3d
       -0.026642691 0.030432405 0.09606566 0.04976922
000350 19 dd 38 bd c2 bd 45 bd 49 41 a0 3d b0 de d4 bc
       -0.04513273 -0.04827667 0.07824952 -0.025985092
000360 1d 45 94 3d d3 f7 88 bc 26 78 0d bc fb a2 6e bd
       0.07239745 -0.016719734 -0.008634603 -0.0582609
000370 ba 66 7f bd 6d bf f7 bc 05 69 4d 3d 28 44 12 3d
       -0.062353827 -0.030242646 0.050148983 0.03570953
000380 8b e7 82 bd 9d 3c 95 ba f4 6c 23 3d 6e 0d 9c bd
       -0.063918196 -0.0011385862 0.039898828 -0.07619749
000390 7c a0 8e bc ca 1b ae 3a 81 8e f5 3c 6e 4e 7e 3d
       -0.01741051 0.0013283428 0.029975178 0.062086515
0003a0 c1 a9 4c 3b b1 c8 b9 bd 2c 2a 37 3d f0 d0 90 ba
       0.003122911 -0.09071482 0.044717953 -0.0011048596
0003b0 1d 3a 2a 3d 3a 25 da bc 37 c7 bc bc f8 e0 56 bd
       0.041559327 -0.02662908 -0.023044212 -0.05246064
0003c0 b0 ef 37 3d 5b 3f c9 ba a3 45 8c 3d 9e f9 c0 bb
       0.04490632 -0.0015353964 0.0684922 -0.0058891317
0003d0 22 15 46 3c e2 9e ae 3c 32 98 f8 3d d6 97 a7 3d
       0.012089999 0.021315996 0.12138404 0.08183257
0003e0 0e 80 d9 3b c9 f8 a1 3c 98 f0 87 3d e3 24 5f 3d
       0.0066375798 0.01977195 0.066376865 0.054478537
0003f0 f5 fd 32 3d a3 32 17 bd 83 68 a3 3d b9 4c 22 bd
       0.043699224 -0.036913525 0.079789184 -0.03962395

conv3.bias f4 [32]
000000 0d c5 1b 3b dc ef 8e 3d 11 06 8e bc 8c b1 9e bd
       0.0023768574 0.06979343 -0.017336877 -0.07748708
000010 92 58 a6 bc ad 8d 88 3b 7f 16 51 bc ea 87 9d 3d
       -0.020305905 0.0041672797 -0.012761711 0.07691939
000020 75 1d f2 3c 57 f1 a7 bc 27 7f a8 3c 13 96 0a 3c
       0.029555062 -0.020500822 0.020568443 0.008458632
000030 39 ec d1 3c 30 45 ec 3b 59 a9 2e bd 0e c9 67 bd
       0.025625335 0.007210396 -0.04264197 -0.056588225
000040 5b f8 3e bd 24 09 81 bc 3a 66 23 3d 06 6a 72 bc
       -0.04662357 -0.015751429 0.039892413 -0.014795786
000050 79 5b 5e bd 02 61 c2 3c 8e 45 0a 3d 15 f5 83 3d
       -0.054286454 0.023727898 0.03375774 0.0644323
000060 89 1c 99 bd f0 f5 44 bd 78 0b a9 3d 19 0b 9d 3d
       -0.07476146 -0.048086107 0.082541406 0.07668132
000070 45 2a 35 bd 94 51 4a 3c bd 99 99 bd b4 12 9f 3d
       -0.044229764 0.012348551 -0.075000264 0.07767239

conv4.weight f4 [32, 32, 3, 3]
000000 0d 61 25 3d ce 23 14 bd 1c a4 85 3c 26 06 3d bd
       0.040375758 -0.03616696 0.016313605 -0.04614844
000010 04 69 ab 3c 18 a8 5b 3d 3b 82 73 bc 4a aa a1 3d
       0.020924099 0.053627104 -0.014862592 0.07893808
000020 0e 9d 1b bd 28 4c 02 3c 1c 61 8e bd 42 b8 2d bd
       -0.037991576 0.007952727 -0.06952116 -0.04241205
000030 f0 97 2e 3d d3 9b ed bc 31 4d ab bc 40 d9 00 3d
       0.042625368 -0.029004967 -0.020910831 0.031457186
000040 e5 14 2d 3d 40 c5 c8 bb 61 02 08 bd 3b ef 80 3c
       0.042256255 -0.0061270297 -0.033205394 0.015739074
000050 91 04 62 3d 6b bb 2a bd 2a 9c c3 3d c3 9e 54 3d
       0.055180136 -0.041682642 0.0955127 0.05190922
000060 bb 2f 7a 3c 30 b8 87 3d 49 5d 32 3d 54 65 06 3c
       0.015270169 0.06626928 0.043545995 0.008202869
000070 5c 3d 1b bc 51 33 d6 bc e6 89 68 bc 06 75 79 3d
       -0.009475078 -0.026147516 -0.014193034 0.060902618
000080 30 15 3e bd 28 75 b4 bc a0 e1 23 bc 51 4e a1 3c
       -0.046406925 -0.02202852 -0.010002524 0.019690664
000090 50 e8 ce bb 9a 4a 84 3c 39 6f 19 bd 2d 40 44 3d
       -0.006314315 0.016148854 -0.037459586 0.047912765
0000a0 98 51 c0 3b 4f 97 91 3d ba 36 6d bc 77 b8 47 3b
       0.0058691017 0.07108938 -0.01447838 0.003047494
0000b0 20 f8 b0 3c d6 91 5b 3d eb 63 05 bd 0c 65 98 bb
       0.02160269 0.053605877 -0.032565992 -0.0046507176
0000c0 b6 a1 19 3d b2 ce b4 bc 22 76 72 3b 63 83 2b bd
       0.037507735 -0.022071216 0.0036996682 -0.041873347
0000d0 43 5c 1b 3d 15 23 ff 3c 8b 4d 9d 3b 96 66 96 3d
       0.037929785 0.031144658 0.0048005036 0.073437855
0000e0 89 b5 06 bd b1 83 03 bd 10 77 04 3e 91 e3 53 bc
       -0.03288797 -0.032108013 0.12936044 -0.012932674
0000f0 25 a3 e4 3b d3 7b 4a 3d 62 e7 4c bc 47 ac 46 bd
       0.006977456 0.049434494 -0.012506338 -0.04850414
000100 24 bb d3 3b 08 04 19 ba d7 7a d9 3c 2e 85 6d bd
       0.006461518 -0.00058370875 0.026547832 -0.05798834
000110 00 40 a2 ba 84 09 c0 3c 6c f5 ea bb b0 af ee bc
       -0.0012378693 0.023442037 -0.00717037 -0.029136509
000120 5c 5f e6 bb 3f b9 bf bc c8 05 08 bb d4 10 1b bd
       -0.0070304107 -0.023403762 -0.00207554 -0.037857845
000130 15 59 82 bc 4e c6 4b bd 63 e2 9c bb 61 ce 08 3c
       -0.015911618 -0.049749665 -0.0047877296 0.008349986
000140 b4 ba 82 3c 26 79 8f bc 38 f4 d6 39 08 ff a5 bd
       0.015958168 -0.017513823 0.00040999218 -0.08105284
000150 2d 00 64 ba e3 df 24 bd e4 23 17 3c 93 f2 00 3d
       -0.0008697536 -0.040252578 0.009224866 0.031481337
000160 c0 6e 99 bc 63 4f 16 3d e9 ab 42 bd f0 ef 96 bb
       -0.018729568 0.036696803 -0.047527228 -0.0046062395
000170 60 53 1b bd a4 03 0e 3c 03 65 57 3d d0 9a 5e bd
       -0.03792131 0.00866786 0.052586567 -0.05434686
000180 b4 b7 ef bc 1d 6c 89 bb 57 ab 4d 3c a6 20 60 3d
       -0.029262401 -0.0041937963 0.012553058 0.054718636
000190 73 8a 02 3d ba eb 8a bd 4e 78 20 3c 30 44 bb bb
       0.031870317 -0.067832425 0.009794308 -0.0057149157
0001a0 cf 25 c4 3b 80 f4 a3 3c eb 58 ec 3c 5c e9 2f bd
       0.0059859524 0.020014048 0.028850993 -0.04294716
0001b0 b8 fe a6 bd 3a 90 5b bd d3 c6 82 bd 40 92 92 3d
       -0.081540525 -0.053604342 -0.06385579 0.07156801
0001c0 63 ba b6 bc 7c a4 25 bd 3f 86 1c bc bd 43 98 39
       -0.022305673 -0.040440068 -0.009553491 0.00029042168
0001d0 b6 e2 94 3c 0a 08 f9 bc 80 9f 54 3d 25 da 9a bc
       0.01817451 -0.030399341 0.051909924 -0.018902848
0001e0 90 8f 40 bd 9f 67 b1 3d a5 b0 6d 3c d7 71 65 bc
       -0.047011912 0.08662342 0.014507447 -0.014004192
0001f0 6c 00 a5 3d 5b c1 dc 3b ca bb 1c bd af 91 8e 3c
       0.08056721 0.006736917 -0.038265027 0.017403452
000200 b0 6f 80 bc 90 fe 47 bd 54 1a d3 3c 2a 43 51 bd
       -0.015678257 -0.048826754 0.02576939 -0.051089443
000210 f3 28 98 3d 0f ec 77 bc 97 1c 89 bb ee e8 15 bd
       0.074296854 -0.015131964 -0.0041843164 -0.036599092
000220 57 8c 6c 3c fc 13 ec bc 4a 62 8b 3c 65 fc 0f bb
       0.0144377565 -0.028818123 0.017014641 -0.0021970507
000230 72 b8 a0 ba 71 f3 53 3d 8a 6d 36 3d 62 7e ac 3c
       -0.0012262 0.051745836 0.04453806 0.021056358
000240 c5 c1 11 3c d6 5d a0 bd 5e d6 7f 3c 0f 1c ab bc
       0.008896296 -0.07830398 0.015615074 -0.020887403
000250 9d d9 f3 bc 8c 19 33 3d f4 00 d8 3b 43 30 6d 3c
       -0.029766852 0.043725535 0.0065919105 0.0144768385
000260 72 ac 10 bd b7 0d 45 bc 11 70 cf 3c c9 51 df bb
       -0.035320707 -0.012027196 0.025321992 -0.0068151695
000270 87 8b c0 bc 10 b8 68 3d f9 22 8a 3d ca 32 53 3d
       -0.023504032 0.05681616 0.06744952 0.051562108
000280 2e 17 0e 3d 54 dd 69 3d 77 c6 1b 3c ad 8e 31 bd
       0.034690075 0.05709584 0.009507767 -0.043348957
000290 c8 cd 74 bb 47 3d ad bc 32 e5 84 bc 51 89 04 bd
       -0.00373541 -0.021147383 -0.01622257 -0.032357518
0002a0 46 74 e5 bc ce 14 78 3d e7 88 16 3d d8 f3 20 bc
       -0.028009545 0.060566716 0.036751654 -0.009823762
0002b0 9e 9e d9 3d 2f 35 a1 3d 40 73 07 3c fa 6c 62 3d
       0.10625957 0.07871472 0.008267224 0.05527971
0002c0 02 c4 67 3d 9b 5c c3 bc ce 34 b8 3d 04 19 36 bd
       0.056583412 -0.023847869 0.08994447 -0.04445745
0002d0 2a 05 ee 3c 69 94 31 bc 38 6b f3 bc e0 c0 28 bc
       0.029055197 -0.010838606 -0.029714212 -0.010299891
0002e0 e1 53 94 bd 39 5b b2 bc d1 ef de 3b 56 1e 3e bd
       -0.07242561 -0.021772014 0.0068034907 -0.04641565
0002f0 7a b8 82 bd 51 7b 01 bb d6 f6 18 bd 15 01 84 bd
       -0.06382842 -0.001975734 -0.037344776 -0.06445519
000300 96 5d 8b bd 34 c2 fb bc cc 3e e2 bc 39 d0 15 3b
       -0.068049595 -0.030732252 -0.027617835 0.0022859706
000310 23 27 73 3c f7 9c 61 3d a7 b2 1e bc b8 cb 5d bc
       0.014840874 0.055081334 -0.009686149 -0.01353734
000320 cf ea bf bc f6 f2 39 bd 52 fe 92 bc 1c 0d 44 3c
       -0.023427395 -0.04539772 -0.017943535 0.011966016
000330 36 ba ac bc c4 41 3c 3d f3 7f 84 3d 3c c0 0a bd
       -0.021084886 0.045961156 0.06469717 -0.033874735
000340 00 17 ab bc 19 56 38 bd 61 81 de 3b 81 e4 a2 3c
       -0.02088499 -0.045003984 0.0067903255 0.01988435
000350 6a a9 f5 3c 5b aa 97 3d 57 e6 da bc 33 f6 f4 bb
       0.02998801 0.074055396 -0.026721163 -0.0074756383
000360 d2 73 ac ba 84 9d b4 bc 03 45 55 bd df 02 27 3c
       -0.0013157076 -0.022047766 -0.052067768 0.010193556
000370 77 1f 86 bd 16 0e 74 bc e3 c9 f8 3c f4 88 23 bd
       -0.0654897 -0.0148959365 0.030369705 -0.03992553
000380 9a d5 72 bd f9 00 18 bd 06 44 1e bd a6 4f 07 3d
       -0.059285738 -0.037110303 -0.03863909 0.033034943
000390 c4 9d ab bc e4 54 fd bc c6 5e 5d bd 53 12 62 3d
       -0.020949252 -0.030924268 -0.05404546 0.055193257
0003a0 5b 46 80 bb be b4 63 bd 23 79 a3 3c 74 3d ec bb
       -0.003914637 -0.05559229 0.019955223 -0.007209474
0003b0 f2 24 5d 3d be 1e 4e bd 2f af cc bc e8 7f d3 3c
       0.053990312 -0.050322287 -0.024985878 0.025817826
0003c0 6d 32 8a bc a6 7e 84 bd 6d 37 ab bd 15 9d f2 3c
       -0.016869748 -0.06469469 -0.08360181 0.029615918
0003d0 6e e3 a0 bc c2 b8 7b 3d cd a0 61 bd 02 98 5e 3d
       -0.019639697 0.061455496 -0.055084992 0.054344185
0003e0 a0 41 44 3d e2 e2 2b bc 03 30 42 3c a3 ea 5f bd
       0.047914147 -0.010491105 0.011852267 -0.054667126
0003f0 0b 0b 98 bd eb 28 32 3d 1b d5 dc 3b 8b 02 6a 39
       -0.07423981 0.043496054 0.0067392713 0.00022316926

conv4.bias f4 [32]
000000 0f 8a 3d 3d ac 15 0e 3c ff 51 29 bc e8 1c c2 3a
       0.04627424 0.008672159 -0.010334491 0.001480964
000010 9b 85 2c bd 3d fe 51 bd 66 b1 0b bd 64 b5 66 bd
       -0.042119604 -0.05126785 -0.034104727 -0.05632533
000020 7a ca 6e 3d 91 fb bb 3c f9 9c 2f 3d 4e 7e 32 bd
       0.058298565 0.022947105 0.04287431 -0.043577485
000030 80 ee a2 bc e9 35 fe 3a db 06 37 bd b9 f8 1c 3d
       -0.019889116 0.0019394729 -0.044684272 0.038323138
000040 47 4a db 3c 3c 86 86 3b ec 7d a7 3c 9d 12 1b 3d
       0.026768817 0.0041053575 0.020445786 0.037859548
000050 a3 e7 e1 3c 26 40 19 bd 8c 8b 10 bd 79 c1 33 3d
       0.027576273 -0.037414692 -0.035289332 0.04388568
000060 62 63 e0 3c 67 a7 5a 3c 14 e6 7b 3d db 5b de 3c
       0.02739114 0.013345576 0.061498716 0.02714341
000070 8d 22 24 3a 7d 90 78 bc 96 16 46 3d 10 d8 d9 3c
       0.0006261252 -0.015171167 0.048361383 0.026592284

bn21.weight f4 [32]
000000 92 81 6d 3f 7e 2d 73 3f 8d 02 84 3f a8 f6 82 3f
       0.92775834 0.9499129 1.0313278 1.0231524
000010 17 ac 74 3f 16 6d 89 3f b4 2f 8a 3f 3f c0 71 3f
       0.9557509 1.0736415 1.0795808 0.9443397
000020 e7 96 7e 3f b0 93 6f 3f 5a d0 77 3f c1 b8 65 3f
       0.9944901 0.9358473 0.96802294 0.8973504
000030 38 6a 77 3f f3 25 85 3f b4 a4 75 3f 46 14 7d 3f
       0.9664645 1.0402206 0.9595444 0.9885906
000040 ab 9f 81 3f 33 ca 7c 3f 8f 92 71 3f 5a ba 7e 3f
       1.0126852 0.9874603 0.94364256 0.995031
000050 65 88 85 3f 6e 4d 74 3f 34 52 81 3f 7b eb 72 3f
       1.0432249 0.9543065 1.0103211 0.94890565
000060 02 b4 77 3f 0b 5d 80 3f 08 cf 7b 3f 2c 67 6f 3f
       0.96759045 1.0028394 0.9836278 0.935168
000070 60 d6 88 3f f8 d9 82 3f 62 9e 73 3f 6f e6 7e 3f
       1.0690422 1.0222769 0.9516355 0.99570364

bn21.bias f4 [32]
000000 9b 9a 90 bc db f8 f8 bc 2d ae d9 3b e5 5d 95 bc
       -0.017651847 -0.030392101 0.006643078 -0.018233249
000010 a4 0b e4 bc c0 53 52 bd 12 29 b3 bc 3c 46 bd 3c
       -0.027837582 -0.0513494 -0.02187017 0.02310478
000020 25 20 af bc 72 48 1f 3d e7 85 18 3c 89 a6 05 bd
       -0.021377632 0.03888745 0.009309269 -0.032629523
000030 c3 49 04 bd c8 1a 16 bd ff a3 96 bc 3f 5c 2e bb
       -0.032296907 -0.036646634 -0.018388746 -0.0026605276
000040 26 9f 13 bd b4 47 33 bd af 63 96 3b 7e 16 25 3a
       -0.036040448 -0.043769553 0.00458952 0.0006297602
000050 7e 49 f3 3b 04 04 4e bd ee 61 a2 bb 1d cb 4c bd
       0.0074245324 -0.0502968 -0.004955522 -0.04999839
000060 7f 8d 69 bd f1 4c 8c bc 42 6e 6e bb 2e 54 6a bc
       -0.057019707 -0.017126532 -0.0036381637 -0.014302297
000070 59 04 cd bc da c1 cd bb 6f 27 6f bd bf 7a 50 bc
       -0.025026487 -0.0062792124 -0.058387216 -0.012724577

bn21.running_mean f4 [32]
000000 32 ff 71 3e b7 ff 2f 3f 67 c5 2c bf 45 87 5b be
       0.23632506 0.68749565 -0.6748871 -0.2143832
000010 af 14 c1 3e cc c4 54 bd 11 ce 99 bf df 8b f2 3e
       0.37711093 -0.051945493 -1.2016011 0.47372338
000020 62 9e be 3e 9b 34 b5 3f 29 9e 10 3f 38 08 e6 bd
       0.37230211 1.4156679 0.56491333 -0.11232036
000030 e1 6c 6d 3f c1 1b 9a bf c9 83 9a 3f b9 a0 82 3f
       0.9274426 -1.203972 1.2071468 1.0205299
000040 ea 9c 92 3d d0 4e 86 3e f1 ff 5b 3f 89 29 88 bf
       0.07158835 0.26232004 0.8593741 -1.0637676
000050 af f6 b3 ba f9 4a 27 3f d6 cc 5b bf 6f fe da 3d
       -0.0013730134 0.65348774 -0.8585943 0.106930606
000060 e4 83 99 bc dd 69 1e bd 86 7b 05 3f d8 8c 00 3f
       -0.018739648 -0.038675178 0.52141607 0.5021491
000070 fa 01 99 bf f1 20 cb bd 77 39 40 3f 64 fe e3 be
       -1.1953728 -0.099183924 0.75087684 -0.44530022

bn21.running_var f4 [32]
000000 7a bd 67 3f 5f 12 ab 3f e6 53 8d 3e 2f 82 01 3f
       0.90523493 1.3364981 0.27603072 0.5058927
000010 92 38 1f 3f 87 24 9e 3e 64 2d f3 3d bc 1a a4 3f
       0.62195694 0.30887243 0.11873892 1.2820659
000020 86 52 2d 3f 36 00 65 3f 38 11 ea 3f f0 0f 9f 3e
       0.67704046 0.89453447 1.8286505 0.31066847
000030 c1 29 88 3f 15 cc e5 3d f1 a3 90 3f 7c 77 4b 3f
       1.0637742 0.11220566 1.1300031 0.79479194
000040 cd 44 ec 3d 66 d5 3c 3f 6b 54 93 3f 12 fc e9 3e
       0.1153656 0.7376312 1.1510137 0.45700127
000050 c0 4e 16 3f 33 97 d0 3f de 3b d3 3e df 49 6e 3f
       0.5871391 1.6296142 0.41256613 0.9308147
000060 2b be 22 3f d7 5a 03 3f 30 b5 43 3f 16 24 1d 3f
       0.63571423 0.51310486 0.76448345 0.6138319
000070 93 26 3b 3e cc 83 ba 3e 84 86 80 3f d1 f4 a6 3e
       0.18276434 0.36428678 1.0041051 0.32608655

bn22.weight f4 [32]
000000 ee fb 81 3f 84 3c 7e 3f 77 c4 78 3f e9 74 7c 3f
       1.0155008 0.9931109 0.9717478 0.9861589
000010 00 c6 73 3f 9d d5 74 3f 46 13 80 3f cb 8f 7c 3f
       0.95224 0.9563845 1.0005882 0.9865691
000020 0e 67 74 3f 89 1e 6f 3f 78 4a 73 3f 2c 60 74 3f
       0.9546975 0.9340597 0.95035505 0.95459247
000030 10 94 80 3f 07 61 79 3f 99 09 85 3f b9 d4 7c 3f
       1.0045185 0.97413677 1.0393554 0.9876209
000040 04 7b 6f 3f b1 a1 7f 3f d5 67 6f 3f bc 87 84 3f
       0.9354708 0.99856097 0.9351781 1.0353923
000050 5a e7 80 3f f3 dd 81 3f b4 e7 6d 3f bd a5 7b 3f
       1.0070603 1.0145859 0.92931676 0.9829977
000060 cb 16 7b 3f 90 f1 7b 3f d4 a1 82 3f dd 34 80 3f
       0.98081654 0.9841547 1.0205636 1.0016133
000070 05 52 7f 3f 13 6e 7f 3f 8a f9 7e 3f 9d 3f 80 3f
       0.99734527 0.99777335 0.99599516 1.0019413

bn22.bias f4 [32]
000000 d1 bf dd bc fe dd 16 bd af c5 85 bb b4 b8 90 bd
       -0.027069004 -0.036832802 -0.0040824036 -0.07066479
000010 24 e3 8f bd 60 19 52 bd 4f b6 c1 bc 1d f7 2b be
       -0.070257455 -0.05129373 -0.023646502 -0.16793485
000020 6f 55 8c bd 2b 2e 17 bd 69 0c 9b bd 75 3b 75 bd
       -0.06852233 -0.036909264 -0.075707264 -0.059871156
000030 d4 8f 88 bd 18 bb 91 bc 42 9f 11 bd 80 1b 5b bb
       -0.06668058 -0.017789409 -0.03555227 -0.003343314
000040 fd 08 a1 bc 71 59 9e 3b d8 36 03 bc 38 cc b9 bd
       -0.019657606 0.0048324396 -0.008008681 -0.09072155
000050 fe 3a 25 bd c3 2e ff bc 19 93 a2 bd d8 2e 8b bd
       -0.040339462 -0.031150227 -0.07938213 -0.06796044
000060 16 9b 7b 3b 55 4d 83 bc 3d 98 09 bd 37 9b fe bc
       0.0038392 -0.016028086 -0.03359245 -0.031079872
000070 b5 c6 07 bd f1 96 61 bd 2f 76 14 bd 57 3b 1d bd
       -0.033148486 -0.05507559 -0.03624552 -0.03838667

bn22.running_mean f4 [32]
000000 7e 54 ba 3c 88 60 53 be 23 d6 0e bf a0 51 d0 bd
       0.022745367 -0.20642292 -0.55795497 -0.10171819
000010 46 c7 42 3f d8 9f 9a 3c 01 5d aa bc 54 71 12 3f
       0.7608532 0.018875048 -0.0207963 0.57204175
000020 a5 4f 78 be 1c ab 1a 3f e0 24 a4 3e 1a b6 0a 3f
       -0.24249132 0.6041734 0.32059383 0.54184115
000030 a7 26 d7 3e 6d ba 99 3d da 74 ce be c1 db 8a be
       0.42021677 0.07506261 -0.40323526 -0.27120784
000040 7c 00 6b 3e 73 21 c4 be 53 eb 65 3e 3a 9d cf be
       0.22949404 -0.3830677 0.2245305 -0.40549642
000050 3f 51 98 be 49 d8 74 3e 79 de 05 3f f0 94 fc 3e
       -0.29749486 0.23910631 0.5229259 0.4933238
000060 4d 8b a3 3e 04 d7 3e bd 00 8b 9f bd e7 48 76 3d
       0.31942216 -0.046591774 -0.07790184 0.06012812
000070 a8 8c 9f 3e cb df e7 3d 4c 0c 4d 3e ec a8 9c be
       0.31162 0.11321982 0.20024222 -0.30597627

bn22.running_var f4 [32]
000000 8c de d6 3e 59 4c cc 3e 90 d0 f4 3e 0a c6 9b 3e
       0.41966665 0.39902 0.4781537 0.3042453
000010 57 4b c4 3e f2 31 cf 3e c7 93 6b 3e 3b b5 99 3e
       0.3833873 0.40467793 0.23005591 0.3002108
000020 e2 77 63 3f 01 b4 1a 3f 7c 75 f5 3e 70 d0 e6 3e
       0.888548 0.60430914 0.47941196 0.450809
000030 2d 9a 79 3e 01 43 16 3f 77 5b a3 3d 67 01 d4 3e
       0.2437522 0.5869599 0.0797643 0.4140732
000040 6d cd 73 3f e6 68 9e 3e 12 1a fd 3e 87 2a 96 3d
       0.9523533 0.30939406 0.49433953 0.0733233
000050 6a cb 85 3e 1a 6b a3 3d 17 d8 fb 3e fc 1c 04 3f
       0.26131755 0.079794124 0.491883 0.51606727
000060 e5 de 36 3f fc 2e b3 3e 10 54 0d 3e fb d5 82 3e
       0.7143386 0.34996784 0.13801599 0.2555388
000070 24 ff f5 3e c1 87 ff 3e 4f f5 2e 3e 30 ca 8c 3d
       0.4804622 0.4990826 0.17085765 0.06874502

conv5.weight f4 [64, 32, 3, 3]
000000 cd c8 1d 3d 66 35 98 3d 3a e4 2c 3d ea 5a b0 3d
       0.038521577 0.0743206 0.04220984 0.086110905
000010 f6 aa 70 3c 72 0b c1 3c ac ec e5 3c 07 72 b8 bb
       0.014689198 0.023565028 0.028066956 -0.0056288275
000020 3b 53 04 bc 5c ae 70 3d 55 b0 27 3d 26 4c ba bc
       -0.008076484 0.058760032 0.040939648 -0.022741389
000030 2f 62 88 3d 12 eb 21 bd 0f 80 37 bd 75 e2 2b 3c
       0.06659352 -0.03953082 -0.04479986 0.010491003
000040 b1 75 0f bd d1 a1 99 bb 77 fb 9b bb 6f 42 e8 bc
       -0.03502435 -0.0046884795 -0.0047602016 -0.02835199
000050 7e 1f 45 3d 55 05 a9 bc a7 1b 43 bd 38 e9 ae bb
       0.048125736 -0.020632425 -0.047633793 -0.0053378604
000060 56 c8 37 3c 0d 17 1b bd e5 c6 0d bd 20 80 2a bd
       0.011217197 -0.03786378 -0.03461351 -0.041626096
000070 8a a0 63 3c a1 91 86 3d 80 60 fa bc 50 2e 70 bc
       0.013893256 0.06570745 -0.030563593 -0.014659479
000080 ba 35 1e bd b9 06 5d 3d d6 a7 c9 bc 84 ca 0e bd
       -0.038625456 0.05396149 -0.024616163 -0.034861103
000090 33 50 ab bb 08 5d 88 ba 80 6e 52 3c 14 c9 32 bd
       -0.0052280664 -0.0010403702 0.012843728 -0.043648794
0000a0 fa 8d 91 3c 16 97 33 bd 91 ba fe 3c 41 fb 19 bd
       0.017767895 -0.04384526 0.031094821 -0.03759313
0000b0 d4 ab 75 bd d1 d0 cc bc 68 27 99 bc a6 a0 7f 3d
       -0.05997832 -0.025001915 -0.018695548 0.062409066
0000c0 ba fc a4 3b 20 4a 1b 3d 9d c8 88 3d 1a e7 23 3b
       0.00503501 0.037912488 0.06678889 0.0025009573
0000d0 1b 44 3a bc b8 bb 18 bc 3d 8b 9b 3d 58 87 14 bd
       -0.011368777 -0.009322099 0.07594917 -0.036261886
0000e0 2b 1e 5b 3c b3 33 b3 3c 39 fe 11 3d 3c 4b cb 3c
       0.013373892 0.021875238 0.035642836 0.024816148
0000f0 1e dd 43 bd 80 2f 02 3d f4 51 a1 3d 28 9a 1e bd
       -0.047818296 0.03178358 0.078769594 -0.038721234
000100 29 4d 92 bd 84 e7 77 bd 5d 03 33 bd 85 55 d2 3c
       -0.071436234 -0.060523525 -0.04370438 0.025675545
000110 24 79 6d bd 69 06 0e bd 1a 59 b1 3c 33 2d 81 bc
       -0.057976857 -0.034674082 0.021648932 -0.015768623
000120 64 a9 2e bc 3b 79 73 bd 20 6d 0e 3d 66 91 51 bd
       -0.010660503 -0.059441786 0.03477204 -0.051164053
000130 f2 7e 1c bd 53 ea 3c 3b 8b a4 12 bd 89 80 f3 ba
       -0.038207002 0.0028826192 -0.03580145 -0.0018577735
000140 ce af d4 bc ff d1 37 3c a5 55 cd 3c 1c e9 85 3d
       -0.025962736 0.011219501 0.025065253 0.06538603
000150 6f dc 6b 3d 93 f6 e5 3c 84 d4 48 bb 09 97 85 bc
       0.05758327 0.028071677 -0.0030644247 -0.01630737
000160 c5 4b bf 3c 8a 90 1b bd 54 5c 8b bd 17 88 84 bd
       0.02335156 -0.03797964 -0.068047196 -0.064712696
000170 7a b5 80 bd f3 4a 5b bc 1a 4b 8b bc ee 0f 39 bd
       -0.06284614 -0.0133845685 -0.017003585 -0.045181207
000180 90 d6 23 3d a1 c1 3e bd c9 a2 ed bc 6c 05 9e bd
       0.039999545 -0.046571378 -0.029008286 -0.07715878
000190 08 0a 9e bd 59 fb ca bc b7 2a 89 bd bb f2 7b bd
       -0.07716757 -0.024778055 -0.066976 -0.061510783
0001a0 b3 f2 08 bd 8c 4c 8d bc 48 24 81 bc 19 a5 69 bc
       -0.03343458 -0.017248414 -0.01576437 -0.014260554
0001b0 b4 ff 65 3d 40 2d fe bc fe 69 94 3b c6 f2 1d 3d
       0.05615206 -0.031027436 0.004529237 0.038561605
0001c0 51 e3 4e bc 67 6b 77 bd 54 dc 2e 3c 37 f4 37 3d
       -0.012627439 -0.06040516 0.0106726475 0.044910636
0001d0 f4 0f ad 3c d9 93 18 bc 97 99 ba 3c 48 ba 2d 3d
       0.021125771 -0.009312593 0.022778315 0.04241398
0001e0 34 e8 e9 3c 84 12 0b 38 94 38 3d 3d 48 5e 8c 3d
       0.028553106 3.3157427e-05 0.046196535 0.0685392
0001f0 88 dd 63 bd f0 e3 60 3d 53 f7 5b bc 02 30 c7 bc
       -0.05563119 0.05490488 -0.013425666 -0.024314884
000200 89 09 ac 3c 30 67 eb 3c 61 51 9a 3b 1c 0a b1 bd
       0.02100064 0.028735727 0.004709408 -0.08644506
000210 9b 81 08 bd 52 a0 46 bd 66 9c c0 bd 9b f8 56 bc
       -0.033326726 -0.048492737 -0.09404831 -0.013120796
000220 cf c7 90 bb 53 1e 93 3c 81 66 4b bc b0 7c 2f 3c
       -0.0044183503 0.017958796 -0.012414576 0.01071088
000230 5b 32 07 3d c6 6e 4c 3d 55 35 c6 3c 98 15 57 3d
       0.033007007 0.04991033 0.024195353 0.052510828
000240 44 13 1b 3d 64 0c f5 bc fa ba 13 3d 90 89 02 bd
       0.03786017 -0.029913135 0.036066987 -0.03186947
000250 a8 55 41 3d cb 66 9a bc f6 d3 87 3d 7b 0c 86 3c
       0.04720083 -0.018847844 0.06632225 0.016363373
000260 60 4c 8d 3c e9 89 64 bc 01 4e 4e 3d 1c e3 5a 3c
       0.017248333 -0.013948896 0.05036736 0.013359811
000270 5e ef 0c bd 8c 3f f4 bc 80 78 7f 3b 19 a1 7a 3d
       -0.034407966 -0.029815458 0.0038981736 0.06118879
000280 3a 5f da bc 02 1d d8 3b 3c 60 b3 bb 2e b9 8f bc
       -0.026656736 0.006595255 -0.0054741185 -0.017544355
000290 74 4e 35 3d 03 f0 e7 3c af 5d 89 3c 36 e8 33 3d
       0.04426427 0.028312689 0.016768305 0.043922625
0002a0 c1 43 35 3d 0e b1 83 3d e3 26 2d 3d 63 af 1d bb
       0.04425407 0.06430255 0.042273413 -0.0024060837
0002b0 ba 5d 35 bd 5b ab 0b bd c6 f2 1e bd 43 d4 8a bd
       -0.044278838 -0.034098964 -0.038805746 -0.06778767
0002c0 f9 8d 83 bd 1d 83 10 3d 9e 96 5e 3d 9e 9d a6 bd
       -0.064235635 0.03528129 0.05434286 -0.08135532
0002d0 59 4d 69 bd 11 3b b2 bc e5 90 b1 bc 83 ea 59 3c
       -0.05695853 -0.02175668 -0.021675536 0.013300541
0002e0 74 01 8a bd a9 06 0f 3c 6b 12 f0 3a 0f c0 1d bd
       -0.067385584 0.008729615 0.0018316036 -0.03851324
0002f0 74 86 ef bd 0a 6b 26 bc da 61 ed 3d ad fa 99 3d
       -0.11695567 -0.010157356 0.11590929 0.07518516
000300 58 9f 1d bd 8c 24 33 3d c2 35 a7 bc 5a b8 88 bd
       -0.03848204 0.043736026 -0.020411376 -0.06675787
000310 d8 04 4e bc 82 9b b3 3c 8b 81 7f bd 8e 7e 69 3d
       -0.012574397 0.021924738 -0.0623794 0.057005458
000320 7c af 16 bd be 75 55 3b 1c bf 78 3d bc dc 35 3d
       -0.03678845 0.00325714 0.06072913 0.04439996
000330 1c 97 c8 bb 5a f3 34 bd 9e cd c6 3c c0 9a 94 bd
       -0.0061215293 -0.04417739 0.024267968 -0.07256079
000340 a5 2c ee 3c a6 8c 81 3c aa bf 10 bb fd b0 01 bd
       0.029074023 0.015814137 -0.0022086897 -0.03166293
000350 a6 02 4b bd 9e a7 df bc 22 b1 82 3c 7a df 3d 3d
       -0.049563073 -0.027301606 0.015953604 0.046355702
000360 b8 84 4c ba 1a d8 78 3d 8b 01 88 bc 56 72 6f bc
       -0.0007801759 0.060752966 -0.016602298 -0.014614662
000370 84 1a 06 3c c7 1a fe 3c 85 45 23 3d 36 ce 68 3c
       0.008185033 0.031018628 0.03986122 0.014209321
000380 5c 42 09 3d 1b 04 1f bd 96 d8 13 bd c1 c3 0f bc
       0.03351055 -0.038822275 -0.036095224 -0.008774699
000390 69 c7 16 3d 3b 4e 9a 3c 47 27 52 3b a9 08 11 bd
       0.036811266 0.018836131 0.0032066868 -0.03540865
0003a0 70 07 00 bd fc 3e 77 3b b0 98 e9 3c d2 7a 1e 3d
       -0.031257093 0.003772675 0.02851519 0.03869135
0003b0 c4 ae 72 bc 49 de 9f bc 87 01 45 bd 6c d0 b5 bc
       -0.014812175 -0.019515174 -0.04809716 -0.02219411
0003c0 17 23 5b bd 37 20 90 3c 9b 30 13 bc 29 f2 4b bc
       -0.05350026 0.017593486 -0.008983756 -0.012447872
0003d0 29 7a b2 3d 2f 6b 12 3d 9e 59 45 3c 1c 82 58 bb
       0.087147065 0.03574675 0.012045292 -0.0033036536
0003e0 8d 8e 12 3c 66 70 25 bc 1f dc 0b bd 31 72 96 3c
       0.00894512 -0.010097599 -0.03414547 0.018364998
0003f0 a4 2d 38 bb 50 4f b1 bc eb 13 ae 3c d0 6d d7 3c
       -0.0028103376 -0.021644264 0.021249732 0.02629748
