checkpoints/33_best_model1.pth (torch, 309473 bytes, 37 tensors)

conv1.weight f4 [16, 4, 3, 3]
0	0xbbf891e1	-0.0075857495
1	0x3e0bd015	0.13653596
2	0x3e0272df	0.12739132
3	0xbd4faabe	-0.05069994
4	0xbe4fb97a	-0.20285597
5	0xbd7bdc3a	-0.06148932
6	0xbdde0b13	-0.10841956
7	0xbd9e4c3e	-0.07729386
8	0x3d98a4e2	0.07453324
9	0x3d00900c	0.031387374
10	0x3d0774a3	0.033070218
11	0xbd330d80	-0.043714046
12	0x3dbecc9e	0.093163714
13	0x3de21e56	0.11040942
14	0x3d9c9c23	0.07646968
15	0xbd3a2a31	-0.045450393
16	0x3e06e447	0.13173018
17	0xbd3fc30d	-0.046816874
18	0xbba01756	-0.0048855944
19	0xbe2bb3bd	-0.16767783
20	0xbcb703d0	-0.022340685
21	0x3e019558	0.12654626
22	0x3e33e301	0.17567064
23	0xbdb23567	-0.08701592
24	0xbda308a9	-0.07960636
25	0x3ce487b4	0.02789674
26	0xbbb086ba	-0.0053871544
27	0x3cd7bd9e	0.026335534
28	0xbcc14d17	-0.02359633
29	0xbccde9d3	-0.02513591
30	0xbda97e70	-0.08276069
31	0xbe3d8434	-0.18507463
32	0x3d304b8b	0.043040793
33	0xbd9a2131	-0.07525862
34	0xbe03d258	-0.12873209
35	0xbd5cbe01	-0.05389214
36	0x3d2dc9f1	0.042428914
37	0x3e1c55b4	0.15267068
38	0xbd0ae8cb	-0.033913415
39	0x3c075585	0.008260136
40	0x3db8b9a6	0.09019785
41	0x3db33ac0	0.0875144
42	0x3db35b89	0.08757693
43	0x3c9b16fb	0.018931856
44	0x3e0e94c1	0.13923933
45	0xbde96ec6	-0.113980815
46	0x3e17d3f5	0.14826949
47	0xbc09ca9b	-0.008410121
48	0xbd919604	-0.07108691
49	0x3e027e21	0.12743427
50	0x3dad6a39	0.08467526
51	0x3da1f1f9	0.07907481
52	0xbc5164a0	-0.0127803385
53	0x3e0b8f8a	0.13628975
54	0xbd6069eb	-0.05478851
55	0x3bd76709	0.006573562
56	0xbdb04db7	-0.08608573
57	0xbdb380bc	-0.087647885
58	0x3e1f41c4	0.15552431
59	0xbbda5292	-0.006662675
60	0x3c1b1e9f	0.00946775
61	0xbe2d52cf	-0.1692612
62	0x3d1a0c26	0.037609242
63	0xbe11f085	-0.14251907
64	0x3d8dda63	0.069264196
65	0xbd2b8e85	-0.041883964
66	0xbcd35fff	-0.02580261
67	0x3e760e1a	0.24028817
68	0x3dcf89d0	0.101337075
69	0x3d22d2dd	0.039751876
70	0xbe138ab3	-0.14408378
71	0x3c4c6946	0.012476271
72	0x3c92e3e5	0.017930934
73	0xbd6bba5c	-0.057550773
74	0xbd01260f	-0.031530436
75	0x3dee142a	0.1162494
76	0x3e234dcb	0.15947644
77	0x3d9b3aca	0.075795725
78	0xbd2b69f9	-0.04184911
79	0xbdf61679	-0.12016005
80	0x3e023e11	0.12718989
81	0xbe09237f	-0.13392447
82	0x3b6a7b12	0.0035778922
83	0x3e1ed9e1	0.15512802
84	0xbe416d53	-0.1888936
85	0xbe0c6f34	-0.13714296
86	0x3e074537	0.13209997
87	0xbb8b8c7b	-0.00425869
88	0xbdd5b574	-0.10435
89	0xbddc9fa1	-0.10772634
90	0xbdd5be6d	-0.104367115
91	0xbcb4ab93	-0.02205447
92	0x3daa33c5	0.083106555
93	0x3cf49b8d	0.029859329
94	0xbdb6e3a2	-0.08930136
95	0xbd25fd5f	-0.040524837
96	0xbe07fbad	-0.132796
97	0xbe0f261c	-0.13979381
98	0xbe07a81f	-0.13247727
99	0x3d47ed60	0.048810363
100	0xbd9d50a1	-0.07681394
101	0xbe3017f6	-0.1719664
102	0x3dcf0b0f	0.10109531
103	0xbdd67a14	-0.10472503
104	0xbcfec5fa	-0.031100262
105	0x3dffb29c	0.12485239
106	0x3e145f78	0.14489543
107	0x3d022623	0.03177465
108	0xbd29c4c4	-0.041447416
109	0xbddc6d92	-0.107630864
110	0x3d12ee99	0.035872076
111	0x3da8ca74	0.0824174
112	0x3e006ac8	0.12540734
113	0xbdcf28d6	-0.10115211
114	0x3da882ec	0.08228096
115	0x3e0d873a	0.13821116
116	0xbe28f209	-0.16498579
117	0xbe0ad14e	-0.13556406
118	0x3db86952	0.09004463
119	0xbde3a51e	-0.11115478
120	0x3e08f9b3	0.13376503
121	0xbdc5bb8d	-0.09654913
122	0x3e005eac	0.12536114
123	0x3dadbbbd	0.08483074
124	0xbda0bb5f	-0.07848238
125	0x3d9accc6	0.07558589
126	0x3da5014d	0.08056889
127	0x3dc08908	0.09401137
128	0x3e0282cd	0.12745209
129	0xbe0a2ebd	-0.13494392
130	0x3d1565e5	0.036474127
131	0xbda521c5	-0.08063082
132	0xbd8728aa	-0.06599553
133	0xbdb879cf	-0.09007608
134	0xbe0d783c	-0.13815397
135	0xbb938f15	-0.0045031407
136	0xbe14b75c	-0.14523071
137	0x3d57772f	0.052603897
138	0xbcdada8c	-0.02671554
139	0xbe09ecdf	-0.13469265
140	0xbe2482d8	-0.16065538
141	0xbe27f06d	-0.16400309
142	0x3b5a75e7	0.0033334435
143	0x3e1b5f5b	0.15173094
144	0x3d36d500	0.044636726
145	0x3cd796a3	0.026316946
146	0xbded4f61	-0.11587406
147	0x3c327eb4	0.010894466
148	0xbe89b261	-0.26893905
149	0xbdd20cf1	-0.102563746
150	0xbcbc438c	-0.022981428
151	0xbd01e18d	-0.031709243
152	0xbe05a92e	-0.13052818
153	0xbd5f02ef	-0.054446157
154	0xbe417d37	-0.18895422
155	0x3bb6079e	0.0055551073
156	0xbe00212c	-0.12512654
157	0xbe0f7c9e	-0.14012381
158	0xbe3bdbc2	-0.1834555
159	0x3dc8e18d	0.098086454
160	0xbdf02b6c	-0.11727032
161	0x3c337e6d	0.010955435
162	0x3d62a370	0.055331647
163	0x3dcaf017	0.09909075
164	0x3da37dbd	0.07982967
165	0xbdc36a4f	-0.09541761
166	0xbdb34d5e	-0.08754991
167	0xbdf8a278	-0.121403635
168	0xbdc53b73	-0.0963048
169	0xbe33c2d0	-0.17554784
170	0x3d0579db	0.032586914
171	0xbcdd8afa	-0.027043808
172	0xbdd9efab	-0.10641416
173	0x3c8b9939	0.017040836
174	0x3da7fbeb	0.082023464
175	0xbd620566	-0.05518093
176	0xbdf588e0	-0.119889975
177	0x3d982f16	0.07430856
178	0xbe6a2fe5	-0.22869833
179	0x3d997a57	0.074940376
180	0x3d5e782f	0.054313835
181	0x3da37d7c	0.079829186
182	0x3e110b25	0.14164408
183	0xbe43476e	-0.19070217
184	0xbdc77118	-0.09738368
185	0xbcfb5b36	-0.030683141
186	0x3cc9aa15	0.024617234
187	0x3d5a05d3	0.05322821
188	0x3d155878	0.036461323
189	0x3d8e84e4	0.069589406
190	0x3e273fb5	0.16332896
191	0x3df83847	0.12120109
192	0xbdfcfb24	-0.12352589
193	0xbbda1dc0	-0.0066563785
194	0x3dd6011a	0.10449429
195	0x3d030a46	0.03199222
196	0x3d67358e	0.056447558
197	0xbd9b0cd3	-0.075708054
198	0xbaba8dd1	-0.0014232938
199	0x3e24fc54	0.1611188
200	0x3e3ad2bf	0.18244456
201	0xbdd761d0	-0.10516703
202	0x3ddc39eb	0.107532345
203	0xbd3b3855	-0.04570802
204	0x3d724980	0.059152126
205	0x3df57bbc	0.11986491
206	0x3e13c0d8	0.14429033
207	0x3e1964fb	0.14979927
208	0x3e32e1fd	0.1746902
209	0x3e28f027	0.16497861
210	0x3badd2a7	0.0053046527
211	0x3cac2ddf	0.021017967
212	0xbd0888b9	-0.033333514
213	0x3e0588d4	0.13040477
214	0x3c196f3e	0.009364901
215	0x3e0f6002	0.14001468
216	0x3cebc805	0.0287819
217	0xbd26fc15	-0.040767748
218	0xbe2202ca	-0.15821376
219	0xbda539f2	-0.08067693
220	0xbe28cdb3	-0.16484718
221	0x3c4fc9d6	0.012682399
222	0xbc3e9dbe	-0.011634288
223	0xba888be9	-0.0010417673
224	0x3a9c4097	0.0011921105
225	0xbd8745aa	-0.06605084
226	0x3d9c468c	0.07630643
227	0x3cb1911b	0.021675637
228	0x3e035ff1	0.12829567
229	0x3e17d7af	0.1482837
230	0x3e170b17	0.14750324
231	0xbdaba8b3	-0.08381786
232	0xbe3c7434	-0.18403703
233	0x3d1a8d81	0.037732605
234	0x3c473f6f	0.01216112
235	0xbe2d4e0d	-0.16924305
236	0xbc04baa8	-0.008101143
237	0x3d678e6e	0.056532316
238	0xbdb8a6b0	-0.09016168
239	0xbe303354	-0.1720708
240	0x3da792ac	0.08182272
241	0xbc1304d5	-0.00897332
242	0xbca05dc2	-0.019575957
243	0xb8a60f1e	-7.9183126e-05
244	0x3db6cb4d	0.08925495
245	0xbe0efb0e	-0.13962957
246	0xbd591c97	-0.05300578
247	0xbd1187d4	-0.035529926
248	0x3db7b8b7	0.089707784
249	0x3d8f4d7f	0.06997203
250	0x3dbfab7c	0.0935888
251	0xbd1bddd8	-0.038053364
252	0x3bec86e4	0.0072182287
253	0xbe0b6c93	-0.13615637
254	0xbd2513db	-0.04030214
255	0x3def1599	0.11674041

conv1.bias f4 [16]
0	0xbd816017	-0.06317156
1	0xbb205a16	-0.0024467758
2	0xbd77ed90	-0.06052929
3	0x3e1cabe6	0.15299949
4	0x3e0caa46	0.13736829
5	0x3cad8848	0.021183148
6	0x3e142d6b	0.1447045
7	0xbe034ca3	-0.12822203
8	0xbd178afd	-0.036997784
9	0x3e128021	0.1430669
10	0xbd7e1872	-0.06203503
11	0x3d2ee71f	0.042700883
12	0xbd34bcc2	-0.044125326
13	0x3d8e3d5e	0.069452986
14	0x3d734d41	0.059399847
15	0x3c7fa668	0.015603639

conv2.weight f4 [16, 16, 3, 3]
0	0xbd273e54	-0.040830925
1	0xbca645f1	-0.020297023
2	0xbd805722	-0.06266619
3	0xbc1cb05e	-0.009563534
4	0xbd47724b	-0.048692983
5	0xbd7ee1db	-0.06222711
6	0xbd1d99f0	-0.038476884
7	0xbd91224f	-0.07086622
8	0xbc910c5f	-0.017706094
9	0x3ba7616b	0.0051080487
10	0xbdbfeb41	-0.09371043
11	0x3d52d853	0.051475834
12	0x3d06f034	0.03294392
13	0x3b9b96f7	0.004748221
14	0xbb057b13	-0.0020367547
15	0x3d65b9eb	0.05608551
16	0x3d9010d4	0.0703446
17	0xbd033a55	-0.03203805
18	0xbd8d7c15	-0.069084324
19	0xbd8b9fb8	-0.06817573
20	0x3c36565d	0.011128989
21	0xbdb9b809	-0.09068305
22	0xbd64f313	-0.055895876
23	0x3c7ac3cf	0.0153054735
24	0xbcec9c88	-0.028883234
25	0xbc30dc8a	-0.010794768
26	0xbcf36007	-0.029708875
27	0xbd01cd08	-0.031689674
28	0xbcb6e917	-0.022327943
29	0xbb87f810	-0.0041494444
30	0xbd802e4a	-0.06258829
31	0xbca3d3e7	-0.019998504
32	0x3c2defc2	0.010616245
33	0x3c3c22a5	0.011482869
34	0x3c332a2e	0.010935349
35	0x3cc1dcc5	0.023664841
36	0xbd6ce929	-0.057839546
37	0xbdf299ea	-0.11845763
38	0xbdd2d16e	-0.10293852
39	0xbc4f80b1	-0.01266496
40	0xba9b4c84	-0.0011848365
41	0xbd56d3a7	-0.05244794
42	0xbd944da2	-0.0724137
43	0xbd7a120d	-0.06105237
44	0xbd3559ba	-0.044275023
45	0xbd049cf5	-0.03237625
46	0xbc9051c1	-0.017617108
47	0x3d9f2193	0.07770076
48	0x3ca342e0	0.01992935
49	0x3d3d4a4e	0.04621344
50	0xbb04557a	-0.002019255
51	0x3d92134b	0.07132586
52	0xbd4845d6	-0.048894726
53	0x3ccfa9e4	0.025349565
54	0xbd3b9acf	-0.045801934
55	0xbd9f1c47	-0.07769065
56	0x3d1972f3	0.03746314
57	0xbcaad0ba	-0.020851482
58	0xbd32fa5d	-0.043695796
59	0xbd8efba3	-0.0698159
60	0xbb7c3000	-0.0038480759
61	0xbc1cfb01	-0.009581328
62	0xbd6013fd	-0.054706562
63	0xbdc8ef61	-0.09811283
64	0x3c5f5166	0.013630247
65	0xbd08ed49	-0.033429418
66	0x3c062042	0.008186402
67	0xbd7e3fe2	-0.062072642
68	0xbd763edc	-0.06011854
69	0x3d5e0c5d	0.05421101
70	0x3c0b5101	0.0085032
71	0x3ccdae1d	0.025107438
72	0x3d8deea9	0.069302864
73	0xbd77a6e4	-0.060461894
74	0xbc280b8b	-0.010256658
75	0x3d4f73be	0.05064749
76	0x3c91cfce	0.017799284
77	0x3d3235b7	0.043508258
78	0x3d814e15	0.06313721
79	0xbcbc8387	-0.023011936
80	0xbd9a00c4	-0.07519677
81	0xbd044f52	-0.03230221
82	0xbdd9002c	-0.10595736
83	0xbdac14e1	-0.0840242
84	0xbd9bb1c2	-0.07602264
85	0xbda19c72	-0.07891168
86	0xbd0eff26	-0.034911297
87	0xbd0135ab	-0.031545322
88	0xbcb986ec	-0.022647344
89	0x3d926378	0.071478784
90	0xbc02abf9	-0.007975572
91	0xbb88d9cf	-0.0041763554
92	0xbd326699	-0.043554876
93	0xbd02c9d1	-0.03193075
94	0xbcbd772e	-0.023128118
95	0xbccff236	-0.02538405
96	0xbd40dbbd	-0.04708456
97	0x3c7dc4c9	0.015488812
98	0x3a400dd2	0.0007326278
99	0x3d1822ca	0.037142552
100	0xbd0613b5	-0.032733638
101	0xbc9bb6dc	-0.019008093
102	0xbc8ee33e	-0.017442342
103	0xbca39e8c	-0.019973062
104	0x3c9acc04	0.01889611
105	0xbca13c6a	-0.019682128
106	0xbb0937e0	-0.0020937845
107	0x3c63115e	0.013859121
108	0xbd9c7873	-0.07640161
109	0x3d623af4	0.055232003
110	0xbcaefca2	-0.0213607
111	0x3d1cd4d6	0.038288914
112	0xbb80087c	-0.0039072614
113	0x3cc09401	0.023508074
114	0x3d5bd3ee	0.05366891
115	0xbd6f269e	-0.058386438
116	0xbd96e0ab	-0.07367071
117	0xbca3fb5e	-0.020017322
118	0xbc6c4e54	-0.014422972
119	0x3d172462	0.03689993
120	0xbcf14a0e	-0.029454257
121	0x3c02703f	0.007961332
122	0xbd2d2f83	-0.04228164
123	0x3d682be6	0.05668249
124	0x39e32bd2	0.00043329463
125	0xbd07601c	-0.03305064
126	0xbc9f5cac	-0.01945337
127	0xbd0b415d	-0.033997882
128	0xbb9d220a	-0.0047953175
129	0xbc7f679a	-0.015588665
130	0xbddbf4a2	-0.107400194
131	0xbbaf43f4	-0.005348677
132	0xbcd96f35	-0.026542285
133	0xbd5781ff	-0.05261421
134	0x3c4b9079	0.012424582
135	0xbc2cbd21	-0.010543139
136	0xbde699f6	-0.112598345
137	0xbddc204a	-0.10748346
138	0xbc317136	-0.010830214
139	0xbdda5da4	-0.10662392
140	0xbbd6a968	-0.0065509565
141	0x3cf20be5	0.029546687
142	0xbdd23c3f	-0.10265397
143	0xbcbf03ea	-0.023317296
144	0x3c1293f2	0.008946406
145	0x3d4b0ee7	0.04957476
146	0x3cef7146	0.029228818
147	0x3d85e777	0.06538289
148	0x3c8c9ddc	0.017165117
149	0x3bdef35e	0.006803914
150	0xbdc627ad	-0.09675536
151	0x3d76fac4	0.060297742
152	0x3d06a65c	0.032873496
153	0xbd447e68	-0.047972113
154	0xbcb30d21	-0.021856846
155	0xbc9d62ee	-0.019212212
156	0xbc789991	-0.015173332
157	0x3ca41e1e	0.020033892
158	0xbd5d7a45	-0.054071683
159	0xbca3efbe	-0.020011779
160	0xbd6c80ce	-0.057740025
161	0x3d3060f0	0.043061197
162	0xbd701021	-0.05860913
163	0x3d52ee91	0.051497046
164	0xbc78e53c	-0.0151913725
165	0x3c92b99f	0.017910777
166	0x3d216835	0.03940602
167	0x3db3cc62	0.08779217
168	0xbd06818c	-0.03283839
169	0x3d9797f4	0.0740203
170	0x3cfbe3a2	0.030748192
171	0x3c1a0632	0.009400891
172	0x3d0c3d95	0.034238417
173	0xbb108f1e	-0.002205796
174	0xbb46dc91	-0.003034387
175	0xbd01b557	-0.03166708
176	0xb66bc497	-3.513216e-06
177	0xbcfe1d94	-0.031019963
178	0x399fd195	0.00030482994
179	0x3aca804c	0.0015449612
180	0x3df5e6c2	0.12006904
181	0x3d149e95	0.036284048
182	0x3da288e1	0.07936264
183	0x3e07692c	0.13223714
184	0x3e1f11f1	0.15534188
185	0x3def1f8f	0.11675941
186	0x3d9aea70	0.07564247
187	0x3db43fed	0.088012554
188	0x3c624f54	0.013812859
189	0xbc84cdb7	-0.016211374
190	0x3a8267c4	0.0009949137
191	0x3d3e0818	0.046394438
192	0xbd5cac07	-0.053874996
193	0x3afe7f4b	0.0019416598
194	0x3b8dada7	0.0043236795
195	0x3da1aa0b	0.07893761
196	0x3dafbe25	0.08581189
197	0xbcbe19b7	-0.023205621
198	0x3b3f50b8	0.00291924
199	0x3c75fe3a	0.015014226
200	0x3b3c23f2	0.0028707949
201	0x3d0cc214	0.034364775
202	0x3d1d0e41	0.03834367
203	0xbd380b4d	-0.044932652
204	0x3cc5e424	0.024156637
205	0x3cc54a5e	0.024083313
206	0x3c7b518f	0.015339269
207	0x3d16ce53	0.03681786
208	0x3d291747	0.041281965
209	0x3d025e0f	0.031827983
210	0x3c9be339	0.019029247
211	0xbcc5e557	-0.02415721
212	0xbd033b4b	-0.032038968
213	0x3d3e7ae2	0.04650391
214	0x3ccf469b	0.025302222
215	0x3d248e59	0.040174816
216	0x3d28dc5d	0.04122578
217	0xbd249938	-0.040185183
218	0xbb6ea89d	-0.003641642
219	0xbd879918	-0.06620997
220	0xbc84d471	-0.016214581
221	0x3b17a58e	0.002313945
222	0x3c486b0f	0.012232556
223	0x3d255e03	0.04037286
224	0x3d741995	0.05959471
225	0xbc311cc4	-0.010810081
226	0x3cc58ae6	0.024114083
227	0x3c6f43f0	0.0146036
228	0x3d78038b	0.060550254
229	0x3dd7d268	0.10538179
230	0x3cb08171	0.021546097
231	0x3ba03543	0.004889162
232	0x3cd102b1	0.025513979
233	0xbbaedbba	-0.005336252
234	0x3c99bd36	0.01876698
235	0x3ced0ae6	0.02893586
236	0x3cb68cde	0.022283968
237	0xbd053ea8	-0.032530457
238	0x3c35fc0b	0.011107455
239	0xbc55102c	-0.013004344
240	0xbc133b19	-0.008986258
241	0x3d39a866	0.045326613
242	0xbc84f9b5	-0.01623235
243	0x3d492664	0.049108878
244	0x3c8c0bd9	0.017095493
245	0xbd0012ed	-0.03126805
246	0xbc8cf76a	-0.01720782
247	0xbaec4915	-0.0018027151
248	0x3cef3305	0.029199133
249	0x3b6f30b0	0.0036497526
250	0x3c9facdd	0.019491607
251	0xbc01f190	-0.007931128
252	0x3d82dbb4	0.06389561
253	0x3d4dee1d	0.05027591
254	0x3d9056f3	0.07047834
255	0x3d5022a4	0.050814286

conv2.bias f4 [16]
0	0x3d07194f	0.03298312
1	0x3ca70e77	0.02039264
2	0xbce8c3af	-0.028413622
3	0x3d523c57	0.051327076
4	0xbd9456bb	-0.07243105
5	0xbd2c82a1	-0.042116765
6	0xbcd0a01b	-0.02546697
7	0x3d90c0c9	0.07068021
8	0x3c650876	0.013979068
9	0xbd9bd9d9	-0.076099105
10	0x3cf03975	0.029324273
11	0xbd3854b7	-0.045002665
12	0x3cb08b70	0.021550864
13	0x39392ee2	0.0001766044
14	0x3d992bf2	0.07479085
15	0x3d88bc57	0.06676548

bn11.weight f4 [16]
0	0x3f7d6053	0.98975104
1	0x3f80f224	1.0073895
2	0x3f7fa670	0.9986334
3	0x3f7985c6	0.9746975
4	0x3f8c78d8	1.0974379
5	0x3f81a4cc	1.0128417
6	0x3f775f0b	0.966294
7	0x3f74a0b7	0.9555773
8	0x3f81f4aa	1.015279
9	0x3f7e627b	0.9936902
10	0x3f74a0ba	0.9555775
11	0x3f550f9b	0.8322694
12	0x3f813ffa	1.0097649
13	0x3f7e7085	0.9939044
14	0x3f7d4b28	0.98942804
15	0x3f8a507d	1.0805813

bn11.bias f4 [16]
0	0x3bec7927	0.007216591
1	0x3d949e59	0.07256765
2	0xbca01dd6	-0.019545477
3	0xbd380c90	-0.044933856
4	0xbcb7b428	-0.022424772
5	0x3cb26209	0.021775262
6	0xbcff5e55	-0.03117291
7	0xbd2adc5c	-0.041714057
8	0xbbdd2abe	-0.00674948
9	0xbd161576	-0.03664156
10	0xbd991202	-0.07474138
11	0xbcf8cb8c	-0.030370496
12	0x3d3e33ac	0.046435997
13	0x3cf9cdf3	0.030493712
14	0xbd85cfd5	-0.065337814
15	0xbbae5a94	-0.0053208563

bn11.running_mean f4 [16]
0	0xbd90e5cd	-0.07075081
1	0x3c7b41d1	0.015335516
2	0xbd95d06d	-0.07315145
3	0x3e1305f7	0.14357744
4	0x3dcad916	0.09904687
5	0x3d6c2ef8	0.05766198
6	0x3e0b43f9	0.13600148
7	0xbe122774	-0.14272863
8	0xbc375766	-0.011190271
9	0x3e079e7a	0.13244048
10	0xbd8bbcde	-0.06823133
11	0x3d186b70	0.037211835
12	0xbc2f07c1	-0.010683001
13	0x3dac98f8	0.08427614
14	0x3d495376	0.04915186
15	0xbcaaeebd	-0.020865792

bn11.running_var f4 [16]
0	0x3a0a9b20	0.00052873977
1	0x3b06dcd7	0.0020578408
2	0x3a919e03	0.0011109713
3	0x3a42633f	0.00074153015
4	0x3c0bc7f9	0.008531564
5	0x3bf3ae7f	0.007436573
6	0x3a2793b5	0.00063925545
7	0x3ab4e49b	0.001380104
8	0x3b8245f2	0.0039756233
9	0x3a4c2250	0.00077870954
10	0x39f8b693	0.00047438274
11	0x3a16dfb9	0.0005755383
12	0x3bd036ee	0.0063542044
13	0x3adf7a44	0.0017049988
14	0x3a40a895	0.00073493394
15	0x3bf2d505	0.007410648

bn12.weight f4 [16]
0	0x3f7d4446	0.989323
1	0x3f869d68	1.0516787
2	0x3f7c1548	0.9846997
3	0x3f7e1190	0.9924555
4	0x3f857a39	1.0427924
5	0x3f7d6536	0.9898256
6	0x3f800abd	1.0003277
7	0x3f7d3cd5	0.9892095
8	0x3f7f77d6	0.9979223
9	0x3f7b4b97	0.98162216
10	0x3f7bcdb1	0.98360735
11	0x3f7cbbb9	0.9872394
12	0x3f81bc03	1.0135502
13	0x3f7ea5ff	0.9947204
14	0x3f7c66d2	0.9859439
15	0x3f7688aa	0.9630228

bn12.bias f4 [16]
0	0x3d8a5654	0.06754747
1	0xbc63b8cf	-0.013899042
2	0x3c2e0b76	0.01062285
3	0x3ccbc8be	0.024875995
4	0xbd0afdc1	-0.033933405
5	0x3bd60f3a	0.006532577
6	0xbba672aa	-0.005079587
7	0x3cb2ab7f	0.021810291
8	0xbbdff18f	-0.006834216
9	0x3b39e87e	0.0028367336
10	0x3d278b3b	0.040904265
11	0x3cc84dff	0.024451254
12	0xbc74a9f2	-0.014933096
13	0x3c0df7c0	0.008665025
14	0xbcc5a8ed	-0.024128402
15	0xbc9efb98	-0.019407079

bn12.running_mean f4 [16]
0	0xbf349269	-0.70535904
1	0x3f5e133a	0.8674809
2	0xbe943f19	-0.2895439
3	0x3e766c1b	0.24064676
4	0x3f652bd2	0.8951999
5	0xbd0ec3c9	-0.034854684
6	0xbe0f5f4a	-0.14001194
7	0xbe9de7cb	-0.30840907
8	0xbf0311ad	-0.51198846
9	0xbe5ef11b	-0.21771662
10	0x3e90f7bb	0.28314003
11	0xbe8c9b70	-0.2746234
12	0x3ef6d17a	0.48206693
13	0xbdaaf136	-0.083467886
14	0x3e11c249	0.1423427
15	0xbd39b9aa	-0.04534308

bn12.running_var f4 [16]
0	0x3e8787a8	0.26470685
1	0x3dfc94ee	0.123330936
2	0x3e67aa10	0.22623467
3	0x3e3c1ed6	0.18371138
4	0x3dfdefd9	0.12399263
5	0x3ec79f94	0.38988936
6	0x3e47b32a	0.1950194
7	0x3e5c2527	0.21498547
8	0x3e96239e	0.2932405
9	0x3e0e5c50	0.13902402
10	0x3e3f7cb7	0.18699919
11	0x3f138848	0.57629824
12	0x3f2ba614	0.6705029
13	0x3ede3f9c	0.43407905
14	0x3e7a6419	0.24452247
15	0x3e122b11	0.14274241

conv3.weight f4 [32, 16, 3, 3]
0	0x3c6e0e9a	0.0145298485
1	0xbc555251	-0.013020114
2	0x3c469785	0.012121086
3	0xbd9a4e3b	-0.075344525
4	0x3d843015	0.064544834
5	0x3d4db708	0.05022338
6	0x3d60cfd8	0.054885715
7	0xbda0099b	-0.07814332
8	0xbd7e616b	-0.062104624
9	0xbb12d3a3	-0.0022403977
10	0xbde486c2	-0.111585155
11	0xbdbac99f	-0.091204874
12	0x3d835943	0.0641351
13	0x3d4c08c8	0.049813062
14	0x3add6e31	0.0016893802
15	0xbd839da2	-0.064265504
16	0x3ca4a204	0.020096786
17	0xbc1340ea	-0.008987645
18	0xbd70598c	-0.05867915
19	0xbc5aa63f	-0.0133453
20	0xbd861e93	-0.065488
21	0xbd8137ea	-0.06309493
22	0xbccffd59	-0.02538936
23	0xbda887f0	-0.08229053
24	0xbd91dedc	-0.07122585
25	0xbd335aa3	-0.04378761
26	0xbd5a8ef7	-0.053359
27	0x3c31de9c	0.010856297
28	0xbd666553	-0.056248974
29	0x3d5493b9	0.05189869
30	0xbcb133c7	-0.021631135
31	0x3d3405e6	0.043950938
32	0xbd05ca29	-0.032663498
33	0xbd5dd7ee	-0.054161005
34	0xbc49cfd5	-0.012317617
35	0xbad2f9f0	-0.0016096216
36	0xbce23d3c	-0.02761709
37	0xbdad13b5	-0.084510244
38	0xbd4eaa1f	-0.05045521
39	0xbdc18faa	-0.0945123
40	0x3cfe8611	0.031069787
41	0x3cc9b385	0.024621734
42	0xbe00f3c9	-0.12592997
43	0xbd8d5aeb	-0.06902107
44	0xbded71a3	-0.1159394
45	0x3d41ab4f	0.047282513
46	0xbd9000a9	-0.07031376
47	0xbd589c76	-0.052883588
48	0xbc88a794	-0.01668147
49	0xbcbe9d52	-0.023268376
50	0xbcf68072	-0.030090544
51	0xbd17c49d	-0.03705274
52	0x3cd6ffc2	0.026245002
53	0xbd46ffc5	-0.048583765
54	0x3d9d1e02	0.07671739
55	0xbd6c5435	-0.057697494
56	0xbdc2db1c	-0.09514448
57	0x3d5d0016	0.05395516
58	0xbd6cbf5a	-0.057799675
59	0x3d2d0ce0	0.042248607
60	0xbd190cf8	-0.037365884
61	0xbd2db241	-0.042406324
62	0xbc2265e5	-0.009911989
63	0x3c308ee0	0.010776252
64	0xbd443fd8	-0.04791245
65	0xbcc631b8	-0.02419363
66	0x3cc1a46a	0.023637969
67	0x3d5bcb2a	0.05366055
68	0x3d76d768	0.06026402
69	0x3d147233	0.03624172
70	0xbcc55236	-0.024087053
71	0xbd93d536	-0.07218401
72	0xbd65c38f	-0.056094702
73	0xbdbfd818	-0.093673885
74	0x3c7a32c1	0.01527089
75	0x3d378e1e	0.044813268
76	0x3c8c5d49	0.017134326
77	0x3d738a1c	0.059457883
78	0xbd51a618	-0.05118379
79	0xbd61c146	-0.05511596
80	0x3d9734be	0.07383107
81	0xbd139db2	-0.03603906
82	0x3d015597	0.031575765
83	0x3d32ae40	0.04362321
84	0xbd3aa8df	-0.045571204
85	0xbccc1d3f	-0.02491629
86	0x3da497e3	0.080367826
87	0x3d5f3ec7	0.05450323
88	0xbc83d59e	-0.016093072
89	0x3d552159	0.052033756
90	0xbb198119	-0.0023422895
91	0x3d8e8077	0.069580965
92	0xbd670b7f	-0.056407448
93	0xbaf618db	-0.0018775718
94	0xbd18200b	-0.037139934
95	0x3ca78c25	0.020452568
96	0x3d3338e2	0.04375542
97	0x3d5f5447	0.054523733
98	0xbcf2f5b8	-0.029658183
99	0x3d9ca91e	0.07649444
100	0x3d32afbf	0.043624636
101	0x3c0526b4	0.008126903
102	0xbb34dfa6	-0.0027599125
103	0x3ca31275	0.019906262
104	0xbd9eb950	-0.07750189
105	0xbd922e51	-0.071377404
106	0x3d7ea8a5	0.06217255
107	0x3bcc8973	0.006241971
108	0xbd6658af	-0.05623692
109	0xbd318b3c	-0.043345675
110	0x3d2e0410	0.042484343
111	0xbdb2a264	-0.0872238
112	0x3d7bab6d	0.06144278
113	0xbc08ac70	-0.008341894
114	0xbc4bfee5	-0.012450908
115	0x3d9cc102	0.07654001
116	0x3d1d3342	0.03837896
117	0x3cd88b7b	0.026433697
118	0xbd99d1c6	-0.07510714
119	0x3d0a9d6d	0.03384154
120	0x3cfdffb0	0.03100571
121	0x3d01584a	0.03157834
122	0x3c297019	0.010341668
123	0x3d8d819d	0.069094874
124	0xbd14e11c	-0.036347494
125	0x3d82751f	0.06369995
126	0xbd6b6239	-0.05746672
127	0x3d745103	0.05964757
128	0xbd923baf	-0.0714029
129	0x3d94eb22	0.072714105
130	0x3d5d9098	0.054092973
131	0x3cc195a8	0.023630932
132	0xbcd89cfb	-0.026442042
133	0xbd213348	-0.039355546
134	0xbcfdfca7	-0.031004263
135	0xbb51939f	-0.0031978858
136	0x3c85b6b6	0.016322475
137	0x3cec6df6	0.028861027
138	0xbc0e5699	-0.008687639
139	0xbd933a7f	-0.071888916
140	0xbcfb65fd	-0.03068828
141	0x3d3e7bdd	0.046504844
142	0x3d8dfff5	0.069335856
143	0xbc04ea89	-0.008112558
144	0x3ce0d212	0.02744392
145	0x3cb422a9	0.021989184
146	0x3d901a60	0.07036281
147	0x3d8ff365	0.07028846
148	0x3d773d0f	0.060360964
149	0xbca5e833	-0.020252323
150	0xbcfac873	-0.03061316
151	0xbcd7d8ef	-0.02634856
152	0xbd45a2ad	-0.048250843
153	0x3d88fe94	0.06689182
154	0xbd5ae4fd	-0.053441036
155	0x3cf15459	0.029459165
156	0xbda7fb31	-0.08202208
157	0xbd4810da	-0.048844196
158	0x3b5b7b8e	0.0033490392
159	0xbc9ec557	-0.019381208
160	0xbcb408b7	-0.021976812
161	0xbde08812	-0.10963453
162	0x3c901a1a	0.017590571
163	0x3d3d4798	0.046210855
164	0x3c76ca12	0.015062826
165	0xbd0cf1b0	-0.03441018
166	0x3db264f7	0.08710664
167	0x3cebd6c7	0.028788937
168	0x3bdffb45	0.0068353736
169	0x3ccbc1d8	0.024872705
170	0xbcb50e97	-0.022101684
171	0x3d177e51	0.0369857
172	0xbcf1d46a	-0.029520232
173	0x3dc363bc	0.09540507
174	0x3da80759	0.082045265
175	0x3d8fe9c1	0.07027007
176	0xbd42e512	-0.04758174
177	0xbad4cd24	-0.0016235453
178	0xbcca2d20	-0.02467972
179	0xbd2a6da0	-0.041608453
180	0xbd023b88	-0.031795055
181	0xbca5afba	-0.020225395
182	0xbb9fc007	-0.0048751864
183	0x3da8ddaf	0.08245408
184	0xbceb2c8f	-0.02870777
185	0xbd8f05ac	-0.06983504
186	0x3d84f5ec	0.064922184
187	0xbccdedb9	-0.025137769
188	0x3c35d6a1	0.011098535
189	0x3d86ceec	0.06582436
190	0xbbf0249e	-0.007328584
191	0x3beb6d24	0.0071846414
192	0x3d47b201	0.048753742
193	0xbc4d2484	-0.012520913
194	0xbd4922bd	-0.049105395
195	0x3d26d46b	0.04072992
196	0x3d87729d	0.066136576
197	0x3c012750	0.007882908
198	0x3c0e6410	0.008690849
199	0x3cafa136	0.021439176
200	0x3d068878	0.03284499
201	0x3b413c7f	0.0029485521
202	0xbcdeac8c	-0.027181886
203	0x3bafc57f	0.0053641195
204	0x3d3c57aa	0.04598204
205	0x3d78059c	0.060552225
206	0xbd18652f	-0.03720587
207	0xbdaf682c	-0.08564791
208	0xbd93d800	-0.07218933
209	0x3d83bb80	0.06432247
210	0x3cca89dc	0.02472394
211	0x3ca953b2	0.020669792
212	0x3cd694c0	0.026193976
213	0x3cf25eef	0.029586283
214	0x3d3d102c	0.046158
215	0xbcdd0096	-0.026977818
216	0xbdc0a9dc	-0.09407398
217	0xbbb34170	-0.0054704472
218	0xbcfbcf70	-0.030738562
219	0xbdcca0ef	-0.09991633
220	0x3ce9f749	0.028560298
221	0x3d91a155	0.0711085
222	0xbd8f90ff	-0.07010078
223	0x3cce3493	0.025171554
224	0xbd1ef849	-0.038811002
225	0xbc9b0fe5	-0.018928478
226	0x3d4c8d02	0.049939163
227	0x3b596c26	0.0033176034
228	0xbd683bd4	-0.05669768
229	0x3c46a537	0.012124351
230	0x3d4080e0	0.046997905
231	0x3d7d228f	0.061800536
232	0x3d2e8251	0.04260475
233	0x3da5901d	0.08084128
234	0x3d81bf0b	0.06335267
235	0x3c9eb5ae	0.019373741
236	0x3d9f5493	0.07779803
237	0xbbacf153	-0.0052777915
238	0x3c8c99c1	0.01716316
239	0xbd3e4216	-0.046449743
240	0xbd9f0890	-0.07765305
241	0x3d879a8a	0.06621273
242	0x3d4984bd	0.049198855
243	0x3b9d98af	0.004809461
244	0x3d99e578	0.07514471
245	0xbd210c36	-0.039318286
246	0x3d40f539	0.047108863
247	0x3c10696b	0.008814196
248	0xbd8af13c	-0.06784293
249	0x3c1e4266	0.009659385
250	0xbc489c5e	-0.012244312
251	0xbc9d037a	-0.019166697
252	0xbca67071	-0.020317288
253	0xbd98c530	-0.074594855
254	0x3c380f8f	0.011234178
255	0xbd597c41	-0.053097013

conv3.bias f4 [32]
0	0xbd6a737f	-0.057239052
1	0x3d9d8fe8	0.076934636
2	0xbd971916	-0.07377832
3	0x3da43c1d	0.08019278
4	0x3d6c4f06	0.05769255
5	0x3b5cc359	0.0033685772
6	0x3d44ac00	0.048015594
7	0xbd81ad06	-0.0633183
8	0x3d7c5106	0.061600707
9	0x3d4b0e54	0.04957421
10	0x3cfc1c0a	0.030775089
11	0xbd1d3ed7	-0.038390007
12	0xbcc0cf3c	-0.023536317
13	0x3d138a6d	0.036020685
14	0xba18d1f6	-0.00058296265
15	0x3d5ba473	0.053623628
16	0x3d8379ce	0.06419717
17	0x3d17b2f9	0.037035916
18	0xbd8c2c5d	-0.06844399
19	0xbd2114a0	-0.03932631
20	0x3cd2e409	0.025743501
21	0x3c87cb0f	0.016576318
22	0xbd7e3bb0	-0.06206864
23	0xbda70e28	-0.08156997
24	0x3d4f511a	0.050614454
25	0xbd1df37d	-0.038562287
26	0x3d8d40d0	0.06897128
27	0xbd907105	-0.07052807
28	0x3d733661	0.05937803
29	0x3da3bd15	0.07995049
30	0x3c5b3a89	0.013380655
31	0x3d1eba58	0.03875193

conv4.weight f4 [32, 32, 3, 3]
0	0x3d13ee3e	0.036115877
1	0x3d33dbb1	0.043910686
2	0x3d600a14	0.05469711
3	0xbb91c6b2	-0.004448735
4	0xbcda4a8f	-0.02664688
5	0x3d1a2284	0.037630573
6	0x3cd3ebb5	0.02586923
7	0xbc6a9447	-0.014317579
8	0x3c847c7a	0.016172636
9	0x3d06634d	0.032809544
10	0xbcd1f22f	-0.025628177
11	0xbd2a1536	-0.041524135
12	0x3c591683	0.013249996
13	0xbcef4c7e	-0.029211279
14	0x3b4163c9	0.002950894
15	0xbcabd99d	-0.02097779
16	0xbc00915a	-0.0078471545
17	0x3d30731e	0.043078534
18	0x3c8e7137	0.01738797
19	0xbb91e3b6	-0.004452194
20	0xbd38c871	-0.04511303
21	0x3d44613c	0.047944292
22	0x3c6adc7f	0.014334797
23	0x3d569201	0.052385334
24	0x3d32340b	0.043506663
25	0x3d941752	0.072310105
26	0xbc872ff4	-0.016502358
27	0x3d18e49a	0.037327386
28	0xbc509f52	-0.012733297
29	0x3d065049	0.03279141
30	0xbbee8e3d	-0.0072801397
31	0x3d6b2885	0.05741169
32	0x3d5170a4	0.051132813
33	0x3d1dcf3a	0.038527705
34	0x3c048143	0.008087459
35	0xbd059e9e	-0.032621972
36	0xbc12bd88	-0.008956321
37	0x3d29781d	0.041374315
38	0x3d421677	0.047384705
39	0x3cafbc9a	0.021452237
40	0xbcb42357	-0.021989508
41	0x3d1a0b81	0.037608627
42	0xba35fefd	-0.0006942598
43	0xbd23ac56	-0.039959274
44	0x327140d3	1.4042786e-08
45	0x3d34c9db	0.044137817
46	0xbd558a91	-0.0521341
47	0x3d3fdd7e	0.04684209
48	0xbcd98a2b	-0.026555141
49	0x3d1f559f	0.038900014
50	0x3d54d630	0.051962078
51	0xbbcdf260	-0.006284997
52	0x3d653296	0.055956446
53	0xbd225bdf	-0.039638396
54	0xbbe46fb2	-0.006971323
55	0xbd15ca1e	-0.036569707
56	0xbcc5436c	-0.02408
57	0x3cc47174	0.02397988
58	0xbd9a1b4a	-0.07524736
59	0x3d0e12ec	0.034686014
60	0xbcebc93b	-0.028782478
61	0xbd534c78	-0.0515866
62	0xbd4e7368	-0.05040303
63	0x3cc2c904	0.023777492
64	0x3cfd18e2	0.030895654
65	0xbd001860	-0.031273246
66	0xbcbf8c3a	-0.023382295
67	0xbc1a8c16	-0.009432813
68	0x3d2d217d	0.042268265
69	0xbc47bd9e	-0.012191204
70	0xbbe05e80	-0.006847203
71	0xbd4a7682	-0.049429424
72	0x3ca069ae	0.019581642
73	0x3d1c3e4e	0.038145356
74	0x3d197d43	0.037472975
75	0xbd15601e	-0.036468618
76	0x3d0f30d2	0.034958668
77	0x3dad32b0	0.084569335
78	0x3bb103fe	0.0054020872
79	0xbd7d57aa	-0.06185118
80	0x3d3329d8	0.043741077
81	0xbbc73094	-0.006078789
82	0xba1c2144	-0.00059558847
83	0xbd3032cc	-0.043017194
84	0x3c97a7d2	0.01851264
85	0xbd33a641	-0.043859724
86	0x3c32c0f7	0.010910264
87	0x3c516dd0	0.012782529
88	0x3d2ac933	0.041695785
89	0x3c1d2edc	0.009593692
90	0xbca5ec50	-0.020254284
91	0x3cf836e7	0.030299617
92	0xbbaf9666	-0.005358505
93	0x3cfa0272	0.030518744
94	0xbcf2ede4	-0.02965445
95	0xbd07c7f4	-0.033149675
96	0xbb4fee28	-0.0031727646
97	0xbb3945d6	-0.0028270385
98	0x3d0dafc7	0.034591462
99	0xbce99374	-0.028512694
100	0xbb26a8ad	-0.0025430128
101	0x3cbcecf0	0.0230622
102	0x3cb88e68	0.022528842
103	0xbbfbd55d	-0.007685347
104	0x3d2e7d9c	0.04260026
105	0xbd44a4b0	-0.04800862
106	0xbb82dee1	-0.0039938544
107	0x3b1afecd	0.0023650408
108	0x3a932cc3	0.001122855
109	0xbc1be70e	-0.009515537
110	0x3d31a113	0.043366503
111	0xbcb19291	-0.021676334
112	0x3d16f403	0.0368538
113	0x3d82c374	0.06384936
114	0xbcc50cef	-0.024054019
115	0x3ce3b876	0.027797919
116	0x3cc568ee	0.024097886
117	0x3d979754	0.074019104
118	0xbc72f08b	-0.014827858
119	0xbd38bdfc	-0.04510306
120	0x3d73103b	0.05934165
121	0xbd1cc4df	-0.03827369
122	0x3d38e73c	0.045142397
123	0x3d461d17	0.048367586
124	0x3cf22500	0.029558659
125	0x3ca61ef1	0.020278426
126	0xbd4bb0b9	-0.049729083
127	0xbd82919c	-0.06375429
128	0xbd032fdb	-0.03202806
129	0x3c1fee00	0.009761333
130	0x3ccdf8a6	0.025142979
131	0xbd73a194	-0.059480265
132	0xbd1937fa	-0.0374069
133	0x3d272348	0.04080513
134	0x3d745d85	0.0596595
135	0x3cad4127	0.021149231
136	0x3d0ace28	0.033888012
137	0x3b14a338	0.0022680294
138	0x3d1a886a	0.03772775
139	0xbd1a05bb	-0.03760312
140	0x3d1782be	0.03698992
141	0x3d5e76a5	0.054312367
142	0x3c5fe10e	0.013664497
143	0xbc09b7cf	-0.00840564
144	0x3cd065d7	0.025439186
145	0x3c1db296	0.009625098
146	0xbb46e866	-0.0030350923
147	0x3cd37f00	0.025817394
148	0x3d7d2fff	0.06181335
149	0xbc0075ce	-0.007840587
150	0x3c0c4a39	0.008562618
151	0x3d8de6a6	0.06928758
152	0x3b3dadfe	0.0028942819
153	0xbcc66433	-0.0242177
154	0x3d1a5704	0.03768064
155	0x3d60bb66	0.054866217
156	0xbd94e471	-0.07270134
157	0xbd03f158	-0.032212585
158	0xbbb732c1	-0.005590767
159	0xbcf45454	-0.029825367
160	0x3ce0891f	0.027409134
161	0xbd5725f4	-0.05252643
162	0xbd4c5bf3	-0.049892377
163	0xbcae9390	-0.021310598
164	0xbc26b05c	-0.010173883
165	0xbb33f1a9	-0.0027457273
166	0xbcad8334	-0.021180727
167	0x3d32c1a8	0.043641716
168	0xbd49f0b1	-0.049301807
169	0x3d2ecef2	0.042677827
170	0x3d2a3533	0.04155464
171	0xbd0b4cab	-0.034008663
172	0xbd453ed8	-0.048155636
173	0xbd41ddef	-0.047330793
174	0x3c1673f0	0.009182915
175	0x3d863280	0.06552601
176	0xbca9d6ae	-0.02073225
177	0x3d69b4ed	0.05705731
178	0xbc573a08	-0.013136394
179	0x3d061668	0.032736212
180	0x3ce345bd	0.027743215
181	0xbb2cb53b	-0.002635314
182	0xbc0fb929	-0.008772173
183	0xbb030fbf	-0.00199984
184	0x3bd5e86d	0.0065279515
185	0x3cc0005b	0.02343767
186	0xbc32aab6	-0.0109049585
187	0x3d0f3a32	0.03496761
188	0x3c56777b	0.01309001
189	0xbd157898	-0.03649196
190	0xbcc83590	-0.024439603
191	0x3b558df1	0.0032585824
192	0x3d1b7ddb	0.037961822
193	0x3c391335	0.011296083
194	0xbd1f7eb3	-0.03893919
195	0x3c8befdb	0.017082145
196	0x3cad8814	0.021183051
197	0xbccbe42a	-0.02488907
198	0x3cf2ff2a	0.029662687
199	0x3da57956	0.080797836
200	0xbc8d7ef8	-0.017272457
201	0x3d590db6	0.05299159
202	0x3d7b0df2	0.061292596
203	0x3c874c36	0.016515832
204	0xbba1b998	-0.0049354546
205	0xbd1de28e	-0.038546138
206	0xbc8f8850	-0.017521054
207	0xbc39023d	-0.011292038
208	0x3c8e5788	0.017375723
209	0x3ce4b484	0.027918108
210	0xbd6d87a8	-0.0579907
211	0xbc269694	-0.010167737
212	0xbd4767f3	-0.048683118
213	0x3caef4ce	0.021356966
214	0xbd0b96b7	-0.03407928
215	0x3d954552	0.072886124
216	0xbd303268	-0.04301682
217	0x3c8f2d38	0.017477617
218	0xbbce7fc9	-0.0063018543
219	0xbcbd4fc4	-0.023109324
220	0xbd0a29eb	-0.033731382
221	0xbd21fd31	-0.039548103
222	0x3d625cc9	0.055264268
223	0x3d30c39b	0.043155294
224	0xbc448a41	-0.011995853
225	0x3c88994f	0.016674666
226	0xbcd0e244	-0.025498517
227	0x3ca41657	0.020030184
228	0x3d01f474	0.03172727
229	0x3c3ed3dd	0.011647192
230	0xbd1f6743	-0.038916837
231	0xbcb9d3b5	-0.022683958
232	0x3ca5eef9	0.020255553
233	0xbcef23e9	-0.029191928
234	0x3d639622	0.0555631
235	0x3d2bd62a	0.04195229
236	0x3cd40868	0.025882915
237	0x3ccbf747	0.024898184
238	0x3d196195	0.037446577
239	0x3cb2b4ee	0.02181479
240	0x3b706eee	0.0036687213
241	0x3c4ac4ff	0.012376069
242	0xbbb224c9	-0.005436514
243	0x3b81f5d3	0.003966072
244	0xbb495a24	-0.0030723894
245	0xbd0e7d9d	-0.034787763
246	0x3d1a3f0f	0.037657794
247	0x3d3f0c6b	0.046642702
248	0xbd56e2f1	-0.052462522
249	0x3cf2ce03	0.02963925
250	0x3d09e418	0.033664793
251	0x3d200b38	0.0390732
252	0xbb263a5d	-0.0025364377
253	0x3c0eb7d8	0.008710824
254	0xbd8612d1	-0.06546558
255	0xbb239975	-0.0024963294

conv4.bias f4 [32]
0	0x3cce7cc1	0.025205972
1	0xbc737fa8	-0.014861979
2	0x3c5d4fb9	0.013507777
3	0xbd0c08db	-0.034188133
4	0xbd491e27	-0.04910102
5	0xbd388872	-0.045052
6	0xbc5e37b4	-0.013563085
7	0x3d68f8e1	0.056877974
8	0x3aca31a9	0.0015426177
9	0xbc99adc7	-0.018759621
10	0x3d41bd4f	0.04729968
11	0xbcdc746a	-0.02691098
12	0xbd5a86b1	-0.053351108
13	0x3d4097e1	0.047019843
14	0x3d499e8c	0.049223468
15	0xbd71fc5b	-0.059078556
16	0xbd6133f6	-0.054981194
17	0xbd6c6b5f	-0.057719585
18	0xbd0d94f2	-0.034565873
19	0xbd29fc94	-0.041500643
20	0x3d658979	0.056039307
21	0x3d563616	0.052297674
22	0x3d3a892d	0.045540977
23	0x3d3181af	0.043336567
24	0x3d005c5f	0.031338092
25	0xbd2b4cc8	-0.04182127
26	0x3d133874	0.03594251
27	0xbd53f24d	-0.051744748
28	0xbc4d7341	-0.012539686
29	0x3c27f33b	0.010250862
30	0xbc9ad1fa	-0.018898953
31	0xbd31533f	-0.04329228

bn21.weight f4 [32]
0	0x3f83fb0b	1.0310987
1	0x3f801563	1.0006527
2	0x3f7d81cd	0.99026185
3	0x3f80c272	1.005934
4	0x3f7e6031	0.99365526
5	0x3f82aaad	1.0208336
6	0x3f7f69da	0.9977089
7	0x3f7d458a	0.98934233
8	0x3f788feb	0.970946
9	0x3f8331ca	1.024957
10	0x3f7c7ffb	0.9863278
11	0x3f807cc6	1.0038078
12	0x3f7bdd70	0.9838476
13	0x3f797e2e	0.9745816
14	0x3f8024f9	1.0011283
15	0x3f7e4eeb	0.9933917
16	0x3f86200d	1.0478531
17	0x3f80f40f	1.0074481
18	0x3f818af2	1.0120528
19	0x3f821085	1.0161291
20	0x3f7b0a71	0.9806281
21	0x3f7ec82f	0.99524206
22	0x3f7f0da2	0.9963018
23	0x3f8346b0	1.0255947
24	0x3f7f8d58	0.9982505
25	0x3f7cd457	0.98761505
26	0x3f7e8fe2	0.994383
27	0x3f8128db	1.0090593
28	0x3f80c2d8	1.0059462
29	0x3f7639fc	0.9618223
30	0x3f7a59bc	0.97793174
31	0x3f7ee886	0.9957355

bn21.bias f4 [32]
0	0x3cbc1389	0.022958534
1	0x3b75ad84	0.0037487457
2	0xbd0db6d4	-0.034598187
3	0x3c6d9468	0.014500715
4	0x3bab8c46	0.0052352278
5	0x3c857b4b	0.016294142
6	0x3b5bcdb9	0.0033539368
7	0x3bfc77cf	0.007704712
8	0xbd04794e	-0.032342248
9	0xbb6df71b	-0.0036310616
10	0xbc13a03f	-0.009010374
11	0x3bc12564	0.00589435
12	0xbc14f066	-0.009090519
13	0x3c84e954	0.01622454
14	0x39c3ee10	0.0003737067
15	0xbca71569	-0.020395951
16	0xbbc3971a	-0.0059689404
17	0x3c0064c6	0.007836526
18	0x3c837296	0.01604585
19	0x3c289bac	0.010291021
20	0xbc32d257	-0.010914407
21	0xbc895083	-0.016762024
22	0xbc696878	-0.014246099
23	0x3cc29a7d	0.023755306
24	0xbd32e652	-0.04367668
25	0xbc5e8e25	-0.013583695
26	0xbc4a2e81	-0.012340189
27	0x3c736f6c	0.014858108
28	0x3c997bac	0.01873573
29	0x3cf4c843	0.029880648
30	0xbcae475f	-0.021274267
31	0xbc262acc	-0.0101420395

bn21.running_mean f4 [32]
0	0xbf11e0dd	-0.5698374
1	0x3ebb120c	0.36537206
2	0x3f3a9fec	0.7290027
3	0xbd903845	-0.070419826
4	0x3e01f8a0	0.12692499
5	0xbf1b0174	-0.6054909
6	0xbdc317e7	-0.095260434
7	0x3e3df0c9	0.18548883
8	0x3f38c4e6	0.72175443
9	0xbf254aa4	-0.6456702
10	0xbd075e16	-0.03304871
11	0xbf09acf6	-0.5377954
12	0x3f2c73ae	0.67364013
13	0x3ef95633	0.48698577
14	0xbefb8c96	-0.49130696
15	0x3e9028da	0.28156167
16	0x3ddee51f	0.10883545
17	0xbefe234e	-0.4963631
18	0xbf3e87ba	-0.7442585
19	0xbe5a551c	-0.21321529
20	0x3c77f015	0.015132924
21	0x3e5c3929	0.2150618
22	0x3ddaca71	0.10683144
23	0xbf2d78f4	-0.67762685
24	0x3f106084	0.5639727
25	0xbd747e2d	-0.059690643
26	0x3f061b42	0.5238534
27	0xbefd0374	-0.49416697
28	0xbf1b0de5	-0.60568076
29	0x3efeafaf	0.4974341
30	0xbd2c567f	-0.042074677
31	0xbe620de1	-0.22075607

bn21.running_var f4 [32]
0	0x3e54882f	0.20755075
1	0x3f2f37d0	0.6844454
2	0x3f0083b0	0.5020094
3	0x3e7452d4	0.23859721
4	0x3ec0499e	0.37556165
5	0x3e0a23be	0.13490197
6	0x3e9067f5	0.28204313
7	0x3eb11687	0.345875
8	0x3f19f8e7	0.6014542
9	0x3e6f28f8	0.23355472
10	0x3e856b1f	0.2605829
11	0x3ef7099a	0.48249513
12	0x3f02087f	0.50794214
13	0x3e6ed2da	0.23322621
14	0x3f09cc1e	0.53827083
15	0x3f70d6f2	0.9407798
16	0x3dc8f90f	0.09813129
17	0x3e7ffb32	0.24998167
18	0x3f02cd41	0.5109444
19	0x3ed68409	0.4189761
20	0x3ed48058	0.4150417
21	0x3ec37e6f	0.381824
22	0x3e9f78d2	0.31146866
23	0x3e7c8ae7	0.24662362
24	0x3f5bda24	0.8587973
25	0x3ea3daa1	0.32002738
26	0x3f897612	1.0739157
27	0x3e7f8ccb	0.24956052
28	0x3d77d8db	0.060509544
29	0x3ebcf53e	0.36905855
30	0x3e0cb512	0.13740948
31	0x3f27c5af	0.65536016

bn22.weight f4 [32]
0	0x3f7b87d5	0.9825414
1	0x3f81251b	1.0089449
2	0x3f8109d7	1.0081128
3	0x3f7e92fa	0.9944302
4	0x3f7fb07e	0.9987868
5	0x3f824b6a	1.0179265
6	0x3f7fef3d	0.99974424
7	0x3f802ced	1.001371
8	0x3f7ac0e1	0.9795056
9	0x3f8183e2	1.0118372
10	0x3f81a1bd	1.0127484
11	0x3f7bb7ab	0.9832713
12	0x3f7de3ec	0.99175906
13	0x3f7fab7e	0.9987105
14	0x3f7e0736	0.99229753
15	0x3f7e2a6b	0.99283475
16	0x3f8000e2	1.000027
17	0x3f819c70	1.0125866
18	0x3f81220a	1.0088513
19	0x3f7ba5fe	0.9830016
20	0x3f800e30	1.000433
21	0x3f8047ef	1.0021952
22	0x3f821876	1.0163715
23	0x3f80a866	1.0051391
24	0x3f7bd1d2	0.98367035
25	0x3f7da77a	0.99083674
26	0x3f7b9436	0.98273027
27	0x3f7be488	0.98395586
28	0x3f809bb1	1.0047513
29	0x3f7b371e	0.9813098
30	0x3f801ef2	1.0009444
31	0x3f81e7d5	1.0148875

bn22.bias f4 [32]
0	0xbc95baab	-0.018277487
1	0xbbac057b	-0.0052496768
2	0x39a756c2	0.00031917362
3	0xbbe61aea	-0.0070222514
4	0xbbc8ee8c	-0.0061319526
5	0x3c70b68a	0.014691958
6	0xbc9bad15	-0.01900343
7	0x3c80e62a	0.01573475
8	0xbcb8dfe7	-0.022567702
9	0xbca7b28f	-0.020470886
10	0x3b8efdaf	0.0043637375
11	0x3c14fdc2	0.009093704
12	0xbbb28748	-0.0054482557
13	0xbd7bf36e	-0.06151145
14	0xbc9294a3	-0.017893141
15	0xbcb55f5a	-0.022140194
16	0x3bbe8597	0.005814265
17	0xba89da40	-0.0010517314
18	0x3c1e6954	0.009668667
19	0xbc4ad021	-0.012378723
20	0xbcb56997	-0.022145076
21	0xbce60325	-0.028077671
22	0xba930ec1	-0.0011219607
23	0xbb502ab2	-0.003176373
24	0xbbd4a8d2	-0.0064898515
25	0xbc98a950	-0.018635422
26	0xbca4f01d	-0.020134026
27	0xbcb882f8	-0.022523388
28	0x3c925073	0.017860627
29	0xbc145769	-0.009054043
30	0xbd0dea1c	-0.034647092
31	0x3c2921bf	0.010322987

bn22.running_mean f4 [32]
0	0x3f0e02a5	0.55472785
1	0xbe62a0d5	-0.22131665
2	0xbeaf3ae4	-0.34224617
3	0xbe285e11	-0.16442133
4	0x3dbfacc3	0.093591236
5	0x3ddfea7c	0.10933396
6	0x3f14c3ce	0.58111274
7	0x3e809565	0.2511398
8	0xbeb578e0	-0.35443783
9	0xbefa63d6	-0.48904294
10	0x3e79befa	0.24389258
11	0xbe0a1a68	-0.13486636
12	0x3e64877f	0.22317313
13	0x3f5db18b	0.86599034
14	0x3eb87e8b	0.36034045
15	0xbe0291a7	-0.12750874
16	0xbef24cf1	-0.47324327
17	0xbe588d21	-0.21147586
18	0xbf352853	-0.70764655
19	0x3e215a09	0.15757002
20	0x3e1b06b0	0.1513927
21	0xbd0c97b8	-0.034324378
22	0x3e3d848b	0.18507592
23	0xbe3931f3	-0.1808546
24	0xbcd21ac7	-0.025647534
25	0xb96b5c4a	-0.00022445727
26	0x3dec3da6	0.11535196
27	0x3ea15143	0.3150731
28	0xbd174cb3	-0.03693838
29	0xbe886a94	-0.26643813
30	0x3eb83869	0.35980538
31	0xbe953500	-0.29141998

bn22.running_var f4 [32]
0	0x3f8cb302	1.0992129
1	0x3db2647a	0.08710571
2	0x3e9d1ae1	0.3068457
3	0x3db85951	0.09001411
4	0x3e08920d	0.13336964
5	0x3d57d562	0.052693732
6	0x3eb94e2f	0.36192462
7	0x3e83fb93	0.25777873
8	0x3eff745e	0.4989347
9	0x3ddbdc1b	0.10735341
10	0x3dfe411a	0.12414761
11	0x3e41f23c	0.18940061
12	0x3e18b0d1	0.149112
13	0x3f0374f4	0.5135033
14	0x3e31ad42	0.17351249
15	0x3e187cf6	0.14891419
16	0x3df7904c	0.12088069
17	0x3d8ca77e	0.06867884
18	0x3e540ab6	0.20707211
19	0x3dbc9b2c	0.09209284
20	0x3f2db473	0.6785347
21	0x3e8157c0	0.2526226
22	0x3dd613ce	0.10452996
23	0x3dd2e382	0.102973
24	0x3eab3617	0.33439705
25	0x3e93e338	0.28884292
26	0x3eb420b6	0.35181206
27	0x3e8ada89	0.27119854
28	0x3e242cd6	0.16032729
29	0x3e2063b3	0.15663032
30	0x3eb1143d	0.34585753
31	0x3e1ff1f6	0.15619645

conv5.weight f4 [64, 32, 3, 3]
0	0xbd5e5a9f	-0.05428564
1	0x3d1c28ed	0.038124967
2	0x3cd9a203	0.026566511
3	0x3cae145d	0.021249944
4	0xbce828a7	-0.028339697
5	0xbc9bbc75	-0.019010762
6	0xbceed17d	-0.029152626
7	0x3ce909ad	0.028446997
8	0xbd22618f	-0.03964382
9	0x3d1dfa91	0.038569037
10	0xbd258de2	-0.040418513
11	0x3c608c2c	0.013705295
12	0x3d71f8f0	0.059075296
13	0xbcdd08d8	-0.026981756
14	0x3b9bc5c4	0.0047538
15	0x3c85be1d	0.016326005
16	0xbcfb5425	-0.030679772
17	0x3d2211b2	0.039567657
18	0x3b6f668b	0.0036529626
19	0x3ccdbe97	0.025115294
20	0x3d3ffda9	0.04687277
21	0xbca7b9f7	-0.020474417
22	0x3c1e7e89	0.009673723
23	0x3cf3a67b	0.02974247
24	0x3d792e77	0.060835328
25	0xbcd925ef	-0.026507346
26	0x3c7d8fd3	0.015476185
27	0x3b41c383	0.0029565997
28	0xbc794ad9	-0.015215599
29	0xbd2e9cab	-0.04262988
30	0xbcf690c4	-0.030098327
31	0xbd1f2fc4	-0.038863912
32	0x3d73bea7	0.059507992
33	0x3c4760cc	0.012169074
34	0xbcb81775	-0.022472123
35	0x3c57de44	0.013175551
36	0xbc40f5f1	-0.011777387
37	0x3cde3a76	0.027127486
38	0x3c8ad9ce	0.01694956
39	0x3d6a83a0	0.057254434
40	0x3c7ce6e4	0.015435908
41	0x3d1bcf4d	0.038039494
42	0xbd32a477	-0.043613877
43	0x3c234fca	0.009967754
44	0x3c331ca0	0.010932118
45	0x3c0e63c9	0.008690783
46	0x3c7fa54c	0.015603375
47	0xbd822733	-0.06355133
48	0x3c047eab	0.008086841
49	0x3d06aac8	0.032877713
50	0x3cb47591	0.022028716
51	0x3aa3ceb2	0.0012497513
52	0xbcfe98a3	-0.031078642
53	0xbd2e5374	-0.042560056
54	0x3b56b98e	0.0032764408
55	0x3d35e96e	0.04441207
56	0xbd38a7cc	-0.0450819
57	0xbd27bab6	-0.040949546
58	0x3d64a6bd	0.055823077
59	0x3d547965	0.051873583
60	0xbcaaa6e0	-0.020831525
61	0xbd6a1674	-0.05715032
62	0xbd023d29	-0.031796608
63	0x3d10ef3b	0.035384398
64	0xbc7d48ca	-0.015459249
65	0x3d057ddf	0.032590743
66	0xbc6b2652	-0.014352398
67	0x3ce48600	0.027895927
68	0x3c92df43	0.017928725
69	0x3bba0c16	0.0056777103
70	0xbcd84b06	-0.026402961
71	0x3d3906a4	0.04517235
72	0xbd245e00	-0.040128708
73	0xbc10d953	-0.008840877
74	0x3d360ccf	0.04444581
75	0x3d18c3c5	0.037296075
76	0x3d21fd4e	0.03954821
77	0x3d43ecc4	0.04783322
78	0xbd2a50b5	-0.041580874
79	0x3c52b3b6	0.012860229
80	0xbce78ec2	-0.028266314
81	0x3d0cd55c	0.034383163
82	0xbc91a24a	-0.01777758
83	0xbba46ec4	-0.005018087
84	0xbd269b5d	-0.04067551
85	0xbd5b037c	-0.05347012
86	0xbd8db077	-0.069184236
87	0xbc4d476d	-0.012529236
88	0x3ccf3b06	0.0252967
89	0xbd64d148	-0.05586365
90	0x3c91a761	0.017780008
91	0x3bd5f4d2	0.006529429
92	0xbc49cc3a	-0.012316758
93	0xbd70a176	-0.05874773
94	0xbd39b808	-0.04534152
95	0x3ca20773	0.019778943
96	0xbb714ac7	-0.0036818252
97	0xbcc782f7	-0.024354441
98	0x3ca29e8e	0.019850995
99	0x3d4f7109	0.050644908
100	0xbd0fa1ee	-0.035066538
101	0x3cb06afa	0.021535385
102	0xba4fc669	-0.0007925989
103	0x3cd9e156	0.026596706
104	0xbc347237	-0.011013559
105	0x3c6a968d	0.014318121
106	0xbd564d9a	-0.0523201
107	0xbca29e7f	-0.019850967
108	0xbca5414b	-0.020172736
109	0xba89bea1	-0.0010509082
110	0xbc1e3800	-0.009656906
111	0x3aa5a41d	0.001263741
112	0x3d49b6dc	0.049246654
113	0x3d70fb66	0.058833502
114	0xbd39c36c	-0.045352384
115	0xbca070c2	-0.019585017
116	0x3bad0544	0.0052801687
117	0x3d6e0244	0.05810763
118	0x3b8ac5d5	0.004235009
119	0xbd0597a9	-0.032615338
120	0xbd18400a	-0.037170447
121	0xbd40c6b1	-0.047064487
122	0x3d303c2b	0.04302613
123	0x3ca72361	0.020402612
124	0xbc87d31c	-0.016580157
125	0xbc29348f	-0.010327472
126	0x3d5a40bd	0.053284395
127	0xbca12c2a	-0.01967438
128	0x3d3d13d3	0.046161484
129	0xbcba4a01	-0.022740366
130	0xb9c19c01	-0.0003692806
131	0x3d1d92a4	0.038469926
132	0x3d43fd91	0.04784924
133	0xbbcd2c89	-0.0062614125
134	0xbd181971	-0.037133638
135	0x3c8b39f7	0.016995413
136	0x3d731e80	0.05935526
137	0xbd185c9e	-0.0371977
138	0xbd5f29a2	-0.054483064
139	0xbd2a3029	-0.041549835
140	0x3ce657c5	0.028118024
141	0xbd9cdfbe	-0.07659863
142	0x3bd42282	0.00647384
143	0xbd0bb6b2	-0.03410978
144	0x3d13877c	0.03601788
145	0xbd5a914b	-0.05336122
146	0xbc01f27a	-0.007931346
147	0x3cb0eb72	0.021596644
148	0x3caf57ed	0.021404231
149	0xbcbc77b2	-0.023006294
150	0x3d09b7b3	0.033622455
151	0x3cf0dee5	0.02940316
152	0xbcd091d9	-0.02546017
153	0xbcfdd270	-0.030984133
154	0x3d7d96b6	0.061911307
155	0x3d635c36	0.05550786
156	0xbbe8c63f	-0.007103711
157	0xbc132747	-0.008981532
158	0xbcc300a2	-0.023804013
159	0xbc9a8175	-0.018860558
160	0xbd3052bc	-0.04304765
161	0xbcc814e5	-0.024424026
162	0x3d16e554	0.036839798
163	0x3cd7584b	0.026287219
164	0x3d2049a5	0.039132733
165	0x3d787836	0.060661517
166	0x3b4ea5e2	0.003153198
167	0xbd1962b3	-0.037447643
168	0x3caadb34	0.020856477
169	0x3cb34bb5	0.021886686
170	0xbd4e2968	-0.050332457
171	0xbc4fad38	-0.012675576
172	0x3c082f75	0.008312096
173	0x3d397632	0.045278735
174	0x3ce50da6	0.02796061
175	0xbd499a16	-0.049219213
176	0x3d0923df	0.033481475
177	0xbc891f06	-0.016738426
178	0x3cd7b17c	0.026329748
179	0xbc6e6991	-0.014551536
180	0xbd6908c2	-0.056893118
181	0xbcfde029	-0.030990677
182	0x3d51c49f	0.051212903
183	0x3b4a8d6c	0.0030907048
184	0x3cdd014b	0.026978156
185	0x3d5f8c2b	0.054577034
186	0xbd376cda	-0.044781543
187	0xbd7f120f	-0.06227308
188	0xbc5bbfc2	-0.013412418
189	0x3d45c846	0.0482867
190	0xbd15de21	-0.03658879
191	0x3d24b8c0	0.040215254
192	0xbd249f06	-0.04019072
193	0x3d14997f	0.036279198
194	0xb9c21e74	-0.00037025253
195	0xbca6992d	-0.020336712
196	0xbcc75732	-0.02433357
197	0x3c9327d5	0.01796333
198	0xbd6edbcc	-0.058315083
199	0xbc5b810a	-0.0133974645
200	0xbcea8658	-0.028628513
201	0xbd58afc7	-0.05290201
202	0xbc503ea0	-0.012710243
203	0xbce05c94	-0.027387895
204	0x3bbf0143	0.005829008
205	0xbb8f0aa4	-0.004365282
206	0x3ced0e8c	0.0289376
207	0xbcc29645	-0.023753295
208	0xbd05acc9	-0.032635484
209	0x3cb33851	0.02187744
210	0x3c3ebf3f	0.011642276
211	0xbd32fbd9	-0.043697212
212	0x3d327480	0.043568134
213	0xbd452a98	-0.048136324
214	0xbd8a47db	-0.067519866
215	0x3cf97555	0.030451456
216	0xbd14f68e	-0.036367945
217	0xbd207239	-0.03917143
218	0xbd57487a	-0.052559353
219	0x379a8069	1.8418026e-05
220	0x3cc43526	0.023951124
221	0x3cf5bca2	0.029997174
222	0xbd19c66c	-0.037542745
223	0xbd72a192	-0.059236117
224	0x39dadf74	0.00041746686
225	0x3c7d2952	0.015451746
226	0x3c953d87	0.018217815
227	0x3cb4de62	0.022078697
228	0x3d6cb5e9	0.05779067
229	0x3d10a20f	0.0353108
230	0x3ae06516	0.001711997
231	0x3d0a244e	0.03372603
232	0x3c337705	0.010953669
233	0x3d3295c3	0.043599855
234	0xbd3b171d	-0.04567634
235	0xbcbd1333	-0.023080444
236	0x3d09e85a	0.033668853
237	0xbcea8e3c	-0.028632276
238	0x3d306249	0.043062482
239	0x38edd387	0.00011340441
240	0x3ce86047	0.028366221
241	0x3d0daaef	0.034586843
242	0x3d060e4d	0.032728482
243	0x3d51fa55	0.051264126
244	0xbd0f22e2	-0.034945376
245	0x3c9fb8ec	0.019497357
246	0x3c894ee7	0.016761256
247	0xbd2d71ff	-0.042345043
248	0xbd45e6d6	-0.048315845
249	0xbc9fb9e6	-0.019497823
250	0xbcec4003	-0.028839117
251	0x3c32a6d1	0.01090403
252	0x3bdb48cf	0.006692029
253	0x3b9e6bd9	0.004834634
254	0xb8e65444	-0.0001098295
255	0xbd36b213	-0.04460342

conv5.bias f4 [64]
0	0x3d6c0d64	0.057629958
1	0xbcc12bc6	-0.023580443
2	0x3d5f2b80	0.054484844
3	0x3cfcdb60	0.030866325
4	0x3d1c390d	0.038140345
5	0xbcb8fcb0	-0.022581428
6	0x3d61caa4	0.055124894
7	0xbc0ad115	-0.008472701
8	0xbcdcf9e4	-0.026974626
9	0x3d5980e3	0.05310143
10	0xbd058a4c	-0.032602593
11	0xbcdba9dd	-0.026814396
12	0x3d5b3da0	0.053525567
13	0xbd24d279	-0.040239785
14	0xbcd7ff48	-0.026366845
15	0xbb46d7ff	-0.0030341146
16	0x3c1867cf	0.009302094
17	0xbc0d3420	-0.008618385
18	0xbd641b78	-0.05569026
19	0x3c05a5ee	0.0081572365
20	0xbb99ef4c	-0.004697716
21	0xbcd55703	-0.026042467
22	0x3cf49665	0.02985687
23	0xbd0f979e	-0.035056703
24	0x3d3f139e	0.046649568
25	0x3d56363e	0.052297823
26	0xbd425b3b	-0.047450285
27	0x3d64696e	0.055764608
28	0xbced09e1	-0.028935375
29	0x3d419686	0.04726269
30	0xbc63340d	-0.01386739
31	0xbc05af34	-0.008159447
32	0x3d5905f0	0.052984178
33	0xbd6a3392	-0.057178088
34	0x3d414e36	0.04719373
35	0xbce77115	-0.028252164
36	0xbd426a73	-0.0474648
37	0xbc982045	-0.018570075
38	0x3d2f33db	0.042774063
39	0x3d031937	0.03200647
40	0xbc41f193	-0.011837381
41	0x3d095b27	0.033534195
42	0x3d6ffb00	0.05858898
43	0x3cc6b4f8	0.024256214
44	0xbc09799b	-0.008390809
45	0xbc695e16	-0.014243623
46	0xbc0ec4e4	-0.008713935
47	0x3d4d6f04	0.0501547
48	0x3caaa6ca	0.020831484
49	0x3ca1a546	0.019732129
50	0x3d2f0f95	0.04273947
51	0x3d01cd51	0.031689946
52	0xbc924d21	-0.017859044
53	0x3c654232	0.013992833
54	0xbd71d853	-0.059044193
55	0x3d3a46f8	0.045477837
56	0x3d481977	0.04885241
57	0xbd1a08b4	-0.037605956
58	0x3cf12c0c	0.029439948
59	0x3d34749d	0.044056524
60	0xbd4910cc	-0.049088284
61	0xbd31ad78	-0.043378323
62	0xbbe2f5f0	-0.0069262907
63	0xbd54b4fa	-0.051930405
