checkpoints/33_best_model2.pth (torch, 309473 bytes, 37 tensors)

conv1.weight f4 [16, 4, 3, 3]
00000000: 715a dabd ca25 893d 9149 a5bd 4334 1a3e
00000010: 3f8d b6bd db2c 0fba 64d7 353d db7a 0ebe
00000020: 541c f4bc 9ab8 c23d 29d4 dfbd a2d3 2e3d
00000030: b33a 8b3d 983e 9f3d 6315 203d 2bff 8dbd
00000040: b47d 713d f9dc 77bc e529 d6bd 8b3c 433d
00000050: ec30 2fbe 629b ba3d 6a0a 753d 2a56 74bc
00000060: fbf8 833d ea30 cebd 2a66 2abd 1df4 07be
00000070: ebb9 08be a696 9d3d 96ca 2a3d 6128 4fbe
00000080: cf75 d6bd 713f 14bd afaa 68be c128 85bc
00000090: b335 8f3d 470f fe3d 0d99 1ebd f6a6 3e3d
000000a0: 9e1f df3d d2f1 fc3d 1197 96bd 3642 04be
000000b0: b58d 0bbe 9ae1 173d 7e41 f53c 47ca eabd
000000c0: 6dee bb3d 6f01 093e 8f9a 103e 5ba8 9ebd
000000d0: 3a7d 18be 7864 afbd 2961 c5bd 758b af3d
000000e0: 23b8 9a3d b835 c83d bed4 0a3d 9679 5ebd
000000f0: 454d 663d 448e f03c 3372 c5bc c761 bdbd
00000100: 4d7c 9dbc c760 ce3d cf96 a23d 21dd b33b
00000110: 8fda 8fbd c530 29bd 872c 06bd c92a 643d
00000120: 6736 19be 7917 e7bd 6ba7 da3d a3e2 5dbd
00000130: 6414 e03d 46c8 ff3d 82fd c13d 7f05 3bbd
00000140: fb15 cabd 456c c73c c1b5 12be 58af d53d
00000150: 5151 c93d 6b3b c4bc 6fe8 ac3d 00b2 d7bd
00000160: 9fe9 91bd 3284 8f3d 1f80 073e 2b03 de3d
00000170: cf6a b03d 70bf 92bd c8b1 d7bd 18ec 653d
00000180: 0c00 cebd f256 f03c 3fa3 9dbd bbf2 263e
00000190: 8c30 313e 8c3a acbd 3416 b03c 2e61 0fbe
000001a0: abb5 7c3d bf33 ffbd 45fb 48bd 64e1 bebd
000001b0: 5700 013e c978 483d 64f4 dcbc aa15 103e
000001c0: 00ef 4c3d 8ceb 293e 20ef dc3c c347 0f3e
000001d0: 1d01 8dbd 6cb2 ccbd 12ff a8bd f316 b3bd
000001e0: 13e1 29bc 5a51 b33d 0519 70bd 619d 3cbd
000001f0: dc74 09be 5008 893d 5ab9 4abd 1770 54bd
00000200: e3f2 163e fe26 a5bd 0f94 01be a375 e53d
00000210: 1a77 a33d af18 dd3b 95c8 1cbe 848a 29be
00000220: 96cd 113d 3a00 07be f26a 67bd 12b4 ffbc
00000230: 5278 b8bd a372 20be 2125 b33d dcfc 98b8
00000240: 7ee8 a4bd 3260 a53d dd48 2abd 89b2 74be
00000250: e0b6 73bc ac60 65bd 8236 07bb 0096 053d
00000260: 2c7e d53d 883b cfbd a8d9 9abd a168 fabc
00000270: 76de 60be f32b 44be d1f0 72bd 14c9 533d
00000280: 2eb3 033d bf9f 773d 1e1e 21be c126 a5bd
00000290: 6b35 82bc 1feb f8bd 4c9b 17be 0fec ca3d
000002a0: 9a2c 80bd 6b70 2cbe 3ee8 e0bc 897d d83d
000002b0: 19d4 3dbc 6f74 15bd c67a d0bd 8aa3 8cbd
000002c0: f207 6cbd d26e 963c 42eb 42bc 06ab c5bc
000002d0: f012 8d3c 7792 fe3c 28b2 a83c a4b6 a2bc
000002e0: 7b92 353d e40b 763c 1b2d a53d a3b2 c5bc
000002f0: ee45 063a 50c1 c0bd f7ee 1ebe 0457 17be
00000300: 32a3 f2bd f3d0 0d3e a27f 0abd 9e07 1c3e
00000310: f291 eebd 6f5e c4bd 9bf9 44bd 0cf2 de3d
00000320: 68f9 cf3d 469c cdbd 2c97 fdbd 1b5d 553d
00000330: 2fc8 88bd 2ee0 603d c10f 9bbd 0735 063d
00000340: a886 063e f09b 4abc e17a 683d 30a1 12be
00000350: eda1 0abe 4d8e 2a3d fda4 bfbc ea1c f23d
00000360: cca3 ef3d 82b1 f4bd 979a 35bd db27 fcbd
00000370: c3f6 96bd 9e85 f0bd 34ac eb3a db8c a5bd
00000380: f7fe e13d 299e 8cbd a306 123e eac0 a53c
00000390: e09b dabd 4f3e 1d3e 1663 c33d e5e4 c13d
000003a0: 1ebd 78bc 739f b8bd 40a1 95bd 842d e43d
000003b0: 2c4c 913d b914 8e3d 43d8 a63c f313 8abd
000003c0: 16e4 3abe 0a00 02be 5989 18be caa0 88bd
000003d0: 966b be3d 5c97 edbd 6c26 173e 4753 f5bd
000003e0: 526a debd 3a84 1c3d edfc 3d3d 1b76 f03d
000003f0: 43ea cabd 9ef7 0bbe 294d e5bd af6c 73bd
-0.106617816 0.06696661 -0.08070672 0.15058999 -0.08913659 -0.0005461701 0.044394866 -0.13914053
-0.029798664 0.09507866 -0.10929138 0.042682298 0.06798305 0.07775611 0.039082896 -0.06933435
0.05895777 -0.015128368 -0.104572095 0.04766516 -0.17108506 0.09111668 0.059824385 -0.014913121
0.06443974 -0.10067923 -0.041601337 -0.13276716 -0.13352172 0.076947495 0.041697107 -0.20230247
-0.10471689 -0.036193315 -0.2272136 -0.016254785 0.06992664 0.12405258 -0.03872018 0.046545945
0.108947024 0.12350811 -0.073530324 -0.12915882 -0.13628276 0.037080385 0.029938456 -0.114643626
0.091763355 0.13379453 0.1412146 -0.07746955 -0.1489152 -0.08564085 -0.096376725 0.08571521
0.075546525 0.09775871 0.033894293 -0.054315172 0.056226034 0.029364713 -0.024102306 -0.09247165
-0.01922431 0.100770526 0.07938921 0.005489007 -0.070241086 -0.041306276 -0.03275731 0.055704866
-0.14962159 -0.11283774 0.10676464 -0.054171216 0.10941389 0.12489371 0.09472181 -0.04565954
-0.09867474 0.02434362 -0.14327146 0.10433835 0.09829963 -0.023954114 0.08442771 -0.10531998
-0.07124638 0.07007636 0.13232468 0.10840448 0.08614122 -0.0716542 -0.10531956 0.05613336
-0.10058603 0.029338334 -0.07697152 0.16303532 0.17303675 -0.084096044 0.021494962 -0.14001915
0.06169669 -0.12461042 -0.049067754 -0.093203336 0.12597786 0.048943315 -0.026972003 0.14070764
0.050032616 0.1659376 0.026969492 0.13992219 -0.06884978 -0.09994969 -0.08251776 -0.087446116
-0.010368603 0.08755751 -0.05861761 -0.046048526 -0.13423485 0.066910386 -0.04949317 -0.05186471
0.14741091 -0.08064078 -0.12654136 0.11204078 0.07981701 0.0067473273 -0.15310891 -0.16556746
0.035596453 -0.1318368 -0.056498475 -0.031213794 -0.09007324 -0.1566873 0.08747316 -7.2950235e-05
-0.08052157 0.080749884 -0.041573394 -0.23896231 -0.014875144 -0.056000397 -0.0020631854 0.032613754
0.10424456 -0.101187766 -0.07561046 -0.03056747 -0.21959862 -0.1915739 -0.05931169 0.051705435
0.0321533 0.06045508 -0.15734145 -0.08064032 -0.015894612 -0.12154221 -0.14805335 0.09908306
-0.06258507 -0.16839759 -0.027454492 0.10570819 -0.011586213 -0.036487993 -0.10179667 -0.0686713
-0.057624765 0.01836339 -0.01189691 -0.024129402 0.017220944 0.0310757 0.020592764 -0.01986248
0.044329148 0.015017483 0.08065244 -0.024133032 0.00051221147 -0.094118714 -0.15520845 -0.14779288
-0.11847533 0.13849239 -0.033813126 0.1523728 -0.116489306 -0.09588324 -0.048089605 0.108860105
0.10154992 -0.100395724 -0.12382349 0.052090745 -0.06678807 0.054901294 -0.07571364 0.032765415
0.13137305 -0.01236628 0.05675781 -0.143193 -0.13538332 0.041639615 -0.023394102 0.11821921
0.11701164 -0.119479194 -0.04433688 -0.12312289 -0.07371285 -0.117442355 0.0017980398 -0.08083507
0.11034959 -0.06866104 0.14260344 0.02023359 -0.10674262 0.153558 0.095403835 0.09467486
-0.015181808 -0.090147875 -0.073061466 0.11141494 0.07094607 0.06937546 0.020366793 -0.06742086
-0.1825107 -0.12695327 -0.14896144 -0.06671293 0.09297864 -0.11601135 0.1476075 -0.119787745
-0.10860123 0.03821204 0.046383787 0.11741277 -0.09907963 -0.13668677 -0.11196358 -0.05942982

conv1.bias f4 [16]
00000000: a8f7 24be 42ec c43c 362f 8a3d da78 cbbd
00000010: 0630 cebd dbf4 163e 5051 19be df8e 213e
00000020: a052 02be be0e 963d 9155 173c 31d3 45bd
00000030: 4903 0b3e fa48 7bbd 0a73 ef3d 3645 3f3e
-0.16110098 0.024038438 0.06747286 -0.0993516 -0.100677535 0.14741842 -0.14972425 0.15777157
-0.12726831 0.073270306 0.009236709 -0.04829711 0.13575472 -0.061348893 0.11691864 0.18678746

conv2.weight f4 [16, 16, 3, 3]
00000000: df18 6b3d beb2 8e3d 1597 59bd c69b 1dbd
00000010: cb73 1bbc 835a 70bc b5e1 78bc cf48 a1bd
00000020: f255 39bd 1f88 a43d 4346 903d 892e 13bc
00000030: 860a c53d 471c 663d e5e8 9b3b 2df3 9a3c
00000040: 66f1 023a f664 c4bc 6cb6 2a3d d7dc 9d3a
00000050: fce3 d7bd a170 bebd 9088 acbd 7cb8 d9bc
00000060: 7c5e 9b3c fe4b 7bbd 14b7 2bbd 0b99 393d
00000070: 198c 0e3d b105 a9bc 19ae 423d 49ee 0ebb
00000080: 8efc 73bd d6b1 073c 1436 4abd 5c16 323c
00000090: 340a 893d 4451 c8b9 709e ac3c ca50 15bd
000000a0: 0733 993d 3eb7 db3c 4ebe 523d df60 cb3c
000000b0: 790a 093d 92c0 e6bc 0005 a6bd d28e 84bd
000000c0: 2c6e 44bd e9c3 d6bc a083 0bbd 5cc5 0e3d
000000d0: cf7d 8dbd 25cb 8abd 8ff9 2bbd bb30 9d3c
000000e0: c9f5 d9bc 8b00 81bd 4c24 b3bc a8f9 64bb
000000f0: e77f f1bc b461 9abc 5f16 253c 8567 69bd
00000100: 1730 33bd 2fe7 dbbb b0f2 8b3b 06f0 b3bc
00000110: b1e9 ab3d b835 ec3c bf1d ddbb c796 dfbc
00000120: 3da5 4abd 896c c9bb 3611 7cbc d1ee aa3d
00000130: 65ae 96bc 58ef e03c 106e a6bb 1224 4a3d
00000140: 3709 a63d 9668 b93b 6c43 e43c 68f6 d03b
00000150: 0795 0bbd e87b abbc ddbe 453d 0252 95bd
00000160: 81b5 77bd 8945 23bd 35ae 533d 401b adbd
00000170: c53a c1bc 2c61 693c 1057 54bc 382b 32bc
00000180: 54a8 4ebc 71f3 1d3d 6451 edbc 1a17 98bd
00000190: c322 6cbd 5fc4 b83d 20d2 2ebd 2da0 883d
000001a0: 3e95 2b3b 22a8 743d 716f 883d b5bf d13b
000001b0: e44c 1f3d ee58 f4bb d3ec 963d 8e5b 563d
000001c0: 1432 fa3d 20a8 043d 4eaf 9f3d aaa0 b93d
000001d0: e6fa 903d e306 793c fd4e 013d 025b 6d3d
000001e0: 68ce ad3d a366 7ebc 4f8f b1bb 9bce 8b3c
000001f0: e5a3 a13d 7599 413d 4675 883c b096 563d
00000200: 324e 84bd 3de9 f7bb 1935 403d fc73 fc3c
00000210: 3d23 f1bb 3fa4 a9bc e197 753c 65c4 40bd
00000220: 2cb1 febc 5d6f 5d3d 0fa8 aa3b f94c 8bbc
00000230: a58c 043c 22bd 45bd c89b 803d 8e22 0e3d
00000240: abf0 0abd 2fcb 493c 4419 9abd 37a0 23be
00000250: 4418 05be 3ef4 a8bd 3a80 f7bd 7fea 1fbd
00000260: 8eff f63c 6b80 61bd af96 503c 9967 b7bc
00000270: 7a4d 3bbd d1b8 9dbd 8749 353d f163 2cbd
00000280: 699d 543d c3bb 343d b1a6 7bbc eb5d 96bc
00000290: f79f 97bc 99e1 bcbc ee91 1abd 1b13 723d
000002a0: 7923 82bd 2a98 94bc fe06 843c 4e97 303d
000002b0: 926c 84bb 090b f43c a2c1 24bd c154 64bd
000002c0: fdfa bdbc 94ef 8a3b 8e27 5bbd b870 95bb
000002d0: 153e 083c 2057 6d3c f755 caba f260 97bd
000002e0: 6f8f 24be c4f9 923c 3b15 98bd 2783 d5bd
000002f0: 7557 9dbd fb3a ce3c d213 c9bd 8dfe 29bd
00000300: 46ac 83bd 5e40 45bd cf89 1d3c f815 0ebd
00000310: c020 90bc bcae 613c b8ea 2dbc 30ea 47bd
00000320: 9794 31bc e02c 88bd 1c11 933c ee32 8ebd
00000330: 2a19 9e3c 2664 2dbd 2242 2fbc b684 6d3c
00000340: 78a0 0d3c bf99 883d e373 87bd 26e2 01bd
00000350: fbc4 39bd 8dca a9bc 03a8 eebc 1d8b 53bd
00000360: 8899 dfbc 6ee1 b63c 200e fd3a 35d9 8d3c
00000370: 2f5f b1bd 7fa6 9a3c bb82 8d3d 017b 7bbc
00000380: fa82 103c 4411 2fbd 18a7 b6bd c1e6 98bd
00000390: ff45 32be da03 0ebe 611e 3fbd bf6e b6bd
000003a0: fef7 a6bd 7973 1bbc 843a 2abd 0e42 703c
000003b0: 768b 993a 0d9f bdbd 07ea d13c e139 b2bc
000003c0: bc28 77bd 894f 0dbc 0646 2a3d e211 cf3c
000003d0: 906a b4bc 8244 68bc 3777 0f3d 18ee 8c3c
000003e0: 3a23 3abd b186 bb3b 9bde 2a3d b34f 20bc
000003f0: 8695 43bd e73d 4f3d 3ad8 d43c 6763 03bd
0.057396766 0.06967686 -0.0531226 -0.038478635 -0.009488056 -0.014670017 -0.0151905315 -0.07875215
-0.04524798 0.080337755 0.07044651 -0.008983263 0.09621148 0.05617931 0.004757988 0.018914783
0.00049950776 -0.023973923 0.041677877 0.0012043965 -0.105415314 -0.09298826 -0.08424485 -0.026577227
0.018965952 -0.06135177 -0.041922644 0.04531197 0.034801576 -0.020632597 0.047529314 -0.002180951
-0.059567027 0.0082821455 -0.04936798 0.010869589 0.06691399 -0.0003820752 0.021071643 -0.036454
0.07480436 0.026820775 0.05145102 0.024826465 0.033457253 -0.028167997 -0.081064224 -0.06472553
-0.04795663 -0.026216464 -0.034061074 0.034856185 -0.06908762 -0.06777028 -0.041986044 0.019188276
-0.026606457 -0.06298932 -0.021867894 -0.0034938846 -0.029479934 -0.018845417 0.010076134 -0.05698349
-0.043747034 -0.006710909 0.004270874 -0.021965038 0.083941825 0.028834209 -0.006747931 -0.027293576
-0.04947399 -0.0061469716 -0.015384963 0.08346332 -0.018393705 0.027457878 -0.0050790384 0.049350806
0.08107226 0.0056582196 0.02786418 0.00637703 -0.03407767 -0.020933107 0.048277725 -0.072910324
-0.06047583 -0.039861236 0.05167981 -0.08452463 -0.023587594 0.014244359 -0.01296021 -0.010874562
-0.012613375 0.038562242 -0.028969474 -0.07426281 -0.05765034 0.0902183 -0.04268086 0.06671176
0.0026181485 0.059730656 0.06661881 0.006401027 0.038891688 -0.0074568903 0.073693894 0.052333407
0.12216583 0.0323869 0.077971086 0.09063847 0.07079105 0.015199396 0.03156947 0.05794812
0.084866345 -0.0155274 -0.005418695 0.01706629 0.078925885 0.04726549 0.016657483 0.0523898
-0.06460227 -0.007565646 0.046925638 0.030817024 -0.007358937 -0.020708201 0.014989824 -0.047062296
-0.031090342 0.054061282 0.0052080224 -0.017004477 0.008090173 -0.048276074 0.06279713 0.034700923
-0.033920925 0.012316509 -0.0752435 -0.15979086 -0.12997538 -0.082497105 -0.12085004 -0.039041992
0.030151155 -0.05505411 0.012731238 -0.022388266 -0.045728184 -0.077012666 0.044259574 -0.0420875
0.05190793 0.044124376 -0.015359567 -0.01835533 -0.018508894 -0.023056792 -0.037736826 0.05910025
-0.06354422 -0.018138964 0.016116615 0.043113045 -0.004041263 0.029790418 -0.040223725 -0.05574489
-0.02319097 0.0042399857 -0.05350452 -0.0045605563 0.008315583 0.014486104 -0.0015436996 -0.07391538
-0.1607034 0.017941363 -0.074259244 -0.10425406 -0.07682697 0.025174608 -0.098182335 -0.041502524
-0.06429343 -0.04815709 0.009615376 -0.03468892 -0.017593741 0.01377457 -0.010615043 -0.048807323
-0.010838649 -0.06649184 0.017952494 -0.06943308 0.019299109 -0.042331837 -0.01069692 0.014496973
0.008644216 0.0666995 -0.066139005 -0.031709813 -0.04535387 -0.020726467 -0.029132849 -0.05164634
-0.02729489 0.02232429 0.0019306578 0.017315486 -0.08660733 0.01887822 0.069097005 -0.015349151
0.00882029 -0.042741075 -0.08918589 -0.07465888 -0.17409514 -0.13868657 -0.04665983 -0.08907842
-0.081527695 -0.00948798 -0.04155971 0.014664186 0.0011714536 -0.09258852 0.025624288 -0.021756114
-0.06034158 -0.00862492 0.041570686 0.025277082 -0.02202347 -0.01417649 0.0350258 0.017203376
-0.04544375 0.0057228436 0.0417162 -0.009784627 -0.04775002 0.050596144 0.025982011 -0.03207722

conv2.bias f4 [16]
00000000: 7ccb cf3b cad0 30bd 22c7 a13d c0ad d1ba
00000010: 0bda 0b3d 1178 a13d b343 e8bb 8c64 6f3d
00000020: dbfc 953c 2e49 143d 1ecc ca3c 3068 853c
00000030: e91b 8bbd fc9f 6dbd 6b21 483d cbd8 28bd
0.006341396 -0.043167867 0.0789931 -0.0015997216 0.03414349 0.07884229 -0.0070881485 0.0584455
0.018309047 0.036202602 0.024755534 0.016285032 -0.06792433 -0.0580139 0.048859995 -0.041222375

bn11.weight f4 [16]
00000000: a24a 873f 7067 6c3f 5fc0 7c3f 6bfd 733f
00000010: 8ae3 893f 9ac1 823f a46c 7e3f 74b1 7f3f
00000020: 5426 803f 079d 883f e75d 803f fbae 7c3f
00000030: bb36 853f a817 7c3f c7bc 743f 5298 843f
1.0569651 0.92345333 0.98731035 0.9530856 1.0772564 1.0215333 0.9938452 0.99880147
1.0011697 1.0672921 1.0028657 0.987045 1.0407327 0.98473597 0.9560055 1.0358984

bn11.bias f4 [16]
00000000: 5652 18bb 2c83 493d 546a 933c f486 51bd
00000010: 1e1f 4a3b aa11 e3bc 5623 d9bc 9b19 b3bc
00000020: f6d8 733d 7e63 b6bc 28c6 87bc da2a 38bd
00000030: ef4e 473d 2630 233c 36c3 74bd 44fa 04bd
-0.0023242435 0.04919736 0.017995037 -0.051154092 0.0030841301 -0.027718384 -0.026506107 -0.021862796
0.059533082 -0.022264238 -0.01657398 -0.04496274 0.04865926 0.00996021 -0.05975648 -0.032465234

bn11.running_mean f4 [16]
00000000: a8dc 37be a791 f53c e5d8 893d d198 dbbd
00000010: 87e2 08be 04ee 0f3e d5a5 21be 0205 183e
00000020: 42a4 bebd a425 5c3d a1ba b1b9 862e 4fbd
00000030: eacb 2a3e 7b46 22bd 6d5e e33d faa9 2e3e
-0.17955267 0.029976679 0.067308225 -0.10722507 -0.13367663 0.1405564 -0.15785916 0.1484566
-0.093086734 0.053746834 -0.0003389912 -0.050581478 0.1667935 -0.039617997 0.11101995 0.17057028

bn11.running_var f4 [16]
00000000: fde2 063b 66e8 e639 3d01 b139 05f9 163a
00000010: badd cf3b e909 e339 6f0f 1d3a 6f9e 3a3a
00000020: a5ba e13b 1e51 243b 8d66 463a ccc3 133a
00000030: b6c0 b83b 46e1 473b 270a ea39 7b96 e63a
0.0020582073 0.0004404217 0.00033760993 0.00057591527 0.0063435705 0.00043304198 0.00059913745 0.00071189454
0.006888705 0.0025072764 0.0007568382 0.0005636781 0.0056382073 0.0030499264 0.00044639522 0.0017592454

bn12.weight f4 [16]
00000000: a690 813f d09a 803f 9c7d 743f 2d07 823f
00000010: e2bb 7f3f fec9 7e3f 5bec 7d3f e222 7b3f
00000020: 6834 763f 7de3 7b3f 5dd6 863f 52f9 823f
00000030: 3227 813f 9e42 6c3f a297 7b3f ee38 813f
1.0122268 1.0047245 0.95504165 1.015844 0.9989606 0.99526966 0.99188775 0.981001
0.96173716 0.98393995 1.0534168 1.0232337 1.0090086 0.9228915 0.9827825 1.0095499

bn12.bias f4 [16]
00000000: 2eee 273c 9698 143d fb03 033d 621e 11bd
00000010: 995d 133c 28a1 a63c 24a1 9cbc ced1 cb3a
00000020: 73b7 323c a3bc f7bb afff 3cbd 6c46 183a
00000030: 5d0e 003b 3298 debb 2e7c b03d b2c9 dfbb
0.010249658 0.03627833 0.031986218 -0.035429366 0.008994483 0.020340517 -0.019119807 0.0015550198
0.0109079955 -0.007560329 -0.046142276 0.00058088335 0.0019539811 -0.0067930454 0.086174354 -0.006829464

bn12.running_mean f4 [16]
00000000: 97d9 633e 2e1b 77bf edaf 073e 9a9c 4c3f
00000010: f0a5 743e 3d7d 0a3e 91fd c3bd c5e9 3c3e
00000020: a8ef f3bd 8f0a d0bd 87a1 883f 7b9e 40be
00000030: 85d3 0cbf b945 bbbc 9f5f b83e 6f81 9f3d
0.22250973 -0.9652585 0.13250704 0.79926455 0.23891425 0.13524337 -0.09569848 0.18448551
-0.11910945 -0.10158264 1.0674294 -0.18810456 -0.55010253 -0.022860395 0.36010453 0.077883594

bn12.running_var f4 [16]
00000000: a94d 803f 686b 873e 3ae8 ab3d edb6 183e
00000010: 6df9 ea3e 33c8 953e f02f a33e 9474 2a3e
00000020: 9745 c83e fc3a 1a3e cf95 1e3e bd4c b43e
00000030: 3538 c23e cca9 003e 7243 483e 0b49 163f
1.00237 0.26449132 0.08393903 0.1491353 0.45893422 0.29254302 0.3187251 0.16646034
0.39115593 0.15061563 0.15486835 0.35214797 0.37933508 0.12564772 0.19556978 0.58705205

conv3.weight f4 [32, 16, 3, 3]
00000000: 8c9e c13c 114e 32bc cf9c 92bc cebc 91bd
00000010: e0d1 1fbd 2dc2 973c 9378 a23c 4c38 843d
00000020: 26c4 c23b ae8a 2b3d 6e28 3b3c 0ebd bf3c
00000030: 505c 333d 57ce 1fbc c2b7 893d 0804 42bc
00000040: 13c7 5a3d f052 123c 54a5 863d 4bea 563d
00000050: 005a c9bb 0615 c93b 81ae 3abc 9c28 dd3c
00000060: 82ba 17bc 2634 633b 6f79 d13b ba98 69bc
00000070: 3cb5 4f3c 0543 4c3d 3ea3 86bd 92de 43bd
00000080: c8c7 023d 6f77 8abb d8ba 0dbd f030 a2bd
00000090: 1bb4 893d 9545 44ba 1962 9d3d 6c8e 32bd
000000a0: c154 b93a 89c4 8cbd 9e2a 12bd 99cd 13bd
000000b0: a0d3 673c ad05 81bd 0f97 bebd b6a0 5ebc
000000c0: 4774 323c a975 1d3d fa4a 173d c1c6 eb3c
000000d0: dac6 88bd b5dc 9fbd ba4c 813d 9327 eaba
000000e0: 53f6 493d 3e61 6c3d fdeb 543d de3c 61bd
000000f0: b38d b23c daa3 a73d edc8 82bd 22a9 b43d
00000100: 330f 0f3c c937 65bd f0b7 e23c 6f90 113d
00000110: 86eb 8a3c dccb e93c 830a 103d ecb0 213c
00000120: fee0 be3d b8e1 49bc 4b80 8abc 3088 ce3c
00000130: 31f6 b2bc 02e8 7abc 78cf 75bd 92b5 123d
00000140: 691b 1dbd ab2a 7abc 568a 47bd 3574 bf3c
00000150: f181 9a3d a689 973c b77a 2dbd 1912 24bd
00000160: 04c7 29bc 4ae0 80bd 8ab8 7a3d 1854 143d
00000170: 2876 d13a c891 a93a ae87 03bc 5bbc 4ebc
00000180: c884 45bd aaaf cf3c dbb3 0a3d 6cc2 143c
00000190: b408 dc3d c5d6 ee3d 6f05 473d 98d9 e13c
000001a0: 2686 95ba dc4c 833d ec06 1abc 18d4 a1bc
000001b0: 7f6f 493d 312d 303d 63aa f33c b9f1 1b3d
000001c0: 3db3 19bd 95a4 6e3c e196 8bbc a7c0 9abc
000001d0: 3020 423c 08ff 12bc 4d46 44bd 4fbd 10bd
000001e0: 6c32 c93b 5249 5bbc 5a61 03bc 12b3 9ebd
000001f0: ee16 83bc 7b12 eabc 881f 253d 6d4e d5bb
00000200: 3cfb 79bd 7e02 0e3d 2b7f 16bd af1d 2abd
00000210: 99ca 96bc 0254 913d 7a18 86bd 444a c03d
00000220: ed89 b5bc 8a77 483d dded a1bc 6143 33bd
00000230: 3146 15bd bdca 883d 6142 a53d 1227 023c
00000240: 38d1 1ebd 8af0 90bd 1c84 9abc 3681 f93c
00000250: 916d 5cbd 383c 2cbc ae77 013d 6528 75bc
00000260: 17f9 02bd 53fa d63c 3980 3fbd 510b 2e3d
00000270: c3ae 9f3d 72e7 a1bc bee6 01bd 32e3 7dbd
00000280: 076e 883d fb33 023d 284b c9bc bdbd dcba
00000290: 45da ecbc f9b4 003d 01c0 453d f15a f0bc
000002a0: d2b4 d23c af1f 453d ff56 aabc 6272 b03c
000002b0: 9feb 22bc a868 b43c d0a2 873c 9806 523d
000002c0: 7e98 543d 2193 833d 99f0 6c3c 588c 223c
000002d0: 2ae6 fd3c 50cd 08bd 94f4 16bd cc04 bf3c
000002e0: ee49 8fbb 5fb9 f5bc 7443 023c a307 0dbc
000002f0: 92e5 9cbd 65ef 983d ec3c 263d d1fe 26bd
00000300: 1022 a13c a06a 44bd fdbc 24bc a41c 4f3d
00000310: d3c8 74bd f7f3 a4bc c54e 9f3c 933c 3fbd
00000320: 2b7a 3c3d 5a94 bebd 4bc9 343d 672c 88bd
00000330: 0a52 913b 2e5e 89ba 3c49 4fbd edad 533c
00000340: 5278 83bd 0f55 b9bc 303d 723d aeb1 6bbd
00000350: 5492 10bc def5 51bd e440 10bc 6d46 4d3d
00000360: d163 053d ede6 203d 5822 44bd 6613 b2bb
00000370: 55c7 96bc de32 cbba 399e 43bd 3a5d a73d
00000380: b045 a5bd 68a0 0d3d 119e 9ebd d477 01bd
00000390: ad97 a2bc 5313 103d c381 a7bd 4d52 9cbd
000003a0: fcc5 19bd 0832 efbc 1a45 e63b dea6 ff3c
000003b0: 7bf9 a2bc eb4b 963c 4c40 ee3d 8c2f 1e3d
000003c0: ef08 ed3b 561d 083e 7eaf b33d 7301 b8ba
000003d0: 2203 fdbc d73e c4bc c765 b0bd e1cf 713d
000003e0: 3c9c 923d 85b2 973d 3672 8a3c 9d23 40bd
000003f0: 4623 733d f811 c6bd 215a 35bb 2434 78bd
0.023635171 -0.01088287 -0.017897038 -0.0711609 -0.03901851 0.018525207 0.019832885 0.0645605
0.005943793 0.041880302 0.011423213 0.023405578 0.043789208 -0.009753785 0.06724502 -0.011841781
0.05341251 0.008930907 0.065745026 0.052469533 -0.006144762 0.0061365394 -0.011394144 0.026996903
-0.0092607755 0.0034668534 0.00639265 -0.014257604 0.012677487 0.049868602 -0.06574105 -0.04781968
0.031928807 -0.0042256634 -0.034602016 -0.0791949 0.067238055 -0.0007487175 0.07684726 -0.043592855
0.0014139639 -0.068734236 -0.035685174 -0.036084745 0.014149576 -0.06299911 -0.09306156 -0.013588121
0.0108919805 0.038442288 0.036936738 0.028781297 -0.06678553 -0.078057684 0.063134626 -0.0017864577
0.04930718 0.057709925 0.05198287 -0.054989688 0.021796083 0.08185549 -0.0638598 0.08821322
0.008731651 -0.055961404 0.027675599 0.035538133 0.01695801 0.02853959 0.035166275 0.009868842
0.093202576 -0.012321882 -0.016906878 0.025211424 -0.021845909 -0.015314104 -0.06001231 0.03581769
-0.03835622 -0.015268962 -0.04871591 0.023370842 0.075443156 0.018498253 -0.042353358 -0.04005632
-0.01036239 -0.0629278 0.061211146 0.03621301 0.0015980648 0.0012937123 -0.008027954 -0.01261815
-0.048222333 0.025352318 0.03386293 0.009079557 0.107438475 0.11662058 0.048589166 0.027569577
-0.0011407777 0.06411144 -0.009401064 -0.019754454 0.049178597 0.043011848 0.029744333 0.03807232
-0.03752445 0.014565607 -0.017039718 -0.018890692 0.011848494 -0.008971937 -0.047918607 -0.03533679
0.006140044 -0.01338418 -0.008018816 -0.07748999 -0.016002145 -0.028573265 0.040313274 -0.006509593
-0.06103061 0.034670345 -0.03674237 -0.041532215 -0.018407153 0.07096101 -0.06547637 0.09389165
-0.022160495 0.048942126 -0.019766742 -0.04376543 -0.036443893 0.06679294 0.080693014 0.007943885
-0.038773745 -0.07077129 -0.018861823 0.03045712 -0.05381543 -0.010512404 0.031608276 -0.014963244
-0.03197583 0.02624241 -0.046753142 0.04249126 0.07797005 -0.019763682 -0.031714194 -0.06198425
0.06661611 0.031787854 -0.02457197 -0.0016841214 -0.028912673 0.03142259 0.048278812 -0.02934024
0.025720987 0.04812592 -0.020793436 0.021538917 -0.009943872 0.02202256 0.016557127 0.05127582
0.05190324 0.06424547 0.01446166 0.009921156 0.03099354 -0.033398926 -0.03685434 0.023317717
-0.004372827 -0.029995618 0.007950652 -0.008607778 -0.076609746 0.07467536 0.040585443 -0.040770356
0.019669563 -0.047953248 -0.010054824 0.050564423 -0.059761833 -0.020135863 0.01944674 -0.046688627
0.046014946 -0.093056396 0.04413728 -0.06649094 0.0044348286 -0.0010480338 -0.05060695 0.012919885
-0.06419434 -0.022623567 0.059140384 -0.057542495 -0.00882395 -0.051259868 -0.008804534 0.05011599
0.032565895 0.039282728 -0.047884315 -0.0054344414 -0.018405596 -0.001550283 -0.047758315 0.081720784
-0.080699325 0.034576803 -0.077449925 -0.031608418 -0.019847715 0.03517468 -0.08179047 -0.07632885
-0.03754233 -0.029198661 0.0070272805 0.031207498 -0.019894352 0.018346747 0.116333574 0.038619563
0.007233731 0.13292441 0.08773707 -0.0014038518 -0.030885283 -0.023955746 -0.086131625 0.05903614
0.071587056 0.07407097 0.016900163 -0.046908963 0.05935981 -0.09671396 -0.002767213 -0.0605966

conv3.bias f4 [32]
00000000: f4d9 98bd c0f7 8abb 6a04 e4bb 8136 2e3c
00000010: 379f 5b3d 5e71 03bd b3c0 e33b 289c 913d
00000020: 52dc a4bd b41a 7abd 9d7f 20bd a785 2fbd
00000030: fa4a a33d c4e0 6e3d b8b2 8b3c 5f8a f73c
00000040: 1f20 8e3d 2416 3d3d 490d 4dbd 24e6 05bd
00000050: c9ec c73c 29c0 e83b ee9e 663d 3e2e 943d
00000060: 5936 7bbc c4e7 8d3d e183 a93d 767a 3c3d
00000070: 5fb0 563d 1941 9ebd 9628 4ebc b457 443b
-0.07463446 -0.00424096 -0.006958534 0.010633112 0.053618636 -0.032090537 0.006950462 0.071098626
-0.08049835 -0.061060622 -0.0391842 -0.04285207 0.07973285 0.058319822 0.017052993 0.030217348
0.0693972 0.046163693 -0.050061498 -0.032690182 0.0244049 0.0071029854 0.05630391 0.072353825
-0.015332782 0.069289714 0.08277107 0.046015225 0.052414294 -0.0772726 -0.012582919 0.0029959502

conv4.weight f4 [32, 32, 3, 3]
00000000: 519b 36bd aac7 2fbd 69c2 be3b 9161 30bc
00000010: bd5e 4fbc 4bff c7bb 9cf5 7dbd f3de 98bc
00000020: 8f6c 983a 1262 3b3b 9204 cebd bc2b 21b7
00000030: f96e b9bd 3e0b 8cbd 8c31 54bd 7740 203c
00000040: 3b91 9dbc 53c7 0cbd 7d8f 3abd 21db 663d
00000050: 9e12 0a3c d72f 513c 6620 283d 1a9c d7bb
00000060: 8342 a2bc 4c6a 19bc f636 3cbd ef81 0a3c
00000070: cdc9 793b de5c 4a3d e291 27bc 1833 1a3d
00000080: 02c8 acbc 6f53 2c3c 164b cb3c c33e c53b
00000090: c4c3 883c 56d1 e2bc 0787 6bbd 976e 573d
000000a0: a2d4 24bd 0339 2a3d 9b61 f0bc 440d 203d
000000b0: ba83 8b3c 8305 79bd 9f71 2fbd e1e8 e0bc
000000c0: fae3 3c3c af44 45bd 7bab 363d 197c 383d
000000d0: 8bbb e33c b78f 25bd d18a b63c 2de1 50bd
000000e0: e90c 39bd e669 a33c 7f38 15bd 4391 50bd
000000f0: 458f 56bb ec7c 073d 8d3a 74bc 4f6a c4bc
00000100: 99bb c13c 0c79 78bb d35c b5ba 453b 013d
00000110: 1fe2 203d dc99 403c ead8 8ebc 27b7 293c
00000120: 6bf2 56bd 54fd 13bb 222b 563d 4b82 883c
00000130: bd87 dabc f2b2 de3c 656d c9bc a567 ef3c
00000140: ee8a 573c f263 0d3d 8c00 9dbc 6d0f 5ebd
00000150: d926 0d3d afd1 e53c 0c9f 74bd 51d2 9c3d
00000160: 61a7 6e3c 2ea8 323c 549e 4b3b 99dc 4e3d
00000170: 3d63 1bbc ebb5 1a3a e7ed 283b a69f b23c
00000180: adf2 583a e19b 57bc b42c 19bd 5b22 b2bc
00000190: 7a25 283d 549a 513d 7a55 7fbc 77a9 38bd
000001a0: 2cbf 8fbc 4f1e 0a3b ed19 803c 0763 56bd
000001b0: d272 383c 035e 403d 36c7 2c3d a3e3 dbbc
000001c0: 2186 9eba a024 57bd fe78 8bbc 1f38 7c3c
000001d0: a947 dc3a f8cf 4bbd 7e42 1dbd c92a 10bd
000001e0: 244b 5cbc 89dc 8c3c 0635 193d 13b5 2bbd
000001f0: b132 283d 7a05 1c3b 8e48 993c 9611 8b3c
00000200: f2e0 293d 9bbc 4b3d c9d4 ecbc c0d9 313d
00000210: 8ed7 a33d 45aa 873d 7da0 963d 9111 4fbd
00000220: 85fc 1bbd 64c3 183d 5afe 6cbd 88fe 133d
00000230: 2ed5 63ba 4dfd 4cbd 60ce feba 4a74 1abd
00000240: 60eb 0f3d b9c3 89bc 2c5a b73c c0da 5fbd
00000250: 052b 0a3d 1008 b1bc de15 3b3c 6dff e13c
00000260: 979f 243d 26bf 263d f000 a53c 79ef 71bc
00000270: a5cb 8fbd 5893 12bd 31cf a5ba ca67 67bb
00000280: ce51 f8bc ebfa 42bd 4ce3 20bd c88b 383d
00000290: 43fb 13bc 9ee7 463d 7c82 a93d 395f 05bd
000002a0: 5ca2 3a3d 0eb0 efbb 740f eebc 9a98 603d
000002b0: 0f7c 193d 3b8f 973d 2333 103b b6a1 1a3d
000002c0: a246 e33c 03e3 ab3d 02d2 bebc 2a12 c7ba
000002d0: 9bbd 7fbd e8ad 5cbc 7847 4f3d bffb 593b
000002e0: eee4 25bd 73e2 3c3d 9c05 c43a 1a91 273d
000002f0: ff81 a33c ef0c 6ebd db1d cc3b 9e1a 5a3d
00000300: bacd 433c 1d01 e9bc 5c56 f13a 73ed 08bd
00000310: c6fa 5f3d d395 0a3c edfc bd3c d07b 3f3d
00000320: 05d1 333d ee2b 433b c00f 8dbc 4e9f 9a3c
00000330: a5f8 2d3d ed4b 033d 5c62 0fbd 04e4 46bd
00000340: 7c04 34bd 37c3 103d 94a9 ca3b 71e0 ea3c
00000350: 456e 08bd dead 2dbc 9d41 0c3d 5eab db3c
00000360: a3e4 d53c 8e63 663d 1c1c 7a3c 64e9 3e3d
00000370: f47f e23c 3834 5e3c 57c6 033c 82ee b9bc
00000380: 2fde d53d b4e8 5f3d 9e82 97bb ef18 303d
00000390: d177 423d 6bc0 5d3a 4220 a53c 67ac 3d3d
000003a0: 1d6d 8dbc e15e 513d 9e69 7b3c b37a 833d
000003b0: 5b1b 1f3d 8dd8 5fbc d536 ff3c ac6c 193c
000003c0: 162d 5bbd d12a 43bd 7640 8abc 3d06 99ba
000003d0: 8ba3 d13c dcc3 613c 6c52 083d 7d3f 573c
000003e0: 5944 b73c 34aa ac3d 8c16 643a 6ac0 ca3c
000003f0: 5ee1 ce3c e67f 4c3c e5e2 533c 2dfd 3e3c
-0.044581715 -0.042915024 0.0058215153 -0.010765449 -0.012656865 -0.0061034313 -0.06200181 -0.018660998
0.0011629033 0.002859239 -0.100594655 -9.6065305e-06 -0.090543695 -0.06838082 -0.051805064 0.009780995
-0.01923429 -0.034369778 -0.045546997 0.05636132 0.00842729 0.012767754 0.041046523 -0.006579888
-0.019807106 -0.009363722 -0.045950852 0.00845383 0.0038114667 0.04940497 -0.010227652 0.037646383
-0.021091465 0.010517939 0.024816077 0.0060194447 0.01669491 -0.02768771 -0.05750182 0.0525957
-0.040241845 0.041558277 -0.029343417 0.03907515 0.017030586 -0.060796272 -0.042832967 -0.027454795
0.011528963 -0.048161205 0.04459713 0.045040224 0.027799388 -0.04042026 0.02228299 -0.050995994
-0.045178328 0.019947957 -0.036430832 -0.050919782 -0.0032739204 0.03307812 -0.014906538 -0.023976473
0.023649024 -0.0037913946 -0.0013836868 0.031550664 0.039278146 0.011755433 -0.017437417 0.010358608
-0.05247728 -0.0022581415 0.05228723 0.016663691 -0.026676053 0.027184937 -0.024588296 0.029224226
0.013155682 0.034519143 -0.0191653 -0.05421393 0.034460876 0.028054086 -0.05972199 0.07657302
0.014566273 0.010904355 0.0031069713 0.050503347 -0.0094841095 0.00059017417 0.0025776566 0.021804642
0.00082759076 -0.013159723 -0.037396148 -0.021744898 0.041051365 0.05117257 -0.015584344 -0.04508349
-0.017547213 0.0021075194 0.015637362 -0.052340534 0.011257844 0.046964657 0.04218217 -0.026841944
-0.0012094417 -0.052525163 -0.017025467 0.01539424 0.0016806024 -0.04975888 -0.03839349 -0.035197053
-0.013445649 0.017195003 0.037404083 -0.041920733 0.041063968 0.0023806975 0.018711355 0.016976159
0.04147429 0.049740415 -0.028910058 0.043420553 0.08000098 0.06624273 0.073548295 -0.050553862
-0.03808262 0.037295714 -0.057859756 0.03613141 -0.0008691129 -0.050046254 -0.0019440167 -0.03770856
0.03513658 -0.01681696 0.022381864 -0.054651976 0.033732433 -0.02161029 0.011418788 0.027587617
0.04019126 0.040709637 0.020142049 -0.014766567 -0.07021264 -0.03578505 -0.0012650249 -0.0035309666
-0.030312445 -0.047602575 -0.039279267 0.04505518 -0.009032073 0.04856073 0.08276841 -0.032561515
0.045564994 -0.0073146885 -0.029060103 0.054833032 0.037471827 0.07400366 0.0022003136 0.037751876
0.027743641 0.083929084 -0.023293499 -0.0015187908 -0.06243668 -0.013469197 0.050605267 0.0033261625
-0.040501527 0.046114396 0.0014955285 0.040909864 0.019959448 -0.058117803 0.006229145 0.05324804
0.0119509045 -0.028442914 0.0018412578 -0.033429574 0.054682516 0.008458572 0.023191893 0.046748936
0.04390051 0.0029780823 -0.017219424 0.01887479 0.042473454 0.03205483 -0.035005912 -0.048557296
-0.04394959 0.03534242 0.006184766 0.028671475 -0.033308286 -0.010600535 0.03424226 0.026815113
0.026109999 0.056247286 0.015265491 0.046609297 0.027648903 0.013562255 0.008042893 -0.022696737
0.10442769 0.054665282 -0.004623725 0.04299253 0.047477547 0.00084591535 0.020156983 0.046306994
-0.017263943 0.051115874 0.015345005 0.064198874 0.038844448 -0.01366247 0.031154076 0.009364288
-0.053509794 -0.047648255 -0.01687644 -0.0011674833 0.025590679 0.013779607 0.03328173 0.013137695
0.022371458 0.08430901 0.00087008695 0.024749953 0.025253948 0.012481665 0.012932514 0.0116570415

conv4.bias f4 [32]
00000000: e04c 423d b3cb 403d 0559 f2bc 60cb ce3c
00000010: 67e0 59bd 6561 1fbd 57fb 0abd ea11 2b3d
00000020: fc29 043d e1b3 36bd b7f0 203c 49d1 0f3d
00000030: fa6a e6bc 58c3 6dbd 6dca 51bc f2f3 19bc
00000040: fcf3 83bb 1acd e8bc a947 59bd 10ba bd3c
00000050: bcb0 5bbd 953d 233d cae1 3fbd b74c 0bbd
00000060: 2b4f 2dbd b6fd 873c 5959 00bd 787c acb9
00000070: e89c 353d 315e 013c 47cf a53c 9d5f 1abd
0.047436595 0.047069263 -0.029583463 0.025243461 -0.053192522 -0.038911242 -0.033931103 0.04176513
0.032266602 -0.04460514 0.009823016 0.0351117 -0.028127182 -0.058047622 -0.01280461 -0.00939654
-0.004026888 -0.028418113 -0.053046856 0.02316001 -0.053635344 0.03985365 -0.04684619 -0.034008708
-0.04231183 0.016600471 -0.03133521 -0.00032899133 0.04433909 0.007895992 0.02024044 -0.03768884

bn21.weight f4 [32]
00000000: 471b 7d3f 4347 853f 2614 7c3f 5237 7d3f
00000010: 72e6 773f 1e73 7d3f a4d4 823f 02da 7f3f
00000020: 35f8 7e3f 3cbf 7f3f 5f11 833f 6e23 7e3f
00000030: 645b 7c3f 10cb 713f e016 833f 2903 813f
00000040: 5840 7b3f 74b5 823f fe5b 843f 21ba 813f
00000050: 6c18 813f 7f18 7e3f acfe 7c3f a3ef 7c3f
00000060: 2bb6 823f c3e5 7c3f 6b8c 7d3f a333 833f
00000070: c98e 863f b0d1 803f bb04 7c3f b7e5 803f
0.98869747 1.0412372 0.98468244 0.9891254 0.96836007 0.9900378 1.0221143 0.9994203
0.99597484 0.99901175 1.0239676 0.9927281 0.9857695 0.94450474 1.0241356 1.0079089
0.98145056 1.0211625 1.0340574 1.0134927 1.0085578 0.9925613 0.988261 0.98803157
1.0211843 0.9878809 0.99042386 1.0250133 1.0512325 1.0063992 0.9844472 1.0070103

bn21.bias f4 [32]
00000000: dbd4 3b3b da15 20bc 8f4e 03bd 4ec9 583c
00000010: c8d3 aebc b7b8 00bd 55ab ac3b b695 b93a
00000020: 923b 983b 0c34 16bc 69d8 403b 0567 873b
00000030: 96e0 a1bc ce16 ec39 2c75 a53c 2799 97bc
00000040: d8db 33bc d71b 2cbc 49fc e63b 2d46 863b
00000050: be05 64bb 2c7e 08bc d799 2fbb f28b b83a
00000060: 448e d839 ded0 afbc dd30 e73b 337e 123a
00000070: bbb0 e43c cb5f 31bc e4c7 d9bc 5c18 ab3b
0.0028660807 -0.009770835 -0.03205734 0.0132315885 -0.02134122 -0.031426158 0.005269448 0.0014158997
0.004645773 -0.009167682 0.0029425866 0.004132154 -0.019760411 0.0004503042 0.020197473 -0.018505646
-0.010977708 -0.010504684 0.0070491177 0.004097721 -0.0034793462 -0.008330863 -0.0026794577 0.0014079793
0.00041304727 -0.0214619 0.0070553855 0.0005588263 0.027916303 -0.0108260615 -0.026584573 0.0052214097

bn21.running_mean f4 [32]
00000000: 4bb0 403e eb7a 18be 6cdb d13e 16cc 6cbd
00000010: aa1c 843d 065e b03e 7bc8 353e a37e 7d3e
00000020: 1af2 bf3d b60b 21bf 2d0e 14bf 1adb 413e
00000030: be58 f23d e8a8 eabd e4a5 85be 3d6e 853e
00000040: d6db c83e 784e 9c3d 77fe 1cbf 2ff7 07bf
00000050: 028b 003f 15e9 0e3f bd02 893e 68d0 0a3f
00000060: 7a6e 26bf aa7a 0e3f f62c 643e 4ce9 ddbe
00000070: 4ae9 e0be da4b c2be c23f 533f fa0d 9fbe
0.1881725 -0.1489064 0.40987718 -0.05781182 0.0645078 0.34446734 0.17752258 0.2475534
0.09372349 -0.62908494 -0.5783413 0.18931237 0.118333325 -0.114579976 -0.26103127 0.26060668
0.39230222 0.07632154 -0.6132578 -0.5311155 0.5021211 0.55824405 0.26759902 0.5422425
-0.65012324 0.5565592 0.22282776 -0.43342054 -0.43927985 -0.37948495 0.8251916 -0.3106535

bn21.running_var f4 [32]
00000000: 2a37 953e 5e19 dd3d 9dca 0e3f 5a45 973e
00000010: eddd 953e 07ef 963f 8989 3c3e f114 803f
00000020: cbcb 453f 5a93 a33e 5d20 113f 7bf7 763f
00000030: b826 3b3e 0468 8b3e 60ca 963e 74c3 8e3f
00000040: ae5c 913f 7f5e 453e f8b8 033f a981 293f
00000050: dd53 2c3f c054 aa3f 6e3e 2d3f 7468 a73f
00000060: de3e d83e 8af6 f93e 1dca bd3e 7dcc 2a3e
00000070: 6177 833e 5c6a 9f3e 6aff e03f 12a6 013e
0.2914365 0.10795854 0.55777913 0.295451 0.29270878 1.1791695 0.1841184 1.0006391
0.7726409 0.31948358 0.5669001 0.96471375 0.18276489 0.27227795 0.29451275 1.1153398
1.1356409 0.19274329 0.51454115 0.6621347 0.67315465 1.3307114 0.67673385 1.3078752
0.42235464 0.48820907 0.37068263 0.16679569 0.25677016 0.31135833 1.7577946 0.12661007

bn22.weight f4 [32]
00000000: 963b 843f 621e 7c3f fef0 7d3f ae15 823f
00000010: 997e 813f d1e8 803f bfb8 7e3f dbb4 7e3f
00000020: f360 7e3f f8de 803f 35d5 793f 71c2 7d3f
00000030: 7756 7b3f b866 813f e9a2 7e3f 434d 7f3f
00000040: b4de 813f 9b9d 803f 9788 7b3f 2462 7f3f
00000050: fcb6 7b3f f3b5 7f3f c794 783f 8999 803f
00000060: 62a2 823f e0e0 793f 6c8d 7e3f f627 803f
00000070: 0345 7c3f 444b 813f 504b 813f 131a 7f3f
1.0330684 0.9848386 0.9919585 1.0162866 1.011676 1.007105 0.9950065 0.99494714
0.9936668 1.0068045 0.97590953 0.9912482 0.9817881 1.0109472 0.9946733 0.9972727
1.0146089 1.0048097 0.98255295 0.99759126 0.98326087 0.9988701 0.97102016 1.0046855
1.0205805 0.97608757 0.9943454 1.0012195 0.98542804 1.0101094 1.0101109 0.9964916

bn22.bias f4 [32]
00000000: 8d94 5abc bea5 d1bc 35f6 573b 6a9a 11bc
00000010: 5d0f a63b c14e 213c a8bd 4cbc ab8a 3d3b
00000020: 3354 dabc bf8c bebb 243b 58bc 6a5b 67bb
00000030: 0675 59bc 1301 37bc 6351 24bc 9e67 16bd
00000040: 0201 d0bb b32e 36bc 9981 b2bc af71 d0bc
00000050: 6f38 d4bc d5c6 13bd 0090 a6bc 0753 c2b9
00000060: 2f96 50bc 99a2 35bc 770a 4cbc 448b 45bc
00000070: 17ec aebc 5404 2b3c 9b20 98bb c88b 0bbc
-0.013341081 -0.025591727 0.0032953147 -0.008886913 0.0050677494 0.009845437 -0.012496389 0.0028921764
-0.026651477 -0.005815118 -0.013197694 -0.003530229 -0.0132725295 -0.01116969 -0.01002917 -0.03671991
-0.0063477764 -0.011119532 -0.021790313 -0.025444834 -0.025905816 -0.036078293 -0.020332336 -0.00037064424
-0.012731119 -0.01108613 -0.012453667 -0.012057129 -0.02135281 0.010438044 -0.0046425587 -0.008517213

bn22.running_mean f4 [32]
00000000: dd75 d33e d064 0d3f 9362 9a3e c304 53be
00000010: b96a c03d b1b6 48be 6ae0 e63e 7bd1 88bc
00000020: b95f 653d 98cb 61be c785 35be f148 653e
00000030: 97cb 8dbe 5a28 0b3d 3ed5 08be dbf5 d03e
00000040: a74e 9a3c 5601 b43c 778d 7f3e 78c1 373f
00000050: 6d0d e8bd 5990 d83e 9988 b73e e2ac 1dbe
00000060: 410b a5be b3ac 6f3e 519d 4e3e 5a7a 443d
00000070: db3b a43e be91 163e 3221 e23e 859a 11be
0.4130086 0.5523195 0.3015333 -0.20607285 0.09395356 -0.19600941 0.4509309 -0.01670145
0.05599949 -0.22050321 -0.17726813 0.22391106 -0.2769439 0.03397403 -0.13362595 0.40812573
0.018836332 0.021973293 0.24956308 0.71779585 -0.11330686 0.4229763 0.35846403 -0.15397981
-0.3223515 0.23405723 0.20177199 0.047968246 0.32076916 0.14704034 0.4416595 -0.14219101

bn22.running_var f4 [32]
00000000: c813 1d3e a45c f93e 5cc7 9b3e daed 5c3e
00000010: 67bc 163e 748a 6f3e fc46 1f3f ca79 9f3e
00000020: 9b73 dc3e a70e 293e ac81 203f db11 ca3e
00000030: 75a4 843e 52ba 4f3d 6ee2 a53e 39f7 623e
00000040: 1a97 b33d da5d 1a3e 8151 3e3f fb3d b83e
00000050: 843b 803e 243e 003f 30ad 393f 7bb3 073e
00000060: 974b 233e 2538 c03e e8fc e53e 81ec 913e
00000070: 7ac7 c93e 07f2 0b3e 6106 9e3d 0f8b 033e
0.15339577 0.48703492 0.30425537 0.21575108 0.14720307 0.2339266 0.6221769 0.31147605
0.4305695 0.16509496 0.62697864 0.39466748 0.2590672 0.0507148 0.32399315 0.2216462
0.08769055 0.15074864 0.74343115 0.35984787 0.25045407 0.5009482 0.7252989 0.1325206
0.15946804 0.37542835 0.44919515 0.2850075 0.3941 0.13666545 0.077160604 0.12846015

conv5.weight f4 [64, 32, 3, 3]
00000000: 4880 853d 975b 96bc 3603 debc ac4a 4abd
00000010: 3fbd 1abb 11a6 50bc 00da 89bd e4c4 79bd
00000020: 10d0 f73b 3297 d0bc 00d5 d5bc 8419 813c
00000030: 8637 fd3a ef7d 0a3d 8abe d33c b956 9cbc
00000040: d07f 3a3a 638a 183d ae19 6dbc b208 d73c
00000050: 4b7b fe3c c78f 2dbb 3562 3c3d d53f 2abd
00000060: 2dfe 42bd f7ec c33c 1cc5 463d 1eab 0fbd
00000070: c138 543d 0953 07bd 428e 233d a452 5f3d
00000080: f51a 0c3b bb54 093d 0776 c23c 019c 193d
00000090: c241 0dbd 923b bebc 8e10 4abd cdaf 81bc
000000a0: 3c03 463c 862a 793d 6b18 893c 24d2 8cbd
000000b0: a76b 8d3d 7827 8b3c e6d4 7a3c b4e4 66bd
000000c0: 8fdc 8ebd 1d46 f63c 6db2 20bd 3086 2fbd
000000d0: f585 403d 9299 33bd 0013 423d 0196 6a3d
000000e0: c7a4 143c 3d0f 07bd 0487 0bbd e2dc 6e3d
000000f0: 53a3 223b 31c2 67bd a582 9abb 06dc 3ebb
00000100: 71e4 99bc b8a3 e63c c603 5c3d e9ca a2bb
00000110: 5bb9 09bd 00b7 1e3d 85ee a83c 9eee 513d
00000120: 48e4 b23c f299 38bd 6797 303d 0060 57bd
00000130: f795 2fbd 474a 883c ec93 d73b 69d7 0fbd
00000140: 0c89 003d 2f86 3dbd 2b3f 393d 23c4 0fbc
00000150: b383 fa3c 8d6d 6c3d 22b4 9fbc 134d 9dbc
00000160: 335d 1fbd 2df1 d7bc 2d15 d13b ed8b d8bc
00000170: e81c 2a3c a0f2 fabc 1b44 063c c41b a8bc
00000180: f4ad 1abc eac3 d13c a3b6 153c 8e82 383b
00000190: e1b0 283d d912 2ebd 41dd b3bb 56b2 4a3d
000001a0: 4176 233d 59fb 07bd 6289 753d b869 11bd
000001b0: 0334 1f3d f152 fbbc b552 333d 7bce 12bd
000001c0: 7061 8db8 b8dd 58bd 3389 7d3c d1fd 99bc
000001d0: 5d70 a53c 2a08 87bc 7eb4 553c 7be0 84bd
000001e0: 67a3 e63a 7d63 5abc 53c5 873d 55e6 55bc
000001f0: 4171 d6bc 7f39 75bd 5efa e5bc 01e2 55bd
00000200: addb 0a3d 3a47 32bd 7495 073d 3110 0a3c
00000210: 18c6 03bd f7fa 273d eff9 443d 9c00 d03a
00000220: 2383 2bbd d225 23bd 57f7 d9bc 0d13 383a
00000230: f2f5 183c 64e0 b13c 2545 1abd e3cc 51bc
00000240: e0b1 7e3d 6c91 9abc 0a43 42bd c1e7 cdbc
00000250: c49e 29bd 92b9 9c3c 31bf 69bd b372 2e3d
00000260: 8350 433d 8e2f 31bd 4002 c03b 6327 0d3b
00000270: f0c2 e63c 6f70 6a3d a44f c43c 4d95 203d
00000280: 4fcc 3b3c 508a e33c b461 f53c 1f16 a1bb
00000290: 1a5f aebb c884 f3bc c558 b43a c4f2 473d
000002a0: f7a3 40bd 8108 123d cfde 4bbd 453e 353b
000002b0: f2b5 9cbc 2ce7 60bd 9059 943b b8b1 793d
000002c0: 8152 9bbc 5846 bc3c 89b7 36bc 4b62 84bc
000002d0: e157 6abd e7b7 07bd 4284 103d 5283 0f3d
000002e0: 7439 2b3d 591d 75bc b400 373c c982 023c
000002f0: df2b 55bc cde8 2abc e298 5a3d a60f 373d
00000300: 86b4 f13b a0e3 d7bc 6735 2c3d af91 313d
00000310: 7375 15bc 51ae e9bc 449c 0b3d 4beb 5abc
00000320: 7726 8d3c 992f 89bb e3f9 3ebd 795c 08bd
00000330: 5473 dfbc 9117 3abd 8894 d83c 4f74 d43b
00000340: 95a2 1e3d 1697 c7bc cf45 bc3c fbe0 5bbc
00000350: 074e a13b 5ba7 33bd e728 213d 475c 5db9
00000360: 1cb4 17bd fa45 7dbc 9693 b7bc fd91 8e3d
00000370: df3b b93c d3dc 16bd b2a0 6e3d c882 8abd
00000380: c137 18bd d424 db3c facf 96bc b07d 1f3d
00000390: 51a3 213c 3fa1 303d 8948 d2bc fc7f 0f3c
000003a0: 978c f63b e9df 94bb 9705 c73c 7d1b 533c
000003b0: 1074 20bd d4f7 f6bc e014 583c f044 183b
000003c0: 78be 713d d076 183d b9ff d1bb 730b 30bd
000003d0: ca69 b83c f996 97bc c8c7 29bc e822 843c
000003e0: 58b2 f6bc e602 6e3d 0b7d 3f3d 7696 5ebd
000003f0: b3d4 1b3d ab10 803d 4c46 9f3b 94f4 63bd
0.06518608 -0.01835422 -0.02710114 -0.04938762 -0.0023611335 -0.012734906 -0.06731033 -0.060978785
0.007562645 -0.02546272 -0.026102543 0.015759237 0.0019318915 0.033811506 0.025847692 -0.019084321
0.00071143825 0.03724135 -0.014471455 0.026249263 0.03106465 -0.0026483403 0.045992095 -0.04156478
-0.047605682 0.023916705 0.048527822 -0.0350753 0.051811937 -0.033038173 0.03993059 0.05452217
0.0021378372 0.03352807 0.02373792 0.037502293 -0.03448654 -0.023221765 -0.049332194 -0.015830899
0.012085732 0.06083157 0.016735276 -0.06876019 0.06905299 0.016986594 0.015309548 -0.056370452
-0.06975662 0.03006273 -0.03923266 -0.04285258 0.04700275 -0.043847628 0.0473814 0.05727196
0.009072489 -0.032973517 -0.034064308 0.05831612 0.0024816587 -0.05658168 -0.004715281 -0.0029122843
-0.018785687 0.028154239 0.053714536 -0.0049680364 -0.033624034 0.03874874 0.020621547 0.051252954
0.021837369 -0.04506869 0.04311314 -0.052581787 -0.042867627 0.01663698 0.006578913 -0.03511754
0.031380698 -0.046270546 0.045226257 -0.00877479 0.030580377 0.057721663 -0.019495074 -0.01920179
-0.03890724 -0.026360119 0.006380698 -0.02643391 0.010382868 -0.03063327 0.008194949 -0.020521052
-0.009440888 0.025606114 0.009137782 0.0028153989 0.04118431 -0.042498443 -0.005489022 0.04948648
0.039907698 -0.03319869 0.05994547 -0.035501212 0.03886796 -0.030679198 0.043780047 -0.035841446
-6.741553e-05 -0.052945822 0.015474605 -0.018797787 0.02019518 -0.016483385 0.013043521 -0.06488129
0.0017596305 -0.013329384 0.066294335 -0.013055404 -0.02617705 -0.059869286 -0.028073486 -0.052217487
0.033900905 -0.04352496 0.033101514 0.008426712 -0.03217134 0.041010823 0.048089918 0.0015869322
-0.04187311 -0.03983099 -0.026607199 0.0007021882 0.009335982 0.021713443 -0.037663598 -0.012805196
0.062181354 -0.01886817 -0.047427215 -0.025134923 -0.041411176 0.019131456 -0.0570671 0.042589854
0.047684204 -0.043258242 0.005859643 0.002153837 0.028169125 0.05723613 0.023963757 0.039204884
0.011462285 0.027775913 0.029953815 -0.004915967 -0.0053213956 -0.029726401 0.0013759366 0.048815504
-0.04703137 0.03565264 -0.049773034 0.0027655524 -0.019129727 -0.054907963 0.0045272782 0.0609605
-0.01896024 0.022982761 -0.011152157 -0.016160151 -0.057212714 -0.033134367 0.03528238 0.035037346
0.04180284 -0.01496061 0.011169601 0.007965752 -0.013010948 -0.010431481 0.053368457 0.044692658
0.0073762564 -0.026353657 0.042043116 0.043351825 -0.00912224 -0.028525503 0.034084573 -0.013361762
0.017230256 -0.0041865823 -0.04662503 -0.033291314 -0.027276672 -0.04543263 0.026438013 0.0064835916
0.03872927 -0.024364036 0.022982506 -0.013420339 0.0049226317 -0.043860774 0.03934565 -0.00021110578
-0.037037 -0.015458578 -0.022409242 0.06961439 0.022611557 -0.036831688 0.05825872 -0.06763226
-0.037162546 0.02675096 -0.018409718 0.038938224 0.009865598 0.043122526 -0.025669353 0.008758541
0.007524084 -0.0045432937 0.024294658 0.012884972 -0.039173186 -0.03014747 0.013188571 0.002323445
0.059019536 0.037222683 -0.0064086583 -0.04297967 0.022511382 -0.018504607 -0.010362573 0.016129926
-0.030114338 0.058108233 0.04675011 -0.05434271 0.038044643 0.06253179 0.004860675 -0.05565317

conv5.bias f4 [64]
00000000: a0ca 253d 7ddd 5b3d 28f1 183d 43f3 05bd
00000010: fc55 5f3d 3311 4b3b 6dc3 9cbc b2ba 373c
00000020: c995 bb3c a029 1e3c 3569 8eba 30b2 abbc
00000030: 7048 5ebd a475 c33b c10b 06bd 7285 973c
00000040: e68b 893a b0bd 60bd 7e6c adbc cc43 1dbd
00000050: c225 43bd 7800 57bd 4706 72bd 1779 393c
00000060: 255d 81bc bc0d 8c3c 008a e53c 755c 2e3d
00000070: 12ac 4dbc d263 083b cf70 013d 0942 f2bb
00000080: d2a9 c9bc f511 073d 541a 753c 79bd 693d
00000090: db7f cf3c 0d57 36bd 38b8 64bd d8d7 32bd
000000a0: 932a 3b3d 38a6 0d3d 5c5c 54bc 5bb0 303d
000000b0: 8ed0 97bc 1967 2dbc 156b 4ebd 0041 fc3c
000000c0: 89cd e13b 2d9c c23c f97f 57bd a5a2 a5bc
000000d0: 4bf6 cb3c 914f 45bd c8d6 42bd 9e4b 7bbc
000000e0: d57c 17bc 0cbc c5bc f2dc 183d 6044 3a3d
000000f0: 1277 433c a239 b13b 915f 5ebd 4277 d8bb
0.04047644 0.053678025 0.03733936 -0.032702696 0.05452536 0.0030985593 -0.019136155 0.011213945
0.022898572 0.009653479 -0.0010865094 -0.02095899 -0.0542683 0.0059649516 -0.032726053 0.018496249
0.0010493963 -0.0548684 -0.021169897 -0.038394734 -0.04764343 -0.05249068 -0.059088018 0.011320374
-0.015791485 0.017096393 0.028019905 0.042568643 -0.012553232 0.002081145 0.031601723 -0.007393126
-0.02461711 0.03297611 0.01495989 0.05706546 0.02532952 -0.04451661 -0.055839747 -0.043662876
0.0456949 0.034582347 -0.012961473 0.043136936 -0.018532064 -0.010583662 -0.05039509 0.030792713
0.006890957 0.023756111 -0.05261228 -0.020219157 0.024897715 -0.048171584 -0.047568113 -0.015337853
-0.009246071 -0.02413752 0.037320085 0.045475364 0.011930244 0.0054084817 -0.054290358 -0.0066060135
