checkpoints/best_model_0206_2.pth (torch, 430024 bytes, 26 tensors)

conv1.weight f4 [16, 1, 3, 3]
0	0xbf029e72	-0.5102302
1	0x3e2f15c2	0.17098144
2	0xbd1a0e0d	-0.037611056
3	0xbf116e43	-0.5680887
4	0xbe8084df	-0.25101373
5	0xbeef7654	-0.46769965
6	0xbeb77b30	-0.35836172
7	0xbe472c84	-0.19450575
8	0x3d919aa7	0.07109576
9	0xbff5f83e	-1.9216383
10	0x3c85d0ee	0.016334977
11	0x3eae16fa	0.34001905
12	0xc017ee51	-2.3739207
13	0xc03608c6	-2.8442855
14	0xbf8a31de	-1.0796468
15	0x3ec43122	0.38318735
16	0x3ef8fdd7	0.48631164
17	0x3ecff8e1	0.40619567
18	0x3fe5cdd1	1.7953435
19	0x3f445dd7	0.7670569
20	0x3e91ef8d	0.28503075
21	0x3fd2a95d	1.6457936
22	0x40c20357	6.0629077
23	0xbde8109b	-0.11331292
24	0xbee35123	-0.4439784
25	0x3f620748	0.8829236
26	0xbe4f5eca	-0.20251003
27	0xbe821954	-0.2540995
28	0x3d665eeb	0.056242865
29	0xbd802996	-0.06257932
30	0xbe25b2e6	-0.16181526
31	0x3b5efa00	0.0034023523
32	0x3e7365eb	0.23769347
33	0x3dbb2edb	0.09139796
34	0x3e8c8f24	0.27452958
35	0xbe57c71e	-0.21072051
36	0xbe89fd45	-0.26951042
37	0xbf0e9dbb	-0.5570943
38	0xbe055ddb	-0.13024084
39	0xbef196f0	-0.4718547
40	0x3e02e3dd	0.12782235
41	0x3e2086d6	0.15676436
42	0xbf3667c6	-0.71252096
43	0xbefae138	-0.48999953
44	0x3d6f5ae3	0.058436286
45	0x3d9e6dac	0.07735762
46	0xbe426a3c	-0.18985838
47	0x3e1f06d2	0.15529945
48	0x3e27be41	0.1638117
49	0xbe4dd652	-0.20101288
50	0x3d7c9f73	0.0616755
51	0x3dfa7c5b	0.1223075
52	0xbe240358	-0.160169
53	0xbe5f93f4	-0.21833783
54	0xbf735694	-0.9505398
55	0xbe1691bd	-0.14704032
56	0x3e4633ad	0.1935565
57	0x3f79f699	0.97641903
58	0xbef43bab	-0.47701773
59	0x40544dfb	3.3172596
60	0x3e9adb41	0.30245402
61	0xbe1d6e2d	-0.1537406
62	0x3f55313e	0.8327826
63	0x3f5a6c02	0.85321057
64	0x41372fc1	11.449159
65	0x3f397ffd	0.7246092
66	0xbd7059eb	-0.058679502
67	0x3eb064c2	0.34451872
68	0x3f058176	0.52150667
69	0xbea5c954	-0.32380164
70	0xbf0c9654	-0.5491688
71	0x3fa040fb	1.251983
72	0x3fa083b8	1.2540197
73	0x4052f1ef	3.2960165
74	0x3ef9379f	0.48675248
75	0x3fcd1707	1.6022652
76	0xbf0913d5	-0.53545886
77	0xbf997f6d	-1.1992012
78	0xbe5d059f	-0.21584176
79	0xbf080a07	-0.531403
80	0x3fa802b0	1.312582
81	0x3f568d1c	0.83809066
82	0x3fd2db11	1.6473104
83	0x3fccb8eb	1.5993932
84	0x3f8642f0	1.0489178
85	0x40161809	2.345217
86	0x400ebaed	2.230159
87	0xbe30559f	-0.17220162
88	0xbe7982e7	-0.24366342
89	0x3f254376	0.6455606
90	0xc098c34f	-4.7738414
91	0xbf9d7876	-1.2302387
92	0x3ede06cc	0.4336456
93	0xbf6c6983	-0.923485
94	0xbf0ae761	-0.54259306
95	0x3f2b8dd4	0.6701329
96	0x3d339ea0	0.04385245
97	0x3e876541	0.26444438
98	0x3ea403b4	0.32034075
99	0xbed3c61a	-0.41362077
100	0xbec3f62c	-0.38273752
101	0x3e299219	0.16559638
102	0x3e032c05	0.12809761
103	0x3cc90201	0.024537088
104	0xbf0f5ab7	-0.55997795
105	0xbeb4c4b7	-0.35306332
106	0xbf02ffa6	-0.5117134
107	0x3e0f8e7d	0.14019199
108	0x3f0262cd	0.5093201
109	0x40803ef7	4.007686
110	0x3e5227c6	0.20522985
111	0x3f053406	0.52032506
112	0x3fced5a5	1.6158949
113	0x3fb702b0	1.4297695
114	0xbed1645f	-0.4089689
115	0xbe497052	-0.19671753
116	0x4042db82	3.0446477
117	0x3e14a0b6	0.14514431
118	0xbe955d8e	-0.2917294
119	0x3e8e2328	0.27761197
120	0xbeb4cb19	-0.353112
121	0xbf0be4e2	-0.5464612
122	0xbe43bfdb	-0.19116156
123	0x3d59a22e	0.053133182
124	0xbeb4f4ed	-0.35343114
125	0x3e79d5f4	0.24398023
126	0xbe683e38	-0.22679985
127	0xbeb05735	-0.34441534
128	0xbe7e5f6b	-0.24841087
129	0x3d28ebe4	0.041240588
130	0xbe3b86c5	-0.18313129
131	0xbf637c5a	-0.8886162
132	0x3cd8548d	0.026407504
133	0xbe510e4a	-0.20415607
134	0xbf608d88	-0.8771596
135	0x3e41b80b	0.18917863
136	0x3b22acab	0.0024822156
137	0xbe8891b2	-0.26673657
138	0x3e63f7f8	0.22262561
139	0xbea98ef6	-0.33116883
140	0xbe51fd03	-0.20506673
141	0x3e942887	0.2893717
142	0x3dfa9f06	0.122373626
143	0x3e0607f8	0.13088977

conv1.bias f4 [16]
0	0xbeb8172f	-0.35955188
1	0x3e0d1c10	0.13780236
2	0x3f91a316	1.1377895
3	0xbe884b73	-0.26620063
4	0xbe6d44e9	-0.23170818
5	0xbe1a84c6	-0.15089712
6	0x3f629339	0.88505894
7	0x3fd6958f	1.6764392
8	0x3fc9a0c0	1.5752182
9	0x3e8655f4	0.26237452
10	0x3fafd1af	1.3735865
11	0xbec07cdf	-0.3759527
12	0x3eacd9e3	0.33759984
13	0xbed19280	-0.40932083
14	0xbe40e14e	-0.18835947
15	0xbe9bc58c	-0.30424154

conv2.weight f4 [16, 16, 3, 3]
0	0x3e3984c0	0.18117046
1	0x3ddda5ec	0.10822663
2	0x3dc29248	0.09500557
3	0x3e27d73c	0.16390699
4	0x3e4a3e9c	0.19750446
5	0x3e98d996	0.29853505
6	0x3e6f7fe6	0.23388633
7	0x3e82feb9	0.25584963
8	0x3e69c116	0.22827563
9	0x3bba6dc7	0.005689356
10	0xbc667e5c	-0.014068212
11	0x3d738f9c	0.05946313
12	0x3cbdf0cb	0.023186108
13	0x3dd75ace	0.105153665
14	0x3df2c7be	0.11854504
15	0xbd08f2b5	-0.03343459
16	0x39cad361	0.00038685932
17	0x3db1fc85	0.086907424
18	0x3d75055e	0.05981957
19	0x3d3baaf1	0.04581732
20	0x3d215f21	0.039397363
21	0xbd6bfbc0	-0.057613134
22	0x3d6f41e2	0.05841244
23	0xbd09e816	-0.0336686
24	0xbcc2531c	-0.02372127
25	0xbc0878bc	-0.008329567
26	0xbca00598	-0.019533917
27	0x3ec0b861	0.3764067
28	0x3ec0024a	0.37501746
29	0x3ea80909	0.32819393
30	0x3eabfaa2	0.33589655
31	0x3e8f7352	0.2801767
32	0x3ea3ba2e	0.3197798
33	0x3ec17651	0.3778558
34	0x3ed28a18	0.41120982
35	0x3ec01f29	0.37523773
36	0x3c822ca3	0.015890425
37	0x3d85a3f7	0.065254144
38	0x3db87d09	0.090082236
39	0x3cdb2d0b	0.026754877
40	0xbc7b2cd9	-0.015330517
41	0xbb99e47a	-0.004696426
42	0x3c34d90e	0.011038078
43	0x3cc19e13	0.023634946
44	0xbd3800a3	-0.044922482
45	0xbcdf879d	-0.027286345
46	0x3db61245	0.088902034
47	0x3d0cb292	0.034349985
48	0xbbf14c27	-0.0073638144
49	0xbcd841df	-0.026398597
50	0x3c4d285f	0.012521832
51	0xbd95e128	-0.07318336
52	0x3d0d165c	0.03444515
53	0xbd98c81e	-0.07460044
54	0xbce8f0ce	-0.028435137
55	0xbd37d083	-0.044876587
56	0xbcaf2f8f	-0.021384982
57	0xbdb57ce5	-0.08861712
58	0xbdafeb64	-0.08589819
59	0xbc898b90	-0.016790181
60	0xbcd50bb0	-0.02600655
61	0x3d4c9947	0.049950864
62	0xbd11b1df	-0.03557002
63	0xbddfa31d	-0.10919783
64	0xbdc30beb	-0.095237575
65	0xbdfb3446	-0.1226583
66	0x3d136ad0	0.035990536
67	0xbd14a985	-0.03629448
68	0x3ccdb52e	0.025110807
69	0x3cf143f2	0.029451344
70	0xbd08a329	-0.033358727
71	0x3c374cf0	0.011187777
72	0xbd96d703	-0.07365229
73	0xbd6103f9	-0.05493543
74	0xbe152dc2	-0.14568236
75	0xbdeb53be	-0.11490582
76	0xbdc9c5ea	-0.09852202
77	0xbe21a834	-0.1578682
78	0xbdb7bce7	-0.08971577
79	0xbd8a8dca	-0.06765325
80	0xbd9770c4	-0.07394555
81	0x3ccd2fb4	0.02504716
82	0x3d0ce256	0.03439554
83	0xbd0ed8d4	-0.034874752
84	0xbd93c6e1	-0.072156675
85	0xbdc88d6f	-0.09792601
86	0xbd0dc4ee	-0.034611635
87	0xbcf6e388	-0.030137792
88	0x3c39102b	0.011295359
89	0xbd2b9edf	-0.04189956
90	0x3d514e24	0.05109991
91	0xba1b8bc6	-0.00059336086
92	0x3c0397da	0.00803181
93	0x3b9ce3fb	0.0047879196
94	0xbd97c535	-0.07410661
95	0x3d6ded75	0.058087785
96	0xbdaf0700	-0.08546257
97	0x3ce78b52	0.028264675
98	0x3e05bd00	0.13060379
99	0x3daf5288	0.085606635
100	0x3da39874	0.079880625
101	0x3e191047	0.14947616
102	0x3e27f791	0.16403033
103	0x3e478492	0.19484165
104	0x3d874e2b	0.06606706
105	0x3e001a81	0.1251011
106	0x3e1580a3	0.14599852
107	0x3da61b38	0.0811066
108	0xbd925d27	-0.07146674
109	0xbc434b0d	-0.011919749
110	0xbd8fb27f	-0.07016467
111	0x3d597b8d	0.053096343
112	0xbd163eb0	-0.036680877
113	0xbe12ba5b	-0.14328901
114	0x3d007240	0.031358957
115	0xbde44077	-0.11145108
116	0xbe02f37b	-0.12788193
117	0x3dd9693e	0.106157765
118	0x3dccac4e	0.09993802
119	0x3df3e88b	0.119095884
120	0x3e88ce3c	0.26719844
121	0x3f1d1050	0.61353016
122	0x3e74069b	0.23830645
123	0x3e041ed4	0.12902385
124	0x3e1d9463	0.15388636
125	0x3dc4a37a	0.09601493
126	0x3bb4f8bb	0.005522815
127	0x3bf0d3f6	0.0073494865
128	0x3d3779ce	0.044793896
129	0xbd789f8b	-0.060699027
130	0xbd005645	-0.031332273
131	0x3d090238	0.03344938
132	0x3b84993d	0.0040465877
133	0x3d887235	0.06662408
134	0x3db10b32	0.086447135
135	0x3ec75ea2	0.38939387
136	0x3e8557db	0.2604359
137	0x3e9b73aa	0.30361682
138	0x3eca9e8d	0.3957409
139	0x3e9f403d	0.31103697
140	0x3ebc24b2	0.36746746
141	0x3eb9c472	0.36282688
142	0x3ea60598	0.32426143
143	0x3e8a05e5	0.26957622
144	0xbea2d771	-0.31804994
145	0xbe0d4ee2	-0.13799623
146	0x3d2a09b5	0.041513164
147	0xbce0755d	-0.027399713
148	0xbda141c8	-0.07873875
149	0xbe282335	-0.1641968
150	0xbe82cf95	-0.25548998
151	0xbe8ad8c0	-0.27118492
152	0x3d6efd06	0.05834677
153	0x3fb736cb	1.4313596
154	0x401f026a	2.4845223
155	0x408861f8	4.261959
156	0x3fdf95ce	1.7467592
157	0x3fc10697	1.5080136
158	0x3f5d391e	0.8641528
159	0x3efa8995	0.48933092
160	0x3fb5d6a3	1.4206127
161	0x3f72e518	0.9488082
162	0xc006233a	-2.0959
163	0xc09b303a	-4.849637
164	0x3f018087	0.5058674
165	0xbffed207	-1.9907845
166	0xc0cbe4c7	-6.371677
167	0x3e92f3df	0.28701684
168	0xbd27637b	-0.040866356
169	0xbf1a231f	-0.6020984
170	0x3ee101a0	0.43946552
171	0xbd4b9b51	-0.04970867
172	0xbe03940f	-0.12849449
173	0x3c552a8b	0.013010631
174	0xbd02297f	-0.031777855
175	0xbe3cc6bc	-0.18435186
176	0xbc8fccef	-0.017553775
177	0xbe34c9cc	-0.17655104
178	0xbe5a6423	-0.21327262
179	0xbe7a0703	-0.24416737
180	0xbd36df04	-0.044646278
181	0x3e1490b4	0.14508325
182	0xbe53854a	-0.20656314
183	0xbcb4f567	-0.022089673
184	0x3ea0dbc9	0.31417683
185	0xbc7220d5	-0.014778336
186	0xbe04506c	-0.12921304
187	0xbe06031b	-0.13087122
188	0xbe94b4cd	-0.2904419
189	0xbd408f31	-0.047011558
190	0xbd7731d8	-0.06035027
191	0xbdea72f3	-0.11447706
192	0xb6bb89b7	-5.5890664e-06
193	0xbe225c8e	-0.1585562
194	0x3c0cd9fc	0.008596893
195	0xbe0a777c	-0.13522142
196	0xbe052609	-0.1300279
197	0xbe058e0f	-0.13042472
198	0xc032aee5	-2.7919247
199	0xbd1b2d02	-0.03788472
200	0x3fc0164e	1.5006807
201	0xc025cd74	-2.5906649
202	0x3d7fe773	0.062476587
203	0x3f7eec11	0.9957896
204	0x3ebf484a	0.3735984
205	0x3f869378	1.0513754
206	0x3d8dba74	0.06920329
207	0xbfc36164	-1.5264096
208	0x3e108e18	0.14116704
209	0x3ec9c934	0.39411318
210	0xc0292a36	-2.6432014
211	0xbf0273c7	-0.5095791
212	0x3f0e493a	0.55580485
213	0xbfbfe0c6	-1.499047
214	0xbfdc77ae	-1.7224023
215	0x3e90d388	0.28286386
216	0xbf5b9c50	-0.8578539
217	0x3c647911	0.01394488
218	0x3ecdf92b	0.40229163
219	0xc0560766	-3.3442016
220	0x3f9b475b	1.2131151
221	0xbd8e565b	-0.06950065
222	0x3d9006f7	0.070325784
223	0xbfac2096	-1.3447444
224	0x3f36f65d	0.7146967
225	0xc0040458	-2.0627651
226	0xbf385b49	-0.7201429
227	0x3f6c6c47	0.9235272
228	0xc085e75d	-4.1844926
229	0xbeb88c8c	-0.3604473
230	0x3f345991	0.7044917
231	0xbf3c290c	-0.7350013
232	0x3d507023	0.050888192
233	0x3eafbe46	0.34324855
234	0x3e5e58f2	0.21713617
235	0x3f5a9772	0.8538734
236	0xbcb789b0	-0.022404522
237	0x3f0bff3f	0.5468635
238	0x3ffa6765	1.9562804
239	0x3e955321	0.29164985
240	0x3f175e94	0.5912869
241	0x3f7937b8	0.97350645
242	0x3f1df1fe	0.61697376
243	0xbe05ea7c	-0.1307773
244	0x3e70adac	0.2350375
245	0xbe241658	-0.16024148
246	0xbe39e26b	-0.18152778
247	0xbda3da79	-0.08000655
248	0xbe123723	-0.14278845
249	0xbe9babb2	-0.3040443
250	0x3d5563cb	0.052097123
251	0xbe5814f3	-0.21101741
252	0xbfe3335b	-1.7750047
253	0xbe827e00	-0.25486755
254	0x3f1957be	0.5989951
255	0xbfebbec1	-1.8417588

conv2.bias f4 [16]
0	0xbd826363	-0.06366613
1	0x3eaf8d8a	0.34287673
2	0xbd8aed71	-0.067835696
3	0xbdcd6fce	-0.10031091
4	0xbde45ab9	-0.111501165
5	0xbd4e75f5	-0.05040546
6	0xbdd388f4	-0.10328856
7	0xbcee8a0c	-0.02911856
8	0xbdae54b9	-0.08512253
9	0xbe0dc916	-0.1384624
10	0xbe53c756	-0.2068151
11	0xbd019725	-0.031638283
12	0xbe9fde93	-0.31224498
13	0xbe8cbaf5	-0.27486387
14	0xbd662616	-0.056188665
15	0xbd63d179	-0.05561969

bn1.weight f4 [16]
0	0x3f8a5aa1	1.0808908
1	0x3ed456a7	0.4147236
2	0x3ffa7ffc	1.9570308
3	0x3f59d892	0.85096085
4	0x3f5bae92	0.8581325
5	0x3f7e94c0	0.99445724
6	0x3fd7197c	1.6804652
7	0x407aeb59	3.9206145
8	0x3f9c79d5	1.222468
9	0x3fb16629	1.3859302
10	0x3fb1197c	1.3835902
11	0x3f42aff5	0.7604974
12	0x3f46ed41	0.7770577
13	0x3f906a9c	1.1282535
14	0x3f4eeda0	0.80831337
15	0x3f93052b	1.1485952

bn1.bias f4 [16]
0	0xc00d4316	-2.2072196
1	0xbd7693d1	-0.060199562
2	0xbfaf2f3e	-1.3686292
3	0xc0116b4e	-2.2721744
4	0xc00e8eff	-2.2274778
5	0xbfc9bffe	-1.5761716
6	0xc03dc183	-2.964936
7	0x3ebf63f6	0.37380952
8	0xbf6825b0	-0.90682507
9	0xbfb786a0	-1.4337959
10	0xbf040e77	-0.5158457
11	0xbfbc6323	-1.4717754
12	0x3f51a679	0.8189464
13	0xbfbfda51	-1.49885
14	0xc0031d28	-2.0486546
15	0xbfcc389c	-1.5954776

bn1.running_mean f4 [16]
0	0x00000004	6e-45
1	0x41e685ea	28.815388
2	0x3f1c698b	0.61098546
3	0x00000004	6e-45
4	0x00000004	6e-45
5	0x00000004	6e-45
6	0x3ee417c2	0.44549376
7	0x3f63d38b	0.88994664
8	0x3f4874c7	0.7830319
9	0x3e43e4f6	0.1913031
10	0x3f1d1b23	0.6136953
11	0x00000004	6e-45
12	0x3e6dd293	0.23224859
13	0x00000004	6e-45
14	0x00000004	6e-45
15	0x00000004	6e-45

bn1.running_var f4 [16]
0	0x00000004	6e-45
1	0x43ef6c96	478.84833
2	0x3d62f5f0	0.055410326
3	0x00000004	6e-45
4	0x00000004	6e-45
5	0x00000004	6e-45
6	0x3c32a4a0	0.0109035075
7	0x3df70074	0.12060633
8	0x3c848223	0.016175335
9	0x3d109b81	0.03530455
10	0x3cb46b91	0.022023948
11	0x00000004	6e-45
12	0x3d2d36bb	0.042288523
13	0x00000004	6e-45
14	0x00000004	6e-45
15	0x00000004	6e-45

conv3.weight f4 [32, 16, 3, 3]
0	0x3d980316	0.074224636
1	0x3dfd053c	0.12354514
2	0x3d052ceb	0.03251354
3	0x3db5fc90	0.08886063
4	0x3dc24378	0.09485525
5	0x3deabfcb	0.11462363
6	0x3c7d43f9	0.0154581005
7	0x3d39b18d	0.04533534
8	0x3dc08d39	0.09401936
9	0xbb2a7b12	-0.0026013297
10	0xbe784bae	-0.2424762
11	0xbd502bd5	-0.05082305
12	0x3d3527f5	0.04422756
13	0x3bfa4bf4	0.007638449
14	0x3cb132df	0.021630703
15	0x3d9e4e1f	0.07729744
16	0x3dca4a84	0.09877494
17	0x3c26d86d	0.010183436
18	0x3d36e7e2	0.044654734
19	0x3e27ab4a	0.16373935
20	0xbd3a90f9	-0.045548413
21	0x3dc31c73	0.09526911
22	0x3e14346c	0.14473122
23	0x3d884277	0.06653302
24	0x3e595702	0.21224597
25	0x3e2e2431	0.17005993
26	0x3d5a3227	0.053270485
27	0xbc070d9c	-0.008242991
28	0x3dec08aa	0.1152509
29	0x3e374fb6	0.17901501
30	0x3e231b95	0.1592849
31	0x3ded7ed3	0.115964554
32	0x3e301204	0.17194372
33	0x3dc8e420	0.098091364
34	0x3e0921dd	0.13391824
35	0x3e1d3d0c	0.15355319
36	0x3a82ef07	0.0009989449
37	0x3ce7db0b	0.02830269
38	0x3ca16af4	0.01970432
39	0x3d9cbdd7	0.076533966
40	0x3d92ddf2	0.07171239
41	0x3d0cc028	0.034362942
42	0x3dbfd1f5	0.09366218
43	0x3e4ded11	0.20109965
44	0xbce97609	-0.028498666
45	0x3d3aeced	0.045636106
46	0x3db03a6c	0.08604893
47	0xbd00eed6	-0.03147777
48	0x3e608364	0.21925122
49	0x3e005896	0.12533793
50	0xb9b833f6	-0.0003513393
51	0x3e18566d	0.14876719
52	0x3e54a803	0.20767216
53	0xbca01208	-0.019539848
54	0xbc64be90	-0.013961449
55	0xbc8d4912	-0.017246757
56	0x3d5a8c4a	0.053356446
57	0x3e21010d	0.15723057
58	0x3e8570fb	0.2606276
59	0x3d8f23e4	0.069892675
60	0x3e469ca3	0.1939569
61	0x3e6cf1d3	0.23139124
62	0x3dd98483	0.10620978
63	0x3d46fab6	0.04857894
64	0x3e005484	0.1253224
65	0x3d94275d	0.072340705
66	0xbdd3c327	-0.10339957
67	0xbe23d2a2	-0.15998319
68	0xbde48811	-0.11158765
69	0xbe2ec545	-0.1706744
70	0xbe4bcf7c	-0.19903368
71	0xbdd1a85e	-0.102371916
72	0x3d6ab420	0.057300687
73	0x3d87f682	0.066388145
74	0x3d8fe37c	0.07025811
75	0x3e0c29cc	0.13687819
76	0x3e56c8a1	0.20974971
77	0x3be97883	0.007124962
78	0x3e225824	0.15853935
79	0x3e3b9bd1	0.18321158
80	0xbced96fa	-0.029002655
81	0x3b431661	0.0029767978
82	0x3d1599bc	0.036523566
83	0x3c4b2a60	0.01240024
84	0x3d630c84	0.055431858
85	0x3d7afb58	0.061274856
86	0xbd80c2df	-0.06287169
87	0x3d6cd5d1	0.0578211
88	0x3d66edf6	0.05637928
89	0xbd8a4acc	-0.067525476
90	0x3d2351e7	0.03987303
91	0x3db08b9d	0.08620379
92	0x3d7e5542	0.062093027
93	0x3de01000	0.10940552
94	0x3d86a8b2	0.06575145
95	0x3c515e1a	0.012778783
96	0x3e77bb34	0.24192506
97	0x3e44081e	0.19143721
98	0x3d62e1eb	0.055391233
99	0x3c91577d	0.017741913
100	0xbc4b903a	-0.012424523
101	0x3cd593cb	0.02607145
102	0x3d832909	0.06404311
103	0x3d830b1a	0.06398602
104	0x3e3243f7	0.17408739
105	0x3e3be308	0.18348324
106	0x3e48b679	0.19600858
107	0x3e07bdc2	0.1325598
108	0xbd4d8860	-0.050178885
109	0xbe7ba53e	-0.24574754
110	0xbe131424	-0.14363152
111	0xbea23b61	-0.31685928
112	0x3e1a728b	0.15082757
113	0xbd21ad27	-0.03947177
114	0xbe45cdb7	-0.19316755
115	0xbe047c49	-0.12938036
116	0xbd53c768	-0.05170384
117	0x3df737df	0.120712034
118	0x3e0af98e	0.1357176
119	0x3d101fb6	0.035186492
120	0x3c0a6425	0.008446728
121	0xbb4af109	-0.0030966422
122	0xbcbc8517	-0.023012681
123	0xbdaec493	-0.08533587
124	0x3da6cff2	0.08145131
125	0x3bea349e	0.0071473857
126	0xbc85f157	-0.016350431
127	0x3dadbaa4	0.084828645
128	0x3db670f0	0.0890826
129	0x3df08e66	0.1174591
130	0x3d36a79c	0.04459344
131	0x3d15dd11	0.03658778
132	0x3ddc51ed	0.107578136
133	0x3e4ca2e3	0.19984011
134	0x3da5a26d	0.08087621
135	0x3d96f571	0.07371033
136	0x3d94f67d	0.072735764
137	0x3dde29ee	0.10847841
138	0x3e73fa9e	0.23826072
139	0x3e3f82e8	0.1870228
140	0x3db2d3d1	0.08731807
141	0x3e7787f4	0.24172956
142	0x3e49bcf2	0.19700983
143	0xbd09afe4	-0.033615008
144	0xbd8da0a2	-0.06915404
145	0xbd71d937	-0.059045043
146	0xbdb4d330	-0.08829343
147	0x3d8a9a3e	0.067677006
148	0x3e336c62	0.17521814
149	0x3d09c783	0.033637535
150	0x3e03086d	0.12796183
151	0x3dc9a39b	0.098456584
152	0x3dd5af2c	0.10433802
153	0xbd4b40c1	-0.0496223
154	0xbd9604c6	-0.07325129
155	0xbd0fda2e	-0.03512018
156	0x3dd7f0fa	0.105440095
157	0xbe0a1c05	-0.13487251
158	0x3d8c90c7	0.068635516
159	0x3db7783d	0.089584805
160	0xbe12017a	-0.14258376
161	0xbe328b93	-0.17436056
162	0x3d88579c	0.06657335
163	0x3d75f279	0.060045693
164	0xbd113588	-0.035451442
165	0x3e60a0a7	0.21936284
166	0x3e587f4f	0.21142314
167	0x3e3de2b7	0.18543516
168	0x3e16fd1d	0.14744993
169	0x3e482037	0.19543539
170	0x3e22de5f	0.1590514
171	0xbd1659d2	-0.036706753
172	0xbd477931	-0.04869956
173	0xbde575c8	-0.112041056
174	0x3e335ae5	0.17515142
175	0x3e3a968b	0.1822149
176	0x3d86155d	0.065470435
177	0x3e462357	0.19349419
178	0x3dbb79a1	0.09154058
179	0x3de21507	0.11039167
180	0xbe088d43	-0.13335137
181	0x3c68633b	0.014183815
182	0xbda89ecb	-0.08233412
183	0x3e440732	0.1914337
184	0x3e591f06	0.21203241
185	0x3e184d99	0.14873351
186	0x3e454237	0.1926354
187	0x3e3de75d	0.1854529
188	0x3e3c806a	0.18408361
189	0xbd7b089d	-0.06128751
190	0xbd0520c3	-0.032501947
191	0xbc875ef9	-0.016524779
192	0x3d8591d3	0.065219544
193	0x3e5acadf	0.21366452
194	0x3d632fa7	0.055465367
195	0x3e457a3a	0.19284907
196	0x3e4e73e2	0.20161393
197	0x3d034c20	0.03205502
198	0xbd5f82c3	-0.054568063
199	0x3d8a6981	0.067584045
200	0xbde13c22	-0.109977975
201	0x3dff1928	0.1245597
202	0x3e688ae8	0.22709239
203	0x3e10c829	0.14138855
204	0x3e1ee9f0	0.15518928
205	0x3e783840	0.24240208
206	0x3d7c18b9	0.061547015
207	0x3ca544e1	0.020174446
208	0x3d45eb2d	0.048319984
209	0x3db3ab63	0.08772924
210	0xbe124bf0	-0.1428678
211	0xbe173aef	-0.14768575
212	0xbe056955	-0.13028462
213	0xbe184afa	-0.14872351
214	0xbdd1e148	-0.10248047
215	0xbdc83316	-0.09775369
216	0x3db89cf8	0.090143144
217	0xbbf44d15	-0.007455478
218	0xbd048f12	-0.032363005
219	0x3e5afc91	0.21385409
220	0x3e24042f	0.16017221
221	0x3e3a0f10	0.18169808
222	0x3e5e0d94	0.21684867
223	0x3dbc554c	0.091959566
224	0x3e221d97	0.158316
225	0xbda70219	-0.08154697
226	0x3dcc96c9	0.099896975
227	0x3c9b4f9d	0.018958861
228	0x3da8fb9a	0.08251114
229	0x3e4273b7	0.18989454
230	0x3deeb807	0.11656194
231	0x3dc76ffb	0.097381555
232	0x3e39bc91	0.18138339
233	0x3d93d949	0.07219178
234	0x3d5ab33b	0.053393584
235	0xbd1a9603	-0.03774072
236	0x3d7a98d0	0.06118089
237	0x3e4d6542	0.20058158
238	0x3e181654	0.14852268
239	0x3de44823	0.111465715
240	0x3e3146fc	0.17312235
241	0x3e4fede5	0.20305593
242	0x3e1e4c24	0.15458733
243	0xbd95bdb9	-0.07311577
244	0xbd94e1d2	-0.07269634
245	0xbc0844c8	-0.00831718
246	0x3e5d545e	0.21614215
247	0x3e3398d2	0.17538765
248	0x3d75f371	0.060046617
249	0x3e4a8cc0	0.19780254
250	0x3e1206f6	0.14260468
251	0x3e05c2da	0.13062611
252	0x3c280e8e	0.010257376
253	0xbcda4eff	-0.026648996
254	0xbdae0b10	-0.08498204
255	0xbe2e9cab	-0.17051952

conv3.bias f4 [32]
0	0xbea64ad5	-0.32478967
1	0xbe038222	-0.1284261
2	0x3fcbd78f	1.5925158
3	0xbe3bcf86	-0.18340883
4	0xbe579a8b	-0.21055047
5	0x3fc5c374	1.5450273
6	0xbead76fe	-0.33879846
7	0xbe8626f8	-0.26201606
8	0x400781b4	2.1172915
9	0xbe3070de	-0.17230555
10	0x401daba9	2.4636023
11	0xbb12e319	-0.0022413193
12	0x3f9bcf49	1.2172633
13	0xbe0dc748	-0.13845551
14	0xbe89e08a	-0.26929122
15	0xbe0007dc	-0.12502998
16	0x3f507791	0.81432444
17	0xbe350175	-0.17676337
18	0x3faddd61	1.3583184
19	0xbde2eb27	-0.11080008
20	0xbde9fcbd	-0.11425159
21	0xbee78c31	-0.45224145
22	0xbd27ac20	-0.040935636
23	0xbdeb4cc2	-0.1148925
24	0xbe849991	-0.25898412
25	0x4009aec4	2.1512918
26	0xbea2743b	-0.31729302
27	0xbd5f9157	-0.054581966
28	0xbe85fe1c	-0.26170433
29	0x4002dd6e	2.044765
30	0xbe3772c1	-0.17914869
31	0xbe22f3f4	-0.15913373

conv4.weight f4 [32, 32, 3, 3]
0	0xc189d711	-17.230013
1	0xc1a67c5f	-20.810728
2	0xc1519902	-13.099855
3	0x414f95fb	12.974116
4	0x40a3cdf7	5.118892
5	0xc12fe619	-10.993676
6	0xc17fd4ad	-15.989423
7	0xc1a941d5	-21.157145
8	0xc1516628	-13.0874405
9	0xbd2fcd65	-0.04292049
10	0xbd44bbd0	-0.048030674
11	0x3e64d252	0.22345856
12	0xbf46bc34	-0.77630925
13	0xbf470ba3	-0.7775213
14	0x3e2b0788	0.16702092
15	0xbd0ec12c	-0.03485219
16	0x3ea0e9db	0.31428418
17	0x3f2920c3	0.66065615
18	0x3efe4265	0.4966003
19	0x3f050ef1	0.51975924
20	0xbf408af3	-0.7521202
21	0xbf7f2636	-0.9966768
22	0xbf334a8c	-0.70035625
23	0x3f39d823	0.72595423
24	0x3f1a6d79	0.6032329
25	0x3e29e9a6	0.16593036
26	0xbe071ff2	-0.1319578
27	0x3ee733fb	0.45156845
28	0x3d34805f	0.044067737
29	0x3e1c9f61	0.15295173
30	0xc0053064	-2.0810785
31	0xbf819a6d	-1.0125252
32	0x3eaeefcf	0.34167334
33	0x3e103a31	0.14084698
34	0xbe982c87	-0.29721472
35	0x3db61477	0.08890622
36	0x3e2fa919	0.1715435
37	0x3f8797ab	1.059316
38	0x3e9a04ac	0.3008169
39	0xbf8448b2	-1.0334685
40	0xbf433cf0	-0.7626486
41	0x3efc22af	0.4924521
42	0xbea27b2c	-0.31734598
43	0x3fe4b29b	1.7867006
44	0x3f6210b3	0.8830673
45	0x3fbd41a7	1.478566
46	0x3e72cb3e	0.23710343
47	0x3e7eaf1e	0.2487149
48	0xbe651a21	-0.22373249
49	0x3e93ef3c	0.2889346
50	0xbecbaf5c	-0.39782226
51	0xbe8e50b6	-0.27795953
52	0x3ef3a8b5	0.4758965
53	0xbe457fdc	-0.19287056
54	0xbe1ed2b9	-0.15510072
55	0x3f56979f	0.83825105
56	0x3f199cc4	0.6000483
57	0xc0a37e6a	-5.1091814
58	0xc0871ad3	-4.2220244
59	0xbe159a7d	-0.14609714
60	0xbea89488	-0.3292582
61	0x3f44bd29	0.76851135
62	0x3f278c8d	0.6544884
63	0xbf2cc3a5	-0.6748603
64	0x3ed7701f	0.4207773
65	0x3eade0d9	0.33960608
66	0xc0aed495	-5.46345
67	0xc090b047	-4.521518
68	0xbea518f5	-0.32245603
69	0xbf2bf163	-0.671652
70	0x3eed62c9	0.4636443
71	0x3eca0200	0.3945465
72	0x3e29dcec	0.16588181
73	0x3d470d27	0.048596527
74	0x3f1b4bd6	0.6066259
75	0x3e5db6f9	0.2165183
76	0x3ed716ec	0.42009676
77	0xbeaf745e	-0.3426847
78	0xbebb1010	-0.36535692
79	0x3f2f068c	0.68369365
80	0xbbd6a012	-0.0065498436
81	0xbf1d140b	-0.6135871
82	0x3f2c44e3	0.6729261
83	0x3e8a58d3	0.27020893
84	0xc09a9a4c	-4.831335
85	0xc07e905f	-3.9775617
86	0xbeaa6e09	-0.33287075
87	0xbea376dd	-0.31926623
88	0x3f51ab94	0.8190243
89	0x3ec549f2	0.38532978
90	0xbe827855	-0.2548243
91	0xbf153987	-0.58290905
92	0x3e95c309	0.29250363
93	0x3d26cc80	0.04072237
94	0x3f3efa0b	0.74600285
95	0xbf2d2281	-0.67630774
96	0x3e117676	0.14205346
97	0xbf7c4dd4	-0.98556256
98	0x3e8099f9	0.25117472
99	0x3ee8f01e	0.45495695
100	0x4035d51e	2.8411326
101	0xbe7ecadc	-0.24882072
102	0xc096f3de	-4.717269
103	0xc04a9241	-3.1651766
104	0xbf7b9232	-0.9826995
105	0x3d1b076f	0.037848886
106	0x402d068e	2.703525
107	0xbe2b07b8	-0.16702163
108	0x3e066cfc	0.13127512
109	0x3cc09187	0.023506893
110	0xbf1d9146	-0.61549795
111	0xbe9f1bce	-0.310759
112	0xbe3c051a	-0.18361321
113	0x3f4a62c3	0.7905695
114	0x3d181add	0.037134994
115	0xbb8f947e	-0.0043817153
116	0xbc8dba49	-0.017300742
117	0x39cc5013	0.00038969572
118	0xbd0b66eb	-0.034033697
119	0x3ef9ea88	0.48811746
120	0xc00ed7d6	-2.2319236
121	0xbfd409aa	-1.6565449
122	0x3eb4e117	0.3532798
123	0x3eba2e97	0.3636367
124	0xbcbbc79d	-0.022922331
125	0x3f200ed1	0.6252261
126	0xbe12d543	-0.14339165
127	0x3f504c9f	0.81366915
128	0x3f187531	0.5955382
129	0xc0a17429	-5.0454297
130	0xbff4927f	-1.9107207
131	0xbd87f5ae	-0.066386566
132	0xbe91cbd2	-0.28475815
133	0x3f626b6e	0.88445175
134	0x3f2b2b41	0.66862875
135	0x3f73663f	0.9507789
136	0x3f71e15b	0.9448449
137	0x3fb609fe	1.4221799
138	0xbfa12f04	-1.2592473
139	0xbe0e552a	-0.13899675
140	0x3f8705a8	1.0548601
141	0x3e11fae4	0.14255863
142	0x3aef311d	0.001824889
143	0x3f39a9ce	0.72524726
144	0x3eba8da6	0.36436194
145	0xbe397a08	-0.18112957
146	0x3e0cdfb6	0.13757214
147	0xbf33f2ca	-0.7029234
148	0xbcf28755	-0.029605547
149	0x3e81d954	0.2536112
150	0xbe4b0a53	-0.19828157
151	0x3da0c308	0.07849699
152	0xbec95157	-0.3931987
153	0xbda5efe9	-0.081024
154	0x3f4bace8	0.7956071
155	0x3ee15e58	0.4401729
156	0xc0a5ce55	-5.181437
157	0xc0a21cd0	-5.066017
158	0xbe323e0e	-0.17406484
159	0xbf109a18	-0.5648513
160	0x3f726490	0.94684696
161	0x3f0ba474	0.5454781
162	0xbe4edc0e	-0.20201132
163	0xbeea204e	-0.45727772
164	0x3e98d32f	0.2984862
165	0x3d7d7f00	0.061888695
166	0xbff6ed31	-1.9291135
167	0xbed5e1c8	-0.4177382
168	0x3e46336d	0.19355555
169	0xbfd4a1aa	-1.6611836
170	0x3f495486	0.786446
171	0x3e683732	0.22677305
172	0x3f04711c	0.5173509
173	0xbeae539f	-0.34048173
174	0xbf771b27	-0.96525806
175	0x3ee1a5f7	0.44071934
176	0xbe9f6172	-0.31129032
177	0xbf1d24f3	-0.61384505
178	0xbe9521e2	-0.29127413
179	0xbf4c113d	-0.79713804
180	0xbd9e5840	-0.07731676
181	0x3eef52a2	0.4674273
182	0x3ef1472b	0.4712461
183	0xc0a6e12c	-5.214987
184	0xc0c9ee22	-6.310319
185	0xbe38d999	-0.18051757
186	0xbed5bed7	-0.41747162
187	0x3f4da964	0.80336595
188	0x3f011f38	0.5043826
189	0xbe9eed14	-0.3104025
190	0x3e8b599d	0.27216807
191	0x3fa6eb0b	1.304048
192	0xc093b64f	-4.6160045
193	0xc0917e32	-4.5466547
194	0x3f9f5f55	1.2450968
195	0xbf2eb957	-0.68251556
196	0xbe354db0	-0.17705417
197	0x3fa2d0ae	1.2719934
198	0x3dee838e	0.11646186
199	0xbfc91b56	-1.5711467
200	0x3ea7b977	0.32758686
201	0x3f536735	0.82579356
202	0xbef0da7c	-0.4704169
203	0x3f38a389	0.72124535
204	0x3fe91024	1.8208051
205	0xbea7e4d7	-0.32791778
206	0x3f81ea6e	1.0149667
207	0xbde91626	-0.113811776
208	0x3f4e3dd4	0.8056309
209	0x3ec456d8	0.38347507
210	0xc09d3f86	-4.9140043
211	0xc0a042c2	-5.008149
212	0xbe0f22ad	-0.13978072
213	0xbe5b361d	-0.21407361
214	0x3f1ef311	0.6208964
215	0x3ef81a80	0.48457718
216	0x3d4abd5f	0.049497005
217	0x3f8c6718	1.0968962
218	0x3ec7e32c	0.39040506
219	0xc09fd74a	-4.9950304
220	0xc0de4db2	-6.9469843
221	0xbea42095	-0.32056108
222	0xbd258b39	-0.040415976
223	0x3f853de5	1.0409514
224	0x3ec3bc14	0.3822943
225	0x3da79c14	0.081840664
226	0xbdd0488b	-0.101700865
227	0x3d28155d	0.041036
228	0xbf2479ef	-0.64248556
229	0x3e0aa290	0.13538575
230	0x3edf57a5	0.43621555
231	0x3ce6c4bd	0.028169984
232	0x3f281602	0.6565858
233	0xbe7e21d1	-0.24817587
234	0xbfc1aace	-1.513025
235	0xbe9fb9d2	-0.31196457
236	0x3e0ed357	0.13947807
237	0xc0956cb9	-4.669522
238	0xc0ba8c73	-5.8296447
239	0xbe8ff25c	-0.28114593
240	0xbfbf1cc5	-1.4930655
241	0xbf0401be	-0.5156516
242	0x3e1ecf42	0.1550875
243	0x3ea53db9	0.32273653
244	0x3fe3be6c	1.7792487
245	0x3e738839	0.23782434
246	0xc064a410	-3.5725136
247	0xbfd8519b	-1.6899904
248	0xbf194d0c	-0.5988319
249	0x3d3fea46	0.04685428
250	0x3fec6052	1.8466895
251	0x3e73455b	0.23756926
252	0x3d08a9a0	0.033364892
253	0x3f9257a1	1.1432992
254	0x3edd0542	0.43168074
255	0xc09c8e24	-4.892351

conv4.bias f4 [32]
0	0x4086a17b	4.207212
1	0xbea36cc5	-0.31918922
2	0xbe7e8c9b	-0.24858324
3	0xbe972279	-0.29518488
4	0xbe072e0b	-0.13201158
5	0xbea37f1b	-0.3193291
6	0x3fec57f4	1.8464341
7	0x406f1667	3.7357423
8	0x40ef8764	7.485277
9	0x4044f3d9	3.0773833
10	0xbf68fb5f	-0.9100856
11	0x40c6dc1f	6.2143703
12	0xbe149b26	-0.1451231
13	0x40a0f581	5.0299687
14	0x3f978949	1.1838771
15	0xbe8b7036	-0.27234048
16	0x40f7f73a	7.748929
17	0x3fa505b8	1.289237
18	0xbea40985	-0.32038513
19	0xbe962bd5	-0.29330316
20	0x406b5857	3.6772668
21	0x40423078	3.0342083
22	0xbe94bae4	-0.29048836
23	0x408bdc7e	4.3706656
24	0x402d18c3	2.7046363
25	0xbd85dd38	-0.06536335
26	0x40ccad3b	6.3961463
27	0x4099cf4f	4.806556
28	0xbff1cc26	-1.8890426
29	0x410dfa9a	8.873682
30	0x40986542	4.7623606
31	0xbe9e76a6	-0.30949897

bn2.weight f4 [32]
0	0x3e5f6c4b	0.21818654
1	0xbd81222e	-0.063053474
2	0x3d01fe70	0.03173679
3	0xbd015c15	-0.031581957
4	0x3d7ed850	0.06221801
5	0xbad54284	-0.0016270434
6	0x3ebf5628	0.3737042
7	0x3e378735	0.17922671
8	0x3d1c2110	0.03811747
9	0x3e4a9040	0.1978159
10	0xbda155f2	-0.07877721
11	0x3e940293	0.28908214
12	0xb9f5cca9	-0.00046882525
13	0x3e689f1d	0.22716947
14	0x3eed9e81	0.4640999
15	0xbe2354de	-0.15950343
16	0x3c9acdc7	0.01889695
17	0x3eb58506	0.3545305
18	0x3e032aa6	0.12809238
19	0x3dd8a528	0.10578376
20	0x3e45e242	0.19324592
21	0x3e73e28f	0.23816894
22	0xbdd6abe4	-0.10482004
23	0x3e14dbb8	0.14536941
24	0x3e3376b8	0.17525756
25	0x3ad627fa	0.0016338818
26	0x3e214207	0.15747844
27	0x3e9f5499	0.3111923
28	0x3eb6a970	0.35676146
29	0x3c69c7f7	0.014268867
30	0x3e006a3c	0.12540525
31	0xbe814d70	-0.25254393

bn2.bias f4 [32]
0	0xbd0b0623	-0.0339414
1	0x38449d18	4.6876346e-05
2	0x387a892c	5.9732396e-05
3	0xb991f229	-0.0002783698
4	0x366970d1	3.4785373e-06
5	0xb9cea840	-0.00039416738
6	0xbdb84b70	-0.089987636
7	0xbd200cc6	-0.03907468
8	0xbb9b19e7	-0.0047333124
9	0xbd3287c9	-0.043586526
10	0xb98129f5	-0.00024636058
11	0xbd5e9b9a	-0.054347612
12	0xb922bae8	-0.00015519152
13	0xbd10a965	-0.035317797
14	0xbde58116	-0.11206262
15	0xb8b2c769	-8.5248445e-05
16	0xbb316d2c	-0.0027073128
17	0xbdaef93d	-0.08543632
18	0xb83871c3	-4.3974967e-05
19	0xb90d9405	-0.0001350195
20	0xbd25a746	-0.040442728
21	0xbd1ccd2b	-0.0382816
22	0x388e60dc	6.789129e-05
23	0xbd0023ed	-0.03128426
24	0xbd1595d3	-0.036519837
25	0xb88b7a0d	-6.65077e-05
26	0xbcd64447	-0.026155604
27	0xbd74ebf2	-0.059795327
28	0xbdb02319	-0.08600444
29	0xbb226979	-0.0024782105
30	0xbcbc1d53	-0.022963202
31	0x38f1c81e	0.0001152905

bn2.running_mean f4 [32]
0	0x40d36ecd	6.6072755
1	0x00000004	6e-45
2	0x4276fd3d	61.747303
3	0x00000004	6e-45
4	0x00000004	6e-45
5	0x42ff1351	127.53773
6	0x4180f9fd	16.122065
7	0x4172a76b	15.165874
8	0x429cc818	78.39081
9	0x41626e41	14.151917
10	0x429ad64f	77.41857
11	0x4109eef1	8.620835
12	0x42e89114	116.283356
13	0x40f1bc03	7.5542006
14	0x4181ef75	16.241922
15	0x00000004	6e-45
16	0x42925636	73.16838
17	0x41836459	16.423998
18	0x3ea9fa8d	0.33198968
19	0x00000004	6e-45
20	0x41563199	13.387109
21	0x40c61818	6.190441
22	0x00000004	6e-45
23	0x4161ee67	14.120704
24	0x413859de	11.52194
25	0x43029c73	130.61113
26	0x4116a02a	9.414103
27	0x410009f3	8.002429
28	0x41619ec2	14.101259
29	0x42bb5976	93.67473
30	0x411fcc04	9.9873085
31	0x00000004	6e-45

bn2.running_var f4 [32]
0	0x3f4bf0cf	0.7966432
1	0x00000004	6e-45
2	0x42e1f0dc	112.97043
3	0x00000004	6e-45
4	0x00000004	6e-45
5	0x43f664c6	492.7873
6	0x40d511e5	6.6584344
7	0x40efd63b	7.494901
8	0x431ad8c9	154.84682
9	0x40c187cf	6.047828
10	0x43389d44	184.61432
11	0x3f61cde3	0.88204783
12	0x43e1ad86	451.35565
13	0x3f7c1f0b	0.9848487
14	0x40efc3e2	7.4926615
15	0x00000004	6e-45
16	0x43027724	130.4654
17	0x40f609eb	7.6887107
18	0x416ad875	14.677846
19	0x00000004	6e-45
20	0x40d6de35	6.714625
21	0x3f2c5409	0.6731573
22	0x00000004	6e-45
23	0x40d6d53a	6.7135286
24	0x409ab5bf	4.834686
25	0x44060c9a	536.1969
26	0x40100efa	2.250914
27	0x3f4af2b1	0.7927657
28	0x40e1d206	7.0568876
29	0x4360cb58	224.79431
30	0x403bb6fd	2.9330437
31	0x00000004	6e-45

conv5.weight f4 [64, 32, 3, 3]
0	0x3cce1265	0.025155256
1	0x3cb93b64	0.022611327
2	0x3c923300	0.017846584
3	0x3d191bbd	0.03737997
4	0xbd4d78a6	-0.050163887
5	0xbd67fafd	-0.056635845
6	0x3c294481	0.010331274
7	0xbd367cbe	-0.044552557
8	0xbd180f48	-0.03712395
9	0x3c9bee41	0.019034507
10	0x3c3315cc	0.01093049
11	0xbcd8d60c	-0.026469253
12	0xbd1e2736	-0.038611613
13	0x3d0bf852	0.034172364
14	0x3ba1b135	0.004934455
15	0x3d01d0dd	0.03169333
16	0x3d56572d	0.05232923
17	0xbb8a5c37	-0.0042224186
18	0x3cbd8b95	0.023137847
19	0xbd6c4b41	-0.057688955
20	0xbd167a35	-0.03673764
21	0xbd105895	-0.03524073
22	0xbd1a2abf	-0.037638422
23	0x3ccb671c	0.02482944
24	0xbd6448e0	-0.05573356
25	0xbc82746f	-0.01592466
26	0xbcebaf3a	-0.028770078
27	0xbc7c8ab7	-0.015413932
28	0x3d38ab28	0.045085102
29	0xbcaf5371	-0.021402093
30	0xbca1abf6	-0.019735318
31	0x3cf3f726	0.029780935
32	0xbc857c43	-0.016294604
33	0xbd313f05	-0.04327299
34	0x3d545c14	0.051845625
35	0x3d1af935	0.03783532
36	0xbd2eb684	-0.04265453
37	0xbce248db	-0.02762263
38	0x3d445be2	0.04793919
39	0x3d0d4228	0.03448692
40	0x3a4a018c	0.0007705919
41	0x3cac8d9c	0.021063618
42	0xbcc53816	-0.024074595
43	0x3d43262d	0.04764383
44	0xbd6f0ded	-0.05836289
45	0x3cd62f94	0.026145734
46	0x3d089c82	0.033352382
47	0x3cc519ab	0.024060091
48	0xbd365ad8	-0.04452023
49	0x3cc9ed1a	0.024649192
50	0xbc3fd489	-0.011708387
51	0xbcfdc77c	-0.03097891
52	0x3d5447bc	0.051826224
53	0x3c7bf2fb	0.015377755
54	0xbcd0b69c	-0.0254777
55	0xbd1c989c	-0.038231477
56	0x3d011c0b	0.031520884
57	0xbcb0373f	-0.021510718
58	0xbd652d90	-0.055951655
59	0xbc9cdd5c	-0.019148521
60	0xbce0dbb5	-0.027448514
61	0x3d197e6d	0.037474085
62	0x3c3b2bb5	0.011423995
63	0xbca160a8	-0.01969941
64	0xbcbff14b	-0.023430487
65	0xbc76392e	-0.015028281
66	0x3b94b60a	0.0045383023
67	0xbb2ec84e	-0.0026669684
68	0x3b487a66	0.0030590533
69	0x3d2ca15f	0.042146083
70	0x3cfe0758	0.031009361
71	0xbd1df960	-0.0385679
72	0x3cbd7bd9	0.023130344
73	0x3d473b00	0.04864025
74	0xbd121a15	-0.035669405
75	0x3d17eda6	0.037091874
76	0x3ce6dc00	0.028181076
77	0xbd2b9a74	-0.041895345
78	0x3cdadc4c	0.026716374
79	0xbbb5308e	-0.00552947
80	0x3d17cb9d	0.037059415
81	0x3d2cb1d3	0.042161774
82	0xbd59c286	-0.053164028
83	0xbd561dec	-0.05227463
84	0x3bffca64	0.0078061093
85	0x3d5b8a16	0.053598486
86	0x3c9b21ee	0.018937077
87	0xbca2ff18	-0.019897029
88	0xbc76c6fc	-0.01506209
89	0x3d2d471d	0.042304147
90	0x3b8544f6	0.0040670587
91	0xbd179b09	-0.037013087
92	0xbc391feb	-0.011299114
93	0x3b4e98e0	0.0031524226
94	0x3d4ab6b1	0.049490634
95	0x3d06025e	0.0327171
96	0xbc78235a	-0.015145147
97	0x3a89c76e	0.0010511705
98	0xbd31d184	-0.0434127
99	0xbd2b76d1	-0.04186136
100	0xbce9e9a2	-0.028553788
101	0x3d029422	0.03187955
102	0x3a75fab0	0.00093833636
103	0x3d6abb56	0.057307564
104	0xbd4df627	-0.050283577
105	0x3cb7d262	0.022439186
106	0xbd65e8c9	-0.056130204
107	0xbd2772d5	-0.040880997
108	0xbcfa52b0	-0.030557007
109	0xbcbb681f	-0.022876797
110	0xbd08b3b7	-0.033374514
111	0x3cbd62ff	0.023118494
112	0xbd49e673	-0.04929204
113	0x3cf2a868	0.029621318
114	0xbbbe661c	-0.005810512
115	0xbcb5dd40	-0.022200227
116	0xbcfbdd44	-0.030745156
117	0x3d313722	0.04326547
118	0xbd42333c	-0.047412142
119	0x3d1f4940	0.038888216
120	0x3c549920	0.012975961
121	0x3c1cc20c	0.009567749
122	0x3d3671ee	0.044542246
123	0x3d0923a5	0.03348126
124	0xbd1ee210	-0.03878981
125	0x3d5d5045	0.05403163
126	0x3bbe5925	0.0058089667
127	0xbb496291	-0.0030728916
128	0x3c388873	0.011263001
129	0xbd63d649	-0.05562428
130	0x3c4fa2b1	0.012673066
131	0x3d37e3df	0.04489505
132	0x3cba686a	0.022754867
133	0xbcf46c83	-0.029836899
134	0x3d21e970	0.039529264
135	0x3d6a60c4	0.05722119
136	0xbc9cd674	-0.019145228
137	0x3d2874de	0.04112708
138	0xbbd25c9b	-0.006419731
139	0x3c1bff89	0.009521374
140	0x3c7a09cf	0.015261128
141	0xbc0800f0	-0.008301005
142	0xbc9a2ba3	-0.018819636
143	0x3d4b6a8c	0.049662158
144	0x3d2580b0	0.04040593
145	0xbc516ae4	-0.012781832
146	0x3d003a67	0.031305697
147	0x3c63eacc	0.01391096
148	0xbd510bdc	-0.0510367
149	0x3c80d69d	0.015727336
150	0x3d562de4	0.05228986
151	0x3c9bc41c	0.01901441
152	0xbcf5353a	-0.029932607
153	0x3d4f204d	0.050567914
154	0x3d04dcc4	0.0324371
155	0xbd3d4f13	-0.04621799
156	0x3c28df36	0.010307124
157	0xbc90838c	-0.017640851
158	0x3d4c9c65	0.049953837
159	0x3d488c0c	0.048961684
160	0xbd372d9d	-0.044721235
161	0xbc820284	-0.01587034
162	0x3cb360a6	0.021896672
163	0xbcc521f6	-0.024064045
164	0xbaccd8b0	-0.0015628543
165	0xbd60d507	-0.05489066
166	0x3caac99b	0.020848086
167	0x3c3ee899	0.011652135
168	0xbd4f01fe	-0.05053901
169	0x3cde61d5	0.02714626
170	0xbd2a14de	-0.041523807
171	0xbc977a1e	-0.018490847
172	0xbbca5bc3	-0.0061754896
173	0xbc4a1c5c	-0.012335863
174	0xbd53a0ff	-0.05166721
175	0x3d6a4308	0.057192832
176	0x3cfc7058	0.030815288
177	0xbca3e856	-0.020008247
178	0x3c916a76	0.01775096
179	0xbd06512d	-0.03279226
180	0xbd06b20c	-0.032884642
181	0xbcf202b1	-0.029542299
182	0xbbc2b833	-0.0059423684
183	0x3d15511a	0.036454298
184	0x3b900efa	0.0043963166
185	0x3d2246a2	0.039618142
186	0x3d681583	0.05666114
187	0x3ca66f3c	0.020316713
188	0x3a289efc	0.0006432382
189	0xbd4b754d	-0.049672414
190	0xbbe29946	-0.0069152443
191	0xbc92712e	-0.017876234
192	0xbd21f3de	-0.03953921
193	0x3d05aa4c	0.03263311
194	0x3cae0eb4	0.021247245
195	0x3cde4802	0.027133945
196	0xbc997fe2	-0.018737737
197	0xbc82a5ae	-0.015948143
198	0x3d372879	0.044716332
199	0x3c8ad387	0.016946567
200	0x3cb8f0a9	0.022575693
201	0xbd07d310	-0.03316027
202	0xbc479d8c	-0.012183558
203	0xbd4722c8	-0.048617154
204	0xbd20ceb2	-0.03925962
205	0xbd141ea5	-0.036162037
206	0xbd5791b1	-0.052629177
207	0x3ce6cff3	0.02817533
208	0xbcdf9988	-0.02729489
209	0x3ce7a9ea	0.028279264
210	0xbd362fe5	-0.04447927
211	0x3c7713b4	0.015080381
212	0xbce095f8	-0.02741526
213	0xbd4cb6d2	-0.04997904
214	0x3d55cad9	0.052195404
215	0x3c0a3827	0.008436239
216	0x3d683685	0.05669262
217	0x3d452797	0.04813346
218	0xbb70a0ab	-0.003671686
219	0xbbe090c9	-0.0068531972
220	0xbd431c6d	-0.04763453
221	0xbc814e9a	-0.01578455
222	0x3c3c033a	0.011475379
223	0xbd100846	-0.03516414
224	0xbc96cdf8	-0.01840876
225	0x3c0bff6a	0.008544782
226	0xbb9c0383	-0.004761161
227	0xbc35173f	-0.011052906
228	0xbd387fd3	-0.045043778
229	0x3d54ff28	0.05200115
230	0x3c19af83	0.009380224
231	0x3d4bb066	0.049728774
232	0xbc61ff73	-0.013793814
233	0x3abd6212	0.0014448783
234	0xbccab615	-0.024745027
235	0x3bacec4d	0.0052771927
236	0xbd0b377e	-0.03398847
237	0x3cb524e3	0.022112316
238	0x3d4e8430	0.050419033
239	0xbd69b910	-0.057061255
240	0xbd17fb70	-0.037105024
241	0xbd2b7be6	-0.041866206
242	0x3d6f3298	0.05839786
243	0xbc2dfa5c	-0.010618772
244	0x3cd5ca3e	0.026097413
245	0xbc8d94fc	-0.017282955
246	0xbb8c17a2	-0.004275278
247	0xbc6fb048	-0.014629431
248	0x3bef1bb3	0.007297003
249	0x3d1f1c6c	0.038845465
250	0x3ccb9a18	0.024853751
251	0x3d6beb11	0.057597224
252	0xbce74e5c	-0.028235607
253	0xbd207df2	-0.03918261
254	0x3a0135fc	0.0004929004
255	0xbd539a8d	-0.051661063

conv5.bias f4 [64]
0	0xba2a88c6	-0.0006505366
1	0x3c39a38f	0.011330499
2	0xbb68cef7	-0.0035523751
3	0x3caa2914	0.02077154
4	0x3c7bf640	0.015378535
5	0x3ab43186	0.0013747669
6	0xbd6e98d2	-0.05825121
7	0x3d6032f0	0.054736078
8	0x3cdd6c7b	0.027029267
9	0xbd67521a	-0.056474783
10	0x3cc08974	0.023503043
11	0xbb4b18f9	-0.0030990227
12	0xbd17817a	-0.036988713
13	0x3c81e2a7	0.015855147
14	0xbbc9920f	-0.0061514447
15	0xbc70292b	-0.014658253
16	0x3bd251a5	0.006418424
17	0x3d2d8e08	0.04237178
18	0x3d524ac2	0.051340826
19	0x3bbec0cb	0.0058213226
20	0xbd68d83c	-0.056846842
21	0x3d290e44	0.04127337
22	0x3d1ef04b	0.03880338
23	0xbcdc1e39	-0.02686988
24	0xbc96643a	-0.018358339
25	0x3d6c29b4	0.05765696
26	0xbd21b70c	-0.039481208
27	0xbd402155	-0.046906788
28	0xba970baa	-0.0011523862
29	0x3cd5dd46	0.026106488
30	0xbd4243a1	-0.047427777
31	0x3d30676b	0.043067377
32	0xbd216c38	-0.039409846
33	0xbd6301f4	-0.055421785
34	0xbd62703d	-0.05528282
35	0x3cb5556e	0.022135463
36	0x3cb4f03d	0.02208721
37	0xbc850e3f	-0.016242145
38	0x3b630f5c	0.0034646606
39	0x3be8760c	0.0070941504
40	0xbd143402	-0.03618241
41	0x3d082171	0.033235017
42	0x3cde5d7c	0.027144186
43	0xba4d04c4	-0.00078208395
44	0xbb41e77c	-0.0029587438
45	0xbd51eac1	-0.05124927
46	0xbcb7def3	-0.022445178
47	0xbd0a9940	-0.033837557
48	0xbd39852c	-0.04529302
49	0x3c901431	0.017587753
50	0xbd02ad2a	-0.031903423
51	0x3d324448	0.04352215
52	0x3d04830f	0.03235155
53	0xbc38d4c2	-0.011281194
54	0x3d6fc128	0.058533818
55	0xbb8d50ff	-0.004312634
56	0x3d6c92c8	0.05775717
57	0x3b0d9395	0.0021602858
58	0xbcd6f63f	-0.026240466
59	0x3ab08fea	0.0013470624
60	0xbd36d735	-0.04463883
61	0x3cc30db3	0.023810243
62	0x3d3b4818	0.04572305
63	0x3d3c6d01	0.04600239

conv6.weight f4 [64, 64, 3, 3]
0	0xbaff8f00	-0.0019497573
1	0x3cfaab8e	0.030599382
2	0xbc8dff63	-0.017333692
3	0xbd152b60	-0.03641832
4	0x3d2095e3	0.039205443
5	0xbbe41e2b	-0.006961604
6	0xbcc5af6e	-0.024131503
7	0xbc52fd60	-0.012877792
8	0x3d0994af	0.03358906
9	0xbc5ec2d0	-0.013596252
10	0x3a6bb656	0.0008991709
11	0xbd241d6e	-0.04006713
12	0x3ce57a9b	0.028012564
13	0xbb8bde2b	-0.004268428
14	0xbd097717	-0.03356084
15	0xbbb519e0	-0.005526766
16	0xbcf7ed30	-0.030264467
17	0xbb92c080	-0.004478514
18	0xbc0b13c6	-0.008488601
19	0x3cb03c76	0.021513205
20	0x3c7c5036	0.015399983
21	0x3d23346b	0.03984491
22	0xbd14216a	-0.03616468
23	0x3ca3a163	0.019974416
24	0xbc654086	-0.013992434
25	0x3c8c0300	0.017091274
26	0x3cddef13	0.027091539
27	0xbc288856	-0.010286411
28	0x3a789556	0.0009482702
29	0x3c7fb2d0	0.015606597
30	0xbd0e2338	-0.034701556
31	0xbd19feae	-0.037596397
32	0x3adf7356	0.0017047923
33	0x3c464500	0.012101412
34	0xbcbf4e48	-0.023352757
35	0x3d215d08	0.039395362
36	0x3d036f74	0.03208871
37	0x3b5a2d2b	0.0033291082
38	0x3d0a1d77	0.033719506
39	0xbd0f2ba0	-0.034953713
40	0xbc95d70b	-0.018291017
41	0xbc510030	-0.012756392
42	0x3c00d86b	0.007864098
43	0x3d0408cb	0.032234948
44	0x3c024a7b	0.007952328
45	0x3cf2367b	0.029566994
46	0xbcaadbd3	-0.020856773
47	0x3c04625b	0.00808009
48	0x3ccb554e	0.02482095
49	0xbc7271b6	-0.014797619
50	0xbd0b897b	-0.03406666
51	0x3cab1aa3	0.020886725
52	0x3b8a7eab	0.004226526
53	0xbd11fe48	-0.035642892
54	0xbd1852d4	-0.037188366
55	0xbca8d40e	-0.020608928
56	0xbd007d6b	-0.031369608
57	0xbc5db4f6	-0.013531914
58	0x3d148346	0.036258005
59	0x3ccbba13	0.024869
60	0x3c926178	0.017868742
61	0xbcdf9b00	-0.02729559
62	0xbcb29ee8	-0.021804288
63	0xbd2a1d06	-0.041531585
64	0x3c949718	0.018138453
65	0xbb87d04b	-0.0041447035
66	0xbc266686	-0.010156279
67	0xbd0ad323	-0.033892762
68	0xbc1cb650	-0.009564951
69	0xbb73cb00	-0.0037199855
70	0x3ce38753	0.027774489
71	0xbce27278	-0.027642474
72	0x3cd53cd0	0.026029974
73	0x3b1e242b	0.0024130445
74	0x3c0ec3cb	0.008713673
75	0x3c098350	0.008393124
76	0xbc822936	-0.015888792
77	0x3c869f88	0.016433492
78	0xbcb14870	-0.021640986
79	0xbd268228	-0.04065147
80	0x3c1cd266	0.009571647
81	0xbcda6283	-0.026658302
82	0x3cddfb4e	0.02709737
83	0x3ca97c70	0.02068922
84	0xbd197b86	-0.037471317
85	0x3c5789e6	0.013155436
86	0x3ca37748	0.019954339
87	0x3c47d020	0.012195617
88	0xbcee7c10	-0.029111892
89	0x3ac00056	0.0014648538
90	0x3c5b5026	0.013385808
91	0xbc74f24b	-0.014950345
92	0x3c48e9d0	0.0122627765
93	0xbcbd9716	-0.023143332
94	0x3c0e3070	0.008678541
95	0x3d277f3a	0.040892817
96	0x3cd26f33	0.02568779
97	0xbb1636c0	-0.0022920817
98	0x3c1c5d50	0.009543732
99	0xbceca34b	-0.028886458
100	0xbc7eaf96	-0.015544793
101	0x3cd6b1d0	0.026207834
102	0xbd21c3fc	-0.039493546
103	0x3b0f6fd6	0.0021886728
104	0xbce79e58	-0.028273746
105	0x3d284f6b	0.041091364
106	0xbceb81a0	-0.028748333
107	0x3abe49ab	0.0014517804
108	0x3ccbaffb	0.024864187
109	0x3bef616b	0.0073053143
110	0x3cac6386	0.02104355
111	0x3cd4352b	0.025904259
112	0x3ce0f1d0	0.027459055
113	0x3cb76678	0.022387728
114	0xbd1e7766	-0.038688086
115	0xbc0e3056	-0.008678516
116	0x3cce37d0	0.025173098
117	0x3c90acbe	0.017660495
118	0xbbff51cb	-0.007791733
119	0xbb6f5f16	-0.0036525181
120	0x3cb82490	0.022478372
121	0xbca0b038	-0.019615278
122	0xbcffcd0e	-0.031225707
123	0x3b9c3c60	0.0047679394
124	0x3cfcfd3e	0.030882474
125	0x3c35738b	0.011074911
126	0x3b9d6020	0.0048027188
127	0xbc168100	-0.009186029
128	0x3b96af96	0.004598568
129	0xbc565f46	-0.013084238
130	0xbca30b9b	-0.019902995
131	0xbc5203c6	-0.0128182825
132	0x3bdb5ba0	0.006694272
133	0x3c01359b	0.007886316
134	0x3c4ad766	0.012380457
135	0xbc0038d0	-0.007826045
136	0xbca77a93	-0.02044419
137	0x3cf9c14e	0.030487683
138	0x3a475300	0.00076036155
139	0x3b4371c0	0.002982244
140	0xbba04c2b	-0.0048918924
141	0xbd1cb304	-0.03825666
142	0xbaa79300	-0.0012784898
143	0x3d0057da	0.03133378
144	0xbd261c9c	-0.040554628
145	0x3bd1b16b	0.0063993237
146	0x3bb42e40	0.0054986775
147	0xbcc58b18	-0.024114177
148	0xbbcec6a0	-0.006310299
149	0xbcc16a58	-0.023610279
150	0xbb801bf6	-0.003909583
151	0x3d18a6ab	0.037268322
152	0xbc925940	-0.017864823
153	0xbc5ac666	-0.013352966
154	0x3be3c5e0	0.006951079
155	0x3cc7966e	0.024363723
156	0xbcd95ab3	-0.026532507
157	0x3ccc253e	0.024920102
158	0xbd1c78b0	-0.038201034
159	0x3c026cb6	0.007960489
160	0xbbeb4e00	-0.007180929
161	0x3bb480cb	0.0055085174
162	0xbc5581fb	-0.013031478
163	0xbb47e300	-0.0030500293
164	0x3c142b16	0.009043476
165	0x3a1d9456	0.00060111785
166	0xb88ccd56	-6.713967e-05
167	0x3c1dae1b	0.0096240295
168	0xbc2ee980	-0.010675788
169	0x3bb556d6	0.0055340333
170	0xbcf3d2f3	-0.029763674
171	0x3d145ae4	0.036219493
172	0xbc047080	-0.008083463
173	0x3cc67c36	0.02422915
174	0x3cc128f8	0.023579106
175	0xbcdce15b	-0.026962927
176	0xbc0ebdf6	-0.008712282
177	0x3b0c1f40	0.002138093
178	0xbcb50478	-0.022096857
179	0x3bba4f20	0.005685702
180	0xbd0ef582	-0.034902103
181	0xbb7ddbeb	-0.0038735818
182	0xbca2813e	-0.019837018
183	0x3c89efd8	0.016838
184	0xbc93f2e0	-0.018060148
185	0xb993cd56	-0.00028191012
186	0xbd0b994c	-0.034081742
187	0x3d023188	0.031785518
188	0x3c3c3260	0.01148662
189	0x3cdbfb13	0.02685312
190	0x3ad65f2b	0.0016355267
191	0x3c36b0b6	0.01115053
192	0x3d1af288	0.037828952
193	0xbcff0670	-0.031131
194	0x3d16c8b8	0.036812514
195	0x3c09aec0	0.00840348
196	0xbc8fb196	-0.017540734
197	0x3c9c38c3	0.019070035
198	0x3c998e26	0.01874454
199	0x3afb1580	0.0019156188
200	0x3c5fc416	0.01365759
201	0x3d15c5df	0.036565658
202	0xbc876260	-0.016526401
203	0xbd14d87a	-0.03633926
204	0x3d2039cc	0.03911762
205	0x3d2643bf	0.04059195
206	0xbcef0640	-0.029177785
207	0xbd26b22b	-0.040697258
208	0x3ce96130	0.028488725
209	0xbbb40036	-0.005493189
210	0x3cdf0480	0.027223825
211	0xbc016040	-0.007896483
212	0xbd19cb5c	-0.037547454
213	0x3c1dfd96	0.009642979
214	0x3c0154e6	0.0078937765
215	0x3b131096	0.0022440306
216	0x3ce1e52e	0.027575102
217	0xbc26b91b	-0.0101759685
218	0xbbf47936	-0.0074607385
219	0xbcd37a38	-0.025815114
220	0x3d0da3b2	0.03457994
221	0x3b3436ab	0.0027498405
222	0xbcc675f3	-0.024226164
223	0xbc9b5afe	-0.018964287
224	0xbca033bb	-0.019555917
225	0x3c521ceb	0.012824277
226	0x3cb13016	0.021629374
227	0x3d24d300	0.040240288
228	0x3a173256	0.00057676935
229	0x3cc5811b	0.024109414
230	0xbbb4cd4b	-0.005517637
231	0xbcf3c1c3	-0.029755479
232	0x3ce7a6d6	0.028277796
233	0xbcc70db3	-0.024298524
234	0x3ca228d6	0.019794863
235	0x3cd1ad8b	0.025595447
236	0xbc78cccb	-0.015185545
237	0xbce002e3	-0.027345126
238	0xbccd7623	-0.025080746
239	0xbc87c33e	-0.01657259
240	0x3b31fad6	0.0027157567
241	0x3c1f2e8b	0.009715687
242	0x3cf177bb	0.029476037
243	0xbd038c10	-0.032115996
244	0xbc2cd47b	-0.010548706
245	0xbc4228f0	-0.011850581
246	0xbce350d3	-0.0277485
247	0x3d273a48	0.040827066
248	0x3cc77118	0.02434592
249	0x3ccad213	0.024758374
250	0x3c737f1b	0.014861847
251	0xbca7b448	-0.020471707
252	0x3cd3eb2e	0.025868978
253	0x3d007d98	0.031369776
254	0x3c8e7b26	0.017392706
255	0x3d0fd77c	0.03511761

conv6.bias f4 [64]
0	0xbcd772c6	-0.026299845
1	0x3d1b453a	0.037907816
2	0xbaa2d92b	-0.001242434
3	0xbd2272ab	-0.039660137
4	0x3b1986eb	0.0023426365
5	0xbd1d1c0b	-0.038356822
6	0x3c46fc10	0.012145057
7	0xbd1dbb63	-0.038508784
8	0x3cdc192b	0.02686747
9	0x3bd4d8e0	0.00649558
10	0x3cda92a6	0.026681256
11	0x3cd93cb8	0.02651821
12	0xbd24edd8	-0.040265888
13	0x3bfd0336	0.00772133
14	0x3c8dea53	0.017323649
15	0x3cd80a30	0.026372045
16	0xbbd2ef16	-0.0064371927
17	0x3c9e458b	0.01932027
18	0xbd1165d0	-0.035497487
19	0x3b39c2d6	0.002834489
20	0x3c043980	0.00807035
21	0x3d1ed21c	0.038774595
22	0xbc89f84e	-0.016842034
23	0xbb70bdeb	-0.0036734294
24	0xbb2b40ab	-0.0026131074
25	0xbd1316f7	-0.035910573
26	0xb98b9000	-0.00026619434
27	0x3c10d05b	0.008838738
28	0xbcead4ce	-0.028665926
29	0x3d0d135a	0.034442283
30	0x3d258802	0.04041291
31	0x3c7891e0	0.015171498
32	0xbc2f1396	-0.010685822
33	0xbd00d8e4	-0.031456843
34	0xbc5de950	-0.013544396
35	0x3d0e6d94	0.03477247
36	0xbcebd0b3	-0.028786039
37	0xbc731eab	-0.014838855
38	0x3d0f9592	0.03505475
39	0xbd17225f	-0.036898013
40	0x3c29e52b	0.010369579
41	0xbbdfffab	-0.006835898
42	0x3c451d00	0.01203084
43	0x3d161067	0.036636736
44	0x3c484abb	0.012224848
45	0xbcb0e633	-0.021594143
46	0xbd13dc20	-0.0360986
47	0x3d07b002	0.03312684
48	0xbc0b6b96	-0.008509537
49	0xbd257d90	-0.04040295
50	0x3d26be27	0.040708687
51	0xbca133fb	-0.019678107
52	0xbce8d2b0	-0.028420776
53	0x3c4fb620	0.012677699
54	0x3d05a4ce	0.032627873
55	0xbd13e768	-0.036109358
56	0x3cdc5c53	0.026899492
57	0x3c0d0cd0	0.008609012
58	0x3d2a4bee	0.04157632
59	0x39cfdaab	0.00039645037
60	0x3d1becc0	0.03806758
61	0x3d125d86	0.035733722
62	0x3baa52eb	0.005197873
63	0xbcec2bd0	-0.028829485

bn3.weight f4 [64]
0	0x3f800000	1.0
1	0x3f800000	1.0
2	0x3f800000	1.0
3	0x3f800000	1.0
4	0x3f800000	1.0
5	0x3f800000	1.0
6	0x3f800000	1.0
7	0x3f800000	1.0
8	0x3f800000	1.0
9	0x3f800000	1.0
10	0x3f800000	1.0
11	0x3f800000	1.0
12	0x3f800000	1.0
13	0x3f800000	1.0
14	0x3f800000	1.0
15	0x3f800000	1.0
16	0x3f800000	1.0
17	0x3f800000	1.0
18	0x3f800000	1.0
19	0x3f800000	1.0
20	0x3f800000	1.0
21	0x3f800000	1.0
22	0x3f800000	1.0
23	0x3f800000	1.0
24	0x3f800000	1.0
25	0x3f800000	1.0
26	0x3f800000	1.0
27	0x3f800000	1.0
28	0x3f800000	1.0
29	0x3f800000	1.0
30	0x3f800000	1.0
31	0x3f800000	1.0
32	0x3f800000	1.0
33	0x3f800000	1.0
34	0x3f800000	1.0
35	0x3f800000	1.0
36	0x3f800000	1.0
37	0x3f800000	1.0
38	0x3f800000	1.0
39	0x3f800000	1.0
40	0x3f800000	1.0
41	0x3f800000	1.0
42	0x3f800000	1.0
43	0x3f800000	1.0
44	0x3f800000	1.0
45	0x3f800000	1.0
46	0x3f800000	1.0
47	0x3f800000	1.0
48	0x3f800000	1.0
49	0x3f800000	1.0
50	0x3f800000	1.0
51	0x3f800000	1.0
52	0x3f800000	1.0
53	0x3f800000	1.0
54	0x3f800000	1.0
55	0x3f800000	1.0
56	0x3f800000	1.0
57	0x3f800000	1.0
58	0x3f800000	1.0
59	0x3f800000	1.0
60	0x3f800000	1.0
61	0x3f800000	1.0
62	0x3f800000	1.0
63	0x3f800000	1.0

bn3.bias f4 [64]
0	0x00000000	0.0
1	0x00000000	0.0
2	0x00000000	0.0
3	0x00000000	0.0
4	0x00000000	0.0
5	0x00000000	0.0
6	0x00000000	0.0
7	0x00000000	0.0
8	0x00000000	0.0
9	0x00000000	0.0
10	0x00000000	0.0
11	0x00000000	0.0
12	0x00000000	0.0
13	0x00000000	0.0
14	0x00000000	0.0
15	0x00000000	0.0
16	0x00000000	0.0
17	0x00000000	0.0
18	0x00000000	0.0
19	0x00000000	0.0
20	0x00000000	0.0
21	0x00000000	0.0
22	0x00000000	0.0
23	0x00000000	0.0
24	0x00000000	0.0
25	0x00000000	0.0
26	0x00000000	0.0
27	0x00000000	0.0
28	0x00000000	0.0
29	0x00000000	0.0
30	0x00000000	0.0
31	0x00000000	0.0
32	0x00000000	0.0
33	0x00000000	0.0
34	0x00000000	0.0
35	0x00000000	0.0
36	0x00000000	0.0
37	0x00000000	0.0
38	0x00000000	0.0
39	0x00000000	0.0
40	0x00000000	0.0
41	0x00000000	0.0
42	0x00000000	0.0
43	0x00000000	0.0
44	0x00000000	0.0
45	0x00000000	0.0
46	0x00000000	0.0
47	0x00000000	0.0
48	0x00000000	0.0
49	0x00000000	0.0
50	0x00000000	0.0
51	0x00000000	0.0
52	0x00000000	0.0
53	0x00000000	0.0
54	0x00000000	0.0
55	0x00000000	0.0
56	0x00000000	0.0
57	0x00000000	0.0
58	0x00000000	0.0
59	0x00000000	0.0
60	0x00000000	0.0
61	0x00000000	0.0
62	0x00000000	0.0
63	0x00000000	0.0
