checkpoints/best_model_1609_2.pth (torch, 304673 bytes, 37 tensors)

conv1.weight f4 [16, 1, 3, 3]
0.046024818 0.098009124 -0.14226313 0.079554886 -0.019392861 -0.24819762 0.1234848 0.05842935
-0.078198515 -0.2906743 -0.28173545 -0.07002042 -0.065406986 -0.21432091 0.07637979 -0.012736376
-0.19258134 0.2784784 -0.1369307 0.23778114 -0.020713499 0.29675385 0.30055898 0.30271235
0.18808879 0.02457754 0.30957192 -0.18279782 -0.18736674 0.2758661 -0.0049982606 -0.12804061
-0.265803 -0.0044383053 0.27955195 0.11690774 0.16922428 -0.30120298 -0.09903117 -0.326287
-0.27317852 0.19040594 0.16083531 -0.18885706 0.01866786 -0.38068342 -0.24099834 0.14305314
0.14261524 -0.03306105 0.08716227 -0.06732262 0.1499178 -0.015584699 -0.0057596406 -0.13636546
-0.3707699 -0.35429755 -0.33969632 0.12584327 0.06925423 0.2376314 -0.13777299 0.28826845
0.07211398 -0.27192768 0.12853795 0.04269247 0.17200522 0.002155023 -0.24992526 -0.09213867
-0.07421522 -0.120009825 -0.13840109 -0.24624144 0.038621727 -0.041281927 0.1734579 0.20529968
0.1370197 0.076784305 0.25701016 -0.27703536 0.22435404 0.2699276 0.07485792 -0.08981868
-0.13080625 -0.3368958 -0.120849736 0.11531503 0.32555398 0.086613014 0.43194646 0.029112462
0.04880597 -0.13060431 0.24678609 -0.13294198 0.2914638 -0.061309956 0.32018673 0.3191834
0.19155881 0.20612864 -0.15511383 -0.16770783 -0.3018669 0.10620223 -0.085771196 -0.019071516
0.06677094 -0.3008677 0.20540376 -0.25785244 -0.09555729 -0.24158584 -0.037514858 0.008308748
-0.19368723 -0.2321959 -0.06562701 -0.15660356 -0.09981053 -0.062244706 0.16637158 -0.19098365
-0.25690964 0.02437786 -0.10474586 0.20904866 -0.13930038 -0.34868023 0.31497294 0.20915155
0.06797719 0.2092417 0.048287164 -0.331224 -0.3051521 0.23959757 -0.20143282 -0.34572706
00000000: 8584 3c3d 02b9 c83d 6dad 11be aced a23d
00000010: c7dd 9ebc 8427 7ebe 99e5 fc3d 9d53 6f3d
00000020: 8b26 a0bd 43d3 94be a13f 90be de66 8fbd
00000030: 19f4 85bd f176 5bbe 026d 9c3d 3cac 50bc
00000040: 0b34 45be b994 8e3e 9037 0cbe e67c 733e
00000050: 5baf a9bc 1ff0 973e dee2 993e 1dfd 9a3e
00000060: 599a 403e d656 c93c 3680 9e3e 5a2f 3bbe
00000070: 11dd 3fbe 523e 8d3e 73c8 a3bb 141d 03be
00000080: 5517 88be 346f 91bb 6f21 8f3e 536d ef3d
00000090: 2149 2d3e 4737 9abe dbd0 cabd 170f a7be
000000a0: 0ede 8bbe c6f9 423e 03b2 243e bf63 41be
000000b0: 57ed 983c f0e8 c2be 45c8 76be 867c 123e
000000c0: bb09 123e 066b 07bd 2282 b23d 71e0 89bd
000000d0: 0d84 193e f756 7fbc 5ebb bcbb 63a3 0bbe
000000e0: 8dd5 bdbe 7d66 b5be adec adbe 0fdd 003e
000000f0: 29d5 8d3d a555 733e 5d14 0dbe ec97 933e
00000100: 7fb0 933d 1b3a 8bbe 749f 033e 4dde 2e3d
00000110: 2322 303e 493b 0d3b 68ec 7fbe 33b3 bcbd
00000120: 26fe 97bd b6c7 f5bd 04b9 0dbe b726 7cbe
00000130: d131 1e3d 3d17 29bd f39e 313e 143a 523e
00000140: e44e 0c3e 1741 9d3d d696 833e 94d7 8dbe
00000150: 11bd 653e f333 8a3e 1c4f 993d dbf2 b7bd
00000160: 13f2 05be 9b7d acbe 1180 f7bd 492a ec3d
00000170: 03af a63e 2a62 b13d 1628 dd3e 427d ee3c
00000180: c5e8 473d 23bd 05be 7eb5 7c3e f121 08be
00000190: be3a 953e 2620 7bbd 84ef a33e 026c a33e
000001a0: fe27 443e 6313 533e 29d6 1ebe 9abb 2bbe
000001b0: 4c8e 9abe 8e80 d93d cfa8 afbd de3b 9cbc
000001c0: 34bf 883d 550b 9abe 5d55 523e 3c05 84be
000001d0: 8ab3 c3bd 4762 77be 2ea9 19bd 6a21 083c
000001e0: f255 46be c3c4 6dbe 7467 86bd af5c 20be
000001f0: 7769 ccbd 4ef4 7ebd 505d 2a3e 3891 43be
00000200: a989 83be 14b4 c73c ff84 d6bd da10 563e
00000210: c2a4 0ebe 3786 b2be 2244 a13e d32b 563e
00000220: a037 8b3d 7543 563e c3c8 453d 3196 a9be
00000230: e53c 9cbe 1159 753e 6844 4ebe 2303 b1be

conv1.bias f4 [16]
0.07797351 -0.012507834 0.24446796 -0.15611683 0.19439173 -0.06530048 -0.039070148 0.061974306
-0.013743612 -0.13540529 0.12053532 0.3272587 0.26013514 0.09018565 0.3066892 -0.06827788
00000000: 93b0 9f3d a8ed 4cbc cf55 7a3e 17dd 1fbe
00000010: a00e 473e 42bc 85bd 0508 20bd c5d8 7d3d
00000020: e32c 61bc afa7 0abe 39db f63d 748e a73e
00000030: 6f30 853e 41b3 b83d 5e06 9d3e 46d5 8bbd

conv2.weight f4 [16, 16, 3, 3]
0.017155632 0.025370866 0.024522597 0.020492075 0.054952998 -0.020035341 -0.023156254 -0.057416767
0.047381405 -0.01251285 -0.08747211 0.050205156 0.020124443 -0.051969603 -0.118431844 -0.02658259
-0.04848144 0.0016095507 0.01960626 -0.050474763 0.07309541 0.06638782 -0.02146155 0.06345653
0.001567329 0.027690256 -0.010395263 0.009926909 -0.07821856 -0.026296027 0.047556594 -0.056066543
-0.06495208 0.044164997 -0.10848433 -0.028846812 -0.046450526 -0.03058447 -0.043748025 -0.045699477
-0.040145203 0.024322318 -0.027552083 -0.084343225 0.14804791 0.024141796 -0.12742302 0.017540429
-0.015606109 0.09990344 -0.019925557 -0.028301656 -0.057998963 0.038920023 -0.009834747 -0.061696023
-0.047489535 0.06626631 0.121127546 -0.10126096 -0.0019038431 0.053605862 0.031566538 0.06549621
-0.15515317 -0.0538245 0.05308707 0.01461132 0.0078707365 0.030956807 0.011261649 0.07773837
-0.00222502 0.0149118705 0.047769334 0.03239974 -0.018324545 -0.09935001 0.06526021 -0.0072206184
-0.0022556987 -0.011155367 -0.012513144 -0.128876 0.00977268 0.055973507 -0.017116453 -0.053516716
-0.058496833 -0.030235773 -0.01888586 -0.021955058 0.027172517 -0.011839998 -0.094422504 -0.040075418
0.0034998406 0.013177466 -0.082909115 0.014310052 -0.01810619 0.037685353 0.03707058 -0.11563
0.0153459115 0.07390463 -0.049694087 -0.04738688 -0.010799302 0.09710768 -0.18339454 0.010506519
0.036981013 -0.02801908 -0.03630103 0.061150253 -0.0070201554 0.10882592 -0.07782036 -0.023355551
-0.08474266 -0.020458499 -0.07515201 -0.07400879 -0.051477417 0.19216415 -0.04744783 0.048065227
-0.020294389 -0.023064274 -0.010192911 0.048894092 -0.09971078 -0.083534926 0.06348915 0.078429975
-0.06061853 -0.10579511 0.015544555 0.07058137 -0.04381596 0.047230493 0.030571869 0.111038566
-0.098769166 -0.0027910501 0.01893973 -0.16451311 0.0006645098 0.0046979585 -0.016716123 0.012836813
-0.054624904 -0.024271619 -0.0041348827 0.08321554 -0.038569093 -0.16120858 -0.042504895 0.03779868
-0.011896038 0.058786426 0.0048382655 -0.023463015 -0.030610098 0.002254793 0.025399987 -0.029109022
-0.045246225 -0.090073034 -0.029857751 0.03456128 0.03866545 0.009869753 -0.013961235 -0.06019449
0.011480376 0.04876058 0.046125345 -0.01188712 -0.04131998 -0.029613452 0.052161302 -0.057576887
-0.17704757 -0.08856459 -0.0127403485 -0.12987067 0.016887361 -0.00068704993 -0.09290637 0.017981198
0.019001659 -0.039540168 0.0023074632 0.04422939 -0.1651395 0.021697467 -0.04829141 -0.052053556
0.036151968 -0.08534018 -0.21293856 -0.17264737 -0.09757156 0.01745958 -0.07062545 -0.009217028
-0.0015897604 -0.0064505064 0.0138198305 -0.01324737 -0.04635699 0.011686381 0.005862288 -0.0012016839
0.02664185 0.013767046 -0.03572277 -0.036661014 -0.09669902 -0.019215917 -0.008023449 0.0014350492
0.06729459 -0.10483291 0.03954842 0.014706158 0.07580903 0.067627415 -0.0066944817 -0.027507685
0.006350768 0.15802832 0.04624503 -0.013923547 0.0024064407 -0.033572987 0.029155796 -0.052091505
-0.017932417 0.041740704 -0.09317472 0.011576267 0.065700494 0.000484713 -0.06819793 -0.03559582
0.0019016721 -0.035038512 0.012673329 -0.026146935 -0.030386545 -0.014538478 -0.00035318194 -0.06988661
00000000: f889 8c3c 90d6 cf3c 9de3 c83c ffde a73c
00000010: 6516 613d 2821 a4bc 2fb2 bdbc d82d 6bbd
00000020: 0113 423d b202 4dbc 9424 b3bd eca3 4d3d
00000030: 04dc a43c 14de 54bd 658c f2bd bbc3 d9bc
00000040: 7994 46bd 8ff7 d23a 4f9d a03c a0be 4ebd
00000050: 0cb3 953d 56f6 873d 22d0 afbc 7ff5 813d
00000060: d66e cd3a add6 e23c e550 2abc 79a4 223c
00000070: 0d31 a0bd c46a d7bc b4ca 423d 08a6 65bd
00000080: 9905 85bd 5be6 343d 082d debd 2650 ecbc
00000090: e842 3ebd 488c fabc 2131 33bd 602f 3bbd
000000a0: 4c6f 24bd 993f c73c e8b4 e1bc 24bc acbd
000000b0: df99 173e 04c5 c53c 2e7b 02be f2b0 8f3c
000000c0: c4b0 7fbc 2d9a cc3d ec3a a3bc e0d8 e7bc
000000d0: 5290 6dbd 9a6a 1f3d eb21 21bc f8b4 7cbd
000000e0: 6384 42bd a2b6 873d b811 f83d e861 cfbd
000000f0: 608a f9ba d291 5b3d ea4b 013d e022 863d
00000100: 79e0 1ebe 1477 5cbd d471 593d 5164 6f3c
00000110: 43f4 003c 2199 fd3c c882 383c 4b35 9f3d
00000120: a4d1 11bb eb50 743c c7a9 433d 97b5 043d
00000130: 5b1d 96bc 0578 cbbd 25a7 853d f09a ecbb
00000140: 58d4 13bb 00c5 36bc ee03 4dbc 12f8 03be
00000150: 971d 203c 7a44 653d ce37 8cbc 5834 5bbd
00000160: 609a 6fbd 03b1 f7bc 85b6 9abc 18db b3bc
00000170: e698 de3c 8dfc 41bc 9660 c1bd 1f26 24bd
00000180: 955d 653b 4ce6 573c 41cc a9bd b574 6a3c
00000190: 6f53 94bc f55b 1a3d 52d7 173d 6ccf ecbd
000001a0: 6b6d 7b3c 505b 973d 078c 4bbd bf18 42bd
000001b0: 8eef 30bc 64e0 c63d c7cb 3bbe 8923 2c3c
000001c0: 6779 173d 4588 e5bc 64b0 14bd b078 7a3d
000001d0: 5509 e6bb 20e0 de3d 4860 9fbd 2454 bfbc
000001e0: 8f8d adbd 9598 a7bc 4ce9 99bd ec91 97bd
000001f0: fcd9 52bd aec6 443e a858 42bd 0be0 443d
00000200: 6b40 a6bc 4af1 bcbc 2b00 27bc 2c45 483d
00000210: 2a35 ccbd 5c14 abbd 9906 823d e59f a03d
00000220: 234b 78bd 1bab d8bd 97ae 7e3c f78c 903d
00000230: 5d78 33bd c374 413d db71 fa3c 3068 e33d
00000240: 7d47 cabd 0dea 36bb 7e27 9b3c 2076 28be
00000250: 7f32 2e3a 55f1 993b 40f0 88bc 7f51 523c
00000260: 5dbe 5fbd 46d5 c6bc e97d 87bb e96c aa3d
00000270: a0fa 1dbd dd13 25be 9d19 2ebd cad2 1a3d
00000280: 9ae7 42bc 09ca 703d 508a 9e3b 8235 c0bc
00000290: 07c2 fabc 26c5 133b a213 d03c 0b76 eebc
000002a0: 1b54 39bd 3678 b8bd 3e98 f4bc 2190 0d3d
000002b0: aa5f 1e3d bfb4 213c aabd 64bc 7f8e 76bd
000002c0: 3018 3c3c 2db9 473d eeed 3c3d 32c2 42bc
000002d0: 243f 29bd e997 f2bc 17a7 553d bed5 6bbd
000002e0: f54b 35be 5a61 b5bd e5bc 50bc d1fc 04be
000002f0: 5d57 8a3c 241b 34ba b245 bebd 4e4d 933c
00000300: 5ea9 9b3c dff4 21bd cf38 173b e029 353d
00000310: 541a 29be e3be b13c 37cd 45bd 1c36 55bd
00000320: 1614 143d d5c6 aebd 910c 5abe 79ca 30be
00000330: 99d3 c7bd 6507 8f3c 13a4 90bd 0403 17bc
00000340: 825f d0ba c55e d3bb 926c 623c 7f0b 59bc
00000350: d4e0 3dbd 3c78 3f3c 7018 c03b d281 9dba
00000360: 0240 da3c 2d8f 613c 0a52 12bd dc29 16bd
00000370: 230a c6bd b36a 9dbc c974 03bc 4318 bc3a
00000380: bfd1 893d a3b2 d6bd 86fd 213d 19f2 703c
00000390: c441 9b3d 3e80 8a3d 625d dbbb cc57 e1bc
000003a0: 1a1a d03b 2dd2 213e 6e6b 3d3d 971f 64bc
000003b0: 60b5 1d3b d483 09bd 23d8 ee3c e75d 55bd
000003c0: 01e7 92bc 4df8 2a3d 63d2 bebd 62aa 3d3c
000003d0: fb8d 863d 1421 fe39 5bab 8bbd eccc 11bd
000003e0: 8741 f93a 8b84 0fbd cba3 4f3c 1932 d6bc
000003f0: 34ed f8bc cc32 6ebc 472b b9b9 b620 8fbd

conv2.bias f4 [16]
0.07586521 -0.026362162 -0.045716994 0.077177666 0.07280559 -0.06588359 -0.0048085176 0.022668928
0.051407818 -0.009072563 0.050468784 0.0384342 0.045420572 0.05543042 0.07002681 0.074910924
00000000: 385f 9b3d 76f5 d7bc be41 3bbd 530f 9e3d
00000010: 191b 953d faed 86bd c590 9dbb 30b4 b93c
00000020: 0191 523d 16a5 14bc 5bb8 4e3d 2e6d 1d3d
00000030: ec0a 3a3d 020b 633d 376a 8f3d e66a 993d

bn11.weight f4 [16]
1.0104122 1.0345916 0.9898211 0.98305297 1.0485889 1.0184258 1.0333829 0.8885319
0.9919611 1.0143914 0.9752056 0.92017424 1.01935 1.0841535 0.8984197 0.98506284
00000000: 3055 813f 7f6d 843f ea64 7d3f 5ca9 7b3f
00000010: 2938 863f c75b 823f e445 843f d476 633f
00000020: 2af1 7d3f 94d7 813f 13a7 793f 8a90 6b3f
00000030: 107a 823f 8bc5 8a3f d5fe 653f 142d 7c3f

bn11.bias f4 [16]
-0.07287673 0.016992787 0.0652277 0.008402606 -0.10513241 -0.122992285 -0.14030729 0.031523697
0.04029056 0.01797895 0.0548197 0.14435317 -0.004896385 -0.06990771 -0.024534678 -0.18172395
00000000: 6540 95bd 7534 8b3c 1a96 853d 15ab 093c
00000010: a94f d7bd 61e3 fbbd b7ac 0fbe fe1e 013d
00000020: b707 253d 9748 933c 9f8a 603d 51d1 133e
00000030: db71 a0bb c62b 8fbd f3fc c8bc d815 3abe

bn11.running_mean f4 [16]
0.07685761 -0.0233947 0.26585618 -0.15751424 0.18514574 -0.068387985 -0.052169926 0.06325233
-0.01463455 -0.13447429 0.13529252 0.3388349 0.25048015 0.074761525 0.30220827 -0.07407989
00000000: 8667 9d3d 3ea6 bfbc 4d1e 883e 6a4b 21be
00000010: d896 3d3e 000f 8cbd 22b0 55bd 708a 813d
00000020: c0c5 6fbc a1b3 09be 1f8a 0a3e c57b ad3e
00000030: ef3e 803e 921c 993d 0bbb 9a3e 33b7 97bd

bn11.running_var f4 [16]
0.00029409034 0.0010831013 0.0014961166 0.00042554928 0.0007256885 0.00041865703 0.0010964124 0.00044207615
0.00042643736 0.0009192069 0.000916163 0.0010034009 0.00042723422 0.0008812194 0.0005271809 0.0006898704
00000000: 2330 9a39 d9f6 8d3a 5819 c43a 421c df39
00000010: 213c 3e3a 327f db39 7fb5 8f3a 75c6 e739
00000020: 7493 df39 eef6 703a a82a 703a 8c84 833a
00000030: 68fe df39 a201 673a 8332 0a3a 6bd8 343a

bn12.weight f4 [16]
0.9702331 1.0121031 1.0083145 1.0184876 0.9919419 0.95704216 0.9882894 0.9751995
0.9484213 1.0219231 1.0861595 1.016155 0.9916409 1.0323602 0.99614584 0.9452169
00000000: 3261 783f 988c 813f 7310 813f cd5d 823f
00000010: e8ef 7d3f b700 753f 8900 7d3f ada6 793f
00000020: bdcb 723f 60ce 823f 4607 8b3f 5e11 823f
00000030: 2edc 7d3f 6124 843f 6a03 7f3f bcf9 713f

bn12.bias f4 [16]
-0.050985657 -0.029748455 0.0041838735 0.059417453 -0.038299434 0.010602994 0.056416508 0.021276282
0.027995978 -0.023752073 0.0093300855 -0.08277769 0.029190892 -0.050205912 0.047343027 0.02506343
00000000: 56d6 50bd 08b3 f3bc e018 893b b75f 733d
00000010: dedf 1cbd 2eb8 2d3c ff14 673d 994b ae3c
00000020: d257 e53c b593 c2bc 37dd 183c 5987 a9bd
00000030: bd21 ef3c b7a4 4dbd c3ea 413d d351 cd3c

bn12.running_mean f4 [16]
-0.17983384 -0.54465526 -0.62506944 0.18264246 -0.1395699 -0.24768215 0.13265818 0.2843533
0.051119037 -0.2543116 -0.6785604 -0.30737254 0.06696417 0.3982423 -0.08976895 -0.13910381
00000000: 5d26 38be 876e 0bbf 8d04 20bf a006 3b3e
00000010: 69eb 0ebe 64a0 7dbe 8cd7 073e c196 913e
00000020: 3262 513d 2135 82be 22b6 2dbf ef5f 9dbe
00000030: 8324 893d 6ae6 cb3e c9d8 b7bd 3b71 0ebe

bn12.running_var f4 [16]
0.21808855 0.16018668 0.1248825 0.2785435 0.17903545 0.3859645 0.12028437 0.18848023
0.22922684 0.14565754 0.24947143 0.0860696 0.20554133 0.06891348 0.22261739 0.29807264
00000000: 9b52 5f3e fa07 243e 65c2 ff3d 419d 8e3e
00000010: 1255 373e 249d c53e a757 f63d f600 413e
00000020: 71ba 6a3e 4027 153e 7075 7f3e 4245 b03d
00000030: 6d79 523e 8322 8d3d d0f5 633e fa9c 983e

conv3.weight f4 [32, 16, 3, 3]
0.0043553067 -0.104794204 -0.03360267 -0.06218644 -0.04530747 -0.03820619 0.06666738 -0.034465827
0.05490662 -0.016327064 0.018791698 -0.05657044 -0.060140718 -0.0028417648 -0.054156195 -0.038670566
0.049968764 -0.085786246 -0.08118966 -0.0013858575 -0.020542435 -0.08637487 0.07782785 -0.059070475
-0.03331544 -0.038749255 0.046916503 -0.0406645 -0.052319217 -0.053895254 0.006491791 0.0004249973
-0.012738132 -0.042901047 -0.06674449 -0.059432086 -0.05294738 -0.0639497 -0.07709426 0.07949005
0.04663224 0.004289618 -0.040593445 -0.036469247 -0.07584867 0.0212883 -0.04650351 -0.04305603
0.08684426 -0.1681036 -0.004280691 0.054173186 -0.028523521 -0.017627416 0.021551179 0.03014988
0.01728139 0.047507852 0.02847865 -0.00665353 -0.07749109 -0.023198122 -0.011917078 0.050605178
-0.108426005 -0.014883325 0.0743087 -0.10704628 -0.18024327 -0.041538898 -0.039595358 -0.06007219
-0.07107805 -0.013426552 -0.005052007 -0.07568673 -0.024725892 0.044393335 0.009301483 -0.05121954
-0.062465377 -0.011830358 -0.01366572 0.014296072 -0.041121557 0.068549335 -0.027965182 -0.04070209
0.073423296 0.03268515 0.0029621134 -0.026278155 0.07209217 -0.044518948 0.10574314 -0.020574918
-0.036165204 -0.019634178 0.19520815 -0.060037162 0.032809205 0.030496487 0.043533746 -0.004653706
-0.05038808 0.0144299865 -0.02587918 0.034967296 -0.047857247 -0.00078882754 -0.079548486 -0.01348509
0.0935216 0.03078395 -0.056158487 0.021486122 -0.09998637 0.09476711 0.045604583 0.08905189
-0.055558093 0.02676006 0.024746526 -0.027431093 0.0031320483 -0.053198226 -0.018778328 -0.04594735
0.015639367 -0.022762902 -0.04833267 -0.056284204 -0.053770296 0.04819187 -0.0006348204 0.006069603
-0.023458306 -0.0075445916 -0.051044095 0.036900483 -0.067151226 0.044268485 -0.08273628 0.00022607166
-0.048565023 0.008153797 0.013273238 0.036943626 0.0214299 -0.035650123 0.054747067 0.046360835
-0.057611696 -0.016694779 0.0006836028 -0.07037664 -0.010971574 -0.051054034 0.031698752 -0.021464387
-0.03915491 -0.09540482 -0.07781474 0.011927211 0.008587414 0.03358608 0.06734816 0.020797817
0.071468666 0.042348236 -0.059808463 0.052545723 0.0259574 -0.03227502 0.005793469 -0.044950046
-0.12750204 -0.033690117 0.022146784 -0.02974698 -0.018367324 -0.030537775 -0.01928768 0.031185756
-0.04599531 -0.0017283601 -0.0744589 -0.08665316 0.016802661 0.054783493 0.044402 -0.05181509
-0.011872117 -0.13613081 0.021284016 0.052721098 -0.059113175 -0.035602573 -0.05793193 -0.052188672
-0.09359475 0.027675169 0.02747813 -0.09971944 0.025574924 -0.09296376 -0.029754624 -0.016900351
-0.061095826 0.009676265 -0.03232026 -0.12790853 -0.046926692 0.0066425116 -0.14562555 -0.08580725
0.014679869 0.11916707 -0.060865663 -0.0074393647 0.062160775 -0.043406766 -0.007011347 -0.029741699
0.025720336 -0.052637026 0.062431097 0.033441387 0.030482324 0.057207268 -0.05097777 -0.07321856
-0.016033052 -0.066560216 -0.004669451 -0.008429009 0.053334184 0.021756826 0.03618486 -0.02490817
-0.0033875976 0.080162086 0.054253418 0.048486196 -0.018444538 0.0004985631 0.023396757 -0.021398524
0.047530252 0.002679231 -0.014797653 0.055634536 0.0385073 -0.059862297 0.0093531255 -0.061565656
00000000: f6b6 8e3b 589e d6bd f4a2 09bd 35b7 7ebd
00000010: 5394 39bd 187e 1cbd e888 883d 0a2c 0dbd
00000020: c4e5 603d 56c0 85bc 0cf1 993c 68b6 67bd
00000030: 1d56 76bd e73c 3abb e3d2 5dbd 0765 1ebd
00000040: 0cac 4c3d b3b0 afbd c446 a6bd a9a5 b5ba
00000050: 9c48 a8bc 4fe5 b0bd 3564 9f3d e2f3 71bd
00000060: c575 08bd 8ab7 1ebd 852b 403d d28f 26bd
00000070: ad4c 56bd 45c1 5cbd 17b9 d43b 2cd2 de39
00000080: 99b3 50bc 02b9 2fbd 56b1 88bd 0f6f 73bd
00000090: 5adf 58bd 0ff8 82bd 98e3 9dbd aecb a23d
000000a0: 7301 3f3d ed8f 8c3b 5045 26bd c760 15bd
000000b0: 8c56 9bbd cd64 ae3c 777a 3ebd 855b 30bd
000000c0: 67db b13d 5a23 2cbe 0a45 8cbb b4e4 5d3d
000000d0: 29aa e9bc 5f67 90bc 198c b03c e2fc f63c
000000e0: b491 8d3c 9897 423d 0f4c e93c db05 dabb
000000f0: a6b3 9ebd fd09 bebc d93f 43bc 6047 4f3d
00000100: 740e debd 31d9 73bc 292f 983d 143b dbbd
00000110: b191 38be b124 2abd be2e 22bd 420e 76bd
00000120: 5e91 91bd 0afb 5bbc 4e8b a5bb a501 9bbd
00000130: f48d cabc c9d5 353d 3f65 183c 95cb 51bd
00000140: b2db 7fbd 1ed4 41bc 2fe6 5fbc 123a 6a3c
00000150: 146f 28bd 9863 8c3d 3d17 e5bc 3cb7 26bd
00000160: f45e 963d dde0 053d 0420 423b 4945 d7bc
00000170: 0fa5 933d 8059 36bd dc8f d83d bb8c a8bc
00000180: f721 14bd dbd7 a0bc a5e4 473e 87e9 75bd
00000190: f262 063d c5d3 f93c 7150 323d 1e7e 98bb
000001a0: bb63 4ebd c06b 6c3c 9300 d4bc de39 0f3d
000001b0: f605 44bd 52c9 4eba 51ea a2bd 91f0 5cbc
000001c0: 4188 bf3d 9f2e fc3c 7106 66bd aa03 b03c
000001d0: a7c5 ccbd 4215 c23d dfcb 3a3d d660 b63d
000001e0: e290 63bd ea37 db3c 3ab9 ca3c 2cb7 e0bc
000001f0: 0d43 4d3b 62e6 59bd 02d5 99bc 4a33 3cbd
00000200: 211e 803c 4479 babc 7af8 45bd 448a 66bd
00000210: 3e3e 5cbd d764 453d 136a 26ba 85e3 c63b
00000220: a22b c0bc 9f38 f7bb 9d13 51bd f624 173d
00000230: 9586 89bd df52 353d a471 a9bd a60d 6d39
00000240: 1eec 46bd 8197 053c ff77 593c 3352 173d
00000250: c28d af3c dd05 12bd 763e 603d dce4 3d3d
00000260: 3efa 6bbd 7dc3 88bc cf33 333a a121 90bd
00000270: 1ec2 33bc 091e 51bd 8dd6 013d 15d6 afbc
00000280: e660 20bd 9a63 c3bd 565d 9fbd 596a 433c
00000290: 3ab2 0c3c 8f91 093d d5ed 893d 2f60 aa3c
000002a0: 2a5e 923d 5875 2d3d b8f9 74bd 2f3a 573d
000002b0: 9da4 d43c d032 04bd 24d7 bd3b 8a1d 38bd
000002c0: e58f 02be a6fe 09bd 2c6d b53c f0af f3bc
000002d0: 1277 96bc 5b2a fabc 3201 9ebc 4579 ff3c
000002e0: 9465 3cbd 248a e2ba e87d 98bd 3677 b1bd
000002f0: bca5 893c a864 603d dfde 353d 0f3c 54bd
00000300: 4583 42bc e065 0bbe d15b ae3c 14f2 573d
00000310: a820 72bd 01d4 11bd 084a 6dbd cac3 55bd
00000320: 9bae bfbd 09b7 e23c d119 e13c b539 ccbd
00000330: 8182 d13c c963 bebd f8bf f3bc 9b72 8abc
00000340: 9e3f 7abd 3289 1e3c 4062 04bd 74fa 02be
00000350: 3436 40bd 6da9 d93b dd1e 15be b6bb afbd
00000360: d583 703c dd0d f43d 464e 79bd eac5 f3bb
00000370: 4c9c 7e3d 4bcb 31bd 71bf e5bb dda4 f3bc
00000380: 74b3 d23c ec99 57bd c0b7 7f3d d6f9 083d
00000390: 11b6 f93c 2b52 6a3d 11ce 50bd 9df3 95bd
000003a0: bf57 83bc b950 88bd 3202 99bb d319 0abc
000003b0: f274 5a3d 5f3b b23c 9336 143d 380c ccbc
000003c0: 7502 5ebb 052c a43d d538 5e3d 7699 463d
000003d0: 0019 97bc 01b2 023a 8eaa bf3c f54b afbc
000003e0: 15af 423d 0a96 2f3b db71 72bc 0ae1 633d
000003f0: d5b9 1d3d 2b32 75bd da3d 193c 452c 7cbd

conv3.bias f4 [32]
0.01557269 0.077873215 -0.069488205 -0.06624452 0.026802674 -0.06949466 0.035595782 -0.07399772
-0.07069334 0.076118 0.009237948 -0.043666694 -0.062283874 -0.011164892 0.0040824735 0.061483286
0.047566883 0.055138685 0.013343311 -0.039919794 0.038686052 0.055281173 -0.034441125 -0.05504156
0.08003565 -0.072827116 0.0769825 0.020246033 0.05960803 -0.020369215 0.032973424 -0.015792202
00000000: 9924 7f3c fe7b 9f3d d54f 8ebd 35ab 87bd
00000010: 4891 db3c 3753 8ebd e2cc 113d 1e8c 97bd
00000020: abc7 90bd c1e3 9b3d c35a 173c d9db 32bd
00000030: 601d 7fbd f4ec 36bc 45c6 853b e6d5 7b3d
00000040: 7ed5 423d 1ad9 613d e79d 5a3c f082 23bd
00000050: 4475 1e3d 836e 623d 2312 0dbd 4273 61bd
00000060: bbe9 a33d 6226 95bd 00a9 9d3d 02db a53c
00000070: 8d27 743d 57dd a6bc 240f 073d a65e 81bc

conv4.weight f4 [32, 32, 3, 3]
0.042883858 -0.024016418 0.045708142 -0.015395409 0.021461405 0.047854807 -0.07164349 -0.06313818
0.008883433 -0.00021143825 0.038421087 0.018627398 -0.015433992 0.046464622 0.043001074 0.031617004
-0.0008074875 0.014231357 -0.024059847 0.053558722 -0.032890487 0.0045489985 -0.006007328 0.06902035
0.05788406 -0.019562919 -0.026766248 -0.028607855 0.02012105 -0.014686598 -0.005066759 -0.019899542
0.04657605 0.026113553 0.026269525 0.06956856 0.008040603 0.05366281 0.014298976 -0.0010418736
0.056494582 0.039737366 0.05653938 -0.0019177472 -0.028769452 -0.026678035 -0.0049535735 0.043455444
-0.04495239 -0.009744034 0.04964038 0.026715143 -0.0113455625 -0.037654508 -0.037078872 0.022675993
0.009903571 0.019954339 -0.01244386 -0.027855804 -0.017054116 -0.0154032875 -0.043303452 -0.024101026
-0.03210127 0.014066903 0.019129071 -0.029544773 0.06809809 -0.03812129 0.021135017 0.045087986
0.011984896 0.022498975 0.025142504 -0.0014679779 0.0250688 -0.02831109 0.056059353 0.022324497
0.020392574 0.023553055 -0.013207666 -0.044510834 -0.022752661 -0.05225693 0.055505667 0.034305222
-0.016580394 0.014751892 0.060344115 0.008408473 0.04917327 -0.025185557 -0.016466847 -0.010621335
0.039094448 0.015185091 0.041204393 0.039309856 0.012214767 0.075983874 0.058845058 0.049604718
0.0001771528 0.0027731454 0.0018520654 0.021766689 -0.045666806 0.034779295 0.01789568 -0.019564426
-0.0076846397 -0.011201529 0.051268633 -0.019234562 0.06137724 -0.014400953 -0.022662012 -0.046174794
-0.007915658 -0.046076216 -0.057522558 0.015193109 -0.065171055 0.044399165 0.034042545 0.047711067
-0.0061836923 0.076897465 0.08236209 0.061678756 0.04680801 0.07262045 -0.00027159232 -0.0065181325
-0.030101921 -0.02734069 -0.00445479 -0.020017704 -0.0407803 -0.026705634 0.009545018 -0.042168178
-0.057335164 -0.01238668 -0.049272865 -1.2494097e-05 0.0045010988 -0.035723973 -0.053051062 -0.04580459
-0.0011539744 0.047630973 -0.015231471 -0.009232071 0.062479734 0.07383551 0.018756581 -0.029116752
0.029756654 -0.013832986 -0.016220134 -0.037772655 0.001136182 0.008492564 0.03358095 -0.0068398025
-0.0014007847 -0.027096948 0.0060233586 0.0042739776 0.01339725 0.013963121 0.032312136 0.01727792
-0.0031263805 0.04643009 0.0039474005 -0.008120245 0.029960733 -0.01232321 0.028902648 0.0911245
0.09107608 0.091898665 0.056832027 0.05139061 0.03443835 -0.029736921 -0.019607384 -0.03253104
0.012395238 -0.00835641 0.037427105 -0.020791078 0.030490223 0.024176678 -0.036123663 0.053755432
-0.023661116 0.042121053 0.025582746 0.04922668 0.0014136231 -0.034597006 0.03158934 0.013595817
-0.0050825584 -0.052792475 0.040439464 0.024975056 -0.01056714 -0.007985774 0.043685615 0.060702264
-0.030619578 -0.017647022 0.018482752 -0.017363545 -0.015649319 -0.0382913 -0.010260942 0.009667526
-0.02165798 -0.025115011 -0.022726674 -0.029539976 0.03012495 -0.05261651 -0.031659562 -0.016437035
-0.0057570585 0.009058555 0.051074833 0.040071838 0.04590763 -0.018249279 0.04986872 0.015479687
0.0049044997 0.0057788063 -0.05613655 0.01090155 -0.009670038 0.049090244 0.0012316589 0.060829204
0.0039074956 0.016476918 -0.012848226 0.042488314 -0.022526076 0.0016015857 -0.033093438 -0.0026970706
00000000: fca6 2f3d 14be c4bc 7638 3b3d 073d 7cbc
00000010: d4cf af3c 6703 443d d2b9 92bd 974e 81bd
00000020: d28b 113c 86b5 5db9 6e5f 1d3d 7c98 983c
00000030: dbde 7cbc b051 3e3d e521 303d d580 013d
00000040: 92ad 53ba a32a 693c 2819 c5bc 6460 5b3d
00000050: 2db8 06bd c40f 953b 1fd9 c4bb 8b5a 8d3d
00000060: d617 6d3d 6a42 a0bc e444 dbbc 055b eabc
00000070: e6d4 a43c 0fa0 70bc 0e07 a6bb 5d04 a3bc
00000080: 87c6 3e3d 17ec d53c 3033 d73c f679 8e3d
00000090: bcbc 033c 89cd 5b3d 4146 6a3c 7a8f 88ba
000000a0: dd66 673d a6c3 223d d695 673d eb5c fbba
000000b0: eaad ebbc e58b dabc 9651 a2bb 56fe 313d
000000c0: ff1f 38bd 71a5 1fbc b653 4b3d b7d9 da3c
000000d0: bde2 39bc 9d3b 1abd 04e0 17bd 01c3 b93c
000000e0: 9642 223c 4877 a33c 55e1 4bbc db31 e4bc
000000f0: 13b5 8bbc 125e 7cbc f65e 31bd 846f c5bc
00000100: 9f7c 03bd de78 663c 92b4 9c3c e107 f2bc
00000110: 0377 8b3d 1225 1cbd 5823 ad3c 2eae 383d
00000120: 4c5c 443c c54f b83c a7f7 cd3c 2a69 c0ba
00000130: 165d cd3c a9ec e7bc 7e9e 653d dde1 b63c
00000140: 540e a73c 56f2 c03c f764 58bc fe50 36bd
00000150: ca63 babc 5d0b 56bd e959 633d a283 0c3d
00000160: 9bd3 87bc ebb1 713c 642b 773d b1c3 093c
00000170: e969 493d f151 cebc 7be5 86bc 1c05 2ebc
00000180: 8021 203d e3ca 783c f0c5 283d 5f03 213d
00000190: 7220 483c 6f9d 9b3d 8407 713d 512e 4b3d
000001a0: 18c2 3939 a9bd 353b 01c1 f23a 0e50 b23c
000001b0: 1e0d 3bbd bc74 0e3d f699 923c 9345 a0bc
000001c0: 6ecf fbbb 9e86 37bc 0fff 513d cd91 9dbc
000001d0: b366 7b3d faf1 6bbc afa5 b9bc c821 3dbd
000001e0: adb0 01bc 6aba 3cbd c69c 6bbd 85ec 783c
000001f0: 6778 85bd e6db 353d 3270 0b3d ae6c 433d
00000200: 92a0 cabb 6b7c 9d3d 75ad a83d dda2 7c3d
00000210: c2b9 3f3d 08ba 943d 8164 8eb9 0f96 d5bb
00000220: 4e98 f6bc 95f9 dfbc 7df9 91bb 2bfc a3bc
00000230: 3e09 27bd c6c5 dabc b562 1c3c 8ab8 2cbd
00000240: 47d8 6abd 80f1 4abc 58d2 49bd bd9d 51b7
00000250: f47d 933b 4d53 12bd 124c 59bd 989d 3bbd
00000260: f540 97ba b218 433d 6b8d 79bc 1d42 17bc
00000270: c0ea 7f3d 1237 973d 67a7 993c 4186 eebc
00000280: 3ac4 f33c c0a3 62bc 16e0 84bc 80b7 1abd
00000290: f1eb 943a 6524 0b3c 2e8c 093d 6c20 e0bb
000002a0: 899a b7ba 6bfa ddbc 985f c53b b90c 8c3b
000002b0: 2480 5b3c 93c5 643c bb59 043d 6d8a 8d3c
000002c0: f6e3 4cbb 7a2d 3e3d 3259 813b c70a 05bc
000002d0: 3670 f53c 4ae7 49bc 3fc5 ec3c 7b9f ba3d
000002e0: 1986 ba3d 5e35 bc3d b3c8 683d f67e 523d
000002f0: 3a0f 0d3d d89a f3bc aa9f a0bc 453f 05bd
00000300: 6515 4b3c 53e9 08bc 2a4d 193d 0d52 aabc
00000310: a2c6 f93c 2b0e c63c 68f6 13bd a82e 5c3d
00000320: f5d4 c1bc 2087 2c3d e892 d13c eaa1 493d
00000330: 5249 b93a 97b5 0dbd d363 013d fdc0 5e3c
00000340: 978b a6bb ec3c 58bd daa3 253d 7d98 cc3c
00000350: cc21 2dbc c4d6 02bc b0ef 323d f0a2 783d
00000360: e9d5 fabc 7d90 90bc 2469 973c fe3d 8ebc
00000370: 0033 80bc 57d7 1cbd 831d 28bc 8b64 1e3c
00000380: 136c b1bc ffbd cdbc 4a2d babc d2fd f1bc
00000390: 99c8 f63c 6984 57bd 75ad 01bd f6a6 86bc
000003a0: b5a5 bcbb 556a 143c d833 513d 5e22 243d
000003b0: a409 3c3d 837f 95bc 2543 4c3d 839e 7d3c
000003c0: edb5 a03b 245c bd3b 70ef 65bd 6a9c 323c
000003d0: 146f 1ebc da12 493d 9d6f a13a 0b28 793d
000003e0: 730a 803b 9afa 863c 5e81 52bc 3a08 2e3d
000003f0: 9b88 b8bc 4cec d13a fc8c 07bd 56c1 30bb

conv4.bias f4 [32]
-0.0007794676 -0.00822047 0.022296177 -0.037211202 0.016802682 0.03371992 -0.058901474 -0.01920896
0.0024255242 0.000100274156 0.0010074199 0.05502889 -0.0051177745 -0.054851703 -0.01041802 -0.056004092
-0.04689813 0.01440294 0.04513582 0.055502895 0.015926091 -0.057644267 0.004489724 -0.0139088165
-0.011673057 -0.057034016 0.055733457 -0.02733602 -0.03996292 -0.023182482 0.037154347 0.017233282
00000000: 2f55 4cba 26af 06bc 79a6 b63c c66a 18bd
00000010: c7a5 893c e61d 0a3d ac42 71bd 1c5c 9dbc
00000020: 8bf5 1e3b 474a d238 670b 843a f965 613d
00000030: 01b3 a7bb 2eac 60bd 58b0 2abc 8c64 65bd
00000040: 4118 40bd 4ffa 6b3c 56e0 383d 0157 633d
00000050: 6f77 823c 651c 6cbd 891e 933b cee1 63bc
00000060: 5a40 3fbc 809c 69bd c448 643d caef dfbc
00000070: 29b0 23bd 30e9 bdbc 282f 183d d02c 8d3c

bn21.weight f4 [32]
1.0112108 1.0028402 0.98492026 1.0053046 0.9983306 0.9931969 1.0092043 0.99539316
0.98899305 0.9975028 0.99797475 1.0020759 0.99923587 0.9727558 1.0156844 0.97054815
1.0144583 1.0149891 0.98617595 1.017081 1.0249891 1.0014256 0.9906746 0.9929745
0.95449305 0.9709548 1.017707 1.0219741 1.0049776 0.9917141 0.99198216 1.0240434
00000000: 5b6f 813f 115d 803f bc23 7c3f d2ad 803f
00000010: 9892 7f3f 2742 7e3f 9b2d 813f 16d2 7e3f
00000020: a62e 7d3f 585c 7f3f 467b 7f3f 0644 803f
00000030: eccd 7f3f 8606 793f f201 823f d875 783f
00000040: c5d9 813f 2aeb 813f 0776 7c3f b62f 823f
00000050: d832 833f b72e 803f da9c 7d3f 9433 7e3f
00000060: a859 743f 7e90 783f 3944 823f 0cd0 823f
00000070: 1ba3 803f fae0 7d3f 8bf2 7d3f db13 833f

bn21.bias f4 [32]
-0.022970313 -0.00998677 -0.029808806 -0.02617742 -0.035813592 -0.09874481 -0.012182801 -0.015487497
0.003364128 -0.01903095 -0.026947241 -0.0058701364 0.027924336 0.0058837296 -0.0388609 -0.009631399
-0.018603602 -0.017676517 -0.015140015 -0.022933982 -0.030277034 -0.007553373 -0.02693385 -0.0015884174
-0.07608369 -0.047235202 -0.011023035 -0.0049243765 -0.029207256 -0.012991005 -0.0013311912 -0.0022860074
00000000: 3d2c bcbc 8d9f 23bc 9931 f4bc 0772 d6bc
00000010: 46b1 12bd b83a cabd 5f9a 47bc 45bf 7dbc
00000020: b478 5c3b cbe6 9bbc 76c0 dcbc 465a c0bb
00000030: 94c1 e43c 4dcc c03b 9b2c 1fbd 04cd 1dbc
00000040: 9566 98bc 58ce 90bc d30d 78bc 0ce0 bbbc
00000050: 8b07 f8bc 4982 f7bb 61a4 dcbc 7232 d0ba
00000060: c4d1 9bbd b379 41bd f699 34bc aa5c a1bb
00000070: 0e44 efbc 39d8 54bc 5d7b aeba d7d0 15bb

bn21.running_mean f4 [32]
-1.3503387 -1.1722699 -0.4534766 0.76630694 0.90340304 0.84586245 -0.57284194 -1.1419559
0.7373031 1.4579585 0.62402266 -0.11680007 0.9751877 0.10095826 0.18692006 -0.6583077
-0.81871176 -0.6685215 1.347117 0.10519333 -0.035178185 -1.2728325 0.5327767 1.64444
-0.33876333 0.8169736 -1.0542917 -0.2504097 -1.1995497 0.4358477 1.172143 -1.0182556
00000000: e6d7 acbf f10c 96bf 162e e8be b12c 443f
00000010: 6c45 673f 718a 583f c5a5 12bf 9c2b 92bf
00000020: e5bf 3c3f 629e ba3f f3bf 1f3f e034 efbd
00000030: e7a5 793f 34c3 ce3d f967 3f3e da86 28bf
00000040: 1897 51bf 3a24 2bbf 546e ac3f 9a6f d73d
00000050: 0017 10bd 2dec a2bf 0e64 083f 037d d23f
00000060: 6372 adbe 2f25 513f 08f3 86bf b335 80be
00000070: d88a 99bf 6e27 df3e c808 963f 3356 82bf

bn21.running_var f4 [32]
0.6109539 0.7178438 0.07675845 0.08498932 0.3828521 0.07597937 0.123436205 0.18297634
0.13358578 0.2608811 0.2824965 0.28646925 0.06822053 0.11619808 0.19262104 0.14272915
0.42368472 0.15589589 0.35343897 0.17336538 0.12770516 0.29411882 0.33216843 0.5617569
0.13588658 0.19435596 0.24945742 0.22176267 0.25098276 0.25040466 0.22228943 0.6810047
00000000: 7a67 1c3f 9cc4 373f 8933 9d3d e10e ae3d
00000010: 3105 c43e 129b 9b3d 1fcc fc3d 265e 3b3e
00000020: b6ca 083e 3592 853e 62a3 903e 19ac 923e
00000030: 35b7 8b3d 42f9 ed3d 733e 453e 9727 123e
00000040: 34ed d83e 2ca3 1f3e f4f5 b43e b286 313e
00000050: 24c5 023e be96 963e fb11 aa3e 4dcf 0f3f
00000060: da25 0b3e 4005 473e c471 7f3e c115 633e
00000070: d080 803e 0a35 803e d79f 633e 5356 2e3f

bn22.weight f4 [32]
1.0018182 0.9782241 0.9838613 0.9755926 0.9807654 0.9931252 1.0097891 0.96840626
1.0178386 1.0025046 0.98796713 1.027423 0.98844934 0.99657357 0.99964094 0.98988324
1.0010364 0.99401873 0.9795986 0.9665175 0.9997963 0.99368834 1.0038524 0.9931748
0.97796464 1.0048486 0.95789903 1.0004458 0.9999477 0.99232924 0.9913807 0.99967724
00000000: 943b 803f e56c 7a3f 56de 7b3f 70c0 793f
00000010: 7113 7b3f 743d 7e3f c540 813f 79e9 773f
00000020: 8948 823f 1252 803f 6aeb 7c3f 9982 833f
00000030: 040b 7d3f 721f 7f3f 78e8 7f3f fd68 7d3f
00000040: f621 803f 0378 7e3f f9c6 7a3f b16d 773f
00000050: a6f2 7f3f 5c62 7e3f 3c7e 803f b440 7e3f
00000060: e45b 7a3f e19e 803f df38 753f 9c0e 803f
00000070: 93fc 7f3f 4a09 7e3f 20cb 7d3f d9ea 7f3f

bn22.bias f4 [32]
-0.13356759 -0.021820897 -0.0023269067 -0.030633727 -0.030724477 0.046344656 -0.27962974 -0.070032395
0.047510795 -0.084935196 0.11892134 -0.15195724 0.009309988 0.03638151 0.0050802086 -0.01296959
0.010880054 -0.056467455 -0.031152066 -0.06923784 -0.10497603 -0.09169285 0.009008313 0.030737264
-0.0043269168 -0.13545676 -0.03851234 -0.16003191 0.0023813497 0.045536127 -0.03950148 -0.012241146
00000000: f1c5 08be bdc1 b2bc 047f 18bb 95f3 fabc
00000010: e6b1 fbbc e5d3 3d3d a12b 8fbe 256d 8fbd
00000020: ae9a 423d 81f2 adbd 088d f33d ae9a 1bbe
00000030: eb88 183c c704 153d e177 a63b 677e 54bc
00000040: 4142 323c 6b4a 67bd 9e32 ffbc 92cc 8dbd
00000050: acfd d6bd 76c9 bbbd 9a97 133c b7cc fb3c
00000060: cfc8 8dbb 2db5 0abe 1ebf 1dbd 68df 23be
00000070: 6b10 1c3b 1784 3a3d 4ecc 21bd 168f 48bc

bn22.running_mean f4 [32]
0.9092832 -0.18019754 -0.098422855 -0.38562006 -0.3069909 -1.007282 0.025938287 0.56415796
-1.5973872 1.2945918 -1.0946847 1.5523016 -0.32606697 -1.0633485 -0.0762626 -0.3782749
0.29149163 -0.06558989 0.013860406 0.7387722 -0.1177236 0.1225536 -0.7930477 -0.93696815
-0.60336447 1.0328581 -0.13941538 0.7518396 -0.33964393 -0.7816943 -0.055889484 -0.06864994
00000000: c9c6 683f b485 38be ec91 c9bd fe6f c5be
00000010: e92d 9dbe 9eee 80bf 887c d43c a86c 103f
00000020: 2f77 ccbf 2fb5 a53f a11e 8cbf d2b1 c63f
00000030: 40f2 a6be ce1b 88bf 912f 9cbd 3fad c1be
00000040: 643e 953e fe53 86bd c216 633c 2d20 3d3f
00000050: 1219 f1bd 62fd fa3d 2d05 4bbf 25dd 6fbf
00000060: 1876 1abf b234 843f e8c2 0ebe 8f78 403f
00000070: cfe5 adbe 1e1d 48bf 5fec 64bd 5798 8cbd

bn22.running_var f4 [32]
0.37038913 0.7630796 1.5240175 1.6045874 0.5476289 0.69141316 0.15784994 0.33387378
0.43505964 0.2957207 0.8586865 0.49765113 0.6489741 0.5413995 1.4589245 1.1253129
0.64976007 0.4689998 0.54935 0.49767897 0.17994466 0.32764113 1.2780796 0.7037162
1.0998808 0.61205035 1.0502732 0.3426154 0.5553064 0.715303 1.1029674 1.0355343
00000000: a5a3 bd3e 2f59 433f 0113 c33f 1f63 cd3f
00000010: 6831 0c3f 7400 313f 6aa3 213e 81f1 aa3e
00000020: 23c0 de3e b468 973e e1d2 5b3f 21cc fe3e
00000030: 2b23 263f 2899 0a3f 0abe ba3f 410a 903f
00000040: ad56 263f be20 f03e 34a2 0c3f c7cf fe3e
00000050: 6a43 383e 94c0 a73e 1d98 a33f bf26 343f
00000060: e5c8 8c3f 55af 1c3f 5a6f 863f 496b af3e
00000070: 8f28 0e3f 191e 373f 092e 8d3f 638c 843f

conv5.weight f4 [64, 32, 3, 3]
0.040310405 -0.02377666 -0.014917449 0.050788466 0.08041873 0.07306576 -0.009560296 0.03689833
0.015370065 -0.0337256 0.006241897 0.020245811 -0.028754178 -0.059411634 0.02933254 0.015675185
0.035011705 -0.03516669 0.0040906803 0.030505499 -0.029441245 -0.051959544 -0.017775845 -0.067220524
0.019365413 0.046614356 -0.03529423 -0.06719314 -0.0039578364 -0.08533236 0.008407929 0.041826908
-0.004641934 -0.02075023 0.043284345 0.060892362 -0.017302739 -0.0528649 -0.044622704 -0.026956342
0.029958325 0.02076088 -0.008412637 0.033016358 -0.00599539 0.010204937 0.0032447446 0.012606647
0.01938174 -0.04022166 0.05545906 0.013203487 0.024353968 -0.044530734 0.007527143 -0.065429784
-0.060251165 -0.017140096 0.036620982 -0.040262543 -0.008037409 0.044537414 0.031784248 -0.031156411
-0.032801803 0.052565206 0.020286882 0.016896447 -0.028791433 0.0014711824 0.070291914 0.08299907
0.011564947 -0.009396325 0.04604729 0.023838384 0.039245658 0.06946378 0.05088798 0.081430525
0.005741519 -0.03210341 -0.037509844 0.02719005 0.0251375 0.04866391 -0.015549125 0.0037693442
0.0218672 0.049337137 0.036878645 0.010514688 0.025618361 -0.021038773 0.04998044 0.021226931
0.05815556 0.019262355 0.04181896 -0.024209678 -0.038734913 0.0547877 0.040065736 0.043886054
-0.021206638 -0.03943524 -0.008583909 0.07284416 0.02562686 -0.035892773 0.018931625 0.058107298
0.044334028 -0.035587836 -0.008333651 -0.011481221 -0.014352093 -0.029051615 0.007240644 0.0025280402
0.014082363 -0.003410271 0.018812504 0.062349644 0.009304608 0.005387048 -0.051431704 -0.08202505
-0.046534285 0.017868258 -0.025897875 0.011331647 0.0011481626 -0.008364934 -0.03581101 -0.07875472
-0.06382158 -0.020213934 0.056786254 0.0464685 -0.06488343 -0.021711608 0.011647712 -0.017344456
-0.08058211 -0.09918864 -0.0511916 -0.07767846 0.019246811 -0.04079341 -0.054753914 -0.010771472
-0.030814873 -0.03717667 -0.012127517 -0.03384589 -0.040469676 -0.049162284 0.04183292 0.0034600112
-0.021694895 -0.031404283 -0.06035456 0.034927648 -0.0055217366 -0.01568155 0.025292031 0.004563362
0.0013319623 0.0029776103 0.002070754 -0.06372459 -0.03434667 -0.046391573 0.034788385 0.007503519
0.062616505 0.026057445 0.04860457 0.019998273 -0.008685496 -0.032380816 -0.020712785 0.031328905
0.06472275 0.028767679 0.063301004 0.009744883 -0.0021198336 0.012893856 -0.032014333 0.046239384
-0.023124497 0.060162757 0.049655057 0.0073607713 0.062464934 -0.014956121 0.056514904 0.02855676
0.04042677 0.02534221 0.08251054 0.01527116 0.023441326 0.0025245359 0.06525186 0.055218607
0.0047671027 0.015692262 0.018138194 0.043067895 0.030553143 0.07647821 0.01254923 0.054413486
-0.004977147 0.031508103 -0.035287984 0.05858291 -0.026656503 0.06634913 0.048463583 -0.008861572
0.0021069 0.044132024 -0.055160854 -0.026931042 0.0090103075 -0.0022799144 0.008275916 0.013935368
0.052270267 0.0042270985 -0.020541204 -0.0011659084 0.032452777 -0.031912204 -0.04174781 -0.034654383
0.015852962 0.04454051 -0.032606136 -0.04777918 -0.019176137 -0.019277785 -0.010570765 0.03320169
0.06626117 0.039076958 -0.021445448 0.06768077 0.04752789 -0.03815723 0.026822807 0.056165148
00000000: 861c 253d 45c7 c2bc 5168 74bc 9107 503d
00000010: 93b2 a43d 80a3 953d caa2 1cbc b422 173d
00000020: bad2 7b3c db23 0abd d488 cc3b 8bda a53c
00000030: e28d ebbc 9d59 73bd cc4a f03c 3f69 803c
00000040: 6f68 0f3d f20a 10bd 1d0b 863b abe6 f93c
00000050: c42e f1bc 88d3 54bd a69e 91bc eaaa 89bd
00000060: 37a4 9e3c b2ee 3e3d af90 10bd 8f9c 89bd
00000070: bdb0 81bb bbc2 aebd 69c1 093c b152 2b3d
00000080: 5d1b 98bb 63fc a9bc ed4a 313d 456a 793d
00000090: 79be 8dbc de88 58bd 4cc6 36bd 8cd3 dcbc
000000a0: 296b f53c b912 aa3c 28d5 09bc 293c 073d
000000b0: fa74 c4bb 9c32 273c c8a5 543b 1c8c 4e3c
000000c0: 74c6 9e3c 78bf 24bd 0a29 633d 7053 583c
000000d0: f981 c73c dc65 36bd 41a6 f63b 0d00 86bd
000000e0: edc9 76bd 6369 8cbc e2ff 153d 56ea 24bd
000000f0: 56af 03bc dd6c 363d 3330 023d bb3b ffbc
00000100: 2f5b 06bd 9d4e 573d ad30 a63c 6b6a 8a3c
00000110: 03dc ebbc b1d4 c03a 35f5 8f3d 6bfb a93d
00000120: e77a 3d3c 0bf3 19bc 159c 3c3d b748 c33c
00000130: 0ec0 203d 0743 8e3d ea6f 503d 0cc5 a63d
00000140: 5a23 bc3b de7e 03bd eca3 19bd abbd de3c
00000150: 29ed cd3c cf53 473d c2c1 7ebc 1a07 773b
00000160: d822 b33c bd15 4a3d 100e 173d cc45 2c3c
00000170: 99dd d13c 8159 acbc 4ab8 4c3d 1ae4 ad3c
00000180: 8634 6e3d 16cc 9d3c 5c4a 2b3d 6053 c6bc
00000190: 80a8 1ebd 1169 603d f81b 243d ddc1 333d
000001a0: 8bb9 adbc d986 21bd 86a3 0cbc 522f 953d
000001b0: 6cef d13c 4d04 13bd 7f16 9b3c eb01 6e3d
000001c0: 9997 353d 8dc4 11bd de89 08bc bb1b 3cbc
000001d0: 0b25 6bbc a7fd edbc ed42 ed3b 7aad 253b
000001e0: b6b9 663c da7e 5fbb ae1c 9a3c 5762 7f3d
000001f0: 5b72 183c d585 b03b 0daa 52bd c0fc a7bd
00000200: bc9a 3ebd 7460 923c c827 d4bc 5fa8 393c
00000210: f27d 963a 130d 09bc 91ae 12bd 284a a1bd
00000220: e3b4 82bd b197 a5bc b498 683d c155 3e3d
00000230: 9be1 84bd 8bdc b1bc 0cd6 3e3c f615 8ebc
00000240: 3c08 a5bd 6a23 cbbd 48ae 51bd e215 9fbd
00000250: 7dab 9d3c fe16 27bd a445 60bd d47a 30bc
00000260: 796f fcbc 9046 18bd 7eb2 46bc fda1 0abd
00000270: 88c3 25bd 645e 49bd ff58 2b3d 5bc1 623b
00000280: 7eb9 b1bc c7a1 00bd 5836 77bd 4b10 0f3d
00000290: afef b4bb 9876 80bc 3c31 cf3c 4188 953b
000002a0: 3d95 ae3a 0324 433b 7db5 073b 0a82 82bd
000002b0: 18af 0cbd 1705 3ebd 447e 0e3d 14e0 f53b
000002c0: 153d 803d 6c76 d53c 9615 473d 6bd3 a33c
000002d0: 9c4d 0ebc bfa1 04bd dcad a9bc bd52 003d
000002e0: 5c8d 843d 32aa eb3c f5a3 813d 00a9 1f3c
000002f0: e8ec 0abb c040 533c 7621 03bd 8265 3d3d
00000300: 966f bdbc 396d 763d 1a63 4b3d a032 f13b
00000310: 3bdb 7f3d 850a 75bc 2c7c 673d deef e93c
00000320: 8a96 253d 779a cf3c 49fb a83d e333 7a3c
00000330: 0608 c03c af72 253b c4a2 853d e82c 623d
00000340: 5b35 9c3b 0f8d 803c 8d96 943c f667 303d
00000350: 964a fa3c 9ca0 9c3d 499b 4d3c ade0 5e3d
00000360: 5617 a3bb a40e 013d 228a 10bd a2f4 6f3d
00000370: bd5e dabc 0de2 873d c081 463d 2030 11bc
00000380: eb13 0a3b c8c3 343d 59f0 61bd 7d9e dcbc
00000390: f89f 133c 9e6a 15bb b597 073c 2b51 643c
000003a0: 5919 563d 7983 8a3b 0746 a8bc 65d1 98ba
000003b0: 34ed 043d 5fb6 02bd c0ff 2abd c1f1 0dbd
000003c0: 12de 813c 1c70 363d 038e 05bd 1ab4 43bd
000003d0: 4617 9dbc 72ec 9dbc 0031 2dbc 7ffe 073d
000003e0: f0b3 873d 290f 203d 5dae afbc 379c 8a3d
000003f0: 9bac 423d c14a 1cbd 81bb db3c 6d0d 663d

conv5.bias f4 [64]
-0.05526023 -0.014459591 -0.024997503 -0.035379596 -0.04747152 0.038041834 -0.035512324 -0.018261623
-0.0010010656 -0.056291193 -0.04273224 -0.032246288 0.04190522 0.047144692 0.044323336 0.020360583
0.012671776 -0.0017200687 -0.016019857 0.0013447428 0.025480824 -0.0057650423 -0.04961384 0.004451702
0.0072608725 0.05493903 -0.01779461 -0.030375995 -0.024865257 -0.03347161 0.04441446 0.050689302
0.016404567 -0.038168494 -0.05821222 0.02655235 -0.001519911 -0.029135237 0.023395998 0.017461224
0.018098926 0.022420427 -0.035397463 -0.006596542 -0.027998466 0.0177252 -0.031018788 0.05699094
-0.027593726 0.0210704 0.014335666 -0.043577395 0.054119594 -0.015040841 0.013087619 -0.036371958
0.042998467 0.04934721 -0.021323817 0.047539536 0.035507888 0.045980416 0.054245513 0.013799349
00000000: 8d58 62bd ece7 6cbc 90c7 ccbc 32ea 10bd
00000010: 7f71 42bd c1d1 1b3d 5f75 11bd 6699 95bc
00000020: 3036 83ba 9891 66bd 0008 2fbd af14 04bd
00000030: cfa4 2b3d cb1a 413d 638c 353d 3dcb a63c
00000040: 489d 4f3c ee73 e1ba 133c 83bc 1542 b03a
00000050: 29bd d03c aee8 bcbb e237 4bbd 95df 913b
00000060: 9dec ed3b c007 613d 00c6 91bc 14d7 f8bc
00000070: 39b2 cbbc 8719 09bd f0eb 353d 969f 4f3d
00000080: df62 863c 9156 1cbd f06f 6ebd 5084 d93c
00000090: c037 c7ba 05ad eebc f7a8 bf3c d70a 8f3c
000000a0: 3344 943c 0bab b73c eefc 10bd ce27 d8bb
000000b0: 0a5d e5bc 7034 913c 1d1b febc 556f 693d
000000c0: 3d0c e2bc d59b ac3c 24e0 6a3c 367e 32bd
000000d0: 82ac 5d3d dc6d 76bc 746d 563c c3fa 14bd
000000e0: 291f 303d 4d20 4a3d 49af aebc d1b8 423d
000000f0: b870 113d f655 3c3d 8b30 5e3d aa16 623c

conv6.weight f4 [64, 64, 3, 3]
0.022526065 -0.01328243 0.0088353185 -0.042930495 -0.0019092037 -0.019122098 -0.0043410696 -0.023384532
-0.024820713 0.011068867 -0.018280866 -0.027510043 0.04602592 -0.0022811072 -0.024184523 0.052612185
-0.011474599 0.030957261 -0.026899267 0.0447573 -0.023323394 -0.0059734257 0.039494522 -0.008972324
0.015605083 -0.002180908 0.02161061 -0.054802936 0.0074110306 -0.0029980298 -0.019124229 0.0026201191
-0.010132539 -0.0048726755 0.013107955 -0.025695356 0.048622448 0.023963392 0.016963918 0.021995887
-0.009684181 -0.038991965 -0.0060855625 -0.041046944 0.0140910465 0.038040455 -0.0062622135 0.04649232
-0.00095371687 -0.001556356 -0.0030759643 -0.003244061 -0.018881226 0.010879078 0.017980982 -0.032364592
0.014754725 0.014930977 0.009472268 -0.021554872 -0.0024854694 0.0276833 -0.00029741423 -0.037018877
-0.017682508 -0.056923635 0.010458197 -0.014042138 0.01886452 -0.018036213 -0.029364962 -0.0013235783
-0.027449546 -0.013765481 0.009510268 0.0022216844 -0.018867359 -0.023507815 -0.035044923 -0.051118832
-0.010222982 -0.008395464 -0.0025565191 -0.0035810214 0.02165404 -0.0068581705 -0.0029667248 0.041662484
-0.04663091 -0.01818266 0.027366843 0.022449274 -0.12676373 0.026792135 -0.053375714 -0.017242597
-0.008930115 -0.061493676 -0.019796556 -0.039527122 -0.00915774 -0.051405776 -0.028050018 -0.037640076
-0.0022748022 -0.020441046 -0.029024322 0.03648229 0.011986231 0.035599895 0.023549704 0.0019864193
0.015667567 -0.007779787 0.054676887 -0.0063048294 0.047325168 0.04445607 0.01806676 -0.013277064
0.0034845292 0.025064157 0.0037444562 -0.013382205 -0.0027309083 0.02617792 -0.024821982 -0.0021551428
0.014899395 0.055942148 0.019924229 0.030883469 0.08313524 -0.0046395194 0.041005723 0.014133856
0.011234404 -0.034078535 0.015637092 -0.012893905 -0.025287597 -0.028286407 -0.020867791 -0.021021424
0.042263888 0.05506398 -0.01979313 0.033908118 -0.00023834141 0.043825984 -0.062121455 -0.0038097468
-0.025615739 -0.017363165 0.032839026 0.0015594722 0.027297616 0.019464524 -0.003461254 -0.008743756
-0.027193863 0.030968798 -0.019498477 -0.0026414536 0.03682403 0.021095129 -0.029689237 -0.021945244
0.0027512976 -0.020072963 -0.053238492 0.016507132 0.050538775 0.031844124 0.0086607225 0.064385295
-0.009676464 -0.0267912 0.027234688 0.043650124 0.010037984 0.04042407 0.019669713 0.010581305
0.02823111 -0.019823728 -0.019769717 0.0075838105 -0.03373349 0.04677307 -0.010291872 0.050389733
-0.013501842 -0.02543578 -0.038577788 -0.01906424 -0.052932125 -0.012406388 -0.027943578 -0.0029170685
0.02596544 -0.02590166 -0.012669154 -0.06253055 -0.021090241 -0.056268647 -0.05671908 -0.029396893
0.021306107 0.048838988 0.0047078496 0.023379834 0.012928101 0.027394582 0.008255942 0.0105055515
0.03354579 -0.040409327 -0.03805301 0.024824426 0.027843485 0.008218268 0.011024314 0.02371581
0.047228612 -0.059225805 0.026942227 0.053417206 -0.013795793 -0.0049054897 0.007282114 -0.01850118
-0.020080535 0.02819554 -0.0044249557 0.0040105055 0.037843265 0.016327582 0.0006050855 0.009649235
-0.02573976 0.012035973 -0.054537196 0.0031778484 0.017586872 0.007386308 -0.01249877 -0.011906687
0.023741646 0.04070318 0.00791503 -0.023300342 0.024967456 0.018542735 0.009188913 0.058485307
00000000: 9588 b83c 8d9e 59bc 03c2 103c e3d7 2fbd
00000010: 3f3e faba f2a5 9cbc 883f 8ebb eb90 bfbc
00000020: cf54 cbbc 315a 353c c1c1 95bc be5c e1bc
00000030: ad85 3c3d a17e 15bb 9f1e c6bc e07f 573d
00000040: f5ff 3bbc 159a fd3c da5b dcbc 6e53 373d
00000050: b410 bfbc babc c3bb 02c5 213d a800 13bc
00000060: 76ac 7f3c 91ed 0ebb bc08 b13c 0b79 60bd
00000070: 3bd8 f23b 987a 44bb 6aaa 9cbc 4eb6 2b3b
00000080: f302 26bc f7aa 9fbb c0c2 563c 117f d2bc
00000090: 5528 473d e04e c43c eaf7 8a3c b830 b43c
000000a0: 66aa 1ebc 0ab6 1fbd 6669 c7bb d720 28bd
000000b0: 22de 663c 4fd0 1b3d 4133 cdbb bb6e 3e3d
000000c0: db02 7aba a4fe cbba 1e96 49bb 509a 54bb
000000d0: cdac 9abc 293e 323c da4c 933c bc90 04bd
000000e0: cdbd 713c 0ea1 743c 9231 1b3c d893 b0bc
000000f0: 42e3 22bb 17c8 e23c 43ee 9bb9 1ba1 17bd
00000100: e8da 90bc c228 69bd dc58 2b3c ff10 66bc
00000110: c489 9a3c aec0 93bc ca8e f0bc eb7b adba
00000120: dfdd e0bc 9d88 61bc f5d0 1b3c ae99 113b
00000130: b88f 9abc 7693 c0bc 448b 0fbd fb61 51bd
00000140: 4b7e 27bc 218d 09bc 468b 27bb 92af 6abb
00000150: d063 b13c 81ba e0bb 626d 42bb 48a6 2a3d
00000160: 0e00 3fbd cdf3 94bc 6e30 e03c 8ae7 b73c
00000170: 5ace 01be 2e7b db3c 7ea0 5abd 5940 8dbc
00000180: 9e4f 12bc cbe0 7bbd 632c a2bc 31e7 21bd
00000190: 580a 16bc dd8e 52bd 27c9 e5bc 7b2c 1abd
000001a0: d914 15bb fb73 a7bc 6ac4 edbc 746e 153d
000001b0: e661 443c 32d1 113d 4feb c03c 962e 023b
000001c0: 4559 803c 95ed febb dff4 5f3d be98 cebb
000001d0: 09d8 413d 9117 363d be00 943c 0b88 59bc
000001e0: b35c 643b 5953 cd3c 8d65 753b 0941 5bbc
000001f0: 0af9 32bb 1473 d63c 7857 cbbc 4c3d 0dbb
00000200: 981c 743c 9823 653d 2338 a33c 54ff fc3c
00000210: cf42 aa3d 1c07 98bb 9ef5 273d b091 673c
00000220: 8110 383c ef95 0bbd 5c19 803c f540 53bc
00000230: ef27 cfbc e5b8 e7bc eef2 aabc 1f35 acbc
00000240: e61c 2d3d c58a 613d 3425 a2bc 3de3 0a3d
00000250: 49eb 79b9 e082 333d 1173 7ebd f2ac 79bb
00000260: 19d8 d1bc 323d 8ebc 3782 063d 3467 cc3a
00000270: 409f df3c 1174 9f3c 35d6 62bb f941 0fbc
00000280: aac5 debc 47b2 fd3c 45bb 9fbc 3d1c 2dbb
00000290: cbd4 163d b1cf ac3c d836 f3bc 83c6 b3bc
000002a0: 1d4f 343b 0e70 a4bc 9b10 5abd f739 873c
000002b0: bf01 4f3d fc6e 023d b4e5 0d3c 70dc 833d
000002c0: 088a 1ebc 3879 dbbc 481b df3c 79ca 323d
000002d0: 5b76 243c b693 253d 6122 a13c 365d 2d3c
000002e0: ee44 e73c 5f65 a2bc 1af4 a1bc 9d81 f83b
000002f0: 212c 0abd 1e95 3f3d 3d9f 28bc 7765 4e3d
00000300: d436 5dbc b25e d0bc be03 1ebd 9c2c 9cbc
00000310: 5bcf 58bd 2a44 4bbc eee9 e4bc 4a2c 3fbb
00000320: 79b5 d43c b82f d4bc 4992 4fbc 0410 80bd
00000330: 71c5 acbc f479 66bd 4452 68bd c1d1 f0bc
00000340: 258a ae3c 640b 483d 4e44 9a3b 1187 bf3c
00000350: 63d0 533c 9a6a e03c ee43 073c 7a1f 2c3c
00000360: 4f67 093d 4084 25bd 79dd 1bbd 985c cb3c
00000370: 0518 e43c eaa5 063c 539f 343c a947 c23c
00000380: ca72 413d c296 72bd f2b5 dc3c 00cc 5a3d
00000390: c007 62bc 3bbe a0bb cd9e ee3b c98f 97bc
000003a0: ef7f a4bc 55fa e63c 38ff 90bb 8f6a 833b
000003b0: 8a01 1b3d 6cc1 853c 9a9e 1e3a d317 1e3c
000003c0: 30dc d2bc 8832 453c 6562 5fbd 7343 503b
000003d0: 5812 903c d808 f23b a4c7 4cbc 4414 43bc
000003e0: d77d c23c 61b8 263d 0bae 013c 5ce0 bebc
000003f0: 8d88 cc3c efe6 973c 188d 163c 4a8e 6f3d

conv6.bias f4 [64]
-0.041965153 -0.024896607 0.02015398 -0.0054904255 0.002021181 -0.040529363 -0.027664421 0.013111356
0.02422713 -0.03444865 0.0086786505 -0.028588742 0.020103302 0.028264403 -0.008283594 0.035279635
0.0405874 -0.018514682 0.021089818 -0.004714997 0.027678238 0.029049229 0.028829655 -0.03571173
0.030817475 -0.033107564 -0.0144131845 0.012927197 -0.039024636 0.013831524 0.034997545 0.019171745
-0.008922888 0.004460274 0.04058893 0.032966346 -0.016859991 -0.021446895 0.035321377 -0.016068373
0.010286389 0.01977841 0.018830523 -0.013833874 0.030861652 -0.03067134 -0.0030606452 -0.007843116
-0.017347641 -0.04117097 0.027078979 0.007628524 0.033576425 -0.03942277 0.04097366 0.008919811
-0.0070879166 -0.014348264 0.039628975 0.031004408 -0.03222042 0.011488732 -0.033007782 -0.02276904
00000000: a7e3 2bbd f8f3 cbbc f619 a53c 07e9 b3bb
00000010: ca75 043b 1e02 26bd 7fa0 e2bc 03d1 563c
00000020: f977 c63c 071a 0dbd e630 0e3c f032 eabc
00000030: aeaf a43c c08a e73c e9b7 07bc 6181 103d
00000040: f93e 263d 1aac 97bc 8ec4 ac3c 4380 9abb
00000050: 79bd e23c a6f8 ed3c 2b2c ec3c 7746 12bd
00000060: ee74 fc3c cc9b 07bd 4725 6cbc 98cc 533c
00000070: 4cd8 1fbd 9e9d 623c 9659 0f3d 100e 9d3c
00000080: 4e31 12bc 7d27 923b 9440 263d b807 073d
00000090: f71d 8abc 66b1 afbc 26ad 103d d2a1 83bc
000000a0: 3e88 283c 5506 a23c 7842 9a3c 79a7 62bc
000000b0: 93d1 fc3c 7642 fbbc 1b95 48bb 6a80 00bc
000000c0: a41c 8ebc e4a2 28bd bcd4 dd3c b3f8 f93b
000000d0: 6f87 093d c579 21bd ffd3 273d 6624 123c
000000e0: c141 e8bb fb14 6bbc fe51 223d f5fc fd3c
000000f0: 8ff9 03bd 3c3b 3c3c 2b33 07bd 2386 babc
