checkpoints/best_model_0909_3.pth (torch, 304673 bytes, 37 tensors)

conv1.weight f4 [16, 1, 3, 3]
00000000: 34a0 df3a 9642 7b3f 73fb 09be 8873 623d
00000010: a354 ac3e 773b f13a 944f aa3d c5fb ecbe
00000020: cdd4 edbf 0211 bcbd 0117 abbf e8e4 883e
00000030: 0d90 33c0 e2c8 e5c0 ef13 563e a77d d7bd
00000040: 0231 543e 799a ac3e 6245 07c0 de97 2fbf
00000050: cec3 84c0 8815 873f c9f2 973f 9ade f0bd
00000060: a0c0 253e 8ba1 12be 8514 4f3e 6ab5 df3e
00000070: 8031 dc3e 7e2b a6bd 7a92 83be 6a81 a43f
00000080: aea4 2d3f 40d8 5fc0 a57a 1ac0 957a 76bc
00000090: f781 8f3e 9044 1f3f 4b07 07c0 baaa 673e
000000a0: be93 dc3e 0566 83c0 1667 893d 122b 423f
000000b0: e06b f2be 1517 fdbf 91d0 06c1 6e8a f43d
000000c0: 57ec 93c0 72d7 e3c0 3616 783e 221a 3d3e
000000d0: 06db f33d 9380 983c 0958 e63e 8784 0e3f
000000e0: cfc0 c93e 8b9a 96bf c921 1dbf f2ea b53e
000000f0: b1f7 43c0 51e5 97c0 89f2 f33e b5d2 473e
00000100: 2b4d 93bd 2fc4 fcc0 7d03 a33e ad0a 2c3e
00000110: 8ad0 14c0 b33b 143e 5722 813e b6c9 c33e
00000120: 6a89 17be b29e a93e 0749 a9be 4a84 3d3f
00000130: 1396 073d c8af 20be 0741 e1bd afbd a1c0
00000140: 6edc 09c0 f7b1 b43e 9b56 e23f b6f7 2b3f
00000150: 0c5d e43f 9d1a 8140 ae60 443f 407a c9be
00000160: f1e3 c53e e21b d7be f757 3cbf 2ac4 f83f
00000170: 4031 1d3e 6001 343f b72a d5bf d8bc 2ec0
00000180: 77bc c8be 423b a73b 3f1a 3d3f 70e5 e83e
00000190: 6366 7f3e cd79 d33e 3b91 aa3e d0cc 88c0
000001a0: 1cf4 13c0 5520 c53e b04e 06bf c494 1fbd
000001b0: dcb9 98bf c93a 0e40 6799 e2bd 1d20 e03e
000001c0: 7df1 9f3f ff93 23bf eee2 3e40 bade ae3f
000001d0: 12ca c83e e7a3 c9be a5be 0abf 3021 233e
000001e0: 4016 423e f92a b43f 735d fb3c c558 82bc
000001f0: 608c ecbe 5b2f 16be a31b a2bf 8d6e 21c0
00000200: 7d4d aebd f856 8ac0 db29 24c0 bc27 6c3e
00000210: 8343 3dbe e555 9a3d 1402 283f abc1 a93e
00000220: 789c 413f 5499 de3e cc58 2b3f 97ef 1340
00000230: 0aaf db3f f4b2 b93e 7ca7 0c40 e2ba bf3f
0.0017061294 0.9814848 -0.13474827 0.05528596 0.33658323 0.0018404563 0.083159596 -0.46285835
-1.8580567 -0.091829315 -1.3366395 0.26737142 -2.8056672 -7.180772 0.20906042 -0.10522013
0.2072182 0.33711603 -2.1136098 -0.68591106 -4.148902 1.0553446 1.1870967 -0.11761208
0.16186762 -0.14319436 0.20222671 0.43693095 0.43006516 -0.08113764 -0.2569769 1.2851994
0.67829406 -3.4975739 -2.4137356 -0.015043874 0.28028843 0.62213993 -2.1098201 0.22623721
0.43081468 -4.1062036 0.06709115 0.7584697 -0.47347927 -1.9772669 -8.42592 0.11940466
-4.6226 -7.1200495 0.24227223 0.18467 0.1190701 0.018615996 0.4498904 0.5567097
0.39404914 -1.1765913 -0.6137968 0.35530812 -3.061993 -4.7467427 0.47645977 0.19513972
-0.07192453 -7.898948 0.318386 0.16800947 -2.3252282 0.14475898 0.25221512 0.3823983
-0.14798513 0.33128887 -0.33063528 0.7402998 0.033102106 -0.15692055 -0.10998731 -5.0544047
-2.154079 0.35292026 1.768268 0.6717485 1.7840896 4.0344987 0.7671002 -0.39351082
0.38650468 -0.4201346 -0.73571724 1.9434865 0.15350819 0.703146 -1.665366 -2.730276
-0.39206287 0.0051034996 0.73868173 0.45487547 0.24941401 0.41303864 0.33313927 -4.2750015
-2.3117743 0.3850123 -0.5246382 -0.038960233 -1.193172 2.222338 -0.110644154 0.437745
1.2495571 -0.638977 2.9826007 1.3661721 0.39216667 -0.3938286 -0.5419715 0.15930629
0.189538 1.4075614 0.030684208 -0.01591147 -0.46200848 -0.14666502 -1.2664684 -2.5223725
-0.085108735 -4.3231163 -2.5650547 0.23062032 -0.18482785 0.07535914 0.6562817 0.3315557
0.7562938 0.43476355 0.6693237 2.3114984 1.7162793 0.36269343 2.1977224 1.4978907

conv1.bias f4 [16]
00000000: 33a6 04bf fcd2 81bf 49cf 2dbf f8f0 483f
00000010: 8f50 80bf 4098 f13f daf0 33c0 4fe5 0940
00000020: db52 273f e71d 3dbe 65a5 bfbd 2252 c63f
00000030: 961d 1c3e e877 adbe 8e3c 973f 6675 933e
-0.518161 -1.0142512 -0.6789442 0.7849269 -1.0024585 1.8874588 -2.8115754 2.154621
0.653608 -0.18468438 -0.093577184 1.5493815 0.15245661 -0.33880544 1.1815355 0.28800505

conv2.weight f4 [16, 16, 3, 3]
00000000: f340 773e 602b 83bf c182 073f 97b8 37bf
00000010: 39ad ba3d 898f f73e 14e4 4f3e d0ca 963f
00000020: 50db 98bf 8481 473e 7e52 1fbf 386a 3ec0
00000030: dbc2 50be 7d95 0a3f e057 983e cc77 b1bf
00000040: 230b 1a3f 9b0b a63f 20fe c53f 89f8 22be
00000050: 36ec 5d3f 0200 86bf 5636 eabf 2128 90c0
00000060: 59b4 ec3e 406e 8c3f 70f9 37be ad22 3a3c
00000070: 2843 71bc 2a90 2abf 4f33 833f 561c 4fbd
00000080: 7323 243f 51f4 973f dc9b e53f 550d 0b40
00000090: c7fa 7b3e 2967 6bbf 2824 b63e 6be8 483d
000000a0: 94fb d4be 9d56 0040 4009 f2bd 0ea0 2140
000000b0: 3820 10bf 03da ce3f 8da4 853f 8258 233f
000000c0: 894f c63f 2fb8 3640 848c f63f a330 013f
000000d0: 287f 8040 fcca 2c40 16a5 823f 70b5 2f3f
000000e0: 2d23 2ebe 506e d93d 610f b93f 0d09 273f
000000f0: 3fdb 5a3f f8d8 ad3f 09fb 24c0 d1e5 f03d
00000100: 24e3 e83e 973d 1540 8075 8bbc 6954 79be
00000110: 326d 3a40 9dfd b73e 0979 863f 11d3 e3bd
00000120: ce8e 053c 069b c53d 8df7 1abf 420e a7bf
00000130: 354c 833f 4192 0040 6a59 08bf 100f 2840
00000140: 7192 c13f 686e 363f fc28 d33e 221e 423e
00000150: f5ad c23e b535 423d ca43 213f 78b6 083f
00000160: fca9 31bf d3bc 06c0 a75a 00c0 2f3a ebbf
00000170: 5fe3 f1be 20ba bb3f bf20 fa3f 4bc5 4dbf
00000180: f6d6 e63f c70b f5bf c75d db3f 7317 643f
00000190: 235e d7bf 7877 133f dce1 83be 2391 c03f
000001a0: 8fb6 2240 2da2 5dbd d126 3340 dcdb 9dbf
000001b0: 1075 28bf edb5 80bf e513 a5be b2cd 163e
000001c0: 8951 a83e 1dbf 30bf e83a 143f 5983 9fbd
000001d0: 0b14 57bf ff3e afbd 1d86 ffbe 1866 c1bd
000001e0: af5d f1be 2314 9abe 22ed cc3d 5f61 4f3d
000001f0: a9ac 0f3f 8907 ecbe e028 aabe 9fc9 d7bf
00000200: 15ec b1be 16f1 20bf 9f44 7dbf 30a1 f33e
00000210: 6827 a3bd 3baa e23f 7567 f73d c0b5 cabf
00000220: 3e40 ea3e 307e 9c3f e0eb 2e3f cbea a03e
00000230: 36e2 80bf 578c b33f 0195 08bf 2ecc 79bf
00000240: 7f9a 71bd 01b3 f33d a9dc 1abf 3d37 0d3f
00000250: 1eb9 57be ade9 9abe 31dc 6bbf b5f9 223e
00000260: fc73 6bbf 6aa6 873f ab66 fe3e 983c 29bf
00000270: 9812 cd3e 54dc 2540 5eab 9abf c45d 443e
00000280: 470a 91be a307 2b3e 5378 da3f 910c 05bf
00000290: 1e57 183f 4741 d9be 4239 aabf 07c7 86bf
000002a0: 606b 5f3f 40e9 e83f c90c 593f 798d 93bc
000002b0: bd74 1b40 4110 b5bf 4989 6e3e a854 6d3d
000002c0: 3d9d c53f 0bd1 f13c 0592 31bf 79cb 813f
000002d0: f69e ffbe aab4 2bbf 94ac 9dbf 6c38 993e
000002e0: e199 26bf 76aa 02c0 b461 59bf 37ed 59be
000002f0: 0d98 9c3e 1a29 1940 9e08 3340 7061 04c0
00000300: 7c0b 3440 7a4a 9340 3f13 353c d6c5 1ec0
00000310: 525d 7340 e120 ddc0 054e e73e d53e a83f
00000320: 0d29 2ebf f0fa 72c0 1074 0fbf cc14 f03f
00000330: f3c7 6cbe 4f92 07bf 0acc 3bb9 7ebd 35be
00000340: 9e7e 84c0 ff88 94bf 1428 863e 7977 d4bf
00000350: 52a9 00c0 2155 dcbe 5277 3d3f 4475 53c0
00000360: 29b0 253f faae 93bf 5d10 ed3d 1f0b 073f
00000370: e5c0 1140 0805 8e3e bc36 25bf b49d 093d
00000380: f803 873f 3866 493e f80e a0bf d113 803f
00000390: 100d babd 047f 46bf 86a5 a2bf d8b7 6bbf
000003a0: cd83 cabe ea2b 21c0 aeea 703f 955f 2b40
000003b0: e315 583f 4bb7 0340 61e0 bd3f 7dad 58bf
000003c0: 0390 54bf a11b cabf 3f1c 0fbf 536a d23e
000003d0: 3bb0 d7be addd fabd d72a 05bf b922 a73f
000003e0: 5375 0c3f 66b2 a7bf 13a5 e3be 561a 603f
000003f0: 9d20 ec3d df4b 05bf 97c6 fd3f 9dab e33f
0.2414587 -1.0247612 0.5293389 -0.71766037 0.09115071 0.48351696 0.20301849 1.1780643
-1.1941929 0.19483 -0.6223525 -2.975233 -0.20386831 0.5413435 0.29754543 -1.3864684
0.60173243 1.2972292 1.5468178 -0.15915121 0.86688554 -1.0468752 -1.8297832 -4.5048985
0.46231344 1.0971146 -0.17966247 0.011360806 -0.014725484 -0.66626227 1.0250033 -0.050564133
0.6411659 1.1871434 1.793819 2.1726887 0.24607383 -0.91954285 0.3557446 0.049049776
-0.4159819 2.0052865 -0.118181705 2.525394 -0.5629916 1.6160282 1.0440842 0.6380693
1.5493022 2.8549917 1.9261632 0.5046484 4.015522 2.6998892 1.020663 0.68636227
-0.17005606 0.106167436 1.4457818 0.65248185 0.85490793 1.3581839 -2.577822 0.11762584
0.45485795 2.3318841 -0.017023802 -0.24348606 2.9129148 0.3593568 1.0505687 -0.11124242
0.008151723 0.09648709 -0.6053398 -1.3051226 1.0257632 2.0089266 -0.53261435 2.6259193
1.5122815 0.71262217 0.41242206 0.18956807 0.38023344 0.0474145 0.6299406 0.53403425
-0.694 -2.105275 -2.005533 -1.8377131 -0.47243783 1.4666176 1.9541243 -0.8037917
1.8034351 -1.9144219 1.7137994 0.8909828 -1.6825603 0.5760417 -0.25758255 1.5044292
2.5423925 -0.05410974 2.7992442 -1.2332721 -0.65803623 -1.0055519 -0.3224174 0.14726904
0.32874706 -0.69041616 0.57902384 -0.077887245 -0.8401496 -0.085569374 -0.49907008 -0.09443301
-0.47141787 -0.30093488 0.10006167 0.05062997 0.56122833 -0.460995 -0.3323431 -1.6858405
-0.3475043 -0.6286787 -0.9893283 0.47583914 -0.079665005 1.77082 0.1208028 -1.5836716
0.45752138 1.2226009 0.68328667 0.31429133 -1.0069034 1.4027203 -0.5335236 -0.9757718
-0.05898523 0.11899377 -0.6049295 0.5516241 -0.2106671 -0.30256405 -0.9213286 0.15915568
-0.91973853 1.059766 0.49687704 -0.66108084 0.40053248 2.5915728 -1.2083547 0.19176394
-0.28328153 0.16702132 1.706797 -0.519723 0.5950793 -0.42432615 -1.3298724 -1.0529488
0.87273216 1.8196182 0.84785134 -0.018011795 2.4290001 -1.4145585 0.23294558 0.057942063
1.543861 0.029518625 -0.69363433 1.014022 -0.49925965 -0.67072546 -1.2318292 0.2992586
-0.6507855 -2.041654 -0.8491471 -0.21281897 0.30584756 2.3931336 2.797401 -2.068447
2.813201 4.6028414 0.011051952 -2.480825 3.8025708 -6.9102635 0.45176712 1.3144175
-0.6803139 -3.796566 -0.5603647 1.8756347 -0.2312315 -0.52957624 -0.0001790972 -0.17748067
-4.140456 -1.1604308 0.26202452 -1.659896 -2.0103345 -0.43033698 0.74010193 -3.3040323
0.64721924 -1.1537774 0.11575387 0.52751344 2.2773983 0.27738214 -0.64536643 0.033597663
1.0548086 0.196679 -1.2504568 1.0006047 -0.09084523 -0.7753756 -1.2706764 -0.920774
-0.3955368 -2.5183053 0.9410809 2.6777089 0.84408396 2.0580623 1.48341 -0.8463972
-0.83032244 -1.5789682 -0.55902475 0.41096744 -0.4212664 -0.122493125 -0.52018493 1.3057472
0.5486652 -1.3101318 -0.4446188 0.87540185 0.11529658 -0.52068895 1.982623 1.7786747

conv2.bias f4 [16]
00000000: fcd1 acbb 467b 9c3d c61d 6fbc d92c d537
00000010: 8830 30bd 1a0a 5c3d d511 4fbd c620 bfbb
00000020: 26d3 143d a30f d8bb c9a6 3bbd 167b aabd
00000030: fa3f 4f3d a919 223c 1b68 813d 8207 b53d
-0.0052740555 0.076407 -0.014594501 2.5412462e-05 -0.043015033 0.05372057 -0.050554115 -0.0058327643
0.03633418 -0.006593661 -0.045813356 -0.08324258 0.050598122 0.009893813 0.06318685 0.088393226

bn11.weight f4 [16]
00000000: 6d63 85ba b1af eb3f e314 083f 312b 4e3f
00000010: 7e49 913f 00d0 0a40 4cfb ea3f 2712 2540
00000020: 857e ad3f f84c c93e 31b5 a13e c874 ad3f
00000030: 7c5b 453e 0870 273b fcfa 0a40 d0c7 783f
-0.0010176726 1.8412992 0.5315687 0.80534655 1.1350553 2.1689453 1.835794 2.579233
1.3554236 0.39316535 0.3158355 1.3551264 0.1927318 0.0025548954 2.1715689 0.9717989

bn11.bias f4 [16]
00000000: ff54 56be 9806 0a3c f39c 2ebd dc4e 643d
00000010: bc93 183e 76d5 45bf 0ee2 fbbe 95d4 3bbf
00000020: 56ed 95bd f81a b2bc dc8b f9bd 8a61 a3be
00000030: 36e8 94bd c741 bcbd c43f 0fbf d5b2 863e
-0.20930861 0.008424424 -0.042630147 0.05573927 0.14900106 -0.7727884 -0.49195904 -0.7337125
-0.07320659 -0.021741375 -0.12184879 -0.31910354 -0.07270853 -0.091922335 -0.55956674 0.26308313

bn11.running_mean f4 [16]
00000000: ab51 08bf 8be1 94bf 33df 3ebf 8f71 3c3f
00000010: 51a0 88bf d066 ca3f bc83 3ac0 90cb 0140
00000020: f5c7 0d3f f19e 6abd 4ef4 f9bd 7e10 bd3f
00000030: 74e2 7d3e cfba abbe 78d9 843f b6e5 de3e
-0.53249615 -1.163133 -0.74559325 0.73610777 -1.0673925 1.5812626 -2.9142904 2.0280495
0.55383235 -0.057280485 -0.122048005 1.4770658 0.24793416 -0.3354096 1.0378866 0.4353463

bn11.running_var f4 [16]
00000000: 5a91 083c 1672 293e 2c40 133d 79ad 383d
00000010: 5aa5 4a3d 37c5 103f 25cd b63d d28b 143e
00000020: d66d 6c3d 4a7b b53d 5ed3 543c a3ca 1e3d
00000030: a872 3a3d d123 023b 0288 063e 76fc 863d
0.008335436 0.16547427 0.03594987 0.04508731 0.049474098 0.56550926 0.08925847 0.14506462
0.057721935 0.08861406 0.012989847 0.03876747 0.0455195 0.0019857774 0.1313782 0.06591122

bn12.weight f4 [16]
00000000: 9ee0 683f b2e6 c93f 9592 a93f d8a9 903f
00000010: a647 c23f 7b26 4b40 04ee 0240 bdf5 3040
00000020: fa38 e93f e831 b63f e710 1240 def9 2740
00000030: 81f3 ac3f 277c c13f 1a27 8d3f 0405 b83f
0.9096774 1.5773528 1.3247858 1.1301832 1.5178115 3.1742237 2.0457773 2.7649987
1.8220513 1.423398 2.2822816 2.6246257 1.3511811 1.5116013 1.1027558 1.4376531

bn12.bias f4 [16]
00000000: 5b81 f33e f38d 6cbe 046e 463f 5402 2b3f
00000010: 6b55 ad3c 335c 35bf c542 72bf 06bf 20bf
00000020: 96dd 523e a599 02bf 73c2 94bf 197f 9cbf
00000030: f896 ef3e dbd7 033e d2ca 763e 3cae 9bbe
0.47559628 -0.23101024 0.7751162 0.6680043 0.021158895 -0.7084381 -0.9463313 -0.6279148
0.20592341 -0.5101569 -1.1621841 -1.2226287 0.46794868 0.12875311 0.24100807 -0.30406368

bn12.running_mean f4 [16]
00000000: a518 8b40 d54f e2bf 7848 9b40 8cb9 9540
00000010: 48dc 16bf 192c 87bf 037a 9ebf cea2 55bf
00000020: 26fc 6fc0 23d6 c140 c0fd 8cc0 2736 04c0
00000030: 22ea 7a40 ba5b 0940 fb9b edc0 48c0 52c0
4.3467584 -1.7680613 4.8525963 4.6789 -0.5892987 -1.0560333 -1.2380985 -0.83451545
-3.749765 6.0573897 -4.4059753 -2.0658052 3.9205403 2.1462235 -7.4252906 -3.292986

bn12.running_var f4 [16]
00000000: a613 c641 d9de bc41 0266 0642 326c 0f42
00000010: 1941 3442 12f0 0742 cad2 a641 d56f 7d42
00000020: 16b1 0242 8b08 b041 1cc9 9641 f658 a641
00000030: 1cc2 b841 be50 1f42 e513 9041 c965 2242
24.759594 23.608812 33.599617 35.85566 45.063572 33.984444 20.852924 63.35921
32.672935 22.004171 18.848198 20.793438 23.09478 39.82885 18.009714 40.5994

conv3.weight f4 [32, 16, 3, 3]
00000000: 70f7 90bf 4ab6 e53e 0769 04be 884f 87bf
00000010: 73cb 213d c3a4 b63e a4e6 81be cc14 60bf
00000020: 410a d03f 624a debe 5ba3 c73d 782a 7bbe
00000030: 58fd f6bf bc11 0140 d68a 4f3f e92d 2240
00000040: a5d7 0340 8334 aabf 0657 9bbf 7a38 343e
00000050: d83a 5abe 6bb5 783f 9fe7 a3bf 2fdd 1c3e
00000060: f802 53c0 92fa 8b3e a355 9abe e3c6 a5bf
00000070: 125b c23f 53a2 ec3e 3c45 ed3f 032d 913d
00000080: 3d95 8c3e 82d8 3ec0 0706 61bf d44a 64bf
00000090: 0438 cdbe 96cf b23e cdf8 45bf 8ee2 8ec0
000000a0: 17b5 44bf 12e8 09c0 3e51 843f bde3 8b3d
000000b0: 2069 d23f 8234 cc3f 0eec e53f 7b49 803f
000000c0: c4a1 0cbf 2801 aa3e d303 f8be 454d 2d3f
000000d0: 6dea 973f 68dd 423f 8692 85be 88f2 313f
000000e0: 9ba1 823e 5deb 35bf 7cb7 913f 4950 c0bd
000000f0: 4889 7b3f fb1e aa3f 64a2 d6bd d484 1abf
00000100: f7ce adbf f849 1dbd 8470 d73f 2ccd 503f
00000110: e5f4 00bf 9e8a 0ac0 cb8e bcbf 4e2f 77bc
00000120: 615a 923e afed 683f cc04 053f 8aaa 4140
00000130: ef08 ddbe 809c 43bf 32f5 1e3f f1c2 883d
00000140: c372 4440 f1fd 613f 7b7d 823e 0156 c3bf
00000150: 58ad 923f 7000 ef3c 3884 99be d70d 193f
00000160: 8fae 953d 3b06 2fbf a1a6 abbf 3a42 213e
00000170: 3a47 6fbf 0f6c ed3e cca5 babd 8826 47bf
00000180: 8d6c f3be fba5 363f 9953 bebe 80f5 df3d
00000190: 54c8 4bbf e6f7 80bf 2e44 35be 0081 8ebf
000001a0: 414f 883b d5ab 013f e46f 9ebf c58e 0b3f
000001b0: 7da0 eabd 46f6 e7be 947e d23f c3a1 17bf
000001c0: 4351 983d f377 a73c 94ce c73f 0cfe d4bf
000001d0: f56c 723e fb57 dd3e b800 98bf 381f 2440
000001e0: 215c dbbf f487 e3be 3bf5 afbe eb48 11bf
000001f0: 8776 b1bf 0195 503f f13f 243f 646a 63c0
00000200: 6aff 01c0 0cc4 923f 7442 60c0 3c94 a5bf
00000210: b51c 17be 34eb 2b40 787c 3ebf b4be 8c3f
00000220: 1933 a0bf f674 64be fb5c c5bf d823 0bbf
00000230: 48e9 8f3d 84c6 8f3f e1cd d33e 2834 f9be
00000240: 1d86 d0be 2e23 29bf d9c9 843f c030 0cbe
00000250: 140c 3abe b203 68bf 791d 81bf e8f7 26bf
00000260: b428 1c40 c28b da3b fdaa 513d 85a4 6bbc
00000270: 2582 2ebf fa58 7c3f 4ef3 0fbe 5465 09bf
00000280: e4af 37bd 9952 bebd 4179 8ebf c811 883e
00000290: ef5e 8fbe 2ad2 a2bf b50d 6dc0 f764 7bbf
000002a0: 52ee c9be ad9b 09be 22a0 39bf c8ca dfbe
000002b0: cba1 f83e eb57 203e e0b4 dcbf 4f69 3abf
000002c0: 0976 a1bf ccaf bb3d dcf7 a6bf 22e6 343e
000002d0: fe67 a63f 0a82 a8be 6782 cdbd 426b 2b3e
000002e0: d778 a4bf e9f5 4cbf e470 0bc0 3185 d0be
000002f0: d3b1 e7bf d671 c33f 5438 4abd c0d2 ca3e
00000300: d71c 9dbe 7226 893e 0915 23c0 d26d 47be
00000310: 4173 39be f0b5 593f 6943 683f a428 28bf
00000320: 1d08 f03e c616 0fbf bb29 da3f 9d9f cbbf
00000330: bb51 a93e 7d5a 53be c766 0d3e 2e4b 93bf
00000340: e951 01c0 b50f 50be 614c c6bf e531 4b3f
00000350: 1973 e8be d24b 4fbf d48e 03c0 b5ca 19bf
00000360: 25cf 85bf 58ae b93e 902a 713f 8fc1 61bf
00000370: e4aa 41bf 6f45 de3e 4a86 b5bd 5ef8 0f3f
00000380: 4f0e af3f b8d3 99bf 3eaa 193e 0818 0dc0
00000390: 0a80 803c e539 82bf cabc e0bf 0633 f8bf
000003a0: fcc5 6abf aed3 85c0 4dcc 91bf c77d f0be
000003b0: 8233 0dc0 8895 f0bf 6d3d 1940 77d9 a83e
000003c0: c922 c2bf 3f20 cb3e 7197 5dc0 abd1 a23f
000003d0: faf8 37bf 31bf 1940 cbe9 c83e d2c1 c8bf
000003e0: 102f 893f 4836 583f 430f 8dbf 420e a93f
000003f0: c93a 14c0 f5b2 61bf b021 353e 47ef 8bbf
-1.1325512 0.44865638 -0.1293069 -1.0571146 0.039500665 0.35672578 -0.25371277 -0.87531734
1.6253129 -0.43416125 0.097479545 -0.2452792 -1.9296064 2.0167074 0.8107122 2.5340521
2.060037 -1.3297275 -1.2135932 0.17599669 -0.2131151 0.9715182 -1.280506 0.1531875
-3.2970562 0.27339607 -0.3014346 -1.295132 1.5184042 0.46217594 1.8536754 0.070886634
0.2745761 -2.9819646 -0.8789982 -0.8917668 -0.400818 0.34924 -0.77332765 -4.4651556
-0.7683882 -2.1547894 1.0337293 0.06830547 1.6438332 1.5953524 1.7962663 1.0022424
-0.54934335 0.33204007 -0.48440418 0.6769603 1.1868416 0.7611909 -0.2608835 0.695107
0.2551392 -0.7106226 1.138412 -0.09390313 0.9825635 1.3290704 -0.10480192 -0.6035893
-1.3578786 -0.03840062 1.6831212 0.8156307 -0.5037368 -2.1647105 -1.4731077 -0.015086962
0.2858458 0.90987676 0.51960444 3.0260339 -0.43170878 -0.76410675 0.6209289 0.06677807
3.0695045 0.8827811 0.2548636 -1.5260621 1.145915 0.029175013 -0.29983687 0.5978674
0.07308685 -0.6836888 -1.3410226 0.1574792 -0.9346806 0.46371505 -0.091136545 -0.7779317
-0.47543755 0.71347016 -0.37173155 0.10935497 -0.7960255 -1.0075653 -0.1770179 -1.1133118
0.0041598384 0.5065282 -1.2377896 0.54514724 -0.11456392 -0.4530508 1.6444879 -0.59231204
0.074373744 0.020442938 1.5609918 -1.6640029 0.23674376 0.43231186 -1.1875219 2.5644054
-1.713749 -0.44439662 -0.34366783 -0.5675189 -1.3864297 0.8147736 0.64160067 -3.5533686
-2.0312142 1.1466079 -3.504056 -1.2935863 -0.14757045 2.6862307 -0.74408674 1.0995698
-1.2515594 -0.22310242 -1.5419 -0.5435157 0.07026917 1.1232457 0.4136801 -0.48672605
-0.4072732 -0.66069305 1.0374099 -0.13690472 -0.1816867 -0.9063064 -1.0087119 -0.65222025
2.4399843 0.0066694925 0.051188458 -0.014382486 -0.68167335 0.9857327 -0.14057657 -0.5367024
-0.044845477 -0.09293098 -1.1130754 0.26576066 -0.28002116 -1.2720387 -3.7039616 -0.98200935
-0.39439636 -0.13438292 -0.7250997 -0.43709397 0.48560938 0.15658538 -1.7242699 -0.7281694
-1.2614146 0.0916439 -1.3044391 0.17665914 1.3000486 -0.32911712 -0.10034638 0.16740134
-1.2849377 -0.8006273 -2.1787653 -0.40726617 -1.8101143 1.5269115 -0.049370125 0.39613914
-0.30686066 0.26787144 -2.548159 -0.19475487 -0.18110372 0.8504324 0.9072786 -0.6568701
0.4688119 -0.55894125 1.7043985 -1.5908085 0.33070168 -0.20639987 0.13808738 -1.1507318
-2.0206244 -0.20318492 -1.5492059 0.7937301 -0.45400313 -0.8097507 -2.0555925 -0.6007493
-1.045384 0.36265826 0.9420557 -0.8818597 -0.75651383 0.4341235 -0.08863504 0.56238353
1.3676242 -1.2017736 0.15006348 -2.2045918 0.015686054 -1.0173918 -1.7557614 -1.9390571
-0.9170835 -4.18209 -1.1390473 -0.4697096 -2.2062688 -1.8795633 2.3943741 0.32978413
-1.5166866 0.3967304 -3.4623682 1.2720236 -0.71864283 2.4022944 0.3924087 -1.5684149
1.0717487 0.84457827 -1.1020283 1.3207476 -2.316088 -0.8816369 0.17688632 -1.0932397

conv3.bias f4 [32]
00000000: cfd4 29bd 64ae 723d 9d2c bdbc 25df 913d
00000010: ff9c 57bd 743e 023c 0a64 32bc 2214 efbc
00000020: f89f 8abd 29af 9d3c 414a 21bd fc4d 97bd
00000030: 5f4f 4a3d 35c8 873c 61cb 7b3d 8626 e83c
00000040: 919a 5f3c 89be 29b9 bf4c 55bd d8f0 083d
00000050: 87a6 f7bc 16e4 613d 7f9c 10bd d464 053c
00000060: 4efd a9bc 843e 81bd 3ee3 9dbc 59a1 a6bd
00000070: 6118 123c 5a32 8f3d 479a eabc 476d d4bc
-0.041462716 0.059248343 -0.023092562 0.071226396 -0.052639958 0.00794946 -0.010888109 -0.029184405
-0.06768793 0.019248562 -0.039377455 -0.07387921 0.0493921 0.016574958 0.061473254 0.028338682
0.013647691 -0.00016188076 -0.052075144 0.03343281 -0.030230774 0.05514916 -0.035305496 0.008141715
-0.020750668 -0.06310752 -0.019273397 -0.081362434 0.008916945 0.06992026 -0.028638018 -0.025931014

conv4.weight f4 [32, 32, 3, 3]
00000000: 72c9 25bd f18f 45bd 2091 76bf 829b ac3f
00000010: 28a3 753f fb9e 153f 90e8 25bf 3b24 583f
00000020: 9154 c63d e215 bb3e afcd 393f 5f2c 803e
00000030: efee 683f e04b 323f 55bc af3e 6af9 793f
00000040: 5742 733f aae9 593b b6ef 09bf 67d2 7e3f
00000050: 99cc ffbe f807 22bf 61f6 523e 9540 863f
00000060: 2a04 cc3f ec19 963f e94d 423e 44dc a03d
00000070: 0c3d 20bd e6c9 24bf 6f92 573f fb3a 8b3f
00000080: b4cc 5b3e 5699 4b3e 2f14 483f b527 c2bf
00000090: efac 923e 123e e23e 3f98 0d3f 4d08 8a3f
000000a0: ea58 913f f8dd 153f 3784 4c3f ff1a 593f
000000b0: 0d2b 57be ddd7 843f 8545 563f a912 0c3f
000000c0: d857 323f 05cb a73f fb78 e63f 20de ac3f
000000d0: 710b c6be adf5 b53f 6e39 a8bd 3c82 b63e
000000e0: fbf2 cbbe a130 4f3f 91c7 0e40 9ea5 48bd
000000f0: 01f1 d13e 6722 12bf e4a5 27bf 2343 b6be
00000100: 7f21 8bbf a5c7 cebf 2e10 89bf 4591 dbbf
00000110: 9718 8e3f 6e19 e1bf c16d 83bf 3ff6 5ebf
00000120: d7fd e93f 10ea dd3f 08eb da3e 7fdd 883f
00000130: 98f7 373e e230 d73f d401 4240 7eaa fa3f
00000140: a4b8 a53f 86c9 77bf 351d f8be 22da abbd
00000150: e70f 65bf 9032 823f 9e93 243f a5b0 d1be
00000160: f4de 2bbe 9323 42be 59dc d9bf 7f9c 21c0
00000170: d12b 2cbd 1005 1bbf 25c0 63be 2743 e7be
00000180: 236e e93f 72fd f33d ebe0 92bf ae28 9c40
00000190: ee08 ec3f 6044 2b3f 513d db3f bc3d 0640
000001a0: 783b 16bf 4e45 3040 22cc 643f 58d6 523f
000001b0: e269 5b3f 3392 b83f 8749 7bbb ee6d 9f3e
000001c0: fd2b cebd dbd8 623e fc9b 2b3f 8d21 a23f
000001d0: ba50 123f 1ddb 70be 563b 51bf a28e 0abf
000001e0: 4ad8 f03f 2b5b 5ebf 35ff b2bf 4557 d53f
000001f0: fb9d 61bf 57a8 1540 2ef7 28be 9461 c7bf
00000200: 7b60 e33f 33c1 2cbe e28e 703f 6ca4 7e3f
00000210: 5b53 71be 1142 6dbf b16e 3dbe cd0f 9f3f
00000220: aea8 a33f 675d d7bb 1592 c7be 8fef 22bf
00000230: eb6f a0bf 6db5 28bd fa22 95bf c39b 75bf
00000240: 7501 cdbf b9de f0be 68d5 36be 4f9f 01bf
00000250: 2ccc 4c3f 989f 39bd 5947 9cbe 1fda 2dbf
00000260: 87c7 7fbf 7cf4 923f d2c4 aa3d deac 133f
00000270: 0930 0a3f be09 033f 2e8d 41be fec0 2440
00000280: d493 0340 ceba 493f 63d4 8d40 efec 2740
00000290: cfca 2a3f 9944 c1bf d841 083f 3b9e e83e
000002a0: 6aef 983f 80f1 57bf 1cd1 1e3f a2a5 2bbf
000002b0: 72b6 9dbf d352 ea3e e6ed a5bd 498d c4be
000002c0: c1c3 553e aa2d 8bbf 59a7 02c0 6022 4b3f
000002d0: 4d6b 8f3e f99c 0e3f 1a5d 2bbe fc61 803f
000002e0: 42af 763f 04a8 a03e 6f7d ec3e 84d7 733f
000002f0: 85a2 383e d079 923e 870a 9cbf 927b 2cbf
00000300: d82c acbe 99f7 f7bf 663c f53e ce2e 06c0
00000310: 4210 f5bf ba42 a6be 1ce8 533f dc45 373f
00000320: 40e7 b5be 62c1 693f 3db9 0d3f 680e 1bbf
00000330: 8786 ed3f dbb5 503e 6b33 ea3f 51ed aa3d
00000340: da51 5cbf 00e7 3f40 cdfe 543f 4fb3 f13d
00000350: ff10 9abf 5545 383e a905 083f a5e4 31bf
00000360: b49d a33f dc91 493f 2370 dd3d b4bc b93d
00000370: 6d96 cc3f 829f a5bf c5ac 8e3f 6f19 a43f
00000380: b60f 2e3f e680 eb3f 5995 683f 5367 fd3c
00000390: fb6d 8f3f a441 893e 4457 ed3e 8568 e13f
000003a0: 7529 5e3f a915 0140 d2ec 24bf d5bb a43d
000003b0: d42e a1be bc9a 723f 3a20 373f eb67 21bd
000003c0: b301 41bf b8d9 933e 2d2e f9be b7f8 b2be
000003d0: d9cd 9c3c 2669 72bf af52 eabf eda2 4a3f
000003e0: 7453 e9be 7483 aebf 938f 90bf c06d 54be
000003f0: bde3 3a40 50f5 b6bf 3b3c 2f3f b800 0fc0
-0.040475316 -0.048232976 -0.96315193 1.3484957 0.9595208 0.5844571 -0.6480799 0.84430283
0.096840985 0.36540133 0.72579473 0.25033852 0.90989584 0.69647026 0.34323373 0.976462
0.950231 0.0033250847 -0.53881395 0.995398 -0.49960783 -0.6329341 0.20601799 1.0488459
1.5938771 1.1726661 0.18975033 0.07854512 -0.03912072 -0.6437057 0.84207815 1.0877374
0.21464807 0.19882712 0.781558 -1.5168368 0.28647563 0.4418798 0.55310434 1.0783783
1.135526 0.5854182 0.79889244 0.8480682 -0.21012516 1.0378376 0.8369983 0.54715973
0.6966529 1.3108832 1.800567 1.3505287 -0.38680604 1.4215599 -0.08214079 0.35646236
-0.39833817 0.80933577 2.2309306 -0.04898607 0.41004184 -0.57083744 -0.65487504 -0.35598096
-1.0869597 -1.6154677 -1.0708063 -1.7153708 1.1101254 -1.7585886 -1.0267869 -0.8709449
1.8280591 1.7337055 0.4275744 1.0692595 0.17965543 1.6811793 3.0313616 1.958328
1.2946973 -0.96791875 -0.48459783 -0.08391215 -0.8947739 1.017168 0.64287746 -0.40955082
-0.16784269 -0.18958883 -1.702037 -2.5251768 -0.042033974 -0.605546 -0.22241266 -0.4516842
1.8236736 0.11913575 -1.147489 4.879966 1.8440225 0.66901207 1.7128087 2.097518
-0.5868449 2.75423 0.8937398 0.8235831 0.8570844 1.4419616 -0.0038343386 0.31138557
-0.10066984 0.22153036 0.6703489 1.2666489 0.5715443 -0.23521085 -0.81731164 -0.5412389
1.8816006 -0.8685786 -1.3984133 1.6667258 -0.88131684 2.3383996 -0.16500542 -1.5576653
1.7763819 -0.16870575 0.9396802 0.9946964 -0.23566954 -0.92678934 -0.18499257 1.2426697
1.2785852 -0.0065724137 -0.3897864 -0.6364679 -1.2534155 -0.041188646 -1.1651299 -0.959408
-1.601607 -0.47044924 -0.17854846 -0.5063371 0.7999904 -0.045318216 -0.30523184 -0.6791095
-0.9991383 1.1480861 0.08338322 0.5768565 0.53979546 0.5118674 -0.18901512 2.5742793
2.0558977 0.78800666 4.432176 2.6238363 0.6671571 -1.5099059 0.5322547 0.4543322
1.1948063 -0.84352875 0.62037826 -0.6704961 -1.2321303 0.45766315 -0.08102016 -0.38389042
0.20875455 -1.087331 -2.041464 0.7934933 0.28011551 0.5570827 -0.16734734 1.0029902
0.9636117 0.31378186 0.46189448 0.95250726 0.18030746 0.2860856 -1.2190713 -0.67376053
-0.33627963 -1.9372436 0.47897643 -2.0966067 -1.9145586 -0.32472783 0.82776046 0.7159097
-0.35527992 0.91310704 0.55360776 -0.6056886 1.855668 0.20381872 1.8296942 0.08346046
-0.86062396 2.9984741 0.83201295 0.118017785 -1.2036437 0.17995198 0.53133637 -0.6948951
1.2782502 0.7873819 0.10812404 0.090691954 1.5983406 -1.2939303 1.1146475 1.2820262
0.67992723 1.8398712 0.90852886 0.030933058 1.1205438 0.26807892 0.4635564 1.7610022
0.8678201 2.016947 -0.6442386 0.080436386 -0.3148104 0.94767356 0.7153355 -0.039405745
-0.7539322 0.28877044 -0.48668042 -0.3495538 0.019141125 -0.94691694 -1.8306483 0.79154855
-0.45571482 -1.3633866 -1.1293815 -0.20744991 2.92015 -1.4293613 0.6845128 -2.2344189

conv4.bias f4 [32]
00000000: cc1a 5abd 597a 6f3c 8aef d13c 6001 6dbd
00000010: 7be2 bf39 1888 b7bc 80a8 e3bc bdd8 423d
00000020: fd8f 363d 8873 edbc a1a1 113c fce4 b43c
00000030: a765 803c be26 383d 04c9 1dbd 6b12 13bc
00000040: 136a 6d3c c379 ac3c 89b9 f63c 097c cbbc
00000050: c09a 613d bfe0 153d bf31 6b3d 74a3 2dbc
00000060: fa70 023d f963 543d 09f1 5b3c 6348 b33c
00000070: 4004 46bd e4a9 7f3d 26e7 d43c 9106 473d
-0.05324821 0.014616572 0.025626916 -0.05786264 0.000365991 -0.022403762 -0.027790308 0.04756998
0.04457091 -0.028985754 0.008888633 0.022081845 0.015673472 0.044958822 -0.03852178 -0.008976559
0.014490622 0.021054154 0.030117767 -0.024839418 0.05507922 0.036591288 0.05742049 -0.010598052
0.031846024 0.051853154 0.0134241665 0.021885103 -0.048343897 0.06241788 0.025989126 0.048590247

bn21.weight f4 [32]
00000000: fcde e93f 29de e03f daa1 b63f f856 1440
00000010: 5736 cf3f 6e0c ce3f 49b7 f53f e7a2 ff3f
00000020: 1a36 b43f 41cf ad3f d101 0840 f05f 913f
00000030: 5180 ba3f 1564 a13f c669 f83f 7229 af3f
00000040: 4623 de3f 87ab 9f3f 52e4 a83f 54a4 b83f
00000050: 8f2b a03f aa8d ef3f 812b 0440 ef34 4940
00000060: 230e a13f 5f4c c43f e54b a83f a218 0a40
00000070: 1d9a c13f 106e a23f c47e aa3f afa8 e33f
1.8271174 1.7567798 1.4268143 2.3178082 1.6188458 1.6097543 1.9196559 1.9971589
1.407901 1.3578874 2.1251109 1.1357403 1.4570409 1.2608668 1.940728 1.3684523
1.7354515 1.2474221 1.3194678 1.4425149 1.2513293 1.8715107 2.0651553 3.1438558
1.2582439 1.5335807 1.3148161 2.1577535 1.5125157 1.2689838 1.3319936 1.7785853

bn21.bias f4 [32]
00000000: 478e 1ebf 5e21 923f bbc0 77be de67 eabe
00000010: 70cd 0f3f cf75 e5be 3f78 f1bf 3e9e 63bf
00000020: 99b7 25bf ae09 293e 899d 56bf c6d1 8cbf
00000030: f066 65be af90 3a3d af31 8abf dd14 33bf
00000040: 39b6 50bf 6a30 3ebf 330d 15bf 62f4 393e
00000050: 5add 013f fdc4 6cbf 9302 86be 4c15 35bf
00000060: 7492 2abf b895 90be 12cc 0e3f db26 e6bf
00000070: 504f 37bf 6a72 6abf 2d25 d63e 7fd2 1bbf
-0.6193585 1.1416433 -0.24194615 -0.4578237 0.5617285 -0.44816443 -1.8864821 -0.88913333
-0.6473327 0.16507599 -0.8383413 -1.1001518 -0.22402549 0.045548137 -1.0796412 -0.6995371
-0.8152805 -0.74292624 -0.58223265 0.18159631 0.5072838 -0.9248808 -0.2617384 -0.7073562
-0.6662972 -0.28239226 0.55780137 -1.7980608 -0.71605396 -0.9158083 0.41825238 -0.60868067

bn21.running_mean f4 [32]
00000000: 0392 abc1 9121 95c2 985c b141 5814 a6c2
00000010: add9 a6c2 d1be 0b41 11db 2141 fd10 3f42
00000020: fbb0 0e42 cf56 c1bf 77fd 6442 75e3 1e40
00000030: c69e 8641 8e85 d840 45fa a63f 61a1 4e41
00000040: 6558 1d40 6e6f 48c0 83d8 20c0 5919 fec1
00000050: 6adb 7bc2 bd75 c6c1 0b01 3642 42a7 6242
00000060: 50a7 38c0 6ae3 7f42 a50e 62c2 24d9 cbc1
00000070: eaac 5841 dcd5 c741 6683 af41 1b24 d43f
-21.446295 -74.56556 22.170212 -83.039734 -83.42515 8.734086 10.115983 47.76659
35.672832 -1.5104617 57.247524 2.4826329 16.827526 6.766303 1.3045126 12.914399
2.4585202 -3.1318011 -2.5132148 -31.762377 -62.96427 -24.80749 45.50102 56.663338
-2.885212 63.972084 -56.5143 -25.481026 13.542215 24.979424 21.93916 1.6573519

bn21.running_var f4 [32]
00000000: 02e2 c143 4d19 7844 0d7a 0a43 9947 8f44
00000010: a8dd be44 416b 6c43 f883 6342 7c8f a143
00000020: 85a9 2844 cc37 1243 bc68 ba43 dcaf 2743
00000030: ded8 fa43 89c9 b442 a2e4 1643 4401 b942
00000040: 0c3b 1c43 7876 9843 0b9f 6842 e044 5643
00000050: 70c9 7f44 4cd0 ba42 03aa 3044 7113 2044
00000060: 00cc 0343 35bf 9844 0923 5644 abc6 fe42
00000070: 2be5 4043 196f c143 d480 0c43 5f71 ce42
387.7657 992.3953 138.47676 1146.2374 1526.9268 236.41896 56.878876 323.12097
674.64874 146.21796 372.81824 167.68695 501.69427 90.39362 150.8931 92.50247
156.23065 304.92554 58.155315 214.26904 1023.14746 93.40683 706.65643 640.3038
131.79688 1221.9752 856.5474 127.38802 192.89519 386.86795 140.50323 103.22143

bn22.weight f4 [32]
00000000: 7c15 533f 31fd b53f 1c3b c33f bf3d db3f
00000010: d8bd c33f c52f a83f 1bf4 783f 7327 cb3f
00000020: dec8 af3f e347 bd3f 3dc5 b93f 1af4 cc3f
00000030: 401a cb3f 2876 be3f 022d a13f 9022 fe3f
00000040: 4fee b03f 4856 8c3f 35e1 f83f 25d1 d53f
00000050: c0ee b33f 7c14 e63f 8b9b 883f 09d5 5f3f
00000060: 38b5 c93f 7a65 a53f b05b 5b3f b765 c13f
00000070: 29d4 b33f 1727 b73f 2073 b83f f08a 533f
0.8245466 1.4217893 1.5252414 1.7128218 1.5292311 1.3139578 0.97247475 1.5871414
1.3733175 1.4787563 1.4513317 1.6011994 1.5867386 1.4879808 1.259186 1.9854298
1.3822726 1.0963831 1.9443728 1.6704451 1.4057236 1.7975001 1.0672468 0.8743444
1.5758429 1.2921593 0.8568678 1.5109166 1.4049121 1.4308804 1.4410133 0.82633877

bn22.bias f4 [32]
00000000: 5558 a2bf dfb2 3ac0 54a5 0fbf 7ba9 523e
00000010: 8496 bebe 7e34 ebbe b14a b2bf 8864 cabe
00000020: 653a 333e 2db5 12bf 92f9 59be 1a9d 5ebf
00000030: 2fd9 8cbe 486e 7d3e 7066 39c0 c1bb 603e
00000040: 47bc 2dbf 44ad 97bf f274 9dbe 0af7 e3bf
00000050: 1654 1fbf 717f 30bf 4677 74bf 32b6 cdbf
00000060: 680c 49bf d6b2 88bf dbdf 89bf 13c1 b63d
00000070: 11f7 f7bf 97b0 a6bd fac7 06c0 732d 92bf
-1.2683207 -2.9171674 -0.56111646 0.20572464 -0.3722421 -0.45938486 -1.3929044 -0.39529824
0.17502744 -0.573077 -0.2128661 -0.8695847 -0.27509448 0.247491 -2.8968773 0.21946622
-0.67865413 -1.1849751 -0.30753285 -1.7809765 -0.6223768 -0.6894446 -0.95494497 -1.6071227
-0.78534555 -1.0679576 -1.077144 0.08923545 -1.9372274 -0.081391506 -2.1059556 -1.142012

bn22.running_mean f4 [32]
00000000: c177 ee41 74a9 d241 2b23 2dc2 3f74 91c2
00000010: d665 4ec2 a1e7 0bc2 d173 1c42 b384 1dc2
00000020: 2ef4 12c2 c51b 00c2 ef40 e0c1 3dd5 1ac2
00000030: c4c2 6ec2 89e6 a3c2 5484 d041 6cb7 e841
00000040: 39a6 c041 6155 fa41 296a 90c1 ac71 8941
00000050: 4a3c e6c1 0bac 71c2 e2bc 2b42 2f5a c541
00000060: 1fd2 2dc2 4fda 4c42 b73e 0742 5bcb 11c2
00000070: a3b6 8c42 46c4 53c2 fc60 9342 b36a 5142
29.808474 26.33274 -43.284344 -72.72704 -51.59945 -34.9762 39.113102 -39.37959
-36.738457 -32.02712 -28.031706 -38.70824 -59.6902 -81.950264 26.064613 29.089561
24.081163 31.291689 -18.051836 17.180504 -28.779438 -60.41801 42.934456 24.669035
-43.455196 51.213192 33.811245 -36.44859 70.35671 -52.941673 73.68942 52.3542

bn22.running_var f4 [32]
00000000: 3bfc 4744 83b2 0c44 f5c6 0845 0ade b544
00000010: bec0 9d45 6615 b344 1523 7744 da40 9144
00000020: 89ab 4944 7fdf 2e45 0fea 4244 d724 c044
00000030: e2ec 4f44 979c 8e44 2bb3 8244 470c 6845
00000040: cd00 3f44 32e7 ea43 5153 da44 c00e 2a44
00000050: cfea 0f45 ebd1 ce44 92f6 9c44 6ab8 d743
00000060: 60e7 3844 ef51 6d44 ff1d 4a44 056f 6644
00000070: fd5a 7044 b93e bd44 82f8 7544 e8e2 8a44
799.9411 562.78925 2188.4348 1454.9387 5048.093 1432.6687 988.54816 1162.0266
806.68024 2797.9685 779.65717 1537.1512 831.7013 1140.8934 1045.599 3712.7673
764.0125 469.8062 1746.6036 680.23047 2302.6755 1654.5599 1255.7053 431.44073
739.61523 949.2802 808.4687 921.7347 961.4217 1513.9601 983.88293 1111.0908

conv5.weight f4 [64, 32, 3, 3]
00000000: f26d c4be 89e5 3cbf a96c b03f 1e35 5e3f
00000010: 766b 28be 6100 fdbe f86d a93f 8ddb 02c0
00000020: 70ea 1140 ce62 11be d485 8dbe fca2 3c3f
00000030: 71c0 833f 3a18 13bf cb0c d33e bd8f f5be
00000040: 672d c9bf 70f8 0cbf 814b 91be 7d54 593c
00000050: dabb b03f b320 063e 5c13 d13f 3493 aa3e
00000060: 4d70 fb3e a853 04bf 5c84 133f 4f7a 54bb
00000070: 4d6c 8c3f 99f5 5ebf 0af9 0a3f aa51 013f
00000080: 7c47 12bf d7c7 8bbf 2093 03c0 27d3 11bf
00000090: 162d 683e 75ba 3bbf aae8 283f 186b 31bf
000000a0: 8e99 31bf 46f2 b93f 3e34 633f c193 d43f
000000b0: 8251 6e3d 8101 a4be cbd6 cdbf 883f ce3f
000000c0: 3849 00be ed83 45bd d6bc 383f 4ca5 9c3f
000000d0: a532 dcbe 687b 8f3f b12e 833f ae70 c33f
000000e0: cf14 a83f b3bd 943f 8e15 bfbe 80ff febd
000000f0: 4c43 823f 6ce7 80be 49d3 a43c dc01 92bf
00000100: 67b6 6fbf d14f cdbe 230d 7cbf 93fe 9440
00000110: 5a14 d23f 7b9b 183f e12d a93f 7d0e a23e
00000120: f435 0d3f 332e 1440 b465 3f3e 9d98 8d3f
00000130: 6fd5 9240 74fc 95be 728f 853e d4dd e8bd
00000140: 2428 46bf b5d3 283f ac43 9fbe cc2a 7f3f
00000150: fa79 81bf ddaf 4ebf 35c6 903f eee0 743f
00000160: 2137 fc3e 8d3b 213f 3028 3f3f 6386 3c3f
00000170: fbfa a03e 376e 3b40 1d1d 65c0 e063 9b3f
00000180: bf60 ea3d 04fa 723f a375 423f 7477 493f
00000190: eb6d 27bd 4a87 ad3f 7f94 163f 5475 f03d
000001a0: 7ae6 963f 89b7 2c3f 4cf4 823f 99e3 893f
000001b0: 059f 263f 527e 0940 54a4 8cbf 3928 d93f
000001c0: 1d54 fbbe 7288 29c0 72c8 d6bf d0b9 b53d
000001d0: 00d6 4c3f 708e 01bf 2e7b 3fbf 8176 21bf
000001e0: 1335 1839 4d0b 9a3e ba08 1d3f 2ae2 5d3e
000001f0: 2230 40be e7a8 40c0 c5e7 c83e d49f be3f
00000200: be95 e33d 7401 09c0 03b0 003f 8771 edbe
00000210: 0f61 f53e 4502 edbf 4de8 a5bf 8faf 753e
00000220: c8d8 47bf 45ed c2be 402c 12bf 8349 01c0
00000230: d031 c53e 4642 b3be afa9 413f 8d0f 7e3f
00000240: 19f9 0d3f 78ae 313f 0ccc cf3e b638 bcbf
00000250: d9db 2cbe 73b4 0a3f 1e94 15bf b2c4 9f3e
00000260: 3142 913e 3e27 8fbf 5e6d 21be d5a2 35bf
00000270: 95cb ac3e f25c 3ebf 5dfc 62bf 97fe 90bf
00000280: 3217 913c 46c0 03c0 3535 3a3f eff0 863e
00000290: d391 79bd a970 123f c649 7340 3827 c2be
000002a0: 4b07 b93f 397d 1c3c 3364 273f 9c89 dbbf
000002b0: 8771 833f 458b 0b3e 0e0b 1940 c554 d63f
000002c0: cc0e 8dbe a077 613e f0df cfbf 3454 7cbf
000002d0: cd00 093f b050 94bf 3c78 093f b0e3 dabe
000002e0: dd7c b4bf e42b 823e c053 edbd 373e 9bbd
000002f0: c6ae 86be 861e 903e 016b 153f da43 bf3f
00000300: 1486 563f 518b 8cbf a542 d43f 3b8c 0abf
00000310: 4e9b 88bf 0e45 513e 93a0 813f 5786 323d
00000320: f129 da3f fa1f fabd 4852 f6bc e853 413f
00000330: 81a3 313f 5b44 5c3f a2e7 413e b490 953f
00000340: 8e2c d43f 6ba3 d43e aca6 91bf 1891 b73e
00000350: 4b18 37bf cf2e 51bf ab48 333e 5d5b 3abf
00000360: 0f23 d13e ce9c e2bf cfc6 17bf 6943 0e3f
00000370: 5a66 2d3f c776 6ebe 4b81 3a3f 0bf8 afbf
00000380: 4527 ecbf 146e 9cbf aabc 8abe 6093 e83f
00000390: 8dbb d4bf 4e60 803f 8162 e93f a930 5abe
000003a0: a1fb 75bf 574a 783e a132 983f fe5c 12bf
000003b0: 5fcc fb3e ba27 843e def4 60bf 1bdc 1d3f
000003c0: ff29 6c3f ec5b e9bd 794c ee3f b0dc 073f
000003d0: a724 993e fc14 e8bd 7688 e0be d910 803f
000003e0: 3e8b c0bf 504b 90bf 6e1c 923f 1511 32bf
000003f0: 74bd 8b3f 94fe df3f 80f6 b73d 78e3 883e
-0.38365132 -0.7378774 1.378316 0.867998 -0.16447243 -0.49414352 1.3236685 -2.0446503
2.279934 -0.14197847 -0.27641165 0.73686194 1.0293103 -0.5745884 0.41220698 -0.47961226
-1.5716981 -0.55066586 -0.28377917 0.0132647725 1.3807328 0.13098411 1.6334033 0.33315432
0.49109116 -0.5169015 0.5762384 -0.0032421534 1.0970551 -0.870935 0.54286253 0.50515234
-0.57140326 -1.0920361 -2.0558548 -0.5696282 0.22673449 -0.73331386 0.6598002 -0.6930404
-0.6937493 1.4527061 0.8875159 1.6607591 0.0581832 -0.32032397 -1.6081175 1.6113138
-0.1252793 -0.048221517 0.7216314 1.2237945 -0.4300739 1.1209536 1.0248624 1.5268762
1.313135 1.1620392 -0.37321132 -0.124510765 1.0176787 -0.2517656 0.02012028 -1.1406817
-0.936377 -0.40099958 -0.98457545 4.656076 1.6412461 0.59612244 1.3217126 0.3165168
0.5516045 2.3153198 0.1869114 1.1062199 4.588554 -0.2929417 0.26086003 -0.11370435
-0.77405 0.6594804 -0.31106317 0.9967468 -1.0115349 -0.80737096 1.1310488 0.95655715
0.4926081 0.6298149 0.74670696 0.7364256 0.31441483 2.928602 -3.579902 1.2139854
0.11444234 0.94912744 0.7596075 0.78697896 -0.04087631 1.3556912 0.5882034 0.117411286
1.1789086 0.6746755 1.0230803 1.0772582 0.65086395 2.148335 -1.0987649 1.69654
-0.4908761 -2.648953 -1.6779921 0.088733315 0.8001404 -0.5060797 -0.7479733 -0.6307145
0.00014515621 0.30086747 0.6134144 0.21668306 -0.18768361 -3.010309 0.39239326 1.4892526
0.111125454 -2.1407137 0.5026857 -0.46375677 0.47925612 -1.8516318 -1.2961518 0.23992752
-0.78065157 -0.38071647 -0.5709877 -2.0201118 0.38514566 -0.350115 0.7564954 0.9924248
0.5545822 0.69406843 0.40585363 -1.4704807 -0.1688074 0.54181594 -0.58429134 0.31204754
0.28370813 -1.1183851 -0.15764377 -0.70951587 0.3374907 -0.74360573 -0.88666326 -1.1327695
0.017711256 -2.0586104 0.7273744 0.26355693 -0.060930084 0.57203156 3.8013778 -0.37920547
1.4455351 0.00955134 0.65387267 -1.715137 1.0269021 0.13627346 2.3912997 1.674462
-0.27550352 0.2201829 -1.6240215 -0.98565984 0.53516847 -1.1587124 0.5369909 -0.42751837
-1.4100605 0.2542411 -0.1158824 -0.07580226 -0.26305217 0.28148288 0.583664 1.4942582
0.83798337 -1.0980016 1.6582838 -0.54120225 -1.0672395 0.20436499 1.0127128 0.043585148
1.704405 -0.1221313 -0.030068532 0.75518656 0.6939011 0.860418 0.18936017 1.1684785
1.6576097 0.41530928 -1.1378989 0.35852885 -0.71521443 -0.8171205 0.1750819 -0.7279566
0.4084706 -1.7704103 -0.5928773 0.5557161 0.677343 -0.23287497 0.72853535 -1.3747572
-1.8449484 -1.2221093 -0.27097064 1.8169975 -1.6619736 1.002939 1.8233186 -0.21307625
-0.9608708 0.24247108 1.1890451 -0.57173145 0.4917936 0.2581156 -0.8787364 0.6166398
0.9225158 -0.11394486 1.8617088 0.5307112 0.29910776 -0.113321275 -0.4385411 1.0005141
-1.5042493 -1.1272984 1.1414926 -0.69557315 1.0917192 1.7499566 0.08982563 0.26736045

conv5.bias f4 [64]
00000000: b9e1 5ebd 5a4b 0bbc 8dbc 81bc bf62 313d
00000010: 516c 0dbb ccff 303b 3253 aa3c 39f7 38bc
00000020: 0fc6 403d 9d7c 66bc 4063 8cbc 2786 6fbd
00000030: b3fa 64bd 666c 183c a02b 89bc e7c8 70bc
00000040: adfa ffb9 5ccc 40bd 78f4 7cbc b658 653d
00000050: f859 ad3c 2307 913b 7170 c23b 71d8 3abd
00000060: d5d8 313b df71 2b3d 5d2a 24bd 83b7 7cbd
00000070: 705a 4a3d 439e 343d b07f e23c ee79 52bb
00000080: e221 303d f884 84bc 1ce1 0ebd be03 713c
00000090: fa18 503d aff4 37bb da6a 20bd 8a01 823d
000000a0: 08c2 4b3d 6331 07bd e030 3cbd a934 523d
000000b0: 71d8 fc3c f8d3 ea3c 9eca 66bd cd60 32bd
000000c0: 03f6 49bd ebcf 01bc 21c6 263d 776e b2bc
000000d0: 274a 40bd 82d8 723c 182d b53c 9f14 bb3c
000000e0: 2e07 fabc 1525 133d a09f 59bd a1f9 dc3c
000000f0: 34ab 123b 0fb3 1b3d d9f9 873d 5f9e 0cba
-0.054414485 -0.008501852 -0.015836978 0.043307062 -0.0021579454 0.0027007936 0.020791624 -0.011289411
0.047063883 -0.014067796 -0.01713717 -0.058477547 -0.055903148 0.009303188 -0.016744435 -0.014696336
-0.00048824158 -0.047069892 -0.015439145 0.055992804 0.021161065 0.0044258996 0.005933814 -0.04561657
0.0027137299 0.041856643 -0.040079463 -0.061698448 0.049402654 0.044096243 0.027648777 -0.0032116133
0.043001063 -0.016176686 -0.03488265 0.014710365 0.05080507 -0.0028069427 -0.0391644 0.0634795
0.04974559 -0.033006083 -0.04594505 0.051319752 0.030864926 0.028665528 -0.056345575 -0.043549348
-0.04930688 -0.007923107 0.040716294 -0.02178119 -0.046945717 0.014822127 0.022116229 0.022836981
-0.030521002 0.035924036 -0.053130746 0.026974501 0.0022379877 0.03801256 0.066394515 -0.00053641753

conv6.weight f4 [64, 64, 3, 3]
00000000: 820f 633f d28f 36bf 54de 1abe 849e 99be
00000010: c653 13c0 781b f23c 6e65 443d 853d a3bd
00000020: 0a3d f73d dd96 adc0 88a4 e23e a85c 17bf
00000030: 73c3 c2bf 831f 22c0 183c c83d e983 afc0
00000040: 45a2 053e 5500 723f 31e2 3bbd 7f73 d3be
00000050: ff3a b1be a8de 0dc0 92d9 d2bf 3014 cbbd
00000060: 64a4 7cbd 36c3 da3d 8ffe 743e 77d3 203e
00000070: b68a 303e 1362 a13b 6d48 0ec0 27e1 18c0
00000080: 10a8 7c3e d9af 37be 7dc7 88be b538 863e
00000090: eb8d c13f d15b c03f 6b82 373e 564b 0bc0
000000a0: db80 1ac0 014e 1e3e ea36 da3e 4e74 d8bd
000000b0: 07e7 b0bd 24c3 b93f adfc 153f 259d 56be
000000c0: 955e 07c0 4262 babf d1f9 17bd 31c2 c03e
000000d0: 49b2 09bf 09cf cdba 9db4 993f 4013 0a3f
000000e0: f1ac 2b3e 2d18 2cc0 a2a9 8abf 2057 9e3d
000000f0: 122d 743d 916e 313c e49d ec3c 54e2 67bf
00000100: 4e16 c6bf a826 4d3e 7655 fdbe 4ea9 cdbe
00000110: 3472 3fbe 65cf acbf 0132 ad3f 28f7 8dbf
00000120: 5b5a 83bf 3b9d e1be 3fe5 603e b516 0ec0
00000130: c97c 1ac0 0052 9c3e 047e 143f 1ea0 0a3f
00000140: 4ade d13d 224b 05be 00a9 aebe acaa c0be
00000150: 90f2 28c0 6863 36bf a4a6 4c3e b03d 80bf
00000160: c2a2 1b3f 1db5 b23d 7184 fabe 6ee4 a13d
00000170: df83 90be ef61 e9bf 7020 1ec0 c60f b83f
00000180: 705a a2be ee2f 3ebe 676d 1e3e 3323 963d
00000190: 3afb 5abf 45bf a0be 5184 c7bf 8722 1abf
000001a0: d2b9 ffbe 4c23 5f3f 9bdc 233e d75e dc3e
000001b0: b465 71bf 3dd2 933f 009a 8f3f 5acf eec0
000001c0: 3ad5 ad3e cf7d b03d 61b9 883f 9cdf b93e
000001d0: d5bb 163f 2430 1ec1 208e 51c0 1ee7 36bf
000001e0: 91a8 88c0 9cdd 4abe 2d0c 05bf 617e 9ebf
000001f0: d368 533f b858 e13f f419 2ebf 3124 bfbd
00000200: fa41 28bf f1ac 0e3f 0f21 693f a39a 273f
00000210: 82c4 6f3e ecb8 8f3f 2012 4a3f b851 28c0
00000220: f8b4 cebf f804 343f d35d 90bf abfe dfbe
00000230: 9243 a93d 2e21 4c3f 36f6 c53d 86b8 f23f
00000240: 01f8 dc3e 727f e6be c366 47be 2ff9 66bf
00000250: 914c f1bd b91e 823e cbb1 b2bf b62d 0ec0
00000260: 3a08 c83e fe0c 853e f56a c03e 45c2 1ebf
00000270: d780 bfbf ac1d 26c0 e943 4cbe 2bd7 893e
00000280: e32e 42be 7bc1 e4bd 493f 2abf e7d9 b1bf
00000290: bd43 2fbf a327 15c0 2dfb 11c0 bab5 5abe
000002a0: 2a2b 4ebf a4f2 0d3f 922e fd3e 64cf 97c0
000002b0: 938d 8dc0 cc81 e1bd b8b4 34c0 4022 f4bf
000002c0: e65f 293e 7658 9cbf 8f2b 443f c566 c93e
000002d0: 90ed 85bf 32ee cabf 929b 90be 2360 b7bf
000002e0: 6f08 05bf a889 b73e 2dbb 81bf 2531 1fbe
000002f0: 00d1 653f a85a 553f 2bc0 f73e 2c16 e63f
00000300: a355 4cc0 3d79 6bbf 4925 3b3e dfe7 c03f
00000310: 432d 7a3e 5fe9 783e 8bb9 713f dc01 2a3f
00000320: 71e7 ddbe 21e9 f9bf 0543 b2bf 71a2 b5be
00000330: d87c febd b8b3 6ebd 1665 e0bd 4af6 d7bf
00000340: 0d67 21bf e03c bd3e 00b3 bd3f c2b4 febd
00000350: 0b37 873e d716 7a3f 2a15 aac0 7d38 f3bf
00000360: 2ab5 0a3f 1309 0f3d 52b9 54bf 9443 07c0
00000370: 732c ffbf 3f0e 2f3e 1cd1 32be 7dbf bdbe
00000380: 4bf4 db3e 541d d53f 9fe2 c33f 293f c4be
00000390: a661 1ac0 6c38 a9bf 9343 5abf eecb a23e
000003a0: 0d97 5ebd bedd 2e3e 7e2b adbe acbd 64bf
000003b0: c7bd a2be c408 17c0 fb35 dfbf 6304 f8bd
000003c0: 660c 22be dda2 7b3e db6f 833e cf6d e3c0
000003d0: 0d81 25c0 5b9a 7c3f 2ce8 2dc0 ae64 2d3f
000003e0: ce31 0b3e 2cf9 90c0 49ce 9abf 7a0e 8ebe
000003f0: 2a72 9a3f aff6 48be 3923 9abe 8f4c 38c0
0.8869554 -0.713132 -0.15123874 -0.3000375 -2.3019881 0.029554114 0.047948293 -0.07970718
0.12072189 -5.424666 0.44266152 -0.5912576 -1.5215896 -2.5331733 0.09777087 -5.4848523
0.13050182 0.94531757 -0.04587001 -0.41299054 -0.34615323 -2.2167149 -1.6472647 -0.0991596
-0.061680213 0.10681765 0.23925231 0.15705667 0.17240414 0.0049250214 -2.2231705 -2.3887422
0.24673486 -0.17938174 -0.26714697 0.2621514 1.5121435 1.502802 0.17920844 -2.1764731
-2.4141147 0.15459444 0.4262002 -0.10569058 -0.08637815 1.4512677 0.5858868 -0.20958383
-2.1151478 -1.4561236 -0.037103478 0.37648156 -0.53787667 -0.001570196 1.2008244 0.53935623
0.1676519 -2.6889756 -1.0833018 0.077314615 0.059613295 0.010829584 0.028883882 -0.90579724
-1.5475557 0.20034277 -0.49479264 -0.40168232 -0.18695909 -1.3500792 1.3530885 -1.1091051
-1.0261949 -0.4406527 0.2196245 -2.220136 -2.4138663 0.3053131 0.58004785 0.5415057
0.102474764 -0.13016942 -0.34113312 -0.37630212 -2.6398048 -0.7124543 0.19985443 -1.0018826
0.60795224 0.08725951 -0.4892917 0.07904898 -0.2822561 -1.8233012 -2.4707298 1.4379814
-0.31709623 -0.18572971 0.15471421 0.073309325 -0.8553959 -0.31395927 -1.5587255 -0.60208935
-0.49946457 0.87163234 0.16002123 0.43041107 -0.9429581 1.1548535 1.1218872 -7.4628115
0.3395174 0.08617746 1.0681573 0.36303413 0.5888036 -9.886753 -3.2742996 -0.71446407
-4.270577 -0.198111 -0.51971704 -1.2382318 0.82581824 1.76052 -0.6800835 -0.09333075
-0.6572567 0.5573264 0.9106607 0.6547033 0.23414806 1.1228309 0.78933907 -2.6299877
-1.6148977 0.7032008 -1.1278633 -0.43748984 0.08264841 0.7973813 0.09666102 1.8962562
0.43157962 -0.45019108 -0.19472794 -0.90223974 -0.11782182 0.25414065 -1.3960508 -2.22154
0.39068776 0.25986475 0.37581602 -0.6201518 -1.4961194 -2.595561 -0.1994778 0.26921973
-0.18963198 -0.11169716 -0.66502815 -1.3894624 -0.68462735 -2.3305442 -2.2809556 -0.21358386
-0.80534613 0.55448365 0.49449593 -4.744066 -4.423532 -0.11011085 -2.8235302 -1.9072952
0.16540489 -1.2214496 0.76628965 0.3933622 -1.0463123 -1.5853941 -0.2824369 -1.4326214
-0.51965994 0.3584721 -1.0135247 -0.15546091 0.89772034 0.83341455 0.483888 1.7975516
-3.1927269 -0.9198187 0.18275942 1.5070761 0.24431328 0.24307774 0.9442374 0.6640909
-0.43340638 -1.952427 -1.3926703 -0.35475495 -0.12426156 -0.058276862 -0.109567806 -1.6872036
-0.6304787 0.36960506 1.4820251 -0.124368206 0.26409182 0.976911 -5.3150835 -1.9001614
0.54182684 0.034920763 -0.83095276 -2.1134996 -1.993544 0.17095278 -0.17462581 -0.37060156
0.42959818 1.6649575 1.5303534 -0.38329437 -2.41221 -1.3220344 -0.8525936 0.3179621
-0.054343272 0.17076775 -0.33822244 -0.89351916 -0.31785414 -2.35991 -1.7438349 -0.12110212
-0.15825042 0.24573846 0.25671276 -7.1071544 -2.5860016 0.9867303 -2.7172956 0.6773175
0.13593218 -4.5304165 -1.2094203 -0.2774542 1.206609 -0.19625352 -0.30104998 -2.8796728

conv6.bias f4 [64]
00000000: d85a acbb 2658 f7bc 314f dc3c 9b33 2f3d
00000010: 7977 d23c 5e1e 183c e22c 20bb 64b1 4b3c
00000020: f91a 483a 74cd b83c 0786 15bb 78b9 1c3d
00000030: 4e15 2e3d c950 fb3c 1c69 d2bc 9aa5 013d
00000040: b1ad b13b 7a52 edb9 c5c8 b93c 6f70 b23c
00000050: c7f0 1d3d da55 19bd 58ca d93c 5a01 d83b
00000060: 8f4a ac3a 2983 5abc feb4 0d3c a2d2 c93c
00000070: 2065 503b a7a3 803c d96d dbbb 62bc f6bb
00000080: 7d8a df3c 6fe8 c0bb e5d6 163d 707a a33c
00000090: c691 fd3c ed65 853c f75d a9bc 0197 1c3d
000000a0: ef51 7f3c 08d0 323d e150 263c 4ee5 9cbc
000000b0: 50d2 00bd a232 e93b 8c62 2a3d 363c 883c
000000c0: 6fd7 093d 1085 183d fb0b bdbb c527 993c
000000d0: 7f81 a93c 8b95 05bd c482 133b bc17 1ebd
000000e0: 0b56 1c3d 40d2 a23b da9f 123d 5179 3bbc
000000f0: 9100 10bd 13c6 a33c f8ad c53c 55e3 8c3b
-0.005259853 -0.0301934 0.02689323 0.042773824 0.025691735 0.009284584 -0.0024440815 0.01243243
0.0007633414 0.022558905 -0.0022815482 0.038262814 0.042500786 0.03067817 -0.025684886 0.03165207
0.005422317 -0.00045265612 0.022678742 0.021782128 0.0385597 -0.03743539 0.026585743 0.006591958
0.0013144779 -0.013336935 0.008649109 0.02463657 0.0031798556 0.015703036 -0.0066964445 -0.007529781
0.027287716 -0.0058870832 0.036826033 0.019955844 0.0309533 0.016283954 -0.020674689 0.038229946
0.015583499 0.043655425 0.010151119 -0.01915231 -0.03145057 0.0071166316 0.041597888 0.016630273
0.03365272 0.037236273 -0.0057692504 0.018695721 0.020691631 -0.03261332 0.0022508362 -0.038596854
0.038167994 0.0049689114 0.035796978 -0.011442498 -0.03515679 0.01999191 0.024130806 0.004299561

bn31.weight f4 [64]
00000000: a279 8b3f a50b df3f ac5e 6b3f 2071 a23f
00000010: 3eb4 ab3f c8c5 953f a105 b63f 6ea8 933f
00000020: 8271 ac3f 9218 d83f 9714 a93f 9d66 b73f
00000030: 7890 fd3f 6fa3 9a3f 690c 733f f94d b53f
00000040: 5684 993f 5a99 943f d354 883f 6d5c be3f
00000050: 73a7 b03f 1231 cf3f 99ea 623f b2f7 c03f
00000060: 2898 7b3f bbdf 9a3f 2e94 7f3f a8f6 613f
00000070: 463d e83f 451d 873f 3539 5d3f aab9 a73f
00000080: 8e80 943f 1c9c 6e3f 34f4 de3f baba d03f
00000090: 55b3 9a3e 93f2 503f 1e17 853f aa8b d33f
000000a0: 4625 b33f 9ebf 9d3f 8be5 b83f 0920 c83f
000000b0: 1fd3 773f 08de 953f d901 9b3f a926 9d3f
000000c0: 9e07 993f 6470 9d3f 4b29 9a3f 3155 de3f
000000d0: 8e2d 863f fd68 cc3f 388f 9c3f fd3c 8a3f
000000e0: 2d1b 993f 3156 be3f bd2b 863f a430 9f3f
000000f0: e428 a33f 128f 3040 f923 d43f 5e6e 713f
1.0896494 1.7425429 0.9194133 1.2690773 1.341438 1.1700983 1.4220468 1.1535776
1.347214 1.6882498 1.3209409 1.432819 1.9809713 1.2081126 0.9494081 1.416442
1.1993511 1.1609299 1.0650886 1.4871956 1.3801101 1.618685 0.8863922 1.5075591
0.98279047 1.2099527 0.9983548 0.8826699 1.8143699 1.0555807 0.86415416 1.3103535
1.1601732 0.93206954 1.7418275 1.6306984 0.30214944 0.8162014 1.039768 1.6526997
1.399575 1.2324102 1.4445051 1.5634776 0.9680652 1.1708384 1.2109939 1.2277423
1.195545 1.2299924 1.2043852 1.7369748 1.0482652 1.596954 1.2231207 1.0799862
1.1961418 1.4870054 1.0482098 1.2436719 1.2746854 2.7587323 1.6573478 0.9430903
