checkpoints/best_model_1406_4.pth (torch, 364488 bytes, 26 tensors)

conv1.weight f4 [16, 1, 3, 3]
-0.20232034 -0.02782314 0.20561047 0.054871246 0.06553067 -0.13655224 0.20259345 0.05378708
-0.09363532 -0.16742177 0.13255592 -0.21154213 0.19852374 0.013168018 0.07012752 0.023849543
0.27131948 0.25050336 0.15402219 0.10178208 0.06700264 0.3299302 -0.16008584 0.23983331
0.09165274 0.2872724 0.052786395 -0.23407084 0.033467904 -0.09564771 -0.3297133 0.24095425
0.12917635 -0.13177359 0.33051383 -0.32146248 0.2624959 -0.058298107 0.081784785 -0.18842436
-0.2803251 0.26895106 0.19189718 -0.015348162 -0.21593249 0.32878554 0.141328 -0.058259197
-0.32145464 0.21495132 -0.19817245 -0.2825656 0.13808681 0.2766834 0.12716055 0.11811401
0.077284634 -0.25729483 -0.21786751 -0.0044388343 -0.1845121 -0.100813374 0.23229706 -0.15318544
-0.3036568 0.17151475 -0.015681276 0.038907424 0.105283655 -0.07611803 -0.0025699832 -0.30554038
0.2503939 -0.2898341 -0.30238 0.050637275 -0.23514605 0.07120798 0.1747495 0.068341985
-0.11105299 -0.13147368 0.14505638 0.10848637 -0.12770645 -0.24151248 0.2078217 0.051030483
0.26229146 0.0034656837 -0.054430623 -0.2692659 -0.2650289 0.12281803 0.2368126 -0.013781625
0.19577537 -0.05160746 -0.112100214 0.2990769 -0.14455073 -0.16378056 -0.117052846 0.12938471
0.035336275 0.0065813735 0.27600327 -0.09514903 -0.18486504 -0.25245917 0.052593827 0.15948789
0.1542649 -0.064744316 -0.25380394 0.24873762 0.30339748 0.24646015 -0.1587646 -0.051404726
0.06928242 0.05185409 0.32839483 0.3021251 -0.15677902 -0.22402729 0.2612821 0.059948727
-0.08544283 0.2811734 0.16636609 0.28845125 0.20760459 0.0055844537 0.29914367 0.020109296
0.3172677 0.19804764 0.0019761645 0.21751243 -0.22397123 0.24565575 -0.050160933 0.06693439
00000000: 102d 4fbe 5bed e3bc 8d8b 523e acc0 603d
00000010: f234 863d 5ad4 0bbe a874 4f3e d74f 5c3d
00000020: e0c3 bfbd 9d70 2bbe bdbc 073e 809e 58be
00000030: cf49 4b3e acbe 573c 049f 8f3d 1e60 c33c
00000040: 63ea 8a3e fa41 803e feb7 1d3e 2073 d03d
00000050: ae38 893d 9cec a83e 8bed 23be dd96 753e
00000060: 6fb4 bb3d 5e15 933e 8c36 583d 44b0 6fbe
00000070: a415 093d f2e2 c3bd 2fd0 a8be b6bc 763e
00000080: ce46 043e a8ef 06be 1c39 a93e bb96 a4be
00000090: dd65 863e ffc9 6ebd c87e a73d 51f2 40be
000000a0: c686 8fbe f4b3 893e b280 443e db76 7bbc
000000b0: 681d 5dbe 9456 a83e 4ab8 103e 32a1 6ebd
000000c0: b495 a4be 331c 5c3e b8ed 4abe 70ac 90be
000000d0: a166 0d3e 72a9 8d3e 6036 023e c2e5 f13d
000000e0: 6847 9e3d 26bc 83be a918 5fbe a473 91bb
000000f0: bdf0 3cbe 3e77 cebd 48df 6d3e a5dc 1cbe
00000100: e778 9bbe 90a1 2f3e 0576 80bc 645d 1f3d
00000110: f59e d73d c5e3 9bbd 2a6d 28bb ca6f 9cbe
00000120: a133 803e 2365 94be 8dd1 9abe 0869 4f3d
00000130: 20ca 70be 7dd5 913d 88f1 323e e2f6 8b3d
00000140: c06f e3bd 09a1 06be a989 143e 1a2e de3d
00000150: 7bc5 02be 0c4f 77be 36cf 543e 5705 513d
00000160: 114b 863e 8620 633b a5f2 5ebd 38dd 89be
00000170: deb1 87be 0588 fb3d 017f 723e 53cc 61bc
00000180: 5779 483e 5862 53bd cc94 e5bd 9c20 993e
00000190: 1b05 14be 17b6 27be 67b9 efbd 6d7d 043e
000001a0: c5bc 103d 90a8 d73b 4d50 8d3e 7fdd c2bd
000001b0: 434d 3dbe 5442 81be a06c 573d cb50 233e
000001c0: 9ef7 1d3e ab98 84bd 97f2 81be 13b5 7e3e
000001d0: ea56 9b3e 0d60 7c3e 3093 22be c38d 52bd
000001e0: f1e3 8d3d f464 543d 5e23 a83e 24b0 9a3e
000001f0: ae8a 20be 6967 65be c4c6 853e cc8c 753d
00000200: a7fc aebd f6f5 8f3e df5b 2a3e e2af 933e
00000210: 4c96 543e cbfd b63b 5c29 993e 40bc a43c
00000220: e970 a23e 00cd 4a3e 8a82 013b 94bb 5e3e
00000230: b758 65be 2e8d 7b3e 8d75 4dbd e614 893d

conv1.bias f4 [16]
0.080406524 0.2237806 -0.2710324 -0.2256468 0.022443261 -0.26085123 -0.16127257 0.027300837
0.23571315 0.0930177 0.24356835 -0.07943772 -0.28463578 0.16472638 0.33590296 0.072539106
00000000: 2dac a43d be26 653e c2c4 8abe f40f 67be
00000010: eeda b73c 4b8e 85be a324 25be 01a6 df3c
00000020: ca5e 713e 1080 be3d fb69 793e 3eb0 a2bd
00000030: c8bb 91be 08ae 283e 79fb ab3e 628f 943d

conv2.weight f4 [16, 16, 3, 3]
0.0010630607 -0.028618898 -0.022329068 0.062054884 0.05189627 -0.017269265 0.012819301 -0.08523449
-0.07765591 -0.049175896 -0.040829014 -0.017029574 -0.090046585 -0.053763527 0.06506766 0.028515086
-0.08133369 0.04726586 0.027155891 -0.06911677 0.0040794313 -0.033024393 -0.02033516 -0.0240166
-0.02040244 0.036250472 0.038742363 0.062263306 0.083222345 0.07632522 0.041681677 -0.07029759
-0.011383134 0.06417052 0.059473842 0.05886764 -0.0042577116 0.031842526 0.028962892 -0.041918058
-0.04913412 -0.06670686 -0.09356971 0.034845036 0.026473545 -0.034558326 0.01272438 -0.031127907
0.025070993 0.0822939 -0.029987505 -0.0062179766 0.06516865 -0.026298206 0.046429943 0.0032146093
-0.02466641 0.0029855273 0.054631002 -0.024490986 -0.038109057 0.06749657 0.06646203 -0.02008387
-0.030012941 0.01145568 -0.052925028 0.024715971 0.034042537 -0.058776785 0.039195955 -0.058195923
-0.06785938 -0.054735698 0.0401365 0.0057985014 -0.07036026 -0.057796523 0.0014834972 0.022333022
-0.015665187 -0.006984454 -0.058537908 0.0678207 -0.04775931 -0.086456314 0.04661036 0.007487295
0.06515524 -0.013786426 0.0636079 -0.045457806 -0.09495059 0.0007719762 0.065049864 0.06304569
0.05865114 0.014997645 -0.022851283 0.012376035 0.003194112 -0.089054696 0.027007256 -0.026141973
-0.0624285 -0.09780338 -0.057882365 0.026384061 -0.06385866 -0.048585944 -0.047483396 -0.023956409
-0.04806159 -0.060714923 -0.028928827 -0.08257669 -0.06416039 0.05119131 -0.03682645 0.05009263
0.017352613 -0.01228946 -0.033770476 -0.008408909 -0.015405605 -0.04476249 0.025326775 -0.021065854
0.019784253 -0.050543904 0.05355751 -0.06754239 -0.041635524 0.060473222 0.05481825 -0.063904
-0.09378043 0.045601785 0.0660188 -0.071041465 0.06717352 -0.07007643 0.026583277 -0.021301737
-0.06691372 -0.049883135 0.037086323 0.0024658083 -0.054991756 0.0443495 -0.008510109 -0.019881988
-0.046268888 -0.034856167 -0.0860908 -0.06031421 -0.06369758 0.025836876 0.01691199 -0.016234273
-0.038228553 0.030522792 -0.076198004 0.014720311 0.023709279 0.010707816 -0.05595287 -0.0020124814
-0.063622266 -0.045908134 -0.069671795 -0.07652618 -0.0066856844 0.0059603527 0.047780138 0.06756958
-0.025181334 0.029748004 -0.06658876 0.06629377 0.022255305 0.054321256 0.019898193 0.0443042
-0.050563503 -0.020235728 -0.07123808 -0.068703964 0.00941347 -0.057332717 -0.07931071 0.042267174
0.065288946 -0.013183246 0.02209582 -0.009986739 -0.014680426 0.0016636353 -0.06405175 -0.07197104
-0.08109397 -0.0056530638 0.034186125 0.031138014 0.013387273 -0.01739723 0.051682007 -0.028655209
0.056640074 -0.05305398 -0.07418421 -0.0667945 0.04859127 -0.062622316 0.012445382 -0.035182565
0.04232006 -0.036817323 -0.007838963 -0.064737044 0.05247672 0.0597935 0.01479036 -0.046610273
-0.049850345 -0.08865329 -0.06947996 -0.07296365 -0.032159626 0.035759248 -0.02000692 -0.011088234
-0.00627226 0.045866948 -0.007798935 -0.0022579865 -0.050787732 0.056230236 -0.031897523 0.019823119
-0.004246469 -0.06299757 0.029032761 -0.0778177 -0.047385957 -0.015570121 -0.028719243 -0.022238502
0.021876357 -0.059301905 0.08244895 -0.014308318 0.058865637 0.053716958 -0.015921732 -0.0349971
00000000: 6656 8b3a 2e72 eabc 73eb b6bc 432d 7e3d
00000010: 2f91 543d 4678 8dbc 0c08 523c 6c8f aebd
00000020: 100a 9fbd aa6c 49bd 533c 27bd 9b81 8bbc
00000030: 586a b8bd 2537 5cbd 3142 853d 7898 e93c
00000040: 4792 a6bd d999 413d 0876 de3c 188d 8dbd
00000050: c0ac 853b 9644 07bd ec95 a6bc 76be c4bc
00000060: 0523 a7bc 607b 143d 50b0 1e3d cf07 7f3d
00000070: 7a70 aa3d 6650 9c3d 68ba 2a3d 2ff8 8fbd
00000080: 5380 3abc d56b 833d d89a 733d 321f 713d
00000090: 4684 8bbb 4f6d 023d 9643 ed3c 45b2 2bbd
000000a0: dc40 49bd 9b9d 88bd 7aa1 bfbd abb9 0e3d
000000b0: 0cdf d83c 088d 0dbd eb79 503c f4ff febc
000000c0: af61 cd3c b489 a83d 5ba8 f5bc 2bc0 cbbb
000000d0: 2477 853d 566f d7bc 532d 3e3d 32ac 523b
000000e0: 3611 cabc d6a8 433b c2c4 5f3d 52a1 c8bc
000000f0: 3e18 1cbd a43b 8a3d 3f1d 883d ee86 a4bc
00000100: b3dd f5bc 9bb0 3b3c eac7 58bd 2679 ca3c
00000110: 3070 0b3d edbf 70bd f08b 203d d95e 6ebd
00000120: dcf9 8abd 8a32 60bd 2c66 243d 5b01 be3b
00000130: 0a19 90bd 0cbc 6cbd e871 c23a bef3 b63c
00000140: 4754 80bc d9dd e4bb 72c5 6fbd 94e5 8a3d
00000150: 449f 43bd 0210 b1bd 81ea 3e3d fc57 f53b
00000160: 1c70 853d 76e0 61bc dc44 823d f731 3abd
00000170: 7475 c2bd 725e 4a3a dd38 853d 191e 813d
00000180: 2e3c 703d afb8 753c 9d32 bbbc dac4 4a3c
00000190: 4f54 513b 4f62 b6bd 523e dd3c b127 d6bc
000001a0: 07b5 7fbd 234d c8bd 0f16 6dbd 6323 d83c
000001b0: 54c8 82bd 0e02 47bd f37d 42bd 3b40 c4bc
000001c0: 3bdc 44bd 36b0 78bd 26fc ecbc f81d a9bd
000001d0: 8666 83bd fbad 513d 55d7 16bd ee2d 4d3d
000001e0: 1127 8e3c bb59 49bc e952 0abd 85c5 09bc
000001f0: ca67 7cbc df58 37bd 197a cf3c 4c92 acbc
00000200: 9612 a23c 2007 4fbd 1f5f 5b3d aa53 8abd
00000210: 038a 2abd c5b2 773d 1a89 603d 1ae0 82bd
00000220: f40f c0bd f0c8 3a3d dd34 873d 307e 91bd
00000230: 4592 893d 3b84 8fbd 2cc5 d93c fb80 aebc
00000240: 0f0a 89bd 4252 4cbd d4e7 173d 6699 213b
00000250: 093f 61bd d2a7 353d fc6d 0bbc 8ddf a2bc
00000260: 7284 3dbd 57c5 0ebd 6050 b0bd 080c 77bd
00000270: e073 82bd dba7 d33c 038b 8a3c bdfd 84bc
00000280: 8b95 1cbd ef0a fa3c b30d 9cbd 762d 713c
00000290: f639 c23c d66f 2f3c d62e 65bd d6e3 03bb
000002a0: 644c 82bd 2b0a 3cbd 16b0 8ebd c2b9 9cbd
000002b0: 9613 dbbb 104f c33b 1bb5 433d ec61 8a3d
000002c0: 1649 cebc 16b2 f33c b05f 88bd 07c5 873d
000002d0: c250 b63c f77f 5e3d 8901 a33c 5278 353d
000002e0: ad1b 4fbd 66c5 a5bc 45e5 91bd aab4 8cbd
000002f0: f43a 1a3c b6d5 6abd a76d a2bd 5820 2d3d
00000300: 36b6 853d 8bfe 57bc 4b02 b53c 6b9f 23bc
00000310: 2b86 70bc 560e da3a 902d 83bd 8d65 93bd
00000320: 9814 a6bd 563d b9bb c006 0c3d 2615 ff3c
00000330: 4b56 5b3c a384 8ebc 83b0 533d 54be eabc
00000340: 6cff 673d 214f 59bd e4ed 97bd 8ecb 88bd
00000350: a407 473d 2140 80bd b7e7 4b3c 981b 10bd
00000360: cd57 2d3d c3cd 16bd fe6e 00bc db94 84bd
00000370: d4f1 563d 07ea 743d 4453 723c 6aea 3ebd
00000380: e02f 4cbd db8f b5bd 824b 8ebd f76d 95bd
00000390: d0b9 03bd 4a78 123d 8de5 a3bc 6dab 35bc
000003a0: 8887 cdbb fbde 3b3d 358e ffbb bafa 13bb
000003b0: cc06 50bd ad51 663d faa6 02bd 1864 a23c
000003c0: f725 8bbb df04 81bd 1dd6 ed3c e35e 9fbd
000003d0: c717 42bd d219 7fbc 9e44 ebbc 852d b6bc
000003e0: 0c36 b33c 8ee6 72bd ffda a83d 6f6d 6abc
000003f0: 181d 713d 5006 5c3d 4b6e 82bc 1e59 0fbd

conv2.bias f4 [16]
-0.04045491 0.0247873 0.017977592 0.0699973 0.028429622 0.009548646 0.034127545 -0.07131442
-0.038990937 0.0018600947 -0.07770146 -0.011185149 0.028072946 0.0038565402 -0.039596077 0.0459718
00000000: 0cb4 25bd bc0e cb3c be45 933c bf5a 8f3d
00000010: 3de5 e83c ed71 1c3c 53c9 0b3d 4b0d 92bd
00000020: f6b4 1fbd 6cce f33a f121 9fbd ea41 37bc
00000030: 3cf9 e53c 02be 7c3b 7f2f 22bd ed4c 3c3d

bn1.weight f4 [16]
1.0 1.0 1.0 1.0 1.0 1.0 1.0 1.0
1.0 1.0 1.0 1.0 1.0 1.0 1.0 1.0
00000000: 0000 803f 0000 803f 0000 803f 0000 803f
00000010: 0000 803f 0000 803f 0000 803f 0000 803f
00000020: 0000 803f 0000 803f 0000 803f 0000 803f
00000030: 0000 803f 0000 803f 0000 803f 0000 803f

bn1.bias f4 [16]
0.0 0.0 0.0 0.0 0.0 0.0 0.0 0.0
0.0 0.0 0.0 0.0 0.0 0.0 0.0 0.0
00000000: 0000 0000 0000 0000 0000 0000 0000 0000
00000010: 0000 0000 0000 0000 0000 0000 0000 0000
00000020: 0000 0000 0000 0000 0000 0000 0000 0000
00000030: 0000 0000 0000 0000 0000 0000 0000 0000

bn1.running_mean f4 [16]
0.0 0.0 0.0 0.0 0.0 0.0 0.0 0.0
0.0 0.0 0.0 0.0 0.0 0.0 0.0 0.0
00000000: 0000 0000 0000 0000 0000 0000 0000 0000
00000010: 0000 0000 0000 0000 0000 0000 0000 0000
00000020: 0000 0000 0000 0000 0000 0000 0000 0000
00000030: 0000 0000 0000 0000 0000 0000 0000 0000

bn1.running_var f4 [16]
1.0 1.0 1.0 1.0 1.0 1.0 1.0 1.0
1.0 1.0 1.0 1.0 1.0 1.0 1.0 1.0
00000000: 0000 803f 0000 803f 0000 803f 0000 803f
00000010: 0000 803f 0000 803f 0000 803f 0000 803f
00000020: 0000 803f 0000 803f 0000 803f 0000 803f
00000030: 0000 803f 0000 803f 0000 803f 0000 803f

conv3.weight f4 [32, 16, 3, 3]
-0.03716988 -0.05032838 0.01040748 -0.08392664 -0.03585374 -0.008552557 -0.048996557 0.049289048
0.009482291 0.07422722 0.0042342534 0.0003724915 -0.0057169623 0.018701505 0.054532666 0.03050061
-0.02681363 0.047334194 -0.022612298 -0.04684595 -0.035659436 -0.07791864 0.04578611 0.05678414
0.044031825 0.02216039 0.032427933 -0.003798404 -0.01026123 0.043817688 -0.0021386682 0.09192398
0.052951824 -0.011620983 -0.009224406 -0.015420882 0.028279709 0.015778733 -0.011730141 -0.023772355
0.060578264 -0.033325013 -0.07768372 -0.06895194 -0.02404877 -0.040379725 0.0709963 -0.029985268
-0.05518408 0.07038675 0.02969124 0.039622106 0.03587027 -0.07009855 -0.029862683 -0.07712892
0.03057361 -0.05851263 0.047005247 0.033776462 0.054869786 0.011397068 0.054761466 0.034874294
0.020896317 0.05958323 0.037447613 0.0138012245 0.044769473 0.050216507 -0.073596425 0.0046625943
0.061029565 -0.017816475 0.019828659 0.071844034 -0.011472672 0.0027819574 -0.039890092 -0.030962497
-0.012871116 0.047077946 -0.058135152 -0.055172086 0.076468304 -0.00508244 0.063387915 0.086455725
-0.03374325 -0.067855164 -0.04982023 0.004310213 0.050606422 0.014025667 0.044237077 0.064490415
0.04161461 0.017158395 -0.050977875 0.09265406 -0.025389528 0.051936865 -0.0022230968 -0.04882666
0.02237152 0.06788333 0.024894398 -0.06918253 0.016687138 0.070579335 -0.056746565 0.05304817
-0.025083883 -0.061156698 -0.05079724 0.035812125 0.033380613 0.035956927 -0.009214473 -0.00066307106
0.04547676 -0.07954818 0.023656413 0.005766734 0.03980183 -0.0044385265 0.0019029554 0.072320424
0.01072432 0.05721092 -0.049294263 -0.010080042 -0.0570434 0.08037785 0.068007655 0.032678094
0.052416984 0.035213493 0.055404782 -0.06680248 -0.071067736 -0.061814032 -0.042873267 -0.081337035
0.08037064 -0.024395611 0.01354905 0.026319442 -0.05494123 0.08510904 -0.009267757 -0.048503887
-0.045935187 0.063837305 -0.038006045 -0.04357758 0.06554472 0.054948706 0.005661632 0.034795176
0.045956004 0.06182031 0.046567895 -0.030080687 -0.0035127187 0.08456717 -0.018107891 0.07653623
-0.034575704 -0.05767664 -0.029069148 -0.039264344 -0.020097638 0.057262562 -0.010773069 0.019773358
-0.08485354 0.008585211 -0.020792117 0.07141082 0.0131861875 -0.064562246 -0.0131872175 0.059382472
-0.05490646 -0.055087097 0.08825737 0.024379391 0.059452146 -0.041199002 -0.012290906 0.085297965
-0.055653438 -0.011786372 0.041351736 0.022134488 0.02318176 -0.06616977 -0.018251464 -0.02302052
0.011461345 0.007227624 0.09201636 -0.031042008 -0.06544055 -0.069886595 0.050697908 -0.029934116
0.022182683 -0.014810037 0.009070024 0.020572584 0.07859852 0.07442606 0.07411855 -0.063839585
-0.041977048 -0.053759914 0.044952314 -0.029768795 -0.012016078 0.06687291 -0.062758915 -0.0109834075
0.01419727 -0.05184314 0.022042247 0.04066648 -0.019684516 0.05630149 0.0684773 0.011837231
-0.03909776 -0.007688426 -0.06784909 -0.0015682399 -0.07371932 0.029201336 0.033503193 0.06595614
0.0012737288 0.054112665 -0.06820526 -0.021752723 -0.051963083 0.056918345 0.057502765 0.0060870573
0.050685722 -0.01253138 0.06357997 0.06905061 -0.029020652 0.027211593 0.03679041 -0.012585899
00000000: 723f 18bd 2225 4ebd 2384 2a3c bbe1 abbd
00000010: 5fdb 12bd 0620 0cbc 9db0 48bd 50e3 493d
00000020: 9c5b 1b3c 7104 983d 7ebf 8a3b f64a c339
00000030: 5b55 bbbb e633 993c a55d 5f3d 6adc f93c
00000040: 42a8 dbbc 80e1 413d 6d3d b9bc 8ae1 3fbd
00000050: a10f 12bd cf93 9fbd 378a 3b3d 7d96 683d
00000060: b75a 343d b589 b53c 27d3 043d a5ee 78bb
00000070: b81e 28bc 2d7a 333d e628 0cbb a442 bc3d
00000080: 03e4 583d ef65 3ebc f721 17bc dea7 7cbc
00000090: d9aa e73c 6742 813c c72f 40bc 3ebe c2bc
000000a0: ea20 783d cf7f 08bd a418 9fbd ad36 8dbd
000000b0: ed01 c5bc 3665 25bd 8266 913d aaa3 f5bc
000000c0: b408 62bd ee26 903d 0b3b f33c ca4a 223d
000000d0: b4ec 123d d48f 8fbd 96a2 f4bc c4f5 9dbd
000000e0: 8275 fa3c f1aa 6fbd 9388 403d 3059 0a3d
000000f0: 24bf 603d c5ba 3a3c 8f4d 603d 59d8 0e3d
00000100: c12e ab3c 8c0d 743d ab62 193d 881e 623c
00000110: 3260 373d d3af 4d3d b9b9 96bd adc8 983b
00000120: 23fa 793d dbf3 91bc b66f a23c f722 933d
00000130: e0f7 3bbc 8051 363b cb63 23bd 10a5 fdbc
00000140: 60e1 52bc ced4 403d 201f 6ebd 20fc 61bd
00000150: 6a9b 9c3d 998a a6bb 86d1 813d b30f b13d
00000160: 5d36 0abd a6f7 8abd 4c10 4cbd b03c 8d3b
00000170: ae48 4f3d e9cb 653c f031 353d 8d13 843d
00000180: 1574 2a3d c38f 8c3c 2dce 50bd 69c1 bd3d
00000190: b3fd cfbc c0bb 543d 60b1 11bb 77fe 47bd
000001a0: 7a44 b73c 6a06 8b3d 56ef cb3c 92af 8dbd
000001b0: 77b3 883c e68b 903d 166f 68bd 0a49 593d
000001c0: b77c cdbc 727f 7abd c410 50bd bcaf 123d
000001d0: 1cba 083d 9247 133d 4df8 16bc f2d1 2dba
000001e0: d745 3a3d 28ea a2bd 18cb c13c dff6 bc3b
000001f0: 3e07 233d 0f71 91bb 966c f93a bb1c 943d
00000200: 0fb5 2f3c ff55 6a3d c8e8 49bd c326 25bc
00000210: 57a6 69bd 249d a43d 9947 8b3d 77d9 053d
00000220: 31b3 563d 063c 103d 20f0 623d bdcf 88bd
00000230: f68b 91bd b630 7dbd e19b 2fbd 0894 a6bd
00000240: 5d99 a43d 4ed9 c7bc d6fc 5d3c df9b d73c
00000250: 0e0a 61bd a64d ae3d cad7 17bc 03ac 46bd
00000260: 8926 3cbd 22bd 823d 3aac 1bbd 687e 32bd
00000270: 4f3c 863d e511 613d 3685 b93b 6385 0e3d
00000280: 5d3c 3c3d 4b37 7d3d fabd 3e3d c66b f6bc
00000290: a435 66bb 8d31 ad3d 0057 94bc 07bf 9c3d
000002a0: 419f 0dbd 573e 6cbd 6c22 eebc a6d3 20bd
000002b0: cda3 a4bc 268c 6a3d 8781 30bc bdfb a13c
000002c0: b1c7 adbd fca8 0c3c 3b54 aabc d63f 923d
000002d0: e10a 583c 3639 84bd 330f 58bc 093b 733d
000002e0: 99e5 60bd 02a3 61bd 48c0 b43d 4ab7 c73c
000002f0: 1884 733d 49c0 28bd cc5f 49bc b3b0 ae3d
00000300: dcf4 63bd a11b 41bc 7060 293d 6353 b53c
00000310: ade7 bd3c 0484 87bd 1884 95bc 8895 bcbc
00000320: 5dc8 3b3c b4d5 ec3b 1373 bc3d cf4b febc
00000330: b205 86bd b420 8fbd 9ca8 4f3d 6438 f5bc
00000340: 75b8 b53c cca5 72bc 709a 143c d687 a83c
00000350: 43f8 a03d b16c 983d 77cb 973d 54be 82bd
00000360: 20f0 2bbd 5b33 5cbd eb1f 383d b0dd f3bc
00000370: 16df 44bc aaf4 883d bf87 80bd c0f3 33bc
00000380: ab9b 683c 7959 54bd f191 b43c e591 263d
00000390: 6c41 a1bc 649c 663d d43d 8c3d f2f0 413c
000003a0: f924 20bd 31ef fbbb 77f4 8abd 668d cdba
000003b0: 28fa 96bd a437 ef3c a53a 093d 0314 873d
000003c0: 3ff3 a63a 3ea5 5d3d 33af 8bbd c432 b2bc
000003d0: 3ed7 54bd 3623 693d 0588 6b3d f075 c73b
000003e0: d59b 4f3d 6b50 4dbc 3736 823d 686a 8d3d
000003f0: b8bc edbc d9ea de3c 8ab1 163d 1635 4ebc

conv3.bias f4 [32]
0.055423927 0.089208044 -0.022013826 -0.03220378 0.06725907 -0.040309202 -0.028882515 -0.059945118
-0.07501152 -0.07262838 0.02630108 0.0036874327 0.069662884 -0.062975675 0.049120504 0.095726304
0.018935565 -0.0017170702 -0.052123357 0.07775283 -0.01371198 0.010187996 -0.0029599136 -0.010483087
0.058422994 -0.055117875 -0.02486546 -0.019290978 -0.060548782 -0.07624465 0.032592174 0.04847068
00000000: 3304 633d b5b2 b63d 5756 b4bc 1ce8 03bd
00000010: 20bf 893d 431b 25bd 069b ecbc 0389 75bd
00000020: a49f 99bd 30be 94bd 5d75 d73c dba8 713b
00000030: 6aab 8e3d 64f9 80bd 9532 493d 270c c43d
00000040: c21e 9b3c 510f e1ba 4d7f 55bd e03c 9f3d
00000050: 36a8 60bc 8deb 263c 1cfb 41bb 41c1 2bbc
00000060: f34c 6f3d 48c3 61bd a6b2 cbbc 1d08 9ebc
00000070: 0002 78bd 2826 9cbd 5f7f 053d 3189 463d

conv4.weight f4 [32, 32, 3, 3]
0.047354057 0.0013957096 -0.029508421 0.02903426 -0.04799398 -0.0018504951 -0.027027495 0.02925817
0.02507953 -0.03572455 -0.06543548 -0.029087255 -0.054900598 -0.047285557 -0.059409343 -0.06255916
0.041815948 -0.036965877 -0.01955244 0.010841467 -0.060476366 -0.05490374 -0.035007365 -0.021896856
-0.019583385 0.008431444 0.043509386 -0.035052557 -0.023053687 -0.056641303 -0.019688277 0.040695544
-0.015989726 0.058345288 -0.043347515 0.02671799 0.010373961 -0.02543284 0.006007352 -0.018855289
-0.020794196 -0.06327275 0.044332553 0.001978245 -0.052489243 0.016765982 -0.0074624717 -0.010958827
-0.054360922 -0.045702927 -0.046319745 -0.0017863661 0.05204187 -0.014001499 0.019911788 -0.046160914
0.029188525 -0.0030360725 -0.015539971 -0.0004317644 -0.013082035 0.049724277 0.007859165 -0.005797229
0.00963562 0.015024677 -0.019942772 0.034743346 -0.03323412 -0.030976824 0.021890799 0.026654096
0.058740154 0.050256304 0.023216438 -0.00436177 -0.037524864 0.014530878 -0.03340658 -0.021408541
0.037199475 -0.016834203 0.056914344 -0.031978022 -0.058473654 0.048452806 -0.057162367 0.057722703
-0.03641364 0.0421283 -0.05093202 -0.054567333 -0.061687406 -0.06925305 0.015415837 -0.02029058
-0.0026228004 -0.059563275 -0.04167894 -0.053480346 0.041785844 0.04263902 -0.06586189 -0.030630892
0.020323485 -0.04594395 -0.032121167 0.028777795 0.026441414 -0.05660802 0.01908518 -0.008207398
-0.029540882 0.00019614355 0.021400597 0.015887279 0.046756167 0.033043995 -0.06890374 0.005797976
0.01883361 -0.012542252 0.024664015 -0.03460404 -0.03407308 -0.04898823 -0.0411073 -0.023157082
-0.050215274 -0.014367367 -0.035968732 -0.05213113 0.029450515 -0.021594279 -0.027814161 -0.020623947
-0.05455391 0.04185014 0.021566601 -0.001329052 -0.039415676 -0.022030463 -0.06024107 0.02423323
0.016558735 -0.06891104 0.009710644 -0.04244727 -0.005562592 0.03702391 -0.035030536 -0.04590753
-0.040112495 0.030187022 -0.033507288 -0.047002017 -0.0136198215 0.031499196 -0.045831576 -0.029772367
-0.06045123 0.008051176 0.0093600005 0.0053713936 -0.048104797 -0.029018793 -0.016303875 -0.056781065
-0.055285215 -0.046420857 -0.0038472502 -0.04766976 -0.06622694 -0.06352892 -0.006200385 -0.028117126
-0.025548201 -0.0614203 -0.06666299 0.016875234 -0.039848793 -0.04689045 0.015124572 0.03318013
-0.03944978 -0.0167941 -0.037488654 0.039144687 0.0033566523 0.040761366 -0.046100326 0.016794693
-0.005536415 -0.05074851 0.019990938 0.0103656305 0.041972637 0.048579868 -0.05385184 0.0319438
-0.06741955 -0.043590516 -0.027441269 -0.011678582 -0.044660226 0.041885924 0.036050238 -0.023352418
-0.03751274 0.06590415 0.05056396 -0.039082836 0.04003546 0.03289142 0.018141644 -0.00520054
0.029847829 -0.018395416 -0.06724275 -0.05916502 0.010056286 0.01768053 -0.00014120927 0.0127621535
0.047201686 0.03667222 0.01690662 -0.01982516 0.03843781 -0.042372145 0.022427095 0.01610129
0.01727968 0.0075169117 0.03514743 -0.04970016 0.018117785 -0.044903792 -0.05149931 -0.02071009
0.006339111 -0.023389176 -0.030588659 -0.015289327 -0.028191824 0.006260484 -0.05978488 0.017546117
-0.058042966 -0.04314995 -0.058029693 -0.058908727 -0.01448904 0.01805491 -0.011899404 -0.042609844
00000000: 54f6 413d 3ef0 b63a a5bb f1bc 42d9 ed3c
00000010: 5695 44bd 508c f2ba c468 ddbc d4ae ef3c
00000020: 9673 cd3c e853 12bd 0903 86bd 6548 eebc
00000030: 73df 60bd 80ae 41bd 3657 73bd 041f 80bd
00000040: 3347 2b3d 8869 17bd 702c a0bc 69a0 313c
00000050: 11b6 77bd bee2 60bd e263 0fbd 0961 b3bc
00000060: 566d a0bc 0a24 0a3c e636 323d 4593 0fbd
00000070: 16db bcbc b600 68bd 4f49 a1bc 5fb0 263d
00000080: e3fc 82bc 78fb 6e3d 2a8d 31bd b0df da3c
00000090: 8cf7 293c 8858 d0bc 52d9 c43b 6876 9abc
000000a0: 9758 aabc 2595 81bd 0d96 353d 72a5 013b
000000b0: f6fe 56bd d058 893c c087 f4bb a78c 33bc
000000c0: 8fa9 5ebd fe32 3bbd c6b9 3dbd 8024 eaba
000000d0: db29 553d 8b66 65bc 0c1e a33c 3a13 3dbd
000000e0: c61c ef3c d8f8 46bb 5d9b 7ebc 705e e2b9
000000f0: 0856 56bc afab 4b3d bac3 003c aef6 bdbb
00000100: b8de 1d3c 102a 763c 065f a3bc 0a4f 0e3d
00000110: 8020 08bd 1cc3 fdbc 5554 b33c b159 da3c
00000120: 8499 703d 8ed9 4d3d 6630 be3c 2eed 8ebb
00000130: acb3 19bd eb12 6e3c 57d5 08bd f760 afbc
00000140: 7a5e 183d e2e7 89bc 041f 693d 63fb 02bd
00000150: 1282 6fbd 7376 463d 1623 6abd a46e 6c3d
00000160: 7826 15bd b98e 2c3d 189e 50bd ff81 5fbd
00000170: efab 7cbd 8bd4 8dbd b592 7c3c 6e38 a6bc
00000180: 4ae3 2bbb 9ff8 73bd 89b7 2abd 350e 5bbd
00000190: a227 2b3d 41a6 2e3d 99e2 86bd a3ed fabc
000001a0: 707d a63c b92f 3cbd 7c91 03bd 69bf eb3c
000001b0: aa9b d83c d0dd 67bd 8658 9c3c 5278 06bc
000001c0: b8ff f1bc e2ab 4d39 4e50 af3c 0a26 823c
000001d0: 6583 3f3d 2459 073d 671d 8dbd f3fc bd3b
000001e0: f148 9a3c 057e 4dbc 300c ca3c f7bc 0dbd
000001f0: 3790 0bbd e2a7 48bd 2160 28bd ecb3 bdbc
00000200: 88ae 4dbd 1b65 6bbc f353 13bd 7487 55bd
00000210: 3542 f13c 7ce6 b0bc 86da e3bc 8df3 a8bc
00000220: ec73 5fbd 0d6b 2b3d 71ac b03c 9633 aeba
00000230: 5572 21bd 3b79 b4bc 57bf 76bd c484 c63c
00000240: 2fa6 873c 3b21 8dbd 6519 1f3c 30dd 2dbd
00000250: 6746 b6bb 62a6 173d 2e7c 0fbd 8909 3cbd
00000260: 004d 24bd c64a f73c f03e 09bd 3085 40bd
00000270: ac25 5fbc 4d05 013d e4b9 3bbd 2ee5 f3bc
00000280: b59b 77bd 14e9 033c b05a 193c 8402 b03b
00000290: 8909 45bd d2b8 edbc b48f 85bc 4393 68bd
000002a0: c072 62bd cc23 3ebd 2622 7cbb 5e41 43bd
000002b0: fda1 87bd 731b 82bd 992c cbbb e355 e6bc
000002c0: 764a d1bc da93 7bbd 9b86 88bd ee3d 8a3c
000002d0: 7d38 23bd 3310 40bd 0ecd 773c e3e7 073d
000002e0: 1896 21bd c893 89bc b48d 19bd 2e56 203d
000002f0: 48fb 5b3b 64f5 263d b2d3 3cbd 0695 893c
00000300: d16a b5bb abdd 4fbd 09c4 a33c 9bd4 293c
00000310: 80eb 2b3d affb 463d bf93 5cbd 81d7 023d
00000320: 4313 8abd f88b 32bd 83cc e0bc 8657 3fbc
00000330: a4ed 36bd 9390 2b3d 6aa9 133d 924d bfbc
00000340: f5a6 19bd c1f8 863d 281c 4f3d 5315 20bd
00000350: 39fc 233d 27b9 063d c99d 943c 4b69 aabb
00000360: 6f83 f43c fcb1 96bc 91b6 89bd 0557 72bd
00000370: 1fc3 243c c2d6 903c 9311 14b9 5a18 513c
00000380: 8e56 413d 9c35 163d c07f 8a3c 6068 a2bc
00000390: f770 1d3d 6a8e 2dbd 07b9 b73c dae6 833c
000003a0: 1e8e 8d3c 6d50 f63b c0f6 0f3d 6592 4bbd
000003b0: c06b 943c 0aed 37bd f1f0 52bd 35a8 a9bc
000003c0: 51b8 cf3b a89a bfbc 1195 fabc 1680 7abc
000003d0: 8af2 e6bc bf24 cd3b fee0 74bd e0bc 8f3c
000003e0: 76be 6dbd 01be 30bd 8bb0 6dbd 474a 71bd
000003f0: 7063 6dbc e4e7 933c b8f5 42bc a987 2ebd

conv4.bias f4 [32]
0.011620563 -0.036613267 -0.05751133 -0.053162366 0.017711746 0.0048523955 0.0038048897 0.01032175
-0.0032404372 -0.036507715 -0.017720267 -0.028639065 -0.051446784 -0.009994584 -0.042751454 0.029693106
-0.0009197559 -0.04770906 0.022260182 0.025932796 -0.02310682 -0.012798013 0.031159388 -0.048465397
0.010489394 -0.053539887 -0.03734134 0.011378346 -0.03502961 -0.035892908 0.027305542 0.036950074
00000000: 2d64 3e3c cbf7 15bd 0091 6bbd c8c0 59bd
00000010: 3918 913c d800 9f3b 755b 793b 8f1c 293c
00000020: 845d 54bb 1d89 15bd 182a 91bc 799c eabc
00000030: ddb9 52bd 53c0 23bc 261c 2fbd f53e f33c
00000040: c61b 71ba 936a 43bd fc5a b63c 0471 d43c
00000050: 844a bdbc c2ae 51bc f941 ff3c a783 46bd
00000060: b5db 2b3c a44c 5bbd 3cf3 18bd 3e6c 3a3c
00000070: 357b 0fbd 7104 13bd dfaf df3c f658 173d

bn2.weight f4 [32]
1.0 1.0 1.0 1.0 1.0 1.0 1.0 1.0
1.0 1.0 1.0 1.0 1.0 1.0 1.0 1.0
1.0 1.0 1.0 1.0 1.0 1.0 1.0 1.0
1.0 1.0 1.0 1.0 1.0 1.0 1.0 1.0
00000000: 0000 803f 0000 803f 0000 803f 0000 803f
00000010: 0000 803f 0000 803f 0000 803f 0000 803f
00000020: 0000 803f 0000 803f 0000 803f 0000 803f
00000030: 0000 803f 0000 803f 0000 803f 0000 803f
00000040: 0000 803f 0000 803f 0000 803f 0000 803f
00000050: 0000 803f 0000 803f 0000 803f 0000 803f
00000060: 0000 803f 0000 803f 0000 803f 0000 803f
00000070: 0000 803f 0000 803f 0000 803f 0000 803f

bn2.bias f4 [32]
0.0 0.0 0.0 0.0 0.0 0.0 0.0 0.0
0.0 0.0 0.0 0.0 0.0 0.0 0.0 0.0
0.0 0.0 0.0 0.0 0.0 0.0 0.0 0.0
0.0 0.0 0.0 0.0 0.0 0.0 0.0 0.0
00000000: 0000 0000 0000 0000 0000 0000 0000 0000
00000010: 0000 0000 0000 0000 0000 0000 0000 0000
00000020: 0000 0000 0000 0000 0000 0000 0000 0000
00000030: 0000 0000 0000 0000 0000 0000 0000 0000
00000040: 0000 0000 0000 0000 0000 0000 0000 0000
00000050: 0000 0000 0000 0000 0000 0000 0000 0000
00000060: 0000 0000 0000 0000 0000 0000 0000 0000
00000070: 0000 0000 0000 0000 0000 0000 0000 0000

bn2.running_mean f4 [32]
0.0 0.0 0.0 0.0 0.0 0.0 0.0 0.0
0.0 0.0 0.0 0.0 0.0 0.0 0.0 0.0
0.0 0.0 0.0 0.0 0.0 0.0 0.0 0.0
0.0 0.0 0.0 0.0 0.0 0.0 0.0 0.0
00000000: 0000 0000 0000 0000 0000 0000 0000 0000
00000010: 0000 0000 0000 0000 0000 0000 0000 0000
00000020: 0000 0000 0000 0000 0000 0000 0000 0000
00000030: 0000 0000 0000 0000 0000 0000 0000 0000
00000040: 0000 0000 0000 0000 0000 0000 0000 0000
00000050: 0000 0000 0000 0000 0000 0000 0000 0000
00000060: 0000 0000 0000 0000 0000 0000 0000 0000
00000070: 0000 0000 0000 0000 0000 0000 0000 0000

bn2.running_var f4 [32]
1.0 1.0 1.0 1.0 1.0 1.0 1.0 1.0
1.0 1.0 1.0 1.0 1.0 1.0 1.0 1.0
1.0 1.0 1.0 1.0 1.0 1.0 1.0 1.0
1.0 1.0 1.0 1.0 1.0 1.0 1.0 1.0
00000000: 0000 803f 0000 803f 0000 803f 0000 803f
00000010: 0000 803f 0000 803f 0000 803f 0000 803f
00000020: 0000 803f 0000 803f 0000 803f 0000 803f
00000030: 0000 803f 0000 803f 0000 803f 0000 803f
00000040: 0000 803f 0000 803f 0000 803f 0000 803f
00000050: 0000 803f 0000 803f 0000 803f 0000 803f
00000060: 0000 803f 0000 803f 0000 803f 0000 803f
00000070: 0000 803f 0000 803f 0000 803f 0000 803f

conv5.weight f4 [64, 32, 3, 3]
0.04671423 -0.0023809527 0.035858355 -0.0060395943 -0.027823973 -0.052388463 -0.053965077 0.018105162
-0.0023122183 -0.056588657 0.013885083 0.016821565 -0.017282343 -0.05762834 -0.023693286 0.013295806
0.04713929 0.024395341 0.0002620691 0.04351684 0.04759734 -0.02204739 0.031490475 0.05084308
0.040097177 0.0059246947 0.043548904 0.028913919 -0.032727465 -0.04854897 -0.018225577 0.051900316
-0.04654192 -0.011771629 0.03210973 0.041474164 0.020915395 -0.055209666 -0.04549534 -0.038819894
-0.046021063 -0.013404383 -0.03564265 0.024416717 0.052982226 0.030074362 0.031398196 -0.040231064
-0.050300345 0.034434363 0.038618267 -0.013046585 -0.01612046 -0.003319275 -0.039045874 0.058432285
0.05057548 -0.039205384 0.03122129 0.03899673 0.04956911 0.027633967 -0.02704649 -0.052682303
-0.035036106 -0.010577306 0.03716751 0.004920272 -0.048724532 0.057575442 0.010670872 2.4789371e-05
0.027571373 -0.04487132 0.041995127 0.013659703 -0.018178245 -0.03427313 -0.04720273 0.009235582
0.047329016 0.024056725 0.011667568 -0.0073761833 -0.04514694 -0.008365679 -0.05567414 -0.02060133
0.0071371756 -0.0050873356 0.050736975 -0.054387797 -0.0327694 -0.032690775 -0.0040010707 -0.03312303
0.01186313 0.034800343 0.018503843 -0.037259065 0.022622602 -0.03866554 0.022988858 -0.03724458
0.056081116 0.025972504 0.055291213 -0.025865318 0.018464675 -0.030677756 0.0026250673 -0.02215185
-0.056281224 0.034106642 -0.006883922 0.011291014 -0.019356383 -0.0042031296 0.011436927 0.040587302
0.029359179 0.00535265 0.032820966 -0.035312407 -0.0031514673 -0.048045643 0.010225352 0.047629185
-0.04239597 0.0036691993 -0.03412893 -0.032912474 0.006861746 -0.02444074 -0.03978277 -0.0066871946
-0.033239443 -0.004159908 -0.030715661 -0.00041559603 -0.038179606 -0.03180947 -0.006858704 0.033140033
-0.048631128 0.025436621 -0.0033513068 0.042955585 0.039715447 0.03704762 -0.0018601442 0.021198517
-0.030478803 0.054927845 0.042641316 -0.03190364 -0.025929332 0.032637753 0.010873508 0.029318942
-0.041053925 0.05343643 -0.008562357 0.016744107 -0.018620435 0.03209246 0.041945837 -0.01808897
-0.0039138054 -0.024749914 -0.058207497 -0.04028082 -0.045257524 -0.018781697 0.02411016 0.0533568
0.047834348 0.017938688 0.04933902 -0.007762733 0.00013602193 -0.03613085 -0.027826207 -0.0058054896
-0.047659438 0.015289929 -0.044494078 8.154713e-05 -0.021247702 -0.013322436 -0.004617335 0.01233391
0.022318373 -0.043328155 0.037895877 -0.04009351 -0.00913828 0.035274975 0.04413888 0.04798908
-0.038627405 -0.046225693 0.042481184 0.021824433 0.00014710655 0.015439226 -0.027975934 0.034336217
0.03151886 -0.015223646 -0.006192159 -0.056947187 0.049414147 -0.02990538 -0.048761994 -0.003619986
0.0017016298 -0.041415833 -0.040715694 0.019886548 0.011422618 -0.030202242 0.020728353 -0.007083993
0.039062634 -0.041092362 0.0220268 -0.009112388 0.018016584 0.049551748 0.03159273 -0.05151468
0.04561691 -0.031911206 7.042036e-05 0.05652031 0.053944174 0.054507956 -0.00069185457 -0.010893303
0.00037667342 0.022644637 0.045385364 0.03256528 0.046465006 0.048911396 -0.025157727 0.03771275
0.02235612 -0.02733977 -0.020236641 0.005815998 -0.0094751455 0.036043774 0.022486966 -0.0099798115
00000000: 6c57 3f3d c209 1cbb 36e0 123d cae7 c5bb
00000010: 1aef e3bc 4995 56bd 7c0a 5dbd 4751 943c
00000020: 9688 17bb 82c9 67bd 427e 633c 61cd 893c
00000030: b393 8dbc b20b 6cbd 6c18 c2bc a7d6 593c
00000040: 2115 413d bdd8 c73c 5266 8939 b73e 323d
00000050: 6ef5 423d ba9c b4bc 28fc 003d d540 503d
00000060: f03c 243d f123 c23b 5660 323d e2dc ec3c
00000070: 3c0d 06bd 49db 46bd ce4d 95bc 6d95 543d
00000080: bea2 3ebd cadd 40bc 7e85 033d d0e0 293d
00000090: c356 ab3c 8823 62bd 5259 3abd 9c01 1fbd
000000a0: 9580 3cbd 0f9e 5bbc 07fe 11bd 9105 c83c
000000b0: e403 593d 825e f63c 659b 003d 54c9 24bd
000000c0: bc07 4ebd 0c0b 0d3d 302e 1e3d 58c1 55bc
000000d0: 0e0f 84bc 3288 59bb 91ee 1fbd b156 6f3d
000000e0: 3c28 4f3d d395 20bd cac3 ff3c 09bb 1f3d
000000f0: fb08 4b3d a160 e23c 9a90 ddbc 66c9 57bd
00000100: 0582 0fbd 704c 2dbc f53c 183d 3c3a a13b
00000110: 6093 47bd 3ad4 6b3d e2d4 2e3c c5f2 cf37
00000120: 5cdd e13c fdca 37bd 1503 2c3d f2cc 5f3c
00000130: 8bea 94bc fb61 0cbd a657 41bd d750 173c
00000140: 12dc 413d 9c12 c53c 5429 3f3c e9b3 f1bb
00000150: ffeb 38bd 3310 09bc 910a 64bd 1fc4 a8bc
00000160: f8de e93b aab3 a6bb 93d1 4f3d bdc5 5ebd
00000170: 3539 06bd c3e6 05bd 6a1b 83bb 04ac 07bd
00000180: 935d 423c ce8a 0e3d 5f95 973c f69c 18bd
00000190: 0953 b93c c25f 1ebd 2153 bc3c c68d 18bd
000001a0: 50b5 653d 4ac4 d43c 0a79 623d 81e3 d3bc
000001b0: 3b43 973c eb4f fbbc 5209 2c3b cc77 b5bc
000001c0: 2487 66bd 68b3 0b3d 8692 e1bb f2fd 383c
000001d0: 4791 9ebc 68ba 89bb f361 3b3c df3e 263d
000001e0: a982 f03c 4865 af3b 476f 063d bea3 10bd
000001f0: d988 4ebb 82cb 44bd 3c88 273c d216 433d
00000200: 66a7 2dbd f376 703b c7ca 0bbd 3bcf 06bd
00000210: 7fd8 e03b f237 c8bc 42f3 22bd 4120 dbbb
00000220: 1526 08bd d64f 88bb 699f fbbc 5be4 d9b9
00000230: 3862 1cbd a64a 02bd fbbe e0bb d8bd 073d
00000240: 6f31 47bd 7660 d03c 99a1 5bbb 32f2 2f3d
00000250: aaac 223d 3fbf 173d 15d0 f3ba 83a8 ad3c
00000260: afae f9bc 05fc 603d a9a8 2e3d 64ad 02bd
00000270: c069 d4bc 2aaf 053d cc26 323c 472e f03c
00000280: 2928 28bd 28e0 5a3d 2149 0cbc f02a 893c
00000290: e289 98bc 6273 033d 66cf 2b3d 522f 94bc
000002a0: 613f 80bb 55c0 cabc fc6a 6ebd 80fd 24bd
000002b0: f45f 39bd 13dc 99bc ac82 c53c a98c 5a3d
000002c0: f3ed 433d 28f4 923c b617 4a3d 865e febb
000002d0: 1ca1 0e39 f1fd 13bd c9f3 e3bc fa3b bebb
000002e0: 8b36 43bd 9c82 7a3c 6c3f 36bd 4804 ab38
000002f0: a90f aebc 5946 5abc 034d 97bb 2b14 4a3c
00000300: 05d5 b63c dd78 31bd b538 1b3d 1839 24bd
00000310: b9b8 15bc 7e7c 103d f8ca 343d 3390 443d
00000320: c537 1ebd 2757 3dbd c000 2e3d 27c9 b23c
00000330: 9d40 1a39 cff4 7c3c c92d e5bc 22a4 0c3d
00000340: ec19 013d 996c 79bc 98e7 cabb 7441 69bd
00000350: 7d66 4a3d 21fc f4bc a8ba 47bd 493d 6dbb
00000360: 3909 df3a a6a3 29bd 80c5 26bd 1de9 a23c
00000370: ef25 3b3c b16a f7bc 82ce a93c d720 e8bb
00000380: 2400 203d 7750 28bd 8c71 b43c 204c 15bc
00000390: 8497 933c c6f6 4a3d 6167 013d 0f01 53bd
000003a0: ccd8 3a3d 53b5 02bd a5ae 9338 d781 673d
000003b0: 91f4 5c3d bc43 5f3d 935d 35ba d379 32bc
000003c0: 407c c539 3f81 b93c 01e6 393d 2c63 053d
000003d0: 1752 3e3d 5157 483d 9417 cebc af78 1a3d
000003e0: 2f24 b73c a7f7 dfbc 50c7 a5bc 2194 be3b
000003f0: a43d 1bbc a3a2 133d 9636 b83c 5d82 23bc

conv5.bias f4 [64]
-0.023319894 -0.03756619 -0.02492312 0.01166538 0.046891835 0.026253795 0.038538273 -0.04328043
-0.046939768 0.0063684187 0.06913676 0.023473026 -0.024708303 -0.003754483 0.021215776 -0.026465664
0.02610504 -0.033990745 0.03292185 0.02929158 0.048008677 0.0426549 0.02625065 0.037189048
-0.038541403 -0.012248421 -0.049990214 0.02057164 0.0482108 -0.009378263 -0.02390439 -0.049731106
0.043549143 0.043960676 -0.037678335 -0.013233846 -0.030514361 -0.013997362 0.013538944 0.0045861993
0.032562252 0.04608088 -0.026920134 0.037462544 -0.034871697 0.0050078547 -0.03250231 -0.056056526
-0.029861772 0.045119632 0.021591116 0.035481207 0.02600509 -0.02094142 0.059775922 0.010484344
-0.0075478335 0.019832443 -0.047057334 0.02195537 -0.019656762 -0.005563572 0.0028131087 0.041521005
00000000: 5d09 bfbc 01df 19bd 922b ccbc 2620 3f3c
00000010: a711 403d 3312 d73c 4fda 1d3d d246 31bd
00000020: ea43 40bd 2bae d03b 9397 8d3d 814a c03c
00000030: 1169 cabc c60d 76bb b5cc ad3c 85ce d8bc
00000040: 3dda d53c e139 0bbd 10d9 063d e5f4 ef3c
00000050: bfa4 443d e8b6 2e3d 9a0b d73c 8b53 183d
00000060: 97dd 1dbd 9aad 48bc 8ac2 4cbd db85 a83c
00000070: b078 453d 49a7 19bc 24d3 c3bc d8b2 4bbd
00000080: 9660 323d 1c10 343d 9954 1abd c6d2 58bc
00000090: 41f9 f9bc 3155 65bc 72d2 5d3c d447 963b
000000a0: ff5f 053d 4ebf 3c3d 9d87 dcbc 5372 193d
000000b0: a0d5 0ebd ee18 a43b 2421 05bd 879b 65bd
000000c0: ada0 f4bc 5dcf 383d dadf b03c be54 113d
000000d0: a008 d53c 578d abbc 99d7 743d 87c6 2b3c
000000e0: d153 f7bb a677 a23c 31bf 40bd c0db b33c
000000f0: 3807 a1bc a04e b6bb 225c 383b ee11 2a3d

conv6.weight f4 [64, 64, 3, 3]
0.025920033 0.00048843026 -0.007864749 -0.016695052 0.0204003 0.031897455 -0.022810057 -0.018015638
0.03320974 -0.027787283 0.013527513 0.039119653 -0.020832106 -0.041658636 -0.024747547 -0.008144518
-0.029769972 0.03841458 0.005987141 0.010437984 -0.033139206 0.027647538 -0.029392837 -0.03206766
-0.040451515 0.012342384 0.018382162 0.0016069461 -0.017419767 -0.02870952 0.0014908045 -0.04618158
0.025502017 -0.022947831 -0.018437987 -0.046389353 0.010984321 -0.025207657 0.015055356 0.018333677
-0.0028701085 -0.022150328 0.022022652 0.028314367 -0.031800386 -0.050611675 -0.0043376694 0.011218625
-0.00043019382 -0.044488665 0.025235418 0.0066326912 -0.0058456105 -0.022808166 0.0027992425 -0.0043439944
0.029142683 -0.005845716 0.016641552 0.002790262 -0.0076796766 -0.038410623 -0.034378257 0.040996283
0.017805055 -0.034230568 -0.018433392 -0.03525453 0.020471524 0.040485024 0.028357621 0.040900376
0.0015448283 0.03536205 0.023243403 0.020065904 -0.026244074 -0.031417903 0.018379137 -0.03119283
-0.004762332 -0.0050439346 0.0047300076 -0.03438743 -0.050115548 -0.046727136 -0.039273527 0.0019402674
0.02391435 0.020546995 -0.027821403 -0.048831105 -0.03382616 -0.047498353 0.009907782 -0.046915006
0.011355864 -0.047455005 -0.0075229066 -0.0031888655 -0.0476791 0.0036164257 -0.017063644 -0.024987109
-0.049219485 0.014529499 -0.022249237 0.016329708 -0.026371762 -0.0046219495 -0.01566657 -0.009417773
-0.0117165325 -0.03501496 -0.03162971 0.0300945 -5.273546e-05 -0.02381123 0.02012443 -0.03205092
0.0067140325 0.028690975 0.043149922 0.014000486 -0.005165644 0.022412179 -0.0075278683 -0.039185002
0.0051879482 0.0067894747 0.012976859 0.0047110156 -0.01737142 0.030465726 -0.03956099 0.0016736935
-0.029835846 -0.021702534 0.009537116 -0.026473984 0.032212555 0.0030219308 0.024726694 0.022217542
-0.023505567 0.024970429 -0.010097635 -0.04269376 0.030993888 -0.033848297 -0.027013369 -0.022995802
-0.02660948 -0.033814363 -0.014682954 -0.019736147 0.04075233 -0.007902658 -0.025043216 -0.04114557
0.021934366 0.02280972 -0.048049588 0.029821282 0.019063462 -0.01634279 -0.00023748535 -0.031077364
-0.03692385 -0.027050372 0.023196442 -0.0065649925 -0.0017674591 -0.045088377 0.011826263 0.019160341
-0.041535214 -0.039132196 -0.04731346 -0.0062127053 0.004479372 -0.025132937 0.016358716 -0.009259123
0.010274423 0.0016356375 0.03153767 -0.042441797 -0.0061734384 -0.021025019 -0.01118655 -0.032861836
-0.010541063 -0.035218533 -0.046330582 -0.025752915 0.0022510411 0.019990902 0.012740959 -0.025513703
-0.043005954 -0.029962048 -0.016065396 0.020444594 -0.03336989 -0.00587336 0.022723492 -0.023512824
-0.019013628 -0.012277487 0.02099463 -0.046157323 -0.018869348 -0.029169405 -0.020484103 0.008051617
-0.015668403 -0.0012122195 -0.012118071 -0.008352226 0.025498733 0.019284453 -0.019519215 0.03651069
0.026971813 -0.020974962 0.025520187 0.009030933 -0.03273187 0.03316297 -0.041543905 -0.026208071
0.037050627 -0.015294261 -0.020940786 0.0037564437 0.03743754 0.041564874 0.025865138 -0.024931332
-0.033419903 0.0053085787 0.002706369 -0.01729412 -0.029595656 0.013122988 -0.019964758 -0.018030217
-0.019809863 0.0211662 -0.010297596 0.028964639 0.030963251 0.025996707 -0.012669068 -0.03000083
00000000: 4056 d43c 000a 003a 26db 00bc 10c4 88bc
00000010: 881e a73c e8a6 023d 28dc babc 8895 93bc
00000020: f006 083d 28a2 e3bc 80a2 5d3c ee3b 203d
00000030: 18a8 aabc 3fa2 2abd 5ebb cabc 9670 05bc
00000040: 28e0 f3bc 9b58 1d3d c72f c43b 1404 2b3c
00000050: fabc 07bd 177d e23c 3fc9 f0bc 6159 03bd
00000060: 7db0 25bd b637 4a3c 3096 963c 2aa0 d23a
00000070: e6b3 8ebc 3a30 ebbc 1967 c33a e528 3dbd
00000080: 9be9 d03c 17fd bbbc 430b 97bc c302 3ebd
00000090: 95f7 333c 4a80 cebc bdaa 763c 8230 963c
000000a0: 6e18 3cbb 9b74 b5bc d968 b43c 88f3 e73c
000000b0: 1f41 02bd 304e 4fbd 0223 8ebb 53ce 373c
000000c0: a38b e1b9 bf39 36bd 82ba ce3c 0c57 d93b
000000d0: 898c bfbb 31d8 babc 7f73 373b 1158 8ebb
000000e0: a3bc ee3c 6c8d bfbb dd53 883c d4dc 363b
000000f0: cca5 fbbb 7554 1dbd 37d0 0cbd b8eb 273d
00000100: e8db 913c 5a35 0cbd a001 97bc 0e67 10bd
00000110: e6b3 a73c a0d3 253d 3e4e e83c 2787 273d
00000120: d67b ca3a ccd7 103d f368 be3c 4061 a43c
00000130: d0fd d6bc 0fb0 00bd d88f 963c 1b88 ffbc
00000140: 560d 9cbb 9747 a5bb 2efe 9a3b d5d9 0cbd
00000150: f645 4dbd f464 3fbd 47dd 20bd 9250 fe3a
00000160: 07e8 c33c 2c52 a83c b6e9 e3bc 2003 48bd
00000170: 4d8d 0abd a28d 42bd 4054 223c f329 40bd
00000180: f20d 3a3c 2e60 42bd b782 f6bb 49fc 50bb
00000190: 294b 43bd 8e01 6d3b 0ec9 8bbc c4b1 ccbc
000001a0: 5f9a 49bd 230d 6e3c 0844 b6bc e1c5 853c
000001b0: 9809 d8bc b973 97bb 2e57 80bc 014d 1abc
000001c0: b3f6 3fbc d96b 0fbd 288e 01bd be88 f63c
000001d0: 4530 5db8 c50f c3bc fddb a43c d347 03bd
000001e0: 6301 dc3b 5609 eb3c f9bd 303d 4b62 653c
000001f0: 9044 a9bb bf99 b73c 56ac f6bb 7480 20bd
00000200: aaff a93b 3e7a de3b e49c 543c dd5e 9a3b
00000210: 824e 8ebc 4293 f93c b40a 22bd d65f db3a
00000220: 4e6a f4bc 83c9 b1bc 9041 1c3c f8df d8bc
00000230: 50f1 033d 960b 463b a38f ca3c 9001 b63c
00000240: bf8e c0bc c98e cc3c 8d70 25bc a7df 2ebd
00000250: e5e6 fd3c 83a4 0abd 244b ddbc b161 bcbc
00000260: 20fc d9bc ee80 0abd c690 70bc b3ad a1bc
00000270: eaeb 263d 267a 01bc 6e27 cdbc 4288 28bd
00000280: b3af b33c 73db ba3c a5cf 44bd c34b f43c
00000290: fa2a 9c3c 51e1 85bc 7d05 79b9 f595 febc
000002a0: 773d 17bd be98 ddbc 7706 be3c 261f d7bb
000002b0: 16aa e7ba 97ae 38bd f1c2 413c 26f6 9c3c
000002c0: d420 2abd 1549 20bd c2cb 41bd f393 cbbb
000002d0: b2c7 923b 97e3 cdbc b702 863c 94b3 17bc
000002e0: 0e56 283c e362 d63a a52d 013d 73d7 2dbd
000002f0: 8e4a cabb a93c acbc cb47 37bc 229a 06bd
00000300: 6cb4 2cbc 4f41 10bd 23c5 3dbd c7f7 d2bc
00000310: 3486 133b f6c3 a33c 75bf 503c 1d02 d1bc
00000320: 0327 30bd f872 f5bc 949b 83bc 6c7b a73c
00000330: deae 08bd 5175 c0bb 9e26 ba3c f79d c0bc
00000340: 78c2 9bbc 8327 49bc eefc ab3c 760f 3dbd
00000350: e493 9abc adf4 eebc 47ce a7bc eeea 033c
00000360: 065b 80bc 56e3 9eba e08a 46bc c6d7 08bc
00000370: b8e2 d03c 6efa 9d3c c3e6 9fbc 3c8c 153d
00000380: fef3 dc3c afd3 abbc b60f d13c 7af6 133c
00000390: da11 06bd e5d5 073d f129 2abd 4fb2 d6bc
000003a0: 66c2 173d c894 7abc 038c abbc ab2e 763b
000003b0: 1b58 193d ee3f 2a3d 20e3 d33c cb3c ccbc
000003c0: 4fe3 08bd 96f3 ad3b 565d 313b 66ac 8dbc
000003d0: 9772 f2bc cd01 573c 228d a3bc 1bb4 93bc
000003e0: 4b48 a2bc bd64 ad3c 40b7 28bc 4047 ed3c
000003f0: a5a6 fd3c 0cf7 d43c ec91 4fbc 4dc4 f5bc

conv6.bias f4 [64]
0.01741153 -0.01631407 0.005126701 -0.031043474 -0.015008226 -0.028329095 -0.01872099 0.01851451
0.01316883 -0.021895567 -0.012703129 -0.0052225916 -0.015132099 0.010670654 0.006306189 -0.023469692
-0.010404518 -0.03616596 0.019059004 -0.026605627 -0.013160987 0.020423457 -0.024988994 -0.006712322
-0.03888548 0.0049153795 0.011760961 -0.02337725 0.01858693 0.012847541 0.0047146864 -0.01162824
-0.013599765 -0.016915878 -0.0073778583 -9.4615185e-05 0.008588884 -0.016691038 -0.017689642 -0.028027931
0.025423698 0.0051995507 -0.03924681 -0.030445542 -0.03168931 -0.004723477 -0.027488207 -0.025136948
-0.023712212 0.020298572 -0.03438267 -0.010375979 -0.0455613 -0.012147134 0.010760008 -0.008243169
-0.03228441 -0.021712126 -0.007633857 -0.019635716 -0.019186376 -0.015220522 0.012516064 0.004567071
00000000: a0a2 8e3c 16a5 85bc e3fd a73b e24e febc
00000010: 10e5 75bc 6b12 e8bc c35c 99bc beab 973c
00000020: 14c2 573c 555e b3bc c920 50bc 4622 abbb
00000030: a0ec 77bc f7d3 2e3c 26a4 ce3b 8343 c0bc
00000040: b677 2abc c222 14bd a121 9c3c 0bf4 d9bc
00000050: 2ea1 57bc 184f a73c b8b5 ccbc 0af3 dbbb
00000060: 6246 1fbd 3111 a13b 0cb1 403c a681 bfbc
00000070: 9e43 983c 7e7e 523c a87d 9a3b 6084 3ebc
00000080: 8cd1 5ebc 2b93 8abc f6c1 f1bb 246c c6b8
00000090: 64b8 0c3c a5bb 88bc dee9 90bc d59a e5bc
000000a0: 5c45 d03c fe60 aa3b 43c1 20bd ee68 f9bc
000000b0: a6cc 01bd 66c7 9abb f32e e1bc 00ec cdbc
000000c0: 1d40 c2bc 3149 a63c d8d4 0cbd 0300 2abc
000000d0: 7c9e 3abd c604 47bc bf4a 303c 5b0e 07bc
000000e0: a83c 04bd a1dd b1bc 6f25 fabb 15db a0bc
000000f0: bf2c 9dbc 7f5f 79bc 2d10 4d3c 5ea7 953b

bn3.weight f4 [64]
1.0 1.0 1.0 1.0 1.0 1.0 1.0 1.0
1.0 1.0 1.0 1.0 1.0 1.0 1.0 1.0
1.0 1.0 1.0 1.0 1.0 1.0 1.0 1.0
1.0 1.0 1.0 1.0 1.0 1.0 1.0 1.0
1.0 1.0 1.0 1.0 1.0 1.0 1.0 1.0
1.0 1.0 1.0 1.0 1.0 1.0 1.0 1.0
1.0 1.0 1.0 1.0 1.0 1.0 1.0 1.0
1.0 1.0 1.0 1.0 1.0 1.0 1.0 1.0
00000000: 0000 803f 0000 803f 0000 803f 0000 803f
00000010: 0000 803f 0000 803f 0000 803f 0000 803f
00000020: 0000 803f 0000 803f 0000 803f 0000 803f
00000030: 0000 803f 0000 803f 0000 803f 0000 803f
00000040: 0000 803f 0000 803f 0000 803f 0000 803f
00000050: 0000 803f 0000 803f 0000 803f 0000 803f
00000060: 0000 803f 0000 803f 0000 803f 0000 803f
00000070: 0000 803f 0000 803f 0000 803f 0000 803f
00000080: 0000 803f 0000 803f 0000 803f 0000 803f
00000090: 0000 803f 0000 803f 0000 803f 0000 803f
000000a0: 0000 803f 0000 803f 0000 803f 0000 803f
000000b0: 0000 803f 0000 803f 0000 803f 0000 803f
000000c0: 0000 803f 0000 803f 0000 803f 0000 803f
000000d0: 0000 803f 0000 803f 0000 803f 0000 803f
000000e0: 0000 803f 0000 803f 0000 803f 0000 803f
000000f0: 0000 803f 0000 803f 0000 803f 0000 803f

bn3.bias f4 [64]
0.0 0.0 0.0 0.0 0.0 0.0 0.0 0.0
0.0 0.0 0.0 0.0 0.0 0.0 0.0 0.0
0.0 0.0 0.0 0.0 0.0 0.0 0.0 0.0
0.0 0.0 0.0 0.0 0.0 0.0 0.0 0.0
0.0 0.0 0.0 0.0 0.0 0.0 0.0 0.0
0.0 0.0 0.0 0.0 0.0 0.0 0.0 0.0
0.0 0.0 0.0 0.0 0.0 0.0 0.0 0.0
0.0 0.0 0.0 0.0 0.0 0.0 0.0 0.0
00000000: 0000 0000 0000 0000 0000 0000 0000 0000
00000010: 0000 0000 0000 0000 0000 0000 0000 0000
00000020: 0000 0000 0000 0000 0000 0000 0000 0000
00000030: 0000 0000 0000 0000 0000 0000 0000 0000
00000040: 0000 0000 0000 0000 0000 0000 0000 0000
00000050: 0000 0000 0000 0000 0000 0000 0000 0000
00000060: 0000 0000 0000 0000 0000 0000 0000 0000
00000070: 0000 0000 0000 0000 0000 0000 0000 0000
00000080: 0000 0000 0000 0000 0000 0000 0000 0000
00000090: 0000 0000 0000 0000 0000 0000 0000 0000
000000a0: 0000 0000 0000 0000 0000 0000 0000 0000
000000b0: 0000 0000 0000 0000 0000 0000 0000 0000
000000c0: 0000 0000 0000 0000 0000 0000 0000 0000
000000d0: 0000 0000 0000 0000 0000 0000 0000 0000
000000e0: 0000 0000 0000 0000 0000 0000 0000 0000
000000f0: 0000 0000 0000 0000 0000 0000 0000 0000

bn3.running_mean f4 [64]
0.0 0.0 0.0 0.0 0.0 0.0 0.0 0.0
0.0 0.0 0.0 0.0 0.0 0.0 0.0 0.0
0.0 0.0 0.0 0.0 0.0 0.0 0.0 0.0
0.0 0.0 0.0 0.0 0.0 0.0 0.0 0.0
0.0 0.0 0.0 0.0 0.0 0.0 0.0 0.0
0.0 0.0 0.0 0.0 0.0 0.0 0.0 0.0
0.0 0.0 0.0 0.0 0.0 0.0 0.0 0.0
0.0 0.0 0.0 0.0 0.0 0.0 0.0 0.0
00000000: 0000 0000 0000 0000 0000 0000 0000 0000
00000010: 0000 0000 0000 0000 0000 0000 0000 0000
00000020: 0000 0000 0000 0000 0000 0000 0000 0000
00000030: 0000 0000 0000 0000 0000 0000 0000 0000
00000040: 0000 0000 0000 0000 0000 0000 0000 0000
00000050: 0000 0000 0000 0000 0000 0000 0000 0000
00000060: 0000 0000 0000 0000 0000 0000 0000 0000
00000070: 0000 0000 0000 0000 0000 0000 0000 0000
00000080: 0000 0000 0000 0000 0000 0000 0000 0000
00000090: 0000 0000 0000 0000 0000 0000 0000 0000
000000a0: 0000 0000 0000 0000 0000 0000 0000 0000
000000b0: 0000 0000 0000 0000 0000 0000 0000 0000
000000c0: 0000 0000 0000 0000 0000 0000 0000 0000
000000d0: 0000 0000 0000 0000 0000 0000 0000 0000
000000e0: 0000 0000 0000 0000 0000 0000 0000 0000
000000f0: 0000 0000 0000 0000 0000 0000 0000 0000

bn3.running_var f4 [64]
1.0 1.0 1.0 1.0 1.0 1.0 1.0 1.0
1.0 1.0 1.0 1.0 1.0 1.0 1.0 1.0
1.0 1.0 1.0 1.0 1.0 1.0 1.0 1.0
1.0 1.0 1.0 1.0 1.0 1.0 1.0 1.0
1.0 1.0 1.0 1.0 1.0 1.0 1.0 1.0
1.0 1.0 1.0 1.0 1.0 1.0 1.0 1.0
1.0 1.0 1.0 1.0 1.0 1.0 1.0 1.0
1.0 1.0 1.0 1.0 1.0 1.0 1.0 1.0
00000000: 0000 803f 0000 803f 0000 803f 0000 803f
00000010: 0000 803f 0000 803f 0000 803f 0000 803f
00000020: 0000 803f 0000 803f 0000 803f 0000 803f
00000030: 0000 803f 0000 803f 0000 803f 0000 803f
00000040: 0000 803f 0000 803f 0000 803f 0000 803f
00000050: 0000 803f 0000 803f 0000 803f 0000 803f
00000060: 0000 803f 0000 803f 0000 803f 0000 803f
00000070: 0000 803f 0000 803f 0000 803f 0000 803f
00000080: 0000 803f 0000 803f 0000 803f 0000 803f
00000090: 0000 803f 0000 803f 0000 803f 0000 803f
000000a0: 0000 803f 0000 803f 0000 803f 0000 803f
000000b0: 0000 803f 0000 803f 0000 803f 0000 803f
000000c0: 0000 803f 0000 803f 0000 803f 0000 803f
000000d0: 0000 803f 0000 803f 0000 803f 0000 803f
000000e0: 0000 803f 0000 803f 0000 803f 0000 803f
000000f0: 0000 803f 0000 803f 0000 803f 0000 803f
