checkpoints/best_model_pyr_1.pth (torch, 311131 bytes, 38 tensors)

conv1.weight f4 [16, 4, 3, 3]
00000000: 66fb 8ebf 6a94 41bf 1e64 a2bd 136b c2bf
00000010: f4dc 0ec0 9f4f 933e 642d f8be 180b 3f3e
00000020: 731c e23e faf6 f33e e837 543f af3e f33e
00000030: 0de4 e93d 2745 f0be cfa2 373f 7f7d 1f3f
00000040: 2cc0 e83f 43e6 a63f 6037 773f 4118 4e3f
00000050: cfde cb3d 7cf9 8b3e d886 4dbf d90f 6c3f
00000060: 0e35 593f ff48 a03f 6fd3 c03f 47e9 71bf
00000070: 5720 55bf ee1e d3bc 0188 33c0 123d 1bc0
00000080: e150 a1be a6c8 973e 5907 b83d dea5 183f
00000090: b75c 30bf 9e94 13bf a616 423d dca3 c3bf
000000a0: c4f5 8d3f 59c4 febf e6d1 c8bb 44a6 06c0
000000b0: 9d87 70bd d8d6 3cbe 86b1 59bd fcf4 773f
000000c0: 8626 633e e8e2 0140 389a 5d3f 8eaf d0bf
000000d0: 501c 58bf 46cb 9b3f b34b 57bf 3090 633f
000000e0: b6a4 80bf 5ffd 04c0 ee58 973f a8fe 643f
000000f0: 2992 bd3f 4155 08bd 2ca0 3b3f dada 36bf
00000100: 75b2 663f 5f27 0ebf 6654 17bf 5ca9 963e
00000110: ee1a d23f 8b4c 353f 60c4 253f cd2e 5d3f
00000120: 5ece 61be 2a1a c9bf 3818 213e 39d6 bcbf
00000130: c900 18c0 9eb9 3ebf b37b 0cbe d7b5 1cbf
00000140: 4a85 873d c55d b73e 4c91 ee3e bf25 013e
00000150: 142e 483f 2804 5e3f 571d d53e 4769 733f
00000160: 2330 803f 6f6e 343f fd2f 103f a192 193f
00000170: e43b 8cbc 8573 d53e b7b8 663f c1bc f53e
00000180: 2160 09bb 02b2 733f 61e5 423f 78b1 3c3e
00000190: b0f7 cdbf 7964 ad3d 20e1 aebf b51c 15c0
000001a0: e487 c53c d595 2d3e 0dff a8bf 5e90 d9bd
000001b0: a37e 06c0 d855 b73f f032 973e 8cd7 d53e
000001c0: d228 1340 bcb9 70bf fd02 0fbf 6ebb 713b
000001d0: a0d9 0640 16c0 2ebf 4f4e 40bf 816a 843f
000001e0: 4fa5 873d 20be e43f 672d 9ebf ac39 b4bf
000001f0: 377d aa3f a65a b13e 70e4 25bd 73fb 8e3f
00000200: bbc7 a6be 70a2 81be f07c 673f 317d d33f
00000210: dcca 353e 8472 b3bd 4626 b33d e05a d13f
00000220: a580 f6be 76b0 fd3e 6374 1dbf 46cd fcbe
00000230: 3b84 c83f f33c 77bf abf8 9f3f f75e 03c0
00000240: 29e7 febe fd1d 83be 8178 0bbe 7567 27bd
00000250: d990 3840 12d4 4dbe 6424 753e ac73 01be
00000260: c421 123e 5f39 4e3e a2be 863e 67b9 d13e
00000270: 5a14 c93e 9e58 67c0 b371 763e 7820 2f3f
00000280: ec16 0e3f c9f4 95be 5048 be3e 118a d53d
00000290: 09ca eb3d 204a ee3d b744 46c0 7992 0f3e
000002a0: f3d3 bc3e a8fd e03e bd66 903e eb91 36bf
000002b0: 2e6d b33e fc9c 6dbe 1c60 fa3e 4164 e03f
000002c0: 1aa8 f43e 879e 7cbd 984c 173e b4d8 2dbc
000002d0: bc13 df3c b5a9 6bbf 8092 0e3e 0a4e 9abf
000002e0: 7e8d e7bf d3a6 4fbf 09df 8cbf 4f3a c0bf
000002f0: 7dca 8fbd 8bb1 713f 23c9 3e3f f686 a0bd
00000300: 475d 193f e0ac 3d3f d403 143f 22be 233f
00000310: 7e3e b03f 233f b13e 4a90 553f c873 883f
00000320: e357 ae3d 8d4c 003f 68c8 463f 5a95 e33e
00000330: 8c0a d63e e32e b03f 5e89 e53e 2c72 ff3e
00000340: 4497 e2be b9cb 13bf 4bc1 adbf cc29 bdbf
00000350: eb74 c2bf 1eb5 c8bf 1f52 80bf 76f1 273e
00000360: 2b33 193d eb3d 3c3f 774e 963e 1bad 8fbd
00000370: c49e 013f 404d 0f3f f791 a13f 0251 803e
00000380: 3d23 06bf a433 fe3e b44d a0be 3758 013d
00000390: 475b 5b3f 6526 83bf a0d3 773f 5a1f b53f
000003a0: f217 273f 4f8c 70bd 2f84 1ebf ba04 4b3f
000003b0: 3e9b b33d 45d8 40bf 6e84 113f 3a8d 203f
000003c0: e53b c2bf 2f5e 8a3d 32f1 2c3d 835d a3be
000003d0: 934c 6bbf a731 1bc0 abd3 e2be 4500 58c0
000003e0: 6323 1c3f 8745 86bf c028 54bf 4ac3 4ebf
000003f0: 8430 cdbc 2f17 c6be b346 6fbe 2fad 463f
-1.1170471 -0.75617087 -0.07929252 -1.5188926 -2.232236 0.28771684 -0.4847213 0.18656576
0.4416233 0.47649366 0.82897806 0.4750876 0.1142045 -0.4692776 0.717328 0.62300867
1.8183646 1.303902 0.9656887 0.8050576 0.09954607 0.2733878 -0.8028388 0.9221168
0.8484658 1.2522277 1.5064524 -0.9449658 -0.8325247 -0.025771584 -2.805176 -2.4256024
-0.31507018 0.2964527 0.089857765 0.59628093 -0.6889147 -0.57648647 0.04738488 -1.5284381
1.1090627 -1.990367 -0.0061285375 -2.103898 -0.05872308 -0.18441331 -0.053147815 0.9685819
0.22182664 2.0294743 0.86563444 -1.6303575 -0.844182 1.2171409 -0.8409988 0.8889189
-1.0050266 -2.0779645 1.1824014 0.89451075 1.481023 -0.03328443 0.7329128 -0.7142769
0.90116054 -0.55528826 -0.59113157 0.29426086 1.6414468 0.7081992 0.6475277 0.8639954
-0.22051379 -1.571111 0.15731895 -1.4752876 -2.375048 -0.7450198 -0.13719063 -0.61214966
0.0661722 0.35813728 0.46595228 0.12612055 0.7819531 0.8672509 0.41623947 0.95082515
1.001469 0.7048101 0.56323224 0.5998936 -0.017118402 0.41689697 0.901256 0.4799557
-0.0020961838 0.95193493 0.76131254 0.18427074 -1.6091213 0.08466429 -1.3662453 -2.3298771
0.02411265 0.16951688 -1.3202835 -0.10623239 -2.1014793 1.4323072 0.2953105 0.41766012
2.2993665 -0.9403341 -0.55863935 0.0036885398 2.1070328 -0.6826185 -0.7511949 1.0345002
0.06623327 1.7870522 -1.2357606 -1.40801 1.3319463 0.34639472 -0.040501058 1.1170486
-0.32574257 -0.25319242 0.90425014 1.652258 0.17753166 -0.087620765 0.087475345 1.6355858
-0.48145023 0.49548692 -0.6150572 -0.4937536 1.5665354 -0.96577376 1.2497762 -2.0526712
-0.49785736 -0.25608817 -0.13620187 -0.04087015 2.8838408 -0.2010043 0.23939663 -0.12641782
0.14270693 0.20139073 0.26317316 0.40961763 0.3927334 -3.6147838 0.2406681 0.6840892
0.55503726 -0.2928832 0.37164545 0.10426725 0.115131445 0.11635232 -3.097944 0.14020719
0.36880454 0.43943524 0.28203383 -0.71316403 0.35044235 -0.23204416 0.4890145 1.7530595
0.477845 -0.06167462 0.14775312 -0.010610748 0.02723109 -0.9205583 0.13923073 -1.2055066
-1.8090055 -0.8111393 -1.1005565 -1.5017794 -0.070210434 0.94411534 0.7452566 -0.07838242
0.59907955 0.7409191 0.5781834 0.63961995 1.3769071 0.34618482 0.8342329 1.0660334
0.08512857 0.5011681 0.77649546 0.44449884 0.41804922 1.3764309 0.44831365 0.49891794
-0.44256032 -0.5773273 -1.3574613 -1.477838 -1.519193 -1.5680273 -1.0025061 0.16400704
0.037402313 0.7353198 0.2935674 -0.07015439 0.5063288 0.5597725 1.262267 0.25061804
-0.5239752 0.49648774 -0.31309283 0.03157827 0.85686153 -1.0246092 0.9680729 1.4150193
0.6527091 -0.05872756 -0.61920446 0.7930409 0.087698445 -0.7533 0.56842697 0.62715495
-1.5174528 0.06756245 0.04222221 -0.3190728 -0.9191372 -2.4249055 -0.44302115 -3.3750165
0.60991496 -1.0489968 -0.8287468 -0.8076674 -0.025047548 -0.38689563 -0.23366813 0.7760801

conv1.bias f4 [16]
00000000: 07f8 1abe 4374 643d 2205 1ec0 8c18 00bc
00000010: 5630 563e 8578 0940 7081 063f 3313 0d3d
00000020: e5ad 8ebe 7bc5 3cbe 073a 6d3f cc1f 013e
00000030: f2da 0dbf bd66 763e 0976 f0bd 14d6 55bf
-0.15133677 0.05577494 -2.4690633 -0.007818352 0.20916876 2.147981 0.52541256 0.034442138
-0.27867046 -0.18434708 0.9266667 0.12609786 -0.5541221 0.24062629 -0.117412634 -0.8352978

conv2.weight f4 [16, 16, 3, 3]
00000000: c242 86c0 12b8 73bf 593b b73d 222c 3bbf
00000010: e321 5d3f 28ad 303c 587f 8fbe bba4 7c3d
00000020: 5cc1 16be f760 53c0 b5fa 80bc 44f8 ab3e
00000030: a06d 92bf e2ad a83e 8340 9a3f 867b 253e
00000040: 718e af3f 122b db3e 35eb 483f 8c91 ebbe
00000050: 8dbd 62bd f2df 9b3c 89c2 b43d c038 d2bd
00000060: 0c26 b0be fec1 22be a683 a1be d9cf dfbf
00000070: fb53 9bbf 71bc 393f 2588 063f c3dc 15c0
00000080: b5b1 8cbf 73e1 99be bf2f b73f da31 2fc0
00000090: 30ef f33e 7afc 93bf ac82 063f 39c3 da3d
000000a0: cdff 0dbf 6f30 eb3d 62e7 2d3f 8622 0f3f
000000b0: 9f54 31be a6c1 463f ee3a bc3e d61f 2bbd
000000c0: 7a3f 24be 6d54 bc3c c952 483e f13d 06bf
000000d0: cb82 0fbe f7e9 f33e 77d5 543e 8c4e 9abd
000000e0: 1df6 d53e 63d8 913f 5a5f 013f 810f 9b3f
000000f0: 83d4 9fbe 50a4 32bf 4a88 18bf 6e9e 04be
00000100: 425a 4a3f deda 2740 3404 48c0 3953 61be
00000110: 5f8b 913f 5f88 0dbf 1a5d 2bc0 a2c3 9e3e
00000120: ada6 df3f d022 ca3f 2d21 e93e 3a84 613d
00000130: 36b9 9cbd 6028 85bf d897 353f 8bb2 0dc0
00000140: d01e 94bf a060 4c3e f7ee 3ebf 8fda c4be
00000150: 687a 8cbe a447 4f3f efb4 6abf b06f 5bbf
00000160: 6bba 033f 5b50 fc3f db60 96be 3484 a0bf
00000170: a625 96bf 14fa 92be 8e67 bbbf ab60 13bf
00000180: d928 aabe 845a 723f dbe2 6a3e 2e43 223c
00000190: e427 5cbf e699 8d3f 7428 a1bf b2cf 793f
000001a0: 7d5a a0be 0f85 4d3c 6d27 a6be 29d5 8fbf
000001b0: 53e2 1cbf 039e a2bf 136d 0c40 c692 16bf
000001c0: 76f8 e13e 6e23 d9be 096a c0be 9cbf 7a3f
000001d0: d3ad 05c0 a382 b33e 1f5c 493d fcb6 6bbf
000001e0: 0242 8ebd 52c8 81be 87e6 863f 80d8 1f40
000001f0: 12b7 e9bf 1e2d 58bd a821 423e f890 43be
00000200: 116a 213f 9f1d 253e c201 a0bf b01e 5ac0
00000210: 3341 033f b1c4 aabd 99d2 c9be fab8 a8bf
00000220: e6fb 4dbf f6ee 7bbe 9105 8bbf c0d2 5cbf
00000230: 7c01 703f 55f5 943e d6f5 8b3e 2d01 ddbe
00000240: dfd1 40bf c9e7 58bc 06da fb3e cfc7 0d3d
00000250: 2874 573f b52b f93e f55e 29bf a845 bdbf
00000260: 565d f6ba 7d45 75bf 2d1e c9be 09a5 94be
00000270: e3d9 09bf 2e6e e7bf 9fc2 e23d 22a4 7abe
00000280: 30f5 d63e 6f00 1e3f 1566 cbbe e367 94bf
00000290: 1ee9 fdbf 07dc f9be f9a4 b8bd 6131 5fbe
000002a0: 4490 293d 5f17 27bf 4cfa eabe 6da8 a3be
000002b0: 607a f9bf 7b6d 19bf 7879 1fbf 2f4f 3abf
000002c0: 63da 60be a0d6 4bbf 4d95 b33e 330e a73d
000002d0: 6b94 e0be 4513 79bf d098 33be 24f6 38be
000002e0: 4ea9 d5bf 3ea3 21bf faf0 83be 75ad 0f3f
000002f0: 2061 10bf 060d 08bf ffd8 f23e 38bd d8bd
00000300: 6311 3f3f 4e1c 27bf 64a9 4abe bf7b 4ebe
00000310: 37cc 583f a1d0 c2be f7e6 2b3f 880a 69bf
00000320: 7c25 babe 9fc0 38bf d875 07bf 7838 8ebf
00000330: 045e 98bf 4e5e adbe 54a2 233e 9428 1d3f
00000340: 78d6 bfbf 84c3 39be 9fe0 8d3c 7beb 8e3e
00000350: 9def 85bf 4489 b9be 417d b63f 701d 303d
00000360: 244d 143f 0a11 c9bf 0f35 83be b628 0140
00000370: fc06 00bf 8521 75bf b946 d0be 72f1 a23e
00000380: d230 133f 4d3b 703f fc62 f4bc 5c84 e6bf
00000390: 4476 9c3f d03f 863f 12a1 a4bf 232d aa3c
000003a0: f1fa e13e 0347 123f 1315 163f af3e 293f
000003b0: cdbd a1be 1dd0 9abf a5b4 8abf ad6c a03e
000003c0: 6d23 22bf f759 743e b023 bb3f 3bc0 9c3f
000003d0: 0184 0940 2472 1c3f 20e9 923f 3ca0 25c0
000003e0: b162 01c0 acdd 8f3f 4c2d c4bf 0094 83bf
000003f0: f3c2 0bbf e519 a1be 00b6 93bf 6330 48bf
-4.195649 -0.95202744 0.089468665 -0.73114216 0.8637983 0.010783471 -0.28026843 0.061680537
-0.14722198 -3.3027933 -0.015744546 0.3358785 -1.1439705 0.32945162 1.2050937 0.16160402
1.3715345 0.42806298 0.784839 -0.4600948 -0.05535655 0.019027684 0.08826167 -0.102647305
-0.34404027 -0.15894315 -0.31545752 -1.7485305 -1.2135004 0.72553164 0.5255149 -2.3415992
-1.0991732 -0.30054817 1.4311446 -2.7374177 0.47643423 -1.1561425 0.5254314 0.10681767
-0.55468446 0.11483847 0.6793119 0.55912054 -0.17317437 0.77639234 0.3676371 -0.041778408
-0.1603984 0.022989476 0.1956283 -0.52438265 -0.14014737 0.4763944 0.20784555 -0.07534513
0.41789332 1.1394161 0.5053612 1.2114106 -0.3121682 -0.6978197 -0.5958296 -0.12951061
0.7904397 2.6227336 -3.1252565 -0.22004403 1.1370658 -0.5528621 -2.6775575 0.3100863
1.747274 1.5791874 0.45533124 0.05505774 -0.07652514 -1.0402946 0.7093482 -2.2140224
-1.1571903 0.19958735 -0.7458338 -0.38447997 -0.2743714 0.8096869 -0.9168233 -0.85717297
0.51456326 1.9712023 -0.2937077 -1.2540345 -1.1730239 -0.2870642 -1.4640977 -0.5756938
-0.3323429 0.94669366 0.22938101 0.009903712 -0.8599837 1.1062591 -1.259047 0.9758254
-0.31319037 0.012543931 -0.32451954 -1.1236926 -0.61282843 -1.2704471 2.1941574 -0.5881771
0.44134873 -0.42409843 -0.37580898 0.9794862 -2.0887344 0.35060605 0.04916012 -0.92076087
-0.06946184 -0.25348145 1.0539101 2.497589 -1.8258994 -0.052777402 0.18958151 -0.1909827
0.6305247 0.16124581 -1.2500536 -3.408123 0.5127136 -0.08338297 -0.39418486 -1.318145
-0.8046249 -0.24602875 -1.0861074 -0.8625908 0.93752265 0.29093423 0.27335995 -0.4316496
-0.7532024 -0.013238856 0.49189776 0.03461438 0.84161615 0.48666158 -0.6616052 -1.4786882
-0.0018796127 -0.95809156 -0.39280835 -0.29032162 -0.53848094 -1.8080499 0.11072277 -0.24476674
0.41983938 0.6171941 -0.3972632 -1.1594204 -1.9836767 -0.4880068 -0.09015841 -0.2179618
0.041397348 -0.65270036 -0.45894086 -0.31964436 -1.9490471 -0.5993268 -0.6229472 -0.72777075
-0.21958308 -0.79624367 0.35074845 0.08157005 -0.43863234 -0.9729503 -0.17538762 -0.18062645
-1.6692293 -0.6313971 -0.25769788 0.5612405 -0.563982 -0.5314487 0.4743118 -0.105829656
0.74635905 -0.65277565 -0.1979118 -0.20164393 0.8468661 -0.38049796 0.671493 -0.91031694
-0.36356723 -0.72168916 -0.5291419 -1.1110983 -1.1903691 -0.3386101 0.15979892 0.6139004
-1.4987326 -0.1814099 0.017319022 0.27914032 -1.0463749 -0.36237538 1.4256974 0.042996824
0.5793021 -1.5708325 -0.25626418 2.0181098 -0.5001066 -0.9575427 -0.40678957 0.31824833
0.5749637 0.93840486 -0.029832356 -1.8009143 1.2223592 1.0488224 -1.2861655 0.020773476
0.44136766 0.57139605 0.58625907 0.6611127 -0.3159012 -1.2094761 -1.0836378 0.31332913
-0.63335305 0.23862444 1.4620266 1.2246164 2.1486819 0.61111665 1.1477394 -2.587905
-2.0216486 1.1239524 -1.5326324 -1.0279541 -0.54594344 -0.31465068 -1.1539917 -0.7819883

conv2.bias f4 [16]
00000000: ff10 6cbd ac55 893c 3791 263d 29a8 8d3b
00000010: 9185 a9be 7b06 80bd 8561 143c 4f62 0ebd
00000020: ed10 91bd da8a 5a3e 5c28 0cbd 94d7 75bd
00000030: ac8a b33b 19d9 453d 8d9c babd a7e8 203d
-0.057633396 0.016764484 0.04066583 0.004323025 -0.33109716 -0.06251236 0.009056454 -0.034761723
-0.070833065 0.2134203 -0.034218177 -0.060020044 0.0054791775 0.048302744 -0.09111891 0.039284375

bn11.weight f4 [16]
00000000: 3573 9f3f 063c 5d3f 4a17 f43f 3a61 a13f
00000010: 822a 1c3f 24d4 e23f b9cd 7a3f c140 503f
00000020: ea1e 613f 41aa 8f3f 8ed1 923f cc81 8a3f
00000030: 5b9a 0d40 4b2a 183f 8605 683f 898f 0040
1.2457033 0.86419713 1.9069607 1.2607796 0.6100236 1.772099 0.9797016 0.81348807
0.87937796 1.1223832 1.1470201 1.0820861 2.212546 0.59439534 0.9063343 2.0087607

bn11.bias f4 [16]
00000000: dcb1 67bf 53a4 a1bf 56d8 07bf 7977 94bf
00000010: d213 81bf fe62 eabe 4f7b adbe b147 0dbe
00000020: 1807 57be 9ef5 a9bd a9a1 eebe 7177 94be
00000030: 0939 6dbf b7eb ecbe f00b 24bf 36b9 3fbf
-0.90505767 -1.2628273 -0.5306448 -1.159896 -1.0084174 -0.4577865 -0.3388314 -0.1379688
-0.209988 -0.08298801 -0.46607712 -0.28997377 -0.92665154 -0.46273586 -0.64080715 -0.74891984

bn11.running_mean f4 [16]
00000000: ab59 17be e872 c33d e85c 23c0 40dd 4d3e
00000010: b64c 883e 22f3 0340 2c8d ce3e 99a0 383e
00000020: 198f 39be b5f3 9dbd 1dc0 523f b36f 813e
00000030: d9a3 52bf 3fed 833e b482 e4bd bb7b 92bf
-0.147803 0.09543401 -2.5525455 0.20103931 0.26621026 2.0617146 0.4034208 0.18030013
-0.18120994 -0.07712499 0.8232439 0.25280532 -0.8228126 0.25766942 -0.11157742 -1.144401

bn11.running_var f4 [16]
00000000: ca8f 8e3d c854 7c3d 5c03 833d b68d 503e
00000010: 3ac6 253d c920 783d 2ee3 bc3d f428 073e
00000020: df40 933d bf93 cf3d d98e b63d 591c 373e
00000030: 86c9 8d3e 52b2 4c3d ef35 8f3d 9d9a b83e
0.06961019 0.06160429 0.06397125 0.20366558 0.040472247 0.06057814 0.092230186 0.13199216
0.071901076 0.10135602 0.08913965 0.17881908 0.27692813 0.049974747 0.06992709 0.3605546

bn12.weight f4 [16]
00000000: 5868 553f 4645 2e3f 0834 3f3f 6b57 c53e
00000010: d100 5040 a6c3 e93e e6e0 b13e ee8e 3c40
00000020: c205 0d3f 9dcd d03f defb 053f 33b3 2f3f
00000030: e218 843f 98c9 853e 2ab8 6140 aa9a 6f3f
0.8336234 0.6807445 0.7468877 0.38543257 3.2500498 0.4565708 0.34741896 2.9462237
0.5508691 1.6312748 0.52337444 0.6863281 1.0320094 0.26130366 3.5268655 0.93595374

bn12.bias f4 [16]
00000000: f41a 81be 9198 903d b3ea 57be 42ad d0be
00000010: 2031 aabf b2b6 5abf 073d debe 0926 69bf
00000020: 41c9 18bf f209 7abf a3ec 84be 8eb5 cebe
00000030: e556 68be 92d3 26be b3e3 b0bf 3c7a 5fbe
-0.25215876 0.0706035 -0.21085624 -0.40757185 -1.3296242 -0.8543502 -0.43405935 -0.9107366
-0.5968209 -0.97671425 -0.2596179 -0.4037289 -0.22689398 -0.16291645 -1.3819488 -0.21823972

bn12.running_mean f4 [16]
00000000: d13f 95c0 8e8d b0c0 912b 3dc0 cdcc a6c0
00000010: 9845 75c0 f762 3e3f 1776 a640 73e0 a8c0
00000020: efb4 ec40 d454 85c0 f1bd 8540 c317 04c0
00000030: 8fad 8ec0 c754 90c0 2bae 13c1 73cb 78bf
-4.66404 -5.5172796 -2.955784 -5.2125 -3.8323727 0.7436976 5.2019153 -5.2773986
7.3970866 -4.166605 4.179436 -2.0639503 -4.4586864 -4.510349 -9.230021 -0.9718544

bn12.running_var f4 [16]
00000000: 580d 9a42 d5de 7942 9cc0 9542 b6d3 f041
00000010: 24a1 1443 a30e fd41 1ab2 c941 5381 c742
00000020: 9083 f642 4647 9442 27dc 1343 7ab6 6b42
00000030: c217 1a43 db73 f841 8ba8 e842 0216 a742
77.02606 62.46761 74.87619 30.103374 148.62946 31.632147 25.211964 99.75259
123.25696 74.139206 147.85997 58.9282 154.0928 31.05657 116.329185 83.542984

conv3.weight f4 [32, 16, 3, 3]
00000000: e6a7 ef3d 696a ac3f 8644 0e3f c5f8 7fbd
00000010: e496 debf 629f 0340 83d9 ae3e 999d a63f
00000020: fccd 473f 46cb 933f 5b15 58bf 0974 04c0
00000030: a8b0 783f 4618 323f 315a dd3d 4223 1e3f
00000040: 2d68 983e eb54 01bf f0c6 50be 5d33 9abf
00000050: e3ec cdbf 5ee0 153e 891a bf3f 36f9 aabe
00000060: c3b5 093d 5f9a adbf 074b 1d40 664a 8a3e
00000070: 5740 853f 8d11 d7bc c115 153f b419 783e
00000080: 63d8 2e3f ae80 203f ec1f 643f f1fc 1e3f
00000090: 27e5 2f40 eaa1 5940 9e3c d33e 416d 34c0
000000a0: cd50 67bf 1462 393f df14 08c0 05d4 ca3d
000000b0: 86e0 babe 9448 113f b68e 7bbf 52ea 193f
000000c0: 020b d33e aae4 423e 24bd 8a3f 4ef9 b6be
000000d0: 93cf ba3e 7533 a9bf 9a4f 883e dd38 0d3e
000000e0: 1b8b 6bbf 7431 283e 9a20 0840 094d c3bf
000000f0: 4741 7ebf 6ece 4a3d b69a 9d3d 345b ae3f
00000100: 6bb0 bb3e fa4b 92bf 53c4 2dbf f80e 8b3f
00000110: 8300 4dbf 91f1 b3bf abc0 25be e08b e33e
00000120: 17f2 a83e 9760 cd3e 15dd 94bf b0a0 3ebf
00000130: 0322 273f d3b6 e3be 8905 6e3f 1971 7cbf
00000140: 1890 ae3e 16d1 5ebf f4d1 1bbf 5056 aabf
00000150: 967c 21bf 32ac dabe b8cf 3f3f 64e6 0e3e
00000160: 9748 41bf 6cbc 253f a24d ff3e de83 8fbe
00000170: 555d 22c0 4d8f 68bf b331 793e 0c15 adbe
00000180: 1346 89be 3a4d 203f 0b55 283e dcf8 c8bd
00000190: 96d3 993f 38ad 893e ddd5 993f 9e5c f73e
000001a0: 3953 db3d 3c77 8d3f db02 f2be 6fbd e6bf
000001b0: 2980 0940 7868 ce3f 8537 a13e 9b92 14c0
000001c0: 2d4c 913f 4401 70bf 1803 a1be d4f1 10bf
000001d0: 62ac 1cbd 7280 25be 4d72 e53e 8e79 743f
000001e0: 7b4f 16be b0d2 67bf 9374 563f 114c 8c3e
000001f0: bbca fabd 15ee 193f 999d 8abf d6ea 06be
00000200: aefb 37c0 82c8 d73e 1d90 38bf 8fdc 1cbf
00000210: 2759 1a3e c19c 38be 1865 8c3e 6c64 9cbf
00000220: 46a1 1240 0660 40bf 4e04 94be abbd cb3e
00000230: c8d5 a43e 0eed 8dbf 6542 39bf 3f00 c1bf
00000240: 863a 70be 3b92 8dbe 92b7 adbe f838 f23e
00000250: a748 283e 17b1 2bbf 1ef1 4b3e 4582 89be
00000260: 6a66 a5be 24fd 87bf d67f c8bd 3dc4 aa3e
00000270: 74a4 46be f846 1f3f 0084 21bf 94dd 14bf
00000280: 4848 2cbf 640b a8be b729 0abe 52c5 cabe
00000290: 276a a0be f75a 86bd 0297 243f 7cbb 583f
000002a0: 7f86 e1be 39b2 2b3d e8ba cf3d cdda d73d
000002b0: 3ab6 2a3e add3 9e3e f878 1fbd 0db7 353e
000002c0: 04f7 68bd e263 563e eefa 553e 8095 95be
000002d0: 984e b4be 7777 bcbf e570 023f f9dd 82bf
000002e0: 4f10 a4c0 0f47 94bf 0ba9 5b3f a6ae 19bf
000002f0: c7aa 98be 0284 08bf 67ca 2dbe 2ca4 f6bc
00000300: e472 eb3d bb7c 4e3d fc1d bd3c 2123 aabe
00000310: 1716 073f 440e ed3d 35e7 00be 7e6f ab3d
00000320: d586 72be 27b8 1fbf dc0b 913e 9c78 e6be
00000330: a792 9fbc 7de3 e0bd 1605 7d3e 31de db3f
00000340: 8c93 b63f eb87 c1bd 83f9 0b3f b5d9 ef3f
00000350: 0871 f83f da38 1cbf d0be fe3e 9f6c 023f
00000360: eb3f d8be 7f85 753d 0a42 803d 9a56 32be
00000370: fd53 ce3d 1bff 5ebc 85da 72bf 9007 0fbf
00000380: dd16 bcbe 043e 2a3f a6a5 3dbf 275a b93e
00000390: 17d0 423f 83f0 57bf e549 813e 62bc 913f
000003a0: f1ed 2dbf 6ca1 323e 72eb 54be 6690 02bc
000003b0: 1b49 65bf 66b9 f8bd 9105 a3bd 723e e2be
000003c0: 12e2 60bf a906 44bf 5da5 82bf b081 eabe
000003d0: 88b4 ad3d 945f dfbe b635 1cbf 586f 8e3e
000003e0: 93b6 8fbe 2087 81bf dad6 e73e 5d41 a0be
000003f0: 0c20 28be ab49 dcbe c93e dcbe aaab 01bf
0.11701946 1.3469974 0.5557331 -0.062493104 -1.7389798 2.056603 0.34150323 1.3016845
0.7804868 1.1546409 -0.84407586 -2.0695822 0.97144556 0.6956829 0.10808218 0.6177255
0.2976698 -0.505202 -0.20388389 -1.2046925 -1.6087917 0.1463637 1.4929973 -0.33393258
0.033620607 -1.3562735 2.4577043 0.27009887 1.041026 -0.026253486 0.5823632 0.24228555
0.6829893 0.6269635 0.8911121 0.6210471 2.7483613 3.4005075 0.41257185 -2.8191683
-0.9035767 0.7241528 -2.1262739 0.09903721 -0.36499423 0.5675137 -0.98264635 0.6012317
0.41219336 0.19032541 1.0838971 -0.3573708 0.36486492 -1.3218828 0.2662323 0.13791223
-0.92009133 0.16425115 2.1269898 -1.5257884 -0.99318355 0.049513273 0.076955244 1.3621583
0.36658034 -1.1429436 -0.6787769 1.0863943 -0.80078906 -1.4058095 -0.16186778 0.44442654
0.329972 0.40112755 -1.1629969 -0.7446394 0.6528627 -0.4447542 0.92977196 -0.98610073
0.3409431 -0.8703779 -0.6086724 -1.330759 -0.6308073 -0.427095 0.7492633 0.13955075
-0.7550139 0.64740634 0.49863917 -0.28030294 -2.5369465 -0.9084366 0.24335365 -0.3380512
-0.26811275 0.6261784 0.16438691 -0.09813091 1.2017696 0.26889968 1.2018391 0.4831285
0.10709233 1.1052012 -0.47267804 -1.802656 2.1484473 1.6125631 0.3148767 -2.321448
1.1351372 -0.9375193 -0.31447673 -0.56619 -0.038250335 -0.16162279 0.44813767 0.9549798
-0.14678757 -0.9055586 0.8377163 0.27401784 -0.12245699 0.6012891 -1.0829345 -0.1317552
-2.8747363 0.42145163 -0.720949 -0.61274046 0.15073071 -0.18028547 0.27420878 -1.2218146
2.2910933 -0.7514652 -0.28909534 0.39793143 0.32194352 -1.1087968 -0.72366935 -1.50782
-0.23459825 -0.27650627 -0.33929116 0.4730909 0.16433965 -0.6706709 0.19916198 -0.268572
-0.32304698 -1.0624127 -0.09790008 0.33352843 -0.19398671 0.62217665 -0.6309204 -0.581506
-0.6729779 -0.3282119 -0.13492475 -0.39603668 -0.31330988 -0.06560319 0.6429292 0.8466108
-0.44047925 0.041918013 0.101430714 0.1053978 0.16671076 0.3102087 -0.038933724 0.1774561
-0.056876197 0.2093654 0.20896503 -0.29215622 -0.35216212 -1.4723958 0.50953513 -1.0223991
-5.126991 -1.1584185 0.85804814 -0.6003212 -0.29817793 -0.5332643 -0.16971742 -0.03010758
0.11496523 0.05041192 0.023085587 -0.33229926 0.5276808 0.115749866 -0.12588198 0.08370875
-0.23684247 -0.6239037 0.2832936 -0.45013893 -0.019479109 -0.1098089 0.24708971 1.7177182
1.4263778 -0.094497524 0.546776 1.8738314 1.9409494 -0.6102425 0.49754953 0.5094699
-0.42236266 0.059941765 0.06262596 -0.17415848 0.10074613 -0.013610627 -0.94864684 -0.55870914
-0.36736193 0.6650088 -0.74080884 0.36201593 0.7609877 -0.84351367 0.2525169 1.1385615
-0.67941195 0.1744439 -0.2079294 -0.007968998 -0.89564675 -0.12144737 -0.07960046 -0.44188267
-0.87844956 -0.7657266 -1.0206715 -0.4580207 0.08481699 -0.43627608 -0.61019456 0.27819324
-0.2806898 -1.0119362 0.45281106 -0.31299868 -0.16418475 -0.43024954 -0.4301665 -0.50652564

conv3.bias f4 [32]
00000000: 61a0 e73c ae54 5f3b 0bdf 843d a771 0cbd
00000010: 0029 be3d 1fdd 39bd b9be 513d 1236 3a3d
00000020: 6511 a63a 0d7c 77bd 480e 423d 3bb2 473d
00000030: 6dd2 d43c 0312 fe3c cb52 92bd f82c f73d
00000040: 7bf2 2a3d 7f8b 063c 933e febc 47b1 9abd
00000050: 3271 523d 42ec 33bd fbc2 963d b2ce 143d
00000060: 9295 713c 4f3f 7c3d d794 66bd 0f92 623d
00000070: 2403 a6bd 033d 563d 7d0f 59bd c8c4 003d
0.028274717 0.0034077573 0.064878546 -0.034288075 0.09285164 -0.045376893 0.051207278 0.04546172
0.0012669979 -0.06042104 0.0473769 0.04875396 0.025979245 0.031014448 -0.07144698 0.12069124
0.041735154 0.008211969 -0.031035697 -0.07553344 0.051377483 -0.043926485 0.07361408 0.036329933
0.014745133 0.061583813 -0.05629429 0.055315074 -0.08106068 0.05230428 -0.052993286 0.031437665

conv4.weight f4 [32, 32, 3, 3]
00000000: c843 72bf 29bf d1bd cbd5 403e 5c98 11bf
00000010: 0a65 38bf 19b8 393f 12d9 6dbf b324 f1be
00000020: 3427 223e b9fe 77bf 64b7 97bf 94fd 3a3f
00000030: 009d 6e3f 6008 1fbd 001c bcbf 8c46 a73e
00000040: 58df 293f 7c05 e9bf 8fa2 833f 21db 53be
00000050: e95b 57bf 6903 1ebe 84a8 843f 8574 9d3f
00000060: 801e 4cbe eccb 0dbf 1e7b 613f 2822 563f
00000070: 6588 e63d e10d 94bd 57a6 543e 9c15 9f3e
00000080: 8563 d3bf 382c 1e3e e869 3a3e 11fb d9bf
00000090: cfc7 6dbf ddd7 47c0 fc1c cabf 243e b73e
000000a0: 9d74 b83f ad34 14c0 0333 11bf 74b3 8e3a
000000b0: 6798 cfbf 4618 21be 9123 58be ed08 883f
000000c0: 96db b5be 083c 55be 1fd2 babe 824d 853f
000000d0: 26a9 9a3f 54fe 42bf 464d 6fbe 87b8 d93e
000000e0: 48fd 9ebf 8ed8 a5bf cb86 43bf 9d07 043e
000000f0: 4d2e 1e3e 4ec0 a2bf 25e4 a4be 0012 f83e
00000100: b7a4 a9be d281 813e d51d f63e 3124 b2be
00000110: 39c2 ba3d 1f03 d0bd ed9d e23d 79cf 813f
00000120: 2a20 923f 0874 3d3f 9a22 1f3f a5f0 92bf
00000130: c7e0 9a3f 134a 363f bdb5 34bf 9605 c6be
00000140: 17e7 853f f4ad eebe ffbb b73e 0d15 d2bd
00000150: 038b 8dbf 01d4 da3e c7a7 bd3e 7070 4a3e
00000160: 5566 a43e c56d 9a3f 0b22 cbbf 2657 d8bc
00000170: cf59 16bf 22f7 603e b23f 83bf 13f0 833d
00000180: d248 82be 8c9e 4e3f 6c5a 18be 6472 163f
00000190: 8572 68be 48e9 5cbd 340b 4fbe 9e82 1cbf
000001a0: 7cc7 223f 93ec afbe ae2e 5dbf c762 65bf
000001b0: 3273 2cbc f5b5 83be 17b2 11c0 f8dd a73f
000001c0: 40a8 31bf de46 0dbe 9ed8 efbf ec2c 8abf
000001d0: 160b 5c3f 2958 9d3d faf9 13be 9ae0 833f
000001e0: 895a 3bbf 4915 c93d 7a9c 0cbd a66f 07c0
000001f0: 4062 5ebe c100 b73f 2c0a ee3f 0b5a 343e
00000200: 9062 b1bf 0d5d 91be 7e90 5bbf 307e 103f
00000210: c54e a73f ac28 ea3f 516b 273f 8ccf 35bf
00000220: 2d23 62bf be57 40bf eaf2 64be 992a 343f
00000230: 544f aebf 04ad d23e 00aa 713f e773 12c0
00000240: 47c2 37bf e2f1 763f 2912 bebe 58f4 8abf
00000250: 7404 0ebe 38ff 4b3f 3a4f 853d a17f 80be
00000260: 4e4b 7cbf 3bda 943e 965f 69be 6393 863e
00000270: 8e1e 1a3f fcbe af3d f80e 6bbe a9c0 7abf
00000280: fea8 87be 2237 ee3f 79f3 833f a569 c8bf
00000290: 87aa 323f ed80 d13c 917e bd3e 6efa a2be
000002a0: 9d7b a13b 7987 89bf 34db 8a3e ef32 3fbf
000002b0: 069b d53f 5861 88bf b7c3 c23d 6229 33c0
000002c0: ce29 163e 44b3 31bf b947 43bf 0b55 8bbf
000002d0: 0d27 49bf 1c09 b4bf 1cbf 0cbf 4cdc 843c
000002e0: a8a1 b83c b19a d8bf c86b d93b aa13 a6bf
000002f0: 1fc1 ccbf 50d0 2cbf 355e bfbe ad58 b8bf
00000300: 2849 473f b120 8d3f 8cf1 74bf 96ee 8dbf
00000310: 5809 cebe 6eb6 e4bb 2c7f 7f3f 21dd 3abf
00000320: 676f 6abf 2e59 2abe 0d0e b3bf 83af 81be
00000330: 2978 dbbe 55b0 843d cae2 8cbf 3dd6 473e
00000340: 7ef7 13be 8f72 b3bf a1af d6be 069d 2d3f
00000350: 7b98 0dc0 b655 35bf 4103 26bf ddbe 613f
00000360: 49dc 013f dfd8 95bf 60da 113e ef9c d03d
00000370: 9a5b 04be d3b1 15bf b7b8 013f 4f22 02bf
00000380: f8f3 b7be 5c01 043f 85fd 55bf 7f2d ebbe
00000390: 9cdc 42bf 2c7b 9d3f a57f 24bf bed6 973e
000003a0: 4d0a 56bf fc07 ed3e 7d49 33bf 1814 90bf
000003b0: 1b20 c0bf f290 7ebe d2cc 913d 98c1 53be
000003c0: 1cc0 44bf e085 a4bf a4ca 18be 6be3 5ebf
000003d0: ae73 86bd ea8a 2ac0 2cf5 223e eef2 ad3f
000003e0: 6ff9 5b3e d01c 2bbe b6c5 73be c6c0 e33e
000003f0: b918 4a3f 7256 debb 820c e73c 4368 83bf
-0.94634676 -0.10241539 0.18831556 -0.56873107 -0.72029173 0.72546536 -0.9290935 -0.47098312
0.15835267 -0.9687305 -1.1852841 0.7304318 0.93208313 -0.038826346 -1.4696045 0.3267101
0.6635642 -1.8204799 1.0283984 -0.2068906 -0.8412462 -0.15430988 1.0363927 1.2301184
-0.1993351 -0.55389285 0.88078487 0.8364587 0.11256484 -0.0722921 0.20766579 0.31071174
-1.6514746 0.15446556 0.18204463 -1.7029744 -0.9288301 -3.1225502 -1.5790095 0.35789597
1.4410588 -2.315715 -0.5671846 0.0010887221 -1.6218385 -0.15731916 -0.21107318 1.0627724
-0.35519093 -0.20823681 -0.36488435 1.0414279 1.208287 -0.76169324 -0.23369321 0.42523596
-1.2421045 -1.2956712 -0.7637755 0.12893529 0.1544735 -1.2714937 -0.3220531 0.48451233
-0.3313348 0.25294358 0.48069635 -0.34793237 0.09119076 -0.10156845 0.11065278 1.0141441
1.1416066 0.74005175 0.6216217 -1.1479689 1.2099847 0.7120678 -0.7058981 -0.38676137
1.0461148 -0.4661709 0.35885617 -0.10257921 -1.1058048 0.4273987 0.37042066 0.19769454
0.32109323 1.2064749 -1.5869764 -0.026408743 -0.5873079 0.21969274 -1.0253813 0.06442275
-0.25446182 0.80710673 -0.14878243 0.58768296 -0.22699936 -0.05393341 -0.20219117 -0.61136806
0.6358564 -0.3436018 -0.8639935 -0.8960385 -0.010525512 -0.2572476 -2.2764947 1.3114614
-0.69397354 -0.13796565 -1.8737981 -1.0794959 0.85954416 0.07682831 -0.14450827 1.0302918
-0.7318502 0.09818513 -0.034328915 -2.1161895 -0.21717167 1.4297105 1.8596854 0.17612474
-1.3858204 -0.28391305 -0.8576735 0.56442547 1.3070914 1.8293662 0.65398127 -0.71019816
-0.88334924 -0.75133884 -0.2235829 0.703775 -1.3617959 0.41147625 0.94400024 -2.288324
-0.7178082 0.96462834 -0.3712323 -1.0855818 -0.13868886 0.7968631 0.06509252 -0.25097373
-0.98552406 0.29072747 -0.2279037 0.26284322 0.6020287 0.08581349 -0.22954929 -0.97950226
-0.26496118 1.8610575 1.0308677 -1.565724 0.69791454 0.025574172 0.37010625 -0.31831688
0.004928066 -1.0744468 0.27120364 -0.74687093 1.6687934 -1.0654707 0.09509986 -2.7994008
0.14664385 -0.6941416 -0.76281315 -1.0885328 -0.7857521 -1.406528 -0.5497911 0.016218327
0.022538021 -1.6922208 0.006635163 -1.2974751 -1.5996436 -0.6750536 -0.37376562 -1.4402062
0.77846 1.1025602 -0.9568107 -1.1088436 -0.40241504 -0.006979755 0.99803424 -0.72993666
-0.91576236 -0.16635582 -1.3988663 -0.25329217 -0.42865112 0.06478945 -1.100671 0.19515319
-0.1444988 -1.4019336 -0.4193087 0.67817724 -2.2124317 -0.7083391 -0.64848715 0.8818186
0.50726753 -1.1706809 0.1424346 0.10186183 -0.12925568 -0.58474463 0.5067248 -0.508336
-0.3592832 0.51564574 -0.83589965 -0.45933148 -0.76117873 1.2303214 -0.6425727 0.29656023
-0.8360947 0.46295154 -0.7003401 -1.1256132 -1.5009798 -0.2485998 0.071191445 -0.20679319
-0.76855636 -1.2853355 -0.14921051 -0.8706576 -0.06565033 -2.6647286 0.15913838 1.3589761
0.2148187 -0.1671021 -0.2380589 0.44483012 0.78943974 -0.0067852074 0.028204206 -1.0266193

conv4.bias f4 [32]
00000000: f939 33bd bdfc b43c a26b f93b b568 423d
00000010: c672 4f3d cc12 3a3d 41c0 fd3c dd92 4c3d
00000020: a524 f7bc 0cfd 01bc 886b f9bc e47f b63c
00000030: 54e1 c7bc 2a2a b0bc 31c5 e7bc df25 4bbd
00000040: c7a0 d4bc f48e 15bd da45 603d 3b4e 05bd
00000050: c236 c03c 4cf9 b03c 6ae0 1fbd 168e e33c
00000060: fec9 93bc 42ac 19bd ad93 3bbd 298c e73c
00000070: c86d 9dbc 9d64 5abd 57c7 ceb9 dd11 063d
-0.04375646 0.022093171 0.007611708 0.047463138 0.050646566 0.045428082 0.030975463 0.049944747
-0.03016884 -0.007933866 -0.030446783 0.02227778 -0.024399437 -0.02150448 -0.02829227 -0.049596664
-0.02595557 -0.036513284 0.054754116 -0.03254531 0.02346361 0.021603249 -0.039032377 0.027777713
-0.018040653 -0.037517793 -0.04579513 0.028265076 -0.019217387 -0.05331861 -0.00039439902 0.03273188

bn21.weight f4 [32]
00000000: e8e1 723f ec2b 0f40 2999 e83f db0a f43f
00000010: eae0 0840 580b 4c3f 024e 9f3f b8c6 c23f
00000020: 7913 1440 0df5 cf3f a5da 603f dd17 823f
00000030: 1ad5 4e3f 6fd8 f63f 4ad2 5b3f 52d2 f73f
00000040: 67c3 833f ef71 4c3f 2051 883f 9088 7d3f
00000050: ce43 f23f 91d9 ab3f d0f7 693f 5727 c03f
00000060: ce18 6b3f bac8 9a3f 4b0d 6f3f 11b0 983f
00000070: 4091 db3f 8933 e73f 80e3 f23f d01d ac3f
0.94875956 2.2370558 1.8171741 1.9065813 2.1387277 0.7970481 1.2445681 1.5216894
2.3136885 1.6246659 0.87833625 1.0163532 0.8079392 1.92848 0.8586775 1.936106
1.0294007 0.7986135 1.0649757 0.990365 1.8926942 1.3425771 0.91393757 1.5012006
0.91834724 1.2092507 0.9337966 1.1928731 1.7153702 1.8062602 1.8975677 1.3446598

bn21.bias f4 [32]
00000000: a6a3 4dbf c565 82bf f7f0 eebe 413b 75bf
00000010: f277 8fbf 8ca8 74be ad54 13bf 1cf9 f7be
00000020: 1fc4 febe 28a0 23bf ab48 52bf 5099 41bf
00000030: 70a7 30bf adb8 29bf 7d47 52bf 98d8 65bf
00000040: 052f 4bbf 4a1b ffbe b532 6fbf c1c2 9abf
00000050: effc 69bf 1cc0 c6be 030f 9ebe 899d f6be
00000060: 8912 5cbf 5cb7 81bd 6fba 06bf bfce c5be
00000070: 03a1 14bf 4c9a 40bf d659 63bf 38bd e9be
-0.8032783 -1.0187308 -0.46668217 -0.9579354 -1.120848 -0.2389242 -0.5755108 -0.48432243
-0.49759004 -0.63916254 -0.8214213 -0.7562456 -0.6900549 -0.6629742 -0.8214033 -0.8978362
-0.7936862 -0.49825507 -0.9343675 -1.2090684 -0.9140157 -0.38818443 -0.30870828 -0.48167065
-0.8596578 -0.06333801 -0.52628225 -0.38634297 -0.58058184 -0.7523544 -0.88808954 -0.45652175

bn21.running_mean f4 [32]
00000000: faf5 20bf 2ed2 2dc0 b0ee 52c0 021e 3b40
00000010: 138a a0bf 019f 4fc0 49cf f8c0 2dfb 3fc0
00000020: d4c2 7fc0 b8f4 60c0 5000 15c0 8950 d940
00000030: 692c 8940 300c 71c0 87ae d63d ede5 0ac0
00000040: fe87 97c0 c050 eac0 43c4 fec0 e90a 0bc0
00000050: 825d 48c0 701a 96bf 089d 38c1 a85f 90c0
00000060: 104b 8bbe a24b 02c0 d2b4 a8c0 8fd3 c5c0
00000070: 1c53 91bf 4bdb c53f 982e 94c0 b67c 83c0
-0.6287533 -2.7159534 -3.2958183 2.9237065 -1.2542137 -3.2440798 -7.7753034 -2.9997056
-3.9962664 -3.5149364 -2.328144 6.791081 4.286671 -3.7663689 0.10482507 -2.1702836
-4.7353506 -7.322357 -7.9614577 -2.172541 -3.1307073 -1.1726818 -11.538338 -4.511677
-0.27205706 -2.0358663 -5.272073 -6.182075 -1.1353488 1.5457548 -4.6306877 -4.1089735

bn21.running_var f4 [32]
00000000: 540c 5a41 1edf 8641 ba71 3c42 ff9d b641
00000010: a772 1f41 688a 8a41 d64c 7d41 19a2 0942
00000020: 3775 0542 fa35 3742 26fe bf41 110d fa41
00000030: 7144 cd41 d448 dd41 615a 8841 f658 9f41
00000040: 1495 9e41 caf2 5141 2e7c d241 e905 4a41
00000050: db78 bf41 548f 8341 f7a6 9041 8afe b441
00000060: 993f a741 d8ad f841 923d c641 50a6 4f41
00000070: c79f d141 a40c cc41 6981 9b41 9d2c 8041
13.62801 16.858944 47.11106 22.827147 9.965491 17.317581 15.831259 34.4083
33.364468 45.80271 23.999096 31.25638 25.658419 27.66056 17.04413 19.918438
19.822792 13.121775 26.310635 12.626443 23.934011 16.444984 18.081526 22.624287
20.906054 31.084885 24.780064 12.978104 26.203016 25.506172 19.438189 16.021784

bn22.weight f4 [32]
00000000: ed8f a73f fcfc 393f c50b 983f 10f3 713f
00000010: 6bb1 313f 0742 a53f 65aa ab3f 0c81 ed3f
00000020: d139 ce3f 0af6 9a3f 9af6 873f 1b37 6d3f
00000030: 4580 303f a1fd 713f 119e 7c3f 9c52 db3f
00000040: 6499 813f 96e8 ca3f 3e5e c53f afc7 4a3f
00000050: d9a7 7a3f 9cb0 813f cb8f b43f 822d 863f
00000060: 0336 b93f fa08 8f3f 51d9 6f3f 9472 7c3f
00000070: 2679 8a3f abf5 e83f fdef 943f ae5c bb3f
1.3090798 0.7265165 1.1878592 0.9451151 0.69411343 1.2910775 1.3411375 1.8555007
1.6111394 1.2106335 1.0622132 0.9266221 0.68945724 0.9452763 0.9867869 1.7134585
1.0124936 1.585223 1.5419385 0.79210943 0.97912365 1.0132022 1.4106382 1.0482638
1.4469608 1.1174614 0.93690974 0.9861233 1.0818222 1.8199972 1.1635739 1.4637659

bn22.bias f4 [32]
00000000: 4486 92bf ec72 54be dda2 93bf 1aec 3cbf
00000010: b4ae 56bf d511 47be 17ff 3abf fb87 adbf
00000020: 3888 bfbf 2b35 b7be 7290 7dbe 996d 22bf
00000030: 3271 51bf 74a3 a5bf cf60 14bf 9b00 85bf
00000040: a3c2 93bf 241f f3be c2b1 1ebf 2ac5 63bf
00000050: 6b81 dabe 6c66 e1bf f04d 48bf 5a07 e8be
00000060: 7e08 47bf d44c 19be ab8b 42bf 4c90 febe
00000070: b22b 1fbf f5c8 acbf e9a7 bbbf 9dcf 0cbf
-1.1447225 -0.20746964 -1.1534077 -0.7379776 -0.83860326 -0.19440396 -0.73045486 -1.3557123
-1.4963446 -0.3578275 -0.24762133 -0.6344848 -0.8181335 -1.2940507 -0.5796022 -1.039081
-1.1543773 -0.47484696 -0.61989987 -0.88972723 -0.42676863 -1.7609382 -0.78243923 -0.4531811
-0.77747333 -0.14970714 -0.75994366 -0.49719465 -0.6217605 -1.3498827 -1.4660617 -0.5500429

bn22.running_mean f4 [32]
00000000: 2549 17c1 7ceb 6ec0 a9fa a3c0 f0cc 8440
00000010: 6eb9 95c1 cbab 5bc0 3eba c03e f826 69c1
00000020: 02d8 42c1 d955 0fc0 20a8 a3c1 7bb3 35c1
00000030: 4fe0 68c1 2f40 c8bf ac58 45c0 4f73 69c1
00000040: 1f92 a7c0 4a4e 7ac1 3bc1 4fc1 e444 8040
00000050: b8bc 57c1 fe35 04c1 836e d4c0 a918 6fc1
00000060: 12a0 f9c0 5dc2 32c1 93da 1941 f2b2 b6c0
00000070: 0768 b840 a246 45c0 82bc 78c1 3b08 b140
-9.455358 -3.7331228 -5.124348 4.150017 -18.715542 -3.4323604 0.37642092 -14.572014
-12.177736 -2.2396147 -20.457092 -11.356318 -14.554763 -1.5644587 -3.083537 -14.5906515
-5.236587 -15.644114 -12.984675 4.0084095 -13.483574 -8.263182 -6.63849 -14.943521
-7.80079 -11.172452 9.615863 -5.709344 5.7626987 -3.082436 -15.546022 5.5322547

bn22.running_var f4 [32]
00000000: b8a0 7442 bf64 b142 2564 9442 2b02 6b42
00000010: f0ed 9242 6127 2b43 72fa 0043 f36e 0443
00000020: e289 9f42 f2a2 0e43 69ed c142 e6fa ff42
00000030: 0dd9 5242 a627 af42 f53f a142 67c5 0643
00000040: c1dc 1543 b52e 1343 b237 1643 2fa1 ba42
00000050: 04c0 8642 319e 7242 fb94 9e42 06e3 f442
00000060: 1902 1843 a955 1643 9484 a742 1dc6 0043
00000070: 1bc8 de42 885b e342 f807 7e42 af55 3f43
61.15695 88.69677 74.195595 58.752117 73.46472 171.15382 128.9783 132.4334
79.7693 142.6365 96.96369 127.990036 52.711964 87.57744 80.624916 134.7711
149.86232 147.18245 150.21756 93.31481 67.37503 60.654484 79.29098 122.443405
152.0082 150.33461 83.75894 128.77388 111.39083 113.67877 63.507782 191.3347

conv5.weight f4 [64, 32, 3, 3]
00000000: 18f2 77bd 005e 42bf 35fd 92bc 0ec9 723c
00000010: cf42 44bf e68f d7bb 7f52 5fbf bc6e 10bf
00000020: 8542 94be 2ee6 61bf dbc2 04bf d7d9 2d3e
00000030: e34e 6bbf 636d 82be cbbb 363e 0f7e 5abf
00000040: dc3c a83e d23d 20be 18a6 c93f 45bd 81be
00000050: fb20 be3f b38d 9a3f f289 c6be ebb1 f73d
00000060: 3143 583e f021 b03f 20b4 6fbf 4fd9 993e
00000070: 241c 1ac0 9352 abbf adea 5cbf 8b1b 933f
00000080: 010a 83bf 0559 c0be 3121 1b3f b9e1 82c0
00000090: 90ec bc3e 8dc6 fb3e c85e e43e 21bd 5d3e
000000a0: 6ef0 4ebf 926f 27bf b55b fc3f 1fe4 4e3e
000000b0: a0ae aa3f ee11 fbbf 9824 6dbf 39a1 8bbe
000000c0: dc9c c6be 6ee3 d8bf 2431 9dbf fe1c 913f
000000d0: 7117 c0bf 8f66 59bf 0efb dcbe 51da 22bf
000000e0: 6d47 ca3f ed68 87be 2cb6 8cbf 61c7 f43d
000000f0: 1ef0 a5bf b523 833c a62e 51bf 35b5 b23f
00000100: db1d 9e3e 863d 0ebf b0dd 513f 63dd 2fbd
00000110: a0e9 4e3e 6bb5 6f3e ae8b 92be 8be2 0e3f
00000120: 3aea 323f 6c75 70be 6813 903f e9e0 093f
00000130: 32c2 ce3e 48a4 1f3e cc69 9bbc 3501 fc3e
00000140: d2a5 563f 5c0c febf 11e3 2cbf f657 023f
00000150: e0dc 9dbf 3aae 17bf 17a6 e8bf 6e55 c1be
00000160: fea7 a0bf 5f95 3cbf 2597 fbbe c3e4 c0be
00000170: c12c 843f 454b 2abf e883 833d 10b5 90bf
00000180: f65c d63e 06e4 1e3d e97c 50be 57d6 cebf
00000190: 4228 75be 635a 4abf 9394 5ebd 3e35 233e
000001a0: c697 22bd 1a0a 92bf 6a4f 24bd bfbd 1abe
000001b0: dc44 a43d 5a96 e23e 7e93 efbf d4c5 e5bc
000001c0: b9bd 30bd bef9 853f 2b33 48bd b200 54be
000001d0: f33a 0bbf 2730 3fbf 982e c73f 9393 423f
000001e0: 5236 babf bb6c 0440 57ba 79bf a2e1 8f3e
000001f0: f4af 423f 2312 59bf e690 d8be 23e8 01bf
00000200: fbb8 02bf f9b8 fabe 0ede 183f a8dd 3ebd
00000210: fc29 bbbe 7637 0bc0 3ba2 85be 7885 2f3f
00000220: 4577 f03e aebf 873e 280b 4d3c 06b1 143f
00000230: abe7 403e 41f4 ef3e a1cb 91bf 11c5 27be
00000240: 2179 cabf 891d 473f 9c0e b63f 77a0 583f
00000250: af8b 3f3f 04df e1bf a9b7 4e3e baab 493f
00000260: 81c4 f53f c9b5 94bf 26af b5be 3abd 763f
00000270: 5c81 5abf e85f 54bd 5e6c b03f 7ea5 f53d
00000280: 06c0 92be 30b2 353f 4932 033f 7cee febe
00000290: b461 1bbf a4cf 143e a240 0ebe f62b 5bbe
000002a0: a82b d03e 47f5 c7be 125f 3d3e c047 a13c
000002b0: 57d9 be3e 7388 e8be aa4c 5cbf d0b3 b0bf
000002c0: 210d eabe d9eb bdbe 0b0b 8cbe 7312 e43f
000002d0: 47ab 9abf 02d5 0d3f 3554 893f 7b79 5fbf
000002e0: f54f 8a3f 57fa 013f cfc7 fbbe f37b 153f
000002f0: 73b2 673e 54c1 2fbf b4f2 ffbd 1191 7f3f
00000300: 7ba4 acbf 8fb0 44be 7d56 b4bf c9d5 6ebe
00000310: 68a8 8fbe 0c4e a4bd bb04 93be 9026 71be
00000320: 5b70 ab3e 8c5b b8be c879 1e3f a241 183f
00000330: c7aa c93f 5b07 95bf af93 0bbf 4e90 0bbe
00000340: 94f9 05be d5bf 15bf d86f 30be 28ec 903e
00000350: 37f8 353f 32a3 2e3f 172c df3e 425d 103f
00000360: de25 9f3f d5bc aebe 15b2 b0bf 41cd 6f3f
00000370: c621 8b3f 954d 1fbf 8d2a 5d3f 8bba b3bf
00000380: 6715 4bbf cfd2 053f c15b 60bf 7e9a 073f
00000390: a455 babe 6bec b1bf 81e7 253f a86e e73d
000003a0: 09fc 66bf 9e01 b0be 1041 20bf 8fe9 583c
000003b0: 4c85 80bf 2632 c53e 0028 c23e ccbb c1bf
000003c0: 8290 c1bd 1a62 96bf 222e cbbf 5aaf 30bf
000003d0: 9229 84bf 4296 cf3e c602 1bbf b74d efbf
000003e0: cc8d 453f d184 68bf 074a e3bd d64a 90be
000003f0: 3c72 0abe e7ec 81bf 5ebb 6cbe 66db c2bd
-0.060533613 -0.7592468 -0.017943004 0.014818443 -0.7666444 -0.0065784333 -0.87235254 -0.5641897
-0.28957 -0.8824185 -0.51859826 0.1697763 -0.91917247 -0.2547408 0.17845075 -0.853486
0.32858932 -0.15648583 1.5753813 -0.25339714 1.4853815 1.2074493 -0.3877712 0.12094482
0.21119381 1.3760357 -0.93634224 0.30048606 -2.4079676 -1.3384575 -0.86295587 1.149278
-1.0237428 -0.37567917 0.6059752 -4.090054 0.36899233 0.4917492 0.44603562 0.21654178
-0.80835617 -0.6540462 1.9715487 0.20204209 1.3334541 -1.9614847 -0.9263396 -0.2727144
-0.3879155 -1.6944406 -1.2280622 1.1336973 -1.5007154 -0.84922117 -0.4316029 -0.63614374
1.5803047 -0.2644724 -1.0993094 0.11952091 -1.2963903 0.016008237 -0.81711805 1.396155
0.30882153 -0.5556263 0.81978893 -0.04293574 0.20206308 0.23409049 -0.28622192 0.5581443
0.6988865 -0.23482293 1.1255922 0.5385881 0.40382534 0.15590012 -0.018971346 0.4921967
0.8384677 -1.9847522 -0.67533976 0.5091547 -1.2333031 -0.59250224 -1.8175687 -0.3776049
-1.2551267 -0.7366542 -0.49138752 -0.3767453 1.0326158 -0.665211 0.064216435 -1.1305256
0.418678 0.03879168 -0.2036015 -1.6159161 -0.23941138 -0.7904417 -0.05434091 0.15938279
-0.039695524 -1.1409333 -0.040114798 -0.15111445 0.080209464 0.44255334 -1.8716886 -0.028048433
-0.043149684 1.046684 -0.048876923 -0.2070339 -0.54386824 -0.7468285 1.5561094 0.7600643
-1.4547827 2.0691364 -0.9754996 0.28101832 0.76049733 -0.847933 -0.4229805 -0.5074484
-0.5106351 -0.48969248 0.5971383 -0.046598107 -0.3655547 -2.17526 -0.26100335 0.6856303
0.46965995 0.26513427 0.012514867 0.58082616 0.18838374 0.46866038 -1.1390268 -0.16383769
-1.5818216 0.7777944 1.4223208 0.8461985 0.74822515 -1.7646184 0.20187248 0.7877766
1.9200593 -1.1617976 -0.3548519 0.96382487 -0.85353637 -0.051849276 1.3783071 0.11994456
-0.28662127 0.7097502 0.51248604 -0.49791324 -0.6069596 0.14532334 -0.13891843 -0.21403489
0.40658307 -0.3905432 0.18493298 0.019687533 0.37275192 -0.45416602 -0.8605448 -1.3804874
-0.45713142 -0.37094 -0.27352175 1.781813 -1.208352 0.5540315 1.0728823 -0.8729474
1.0805651 0.50772613 -0.4917588 0.58392256 0.22626667 -0.6865437 -0.12497464 0.9983073
-1.3487695 -0.19207977 -1.4088894 -0.2332374 -0.2805817 -0.08022699 -0.28714547 -0.23549867
0.33484158 -0.36007345 0.61904573 0.5947515 1.5755242 -1.164287 -0.5452222 -0.13629267
-0.13083488 -0.5849584 -0.17230165 0.28305173 0.7108187 0.68217766 0.43588325 0.563923
1.2433431 -0.34128442 -1.3804346 0.9367257 1.0869682 -0.62227756 0.8639305 -1.4041303
-0.7932953 0.52274793 -0.87640005 0.5297011 -0.36393464 -1.3900274 0.6480637 0.11300403
-0.90228325 -0.34376234 -0.6259928 0.013239278 -1.0040679 0.38514823 0.37921143 -1.5135436
-0.09451391 -1.1748688 -1.5873454 -0.69017565 -1.0325186 0.40544325 -0.60551107 -1.8695592
0.7716949 -0.9082766 -0.11098104 -0.28182095 -0.1352014 -1.0150422 -0.2311835 -0.09514503

conv5.bias f4 [64]
00000000: 5826 21bc 5858 32bd be49 13bd 2425 1cbc
00000010: bf0e 7fbd dd12 363c f933 35bd eac4 453d
00000020: a6cb cdbb 1e88 51bd a1c0 413d 3068 993c
00000030: 4ba4 d63c 257e 963b 7833 53bd 03c9 c93c
00000040: 0335 c83c 2ed9 c83c 6e7b 2bbc b732 a7bc
00000050: fec9 cfbc cd66 18bd 8e33 bdbc 49ec 623d
00000060: 16e3 d6bc 3de8 9b3c cbc5 24bd f4a5 523d
00000070: fefb 603d 8783 743d 9eef 8c3a 8d42 263d
00000080: e5f6 0c3d f6e1 293d c5e7 cebc ce71 473d
00000090: c791 09bd 3afd 0abd 67f3 6abd 29f4 45bd
000000a0: fcf6 9dbc 1364 dd3b e3d0 abbb 9403 20bb
000000b0: 5df7 69bd a79a 29bb 7639 eabb 047d 14bd
000000c0: a0ae 1abd 5671 4cbc 5419 4b3d 2868 82bc
000000d0: 0052 6d3d b3ae d03c fcb4 71bb 5f20 683d
000000e0: 1829 053d 7c69 433d fc3d 383d 9a12 6ebd
000000f0: 906c 89bd 18fa 3b3d 24f9 06bc 88f8 77bb
-0.009835802 -0.043541282 -0.035958998 -0.009530339 -0.062269922 0.011112896 -0.044239018 0.048283495
-0.0062803803 -0.051155202 0.047302846 0.018726438 0.026201388 0.0045926743 -0.051562756 0.024631983
0.02443934 0.024517622 -0.01046644 -0.020409925 -0.025364872 -0.037207413 -0.023095872 0.05540112
-0.02623133 0.019031638 -0.040227693 0.051427796 0.05492782 0.059695747 0.0010752564 0.04059081
0.034415144 0.04147526 -0.025257 0.048692517 -0.03358629 -0.033932902 -0.057361033 -0.048328552
-0.01928281 0.0067563145 -0.005243407 -0.0024416195 -0.05712067 -0.0025879533 -0.007147963 -0.036252037
-0.03776419 -0.012478193 0.0495847 -0.015918806 0.05793953 0.025473928 -0.0036881557 0.056671496
0.032509893 0.04770802 0.044980988 -0.05812321 -0.0671016 0.045892805 -0.008238111 -0.0037837345

conv6.weight f4 [64, 64, 3, 3]
00000000: 8d08 eebd 609a 2dbd 17a3 aabd fc3d b0bd
00000010: e324 93bd d983 ffbc 37c9 e3bd 440f 7d3d
00000020: 2c57 8abd 866d 55bd 5888 81bc 19b4 a03d
00000030: d630 93bd bbcd 48bd 8ca0 053d 72eb 71bc
00000040: b2f9 803d b751 453c b2f3 cdbd aac8 02be
00000050: bbab 90bd 8165 0ebe 6854 bdbd 43a3 b2bd
00000060: 061b 4abd 6745 b4bd 45be 2abd 3756 443a
00000070: bd61 6d3c 525b 03bd ad0f 95bd 7c3e 04be
00000080: 4069 66bd 4a8d 17be 44d0 e0bd 2c51 353d
00000090: cf50 ebbd e0a1 0abe 489c cebd 1457 02be
000000a0: b551 dabd 6577 91bd 5765 9ebd 0817 6abd
000000b0: ddef 24bd e03f 91bd d729 a7bd 1e73 53bd
000000c0: 39c5 26be 2152 0bbe ddc0 50bd 6eb8 e0bd
000000d0: c0e9 dbbd a410 d6bb cb56 8ebd 9cbe 32bd
000000e0: 6bb6 87bd 6e0d d4bd 2f97 0ebe defe 2cbd
000000f0: 302e e6bd b547 9cbd 128b bd3c a133 20be
00000100: f414 95bd e2da 2abd d59a 03be 6faa 8fbd
00000110: da32 a4bd 81f6 02be d590 ccbd 3e36 6bbc
00000120: b473 05be 5fed 15bd 155a 63bd fd01 e6bd
00000130: 687c a0bd 8a62 93bd e50e c5bd ed77 90bd
00000140: 4474 80bc 5d41 d2bd d137 c1bd d8d7 3ebd
00000150: 8017 9ebd c775 92bd 729b ceba a5a2 97bd
00000160: 5223 f8bd 8aa7 5cbc c5d0 36be e8e1 afbd
00000170: e1cc a2bd 3dae 0fbe 958a d0bd ce87 a9bc
00000180: bf3f ddbd 0278 10be 331f 4cbd 762a 61bd
00000190: 0e00 ecbc 17fc a6bd c1fe 91bd 4a74 d6bd
000001a0: 50f9 98bd 1ad7 c1bd 3360 a9bd f86d c2bc
000001b0: ed34 95bd 73a8 14bd 2be3 0abc 3a36 8bbd
000001c0: a903 87bd 4ed8 91bd dbd8 ee3d 5a47 6bbb
000001d0: c31f ec3d e0f6 9ebd ac7f 92bd e8b9 a8bc
000001e0: 69e2 e7bd 5318 dcbd 641b c0bd f630 b8bd
000001f0: c4a4 92bd e2b7 6cbd 5355 d23d b3e1 163d
00000200: 5298 ab3d d0e0 bcbd 90d7 793d 4cb5 dc3d
00000210: 7eca a8bd d79e 8d3d b361 2f3d c795 9e3d
00000220: 13ad 833d e37b a23d 91d6 2d3d 6186 b03c
00000230: 7135 753d 18c6 b63d 126c 0e3c e55c bb3b
00000240: 32ed 3f3d 1b12 9b3d 0af8 95bd deb6 913d
00000250: 50d7 803d 4f12 bfbb 3a22 983d 5a2c a93c
00000260: aff2 593d df0e 01be e76c 20be 221c 28bd
00000270: a7f4 82bd 1176 07be c12e 05bd 2b4f e5bd
00000280: 81f5 12be 09e5 dc3c 89e6 82bd f4e0 01be
00000290: 9d10 db3a 9585 0dbe 8bc0 e3bd e63b f23a
000002a0: 8d68 9dbd 110a cdbd 54f0 e53c 9156 203d
000002b0: 91c0 1ebd 35f4 92bd 11e7 8f3d b350 743d
000002c0: 87f0 97bd 92eb 073d 2c70 963d 0b28 a03d
000002d0: afa4 f8bd b04f 46bd 95ea 2cbd a360 00be
000002e0: a0aa ecbd 7984 c53c 1f97 003d 9faa b43c
000002f0: 3523 ec3c ef04 d13d d03f a73d d681 5f3d
00000300: 4cda c73c bef0 0cbc 0b8b a03d d306 cf3c
00000310: 38fa 9dbc de85 793d d600 a3bd 77dd 76bc
00000320: 3268 6f3d 66f9 ac3c 78dc 7fbd 75fb f33c
00000330: 621e 983d 5229 93bd 2af4 2f3d 23a0 9cbd
00000340: 7745 9bbd 5ec6 33bd 3ca9 d7bd 1e81 c8bd
00000350: 88a4 0ebc c725 b3bd 1394 ffbd c9a9 3f3d
00000360: fe4a 02be 1e88 c8bc f6d1 81bd 935a 7fbd
00000370: 959c fbbd 5498 c2bd 1340 08be 84cf 01be
00000380: f4ac 85bd acda 10be 27e7 ebbd ca53 f8bc
00000390: 2273 24be 3526 08be d4cb e7bc d99e 23be
000003a0: e6b4 f3bd 5784 0fbd b663 3dbd 1ec2 9b3d
000003b0: 2954 283d 0542 d03d dda2 fabc 62f8 a63d
000003c0: 1c9f b8bd f551 9bbd fedb ff3c a25e 88bc
000003d0: 39ec 16bc 64a8 5cbd d662 a4bd 279b 45bd
000003e0: 7e47 eb3c e209 bfbd 4435 923d fcf1 ff3c
000003f0: e994 e2bd 6213 bbbd b847 dc38 1049 a2bd
-0.11622725 -0.04238355 -0.08331888 -0.086055726 -0.0718477 -0.0311908 -0.11122363 0.061782137
-0.06754908 -0.052106403 -0.015812084 0.07846851 -0.07187049 -0.049024325 0.032623813 -0.014765607
0.062976256 0.012043408 -0.10056247 -0.1277186 -0.07064005 -0.13905908 -0.09244615 -0.08722546
-0.049342178 -0.088023 -0.04168536 0.00074896537 0.014488635 -0.03206951 -0.072783805 -0.12914461
-0.056252718 -0.14799991 -0.109772235 0.044266865 -0.114900224 -0.13538313 -0.10088402 -0.1272853
-0.10660116 -0.07102851 -0.07734173 -0.05715087 -0.040267814 -0.07092261 -0.08162277 -0.051623456
-0.16286172 -0.13605548 -0.05096518 -0.10972677 -0.10737944 -0.0065327454 -0.06950148 -0.04363881
-0.0662659 -0.10354124 -0.1392486 -0.042235248 -0.11239278 -0.076308645 0.023137603 -0.15644695
-0.07279387 -0.04171265 -0.12852032 -0.070149295 -0.08017512 -0.12789346 -0.09988562 -0.014356194
-0.13032418 -0.036603328 -0.05550583 -0.11230848 -0.078362286 -0.07196529 -0.096219815 -0.07054124
-0.01568044 -0.10266373 -0.09434474 -0.046592563 -0.07719326 -0.071513705 -0.0015762879 -0.07404069
-0.12116112 -0.013467679 -0.17853077 -0.0858801 -0.07949234 -0.1403131 -0.101826824 -0.02069464
-0.10803174 -0.1410828 -0.04983444 -0.054972135 -0.02880862 -0.08153551 -0.071286686 -0.10471399
-0.074694276 -0.094648555 -0.08270302 -0.023734078 -0.072854854 -0.03629346 -0.008477013 -0.06797452
-0.06592495 -0.07121335 0.11662456 -0.0035900683 0.115294956 -0.077619314 -0.07153258 -0.02059646
-0.11322481 -0.10746827 -0.09380224 -0.089937136 -0.07160333 -0.05779255 0.102701806 0.036836337
0.08378662 -0.09222567 0.060996592 0.10776767 -0.08241747 0.06915062 0.042817783 0.077434115
0.06429496 0.07933786 0.042440955 0.021548452 0.05986542 0.08924502 0.008692758 0.005717861
0.046857066 0.07571813 -0.073227 0.07114957 0.062910676 -0.00583104 0.07428403 0.020651031
0.053209957 -0.12603329 -0.15666543 -0.041042455 -0.0639432 -0.13228633 -0.03251529 -0.11196741
-0.14351465 0.026964681 -0.06391627 -0.12683469 0.0016713325 -0.13820489 -0.11120709 0.0018480986
-0.07685957 -0.10011686 0.028068699 0.039145056 -0.038757864 -0.07175485 0.07026494 0.059647273
-0.07418924 0.03318364 0.07345614 0.078201376 -0.12140786 -0.04841584 -0.042215902 -0.12536864
-0.11555982 0.02411102 0.03139412 0.022054015 0.028825382 0.10206019 0.08166468 0.05456718
0.024396084 -0.008602319 0.0783902 0.025271809 -0.019284353 0.06091868 -0.07959144 -0.01506745
0.058448978 0.021115016 -0.062466115 0.02978299 0.0742767 -0.071856156 0.042957462 -0.07647731
-0.07581609 -0.04389035 -0.10530326 -0.09790252 -0.0087062195 -0.0874744 -0.12479415 0.04679278
-0.1272392 -0.024478968 -0.06338875 -0.062342238 -0.12285725 -0.095017105 -0.13305692 -0.12676817
-0.06527129 -0.14145917 -0.11518698 -0.030313391 -0.16059545 -0.13295825 -0.028295435 -0.15978564
-0.11899738 -0.03503832 -0.04623767 0.07605384 0.041095886 0.10168842 -0.030595237 0.08152844
-0.09014723 -0.075839914 0.03123283 -0.016646687 -0.009211593 -0.053871527 -0.08026664 -0.048243668
0.028720614 -0.09328057 0.07139066 0.031243317 -0.110635586 -0.09134556 0.00010503776 -0.07924092
