checkpoints/best_model_1709_3.pth (torch, 304673 bytes, 37 tensors)

conv1.weight f4 [16, 1, 3, 3]
0	0x3e368f66	0.1782814
1	0x3dc251ba	0.09488244
2	0x3e88c9fd	0.26716605
3	0x3c536145	0.012901609
4	0xbe62d652	-0.22152069
5	0xbd9b3a92	-0.07579531
6	0xbed7bc75	-0.4213597
7	0xbe822291	-0.25416997
8	0x3e5c5406	0.21516427
9	0x3e21c2c2	0.1579695
10	0x3c5ec30b	0.013596307
11	0xbdb3d0fb	-0.08780094
12	0x3e595239	0.21222772
13	0x3e0ac69e	0.13552329
14	0xbeb253cc	-0.34829557
15	0xbe436483	-0.19081311
16	0x3dfdb82e	0.12388645
17	0xbe28a620	-0.16469622
18	0xbe6de5cb	-0.2323219
19	0xbdadc704	-0.08485225
20	0xbe315363	-0.17316966
21	0x3bc5108f	0.006013937
22	0x3e7bad73	0.24577884
23	0x3e587017	0.21136509
24	0x3e96ef32	0.29479367
25	0x3e35f6b2	0.17769888
26	0x3cbe662f	0.023242084
27	0x3e95424b	0.2915214
28	0xbe602182	-0.21887782
29	0xbd283de4	-0.04107465
30	0x3cc239cd	0.023709202
31	0x3ec7b7ad	0.3900732
32	0x3e847d16	0.25876683
33	0x3e97cfcb	0.2965072
34	0xbe822f7a	-0.25426847
35	0x3d54ef83	0.05198623
36	0xbe5fd1c6	-0.21857366
37	0x3e3c6309	0.18397154
38	0x3e0f0ed3	0.13970499
39	0xbeb24c08	-0.34823632
40	0xbe3d37e0	-0.18478346
41	0x3dc2119e	0.094760165
42	0xbcac91c7	-0.021065606
43	0xbeded6f2	-0.43523365
44	0x3c08a8d8	0.008341037
45	0x3ca51a3f	0.020154117
46	0xbd676cba	-0.056500174
47	0x3d7ed598	0.062215418
48	0x3daef33e	0.085424885
49	0x3e82a896	0.25519246
50	0xbcfba66d	-0.030719006
51	0xbd3ac274	-0.0455956
52	0x3e6bab28	0.2301451
53	0x3e6c98f8	0.23105228
54	0x3dbeefd2	0.09323086
55	0x3e425584	0.18977934
56	0x3d06d8ab	0.032921474
57	0xbd45f315	-0.048327524
58	0x3e0a1363	0.13483958
59	0x3ae1901c	0.0017209086
60	0x3da38821	0.07984949
61	0x3bce5ee6	0.006297934
62	0xbe7fb369	-0.24970783
63	0xbe81b337	-0.25332043
64	0x3e5abdcc	0.21361464
65	0xbd9bdd73	-0.076105975
66	0x3d51ed42	0.051251657
67	0x3c4effbe	0.012634216
68	0xbec0ff8f	-0.37694976
69	0xbd3b7d44	-0.04577376
70	0xbeda74b3	-0.4266716
71	0xbbd4b81d	-0.0064916746
72	0x3e221a93	0.1583045
73	0xbe5c5d40	-0.21519947
74	0xbe9e49a4	-0.30915558
75	0xbe105b33	-0.1409729
76	0x3e132d3f	0.14372729
77	0x3e781898	0.24228132
78	0xbbfccafc	-0.0077146273
79	0xbeb37f21	-0.3505793
80	0x3ea3548c	0.31900442
81	0x3dffa291	0.12482179
82	0xbd98cb43	-0.07460644
83	0xbe3601e7	-0.17774163
84	0x3d809b5f	0.06279635
85	0x3e1e6a30	0.15470195
86	0x3d860bdc	0.06545231
87	0xbe92bedf	-0.28661248
88	0xbeaf28e0	-0.34210873
89	0xbd455f97	-0.048186865
90	0x3e7916ce	0.24325106
91	0xbe7c1f5d	-0.24621339
92	0x3db0d6f8	0.08634752
93	0x3c758049	0.014984199
94	0xbed037c2	-0.4066754
95	0xbe37940e	-0.17927572
96	0xbdf8a042	-0.12139942
97	0x3db9a3fa	0.09064479
98	0xbe94a413	-0.2903143
99	0x3d93dbed	0.07219682
100	0x3e94e99e	0.29084486
101	0x3e238a58	0.15970743
102	0x3eb3b4dd	0.35098925
103	0x3e8f8b02	0.28035742
104	0x3e436adf	0.19083737
105	0x3e7e09ea	0.2480847
106	0x3ea1a209	0.31568936
107	0xbe5645b6	-0.2092503
108	0xbe465a1a	-0.19370309
109	0xbe246f9b	-0.16058199
110	0x3e6813c1	0.22663786
111	0xbe80c62e	-0.251512
112	0xbdb6ee97	-0.08932226
113	0x3e73d6c8	0.23812401
114	0xbe930907	-0.28717825
115	0x3e871225	0.2638103
116	0x3e6299cb	0.2212898
117	0x3e721692	0.23641422
118	0x3e58f433	0.21186905
119	0x3e9525ee	0.291305
120	0x3e93f879	0.28900507
121	0x3e68b344	0.22724634
122	0x3e2fc9f1	0.17166878
123	0xbc9b2d70	-0.018942565
124	0x3ca6675c	0.020312957
125	0xbc951688	-0.01819922
126	0x3c96c26e	0.018403258
127	0x3e289124	0.16461617
128	0xbdf1e117	-0.118105106
129	0xbe9d3cc5	-0.30710426
130	0xbee49c4c	-0.44650495
131	0xbe8a533f	-0.27016637
132	0xbd8ee1c4	-0.06976655
133	0x3e7e4d2b	0.24834125
134	0x3ab7b83c	0.0014016698
135	0xbdd1641f	-0.10224175
136	0xbebb1882	-0.36542135
137	0xbeb8cdea	-0.360946
138	0xbdb2cbfe	-0.08730315
139	0xbe7bbde2	-0.24584153
140	0xbda49d1e	-0.0803778
141	0x3df90f39	0.121611066
142	0xbccbd403	-0.024881369
143	0x3dcaf6f6	0.09910385

conv1.bias f4 [16]
0	0xbe09dc16	-0.13462862
1	0xbe7b2e74	-0.24529439
2	0xbe9c7f2d	-0.30565777
3	0xbe604f3d	-0.21905227
4	0x3e354688	0.17702687
5	0x3e6c5d05	0.23082359
6	0xbe9dc121	-0.30811408
7	0x3ec0dadd	0.3766698
8	0xbe6293bd	-0.2212667
9	0xbe975dee	-0.2956385
10	0xbc0bd392	-0.008534329
11	0xbe8dd9f8	-0.2770536
12	0x3de0e993	0.10982051
13	0x3df44c42	0.119286075
14	0x3e84d98e	0.2594723
15	0xbe223a38	-0.15842521

conv2.weight f4 [16, 16, 3, 3]
0	0x3d4188e0	0.047249675
1	0x3b537a59	0.003226897
2	0x3dac95db	0.0842702
3	0x3d11d3d7	0.035602417
4	0x3d4b9439	0.049701903
5	0x3d248b36	0.040171824
6	0x3c9164d6	0.017748278
7	0xbd39ce60	-0.04536283
8	0xbde56949	-0.11201722
9	0x3d7e568b	0.062094253
10	0xbcb568ec	-0.022144757
11	0xbc939042	-0.018013123
12	0x3d8dde06	0.06927113
13	0x3d249b38	0.04018709
14	0x3da19e2e	0.078914985
15	0x3c49e701	0.012323142
16	0x3c6a8904	0.014314894
17	0x3d133950	0.03594333
18	0x3d805bd8	0.06267518
19	0xbd3cbc6f	-0.04607814
20	0xbcf0c4f0	-0.029390782
21	0xbd0bae5e	-0.034101836
22	0x3d9a4ad3	0.07533803
23	0x3b74c0d1	0.0037346373
24	0xbd8128d6	-0.06306617
25	0xbc8c31cb	-0.017113587
26	0xbe0d5388	-0.13801396
27	0x3bd86c9c	0.006604744
28	0x3d15290a	0.03641609
29	0xbd41b1a2	-0.047288544
30	0x3c95eaa9	0.018300371
31	0x3cf21cce	0.02955475
32	0xbc3d6584	-0.011559848
33	0xbcf4b593	-0.029871738
34	0xbd61cc49	-0.055126462
35	0xbcbca76b	-0.02302905
36	0xbcf61333	-0.030038452
37	0x3c9403c9	0.018068211
38	0x3c8d3cfe	0.017240997
39	0x3ce9ed09	0.02855541
40	0x3d10b889	0.035332236
41	0x3d7893b0	0.06068772
42	0xbd209c98	-0.03921184
43	0x3c2edc6b	0.010672669
44	0xbc1e7223	-0.009670767
45	0x3d4d06b2	0.050055213
46	0x3dd97dde	0.106197104
47	0x3d1f34c6	0.038868688
48	0x3c7bb837	0.015363744
49	0x3d7e2685	0.062048454
50	0x3d89b045	0.06723074
51	0x3cc40741	0.02392924
52	0x3ce8533a	0.028359998
53	0xbe008950	-0.1255238
54	0xbd70e2ad	-0.058809925
55	0xbc14f8c5	-0.009092514
56	0xbd00c094	-0.031433657
57	0x3bd80653	0.006592551
58	0xbdcb3fc6	-0.09924273
59	0xbb9e1eda	-0.004825455
60	0x3c5bb00f	0.013408675
61	0x3d1d07fe	0.0383377
62	0xbd87e55c	-0.06635544
63	0xbd115aa1	-0.03548682
64	0x3d6072a7	0.05479684
65	0x3bb915fa	0.0056483718
66	0xbd3e91d9	-0.04652581
67	0xbc43d22c	-0.011951964
68	0x3d029916	0.031884275
69	0x3d4f40ad	0.05059879
70	0xbba64ffc	-0.005075453
71	0xbabc9463	-0.0014387484
72	0x3d193669	0.037405405
73	0xbc37b8eb	-0.0112135215
74	0x3d549b59	0.051905964
75	0x3d8cc315	0.068731464
76	0x3d39fc15	0.04540642
77	0x3a65d52e	0.0008767423
78	0x3be2d84c	0.0069227573
79	0x3d13cfb3	0.03608675
80	0xbcf43649	-0.029811041
81	0xbcbbbae2	-0.022916261
82	0xbd490512	-0.0490771
83	0x3da12078	0.07867521
84	0x3d2051ad	0.039140392
85	0x3d7e715a	0.06211982
86	0x3db37eb7	0.08764403
87	0x3c84bb56	0.01620261
88	0x3d33b87d	0.043877114
89	0x3da55e59	0.08074636
90	0x3d11e546	0.035619043
91	0x3dbf7b7d	0.093497254
92	0xbd8637a1	-0.06553579
93	0xbd98aff0	-0.074554324
94	0xbc8af034	-0.01696024
95	0x3d80bdc7	0.06286197
96	0xbd1490b5	-0.036270816
97	0x3d091120	0.033463597
98	0x3d9ae6f2	0.075635806
99	0x3cf07b0c	0.029355548
100	0x3db80225	0.08984784
101	0x3d480748	0.04883507
102	0x3d15a80f	0.036537226
103	0xbd2d82b5	-0.04236098
104	0x3b6dcf78	0.003628699
105	0xbd4dff05	-0.050292034
106	0x3d9d65e0	0.07685447
107	0xbdf85c7e	-0.121270165
108	0xbd16b473	-0.036793184
109	0x3cf693fa	0.030099858
110	0xbbbc6db4	-0.0057503823
111	0xbd10aedb	-0.035323005
112	0xbd4a5ba0	-0.049403787
113	0x3caf4cb6	0.021398883
114	0x3d286c03	0.041118633
115	0xbd879854	-0.06620851
116	0xbd1db61f	-0.038503762
117	0xbd49fa6f	-0.049311098
118	0xbd87af86	-0.06625275
119	0x3dcb70ea	0.09933646
120	0xbdabac0a	-0.08382423
121	0xbd0d7aba	-0.03454087
122	0x3dc3020a	0.09521873
123	0x3d8b629d	0.06805918
124	0x3c8620c8	0.016373053
125	0xbd008db9	-0.031385157
126	0xbc5430d3	-0.012951094
127	0xbd85db31	-0.06535948
128	0xbcebf82e	-0.028804865
129	0x3c24cbec	0.010058384
130	0xbd136ff6	-0.035995446
131	0x3b1d2ce3	0.0023983053
132	0xbddc1854	-0.10746828
133	0x3d26f69d	0.040762533
134	0x3d503d48	0.050839692
135	0x3d91b017	0.071136646
136	0x3d121e5a	0.035673477
137	0xbddb2886	-0.107010886
138	0x3ce3c1e7	0.02780242
139	0xbc2d408f	-0.010574474
140	0xbcee98a3	-0.029125517
141	0xbd9966a7	-0.074902825
142	0xbd6bb03b	-0.057541113
143	0x3e0c72f0	0.1371572
144	0xbd1ce75b	-0.038306575
145	0xbddd214d	-0.10797367
146	0x3d356d75	0.04429384
147	0xbd843d73	-0.06457033
148	0x3d322d97	0.04350051
149	0x3d7d28f4	0.061806634
150	0xbd9512b0	-0.07278955
151	0xbd04b6e3	-0.032400977
152	0x3c10b9c2	0.008833351
153	0x3d371a77	0.044702973
154	0x3c143403	0.009045604
155	0xbce22636	-0.027606111
156	0xbd584018	-0.0527955
157	0x3d7e1a5d	0.06203686
158	0x3d11ec50	0.035625756
159	0x3d854481	0.06507207
160	0x3dd7367f	0.10508441
161	0xbe3e705e	-0.18597552
162	0x3ba8d38b	0.005152171
163	0x3c09c533	0.008408832
164	0xbd88a89d	-0.066727854
165	0x3cf82e15	0.030295411
166	0x3dd8dd61	0.105891
167	0xbd195de8	-0.03744307
168	0x3d080f8b	0.033217948
169	0xbda5f199	-0.08102722
170	0x3d5ef675	0.05443426
171	0xbc14b68c	-0.009076726
172	0xbc193e06	-0.009353166
173	0xbd3d4b3e	-0.046214335
174	0x3d1a6a8f	0.03769928
175	0x3d1f0520	0.038823247
176	0x3c56135c	0.013066139
177	0xbc919d3b	-0.017775169
178	0xbd46218c	-0.048371837
179	0x3d227b28	0.039668232
180	0x3db23846	0.087021396
181	0xbdee5573	-0.11637392
182	0x3dc16186	0.09442429
183	0x3dc4b203	0.096042655
184	0x3d16b9c9	0.036798272
185	0x3d54db9b	0.051967245
186	0xbd622bec	-0.05521767
187	0xbca367c1	-0.019946935
188	0x3d089021	0.033340577
189	0xbd6e293a	-0.058144785
190	0x3d858bb8	0.0652079
191	0xbe03195c	-0.12802643
192	0xbd3fc76b	-0.04682104
193	0xbd5c5ac8	-0.053797513
194	0xbcc4f465	-0.024042318
195	0xbd20e50f	-0.039280947
196	0xbcfd7e5a	-0.030944038
197	0x3ca3c3b4	0.01999078
198	0x3ac17011	0.001475813
199	0x3c0e3b89	0.0086811865
200	0xbdc36ec5	-0.09542612
201	0x3d8df4f6	0.06931488
202	0x3d983119	0.0743124
203	0x3cf5bf64	0.029998489
204	0xbcc1a8ce	-0.023640063
205	0xbd4f4e9a	-0.05061207
206	0xbc477570	-0.012173995
207	0x3c756e2b	0.014979879
208	0x3d440cef	0.047863897
209	0x3c59e37b	0.0132988645
210	0x3d16d9e3	0.036828887
211	0xb8b0be57	-8.4277875e-05
212	0x3c068e46	0.008212632
213	0x3d85c3a3	0.06531455
214	0x3d94d00c	0.07266244
215	0xbdb822b6	-0.089909956
216	0x3c8d9862	0.017284576
217	0xbd2a8631	-0.04163188
218	0x3d077a4b	0.033075612
219	0xbd19181d	-0.03737651
220	0x3a3afd54	0.0007133086
221	0x3cce78e2	0.025204126
222	0xbd29b7c6	-0.041435026
223	0x3cac8c8c	0.021063112
224	0x3c50d17b	0.012745257
225	0xbabf39d9	-0.0014589383
226	0xbd2c8ec6	-0.042128347
227	0x3dfdd371	0.12393845
228	0xbd3ed04b	-0.046585362
229	0x3d412029	0.04714981
230	0x3d8ef41f	0.06980156
231	0xbd60343a	-0.054737307
232	0x3d329d51	0.04360706
233	0xbde53c29	-0.11193115
234	0xbd3be88e	-0.04587608
235	0xbca97b2a	-0.020688612
236	0x3dab3019	0.08358783
237	0xbb7e2eac	-0.0038785143
238	0x3c531281	0.01288283
239	0x3dac3a18	0.08409518
240	0xbcf6123d	-0.030037994
241	0xbcb9f919	-0.022701787
242	0x3c878565	0.0165431
243	0x3dc58c71	0.09645928
244	0x39502875	0.00019851497
245	0xbdc51b75	-0.09624378
246	0x3cfc6243	0.030808574
247	0x3d8218b2	0.063523665
248	0xbd8e1d35	-0.069391645
249	0xbccfd4b8	-0.025369987
250	0xbb2481a2	-0.0025101681
251	0x3d28fb9c	0.04125558
252	0x3d93cdb2	0.07216968
253	0xbd4578dd	-0.048210967
254	0x3c1b34cb	0.009473036
255	0x3d51ea5f	0.051248904

conv2.bias f4 [16]
0	0x3c0829ac	0.008310717
1	0x3ca5252b	0.020159325
2	0x3d002269	0.031282816
3	0xbbdd9ae1	-0.006762848
4	0x3d218b8e	0.03943973
5	0x3d7d4040	0.06182885
6	0x3c887f28	0.016662195
7	0xbd2c423f	-0.042055365
8	0xbd3cfde4	-0.046140566
9	0xbda0a3ef	-0.07843768
10	0xbd875ab0	-0.06609094
11	0x3d6641a0	0.05621493
12	0xbd43dda6	-0.047818802
13	0xbdabd324	-0.08389881
14	0xbd4dbb3f	-0.0502274
15	0xbd42c4f3	-0.047551107

bn11.weight f4 [16]
0	0x3f71b567	0.94417423
1	0x3f7926f6	0.97325075
2	0x3f78a53d	0.97127134
3	0x3f4ec622	0.80771077
4	0x3f8ae10c	1.0849929
5	0x3f7a05cd	0.976651
6	0x3f6f76c0	0.93540573
7	0x3f82820e	1.019594
8	0x3f692b58	0.9108176
9	0x3f846644	1.0343709
10	0x3f823a08	1.017396
11	0x3f822f1a	1.0170624
12	0x3f75956f	0.9593114
13	0x3f81bec6	1.0136344
14	0x3f86eb75	1.0540606
15	0x3f9922fe	1.1963804

bn11.bias f4 [16]
0	0xbd916d64	-0.07100943
1	0x3d2078f2	0.039177842
2	0x3d710ac0	0.058848143
3	0x3d581d34	0.052762225
4	0xbba0459b	-0.00489111
5	0xbc29c870	-0.010362729
6	0x3de9580d	0.113937475
7	0xbda8e415	-0.08246628
8	0x3deb50f0	0.11490047
9	0x39a44d2d	0.00031338018
10	0xbd5f41b5	-0.054506022
11	0x3d8d3448	0.068947375
12	0x3d8bd037	0.06826823
13	0x3c6b519a	0.014362717
14	0x3cccbf20	0.02499348
15	0xbdb4a722	-0.088209406

bn11.running_mean f4 [16]
0	0xbe0d0b39	-0.13773812
1	0xbe7d6783	-0.24746518
2	0xbe99086a	-0.29889232
3	0xbe549b3b	-0.2076234
4	0x3e29c907	0.16580592
5	0x3e775f27	0.24157391
6	0xbe9c11b4	-0.30482256
7	0x3eba4ca6	0.36386603
8	0xbe64c200	-0.2233963
9	0xbe9b251b	-0.30301747
10	0xbca41c99	-0.020033168
11	0xbe8197eb	-0.25311217
12	0x3ddff082	0.10934545
13	0x3e0e84ff	0.13917921
14	0x3e7e3bef	0.2482755
15	0xbe316e8e	-0.1732733

bn11.running_var f4 [16]
0	0x3a54c982	0.0008117185
1	0x3a0df227	0.00054148067
2	0x3a0f2909	0.0005461132
3	0x3a22b808	0.00062072324
4	0x3a82acbb	0.000996969
5	0x39e40a94	0.0004349543
6	0x3995eeff	0.0002859756
7	0x3a311292	0.00067547814
8	0x39d94405	0.00041440144
9	0x3a09e047	0.0005259555
10	0x3a3365af	0.000684346
11	0x3b1663b6	0.0022947616
12	0x3a7d7e17	0.0009669973
13	0x3ad5bd09	0.0016306947
14	0x3a571351	0.00082044775
15	0x3aa9acca	0.0012945172

bn12.weight f4 [16]
0	0x3f6e1abb	0.9300954
1	0x3f7fc267	0.9990601
2	0x3f7af4f4	0.9803002
3	0x3f6ef508	0.9334264
4	0x3f7213ae	0.9456128
5	0x3f80a179	1.0049278
6	0x3f7b7653	0.98227423
7	0x3f79e7d3	0.9761936
8	0x3f89d3de	1.0767782
9	0x3f821868	1.0163698
10	0x3f78526c	0.97000766
11	0x3f7dd9f0	0.9916067
12	0x3f835030	1.0258846
13	0x3f84cf46	1.0375755
14	0x3f7343fb	0.95025605
15	0x3f7425f4	0.9537041

bn12.bias f4 [16]
0	0x3c95aed5	0.018271843
1	0x3e1e02d6	0.1543077
2	0xbd1cba1c	-0.038263425
3	0x3b4be009	0.0031108877
4	0x3d134e9e	0.035963647
5	0x3e1c241c	0.1524815
6	0x3c89abb8	0.016805515
7	0x3d5b41a6	0.053529404
8	0xbce48952	-0.02789751
9	0xbc9f01ad	-0.019409979
10	0x3e066e91	0.13128115
11	0xbcaa6143	-0.020798331
12	0x3cb49002	0.022041325
13	0x3b89cd9a	0.004205418
14	0x3b9aab19	0.0047201035
15	0x3ccfff40	0.025390267

bn12.running_mean f4 [16]
0	0x3e513813	0.20431547
1	0x3e712b19	0.23551597
2	0xbe93e3c6	-0.28884715
3	0x3d91bf71	0.07116593
4	0x3d488e56	0.048963867
5	0xbeb8bafb	-0.36080155
6	0x3e9f1e22	0.31077677
7	0xbdca55e4	-0.098796636
8	0x3f2ab791	0.6668635
9	0xbebad676	-0.36491746
10	0x3d945bb4	0.072440535
11	0x3e6c4c3d	0.23075958
12	0x3db9bac8	0.09068829
13	0xbead3816	-0.33831853
14	0xb9b53425	-0.0003456186
15	0x3a99dc17	0.0011738566

bn12.running_var f4 [16]
0	0x3e8c5a88	0.2741282
1	0x3e93fa27	0.2890179
2	0x3e24e013	0.16101103
3	0x3e6fcb7c	0.23417467
4	0x3e3751cd	0.17902298
5	0x3e8bf3ce	0.27334446
6	0x3eb3d297	0.35121605
7	0x3e9df35d	0.30849734
8	0x3dd8094b	0.105486475
9	0x3e6de89e	0.23233268
10	0x3e755b5f	0.23960637
11	0x3e1ade37	0.1512383
12	0x3ea1d8b3	0.3161064
13	0x3e2775f9	0.16353597
14	0x3e3afc57	0.18260323
15	0x3e51db04	0.20493704

conv3.weight f4 [32, 16, 3, 3]
0	0x3c032d06	0.00800634
1	0x3d8cedb5	0.068812765
2	0xbd1a5dcd	-0.03768711
3	0xbd676466	-0.05649223
4	0x3ca5c92a	0.020237524
5	0xbd5e2fc7	-0.054244783
6	0x3d1e14ea	0.038594164
7	0x3d108ef7	0.035292592
8	0x3d3bf44a	0.04588727
9	0xbd2f3054	-0.0427707
10	0x3a8ac9c1	0.0010588692
11	0xbce6d7f3	-0.028179144
12	0xbcac1afd	-0.021008963
13	0x3ce0a2b6	0.027421337
14	0x3ce71001	0.028205873
15	0xbc8e8bb5	-0.017400602
16	0xbc72189b	-0.014776374
17	0x3ceddbab	0.02903541
18	0xbab4998d	-0.0013778672
19	0x3d152b18	0.03641805
20	0x3d7d862c	0.061895534
21	0xbd928984	-0.07155135
22	0xbdb1a3f7	-0.08673852
23	0x3ab05350	0.0013452563
24	0xbdc08b9a	-0.09401627
25	0x3d9140ba	0.07092424
26	0xbcbeb2d7	-0.023278637
27	0xbc4ea940	-0.0126135945
28	0xbcb0fea5	-0.021605799
29	0x3d1a02e1	0.0376004
30	0x3d4df3c6	0.05028131
31	0xbbe1361c	-0.0068729054
32	0x3d62c167	0.055360224
33	0xbcf43ea9	-0.029815035
34	0xbb5da174	-0.0033818157
35	0xbd2bd2bf	-0.04194903
36	0x3d2ba5b8	0.04190609
37	0xbc03975d	-0.008031693
38	0xbd027dc4	-0.03185822
39	0xbd6cf294	-0.057848528
40	0x3bfe2df3	0.0077569424
41	0xbd98f794	-0.07469097
42	0x3d22cf26	0.039748333
43	0xbdafac14	-0.08577743
44	0xbd305b49	-0.043055806
45	0xbd7fddf5	-0.062467534
46	0xbcacb44f	-0.021082072
47	0x3c81c99e	0.015843209
48	0xbc048dee	-0.008090479
49	0xbcbfbe77	-0.02340625
50	0x3d9e771a	0.077375606
51	0xbd326813	-0.043556284
52	0xbe241cde	-0.16026637
53	0x3cd6ef53	0.026237166
54	0x3d8171a6	0.06320505
55	0xbd06403f	-0.032776114
56	0x3d3e5b6e	0.046473913
57	0x3da4dbaa	0.0804971
58	0xbc93b718	-0.018031642
59	0x3b779227	0.0037776323
60	0xbc3d607e	-0.01155865
61	0x3c845e46	0.016158234
62	0x3ddaabbc	0.10677287
63	0xbc72226c	-0.014778715
64	0x3d0e71d7	0.034776535
65	0x3c76c88e	0.015062464
66	0xbdc486d7	-0.09596031
67	0xbd0665a0	-0.03281176
68	0x3c07d2d3	0.0082900105
69	0xbd642ce6	-0.05570688
70	0x3d9856e3	0.07438447
71	0xbd7f287e	-0.062294476
72	0x3d55df5f	0.052214976
73	0x3d65918f	0.05604702
74	0x3dc58416	0.09644334
75	0xbc804faf	-0.015662996
76	0x3cfb6a25	0.030690262
77	0x3d29b0c5	0.041428346
78	0x3dae5b67	0.08513527
79	0x3d16a1d3	0.03677542
80	0x3e3271ab	0.17426173
81	0xbd80b19c	-0.06283876
82	0xba274cc6	-0.00063819846
83	0xbce9df2a	-0.028548796
84	0x3ca1cb10	0.019750148
85	0x3c780af1	0.015139327
86	0x3cda12e1	0.02662033
87	0xbe046056	-0.12927374
88	0xbd702d81	-0.058637146
89	0xbd53f5bd	-0.051748026
90	0x3cc69e4e	0.024245407
91	0x3ca2e52d	0.01988467
92	0xbcb8527c	-0.02250027
93	0xbc4daf4d	-0.012554002
94	0x3e1cf1d8	0.15326631
95	0xbb8a4263	-0.0042193397
96	0xbdbd1d97	-0.092341594
97	0x3de97047	0.11398368
98	0xbca9c035	-0.020721534
99	0xbd1c6a97	-0.03818759
100	0x3da6ca3f	0.08144044
101	0xbbb3e48a	-0.0054898905
102	0x3c9b1986	0.018933069
103	0x3b6f4f81	0.0036515894
104	0x3d4ac68e	0.049505763
105	0xbd4b1d22	-0.04958833
106	0x3c006ef4	0.007838953
107	0x3d8ab0f7	0.067720346
108	0xbaa80d7a	-0.0012821399
109	0x3c8a298b	0.016865512
110	0x3c3161b3	0.010826516
111	0xbb136f9f	-0.0022496951
112	0xbc000c94	-0.007815499
113	0x3dac2c3e	0.08406876
114	0xbdd6af97	-0.1048271
115	0x3c94e698	0.018176362
116	0x3d6e2cac	0.05814807
117	0xbdd35bdb	-0.103202544
118	0x3d567117	0.052353945
119	0xbca197bd	-0.019725675
120	0xbd9ff5e7	-0.07810574
121	0x3bd33420	0.006445423
122	0xbd1ef1c2	-0.038804777
123	0x3c225fb0	0.009910509
124	0xbc52bc42	-0.012862267
125	0x3d3d1377	0.04616114
126	0x3d506caf	0.0508849
127	0xbd5bcdcc	-0.05366306
128	0xbca688c6	-0.02032889
129	0xbc48b1c0	-0.01224941
130	0x3cff8bce	0.031194594
131	0xbd05956a	-0.032613195
132	0xbb9aafd8	-0.0047206692
133	0xbd94035d	-0.07227204
134	0x3c5f8817	0.013643286
135	0x3d965a16	0.07341401
136	0x3bceaa0e	0.006306893
137	0x3d06aa28	0.032877117
138	0xbd2be5b5	-0.041967113
139	0x3e1c41d3	0.15259485
140	0x3da0a9c6	0.07844882
141	0xbcd75551	-0.0262858
142	0x3cec8ff3	0.028877234
143	0x3d1279e9	0.035760794
144	0x3c9fc70b	0.01950409
145	0xbade0709	-0.0016939352
146	0x3d27f127	0.041001465
147	0xbd208122	-0.03918565
148	0xbcc93712	-0.024562392
149	0x3d5e4aa4	0.0542704
150	0x3d7f9a45	0.062402982
151	0x3cdbdb81	0.026838066
152	0x3d03797f	0.03209829
153	0x3d3a3434	0.04545994
154	0xbcdb10cb	-0.026741406
155	0xbca23b63	-0.019803708
156	0xbc9aaa1d	-0.018879944
157	0x3d87a5cf	0.06623422
158	0x3c812f11	0.015769513
159	0x3d8fcd72	0.070216075
160	0x3c8b5399	0.017007636
161	0x3c3cb844	0.011518542
162	0x3d3dd417	0.046344843
163	0x3e020a77	0.12699305
164	0x3d1ee300	0.038790703
165	0xbc4b0453	-0.012391168
166	0xb9d6b2af	-0.0004095039
167	0xbd635813	-0.055503916
168	0x3d8449e8	0.06459409
169	0x3e250046	0.16113386
170	0xbd8fdc8f	-0.0702449
171	0xbd4d7736	-0.050162517
172	0xbd72e273	-0.05929799
173	0xbcc13430	-0.023584455
174	0xbd2d4a51	-0.0423072
175	0xbd3e101e	-0.04640209
176	0x3ce68752	0.028140698
177	0x3d9b8c96	0.07595174
178	0xbb59f140	-0.0033255368
179	0x3d8d9b50	0.06914389
180	0xbd8fd22c	-0.07022509
181	0x3db988c9	0.09059293
182	0xbd52bc70	-0.05144924
183	0x3d2414c3	0.040058862
184	0xbd4bfb19	-0.049800012
185	0xbd4a8e9f	-0.04945242
186	0xbc552e2b	-0.013011496
187	0x3d0e785f	0.034782764
188	0x3bd27398	0.0064224713
189	0xbd862388	-0.06549746
190	0x3cd6e267	0.026231004
191	0x3ba8cd06	0.005151394
192	0x3db40721	0.08790422
193	0xbd4ff2c8	-0.050768644
194	0x3dab04b0	0.083505034
195	0xbcbf689f	-0.023365317
196	0xbda30bb7	-0.07961219
197	0x3d6c1abf	0.057642695
198	0xbc059c28	-0.008154906
199	0x3d218b7e	0.03943967
200	0x3d97dc5d	0.07415078
201	0x3d3ef0b2	0.046616264
202	0x3d556b71	0.052104417
203	0x3d4bae92	0.04972703
204	0x3d93d534	0.072184
205	0x3d174eb7	0.036940303
206	0xbb5f00ea	-0.0034027644
207	0x3c711de4	0.014716599
208	0x3ce4ffa9	0.02795394
209	0x3d45a975	0.04825731
210	0x3d448d11	0.047986094
211	0xbcf7479c	-0.030185513
212	0x3d4728ba	0.048622824
213	0xbd2713ed	-0.040790487
214	0xbd1aad86	-0.03776314
215	0x3d631a3f	0.055444952
216	0xbd4d8bdd	-0.050182212
217	0x3c954a97	0.018224044
218	0xbdf4cf61	-0.11953617
219	0x3d0b0506	0.033940338
220	0xbd407fa5	-0.04699673
221	0x3d6e25eb	0.05814163
222	0xbda6e435	-0.08148996
223	0x3d1cb3c4	0.038257375
224	0xbdfcc975	-0.123431124
225	0xbd892b31	-0.06697691
226	0x3d99f9e0	0.07518363
227	0x3bb14d05	0.005410793
228	0x3cf820ec	0.030289136
229	0x3d9c7873	0.07640161
230	0xbb532ea5	-0.0032223847
231	0x3cb4ad2b	0.02205523
232	0x3e548599	0.20754088
233	0x3d0e7238	0.034776896
234	0xbd3fcab3	-0.04682417
235	0x3d1ab87e	0.0377736
236	0x3d8c2edf	0.068448775
237	0xbd470bcc	-0.048595235
238	0x3dc48712	0.09596075
239	0x3d9d3e39	0.07677884
240	0xbd013426	-0.031543873
241	0xbda12227	-0.07867842
242	0x3cd35adc	0.025800161
243	0xbbd2889c	-0.0064249765
244	0x3cbc8ccc	0.023016356
245	0x3d5a72a4	0.053331986
246	0xbc8e9136	-0.017403226
247	0x3cb9b2d6	0.022668283
248	0xbd899f7f	-0.067198746
249	0xbd01989a	-0.031639673
250	0xbd93d2a3	-0.0721791
251	0x3ce67ad1	0.028134735
252	0x3c970515	0.01843504
253	0xbd1783f3	-0.03699107
254	0x3ce5e806	0.028064739
255	0xbd335a3f	-0.043787237

conv3.bias f4 [32]
0	0xbda5e917	-0.08101099
1	0xbd081219	-0.033220384
2	0xbd8d54b2	-0.0690092
3	0xbc9aed18	-0.018911883
4	0xbd9a01d6	-0.075198814
5	0x3d8a5437	0.06754344
6	0xbd236a41	-0.039896253
7	0xbda782b1	-0.08179224
8	0x3d4c12a3	0.04982246
9	0x3cb98ae0	0.022649229
10	0x3d8ace66	0.06777649
11	0x3da5e593	0.081004284
12	0x3d692625	0.056921143
13	0xbcf57882	-0.02996469
14	0x3d87de99	0.06634254
15	0x3da27d68	0.079340756
16	0x3d820679	0.06348891
17	0xbd9a29d7	-0.075275116
18	0xbcfc4b5a	-0.03079765
19	0xbd13db71	-0.036097948
20	0x3ac97f40	0.0015373006
21	0xbd510e3b	-0.05103896
22	0x3c312fb5	0.010814597
23	0x3cf390fc	0.02973222
24	0x3d989a44	0.07451299
25	0x3d89abfb	0.06722256
26	0x3d06badb	0.032893043
27	0xbd4669ae	-0.048440628
28	0x3b92f5b5	0.004484857
29	0x3d5992ec	0.05311863
30	0xbb9904cd	-0.0046697618
31	0x3c40a5bc	0.011758264

conv4.weight f4 [32, 32, 3, 3]
0	0x3c68238d	0.014168632
1	0xba977a8d	-0.0011556909
2	0xbd0b48ad	-0.034004856
3	0x3c083d80	0.008315444
4	0x3c61725d	0.0137601765
5	0x3c38f00f	0.011287703
6	0xbd98f402	-0.07468416
7	0xbd2ea248	-0.042635232
8	0xbd509b7f	-0.050929543
9	0xbbec0184	-0.007202329
10	0xbcc71f62	-0.024306957
11	0xbbe7e20c	-0.0070765074
12	0x3d2cd5be	0.042196028
13	0xbc2e4054	-0.010635454
14	0x3d5a32dd	0.053271163
15	0xbccf13f7	-0.025278075
16	0x3c98790f	0.018612413
17	0xba059f5f	-0.00050972955
18	0xbc2f42e0	-0.010697097
19	0x3d1ec60a	0.038763084
20	0xbba55dd1	-0.005046584
21	0x3c0c35da	0.008557761
22	0xbcc63288	-0.024194017
23	0x3c91ba63	0.017789071
24	0xbd4fa5d1	-0.050695244
25	0xbbf00c2e	-0.0073256707
26	0x3c339531	0.010960863
27	0xba4509ad	-0.00075163954
28	0xbcfa1347	-0.03052677
29	0x3c02559f	0.007954984
30	0xbd88ddee	-0.06682955
31	0x3ccb5715	0.024821797
32	0xbc96aa80	-0.018391848
33	0xbd518fdc	-0.051162586
34	0x3d6ffe6d	0.05859225
35	0x3d5976f8	0.053091973
36	0xbca0b23e	-0.019616242
37	0x3d1f0374	0.038821653
38	0xbcc0176a	-0.023448665
39	0xbc187f5b	-0.009307708
40	0x3b2cf164	0.0026388997
41	0x3d248f04	0.040175453
42	0x3d793e55	0.06085046
43	0xbd7cc16c	-0.0617079
44	0xbd3ad089	-0.04560903
45	0x3b4afa09	0.0030971786
46	0x3c168abb	0.009188349
47	0x3b8342d2	0.0040057683
48	0xbdaf71dd	-0.085666396
49	0xbc10ef57	-0.008846126
50	0xbd1612f1	-0.036639158
51	0xbd9146b4	-0.07093564
52	0xbd705b6b	-0.058680933
53	0xbd240706	-0.04004576
54	0xbca46631	-0.02006826
55	0x3c6591d4	0.014011819
56	0x3d26d39a	0.040729143
57	0x3d1be5cf	0.03806096
58	0xbb92f6c6	-0.004484984
59	0xbd09495c	-0.033517227
60	0x3d1b7902	0.0379572
61	0x3cf24a3a	0.02957641
62	0x3c7d2fae	0.015453262
63	0x3df691cc	0.12039527
64	0xbcc721f8	-0.02430819
65	0x3c2d0c16	0.010561964
66	0xbcf08417	-0.02935986
67	0xbb649972	-0.00348815
68	0x3c475554	0.01216634
69	0xbd4db877	-0.050224748
70	0xbbe53515	-0.0069948533
71	0xbd08eded	-0.03343003
72	0x3c9c8417	0.019105954
73	0xbd2c8110	-0.04211527
74	0xbc54bc38	-0.012984328
75	0xbabc1e2d	-0.0014352255
76	0xbd0dff48	-0.034667283
77	0xbc9db8df	-0.019253192
78	0xbc995f78	-0.01872228
79	0xbd5423b8	-0.051791877
80	0xbc911f9f	-0.017715273
81	0xbce08fad	-0.02741226
82	0xbd39695a	-0.045266487
83	0xbd15914b	-0.036515515
84	0xbbd10e21	-0.006379858
85	0xbb9a97e4	-0.004717814
86	0xbd3f83d7	-0.04675659
87	0x3caac403	0.020845419
88	0x3d0d5f4e	0.034514718
89	0x3ce90154	0.028443016
90	0x3d073204	0.033006683
91	0x3d8a8680	0.06763935
92	0x3cbabcaf	0.02279505
93	0x3c80509e	0.015663441
94	0x3d8c2361	0.068426855
95	0x3ce3d85c	0.02781313
96	0x3d5775b2	0.052602477
97	0x3d482c1b	0.048870187
98	0x3d59dd98	0.053189844
99	0x3d888bd8	0.06667298
100	0x3c8d3605	0.017237673
101	0x3bd16016	0.006389628
102	0x3d1dfea2	0.038572915
103	0x3c1b1777	0.009466044
104	0x3d5044bd	0.050846804
105	0x3d8ed70b	0.0697461
106	0x3c338c6c	0.010958772
107	0x3c9704a6	0.018434834
108	0xbd2dd9be	-0.042443983
109	0xbd24da7c	-0.040247425
110	0xbd2cedde	-0.042219035
111	0xbd695fba	-0.056976058
112	0xbcfa4913	-0.030552423
113	0x3cd678dd	0.026180679
114	0xbd0b2568	-0.03397122
115	0xbd4e76f0	-0.050406396
116	0xbd3c966f	-0.046041902
117	0xbd2de493	-0.042454313
118	0x3c1b1d3f	0.009467422
119	0xbcdc8e9c	-0.02692347
120	0xbcf9f943	-0.030514365
121	0xba2b9c99	-0.0006546467
122	0xbce08795	-0.0274084
123	0x3c68669c	0.01418462
124	0x3d0117cf	0.031516846
125	0xbbbff522	-0.0058580795
126	0x3d325552	0.0435384
127	0x3cf0849c	0.029360108
128	0x3c814959	0.015782045
129	0x3d250bb9	0.040294383
130	0xbd78d161	-0.060746554
131	0x3d102b6a	0.035197653
132	0x3d15cdd3	0.036573242
133	0x3b5fa6d9	0.0034126549
134	0xbd6e9726	-0.058249615
135	0xbdbbfa6f	-0.09178626
136	0xbd813afd	-0.06310079
137	0x3c9e5d7e	0.01933169
138	0xbbff16be	-0.0077846935
139	0xbcd9c610	-0.026583701
140	0xbd559c15	-0.052150805
141	0xbd876dfe	-0.06612776
142	0xbd8afd9d	-0.06786654
143	0xbdb1882a	-0.08668549
144	0x3c8c1a95	0.017102519
145	0xbc32bef9	-0.010909789
146	0x3d2cf49d	0.04222547
147	0x3d2877a8	0.041129738
148	0xbd39bc1d	-0.045345414
149	0xbd238437	-0.03992101
150	0x3c3f450d	0.011674178
151	0xbd6ffee3	-0.05859269
152	0xbd2ff656	-0.042959534
153	0x3c80dc73	0.015730118
154	0x3c1a75bc	0.009427484
155	0xbc2ebb0b	-0.010664712
156	0x3c815b6f	0.01579067
157	0xbc1bfca9	-0.009520688
158	0x3a6bcfe0	0.00089955144
159	0x3d1bbb48	0.038020402
160	0xbd481eb3	-0.048857402
161	0xbcc9fee2	-0.02465767
162	0xbd0a74e1	-0.03380287
163	0xbd3cb34e	-0.046069436
164	0xbd3564ed	-0.044285703
165	0xbbdb5401	-0.0066933637
166	0x3be9a294	0.0071299765
167	0xbc8ee049	-0.017440932
168	0xbd2a2c0f	-0.041545924
169	0xbce70536	-0.028200727
170	0xbc1ce01b	-0.009574915
171	0x3bff23e7	0.0077862623
172	0xbd56fdd2	-0.052488156
173	0xbd1e4ae6	-0.038645647
174	0xbc379919	-0.011205935
175	0xbdb0bed0	-0.086301446
176	0xbd370cc7	-0.04468992
177	0xbda2b74f	-0.079451196
178	0xbcfb4850	-0.03067413
179	0x3bf70d07	0.007539395
180	0xbb8217b8	-0.0039701127
181	0x3d314bd9	0.043285225
182	0x3db0f578	0.086405694
183	0xbd7fdb80	-0.06246519
184	0x3d7961af	0.060884174
185	0x3cb5f608	0.022212043
186	0x3ca2405c	0.01980608
187	0x3d185015	0.037185747
188	0x3b979b2d	0.0046266527
189	0x3ce3a0ab	0.027786573
190	0xbc84a0d3	-0.016189968
191	0xbca27644	-0.019831784
192	0xbd126ef9	-0.035750363
193	0x3cd28e8e	0.025702741
194	0x3cbd7e3c	0.023131482
195	0xbbb010d6	-0.0053731008
196	0xbccdd387	-0.025125278
197	0xbc59c004	-0.013290409
198	0x3c4cdab5	0.012503316
199	0xbc092342	-0.0083702225
200	0x3c839b03	0.016065126
201	0x3d9c4c74	0.0763177
202	0xbd27f3e9	-0.041004095
203	0x3d1ce0ff	0.03830051
204	0x3d11983b	0.03554557
205	0xbcb2bb4a	-0.021817822
206	0x3d2626d4	0.040564373
207	0x3bc26688	0.005932633
208	0xbbdc0a59	-0.0067151007
209	0x3c981a64	0.018567272
210	0x3d059512	0.032612868
211	0x3c02d248	0.007984705
212	0x3ccddb9b	0.02512913
213	0x3d2b5131	0.041825477
214	0xbce227de	-0.0276069
215	0x3d760ae6	0.060068987
216	0x3d252b9b	0.04032479
217	0xbd4cdd15	-0.050015528
218	0xbd3d58f2	-0.046227403
219	0xbd83befe	-0.06432913
220	0xbc684753	-0.014177161
221	0x3cc17a44	0.023617871
222	0xbd283d4b	-0.04107408
223	0xbcd708cd	-0.026249314
224	0x3c1d1c6e	0.009589298
225	0x3cfba894	0.030720033
226	0xbd770c7c	-0.06031464
227	0xbcf8b73c	-0.03036081
228	0xbd273c6d	-0.04082911
229	0xbcafad96	-0.021445077
230	0x3cc10427	0.02356155
231	0xbc540631	-0.012940929
232	0xbda60712	-0.08106817
233	0x3c73ac2e	0.014872594
234	0x3d301558	0.042989105
235	0x3d1952a8	0.037432343
236	0xbd97f801	-0.0742035
237	0xbcb1e97d	-0.021717781
238	0x3d0102e6	0.031496905
239	0xbd98abc8	-0.0745464
240	0xbd0ab910	-0.033867896
241	0x3d5c86a3	0.053839337
242	0xbccc5859	-0.024944471
243	0x3c6ed7c0	0.014577806
244	0x3d0a9ff8	0.033843964
245	0x3c825472	0.015909407
246	0x3d091e11	0.03347594
247	0x3d95d339	0.07315678
248	0x3cab7ad1	0.020932587
249	0x3cc562e8	0.024095014
250	0xbce73ae9	-0.028226333
251	0x3d234a3f	0.03986573
252	0x3d7129a8	0.058877617
253	0x3d928c0a	0.071556166
254	0x3df33f8d	0.11877356
255	0x3db3ca23	0.08778789

conv4.bias f4 [32]
0	0xbd3c0949	-0.045907293
1	0xbc9d79d4	-0.019223131
2	0x3ce8acec	0.028402768
3	0xbc8fe5f7	-0.01756571
4	0xbc692fb0	-0.014232561
5	0x3d45c544	0.04828383
6	0x3d181834	0.037132457
7	0xbbaeaef3	-0.005330914
8	0xbc8d0ab4	-0.017217018
9	0x3cb7e638	0.022448644
10	0xbd566b2c	-0.0523483
11	0xbd54a879	-0.05191848
12	0x3bb9ac18	0.005666267
13	0x3d1b4f6d	0.037917543
14	0x3b65144a	0.003495472
15	0xbb384f58	-0.0028123464
16	0xbca53108	-0.020164981
17	0x3cdea299	0.027177142
18	0x3cb37aa0	0.021909058
19	0x3d405f51	0.0469659
20	0x3d49903d	0.049209822
21	0x3d40402a	0.04693619
22	0xbcffa367	-0.031205846
23	0xbd3526fa	-0.044226624
24	0xbd6bcee1	-0.057570342
25	0x3bcb5496	0.006205152
26	0xbd30cd09	-0.043164287
27	0xbb749889	-0.0037322363
28	0xbd3b66ec	-0.04575245
29	0x3d064a54	0.03278573
30	0xbc222fbf	-0.009899079
31	0x3d6e354a	0.05815629

bn21.weight f4 [32]
0	0x3f81c697	1.013873
1	0x3f7f86a0	0.99814796
2	0x3f804b97	1.0023068
3	0x3f80660b	1.0031141
4	0x3f7d4571	0.98934084
5	0x3f80fcae	1.0077112
6	0x3f81b274	1.0132585
7	0x3f824867	1.0178345
8	0x3f7b99ef	0.9828176
9	0x3f81178e	1.0085313
10	0x3f7f248f	0.9966516
11	0x3f7be8fa	0.9840237
12	0x3f80f38b	1.0074323
13	0x3f6d6396	0.9273008
14	0x3f78c029	0.97168213
15	0x3f80734c	1.0035186
16	0x3f7d3b5d	0.98918706
17	0x3f79c092	0.97559464
18	0x3f7ca33e	0.9868659
19	0x3f821800	1.0163574
20	0x3f810a63	1.0081295
21	0x3f8015e1	1.0006677
22	0x3f7d2af8	0.9889369
23	0x3f8273c4	1.0191579
24	0x3f7d30a2	0.9890233
25	0x3f83a265	1.0283934
26	0x3f75a772	0.95958626
27	0x3f7e89c5	0.9942897
28	0x3f840289	1.0313274
29	0x3f77e1a1	0.9682866
30	0x3f7c89a0	0.986475
31	0x3f829e8e	1.0204637

bn21.bias f4 [32]
0	0xbcbc5750	-0.022990853
1	0xbd2c5257	-0.042070713
2	0xbddf169d	-0.10892985
3	0xbc0cfd7f	-0.00860536
4	0x3c3e5a6c	0.011618238
5	0xbbfe641f	-0.0077634
6	0xbd95d739	-0.07316441
7	0xbcc0124e	-0.023446228
8	0xbc1dbc92	-0.009627478
9	0xbdc6aea4	-0.09701279
10	0xbcbfeb2d	-0.02342757
11	0xbd0688e4	-0.032845393
12	0xbd11e50e	-0.035618834
13	0xbd39b7e8	-0.045341402
14	0xbd1e5f63	-0.038665187
15	0xbd40c343	-0.047061216
16	0xbdb5fdb0	-0.08886278
17	0xbd0e2929	-0.034707222
18	0xbc969e5f	-0.018386064
19	0xbc61cb37	-0.01378136
20	0xbbfcc9db	-0.0077144927
21	0x3999db52	0.0002934584
22	0xbd58c54c	-0.052922532
23	0x3c8ed56a	0.017435748
24	0xbd22d6be	-0.039755575
25	0xbb840544	-0.004028948
26	0xbe22dc96	-0.1590446
27	0x3c0a7d80	0.008452773
28	0x3d83ae8d	0.06429777
29	0xbce1108f	-0.027473716
30	0xbcfced4b	-0.030874869
31	0xbc9bfcd7	-0.019041462

bn21.running_mean f4 [32]
0	0xbd1836b7	-0.037161555
1	0x3f37e3ee	0.7183217
2	0x3e032d58	0.12810266
3	0x3f576ede	0.84153545
4	0x3f9342ae	1.1504724
5	0xc000f1ce	-2.0147586
6	0x3e291231	0.16510846
7	0xbe993eec	-0.29930818
8	0x3f3670b8	0.71265745
9	0x3fafe23f	1.374092
10	0x3fbfa7f4	1.497313
11	0x3ef2b355	0.47402444
12	0xbf8681b6	-1.0508335
13	0x3f66fbe0	0.9022808
14	0xbeec0e7f	-0.4610481
15	0xbf8d06fa	-1.1017754
16	0x3ef26e13	0.47349605
17	0x3f44118f	0.7658929
18	0x3efc2c73	0.49252662
19	0xbfc6c4e7	-1.552884
20	0x3f0ef4a5	0.5584205
21	0x3f831c44	1.0243001
22	0x3f45d245	0.7727397
23	0x3f9effe4	1.2421842
24	0x3ddb72ff	0.10715293
25	0xbfa7e262	-1.3115962
26	0x3db5ddba	0.088801816
27	0x3f186650	0.59531116
28	0x3d39cb58	0.04535994
29	0x3f7ae6aa	0.98008215
30	0x3f477ff1	0.779296
31	0x3f456223	0.7710287

bn21.running_var f4 [32]
0	0x3db6be42	0.089230075
1	0x3e1a630b	0.15076844
2	0x3df9f4c9	0.12204892
3	0x3e463e7b	0.19359772
4	0x3eaad396	0.33364552
5	0x3f7f6e66	0.9977783
6	0x3deab4da	0.11460276
7	0x3e9e36e2	0.30901247
8	0x3de9704e	0.113983735
9	0x3f0cc502	0.5498811
10	0x3eb8ccec	0.36093843
11	0x3e90dc52	0.2829309
12	0x3e71c7c1	0.23611356
13	0x3e349569	0.1763512
14	0x3e500db2	0.20317724
15	0x3e1d3440	0.15351963
16	0x3e4b2740	0.19839191
17	0x3df65197	0.12027281
18	0x3e0d7f27	0.13818036
19	0x3f07798c	0.5291984
20	0x3ded51d8	0.11587876
21	0x3ef7fd2b	0.4843534
22	0x3dfec253	0.12439408
23	0x3e9b750b	0.30362734
24	0x3e2e7d38	0.17039955
25	0x3f0fb495	0.5613492
26	0x3ddaf134	0.10690537
27	0x3e04dd4b	0.12975042
28	0x3d92f7ad	0.07176147
29	0x3e2183ce	0.15772936
30	0x3e492feb	0.19647186
31	0x3e5770c5	0.21039112

bn22.weight f4 [32]
0	0x3f7f16d6	0.9964422
1	0x3f80add8	1.0053053
2	0x3f7e6a7c	0.9938123
3	0x3f792d14	0.9733441
4	0x3f8020fb	1.0010065
5	0x3f7b37c4	0.98131967
6	0x3f84a246	1.0362022
7	0x3f7799a6	0.96718824
8	0x3f814062	1.0097773
9	0x3f843a5d	1.0330311
10	0x3f7b3b94	0.98137784
11	0x3f83dc31	1.0301572
12	0x3f837b28	1.0271959
13	0x3f752815	0.95764285
14	0x3f80715a	1.0034592
15	0x3f803e5e	1.0019033
16	0x3f7d7530	0.9900694
17	0x3f7cf6b9	0.9881397
18	0x3f7f8563	0.99812907
19	0x3f802795	1.001208
20	0x3f817940	1.0115128
21	0x3f7ec3b8	0.99517393
22	0x3f7d3d2c	0.98921466
23	0x3f7a74f2	0.97834694
24	0x3f832824	1.0246625
25	0x3f80342f	1.0015925
26	0x3f7f92a2	0.9983312
27	0x3f7d4440	0.98932266
28	0x3f7b5775	0.98180324
29	0x3f756a11	0.9586497
30	0x3f7b17ea	0.98083365
31	0x3f801e7c	1.0009303

bn22.bias f4 [32]
0	0x3ab2c258	0.0013638241
1	0xbe493ff6	-0.19653305
2	0xbe41bb36	-0.18919072
3	0x3d0952fd	0.03352641
4	0x3d0a4741	0.03375936
5	0x3e112828	0.14175475
6	0x3c3fce81	0.011706949
7	0xbc08320f	-0.008312716
8	0xbd8d2518	-0.06891841
9	0x3c8aab0b	0.016927263
10	0xbc83cb7f	-0.016088245
11	0xbe8b7575	-0.2723805
12	0x3cd5d171	0.026100846
13	0xbda5e9c9	-0.081012316
14	0x3b7b6199	0.0038357733
15	0x3c2661e1	0.010155172
16	0xbc21be9e	-0.009872107
17	0xbd11c64c	-0.0355895
18	0x3d28d4de	0.04121863
19	0xbb587d31	-0.0033033604
20	0x3cfd127f	0.030892609
21	0xbd2e5438	-0.042560786
22	0x3c0c362d	0.008557838
23	0xbbadc48d	-0.0053029717
24	0x3d149541	0.036275152
25	0xbb457978	-0.0030132215
26	0xbd34a804	-0.044105545
27	0xbd821d22	-0.06353213
28	0xbd11316b	-0.03544752
29	0xbcbf3910	-0.02334264
30	0xbdccc1d1	-0.09997905
31	0x3bc16d57	0.005902927

bn22.running_mean f4 [32]
0	0xbd9e085a	-0.07716437
1	0x3f08d351	0.53447443
2	0x3f15d454	0.5852711
3	0xbdc781a7	-0.09741526
4	0xbf596fd3	-0.84936255
5	0xbf5edf17	-0.8705916
6	0xbefb66b8	-0.49101806
7	0x3cea7272	0.028619025
8	0x3f1520b3	0.5825302
9	0x3e86430b	0.26223025
10	0xbdc50e17	-0.09621828
11	0x3e03023f	0.12793826
12	0x3dfa17e0	0.12211585
13	0x3f2345de	0.63778484
14	0xbf17840b	-0.59185857
15	0xbfd4b8da	-1.6618912
16	0x3f0f0210	0.5586252
17	0x3ea2f3fc	0.3182677
18	0xbfade11f	-1.3584327
19	0x3e25f064	0.16204983
20	0x3e2b1c69	0.16710056
21	0x3e9373ae	0.28799194
22	0xbe310639	-0.1728753
23	0x3c2316ac	0.009954136
24	0xbe97d2bb	-0.29652962
25	0xbf137238	-0.5759616
26	0x3ec14ed8	0.37755466
27	0x3f8db709	1.1071483
28	0x3dba0bab	0.09084257
29	0x3e5f2533	0.21791534
30	0xbe58b9e6	-0.21164665
31	0xbd70fc7b	-0.058834534

bn22.running_var f4 [32]
0	0x3fa19c97	1.2625912
1	0x3ee44862	0.44586474
2	0x3e8de3b1	0.27712777
3	0x3ece24ea	0.40262538
4	0x3f37b949	0.717671
5	0x3f53b493	0.8269741
6	0x3f4e6aa2	0.8063146
7	0x3f0b3756	0.5438131
8	0x3f28564a	0.65756667
9	0x3f1268dc	0.5719125
10	0x3e9e320a	0.30897552
11	0x3e81a04d	0.25317612
12	0x3fd39563	1.6529964
13	0x3ee51b0f	0.44747207
14	0x3f26fe32	0.6523162
15	0x3f94c589	1.1622783
16	0x3f0b30f9	0.543716
17	0x3e9875c1	0.2977734
18	0x3f14ea14	0.58169675
19	0x3ea6dbdc	0.32589614
20	0x3f5d1310	0.8635721
21	0x3edd74ff	0.43253323
22	0x3e994b96	0.2994048
23	0x3f673633	0.90317076
24	0x3f8b2543	1.0870746
25	0x3f40d36b	0.753226
26	0x3f56f923	0.839739
27	0x3f037af4	0.51359487
28	0x3eef422a	0.46730167
29	0x3efccdbf	0.49375722
30	0x3eb84a63	0.35994253
31	0x3f252400	0.64508057

conv5.weight f4 [64, 32, 3, 3]
0	0x3c8c1974	0.01710198
1	0xbc9336ef	-0.01797053
2	0x3cdb30a4	0.026756592
3	0xbc678ddb	-0.014132942
4	0xbb5d78cf	-0.0033793931
5	0x3c60ca87	0.013720161
6	0x3cf44483	0.029817825
7	0x3b776c32	0.0037753698
8	0xbd0936fc	-0.033499703
9	0xbb728133	-0.0037003278
10	0x3d54204e	0.05178862
11	0x3cb020da	0.02150004
12	0xbc78408b	-0.015152107
13	0xbc674d0b	-0.01411749
14	0x3cb9470e	0.02261689
15	0xbd4da9c1	-0.050210718
16	0xbd200d34	-0.03907509
17	0x3d607564	0.054799452
18	0x3cfa9eeb	0.030593356
19	0x3c91771a	0.017756987
20	0x3c624481	0.013810278
21	0x3d6fcfc2	0.058547743
22	0xbd462521	-0.048375253
23	0xbcafd5de	-0.021464285
24	0x3d5fd4e7	0.0546464
25	0x3d80d349	0.062902994
26	0xbb2dfe4a	-0.0026549273
27	0x3c05f2d9	0.008175575
28	0x3d6501eb	0.055910032
29	0xbb8a9bc2	-0.0042299936
30	0x3d1ba35b	0.037997585
31	0x3d2e492f	0.042550262
32	0x3cb4945c	0.0220434
33	0x3ce2acde	0.02767032
34	0x3d832c39	0.06404919
35	0x3caa8b1c	0.020818286
36	0x3d228d78	0.039685696
37	0xbd898578	-0.0671491
38	0x3d0d2306	0.03445723
39	0x3d4923dc	0.049106464
40	0xbc74bc92	-0.014937537
41	0xbcc2a048	-0.023758069
42	0xbc11c52f	-0.00889711
43	0x3d6acf13	0.057326388
44	0x3d29a4ee	0.041417055
45	0xbc929732	-0.017894361
46	0x3c13ff41	0.009033025
47	0xbd5538d6	-0.052056156
48	0xbd5d3f69	-0.05401555
49	0xbd68402d	-0.056701828
50	0xbce0267f	-0.027362106
51	0x3cf8fdeb	0.030394515
52	0x3c4663ee	0.012108786
53	0x3cea54f0	0.028604954
54	0x3cc7727c	0.024346583
55	0x3d10bf5f	0.035338756
56	0xbd3bf3a1	-0.04588664
57	0xbc8f3c41	-0.017484786
58	0xbd238193	-0.039918493
59	0xbc0b01c1	-0.008484305
60	0xbaa5602f	-0.0012617166
61	0x3d8d09fb	0.06886669
62	0xbd0e7638	-0.03478071
63	0x3c8b8e0e	0.01703551
64	0xbc685a9e	-0.014181761
65	0x3c8f8612	0.017519984
66	0x3c5856a9	0.013204255
67	0xbcaab459	-0.02083795
68	0xbcb28685	-0.02179266
69	0x3d12a176	0.035798512
70	0xbcb7e0a1	-0.022445979
71	0xbc9c8aea	-0.019109208
72	0x3d58937a	0.05287502
73	0xbd55a88e	-0.0521627
74	0x3b90949d	0.0044122473
75	0xbbcfc599	-0.006340694
76	0x3cee2cac	0.029074036
77	0xbd11fec5	-0.035643358
78	0x3cca4c22	0.024694506
79	0xbd161502	-0.03664113
80	0x3d82a7e8	0.06379682
81	0x3b95cb6a	0.004571368
82	0x3cf9de43	0.03050149
83	0x3b9aa9ed	0.0047199638
84	0x3d13e0b7	0.036102977
85	0x3d292a8b	0.041300338
86	0x3c3d5989	0.011556991
87	0x3cadd8d5	0.021221558
88	0xbcef8e12	-0.02924255
89	0x3d68cd2d	0.056836296
90	0xbd5ff446	-0.054676317
91	0x3c9dd5eb	0.019267043
92	0xbc141780	-0.009038806
93	0xbd5f25be	-0.054479353
94	0xbd2a4588	-0.041570216
95	0x3d132956	0.035928093
96	0x3cd54c54	0.026037373
97	0x3cfc0142	0.030762319
98	0x3d155505	0.036458034
99	0x3dd9ee60	0.106411695
100	0x3dbbb356	0.09165065
101	0x3cac901e	0.021064814
102	0x3db779b0	0.08958757
103	0x3d10e1e2	0.03537167
104	0x3d5789f9	0.052621815
105	0x3c4e0e3d	0.012576637
106	0x3cbf5605	0.023356447
107	0xbca28a55	-0.019841352
108	0xbd200854	-0.039070442
109	0xbd2ce4cf	-0.042210396
110	0x3d01f95f	0.03173196
111	0xbcde353d	-0.027124995
112	0x3c48d11d	0.012256888
113	0x3c366ca0	0.011134297
114	0xbd178b4c	-0.03699808
115	0x3c92483a	0.017856706
116	0x3c13229a	0.008980418
117	0xbbddb877	-0.0067663747
118	0x3d95732e	0.072973594
119	0x3d9777b2	0.07395877
120	0xbbc00b82	-0.005860747
121	0xbd7a61c0	-0.061128378
122	0xbc91af96	-0.017783921
123	0x3d65162b	0.055929344
124	0xbc23187e	-0.00995457
125	0x3d3f8a13	0.046762537
126	0x387a354a	5.9654274e-05
127	0xbce3972a	-0.027782042
128	0xb8ad6078	-8.2672515e-05
129	0xbd30c903	-0.04316045
130	0xbc833c38	-0.016019925
131	0x3d17e082	0.03707934
132	0xbd261776	-0.040549718
133	0x3c9fb638	0.019496068
134	0xbc2321a2	-0.009956749
135	0x3d32f1a9	0.043687496
136	0x3ca89b41	0.020581843
137	0x3c1eb450	0.009686545
138	0x3c037482	0.008023383
139	0xbc8458ac	-0.016155563
140	0x3d714bad	0.05891006
141	0x3cbaf0aa	0.022819836
142	0x3b9a953c	0.004717497
143	0x3d2f8ab6	0.042856894
144	0x3d40d3f5	0.047077138
145	0x3ba28903	0.0049601807
146	0xbd4e2151	-0.05032474
147	0xbc86eb21	-0.01646954
148	0xbd8079ba	-0.062732175
149	0xbc083051	-0.008312301
150	0xbc8d725e	-0.017266449
151	0xbd2131a7	-0.039353993
152	0xbd5ad71b	-0.053427797
153	0xbd59a68b	-0.053137343
154	0x3c38df0f	0.01128365
155	0xbc2e38e2	-0.010633679
156	0xbd0ce2cb	-0.034395974
157	0xbd22afa6	-0.039718293
158	0x3c30c7d0	0.0107898265
159	0xbbca109c	-0.006166531
160	0xbcb28cc3	-0.021795636
161	0x3d0881aa	0.033326782
162	0x3c56fcd7	0.013121805
163	0x3cbcdd1d	0.023054654
164	0x3bb18d02	0.005418421
165	0xbd099307	-0.03358748
166	0x3e13374d	0.14376564
167	0x3c0f907e	0.008762477
168	0x3d0dbb51	0.034602467
169	0x3d399581	0.045308594
170	0x3dbb5849	0.091476984
171	0x3d5346a6	0.051581047
172	0x3d7b19a1	0.06130374
173	0x3cdba94f	0.026814131
174	0x3cf4c855	0.029880682
175	0xbc387094	-0.0112573095
176	0x3d25e219	0.040498827
177	0x3d403aab	0.04693095
178	0x3ceb3066	0.028709602
179	0xbcc14bfe	-0.023595806
180	0xbd0afc90	-0.03393227
181	0xbd4bdf6a	-0.04977361
182	0x3d4717d6	0.048606716
183	0x3cd59d08	0.026075855
184	0xbcc2640e	-0.02372935
185	0x3d1f77d4	0.038932636
186	0x3bede2b8	0.007259693
187	0xbc1fc693	-0.009751934
188	0x3ceefe58	0.029174015
189	0xbb4ccbbf	-0.0031249372
190	0xbd069950	-0.032861054
191	0x3d3408b3	0.04395361
192	0xbcd9c37c	-0.026582472
193	0x3d156258	0.03647074
194	0xbc147423	-0.009060892
195	0x3d49fdf2	0.049314447
196	0x3bb44af0	0.0055020973
197	0x3d16aa7c	0.03678368
198	0x3d5f42a3	0.05450691
199	0xbd200588	-0.039067775
200	0xbda675c0	-0.08127928
201	0xbd8522a5	-0.065007485
202	0xbd5aad1e	-0.053387754
203	0xbba15a8e	-0.004924125
204	0xbd39ab61	-0.045329455
205	0x3c8a9e43	0.016921168
206	0x3cfa982d	0.030590141
207	0x3d1f6730	0.038916767
208	0xbd266845	-0.040626783
209	0x3d111e3f	0.035429236
210	0xbc79dc7c	-0.0152503215
211	0x3c3ac6fb	0.01139998
212	0x3c2b8593	0.010468858
213	0x3c2d7af9	0.010588401
214	0x3d425740	0.04744649
215	0x3d838366	0.06421547
216	0xbcc0568c	-0.023478769
217	0xbb681365	-0.003541195
218	0x3c94d839	0.01816951
219	0xbd4a7bd4	-0.049434498
220	0xbc4cc9b6	-0.0124992635
221	0x3ca3e425	0.020006249
222	0xbca821f7	-0.020524008
223	0x3d107ad7	0.0352734
224	0x3d36b4ee	0.04460614
225	0x3d7b67bb	0.061378222
226	0xbc780a75	-0.015139212
227	0xbcd8879c	-0.026431851
228	0xbd014f01	-0.031569485
229	0xbcc6c2d4	-0.024262823
230	0x3cf660b2	0.030075405
231	0x3c0d60df	0.008629053
232	0x3d3d4493	0.046207976
233	0xbc8cc232	-0.017182443
234	0xbc5cdc3c	-0.013480242
235	0x3d368529	0.044560585
236	0xbcc51f56	-0.024062794
237	0x3c1e2fe0	0.009654969
238	0x3d082e3c	0.033247218
239	0xbcf1c40f	-0.029512433
240	0x3d84be76	0.0648164
241	0x3c2b02ab	0.010437648
242	0xbc361cab	-0.011115233
243	0xbd11e52e	-0.035618953
244	0xbd201e31	-0.039091293
245	0x3cca1aca	0.024670977
246	0xbd6136d9	-0.054983947
247	0xbd522a48	-0.051309854
248	0xbcaf1f63	-0.021377271
249	0x3b8f44e2	0.004372225
250	0x3d0fe5fb	0.035131436
251	0xbcc3571e	-0.023845252
252	0x3db5565d	0.08854363
253	0xbcb1e2f7	-0.02171467
254	0xbd550190	-0.052003443
255	0x3cdcbe67	0.02694626

conv5.bias f4 [64]
0	0x3d36f8e9	0.044670973
1	0xbd1bc4c4	-0.038029447
2	0xbd00883b	-0.03137992
3	0x3d692f75	0.056930024
4	0x3c86be94	0.016448297
5	0xbd43cf30	-0.04780501
6	0x3c7caa52	0.015421467
7	0xbd1f323b	-0.038866263
8	0xbd344a08	-0.044015914
9	0xbcdbfd98	-0.026854321
10	0xbccbfbd2	-0.02490035
11	0x3c125537	0.00893145
12	0xbd076ac0	-0.03306079
13	0xbd6d2423	-0.05789579
14	0xbb73ab7a	-0.0037181065
15	0xbd0255c6	-0.03182008
16	0xbd5e9db0	-0.0543496
17	0x3becd0aa	0.007227023
18	0xbc530b0c	-0.012881052
19	0x3d7032e1	0.058642272
20	0xbca92d0a	-0.02065136
21	0x3ceabed6	0.02865545
22	0xbd6f0421	-0.058353547
23	0x3d60d831	0.054893676
24	0x3cbae568	0.022814468
25	0x3c85b71d	0.016322667
26	0x3ca4da2a	0.02012356
27	0x3c204fe9	0.009784677
28	0xbcc800f7	-0.024414523
29	0xbccce6e5	-0.025012443
30	0x3d4fdd9d	0.050748456
31	0x3c34aad5	0.011027058
32	0xbd001472	-0.0312695
33	0x3d405d6e	0.0469641
34	0x3c1382e0	0.009003371
35	0x3ced90a3	0.028999632
36	0xbd1d8905	-0.03846075
37	0x3b3cdf74	0.0028819712
38	0x3d2a71c6	0.04161241
39	0x3c98c292	0.018647466
40	0xbd47a979	-0.048745606
41	0xbca479b2	-0.02007756
42	0xbd2bdba1	-0.0419575
43	0xbd5adeec	-0.05343525
44	0xbc29e02b	-0.010368387
45	0x3bdb2bb3	0.006688559
46	0x3c055234	0.0081372745
47	0xbaf287a1	-0.0018503555
48	0xbd3e7c9e	-0.046505563
49	0x3d0b51f7	0.034013715
50	0x3d682aaa	0.056681313
51	0x3cf9a9ba	0.03047644
52	0x3c351bc5	0.011053984
53	0xbd074da4	-0.03303303
54	0xbd72de5f	-0.0592941
55	0xbca5c01b	-0.020233205
56	0x3b0ecb98	0.0021788832
57	0x3c8639a0	0.0163849
58	0xbd161643	-0.036642324
59	0xbd4e8b0d	-0.050425578
60	0xbd2ab4e2	-0.04167641
61	0x3a5b59c7	0.0008367565
62	0xbcd2ebcb	-0.0257472
63	0x3d678ef1	0.056532804
