checkpoints/best_model_1907_1.pth (torch, 370843 bytes, 38 tensors)

conv1.weight f4 [16, 1, 3, 3]
00000000: 1b99 013f 93ba 87bf 5a08 3b3f 1867 f8bf
00000010: 813b 183f 4880 c6be a9f3 0ec0 95bc 43be
00000020: d7f8 253f e519 a33e 239f b23e 35f9 82bf
00000030: 56ff d5bf 3cd2 adbf e55d 39bf 606e 0ac0
00000040: 8db0 66bc 3395 083f 4e67 a8bf 6e74 23bf
00000050: 4cf2 193f 2d03 2dbf fcb0 05c0 ad99 ccbe
00000060: b5e0 253f 4ef4 9fbe bd73 a6bf 3390 c9be
00000070: 8e4b 2ec0 e85c 8bbf 281c 463e 2d28 61be
00000080: 0ff6 56bf ceda 8b3f 8e6a 073f 106d d03e
00000090: 5195 913e 8e04 3ebf 8817 083f b7ec ccbd
000000a0: 7e78 0340 3646 a1bf 0372 19c0 0574 bcbf
000000b0: d669 7a3f 2a05 96bf 0c2b 1cc0 49c0 163e
000000c0: 080b f63e a82d dc3f b0e3 763f c7a6 a83e
000000d0: d02b bfbf f6f3 19bf 0c76 2ec0 f4eb 4dc0
000000e0: 6a14 fc3e 22f4 ea3e 86ca ee3d 0ccb f23e
000000f0: a24f 303d ba6b c63e e209 28be 515c cb3d
00000100: 067b efbe 10a4 c53d 0200 84bc 3e92 8fbd
00000110: d4fc 703d 9f25 f43d 4069 0cc1 1b16 2f3e
00000120: 88e0 a93e 5ebd 26be e40c 6c3d ea76 ef3e
00000130: 04df 3bc0 d542 b8bf 5678 f33e 7173 d3bf
00000140: b2ea cb3e 30dd 113f f6e1 e93e 7543 7e3e
00000150: 1835 fcbe 5347 20be bd2c 173e b7b5 12c0
00000160: eb28 23c0 e3ba 3ebd 31a9 d5be 3c0f 8e3f
00000170: ca04 03bf 0023 823f d28e ee3d 424c d9bf
00000180: ae7e cb3e a951 28bf 7711 f9bf c185 123f
00000190: 477c fbbf 3ab3 853e a943 e83c d3c0 f6bf
000001a0: 8424 9a3e ebb2 67bd 7c20 98be b725 3c3f
000001b0: 1c9e cdbf dfd3 f43d e7cd 39be 3e38 11c0
000001c0: f03b d2bf 4bf8 d0bf 6517 563f 6e1f 3f3f
000001d0: 1340 28bf 64e6 3fbf 8d75 993f a78d 4f3d
000001e0: 2672 82bf 348c 4d3f ecfa 2f3f ac7f 0fc0
000001f0: 0def e13e 422f 2dbf 472c b13e 374e 30bc
00000200: 2d96 2b3f b3cc 823b d55c 4bbf 9c15 0cc0
00000210: fa74 c03e 8c24 ac3d 8deb 19c0 af24 8c3e
00000220: 593e d53e e696 a2bf 35b4 91bf fe99 20c0
00000230: d135 24bf a321 b9bf 0921 0abf e30e 0d3f
0.50624245 -1.0603813 0.7305962 -1.9406462 0.59465796 -0.38769746 -2.2336218 -0.19114907
0.64832824 0.31855693 0.34887037 -1.0232302 -1.6718547 -1.3579783 -0.72408897 -2.1629868
-0.014080179 0.5335266 -1.3156526 -0.6384953 0.6013534 -0.6758297 -2.0889273 -0.39960995
0.64796 -0.31241077 -1.300407 -0.39367828 -2.7233615 -1.0887728 0.19346678 -0.21987982
-0.83969206 1.0926149 0.52896965 0.40708208 0.28434232 -0.742257 0.53160906 -0.10006087
2.0542293 -1.2599552 -2.3975837 -1.4722906 0.9781774 -1.1720326 -2.4401274 0.14721788
0.4805529 1.7201433 0.96441174 0.3293974 -1.4935246 -0.6013788 -2.725955 -3.2175264
0.49234325 0.45889384 0.11659722 0.47420537 0.043044694 0.38754064 -0.1641002 0.09929717
-0.46773547 0.09650433 -0.016113285 -0.07010315 0.058834866 0.11921238 -8.775696 0.17098276
0.33179116 -0.16283175 0.05762948 0.46770412 -2.9354868 -1.4395396 0.47552747 -1.6519605
0.39827496 0.5697813 0.45680207 0.2483042 -0.49259257 -0.15652208 0.1476316 -2.292341
-2.5493724 -0.046564948 -0.41730645 1.1098399 -0.5117918 1.0166931 0.116483346 -1.6976397
0.39745086 -0.65749604 -1.9458455 0.5723534 -1.9647301 0.26113302 0.028352575 -1.9277595
0.30105984 -0.056567114 -0.29712284 0.7349505 -1.6063876 0.11954474 -0.18144952 -2.2690578
-1.6424541 -1.6325773 0.8362945 0.7465733 -0.6572277 -0.74960923 1.1988999 0.0506722
-1.0191085 0.8029206 0.6874225 -2.2421675 0.44127694 -0.67650235 0.34604093 -0.010760835
0.67026025 0.003991687 -0.79438525 -2.188819 0.37589246 0.08405408 -2.4050019 0.27371737
0.4164913 -1.27023 -1.138312 -2.509399 -0.6414462 -1.446339 -0.5395666 0.5510084

conv1.bias f4 [16]
00000000: 6506 84bf 54b1 77be 3486 11bf c5e6 3fbf
00000010: 1046 dc3c e52a 7cbf 02e1 c0bf d77d 17bf
00000020: 3eef cc3f dcc2 0a3f 45f5 cabf 3343 a2bf
00000030: b24c 173f 4af3 97be e6fd 843f eeb3 dbbf
-1.0314451 -0.24188739 -0.568454 -0.749615 0.026888877 -0.9850295 -1.5068667 -0.5917639
1.6010511 0.5420358 -1.58561 -1.2676758 0.591014 -0.29677802 1.0389984 -1.7164285

conv2.weight f4 [16, 16, 3, 3]
00000000: 3191 2cbe 8b83 10c0 da7e b33e e647 81bf
00000010: 190a f4be 02be 803f 8594 0abf f8ac 19be
00000020: e45c f03f f8d3 8fbf 0603 12bf 03f4 4a3f
00000030: 37d6 18bf e472 b83e 028e 6b40 7ef6 633f
00000040: 03a6 843f e473 b63d 4f12 253e 8f21 4e3f
00000050: 4f57 b13e e745 9c3f 20e0 16bf 4884 7ebe
00000060: eaba 90be 29b3 3fbf 42ae 1dbe 210b 86bf
00000070: 770a a8be 9cf9 d2bf 6593 35bf c74d 093e
00000080: 3d8d 293f 00f4 58bf 7c24 89be d362 5d3f
00000090: 44de b1be 7163 1dbf 9d81 36c0 9bb4 b3bf
000000a0: 4306 b3bd 79ca 82be 6e86 31be be8f 3a3d
000000b0: cb28 973e 2222 c33e a973 6c3d 27b7 523f
000000c0: 6028 e9bd c1ac b4bf be2b 4a3e 0726 35bf
000000d0: 57a6 683e 54fd c7bf 2f7e 11bf 5bd8 b6bf
000000e0: 8e86 92bf a0c0 80bf 2b66 7fc0 0291 9ebf
000000f0: fb4c 8dbf 7058 87bf 3e12 153e 8312 a73f
00000100: fc77 e33e 1c21 f93e 9421 643e c803 b6be
00000110: 42ad ba3e ccbd 63be 24eb 393e 99b7 4cbc
00000120: 8326 0c3e d2b7 bc3f 70ad 973f 8af1 e93e
00000130: 3195 6b3f 1191 50be 8eaa 773d 6731 ed3e
00000140: 0cc4 0b3d eba9 92bf d28c a83e 7bb7 723f
00000150: d1d7 66bf c3da abbf aa44 f33c bbeb 8bbd
00000160: f781 78bf b9e0 d9be b625 363f 2b63 1b40
00000170: 6e16 443e 235b ff3f ddb5 62be 3b8f 84bf
00000180: 83c9 a03e bdfa 66be 43b1 67bf c830 36c0
00000190: 5e0f f1bf 8772 843f ea9a 953d 8a02 4f3f
000001a0: 1c8a 873f 2b9d 19bf 5443 f13e eed2 5b3f
000001b0: d4b5 ccbd 1ef5 f53f 8175 1440 b2f4 05bf
000001c0: 3d5a ea3f 73b6 b43f a392 8f3f 2ca8 873f
000001d0: 5aa8 533f 4d96 bc3e 079d 133f c5d1 db3f
000001e0: bc2a 90bf d13f fabe 24fc 9ebf 0555 4bbf
000001f0: 2aa8 56bf c4a7 a43e 340b 413e 97af 8e3f
00000200: 9e04 53be 6890 313e 0c36 c83e 3c57 c2bf
00000210: 565d d73e 2fcd f83e 0f4c 7dbf ee9a 66bf
00000220: 6a5d bcbd cd91 703f 694b 953e 77c3 403f
00000230: 9532 0f3f 4a3b f13f 47ac e73e caa6 d73e
00000240: 77a1 9fbf 2c26 373f a98b b7be 6203 e6bf
00000250: b413 07c0 c0b9 d7bf f8d9 4f3f d862 43c0
00000260: 5e99 cd3e afb4 623f 3c94 db3f 4f81 6d3f
00000270: 04ad 233f 1c48 d23f f6f9 da3e 960c 7a3f
00000280: d1ac e33f 92b6 6d3f 864f 913f 03fd 013f
00000290: c925 8d3e 5b7a 0a3e 0a02 bcbe ac6c ec3e
000002a0: 883a 3b3f 1e80 b43e 1be5 4a3e 5625 c63e
000002b0: e6ef b53d cd84 edbc 5398 0dbf 37c5 483e
000002c0: 42ca babe 29b1 2dbe 8cf9 93bf f47f 00c0
000002d0: 27d6 4d3f 52b0 53bf 12ac e0be 39b5 84c0
000002e0: 7c90 dbbf e41c 823f 60c3 96c0 4919 8dbf
000002f0: 7cdb 39c0 f22e b23f 84fa 91be 093f fb3e
00000300: a706 1f3f 9f3a 4f3f 87c3 1b40 cc8d bfbf
00000310: b14c 85bf a318 353f 24b1 9f3d cf23 90be
00000320: e3f3 17bf e7b7 52be fdbb 613d 5821 4abf
00000330: 17b1 dbbf 5149 ffbf a7c5 44c0 2c21 d1be
00000340: 9041 babf dc49 e4bf a93d 8fbe 9e9e 0bbf
00000350: 8c02 f8bd 9e22 60bf 29c0 56bf 3228 603f
00000360: f129 e7be 9c63 9fbf a66a 97bf b40c a5bf
00000370: a880 10c0 9da5 20bf a2ae 22c0 4a45 55bf
00000380: 72c7 99bd 0e65 1e3f 8143 20be e40d 2fbf
00000390: 34d3 93bf f6f1 d2bf 2473 b9bf e7cd 75be
000003a0: 0e18 8dbf c37d e73f 5a7a bcbc 5a65 fb3e
000003b0: aa07 23bf 4a5b 5e3f acea d8bc 0aea 083f
000003c0: 339d 24bd bc2e 693f 86f9 cebe 869c 89be
000003d0: e45d dfbf 65a3 5d3f 7a7d d6bf b7d6 d0bf
000003e0: fc0b 333e 53b2 2ac0 5867 0bc0 ffb6 d4bf
000003f0: 171b df3e f91e 3ebf cee5 00c0 62da 483f
-0.16852261 -2.2580287 0.35057718 -1.0100067 -0.47663954 1.0057986 -0.5413287 -0.15007389
1.8778348 -1.1236563 -0.57035863 0.7927858 -0.59701866 0.36025155 3.6805425 0.8904799
1.0363163 0.08908823 0.16120265 0.80519956 0.34636924 1.2208833 -0.5893574 -0.24855149
-0.28267604 -0.7488275 -0.15398505 -1.0472146 -0.32820484 -1.6482425 -0.7092803 0.13408576
0.6623114 -0.84747314 -0.26785648 0.8647892 -0.34739888 -0.6147986 -2.851661 -1.4039491
-0.08741429 -0.255451 -0.17336437 0.04554724 0.2952331 0.3811198 0.05772749 0.8231072
-0.11384654 -1.411522 0.19743249 -0.7076115 0.22719704 -1.5624185 -0.56833166 -1.4284776
-1.1447313 -1.0058784 -3.9906108 -1.2388003 -1.1039118 -1.0573864 0.1455774 1.3052524
0.44427478 0.48658073 0.22278434 -0.3554976 0.3646031 -0.2224037 0.18156105 -0.012494945
0.13686566 1.4743598 1.1849804 0.45692092 0.92024523 -0.20367838 0.060465388 0.46326753
0.03412251 -1.1458105 0.32919937 0.9481122 -0.9017306 -1.3426136 0.029695828 -0.068320714
-0.9707331 -0.42554262 0.7115129 2.4279277 0.19149181 1.9949688 -0.22139688 -1.035621
0.3140374 -0.22556587 -0.90504855 -2.8467274 -1.8832815 1.0347451 0.07304938 0.8086325
1.0589023 -0.60005444 0.4712168 0.8586873 -0.099956185 1.9215429 2.3196719 -0.523265
1.8308789 1.4118179 1.1216625 1.0598197 0.8267876 0.3683342 0.5766148 1.7173392
-1.1263041 -0.48876813 -1.2420697 -0.79426605 -0.8385035 0.32159245 0.1885193 1.1147336
-0.2060723 0.17340243 0.39103734 -1.5182872 0.42063397 0.48594043 -0.9894418 -0.90080154
-0.09197505 0.93972474 0.29159096 0.75298256 0.5593656 1.8846219 0.45248625 0.42119437
-1.247115 0.7154262 -0.3584874 -1.7969782 -2.1105776 -1.6853561 0.8119197 -3.052908
0.40156072 0.8855695 1.7154613 0.92775434 0.63935876 1.6428256 0.4276883 0.97675455
1.7787114 0.92856705 1.1352394 0.5077669 0.2756789 0.13523237 -0.36720306 0.4617666
0.73136187 0.35253996 0.1981396 0.3870036 0.088836476 -0.028993988 -0.55310553 0.19606481
-0.36482435 -0.16962112 -1.1560531 -2.0078096 0.80404896 -0.8269092 -0.4388128 -4.147122
-1.7153468 1.0165067 -4.7113495 -1.1023341 -2.9040213 1.3920577 -0.2851144 0.4907153
0.62119526 0.80948824 2.433809 -1.4965148 -1.0414029 0.7074072 0.07797459 -0.2815232
-0.59356517 -0.20577966 0.05511092 -0.7895713 -1.7163419 -1.9944249 -3.0745637 -0.4084562
-1.4551258 -1.783504 -0.2797673 -0.54538906 -0.12109861 -0.8755282 -0.83886963 0.87561333
-0.45149186 -1.2452273 -1.1829422 -1.2894502 -2.2578526 -0.62752706 -2.5419087 -0.8330885
-0.07508744 0.6187295 -0.1565075 -0.6838057 -1.1548829 -1.6480091 -1.4488263 -0.24004327
-1.1022966 1.8085254 -0.02300756 0.49100763 -0.6368357 0.86858046 -0.026479088 0.53482115
-0.04018898 0.91086936 -0.40424746 -0.2687723 -1.7450528 0.86577445 -1.6757042 -1.6315526
0.1748504 -2.667134 -2.1781826 -1.6618346 0.43575355 -0.7426601 -2.0140262 0.78458226

conv2.bias f4 [16]
00000000: 847a af3d 9a17 89bd bba1 733d ab35 0ebc
00000010: cd66 2a3c 70d5 d7bc 5d8e 0fbe 8ad9 37bc
00000020: 0471 1b3e 23e9 82bd 96d7 86bb a008 063d
00000030: f7b7 e7bc 08be 0ebe bff7 a53d ff11 42bd
0.0856829 -0.06693955 0.05948041 -0.008679788 0.010400486 -0.026346892 -0.14019151 -0.011221299
0.15179831 -0.063921236 -0.0041150553 0.03272307 -0.028285963 -0.13939679 0.081038944 -0.047380444

bn11.weight f4 [16]
00000000: 80f9 fa3f 696a 0f40 da0b 0740 55aa 8d3f
00000010: a1a8 073f 0381 503f b1cc 4940 565f 8740
00000020: aa4a ec3f fa41 2740 96f4 963f c8bb d63f
00000030: 8a38 0740 274d 923f 09fa 3b40 3ab2 1a40
1.9607391 2.2408698 2.1100984 1.1067606 0.5299168 0.81446856 3.1531184 4.2303877
1.8460286 2.613402 1.1793392 1.6776056 2.1128259 1.1429795 2.937136 2.417128

bn11.bias f4 [16]
00000000: 6ff9 acbe 49d7 003f aa1d a5be 20af 3b3e
00000010: 3c90 85be 795c 04bd a44b 0fbf 8183 61bf
00000020: 4651 aebe d969 06bf e24a c63e b26d 65be
00000030: 5391 91bf 13ad 0dbb 02ed 13bf 525d fdbe
-0.33784053 0.503285 -0.32249194 0.18328524 -0.26086605 -0.03231475 -0.55974793 -0.88091284
-0.34046382 -0.5250526 0.38729006 -0.22405127 -1.1372474 -0.0021618053 -0.5778352 -0.4948526

bn11.running_mean f4 [16]
00000000: 5d71 87bf ff21 93be 5718 1dbf 8003 46bf
00000010: e27f 2a3c 1e3e 80bf 9efb c4bf ffa6 28bf
00000020: 300f c83f 4a15 033f 5975 cdbf 2b35 a4bf
00000030: e0f4 0a3f 721f a0be c0ac 803f 51d2 e1bf
-1.0581471 -0.28736874 -0.61365265 -0.7734909 0.010406466 -1.0018957 -1.5389287 -0.65879816
1.5629635 0.5120436 -1.6051437 -1.2828726 0.542799 -0.3127399 1.0052719 -1.7642308

bn11.running_var f4 [16]
00000000: 0557 0e3c edea 573c ec46 463c 7964 3c3c
00000010: 24d2 cb3b b9a8 b53b 3ad9 733c afd0 553d
00000020: d6eb 573c 7c1e 5d3c 72eb 0b3c 8b6f c13b
00000030: cdf5 863c 4bb1 cb3b 9640 3d3c cba4 7e3c
0.008687739 0.013178569 0.01210187 0.011498564 0.006220119 0.005543795 0.014883334 0.05220097
0.013178786 0.013496038 0.008540021 0.0059031895 0.016474629 0.0062162033 0.011551043 0.015542219

bn12.weight f4 [16]
00000000: 1809 aa3f 47a4 ab3f 5100 cc3f d681 e93f
00000010: bede cb3f d08e 1f40 c23f b83f 6089 393f
00000020: 283a d03f eef6 d33f 2d3f 1c3f 3ef0 8e3f
00000030: cc6d d03f 3823 b83f b47b 853f ec3a d23f
1.3284025 1.3409508 1.5937597 1.8242748 1.592735 2.4930916 1.4394457 0.7247524
1.6267748 1.6559732 0.610339 1.1167066 1.6283507 1.4385748 1.0428376 1.6424232

bn12.bias f4 [16]
00000000: d852 07be b1a2 90be b937 5bbf 939b 9cc0
00000010: d6e0 503e 5a6d b1c0 a05a 7ac0 6b13 983e
00000020: 967f 0b3e f469 b4bf a706 5bbf be26 06bf
00000030: 3f13 7b3d 04db fbbe 1a07 0bbf 56f3 833e
-0.13215196 -0.28249124 -0.856319 -4.893991 0.20398268 -5.5445986 -3.9117813 0.29702315
0.13622889 -1.4094834 -0.85557026 -0.52402866 0.06129765 -0.49190533 -0.5430771 0.25771588

bn12.running_mean f4 [16]
00000000: 82af 5c40 4049 97bd ff92 d040 c0ac 3341
00000010: e992 bcbf 783f 0e41 3986 8441 2746 4ac1
00000020: 991c 6f40 05d8 d93f f740 23c1 9bec f4c0
00000030: 184e 12c0 03d7 5841 84f6 a9bf 8a48 c0bc
3.4482121 -0.07387018 6.517944 11.229675 -1.4732333 8.890495 16.565538 -12.642127
3.7361205 1.7019049 -10.203361 -7.6538825 -2.2860165 13.552493 -1.3278356 -0.02347209

bn12.running_var f4 [16]
00000000: 2e86 ab42 1740 8242 63c0 3742 7877 a242
00000010: 4354 d342 1fb5 7742 2750 d442 a3b4 8842
00000020: ebf5 d742 302a d941 e021 8f42 1415 0b42
00000030: 5ad3 b742 8e08 a942 67cd 1942 0d11 8a42
85.76207 65.125175 45.937878 81.23334 105.66457 61.926876 106.15655 68.352806
107.98031 27.1456 71.56616 34.770584 91.912796 84.51671 38.45059 69.0333

conv3.weight f4 [32, 16, 3, 3]
00000000: 92df b23f 91f4 59bf 4192 5abf be01 e6be
00000010: 67bc 21bf 9d83 0940 2dd0 7b3f 873f c03e
00000020: 6be1 26bf cc96 04c0 3458 3c3f 47d0 11bf
00000030: 5b26 2ebf 2786 473f 676c f3bf 61fe 853d
00000040: a135 733f 6789 7fbd de2a 0b40 e8db efbe
00000050: c361 1d3d dd33 493f ab86 24bf a0e1 293f
00000060: 354e a9bf 4b8f 0440 e010 9fbe 93a8 80be
00000070: 6923 84bb b23d 943e 404f dbbe f2ce 24bf
00000080: 5930 ffbf 9aae f93e 28ea 8fbf 7eca 923e
00000090: be58 0abf 4a37 a03f bf56 513f d49b ee3f
000000a0: 9285 03c0 0823 d13f 3f45 9b3f e695 8c3f
000000b0: 8bf7 6ebf bee0 503f 5445 a13e c429 78bf
000000c0: 693f f23d 4c4e 56bf e107 b9be 83fc 893e
000000d0: b2c9 9bbf 89ce 7c3f b562 d63e ff81 22bf
000000e0: 5b73 c6bf 122d 95bf d2b1 a23f ff1e 643f
000000f0: 7a3f 073f 201f 85bf 0ab8 e03d c26e 9dbc
00000100: e151 87bf 11f0 7bbe 32b2 263e 7a6e cdbf
00000110: 68af f3be f523 aabe e4f0 bcbf 8de9 f73d
00000120: 1eb0 943f 77c9 773f 7a84 bdbf 900b 303e
00000130: ed63 83bf 4563 27c0 861a 0cbf 9d1e 663e
00000140: 817d 07bf 8a03 df3d f797 89c0 9216 e3bf
00000150: a110 5fbf bede 0ac0 1e71 f0bf 5f14 8fbd
00000160: a54e da3e e603 f3bf 9c6d f4bd dceb e1be
00000170: 6d62 75bf 43c0 bebf b452 ccbf 23d0 c4bf
00000180: f863 84bf 585a e2bf c890 b5be f42f 133f
00000190: 2b3f 503f 8a52 9c3e 161c 3440 c1fc 1740
000001a0: 16cb 163f 5324 09bf 1d86 c9bf 3f2b 5d40
000001b0: a714 1dbf 6df9 94bf c1ca db3f aa5e 593e
000001c0: b06f 95bf ce74 453f ed9f 42bf dcbe 5d40
000001d0: 915e 68bd 0622 d6be c840 8cbf ab70 e33d
000001e0: a4c3 97bf 4ba1 2cc0 7cf1 353e ae82 91bf
000001f0: 731b 45bf bacc 3a3e 9cf9 383f a5d7 823f
00000200: ce82 833f f54e 17bf 58cc 0c3f 2dc8 113f
00000210: a0bc 3e3f d259 10bf 1a72 193f 5f83 febe
00000220: 10ce 65bf 3887 13bf f7db 553f 8d0c ac3e
00000230: f85c 21bf 6917 8ebf 8c68 14bf c2fa 53bf
00000240: f953 5cbd e409 70bc 5164 c23c bdbb 94bd
00000250: 18e8 ec3d 0755 a7bd 2a7e 2abc 3d97 7a3d
00000260: 1745 b1bd 29d6 88bc 08f7 77bd 2b82 6cbd
00000270: 2528 a43d ad14 babd 6430 f13c b9e2 c53c
00000280: 4b21 58bd 6792 b23d 2c1b 373d 714c 6cbd
00000290: 2c0e 613d 8ded 173e e5aa e23c c448 aabd
000002a0: 95b7 85bd b8f8 223d e265 1a3e 42a4 7640
000002b0: 1074 1d40 0d8a 3340 5142 8340 abd4 1540
000002c0: a9c9 1f40 6f73 8e40 7a24 5140 f22d 8840
000002d0: 86a2 f13d 5372 4abc e6f0 cd3d b0a1 1abd
000002e0: 3476 f8bd 6227 4b3d 5e18 fabb 64c8 fabb
000002f0: 86a9 8c3e 1403 6d40 4c8a 5340 a389 ee3f
00000300: 26b7 3a40 d54b 1540 d3e0 d63f ed43 8040
00000310: 3214 7840 f4f1 4c40 1c30 6140 4b42 0240
00000320: 16e7 1040 b4c1 5140 25d7 e03f c073 f83f
00000330: 6d38 7940 453e 3340 0213 8240 d1cc 903c
00000340: 6d75 893c a75a 62bc 2717 983d 672f 5cbd
00000350: 85b4 013e 7e14 8c3d 3e63 b9bd 2b67 d3bc
00000360: 302f 8cbd ffe2 e5bd 1779 6a3d dac5 c63d
00000370: 347e 9fbc f077 96ba c6e9 523e dd55 ddbd
00000380: 9096 9ebc 1d72 50be a4d5 46bc b95d 2bbd
00000390: 4db5 14be 4861 12be f058 ad3d d8e7 2f3e
000003a0: 7ace fe3d f7cc 07bd d21b 933d 51a3 bb3d
000003b0: a340 b93d 5392 0dbd e58d bcbd 1c59 b23d
000003c0: f965 053d a926 e1bb b87b b8bd 91b2 b0bd
000003d0: b8a3 08bd 6729 5bba a07b 83bd 403a fdbd
000003e0: ddeb bb3b 6ac8 0dbd c9f3 5bbd 3095 ca3a
000003f0: 19cc 233e 666f d73c e196 3cbe 3fcb 123e
1.3974478 -0.85138804 -0.85379416 -0.44923204 -0.63178104 2.148658 0.98364526 0.37548468
-0.6518771 -2.071704 0.7357209 -0.5695843 -0.68027276 0.77939075 -1.9017457 0.065426596
0.95003706 -0.062386896 2.1744914 -0.46847463 0.03842331 0.7859476 -0.64267987 0.663599
-1.3226992 2.071246 -0.31067562 -0.25128612 -0.0040325415 0.2895332 -0.428339 -0.64378273
-1.993663 0.48766023 -1.1243334 0.28670114 -0.5404166 1.2516873 0.8177299 1.8641305
-2.0550275 1.6338816 1.2130507 1.0983245 -0.9334647 0.8159293 0.31498206 -0.9693873
0.11828501 -0.8371322 -0.36138824 0.26950464 -1.2170928 0.9875265 0.41872182 -0.6347961
-1.5503954 -1.1654379 1.2710516 0.89109796 0.5283123 -1.0400124 0.10972603 -0.019217853
-1.0571862 -0.24603297 0.16278914 -1.604934 -0.47594762 -0.33230558 -1.4761014 0.12105093
1.1616247 0.96791786 -1.4806054 0.1719191 -1.026487 -2.615434 -0.5472797 0.22472616
-0.5292588 0.10889347 -4.2998004 -1.7741263 -0.8713475 -2.169845 -1.8784521 -0.06986307
0.42638126 -1.8985565 -0.11934969 -0.4412526 -0.9585331 -1.4902424 -1.5962739 -1.5376018
-1.0343008 -1.7683821 -0.35462022 0.57495046 0.81346387 0.30531722 2.8142142 2.3748019
0.58903635 -0.5357105 -1.5744053 3.4557645 -0.6135964 -1.1638619 1.717125 0.21227518
-1.1674709 0.77131355 -0.7602528 3.4647741 -0.05673081 -0.41822833 -1.095727 0.11105474
-1.185658 -2.6973445 0.177679 -1.1368005 -0.7699501 0.1824216 0.72255874 1.022206
1.0274293 -0.59104854 0.54999304 0.5694607 0.7450657 -0.56387055 0.5993973 -0.49709603
-0.8976755 -0.576282 0.83538765 0.33603325 -0.63032484 -1.1100894 -0.57972026 -0.828045
-0.05379102 -0.014650796 0.023729475 -0.07262371 0.11567706 -0.081705146 -0.010406056 0.06117939
-0.08655756 -0.016703682 -0.06053832 -0.057741325 0.080154695 -0.09085975 0.02944202 0.024155961
-0.052766126 0.0871933 0.044703647 -0.057690088 0.054945156 0.14836712 0.02766938 -0.0831466
-0.06529156 0.039787978 0.15077928 3.8537755 2.460209 2.805301 4.1018453 2.3411052
2.4966834 4.451591 3.2678514 4.2556086 0.11798577 -0.012356359 0.10055713 -0.037751853
-0.121319205 0.049598105 -0.0076322993 -0.007653283 0.27473086 3.7033129 3.305316 1.8635753
2.9174285 2.3327534 1.6787361 4.0082917 3.8762326 3.2022676 3.5185614 2.0352962
2.2641044 3.2774477 1.7565657 1.9410324 3.894069 2.8006756 4.0648203 0.01767579
0.016779626 -0.0138155585 0.07426291 -0.053756144 0.12666519 0.06839846 -0.09052132 -0.02580603
-0.06844938 -0.11224937 0.057244387 0.09705706 -0.019469358 -0.0011479836 0.2059699 -0.10807393
-0.019358903 -0.20356031 -0.012135897 -0.041837428 -0.14522286 -0.14294922 0.08464229 0.17178285
0.12441726 -0.033154454 0.07183041 0.091620095 0.090455316 -0.034563374 -0.09206752 0.087084025
0.03256795 -0.0068710637 -0.090079725 -0.08627809 -0.03335926 -0.00083603564 -0.06420064 -0.12364626
0.005734904 -0.034614958 -0.05369929 0.0015455838 0.15995826 0.026298236 -0.1841693 0.14335345

conv3.bias f4 [32]
00000000: 6cff 4c3c 68df b03d 0a1d 92bd 953d 513d
00000010: 8e43 a1bd e5d5 2d3c 0c21 a03d d114 15bd
00000020: aef5 86bd 0e75 b0bd 12e8 a73d 7784 ad3c
00000030: 98d2 c3bc 4f55 32bd 9549 913d 8c43 333d
00000040: 4d47 773d 9cf2 5bbd 298d c13b 2a6a 413d
00000050: ff41 013d 99a3 9fbd c677 b63d a1a6 14bc
00000060: 43e2 e03c 7f80 be3d 3417 173b 8920 0b3d
00000070: a899 8c3d 04fc adbd 5eb0 d23b 0aab 023d
0.012512069 0.08636361 -0.07134445 0.05108412 -0.07874213 0.010610078 0.07818803 -0.036396805
-0.065898284 -0.086160764 0.08198561 0.021181328 -0.02390413 -0.043538388 0.07094113 0.04376559
0.060370732 -0.053698167 0.00590672 0.047220387 0.03155708 -0.07794876 0.08909564 -0.009072931
0.02745164 0.093018524 0.0023054602 0.033966575 0.06865245 -0.08495334 0.006429716 0.031901397

conv4.weight f4 [32, 32, 3, 3]
00000000: 2d85 2f3e 4760 8abf 29a0 febf 5880 63bf
00000010: c37a 4cbe 62ed 803e 784f b9bf 4a3b 39bf
00000020: ae41 b83e 2ebb ba3f bc74 fabd 3c74 c9bf
00000030: cfee ad3f 6dc5 283f 3f54 7ebf b1c6 2abf
00000040: 93a3 87bf d20c e2bf 596b 183d bf3f e5be
00000050: 20ae e7be 3dd6 6e3f 90e9 47bf 6ff2 5fbf
00000060: ea53 bf3e 9a6b b2be efae 92bf 40f4 0e3f
00000070: fe34 803f dc95 51bf 8a51 f5be 418d 7b3f
00000080: 9e02 4d3f 173b f5bf 5621 1a3e 85d5 6b3e
00000090: 5984 27bf 5479 9e3f db8c 45bf f736 43bf
000000a0: ac1a 083e 802f 31bf c83c 4bbf 9e94 94bf
000000b0: 6839 3bbf 932f 9bbe 2752 0e3e 5973 973f
000000c0: 8ba5 b7be acb6 39be 20aa f3be 370f 70bf
000000d0: fee4 423f 967c 0a3f af3a d73f 5fd5 d9be
000000e0: e077 97bf 4e21 9dbf 94b8 fcbd c930 27bf
000000f0: 01c3 1ec0 3d3c 203f 4a40 203f 88cb 94bf
00000100: c246 5d3f ed9d 88be d67e b63d 5504 013f
00000110: d527 9bbf 2e6b 2d3f f44a e13e 7349 973f
00000120: b2a6 b13e 4d95 63bf d8c4 b0bf 67c1 253f
00000130: 6a69 dfbe b235 4dbf 532a 9e3e 99b4 febd
00000140: e35f 66bf a04c b33f ffa8 1ac0 6f94 b73f
00000150: 6a37 be3f c4e4 a9bf 0306 b83f 7d2a 3bbd
00000160: 2901 eabd 4b6f 9d3e a566 9d3e 9f48 34bf
00000170: 7262 b13e d4b3 4cbf a203 b0bf 0713 47c0
00000180: c460 5e3f 1869 eabd 13ad de3e f8c8 0a3f
00000190: 703d a93f 15ce 923f ccb6 01be 1cdd 1f3f
000001a0: 7ab9 2fbf f893 acbe d5f2 a23d dbff e3bf
000001b0: 0d4a 7a3e 9cdd 8bbf 49f7 c1bf c00c 973e
000001c0: fdd1 54bf 4d94 5bbf d614 1e3e b9e4 bebd
000001d0: 5926 7fbf 511c 63bf 21d9 5e3f 3355 293f
000001e0: 49ae 863e 61e4 ff3d f1e0 9dbf 9f56 22c0
000001f0: 5dff a7bf d122 d2bf d6f9 c2bf 8030 d33f
00000200: ad46 66bf 6aeb d7bf 664e 2a40 a848 e13f
00000210: 59e4 4ebf 8b81 073f 66bc 12bf 8642 88bf
00000220: da9d 83be 0366 a8be 7e25 bbbf 5e6b 3fbf
00000230: c70a b03d 2380 61c0 1694 ddbf 4508 ecbe
00000240: c0e0 083e 44ea 21bf 6803 11c0 1c54 90bf
00000250: 1408 a9be 9b74 77bf bed5 e7bf bfc1 5a3f
00000260: f9a5 f73f 9c53 c8bf 35a3 d63d 70e8 793e
00000270: c415 603f 1781 563f 38e2 ecbf 5f48 86be
00000280: 54bc a6bf ae05 a43f e756 f5bf 5659 bbbe
00000290: 50dd a6bf 44cf 613f 01ba 0ebe 6515 b3bf
000002a0: dcce 5d3f 8d48 c9bf 10eb b5bf 36d7 8f3f
000002b0: 3948 e93e 27b4 a9bf 3aae 0b3f 6810 cebf
000002c0: d493 e5bf b77e 79bf 53b6 10c0 6a68 42c0
000002d0: d3d2 05c0 73df b63e e752 3d3f ec8a 33bf
000002e0: 51ab 45bd 4e49 ed3e f638 0fbd b2a5 da3e
000002f0: 11da 383f 2fac db3f ef55 04c0 39f2 84c0
00000300: 1bc8 1dc0 bf92 0cc0 2f1e 073f ffa7 33bf
00000310: 962f a53e a708 d73e 8549 ccbf 6ff1 0cc0
00000320: da34 7fbf d9f8 d7bd da90 ff3f 03a8 ba3f
00000330: 50c9 b5bd e907 993e b825 dfbf 2c76 1740
00000340: 034f b4bd c5c8 b83c cfb2 b03e d50a e1be
00000350: 618e 35bf a25a 14c0 4902 37c0 c0f7 71c0
00000360: fef7 0d40 bd21 cabd 0e5c ca3e 1e40 ae3f
00000370: b357 06bf 8702 17bf c82c 30bf 40bc a9bf
00000380: 494b b0bf d497 af3f d72f 8abf 2b77 8dbf
00000390: b6d3 aa3f 135c a1be 16fd 5d3d 3296 083f
000003a0: b128 3abf c0cf 803f c0a9 20bf 850e 96bf
000003b0: c41a d03e 7534 54bf 084a 0fbe 0f79 ae3f
000003c0: f590 eabf 4af6 a7bf e8df 15be ba5b 23bf
000003d0: f845 363f eacc 1940 a02e 51bf 8e27 233d
000003e0: ac6f 76bf 2c8f e2be 510c 9c3e a773 b6be
000003f0: 928b d6bf 80f1 983d 4751 e6be 5ebe 13c0
0.17140646 -1.0810632 -1.9892627 -0.8886771 -0.19968705 0.2518111 -1.4477377 -0.7235609
0.3598761 1.4588373 -0.122292966 -1.5738597 1.3588504 0.6592625 -0.993473 -0.6670943
-1.0596794 -1.7660162 0.03721175 -0.44775197 -0.45250034 0.9329565 -0.78090763 -0.874793
0.3736871 -0.34847718 -1.1459635 0.55841446 1.0016172 -0.8186929 -0.47913772 0.9826241
0.8008212 -1.9158658 0.15051779 0.2303067 -0.6543632 1.2380776 -0.77168053 -0.76255745
0.13291425 -0.69213104 -0.7938962 -1.1607854 -0.7313447 -0.30309734 0.13898526 1.1832076
-0.35868487 -0.1813609 -0.47590733 -0.93773216 0.76130664 0.54096353 1.6814784 -0.42545602
-1.1833458 -1.2275789 -0.12339893 -0.65308815 -2.480652 0.62591916 0.625981 -1.1624613
0.8643609 -0.26682988 0.08910911 0.50397235 -1.2121531 0.6774167 0.44002497 1.181929
0.3469749 -0.8889969 -1.3810072 0.64748234 -0.43635112 -0.8016006 0.30891666 -0.1243679
-0.8999006 1.4007759 -2.4165647 1.4342173 1.4860661 -1.3272939 1.4376835 -0.045694817
-0.114260025 0.30748972 0.30742374 -0.7042331 0.3464542 -0.79961896 -1.3751109 -3.1105363
0.868664 -0.11445826 0.4349142 0.54212904 1.3221874 1.1469141 -0.12667388 0.6244676
-0.6864239 -0.3370664 0.07956473 -1.7812456 0.2444231 -1.0927005 -1.515359 0.29501915
-0.83132917 -0.85773164 0.15437636 -0.09320969 -0.9966789 -0.8871508 0.8705006 0.6614563
0.26304844 0.12494732 -1.2334272 -2.536537 -1.3124806 -1.6416875 -1.5232494 1.6499176
-0.8995159 -1.6868718 2.661035 1.7600298 -0.8081718 0.5293204 -0.57318723 -1.0645301
-0.2570637 -0.3289033 -1.4620817 -0.74773204 0.085958056 -3.5234458 -1.7310817 -0.4610006
0.13366985 -0.63248086 -2.265833 -1.1275668 -0.33013976 -0.966623 -1.8112104 0.85451883
1.9347526 -1.5650516 0.10480348 0.24405074 0.8753321 0.83790725 -1.8506536 -0.2622709
-1.3026223 1.2814233 -1.9167145 -0.36591595 -1.3036289 0.8820689 -0.13938142 -1.3990904
0.8664377 -1.5725266 -1.421236 1.1237552 0.45562914 -1.3258103 0.54562724 -1.6098757
-1.7935739 -0.97458977 -2.2611282 -3.037623 -2.0909927 0.35717353 0.73954624 -0.7013385
-0.048259083 0.4634499 -0.03496643 0.4270454 0.7220774 1.7161921 -2.067745 -4.154568
-2.4653385 -2.1964567 0.5278043 -0.70178217 0.32262868 0.4199879 -1.5959936 -2.202236
-0.9969002 -0.10545511 1.996608 1.4582523 -0.08876288 0.29888847 -1.7433386 2.3665876
-0.08804133 0.022556672 0.3451142 -0.43953577 -0.7092038 -2.3180318 -2.8595145 -3.7807465
2.2182612 -0.09869716 0.39523357 1.3613317 -0.5247757 -0.5898823 -0.6881833 -1.3260574
-1.3772975 1.3718209 -1.079585 -1.1051992 1.3345859 -0.3151556 0.05419644 0.5335418
-0.7271834 1.00634 -0.6275902 -1.1723181 0.4064542 -0.82892543 -0.13993084 1.3630694
-1.8325487 -1.3122036 -0.14636195 -0.6381184 0.71200514 2.403132 -0.8171177 0.039832644
-0.9626415 -0.44249856 0.30478147 -0.3563511 -1.6761343 0.074679375 -0.44983885 -2.308494

conv4.bias f4 [32]
00000000: 5a29 58bd 5c0f 8f3c 1c80 8ebb 51f5 42bd
00000010: 4c1b 09bd a999 22bd 0e35 15bc bb08 ed3c
00000020: 01b0 973d bcab c43a 1c0d 063c 59b1 243d
00000030: 3d71 2dbd f2db fe3c 1986 7c3d 5040 943c
00000040: 9eb9 fabc 1b6f 443d 1029 5fbd 1cc9 143d
00000050: b25e 16bc e4f9 4cba 5a1a 48bd 544a 0cbd
00000060: bcee f5bb 740e 18bd 798f bd3c 63a8 053d
00000070: d366 24bc 83c6 2a3d df05 36bd b0d2 01bc
-0.05277381 0.017463379 -0.004348768 -0.047597233 -0.033473298 -0.039697323 -0.0091068875 0.028934827
0.07406617 0.0015004794 0.008181836 0.040208194 -0.04234432 0.031110737 0.061651323 0.018097073
-0.030606087 0.04795752 -0.05448252 0.036324605 -0.009177851 -0.0007819219 -0.048853256 -0.034250572
-0.007505266 -0.03712316 0.023139702 0.03263129 -0.010034281 0.04169322 -0.044439193 -0.007923767

bn21.weight f4 [32]
00000000: daf1 9b3f 982d b63e d422 2a3e 6fe4 453f
00000010: 8f51 9a3f 8679 c03f a624 0040 cd70 563f
00000020: 0a48 623e dc41 da3f c0a5 963f b47f 4c3f
00000030: c167 5e3e 8e00 433f 2bdf 6d3e 5a00 cf3f
00000040: d690 e93e 4091 c73f 9e66 ac3f 70d7 543f
00000050: 8fd1 613f af63 783f 1ed4 a83f 1717 173f
00000060: 9c9f 9c3f 6f2c 5e3f 53a8 c33f bd8d ef3f
00000070: 0207 bb3f 79e4 b53f 2757 973f d43d d13f
1.2183182 0.3558166 0.16614848 0.77301687 1.205614 1.5037086 2.0022368 0.8376587
0.22097793 1.7051349 1.1769333 0.7988236 0.21719266 0.7617272 0.23229663 1.6171982
0.45618314 1.5591202 1.3468816 0.8314123 0.88210386 0.97027105 1.3189733 0.5901961
1.2236209 0.8678655 1.5285743 1.871513 1.4611514 1.4210349 1.1823472 1.6346993

bn21.bias f4 [32]
00000000: 852d 95bf 7d5b acc0 4c2b 9ac0 0cf3 bc3e
00000010: 0537 4dbf feca 0c3f b0ee 43bf 75fa 8d3e
00000020: ef23 a8c0 7d99 b0bf ca10 9fbf 0058 b3bf
00000030: 83b3 b1c0 c157 a33e 21d0 ce3f 3d55 b6bf
00000040: bb7d f13e 6f1f bebe 5b54 75bf 17a5 1ac0
00000050: 737d d73e dade febf 043c b6be 9664 babf
00000060: 56cf 9cbf 0fde 8e3e 567a 7ebf a8e3 ecbe
00000070: f016 7cbf 73f9 abbf 06e3 d6bf be27 5dbf
-1.1654516 -5.386168 -4.8177853 0.3690418 -0.8016208 0.5499724 -0.76536083 0.27730146
-5.2543864 -1.3796841 -1.2426999 -1.401123 -5.553163 0.31902888 1.6157266 -1.4244763
0.47166237 -0.37133357 -0.9583184 -2.4163263 0.42087898 -1.9911759 -0.35592663 -1.4561946
-1.2250774 0.27903792 -0.9940542 -0.46267438 -0.984725 -1.3435501 -1.6788032 -0.86388767

bn21.running_mean f4 [32]
00000000: abe0 d7c0 c54b 3f3f 441f a5be 6630 96c0
00000010: 3ccb a2c0 9fce bbc0 ddb3 8cc1 7168 04c2
00000020: 3ffb a13e 842e 02c1 1f98 66c0 0a12 d5c0
00000030: fe48 b33d 4538 d2c0 cd2a a8bf 1c81 afc0
00000040: ea9d 85bf a0c9 17c1 aec6 7bc0 8484 6f41
00000050: eb21 04c1 cde3 8f41 ad1d 22c1 c48b 8841
00000060: e16b 9ec1 14db 05c1 9906 d6c0 8352 6fc1
00000070: 6e94 a9bf 3c5e 3ebf 6090 acc1 2713 12c1
-6.7461753 0.7472499 -0.32250416 -4.693408 -5.087309 -5.8689723 -17.587824 -33.101994
0.31636998 -8.136356 -3.6030347 -6.658452 0.087541565 -6.569369 -1.3138062 -5.4845104
-1.0438817 -9.486725 -3.9340014 14.969852 -8.258281 17.98623 -10.132245 17.068245
-19.802675 -8.365986 -6.6883054 -14.957644 -1.3248422 -0.7436254 -21.570496 -9.129676

bn21.running_var f4 [32]
00000000: 5652 e941 9a9b 8e40 490f 8240 b63b 5841
00000010: fb7d da41 efd8 be42 aa06 5842 279d 0443
00000020: 1f4b 8e40 5046 3c42 25db 1342 542a 3042
00000030: 4b53 8d40 e2a0 3d42 3479 f141 400f de41
00000040: 252b ff41 75c6 6342 d2ad e741 4625 9a42
00000050: 1556 6c42 6b22 4842 c802 0342 489b 3442
00000060: 689a bc42 f8dc b841 78bc f641 f572 7142
00000070: 3a9b 5c42 28a3 1c42 a43f 7542 8857 8342
29.165203 4.4564943 4.064366 13.514578 27.311514 95.4237 54.006508 132.61388
4.44667 47.068665 36.96401 44.041336 4.4164176 47.407112 30.184181 27.757446
31.896067 56.943806 28.959873 77.0728 59.084064 50.03361 32.752716 45.15164
94.301575 23.107895 30.842026 60.362263 55.15159 39.159332 61.31215 65.67096

bn22.weight f4 [32]
00000000: dff5 8a3f 0968 a73f a4cd 8a3f 480d 9c3f
00000010: 072c 9f3f dd9f 7d3f 8688 673f 7edb c33f
00000020: 4800 8b3f 4079 d33f b937 973f 6a77 af3f
00000030: e1d8 783f bf70 af3f 76b3 463f eb84 883f
00000040: d92d 983f fabf 923f b6e2 3d3f 4bc6 723f
00000050: 41dd 723f 3600 8b3f 6976 c43f 6d8b 943f
00000060: 8afa 9d3f ee6d 853f f215 9f3f d345 ab3f
00000070: 9245 873f e21b a63f 9b70 9e3f 73f6 0340
1.0856284 1.3078624 1.0844007 1.2191553 1.2435311 0.99072057 0.90442693 1.5301359
1.0859461 1.6521378 1.181388 1.3708317 0.9720593 1.3706282 0.77617586 1.0665563
1.1888992 1.1464837 0.7417406 0.9483382 0.94868857 1.0859439 1.5348636 1.1605049
1.2342083 1.0424173 1.2428572 1.3380684 1.0568106 1.2977259 1.2378114 2.061917

bn22.bias f4 [32]
00000000: 41e6 d33e 3bb7 a9bf 42e9 77bf 2dce 03bf
00000010: ea64 eac0 d447 a33d 6471 2d3f 91f7 ccbf
00000020: 7ea4 23c1 07a1 4cc0 2451 7dbf e9c3 5f3f
00000030: 1d9f 123f a205 00c0 bce4 51bf 2885 a0c0
00000040: 7ca3 acbf 739c 71bf 4711 cd3e 7171 80bf
00000050: 319f 46be fcac 2f3f 5329 a9bf 0dba a3bf
00000060: 886f 58bf 6203 17bf 56bf b0bf da4b 39c0
00000070: b51c 8cbf 4299 a73f 2342 b9bf 7109 b6c0
0.41386607 -1.3259043 -0.968403 -0.51486474 -7.3248186 0.079726845 0.67751145 -1.6013051
-10.227659 -3.1973283 -0.98951936 0.8740831 0.5727404 -2.0003438 -0.81989646 -5.0162544
-1.3487391 -0.9437935 0.40052244 -1.003462 -0.19396664 0.6862333 -1.3215736 -1.2791153
-0.84545183 -0.58989537 -1.3808391 -2.8952546 -1.0946261 1.3093646 -1.4473308 -5.6886525

bn22.running_mean f4 [32]
00000000: 79bf b3c0 33da 7bc1 c23b ad41 5a27 d0c0
00000010: 816f 9e41 5ed2 01c1 d3b3 0741 d21e 27c1
00000020: 5677 d541 00a8 5642 97cd 8741 077d 6540
00000030: 7ea9 cd3f 2df3 ac41 befb 6a41 0145 2142
00000040: 04d7 51bf 5386 b141 c13e 0d41 27ff 6741
00000050: 1422 9140 6336 09c1 3161 efc1 2475 37c1
00000060: 05ec 18bf 2dc3 ae40 bcd8 2dc0 31af 8941
00000070: 9346 7a41 636f bac0 4869 06bf 4153 5242
-5.617123 -15.740771 21.654179 -6.5048037 19.804445 -8.113859 8.481402 -10.4450245
26.68327 53.664062 16.975386 3.585756 1.606735 21.618738 14.6864605 40.317387
-0.8196871 22.190588 8.827821 14.499793 4.53541 -8.575778 -29.922457 -11.466099
-0.5973514 5.461325 -2.7163534 17.210543 15.64223 -5.826097 -0.52504396 52.581303

bn22.running_var f4 [32]
00000000: 4649 ad42 3299 d842 b166 2442 5b86 8e42
00000010: fd64 7c41 2a3e ab42 ccb0 d042 2077 b142
00000020: a11f 4741 2aa4 4c42 0f83 1542 9473 f142
00000030: d2d1 2b43 293b 0a43 93e6 6942 84ed 1f42
00000040: 0c78 7042 3c36 1c42 b5f7 7443 935f 0642
00000050: eefd b442 df6e f342 97c9 a542 7477 4f42
00000060: af29 7242 f081 b642 813b 8042 c910 8142
00000070: 09e8 1142 af50 c442 56a9 7a42 dbff 9142
86.64311 108.29921 41.100285 71.26241 15.774655 85.621414 104.34531 88.732666
12.445222 51.160316 37.377987 120.72574 171.81961 138.2311 58.47517 39.98195
60.117233 39.052963 244.9676 33.593334 90.49596 121.716545 82.89373 51.866653
60.540707 91.253784 64.11622 64.53278 36.476597 98.157585 62.665367 72.99972

conv5.weight f4 [64, 32, 3, 3]
00000000: c5aa 00be d166 2a3e c6df 6bbe 832d 033f
00000010: aa04 a73e 9a19 4bbf ad73 143e 8814 143f
00000020: 6c39 92bf 7692 4a40 8b68 32bf f6a3 d3be
00000030: 1a1b 1b3f 5aa7 09c0 1d89 143e 7dcd d7be
00000040: 02d7 88bf 5a5f c1bf 9ac4 903f 334e 33be
00000050: 2711 2bbf f923 6fbf 5832 0dc0 0b85 93bf
00000060: 6b5d 7cbf da39 abbf 93a0 383f 2009 603e
00000070: 2429 8c3d a19d f2be cf59 f4be 2e8b b53e
00000080: 2fd8 83bf c9e0 afbe 23d4 3d3f 9a38 38be
00000090: 63cb 8fbe 68c3 ddbf 8f64 e63d 1809 3bbf
000000a0: 66ea 4ebf 358c 273f e376 50be b6da a33e
000000b0: 0080 9b3e 0bc7 d2be 7c69 99bf 54d1 c73b
000000c0: 515b d2bf 9ce6 973f d6d0 cb3f d827 f3bd
000000d0: b09c ed3e 9314 ebbe 4cc4 4dbf 19c6 ccbf
000000e0: 97a1 95bf 6c1b 433d c3aa 88be fe04 c13e
000000f0: 4597 a7bf beaf 00bf f129 99bf 2b97 a93f
00000100: 55f5 8dbf aedf 04c0 d60d f6be bb39 a93e
00000110: bfbf 0cbf 5247 a23f efb7 1c3f ca58 3c3f
00000120: 353f 123e e592 9ebf eeba c23e 2765 fc3c
00000130: c807 74bd f3b9 0e3f 07e6 1f3f e079 5c3f
00000140: bab1 d5be 6e44 6bbf 974a 143f 4279 473d
00000150: e9c8 983f 614d f4bd 3504 81bd eeab 33bf
00000160: 0428 1340 abdd 59bf fc8f 553d 076c e33c
00000170: 16f5 18bd 7e5d 8ebf 2a79 0ac0 9865 8ebf
00000180: 459b 5dbf 53b0 8fbf cb3b d73e 566c 3e3f
00000190: 93e3 83bf 30ab 613f 2ce7 81bf 3414 a4be
000001a0: 426b e9bf 3a1c 33bf c615 41bf b9b2 61bf
000001b0: 6c6c 3fbe dfb3 523f 3977 393f 0555 223f
000001c0: 80ab 553f 9cb7 7ebe 5d13 debf bb07 053f
000001d0: 19ad 18be 36ae 2cc0 5633 3dbf 428c 0abf
000001e0: f7b4 f8be c0af 1440 ca18 873f 22e8 89bd
000001f0: 2cf8 2ebf 0b01 fd3e 03d8 403e b905 ad3f
00000200: 1871 303f 8e8d 383f aba1 e9bf 1450 cfbf
00000210: ab9d 83be 90ce 90bf 58b7 ebbe f038 34bf
00000220: c3d5 5340 a296 5140 afb3 6a40 dbf6 8040
00000230: 5113 3740 c821 6440 98ff 8e40 fdbb f03e
00000240: 2570 913f d663 163f 2311 0cbf e0d0 04bf
00000250: b06e d2bf 5645 d3bf 52ff 83be a830 8cbf
00000260: 83db b13e dd16 833f 047f fdbe c1f3 48bf
00000270: 54d7 4ebf 4c08 07c0 29e7 a3bf 442e a1bf
00000280: 14da bbbf 9128 b63e 26e7 38be 5e81 31bf
00000290: ed34 403f a159 67be b95c 7fbd b33c 4a3f
000002a0: 1044 f4bd a2fe abbe 3230 51bf d6c2 483e
000002b0: 278a 7bbf 59bb 0ebe dfb7 91bf 031c ebbf
000002c0: 3358 c8be 2220 61bf 42e4 5dbf dc00 0b3f
000002d0: 89c5 6d3e 7c56 843e 8358 a33f b30e 30bf
000002e0: 46b5 91be 876a 1abf c709 a2bd b441 c83e
000002f0: 9b8d 0840 2fda 733e 94de 8dbe dc6c 23bf
00000300: 1c1d 96bf 7f62 5f3d b40e a63e 91a3 9c3f
00000310: b75b 1bbf 98f0 0ebf 85aa f43e c793 d9be
00000320: 146a cd3f 7a27 a2bf 9356 363f c770 283f
00000330: aa54 8cbf 3041 02c0 70a0 d2be 5dd8 58c0
00000340: 42b5 fb3d 0b73 31be 633d f73e 320d 23bf
00000350: 5cbf e0bf fcca ecbf 5ebe 98bf 54b1 0c3f
00000360: 3f9c 823f 2bc3 9d3d 8526 303d b4ae d6bf
00000370: 7c71 8c3f a3dc cc3e 45a3 cd3e 8c18 243e
00000380: 2a50 f73e 8c94 f33f 11f6 82be 706d 58c0
00000390: 5282 10c0 0c26 0abf 72e2 ac3e 6328 c43f
000003a0: d000 e13f f2b1 9d3f 526d d2bd 134d 343f
000003b0: 6e6e f43f e0ef fa3d 86a2 83be 7fbc a0bf
000003c0: 08b1 4a3f 69f8 26bf ae79 33c0 389f 373f
000003d0: c28c d9bf 7617 3b40 e0c2 f1be 36b8 08c0
000003e0: 149d 5640 2dbb dc3f bcec 88be 89fb 853c
000003f0: e19f 3b3f c1f6 abbf e930 71bf 6b21 a8bf
-0.12565143 0.16640784 -0.23034582 0.5124132 0.32620746 -0.7933594 0.14497252 0.5784383
-1.1423774 3.1651893 -0.6969077 -0.4133603 0.6058823 -2.1508393 0.1450543 -0.42148963
-1.0690615 -1.5107224 1.1309998 -0.175103 -0.6682305 -0.93414265 -2.2061977 -1.1524976
-0.98580045 -1.337703 0.72120017 0.21878481 0.068437845 -0.47385886 -0.4772477 0.35457748
-1.0300349 -0.34351185 0.7415182 -0.17990342 -0.2808486 -1.7325258 0.11249649 -0.7306075
-0.80826414 0.65448314 -0.20357852 0.320028 0.30371094 -0.41167483 -1.1985316 0.006097952
-1.6434118 1.1867251 1.5923107 -0.11872834 0.46408606 -0.45914134 -0.8037765 -1.5997955
-1.1689938 0.047633573 -0.2669278 0.3769912 -1.3093039 -0.5026816 -1.1965925 1.3249258
-1.1090494 -2.0761523 -0.4805743 0.33051857 -0.5498008 1.2678015 0.6121816 0.7357298
0.14281924 -1.2388579 0.3803324 0.030809952 -0.059577733 0.55752486 0.6246037 0.86123466
-0.41737157 -0.9190129 0.57926315 0.048699625 1.1936313 -0.11928821 -0.062996306 -0.7018422
2.2993174 -0.85103863 0.052139267 0.027761472 -0.037343107 -1.1122282 -2.1636453 -1.1124754
-0.8656505 -1.1225685 0.42037806 0.7438406 -1.0303825 0.88151836 -1.0148673 -0.32046664
-1.8235857 -0.69964945 -0.7542385 -0.88163334 -0.18693703 0.8230571 0.72447544 0.6341098
0.83464813 -0.24874729 -1.7349659 0.5196492 -0.14909782 -2.698133 -0.7390646 -0.54120266
-0.48575565 2.323227 1.055444 -0.06733729 -0.6834743 0.49414858 0.18832402 1.3517371
0.6892257 0.72090995 -1.8252462 -1.6196313 -0.2570623 -1.1313038 -0.46038318 -0.7039938
3.309922 3.274819 3.667217 4.0301337 2.860554 3.5645618 4.4687004 0.47018424
1.1362349 0.5874609 -0.5471365 -0.5188122 -1.6440029 -1.6505535 -0.2578073 -1.0952349
0.34737787 1.0241352 -0.49510968 -0.7849694 -0.80797315 -2.1098814 -1.280492 -1.2592244
-1.4675927 0.35577825 -0.18056926 -0.69338024 0.7508076 -0.22592784 -0.062344287 0.7899887
-0.119270444 -0.33592707 -0.81714165 0.19605574 -0.9825768 -0.13938655 -1.1384238 -1.8367923
-0.3912979 -0.87939656 -0.8667642 0.54298186 0.23219885 0.25847232 1.2761387 -0.6877243
-0.28458613 -0.603188 -0.07912021 0.39112628 2.133643 0.23813699 -0.27708876 -0.6383798
-1.1727633 0.054537293 0.32433093 1.2237417 -0.6068682 -0.55835867 0.47786346 -0.42495558
1.6047997 -1.2668297 0.7122585 0.65797085 -1.0963337 -2.0352287 -0.4113803 -3.3882058
0.122904316 -0.17329042 0.48289022 -0.6369201 -1.7558398 -1.8499446 -1.1933095 0.5495808
1.0203933 0.07703241 0.043005485 -1.6772065 1.0972133 0.40012082 0.40163627 0.16024989
0.48303348 1.9029708 -0.2557836 -3.3816795 -2.2579541 -0.53964305 0.33766514 1.5324825
1.7578373 1.231993 -0.102747574 0.70430106 1.90962 0.12252784 -0.25709933 -1.2557524
0.7917638 -0.65222794 -2.8043017 0.71727324 -1.6996081 2.923307 -0.4721899 -2.1362433
3.3533373 1.7244622 -0.26743114 0.016355293 0.7329083 -1.3434678 -0.94215256 -1.3135198

conv5.bias f4 [64]
00000000: 0c38 8c3d 923f f73c 5eea 3cbd 7933 3abd
00000010: 24a7 353d 594f 51bd ee5a 813d 3b7a 003d
00000020: ce1b 6ebd 4abb da3a 0ec6 68bd f7b2 0abd
00000030: ee6b 653c 7a83 0dbd 7df7 6e3d 19de ea3c
00000040: dfdc 1ebd e31a 1b3d e720 863c 61da 773d
00000050: ef92 a8bc 39f9 a73c 7242 673c 00c6 0e3d
00000060: 18ed 25bd b0bf 443d 2201 18bc 2ec1 6fbd
00000070: 5364 5b3d 6cdd 30bd 6d11 cdba c56a fe3c
00000080: 921e 0a3b 3a13 bdbc 2fc9 173d 1f53 56bd
00000090: 53fe 65bd 4c03 9e3c ca50 143c d8b6 fe3b
000000a0: ed9a 14bd 5fd9 36bc d750 e33b 74e8 ee3c
000000b0: 2c86 2bbd 2797 23bd 5601 eebc a0f8 473d
000000c0: 23dd 90bc 6a4b bd3c 98c2 aabc 8f2e 8abd
000000d0: a50f 27bc aa40 063d c847 bd3c da81 163d
000000e0: 92a7 1c3d 2d57 333d a305 5bba c1fd 033c
000000f0: 677d 34bd ae2d 7abd a306 e93b 4914 ca3c
0.068466276 0.03018168 -0.046121947 -0.045459244 0.04434885 -0.051101062 0.063161716 0.031366568
-0.058131985 0.0016687897 -0.056829505 -0.03386208 0.014002783 -0.034549214 0.058341492 0.028670358
-0.038784858 0.037867438 0.016373111 0.060510997 -0.020577876 0.02050458 0.014114963 0.034856796
-0.040509313 0.04803437 -0.009277614 -0.05853384 0.053562474 -0.043179914 -0.0015645452 0.031056771
0.002107535 -0.023080457 0.037057098 -0.052325364 -0.056150746 0.019288681 0.009052465 0.0077732615
-0.03628056 -0.011160224 0.006937127 0.029163577 -0.041876003 -0.039939072 -0.029053371 0.04882109
-0.017683571 0.02310725 -0.020844743 -0.067471616 -0.010196601 0.032776512 0.023105517 0.03674493
0.038245745 0.04378431 -0.0008355027 0.008056105 -0.044064905 -0.06107872 0.007111387 0.024667876

conv6.weight f4 [64, 64, 3, 3]
00000000: 49bf 263e 3b73 283d d1e8 d53d 6171 f03d
00000010: 6e10 9c3d dfb6 8e3c 2fe7 983d a18e 71bd
00000020: e9e9 c23d c79f 383d c4ba d23d 1ced 4a3d
00000030: fbf3 b83c c5c8 613d 6932 5f3d ef73 1b3d
00000040: 4c76 c13d 9e8e bd3c 7dbd 8dbd 61e0 a7bb
00000050: ad80 6fbd a071 92bd b712 c9bd 7dde 14be
00000060: 1b5b d03c 759d 47bd aa15 88bd a704 91bd
00000070: abe4 f7bd e3bf b5bd 39d8 c5bd e06f 17be
00000080: c5ed f9bd 2ee4 2abd 96df 89bd 9c84 d4bd
00000090: 7fc2 b8bd 155c 96bd 6e44 60bd d449 d0bd
000000a0: eaa1 0abe a435 07be 53e3 23bd 2982 16be
000000b0: 6b4d cabd e645 353d ce43 f13d 4ba5 893d
000000c0: 79a6 8d3d 6f6c e63d 9a92 fc3c 9f56 783d
000000d0: 53e6 5a3d c3e6 b7bc 7a8e 943d 39c9 063e
000000e0: 4d41 fe3c 11b2 073e 5164 fd3d 1a34 003e
000000f0: c63c 183e f747 453e 7c16 4f3e a751 bbbd
00000100: bc00 cfbd c33c 61bd 6e1b e4bd 925c b6bd
00000110: ed0b 0dbe 9074 a0bd 1f81 95bd 5ff1 6ebd
00000120: 6863 d03c a716 453d d477 3cbc 9b37 ae3d
00000130: b1ba 3e3d 9c2f e43d 3f8f 1abd abe9 be3d
00000140: da95 fe3d 5bde 563d 9272 6b3d 631a b13d
00000150: bb9d 913d 2101 b63d ce7f bc3d 1213 103d
00000160: edea 693d 06cf c03d 7788 62bd 52ec 0bbe
00000170: 0783 9abd cbca efbd 92f2 24be 90cc e2bd
00000180: 4010 f7bd e5ac babd 98ec bebd 5deb 90bc
00000190: 8c9b da3d c077 a83d e8b4 c1b9 fff0 383e
000001a0: d588 c23d 06e2 4f3c 9071 f63d 4730 053e
000001b0: 5d87 ce3d a876 1c3d 9a87 593d 1eb3 ee3c
000001c0: bd58 753b 5579 3cbd 898e f13c 70c8 563c
000001d0: c3f0 463d ab0f 78bd d164 dbbd c2e3 cdbd
000001e0: dd8d 18be bf4a 0cbe 820b ecbd 9fc7 eabd
000001f0: a462 f0bd f8ff c6bd 3643 7ebb a72b a4bc
00000200: 8185 5ebb 577f a0bc a173 693d d183 753c
00000210: ced4 0dbc e8ad 603d 7bb3 7b3d 9700 4e3d
00000220: 33b7 6d3c 92ba 1d3d 0fed 2d3d 250e f63d
00000230: 3c6d ec3d d357 3bbb 0b86 0f3e 0fc4 ab3d
00000240: 9149 f73d e33f 173e 08e5 d83d 3eea 7a3d
00000250: 8ecc 1b3e bffb 213e c94b 933d a076 2e3e
00000260: 1c96 cc3d 65d5 243d 74c0 f13d 01c3 873d
00000270: 476c 863d c27a 3f3d 43ee c73d bd30 b0b8
00000280: 34a7 c23d aa3c 993d 0501 88bc a09a febc
00000290: 5b22 eabc 33b3 10bc 6145 dc3c 41f4 a03d
000002a0: 84f0 99bd befb b73d 1302 523c ded0 d13d
000002b0: dfba 793d 4b4b 63bd 3ae1 803d b5f5 183d
000002c0: 15ca 3e3d ce04 4dbd a7f5 3b3d a686 213d
000002d0: a89d 693d b70e 3b3e a78e b5bc ed66 ed3d
000002e0: 7e63 163e 96de 563d 382c b33c 5ea1 cb3d
000002f0: ce0a 0f3d 0dd7 8a3c 1d70 15bd a607 09bd
00000300: 87af 943d 6e19 a43d dc87 2d3d 3791 6f3c
00000310: bf76 9e3d 4aff 473d f7fc 98bd 5dc7 e3bd
00000320: f69b 93bd 4245 23be e4c1 16be 1cda 0abe
00000330: 7c23 3fbd 4417 29be 0243 bcbd 0414 e33a
00000340: 36de 693c ea73 093d 287c 213c d588 dcbc
00000350: b00c 0fbc aa95 1e3d 65d1 eebc c50c fb3a
00000360: 6de7 173e 6aa1 b53d eb06 ec3d 59c2 0a3e
00000370: b5c2 003e 1a1f 373e 45b0 f73d 2f58 de3d
00000380: 7dff 063e 0ebf 3d3c 6035 da3d f095 88bc
00000390: eace a03d 5071 0bbd bb55 46bd 447b d03d
000003a0: 14e7 03bd 07cc db3b 628a be3d bb26 9e3d
000003b0: 7659 913d 8d55 7e3d c0d0 6b3c 30a3 4c3d
000003c0: aa59 973d 4c87 ef3c 7e06 a83d 28db fc3c
000003d0: 0eb7 683d 2a12 c53c 2e0d 4abc 6ac5 56bd
000003e0: 9091 1a3b 11b3 643d 1f07 e73d 141b e83d
000003f0: 9f72 a83d 656b 793d fe53 cb3b b7dd fa3d
0.16283907 0.041125517 0.10444797 0.11740375 0.07620321 0.017421184 0.0746597 -0.058973912
0.09517271 0.04507425 0.10289529 0.04954253 0.022577276 0.05512311 0.054491434 0.03795236
0.094463915 0.023139294 -0.06920908 -0.0051231836 -0.058472324 -0.071505785 -0.09818023 -0.14537998
0.025434067 -0.048734147 -0.06644757 -0.070809655 -0.12104162 -0.0887449 -0.09660382 -0.1478877
-0.12203554 -0.041721515 -0.06732099 -0.10376856 -0.09021472 -0.07341782 -0.05475276 -0.101703316
-0.13538328 -0.13204056 -0.040011715 -0.1469809 -0.098780476 0.044256113 0.11780511 0.0672098
0.06916518 0.11251151 0.030831624 0.060629483 0.05344231 -0.022448903 0.07253738 0.13162698
0.031036997 0.1325152 0.123726495 0.12519875 0.14866933 0.19265734 0.20223421 -0.09146433
-0.10107562 -0.054989588 -0.11138044 -0.08904375 -0.1377408 -0.078347325 -0.073000185 -0.05833566
0.025438026 0.048117306 -0.011503179 0.085067 0.04656476 0.11141893 -0.037734266 0.093219124
0.12430926 0.05245815 0.05748231 0.08647611 0.07110163 0.08886934 0.09204064 0.035174437
0.05710881 0.094144866 -0.055305924 -0.13664368 -0.07544523 -0.117086016 -0.16108158 -0.110741735
-0.12063646 -0.09115008 -0.093224704 -0.017690355 0.106741995 0.082259655 -0.00036946614 0.18060683
0.09498755 0.0126881655 0.12033379 0.13006698 0.10084412 0.038199097 0.053107835 0.029138144
0.0037436925 -0.04601415 0.029486911 0.013109311 0.048569452 -0.060561817 -0.107125886 -0.10053207
-0.14897867 -0.13700388 -0.115256324 -0.11463856 -0.11737564 -0.09716791 -0.0038797385 -0.020040346
-0.0033954086 -0.01959197 0.056995038 0.014985041 -0.008656694 0.05485335 0.061450463 0.05029353
0.01450901 0.038508005 0.042462405 0.120144166 0.11544272 -0.0028586283 0.14015977 0.083870046
0.120745786 0.14770465 0.10590559 0.061258547 0.1521475 0.1581869 0.07192189 0.1703744
0.099895686 0.04024257 0.11804286 0.06628991 0.06563621 0.04674793 0.09762242 -8.401412e-05
0.09504548 0.07482274 -0.016602049 -0.03107959 -0.028580835 -0.008831787 0.026888551 0.07859088
-0.07516578 0.08983563 0.012817877 0.102449164 0.06096923 -0.055491727 0.062929586 0.0373437
0.04657944 -0.05005341 0.04588857 0.03943505 0.05703512 0.18267332 -0.022162749 0.11591897
0.14686391 0.05245837 0.021871671 0.09942888 0.034922414 0.016948247 -0.036483873 -0.03345456
0.07260042 0.08012663 0.042365894 0.014622024 0.07737493 0.048827447 -0.07470124 -0.1112201
-0.072074816 -0.15944389 -0.14722401 -0.13559765 -0.0466647 -0.16512781 -0.09192468 0.0017324691
0.014274171 0.03355781 0.009856261 -0.026920715 -0.008731052 0.03871695 -0.029152581 0.0019153586
0.14834376 0.08868678 0.11524757 0.135507 0.12574275 0.17882958 0.120941676 0.108566634
0.13183399 0.0115811955 0.10654712 -0.016673058 0.07851966 -0.03404361 -0.048421603 0.10179761
-0.032202795 0.0067076716 0.09303738 0.07722231 0.070971414 0.062093306 0.014393032 0.049960315
0.07390149 0.02923932 0.08204363 0.03086622 0.0568152 0.024056513 -0.012332244 -0.052434362
0.0023585297 0.055834834 0.11280655 0.1133329 0.08224987 0.060893435 0.006205081 0.1224932

conv6.bias f4 [64]
00000000: 7b29 4dbc cffe 36bd 5d71 95bc f7fc 02bd
00000010: abdf abbc a451 a5bb 2ae8 323b b00b 2b3d
00000020: e5a8 823c d3a4 ccbc 9a68 11bd 795d cb3c
00000030: 3550 18bd 0f20 c9bb 85a0 4d3d d76a 29bd
00000040: 31e1 e33b ea02 103c 0d97 80bc fb5d 023d
00000050: ba3a fc3c aa6c c8bc 2216 023d fb11 9ebb
00000060: 4023 d0ba 78d8 d33b 9dcd a3bc b59c 03bd
00000070: d20b efb9 026e 26bb 1938 b6bb 9909 01bd
00000080: e77e 06bc 0a4b 8ebc 1a18 cd3b 4d29 b4bc
00000090: ff89 db3c fda8 5cbd 23ba 043d 3fe0 54bd
000000a0: a243 8fbc 1384 e4bc 6832 473d c1dc 9cbc
000000b0: f00d 9bbc 2bf3 58bd e190 7ebc 43e3 64bd
000000c0: 06f7 1bbd 48d1 ddbc 1b7d 763c 83ff 983c
000000d0: 7f2d f4bc 534b 37bc 5751 833c db96 4d3c
000000e0: f367 1939 2b3d 0e3d 8684 8e3c 48f9 00bc
000000f0: b315 babd 5065 86bd 11c4 4bbd 9afe e8bb
-0.012522097 -0.0446766 -0.018242532 -0.031979527 -0.020980677 -0.0050451327 0.0027299025 0.041759193
0.015949676 -0.024980938 -0.035500146 0.024824845 -0.037185866 -0.006137855 0.05020191 -0.041361656
0.006954335 0.008789757 -0.015697027 0.031827908 0.030789722 -0.024465878 0.03175939 -0.004823921
-0.0015879646 0.006465014 -0.019995505 -0.03213187 -0.0004559444 -0.002539516 -0.0055608866 -0.031503294
-0.008208967 -0.017369766 0.0062589766 -0.02199235 0.0267992 -0.053872097 0.032404076 -0.05197167
-0.017488305 -0.02789501 0.048632056 -0.019148232 -0.018927544 -0.052966278 -0.0155374715 -0.055880796
-0.038077377 -0.027077332 0.015044476 0.018676525 -0.02980685 -0.011187392 0.016029997 0.012548174
0.00014629941 0.034726303 0.017397176 -0.007871933 -0.0908617 -0.065622926 -0.04974753 -0.007110429

bn31.weight f4 [64]
00000000: 7d96 ef3e 3b42 d53f 8deb fc3e 9c8d 0140
00000010: 8009 0340 57bf 113e 512f ac3e 0732 ea3f
00000020: 309b 3d3f 5409 a93e f8e1 0f40 14e6 2d3f
00000030: c5f2 493f 8d13 0640 076e 3e3c 01d0 bf3c
00000040: 3515 8d3e 4ea0 ad3f 3b77 833f 9f18 a43f
00000050: 6a67 853e f44a 673f 1b09 0740 ea1b 193f
00000060: 2d84 7f3e 683d 163f 7685 5f3e 1b3d 413f
00000070: c1e3 363f 5a17 e93f 5054 573f e6dc db3e
00000080: 773f 9e3e 7bc7 fd3f 8e37 373f 55ef 663f
00000090: 6378 3d3f d477 0340 72b2 fb3f 38c4 0340
000000a0: bf1d ae3f f810 dc3e 45ed 983d ee34 d03e
000000b0: 583b 0340 c7b8 3d3b 0cbe 193f ee66 d13e
000000c0: 6c01 8d3e 3083 963f 71aa f43f b31a 973f
000000d0: f250 263f 983e 563f 8952 eb3e a3c5 b33e
000000e0: 2559 1940 241b 0540 ba4f 693c 6ba1 f63f
000000f0: f410 d13f 7547 c53e cbf4 013b 52ec 723b
0.467945 1.6660837 0.4939846 2.0242682 2.0474548 0.14233147 0.3362985 1.8296517
0.7406492 0.3301493 2.248167 0.67929196 0.7888606 2.0949433 0.011622912 0.023414614
0.27555242 1.3564546 1.0270761 1.2820014 0.2605546 0.90348744 2.1099308 0.5980822
0.24952765 0.5868745 0.21828255 0.75483865 0.71441275 1.8210251 0.84113026 0.4294197
0.30907795 1.9826502 0.71569145 0.9020894 0.7401182 2.0541887 1.9663832 2.0588512
1.3602828 0.42981696 0.074671306 0.40665382 2.050497 0.0028949247 0.60055614 0.40898842
0.27540147 1.1758785 1.9114515 1.1805023 0.6496726 0.8368926 0.45961407 0.35111722
2.396066 2.0797815 0.0142402 1.9268011 1.6333299 0.3853108 0.0019829746 0.0037067127
