checkpoints/best_model_1606_3.pth (torch, 370843 bytes, 38 tensors)

conv1.weight f4 [16, 1, 3, 3]
00000000: 1f41 5a3d 89ac 383f f69a 733e f4d9 383e
00000010: 88d2 96be 136b 20bf 5724 cabd 2c81 c3bf
00000020: 0b81 63c0 aa28 cfbe 4182 82bf ae64 a3bf
00000030: d1f5 c2bf b802 17bf 4e39 11bf fee0 8c3d
00000040: 7033 043f 22a6 1b3f a137 8d3e 2e0c b13d
00000050: b5da eabf f194 e23e 8358 de3e e0f0 6cbf
00000060: 1278 a7bf 5b0f 94bf 4608 62be ac7a fcbd
00000070: 447b 0c3f 3fdc 0b3f 7ebf 71bf 6099 b73d
00000080: 836a 863e f846 fabf 6a14 46bf e4be 62be
00000090: 9adb e8bf d1ee ea3d fd14 fb3e 2bd8 c2bc
000000a0: bc25 823f ce48 8cbe c9d9 9bbf 1160 6a3e
000000b0: 7eef 363c 4875 9cbf 047f 0ac0 99dc 91bf
000000c0: 840c b63e eef5 c23e bcc8 8bbc d9fe 2a3f
000000d0: c4e1 563d 272d 043f 663f a0be 0a36 ce3d
000000e0: c8cf 1a3f 2db0 24bf 53bc 07c0 41d4 38bf
000000f0: 392f ff3d a3d2 09be 74be ccbf 03f1 a73f
00000100: f17c 81be 8824 3dbf 5164 e4bb d40d 873f
00000110: aa6f 0ebe e4ca 8e3f 383e 903f 1cbf a53e
00000120: 1082 68be e622 6fbf 5fe9 fd3e 1227 0c3f
00000130: 84cd 1dbe a3c1 9a3c 2835 d93d fb90 afbf
00000140: 3398 fabf a7be 8a3f 1df4 2b3f c88c 80be
00000150: effd fb3e b61b 043f cf0d 2bbf bf11 99be
00000160: c99e b7bd 14d2 fbbf 774d 85bf 60e6 6a3f
00000170: d840 5dbf b4a7 733f 50ad 853f ddb7 1bbe
00000180: 90b0 88be 051c 70bd be4f abbf d8e9 df3e
00000190: d9c1 39be 428d 53bf eb10 d43d 55af 02bf
000001a0: 06b2 02c0 50f7 483f 7df2 dd3d ef87 4ebf
000001b0: df77 44be a6ce 973d 060b ef3e ae76 78c0
000001c0: bfd6 09c0 4107 c9bd af53 b13b 5881 2dbe
000001d0: c124 f63d 7013 87bf f666 3e3d 1a95 59bd
000001e0: 2d43 1bbe d9d8 4bbf 1485 21c0 b657 de3e
000001f0: c19d 9e3e e3d8 48bf f6a0 19c0 a4d0 c73e
00000200: 038d c93d 153e b1bf da71 433f 8b81 a33d
00000210: 939b 9f3d 9ce3 28be d333 d93c a3b3 8dbf
00000220: 7351 f6bd 3e1f e33e b2a8 b5bf 2e2f 55be
00000230: be80 1e3f fb9c 9bbf d16d 89bf 841a b9be
0.05328476 0.7213827 0.23789582 0.18051893 -0.29457498 -0.6266338 -0.098702125 -1.5273795
-3.5547512 -0.40460712 -1.0196 -1.27651 -1.5231267 -0.58988523 -0.56728065 0.06878851
0.5164099 0.60800374 0.27581504 0.08644901 -1.8347994 0.44254258 0.43426904 -0.92555046
-1.3083518 -1.1567186 -0.22073469 -0.12328085 0.5487559 0.54632944 -0.9443282 0.08964801
0.26253137 -1.9552908 -0.773749 -0.22143131 -1.8192017 0.11471332 0.4903945 -0.023784718
1.0167766 -0.27399296 -1.2175838 0.22888209 0.011165498 -1.2223291 -2.1640024 -1.1395446
0.35556424 0.38078254 -0.017063491 0.66795117 0.0524614 0.51631397 -0.3129837 0.10068901
0.604733 -0.6433132 -2.1208694 -0.72198874 0.12460179 -0.13459258 -1.5995622 1.3120426
-0.25290635 -0.7388387 -0.0069699665 1.0551095 -0.13909784 1.1155667 1.1268988 0.32372367
-0.22705865 -0.93412626 0.4959211 0.54747117 -0.15410429 0.018891161 0.10605842 -1.371612
-1.9577698 1.0839432 0.6716936 -0.25107408 0.49217173 0.51604784 -0.66817945 -0.29896352
-0.08965833 -1.9673486 -1.0414265 0.91757774 -0.8642707 0.9517777 1.0443516 -0.15206857
-0.26697206 -0.05862047 -1.338371 0.43733096 -0.18140353 -0.8263742 0.10354789 -0.51048785
-2.0421157 0.7850237 0.108372666 -0.8067617 -0.19186352 0.07412462 0.46688098 -3.8822436
-2.153732 -0.09815837 0.005411587 -0.16943872 0.12018729 -1.0552807 0.04648491 -0.05312071
-0.15162344 -0.7962776 -2.5237474 0.43426293 0.30979732 -0.7845594 -2.4004493 0.39026368
0.09841349 -1.3847071 0.763456 0.07983693 0.07793345 -0.16493076 0.02651397 -1.1070446
-0.12027254 0.44359773 -1.4192107 -0.20818779 0.61915195 -1.2157282 -1.0736638 -0.36153042

conv1.bias f4 [16]
00000000: f790 663f 0ed8 883e 52c0 29bf 8baa 5b3f
00000010: 43d3 4cbf 0002 a5be 4493 ff3d 05ce a13c
00000020: f2a7 123f 7023 96bd 298f 24be 9d2c 5c3f
00000030: ccf4 5b3f 8f68 8bbe cba7 b73e 5a34 a73f
0.9006495 0.26727337 -0.6630908 0.858071 -0.8000986 -0.32228088 0.124792606 0.019751558
0.57287514 -0.07330978 -0.16070236 0.86005574 0.85920405 -0.2722821 0.35870203 1.3062851

conv2.weight f4 [16, 16, 3, 3]
00000000: 7d5f d5be c5ce 5bc0 34fd 30c0 8cbd 3bbf
00000010: e529 9ebf 42dd b0bf 6306 84bf f942 97bf
00000020: b6e8 1fc0 56e3 27bf f1e1 693f 05ff 0640
00000030: 7c64 aa3e d169 103e a4ff 903d 608b 023f
00000040: f7d2 a73d a772 973f 5823 e13e ae91 90bf
00000050: c191 ac3d 1255 0cbc 41e8 123f 3cf0 043f
00000060: 1af6 893e a3d5 dbbe 77d7 b4be f57c 5fbf
00000070: 2dba ddbe 150e 43bf f1b7 d3bf f5bc f7be
00000080: cd9f b5be 9a7c df3e de7e 413f c2c0 aebf
00000090: a829 583e cb94 8ebe 047c 6abf 1b8f f63d
000000a0: de5f adbe fadf 58bf e48f 8fbf 7818 51bd
000000b0: 797d 60bf 5454 82be 14ad 04bf 4ac7 c8bf
000000c0: 756a a9bf 5391 aa3b 7329 2a3c 8455 673f
000000d0: ee09 8e3e e8a4 853d 7416 4ac0 bd26 5fc0
000000e0: ef78 c5bf cf8e c4bf bc33 e1bf ea03 54c0
000000f0: 718e ea3e cbf5 26bf 158e 70bf dc78 50bd
00000100: 8457 a73d 1840 023f bcb9 20be 356d 643d
00000110: d682 5ebe c8fc 9ebe 1aa9 91be e6a7 1fbe
00000120: 780b cbbe 33f0 b1be a05b 80c0 3a16 26be
00000130: a1bf afbe a710 aa3e 02d1 053f 02ec bebe
00000140: c92e 90c0 58c1 e1bd 7939 debf 9503 86bf
00000150: 3ac5 813f 2dd5 533f c33d 07bf 76c5 503f
00000160: 33fe 7c3f b770 483f f78b b53c cc04 a03f
00000170: 7360 41bf 8878 683e 31d6 793f d9e9 843f
00000180: 14f7 dcbe 3880 be3e dd91 83be 801f 55be
00000190: 57a1 b9bb 167a 183f 4002 9e3f 3b74 e6be
000001a0: e9ea 1dc0 ab0e 013f 2105 4c3e c91f 023f
000001b0: 8112 843f 5884 9a3e 8967 08bf d05e 933d
000001c0: 0f0f d03e 3c75 a7bf f54d 05c0 728a 44bf
000001d0: b80d 6d3f 0aec b5bf f455 abbd 52d3 92be
000001e0: 32b7 b8bd c8cd 193e be35 debf 1e2b 193f
000001f0: 51b8 ffbd aa91 91be 9f3d a7bf 613b 223f
00000200: 2719 49bf 3df4 2a3f c4b1 6d3c 8924 dcbf
00000210: f50a 0a3f 81c8 913d f9bd 1b3f 9bdd 263f
00000220: d043 40be bc1a 81c0 ea5d 083f ac56 f7be
00000230: b38a f7bf f30e 933e 6b38 40bf 5c29 31c0
00000240: 381f 12bf 9889 103e f51d 2440 c9d1 bb3d
00000250: a942 9d3e b2a6 fabb cbbd 6a3f 575e 9ebf
00000260: c9fe c0bf 76b9 3fbe 57a1 193f 41da 9d3f
00000270: 9f51 1abf 60f6 25bf 55e3 f6bd 7e62 a9be
00000280: 9ad1 8c3f 4218 cb3f c836 d83e 88f7 adbd
00000290: 320f 1e3e 05fe 873f c2a1 3ebe bff4 983e
000002a0: 92d9 413f 82c0 21bf d5dd b23f 287c 613f
000002b0: dbe3 9e3f d556 253f 864a 3ebf 93ed 70bf
000002c0: 2511 68bf 933e 7a3e 1810 42bd 70f0 53bf
000002d0: 0c1d c4bd a868 083f 8d05 c9bd eb31 c2bf
000002e0: df48 893e 6eb1 c8bf c143 50bf a245 d23f
000002f0: d325 a0bf 8af0 08bd 2325 c7be 4a12 23be
00000300: 917f bcbf 735c 55bf bd34 43be e000 793e
00000310: a694 33bf bf49 2a3c af3d 933f 384e 1a3f
00000320: 77a7 823f eb42 b93f d86d bd3f 48bc bb3f
00000330: 5e39 873e 4d1b 0c3c e871 433f 41b6 233e
00000340: 440a 6bbd 4174 abbd 0b6b 2fbe a514 3c3f
00000350: 4ef1 703f 8578 3cbf 44c1 9b3e 9944 573f
00000360: 8afb 9b3e 362e 253f 1d15 bcbf 283c 99bd
00000370: 4597 813e 5c23 c7bf 21a7 ca3e a7e3 37be
00000380: 757b eebe ba0f e3bd 5b12 8bbf e046 d8be
00000390: 39d5 163f 95f4 49bf 4e8c 31bf 5788 903d
000003a0: b064 bdbf 92c8 e63e 7cfd 323f dbb5 c8be
000003b0: 2d6d 76bf ee4e 04bf ff66 e9be 0167 d23f
000003c0: 5b4f 3ebf 6295 72bf 798f ea3f 03b6 443e
000003d0: f82c 563e 6245 acbe 7b3d 8cbd c854 79bf
000003e0: 61c8 efbf 0585 5d3f 276b b43e 0db3 a2bf
000003f0: 8fa7 4b3f a010 9c3d 212e f63d 814e f0be
-0.41674414 -3.4344952 -2.7654543 -0.733361 -1.2356535 -1.3817523 -1.0314449 -1.1817313
-2.4985785 -0.6558126 0.91360384 2.1093152 0.33279788 0.14102866 0.070800096 0.5099392
0.08194535 1.1831864 0.43972278 -1.1294458 0.08426238 -0.008565204 0.5738564 0.5192907
0.26945573 -0.4293643 -0.35320637 -0.87300044 -0.43306103 -0.7619336 -1.654051 -0.4838635
-0.3547348 0.4364975 0.7558421 -1.3652575 0.2110964 -0.27847895 -0.9159548 0.12039014
-0.33862203 -0.8471676 -1.1215787 -0.051048726 -0.87691456 -0.25454962 -0.51826596 -1.5685818
-1.3235613 0.0052053123 0.010385859 0.9036486 0.2774195 0.06525594 -3.1576204 -3.4867394
-1.5427531 -1.5356082 -1.7593913 -3.312739 0.458118 -0.652188 -0.939668 -0.05089651
0.08170989 0.5087905 -0.15695852 0.05576821 -0.21729597 -0.31052232 -0.28449327 -0.15591392
-0.39657187 -0.3475357 -4.0111847 -0.16219416 -0.3432589 0.3321583 0.52272046 -0.37289435
-4.505711 -0.110232055 -1.7361289 -1.0469843 1.0138314 0.82747155 -0.52828616 0.815513
0.9882538 0.7829699 0.022161467 1.2501464 -0.75537795 0.22702229 0.97592455 1.0383865
-0.43157256 0.37207198 -0.25697222 -0.20812798 -0.005664985 0.5956129 1.2344437 -0.45010552
-2.4674628 0.50413007 0.19923832 0.5082975 1.0318147 0.30179095 -0.5328298 0.071958184
0.4063649 -1.3082652 -2.0828831 -0.7677375 0.9259906 -1.4212658 -0.08366004 -0.2867685
-0.09019317 0.15019906 -1.7360151 0.59831417 -0.124863274 -0.28431445 -1.306568 0.63371855
-0.78554004 0.6677893 0.014507715 -1.719865 0.5392297 0.07118321 0.6083675 0.65181893
-0.18775868 -4.0345135 0.532683 -0.48308313 -1.9339203 0.28722343 -0.75086087 -2.7681494
-0.57078886 0.14114988 2.5643284 0.09170873 0.3071492 -0.007649266 0.9169585 -1.237254
-1.5077754 -0.18723091 0.6001181 1.2332231 -0.60280794 -0.64829063 -0.12055079 -0.33082956
1.1001465 1.5866778 0.42229295 -0.084944785 0.15435484 1.0624396 -0.18616393 0.29874226
0.7572261 -0.6318437 1.3973948 0.8808007 1.2413286 0.6458562 -0.74332464 -0.9411251
-0.9065116 0.24437933 -0.04737863 -0.82788754 -0.09575853 0.5328469 -0.09815512 -1.5171484
0.2681341 -1.5679147 -0.81353384 1.64275 -1.2511543 -0.03343252 -0.3889552 -0.15924945
-1.472643 -0.8334419 -0.19063087 0.2431674 -0.70148695 0.010393559 1.1503199 0.602756
1.0207356 1.4473547 1.4799147 1.4666834 0.26410955 0.008551431 0.7634568 0.15987493
-0.057382837 -0.08371783 -0.17130677 0.73469 0.941182 -0.736214 0.30420887 0.84089047
0.30465347 0.6452364 -1.4693943 -0.07482177 0.25310722 -1.5557666 0.39580634 -0.17957936
-0.46578565 -0.11086984 -1.0864977 -0.42241573 0.589191 -0.7888883 -0.6935471 0.07057255
-1.4796352 0.45074898 0.69918036 -0.39201245 -0.9626034 -0.5168294 -0.45586392 1.6437684
-0.74339837 -0.9475919 1.8325034 0.19210057 0.20915592 -0.33646685 -0.06847664 -0.9739499
-1.8733026 0.86531097 0.35238 -1.2710892 0.7955255 0.076203585 0.12020517 -0.46934894

conv2.bias f4 [16]
00000000: 6945 0f3d 4d8e a63c 9b05 1abd d66c 00bb
00000010: bb80 6cbd 8bb9 e63d 266e 20bd ccbc ff3c
00000020: b76a fdbc f3e0 0dbd 9172 dcbc a521 6ebd
00000030: a818 91bd 70fe 16bd d568 bebd 0052 e73d
0.034978304 0.020331526 -0.037603002 -0.0019596121 -0.057739954 0.11265858 -0.039167546 0.031217955
-0.030934675 -0.034638356 -0.026910098 -0.058137555 -0.07084781 -0.036863744 -0.09297339 0.11294937

bn11.weight f4 [16]
00000000: 8477 f43f ad65 4c3f 7d24 c23f cfb4 cc3f
00000010: a248 383f 8b97 a13f 8a75 d43f 68bf 053f
00000020: b7b0 e23f dc27 313f 8f27 2f3f f999 f63f
00000030: aa3a c13f ebb1 ba3f de61 9a3f dfb1 bc3f
1.9098973 0.79842645 1.5167385 1.5992678 0.7198583 1.2624372 1.659837 0.5224519
1.7710179 0.69201446 0.68419737 1.9265739 1.5096028 1.4585546 1.2061117 1.4741782

bn11.bias f4 [16]
00000000: c6cf 1abf 1c50 d03e fae5 84be 1469 dbbe
00000010: 32fc 5ebe 518b 99be 7172 28bf 9d51 f1be
00000020: be4c 08bf 6483 74bd f193 963d 4431 08bf
00000030: b57a ff3d 2b34 cfbe ddb8 6fbd eeb0 aabe
-0.6047329 0.4068612 -0.25956708 -0.42853606 -0.21775892 -0.29989102 -0.65799624 -0.47132578
-0.532421 -0.059695616 0.07352436 -0.53200173 0.124745764 -0.40469489 -0.05852591 -0.33338112

bn11.running_mean f4 [16]
00000000: 93e2 543f 1630 513e f053 39bf e19b 523f
00000010: 252e 52bf b6e4 b6be 501e 613d a874 973d
00000020: 6522 063f ae72 a5bd 8fd1 34be 3ae5 503f
00000030: cb6c 473f 68c9 abbe f609 a53e ffba 9e3f
0.83158225 0.204285 -0.72393703 0.822691 -0.8210166 -0.35721368 0.05496055 0.07395297
0.5239623 -0.08078514 -0.17658065 0.8159977 0.7790038 -0.33552098 0.32234162 1.2400817

bn11.running_var f4 [16]
00000000: 6896 1c3d e338 9a3c f056 7c3c bc9d 783c
00000010: 2f54 ed3b f282 983c e798 b43c 32d4 7a3c
00000020: eda3 6c3c c134 5d3c 83de d23b 3f50 8e3c
00000030: e6b0 3b3d e4e1 aa3c 15af 5f3c 712c a93c
0.038229376 0.018825954 0.015401587 0.015174326 0.0072427015 0.018617127 0.022045566 0.01530938
0.01444338 0.013501347 0.006435217 0.017372249 0.045823 0.020859666 0.013652583 0.020651074

bn12.weight f4 [16]
00000000: dd4c 7b3f f45d 123f c233 df3f af81 1040
00000010: c297 0a3f 0f84 0c40 781b b63f 0115 f63f
00000020: 41f3 c73f 8328 6b3f 17d8 f43f 127c a03f
00000030: 1d60 583f 303b 2d3f ee4a 0c40 60c0 b03f
0.9816416 0.5717461 1.743767 2.2579153 0.54137814 2.1955602 1.4227133 1.922516
1.562111 0.9185869 1.9128445 1.2537863 0.8452166 0.6766844 2.1920733 1.3808708

bn12.bias f4 [16]
00000000: c994 55bf cccc 123e fa47 a0be a6f3 143e
00000010: 4f5a 3cbe 312c 9dbf 6cd3 023f 946b 983d
00000020: 1411 803d 81e3 e6be 33bd b3be 5b46 953e
00000030: d562 e3be 105c ac3d f252 89bf 8abb a13d
-0.83430153 0.14335936 -0.31304914 0.1454607 -0.18393825 -1.2279111 0.51103854 0.07442394
0.062532574 -0.45095447 -0.35105285 0.2915524 -0.4441134 0.08415997 -1.0728438 0.07897098

bn12.running_mean f4 [16]
00000000: 1495 7dc0 cd7b b53f e0e4 c5be 2e58 a3bf
00000010: 125d 1241 d1dd c7bf 8e50 8840 f79a 19c0
00000020: 6f12 5740 073b 1941 0cfb f23f d3a0 4840
00000030: c6f0 61bf 1d38 ccbf 08d8 cebf 8f07 b140
-3.962224 1.4178406 -0.3865118 -1.2761285 9.147722 -1.5614568 4.2598333 -2.4000833
3.3605 9.576911 1.8982863 3.134816 -0.88258016 -1.5954624 -1.6159678 5.5321727

bn12.running_var f4 [16]
00000000: 3b69 1142 548b ac41 9897 4f42 c957 0242
00000010: 1137 0142 af52 c141 31ae 8e42 8d53 2442
00000020: a279 4942 db81 e741 31fe 9041 1541 2f42
00000030: fbd8 9442 8a67 6a41 927f bf41 fa2d e141
36.352764 21.568031 51.89804 32.585728 32.303776 24.165373 71.34022 41.081593
50.368782 28.938406 18.124117 43.813557 74.42379 14.650278 23.93729 28.14745

conv3.weight f4 [32, 16, 3, 3]
00000000: d2d6 01bf 9679 fdbe db9f c5bc 8745 89be
00000010: 204d 4c3e 2832 09bf 1855 a1be d661 a5bf
00000020: 2216 5b3f fa28 9cbe 964a fdbe ebcb be3f
00000030: 5b1f 0f3e 88d1 8c3f 423c 563f da00 cc3e
00000040: 6b3f 663f bc7c fc3e 1356 f63d 8249 0d3d
00000050: dec9 d33e 44cb 49be bd61 193f c9ce e23e
00000060: 1bbd 2d40 8fa3 e93e 8eb8 a53e c653 f5be
00000070: ac58 c63e 932c ee3e 058b 263f 1d5a cc3f
00000080: 4d54 7bbe 8a68 cd3e ee0e 863e 654b 18bf
00000090: 8fc3 453f 2328 0e3e baa8 14bd 58f9 3b3f
000000a0: 73f1 473f 9a61 eb3f 8498 c63f b16c a63e
000000b0: c636 283f a930 d43e 22fe 723f 43eb fe3f
000000c0: 3115 fa3e 193b f43f d992 c43f 78de a73f
000000d0: 4745 c83f 4c42 c53f 330b ef3f 0b92 3b3f
000000e0: 18d1 1c40 b700 363f 1f2c 083d 55f4 2d3f
000000f0: ba00 5e3f 59f6 843f 7eb5 b53f 6ca5 64bf
00000100: 750d 7fbe 1d87 223e 708d ddbe 8a3f 91bf
00000110: c740 58bf d079 a9be 6c19 2abe dd2e 80bf
00000120: 9bf9 9e3f 78b1 563f 0eb4 ec3d 89d0 19bf
00000130: 6226 a93e 5e0a 3fbd 710f 6d3f 42b4 ec3f
00000140: 341e 0440 b686 c13e f191 6a3e cae6 243f
00000150: 996a 0d3f 2aa2 1e3f 07ab 8b3f 8138 a43f
00000160: 73b1 823f c775 cfbd 60e8 80bf 09e8 83bf
00000170: 7310 67be 38d9 c3be 1a4a fcbe cac8 34bf
00000180: 2a04 2ebe a6d7 c3bd 1b9f 8fbf 2c90 313f
00000190: 828a 023f ede2 813f 87bd 043f d69e 593f
000001a0: 5a54 f23e 8967 913f 5416 523f 586e a13f
000001b0: 3e5e 3e3d 29d3 b9be ed49 353f cab9 ba3e
000001c0: 6fe1 85bd 7c58 413d b5ac a23e 52f5 2fbe
000001d0: 8ab8 a93e 66e1 8e3e 253b 71bd bd5a b9bd
000001e0: 0544 3a3e c624 3b3e 06ad 133f f1f6 993f
000001f0: a063 803e 4f3a 4a3f 78a8 9d3f 2f2f 8b3d
00000200: 231e ab3d 8b79 b33f 6315 0040 3366 8c3f
00000210: 503a 3a3d 6cbc 6e3f c0f2 bf3f fa5f 0bbf
00000220: 084e 3dbf 8930 0fbf f96a fbbe 335c f1be
00000230: c903 4cbf 83e2 b1be bd49 a3bf 5269 f9be
00000240: d362 3dbf 489c aabe ddaa 1fbf 7632 29be
00000250: 43d8 f0bf 23e2 01bf 4b13 943f f20e febe
00000260: e02b 89bf 5068 1fbf 4361 713f 21c2 cfbe
00000270: daad 1fbe d59e ee3d 8ff7 bcbe 3ae7 0dbf
00000280: ebbd e73f 0a0d 263e 936d f1be 200b 843e
00000290: 9f35 003f f803 573f d7da 6e3f 385f cbbe
000002a0: ecd9 3b3f ae3c e4be e6c1 05be 58a7 8fbe
000002b0: a40b 2fbf 327a 18c0 3160 0abf 5e2c d43e
000002c0: 6206 8bbf 93ca 96bf df97 cebe 9eba 7fbf
000002d0: 8ad1 573e f5c6 e6be f269 c53f a280 8abe
000002e0: ef7b 41bf 9e8a 9cbe 625b 043f cd4c d8be
000002f0: d666 febe f804 4bbe 1a0b c63f 806b 0f40
00000300: 308e 0740 3f63 2f3f 511e 2140 1ee5 2b40
00000310: f928 5dbd b789 b03f a50b 4c3f 070e cf3d
00000320: 232a 4c3e 1e2c cabe a070 d73e 7c33 51be
00000330: 92c4 f3be 134e 263f 0c71 0e3f 7e79 433e
00000340: 1d57 983e 48e8 9bbf baab 8abf c333 ec3e
00000350: a91c 52bf 36f6 f5bf 5a07 58be 42c4 ce3e
00000360: b93b 843e 4bcc 8a3e 846c c13c 9647 deb9
00000370: f406 043d 53ed 8a3f ad56 58bc da37 8d3f
00000380: d958 e3bf 0e15 a2be bdf4 b93d 1308 8e3e
00000390: 88ad a8bc 3f8c 373c fe4c 94bd 1b05 63bf
000003a0: 9334 76be e886 57be dc67 0940 3ccd cdbe
000003b0: 0466 31bf 7c78 f4be 6eb6 c4bc 8a2c cbbd
000003c0: 8c01 12c0 bd55 d73d 416b c73f c887 783f
000003d0: 40f5 423e 1811 d2be 18f3 083f d4ff 7fbf
000003e0: 1b23 88bf 6011 2c3f 6944 f2be ac06 3cbf
000003f0: 0879 9d3e 4a46 343f 2437 8b3f 2443 793e
-0.50718415 -0.49506825 -0.024124077 -0.26810858 0.19951296 -0.5359216 -0.31510234 -1.2920482
0.85580647 -0.30500013 -0.49470967 1.4905981 0.13976805 1.1001444 0.83685696 0.398444
0.8994052 0.49313915 0.12028136 0.03449393 0.4136495 -0.19706446 0.5991476 0.4429839
2.714667 0.45632598 0.32367367 -0.47915477 0.38739526 0.46518382 0.65055877 1.5965
-0.24543877 0.4011882 0.26183265 -0.5949004 0.77251524 0.13882498 -0.036293723 0.73427343
0.781028 1.8389161 1.5515294 0.325048 0.6570858 0.41443375 0.94919026 1.9915546
0.48844293 1.9080535 1.5357314 1.3114767 1.5646142 1.5410857 1.8675293 0.7326972
2.450262 0.7109484 0.033245202 0.67950946 0.8671986 1.0387679 1.4196012 -0.89314914
-0.24907477 0.15871854 -0.4327197 -1.1347516 -0.8447384 -0.33100748 -0.1661126 -1.0014302
1.2419924 0.83864546 0.1155778 -0.60083824 0.33037096 -0.046640746 0.92601687 1.849251
2.0643435 0.3779809 0.22907235 0.64414656 0.5524078 0.6196619 1.0911568 1.2829744
1.0210403 -0.10129886 -1.0070915 -1.0305187 -0.22564869 -0.38251662 -0.49275285 -0.7061888
-0.16993776 -0.09562616 -1.122043 0.69360614 0.50992596 1.0147377 0.51851696 0.8500799
0.4732998 1.1359721 0.8206532 1.2611799 0.046476595 -0.36293915 0.70815927 0.3646987
-0.06537139 0.047203526 0.3177239 -0.17183426 0.33148605 0.2790634 -0.058894295 -0.0905051
0.1819001 0.18275747 0.5768589 1.2028486 0.25076008 0.7899522 1.2317038 0.06796109
0.083553575 1.4021467 2.0013053 1.0968689 0.045465767 0.9325626 1.4995956 -0.54443324
-0.7394719 -0.55933434 -0.4910505 -0.47140655 -0.79693276 -0.34743127 -1.2756878 -0.48713166
-0.7397892 -0.33322358 -0.6237009 -0.16523156 -1.8815998 -0.5073568 1.1568388 -0.49620777
-1.0716515 -0.62268543 0.94289035 -0.40577796 -0.15593663 0.116513886 -0.36907622 -0.5543095
1.8104833 0.16215912 -0.4715391 0.25789738 0.5008182 0.8399043 0.93302673 -0.39721084
0.733794 -0.44577545 -0.13062248 -0.2805736 -0.6837714 -2.3824582 -0.54053026 0.414401
-1.0861323 -1.1780571 -0.40350243 -0.9989413 0.21076027 -0.45073667 1.5422957 -0.27051264
-0.7557973 -0.30574507 0.5170194 -0.42246094 -0.49687833 -0.19826114 1.5472138 2.2409363
2.1180534 0.6851081 2.5174754 2.6858592 -0.053994153 1.3792027 0.7970527 0.101100974
0.19937949 -0.39486784 0.42078114 -0.20429796 -0.4761091 0.6496288 0.55641246 0.19089314
0.29753962 -1.2180262 -1.0833657 0.4613324 -0.8207498 -1.9215763 -0.21096554 0.40384108
0.25826815 0.27108988 0.023611315 -0.00042396475 0.032233194 1.0853676 -0.013204259 1.103267
-1.7761489 -0.31656688 0.09079883 0.27740535 -0.020590559 0.011202871 -0.072412476 -0.88679665
-0.24043493 -0.21047556 2.146964 -0.40195644 -0.6929629 -0.47748172 -0.02401277 -0.099206045
-2.2813444 0.105144 1.5579606 0.97082186 0.19038868 -0.41028666 0.5349593 -0.9999974
-1.0635713 0.6721401 -0.47317818 -0.7344768 0.30756402 0.7041975 1.0876203 0.24342018

conv3.bias f4 [32]
00000000: 0c54 17bd 6d83 8e3d 7eef a13c ac57 093c
00000010: f47e 0bbd 76c7 153c c08f a3bd feba d23a
00000020: ecd9 5fbc 0cf9 963c 0acd 9dbd ea38 57bc
00000030: ad52 993d a645 233c bb4b 1f3d 4011 fd3b
00000040: 15f3 4a3d 14fe 71bd 7a2b 06bc b87c 6dba
00000050: 43b8 563d 1bb9 5abd b436 d4bc 249a a83b
00000060: 4a54 743d cc6b 5dbd ffc8 b43d 83ec a3bd
00000070: 884c 27bd 5ba1 3dbc 5abb 1d3d aac2 6f3d
-0.036945388 0.06958661 0.01976752 0.008382719 -0.03405662 0.0091417935 -0.079864025 0.0016077457
-0.0136627965 0.018429302 -0.07705124 -0.013136128 0.07486472 0.009965336 0.03889058 0.0077230036
0.049548227 -0.0590802 -0.008189077 -0.0009059417 0.05242182 -0.053399187 -0.02590499 0.005145328
0.059650697 -0.05405788 0.088273995 -0.080040954 -0.04084447 -0.011574115 0.03850875 0.058535255

conv4.weight f4 [32, 32, 3, 3]
00000000: 052b 90be e257 f7be 9f3e 3e3f 6b1d 093f
00000010: 71f7 623f 6312 1f3f 3882 7d3f 730e 013f
00000020: 253b 2a3f 965f 4ebe 524e 15bf 041f 133f
00000030: a5db 6f3c b856 f6bf c5be 893e c1bc 9b3f
00000040: 62b7 b63f 96fb 4dbf 3fa7 073e 6be6 3e3f
00000050: 6d80 ed3e 8cbe d03e a989 a13f ad0c 613f
00000060: d060 a43e 2ad5 9d3f 396e 6b3e 0b2c 343f
00000070: 86ff db3f b6f1 533f 9411 063d e3ca 4e3e
00000080: c669 ce3e 7b58 f3bd ff35 1c3f 1fe8 9f3f
00000090: fafc 8f3f 2c30 ad3f 631d 8abe e123 013e
000000a0: de27 8bbf 44ab 99be 702f a33f c66e 7e3f
000000b0: a722 a63f c446 d0be b43b ec3e 7106 0f3e
000000c0: 8e59 8ebd 2bd3 43be 662e 313f 299a 2a3e
000000d0: 188e a2be f32a 943e aa6d 563f 1ef0 a93f
000000e0: dd03 053f 192e 163f fff6 303d c73b 01bf
000000f0: a47c 573f ff9b 283f e76e ba3e 0fc6 e93e
00000100: bd19 0e3f 3709 f53e 9b9d f9be e475 c0bf
00000110: 000b b8bc 3c15 d83e d250 413f b191 4f3f
00000120: 262f 4b3e f48a 653f 9ff6 e13f 8c36 853e
00000130: 19e0 eebe 2dec 443e 3247 a83e 9be5 673e
00000140: 2ecf 943f 1fe1 053f f9a1 f23e 5fd5 383e
00000150: f44e 85be a594 03bf 29bb 83be 3087 503f
00000160: dc7d 063f 7784 683f a30f 123f 5fce 003f
00000170: 04a4 3b3f 6c7c 643f f1e2 603f 14cd a33f
00000180: aec7 453f 2962 7b3f ff6f 9a3f b859 f63e
00000190: 64c3 0c3e f125 0c3f 0ff7 0abf 8558 e7bd
000001a0: f8e3 093f 9dc3 c33f 2925 953f 2a26 ef3f
000001b0: 1016 013f d7c6 053f fe47 853c 25cd f8be
000001c0: 188b 5fbf 5a1e 0e3f 44f7 053f 6b58 0fbc
000001d0: 634e 123d 54c1 3dbf 4002 e53b a8be 28bf
000001e0: 6bd5 36bf bc25 f1bd 8d17 46be 80fc ddbe
000001f0: 768d 7fbf 7ea3 66bf 8645 bcbe b049 54bf
00000200: 2d6a 8fbf 67e6 38bf 4917 b33e 9ee1 21bf
00000210: 7629 af3e 378d 48bf be1f 69bf 12ee a4bd
00000220: 48f4 843f 100a 3f3d 013e c2bc ce6d e63e
00000230: 16cb eb3e b6fd 0a3e 8f31 113f 992d fe3d
00000240: cdbd 603f c259 563f d486 663f 4fa8 583f
00000250: 2527 143f f43a 633f 4e8f 773f 18c9 5a3f
00000260: c9a7 913f 528c 13bf dc29 21bf a612 9abf
00000270: fb62 1fbf df04 a4bf 9fc3 84bf f788 35bf
00000280: a7bc 1abf 82bb bebe 4f95 5b3f eb81 4f3f
00000290: 7a8e 6e3f 69e6 413f 8cdb 273f faa6 533f
000002a0: 81b8 4a3f 041c 4e3f 00e8 8f3f 6ac9 f93e
000002b0: 35ea d63e c9f1 1e3f 6e18 4f3f 6193 2e3f
000002c0: 2f65 813f 388b 6f3f 26d7 623f e3cd a03f
000002d0: fa0b ee3e ea76 57bf 87c1 8c3f b884 233f
000002e0: 5364 fdbe 6522 7e3e 2f33 cf3e f712 663d
000002f0: b8df 953e 74a5 443e 6658 bd3e bd24 4b3f
00000300: 0069 2fbf e06e 32bf 8dbe bdbd 8a6c 903e
00000310: 67fc 0e3f b212 933f 54a3 d13f e48b c03e
00000320: 4724 29bf ad36 913f 70d6 363f 57df 473e
00000330: 300c 933f 16bb c83e b1a8 e9be 366b 313f
00000340: 1f68 523f c386 ac3f f3a2 6f3f 14e2 f03e
00000350: cfad 7b3f 3cf8 b43e 5444 db3e 4eb1 143f
00000360: 38ee 053f dc8f 9d3f 59d5 263f 2569 753f
00000370: 733a a63f ad85 5e3f 09c1 b43f 823a df3f
00000380: 11c9 563f a7d7 363f 56f8 3e3f 367b 8d3e
00000390: 821a 503d 80b2 7bbe bc3d a3be 1103 1b3f
000003a0: a0b2 bf3e 73da 543f 0666 80bf 692a 6ebf
000003b0: 9b7c 84bf 0744 86bd b40c 283f 2a1d a5be
000003c0: f41f 03bc 458a a3be 8df8 593f 470c ecba
000003d0: 12fe 0abe 74a6 3c3d 1283 103f eb7c 503e
000003e0: e937 523e d75e d33e 8b38 563f a204 3e3f
000003f0: 5aa4 5b3f 1c27 de3e 641b f03d be28 d33e
-0.2815782 -0.48309237 0.743143 0.53560513 0.88658816 0.6213743 0.99026823 0.5041267
0.664965 -0.2015365 -0.5832263 0.574692 0.01463977 -1.9245214 0.26903358 1.2166978
1.4274714 -0.80462015 0.13247393 0.7457034 0.46387044 0.40770376 1.2620136 0.87909967
0.32105112 1.2330678 0.22991265 0.70379704 1.7187355 0.82790697 0.032731608 0.20194583
0.40315074 -0.11882111 0.6101989 1.2492713 1.1249077 1.3530326 -0.26975545 0.12611343
-1.0871542 -0.30013478 1.2748852 0.99387777 1.2979325 -0.4067899 0.461393 0.13967301
-0.06950675 -0.19123523 0.69211423 0.1666037 -0.31749034 0.28939018 0.83761084 1.3276403
0.5195902 0.5866409 0.043204304 -0.5048184 0.8417456 0.6586303 0.36412737 0.4565892
0.55508024 0.47858593 -0.48753056 -1.5035977 -0.022466183 0.422037 0.75513947 0.8108168
0.19842204 0.8966515 1.7653388 0.26018178 -0.46655348 0.19230719 0.32866818 0.22646181
1.1625726 0.5229663 0.473892 0.18050145 -0.260368 -0.5139869 -0.2572873 0.8145628
0.52535796 0.90827125 0.5705511 0.503149 0.73297143 0.8925235 0.87846285 1.279696
0.7725781 0.98196656 1.2065428 0.48115325 0.1374641 0.54745394 -0.5428323 -0.11296181
0.5386348 1.5294071 1.1651965 1.8683522 0.5042429 0.5225653 0.01626968 -0.48594013
-0.87321615 0.5551506 0.5233042 -0.008749108 0.035719287 -0.7412312 0.0069887936 -0.6591592
-0.714194 -0.117747754 -0.19344921 -0.43356705 -0.9982523 -0.9009322 -0.36771792 -0.8292494
-1.1204277 -0.72226566 0.34978703 -0.6323489 0.3421132 -0.78340477 -0.9106406 -0.08053221
1.0387049 0.046640456 -0.023711206 0.4500565 0.4605338 0.13573346 0.56716245 0.12411041
0.87789613 0.8373071 0.9004948 0.8463182 0.5787223 0.8876183 0.9670304 0.85463095
1.1379329 -0.57635987 -0.629545 -1.2036941 -0.6226041 -1.2813987 -1.0372199 -0.70912117
-0.6044411 -0.37252432 0.857747 0.81057614 0.9318615 0.75742203 0.65569377 0.8267666
0.7918778 0.805115 1.1242676 0.4878648 0.4197556 0.62087685 0.8089665 0.6819363
1.0109004 0.93571806 0.8860954 1.2562832 0.46493512 -0.84165823 1.099656 0.6387439
-0.49490604 0.24817808 0.40468737 0.05617043 0.29272246 0.1920374 0.36981505 0.79352933
-0.6851959 -0.6970043 -0.0926486 0.2820781 0.55853885 1.149008 1.6377969 0.37606728
-0.6607098 1.1344811 0.71420956 0.19518791 1.1488094 0.39205235 -0.45636514 0.69304216
0.82190126 1.3478626 0.93608016 0.47047484 0.98312086 0.35345638 0.42825568 0.58083045
0.5231662 1.2309527 0.6516929 0.9586356 1.2986587 0.86922723 1.412141 1.743973
0.83900553 0.7142281 0.7459768 0.27633065 0.05080653 -0.24579811 -0.31883037 0.60551554
0.37440968 0.8314583 -1.0031135 -0.9303346 -1.0350527 -0.06555944 0.65644383 -0.32248813
-0.008003224 -0.3194143 0.85144883 -0.001800903 -0.13573483 0.04605718 0.5645 0.20360152
0.2052914 0.41283295 0.8368003 0.7422582 0.85797656 0.43389213 0.11723974 0.4124202

conv4.bias f4 [32]
00000000: cfd4 413d 054e 80bb 7430 1abd a4d9 933d
00000010: bcc1 71bd e17f 63bd a4a8 fd3c 32a3 813d
00000020: 96db 41bd 508c d5bb a78b 0bbd a0ec 30bc
00000030: bcc9 0cbd 484c f13c f962 92bd e3fc 433b
00000040: d951 d4bb db9b 483d e76f b3bc d538 813d
00000050: 1183 58bd 7ab8 5ebc 6899 5dbd 6399 f1bc
00000060: 441b d83c 96cf 85bd 3961 5abd e7a5 9c3c
00000070: f86a 603c 0cf0 5cbd 0426 033b 3c07 47bb
0.04732209 -0.0039155507 -0.037643865 0.07219246 -0.05902265 -0.055541877 0.030964203 0.06329955
-0.047328554 -0.0065169707 -0.03406873 -0.010798603 -0.034372076 0.029455319 -0.07147784 0.002990537
-0.0064794836 0.04897676 -0.021903945 0.06309668 -0.05285937 -0.013593787 -0.054101378 -0.029492086
0.026380189 -0.065337345 -0.053315375 0.019122077 0.013697378 -0.053939864 0.0020011673 -0.0030369302

bn21.weight f4 [32]
00000000: 8ab9 7f3f b462 a33f 6675 c43f 7765 db3f
00000010: d61d 763f b02d e83f f6d5 db3f 09f0 6f3f
00000020: 7c93 3c3f 463a 583f 9fad 913f 354c 873f
00000030: b7c7 5c3f ae50 0b40 b484 9c3f d8c2 e93f
00000040: f0a8 793f 304f 983f 24d1 953f ad3e 583f
00000050: 4f44 ea3f 7662 633f feab d73f 7b31 a63f
00000060: 87f8 d33f 27a2 4f3f cc69 cb3f 6246 a33f
00000070: 4aef 693f a06b 863f 12f5 b13f 12f3 693f
0.99892485 1.2764497 1.5348327 1.714034 0.96139276 1.8138943 1.7174671 0.9372564
0.73662543 0.8446392 1.138111 1.0570132 0.8624224 2.1767993 1.2227998 1.8262587
0.97523403 1.1899166 1.170445 0.84470636 1.8302096 0.88822114 1.6849363 1.298385
1.656022 0.811068 1.5891662 1.2755854 0.9138075 1.0501595 1.3902915 0.9138652

bn21.bias f4 [32]
00000000: 4296 efbf 4229 2abf 7a79 7cbf 512c 9abb
00000010: e2f9 0dbf 06e6 2fbf 1ffd 65bd f9cd 1abf
00000020: 32eb 09bf 0d7e 00bf 5365 9cbc 9175 3abf
00000030: cc17 b8bf 4e63 c0bf 6764 9abf a1ac 06bf
00000040: 40be a93d 2949 9e3e cf3d 54be 7d3c 3bbe
00000050: d653 abbe 5d98 0fbf 57b8 c6be 8766 b8be
00000060: 1a69 02bf 993d 1dbf 770d 7abf bed9 3abf
00000070: ca69 1dbf 927d 2dbf e8ca 11bf 1e9c 3abe
-1.871773 -0.66469204 -0.9862286 -0.00470499 -0.55459416 -0.6871036 -0.0561496 -0.6047054
-0.53874505 -0.5019234 -0.019091284 -0.7283564 -1.4382262 -1.5030305 -1.206189 -0.5260716
0.082882404 0.30915192 -0.20726703 -0.18284793 -0.334624 -0.5609186 -0.38812515 -0.36015722
-0.5094162 -0.61422116 -0.97676796 -0.729885 -0.61489546 -0.6776973 -0.56950235 -0.18223616

bn21.running_mean f4 [32]
00000000: 6eed c241 3295 84c0 37b4 573f 1712 2abf
00000010: 504e ec41 5a33 3fbf fa6f c9c1 c2ef 1c41
00000020: f6cc c741 090d dc41 1d43 07c2 1fed 0942
00000030: c91b ca41 9f60 4dbf 3dcf 3fc0 e671 77c0
00000040: 4766 3ac2 d133 8fbf 6f32 c3c1 0f0c 00c2
00000050: e331 2440 b96e 0c42 68a5 83c1 8a06 fe41
00000060: 8804 42c0 aab6 0542 b321 bdbe 8b55 dabf
00000070: 56c0 1042 1e0d b841 ea8d 7340 c0a8 1bc2
24.365932 -4.1432123 0.8425936 -0.6643385 29.538239 -0.7468773 -25.179676 9.808535
24.975079 27.506365 -33.81554 34.481564 25.263567 -0.8022556 -2.9970238 -3.8663268
-46.59988 -1.1187688 -24.399626 -32.011776 2.5655448 35.108128 -16.455765 31.753193
-3.0315266 33.428383 -0.36939773 -1.7057356 36.187828 23.006405 3.8055367 -38.914795

bn21.running_var f4 [32]
00000000: 295d b842 1fe3 4f42 3888 3242 6669 0c42
00000010: 63a4 9042 87da 2d42 bd6d 0243 1cc8 4142
00000020: 802f a842 837d ca42 7e38 b543 2c8e d842
00000030: 1e21 dc42 6513 e141 d092 ef41 5c66 8742
00000040: 4635 b943 3dba 3342 3e94 1f43 478c 7243
00000050: 2d15 8142 16cb cc42 45fb a142 de48 1143
00000060: 7313 5442 57e9 e042 66c9 ed41 6ad9 3142
00000070: 4c16 f242 caa9 c242 8516 1f42 9a24 b343
92.18195 51.971798 44.633026 35.10293 72.32107 43.463406 130.42867 48.44542
84.09277 101.24514 362.44135 108.27768 110.06468 28.13447 29.946686 67.69992
370.4162 44.931873 159.57907 242.54796 64.54136 102.39665 80.99076 145.28464
53.018993 112.45574 29.72334 44.46232 121.04355 97.33162 39.77199 358.28595

bn22.weight f4 [32]
00000000: b5d1 623f b17c 483f 3bf3 2d3f b84c 5b3f
00000010: 4558 903f 6bec 1c3f 53cf ad3f d283 fe3e
00000020: 6e47 2c3f fd77 b63f 9bde 9e3f 6852 103f
00000030: 7124 a43f 023e 853f 0ca2 243f ba01 3b3f
00000040: 2dab 703f 5271 dc3f f30f 833f 0e51 833f
00000050: f8de 113f b6f1 573f 2300 5b3f 7979 af3f
00000060: 864f af3f 0407 173f 98f9 553f 8ec2 8b3f
00000070: 4a9b 3a3f aecb dc3f 4168 a53f 6a1b 993f
0.8860124 0.78315264 0.67949265 0.8566394 1.1276938 0.61298245 1.3578895 0.49709946
0.67296493 1.4255368 1.2411684 0.5637574 1.2823621 1.0409548 0.64309764 0.7304951
0.94011194 1.7222083 1.0239242 1.0259111 0.5698085 0.84353197 0.85547084 1.3708946
1.3696144 0.5899508 0.83583975 1.0918748 0.728932 1.7249658 1.2922441 1.1961491

bn22.bias f4 [32]
00000000: ba4f 04c0 8f9e 88bf 4e5a 20bf 2b2f 77bf
00000010: ace1 76bf 3f67 debf 8809 50bf 7177 a4bf
00000020: c8a8 aebf f321 9cbf 50c7 d2bf 4966 d4bf
00000030: 9480 8c3e cd52 ac3e 36d9 d8bf 2107 eabf
00000040: 5e8b fcbf 13ab 863e 4145 f93e 1c21 77bf
00000050: 9ec6 01bf 8421 e5bf d0c4 03bf e9b6 8ebe
00000060: 1017 1ac0 f9ca d7bf be2d 1cbf 6ff6 593f
00000070: 0c18 b2bf edd3 93be 21ab 9dbf a1a2 4bbd
-2.0673661 -1.0673388 -0.62637794 -0.9655635 -0.964381 -1.7375258 -0.81264544 -1.2848951
-1.3645258 -1.219786 -1.6467075 -1.6593715 0.27441847 0.33656922 -1.6941288 -1.8283426
-1.9730031 0.26302394 0.4868565 -0.96534896 -0.5069369 -1.7900853 -0.5147219 -0.27873924
-2.4076576 -1.6858817 -0.610073 0.8514165 -1.3913589 -0.28872624 -1.2317849 -0.049715642

bn22.running_mean f4 [32]
00000000: 8987 fe41 1f6f ad40 7a76 53c1 4c00 a9c1
00000010: 226c 73c1 6d40 a341 2a8d aac0 82fc 9741
00000020: 1ed8 9641 8f7a bcc1 e79b ae40 72e1 7641
00000030: 8521 92c1 31e3 bcc1 af65 4d41 abb2 7541
00000040: 5223 8841 7b48 c1c1 a955 4841 3a93 63bf
00000050: 5007 833d f50f 6941 b79f bd40 77d7 8cc1
00000060: 919c ff41 10ae 9941 618b 89c1 ed26 fb3e
00000070: bd4e 34bf 003a 62c1 482e 70c1 c229 31c1
31.81618 5.4198146 -13.216425 -21.125145 -15.2139 20.406458 -5.329732 18.998295
18.855526 -23.559843 5.456531 15.43004 -18.266367 -23.610933 12.837325 15.35612
17.017246 -24.16039 12.520913 -0.88896525 0.06397879 14.566396 5.9257464 -17.605207
31.951448 19.209991 -17.193056 0.49053136 -0.70432645 -14.13916 -15.011299 -11.072695

bn22.running_var f4 [32]
00000000: 9116 8843 7e3e 0543 7bd8 1343 4191 1943
00000010: f593 7643 ddf6 6943 559e d542 c3e0 3143
00000020: 439e 3543 3c2c 9643 bfb6 0343 af29 1643
00000030: e1de 9143 e91a a243 7850 db42 ee1b 2a43
00000040: f94c 0543 fce1 cd43 4529 1b44 63ac ed42
00000050: 3706 1e43 41a4 0343 a980 8443 e2e0 2043
00000060: 41af 6843 7ec3 5543 ab1e 6e43 b836 a443
00000070: c648 5342 29e9 6243 d34c 3543 9527 3a43
272.1763 133.24411 147.84563 153.5674 246.57796 233.96431 106.80924 177.87798
181.61821 300.34558 131.71385 150.16283 291.74124 324.21024 109.657166 170.1091
133.30067 411.7655 620.64484 118.83669 158.02428 131.64162 265.00516 160.87845
232.68459 213.76364 238.1198 328.4275 52.821068 226.91078 181.3001 186.15462

conv5.weight f4 [64, 32, 3, 3]
00000000: cddd 823e 1005 f6be 4ee2 3dbe 3bdb 4f3f
00000010: 6d14 f73e e7d8 1d3e 66d1 0940 4e78 c13f
00000020: 56ea 543f 64c7 d1bc 4ae2 ad3f f285 8b3f
00000030: 0f11 493f 7a72 2c3f 7003 7a3e 192a 17bf
00000040: ed41 2a3f 5673 62be 15c9 b6be 175e 81bf
00000050: 1fd9 5fbe c045 19be c698 c63e 3ae6 02bf
00000060: e581 59bf 040f 1dbe f6b8 babf ac3b 85bf
00000070: 3513 93be 6f4f aabf f41f 11be b783 813f
00000080: 16c4 553e 0ddf 92be cb78 45bf e280 c7bf
00000090: 3105 ecbf 8a45 44be 358e dfbf 096f 273f
000000a0: e078 59bf 5920 81bf 1a8d b1be 3d16 20bf
000000b0: bb17 48bf 85e4 2b3e 1c8a 483f bd52 28bf
000000c0: 34b6 a33e 670c 553f d027 083d 8be5 e9be
000000d0: fc22 98bb b713 073d 9be5 59be 0302 28be
000000e0: f719 a83e dd07 b33e 396c 52be f7c7 7a3d
000000f0: a53f b53d 28a1 2c3d 4077 a43e a0cf 063e
00000100: 97b5 c33e 2c3e 65bd c901 4d3f 53d1 a0bd
00000110: 157e d03e 9d97 dcbe 811f 17be 2afc fa3c
00000120: 9a3f d53e 970c 06bf 475b 913f c0da 1b3f
00000130: b982 dabd f23b b5be 6478 943f 0598 b6be
00000140: c14d 093f d4bf 0cc0 389f ed3e 3019 04c0
00000150: 7bb5 483e f355 dabe 0b91 85bf b8fd 0abf
00000160: fd9d 5a3e 13dc 2bbf 5bc0 6f3e fb54 b6bf
00000170: adfe 27c0 3695 2c40 7a01 fc3f 9959 ec3e
00000180: f72f 0840 1206 143f a316 863f 5099 7f3e
00000190: c463 843e e087 f4be 4f97 f93d 98b4 be3e
000001a0: d455 073e 3c17 0cbf 810e c8bc 32ca f43c
000001b0: e168 3f3f 750a 31be 9635 05c0 dee7 0e3f
000001c0: ea31 63bf 7fb5 22be 1349 f8bf 67d5 aabc
000001d0: 98ac 0ac0 e140 32bf c84a 0140 9ebb 463f
000001e0: 8263 a4bf f427 0d3f dada babf c81e a53f
000001f0: db8f 983e aa52 d5be ff69 1bbe dac4 a83d
00000200: 95fa 6abf 9d0b 3fbe 25d3 c43e 84fc 09be
00000210: be58 86bf 70f5 37bd 5137 60be 0521 10be
00000220: dfe9 d9bd 594b 7dbf a763 dcbe a4da 123f
00000230: 86b6 e5bd f8ec 7abf a04e be3d b987 f83b
00000240: 2c14 283f 9cc9 b93d e919 343f 3b24 98be
00000250: e541 e13e 27f8 e1bc 85ea 883f bd8b 8d3e
00000260: 99bb d13e c315 4c40 0679 e03f e730 693f
00000270: e527 cc3f ba11 1d3d edde 14bf 1bac f5bc
00000280: 435a 803e 5e02 c3be 5eb6 d0be c6f4 5dbf
00000290: daf7 eabe 6865 8f3e f8d5 b33e 40e6 173f
000002a0: 15f0 3d3e 4625 80bd deae 273e dea6 b03f
000002b0: 4a8b 28be 000c ccbb 1e49 313f 8bd9 323f
000002c0: e118 ac3e 7439 9d3f bd6e 353e e5ae ec3d
000002d0: 841d 33bf 1314 1f3f 787f 4bbf 25cd a0be
000002e0: 888b a13e fff0 93bf cfde 46bf 41bd 92be
000002f0: 30bc 87bf 56e0 db3d 9a79 453f 8bea ba3f
00000300: 86fa d23e bab2 bc3e 40ed 01bd 3b1c 0440
00000310: 05c7 ad3f abe1 273f 7179 0a3e b334 073e
00000320: bfae 48bf 16fd f83d 5a4c 923e 182b edbe
00000330: a3f1 0f3f ac78 823e eb47 523f 5703 dabf
00000340: 180e a03f 098e 773f 64cf 21bf 12d3 80bd
00000350: eb28 31be 92b9 1dbe 1469 d73e 0ca3 673f
00000360: d98e 0ec0 6293 c13e 5fc1 5ebe 1b0f 1d3f
00000370: 9731 6b3f 707a 943f 3e24 123f 4af9 393f
00000380: a85b a43f 6ffe c73e e9b1 823e 0074 8fbe
00000390: 6f06 b23d 1b8d f63e 477e 363e 45e4 1cbf
000003a0: 2a6a 60bc 5828 c33d 6947 6bbf 1af3 18bf
000003b0: 3f01 29bf fb59 1f3f d623 c43e f03f 35bf
000003c0: fe62 21be b67a b6be 2e11 55bf 3ced 36bf
000003d0: 38e8 bdbf 550d 0ebf c5ac 85be c856 f83d
000003e0: 11a2 d13e 7073 7cbf 3a34 43bf 1b13 0abe
000003f0: d7e2 153f 6398 cc3e 5d7f a13b 9632 6c3d
0.25559846 -0.48050737 -0.1854336 0.81193894 0.4825777 0.15414773 2.1534057 1.5114839
0.8317007 -0.025607772 1.3584683 1.0900252 0.78541654 0.6736218 0.24415374 -0.5904861
0.66506845 -0.2211431 -0.35700288 -1.0106839 -0.21860169 -0.14968014 0.38788432 -0.5113255
-0.8496383 -0.1533776 -1.4587696 -1.0408835 -0.2872559 -1.3305491 -0.14172345 1.0118321
0.20875582 -0.286858 -0.7713744 -1.5586207 -1.8439084 -0.19167152 -1.7465273 0.654038
-0.84950066 -1.0087997 -0.34677964 -0.6253393 -0.7816121 0.16786392 0.7833574 -0.6575125
0.31974947 0.8322205 0.033241093 -0.4568294 -0.0046428423 0.032977786 -0.21278994 -0.16407017
0.3283231 0.34966937 -0.20549096 0.061225858 0.0885003 0.042145878 0.3212223 0.1316514
0.3822448 -0.055967495 0.8008085 -0.078524254 0.40721193 -0.43084422 -0.14758112 0.03063782
0.41650087 -0.5236296 1.1355981 0.6088066 -0.106694646 -0.35397297 1.159924 -0.35662857
0.5363427 -2.1992083 0.46410537 -2.0640373 0.1960048 -0.426437 -1.0434889 -0.54293394
0.2134933 -0.6713268 0.23413222 -1.4244684 -2.6249192 2.696607 1.9687951 0.46162108
2.1279275 0.5782176 1.0475658 0.24960828 0.25857365 -0.47759914 0.12187063 0.37247157
0.13216335 -0.5472295 -0.024420979 0.02988157 0.7476941 -0.17289145 -2.0813956 0.5582255
-0.8874804 -0.15889548 -1.93973 -0.020853711 -2.1667843 -0.6963025 2.0201893 0.7763003
-1.2842867 0.5513909 -1.4598038 1.2900019 0.29797253 -0.4166463 -0.15177153 0.082406715
-0.9178861 -0.18656774 0.3844234 -0.13475233 -1.0495832 -0.0449118 -0.21896102 -0.14075096
-0.106403105 -0.98943096 -0.4304478 0.5736487 -0.11216454 -0.98017836 0.0929234 0.007584539
0.6565578 0.09071657 0.70352036 -0.29715142 0.43995586 -0.027584149 1.069657 0.27645674
0.40963438 3.1888282 1.7536933 0.91090244 1.5949675 0.038346983 -0.5815266 -0.029989293
0.25068864 -0.38087744 -0.40764135 -0.8670162 -0.4589222 0.28007054 0.35124183 0.5933571
0.18548615 -0.06257109 0.163753 1.3800924 -0.16459385 -0.0062270164 0.6925219 0.69863194
0.3361273 1.2283158 0.17718025 0.11556796 -0.6996691 0.62140006 -0.79491377 -0.31406513
0.31551766 -1.1557921 -0.7768373 -0.28660014 -1.0604305 0.10736148 0.77138674 1.4602827
0.4120676 0.36855108 -0.0317204 2.064223 1.3576361 0.65578717 0.13522889 0.13203697
-0.7839164 0.12157647 0.28573877 -0.4632194 0.56228083 0.2548269 0.8214099 -1.7032269
1.2504301 0.96701103 -0.6320708 -0.062902585 -0.17300765 -0.1540282 0.42072356 0.90483165
-2.2274687 0.37807757 -0.21753453 0.61351174 0.91872543 1.1599865 0.5708655 0.7264601
1.2840471 0.39061305 0.2552636 -0.28018188 0.08692633 0.4815453 0.17821608 -0.6128581
-0.0136971865 0.09529179 -0.9190584 -0.59745944 -0.66017526 0.62246674 0.3830859 -0.70800686
-0.15760419 -0.35640496 -0.8322934 -0.7145574 -1.4836493 -0.55489093 -0.26108375 0.12125927
0.4094396 -0.98613644 -0.76251566 -0.1348385 0.58549255 0.39960012 0.004928513 0.05766543

conv5.bias f4 [64]
00000000: 11ac 18bd 9284 273d 313c 1abd 01db 1f3d
00000010: 3049 383c c6ee 003c 2756 1c3d c564 b53b
00000020: bf77 bdbc 7296 4cbd f601 d33b 907d 38bc
00000030: 0cb3 c3bb ea97 583c 7d4c 293d a795 0d3d
00000040: 5599 cebc b307 09bd e9e7 0dbd 5704 333d
00000050: a6d4 52bc 7db3 6c3c 4fb2 8dbb 4cb2 0b3c
00000060: 9897 053d af3d ee3c 987f 88bd 34e6 aebc
00000070: ce7d 72bc f9d7 67bd 47a5 2c3d 0ff5 453d
00000080: df88 da3c ee11 55bd f2b5 233b c8ac 16bc
00000090: 31de 90bc e5e0 9fba 12dd ebbc c05e 48bd
000000a0: 21d9 42bd 46b3 08bc 7bd6 863c d9ec 8fbc
000000b0: 6e60 53bc e428 143d 9cf1 46bb de37 72bc
000000c0: 7ae1 4cbd 8fb3 4abd 18fe 28bd 0cfc 603d
000000d0: 4430 873c 8d9a 873c 064d 06bc 8fdb 20bd
000000e0: f6b5 613d 3027 0e3d 820a 8abc b75e ee3c
000000f0: e0dc 403d 0b84 b63c 0956 b9bc 3597 3bbd
-0.03727347 0.040897913 -0.03765506 0.039027218 0.011247918 0.007869428 0.0381681 0.0055356943
-0.023128388 -0.049948163 0.0064394427 -0.011260405 -0.005972272 0.013219813 0.04133271 0.034566548
-0.025219599 -0.03345461 -0.034644995 0.04370531 -0.012868082 0.01444709 -0.0043242346 0.008526396
0.032615274 0.029082147 -0.066649616 -0.021350004 -0.014800502 -0.056602452 0.04214981 0.04832941
0.026676593 -0.052019052 0.0024980274 -0.009196468 -0.017684074 -0.0012197761 -0.028791938 -0.048918486
-0.04757035 -0.008343523 0.016459694 -0.017568992 -0.012901409 0.03617181 -0.0030356413 -0.014783828
-0.05001972 -0.049487647 -0.041257948 0.05492787 0.016502507 0.016553188 -0.008197075 -0.039271887
0.055105172 0.03470534 -0.016850714 0.029097898 0.047085643 0.02227976 -0.022624033 -0.0457985

conv6.weight f4 [64, 64, 3, 3]
00000000: d1b8 6b3d 9e94 26bd e04f 633b 8f1c 92bd
00000010: 1367 aebd cda1 193d 18e2 3cbd 0f22 47bc
00000020: 375a 123c b731 a63c 589a 04bc 86e9 62bd
00000030: 081e 47bd 45dd 37bc 67f3 09bd a4bb 3abd
00000040: ddc1 b1bc 0c9d b13c 5559 ee3d 0607 a73b
00000050: b4ab af3c 732b dfbb ddfe 9abd e6e7 0c3d
00000060: d29b edbc aa15 91bc c53c 3dbb 16f3 b43b
00000070: 18e9 8bbc ab36 7a3d 7230 453d 0c9a b53c
00000080: a15b 353d 8449 1bbd a0f4 483d a050 973d
00000090: 9d87 19be 8f91 17be 0d65 d9bd 3cc9 06be
000000a0: 11f9 d6bd 99f7 d0bd 6baf 0cbe d026 00be
000000b0: 710b d0bd 8fce aebd 57a7 ffbd 9475 e1bd
000000c0: 7883 0bbe 8a41 e8bd 2855 8dbd 214e d6bd
000000d0: 5bb2 a1bd 80fb 97bd e94a 1abe d93a 1bbe
000000e0: 7f11 08be b621 b3bd d7e0 f5bd 5c16 79bd
000000f0: da75 10be 3d31 a4bd 489d c3bd 05b1 723c
00000100: cbb6 eebd 1d15 42bd 5448 f63b 2d94 e4bc
00000110: 543c 9abd ff02 6cbd a4cd 163d d495 0fbd
00000120: 2c10 113d d809 6dbd b5b3 d23c 3e49 92bd
00000130: f2e0 083d 6d1c 4bbc 17e2 3d3b de58 db3d
00000140: 7281 2c3d 13d2 c4bc c3c0 2bbd c00e 3abc
00000150: d10d 27bd 37d0 89bd 6b89 97bd 072b d4bc
00000160: 0a81 40bc 1095 263a b465 16be 61c3 0abe
00000170: 1511 d6bd 9bf0 22be 2010 18be e44d 00be
00000180: d125 18be 5eaf ecbd aab0 12be a196 c8bd
00000190: ee99 1bbe e611 d5bd 78b6 bcbd 961d 13be
000001a0: 5fc5 cabd d58a 12be a92b 14be e15d c3bd
000001b0: bf07 8e3d 0906 a0bc 492c b33c f665 a1bd
000001c0: 5c5f d03b 5d42 2f3d a9d3 37bc 6310 393d
000001d0: 2763 463c 0e23 593b 9461 29bd 804d 0a3d
000001e0: 94eb f6bc 28c2 76bd 1c75 83bd 854a c7bd
000001f0: 85c6 3abb 1394 283d 0ecf 903d 1268 47bc
00000200: 543f 04bd 6e09 073d 1e89 fabc bea2 82bc
00000210: a55f 8bbd 6cda 883d f5b9 db3c 0dc3 1bbe
00000220: e0b8 06be de2c 7abd b253 9bbd 9604 89bd
00000230: 86c1 ddbd 9392 84bd 3b28 91bd 87ef eabd
00000240: 1b3a 9b3d 8405 93ba 86a5 3e3d 5b4c d4bc
00000250: c03a 223d 61c7 af3c fd93 b33c 0080 e33c
00000260: dad0 8c3d f8bf a33d 8dab 63bd d3f7 a73d
00000270: 68a3 8e3c d252 633d a66b b93d fa33 0abd
00000280: e3a5 4f3d 98ce 943d 97cc c3bd 1dba 06be
00000290: b8dd 03be 0372 09be 0e8a 0cbe d54c babd
000002a0: 25c8 13be 6fde f6bd b3d1 c1bd 24c9 18be
000002b0: 8a03 c1bd ad9c e1bd 7284 8dbd e0be 06be
000002c0: 6d83 cfbd 43e5 10be 2dd3 05be f419 98bd
000002d0: 571e a93d e894 553c 6c62 96bc e277 d1bd
000002e0: 4105 ebbd a8d7 0dbc b815 4bbd b819 62bc
000002f0: 1983 c73c 9563 46bc 9e43 fcbc c98e 87bd
00000300: fe76 e0bd 81f8 a53b 4d3c ed39 6097 d1bd
00000310: b61b b3bc f7c3 db3c 4720 223d ecf1 a63c
00000320: 15b5 283d a67c ab3d 9023 d93c a0d9 2f3d
00000330: defe bf3d 32b9 1f3c 855e 413d 4a5a d1bd
00000340: 411a e6bd 4225 fdbd a89f 11be d8c1 11be
00000350: cc4c bbbd d4e5 89bd ab12 f2bd e419 a0bd
00000360: 138e 06be c131 22be 1a7b acbd 0858 afbd
00000370: ac5d f8bd b52f 89bd c914 e8bd 04c4 e7bd
00000380: fcef febd b585 3f3d 197b 0fbc 09d0 f2bc
00000390: 76ab bcbd 9c6e 5f3d 17bd 5aba 1a8e 8cbc
000003a0: 9ef1 8439 a16f 94bc beb0 06be 7faf 05be
000003b0: c4c6 e4bd ce04 e5bd 6875 b4bd 44fe 9ebd
000003c0: 86b4 17be 409a 10be 5002 bbbd 91ea efbc
000003d0: 32c2 40bb 4e6f 2d3c dfdb fb3c 3e0e 29bd
000003e0: c01a 8bbd 4788 4bbd 4d1b a43d 9edc 3ebc
000003f0: 88a5 aabc 8002 52bd 06ab 1fbc 7996 39bd
0.0575493 -0.040669076 0.003468506 -0.07134353 -0.085157536 0.03750782 -0.046114057 -0.012154116
0.008932642 0.020287378 -0.008093439 -0.055398487 -0.048612624 -0.011222188 -0.033679392 -0.045589104
-0.021698887 0.021681331 0.116381325 0.005097273 0.02144418 -0.0068105995 -0.075681426 0.034400843
-0.029004965 -0.017710526 -0.0028875333 0.005522142 -0.017078921 0.06108729 0.048141904 0.022168182
0.044276837 -0.037911907 0.049061418 0.07388425 -0.14993139 -0.1480162 -0.10614977 -0.13162702
-0.104967244 -0.102034755 -0.13738792 -0.12514806 -0.10158432 -0.08535492 -0.124830894 -0.110087544
-0.1362437 -0.113406256 -0.06901008 -0.10464121 -0.07895347 -0.07421017 -0.15067638 -0.15159167
-0.13287924 -0.08746664 -0.120057754 -0.06081234 -0.14107457 -0.08017204 -0.095514834 0.014812713
-0.11655959 -0.047383416 0.0075159464 -0.027902687 -0.07531038 -0.057620045 0.036817208 -0.035054997
0.035415813 -0.057870716 0.025720457 -0.07142876 0.03341765 -0.012396914 0.0028973871 0.107103094
0.042115636 -0.024025952 -0.04193188 -0.011356056 -0.04078466 -0.06729167 -0.07399257 -0.025899423
-0.011749515 0.00063546095 -0.14687234 -0.13551094 -0.10452477 -0.15912096 -0.14849901 -0.12529713
-0.14858176 -0.11556886 -0.14325204 -0.09794355 -0.15195438 -0.104038045 -0.09214491 -0.14366755
-0.09900927 -0.14310773 -0.1446978 -0.0953939 0.06935071 -0.019534128 0.021871703 -0.07880776
0.006359024 0.0427879 -0.011219897 0.045181643 0.012108601 0.0033132466 -0.041352823 0.033765316
-0.03014163 -0.060243756 -0.06418821 -0.0973101 -0.0028499675 0.04115684 0.070707425 -0.012170808
-0.032286957 0.032967977 -0.03058296 -0.015946742 -0.06805352 0.06682286 0.02682207 -0.15211125
-0.13156462 -0.061077945 -0.07584323 -0.06690328 -0.10827927 -0.06473269 -0.070877515 -0.114714675
0.07579442 -0.0011216854 0.046544574 -0.025915315 0.03960681 0.021457376 0.021921152 0.027770996
0.06875773 0.079955995 -0.055583525 0.082015656 0.017411903 0.055498905 0.090537354 -0.033740975
0.05069531 0.07265967 -0.09560507 -0.13156934 -0.12877548 -0.13422398 -0.13724539 -0.09096686
-0.14431818 -0.120541446 -0.09463825 -0.14920479 -0.09424503 -0.11016212 -0.069100276 -0.1315875
-0.10132489 -0.14149956 -0.13068838 -0.07426825 0.0825774 0.01303599 -0.018357478 -0.10227944
-0.114756115 -0.0086573735 -0.04958126 -0.013800077 0.024354504 -0.012108703 -0.030793961 -0.06619031
-0.10960196 0.0050650244 0.0004524909 -0.102339506 -0.0218638 0.026826842 0.039581563 0.02037903
0.04118832 0.08373384 0.026506215 0.042932153 0.09374784 0.009748744 0.04720928 -0.102222994
-0.11235476 -0.12360622 -0.1422106 -0.14234102 -0.09145507 -0.06733289 -0.11819967 -0.07817438
-0.13140135 -0.15839292 -0.08421917 -0.085617125 -0.121272415 -0.066985525 -0.113320895 -0.11316684
-0.12448117 0.046758372 -0.008757376 -0.029640215 -0.09212391 0.054548845 -0.00083442166 -0.017157603
0.0002535702 -0.018119635 -0.1315336 -0.13055228 -0.11170724 -0.11182557 -0.08811456 -0.07763341
-0.14814958 -0.14121342 -0.091313004 -0.029286655 -0.0029412624 0.010585619 0.030744491 -0.041273348
-0.067922115 -0.04969051 0.0801302 -0.011649279 -0.020830885 -0.051271915 -0.009745365 -0.045309518

conv6.bias f4 [64]
00000000: faeb 063c 50b7 053d 9b78 f23b 9172 623c
00000010: 0900 18bd 117a 103c 193e f2bc 75b5 37bc
00000020: 45db d6bc 2585 03bb 0025 a4bc 3ca4 973c
00000030: 99cd 203d 5f1c 843b a0c5 2bbd e47d 02bd
00000040: dd05 1abc 8124 b53a 9336 93bc b1e7 8ebb
00000050: a3e2 e63c 7a92 9abc cba6 083d 7de6 6c3c
00000060: cf41 123c 49eb 4abc 8d40 27bb f0a9 3dbd
00000070: e843 f8bc 3124 843c c96b 983c 519c 363d
00000080: 2c91 95bc 84fc 723c 0173 3d3c 49bd 49bb
00000090: 2287 673c 0999 ec3c 4f36 383d f3ba 753c
000000a0: 82eb e5bb 3034 163d f34c 46bd aa42 303c
000000b0: 6d89 2d3d 854d 5abc 6126 cdba 0801 eabc
000000c0: 7958 4abd b5c7 1cbd a792 17bd cb2a bd3c
000000d0: bbb6 b9bc 3836 a8bb 294d 133d 83c3 38bd
000000e0: 0651 023c e1f1 833c 6ed1 8e3c 9527 0a3c
000000f0: 7566 4e3b 97e9 c3bc 1dcf a53b 331a 133d
0.008234972 0.032645524 0.007399631 0.01382126 -0.03710941 0.008818165 -0.029570626 -0.011212696
-0.026227603 -0.0020068374 -0.020037174 0.01851093 0.039258573 0.0040317024 -0.041936517 -0.03185834
-0.009400812 0.0013820083 -0.017970359 -0.004361116 0.02818424 -0.018868674 0.03336219 0.01445925
0.008926823 -0.012385198 -0.0025520653 -0.046304643 -0.030305818 0.016130539 0.018606083 0.04458267
-0.0182577 0.014830712 0.011563064 -0.0030782989 0.014131339 0.028881567 0.044973668 0.014998185
-0.0070166 0.036670864 -0.04841323 0.010758081 0.042367388 -0.013324146 -0.0015651697 -0.028564945
-0.04940078 -0.038276393 -0.037005093 0.023091694 -0.02267014 -0.0051334165 0.035962258 -0.04510833
0.007953888 0.016106548 0.017433848 0.008432289 0.0031494175 -0.023915095 0.00506009 0.035913657

bn31.weight f4 [64]
00000000: 2590 5d3f 4b97 6f3f 18d4 6d3f 7b57 f83f
00000010: 2e32 123f 2d0c 243f 6493 9a3f 75b5 873f
00000020: fae8 853f cfee 6e3f 89ab b43f 94b8 793f
00000030: f693 b53f 9b31 ff3f a49f 4c3f f106 b93f
00000040: f33b 9a3f 3ceb b53f 741a 6f3f 52a1 403f
00000050: b9e9 713f 716c 933f 3f1b 033f 0d3e 9e3f
00000060: b7c7 553f 5476 9a3f 5b04 bb3f 4b7c 533f
00000070: 972e cc3f 87fe fa3f 657f b03f 01cf c33f
00000080: f417 9d3f 1fd4 893f 91b2 ac3f 62fe 363f
00000090: 99f4 953f e579 9e3f 9457 893f b594 b93f
000000a0: 0499 233f 112d 313f ca86 c73f ec5d 6e3f
000000b0: 0b6c 8a3f b7cf be3f 3fe5 393f c3f8 823f
000000c0: d0b0 623f f1c8 253f 18ea 853f 1f1a 5e3f
000000d0: 0676 3d3f 6a68 8a3f dd19 7a3f ea05 ee3f
000000e0: 2353 753f ac52 443f 8edc 953f 5250 9a3f
000000f0: 3b53 1d3f c019 9a3f b040 903f 660a 9e3f
0.8654807 0.9359023 0.92901754 1.9401697 0.5710782 0.6408108 1.207623 1.0602251
1.0461724 0.93333143 1.4114848 0.9754727 1.4185779 1.9937013 0.7993109 1.4455243
1.2049545 1.4212413 0.9339974 0.75246155 0.9449726 1.1517469 0.5121345 1.2362686
0.83507866 1.2067361 1.4610704 0.8261153 1.5951718 1.9608926 1.3788878 1.5297548
1.2272935 1.0767859 1.3491994 0.7148191 1.171527 1.2380949 1.0729852 1.4498507
0.6390536 0.6920939 1.5588009 0.93112063 1.0814222 1.490714 0.72615427 1.0232166
0.88551044 0.6475974 1.0462065 0.8675861 0.74008214 1.0813115 0.97695714 1.8595555
0.9582998 0.7668865 1.1707933 1.2055762 0.61455125 1.2039108 1.1269741 1.2346923
