checkpoints/best_model_1309_1.pth (torch, 304673 bytes, 37 tensors)

conv1.weight f4 [16, 1, 3, 3]
0	0xbeafd16b	-0.3433946
1	0xbe61ef5f	-0.22063969
2	0x3e7ab40f	0.2448275
3	0xbe9262a4	-0.28590882
4	0xbd223154	-0.039597824
5	0x3e62fbe3	0.221664
6	0xbe81331e	-0.25234312
7	0xbd619013	-0.05506904
8	0x3e404bb4	0.18778878
9	0xbe2658fe	-0.16244885
10	0xbd8e9abe	-0.069631085
11	0xbd82902d	-0.063751556
12	0xbeb13c78	-0.34616446
13	0x3d86cd3b	0.06582113
14	0xbed6734d	-0.41884843
15	0x3d53a2ef	0.051669057
16	0x3e8cb39d	0.27480784
17	0x3e55d210	0.20880914
18	0x3e1811ef	0.14850591
19	0x3e3a4f9f	0.18194436
20	0x3e1c244e	0.15248224
21	0x3db8d516	0.09025018
22	0xbd184244	-0.03717257
23	0xbe5d6c06	-0.21623239
24	0x3e55e8cb	0.20889585
25	0xbeb277d9	-0.34857062
26	0xbd9cde5d	-0.076596
27	0x3e9d85b0	0.30766058
28	0x3e944857	0.2896144
29	0x3da321c7	0.07965427
30	0x3e8ca7c5	0.27471748
31	0x3e1edb67	0.15513383
32	0x3e9c3709	0.30510738
33	0xbe11f14d	-0.14252205
34	0xbddc1cac	-0.10747656
35	0xbdb5a684	-0.08869651
36	0x3e6afc0a	0.22947708
37	0xbdbb358f	-0.09141075
38	0x3e604bec	0.21903962
39	0x3ea63458	0.3246181
40	0xbe52c3f7	-0.20582567
41	0xbdb50d53	-0.08840432
42	0xbea91052	-0.33020264
43	0xbddbf790	-0.10740578
44	0x3e9bcb30	0.30428457
45	0xbd08c38c	-0.033389613
46	0xbdc8a7c4	-0.09797624
47	0x3c1ea020	0.009681731
48	0xbedd7441	-0.43252757
49	0xbee97bf5	-0.45602384
50	0xbd4c7df8	-0.04992482
51	0xbd08497b	-0.0332732
52	0xbe6700d6	-0.22558913
53	0x3daff3b5	0.08591405
54	0xbe8d617c	-0.27613437
55	0xbdfef382	-0.12448789
56	0xbe828705	-0.25493637
57	0x3e0b7310	0.13618112
58	0xbe8b122c	-0.27162302
59	0xbde7f06b	-0.11325153
60	0x3e5d2c99	0.21599044
61	0x3dc385e3	0.09547021
62	0x3e38b5bf	0.1803808
63	0xbd9cb8ee	-0.0765246
64	0xbead370a	-0.33831054
65	0xbdd4c643	-0.10389378
66	0xbe64542f	-0.22297738
67	0xbd72a61a	-0.059240438
68	0xbee0b5cf	-0.4388871
69	0x3dd5910f	0.10428058
70	0x3e83831f	0.25685975
71	0xbe3c39c1	-0.18381406
72	0xbe865d81	-0.26243213
73	0xbde687e4	-0.11256388
74	0xbe9d5a55	-0.3073298
75	0x3d9e0293	0.07715335
76	0x3e39eb5c	0.18156189
77	0x3e9088c2	0.28229338
78	0x3e0f6f23	0.14007239
79	0x3e87f2f1	0.26552537
80	0xbc140bbd	-0.009036002
81	0xbe019620	-0.12654924
82	0x3e286ab7	0.16446958
83	0xbe21cc58	-0.15800607
84	0xbe364d75	-0.17802985
85	0x3ea28658	0.3174312
86	0xbe92dd85	-0.2868463
87	0xbe46bb26	-0.19407329
88	0xbe1816ec	-0.14852494
89	0xbeeb8d1f	-0.46006104
90	0xbd78532d	-0.060626198
91	0x3e905e00	0.28196716
92	0xbeb23854	-0.348086
93	0x3de49d2e	0.11162792
94	0x3e9b5f28	0.30346036
95	0xbe015065	-0.12628324
96	0x3d70fad8	0.058832973
97	0xbbc949ab	-0.006142815
98	0x3e2e1080	0.16998482
99	0x3dfe086b	0.12403949
100	0xbd747385	-0.05968048
101	0x3e99287a	0.29913694
102	0x3eaed96d	0.34150258
103	0x3e75d41c	0.24006695
104	0xbe497a84	-0.19675642
105	0x3ce496aa	0.027903873
106	0xbe26552f	-0.16243432
107	0x3da0ab88	0.07845217
108	0xbe9e19dc	-0.30879104
109	0xbe9afc17	-0.30270454
110	0x3c31e5df	0.010858028
111	0x3d48a0dd	0.048981536
112	0x3e1c2838	0.15249717
113	0xbc9d7e3a	-0.019225229
114	0x3d7374a5	0.059437413
115	0xbeba8f14	-0.36437285
116	0x3e734ea1	0.23760463
117	0x3e632ef8	0.22185886
118	0xbe833939	-0.25629595
119	0xbe276756	-0.16348013
120	0x3dcf36dc	0.101178855
121	0xbebc3ffe	-0.36767572
122	0x3e749ed6	0.23888716
123	0xbec92080	-0.39282608
124	0x3dda2fe2	0.10653664
125	0xbe2695cd	-0.16268082
126	0xbea5fb84	-0.32418454
127	0xbebc42eb	-0.36769804
128	0xbde39495	-0.11112324
129	0xbc5bcba2	-0.013415249
130	0xbef9a7ab	-0.48760733
131	0xbd9166a2	-0.07099654
132	0xbe87b2a7	-0.26503488
133	0x3de1f20e	0.110324964
134	0xbbea9d41	-0.0071598594
135	0xbd968365	-0.0734928
136	0x3df0cd75	0.11757938
137	0x3dee2693	0.11628451
138	0x3df1fc9f	0.11815762
139	0x3e9b5db2	0.3034492
140	0xbb75e0fe	-0.003751814
141	0xbdc2daad	-0.09514365
142	0x3e94607d	0.28979865
143	0x3e990932	0.29889828

conv1.bias f4 [16]
0	0xbe4b1023	-0.19830374
1	0x3e2a7eb8	0.16649902
2	0x3e25ee2c	0.16204137
3	0x3e00960f	0.12557243
4	0xbdf51215	-0.119663395
5	0xbd1b381c	-0.037895307
6	0xbe1c0086	-0.15234575
7	0x3e33b780	0.17550468
8	0xbe4bc10a	-0.19897857
9	0xbe27af6d	-0.16375513
10	0xba9c489c	-0.0011923495
11	0x3e8ad5f0	0.27116346
12	0x3dd03e59	0.10168142
13	0xbe9ad9b3	-0.30244216
14	0x3e6675cc	0.22505873
15	0x3de294e2	0.110635534

conv2.weight f4 [16, 16, 3, 3]
0	0x3d3c256b	0.045934122
1	0x3d1b243d	0.037876356
2	0xbe116640	-0.14199162
3	0x3d114429	0.035465393
4	0x3cb6f879	0.022335278
5	0xbe26ea59	-0.16300334
6	0xbd0d6cee	-0.03452771
7	0x3cdd6328	0.02702482
8	0xbc02070f	-0.007936253
9	0x3da4a2c9	0.08038861
10	0xbd8ee016	-0.06976335
11	0xbd009475	-0.03139158
12	0x3d6fc34d	0.058535863
13	0x3c901dd7	0.017592354
14	0xbd607b07	-0.054804828
15	0xbcafd573	-0.021464085
16	0x3d46e2c7	0.048556115
17	0x3c776eb2	0.015102075
18	0x3e0872e4	0.13325077
19	0x3d07eb9c	0.03318368
20	0x3d0ec4f8	0.034855813
21	0xbd6bdd43	-0.05758406
22	0xbd4ca833	-0.049965095
23	0x3d561604	0.05226709
24	0x3cf106a7	0.029422117
25	0x3d8ba610	0.06818783
26	0xbe14afc7	-0.14520179
27	0xbd261614	-0.0405484
28	0xbb55126a	-0.0032512196
29	0x3d62f808	0.055412322
30	0x3c60dcbf	0.013724505
31	0x3bb6aef9	0.0055750576
32	0x3d3e239b	0.046420675
33	0xbc04a024	-0.008094821
34	0xbda71528	-0.08158332
35	0xbdbbd732	-0.091719046
36	0xbd58ffda	-0.052978374
37	0xbdaea36b	-0.08527263
38	0xbdd3c5be	-0.10340451
39	0x3cc86d1d	0.024466092
40	0x3bd55825	0.006510752
41	0x3d3e86cc	0.04651527
42	0x3d494419	0.04913721
43	0xbba9e97d	-0.0051853047
44	0x3dae4430	0.085090995
45	0x3e12d7c1	0.14340116
46	0x3d94ca0c	0.072651
47	0x3d44989c	0.047997102
48	0x3dd66770	0.10468948
49	0x3d41f69b	0.047354322
50	0x3d8eaa49	0.06966073
51	0x3cebb184	0.02877117
52	0x3cc7a99c	0.024372868
53	0x3e15d382	0.14631465
54	0x3ce6e770	0.02818653
55	0xbc968f23	-0.0183788
56	0xbd1e8dd9	-0.038709495
57	0x3c11fe0d	0.008910668
58	0xbd020722	-0.031745084
59	0x3cdebf81	0.027190926
60	0x3d6404d6	0.055668674
61	0x3d68ff45	0.05688407
62	0xbd2ab8af	-0.041680034
63	0x3d0b9f66	0.03408756
64	0xbd29adcd	-0.041425515
65	0x3d550d81	0.05201483
66	0xbcef4963	-0.029209798
67	0x3d4be664	0.049780264
68	0x3d516d2f	0.051129516
69	0x3d3c804c	0.04602079
70	0xba0fb9eb	-0.0005482721
71	0x3d1754ab	0.03694598
72	0xbbdc88ba	-0.0067301663
73	0x3d9bf6c2	0.07615425
74	0x3cbbbef8	0.02291821
75	0x3d6091f6	0.0548267
76	0x3d55a16a	0.05215589
77	0xbd70a7ea	-0.058753885
78	0x3e072351	0.13197066
79	0xbc2b16c0	-0.010442436
80	0xbe023047	-0.12713729
81	0x3de262c8	0.11053997
82	0xbd4fddc9	-0.05074862
83	0xbc5342fc	-0.012894388
84	0xbce29943	-0.027660972
85	0x3c99bc82	0.018766645
86	0x3d276d39	0.040875647
87	0xbd467d54	-0.048459366
88	0xbc169001	-0.009189607
89	0xbd821caa	-0.063531235
90	0xbd94732c	-0.0724853
91	0xbcd0f24d	-0.025506163
92	0xbce154be	-0.027506229
93	0x3c2e4c46	0.010638302
94	0xbb87e100	-0.004146695
95	0x3c6104fb	0.013734098
96	0x3d506ad5	0.050883133
97	0xbd09ab45	-0.0336106
98	0xbd8b7c2c	-0.06810793
99	0xbdbcde7a	-0.092221215
100	0x3cfd50f8	0.030922398
101	0x3d9319eb	0.07182678
102	0x3c0695f7	0.008214465
103	0xbc40d894	-0.011770386
104	0x3d102d11	0.03519923
105	0x3cb49df9	0.022047983
106	0xbd60a35d	-0.054843295
107	0xbe0fecad	-0.14055128
108	0x3c93ce08	0.01804258
109	0x3d0b919f	0.034074422
110	0xbdd9ea98	-0.10640448
111	0xbc3b8a64	-0.011446569
112	0xbc021ce7	-0.007941461
113	0x3d29ba29	0.0414373
114	0x3d0215da	0.03175912
115	0x3cdfc70a	0.027316589
116	0xbc9da6d6	-0.019244593
117	0x3d676699	0.05649433
118	0x3ca5d3e9	0.020242648
119	0x3cb36809	0.021900194
120	0xbd8dadc6	-0.0691791
121	0xbd880d28	-0.06643134
122	0x3d5f36da	0.05449567
123	0x3da90364	0.082526
124	0xbcc3fbff	-0.023923872
125	0x3e19b6fc	0.15011209
126	0x3db40be3	0.0879133
127	0x3d1f537c	0.038897976
128	0xbd2509b9	-0.040292475
129	0x3d5a7d65	0.05334224
130	0x3daf2e1c	0.085537165
131	0xbd319d49	-0.04336289
132	0x3dcced8d	0.10006247
133	0xbd019522	-0.031636365
134	0x3d67e881	0.056618217
135	0x3cd18ae1	0.025578918
136	0x3d651488	0.055927783
137	0x3d11f994	0.035638407
138	0x3d90ab0f	0.07063877
139	0x3db12ccb	0.08651122
140	0xbdabfdb7	-0.08398002
141	0xbd72f7e3	-0.059318434
142	0xbda66b25	-0.08125905
143	0xbe0408e1	-0.12894012
144	0x3d029d4c	0.03188829
145	0xbd8124bd	-0.063058354
146	0x3d089fb3	0.033355426
147	0x3d887d46	0.06664519
148	0xbe37ef54	-0.1796239
149	0x3d9b81d4	0.07593122
150	0x3dc8894d	0.09791813
151	0xbd698ee2	-0.05702103
152	0x3dac847b	0.08423706
153	0xbc412738	-0.011789136
154	0x3b7276bd	0.0036997043
155	0xbc6bffc6	-0.014404243
156	0x3a86aa82	0.0010274204
157	0x3d482760	0.048865676
158	0x3dcc8c1b	0.099876605
159	0x3c037eb2	0.008025812
160	0x3d6699d7	0.056299057
161	0x3c0e68a7	0.008691943
162	0xbd055f63	-0.03256167
163	0xbc735508	-0.014851816
164	0xbd0eff50	-0.034911454
165	0x3d48b046	0.048996232
166	0xbdc03b79	-0.093863435
167	0x3d03b0ad	0.032150913
168	0x3d041651	0.032247845
169	0x3cf55234	0.029946424
170	0xbe07179c	-0.131926
171	0x3d1c06b5	0.038092334
172	0x3b8ed46d	0.004358819
173	0x3cdc1a19	0.026867913
174	0x3dcf4b8f	0.101218335
175	0x3d28ef20	0.041243672
176	0xbda56f05	-0.08077816
177	0xbd1dea9b	-0.038553815
178	0x3cb4467a	0.022006262
179	0xbd9806b4	-0.074231535
180	0x3d8423f6	0.064521715
181	0x3d8d7ddc	0.069087714
182	0x3d1492a0	0.036272645
183	0xbd798e9a	-0.06092701
184	0xbd3d8b92	-0.046275683
185	0xbc8d9f59	-0.017287897
186	0x3dcff8d0	0.10154879
187	0x3c4d32f1	0.012524352
188	0xbddfc771	-0.10926712
189	0x3d137f86	0.036010288
190	0xbd722e6c	-0.059126303
191	0x3ded3dc5	0.11584047
192	0x3d11b4e6	0.03557291
193	0xbd7679a5	-0.060174603
194	0xbbbd651b	-0.005779875
195	0xbb8fbf4d	-0.0043868185
196	0x3d74f181	0.05980063
197	0xbc98fe2f	-0.018675892
198	0x3cb8b35b	0.02254646
199	0xbc3a1204	-0.011356834
200	0xbabd66f0	-0.0014450233
201	0x3dbe6ab5	0.092976965
202	0x3d0f56a8	0.03499475
203	0x3e1926ad	0.1495616
204	0x3b1b865a	0.0023731203
205	0x3c485f04	0.012229685
206	0xbd305424	-0.043048993
207	0x3d555ec1	0.052092317
208	0x3dba191f	0.09086823
209	0x3cc883cd	0.02447691
210	0xbc8b9842	-0.017040376
211	0x3ae45c46	0.0017422519
212	0x3dd6475c	0.104628295
213	0xbd7dda4b	-0.06197576
214	0xbd220569	-0.03955594
215	0x3db0bf6a	0.08630259
216	0xbcb1573b	-0.02164804
217	0xbc1a25d0	-0.009408429
218	0xbbede9c4	-0.007260533
219	0xbceb7d6d	-0.028746331
220	0xbd8ec8ac	-0.06971869
221	0xbc8b7e11	-0.017027887
222	0xbc8cff1f	-0.017211495
223	0x3ce3afc1	0.027793767
224	0xbc9314d0	-0.01795426
225	0x3c70a2a4	0.014687214
226	0xbc63ba12	-0.013899343
227	0x3d87c732	0.0662979
228	0x3bddca96	0.006768535
229	0x3d07ecf0	0.033184946
230	0xbdae15d7	-0.08500259
231	0xbd219260	-0.039446235
232	0x3d7a02c4	0.061037794
233	0x3ce60dd4	0.028082766
234	0xbcbec19f	-0.023285685
235	0x3d126067	0.035736468
236	0xbe7a19c6	-0.24423894
237	0xbd870c12	-0.06594099
238	0x3c9baaeb	0.019002398
239	0xbcea7c03	-0.028623587
240	0x3cd168ef	0.025562732
241	0xbc47d899	-0.012197637
242	0x3da0b0f1	0.07846249
243	0xbd9ef2b4	-0.07761136
244	0xbd2145e8	-0.03937331
245	0xbe0321c7	-0.12805854
246	0x3cdf1988	0.027233854
247	0x3d8bf59a	0.06833954
248	0x3d68f1b5	0.056871135
249	0xbd62b149	-0.055344854
250	0xbda20684	-0.07911399
251	0xbdfbc183	-0.12292769
252	0x3c99e493	0.01878575
253	0x3d27fd14	0.04101284
254	0x3deeb1d5	0.116550125
255	0x3d7ae89d	0.061256994

conv2.bias f4 [16]
0	0x3d933c6b	0.07189258
1	0x3cc9c674	0.024630763
2	0xbcf04c82	-0.029333357
3	0xbcca078d	-0.024661804
4	0x3d77d030	0.060501277
5	0xbda24260	-0.07922816
6	0x3d953819	0.072860904
7	0x3d63e7f9	0.05564115
8	0xbd8b90de	-0.068147406
9	0xbd832508	-0.064035475
10	0x3ab83a0c	0.0014055385
11	0x3cef453e	0.029207822
12	0xbd05a972	-0.0326323
13	0xbd81ff50	-0.06347525
14	0x3d84472f	0.0645889
15	0xbc5a5c0e	-0.013327612

bn11.weight f4 [16]
0	0x3f9f31f9	1.2437125
1	0x3f836d78	1.0267782
2	0x3f6def76	0.92943513
3	0x3f726589	0.9468618
4	0x3f604918	0.8761153
5	0x3f8bee9a	1.093219
6	0x3f8a8b52	1.0823767
7	0x3f89286c	1.0715461
8	0x3f6d3527	0.9265923
9	0x3f7e05da	0.9922768
10	0x3f6f3547	0.9344067
11	0x3f6e6e91	0.9313746
12	0x3f655202	0.8957826
13	0x3f7021c1	0.93801504
14	0x3f85d022	1.0454142
15	0x3f7f6f88	0.9977956

bn11.bias f4 [16]
0	0xbd0649c6	-0.0327852
1	0xbde6c226	-0.112674996
2	0x3d9953b2	0.07486667
3	0x3e880294	0.26564467
4	0xbb399063	-0.002831482
5	0xbd860274	-0.06543437
6	0xbe06f5ca	-0.13179699
7	0xbdc0b482	-0.09409429
8	0x3df598d7	0.119920425
9	0xbd38327e	-0.044970028
10	0x3ddc99a2	0.10771491
11	0x3e7272ec	0.23676652
12	0xbe456247	-0.19275771
13	0xbe07e3bb	-0.13270466
14	0xbd8eb336	-0.069677755
15	0x3e66a6c2	0.2252455

bn11.running_mean f4 [16]
0	0xbe5306a1	-0.20607997
1	0x3e23eeca	0.1600906
2	0x3e2763b3	0.16346626
3	0x3e102bd8	0.14079225
4	0xbded7cf5	-0.11596099
5	0xbd62f82f	-0.055412468
6	0xbe2209d2	-0.15824059
7	0x3e24230f	0.16028999
8	0xbe47e55a	-0.19521084
9	0xbe376140	-0.17908192
10	0x3b89075f	0.004181787
11	0x3e8fe9e0	0.2810812
12	0x3dc23dcb	0.09484442
13	0xbe9fcd34	-0.31211245
14	0x3e50388c	0.20334071
15	0x3e012bed	0.12614413

bn11.running_var f4 [16]
0	0x3ab39cb5	0.0013703319
1	0x3a50b888	0.00079620676
2	0x39c14078	0.00036859862
3	0x3aca89da	0.001545246
4	0x3a0213c2	0.00049620506
5	0x3ad3ac1d	0.0016149316
6	0x3a512ac9	0.0007979093
7	0x3aaa44fc	0.001299053
8	0x3a05a665	0.0005098342
9	0x3a7c203c	0.00096178404
10	0x3a27f699	0.00064072903
11	0x3a1d8305	0.0006008598
12	0x3a038dc1	0.00050183764
13	0x3a0fcbc1	0.0005485379
14	0x3b08572b	0.002080391
15	0x3a5ad426	0.00083476526

bn12.weight f4 [16]
0	0x3f75929d	0.9592684
1	0x3f7357c2	0.9505578
2	0x3f856e39	1.0424262
3	0x3f804063	1.0019649
4	0x3f513155	0.817159
5	0x3f8230db	1.017116
6	0x3f66d106	0.90162694
7	0x3f8973a9	1.0738422
8	0x3f8d878c	1.1056991
9	0x3f76e0d4	0.9643681
10	0x3f7aae2e	0.9792203
11	0x3f823639	1.0172797
12	0x3f7e9516	0.9944624
13	0x3f68add5	0.90890247
14	0x3f757703	0.9588472
15	0x3f789f55	0.9711812

bn12.bias f4 [16]
0	0x3b697f3c	0.0035628816
1	0x3c66a4ec	0.014077406
2	0xbc383434	-0.011242915
3	0x3bc67e79	0.006057557
4	0x3d664965	0.05622234
5	0xbcbfe53d	-0.023424739
6	0xbcf2db8e	-0.029645707
7	0x3cd1f54d	0.025629664
8	0x3be08fa3	0.0068530603
9	0xbda3908d	-0.07986555
10	0x3cb3d0ba	0.021950115
11	0x3c00527c	0.007832166
12	0x3db72082	0.08941747
13	0x3d4304df	0.047612067
14	0xbcea76df	-0.028621135
15	0xbcf19022	-0.029487673

bn12.running_mean f4 [16]
0	0x3e8369bf	0.25666615
1	0x3d5abb98	0.05340156
2	0xbf1dbe11	-0.61618143
3	0xbf81f231	-1.0152036
4	0xbe9494cb	-0.2901977
5	0xbf6b9b42	-0.9203378
6	0xbdb5352e	-0.08848034
7	0x3e83a5b2	0.25712353
8	0xbf1fffb2	-0.62499535
9	0xbed57a3b	-0.41694817
10	0xbe5ea5f2	-0.2174299
11	0x3d46e233	0.048555564
12	0xbdbd9002	-0.09255983
13	0xbe92753f	-0.28605077
14	0xbf524d21	-0.8214894
15	0x3f0fa0ea	0.5610491

bn12.running_var f4 [16]
0	0x3edc5b7b	0.43038544
1	0x3ea5cff2	0.32385212
2	0x3eab9f6c	0.33520067
3	0x3e800e38	0.25010848
4	0x3ec12dde	0.37730306
5	0x3ea2deb3	0.3181053
6	0x3ea8216d	0.32838002
7	0x3ea35cf6	0.3190686
8	0x3e21349e	0.15742728
9	0x3e838c24	0.25692856
10	0x3ea04bc6	0.3130781
11	0x3e94b3e5	0.290435
12	0x3eb82b4d	0.35970536
13	0x3e72bf65	0.23705824
14	0x3e9e2247	0.30885527
15	0x3e930355	0.2871348

conv3.weight f4 [32, 16, 3, 3]
0	0x3ba73b3c	0.005103497
1	0x3b91dc34	0.004451299
2	0x3d75c552	0.060002632
3	0x3d811113	0.06302085
4	0x3d0f3ec6	0.034971975
5	0xbccb709d	-0.024833972
6	0xbd9cd202	-0.07657243
7	0xbd774be0	-0.060375094
8	0xbd345609	-0.044027362
9	0x3d9edf35	0.07757417
10	0xbd022ce2	-0.031781085
11	0x3d0ed700	0.03487301
12	0x3ce24213	0.027619397
13	0x3d3b4080	0.04571581
14	0x3cb8edcc	0.022574328
15	0xbb08b122	-0.0020857533
16	0x3dd526b8	0.10407776
17	0xbbb85081	-0.005624831
18	0x3d434c49	0.047680173
19	0xbce23e46	-0.027617585
20	0x3d12e686	0.035864376
21	0x3e20dff1	0.15710427
22	0x3cc3bc13	0.023893392
23	0x3dfa6f45	0.12228254
24	0x3d2b4f94	0.04182394
25	0xbda662dc	-0.08124325
26	0x3d206dbe	0.03916716
27	0x3cbb52eb	0.022866687
28	0x3da6867e	0.08131121
29	0x3cf4f493	0.029901778
30	0x3ca22273	0.019791817
31	0x3d9bac02	0.07601167
32	0x3b91ce65	0.004449653
33	0x3d139f37	0.03604051
34	0xbc49c54c	-0.012315106
35	0x3d11ae46	0.03556659
36	0xbd0002fd	-0.03125285
37	0x3d519290	0.051165164
38	0x3d7faf9c	0.062423334
39	0xbc8308f9	-0.01599549
40	0xbbf82a9d	-0.0075734393
41	0x3d57d28b	0.052691024
42	0xbcb17d1c	-0.021666102
43	0x3d8d595d	0.0690181
44	0xbd33325b	-0.043749195
45	0xbd23a304	-0.039950386
46	0x3d8f5fbd	0.070006825
47	0xbd126c47	-0.035747793
48	0xbd10b68b	-0.035330337
49	0xbd82440b	-0.063606344
50	0xbd89b7e5	-0.06724528
51	0x3d24058e	0.04004436
52	0x3dacc4be	0.08435963
53	0xbc992fa2	-0.01869947
54	0xbcec7ed6	-0.028869074
55	0x3cce2b90	0.025167257
56	0xbd9029c4	-0.07039216
57	0xbcae9b19	-0.02131419
58	0xbd25b41d	-0.040454973
59	0x3bf85d8e	0.007579512
60	0x3dba4aea	0.0909632
61	0xbce07a1c	-0.027401976
62	0xbd0b34a2	-0.03398574
63	0xbd6d3c3b	-0.05791877
64	0x3ce7fff3	0.028320288
65	0xbd0a6d8d	-0.033795882
66	0x3c9e1cfe	0.019300934
67	0x3d3f7e4f	0.046751317
68	0x3dc6c517	0.09705561
69	0xbb91854b	-0.0044409386
70	0x3dd4c4ba	0.10389085
71	0x3d8a0f06	0.06741147
72	0x3df23653	0.11826768
73	0x3b872f36	0.004125501
74	0x3ded554f	0.11588537
75	0xbd0d8eb4	-0.03455992
76	0x3b8bf8f9	0.004271623
77	0xbb74ffee	-0.0037383991
78	0x3e14995e	0.1451163
79	0xbd1d6c25	-0.038433213
80	0x3e1e5371	0.15461518
81	0xbc7e2a2c	-0.015512984
82	0x3d4775c0	0.04869628
83	0x3ced0d8f	0.02893713
84	0xbd922d19	-0.07137508
85	0xbd53b990	-0.051690638
86	0x3d8c78d3	0.06858983
87	0x3d948be3	0.07253244
88	0xbd983a34	-0.07432976
89	0x3c8ff523	0.017572945
90	0x3cf94196	0.030426782
91	0xbc8d0186	-0.01721264
92	0x3d3cfe56	0.04614099
93	0x3d29b893	0.04143579
94	0x3d98e37e	0.07465266
95	0x3d8875d5	0.066631
96	0x3d4ecfa0	0.050490975
97	0x3db99e75	0.090634264
98	0x3ac88d31	0.0015300867
99	0x3da19411	0.078895696
100	0x3c887e04	0.016661651
101	0xbd4cecdd	-0.050030578
102	0xbd8ffc44	-0.07030538
103	0x3db1a3b0	0.08673799
104	0xbe127f61	-0.14306404
105	0x3ceb420d	0.028718019
106	0xbc855fb8	-0.016280994
107	0x3dd4b3c9	0.10385854
108	0xbd3a204e	-0.045440964
109	0xbca6a459	-0.020342039
110	0xbd347832	-0.04405994
111	0xbdc708d4	-0.09718481
112	0xbd642f1f	-0.055709
113	0x3da132c8	0.07871014
114	0x3d7cad48	0.06168869
115	0x3d8de24c	0.06927928
116	0x3e17a9d3	0.14810877
117	0x3d2173b7	0.039416995
118	0x3d2af579	0.041738007
119	0x3c2e43bb	0.010636265
120	0xbd751560	-0.059834838
121	0xbcb241bb	-0.021759858
122	0xbd646400	-0.05575943
123	0x3c9687ca	0.018375296
124	0x3b369e6b	0.002786542
125	0x3b11d45c	0.002225182
126	0x3d5ab1a4	0.053392068
127	0x3c8cbd67	0.017180158
128	0xbdb7efe7	-0.089813046
129	0xbbac2574	-0.005253488
130	0xbab2aeee	-0.0013632455
131	0xba840f43	-0.0010075349
132	0xbd00b8bf	-0.031426188
133	0x3d786ed3	0.060652565
134	0xbd2038a3	-0.039116513
135	0x3d2cdf90	0.042205393
136	0x3ba131a7	0.004919249
137	0xbc891fbf	-0.01673877
138	0xba5ad49d	-0.0008347722
139	0x3bc6fcbb	0.0060726083
140	0x3de6008c	0.11230573
141	0xbbc6fe5f	-0.006072804
142	0xbb888d8b	-0.004167264
143	0x3cf82913	0.030293023
144	0xbe2f33f3	-0.17109661
145	0x3d0234e6	0.03178873
146	0xbe16538c	-0.14680308
147	0xbcab779f	-0.020931063
148	0xbd485550	-0.048909485
149	0x3bafbbac	0.0053629484
150	0xbcd9d808	-0.02659227
151	0xbdbcead9	-0.09224481
152	0xbde12912	-0.10994162
153	0x3c5779f5	0.013151635
154	0x3d1e33e0	0.03862369
155	0xbd14d269	-0.036333475
156	0xbd040f0c	-0.032240912
157	0xbdaed937	-0.08537524
158	0x3c6163c6	0.013756698
159	0x3c7a237f	0.015267252
160	0x3c3ae813	0.01140787
161	0xbd032dd0	-0.032026112
162	0xbda8c1bf	-0.08240079
163	0x3d0d5911	0.03450877
164	0xbd9d9514	-0.0769445
165	0xbd805b58	-0.062674224
166	0x3d826bf1	0.063682444
167	0x3c1bc910	0.009508386
168	0xbcf09844	-0.02936948
169	0x3df2c095	0.11853138
170	0x3d4fa6f2	0.05069632
171	0x3d8978be	0.06712483
172	0x3bf182f7	0.0073703486
173	0x3e165c5a	0.14683667
174	0xbd81fd64	-0.063471586
175	0xbdb0fb3f	-0.086416714
176	0x3d06f6cb	0.032950204
177	0x3cd61ab6	0.026135784
178	0xbd07a83b	-0.03311942
179	0x3b4b7dcc	0.0031050323
180	0x3d08ac44	0.03336741
181	0xbd21386d	-0.039360452
182	0xbd45f55e	-0.048329704
183	0xbd3e122f	-0.04640406
184	0xbb013092	-0.0019712788
185	0x3d845591	0.06461633
186	0x3dc44290	0.09583008
187	0xbcff1543	-0.031138068
188	0x3d5a2f6f	0.053267892
189	0xbded7115	-0.11593834
190	0x3d8bc1c6	0.06824069
191	0xbce72527	-0.028215958
192	0x3cdee5da	0.027209211
193	0x3be8fb9b	0.007110072
194	0x3b90344f	0.004400767
195	0xbd2e7f11	-0.04260165
196	0x3ce0691f	0.027393876
197	0xbb687ca2	-0.0035474678
198	0xbd68109f	-0.056656476
199	0xbd0823cc	-0.033237264
200	0xbdef0061	-0.11669994
201	0x3ca39ee7	0.019973231
202	0x3bfa6e73	0.007642561
203	0xbd005e01	-0.03133965
204	0xbc146a02	-0.009058477
205	0xbc03fac9	-0.008055397
206	0x3d707432	0.058704562
207	0x3d4bdfd5	0.04977401
208	0xbceefc2a	-0.029172976
209	0xbbc189aa	-0.0059063034
210	0xbc6babad	-0.014384192
211	0x3b4ceb12	0.0031268043
212	0xbc5c8e5d	-0.013461676
213	0x3d8f2974	0.069903284
214	0x3d0d6d07	0.034527805
215	0x3d8a9609	0.06766898
216	0xbdb04147	-0.08606201
217	0xbd861f7c	-0.06548974
218	0x3d932fae	0.071868286
219	0xbc6c7c10	-0.014433876
220	0x3ccd5688	0.025065675
221	0xb9f4b865	-0.0004667669
222	0xbdc02ca7	-0.09383517
223	0xbd3d3290	-0.0461908
224	0xbbb956f8	-0.0056561194
225	0xbccf0ced	-0.025274718
226	0xbe260726	-0.16213664
227	0xbdd56f38	-0.10421604
228	0xbd5934b0	-0.053028762
229	0xbce4f075	-0.02794669
230	0xbc28970d	-0.01028992
231	0xbcdeacd0	-0.027182013
232	0x3d9e472e	0.0772842
233	0x3cf3e14e	0.02977052
234	0xbdd49576	-0.1038007
235	0x3d40ae11	0.047041003
236	0xbc9ba5d0	-0.018999964
237	0x3d6889c3	0.056772005
238	0x3d64f928	0.055901676
239	0x3d4a673e	0.049414866
240	0xbd70c2b4	-0.058779433
241	0x3d36c2a9	0.044619236
242	0xbc2b4a42	-0.010454716
243	0xbcac73b2	-0.021051262
244	0x3d9ecc84	0.07753852
245	0xbda5a252	-0.08087601
246	0x3e0685db	0.13137
247	0xbd6c05f7	-0.057622876
248	0x3c59b91c	0.013288762
249	0x3dbf3655	0.09336535
250	0xbdd93b31	-0.10606993
251	0xbbdf2bb4	-0.0068106297
252	0x3d52f1cb	0.051500123
253	0xbdb0751b	-0.08616086
254	0xbd4fa83d	-0.050697554
255	0x3ca13431	0.019678207

conv3.bias f4 [32]
0	0xbd95f3cd	-0.07321892
1	0xbd93674a	-0.07197435
2	0xbd615dc7	-0.055021074
3	0xbd96c260	-0.07361293
4	0xbd7d6347	-0.061862256
5	0xbcf3ea63	-0.02977485
6	0xbda9b0de	-0.08285688
7	0x3d8b5766	0.06803779
8	0xbd6f67d3	-0.058448624
9	0xbd705a27	-0.058679726
10	0x3d489258	0.04896769
11	0xbd9d07c3	-0.07667496
12	0x3d504233	0.050844382
13	0x3d1ad8a3	0.037804257
14	0xbd5d75db	-0.054067474
15	0x3d1d8fdb	0.03846727
16	0xbbf60a1d	-0.00750853
17	0x3d8d0ef2	0.06887616
18	0xbd8d930b	-0.06912812
19	0xbd03c3e1	-0.032169227
20	0x3cbb8e38	0.022894964
21	0x3c81e1b1	0.015854688
22	0x3d8d51fd	0.06900404
23	0x3d21dfa0	0.039519906
24	0x3c7f5673	0.015584576
25	0x3d109ee1	0.03530777
26	0xbc7ab735	-0.015302469
27	0x3c404d5e	0.011737196
28	0xbccd1168	-0.025032714
29	0x3da55494	0.080727726
30	0x3d222808	0.039588958
31	0x3c3b9f48	0.01145155

conv4.weight f4 [32, 32, 3, 3]
0	0x3ccaa05f	0.024734674
1	0x3db8fd38	0.09032673
2	0x3d7e37bb	0.062064867
3	0x3d859d97	0.065241985
4	0xbda0ef82	-0.078581825
5	0xbba17442	-0.004927189
6	0x39e591f7	0.00043787036
7	0xbd14a7d4	-0.036292866
8	0xbd047739	-0.032340262
9	0xbd0ed8b1	-0.03487462
10	0x3d31f08b	0.04344229
11	0x3d09dc37	0.03365728
12	0x3c5cdb73	0.013480055
13	0x3d76a47d	0.060215462
14	0xbc2923e5	-0.010323499
15	0xbce02ca2	-0.027365033
16	0x3d53e6e8	0.05173388
17	0x3be5557a	0.006998715
18	0xbda34be2	-0.07973458
19	0xbcf230ce	-0.029564288
20	0xbd2bce5f	-0.041944858
21	0xbd623769	-0.055228624
22	0x3bf170bc	0.0073681753
23	0x3c8ba76a	0.017047603
24	0xbdd5acd7	-0.10433357
25	0xbd8a6f80	-0.06759548
26	0xbd68f441	-0.056873564
27	0xbcc0e927	-0.023548676
28	0xbcc5d93f	-0.024151443
29	0xbc17f732	-0.009275245
30	0xbc3e88d4	-0.011629302
31	0xbc3a81a4	-0.011383448
32	0x3c50b932	0.0127394665
33	0xbce705b6	-0.028200965
34	0xbd966d79	-0.07345099
35	0x3d11ab75	0.035563905
36	0xbcf34d7a	-0.02970003
37	0xbc9127cd	-0.017719174
38	0x3d18ce40	0.03730607
39	0x3d1c2875	0.03812452
40	0x3cedb65e	0.029017624
41	0x3d84c8d8	0.064836204
42	0x3d57d150	0.05268985
43	0x3d9730c8	0.07382351
44	0x3c66017c	0.01403844
45	0x3cd5ab19	0.026082562
46	0xbcc42ed2	-0.023948107
47	0xbce13043	-0.027488833
48	0x3c272794	0.010202307
49	0x3d3521be	0.044221632
50	0xbb7f56f8	-0.003896175
51	0xbd23d352	-0.039996453
52	0x3db61ac5	0.08891825
53	0xbdce27ad	-0.10066161
54	0x39c45182	0.0003744476
55	0x3bbe0818	0.0057993047
56	0x3d67bfd7	0.056579437
57	0x3b9e49bd	0.0048305676
58	0x3d9bf188	0.07614428
59	0x3d75e9a0	0.060037255
60	0x3cfd1a25	0.030896256
61	0x3c0357c5	0.008016531
62	0x3d61fcc9	0.055172715
63	0x3c93b8c6	0.018032443
64	0xbd24f206	-0.040269874
65	0x3d81df0b	0.0634137
66	0x3d2bb002	0.0419159
67	0x3d8aa19d	0.067691065
68	0xbbcaa695	-0.006184409
69	0x3bbb8f6c	0.0057238843
70	0x3c51ff30	0.012817189
71	0xbcc1365e	-0.023585495
72	0xbce414a7	-0.027841879
73	0xbd51019b	-0.05102692
74	0xbd86584d	-0.06559811
75	0xbc21c329	-0.00987319
76	0x3abd2275	0.0014429825
77	0xbd9780d9	-0.073976226
78	0xbd05e817	-0.03269204
79	0xbd231b06	-0.039820693
80	0xbc454873	-0.012041199
81	0xbd57d3fc	-0.0526924
82	0x3cd73444	0.02627004
83	0xbcb35373	-0.021890378
84	0x3d8e4651	0.069470055
85	0xbd239209	-0.03993419
86	0xbb17b71f	-0.002314992
87	0xbc909566	-0.017649364
88	0xbc9366c7	-0.017993344
89	0x3c9a6f15	0.018851796
90	0x3cd01bea	0.025403935
91	0xbcab0a37	-0.020878894
92	0xbd892340	-0.066961765
93	0xbd235f64	-0.039885893
94	0x3d1688d0	0.03675157
95	0xbc0d606c	-0.008628946
96	0xbd0c8a83	-0.034311783
97	0x3d94c653	0.0726439
98	0x3da1a7e5	0.078933515
99	0x3d41b530	0.047291934
100	0x3c4b9bc0	0.01242727
101	0x3dfbc2a4	0.12292984
102	0x3d7a79c1	0.06115127
103	0x3d410e45	0.04713275
104	0x3d1ab226	0.03776755
105	0x3d09b141	0.033616308
106	0x3d3268e9	0.04355708
107	0x3e1d624e	0.15369532
108	0xbc81a8c5	-0.015827546
109	0xbced2f78	-0.028953299
110	0xbd5239c5	-0.051324625
111	0xbd2af37b	-0.041736107
112	0x3b54a273	0.003244546
113	0x3d61e600	0.055150986
114	0xbc03096d	-0.007997853
115	0xbc05906d	-0.00815211
116	0x3d8018bf	0.0625472
117	0x3db33a92	0.08751406
118	0x3da464cc	0.08027038
119	0x3d9619f4	0.07329169
120	0x3da0e333	0.07855835
121	0x3cbcdf48	0.023055688
122	0x3d8b9496	0.0681545
123	0x3db0a50a	0.08625229
124	0x3d931f5c	0.07183716
125	0xbca7befa	-0.020476807
126	0x3bd9cea7	0.0066469493
127	0x3d56fe44	0.05248858
128	0x3d2a96f5	0.04164787
129	0xbd8ad455	-0.0677878
130	0x3d6058bf	0.054772135
131	0x3c581dc4	0.01319069
132	0xbc4318fb	-0.011907811
133	0xbcced206	-0.025246631
134	0x3d82ef53	0.06393304
135	0x3d0109b6	0.0315034
136	0x3d6d20e1	0.057892684
137	0x3db30e03	0.08742907
138	0x3c26f26c	0.010189634
139	0xbcebb254	-0.028771557
140	0x3cf32a70	0.029683322
141	0x3cdcc8d1	0.026951225
142	0x3c3ad0ea	0.011402348
143	0xbc5551d4	-0.013019998
144	0xbbed1b9e	-0.0072359582
145	0x3cfe442c	0.031038366
146	0x3ce23c6e	0.027616706
147	0xbb532631	-0.0032218809
148	0x3dce2f41	0.10067607
149	0xbd63e77a	-0.055640675
150	0x3cc3d0c5	0.02390326
151	0x3c13765f	0.00900039
152	0x3d9c7eb8	0.07641357
153	0x3d8d1197	0.068881206
154	0x3da68af7	0.08131974
155	0x3d818073	0.06323328
156	0x3ddc75d6	0.10764663
157	0x3cbe2524	0.02321107
158	0x3d92a3a1	0.07160116
159	0x3df357b8	0.118819654
160	0xbc1158a5	-0.008871232
161	0xbd839a15	-0.06425873
162	0xbd66dfca	-0.056365766
163	0xbc34861d	-0.011018303
164	0xbd67308d	-0.056442786
165	0xbd8f90cf	-0.07010042
166	0x3ca3f582	0.020014528
167	0x3bf3309a	0.0074215652
168	0xbd49f35c	-0.04930435
169	0xb97742b6	-0.00023580607
170	0xbc630d27	-0.013858116
171	0x3d8bee67	0.06832581
172	0x3cfda48a	0.030962247
173	0x3d179604	0.0370083
174	0x3d75c333	0.06000061
175	0x3da32376	0.07965748
176	0xbbb8f7c0	-0.0056447685
177	0x3cdc8d5b	0.026922872
178	0x3cb9e1c3	0.02269066
179	0x3d68adbf	0.056806322
180	0x3c814ba8	0.015783146
181	0x3d5c7410	0.053821623
182	0xbdaa0d50	-0.083033204
183	0x3ab31b9e	0.0013664847
184	0x3c4e25fe	0.0125823
185	0x3d04e1cf	0.03244191
186	0xbd110620	-0.035406232
187	0xbd0acb68	-0.03388539
188	0xbcc592a0	-0.024117768
189	0xbd53d4d4	-0.05171664
190	0x3cb61713	0.0222278
191	0xbdbebe40	-0.09313631
192	0xbdb1b4aa	-0.08677037
193	0x3e140820	0.14456224
194	0xbd3a1082	-0.0454259
195	0xbc284d63	-0.010272357
196	0xbe0fd4fb	-0.1404609
197	0xbd9c91aa	-0.07644971
198	0x3d55bed0	0.052183926
199	0x3d1c356a	0.038136877
200	0x3d03ee9b	0.032209974
201	0x3ba4096b	0.0050060055
202	0x3cd54241	0.026032569
203	0xbd203d23	-0.039120805
204	0xbc000185	-0.007812862
205	0xbd0c1dc8	-0.03420809
206	0xbd79f714	-0.061026648
207	0xbcc5e8e2	-0.024158899
208	0x3d3f1aff	0.046656605
209	0x3d28901a	0.04115305
210	0xbd40b536	-0.047047816
211	0x3d378313	0.044802736
212	0x3d45fb85	0.04833557
213	0x3ccd19f4	0.02503679
214	0xbd0518a4	-0.032494202
215	0x3cc111aa	0.023567993
216	0x3c44fa42	0.012022557
217	0x3caf8112	0.02142385
218	0x39ce59fe	0.0003935843
219	0xbcf53164	-0.029930778
220	0x3d762e1a	0.06010256
221	0x3d3f2c4b	0.0466731
222	0xbc5e4e37	-0.013568453
223	0x3cd6e375	0.026231507
224	0xbc0b39db	-0.008497681
225	0x3ba71b15	0.005099664
226	0x3ce84c4a	0.02835669
227	0xbae8c645	-0.0017759284
228	0xbc6d3263	-0.014477345
229	0xbbee38d4	-0.007269958
230	0xbdb3d1b0	-0.08780229
231	0x3b16f0ee	0.002303179
232	0xbd017569	-0.03160611
233	0xbc814649	-0.015780585
234	0xbcf1875e	-0.029483493
235	0x3c22471e	0.009904651
236	0x3c9b6dc3	0.018973237
237	0x38b06229	8.410618e-05
238	0xbcbdf6c3	-0.023188954
239	0xbd08698c	-0.033303782
240	0xbd3d227a	-0.046175458
241	0x3d162f93	0.036666464
242	0x3c9eb4ff	0.019373415
243	0x3d0712ff	0.0329771
244	0xbd172686	-0.036901973
245	0xbda0866a	-0.078381374
246	0x3a805de8	0.0009793611
247	0x3d873fa8	0.06603938
248	0xbc99d073	-0.018776154
249	0xbd676932	-0.056496806
250	0xbbbe1609	-0.0058009666
251	0xbdb093f0	-0.08621967
252	0x3d5cbd81	0.053891663
253	0x3b13be00	0.0022543669
254	0xbd962ab2	-0.07332362
255	0xbd507718	-0.050894827

conv4.bias f4 [32]
0	0xbd1125d9	-0.035436485
1	0xbd01f681	-0.031729225
2	0xbd29d2a6	-0.041460656
3	0xbd391f01	-0.045195583
4	0x3d45642e	0.048191242
5	0x3d175052	0.036941834
6	0xbc581d2f	-0.013190552
7	0xbd0c668e	-0.03427749
8	0x3d412485	0.04715397
9	0xbc67d6c5	-0.014150326
10	0x3d6d153e	0.057881586
11	0x3cb9a341	0.022660853
12	0xbd1b570e	-0.03792482
13	0xbcf1981a	-0.029491473
14	0xbcc560a4	-0.024093933
15	0x3d2753ee	0.040851526
16	0x3d164dac	0.036695167
17	0xbd69ab66	-0.057048224
18	0xbc252802	-0.010080339
19	0x3d251273	0.040300798
20	0xbcffbe6a	-0.031218726
21	0xbcea57bb	-0.028606286
22	0x3ce81879	0.028331982
23	0xbcb49faa	-0.02204879
24	0xbcf7f7dc	-0.030269556
25	0x3c946758	0.018115684
26	0xbd214a09	-0.039377246
27	0xbc0d81a4	-0.008636866
28	0xbcf44f9a	-0.029823113
29	0xbd6c653d	-0.057713736
30	0xba4270dd	-0.00074173306
31	0x3cb858b5	0.022503236

bn21.weight f4 [32]
0	0x3f848573	1.0353225
1	0x3f826693	1.0187553
2	0x3f82cd12	1.0218832
3	0x3f7a6b33	0.97819823
4	0x3f83c154	1.0293374
5	0x3f764cae	0.96210754
6	0x3f7f85fc	0.9981382
7	0x3f806120	1.002964
8	0x3f7cc5e7	0.98739475
9	0x3f70ba41	0.940342
10	0x3f80efdc	1.0073199
11	0x3f83b627	1.0289963
12	0x3f740688	0.95322466
13	0x3f82f581	1.0231172
14	0x3f6de958	0.9293418
15	0x3f7cc1ab	0.98733014
16	0x3f80daab	1.0066732
17	0x3f7e2c88	0.992867
18	0x3f7b9c53	0.98285407
19	0x3f82da4a	1.0222867
20	0x3f82691a	1.0188324
21	0x3f7fd37e	0.99932086
22	0x3f776d87	0.966515
23	0x3f75233a	0.95756876
24	0x3f8242fa	1.017669
25	0x3f7a8962	0.9786588
26	0x3f8059bb	1.0027384
27	0x3f7739d0	0.9657259
28	0x3f7067d9	0.9390846
29	0x3f6b541f	0.91925234
30	0x3f85a5a5	1.0441176
31	0x3f74dd7a	0.95650446

bn21.bias f4 [32]
0	0xbe18acb1	-0.14909627
1	0xbd544302	-0.051821716
2	0xbdb24b7e	-0.08705805
3	0xbd7c78db	-0.061638694
4	0xbcf4edaa	-0.029898483
5	0xbcd336c4	-0.02578295
6	0xbda5dc3b	-0.08098646
7	0xbdba3f48	-0.09094101
8	0xbd26d2c4	-0.040728346
9	0xbd1f1936	-0.038842402
10	0xbd9b6578	-0.07587713
11	0xb722ac63	-9.696089e-06
12	0xbdd84abb	-0.10561129
13	0x3cd56248	0.02604784
14	0xbd8bd703	-0.068281196
15	0xbd25d31b	-0.04048453
16	0x3aeaa227	0.0017901108
17	0x3bc80f03	0.006105305
18	0xbc1b2ec1	-0.009471596
19	0x3cf55151	0.029946001
20	0xbd661016	-0.056167684
21	0xbd34d126	-0.044144772
22	0xbb6926a1	-0.0035576003
23	0xbdaadbbc	-0.08342692
24	0xbc93a412	-0.01802257
25	0xbd554911	-0.052071635
26	0xbd242a42	-0.040079363
27	0xbd6d70d7	-0.05796894
28	0xbd71f890	-0.05907494
29	0xbe18850e	-0.14894506
30	0xbd46dfe0	-0.048553348
31	0xbdc6cf38	-0.097074926

bn21.running_mean f4 [32]
0	0x3f7fd319	0.99931484
1	0xbfab02cc	-1.3360229
2	0x3e51f174	0.20502263
3	0x3fa9f4dd	1.3277851
4	0xbfad7d77	-1.3553914
5	0x3faf8a19	1.3714019
6	0xbff1d12c	-1.8891959
7	0x3db8e95a	0.09028883
8	0x3f3ef625	0.74594337
9	0x3f8aa3c6	1.083123
10	0xbe9842c9	-0.29738453
11	0xbf67b3d3	-0.90508765
12	0x3fc022e1	1.5010644
13	0xbfaa888e	-1.3322923
14	0x3fabcf4e	1.3422639
15	0x3e5c92cf	0.21540378
16	0xbed3d724	-0.41375077
17	0xbdd1d4d2	-0.102456704
18	0xbf8b9ca6	-1.090718
19	0xbfa55c3a	-1.291877
20	0x3e142b21	0.14469577
21	0x3f65e556	0.89803064
22	0x3eaaf833	0.33392486
23	0x3f8edc04	1.1160893
24	0xbfe1f580	-1.7653046
25	0x3fba6720	1.4562721
26	0xbe9ffd0c	-0.31247747
27	0x3f46f1ef	0.7771291
28	0x3fab832b	1.3399404
29	0x3f86bb78	1.0525961
30	0x3fafc325	1.3731428
31	0x3f71fe00	0.945282

bn21.running_var f4 [32]
0	0x3e223256	0.15839514
1	0x3ee4ff44	0.44726002
2	0x3e64e6e0	0.22353697
3	0x3eb3c77e	0.35113138
4	0x3e7c8bb8	0.24662673
5	0x3e4aa737	0.1979035
6	0x3f01b454	0.50665784
7	0x3da83bc5	0.08214525
8	0x3e1956c4	0.14974505
9	0x3db5675f	0.08857607
10	0x3e39cbbf	0.18144129
11	0x3e530611	0.20607783
12	0x3e9d7b4c	0.3075813
13	0x3e80cab4	0.2515465
14	0x3e915cf5	0.28391233
15	0x3d9d98b3	0.07695141
16	0x3e8305c7	0.25590345
17	0x3e111bb4	0.14170724
18	0x3f1ff1cc	0.6247833
19	0x3e856aae	0.26057953
20	0x3e362429	0.17787232
21	0x3ec06acc	0.3758148
22	0x3de55f03	0.11199763
23	0x3e296861	0.16543724
24	0x3f34212a	0.70363104
25	0x3e989fa9	0.2980931
26	0x3e70d987	0.2352048
27	0x3e5e435d	0.21705385
28	0x3f54a654	0.83066297
29	0x3dc515c4	0.09623292
30	0x3e5b1a99	0.21396865
31	0x3df20a14	0.118183285

bn22.weight f4 [32]
0	0x3f80abeb	1.0052465
1	0x3f83d899	1.0300475
2	0x3f8033a8	1.0015764
3	0x3f7568e4	0.95863175
4	0x3f7b4952	0.9815875
5	0x3f7bdec4	0.9838679
6	0x3f6f3c37	0.93451256
7	0x3f7965a9	0.97420746
8	0x3f80f216	1.0073879
9	0x3f84cbda	1.037471
10	0x3f7251ff	0.94656366
11	0x3f811059	1.0083114
12	0x3f81d382	1.0142672
13	0x3f7e2eb9	0.99290043
14	0x3f6d73ee	0.9275502
15	0x3f78f026	0.9724144
16	0x3f837da9	1.0272723
17	0x3f657a57	0.896398
18	0x3f81076c	1.008039
19	0x3f6b1458	0.9182792
20	0x3f7f84db	0.99812096
21	0x3f7fbd26	0.9989799
22	0x3f68daf9	0.90959126
23	0x3f73c887	0.95227855
24	0x3f707227	0.9392418
25	0x3f78c98f	0.97182554
26	0x3f792b0e	0.9733132
27	0x3f816a1c	1.0110507
28	0x3f81c1ee	1.0137308
29	0x3f7e99ef	0.99453634
30	0x3f7f4b54	0.99724317
31	0x3f8023a0	1.0010872

bn22.bias f4 [32]
0	0x3abf4fbe	0.0014595909
1	0xbe91c596	-0.2847106
2	0xbe3ea066	-0.18615875
3	0x3ad2931b	0.0016065569
4	0xbf100b41	-0.5626717
5	0xbc4b192b	-0.012396137
6	0xbd397553	-0.045277905
7	0xbe520234	-0.20508653
8	0xbba794c4	-0.00511417
9	0xbea377d2	-0.31927353
10	0xbdb42dfb	-0.087978326
11	0xbde38fc2	-0.11111404
12	0xbd7c1460	-0.06154287
13	0x3d2896c0	0.04115939
14	0xbdcb2472	-0.09919061
15	0xbd954462	-0.072884336
16	0xbd90d12e	-0.07071148
17	0xbd8d63c3	-0.06903794
18	0xbda9cfe7	-0.08291607
19	0xbcaaa645	-0.020831237
20	0x3d9d96d6	0.07694785
21	0x3cdd79f4	0.02703569
22	0xbd396efe	-0.045271866
23	0xbb0626ce	-0.0020469907
24	0xbd923d7c	-0.071406335
25	0xbdfd25c3	-0.12360718
26	0xba00e690	-0.0004917169
27	0xbc8f0089	-0.01745631
28	0x3e450273	0.19239216
29	0xbebb5304	-0.36586773
30	0x39cba53f	0.00038842295
31	0xbe7023ea	-0.234512

bn22.running_mean f4 [32]
0	0x3f0f67ac	0.56017566
1	0xbe6eabfe	-0.23307797
2	0x3fc74877	1.556899
3	0xbf5d0676	-0.86337984
4	0x3f18b95e	0.5965785
5	0xbf554052	-0.8330127
6	0xbf73c66d	-0.9522465
7	0x3f9125c7	1.1339654
8	0xbf7b3b00	-0.981369
9	0x3efae05e	0.48999304
10	0x3e900cba	0.2813471
11	0x3f169c39	0.58832127
12	0xbda6ea12	-0.08150114
13	0x3e916fac	0.2840551
14	0xbe205f0b	-0.15661256
15	0xbf0b515d	-0.54421026
16	0xbe94c51c	-0.29056633
17	0xbf6cee5a	-0.92551196
18	0xbf323b99	-0.6962219
19	0xbe7e5993	-0.24838857
20	0xbecf3f75	-0.404781
21	0xbe893a2b	-0.2680219
22	0xbf89920e	-1.0747697
23	0xbf3e84c2	-0.7442132
24	0x3ed9b728	0.4252255
25	0x3e918510	0.2842183
26	0xbfa0b075	-1.255385
27	0xbf961883	-1.172623
28	0xbf73af15	-0.9518903
29	0x3f4cde57	0.80026764
30	0xc0075dfc	-2.1151114
31	0x400026f0	2.0023766

bn22.running_var f4 [32]
0	0x3f43344a	0.7625166
1	0x3ee264fb	0.44217667
2	0x3eeda1c5	0.46412483
3	0x4012a39d	2.2912362
4	0x3ed45756	0.41472882
5	0x3f9e414d	1.2363678
6	0x3f382125	0.71925575
7	0x3f12055e	0.5703944
8	0x3f18a3ea	0.59625113
9	0x3f0cc24e	0.54983985
10	0x3f27f923	0.6561453
11	0x3ed5d304	0.41762555
12	0x3ed45c29	0.41476563
13	0x3f25b981	0.6473618
14	0x3f14a10a	0.58058226
15	0x3f0c286d	0.54749185
16	0x3f26e74e	0.6519669
17	0x3f5a7650	0.8533678
18	0x3ef4b5b0	0.47794867
19	0x3fa1f85e	1.2653921
20	0x3f3ecf14	0.74534726
21	0x3f1ccac8	0.6124692
22	0x3f165b9d	0.5873354
23	0x3fcfcea2	1.6234934
24	0x3f442ec9	0.7663389
25	0x3ed792b9	0.42104128
26	0x3e9d1b7c	0.3068503
27	0x3f946674	1.1593766
28	0x3f1dc92b	0.6163508
29	0x3ee9077c	0.45513523
30	0x3f342d4d	0.70381624
31	0x3f09053e	0.53523624

conv5.weight f4 [64, 32, 3, 3]
0	0x3d299813	0.041404795
1	0xbcc1d202	-0.02365971
2	0xbd93accc	-0.07210693
3	0xbc5df0d2	-0.013546186
4	0xbc51f7e2	-0.0128154475
5	0xbd9b4678	-0.075818
6	0x3d0852d2	0.03328211
7	0xba11d462	-0.00055629585
8	0xbd22340e	-0.039600424
9	0xbcdb33ac	-0.026758038
10	0x3cac4a1c	0.021031432
11	0x3d998f5f	0.07498049
12	0x3d488e35	0.048963744
13	0xbcb9a6a6	-0.022662472
14	0xbca3b167	-0.019982053
15	0xbd2b3fd8	-0.041808933
16	0x3d876cdc	0.0661256
17	0xbd832c55	-0.0640494
18	0xbd7ac320	-0.061221242
19	0x3da01c92	0.07817949
20	0x3d8ab0dc	0.067720145
21	0xbcf2fb36	-0.029660802
22	0x3c7c1d05	0.015387778
23	0xbd931fdb	-0.0718381
24	0xbb7c613d	-0.0038510107
25	0xbcbd2e75	-0.023093442
26	0xbcaae495	-0.02086095
27	0x3ccae1f7	0.024765952
28	0xbc320177	-0.010864607
29	0x392a2066	0.00016224533
30	0xbd14ec9d	-0.036358465
31	0xbcb6f501	-0.022333624
32	0xbb3d7469	-0.0028908497
33	0xbbb4d53f	-0.005518585
34	0x3d8f35da	0.06992693
35	0xbd1f9a8e	-0.038965754
36	0xbe067918	-0.13132131
37	0xbc370c11	-0.01117231
38	0xbd7ed712	-0.062216826
39	0xbe0fd3f1	-0.14045693
40	0x3c9854b4	0.018595077
41	0xb86ed8a3	-5.694538e-05
42	0xbda4a653	-0.08039536
43	0xbc80bd80	-0.01571536
44	0x3c54866b	0.012971501
45	0xbd4030e7	-0.046921637
46	0x3d0f8453	0.035038304
47	0x3d83d56e	0.06437193
48	0x3ab8fd64	0.0014113602
49	0xbc4cb325	-0.012493883
50	0xbb5f248e	-0.0034048888
51	0x3d4716a1	0.048605565
52	0x3d114127	0.035462525
53	0xbc9b9ab7	-0.018994672
54	0x3d7ceb43	0.0617478
55	0x3da6e5d7	0.08149307
56	0x3ccc5159	0.024941133
57	0xbd9d8dc4	-0.07693055
58	0xbcbf755c	-0.023371391
59	0xbd056107	-0.032563236
60	0xbcfdd7d8	-0.030986711
61	0x3ce69269	0.028145986
62	0xbd9d9f2a	-0.07696374
63	0xbdd904cb	-0.10596617
64	0xbc86ec91	-0.016470226
65	0xbbe6af3b	-0.007039932
66	0xbbef53c3	-0.0073036863
67	0xbd37c1d0	-0.04486257
68	0xbdff0f03	-0.12454035
69	0xba1f1ae8	-0.0006069378
70	0x3d568085	0.05236866
71	0xbba57537	-0.0050493735
72	0x3d7c409d	0.061585058
73	0xbbacd038	-0.005273845
74	0xbd1c02b7	-0.038088527
75	0x3d81bb9d	0.063346125
76	0x3d11a403	0.035556804
77	0xbd35f182	-0.044419773
78	0x3d1276de	0.03575789
79	0xb9c3d2c5	-0.00037350334
80	0x3c361684	0.011113767
81	0xbdd4d238	-0.103916585
82	0xbd0a0017	-0.033691492
83	0x3cd1a55b	0.025591543
84	0xbd4deb42	-0.050273187
85	0x3c5e3f2d	0.013564867
86	0xbc44f782	-0.012021901
87	0x3d7499ad	0.05971687
88	0xbd9c7bdb	-0.07640811
89	0x3d6bcbd4	0.057567433
90	0xbd2d95b5	-0.0423791
91	0x3d094d24	0.033520833
92	0x3cfd0a35	0.030888656
93	0xbc2d4a30	-0.01057677
94	0xbc7768a8	-0.015100636
95	0xbd0abff6	-0.033874474
96	0xbcd25e74	-0.025679804
97	0xbc5ebb3f	-0.013594448
98	0x39214c95	0.00015382686
99	0xbdcac306	-0.09900479
100	0x3cc69397	0.024240298
101	0x3db53d2d	0.08849559
102	0x3d56bd9f	0.05242693
103	0xbc2ce176	-0.010551801
104	0xbb89865a	-0.004196924
105	0xbd86100f	-0.06546032
106	0x3c98ecf7	0.018667681
107	0xbcc67379	-0.024224984
108	0xbc2e2199	-0.0106281275
109	0xbde5399a	-0.11192627
110	0xbd8dd4e9	-0.06925375
111	0x3d6b3699	0.057425115
112	0x3c7af84a	0.015317986
113	0xbd846f00	-0.06466484
114	0x3d71415f	0.058900233
115	0xbc3581df	-0.011078327
116	0x3c366844	0.011133257
117	0x3c598a28	0.013277568
118	0xbc9ea06d	-0.019363606
119	0x3d0c397d	0.034234513
120	0xbc2bf998	-0.0104965195
121	0xbd4a2731	-0.049353782
122	0x3b00baf1	0.0019642676
123	0x3bd2ada0	0.006429389
124	0x3d1112f3	0.035418462
125	0xbc66da98	-0.014090203
126	0x3cde6b03	0.027150637
127	0xbbcc4e5b	-0.0062349266
128	0x3d7b7804	0.061393753
129	0xbc7459e9	-0.014914014
130	0xbe2bbfbc	-0.1677236
131	0x3c348aa7	0.011019385
132	0xbd8786d7	-0.066175155
133	0xbd47b67e	-0.048758022
134	0x3cda9fb9	0.02668749
135	0x3d233a05	0.039850254
136	0x3cfb1314	0.030648746
137	0x3d7ba645	0.061437864
138	0xbb069040	-0.0020532757
139	0x3dc68712	0.09693731
140	0xbd158e58	-0.036512703
141	0xbcc79607	-0.02436353
142	0xbdb2b3bc	-0.08725688
143	0x3d65ff57	0.056151714
144	0xbbf1f788	-0.0073842444
145	0x3dc066e5	0.093946256
146	0x3d57a6ee	0.05264943
147	0xbd681bea	-0.056667246
148	0x3d16666b	0.036718767
149	0x3d8c2e79	0.068448015
150	0xbd00b54e	-0.031422906
151	0xbcdcca84	-0.026952036
152	0x3d5feb6b	0.05466787
153	0x3cfbe32c	0.030747972
154	0x3dc63f28	0.09680015
155	0xbcbfc32a	-0.023408491
156	0xbce7b74d	-0.028285647
157	0xbda599c6	-0.080859706
158	0x3cd24347	0.025666846
159	0xbc14fc2e	-0.009093327
160	0xbd1c9314	-0.038226202
161	0x3b22dc64	0.0024850601
162	0x3d5ccf26	0.05390849
163	0xbb177074	-0.0023107799
164	0x3ca78b39	0.020452129
165	0x3d404107	0.046937015
166	0x3d439912	0.0477534
167	0x3d2f1ffe	0.04275512
168	0xbce4f03c	-0.027946584
169	0x3c8853cd	0.016641522
170	0xbca2e13e	-0.019882794
171	0x3d4dc624	0.05023779
172	0x3cf69795	0.030101577
173	0x3d8746ed	0.06605325
174	0xbd32634b	-0.043551724
175	0xbe134271	-0.14380814
176	0xbb019016	-0.001976972
177	0x3c6c5885	0.014425402
178	0xbc70bbc5	-0.014693205
179	0xbc5da1ec	-0.013527375
180	0x3c32fbba	0.010924274
181	0xbc1cd641	-0.0095725665
182	0x3b9a04e6	0.004700291
183	0xbd7006f0	-0.058600366
184	0x3c273d2b	0.010207455
185	0xbc94bfd8	-0.018157884
186	0xbc0f973d	-0.008764085
187	0xbd10ee7b	-0.035383683
188	0x3c075e3c	0.008262213
189	0x3d0489ba	0.03235791
190	0x3c638fa9	0.013889232
191	0x3ce745ee	0.028231587
192	0x3cf0ba06	0.029385578
193	0x3d04819e	0.032350175
194	0x3d336467	0.043796923
195	0xbc6abaaa	-0.014326731
196	0x3d43c335	0.047793586
197	0xbccd1703	-0.025035387
198	0xbd796f16	-0.060896955
199	0xbbbd6436	-0.0057797683
200	0x3cdc1bdf	0.026868759
201	0x3cff3d82	0.031157259
202	0xbd10e869	-0.035377894
203	0xbca23e9c	-0.019805245
204	0xbd179d92	-0.037015505
205	0x3db6716a	0.08908351
206	0x3cbbc00d	0.022918725
207	0xbd22e2a3	-0.03976692
208	0x3ba3b11d	0.004995479
209	0x3cc45436	0.023965936
210	0xbd804b02	-0.062643066
211	0xbdbe23c7	-0.09284168
212	0x3d5a19d8	0.053247303
213	0xbc2f1cab	-0.010687987
214	0x3a074e87	0.0005161543
215	0xbcfd7294	-0.030938424
216	0xbdaba2a1	-0.083806284
217	0xbe08255d	-0.13295503
218	0x3cb79acc	0.02241268
219	0xbdb5bcb3	-0.08873882
220	0xbb85d0bc	-0.004083721
221	0x3c00594a	0.007833788
222	0x3d9c7584	0.07639602
223	0x3d3f4cd4	0.04670413
224	0x3ba0b48c	0.0049043354
225	0xbdc6d6f7	-0.0970897
226	0x3ceed21e	0.029152926
227	0x3c1a7019	0.00942614
228	0xbd8ff9ec	-0.07030091
229	0x3bf6650a	0.007519369
230	0x3d66e3af	0.05636948
231	0xbc604cb4	-0.013690162
232	0x3d0558f8	0.03255555
233	0x3d900567	0.070322804
234	0xbd1f51d3	-0.038896393
235	0x3ca0b489	0.019617336
236	0x3d3e3f21	0.046446923
237	0xbd85f19a	-0.065402225
238	0xbcb87ac4	-0.022519477
239	0x3d36c58c	0.04462199
240	0xbd894383	-0.0670233
241	0xbd51bba8	-0.051204354
242	0x3dac80ed	0.08423028
243	0x3d506afa	0.05088327
244	0xbcc389e7	-0.023869468
245	0xbd3f7716	-0.04674443
246	0xbd49905f	-0.04920995
247	0xbb2cd49d	-0.0026371845
248	0xbd0767e4	-0.033058062
249	0xbd1660ae	-0.036713295
250	0x3d88930a	0.066686705
251	0x3d30293b	0.04300807
252	0xbc95add7	-0.01827137
253	0x3bc08c29	0.0058760834
254	0x3d09ade4	0.0336131
255	0xbc171ca5	-0.009223138

conv5.bias f4 [64]
0	0xbc198d15	-0.0093720155
1	0x3d2cea3a	0.042215563
2	0x3ccc419a	0.024933625
3	0xbc3d609a	-0.011558676
4	0x3d1c64f5	0.038182218
5	0xbd57211a	-0.052521802
6	0xbd28e077	-0.04122969
7	0xbd46074e	-0.04834681
8	0xbd1a1403	-0.03761674
9	0xbb4da8a5	-0.0031381038
10	0x3cad69ac	0.021168552
11	0x3d4af5eb	0.049550932
12	0xbd3072f2	-0.04307837
13	0xbc6b180e	-0.014348997
14	0xbd2bf33c	-0.041980013
15	0x3ad9cc5b	0.0016616689
16	0x3d37d1a8	0.04487768
17	0x3c89714e	0.01677766
18	0x3d4c196e	0.04982894
19	0xbd7218d9	-0.059105728
20	0xbd5a7073	-0.053329896
21	0x3ca9faab	0.02074941
22	0xbd4389b4	-0.047738746
23	0xbc704d2d	-0.014666838
24	0x3b991f23	0.0046729012
25	0xbb4479a4	-0.002997973
26	0xbd56b924	-0.052422658
27	0x3cf00d55	0.029303232
28	0xbd4127d5	-0.047157127
29	0xbcd015f6	-0.025401097
30	0xbca9f0b9	-0.020744668
31	0x3c2c21e9	0.010506132
32	0x3c6e3b80	0.014540553
33	0xbcbdec21	-0.023183884
34	0x3d574757	0.05255827
35	0x3c455d34	0.012046147
36	0x3ccfd205	0.0253687
37	0x3d433937	0.047661986
38	0x3d25acb1	0.040447894
39	0x3cfac848	0.03061308
40	0xbd73c5d5	-0.05951484
41	0x3d1f599c	0.038903818
42	0x3d2ef723	0.042716157
43	0xbd40002a	-0.046875156
44	0x3d2de7ac	0.042457268
45	0xbd663754	-0.05620511
46	0x3d126af1	0.03574652
47	0xbc205466	-0.009785747
48	0xbc860a61	-0.01636237
49	0x3d150961	0.036385898
50	0x3d666c7d	0.056255806
51	0xbcc4f5b5	-0.024042943
52	0xbc88084c	-0.016605519
53	0xbd0b4047	-0.033996847
54	0xbcf302e9	-0.029664474
55	0x3cd6de13	0.02622894
56	0xbbb4f267	-0.0055220607
57	0x3d206ae1	0.039164428
58	0x3d13e5ba	0.036107756
59	0x3cfc3a18	0.03078942
60	0xbb83a031	-0.004016899
61	0x3cf4f9fd	0.02990436
62	0xbcf5d85b	-0.030010393
63	0xbc8a3f4d	-0.016875887
