checkpoints/best_model_1109_1.pth (torch, 304673 bytes, 37 tensors)

conv1.weight f4 [16, 1, 3, 3]
0.6613222 0.31395474 -0.4285532 -0.61541605 -1.6186154 -2.8548064 0.37391603 0.6874879
-0.054639783 1.501139 3.5921578 0.07597998 1.7916677 2.7508943 0.2967786 0.37060165
0.5653865 0.41549003 -1.0542669 0.061884895 0.6960052 -2.0656855 -3.8536427 -0.16427995
0.45652315 0.023523701 0.05700141 0.21588182 0.24373314 -0.019124659 0.90631026 0.2196264
0.5316884 -0.636757 -3.2960658 -2.069077 0.32074648 -1.4579111 0.3104211 0.29370737
-6.677135 -0.44396365 0.25629607 -1.0356257 0.33348617 0.12343151 0.77714664 0.36131623
-1.1634415 0.65173143 0.56189936 -3.0170135 -1.9997623 -0.14470914 -0.59395105 0.91391957
0.15271924 0.7055809 -0.6451686 -3.1567762 0.3519619 -0.13415655 -1.3456739 0.65125465
-0.8144793 -0.58146113 -0.87110543 1.7703259 -0.754505 -1.382375 -0.49374023 -2.4441748
-0.0822517 0.10509261 -0.123330645 -0.06213749 0.07695445 -0.0015284847 -5.6505194 -11.184293
0.10717563 0.050818887 -2.6426973 -0.036497228 -7.2358284 -6.5034385 0.06273619 0.21553437
0.20707224 0.023045251 -0.47575065 -1.5242046 -2.9911485 1.219635 0.31245536 -0.050326604
0.39198333 0.06038829 0.052315753 0.093612865 -0.5631909 -6.4294286 0.40959832 0.65386033
-1.1866914 -0.03727864 0.5034429 -0.05487923 0.17980643 1.2002641 0.7603626 0.8034634
3.2439303 1.6381471 0.3510649 1.4443367 0.4101641 -1.151614 -3.7424812 -0.21703416
-2.28156 -0.6983563 0.8099309 -0.44167897 0.48163694 0.37505454 3.8079298 1.5110683
0.8358243 1.0990665 -0.5786005 0.15693732 0.6818754 0.5580764 -0.57500464 0.44152546
0.43336123 -2.4241922 0.26377434 0.18220308 -4.7379794 -0.40533093 -0.16611433 -0.20125207
00000000: 694c 293f adbe a03e 536b dbbe e88b 1dbf
00000010: ca2e cfbf 26b5 36c0 ec71 bf3e 35ff 2f3f
00000020: f7cd 5fbd 5325 c03f eae5 6540 649b 9b3d
00000030: 5e55 e53f a70e 3040 5df3 973e 80bf bd3e
00000040: 2bbd 103f 1cbb d43e 38f2 86bf 047b 7d3d
00000050: 662d 323f 3134 04c0 15a2 76c0 0139 28be
00000060: 67bd e93e c7b4 c03c 4f7a 693d 2010 5d3e
00000070: 2e95 793e 51ab 9cbc f303 683f bee5 603e
00000080: bb1c 083f 8202 23bf bef2 52c0 c26b 04c0
00000090: e238 a43e d59c babf 84ef 9e3e d060 963e
000000a0: 17ab d5c0 344f e3be 3d39 833e 628f 84bf
000000b0: b3be aa3e a9c9 fc3d 15f3 463f 71fe b83e
000000c0: a7eb 94bf dfd7 263f a3d8 0f3f c016 41c0
000000d0: 36f8 ffbf a22e 14be 2d0d 18bf a2f6 693f
000000e0: 6f62 1c3e f3a0 343f c529 25bf 9f08 4ac0
000000f0: 5a34 b43e 5660 09be 0b3f acbf a0b8 263f
00000100: b781 50bf a3da 14bf c400 5fbf 0a9a e23f
00000110: 3d27 41bf aaf1 b0bf 85cb fcbe 5c6d 1cc0
00000120: 9473 a8bd cb3a d73d c794 fcbd e183 7ebd
00000130: 4b9a 9d3d 7057 c8ba 0ed1 b4c0 ddf2 32c1
00000140: e67e db3d 7727 503d f421 29c0 1e7e 15bd
00000150: e88b e7c0 2b1c d0c0 d57b 803d 0bb5 5c3e
00000160: bf0a 543e 65c9 bc3c 9795 f3be 2319 c3bf
00000170: fa6e 3fc0 001d 9c3f 26fa 9f3e 4523 4ebd
00000180: 0ab2 c83e b659 773d 0b49 563d 1ab8 bf3d
00000190: 472d 10bf e1bd cdc0 dfb6 d13e 6463 273f
000001a0: 81e5 97bf 7db1 18bd a2e1 003f 0bc9 60bd
000001b0: 2d1f 383e 41a2 993f 20a7 423f c7af 4d3f
000001c0: 8e9c 4f40 ceae d13f c7be b33e 06e0 b83f
000001d0: 0701 d23e 1668 93bf d084 6fc0 343e 5ebe
000001e0: 1405 12c0 7ac7 32bf a257 4f3f bf23 e2be
000001f0: 1e99 f63e 2607 c03e 1fb5 7340 b06a c13f
00000200: 95f8 553f 36ae 8c3f 2a1f 14bf 2db4 203e
00000210: 638f 2e3f 18de 0e3f 8133 13bf a00f e23e
00000220: 86e1 dd3e f725 1bc0 6e0d 873e 7293 3a3e
00000230: 879d 97c0 8987 cfbe e019 2abe 0615 4ebe

conv1.bias f4 [16]
0.2932511 0.0003287232 0.14983064 0.265429 -0.12914728 -1.0932708 0.6730136 -0.17353597
-2.6326919 0.17606877 0.1285538 0.7980511 -0.49123192 0.100732565 -0.41906714 -0.6022807
00000000: 0225 963e 7b58 ac39 346d 193e 4fe6 873e
00000010: 2f3f 04be 4cf0 8bbf 9f4a 2c3f 6ab3 31be
00000020: 067e 28c0 5f4b 343e 9ba3 033e 144d 4c3f
00000030: c082 fbbe e04c ce3d f88f d6be 112f 1abf

conv2.weight f4 [16, 16, 3, 3]
-0.5277178 -0.93846035 -0.36262944 0.72863275 -2.1741607 -0.487333 0.18065912 -0.30542642
-1.2615198 0.6601752 -0.9642237 -2.4905157 0.3105771 -0.100714915 -1.6432273 0.74752843
1.4609125 0.5491489 -0.7400316 -0.6866482 -0.013508635 0.24149315 2.2727966 -0.73690695
-1.2069942 1.7899221 0.093288854 0.40038845 1.6146009 -0.044274747 0.46047357 4.840514
-1.1968217 -1.4141347 -1.1398914 -0.77614313 0.036006577 -1.1751498 -0.3786502 -0.8277613
4.8365436 -0.33656543 -0.42607182 2.990934 -0.51211435 0.1837522 -0.5850933 0.35506362
0.28658432 2.9826455 -0.48782548 -1.4632815 -1.067652 -2.3361883 0.14615194 -0.25768873
-0.11452901 1.5675365 -0.4761976 -1.1478367 0.6543842 0.3433089 -0.23623933 -0.16566546
0.63533825 -5.1358733 2.1602979 -0.26619163 1.065361 -0.13539115 0.66750807 0.3506054
0.7074137 1.0069268 -0.7908932 0.5605477 9.054433 0.9781514 1.4545478 -0.1349877
0.7278108 0.18491761 -0.59631455 -0.32555136 0.13239615 1.7290084 0.06653391 -0.38481432
6.0503454 0.3396627 -0.6829017 -1.2349286 -0.24688907 -0.9233261 -0.89174813 -0.44690663
1.0082494 1.5599076 -0.7243925 -0.13396218 -0.7523086 1.3056502 0.4429745 0.08861479
0.8006744 0.9807504 1.2240497 -0.7113597 -1.1821984 -1.2083988 -0.7993726 -0.55678385
-0.13151658 -0.51942176 0.742234 -1.4671134 -1.0585487 -1.1380103 -1.6515658 -0.054729234
0.11835605 0.07105712 0.0017528973 -0.7870078 2.3183832 0.09666236 0.77169585 0.13328788
-0.65503335 -1.4242499 -0.7834042 -2.8110588 -0.023484552 1.0937953 0.13684236 -0.92672217
-0.48567855 -0.5277495 0.28715768 -0.058658984 0.017245296 1.1940427 -0.2578853 -0.11704164
-1.3541453 0.3497907 -1.3240263 1.6046523 0.056016035 -0.5578518 -1.2271084 0.5190708
-0.07242978 0.76725465 -1.7001582 -0.019852173 -2.3065612 0.58932126 -0.24953125 -0.49144015
-0.98384494 -0.25283682 -1.0970888 -2.0906558 0.6505757 -1.0032421 -2.1136692 0.593279
-0.5777104 -0.6384486 0.6494551 0.4857157 1.3881046 0.8183635 -0.0611884 0.20254362
-2.097323 0.036493413 -0.22870018 1.4439005 0.30668175 0.5405659 0.097864814 0.39662364
-1.7601305 -0.031479698 0.6633357 -1.7483726 0.15657908 0.69030714 -2.061144 0.4650608
-0.26211128 -1.4875108 -1.1125606 -0.23637934 1.2735128 0.6955662 -0.3567932 -0.6048162
0.43646893 0.772975 0.15657161 0.2319219 -0.5539247 -0.48602512 -0.7358358 -0.52442276
0.5671964 -2.2339528 -2.238991 -0.5566095 -1.4039782 1.2369443 0.6478703 0.51617116
-0.34516284 1.3791045 3.8097131 0.9116962 -9.426615 2.0285842 -2.7343266 -0.64208245
-1.1509048 -1.0043019 -0.11624727 4.2619495 -2.458475 0.60713166 2.1356716 0.67685086
-4.377282 0.43430105 0.5301788 -0.9471495 -1.1229364 -1.1658595 1.7049522 1.3342535
0.35139707 -0.3270891 0.1504559 -0.7044894 -1.2673281 0.74675035 0.22309086 -0.7498767
0.3804083 -0.27622628 0.042878937 -1.4676528 -1.8655932 -1.7829847 0.40704754 -0.049693085
00000000: 8418 07bf f03e 70bf 91aa b9be ad87 3a3f
00000010: 7325 0bc0 b683 f9be b4fe 383e da60 9cbe
00000020: 7b79 a1bf 3e01 293f 5dd7 76bf 9c64 1fc0
00000030: f603 9f3e 9f43 cebd 4655 d2bf 065e 3f3f
00000040: 2eff ba3f 0695 0c3f b672 3dbf 2dc8 2fbf
00000050: 5253 5dbc fb49 773e 8075 1140 efa5 3cbf
00000060: c97e 9abf 2b1c e53f 3a0e bf3d b7ff cc3e
00000070: 3eab ce3f 7059 35bd 31c3 eb3e 7ee5 9a40
00000080: 7431 99bf 5e02 b5bf f6e7 91bf 51b1 46bf
00000090: a27b 133d 4f6b 96bf 70de c1be 2ae8 53bf
000000a0: f7c4 9a40 4e52 acbe 1626 dabe 766b 3f40
000000b0: ed19 03bf 8929 3c3e adc8 15bf e6ca b53e
000000c0: 2ebb 923e aae3 3e40 43c4 f9be cf4c bbbf
000000d0: d2a8 88bf 1c84 15c0 dba8 153e c7ef 83be
000000e0: 308e eabd 09a5 c83f 2cd0 f3be 50ec 92bf
000000f0: b985 273f 2fc6 af3e b9e8 71be 35a4 29be
00000100: 87a5 223f 1359 a4c0 5242 0a40 454a 88be
00000110: c05d 883f faa3 0abe cfe1 2a3f 8d82 b33e
00000120: 1019 353f fae2 803f fa77 4abf 0e80 0f3f
00000130: f5de 1041 2168 7a3f 9f2e ba3f 373a 0abe
00000140: cf51 3a3f 0b5b 3d3e 12a8 18bf abae a6be
00000150: db92 073e 2650 dd3f ee42 883d 6206 c5be
00000160: 6e9c c140 45e8 ad3e a5d2 2ebf 2412 9ebf
00000170: 7dd0 7cbe 195f 6cbf 9b49 64bf f2d0 e4be
00000180: 510e 813f 0dab c73f c971 39bf 622d 09be
00000190: 4c97 40bf 8c1f a73f 8ecd e23e ac7b b53d
000001a0: fff8 4c3f 7512 7b3f a9ad 9c3f ab1b 36bf
000001b0: 4752 97bf d0ac 9abf afa3 4cbf 6389 0ebf
000001c0: 48ac 06be d3f8 04bf 0c03 3e3f 5fca bbbf
000001d0: 867e 87bf 52aa 91bf 8266 d3bf c32b 60bd
000001e0: a864 f23d 6586 913d 79c1 e53a 5879 49bf
000001f0: 6460 1440 eaf6 c53d dc8d 453f 9e7c 083e
00000200: 44b0 27bf d24d b6bf 2d8d 48bf 63e8 33c0
00000210: ad62 c0bc 7c01 8c3f 6720 0c3e aa3d 6dbf
00000220: dcaa f8be 971a 07bf 5506 933e 6744 70bd
00000230: 0246 8d3c 64d6 983f 8b09 84be 87b3 efbd
00000240: a254 adbf c417 b33e b279 a9bf 3f65 cd3f
00000250: 1271 653d 60cf 0ebf e311 9dbf d3e1 043f
00000260: 1156 94bd cd6a 443f c99e d9bf 06a1 a2bc
00000270: b39e 13c0 c2dd 163f 1f85 7fbe 0b9e fbbe
00000280: 43dd 7bbf d473 81be 686d 8cbf 4ecd 05c0
00000290: 218c 263f 3d6a 80bf 5b46 07c0 22e1 173f
000002a0: d4e4 13bf 5e71 23bf b042 263f baaf f83e
000002b0: 69ad b13f 4580 513f b0a0 7abd 9867 4f3e
000002c0: 8a3a 06c0 1e7a 153d 6130 6abe bbd1 b83f
000002d0: 6405 9d3e 8762 0a3f 596d c83d 4112 cb3e
000002e0: f54b e1bf dbf0 00bd 5ed0 293f acca dfbf
000002f0: 4456 203e f8b7 303f c9e9 03c0 731c ee3e
00000300: 7333 86be c166 bebf 6368 8ebf 6d0d 72be
00000310: 7802 a33f a010 323f 99ad b6be 3cd5 1abf
00000320: db78 df3e b1e1 453f 4f54 203e ef7c 6d3e
00000330: 02ce 0dbf 49d8 f8be bc5f 3cbf 9240 06bf
00000340: c933 113f 15f9 0ec0 a14b 0fc0 f67d 0ebf
00000350: 8fb5 b3bf 3154 9e3f d4da 253f cb23 043f
00000360: 2fb9 b0be 7f86 b03f 57d2 7340 ec64 693f
00000370: 6ad3 16c1 53d4 0140 35ff 2ec0 845f 24bf
00000380: d950 93bf f78c 80bf 0c13 eebd e461 8840
00000390: a857 1dc0 fb6c 1b3f d8ae 0840 1946 2d3f
000003a0: b212 8cc0 b55c de3e ccb9 073f 6478 72bf
000003b0: 61bc 8fbf e23a 95bf e03b da3f d2c8 aa3f
000003c0: 51ea b33e 3978 a7be 1d11 1a3e 6b59 34bf
000003d0: cf37 a2bf 082b 3f3f ee71 643e ebf7 3fbf
000003e0: e0c4 c23e 886d 8dbe d3a1 2f3d 0cdc bbbf
000003f0: c2cb eebf d838 e4bf 8968 d03e fa8a 4bbd

conv2.bias f4 [16]
0.06937524 0.07086857 0.038518086 0.00083852897 0.04244756 -0.10111774 -0.05974029 -0.0646234
-0.036495354 0.044887945 0.1345301 0.069873355 0.033091422 -0.058466073 -0.06416543 0.037424218
00000000: 9b14 8e3d 8a23 913d 24c5 1d3d bad0 5b3a
00000010: 7edd 2d3d d116 cfbd 3cb2 74bd 4659 84bd
00000020: 277c 15bd 6cdc 373d 42c2 093e c319 8f3d
00000030: df8a 073d 1f7a 6fbd 2a69 83bd 234a 193d

bn11.weight f4 [16]
0.91823804 0.19618878 1.1715722 0.97432584 2.1148398 1.0137454 0.6335294 0.4784351
1.964456 1.7723787 0.56581795 2.2884269 0.9216241 1.3273627 0.309003 2.0612655
00000000: a611 6b3f b6e5 483e 14f6 953f 6b6d 793f
00000010: 8959 0740 69c2 813f fc2e 223f 72f5 f43e
00000020: 4b73 fb3f 4edd e23f 72d9 103f 9675 1240
00000030: 8fef 6b3f 05e7 a93f a435 9e3e c6eb 0340

bn11.bias f4 [16]
-0.018321913 -0.15083236 -0.07070221 0.038642753 -0.28286788 -0.058648 0.02234953 -0.32813963
-0.65270066 -0.61237824 -0.0127393855 -0.6375247 0.17583448 -0.21349637 -0.062070027 -0.492217
00000000: d617 96bc cc73 1abe 52cc 90bd dd47 1e3d
00000010: 0fd4 90be e338 70bd 5d16 b73c eb01 a8be
00000020: 6417 27bf d2c4 1cbf dbb8 50bc d234 23bf
00000030: f40d 343e cb9e 5abe 243d 7ebd de03 fcbe

bn11.running_mean f4 [16]
0.24513793 0.16195804 0.06802502 0.21032912 -0.24300559 -1.1481351 0.6170372 -0.24321267
-2.8705587 -0.054642156 0.08897888 0.7062907 -0.3482091 0.0047896365 -0.31237572 -0.69458294
00000000: 7005 7b3e 54d8 253e b450 8b3d 8460 573e
00000010: 75d6 78be 17f6 92bf 26f6 1d3f be0c 79be
00000020: 3cb7 37c0 74d0 5fbd 8f3a b63d 78cf 343f
00000030: 7748 b2be 62f2 9c3b b6ef 9fbe 30d0 31bf

bn11.running_var f4 [16]
0.023389068 0.12205814 0.05834266 0.034220595 0.098082475 0.03905469 0.02279451 0.021805167
0.38669184 0.33065557 0.022525452 0.088310294 0.073870674 0.07248608 0.057087157 0.06830193
00000000: 6e9a bf3c 9ef9 f93d b7f8 6e3d e52a 0c3d
00000010: 77df c83d d0f7 1f3d 8dbb ba3c c0a0 b23c
00000020: 79fc c53e b04b a93e 4c87 b83c 07dc b43d
00000030: 8249 973d 9573 943d 39d4 693d e2e1 8b3d

bn12.weight f4 [16]
2.4706016 1.5445496 1.6217238 1.2176043 1.7199612 0.8283568 0.9899193 1.5010813
1.9227905 1.6307126 2.9666107 0.88596106 1.6596506 1.4613261 1.5890739 1.4804345
00000000: 561e 1e40 cdb3 c53f a594 cf3f 75da 9b3f
00000010: b027 dc3f 310f 543f 5a6b 7d3f 6f23 c03f
00000020: 001e f63f 31bb d03f f3dc 3d40 58ce 623f
00000030: 6e6f d43f bc0c bb3f c666 cb3f e17e bd3f

bn12.bias f4 [16]
-0.8228016 -0.45517504 -0.68883485 0.8151218 -0.12574106 -0.04167401 0.5790068 0.4951585
-0.9111609 -0.9069025 -1.5513214 0.5318331 0.05312422 -0.5310158 0.2028681 0.031040478
00000000: 20a3 52bf b40c e9be 7b57 30bf d3ab 503f
00000010: 44c2 00be 5eb2 2abd ca39 143f 6a85 fd3e
00000020: d741 69bf c32a 68bf b391 c6bf 3726 083f
00000030: c898 593d a7f0 07bf a8bc 4f3e 9a48 fe3c

bn12.running_mean f4 [16]
-1.1205026 -5.401869 -10.102834 0.5081619 -0.7437079 -0.0326391 5.7574577 -2.7645512
2.092894 2.341326 -4.617357 4.637054 -2.7779596 -3.2209592 -6.275514 2.922917
00000000: a16c 8fbf 1cdc acc0 35a5 21c1 e616 023f
00000010: a463 3ebf 94b0 05bd 183d b840 68ee 30c0
00000020: faf1 0540 49d8 1540 63c1 93c0 bf62 9440
00000030: 17ca 31c0 3224 4ec0 03d1 c8c0 1211 3b40

bn12.running_var f4 [16]
28.296488 19.3273 25.33847 30.175215 34.95592 13.400787 27.907482 12.412002
19.69986 19.43234 38.500717 18.195175 17.618092 11.372858 23.564137 11.451517
00000000: 355f e241 4f9e 9a41 30b5 ca41 d766 f141
00000010: ddd2 0b42 a069 5641 8642 df41 8f97 4641
00000020: 5099 9d41 6f75 9b41 bc00 1a42 b88f 9141
00000030: daf1 8c41 3af7 3541 5a83 bc41 6a39 3741

conv3.weight f4 [32, 16, 3, 3]
0.37360534 -0.5943962 0.007464005 -0.9238673 0.20420946 0.72685117 -1.43278 -1.1371268
-1.3221835 0.55696636 2.3591254 -1.1686486 -1.8732269 0.32907692 -1.4449488 0.57917285
2.2133768 0.050197624 0.16635431 0.834181 0.51389873 1.4878505 -0.3741309 0.7856001
1.0918553 1.3965412 0.7674499 -0.74719405 -0.76301026 2.2056687 -2.1611428 0.865529
-0.6679362 0.46560654 0.24993384 0.32959592 -1.3565283 -2.5287256 1.9682349 2.4140394
-0.12866886 -2.3196838 -1.5084709 -0.19075589 0.18166259 -1.4393698 -1.2392914 0.03676476
-0.24503133 0.6078398 -1.5247258 0.33724144 -2.2885308 -0.27776873 1.4326992 1.6624213
-1.6925669 1.7356339 -2.1661365 0.27556732 0.320298 -1.482154 -1.6834961 1.4570551
1.4186974 0.9176897 0.16428335 -2.0704587 0.77431005 -0.7988064 2.35262 0.09865227
0.42122227 -1.152676 -1.0470308 -2.1324205 -3.046012 -1.278972 -0.08921619 -1.6425188
-0.62106705 -1.6189364 1.1406102 1.2278986 0.52934384 -0.23807782 -0.44234324 0.2576128
-0.4008735 -0.08771178 -0.9653492 0.42713043 0.82481885 1.1197643 1.2876765 -1.7066455
-0.45419323 -2.1973984 -0.69902253 0.44754833 -0.5945594 0.8034307 -0.56289494 0.9984935
-0.54660183 -0.86248493 -0.24835394 -0.59734297 0.30395272 -0.3111382 3.2882655 -0.4718014
-1.1573058 1.0823925 -1.4328436 1.1302722 0.7753559 0.4122307 -0.25922668 -0.9133074
1.2710788 -0.9832734 0.89225954 -0.06067126 -0.20055349 -0.084909566 -0.8799296 0.84501743
0.3870795 -0.57408834 1.1091554 1.0997621 -0.11625365 1.0266457 1.0928994 2.2080948
1.491244 1.282848 0.04789112 -2.5308926 -0.7770355 -0.8285429 1.3860083 -0.012834345
0.4288737 -0.15379548 0.6141594 1.0413911 0.57342196 0.48878345 1.3119963 -2.4471135
0.08901952 -0.63641036 1.4613714 2.035856 0.16309586 1.8299397 -0.5426286 0.9549101
1.6832342 0.733141 -0.49510196 -1.3141929 -2.201099 0.35459504 1.4821292 0.20174815
-0.6091399 3.3543737 -0.7626229 -1.2004329 -0.14185114 -1.3783517 -1.456451 -0.1785422
-0.17191026 -0.36731076 -1.2404108 0.19191226 -1.1735052 2.7901843 -0.093504496 1.0194165
0.75773335 3.85683 -1.1149724 -1.6868719 0.9008954 0.7049749 -0.5928777 -1.3053157
2.3058057 0.022791939 -0.6154959 -1.2280177 1.1231649 2.1930854 0.11051644 0.32072297
-0.9869221 -0.74840504 2.6282094 1.4804739 2.0218256 0.6186527 -0.25742248 -0.60007375
-0.36121684 -0.546472 -0.09887934 -0.19481945 -0.0934977 1.2496231 0.75623965 -0.13086031
0.49175158 -0.21803269 -0.47570133 0.43672028 -0.4420773 -0.51335573 -0.6240767 1.581678
-0.8076189 0.3611239 -0.7490182 -1.3962011 0.27654985 0.96461564 0.5924086 2.357794
-1.9027655 -1.4604741 0.24742155 -0.8519377 0.48376492 -1.1584135 -0.9183305 -2.723672
0.013091553 0.7693572 -0.058388695 -0.5644204 -0.18980107 1.4164487 0.8249493 -1.1029497
-0.39307937 1.2532527 0.17977893 -0.53891015 -0.9829439 -0.4631795 -1.854267 0.035494838
00000000: 3349 bf3e 592a 18bf 9d94 f43b 9182 6cbf
00000010: 491c 513e eb12 3a3f 5665 b7bf 5f8d 91bf
00000020: 4f3d a9bf 5995 0e3f e9fb 1640 4796 95bf
00000030: e6c5 efbf c57c a83e 15f4 b8bf ac44 143f
00000040: f7a7 0d40 069c 4d3d c958 2a3e e38c 553f
00000050: de8e 033f e371 be3f 168e bfbe 171d 493f
00000060: eac1 8b3f ddc1 b23f 9977 443f 1c48 3fbf
00000070: a454 43bf ad29 0d40 2a50 0ac0 4f93 5d3f
00000080: defd 2abf fb63 ee3e a8ee 7f3e ccc0 a83e
00000090: b8a2 adbf a4d6 21c0 1fef fb3f 9f7f 1a40
000000a0: c5c1 03be b375 14c0 9315 c1bf 8355 43be
000000b0: c205 3a3e 453d b8bf 1aa1 9ebf a596 163d
000000c0: 7ee9 7abe 649b 1b3f 372a c3bf e9aa ac3e
000000d0: 4a77 12c0 b437 8ebe b062 b73f 39ca d43f
000000e0: 08a6 d8bf 4029 de3f fba1 0ac0 2917 8d3e
000000f0: 19fe a33e 39b7 bdbf cd7c d7bf c880 ba3f
00000100: e097 b53f b6ed 6a3f e539 283e 6582 04c0
00000110: 2f39 463f 947e 4cbf 5391 1640 340a ca3d
00000120: 72aa d73e e38a 93bf 1b05 86bf 9479 08c0
00000130: dcf1 42c0 5bb5 a3bf fab6 b6bd 0e3e d2bf
00000140: 40fe 1ebf 4f39 cfbf 84ff 913f c82b 9d3f
00000150: 1483 073f acca 73be d07a e2be d3e5 833e
00000160: 4b3f cdbe 3ca2 b3bd 2021 77bf d7b0 da3e
00000170: 5427 533f 7054 8f3f 95d2 a43f 5c73 dabf
00000180: 048c e8be 2da2 0cc0 24f3 32bf 0e25 e53e
00000190: 0b35 18bf a2ad 4d3f e219 10bf 459d 7f3f
000001a0: 19ee 0bbf d0cb 5cbf 7f50 7ebe 78eb 18bf
000001b0: b19f 9b3e 824d 9fbe f172 5240 f48f f1be
000001c0: 9922 94bf d68b 8a3f 6b67 b7bf c2ac 903f
000001d0: b97d 463f e70f d33e 5cb9 84be 84ce 69bf
000001e0: b6b2 a23f ceb7 7bbf 1f6b 643f 6d82 78bd
000001f0: e55d 4dbe 11e5 adbd 1143 61bf 1053 583f
00000200: 492f c63e 74f7 12bf cef8 8d3f 01c5 8c3f
00000210: 6516 eebd 2069 833f 21e4 8b3f 6d51 0d40
00000220: 15e1 be3f 5d34 a43f 7b29 443d 25fa 21c0
00000230: cceb 46bf 631b 54bf b868 b13f 2547 52bc
00000240: 5595 db3e 907c 1dbe 8d39 1d3f 4e4c 853f
00000250: c8cb 123f d341 fa3e 7fef a73f 829d 1cc0
00000260: de4f b63d caeb 22bf 380e bb3f 774b 0240
00000270: 9a02 273e 773b ea3f b5e9 0abf fd74 743f
00000280: 3874 d73f 21af 3b3f 017e fdbe 7937 a8bf
00000290: cede 0cc0 7b8d b53e 69b6 bd3f 1197 4e3e
000002a0: 98f0 1bbf 0fae 5640 413b 43bf c9a7 99bf
000002b0: 6d41 11be d46d b0bf fd6c babf c4d3 36be
000002c0: 3e09 30be 2810 bcbe c8c5 9ebf a684 443e
000002d0: 6b35 96bf 6192 3240 497f bfbd 3d7c 823f
000002e0: d0fa 413f 4dd6 7640 6ab7 8ebf 6beb d7bf
000002f0: 15a1 663f 3c79 343f d5c6 17bf 9614 a7bf
00000300: 5292 1340 29b6 ba3c 2491 1dbf af2f 9dbf
00000310: dec3 8f3f 835b 0c40 7156 e23d cd35 a43e
00000320: eda6 7cbf 7997 3fbf 9534 2840 2b80 bd3f
00000330: 9765 0140 0660 1e3f e1cc 83be 6f9e 19bf
00000340: 6af1 b8be 97e5 0bbf 4081 cabd c07e 47be
00000350: b97b bfbd a6f3 9f3f ec98 413f 3f00 06be
00000360: ddc6 fb3e f643 5fbe 208f f3be cd99 df3e
00000370: f557 e2be 486b 03bf 7ec3 1fbf 6d74 ca3f
00000380: 1dc0 4ebf 3be5 b83e a8bf 3fbf b8b6 b2bf
00000390: f197 8d3e 0df1 763f 17a8 173f 19e6 1640
000003a0: d28d f3bf d1f0 babf 135c 7d3e 9718 5abf
000003b0: 09b0 f73e e546 94bf b517 6bbf a450 2ec0
000003c0: f47d 563c 98f4 443f fc28 6fbd db7d 10bf
000003d0: 365b 42be 314e b53f e12f 533f 752d 8dbf
000003e0: b341 c9be 966a a03f f817 383e 04f6 09bf
000003f0: 36a2 7bbf dd25 edbe 9f58 edbf 0963 113d

conv3.bias f4 [32]
0.011393935 0.061384883 -0.05005339 0.015579193 -0.046814602 0.08175628 0.015216588 -0.013566575
0.0147485165 -0.06961157 -0.008651526 -0.046235986 0.048324317 0.06616267 0.01150255 0.06898253
0.022661282 0.009945825 -0.015023785 -0.0220793 0.0789881 -0.027821442 0.041492168 -0.011015756
-0.07057218 0.064198196 0.057802644 0.07097236 -0.052961525 0.04052099 -0.06561766 0.0045035677
00000000: a1ad 3a3c b76e 7b3d c904 4dbd df3f 7f3c
00000010: abc0 3fbd d66f a73d ff4e 793c 5746 5ebc
00000020: c3a3 713c 8390 8ebd 21bf 0dbc f261 3dbd
00000030: b8ef 453d 4b80 873d 3175 3c3c b646 8d3d
00000040: 27a4 b93c d0f3 223c 5226 76bc a6df b4bc
00000050: 83c4 a13d cbe9 e3bc b1f3 293d 6e7b 34bc
00000060: 2688 90bd 587a 833d 77c2 6c3d f559 913d
00000070: 2fee 58bd 56f9 253d 8d62 86bd aa92 933b

conv4.weight f4 [32, 32, 3, 3]
-0.5561411 0.8333766 -0.0028241093 -0.78661895 0.6438686 -3.1098952 0.4389719 0.21816486
0.38420668 -1.8969159 -0.61528313 -2.637863 -1.4817755 1.480914 1.3628734 -1.6617464
-0.47796646 0.95853806 -0.19041155 -0.35933453 -1.3289055 -1.1589105 -0.0638916 -0.04456089
-0.15630063 0.7194654 -1.7222624 -1.7009591 -1.4395102 -1.2403208 0.17331764 0.7348564
2.588296 1.1412073 0.24703664 -0.29539916 -0.08998693 -0.668648 -2.2474685 1.0611094
-1.699962 0.14605601 2.402983 -0.2685139 0.66524893 -2.085471 1.1490672 0.4368759
1.3015584 -0.07188172 2.3621314 0.057930183 1.126355 0.4057183 -1.2992551 0.36580867
0.6963792 -0.15536885 0.14030954 -0.52169293 1.140767 -0.9937458 0.016632043 0.82441294
0.78847724 -0.57108647 0.6066145 -0.26473626 -1.3181473 0.48962197 -0.15096003 -1.0177053
-0.59419584 -4.1900177 0.09860591 -2.3330367 1.8178555 0.8359987 -0.10482694 -0.69886017
-0.6281069 0.50090224 -0.60894895 -2.0095632 -1.5248325 0.09769628 0.32870144 -1.46748
-1.34939 -0.5591364 1.1190432 0.34734806 -0.8279774 1.1796669 -0.041647814 -1.3828555
1.4041601 0.1636578 -0.8288949 0.24065673 1.2806695 1.239645 0.6032474 -0.116592675
0.66457963 -0.009293161 1.565292 0.727157 0.58289266 0.5390812 -0.36824816 0.2039648
0.13342509 0.9013087 1.0648687 1.580063 -0.20186023 -0.28076366 0.83862215 -0.69226
-1.3685963 0.26201066 1.4395543 0.976587 -0.45287147 1.0066968 0.24591768 -2.6579447
1.5761198 -0.21889114 -0.93878055 0.6472109 1.0358987 -0.58606875 0.66643566 -0.21317752
0.0561086 -1.2776378 0.029893897 -0.19462016 -1.1364132 0.5755781 -1.0103071 -0.9380698
-0.57876486 -1.7130275 0.9993461 1.1721026 -0.30784926 -0.023910914 0.07838492 0.05521439
-1.4804114 -0.4127994 0.043063488 -1.2231685 -0.35287005 -0.914859 -0.6233955 0.98571926
-1.1540155 -0.29111415 0.8665154 -1.6875943 -2.6588678 1.4156183 -0.3654762 -0.9534998
1.9661183 1.4117849 0.25407523 0.043041177 -0.5173575 1.1431315 -0.6518481 0.807286
-1.0292445 0.2735831 0.073501684 0.16404362 0.06848413 0.24674627 -1.2882835 0.45454323
-0.39706755 -1.4545566 1.1059179 -1.048584 -1.6208783 -0.24002378 0.34094244 0.8740721
-1.5534114 -0.71231174 -1.8223476 1.3367447 -0.07905755 -1.0072083 0.6533293 -0.3778024
-0.8253408 -0.10315413 -0.7983698 -0.8510255 1.1902902 1.1996961 -0.22572187 1.1804473
0.6023352 0.7153827 -0.021831388 1.7536387 1.4980488 2.392749 1.4896855 0.7199412
2.05151 0.9487324 0.19861028 0.12485851 0.13778451 0.567215 0.87642235 0.5048169
-0.77572274 1.553611 0.07901404 -1.0098293 1.3699294 -0.20857862 -1.4726535 2.277179
0.4355982 -0.561473 0.08639819 -0.5746545 -0.55896103 1.6753807 -1.0408108 -0.22322287
0.46786782 0.29055214 -0.49960586 -1.5178716 2.1695375 0.23593584 -1.1578729 1.5795375
0.8248 -2.638053 -0.970484 -1.094831 -1.7374995 1.0820376 0.23304173 -0.049854297
00000000: 435f 0ebf 2b58 553f b114 39bb dc5f 49bf
00000010: 93d4 243f 8608 47c0 edc0 e03e 9c66 5f3e
00000020: bdb6 c43e 24ce f2bf 3283 1dbf bfd2 28c0
00000030: d2aa bdbf 978e bd3f a372 ae3f 1bb4 d4bf
00000040: 05b8 f4be c062 753f 3ffb 42be b2fa b7be
00000050: 9319 aabf 2e57 94bf 99d9 82bd 7b85 36bd
00000060: 460d 20be e22e 383f 1873 dcbf 07b9 d9bf
00000070: df41 b8bf d5c2 9ebf 2e7a 313e 8d1f 3c3f
00000080: a4a6 2540 1513 923f 2cf7 7c3e 8f3e 97be
00000090: 114b b8bd 842c 2bbf 86d6 0fc0 6fd2 873f
000000a0: 5b98 d9bf b58f 153e 79ca 1940 a77a 89be
000000b0: c14d 2a3f 5b78 05c0 a214 933f 33ae df3e
000000c0: 7799 a63f b936 93bd 292d 1740 3348 6d3d
000000d0: 672c 903f 4fba cf3e fe4d a6bf 464b bb3e
000000e0: e845 323f 0319 1fbe 4ead 0f3e ab8d 05bf
000000f0: a704 923f 2066 7ebf ec3f 883c ba0c 533f
00000100: a5d9 493f b932 12bf 164b 1b3f 838b 87be
00000110: 0db9 a8bf bbaf fa3e 4495 1abe 2b44 82bf
00000120: 381d 18bf a014 86c0 e5f1 c93d 7950 15c0
00000130: 7daf e83f 0304 563f 82af d6bd 80e8 32bf
00000140: 9dcb 20bf 213b 003f 14e4 1bbf af9c 00c0
00000150: b62d c3bf fd14 c83d 8e4b a83e 62d6 bbbf
00000160: d0b8 acbf 9023 0fbf cf3c 8f3f 9bd7 b13e
00000170: 54f6 53bf 53ff 963f e696 2abd 6901 b1bf
00000180: 85bb b33f e995 273e 7532 54bf b86e 763e
00000190: faec a33f b0ac 9e3f 6c6e 1a3f 24c8 eebd
000001a0: e421 2a3f 5842 18bc 7d5b c83f f626 3a3f
000001b0: 7438 153f 3a01 0a3f 068b bcbe 26dc 503e
000001c0: 96a0 083e 2bbc 663f 9e4d 883f 813f ca3f
000001d0: 73b4 4ebe 41c0 8fbe f1af 563f f437 31bf
000001e0: 2a2e afbf 4326 863e 5143 b83f 9b01 7a3f
000001f0: c5de e7be 71db 803f d8d1 7b3e c41b 2ac0
00000200: 4bbe c93f 0025 60be ec53 70bf 9daf 253f
00000210: 5498 843f 9a08 16bf 879b 2a3f 354b 5abe
00000220: 22d2 653d a389 a3bf 0ce4 f43c 824a 47be
00000230: fd75 91bf 1659 133f be51 81bf 5825 70bf
00000240: ef29 14bf 7c44 dbbf 25d5 7f3f 7507 963f
00000250: 6b9e 9dbe d2e0 c3bc 4688 a03d 7c28 623d
00000260: 1f7e bdbf 715a d3be 5763 303d c990 9cbf
00000270: 62ab b4be 3334 6abf d996 1fbf 1958 7c3f
00000280: c8b6 93bf ea0c 95be f4d3 5d3f 1703 d8bf
00000290: e42a 2ac0 fb32 b53f b21f bbbe 9018 74bf
000002a0: c4a9 fb3f 5eb5 b43f 2616 823e f24b 303d
000002b0: 8b71 04bf 2252 923f 84df 26bf 4caa 4e3f
000002c0: 49be 83bf 1613 8c3e 0d88 963d 0dfb 273e
000002d0: 6841 8c3d 0eab 7c3e 79e6 a4bf e4b9 e83e
000002e0: 704c cbbe e92e babf b88e 8d3f 0038 86bf
000002f0: f178 cfbf cbc8 75be 0290 ae3e 30c3 5f3f
00000300: 2fd6 c6bf 105a 36bf b042 e9bf 731a ab3f
00000310: ede8 a1bd 34ec 80bf 9740 273f 516f c1be
00000320: 8949 53bf 7942 d3bd f761 4cbf cfdc 59bf
00000330: 6e5b 983f a48f 993f a223 67be e618 973f
00000340: a432 1a3f 5223 373f bdd7 b2bc 3c77 e03f
00000350: 10c0 bf3f cd22 1940 04ae be3f 114e 383f
00000360: f14b 0340 20e0 723f 7e60 4b3e d2b5 ff3d
00000370: 6217 0d3e 0135 113f 375d 603f ae3b 013f
00000380: c495 46bf badc c63f 1dd2 a13d 1642 81bf
00000390: d959 af3f a295 55be e97f bcbf 4dbd 1140
000003a0: ba06 df3e b2bc 0fbf 89f1 b03d 8f1c 13bf
000003b0: 1218 0fbf e072 d63f 4a39 85bf 8994 64be
000003c0: 5f8c ef3e 40c3 943e 57cc ffbe 9e49 c2bf
000003d0: b4d9 0a40 2a99 713e 2e35 94bf 492e ca3f
000003e0: 1826 533f dcd5 28c0 a471 78bf 6c23 8cbf
000003f0: 6266 debf 3580 8a3f 7ea2 6e3e 0534 4cbd

conv4.bias f4 [32]
0.06425399 -0.044179887 -0.018355852 0.04192634 0.048788603 0.044990066 -0.038577627 -0.05701043
-0.055456173 0.0010394201 0.010341435 0.04745869 -0.009813281 -0.0024986356 -0.028951105 -0.024482302
-0.038160376 0.038463958 -0.057435025 0.019180767 0.011625169 -0.049701136 -0.023951387 0.020969832
0.047195464 -0.038531538 0.044459626 0.0007649029 0.004220849 -0.04771757 -0.05722518 -0.0087110875
00000000: 9997 833d f8f5 34bd 035f 96bc f4ba 2b3d
00000010: 8fd6 473d 8147 383d 9303 1ebd c583 69bd
00000020: 0326 63bd 273d 883a 1f6f 293c 0b64 423d
00000030: e2c7 20bc 26c0 23bb de2a edbc 1c8f c8bc
00000040: 0e4e 1cbd 628c 1d3d fd40 6bbd fc20 9d3c
00000050: 7e77 3e3c 6b93 4bbd b335 c4bc edc8 ab3c
00000060: 0850 413d 3fd3 1dbd 4c1b 363d c483 483a
00000070: 0c4f 8a3b 8073 43bd f364 6abd f3b8 0ebc

bn21.weight f4 [32]
1.4871731 1.5986382 1.43643 2.2011557 1.8751978 1.8444448 1.2530184 1.2019154
1.9148234 2.2753124 1.1553255 1.2837381 1.3472964 1.6152952 1.6449195 1.2704128
1.1458172 1.678913 2.4487572 1.8557141 1.5210742 1.3130957 1.076429 1.5370449
1.5751169 2.044289 1.0052578 1.3836459 1.8826946 1.9441341 1.2983941 1.8792205
00000000: b05b be3f 2da0 cc3f f0dc b73f bcdf 0c40
00000010: 7b06 f03f c416 ec3f e862 a03f 5dd8 993f
00000020: ef18 f53f b89e 1140 b5e1 933f 8851 a43f
00000030: 3574 ac3f fec1 ce3f b98c d23f e39c a23f
00000040: 23aa 923f 9fe6 d63f 70b8 1c40 0a88 ed3f
00000050: 8fb2 c23f 8513 a83f 6dc8 893f e3bd c43f
00000060: 6e9d c93f a2d5 0240 4aac 803f 4f1b b13f
00000070: 23fc f03f 63d9 f83f c731 a63f 4c8a f03f

bn21.bias f4 [32]
-0.64000577 -0.79034984 0.19684683 0.20685752 -0.48545638 -1.146684 0.07985816 -0.45231134
-1.4851737 -1.1808426 0.18109854 -0.7838607 -1.4752828 -0.7192472 -0.61471593 -0.5071335
0.085944675 -0.2962299 -0.84643173 -0.59563595 -1.0222274 -0.37133992 -0.06790143 -0.11057701
-0.60138017 0.09433394 -0.17979579 0.2462606 0.46277127 0.32538825 -0.31522465 -1.1663775
00000000: 6bd7 23bf 5e54 4abf 3792 493e 75d2 533e
00000010: bd8d f8be 8bc6 92bf ad8c a33d 5a95 e7be
00000020: 2c1a bebf da25 97bf e571 393e 18ab 48bf
00000030: 11d6 bcbf 9620 38bf 065e 1dbf 80d3 01bf
00000040: c303 b03d 72ab 97be c0af 58bf 997b 18bf
00000050: 59d8 82bf 4420 bebe e80f 8bbd 3376 e2bd
00000060: 0df4 19bf 2732 c13d 631c 38be bd2b 7c3e
00000070: 5bf0 ec3e 4a99 a63e 2065 a1be dc4b 95bf

bn21.running_mean f4 [32]
7.196723 -1.2355975 -5.2002335 -4.667474 -65.73969 10.231349 31.35793 24.99381
-24.225035 59.544716 42.223488 2.1767685 11.299361 15.23316 -10.508592 17.686455
7.2759366 32.03514 -75.16504 -32.584003 20.883848 -5.798658 3.4576778 -0.9366186
-5.1074986 29.185379 7.3219523 -23.2337 -50.9395 -37.691326 -4.6807365 -13.2996
00000000: 8e4b e640 0f28 9ebf 5068 a6c0 f25b 95c0
00000010: b97a 83c2 9bb3 2341 0add fa41 53f3 c741
00000020: dfcc c1c1 ca2d 6e42 dae4 2842 2d50 0b40
00000030: 2fca 3441 06bb 7341 3123 28c1 dc7d 8d41
00000040: 79d4 e840 fc23 0042 8054 96c2 0556 02c2
00000050: 1f12 a741 9b8e b9c0 984a 5d40 3dc6 6fbf
00000060: a170 a3c0 a87b e941 6f4d ea40 9ede b9c1
00000070: 0cc2 4bc2 ebc3 16c2 98c8 95c0 29cb 54c1

bn21.running_var f4 [32]
86.94286 35.30631 100.23945 130.05069 1011.5456 84.48399 100.10127 254.29376
97.57863 256.58295 463.7774 128.4721 173.65044 92.59394 72.44945 255.12816
51.86007 400.51392 1416.8048 151.01854 370.72107 79.509636 191.565 104.99093
74.45791 609.97473 82.86714 254.40747 524.6381 867.20374 78.79969 417.27728
00000000: bfe2 ad42 a939 0d42 997a c842 fa0c 0243
00000010: ebe2 7c44 cef7 a842 da33 c842 344b 7e43
00000020: 4228 c342 9e4a 8043 82e3 e743 dc78 0043
00000030: 83a6 2d43 1930 b942 1ee6 9042 cf20 7f43
00000040: b670 4f42 c841 c843 c119 b144 bf04 1743
00000050: 4c5c b943 ef04 9f42 a490 3f43 5bfb d142
00000060: 73ea 9442 627e 1844 fabb a542 5068 7e43
00000070: d728 0344 0acd 5844 7199 9d42 7ea3 d043

bn22.weight f4 [32]
1.2000229 1.2280331 1.4877005 1.4116367 1.7526817 1.4192759 1.511011 1.6437676
1.4717634 1.7949542 1.4408801 2.1674793 1.3397892 1.076128 1.1755948 1.5048681
1.5066088 1.599876 1.2755576 1.2071085 1.2680457 1.2709036 1.6607622 1.6644028
1.6335354 0.8922894 1.5007727 1.2958618 1.9499708 0.9854472 1.5320171 1.5575222
00000000: 5a9a 993f 3030 9d3f f86c be3f 83b0 b43f
00000010: e057 e03f d5aa b53f cf68 c13f fa66 d23f
00000020: be62 bc3f 0fc1 e53f c26e b83f fbb7 0a40
00000030: 367e ab3f 90be 893f e479 963f 859f c03f
00000040: 8fd8 c03f bdc8 cc3f 7945 a33f 8882 9a3f
00000050: 524f a23f f8ac a23f db93 d43f 270b d53f
00000060: b017 d13f 146d 643f 5219 c03f cdde a53f
00000070: a598 f93f 4546 7c3f 2319 c43f e35c c73f

bn22.bias f4 [32]
-0.7487896 -2.0366743 -0.44903007 -0.2560118 -2.8616621 -0.26049843 -0.5150495 -1.8723154
-0.63254565 -0.727877 -0.3814433 -0.37294194 -0.6519631 -0.47203016 -1.3932365 -1.9845299
-2.0023944 -1.3271703 -0.48575252 -0.47142068 -0.04016502 -0.5996244 -0.07915 -0.39323708
-2.1979663 0.7081469 -0.59545726 -1.4790505 -0.4902849 -2.5143085 -0.32664943 -0.3335908
00000000: adb0 3fbf df58 02c0 45e7 e5be fb13 83be
00000010: 7925 37c0 0d60 85be 49da 03bf 08a8 efbf
00000020: 83ee 21bf 2656 3abf 894c c3be 3ff2 bebe
00000030: 0ee7 26bf f0ad f1be 9355 b2bf 1305 febf
00000040: 3b27 00c0 b7e0 a9bf 8eb4 f8be 0d5e f1be
00000050: 1384 24bd fc80 19bf 6519 a2bd 5f56 c9be
00000060: 7bab 0cc0 1e49 353f e36f 18bf 8751 bdbf
00000070: 9f06 fbbe 6eea 20c0 983e a7be 6acc aabe

bn22.running_mean f4 [32]
-5.56697 37.917416 -34.890854 -37.953674 26.267994 -18.694794 -43.04951 12.549195
-26.201418 -17.22403 -18.498577 -27.296272 -28.025938 6.980021 6.120783 28.93809
5.128805 -6.365922 7.080607 25.522123 10.332548 -6.1671157 -63.34327 -25.883713
30.173096 -13.765529 22.09925 26.557688 -48.614986 45.578815 -26.374235 -16.91292
00000000: 9e24 b2c0 6fab 1742 3c90 0bc2 90d0 17c2
00000010: da24 d241 f08e 95c1 b332 2cc2 81c9 4841
00000020: 819c d1c1 d0ca 89c1 16fd 93c1 c45e dac1
00000030: 1f35 e0c1 555c df40 74dd c340 3581 e741
00000040: 2c1f a440 a2b5 cbc0 5594 e240 4f2d cc41
00000050: 1e52 2541 0359 c5c0 825f 7dc2 d811 cfc1
00000060: 8062 f141 9b3f 5cc1 44cb b041 2576 d441
00000070: bf75 42c2 b550 3642 6ffe d2c1 a94d 87c1

bn22.running_var f4 [32]
348.92813 403.74734 746.79095 3425.5354 316.47427 3259.006 883.24493 449.81903
1083.6327 580.97833 1589.3932 2213.4846 560.3827 432.95154 402.67664 502.82092
522.83093 370.44382 1122.467 1177.521 1151.5293 762.74756 1482.013 1585.7915
472.0759 1553.1821 496.17273 756.0533 646.03284 999.0425 469.3474 1540.3733
00000000: cd76 ae43 a9df c943 9fb2 3a44 9118 5645
00000010: b53c 9e43 19b0 4b45 adcf 5c44 d6e8 e043
00000020: 3f74 8744 9d3e 1144 95ac c644 c157 0a45
00000030: 7e18 0c44 cc79 d843 9c56 c943 1469 fb43
00000040: 2eb5 0244 cf38 b943 f24e 8c44 ac30 9344
00000050: f0f0 8f44 d8af 3e44 6a40 b944 5439 c644
00000060: b709 ec43 d425 c244 1c16 f843 6903 3d44
00000070: 1a82 2144 b8c2 7944 78ac ea43 f28b c044

conv5.weight f4 [64, 32, 3, 3]
1.2867514 -0.928044 -0.10769644 2.238849 0.004220929 -1.2983342 1.2627448 0.35173124
-0.69864905 -0.43951213 0.20253716 -0.5061761 1.0346495 0.32429498 1.5372365 0.7299554
-1.5267909 0.73698264 0.5760448 -1.597341 -0.044458624 1.5139716 1.1916509 -0.17517614
-1.2428775 -0.53723633 -1.0533227 1.2346159 0.58522946 1.5077747 1.0858151 0.14348286
1.6467152 1.0584043 1.6039826 0.71200776 -0.35429323 -0.29840815 1.3848327 -1.360698
-0.62807435 1.4163673 -0.75666434 -1.2506526 0.4089351 0.5078121 0.011748424 1.444734
1.0668356 -0.30884695 1.2064327 1.1052126 1.5312995 0.6718197 0.56610435 2.0961661
-0.19830364 -0.4577715 -2.0513556 -0.2304401 0.17192917 -0.49524394 0.9114831 -0.01263375
1.8501643 -1.5004555 0.7268123 1.4761798 -0.54505026 -0.22498196 -0.92647403 1.3435178
1.1935302 2.3616467 -1.6004608 1.2336619 1.6577513 1.2131051 1.0803505 -0.51466274
0.31247264 2.747757 2.2944627 0.19013444 -0.20565626 0.32044387 1.0498314 0.7924256
-0.20607764 0.59968936 -0.110851884 -0.80089915 1.6331863 0.42240214 0.4929247 0.6523757
1.4067323 1.1920035 1.7308117 0.30855155 1.5435923 2.3127058 0.039667245 -0.3548775
0.76350844 0.561564 0.32789886 0.14097214 -3.378505 1.2893577 0.8153861 1.0886936
1.4686495 0.8958216 0.47700286 0.04504048 1.0196029 -0.4511455 -1.4042118 -1.2879868
-0.4397113 0.7945885 0.054058254 -0.29571757 -0.7622381 -2.8441703 -0.49713603 0.39154154
2.1192553 -0.6612885 -2.2929895 0.052613493 1.5333018 0.5642975 0.82350695 0.24357216
0.61032534 2.5720181 -0.32694802 1.4810404 0.40481728 1.0611541 -0.44384742 0.41573265
-0.12790577 3.0782137 1.7934695 2.0651915 3.1053996 -1.265584 0.6551189 0.41066945
-0.4951839 -1.4162108 -0.49739468 2.907221 -1.1630319 1.8560637 0.9261892 -0.3978225
1.3227359 0.62415683 0.8738579 1.3567724 1.8194985 -0.05734103 -0.1396168 1.6595227
1.8730229 1.2388918 1.2290426 0.6327948 -0.10215766 1.2945577 1.261055 0.39731374
1.6244136 0.885004 -0.13368063 -0.27947634 1.2770454 0.14274488 1.6093094 0.6140746
-3.354524e-05 1.5379913 0.5843643 1.2747005 1.0014312 -0.50480545 -2.4702199 0.30261445
1.7848766 2.0465899 -0.1165821 1.1034782 1.7008038 0.5961705 -2.2442927 -2.244318
-1.1968739 -0.7062159 -0.04704848 0.54473025 -0.50235254 0.43127435 -1.0119934 0.97725093
0.69308555 -0.18220493 2.1529515 0.0056141205 0.1450306 1.0888209 1.5691096 1.6593595
-0.87775505 -1.9802419 2.0257983 -2.5053437 -1.756896 -1.0832882 -1.5545026 -1.8481144
-0.9022839 0.70669925 0.73713297 0.5335249 0.6248978 0.6725959 1.3145968 0.25053018
0.02109636 0.9047412 1.2378156 -0.3865863 1.0011178 0.1865963 0.29977745 0.5156659
0.56954294 1.2327095 0.54794055 0.15720315 -0.42232758 -0.6258282 0.9210365 0.3700363
-2.336079 0.27827954 -0.3203658 0.8887128 2.1022847 0.34501663 -1.6661048 1.396861
00000000: 45b4 a43f 4b94 6dbf f38f dcbd 4d49 0f40
00000010: b84f 8a3b d12f a6bf 9fa1 a13f 1e16 b43e
00000020: aada 32bf bc07 e1be e765 4f3e c294 01bf
00000030: 656f 843f fe09 a63e 2ac4 c43f 5bde 3a3f
00000040: e26d c3bf e5aa 3c3f ac77 133f ab75 ccbf
00000050: 3f1a 36bd d2c9 c13f 0488 983f 6061 33be
00000060: 9c16 9fbf 5288 09bf 47d3 86bf e507 9e3f
00000070: 99d1 153f c3fe c03f fdfb 8a3f 2ced 123e
00000080: 90c7 d23f cb79 873f 4d4f cd3f 2446 363f
00000090: ec65 b5be f4c8 98be 3342 b13f 5a2b aebf
000000a0: 7bc9 20bf 864b b53f c1b4 41bf 6215 a0bf
000000b0: f15f d13e f9ff 013f 767c 403c 0bed b83f
000000c0: 128e 883f 3021 9ebe 636c 9a3f 9b77 8d3f
000000d0: 9f01 c43f 60fc 2b3f 37ec 103f 9627 0640
000000e0: 1c10 4bbe 0761 eabe 6949 03c0 7df8 6bbe
000000f0: 330e 303e 9d90 fdbe f556 693f cafd 4ebc
00000100: 2fd2 ec3f ed0e c0bf 5f10 3a3f 76f3 bc3f
00000110: 6a88 0bbf ac61 66be 672d 6dbf 64f8 ab3f
00000120: 99c5 983f 3825 1740 e6db ccbf a2e8 9d3f
00000130: 3231 d43f 0747 9b3f ed48 8a3f f0c0 03bf
00000140: 6afc 9f3e 40db 2f40 7ad8 1240 9ab2 423e
00000150: 8e97 52be 3811 a43e e060 863f 67dc 4a3f
00000160: 0406 53be 3e85 193f 5006 e3bd ba07 4dbf
00000170: 400c d13f 1845 d83e a060 fc3e 1802 273f
00000180: ce0f b43f 9293 983f 3d8b dd3f 78fa 9d3e
00000190: 6f94 c53f 5f03 1440 1f7a 223d 81b2 b5be
000001a0: 4a75 433f a9c2 0f3f 5ce2 a73e 005b 103e
000001b0: 6d39 58c0 ac09 a53f 25bd 503f 505a 8b3f
000001c0: b5fc bb3f 9054 653f b839 f43e 5e7c 383d
000001d0: 5982 823f 8bfc e6be 36bd b3bf c0dc a4bf
000001e0: d721 e1be 276a 4b3f 306c 5d3d 4b68 97be
000001f0: 0922 43bf e306 36c0 9d88 febe 2278 c83e
00000200: e1a1 0740 344a 29bf 57c0 12c0 3f81 573d
00000210: 3c43 c43f cd75 103f 5ad1 523f fb6a 793e
00000220: 483e 1c3f f29b 2440 bb65 a7be bb92 bd3f
00000230: 3644 cf3e e6d3 873f f83f e3be e9da d43e
00000240: bbf9 02be 7401 4540 6990 e53f 192c 0440
00000250: debe 4640 a8fe a1bf dfb5 273f 4443 d23e
00000260: bf88 fdbe 6546 b5bf 84aa febe e90f 3a40
00000270: 3bde 94bf 7f93 ed3f bc1a 6d3f 64af cbbe
00000280: 694f a93f bec8 1f3f 27b5 5f3f b8aa ad3f
00000290: 54e5 e83f 6ede 6abd b5f7 0ebe 3d6b d43f
000002a0: 37bf ef3f 0294 9e3f 4551 9d3f d7fe 213f
000002b0: 0938 d1bd 11b4 a53f 406a a13f b56c cb3e
000002c0: c9ec cf3f 9f8f 623f 93e3 08be 8617 8fbe
000002d0: 3976 a33f b72b 123e dafd cd3f fe33 1d3f
000002e0: edb2 0cb8 e6dc c43f e698 153f 6329 a33f
000002f0: e62e 803f ee3a 01bf 1518 1ec0 48f0 9a3e
00000300: d676 e43f 54fb 0240 99c2 eebd c63e 8d3f
00000310: f0b3 d93f a19e 183f 7ea2 0fc0 e8a2 0fc0
00000320: 2a33 99bf 91ca 34bf e8b5 40bd 7173 0b3f
00000330: 2d9a 00bf fecf dc3e 0089 81bf 1e2d 7a3f
00000340: 0e6e 313f ee93 3abe f5c9 0940 a8f6 b73b
00000350: e782 143e 7c5e 8b3f 95d8 c83f e465 d43f
00000360: 8eb4 60bf 9178 fdbf aea6 0140 8d57 20c0
00000370: f8e1 e0bf 30a9 8abf f1f9 c6bf 038f ecbf
00000380: 14fc 66bf 3eea 343f bfb4 3c3f 1695 083f
00000390: 4df9 1f3f 3f2f 2c3f b544 a83f 7e45 803e
000003a0: 46d2 ac3c 1f9d 673f be70 9e3f a4ee c5be
000003b0: a124 803f 1a13 3f3e 6e7c 993e ae02 043f
000003c0: 91cd 113f 6dc9 9d3f d545 0c3f ddf9 203e
000003d0: 523b d8be 4736 20bf 0cc9 6b3f 6675 bd3e
000003e0: 5182 15c0 a87a 8e3e fc06 a4be af82 633f
000003f0: d58b 0640 05a6 b03e ec42 d5bf 57cc b23f

conv5.bias f4 [64]
0.036486857 -0.011854279 0.04875241 0.0029428797 -0.029196711 0.043970287 0.028933013 -0.051032186
0.05508755 0.05602297 -0.027930444 -0.031051425 0.009363404 -0.026065681 -0.012604102 0.053933725
0.05908108 -0.04388583 0.010581855 -0.041457634 5.3272677e-05 -0.019762767 0.04703408 -0.03912519
-0.058237776 0.016894262 0.034172554 0.05401239 0.05194686 0.055434942 -0.009625443 -0.0044853403
0.026975764 -0.01400017 -0.0021992573 -0.028268663 -0.032148376 0.04887829 -0.04591271 0.053662036
0.05246563 -0.04296243 0.03328772 0.0066836686 0.054123055 0.021957984 0.0261668 -0.011623772
-0.019606851 -0.014667405 0.0348825 0.021141648 -0.04295114 0.053084034 -0.01442292 0.038691606
-0.055222187 -0.006381329 0.042673428 0.010824825 0.027726566 0.03141333 0.028777115 0.050172046
00000000: 3e73 153d 7338 42bc 9bb0 473d 54dd 403b
00000010: f12d efbc 301a 343d ed04 ed3c 2007 51bd
00000020: 7ca3 613d 5778 653d 63ce e4bc 8f5f febc
00000030: f668 193c b287 d5bc 6f81 4ebc 9ce9 5c3d
00000040: 01ff 713d a1c1 33bd 845f 2d3c 7bcf 29bd
00000050: 1a71 5f38 87e5 a1bc cfa6 403d bc41 20bd
00000060: bc8a 6ebd d665 8a3c 85f8 0b3d 193c 5d3d
00000070: 3bc6 543d c00f 633d 09b4 1dbc c3f9 92bb
00000080: 47fc dc3c f860 65bc 6a21 10bb af93 e7bc
00000090: 04ae 03bd 9a34 483d f70e 3cbd b9cc 5b3d
000000a0: 33e6 563d 5ff9 2fbd b458 083d ad02 db3b
000000b0: 23b0 5d3d 3be1 b33c c25b d63c a271 3ebc
000000c0: 8c9e a0bc 8e4f 70bc f4e0 0e3d 4031 ad3c
000000d0: 89ed 2fbd a56e 593d 1c4e 6cbc 177b 1e3d
000000e0: a930 62bd 781a d1bb 55ca 2e3d 9b5a 313c
000000f0: d322 e33c 44ab 003d fcbd eb3c 3481 4d3d

conv6.weight f4 [64, 64, 3, 3]
-0.1615202 -0.11497068 0.008236269 -0.14908406 -0.117414206 -0.07257843 -0.21112606 -0.12217656
0.022009239 -0.07592927 -0.13603169 -0.010667081 -0.103551306 -0.09780513 -0.0059246984 -0.18530422
-0.14312561 0.094633065 0.02619448 -0.042575773 -0.03203812 0.04282853 0.0015150137 0.02082572
0.023567572 0.014701476 0.04251274 -0.122678265 -0.106481284 0.022653503 -0.17355852 -0.103841916
-0.05188045 -0.2188416 -0.18593766 0.046332017 -0.13327283 -0.08681715 0.035647605 -0.17954206
-0.12256778 -0.039221562 -0.17345558 -0.16970555 0.012157381 0.027101617 0.03530027 -0.10769434
0.08436839 0.05351489 0.009872793 -0.050037745 0.012219826 -0.05458949 0.026903775 -0.05387231
-0.1061321 0.027196273 -0.057670157 -0.038742393 -0.02011142 -0.008960508 -0.020104244 -0.08398497
-0.016276931 -0.032499388 -0.087827064 -0.03781982 -0.00637858 -0.12205214 0.032553095 0.018215194
-0.049143087 -0.01951196 -0.03871237 -0.0010186535 -0.033172343 0.010493164 -0.027947173 -0.051690217
-0.058285426 -0.12585099 -0.096578404 -0.0029607129 -0.14745311 -0.18989703 -0.04750904 -0.1613576
-0.1509757 -0.17115362 -0.080644496 -0.05545522 8.240424e-05 -0.17381933 -0.16465424 0.0026568228
-0.16534436 -0.11668241 -0.18338162 -0.0009149348 -0.022760084 0.007971506 0.0077248216 0.055385318
0.044437837 -0.016410764 0.016700108 0.001331604 -0.1490082 -0.10317676 -0.015720481 -0.10677455
-0.11657984 0.03863505 -0.0987748 -0.10984824 0.08167433 0.008997259 -0.0028151742 -0.019714843
0.001245569 -0.021179315 -0.027855024 -0.049325183 -0.07968397 -0.078404956 -0.09355381 -0.09274723
-0.043316603 -0.17470624 -0.14974415 -0.01693923 -0.19481619 -0.1760028 0.058034524 -0.025631227
-0.058538113 -0.08165159 -0.02525447 -0.04588997 -0.07278578 0.055736188 0.010709632 -0.08263336
0.004062469 0.10034687 0.06860683 -0.017079389 0.062455434 0.03282046 0.033604313 -0.027297772
-0.0023000184 -0.14176781 -0.01918706 -0.07579854 -0.1777863 -0.086895905 -0.12843683 -0.13264807
-0.18391407 -0.057896513 -0.021053841 0.014381724 -0.051619522 -0.010093354 0.011944611 -0.07026496
0.0064009824 -0.04757394 -0.006297928 -0.0982945 -0.1387087 -0.049172193 -0.14403407 -0.15073356
-0.016123066 -0.20330188 -0.16566357 0.0224225 -0.08798183 -0.02506762 -0.068572655 -0.007728517
-0.0077745067 0.03378688 -0.06340711 0.044661567 -0.029439185 -0.09884742 -0.065385155 -0.05985606
-0.13839164 -0.14649089 -0.058720205 -0.1877601 -0.13007207 0.061964415 -0.018796064 -0.052366067
-0.080345534 0.115340464 0.06193491 0.1340807 0.057381064 0.094743334 0.079115935 -0.1478232
-0.123355225 -0.030513654 -0.16891123 -0.10262072 0.006090589 -0.17683955 -0.15825926 0.040048294
-0.13338348 -0.11563195 0.025884703 -0.17781451 -0.11020388 -0.024127344 -0.20704757 -0.19883783
0.037181888 0.020677643 0.10893999 0.04246885 0.04154922 0.018609855 0.09142326 0.074521415
0.045952164 0.0991754 -0.08020739 -0.14966461 0.016277542 -0.13390805 -0.1582243 -0.06434751
-0.23598872 -0.11792072 0.081741735 0.08263959 0.09041351 0.061541196 -0.049145095 -0.037976414
-0.04777999 -0.023228396 0.0007431822 -0.0753979 -0.014722379 -0.04612807 -0.043002136 -0.0019871052
00000000: 8d65 25be bf75 ebbd 6af1 063c 7ea9 18be
00000010: dc76 f0bd 00a4 94bd 6e31 58be b437 fabd
00000020: b84c b43c ce80 9bbd e44b 0bbe fbc4 2ebc
00000030: b512 d4bd 0e4e c8bd f923 c2bb 64c0 3dbe
00000040: 858f 12be fbce c13d ce95 d63c ef63 2ebd
00000050: 673a 03bd f86c 2f3d 6d93 c63a b39a aa3c
00000060: c810 c13c 76de 703c d721 2e3d be3e fbbd
00000070: dc12 dabd d793 b93c 53b9 31be 12ab d4bd
00000080: 9880 54bd 0318 60be 7166 3ebe a4c6 3d3d
00000090: ac78 08be 31cd b1bd 3903 123d e0d9 37be
000000a0: d104 fbbd caa6 20bd 579e 31be 4bc7 2dbe
000000b0: c02f 473c 3604 de3c 0497 103d da8e dcbd
000000c0: 56c9 ac3d 6e32 5b3d 7fc1 213c 61f4 4cbd
000000d0: aa35 483c 3b99 5fbd 4e65 dc3c 36a9 5cbd
000000e0: c95b d9bd b8ca de3c 8b37 6cbd 58b0 1ebd
000000f0: b4c0 a4bc 18cf 12bc a8b1 a4bc 5000 acbd
00000100: 3357 85bc 141e 05bd adde b3bd f5e8 1abd
00000110: 6803 d1bb 79f6 f9bd 6556 053d 0838 953c
00000120: 434a 49bd 8cd7 9fbc dd90 1ebd 5784 85ba
00000130: b9df 07bd 85eb 2b3c 78f1 e4bc 1fb9 53bd
00000140: b3bc 6ebd 15df 00be e6ca c5bd 8508 42bb
00000150: f3fd 16be 5e74 42be d798 42bd ed3a 25be
00000160: 6099 1abe e542 2fbe f128 a5bd 0325 63bd
00000170: 71d0 ac38 b2fd 31be 1f9b 28be 171e 2e3b
00000180: 0850 29be 30f7 eebd 64c8 3bbe 3cd8 6fba
00000190: 5b73 babc eb9a 023c 8020 fd3b b7db 623d
000001a0: 7304 363d de6f 86bc aace 883c 3789 ae3a
000001b0: 9b95 18be 564e d3bd 3dc8 80bc 9eac dabd
000001c0: 69c1 eebd c93f 1e3d 714a cabd 1df8 e0bd
000001d0: df44 a73d 3d69 133c c97e 38bb 0681 a1bc
000001e0: 5c42 a33a 3e80 adbc 3830 e4bc 3409 4abd
000001f0: 5931 a3bd c792 a0bd 2499 bfbd 42f2 bdbd
00000200: c06c 31bd 31e6 32be 8856 19be 24c4 8abc
00000210: e57d 47be 143a 34be 9cb5 6d3d 94f8 d1bc
00000220: a9c5 6fbd f338 a7bd 76e2 cebc 1ff7 3bbd
00000230: b610 95bd a14b 643d 7477 2f3c ae3b a9bd
00000240: 761e 853b a982 cd3d bd81 8c3d 13ea 8bbc
00000250: 45d1 7f3d bf6e 063d ada4 093d 949f dfbc
00000260: e8bb 16bb 952b 11be 2e2e 9dbc 443c 9bbd
00000270: 9d0d 36be 7bf6 b1bd f284 03be e5d4 07be
00000280: f853 3cbe e524 6dbd 1b79 acbc 53a1 6b3c
00000290: fe6e 53bd 985e 25bc 54b3 433c 13e7 8fbd
000002a0: 55bf d13b e4dc 42bd d95e cebb a04e c9bd
000002b0: a709 0ebe c868 49bd ab7d 13be e659 1abe
000002c0: 8514 84bc 5e2e 50be b6a3 29be 64af b73c
000002d0: d12f b4bd 9c5a cdbc d26f 8cbd 803f fdbb
000002e0: 4ac1 febb 1d64 0a3d 96db 81bd 0cef 363d
000002f0: 722a f1bc 8470 cabd a7e8 85bd a12b 75bd
00000300: 8ab6 0dbe b501 16be 9984 70bd 2f44 40be
00000310: 9d31 05be 66ce 7d3d 34fa 99bc cd7d 56bd
00000320: 338c a4bd 9f37 ec3d 76af 7d3d 734c 093e
00000330: 6808 6b3d cb08 c23d 8907 a23d f75e 17be
00000340: aaa1 fcbd c5f7 f9bc 11f7 2cbe d02a d2bd
00000350: 9093 c73b 6d15 35be b70e 22be ae09 243d
00000360: ae95 08be 72d0 ecbd 280c d43c 0215 36be
00000370: 92b2 e1bd b5a6 c5bc 4704 54be 259c 4bbe
00000380: 094c 183d 2964 a93c ee1b df3d d1f3 2d3d
00000390: 842f 2a3d b273 983c 1e3c bb3d af9e 983d
000003a0: 5638 3c3d 791c cb3d c643 a4bd ae41 19be
000003b0: 7b58 853c 311f 09be 8d05 22be a1c8 83bd
000003c0: 07a7 71be 6b80 f1bd 3668 a73d f23e a93d
000003d0: b82a b93d 9f12 7c3d 5e4c 49bd 288d 1bbd
000003e0: f3b4 43bd 7a49 bebc 1dd2 423a 376a 9abd
000003f0: 2236 71bc caf0 3cbd 0223 30bd 183a 02bb

conv6.bias f4 [64]
-0.008479907 -0.031589426 0.008498441 0.0032009925 0.00486273 -0.018595736 0.034479402 0.036969975
-0.04249631 0.020311307 -0.025906982 -0.039568324 0.021861833 -0.030492723 0.01181444 0.02687176
-0.018898366 -0.03515422 -0.017069492 0.029675467 -0.00084170426 -0.022781389 0.02781716 0.03365668
0.029776836 -0.03819442 -0.037429266 0.017917916 -0.005231921 0.03786557 -0.032860864 -0.03313265
-0.04795074 -0.02427234 -0.032213382 0.031072183 -0.029968554 0.035146754 -0.04401411 0.03715371
-0.03058059 -0.013460554 -0.012985783 0.025576828 0.015198346 -0.007036335 1.4094389e-05 0.0018447193
0.017894456 0.0309085 0.0004054377 0.011024488 0.03500067 0.04893064 -0.040522482 0.0029668661
-0.021254012 -0.031266246 -0.023534255 0.04714868 -0.036727615 -0.029615672 -0.045421015 0.0045701535
00000000: 4fef 0abc ea63 01bd 0c3d 0b3c bec7 513b
00000010: 8957 9f3b 1656 98bc 463a 0d3d d46d 173d
00000020: 9c10 2ebd e663 a63c e13a d4bc 6512 22bd
00000030: 9617 b33c e0cb f9bc 5a91 413c 2a22 dc3c
00000040: bfd0 9abc dffd 0fbd 52d5 8bbc f719 f33c
00000050: d1a5 5cba 09a0 babc d0e0 e33c 96db 093d
00000060: 8dee f33c c171 1cbd 6e4f 19bd 98c8 923c
00000070: 8970 abbb ee18 1b3d 1d99 06bd 1ab6 07bd
00000080: ff67 44bd c9d6 c6bc 2ef2 03bd 178b fe3c
00000090: 9d80 f5bc 0bf6 0f3d 2448 34bd 7d2e 183d
000000a0: 2584 fabc a889 5cbc 52c2 54bc 7f86 d13c
000000b0: 7c02 793c 0e91 e6bb f176 6c37 82ca f13a
000000c0: 6597 923c d333 fd3c ed90 d439 0ea0 343c
000000d0: dd5c 0f3d 7f6b 483d e7fa 25bd c16f 423b
000000e0: e51c aebc 0911 00bd e9ca c0bc f91e 413d
000000f0: b26f 16bd 919c f2bc 630b 3abd 3ac1 953b

bn31.weight f4 [64]
0.9931384 1.3306212 1.5780745 1.5879754 1.461855 1.0838448 0.91245586 1.9402058
1.1541749 2.2729983 1.8046438 0.9849213 1.1785307 1.3727347 0.9472792 1.5099031
1.2840098 1.2577491 1.2719116 1.347785 1.4226481 0.9978125 0.9489403 1.5873035
1.1280279 1.1563724 1.1849304 1.1875247 1.5384717 1.2912476 1.0213138 0.7641175
2.0961566 1.1734453 2.0614493 1.1177102 1.0821272 1.3353064 1.2180958 1.349937
1.2531676 1.1112232 1.3586913 1.9258116 1.5221117 1.2313455 1.2076727 1.3413023
0.1915902 1.4494795 0.9531031 1.6523283 1.5135912 1.0358835 1.3117719 2.2477925
1.1220082 2.5170872 1.0113809 1.4118701 1.1539847 0.6981067 1.2245628 1.2995704
00000000: 513e 7e3f cc51 aa3f 58fe c93f c742 cb3f
00000010: 111e bb3f 6dbb 8a3f b596 693f aa58 f83f
00000020: 01bc 933f ce78 1140 91fe e63f cd23 7c3f
00000030: 18da 963f c5b5 af3f e480 723f 8144 c13f
00000040: 6f5a a43f ecfd a03f 00ce a23f 3884 ac3f
00000050: 5519 b63f a470 7f3f c0ed 723f c32c cb3f
00000060: 3863 903f 0304 943f cdab 973f cf00 983f
00000070: a4ec c43f 9a47 a53f 69ba 823f 349d 433f
00000080: 6e27 0640 7533 963f c9ee 0340 2111 8f3f
00000090: 2583 8a3f 52eb aa3f 90ea 9b3f bcca ac3f
000000a0: cc67 a03f 903c 8e3f 99e9 ad3f ff80 f63f
000000b0: 8ed4 c23f bb9c 9d3f 0595 9a3f cbaf ab3f
000000c0: 3930 443e 8b88 b93f 91fe 733f 7e7f d33f
000000d0: 5bbd c13f d597 843f 24e8 a73f d5db 0f40
000000e0: f79d 8f3f f517 2140 ee74 813f 29b8 b43f
000000f0: c5b5 933f 1fb7 323f 79be 9c3f 5358 a63f
