checkpoints/best_model_1709_4.pth (torch, 304673 bytes, 37 tensors)

conv1.weight f4 [16, 1, 3, 3]
-0.22878702 -0.04345339 0.22224067 0.05959496 -0.2421895 0.03108413 0.29681537 0.016731877
-0.021763077 0.13717109 -0.029187914 -0.32575014 0.1522417 0.11735413 -0.12595622 0.24339585
0.09654501 0.16732585 -0.004897606 -0.03791818 -0.30569398 0.20500699 -0.013490152 -0.3593164
-0.28084695 -0.24392039 -0.119338535 -0.035926856 -0.17263988 0.24834454 0.04869938 0.03282256
0.17563991 0.100290515 -0.01656737 0.31570828 0.26352516 0.16600388 0.10372947 -0.18129905
-0.25464338 0.0848491 0.28197312 -0.3157902 -0.072939426 -0.016765285 -0.17386977 -0.19177607
-0.29167655 0.031015556 0.27919653 -0.16375326 -0.37765852 -0.17509569 0.12119852 -0.0038203893
-0.15717158 -0.16766834 -0.33083948 -0.27932808 0.07852713 -0.31883523 -0.13597925 0.21257593
-0.15359218 -0.15456055 -0.33875048 -0.27874506 0.16216303 0.0543358 0.27374125 -0.24601416
0.07714595 -0.30672222 0.05922313 -0.24346088 -0.1406996 0.19556285 0.063172415 -0.16320884
0.15719275 -0.08469986 0.28354865 0.27782467 -0.09918957 0.31565678 -0.2267099 0.009601736
-0.17639165 0.29999036 0.11396162 0.26946566 -0.26816714 -0.10608153 0.13721791 -0.059148643
-0.092738286 -0.17131129 -0.3170495 0.10638134 0.11088779 -0.015816538 0.24099548 -0.009187602
-0.26105943 -0.020368367 0.15624973 0.21200547 -0.16455196 0.28694886 0.29293752 -0.3115102
0.1853709 0.22617443 -0.26057777 -0.33819413 0.25160572 -0.098176435 -0.04046555 -0.035941463
0.19413048 0.31587723 0.2662491 -0.011561168 0.23999941 0.055793762 0.14329912 -0.1816516
0.3193823 0.25257966 -0.02664011 0.044978406 0.112620234 -0.2296906 0.20450594 -0.056811452
0.051623605 0.1177434 0.33301184 -0.106009156 0.32803014 0.31025985 0.056011505 0.21541753
00000000: 2547 6abe 2ffc 31bd 0f93 633e d819 743d
00000010: 8600 78be 25a4 fe3c 2ff8 973e 4a11 893c
00000020: 7b48 b2bc 9476 0c3e 7e1b efbc b9c8 a6be
00000030: 40e5 1b3e 5d57 f03d abfa 00be c33c 793e
00000040: 64b9 c53d 7857 2b3e 197c a0bb 1850 1bbd
00000050: ec83 9cbe 5aed 513e cc05 5dbc 52f8 b7be
00000060: 2ccb 8fbe 44c6 79be c367 f4bd 0a28 13bd
00000070: 82c8 30be 084e 7e3e 0079 473d f370 063d
00000080: f3da 333e 1d65 cd3d 4bb8 87bc 84a4 a13e
00000090: c5ec 863e ecfc 293e 1e70 d43d 75a6 39be
000000a0: 9e60 82be 5dc5 ad3d c85e 903e 41af a1be
000000b0: 4461 95bd 5a57 89bc eb0a 32be f260 44be
000000c0: a156 95be 5614 fe3c d9f2 8e3e efae 27be
000000d0: 755c c1be 494c 33be ee36 f83d 7f5f 7abb
000000e0: 96f1 20be 40b1 2bbe cb63 a9be 1704 8fbe
000000f0: d5d2 a03d 5f3e a3be 253e 0bbe 81ad 593e
00000100: 4547 1dbe 1f45 1ebe b470 adbe acb7 8ebe
00000110: 110e 263e 378f 5e3d d027 8c3e 23eb 7bbe
00000120: b2fe 9d3d b20a 9dbe f493 723d cf4d 79be
00000130: 8e13 10be a141 483e 8a60 813d 3820 27be
00000140: 23f7 203e 1f77 adbd 4a2d 913e 093f 8e3e
00000150: e723 cbbd c49d a13e a426 68be 9a50 1d3c
00000160: 03a0 34be 5698 993e b664 e93d 67f7 893e
00000170: 344d 89be 4641 d9bd da82 0c3e d945 72bd
00000180: 92ed bdbd 3a6c 2fbe 5054 a2be 76de d93d
00000190: 2319 e33d af91 81bc 85c7 763e 9987 16bc
000001a0: 95a9 85be 90db a6bc eeff 1f3e f617 593e
000001b0: 4f80 28be f6ea 923e e8fb 953e 447e 9fbe
000001c0: dfd1 3d3e 459a 673e 736a 85be c827 adbe
000001d0: 77d2 803e ba10 c9bd 34bf 25bd 5b37 13bd
000001e0: 24ca 463e a9ba a13e cd51 883e 0e6b 3dbc
000001f0: 68c2 753e 0088 643d 01bd 123e e102 3abe
00000200: 1486 a33e 1f52 813e 5c3c dabc 473b 383d
00000210: 70a5 e63d 0334 6bbe 016a 513e 20b3 68bd
00000220: 4673 533d 7423 f13d 8780 aa3e 541b d9bd
00000230: 91f3 a73e 61da 9e3e 526c 653d 6a96 5c3e

conv1.bias f4 [16]
-0.15503004 0.107078254 0.17219438 -0.32451606 -0.0819245 -0.14678916 0.28934908 -0.01705936
-0.13332607 0.026106564 0.22428839 0.2166118 0.0988049 0.2709866 0.14000586 -0.01054005
00000000: 32c0 1ebe d84b db3d b953 303e f826 a6be
00000010: 08c8 a7bd e64f 16be 9025 943e 12c0 8bbc
00000020: a186 08be 6fdd d53c dbab 653e 7ccf 5d3e
00000030: 395a ca3d c1be 8a3e b25d 0f3e 2db0 2cbc

conv2.weight f4 [16, 16, 3, 3]
0.016555833 -0.016402518 -0.04615241 -0.051991656 0.059622467 -0.065515146 -0.0014483408 -0.004880558
-0.04634853 -0.06507467 -0.022830509 0.06257249 0.04026195 -0.028110042 0.04044577 -0.06536685
0.00478354 0.014462048 0.01877998 -0.050123643 -0.027525138 -0.029641451 -0.033155832 0.0390567
0.049593683 0.013106514 -0.07245578 0.051608816 -0.058259096 -0.015751172 0.008275914 0.0006786498
-0.10561383 0.03650262 -0.08167163 -0.050170165 -0.0152171785 0.01609616 -0.017394131 -0.04228313
-0.0141034825 0.06358197 0.060056712 0.051298417 -0.025353681 0.08103388 -0.019403744 0.07110604
0.025152713 -0.07929401 0.010992932 -0.00051634165 0.023627283 -0.06870155 -0.024954768 0.01978952
0.03420974 -0.022916803 -0.0010437947 -0.039459586 -0.026774062 -0.08574282 0.053071998 -0.03169841
-0.08504712 -0.07998178 -0.08949033 -0.06251177 0.034903318 0.05241183 -0.03601601 -0.11415651
0.02538689 -0.034857515 -0.067488536 -0.033392083 0.058423948 -0.0051460676 0.013580513 0.027737865
0.08920144 -0.07002592 0.055085126 -0.04841703 -0.060392518 -0.04231579 0.00681311 0.070365295
0.0071382946 -0.036719732 -0.0971111 -0.039887324 -0.09840448 -0.07168231 0.0321477 -0.03821451
0.012422812 0.060141034 -0.0978554 -0.05765288 0.054337725 0.02399891 -0.041697882 -0.050402433
-0.013960497 0.029663721 0.029285388 -0.028973471 0.007799213 0.014140004 -0.06710373 -0.016124997
0.003518651 -0.022420276 0.037286405 -0.026878146 0.03137284 -0.04237155 0.0023527034 -0.028880706
0.08435372 -0.030932022 -0.047093604 0.0022390494 0.06135649 0.06429931 0.035086695 -0.04685613
-0.01792472 -0.07173865 0.015423076 0.01600014 -0.029491976 -0.04212292 -0.041595273 -0.06934729
-0.010827168 0.02761991 0.01911282 -0.007376578 -0.008971494 -0.0070645693 -0.05582398 0.045283575
-0.015145077 -0.072430894 0.0003703204 0.054652173 0.09093464 -0.053322908 0.0034673526 0.06596233
-0.021590063 0.02867074 0.02840482 0.0030186712 -0.054377455 -0.034015514 -0.04763946 -0.03447052
-0.075788684 -0.009883493 -0.036311273 -0.03539544 0.038421243 -0.051069323 0.050901376 0.04863046
0.0458985 -0.044189904 -0.052206427 0.0011124996 -0.08151671 0.025664782 -0.05257507 -0.005289163
0.0512855 -0.04938764 -0.07224832 -0.0790221 0.016159615 -0.03365176 0.05461645 0.01816923
0.04294158 0.046678524 0.027057318 -0.066097766 0.021755042 0.012457097 0.041993294 0.057720806
-0.08770989 -0.06957309 -0.0067432863 0.043357696 0.09423374 0.055247933 0.011005602 0.05163995
0.06282955 -0.054772682 0.057950303 0.047734365 -0.006406353 0.08582729 0.0567209 -0.06034528
0.035253476 -0.023394307 0.015807569 0.021197055 0.062367372 -0.06606508 0.014807474 0.025578905
-0.06949746 -0.08741124 0.010595489 -0.018594746 0.021878866 -0.025789397 -0.084478356 0.0856008
-0.0507238 -0.022333127 -0.090425305 0.004154371 0.049481902 -0.081416816 -0.0029021993 0.041506797
-0.06539149 0.039973564 0.052014355 0.057096988 0.0016185645 0.08364187 0.09847516 0.08073136
0.066362955 0.002653892 -0.07105854 0.048425365 -0.0008557059 -0.0043507805 -0.054393735 -0.015113916
-0.005035483 -0.016231544 0.06408346 -0.037748 0.07676548 -0.00941292 -0.029676666 -0.016025195
00000000: 19a0 873c 935e 86bc 4f0a 3dbd 34f5 54bd
00000010: b036 743d ce2c 86bd 41d6 bdba 16ed 9fbb
00000020: f5d7 3dbd de45 85bd 0c07 bbbc 0126 803d
00000030: b7e9 243d 0847 e6bc 77aa 253d 0edf 85bd
00000040: 3ebf 9c3b 3af2 6c3c 79d8 993c 734e 4dbd
00000050: 667c e1bc a1d2 f2bc 69ce 07bd ebf9 1f3d
00000060: bf22 4b3d b4bc 563c b263 94bd c463 533d
00000070: 17a1 6ebd 9a08 81bc b397 073c 6be7 313a
00000080: 104c d8bd c583 153d 7543 a7bd 3b7f 4dbd
00000090: 7951 79bc 18dc 833c 237e 8ebc 1331 2dbd
000000a0: 4b12 67bc 4437 823d 07fe 753d 4a1e 523d
000000b0: 86b2 cfbc 17f5 a53d 9af4 9ebc 0ba0 913d
000000c0: 100d ce3c e664 a2bd b31b 343c 1a5b 07ba
000000d0: 018e c13c 66b3 8cbd f16d ccbc a21d a23c
000000e0: 831f 0c3d 05bc bbbc f0cf 88ba 60a0 21bd
000000f0: 4755 dbbc ee99 afbd 0662 593d 31d6 01bd
00000100: 2f2d aebd 7dcd a3bd b546 b7bd 2c06 80bd
00000110: c8f6 0e3d c9ad 563d 8685 13bd e3ca e9bd
00000120: 2bf8 cf3c c1c6 0ebd 6e37 8abd 23c6 08bd
00000130: f34d 6f3d 58a0 a8bb cd80 5e3c 853a e33c
00000140: 3faf b63d c069 8fbd f1a0 613d f050 46bd
00000150: 255e 77bd 5253 2dbd 8240 df3b ae1b 903d
00000160: 5be8 e93b 6e67 16bd 2fe2 c6bd e460 23bd
00000170: 4a88 c9bd 2dce 92bd 4fad 033d d186 1cbd
00000180: 0d89 4b3c 7256 763d 6968 c8bd 6d25 6cbd
00000190: 3c91 5e3d 5d99 c43c 66cb 2abd c872 4ebd
000001a0: 92ba 64bc 5501 f33c e9e7 ef3c c659 edbc
000001b0: 8a90 ff3b 7aab 673c ae6d 89bd 9218 84bc
000001c0: 2b99 663b baaa b7bc a1b9 183d 8f2f dcbc
000001d0: cf80 003d ca8d 2dbd d02f 1a3b 3b97 ecbc
000001e0: a5c1 ac3d 2765 fdbc 39e5 40bd 04bd 123b
000001f0: f150 7b3d 5baf 833d 11b7 0f3d 37ec 3fbd
00000200: ddd6 92bc b7eb 92bd 12b1 7c3c ba12 833c
00000210: 2899 f1bc 1589 2cbd ce5f 2abd f405 8ebd
00000220: 6f64 31bc 2643 e23c 7d92 9c3c 39b7 f1bb
00000230: 2cfd 12bc e77d e7bb b0a7 64bd 457b 393d
00000240: 0f23 78bc a656 94bd 9027 c239 f5da 5f3d
00000250: f13b ba3d 1f69 5abd 863c 633b 4217 873d
00000260: a5dd b0bc e6de ea3c 3ab1 e83c e6d4 453b
00000270: e5ba 5ebd da53 0bbd 9821 43bd f630 0dbd
00000280: 1937 9bbd 60ee 21bc 21bb 14bd cffa 10bd
00000290: 985f 1d3d 112e 51bd f67d 503d bc30 473d
000002a0: 1100 3c3d 7900 35bd 68d6 55bd 4bd1 913a
000002b0: 3cf2 a6bd f33e d23c f558 57bd b750 adbb
000002c0: bf10 523d b24a 4abd edf6 93bd 57d6 a1bd
000002d0: 2b61 843c 6ed6 09bd 80b5 5f3d a3d7 943c
000002e0: 83e3 2f3d fb31 3f3d 4fa7 dd3c 445e 87bd
000002f0: a137 b23c da18 4c3c 2901 2c3d a76c 6c3d
00000300: 3ea1 b3bd 567c 8ebd c9f6 dcbb d797 313d
00000310: 9efd c03d a84b 623d d750 343c 6a84 533d
00000320: c7ac 803d 5259 60bd 4c5d 6d3d 1c85 433d
00000330: 62ec d1bb 38c6 af3d 2d54 683d 9d2c 77bd
00000340: f365 103d 6ba5 bfbc e07e 813c 72a5 ad3c
00000350: ee74 7f3d 214d 87bd 0c9b 723c da8a d13c
00000360: af54 8ebd aa04 b3bd b498 2d3c 0254 98bc
00000370: 4f3b b33c 4944 d3bc fd02 adbd 794f af3d
00000380: c2c3 4fbd f6f3 b6bc e730 b9bd 6421 883b
00000390: 89ad 4a3d dcbd a6bd d332 3ebb 0803 2a3d
000003a0: f9eb 85bd 52bb 233d 010d 553d 88de 693d
000003b0: 0326 d43a 6e4c ab3d 58ad c93d 7c56 a53d
000003c0: 4de9 873d ebec 2d3b 2487 91bd ad59 463d
000003d0: 7351 60ba fe90 8ebb f7cb 5ebd 5ca0 77bc
000003e0: b100 a5bb 04f8 84bc 303e 833d a69d 1abd
000003f0: 3837 9d3d a638 1abc 7b1c f3bc 4547 83bc

conv2.bias f4 [16]
0.058361657 -0.01084894 0.047405668 -0.007102044 0.014215486 0.08263973 -0.0055483417 0.07985114
0.026508918 0.07432555 0.027394742 0.029471423 -0.05803813 -0.06883451 0.060172416 0.008330316
00000000: a20c 6f3d c1bf 31bc 722c 423d 43b8 e8bb
00000010: 12e8 683c 053f a93d ddce b5bb ff88 a33d
00000020: 3b29 d93c fe37 983d f06a e03c 0e6e f13c
00000030: 64b9 6dbd 1cf9 8cbd 5a77 763d e17b 083c

bn11.weight f4 [16]
1.000669 1.005302 1.0268353 0.9922573 0.9358337 1.0077021 1.0312923 0.9856045
1.021292 0.99791485 1.0276952 0.9817923 1.0103426 1.0129527 0.9546701 0.9960618
00000000: ec15 803f bcad 803f 576f 833f 9304 7e3f
00000010: cc92 6f3f 62fc 803f 6301 843f 9450 7c3f
00000020: b2b9 823f 5977 7f3f 848b 833f bd56 7b3f
00000030: e852 813f 6fa8 813f 4265 743f e8fd 7e3f

bn11.bias f4 [16]
0.006393319 0.04543413 -0.018425483 0.023216944 -0.0028107308 0.0114833955 -0.0015054528 -0.05272974
-0.039265495 0.08780033 0.02061298 0.028158316 0.026564127 0.00050729164 0.0035843863 0.04062274
00000000: 0c7f d13b 2319 3a3d 0af1 96bc 7631 be3c
00000010: 3d34 38bb da24 3c3c 9d52 c5ba 24fb 57bd
00000020: dbd4 20bd a9d0 b33d 8ddc a83c 45ac e63c
00000030: 039d d93c c4fb 043a 06e8 6a3b 0864 263d

bn11.running_mean f4 [16]
-0.15373906 0.113279685 0.15565363 -0.31455994 -0.0808224 -0.16217715 0.2723812 -0.023772093
-0.13756521 0.034706015 0.21720809 0.22401561 0.101243645 0.28356656 0.14917955 0.00722848
00000000: c66d 1dbe 2eff e73d aa63 1f3e 000e a1be
00000010: 3786 a5bd c411 26be 8c75 8b3e b1bd c2bc
00000020: e5dd 0cbe e527 0e3d cc6b 5e3e 5964 653e
00000030: d458 cf3d a32f 913e 86c2 183e e3dc ec3b

bn11.running_var f4 [16]
0.00036587619 0.0006854349 0.0010877919 0.00050201593 0.0003013086 0.00091936096 0.0010706455 0.00051910157
0.0005229285 0.00051312085 0.00059702323 0.00040540408 0.0012284354 0.0006723978 0.0003853283 0.00091244804
00000000: 12d3 bf39 c2ae 333a 3d94 8e3a b899 033a
00000010: f5f8 9d39 4501 713a e754 8c3a 5114 083a
00000020: 2315 093a f582 063a 8d81 1c3a 6a8c d439
00000030: 7403 a13a da43 303a e405 ca39 5a31 6f3a

bn12.weight f4 [16]
0.9904143 0.9952627 1.0033476 1.0095406 0.9832765 1.0077142 1.0084516 1.0147173
1.0021719 0.9788621 0.9788979 1.0115337 1.0528709 1.0122806 0.9871154 0.99422836
00000000: cb8b 7d3f 89c9 7e3f b26d 803f a038 813f
00000010: 02b8 7b3f c7fc 803f f114 813f 42e2 813f
00000020: 2b47 803f b596 7a3f 0e99 7a3f f079 813f
00000030: 79c4 863f 6992 813f 98b3 7c3f c085 7e3f

bn12.bias f4 [16]
0.021286007 0.053369503 0.01004587 0.025383433 0.022632843 0.009568226 0.029060943 0.024107452
0.0069009997 0.00886185 0.048452333 -0.0019532614 0.027779287 0.026872773 0.0037763743 0.03832795
00000000: fe5f ae3c fb99 5a3d 6f97 243c ebf0 cf3c
00000010: 8368 b93c 0cc4 1c3c 3711 ee3c fe7c c53c
00000020: c821 e23b 4b31 113c f475 463d 4a02 00bb
00000030: 6391 e33c 4a24 dc3c 0c7d 773b c5fd 1c3d

bn12.running_mean f4 [16]
-0.35388145 0.16171496 -0.042201765 -0.17884998 -0.191331 -0.049652066 -0.22779116 0.065204866
-0.10622663 -0.13124993 0.032606043 -0.31313935 -0.5956025 -0.17430559 -0.14334972 0.05747205
00000000: f32f b5be 9b98 253e c2db 2cbd 7324 37be
00000010: 46ec 43be f75f 4bbd 1642 69be 218a 853d
00000020: 598d d9bd 6266 06be ea8d 053d cd53 a0be
00000030: 6879 18bf 2a7d 32be 45ca 12be d067 6b3d

bn12.running_var f4 [16]
0.18809476 0.19894344 0.26335326 0.2586263 0.1592233 0.13460867 0.16506228 0.21351007
0.13482647 0.16080268 0.101814575 0.1752034 0.13981856 0.1574437 0.12619838 0.32538226
00000000: ea9b 403e d4b7 4b3e 3dd6 863e ab6a 843e
00000010: 6f0b 233e dbd6 093e 1606 293e 62a2 5a3e
00000020: f30f 0a3e 75a9 243e 2984 d03d 8568 333e
00000030: 992c 0f3e ec38 213e 263a 013e 8198 a63e

conv3.weight f4 [32, 16, 3, 3]
0.060199525 0.028980922 -0.04997917 -0.01209909 -0.047279682 0.0038010492 0.0029770965 -0.017527333
0.044644475 0.05637326 -0.08313598 -0.0726058 0.05345789 0.007312073 0.048864353 -0.021594733
0.059307646 -0.032752167 -0.033833023 0.08002081 -0.13422316 -0.034025773 0.08727354 0.014074236
0.025765272 0.06411295 -0.08361791 0.03710042 -0.051812455 -0.0121702235 -0.0569121 -0.040356237
-0.031450424 -0.06902594 0.021091517 -0.08400649 -0.0019489812 -0.04220058 -0.10893021 0.02815025
0.067074 -0.08096291 -0.02116404 0.019857662 0.021755498 -0.025112912 -0.102334484 -0.06260333
-0.044140838 0.028877838 0.034684896 -0.004740456 -0.021128686 -0.097959734 0.034124486 -0.12725675
-0.07828664 -0.034967612 -0.022552956 -0.03470242 -0.037210643 0.043110773 -0.031691063 0.05540777
-0.072161146 -0.024086649 -0.07111468 -0.07493405 0.015409895 0.0328804 0.00994608 0.021000674
-0.016971493 0.009948386 -0.06583338 -0.055386294 0.067956954 -0.07698341 0.03887957 0.05342889
-0.0002349618 0.046967864 -0.031099139 -0.031018224 0.09422598 0.03611823 -0.00818583 -0.043886628
-0.052745894 0.038533505 0.01293093 0.036521375 -0.09024958 0.05979693 0.052017547 -0.08236762
-0.014767759 -0.051909804 -0.042868644 -0.074512966 0.055487994 0.05619079 0.06607275 -0.010293298
0.022995371 0.008458567 0.07376392 -0.032746337 0.04187721 -0.08473304 0.06421276 0.0915039
-0.044757415 -0.05679719 0.06402238 0.042128656 0.0012488065 0.04532919 -0.07228524 -0.021887291
-0.062008962 0.036756407 -0.07700901 0.06702742 0.04449435 0.04193884 0.032935996 -0.005760468
-0.054135956 -0.0069427127 0.040490214 0.100352466 0.032681827 -0.023311334 -0.024402613 0.0043993415
-0.059733603 -0.04049653 0.05792476 -0.0032858786 -0.008591985 -0.05745988 -0.015793536 -0.066733435
0.053057283 0.03668301 0.059957635 -0.036483113 0.037184436 0.010488777 0.033944577 -0.092294395
-0.02429566 -0.069387846 -0.070327714 -0.013461894 0.008185244 0.020909557 -0.042832334 0.051981267
-0.07772401 -0.0129680745 -0.019446177 -0.017179824 0.03121945 0.08576335 -0.012687948 -0.07393914
0.0676276 0.015013705 -0.06509132 -0.06085405 -0.008576908 0.06822577 -0.0071553667 -0.05761019
-0.050200373 0.00067164464 0.07685619 0.047497176 -0.027680045 0.0026153452 0.029750068 0.025233578
0.0060829287 0.019900436 0.02186756 0.0051216236 -0.05745794 0.053141072 0.016454868 0.058725603
0.07755724 -0.056213807 0.076428205 0.038375635 -0.03740684 -0.02319194 0.057418995 -0.025499895
0.041623894 -0.032409508 -0.047600202 -0.010624459 -0.011567377 -0.09901119 -0.056275614 -0.054335766
0.07308818 -0.051522356 0.03507036 -0.07950498 -0.05388496 -0.019588053 -0.07800173 -0.089915976
-0.047943283 0.054691836 -0.01274098 0.033887167 -0.009449609 0.016846426 0.056862116 -0.016414719
0.01355138 -0.045265038 -0.015260511 0.00023733424 -0.024875185 -0.06512358 0.056552414 -0.045490198
-0.060583133 0.028931933 -0.04021353 0.018558165 -0.050089203 -0.030309606 -0.054284304 -0.08441089
0.0058836616 -0.057445608 -0.012461249 0.032493744 0.036601506 0.0059110983 0.011714592 -0.04089574
0.025423521 -0.0054309135 0.04483318 -0.03317091 -0.040979575 -0.04490321 -0.015711537 0.045572314
00000000: c793 763d 6669 ed3c f5b6 4cbd 433b 46bc
00000010: 57a8 41bd 061b 793b 641b 433b 7b95 8fbc
00000020: 20dd 363d a6e7 663d 3243 aabd 5ab2 94bd
00000030: a9f6 5a3d 1d9a ef3b fd25 483d 70e7 b0bc
00000040: 93ec 723d 2327 06bd 7f94 0abd f3e1 a33d
00000050: cc71 09be 9c5e 0bbd 78bc b23d a097 663c
00000060: b111 d33c a64d 833d de3f abbd 9cf6 173d
00000070: 4c39 54bd 9e65 47bc aa1c 69bd 954c 25bd
00000080: 29d2 00bd 795d 8dbd 1ec8 ac3c 980b acbd
00000090: f574 ffba 84da 2cbd cd16 dfbd 5a9b e63c
000000a0: 185e 893d e2cf a5bd 3560 adbc 89ac a23c
000000b0: 9638 b23c 98b9 cdbc be94 d1bd 2d36 80bd
000000c0: 06cd 34bd 3791 ec3c c011 0e3d d455 9bbb
000000d0: 1116 adbc 1d9f c8bd 1ec6 0b3d 984f 02be
000000e0: bf54 a0bd 333a 0fbd fac0 b8bc 2024 0ebd
000000f0: 306a 18bd ec94 303d 7dce 01bd 42f3 623d
00000100: 39c9 93bd 5d51 c5bc 93a4 91bd 0677 99bd
00000110: c979 7c3c 99ad 063d e2f4 223c 9b09 ac3c
00000120: cd07 8bbc 8efe 223c a7d3 86bd bddc 62bd
00000130: 042d 8b3d 7aa9 9dbd 2f40 1f3d 40d8 5a3d
00000140: 1460 76b9 6061 403d 9fc3 febc ee19 febc
00000150: 8df9 c03d b6f0 133d dc1d 06bc 77c2 33bd
00000160: 140c 58bd 4fd5 1d3d 40dc 533c 7097 153d
00000170: c6d4 b8bd a0ed 743d 5a10 553d 5bb0 a8bd
00000180: 78f4 71bc 609f 54bd 0897 2fbd 419a 98bd
00000190: 6147 633d 5028 663d 2651 873d 39a5 28bc
000001a0: ca60 bc3c cd95 0a3c 8a11 973d 0621 06bd
000001b0: 7087 2b3d 8488 adbd fb81 833d 6666 bb3d
000001c0: 8d53 37bd 2ca4 68bd 2a1e 833d 198f 2c3d
000001d0: feae a33a 1aab 393d 490a 94bd fa4c b3bc
000001e0: 1cfd 7dbd e38d 163d e6b6 9dbd ac45 893d
000001f0: b53f 363d 10c8 2b3d e5e7 063d 4fc2 bcbb
00000200: aabd 5dbd b27f e3bb 11d9 253d 9885 cd3d
00000210: 61dd 053d 69f7 bebc fde7 c7bc 5a28 903b
00000220: 39ab 74bd b0df 25bd 8342 6d3d e557 57bb
00000230: 66c5 0cbc 0d5b 6bbd 7261 81bc 8aab 88bd
00000240: 9852 593d ed40 163d 2396 753d 516f 15bd
00000250: b54e 183d 1fd9 2b3c 7809 0b3d d804 bdbd
00000260: b107 c7bc 371b 8ebd fa07 90bd 478f 5cbc
00000270: 671b 063c 854a ab3c f570 2fbd 4fea 543d
00000280: c42d 9fbd 0c78 54bc 974d 9fbc b4bc 8cbc
00000290: efbf ff3c b2a4 af3d 1ce1 4fbc 676d 97bd
000002a0: 5780 8a3d 0bfc 753c 994e 85bd 1942 79bd
000002b0: 2986 0cbc f4b9 8b3d 9177 eabb aaf8 6bbd
000002c0: e89e 4dbd 4f11 303a c766 9d3d 668c 423d
000002d0: 43c1 e2bc 3666 2b3b 6ab6 f33c a6b6 ce3c
000002e0: 4e53 c73b 3d06 a33c 9923 b33c 4bd3 a73b
000002f0: 0459 6bbd 74aa 593d 5ccc 863c 428a 703d
00000300: 55d6 9e3d 7340 66bd 6486 9c3d c52f 1d3d
00000310: ea37 19bd 06fd bdbc 2e30 6b3d 28e5 d0bc
00000320: d17d 2a3d d5bf 04bd 6ef8 42bd 3612 2ebc
00000330: 1885 3dbc 61c6 cabd 4281 66bd 2e8f 5ebd
00000340: 41af 953d 1b09 53bd f0a5 0f3d 82d3 a2bd
00000350: 7ab6 5cbd 2077 a0bc 5fbf 9fbd de25 b8bd
00000360: 2d60 44bd 8c04 603d 8bbf 50bc 45cd 0a3d
00000370: 88d2 1abc 8401 8a3c 40e8 683d 2978 86bc
00000380: 9b06 5e3c d567 39bd 3907 7abc eddc 7839
00000390: 0bc7 cbbc 835f 85bd 81a3 673d ee53 3abd
000003a0: 0526 78bd a902 ed3c f1b6 24bd 4b07 983c
000003b0: 562a 4dbd da4b f8bc 3859 5ebd 9edf acbd
000003c0: bbcb c03b 164c 6bbd 442a 4cbc 2918 053d
000003d0: 76eb 153d e3b1 c13b 8fee 3f3c 4b82 27bd
000003e0: fd44 d03c cef5 b1bb ffa2 373d 38de 07bd
000003f0: 33da 27bd 6eec 37bd 7bb5 80bc 09aa 3a3d

conv3.bias f4 [32]
0.007894852 -0.03180932 -0.08192232 -0.011893138 -0.058480397 -0.07958132 -0.014404255 -0.0804718
0.040528424 -0.028028393 -0.028323468 -0.07330546 0.066898964 0.05776409 0.039667502 -0.06982757
0.030427257 -0.01803682 -0.055942535 0.08055302 -0.035985358 0.04023626 -0.0635912 0.053083144
0.036264602 -0.030958222 -0.05032099 -0.048647575 0.05897637 -0.0034069936 -0.07273733 0.07371604
00000000: 6959 013c 7d4a 02bd e4c6 a7bd 70db 42bc
00000010: 2489 6fbd 88fb a2bd d3ff 6bbc 66ce a4bd
00000020: 2201 263d cd9b e5bc 9e06 e8bc 2c21 96bd
00000030: 5302 893d 0a9a 6c3d 647a 223d c201 8fbd
00000040: 9542 f93c f4c1 93bc 0024 65bd fbf8 a43d
00000050: 6265 13bd c7ce 243d 1a3c 82bd b66d 593d
00000060: 318a 143d 199c fdbc 621d 4ebd ae42 47bd
00000070: 3591 713d de47 5fbb 4ff7 94bd 6ff8 963d

conv4.weight f4 [32, 32, 3, 3]
0.013895385 -0.0402927 -0.04586305 -0.067784816 0.02497606 -0.02516906 -0.01090604 -0.0051924246
-0.026739087 -0.008046953 0.010462681 0.031352893 -0.04253616 -0.034277894 -0.03264061 0.038604595
-0.04484519 -0.043061864 0.026262261 0.02461545 -0.016901582 -0.01325136 0.056329876 0.034010213
-0.04136839 -0.01316622 0.06548136 -0.0010536483 0.0078143 0.01528341 -0.0022271744 -0.033425435
-0.03993033 0.057975292 -0.002458349 -0.063151546 -0.0076410156 0.016720098 0.02602734 -0.014119902
-0.045126695 -0.048837192 0.012837951 0.011259971 0.023348132 -0.03763598 0.013936449 -0.009508924
0.033881605 -0.027467757 -0.032584827 -0.036752734 -0.03288234 0.01739846 -0.010135954 0.06832807
0.0013624469 0.058808923 -0.026234165 -0.024682216 0.006430227 0.042017564 0.008428864 -0.047891095
-0.033401396 0.00016413284 -0.0678044 -0.05340578 0.022238353 -0.029747877 -0.054889753 -0.06011737
-0.004885384 -0.0030652378 -0.036290843 0.022296047 -0.01765136 0.010416358 0.029543372 -0.0257433
0.00939992 -0.033145174 0.009328434 -0.01219145 0.052128304 0.052768797 0.043526895 0.021323547
0.049808115 0.034909476 0.063772626 0.044914555 0.051765352 0.0176609 0.041708987 0.041862346
-0.04843572 0.030331051 0.023723576 -0.04473556 -0.04465877 -0.031779967 -0.021724628 0.02828072
0.010872428 -0.003051426 -0.028677896 0.027208135 -0.021747908 0.03706222 0.038213205 -0.0025322775
-0.021957133 0.052748967 0.040399615 0.020728363 -0.011329813 0.031732973 0.015219889 -0.022480644
0.02925206 0.03460393 -0.031216403 -0.008610595 0.012283625 -0.00951303 0.047698278 -0.038913026
0.053065304 -0.04186487 0.062217362 -0.020643497 -0.0009872064 -0.010106329 -0.03694979 -0.0055967853
-0.013042935 -0.027358351 0.0058195195 -0.025963133 0.03862259 0.02814875 -0.037526168 0.027682897
-0.030172693 -0.01768862 -0.041043874 -0.032341383 -0.05970009 -0.012716795 0.0020157471 0.047991
-0.05144306 0.009308668 0.026599767 -0.03180978 -0.0046181264 0.023755172 -0.011969997 -0.027020672
0.047554497 -0.022905735 0.024972793 -0.051622245 0.0013317802 -0.01900143 -0.014833469 -0.010745057
0.03831413 -0.005347336 -0.07221502 -0.046295617 -0.015083501 0.020619083 -0.027111989 0.011818579
-0.05336202 -0.04461267 0.010775861 -0.0063781533 -0.020359533 -0.07341703 -0.020867608 0.02103417
0.028591387 -0.036307313 -0.042107005 -0.06481181 -0.030493928 0.05203981 -0.020310456 -0.031242909
-0.009057423 0.025833707 0.008140579 0.04179594 -0.057488482 0.008047208 -0.03294402 -0.016247999
-0.05481906 -0.05522872 -0.02839808 -0.014050076 0.012452631 0.004746401 0.023227341 -0.0027174884
0.013130025 -0.023284262 -0.02285774 -0.016946627 -0.0515361 -0.0060235634 0.021201555 -0.018902872
-0.06740519 0.0019841213 0.0034315072 0.0029382743 -0.029855357 0.01014277 0.044646654 0.028677471
0.009293424 -0.00024074194 -0.010550771 0.028553775 0.027265726 -0.040853042 0.031045394 0.048368853
-0.03736209 0.06862761 0.01640859 -0.020564247 0.02520305 0.01563851 0.046603967 -0.0095905345
0.034502123 0.01663401 -0.0004717254 0.028633423 0.04764943 -0.0203596 -0.016517444 -0.04446672
0.045218255 0.026820146 0.017669732 0.06018729 0.014479639 -0.0062099835 0.021825466 0.025413837
00000000: 78a9 633c f509 25bd e5da 3bbd c4d2 8abd
00000010: 989a cc3c 582f cebc 3faf 32bc 3725 aabb
00000020: ee0b dbbc 5ed7 03bc aa6b 2b3c e46b 003d
00000030: 663a 2ebd fa66 0cbd 29b2 05bd da1f 1e3d
00000040: 97af 37bd a361 30bd f423 d73c 57a6 c93c
00000050: 3075 8abc 3b1c 59bc 28ba 663d 4b4e 0b3d
00000060: e771 29bd 21b7 57bc 171b 863d 921a 8aba
00000070: 8d07 003c 4567 7a3c c9f5 11bb 1ce9 08bd
00000080: fc8d 23bd 8077 6d3d 411c 21bb 9955 81bd
00000090: 7c61 fabb 96f8 883c 4a37 d53c 2957 67bc
000000a0: c5d6 38bd 8209 48bd 4556 523c be7b 383c
000000b0: 9544 bf3c 2f28 1abd b455 643c 51cb 1bbc
000000c0: 70c7 0a3d 1004 e1bc ab77 05bd 098a 16bd
000000d0: a2af 06bd 3787 8e3c 4611 26bc 96ef 8b3d
000000e0: 2294 b23a a0e1 703d 08e9 d6bc 5c32 cabc
000000f0: a7b4 d23b 9c1a 2c3d 3819 0a3c 7429 44bd
00000100: e7cf 08bd 131b 2c39 09dd 8abd 05c0 5abd
00000110: 352d b63c d2b1 f3bc 14d4 60bd a23d 76bd
00000120: 9215 a0bb 28e2 48bb b5a5 14bd 33a6 b63c
00000130: 9699 90bc 5fa9 2a3c f104 f23c 9de3 d2bc
00000140: 1f02 1a3c 3cc3 07bd 4ad6 183c a6be 47bc
00000150: 7d84 553d 1824 583d 4249 323d b8ae ae3c
00000160: 9803 4c3d 3dfd 0e3d 399b 823d 53f8 373d
00000170: e807 543d 97ad 903c 0bd7 2a3d da77 2b3d
00000180: 8964 46bd d378 f83c f257 c23c a23c 37bd
00000190: 1dec 36bd b62b 02bd d9f7 b1bc f8ac e73c
000001a0: 4522 323c 6ffa 47bb e8ed eabc 98e3 de3c
000001b0: ab28 b2bc 8ece 173d 7385 1c3d 91f4 25bb
000001c0: 72df b3bc 4d0f 583d 117a 253d 87ce a93c
000001d0: aea0 39bc 6ffa 013d d75c 793c 5429 b8bc
000001e0: 04a2 ef3c dabc 0d3d 8bb9 ffbc 7413 0dbc
000001f0: 4241 493c 8adc 1bbc 455f 433d 4463 1fbd
00000200: 015b 593d 7f7a 2bbd a2d7 7e3d 8d1c a9bc
00000210: 2665 81ba 0495 25bc aa58 17bd 3d65 b7bb
00000220: 09b2 55bc 9f1e e0bc abb1 be3b a3b0 d4bc
00000230: b932 1e3d 3598 e63c 0ab5 19bd 3ec7 e23c
00000240: b92c f7bc bae7 90bc 9f1d 28bd 6678 04bd
00000250: 1588 74bd 1b5a 50bc a01a 043b 3692 443d
00000260: f5b5 52bd 6283 183c c1e7 d93c f94a 02bd
00000270: a753 97bb 359a c23c ce1d 44bc 755a ddbc
00000280: 81c8 423d cfa4 bbbc be93 cc3c d971 53bd
00000290: 218f ae3a e3a8 9bbc 1408 73bc 090c 30bc
000002a0: 47ef 1c3d b538 afbb 78e5 93bd 79a0 3dbd
000002b0: ca20 77bc 5ae9 a83c f619 debc b7a2 413c
000002c0: 2292 5abd c6bb 36bd 3d8d 303c d4ff d0bb
000002d0: 09c9 a6bc ab5b 96bd 8cf2 aabc da4f ac3c
000002e0: 7c38 ea3c fab6 14bd 6578 2cbd 0ebc 84bd
000002f0: 67ce f9bc b227 553d 1d62 a6bc 21f1 ffbc
00000300: 9665 14bc 36a1 d33c 1060 053c 3832 2b3d
00000310: 0b79 6bbd 70d8 033c 4ff0 06bd 861a 85bc
00000320: f389 60bd 8337 62bd 17a3 e8bc 4a32 66bc
00000330: 1f06 4c3c b387 9b3b 4447 be3c e417 32bb
00000340: 511f 573c a3be bebc 2840 bbbc a7d3 8abc
00000350: 8517 53bd 5061 c5bb e2ae ad3c 32da 9abc
00000360: bb0b 8abd 0808 023b 23e3 603b 1090 403b
00000370: 3993 f4bc dc2d 263c 69df 363d 04ed ea3c
00000380: 7243 183c ac6f 7cb9 24dd 2cbc 9be9 e93c
00000390: 5f5c df3c 8555 27bd e952 fe3c 6b1e 463d
000003a0: fe08 19bd a28c 8c3d 4f6b 863c 5a76 a8bc
000003b0: a076 ce3c 551c 803c cde3 3e3d 9e21 1dbc
000003c0: 1952 0d3d 0c44 883c e951 f7b9 a490 ea3c
000003d0: 0c2c 433d 2dc9 a6bc 974f 87bc bc22 36bd
000003e0: c736 393d ecb5 db3c 1dc0 903c f386 763d
000003f0: 023c 6d3c 1e7d cbbb 52cb b23c ae30 d03c

conv4.bias f4 [32]
0.012499065 -0.011334704 -0.027441202 0.010097068 -0.018048296 0.035180658 -0.03550563 -0.05314953
-0.008820973 -0.038800832 -0.021995513 3.092035e-05 -0.0013147177 0.001974356 -0.058096487 -0.001405153
0.05313132 -0.0425202 -0.013038312 0.011729346 -0.0012581596 0.051264413 -0.05155231 -0.041606624
0.028363425 0.05014469 0.046848327 -0.0058980854 -0.0055172867 0.048300367 0.021405619 -0.049525328
00000000: e1c8 4c3c 32b5 39bc 5fcc e0bc 2c6e 253c
00000010: 05da 93bc 9819 103d 5a6e 11bd 52b3 59bd
00000020: d885 10bc 9fed 1ebd ef2f b4bc 79b0 0138
00000030: 9b52 acba 3264 013b 95f6 6dbd 1c2d b8ba
00000040: 3aa0 593d a929 2ebd a59e 55bc 712c 403c
00000050: d5e8 a4ba a2fa 513d 8428 53bd b56b 2abd
00000060: 6a5a e83c 8564 4d3d 08e4 3f3d ba44 c1bb
00000070: 5bca b4bb 9bd6 453d d65a af3c 12db 4abd

bn21.weight f4 [32]
0.99446577 1.028605 0.9830346 1.0355633 1.0215582 0.9874344 1.0078224 1.0213145
0.99900126 0.99253213 1.0065951 1.0242307 1.0086926 1.0065995 0.9861221 0.9907442
1.0194526 1.0029784 1.0204012 0.9893084 1.031892 0.96721727 0.987484 0.95778215
0.9932842 0.9630193 1.0111941 0.99433154 0.9791581 0.9964082 1.0019141 0.99591947
00000000: 4f95 7e3f 54a9 833f 28a8 7b3f 578d 843f
00000010: 6bc2 823f 80c8 7c3f 5300 813f 6fba 823f
00000020: 8cbe 7f3f 9616 7e3f 1cd8 803f fe19 833f
00000030: d71c 813f 41d8 803f 7f72 7c3f 69a1 7d3f
00000040: 6c7d 823f 9961 803f 829c 823f 5143 7d3f
00000050: 0915 843f 8d9b 773f c0cb 7c3f 3631 753f
00000060: e047 7e3f 6f88 763f cf6e 813f 838c 7e3f
00000070: 1baa 7a3f 9c14 7f3f b93e 803f 94f4 7e3f

bn21.bias f4 [32]
-0.02349299 0.010320492 -0.018302716 0.0056548356 0.012881969 -0.004226049 0.037663396 0.01653178
4.990963e-07 0.0030764104 0.016329153 0.019791929 0.01608177 -0.0072651245 0.008175842 -0.027956674
0.0048373137 0.018844685 0.0029322198 -0.010945234 0.0083877 -0.0023743615 -0.012375035 -0.021999044
-0.014785867 -0.04023646 0.025025068 0.014452767 -0.010828713 -0.008244638 0.011150134 0.006148835
00000000: 5f74 c0bc 4817 293c 94ef 95bc 334c b93b
00000010: e50e 533c ab7a 8abb ef44 1a3d a86d 873c
00000020: a3f9 0535 9a9d 493b b7c4 853c af22 a23c
00000030: ebbd 833c 4810 eebb f8f3 053c 6505 e5bc
00000040: 5482 9e3b 2b60 9a3c 7c2a 403b a453 33bc
00000050: 906c 093c 2d9b 1bbb a9c0 4abc 5737 b4bc
00000060: 6c40 72bc fcce 24bd 5f01 cd3c 4ccb 6c3c
00000070: ea6a 31bc 8514 07bc 0daf 363c 2b7c c93b

bn21.running_mean f4 [32]
-1.08391 -0.6563461 0.3915259 -0.784849 -0.7109695 0.95029473 0.62627536 -1.7548885
-1.166197 1.2645844 0.9589186 -1.2862004 1.8927026 -1.6758727 0.97530955 -0.9616883
-1.862225 0.48073837 -0.6024101 2.0585456 -1.3878787 1.2005614 -1.3534977 1.9587039
-0.7041358 0.025473543 1.9073709 1.5578247 2.4671218 -2.2077687 1.3461101 1.4952506
00000000: 90bd 8abf 4c06 28bf 1576 c83e ddeb 48bf
00000010: 1902 36bf 8446 733f 9553 203f 30a0 e0bf
00000020: f145 95bf e7dd a13f b07b 753f 37a2 a4bf
00000030: 1444 f23f ff82 d6bf e3ad 793f 3431 76bf
00000040: 645d eebf 5723 f63e 8c37 1abf 36bf 0340
00000050: 02a6 b1bf ffab 993f 6a3f adbf cfb6 fa3f
00000060: 3e42 34bf e4ad d03c bb24 f43f cd66 c73f
00000070: 53e5 1d40 154c 0dc0 564d ac3f 5f64 bf3f

bn21.running_var f4 [32]
0.68286943 0.5211337 0.077648655 0.32017222 0.3584197 0.5191055 0.074173614 0.99490315
0.57027435 0.8332163 0.3913083 0.605854 0.9852737 0.85290843 0.29689348 0.33556923
1.3464794 0.06705728 0.36587337 1.5088295 0.7095561 0.75198567 0.6360705 1.7483402
0.30338034 0.09065394 1.1671603 0.8266068 2.081611 1.5261239 0.44793266 1.005298
00000000: 88d0 2e3f 0569 053f 4206 9f3d 9ded a33e
00000010: c982 b73e 19e4 043f 56e8 973d f9b1 7e3f
00000020: 80fd 113f aa4d 553f 9059 c83e 3f19 1b3f
00000030: e63a 7c3f 3558 5a3f 6c02 983e bbcf ab3e
00000040: 7059 ac3f 5455 893d c153 bb3e 5321 c13f
00000050: 78a5 353f 2282 403f 84d5 223f 9dc9 df3f
00000060: ab54 9b3e c6a8 b93d 8265 953f 819c 533f
00000070: 1d39 0540 0758 c33f 6e57 e53e 9bad 803f

bn22.weight f4 [32]
1.0128415 1.0044631 1.0130553 1.0061618 0.99780726 0.98765975 0.9791145 0.9901415
1.0125238 0.97432685 0.9921946 0.9959169 0.9954955 1.0045676 1.0149243 0.99904215
1.0101099 0.98547137 1.0121661 1.0029702 0.99519926 1.004225 1.0015563 1.0122005
0.99675345 1.0059817 0.998631 1.0009911 0.9726902 1.0038034 1.0059988 1.0090905
00000000: caa4 813f 3f92 803f ccab 813f e9c9 803f
00000010: 4c70 7f3f 45d7 7c3f 3fa7 7a3f ea79 7d3f
00000020: 619a 813f 7c6d 793f 7700 7e3f 69f4 7e3f
00000030: cbd8 7e3f ac95 803f 0ae9 813f 3ac1 7f3f
00000040: 484b 813f da47 7c3f a98e 813f 5461 803f
00000050: 61c5 7e3f 728a 803f ff32 803f c98f 813f
00000060: 3c2b 7f3f 02c4 803f 48a6 7f3f 7a20 803f
00000070: 3a02 793f a17c 803f 92c4 803f e129 813f

bn22.bias f4 [32]
0.02108532 -0.010457807 0.030603735 0.009434446 0.008529381 0.00109563 -0.0015920015 -0.0029115118
0.0063442565 -0.0052739456 0.005872746 -0.02919174 0.0057802214 0.015904823 0.016655916 0.03666584
0.017875127 -0.0075568357 0.008284253 0.027308593 0.010771473 0.027558366 0.01152239 0.018932711
0.0011325136 0.0018198765 0.013449009 0.0017597076 -0.005084162 0.013831762 0.009349238 0.03988181
00000000: 1fbb ac3c 3957 2bbc afb4 fa3c ef92 1a3c
00000010: d1be 0b3c 3e9b 8f3a b5aa d0ba 10cf 3ebb
00000020: 7be3 cf3b 10d1 acbb 2a70 c03b 8423 efbc
00000030: 0368 bd3b d54a 823c fd71 883c eb2e 163d
00000040: dc6e 923c 559f f7bb adba 073c 45b6 df3c
00000050: d57a 303c 15c2 e13c 68c8 3c3c c618 9b3c
00000060: da70 943a ec88 ee3a 3b59 5c3c fda5 e63a
00000070: 0b99 a6bb 9d9e 623c 8c2d 193c 1c5b 233d

bn22.running_mean f4 [32]
-0.0999349 0.25123742 -0.42253163 -0.14850427 0.13870077 0.13759266 0.4162985 -0.6832032
0.41680455 -1.0929418 -0.0756858 0.9460975 0.27452433 -0.012082096 0.11561363 -0.61837745
-0.02310051 -0.03648809 0.33930534 -0.29969266 0.19360837 -0.79824644 -0.0558139 -0.59565264
-0.09495134 -0.024262587 -0.71547866 -0.055271868 0.021474682 -0.16695781 0.28924224 -0.6317834
00000000: abaa ccbd 31a2 803e 1156 d8be 8111 18be
00000010: 9307 0e3e 17e5 0c3e 1425 d53e 68e6 2ebf
00000020: 6867 d53e 84e5 8bbf 2801 9bbd 7233 723f
00000030: 748e 8c3e fcf3 45bc d7c6 ec3d fc4d 1ebf
00000040: 483d bdbc 8974 15bd 6eb9 ad3e 5171 99be
00000050: 4641 463e e159 4cbf 1e9d 64bd b17c 18bf
00000060: d975 c2bd 55c2 c6bc 9c29 37bf c164 62bd
00000070: aceb af3c fdf6 2abe 8f17 943e 8fbc 21bf

bn22.running_var f4 [32]
0.9308846 0.276706 0.7416075 0.38386816 0.44495818 0.94165826 0.5159361 0.8531863
0.56952775 0.46465605 0.63123286 0.43575117 1.0079089 0.8069959 0.60748523 1.1708412
0.60365903 0.5910658 0.657882 0.7352743 1.4118829 1.01266 0.44605646 0.41562396
1.0715421 0.6921113 1.1670297 0.67339987 0.16083413 1.2287247 0.85279113 1.170703
00000000: 744e 6e3f 69ac 8d3e fdd9 3d3f 5e8a c43e
00000010: 8fd1 e33e 8410 713f 6314 043f 6b6a 5a3f
00000020: 92cc 113f 66e7 ed3e 7a98 213f c71a df3e
00000030: 2903 813f 4997 4e3f 2784 1b3f 20de 953f
00000040: 6689 1a3f 1750 173f f46a 283f f03a 3c3f
00000050: 94b8 b43f d89e 813f 8361 e43e aacc d43e
00000060: 4b28 893f 352e 313f 3b61 953f ef63 2c3f
00000070: b4b1 243e da46 9d3f 8550 5a3f 99d9 953f

conv5.weight f4 [64, 32, 3, 3]
0.052156087 -0.040181845 -0.02429895 0.020049587 -0.044411816 0.024606997 0.0023216556 -0.008722651
-0.07925534 0.038665783 0.034212694 0.001754496 0.012689995 -0.03889625 -0.026748184 0.002257148
-0.02712129 0.033075925 0.047111124 0.027283011 -0.044136204 -0.007953052 0.053292673 0.043067943
0.012809833 0.03748236 0.005457361 0.041802716 0.046329647 0.0012385992 -0.01447559 -0.047306657
-0.020100666 0.0055184457 -0.049329553 -0.03469055 -0.024076236 -0.028591061 -0.010979012 -0.057066187
0.010234892 0.000818167 -0.007214612 0.0165347 -0.06772584 -0.029573021 -0.027115764 -0.013005466
-0.03503261 0.050259735 -0.024078416 0.045131896 -0.030526567 -0.05653307 0.012001453 0.03688705
0.004296072 -0.015870001 -0.034768935 -0.044551574 0.0004255966 -0.025559887 0.013623082 -0.030681184
-0.02137012 -0.050968483 -0.049135968 -0.05347253 0.0039331885 -0.010459542 -0.052513212 0.020983478
0.031703472 -0.008237073 -0.045534585 -0.007917269 0.035436552 0.054806627 -0.035305556 0.04602901
0.009078648 0.014294481 0.00435015 -0.0062158257 -0.041629203 -0.038949307 0.013342137 -0.028239151
-0.0024476002 -0.007417672 0.04765999 -0.045988295 -0.04933733 -0.041984238 -0.05262089 -0.051440533
0.028799584 0.023327176 -0.013136644 0.055486392 -0.03244081 -0.05981604 0.04045175 0.010440986
-0.030809304 0.020843485 -0.009984301 -0.05891053 0.032630645 0.06095708 -0.039064307 0.03306307
-0.032053143 -0.048207585 0.045527097 -0.018237943 -0.061767075 -0.006633133 -0.028710866 -0.022226488
0.011492303 -0.05617645 -0.026303701 0.035975378 0.0010018975 0.043326624 -0.009133202 -0.03435648
-0.053080566 0.019841079 -0.04156529 -0.022708574 -0.018393977 0.043502647 0.056790885 -0.028931327
0.0029218714 0.04116988 0.054641336 -0.04799129 0.0019827548 0.022367999 0.010855489 -0.010268465
0.0051648356 0.01369108 0.018259667 0.0054215114 0.044004265 -0.024052177 0.04943322 -0.003807714
-0.0038977372 -0.060033467 0.04649375 0.003463171 0.046021678 -0.00073254795 -0.047738835 -0.021420283
0.0416888 -0.01499668 -0.02767494 0.008144811 0.047963556 0.04098516 0.00379602 0.021504147
-0.030145468 0.010532987 0.026504962 0.02977377 0.030577408 0.015220613 -0.03154364 -0.024354946
0.027483106 0.022128334 0.00044970424 -0.021011375 0.001386454 -0.04808449 -0.0076026395 0.036805093
-0.050853316 -0.044938974 -0.0073912134 -0.06080379 -0.069772065 -0.0053084176 -0.050167494 -0.028667098
0.008645456 -0.021156332 -0.038173042 -0.018854924 0.0089976 -0.03827218 0.062171552 -0.00651586
-0.03392573 -0.035025876 -0.003113727 0.019502638 0.043906927 -0.001613968 0.03431642 0.0010285616
0.009128413 0.036212415 -0.005812476 -0.009890851 -0.0447022 0.0054015988 0.05556459 -0.0162604
0.059273526 -0.041489083 0.054297965 0.040215347 -0.05093906 0.03330921 -0.019778235 0.014989055
-0.017638188 -0.016086811 0.011007905 0.0372785 -0.009368267 -0.025788995 0.06543246 0.033754904
0.030508464 0.0074695246 0.0010393899 0.054171193 0.0028499172 -0.017174313 0.059560273 0.033059657
0.043963585 0.007269074 -0.021889376 -0.0059207855 -0.039078474 0.03664335 -0.021922208 -0.014082416
-0.032364838 0.038207628 -0.050406184 -0.057449307 -0.01785078 0.00073940726 0.015651723 0.014538467
00000000: 9fa1 553d b895 24bd 970e c7bc 083f a43c
00000010: 2ae9 35bd 9d94 c93c eb26 183b 73e9 0ebc
00000020: a050 a2bd 0360 1e3d 9c22 0c3d 1ef7 e53a
00000030: b2e9 4f3c ad51 1fbd 021f dbbc a9ec 133b
00000040: 782d debc 9f7a 073d 98f7 403d 9f80 df3c
00000050: 2ac8 34bd 854d 02bc 6b49 5a3d 0368 303d
00000060: 55e0 513c 1a87 193d aad3 b23b 5339 2b3d
00000070: 28c4 3d3d 7e58 a23a 062b 6dbc a0c4 41bd
00000080: 27aa a4bc 14d4 b43b c90d 4abd ae17 0ebd
00000090: 873b c5bc cd37 eabc 50e1 33bc 3cbe 69bd
000000a0: 40b0 273c 427a 563a 8d68 ecbb c773 873c
000000b0: d8b3 8abd 1f43 f2bc e121 debc e114 55bc
000000c0: 5b7e 0fbd 27dd 4d3d 1940 c5bc 39dc 383d
000000d0: da12 fabc 388f 67bd bea1 443c e016 173d
000000e0: 10c6 8c3b ce01 82bc df69 0ebd b67b 36bd
000000f0: 9c22 df39 f862 d1bc 5933 5f3c 1b57 fbbc
00000100: 6410 afbc 54c4 50bd cc42 49bd 0306 5bbd
00000110: fae1 803b 805e 2bbc 1818 57bd 8be5 ab3c
00000120: 80db 013d caf4 06bc 7982 3abd 6fb7 01bc
00000130: eb25 113d ea7c 603d 8f9c 10bd ea88 3c3d
00000140: 9cbe 143c 6633 6a3c b48b 8e3b 20ae cbbb
00000150: 6283 2abd 4f89 1fbd fb98 5a3c cb55 e7bc
00000160: eb67 20bb f10f f3bb 1f37 433d 395e 3cbd
00000170: f115 4abd aaf7 2bbd 0189 57bd 4fb3 52bd
00000180: 1bed eb3c a218 bf3c 143b 57bc b345 633d
00000190: a8e0 04bd aa01 75bd bcb0 253d ab10 2b3c
000001a0: cb63 fcbc f5bf aa3c 3295 23bc 2b4c 71bd
000001b0: b6a7 053d 22ae 793d e501 20bd 246d 073d
000001c0: 284a 03bd 5175 45bd 9f7a 3a3d bd67 95bc
000001d0: 79ff 7cbd c15a d9bb 0d33 ebbc 5314 b6bc
000001e0: 364a 3c3c 4719 66bd dc7a d7bc eb5a 133d
000001f0: 1a52 833a 4277 313d 6da3 15bc 61b9 0cbd
00000200: 026b 59bd c289 a23c 5e40 2abd 5507 babc
00000210: f7ae 96bc d52f 323d 8f9d 683d 6401 edbc
00000220: de7c 3f3b c0a1 283d 98cf 5f3d 8492 44bd
00000230: 1bf1 013b 183d b73c 39db 313c 103d 28bc
00000240: c83d a93b 8d50 603c 4c95 953c efa6 b13b
00000250: d13d 343d 1209 c5bc 7d7a 4a3d d78a 79bb
00000260: 2e71 7fbb a7e5 75bd 3b70 3e3d 5ef6 623b
00000270: 3a81 3c3d 7608 40ba cc89 43bd 9779 afbc
00000280: e0c1 2a3d a3b4 75bc 8eb6 e2bc d071 053c
00000290: 6f75 443d 0ee0 273d a6c6 783b 7729 b03c
000002a0: a1f3 f6bc 8d92 2c3c ef20 d93c 1fe8 f33c
000002b0: 797d fa3c e15f 793c e733 01bd 0684 c7bc
000002c0: 4024 e13c 7b46 b53c 48c6 eb39 0c20 acbc
000002d0: adb9 b53a 3ef4 44bd 901f f9bb f0c0 163d
000002e0: 914b 50bd ee11 38bd fe31 f2bb 650d 79bd
000002f0: a8e4 8ebd 3cf2 adbb 6e7c 4dbd 43d7 eabc
00000300: aca5 0d3c 0b50 adbc 565b 1cbd a475 9abc
00000310: ab6a 133c 4ac3 1cbd 99a7 7e3d ff82 d5bb
00000320: b5f5 0abd 4b77 0fbd ac0f 4cbb ffc3 9f3c
00000330: c0d7 333d c88b d3ba 608f 0c3d cdd0 863a
00000340: 578f 153c 7853 143d 9576 bebb 3c0d 22bc
00000350: a719 37bd e5ff b03b b297 633d 8834 85bc
00000360: ccc8 723d 75f0 29bd 8b67 5e3d d9b8 243d
00000370: 7aa5 50bd 3d6f 083d f705 a2bc a794 753c
00000380: f67d 90bc 7dc8 83bc 805a 343c 57b1 183d
00000390: 5c7d 19bc 7143 d3bc 7401 863d 9542 0a3d
000003a0: e3ec f93c eac2 f43b 233c 883a 9de2 5d3d
000003b0: adc5 3a3b 25b1 8cbc 79f5 733d 9069 073d
000003c0: 2913 343d 6a31 ee3b 5951 b3bc 2603 c2bb
000003d0: c010 20bd 5617 163d 3496 b3bc efb9 66bc
000003e0: fe90 04bd 9a7f 1c3d b776 4ebd f74f 6bbd
000003f0: cd3b 92bc c8d4 413a 0b38 803c c032 6e3c

conv5.bias f4 [64]
0.015879296 0.003383029 -0.0051395134 -0.036129992 -0.039311145 -0.011743389 0.02547973 0.002573589
-0.004781122 -0.023216365 -0.011868578 -0.015822629 -0.009682227 0.036331363 0.033337947 -0.041439522
0.024830842 0.00039967019 -0.0253446 -0.043690037 0.056954548 0.046439625 0.04000652 0.035138905
-0.028880201 0.03697635 0.054259155 -0.025565982 0.019382756 -0.01571967 0.02637292 0.024037061
-0.051157158 0.041922618 0.024077266 0.05398696 0.0068930383 -0.041395042 -0.048515268 0.008270606
0.010103651 0.022379434 0.046187844 -0.013769929 -0.052428275 0.01304926 -0.015638145 0.04850244
-0.04312274 0.05014312 -0.023982039 -0.014416413 0.024156075 -0.047998156 0.03095733 0.0053622304
0.016020902 0.0030280598 0.008703274 0.0043029 -0.020003578 -0.0044966335 0.0027520263 -0.015518932
00000000: 4c15 823c cfb5 5d3b 5d69 a8bb 0bfd 13bd
00000010: b904 21bd 5867 40bc deba d03c a9a9 283b
00000020: f5aa 9cbb 3f30 bebc 6d74 42bc 759e 81bc
00000030: 34a2 1ebc 32d0 143d 5f8d 083d 7dbc 29bd
00000040: 0d6a cb3c d38a d139 7b9f cfbc 53f4 32bd
00000050: 2c49 693d 7a37 3e3d e0dd 233d d0ed 0f3d
00000060: 2c96 ecbc 8374 173d d93e 5e3d c06f d1bc
00000070: 96c8 9e3c 8ac6 80bc 060c d83c 5fe9 c43c
00000080: 2b8a 51bd 0db7 2b3d b03d c53c 6e21 5d3d
00000090: ffde e13b d98d 29bd f2b7 46bd 7081 073c
000000a0: c989 253c 1355 b73c 772f 3d3d 459b 61bc
000000b0: 08bf 56bd 90cc 553c 911b 80bc 7faa 463d
000000c0: 78a1 30bd df62 4d3d fb75 c4bc d232 6cbc
000000d0: f6e2 c53c b799 44bd 3a9a fd3c a6b5 af3b
000000e0: 443e 833c 6a72 463b 2d98 0e3c 57ff 8c3b
000000f0: 8bde a3bc 7f58 93bb 575b 343b 1e43 7ebc

conv6.weight f4 [64, 64, 3, 3]
0.029758627 -0.032424048 -0.01877478 -0.016010452 -0.013705847 -0.002613708 -0.011510717 -0.028485304
-0.039642982 0.026013765 -0.024981957 -0.0066673825 -0.02696509 -0.016482187 0.0126599 -0.036352262
-0.0016564658 -0.0033839436 -0.0041526845 0.034622576 -0.027357036 -0.016189706 0.019388715 -0.007881855
-0.03268165 0.0052152527 0.017482448 -0.0041690776 0.002920779 0.017437829 -0.016947662 -0.019763747
0.009594055 0.030112486 0.015351569 0.015676344 -0.036255974 -0.011720023 0.0065946933 0.036012433
-0.030399626 0.002886104 0.035930425 0.011307688 0.0036164566 0.0076266406 -0.01883743 -0.043102194
-0.03721701 0.017389365 0.037655205 0.038874432 -0.034280155 0.022107998 0.024605377 0.033312432
0.0058761747 -0.03167352 -0.032667585 -0.021088915 0.0006201591 -0.043467753 -0.021781575 -0.03702293
0.025178745 0.03617374 -0.04292924 0.0144848265 0.039033648 0.032439012 -0.03331555 0.03283058
0.018441848 -0.010547208 0.0013140892 -0.018391581 -0.015303875 0.005176937 0.022409152 -0.035977017
0.032657843 -0.0030995174 0.003395625 0.032223 -0.04597202 0.03100854 -0.0015226305 0.0336009
-0.033562955 -0.034784015 0.03565319 0.010325178 -0.01093312 -0.043825347 0.03278028 -0.034923784
-0.0049165245 0.031336017 0.026177878 0.020363336 0.011552319 0.03185648 -0.0020374893 -0.019003313
0.023557236 0.009115066 0.035792947 -0.015296244 0.032280367 -0.011540013 0.0370458 0.010269985
0.014485561 0.0077431626 -0.014717348 0.023298675 0.0255253 0.029574074 -0.0026263848 0.030422075
-0.0053680837 0.03239451 0.0035818946 0.038481373 0.011590545 0.027030358 0.00078784634 -0.012296848
0.025044424 -0.017340556 -0.036754504 0.03143918 0.00034255593 -0.019057702 0.015356116 -0.035095427
-0.010888817 -0.0100032035 0.0031377769 -0.040998533 0.029539509 0.0030588484 -0.014081835 0.02101701
0.030249598 0.0017771518 -0.0029696715 -0.009267332 -0.025325233 -0.011373373 0.029842082 0.005354973
-0.0051601897 -0.039146688 0.010136801 -0.022565369 0.0077935606 0.023197623 0.037554514 -0.015239227
0.037212096 -0.009163164 0.006732797 0.026887707 0.010132853 -0.0060224743 -0.020405717 -0.011014669
0.038868517 0.01730479 -0.021406256 -0.03736457 -0.033028178 0.008595138 0.028830368 -0.0077493265
-0.002623589 -0.022039229 0.0152763855 0.0130894175 0.037660234 0.0038487392 0.0020329093 -0.00915516
0.0025549303 0.02240499 -0.042101577 0.03236077 0.006766507 -0.0148471445 0.022640096 -0.02155105
-0.014948322 -0.020808646 0.013646078 0.0048860293 0.026249716 0.032337025 0.037974402 0.028778508
-0.001362099 0.028789666 0.034710802 0.01776116 0.035211686 0.031159332 -0.0034665687 0.01685153
0.04184712 0.026085703 0.00971107 0.03472298 -0.004195198 -0.0016693199 0.029960223 -0.0077001075
0.02939615 0.022739138 0.028979015 -0.017144328 -0.016830271 0.02850497 0.020369522 -0.036116116
-0.005160743 -0.03455663 -0.021310141 0.03913879 -0.041847322 -0.031500567 -0.037791155 0.013129226
0.00088652305 -0.0032819668 0.017859394 -0.007270234 -0.009476557 -0.021685028 0.014530103 0.043780006
0.021407302 -0.021899559 -0.034517154 -0.028873568 -0.029209659 0.0033940163 0.030966742 -0.0020224794
0.028684733 -0.012415033 0.033824936 0.02041261 -0.011833777 -0.0010775254 -0.0071039447 -0.017171536
00000000: 5dc8 f33c 14cf 04bd 91cd 99bc 5a28 83bc
00000010: 7d8e 60bc be4a 2bbb 7297 3cbc 035a e9bc
00000020: ae60 22bd d21a d53c f6a6 ccbc 0f7a dabb
00000030: e4e5 dcbc a705 87bc 786b 4f3c 1ce6 14bd
00000040: c51d d9ba 27c5 5dbb 3e13 88bb 67d0 0d3d
00000050: dd1b e0bc 46a0 84bc 15d5 9e3c e522 01bc
00000060: 32dd 05bd b6e4 aa3b 5a37 8f3c c29c 88bb
00000070: 8a6a 3f3b c7d9 8e3c d3d5 8abc 95e7 a1bc
00000080: 6230 1d3c 76ae f63c 2685 7b3c ad6b 803c
00000090: 2581 14bd 5705 40bc 4c18 d83b c681 133d
000000a0: a308 f9bc ca24 3d3b c82b 133d e243 393c
000000b0: 1302 6d3b e6e8 f93b f450 9abc ed8b 30bd
000000c0: dd70 18bd 2474 8e3c 583c 1a3d cc3a 1f3d
000000d0: 5969 0cbd d51b b53c 3791 c93c 9e72 083d
000000e0: ed8c c03b 18bc 01bd 72ce 05bd a9c2 acbc
000000f0: 2c92 223a 3e0b 32bd 466f b2bc 5ba5 17bd
00000100: a843 ce3c ea2a 143d 92d6 2fbd c451 6d3c
00000110: bfe1 1f3d c5de 043d e375 08bd 5c79 063d
00000120: 5c13 973c 32ce 2cbc 843d ac3a f1a9 96bc
00000130: 1bbd 7abc 4ca3 a93b 6693 b73c a35c 13bd
00000140: 3bc4 053d 4621 4bbb 2289 5e3b 44fc 033d
00000150: 284d 3cbd 9f05 fe3c 0093 c7ba 19a1 093d
00000160: 4f79 09bd af79 0ebd 1409 123d ef2a 293c
00000170: d420 33bc 3582 33bd 9d44 063d 3e0c 0fbd
00000180: cc1a a1bb 325a 003d fd72 d63c 03d1 a63c
00000190: f045 3d3c f17b 023d 6687 05bb d6ac 9bbc
000001a0: 1bfb c03c 5c57 153c a09b 123d 199d 7abc
000001b0: 6b38 043d 5312 3dbc 56bd 173d 7043 283c
000001c0: d954 6d3c 5bba fd3b 0821 71bc dddc be3c
000001d0: 6f1a d13c 5445 f23c 6d1f 2cbb b737 f93c
000001e0: c0e6 afbb 1bb0 043d 38be 6a3b a59e 1d3d
000001f0: 45e6 3d3c c56e dd3c 7987 4e3a b878 49bc
00000200: f729 cd3c c80d 8ebc e48b 16bd 5fc6 003d
00000210: 1499 b339 e61e 9cbc 3898 7b3c 39c0 0fbd
00000220: 0267 32bc 7ae4 23bc 29a3 4d3b 14ee 27bd
00000230: d7fc f13c f676 483b 7fb7 66bc dd2b ac3c
00000240: 01ce f73c 52ef e83a d29e 42bb 02d6 17bc
00000250: dd76 cfbc 6257 3abc 6277 f43c c578 af3b
00000260: cf16 a9bb 4758 20bd d314 263c 02db b8bc
00000270: 2061 ff3b f108 be3c c3d2 193d f3ad 79bc
00000280: b66b 183d 1821 16bc cb9e dc3b 9c43 dc3c
00000290: 4404 263c 2d58 c5bb e429 a7bc df76 34bc
000002a0: 9834 1f3d c6c2 8d3c 2c5c afbc 970b 19bd
000002b0: 8e48 07bd 9fd2 0c3c aa2d ec3c 10ee fdbb
000002c0: 85f0 2bbb 9d8b b4bc ce49 7a3c ff74 563c
000002d0: 9e41 1a3d 213b 7c3b 8f3a 053b 86ff 15bc
000002e0: 9e70 273b ab8a b73c b472 2cbd ba8c 043d
000002f0: 93b9 dd3b 7041 73bc b977 b93c d48b b0bc
00000300: cfe9 74bc e576 aabc cd93 5f3c fc1a a03b
00000310: a509 d73c d473 043d 0c8b 1b3d e8c0 eb3c
00000320: 7588 b2ba 4ed8 eb3c ea2c 0e3d da7f 913c
00000330: 213a 103d db41 ff3c 5f2f 63bb 380c 8a3c
00000340: e367 2b3d afb1 d53c 2e1b 1f3c af39 0e3d
00000350: df77 89bb 15cd daba 246f f53c 2f51 fcbb
00000360: 32d0 f03c 6e47 ba3c 6665 ed3c 4372 8cbc
00000370: a3df 89bc 4183 e93c fcdd a63c 7eee 13bd
00000380: 731b a9bb 418b 0dbd 9b92 aebc ff4f 203d
00000390: 1968 2bbd bd06 01bd e6ca 1abd f71b 573c
000003a0: 8e65 683a 4416 57bb dd4d 923c 253b eebb
000003b0: 9043 1bbc cda4 b1bc ab0f 6e3c aa52 333d
000003c0: 5e5e af3c b466 b3bc dc61 0dbd 4388 ecbc
000003d0: 1849 efbc 256e 5e3b f7ad fd3c 938b 04bb
000003e0: 3ffc ea3c 6c68 4bbc 048c 0a3d 5938 a73c
000003f0: 75e2 41bc c13b 8dba 35c8 e8bb 52ab 8cbc

conv6.bias f4 [64]
-0.025676753 0.011435077 -0.015841054 -0.015512615 -0.030110596 0.024248611 0.036430087 -0.02709802
-0.033004723 -0.041105345 -0.0046598027 0.00037205283 -0.031075438 0.03808083 -0.0136664 -0.018586121
0.013210212 0.033389714 -0.0071895556 0.030452756 0.008971889 0.029870143 0.01668204 -0.032602962
0.001110504 -0.01604593 0.0347545 -0.0027763376 0.015145166 -0.029289313 0.004807017 -0.02811708
0.029396348 -0.01687816 0.0045491112 0.04033588 -0.0049154516 0.03550956 -0.010418367 -0.007893762
0.0082401885 0.03144934 0.03834843 0.009270105 0.0018743054 -0.010256073 -0.021567943 -0.02184385
-0.008064506 0.033162907 0.031991407 -0.021571709 -0.0018328937 0.0075264326 -0.028939601 0.02384041
0.014828184 -0.0390247 0.020216411 0.0029998664 0.0020375869 -0.0011147859 -0.011272228 0.038740322
00000000: 0e58 d2bc 305a 3b3c 19c5 81bc a028 7ebc
00000010: 7faa f6bc 06a5 c63c b737 153d abfc ddbc
00000020: f62f 07bd 145e 28bd 42b1 98bb 1610 c339
00000030: eb91 febc a5fa 1b3d 09e9 5fbc ec41 98bc
00000040: a56f 583c a7c3 083d 5d96 ebbb 0f78 f93c
00000050: d4fe 123c 3bb2 f43c c6a8 883c af8a 05bd
00000060: 558e 913a c172 83bc bc5a 0e3d 37f3 35bb
00000070: 6e23 783c 24f0 efbc 2e84 9d3b ca55 e6bc
00000080: 9cd0 f03c 1144 8abc b610 953b 3c37 253d
00000090: cc11 a1bb 7972 113d ccb1 2abc d654 01bc
000000a0: db01 073c 06d1 003d 3e13 1d3d a3e1 173c
000000b0: 41ab f53a 1709 28bc 41af b0bc e0f1 b2bc
000000c0: fd20 04bc d4d5 073d 6c09 033d 27b7 b0bc
000000d0: b53d f0ba 4ba0 f63b be12 edbc f74c c33c
000000e0: e9f1 723c 5dd8 1fbd e39c a53c 6899 443b
000000f0: 0989 053b 021e 92ba 27af 38bc 2cae 1e3d
