checkpoints/best_model_2706_1.pth (torch, 370843 bytes, 38 tensors)

conv1.weight f4 [16, 1, 3, 3]
000000 ae bf 1a c0 c5 45 45 3f 25 65 20 bf 28 fc 8c bf
       -2.4179492 0.77059585 -0.62654334 -1.1014452
000010 26 92 c4 3f 42 be 45 be ac 59 5f bf 73 59 18 3f
       1.5357101 -0.19310859 -0.87246203 0.5951149
000020 fb a2 ba 3f c8 fd 0b 3e 6a 8b 74 bf 15 f8 17 3f
       1.4580988 0.13671029 -0.9552523 0.5936292
000030 1e 18 fc 3e a7 a3 4d c0 8b b1 a3 3e 27 96 81 3e
       0.4923715 -3.2131135 0.31971392 0.2530987
000040 f5 43 f0 be df f1 40 bc d2 dc c0 3e 20 f4 8e bf
       -0.46926847 -0.011776417 0.37668473 -1.1168251
000050 98 53 28 c0 2c 99 2d 3f 36 de b0 bd 79 b6 24 bf
       -2.6301022 0.67811847 -0.086361334 -0.6434093
000060 82 92 d1 bf 06 4d 62 3f 04 cc 7f 3e 1f 7f a0 be
       -1.6372836 0.8839878 0.2498017 -0.31346986
000070 88 e4 f5 bf 28 85 c6 bf 89 6b f6 3e ea 38 43 bf
       -1.9210367 -1.5509386 0.48128918 -0.7625872
000080 b3 53 89 bf 7c 9f 47 3f 8d 4a 1c 3f fe ee d1 3d
       -1.0728668 0.7797773 0.61051255 0.10250662
000090 ad a2 10 3f 19 e8 95 3d 63 3b 35 c0 fb 32 b9 3d
       0.56498224 0.0731966 -2.8317497 0.09042927
0000a0 37 c7 ba 3e 5a 63 37 c0 c4 40 96 3d 5d 14 de 3e
       0.36480114 -2.865439 0.07336572 0.4337491
0000b0 22 4b 48 bf 3b e0 4d 3f ac f0 17 3f ab b8 59 be
       -0.78239644 0.80420274 0.5935161 -0.21261851
0000c0 b9 4a 1d 3f 68 ec 8f be 3c bf 00 c0 f8 8f fa 3e
       0.6144214 -0.2811005 -2.011672 0.48937964
0000d0 e6 bc 4b bf a1 94 d5 bf 9f a7 8e 3e af 1a 17 3f
       -0.7958511 -1.6685983 0.2786226 0.5902509
0000e0 9b 6a 42 3f ab af 2f bf e7 18 06 bd e8 4d 11 3f
       0.7594392 -0.68627423 -0.032738592 0.567595
0000f0 ae 54 28 c0 ff fe 41 bf fb 79 c8 3b 13 8d 7b be
       -2.6301684 -0.7577972 0.006118057 -0.24565534
000100 9e d5 5d bf 09 4a 5a bf 72 d4 d2 bf 48 27 05 c0
       -0.8665408 -0.8526922 -1.6471083 -2.0805225
000110 43 db d4 be 9e 64 6a 3d 16 08 41 3e 66 24 38 3f
       -0.41573533 0.057224862 0.18850741 0.7193054
000120 b3 70 92 3e 10 c8 1f 3f 1c 8f 16 bd 1f d1 b7 3e
       0.28601608 0.62414646 -0.036757573 0.35901734
000130 c3 e8 71 3e 98 07 05 bd 48 29 5a bf d7 40 1d c0
       0.23623948 -0.032477945 -0.8521924 -2.4570825
000140 04 93 33 c0 56 14 49 bf 6b 33 45 bf 5d 09 41 c0
       -2.8058481 -0.78546655 -0.7703158 -3.0161965
000150 dc 28 4a 3e f4 45 a0 3f 50 e8 39 3f 30 8c 27 3f
       0.19742149 1.2521348 0.72620106 0.65448284
000160 fa bc 9d bc 68 01 05 bf c5 60 33 3f 9b d7 21 3e
       -0.01925515 -0.5195527 0.70069534 0.15804903
000170 ad f7 8c bf ec a8 a2 be 4a 69 07 3f 7c 14 d7 bf
       -1.1013085 -0.31769502 0.52895033 -1.6803126
000180 43 e5 4c bf 7f bc 42 bf 44 e3 ba bf c3 6f 63 3f
       -0.80037326 -0.7606887 -1.4600606 0.8884241
000190 01 37 e1 3d 06 96 73 bf 6c f5 d7 bd b6 98 4a bf
       0.10996819 -0.9515079 -0.105448574 -0.7913927
0001a0 9e c6 b9 bf 2b 90 8a bf 79 03 86 bf 7e 0a 8d be
       -1.4513738 -1.0825247 -1.046981 -0.27547067
0001b0 a6 2a 2e 3e 77 5d c4 bf 8d c7 90 bf 0d 34 8e bf
       0.17008457 -1.5341023 -1.1310898 -1.1109635
0001c0 df 81 df bf c4 8f 07 bd 98 0e 74 be 73 e2 a2 3d
       -1.7461509 -0.03309609 -0.23833692 0.07953348
0001d0 b3 12 40 3f 7f 03 0c 3f 33 6a 1c 3f 84 95 59 3e
       0.7502853 0.54692835 0.6109955 0.21248442
0001e0 15 05 15 c0 6d dc b6 bf 7b df 8a 3e b5 f9 9a bf
       -2.3284352 -1.4286019 0.27123627 -1.2107455
0001f0 75 f5 3e 3d b8 75 8d be 0b ae 2a c0 80 7c 4c 3f
       0.046620805 -0.27628875 -2.6668727 0.7987747
000200 29 04 7b 3e 0f 1f 3d 3f 5d 75 9c 3f 50 62 50 3f
       0.24513306 0.73875517 1.2223316 0.8140001
000210 44 95 0b 3f 28 d0 bb bf e9 db a8 bf c9 0c af be
       0.54524636 -1.4672899 -1.3192111 -0.34189442
000220 9b 0c 12 3e 94 3c 8c 3e f6 3a 83 bf 52 1a d3 be
       0.14262621 0.27389967 -1.0252368 -0.41231018
000230 cd 9e 95 bc 25 64 d5 3e 10 46 8e c0 00 93 78 bd
       -0.018264199 0.41677967 -4.4460526 -0.060687065

conv1.bias f4 [16]
000000 a6 c2 77 bf 33 e8 ec bf a0 dc 6f bf e1 b5 3d be
       -0.96781385 -1.8508362 -0.9369602 -0.18526413
000010 9d 2c d9 bf e0 bb 63 3e f5 3b c6 be b9 c0 11 3f
       -1.696674 0.22239637 -0.3871762 0.56934696
000020 fd 55 54 bf 0e 8d 28 3e a2 d7 76 bc 18 f9 1a c0
       -0.8294371 0.16460058 -0.015066059 -2.4214535
000030 df 70 91 bf 1a 29 92 ba 8d e2 9d 3e be 80 0f c0
       -1.136257 -0.0011151165 0.30836907 -2.2422328

conv2.weight f4 [16, 16, 3, 3]
000000 28 a2 a7 3f 97 bf 8a bb 36 15 99 3f cb f6 b9 3f
       1.3096361 -0.004234265 1.1959598 1.452844
000010 1c 18 16 bf a7 c0 0e 40 e0 83 49 3f be 43 07 be
       -0.5863054 2.2305086 0.7871685 -0.13209435
000020 ab 38 95 bf 2b ac 74 3e 18 1e b6 bf 43 20 1b bf
       -1.1657919 0.23893802 -1.4227934 -0.605961
000030 91 9d cb bf 34 55 9d bf 6b 2b 37 bd 5f e3 64 3d
       -1.590746 -1.2291627 -0.04471914 0.0558809
000040 ee bb 55 3f 04 72 01 40 64 90 ee bf ed c4 af bf
       0.8348988 2.022584 -1.8637815 -1.3731972
000050 02 10 52 be 20 82 e8 3f bf c6 4e 3f 24 cb 16 3f
       -0.20513919 1.8164711 0.8077201 0.5890372
000060 d3 78 60 3f f0 98 14 bd 0d bf 11 c0 42 70 b0 3e
       0.87684363 -0.036278665 -2.2772858 0.34460646
000070 41 4b 06 c0 21 10 46 bd 42 8d 85 3f 05 ed 0c 3f
       -2.0983431 -0.048355225 1.0433733 0.55049163
000080 4e 76 4e bf 15 b7 f9 3d bd e7 b3 3e e0 d8 fe 3c
       -0.8064927 0.12193123 0.3513774 0.031109273
000090 f5 42 a4 bf 07 7d 7a be cb 43 c8 3f e7 c9 bf 3e
       -1.2832934 -0.24461757 1.5645689 0.37458727
0000a0 36 5e 8b be a7 1d 63 bf b1 ba 93 3f 12 f4 0f be
       -0.27220315 -0.8871712 1.1541349 -0.14057949
0000b0 52 47 76 c0 32 f5 a7 3f b9 60 1b bf 96 c9 17 40
       -3.848103 1.3121703 -0.6069446 2.3716788
0000c0 9e 9d f3 bd f5 d2 ca bc 00 46 ce 3f 44 c2 1e 3e
       -0.118952975 -0.024758795 1.6115112 0.15503794
0000d0 7d 13 b1 bf 7e 87 a2 3f 64 11 0d 40 3a 9a ce 3f
       -1.3834072 1.2697599 2.2041864 1.6140816
0000e0 48 92 94 be bc b4 5f 3f cb 45 84 3d 9a b0 8b bd
       -0.29017854 0.87385154 0.064586245 -0.068207934
0000f0 20 3a 1f bf 06 76 da bd b2 36 8a 3e 90 16 d8 bf
       -0.62198067 -0.106670424 0.26994854 -1.6881886
000100 bf 9b 19 c0 d1 b5 3b 40 ca 63 9c 3f 3a 1a fb bf
       -2.400131 2.9329722 1.2217953 -1.9617379
000110 fe a8 1b 3f af ef ba 3f 46 54 00 40 9a 2a bb 3f
       0.60804737 1.4604396 2.0051436 1.4622376
000120 c4 80 62 bf 9d 6b de 3e 20 4f 13 bf d2 b0 92 bf
       -0.8847773 0.43441477 -0.5754261 -1.1460211
000130 b8 d0 13 3f 75 71 33 bf 80 ac 58 bf c6 07 6c c0
       0.57740355 -0.70094997 -0.84638214 -3.6879745
000140 1d 9f 02 c0 f9 0d 23 3f 61 18 5c bf d1 c2 ad 3e
       -2.0409615 0.63693196 -0.859747 0.33937696
000150 14 91 c5 3e df 2d b2 be 92 9b 22 bf 7e 47 a2 bf
       0.38587248 -0.34800622 -0.6351863 -1.2678068
000160 1a 3d 51 3f 58 d0 fb be cf 51 13 c0 b5 7d 50 bf
       0.8173386 -0.4918239 -2.3018682 -0.81441814
000170 49 e6 d5 3e 1f 71 c8 bf 1e 4e cb be 57 4f 41 bf
       0.41777256 -1.5659522 -0.39708036 -0.7551169
000180 a3 60 2f 3d 8e 5f 06 40 9c 2d 63 3f 14 41 cc bc
       0.04281677 2.0995822 0.8874147 -0.024933375
000190 78 32 71 bf 02 9e 8a bc 95 f8 2b c0 81 4a bf bf
       -0.94217634 -0.016921047 -2.6870472 -1.4944612
0001a0 33 03 6e bf 5c e4 ba 3e 6f 18 a1 3f a6 f0 f4 3e
       -0.9297363 0.3650235 1.2585582 0.4783985
0001b0 cc c6 6b 3f 84 1f 31 3e 3a d9 1f 3f a3 38 52 bf
       0.92100215 0.17297179 0.62440836 -0.8211767
0001c0 b0 b6 a4 bf 3a 9b d5 3d 0f aa d2 3e cb d2 a8 bf
       -1.2868252 0.10429998 0.4114537 -1.3189329
0001d0 91 d0 7e bf 2e 82 72 3f 04 4b 37 3e 66 8a db bf
       -0.99537 0.9472989 0.1789971 -1.7151611
0001e0 ab be 32 be 66 8f 87 3e 98 db 46 3e b2 54 cc bf
       -0.17455547 0.26476592 0.19419706 -1.5963347
0001f0 93 63 d0 bf b2 78 4a c0 4e d2 da 3e 4a 01 c3 3f
       -1.6280388 -3.1636167 0.42738575 1.5234768
000200 70 50 d9 bf 53 ce 26 3f 11 d6 84 bf 6a 6c d8 3c
       -1.6977673 0.65158576 -1.0377828 0.026418883
000210 f2 ca e3 bd 55 66 7b 3f 2a 7f 52 bf 51 af bd bf
       -0.11122693 0.9820302 -0.82225287 -1.4819127
000220 bf 82 15 bf b1 b1 a2 c0 1a 8b c1 bf 2c bb 21 c0
       -0.5840263 -5.084191 -1.5120575 -2.527049
000230 44 91 df bf 43 bb 73 3e 6c 1e 6d c0 16 b9 10 bf
       -1.7466207 0.23801903 -3.7049818 -0.5653242
000240 ca 84 8e bf e0 f3 32 bf 51 3d 22 bf 76 d6 de bf
       -1.1134274 -0.69903374 -0.6337481 -1.7409198
000250 c5 e3 f3 bf cf d6 e3 3e c6 6c 4e 3c 7d 28 c5 be
       -1.9053885 0.44499823 0.012599176 -0.38507453
000260 54 1b 24 3e 48 01 f7 3e 26 52 49 bf e9 b7 eb be
       0.1602605 0.48243165 -0.78640974 -0.4603875
000270 b0 05 cd bd b5 76 06 3f cd 66 1e bf d4 9c 27 40
       -0.100108504 0.5252488 -0.6187561 2.618947
000280 eb db b8 3e f4 2f 82 be de e0 07 3f 00 88 bd bf
       0.36105284 -0.2542721 0.53077495 -1.4807129
000290 eb 0c 17 3e a8 78 d5 bf fb 61 b5 bf 4f 32 90 3e
       0.14751022 -1.6677446 -1.4170526 0.28163382
0002a0 47 1c be 3f e3 51 7a bf f7 49 5a bf cd ac cc 3b
       1.485238 -0.977812 -0.8526911 0.0062461854
0002b0 66 ed 1c be 38 9c 2e be f8 cc a3 bf 72 09 ba bf
       -0.15324935 -0.1705178 -1.2796926 -1.4534132
0002c0 9a 70 0a c0 97 fc 8b 3e 6f 4b 7f 3d 39 28 31 3d
       -2.1631227 0.27341148 0.0623278 0.04325125
0002d0 93 92 5d 3f e0 90 c7 3e 7b 10 6b 3f e4 30 e7 3b
       0.8655178 0.38977718 0.9182202 0.0070553888
0002e0 4b 3e f1 be 91 0e 22 3f ac c9 ee 3e ae 28 e0 bf
       -0.47117838 0.63303477 0.46638238 -1.7512414
0002f0 a9 a0 3e bf b2 39 2c 3f bb 50 8f bf 63 94 50 bf
       -0.744639 0.67275536 -1.1196512 -0.8147642
000300 8a 39 b4 be db 0c d9 be a9 a0 cc 3d f9 d1 b2 3d
       -0.3520015 -0.4239262 0.09991581 0.08731455
000310 61 70 60 c0 75 6c a8 3c f1 aa b7 3e ec 09 94 be
       -3.506859 0.020559529 0.35872605 -0.2891382
000320 66 69 5e bf 9f 0d 8f 3d cc 27 c3 3e b9 92 bb 3d
       -0.86879575 0.0698502 0.381163 0.091588445
000330 ae 9d 85 bf a5 16 2b bf 6d bd 32 3f b1 5d 57 bf
       -1.0438745 -0.6683143 0.6982029 -0.84127337
000340 78 3e cf bf 5a d2 1c c0 f6 91 97 bf f8 99 12 3e
       -1.6190939 -2.4503388 -1.1841419 0.14316547
000350 85 10 c3 bf 8c 5f ce 3f fc 48 a1 3f fd e6 bd be
       -1.5239416 1.6122909 1.2600398 -0.37090293
000360 2e ab 19 be 56 93 e9 be 71 d0 ad bf 0d 7e 0a 40
       -0.15006706 -0.4562022 -1.3579236 2.1639435
000370 fb 7b 00 be e3 2b ec 3e 85 df 8c 3d 65 21 e2 bf
       -0.12547295 0.46127233 0.068785705 -1.7666441
000380 d9 48 ed bf 74 c3 e9 be ea c5 82 bf f9 7c ce bf
       -1.8537856 -0.4565693 -1.0216649 -1.6131889
000390 af fa aa be 06 77 59 bf a6 6f 4d 3f 04 65 a0 3e
       -0.3339438 -0.8494724 0.80248487 0.3132707
0003a0 c7 6a 48 bf fb 54 50 3e 05 bc 62 bf 2b ff e5 bf
       -0.7828793 0.20344917 -0.88568145 -1.7968496
0003b0 ae 05 13 3e 16 cc aa 3f 74 d9 b1 3f 3a f8 89 bf
       0.14357635 1.3343532 1.3894486 -1.0778878
0003c0 4b 0f 10 3f 0c 7c a9 bf aa cc 14 c0 91 07 8f be
       0.56273335 -1.3240981 -2.3249917 -0.2793546
0003d0 9b 6c 5c bf 9d 29 5b 3f 68 39 63 3f da b8 2b 40
       -0.8610322 0.8561037 0.8875947 2.6831574
0003e0 c5 c5 0f 3f 15 53 4c be b9 c3 1c be 6c 8b 73 c0
       0.5616115 -0.19953568 -0.15309037 -3.8053846
0003f0 73 25 9e bf b8 d2 b0 bf 2f ae 4a be 23 63 aa bf
       -1.2355179 -1.3814306 -0.19793008 -1.3311504

conv2.bias f4 [16]
000000 a5 07 d8 3d 3e 90 6f bd 93 11 23 3c 22 02 db bd
       0.10548333 -0.05848717 0.0099529205 -0.10693766
000010 60 dd 0f be 72 54 93 3d 4d 48 0b 3d aa bc 30 3e
       -0.14049292 0.07193841 0.0340045 0.1725947
000020 20 cd 5e 3d ef d0 64 bd 66 2e 38 3c d4 65 24 bd
       0.05439484 -0.055863317 0.011241531 -0.040136173
000030 5e d6 a4 3c d1 d7 d2 3c 53 aa 93 bc 3a 54 cd 3c
       0.02012175 0.025737675 -0.018025553 0.025064576

bn11.weight f4 [16]
000000 05 66 87 3f 8e 73 07 40 30 cb be 3f f9 00 0d 40
       1.0578009 2.116428 1.4905758 2.2031844
000010 21 ce 04 40 5a a1 c6 3f 23 c2 f1 3f 35 f5 ed 3f
       2.075081 1.551799 1.8887371 1.8590456
000020 80 a6 1b 40 76 42 b9 3f ec 25 bf 3f 9d 20 86 3f
       2.4320374 1.4473407 1.4933448 1.0478703
000030 aa cb a0 3f 20 6a 10 40 b1 5c 44 3f 8b 37 02 40
       1.2562153 2.2564774 0.76703936 2.03464

bn11.bias f4 [16]
000000 f6 0c ac 3d 58 95 08 bf 01 e4 b0 be fb 78 13 bf
       0.084009096 -0.5335288 -0.34548953 -0.57606477
000010 d4 cf 1f bf a1 be de be aa aa d5 be 11 a1 34 bf
       -0.62426496 -0.43504813 -0.4173177 -0.7055827
000020 7a 35 33 bf 60 3e c3 be cb f1 05 be d5 c7 2c 3e
       -0.70003474 -0.38133526 -0.13080518 0.16873105
000030 45 78 b4 3e 86 4b 21 bf bf ae a8 bc fd b2 c5 be
       0.35248008 -0.63005865 -0.020591138 -0.3861312

bn11.running_mean f4 [16]
000000 6e d4 7a bf 37 50 f2 bf 0b b2 7d bf 61 3e 74 be
       -0.9798039 -1.893073 -0.99099797 -0.2385192
000010 4b 14 e2 bf 7a d9 3d 3e 9f 73 d4 be d3 f7 fd 3e
       -1.7662443 0.18539992 -0.41494462 0.49603137
000020 d9 f4 64 bf 62 c1 06 3e c0 37 a4 bd 12 6b 1f c0
       -0.8943611 0.13159707 -0.08018446 -2.49091
000030 80 5d 9a bf 75 9e 55 bd c6 75 96 3e 66 a6 14 c0
       -1.2059784 -0.05215307 0.2938673 -2.3226562

bn11.running_var f4 [16]
000000 99 2c 9a 3c 63 da 8e 3c 1b a1 aa 3c 6f 9b cf 3c
       0.018820094 0.01743812 0.020828774 0.025342671
000010 fa b6 1b 3d ac d8 b6 3c 4d 17 a4 3c 3a 96 de 3c
       0.038016297 0.022320114 0.020030642 0.027171243
000020 ec ef 0e 3d b6 8c 8c 3c c5 a1 a8 3c 5b a2 a6 3c
       0.034896776 0.01715694 0.02058495 0.020341089
000030 0c fe c5 3c 3f 70 a6 3c 3f f9 56 3c 40 12 19 3d
       0.02416899 0.020317195 0.013120948 0.03737092

bn12.weight f4 [16]
000000 9b 5b 2e 3f 53 ca b2 3f bd de ef 3f aa c3 87 3f
       0.6810853 1.3967994 1.8739849 1.0606587
000010 79 c0 05 40 da 52 95 3f d9 c1 2f 40 9a 15 07 40
       2.0898726 1.1665909 2.7462065 2.1106935
000020 2f 75 17 3f db f8 7d 3f 93 2a 04 40 44 95 04 40
       0.5916318 0.9920785 2.0650985 2.0716105
000030 f1 3d 9c 3f 91 9d 83 3f d4 14 d8 3f 37 fc b8 3f
       1.2206403 1.028246 1.6881356 1.445197

bn12.bias f4 [16]
000000 1a 4e 62 bf ae 47 46 be 76 41 3e bf e2 5c fa bc
       -0.88400424 -0.19363281 -0.74318635 -0.030561868
000010 dc 7f 42 bf 0c cc 37 3e fb e1 73 bf 02 a2 61 bf
       -0.7597635 0.17948931 -0.95266694 -0.8813783
000020 9c 90 4f be 14 60 af be 30 9a 60 bf 43 bb e7 bf
       -0.20270008 -0.3425299 -0.8773527 -1.8104023
000030 9e a9 fe be 3f d2 49 be 92 d2 2e be 2b 90 56 be
       -0.49738783 -0.19709109 -0.17072514 -0.20953433

bn12.running_mean f4 [16]
000000 ba 4e 06 c1 a4 4b 76 c0 66 4c 1f c0 14 c8 5b 40
       -8.39422 -3.8483667 -2.489038 3.4340868
000010 ec b9 c2 c0 ba a6 6f 40 1e 86 bf c0 2f d7 97 40
       -6.0851955 3.7445512 -5.9851217 4.7450175
000020 f1 5e 11 c0 7f e5 85 40 98 ce 83 bf a2 9c d0 40
       -2.2714198 4.1842647 -1.0297422 6.51912
000030 84 e8 27 41 e1 84 95 3f 05 4a 0c 3e c6 3f 33 c0
       10.4942665 1.1681176 0.13700111 -2.8007674

bn12.running_var f4 [16]
000000 b8 c1 89 42 b7 93 de 42 df 07 87 42 8b 4d 11 43
       68.87836 111.288506 67.51537 145.3029
000010 1d ad 0c 43 06 72 15 43 01 09 f4 42 af 85 30 42
       140.67622 149.4454 122.017586 44.13055
000020 5f a5 09 42 19 48 09 43 03 f0 46 42 6f 90 e8 41
       34.411495 137.28163 49.734386 29.070524
000030 09 19 e6 42 f4 24 1d 42 ca 6c 13 43 48 cf a6 42
       115.0489 39.286087 147.42496 83.40485

conv3.weight f4 [32, 16, 3, 3]
000000 04 73 aa bf 38 be 3d 3f de f8 b1 3e 19 56 f2 3e
       -1.331635 0.74118376 0.34760183 0.47331312
000010 63 c3 93 ba dd d4 b1 bf 3c 5a 5f 3f 53 3a 5f bf
       -0.001127344 -1.3893086 0.8724706 -0.8719837
000020 21 ed 23 40 d3 26 d4 3f 8c d0 b9 bf 13 56 47 c0
       2.5613482 1.6574348 -1.4516768 -3.1146286
000030 2d 2b bd bf fb 95 20 3f 05 84 0e 40 37 5c d5 be
       -1.4778801 0.6272885 2.2268078 -0.41671917
000040 31 2e bf bf 47 37 c3 be e2 21 a8 bf 43 20 1c be
       -1.4935971 -0.3812811 -1.313534 -0.15246682
000050 bc 93 47 bf 13 82 68 be c2 be a1 3f a5 78 17 3f
       -0.779598 -0.2270587 1.263634 0.59168464
000060 29 86 0f 3f 55 22 99 3d 0c 63 5f 3f 1b c8 1f 3f
       0.5606409 0.074772514 0.8726051 0.6241471
000070 c1 2b 18 3e 2d 6b 58 3e 48 90 52 bf d2 5b 5b 3e
       0.14860441 0.21134634 -0.82251406 0.21421745
000080 4a e3 34 bf 69 40 40 3e 31 04 54 bf 7c 62 82 3f
       -0.70659316 0.1877457 -0.82818896 1.0186305
000090 19 5e 36 c0 9c 6b 93 bf 55 ec f0 3f e7 25 6c 3d
       -2.8494933 -1.1517215 1.8822123 0.057653334
0000a0 20 ef 7c be ac 24 19 3e 1c bd d7 3d 5b aa 24 c0
       -0.24700594 0.14955395 0.105341166 -2.5728977
0000b0 32 a5 9b be d4 c0 34 3e 70 7c f2 3f ed 63 af 3e
       -0.30399472 0.17651683 1.8944225 0.34255925
0000c0 d3 4b 6f be fe d7 a7 be d7 cf 82 3f fe bf 68 3f
       -0.23368768 -0.32781976 1.0219678 0.90917957
0000d0 13 42 c4 3f 5d 69 ab 3f 2c af 12 3f 17 5c ad 3e
       1.5332664 1.3391529 0.5729854 0.3385932
0000e0 a3 62 25 c0 68 6d 7f bf 8d 15 0a c0 ab fd 1f bf
       -2.5841453 -0.99776316 -2.1575654 -0.6249644
0000f0 77 e7 15 bf d7 99 16 bf 7f bd 2f bf aa f4 08 40
       -0.5855631 -0.5882849 -0.68648523 2.139933
000100 70 52 8a 3f 00 dc c8 3d c0 73 1c 40 60 c8 7e 3f
       1.0806408 0.09807587 2.4445648 0.995245
000110 de f2 0b bf ea 48 21 40 54 16 10 3f 5e e5 9e bf
       -0.5466746 2.5200753 0.5628407 -1.2413747
000120 c5 2c f3 3d 42 30 67 3f f5 de 13 bf 78 e4 f4 3d
       0.118737735 0.9030801 -0.5776208 0.119576395
000130 21 8a a1 be dd ef 67 3e 62 6c 76 3f 02 90 99 3e
       -0.31550696 0.22650094 0.9625913 0.29992682
000140 3c 2f 8e be 84 a0 9b 3f 12 da 1c 3e ac fb 9f be
       -0.27770412 1.215836 0.15317562 -0.31246698
000150 5e 12 9f be 0d 52 cb be f2 36 b0 bd 9d 9a 65 3f
       -0.310687 -0.39711037 -0.0860423 0.89689046
000160 ba 8c 8a 3d 57 89 f9 3f 29 a4 c2 3f 03 ea 3d 3f
       0.06765123 1.9495038 1.5206348 0.741852
000170 48 02 81 bf b5 f7 4e 40 e0 0d 94 bf 45 dc ed bf
       -1.0078821 3.2338688 -1.1566734 -1.8582846
000180 b6 b8 09 40 82 1f df 3f 3c 98 87 bf 12 7d 42 3f
       2.1518989 1.743149 -1.0593333 0.7597209
000190 ea 8f bc 3f 01 0c 78 3f c6 9e ac bf 8b f4 32 c0
       1.4731419 0.96893317 -1.3485954 -2.7961757
0001a0 07 83 a2 c0 41 77 a6 bf be 7c 82 bf a8 70 16 c0
       -5.0784945 -1.3005143 -1.0194318 -2.350626
0001b0 7b 68 8c 3f ae fb bc bf 30 3a 15 be 53 1d 8c be
       1.0969385 -1.4764307 -0.14572978 -0.27366123
0001c0 7e 4b 50 3e 11 25 d5 be 37 4f d7 3d cc ff 3f bf
       0.20341298 -0.41629842 0.10513156 -0.7499969
0001d0 1a 03 a0 3f 28 5e 22 3c fe 55 2a bf b7 f9 cc 3e
       1.2500947 0.009910144 -0.66537464 0.40034267
0001e0 40 31 a2 bf 0e fb b0 3f af d9 81 bf 72 4b a9 3f
       -1.267128 1.3826616 -1.0144557 1.3226149
0001f0 ce b5 3c bf 5f 4f 90 bc 4d 8c 07 bf bf f6 64 3f
       -0.7371491 -0.017615972 -0.52948457 0.89439005
000200 17 ac 1a 40 7b 98 63 bf 14 77 76 bf b2 dd 02 40
       2.4167535 -0.8890454 -0.9627545 2.0447812
000210 90 43 6b 3f 48 a6 7a 3f 24 fb ec 3f fd ca 04 bf
       0.9189997 0.97909975 1.8514142 -0.51872236
000220 8a f0 84 3f 07 e0 4d 3f a4 43 62 3f be 50 ce be
       1.0385907 0.80419964 0.8838446 -0.40295976
000230 10 59 48 3e 02 19 2e 3e 62 f3 de bf bd 79 dc 3f
       0.19565225 0.17001727 -1.7418025 1.7224652
000240 ac af 25 bf c0 2a 8c 3f 19 c9 15 bf 13 a6 56 bf
       -0.6472118 1.0950546 -0.58509976 -0.8384716
000250 ee 68 22 bf 19 a4 f0 3e 9d 0f b4 bd 9c 5f a6 bd
       -0.6344136 0.47000197 -0.087920405 -0.08123705
000260 4c 8f 6d be 38 42 a7 bf f2 1c 4a bf b5 2b bd 3f
       -0.23199195 -1.3067083 -0.7895042 1.4778963
000270 ab ab 03 bf e8 3b 11 bf 75 29 4c be cc 27 ed 3e
       -0.5143382 -0.56732035 -0.1993769 0.46319425
000280 73 4e b0 3e c2 4d 88 be 1f 16 3f be 2c 93 30 3f
       0.34434852 -0.26621825 -0.18660782 0.68974566
000290 e2 ff 3a 3e cd 4d 5b 3f 96 4d f0 3d 2f b9 a3 3e
       0.18261674 0.8566559 0.11733548 0.3197722
0002a0 6e bf cf be 07 fe 4e 3f 1c bf 10 3e 06 1d dc be
       -0.40575737 0.80856365 0.14135402 -0.42990893
0002b0 50 01 27 bf 46 a5 55 bf 61 8b a0 bd 42 e1 4b 3f
       -0.6523638 -0.8345531 -0.078390844 0.7964059
0002c0 61 dd 20 bf 74 37 9e be d2 46 38 3d e8 b0 04 bf
       -0.628378 -0.30901682 0.044989415 -0.5183244
0002d0 fe 1b 63 3f f8 86 4c 3e 67 ba cf 3f ab 4e 28 bf
       0.8871459 0.19973361 1.622876 -0.6574504
0002e0 44 10 a7 3d 3e c8 da be 78 08 41 3f 8a ec 45 be
       0.08157399 -0.42730898 0.7540355 -0.19328514
0002f0 7d c9 22 3f 93 03 c8 3d 55 01 d6 3f ad 78 19 3f
       0.63588697 0.09766307 1.6719157 0.5994976
000300 2d bf ef 3f 7c 78 4c 40 a9 54 d9 bf de 31 5a 3e
       1.8730217 3.1948538 -1.6978961 0.21308085
000310 f6 0e 33 bf 88 e6 1d bf ea b4 90 bf 95 0c f6 c0
       -0.69944704 -0.6167989 -1.130521 -7.689036
000320 11 39 a9 be 52 b3 90 bf fd fd 4d bf 1d 84 7f 3e
       -0.3305135 -1.1304724 -0.8046568 0.24952741
000330 1e 70 08 bf ee e0 3a 3f 80 47 31 bf b8 42 81 3f
       -0.5329608 0.72999465 -0.69249725 1.0098486
000340 06 50 08 41 4b 60 ad 3f fa 1a 95 3e 6c 27 54 40
       8.519537 1.3545011 0.29122144 3.3149061
000350 0a bf 21 3f cf e4 59 3e c2 7c 7c 3d 87 58 48 be
       0.6318213 0.2127869 0.061642416 -0.1956502
000360 f6 2e a0 bf 1c 67 c1 be 1a 64 58 be c5 05 d1 3d
       -1.2514331 -0.3777398 -0.21131936 0.102061786
000370 70 45 fd 3e c1 ab 5f bf 76 1b 15 3e 7c 2e cb bd
       0.4946704 -0.8737145 0.14561257 -0.099209756
000380 cd 9f c1 3d e5 ef 3e bf 8e 6a d6 bf 00 94 9b 3e
       0.09454308 -0.745848 -1.6751268 0.30386353
000390 db d5 04 c0 32 e4 3a 3f a6 89 5d 3e 5b 6d a3 be
       -2.0755527 0.7300445 0.2163454 -0.3191937
0003a0 ad c5 da bf be 6e 4e 3f 8e 03 96 bf 42 47 2b 3f
       -1.7091576 0.8063773 -1.1719835 0.66905606
0003b0 eb dc 59 bf 49 34 97 bf f3 de de bd 97 15 61 bf
       -0.8510272 -1.1812831 -0.10882368 -0.8792357
0003c0 9b 3d 0c bf db 8a ab bf 19 27 bc bf 3e 08 5b c0
       -0.547815 -1.340175 -1.4699432 -3.422378
0003d0 61 70 b6 c0 bc b5 f1 bf 6d ff 08 c0 4d 52 aa c0
       -5.701218 -1.8883586 -2.14059 -5.3225465
0003e0 d6 d3 47 bf 88 7c ac bf 84 b9 87 bf 6b f9 e3 3e
       -0.7805761 -1.3475504 -1.060349 0.44526228
0003f0 d8 40 8d 3e 15 2a 0b bf cf fc ae be 73 18 ee be
       0.27588534 -0.5436109 -0.34177253 -0.46503028

conv3.bias f4 [32]
000000 ff d3 79 bb 2b 36 95 bd 20 f4 b3 3d 06 e2 71 3d
       -0.0038120744 -0.07285722 0.087867975 0.059053443
000010 fb c7 13 bd c9 c8 9c 3c d1 94 5e 3c 50 71 7c bd
       -0.036079388 0.01913871 0.013585285 -0.0616315
000020 21 03 56 3d 00 c5 a2 bd 7b 07 8e bd bd e6 68 3c
       0.052249078 -0.07947731 -0.069350205 0.014215169
000030 4d 57 a1 bd f9 92 82 bd dd 10 21 bc bb b4 4e bd
       -0.078779794 -0.06375689 -0.009830681 -0.050465327
000040 95 d7 46 3d 81 57 86 3c 5c 28 56 bd e0 90 81 bd
       0.04854544 0.016399147 -0.052284583 -0.06326461
000050 a4 8c 91 bc 9f 6d c7 bc e6 33 be bc 9f a3 5a 3d
       -0.017767258 -0.024344264 -0.023218106 0.053378697
000060 66 d2 8d bb 69 f2 3d 3d a9 88 47 bd 0d c6 e7 3c
       -0.00432806 0.04637376 -0.048714314 0.02829268
000070 9b c9 ba 3d d3 10 01 3d ae 8b af bd 21 1b 0f bd
       0.091204844 0.031510185 -0.08571564 -0.03493798

conv4.weight f4 [32, 32, 3, 3]
000000 dc 41 1b 40 d7 c7 61 3f ef fc 35 be c6 ad 1b 40
       2.4258947 0.88195556 -0.17772268 2.4324813
000010 8e 46 2a 3f b0 43 2e 40 68 6e a8 3f b4 58 20 3e
       0.6651391 2.7228813 1.3158693 0.15658838
000020 f3 14 97 3f 3b 34 fd 3e 6c 3f 9a 3f d6 ee b6 be
       1.1803268 0.4945391 1.2050605 -0.35729092
000030 ee b7 d1 3f d5 e9 1d 40 71 fb 4b 40 25 5b 16 3f
       1.6384256 2.467397 3.1872218 0.58732826
000040 ca 12 03 bf c3 3b 52 3f db 2d e4 bf 13 c6 26 c0
       -0.51200545 0.8212244 -1.7826494 -2.6058395
000050 33 22 0d 3f f7 49 58 bf 53 e2 32 c0 2b 18 51 bf
       0.5513031 -0.8448786 -2.7950637 -0.816775
000060 d1 02 47 3f a0 be 05 c0 7d ec 1b bf 33 db a2 3e
       0.7773867 -2.0897598 -0.6090773 0.3180786
000070 e6 d7 62 40 98 e5 23 3f 77 7d 95 bf 83 3f 95 3f
       3.5444274 0.6402221 -1.1678914 1.1660007
000080 43 96 11 3f 50 96 34 3e 3c 47 e6 3f 7f 67 12 40
       0.56869906 0.17635465 1.7990489 2.287567
000090 c2 01 1e bf 0f 69 19 bf fc aa 85 bc bc 08 87 3d
       -0.6172143 -0.5992593 -0.016316883 0.06593463
0000a0 19 4c cb bf 37 db 87 3f 36 03 e1 be e4 ba c3 be
       -1.5882598 1.0613774 -0.43947762 -0.38228524
0000b0 e0 7d ee be a4 e5 01 3f d2 75 14 40 99 b9 b5 be
       -0.4658041 0.5074103 2.3196912 -0.35493162
0000c0 f9 f9 56 3f 67 bb 2b bf 13 ed 4e bf 4c 4b 04 3f
       0.8397518 -0.6708283 -0.80830497 0.51677394
0000d0 d5 04 9c 3e db 25 3c bf be 10 a3 bf 41 f8 0c bf
       0.30472437 -0.7349526 -1.2739484 -0.55066305
0000e0 05 8b 6f 3f 36 8d 65 3f 30 8e 8f 3e eb 6e 55 3f
       0.935715 0.89668596 0.28038168 0.8337237
0000f0 5f 23 d5 bf 3c 34 db be 9b 88 fe 3e 1c 25 d6 3e
       -1.6651419 -0.4281329 0.49713597 0.41825187
000100 88 93 82 bf 3a d9 cd bf d2 21 8c ba 1f 91 7f 3f
       -1.0201273 -1.6081917 -0.0010691232 0.9983081
000110 30 cc ae bf 09 09 b1 bf 3f 29 83 bf 63 45 dc bf
       -1.3656063 -1.3830882 -1.0246962 -1.7208675
000120 3a 48 33 bf 04 fa 5a 3f 60 b9 f1 be 32 5d 23 3f
       -0.70032084 0.85537744 -0.47211742 0.6381408
000130 8a e7 f5 bf 58 44 10 bf 22 4b 82 3e 80 8c 85 bf
       -1.9211285 -0.56354284 0.25447947 -1.0433502
000140 4b 43 8c bf 8e 79 e8 3f c8 fe ae 3f 0b 6f f0 bf
       -1.0958036 1.8162096 1.3671503 -1.8783888
000150 e0 b4 57 bf 20 04 85 3f 90 1b 5a 3b 96 13 ec be
       -0.8426037 1.0391884 0.0033280589 -0.46108693
000160 25 39 39 bf b2 52 1e 3f 76 88 6b 3f c1 7a 90 3f
       -0.7235282 0.61844933 0.920051 1.1287462
000170 ff b6 88 be 31 97 54 bd ba e7 3c 3f a5 44 98 3f
       -0.26702115 -0.051902 0.73791087 1.1895949
000180 f1 02 f0 3e 65 46 65 bf 05 c7 34 bf 81 dc 2f c0
       0.46877244 -0.8956054 -0.7061618 -2.7478335
000190 55 a2 aa 3d 2b e4 86 3e 06 7b 97 3f 21 61 f9 bd
       0.08331744 0.26345953 1.1834419 -0.12176729
0001a0 9c d6 63 be 5e b7 2c bd 72 4e 79 be 60 2c f7 be
       -0.22249836 -0.04216706 -0.24346331 -0.48276043
0001b0 7f ec 50 bf 1f 91 f6 be 64 de ca 3e 55 a6 06 bf
       -0.81610864 -0.48157594 0.39622796 -0.5259755
0001c0 ca bd b0 bf 54 63 2c bf c6 4d 48 bf 22 a6 13 c0
       -1.3807919 -0.6733906 -0.7824367 -2.307015
0001d0 38 c4 dc 3f 20 59 27 bf 94 57 22 c0 73 66 c7 3e
       1.7247381 -0.6537037 -2.5365953 0.3894535
0001e0 af 3a ae 3f 9d 92 6e bf 89 33 88 bf 41 31 02 c0
       1.3611659 -0.93192464 -1.0640727 -2.0342562
0001f0 f1 ed 1d 3f 5a 10 ab bf c2 43 d5 3f 64 aa 1f 3e
       0.61691195 -1.3364365 1.6661303 0.15592343
000200 1d ba 46 bf 60 80 93 3f bd 7d 89 3f e7 fc 0d c0
       -0.77627736 1.1523552 1.0741497 -2.218561
000210 c1 0e 52 3f 3a 8a ed 3c 3c 07 b1 bf b2 ef 57 3f
       0.8205376 0.028996576 -1.3830333 0.8435012
000220 5c c2 9b 3f 92 05 c7 3f 4a 01 0b bf 0b 21 f0 3f
       1.2168689 1.5548575 -0.5429884 1.8760084
000230 ec 1d b7 3e 43 49 f8 bf d8 19 3b 40 58 5d 73 be
       0.35765016 -1.9397358 2.9234524 -0.23766077
000240 1d d9 b7 3f 2c c1 93 bf 10 5a b4 3f 15 82 ce bf
       1.4363133 -1.1543326 1.4089985 -1.6133448
000250 fc 6c 66 bc 5c 6f 41 be f2 29 02 40 84 b2 03 3d
       -0.01406407 -0.18890136 2.0338101 0.032152668
000260 59 9e 8a 3f 79 fa 09 c0 00 a5 a2 bf e7 e1 06 3f
       1.0829574 -2.1559126 -1.2706604 0.5268845
000270 be 90 d4 3e 06 1d 2c bf 1e 7a 07 c0 57 2f 20 c0
       0.4151668 -0.67231786 -2.1168284 -2.5028894
000280 f9 93 98 bf 79 b6 0c 3f 1b e3 a8 3c 40 2a a1 bf
       -1.1920158 0.5496593 0.020616105 -1.2591019
000290 2b a9 b4 bf 34 4e dd bf 83 96 b4 3d 49 94 20 bf
       -1.4114126 -1.7289491 0.0881777 -0.62726265
0002a0 42 32 08 c0 c2 a6 6c bf 16 21 a6 bf 89 2a 7b be
       -2.1280675 -0.9244195 -1.2978847 -0.24527945
0002b0 e8 30 6e bf 7e 3a fa be 68 28 d9 3f 15 8b d8 3e
       -0.93043375 -0.4887275 1.6965456 0.4229361
0002c0 61 30 18 3f 4c 2f 91 3e 70 33 89 bf e1 99 03 3f
       0.5944882 0.28356397 -1.0718822 0.51406676
0002d0 18 0c 6d 3f d3 ee 08 40 d0 aa a9 3f 36 d1 87 be
       0.9259658 2.1395767 1.3255253 -0.26526803
0002e0 fd 19 7d 3f 86 cc ba 3f 9c c7 36 3f 6e 0d f8 3f
       0.9886778 1.4593666 0.7139833 1.9379098
0002f0 33 ec 81 3f 8b 09 af 3f f7 b9 26 3f 35 58 18 40
       1.0150207 1.3674787 0.6512751 2.3803837
000300 62 63 26 bf 31 04 97 3f 9e 06 14 3f 2a 95 88 3f
       -0.64995396 1.1798154 0.578226 1.0670521
000310 b9 48 88 bf d0 c7 a9 3f a9 71 4b bf c7 81 16 3d
       -1.0647193 1.3264103 -0.79470307 0.03674486
000320 a1 ee 50 bb 1d f5 82 bf 72 db 7e bf 63 e8 f5 bf
       -0.0031880515 -1.0231053 -0.99553597 -1.9211544
000330 7c dc 07 bd 1e 72 eb bd 3a 30 b6 3e cb 06 83 3d
       -0.033169255 -0.114963755 0.3558367 0.0639778
000340 0c 53 8a 3d 90 0c d3 3e c2 36 82 3f 8f d3 a6 be
       0.06754121 0.41220522 1.0172961 -0.3258328
000350 4c 79 7b 3f a5 76 90 3f 91 47 34 3f af 57 be 3e
       0.9823196 1.1286207 0.704217 0.37176272
000360 2d 32 bd 3e 4e 0f 25 bf 3d 70 5b bf 87 01 9c bf
       0.36952344 -0.6447648 -0.8571814 -1.2187966
000370 7b 0b c4 3f 0f 9f 19 3f 72 fe 4d bf d6 2a 96 bf
       1.5316004 0.6000833 -0.8046638 -1.1731822
000380 61 97 d9 be 64 08 d3 bf da 94 c1 bb 3a 05 0d 3f
       -0.42498305 -1.6486936 -0.005907637 0.550861
000390 af 10 5a 3e 3a f5 4d bf ae c1 46 3f af fa 9d bd
       0.21295427 -0.8045231 0.7763928 -0.0771383
0003a0 bd cd 81 c0 5c 6b b3 bf dc 86 43 bf ea 18 a8 3f
       -4.0563645 -1.4017138 -0.76377654 1.3132603
0003b0 59 1e 83 bf 3a 56 28 3c e4 af ef be 2e cf 85 bf
       -1.0243636 0.010274464 -0.4681388 -1.0453851
0003c0 a2 70 48 bf c5 c6 3a be c7 42 94 3f 07 af da bf
       -0.78296864 -0.18239887 1.1582879 -1.7084664
0003d0 a0 d1 25 c0 7c 2a bf bf fe 9d ee be 99 54 78 bf
       -2.5909195 -1.493484 -0.46604913 -0.97004086
0003e0 10 c5 85 3f 36 f0 81 bd 16 ae d3 bf c3 33 ef bf
       1.0450764 -0.06344645 -1.6537502 -1.8687671
0003f0 c4 8b 35 c0 a5 b2 08 40 a7 41 73 3e 5d 15 3c 3f
       -2.8366556 2.1359036 0.23755513 0.734701

conv4.bias f4 [32]
000000 24 dc 08 bc ad 49 09 3c 2a b8 53 bd 13 3a e5 bc
       -0.008353267 0.008379382 -0.051689304 -0.027981794
000010 87 d1 3e 3c 46 d1 83 bd b4 95 d3 3c 27 6a 4a bd
       0.011646635 -0.064364 0.02582822 -0.04941764
000020 6c f4 fe 3c 6b 0c 64 3d 96 96 71 bc 6d e1 31 bc
       0.031122409 0.055675905 -0.014745375 -0.010856968
000030 65 31 0e 3d 6c 24 3a bd cf ab 29 bd 32 ab 44 bd
       0.034715075 -0.04544489 -0.041423615 -0.048014827
000040 68 c3 54 bd 54 6a 4b 3c 7c 00 32 3d 85 12 cc bc
       -0.051944166 0.012415487 0.043457493 -0.024911175
000050 88 c0 94 3d 02 f6 f2 3b 9d 65 f1 3a 27 43 b5 3c
       0.07263285 0.0074145803 0.0018417124 0.022126747
000060 94 ce e8 bc c9 58 a4 39 8f 5a f1 bb 41 1a 74 bd
       -0.028418817 0.00031346668 -0.0073655318 -0.05959535
000070 0d 8b 48 3d c3 10 95 bd b0 c8 69 bd 17 3e 07 3d
       0.048960734 -0.07278588 -0.057076156 0.033018198

bn21.weight f4 [32]
000000 6a 5b 76 3f 31 2d de 3f 9d fe 87 3f 8c f3 5e 3f
       0.96233237 1.7357541 1.0624577 0.87090373
000010 5e 02 a0 3f f6 a0 81 3f a0 55 94 3f 94 26 74 3f
       1.2500722 1.0127246 1.1588631 0.95371366
000020 b3 52 69 3f 94 b9 82 3f ec 2d 81 3f e3 d4 2b 3f
       0.91141814 1.0212884 1.0092139 0.67121714
000030 cc da 86 3f 6d 8e 87 3f 69 f1 87 3f 0c e3 69 3f
       1.0535522 1.059034 1.0620548 0.9136207
000040 b3 ee a6 3f 47 5a ea 3e ff 2f ab 3f 92 52 94 3f
       1.3041595 0.45772 1.3374022 1.1587698
000050 1b 9e 56 3f 2a 2e 96 3f b6 31 95 3f 27 5d 57 3f
       0.83835 1.1732838 1.1655796 0.84126514
000060 a2 b5 92 3f 4d 46 99 3f f7 c1 9a 3f 8e 5b 9e 3f
       1.146168 1.1974579 1.2090443 1.237169
000070 b4 96 4e 3f 01 61 5e 3f 90 fc 8f 3f c3 1b d7 3f
       0.80698705 0.86866766 1.1248951 1.6805347

bn21.bias f4 [32]
000000 e5 e9 b7 bf 2b 09 d8 bf 78 a2 a7 bf 2e 2b 01 c0
       -1.4368254 -1.6877798 -1.3096457 -2.0182605
000010 c3 57 1a c0 56 e2 cf bf b7 bd 19 bf f1 43 25 bf
       -2.4116066 -1.6240947 -0.60055107 -0.64556795
000020 23 21 01 be c8 a2 80 bf be 41 9d bf 01 d9 8c 3e
       -0.12610297 -1.0049677 -1.2285688 0.2750931
000030 4b d5 20 be 36 4a 7d bf a5 88 83 bf 78 ab 1b c0
       -0.15706365 -0.9894136 -1.0276076 -2.4323406
000040 37 65 da be 8e e8 05 3f 10 b9 89 bf 6d 26 b8 bf
       -0.42655346 0.52307975 -1.0759602 -1.4386727
000050 3c fc 12 c0 ff 7f 65 bf e7 23 52 3e 36 ee 27 bf
       -2.2966452 -0.8964843 0.20521508 -0.65597856
000060 7e e2 78 bf a6 2b 7a bf 7f a2 11 bf e7 d2 6e bf
       -0.972206 -0.9772285 -0.56888574 -0.9329056
000070 10 c3 8c bd f5 57 0c c0 d1 77 35 bd 70 7b 64 bf
       -0.06873143 -2.1928685 -0.04430372 -0.8925085

bn21.running_mean f4 [32]
000000 9f 34 18 41 0c aa 4b 3f 4c fa a9 40 a1 ef 8f 41
       9.512847 0.79556346 5.311804 17.992006
000010 3f 83 6a 41 a2 07 23 40 13 5e ad 3f cb dc 44 40
       14.6570425 2.5473409 1.3544334 3.0759761
000020 a8 95 cd c0 fc 6f 93 40 b8 5a 8b 41 c3 f3 bf c1
       -6.4245186 4.60742 17.419296 -23.994024
000030 00 d4 1f c1 09 95 52 41 bc 00 a8 40 2d 7f 50 41
       -9.989258 13.161386 5.2500896 13.031049
000040 7b 0e 42 bf 07 3c a6 c1 37 36 e6 c0 4f 14 93 40
       -0.75803345 -20.77931 -7.194118 4.596229
000050 a8 a1 87 41 11 0d 0f c0 4b 49 87 c0 ad af 93 40
       16.953934 -2.2351725 -4.227697 4.615195
000060 78 b2 e5 be d1 39 78 c0 1f 4d 47 bf f9 bd c7 40
       -0.44862723 -3.8785288 -0.7785205 6.24194
000070 db b7 a5 c1 54 24 ae 41 de 5b ce be 1c 4f 54 c1
       -20.714773 21.767738 -0.40304464 -13.269314

bn21.running_var f4 [32]
000000 f3 77 2b 42 8f ab 3a 42 ff 50 37 42 bc 84 cc 42
       42.867138 46.667538 45.829098 102.25925
000010 fa a6 a3 42 fc 51 f0 41 67 95 7a 42 30 13 e3 41
       81.826126 30.040031 62.6459 28.384369
000020 fe 31 3c 42 bf af 0a 42 fb 9a 6a 42 ce 73 60 43
       47.04882 34.671627 58.65135 224.45236
000030 3e 0f a7 42 f2 79 32 42 2e 77 0d 42 4c d3 7b 42
       83.52977 44.619087 35.366386 62.956345
000040 27 91 5a 42 21 fc 1f 43 cc b8 3a 42 5d d8 59 42
       54.64175 159.98488 46.680466 54.461292
000050 1e 60 a8 42 ea c0 33 42 30 b3 1a 42 c6 91 0c 42
       84.18773 44.938393 38.674988 35.142357
000060 77 37 02 42 16 b1 12 42 03 bb 39 42 b3 ba 60 42
       32.554165 36.672935 46.43263 56.182323
000070 d6 72 60 43 2c 4f d3 42 81 cf 23 42 2a 8c 5f 42
       224.44858 105.65463 40.95264 55.88688

bn22.weight f4 [32]
000000 71 69 6d 3f 3d df 0d 3f 77 4e 1b 3f d6 a4 7d 3f
       0.92739016 0.5541876 0.606666 0.99079645
000010 9f 34 57 3f 98 94 36 3f 52 15 05 3f 6f 8f 4b 3f
       0.8406467 0.71320486 0.5198566 0.7951574
000020 e3 d4 9e 3f 8c 4f 25 3f 54 6c 8a 3f f2 c1 17 3f
       1.2408718 0.64574504 1.0814309 0.5928031
000030 98 6c 46 3f 27 12 79 3f 61 32 23 3f ca ba 67 3f
       0.7750945 0.97293323 0.6374875 0.9051939
000040 4e ce 0e 3f ff 06 4d 3f d9 11 4e 3f 7d ec 49 3f
       0.55783546 0.800888 0.80495983 0.7887648
000050 24 7f 43 3f 96 a4 8b 3f 3c cf 49 3f e9 b3 0a 3f
       0.76365876 1.0909603 0.7883184 0.5418077
000060 66 6d 51 3f 73 f6 0f 3f 14 a0 0d 3f c5 53 50 3f
       0.81807554 0.56235427 0.55322385 0.8137782
000070 14 a5 62 3f f4 4f 86 3f e4 ff 0c 3f 27 53 41 3f
       0.8853314 1.049315 0.5507796 0.75517505

bn22.bias f4 [32]
000000 ae 3c 5f bf 54 d8 9d c0 0d 35 3d c0 1a e3 f8 bf
       -0.87201965 -4.9326572 -2.956363 -1.9444306
000010 69 e5 e0 bf 8f 80 82 bf c6 85 99 c0 6f 14 8b 3d
       -1.757001 -1.0195483 -4.79758 0.06791007
000020 07 55 b7 bf 70 47 3e c0 67 ba f3 bf 3d b2 b2 c0
       -1.4322823 -2.9731102 -1.904126 -5.5842576
000030 c6 b0 6f be 2f c4 0a c0 82 92 37 3d 83 4f 52 bf
       -0.23407277 -2.168224 0.044817455 -0.82152575
000040 d9 01 ab c0 42 6b 99 bd ac a3 79 bb eb c7 ea 3d
       -5.3439755 -0.07491161 -0.003809194 0.114639126
000050 0a c0 56 bf 5e d8 fb bf 55 0a 8e bf fb 4c a9 c0
       -0.8388678 -1.9675405 -1.1096903 -5.290647
000060 00 4c 9b be 5b f5 40 c0 5c 1c a7 c0 7b 54 0f bf
       -0.3033142 -3.0149753 -5.222212 -0.5598828
000070 51 9b b8 3e bf 3c fb bf db c7 a1 c0 74 cd a2 bc
       0.36055997 -1.9627913 -5.0556464 -0.019873358

bn22.running_mean f4 [32]
000000 f8 05 70 c1 2f ab 03 41 8a 9c 32 41 5a 31 29 bf
       -15.001457 8.229293 11.163218 -0.6609093
000010 83 10 d5 c0 07 53 f8 bf bb c5 b6 40 79 3b 4c c1
       -6.6582656 -1.9400338 5.711637 -12.76452
000020 35 1b 3a c0 82 d4 7c 40 76 14 7f 41 ab 8d 84 40
       -2.9079106 3.9504704 15.942495 4.1422935
000030 80 fe 36 c1 f3 1f 82 40 36 31 57 c1 49 22 cd 40
       -11.437134 4.0664 -13.449514 6.410435
000040 3c 55 65 40 ee 2c 4d c1 71 eb a3 c0 a5 98 3a 40
       3.5833273 -12.823469 -5.1224904 2.9155667
000050 9b ec f3 40 86 2e 3e c1 8e 89 3d 41 52 8d 75 40
       7.6226325 -11.886358 11.846083 3.8367505
000060 63 04 c1 c0 51 d0 5a bf 2c 3a 48 40 d8 27 75 3f
       -6.0317855 -0.85474116 3.1285505 0.9576392
000070 ec 0a 42 c1 56 5b df c0 18 a4 cd 40 51 1f a1 3f
       -12.127666 -6.9798994 6.426281 1.2587682

bn22.running_var f4 [32]
000000 d9 81 b7 42 1e df 38 42 21 4f ad 42 ee 18 9e 42
       91.75361 46.217888 86.65455 79.04869
000010 fb f1 d8 42 a4 ed 88 42 92 fd 6f 42 d9 b3 05 43
       108.47262 68.46414 59.997627 133.70253
000020 6e ab f8 42 59 80 e9 42 6c 0e 56 43 15 91 42 42
       124.33482 116.75068 214.05634 48.64168
000030 3a 8f c8 42 6d 95 a8 42 ca 57 e6 42 f0 79 d2 42
       100.27974 84.29185 115.17146 105.23816
000040 37 be 39 42 d9 6d e0 42 5a f4 04 43 cf dd aa 43
       46.435757 112.21455 132.9545 341.73288
000050 ba d5 ee 42 74 4a 87 42 e0 89 8f 42 9c 02 45 42
       119.417435 67.64542 71.76929 49.25255
000060 55 5b f8 42 36 05 d6 42 e1 33 46 42 f7 94 ec 42
       124.17838 107.01018 49.550663 118.29095
000070 d3 2f 6e 43 41 af 79 42 c2 78 57 42 9e 94 bb 42
       238.18681 62.421146 53.867928 93.79027

conv5.weight f4 [64, 32, 3, 3]
000000 72 68 30 3e 0c ef 60 3e 24 3d 22 bf f4 ce 6f bf
       0.17227343 0.21966189 -0.63374543 -0.9367516
000010 c2 14 3f 3c 36 90 9a bf 9f 90 3d 3f d1 a4 4d bf
       0.011662664 -1.207526 0.740488 -0.80329615
000020 ca 04 b4 bf 13 79 1d bf 37 f5 66 bf 96 1b 91 3d
       -1.4063962 -0.6151287 -0.9021792 0.0708534
000030 9c 8a 00 3f 6e 3d 62 41 4a bb 15 bf 35 b2 fc be
       0.502115 14.1399975 -0.58488905 -0.4935471
000040 c7 ce 66 3e 36 27 a2 3d e8 79 27 c0 e8 64 b9 bf
       0.22539817 0.07917635 -2.6168156 -1.4483919
000050 66 52 2c bf 46 2b 2a 3f 97 1e ad 40 6e c5 bb bf
       -0.6731323 0.6647228 5.409984 -1.4669626
000060 0b 7e b8 3d 74 78 63 3e 21 84 bb 3e a1 6c 09 c0
       0.09008416 0.22213918 0.36624244 -2.1472552
000070 ef 82 80 3d e7 70 17 3e cc 1d 45 be e2 3a ce 3e
       0.062749736 0.14789163 -0.19249648 0.402793
000080 39 53 44 bf 76 9c 3a be 0e ec 83 bf e9 d6 cf be
       -0.7668949 -0.18223748 -1.0306413 -0.4059365
000090 fd d3 32 3f ed d4 a5 3e 25 20 d5 3d df 9a 5b 3f
       0.6985472 0.32389012 0.10406522 0.8578319
0000a0 ba eb 9f bf df 44 72 be fb 47 90 3f a9 ee e9 bf
       -1.2493813 -0.23659085 1.1271967 -1.8275958
0000b0 fa 67 79 be 65 a2 cd 3e 4a 37 61 be f8 2f 41 3e
       -0.2435607 0.4016296 -0.21993747 0.18865955
0000c0 7b b7 28 bf 13 98 a4 3d cb cd 59 bf 14 82 60 3f
       -0.6590497 0.08036818 -0.8507964 0.87698483
0000d0 e9 45 d8 3e b1 0f 7f 3e 36 76 50 bd 58 44 7e 3e
       0.42240837 0.2490833 -0.050893985 0.24830759
0000e0 8a e6 e8 3e c8 40 fe 3e ba 5f 70 41 3f 02 87 be
       0.45488387 0.496588 15.023371 -0.263689
0000f0 1e 54 79 be 20 91 1a bf 7e 37 12 bf 21 aa 2f 3f
       -0.24348494 -0.60377693 -0.57115924 0.6861897
000100 35 fd 94 3e 1c 93 0b 3f 93 a2 dc bd 22 dc 06 3f
       0.29099432 0.54521346 -0.10773196 0.52679646
000110 9c 2d c2 be e0 f9 93 3f b6 d2 dc be 25 17 1e 3e
       -0.37925422 1.1560631 -0.4312951 0.15438516
000120 92 33 eb bc df da 3f bf dd 81 1b 3f 4a 75 4a bf
       -0.028711114 -0.74943346 0.6074503 -0.7908522
000130 21 09 80 3e de 4b a3 3f bc 7e ad be 0b 9f a1 bf
       0.25006965 1.2757528 -0.33885753 -1.2626661
000140 21 11 6b 3f 72 0e 0c bf 98 e0 6f bf e9 f1 ad bf
       0.9182301 -0.5470954 -0.9370208 -1.358945
000150 82 ef 0f 3f e7 a3 91 40 0d 81 8e be 45 0d 91 3f
       0.56224835 4.5512576 -0.27832833 1.1332175
000160 02 9b 68 be 56 1c 27 bf 92 0a 50 be 83 c5 00 bf
       -0.22715381 -0.6527761 -0.20316532 -0.5030138
000170 cf 80 8b 3e 42 6c da 3e b4 f0 51 40 7f 37 70 be
       0.2724671 0.4266072 3.2803164 -0.2345867
000180 36 11 44 3f 74 84 4e be 16 04 25 3c 0b fc 69 be
       0.7658876 -0.20167714 0.010071775 -0.22850053
000190 9b 27 23 be 55 95 b0 bd 8c af ec 3f ee c6 52 41
       -0.15933077 -0.08622233 1.8491073 13.173567
0001a0 76 59 00 c0 ad e3 a7 be 2f 0b 76 be 8b 94 d6 be
       -2.0054603 -0.3279089 -0.24027704 -0.41910204
0001b0 97 10 86 3e 89 36 85 3e 4d 33 86 3e a5 ea 80 bf
       0.26184532 0.2601817 0.26211014 -1.0071608
0001c0 35 b8 46 bf 93 bf 57 3f a2 27 03 bf 61 9e bb 3f
       -0.7762483 0.84276694 -0.5123235 1.4657708
0001d0 f5 34 84 bf c4 c3 1c bf b1 4b db bc 72 0d ff 3e
       -1.0328661 -0.61236215 -0.02676949 0.49814945
0001e0 fd b0 a6 3f 72 26 83 3f ac f9 83 3f 12 d5 ad bf
       1.3022763 1.0246108 1.0310569 -1.3580649
0001f0 fc 7c 0a 3f 98 db c2 3e d4 64 20 bf 46 3a 25 bf
       0.5409696 0.38058162 -0.6265385 -0.64542043
000200 14 ac 4b bf 2e 54 32 bf 51 f4 52 be 6a 83 cd 3f
       -0.79559445 -0.696597 -0.20601012 1.6055729
000210 32 52 8f 3d f9 d7 9c bd cb 81 bb 3e 3d 87 ea bd
       0.069980994 -0.07658381 0.36622462 -0.11451576
000220 26 bd f1 bc 3a ac 70 bf b4 22 e9 3e 43 e2 92 3e
       -0.029509138 -0.94012797 0.4553429 0.2868825
000230 50 d3 35 bf b8 00 f2 3d ec 5b a0 bf 73 cb f8 bf
       -0.7102556 0.11816543 -1.2528052 -1.9437088
000240 59 13 2d be 54 d1 b3 3e 19 93 e4 3e a0 ab 39 3f
       -0.16901912 0.35120642 0.44643477 0.72527504
000250 49 e2 8d 41 d8 f2 2a bf 74 24 df be 00 8b c4 bd
       17.73549 -0.667768 -0.435825 -0.09596825
000260 7d 65 03 bf a1 86 a6 3e 51 ab 27 bf d8 ae 2c bf
       -0.51326734 0.3252459 -0.65495783 -0.6745429
000270 07 20 55 3e 8a 5b 8c 3e 5a b4 94 3f f6 db c6 bd
       0.20812999 0.2741359 1.1617539 -0.09709923
000280 e1 05 49 3e 67 fa a0 3e 23 67 91 be 14 a5 19 3f
       0.19631149 0.31441042 -0.28399 0.60017514
000290 05 d6 7c 3f b6 83 a6 bf 67 b5 65 bf 19 d0 aa bd
       0.9876407 -1.3008945 -0.89729923 -0.08340473
0002a0 42 37 1d 3e 6c 72 ce be 5d 7b 0c 3f ed 40 7b 3e
       0.1535311 -0.40321672 0.5487574 0.24536486
0002b0 12 a8 6c 3d b6 35 48 3e 45 ea f2 bd e9 4a 1f bf
       0.05777747 0.19551739 -0.118610896 -0.6222368
0002c0 46 99 8f bd 6a 03 d4 be 36 07 0d bf f6 3d 3f 3e
       -0.070116565 -0.41408855 -0.5508913 0.1867598
0002d0 5a 50 8c bf 90 15 5d be 1f 86 30 3f 55 0d ee bd
       -1.0962021 -0.21590257 0.6895465 -0.11623637
0002e0 2e d4 57 b9 5e d7 8a be b0 8a 5d 3d 20 42 22 3e
       -0.00020583041 -0.27117437 0.05408734 0.15845537
0002f0 44 58 01 3f 99 fb 58 3f 3e 10 c9 bb 26 98 0e bf
       0.5052531 0.8475891 -0.0061359694 -0.5570091
000300 03 78 39 bf 86 9e 87 3f 65 35 15 bf 02 19 e4 be
       -0.7244875 1.0595253 -0.582846 -0.4455033
000310 e8 33 20 3f 3f d1 1e be 39 a9 8d bd 22 7d a6 be
       0.625792 -0.15509509 -0.06917042 -0.32517344
000320 d9 75 fc 3e fa c2 62 3f f4 21 23 bf 36 d3 c9 bf
       0.4930866 0.8857876 -0.63723683 -1.5767581
000330 f3 1d 1c bf 86 1e 00 c0 f9 70 8f 3f a4 90 50 bc
       -0.609832 -2.001863 1.1206352 -0.0127297975
000340 97 f6 bb 3d cd ad c5 3e f2 f9 03 3f 10 20 83 41
       0.09177893 0.38609162 0.5155326 16.390656
000350 a9 a2 e1 be 00 76 f9 be 84 79 15 be 7a a3 b2 be
       -0.44069412 -0.4872284 -0.14597136 -0.34890348
000360 2c f7 53 3e e6 71 ed bd 70 fb 4c 3f f9 c8 4f 3e
       0.20699757 -0.1159399 0.80071163 0.20291509
000370 54 7a 37 3f 13 b4 64 bf 91 5b 85 bd 92 57 e8 be
       0.7167103 -0.8933727 -0.065116055 -0.4537931
000380 aa f2 43 3f 60 48 11 c0 d9 ab 8c bf 38 6e 7c bf
       0.7654215 -2.2700424 -1.0989944 -0.9860568
000390 a7 f1 7e 3d d5 7c c8 40 9e 7c 80 bf f5 bd 25 3f
       0.062242176 6.2652383 -1.003803 0.64742976
0003a0 1a fe 61 bf 8c 7e 8f 40 6f 13 f3 bd 7f 74 cd 3e
       -0.88278353 4.4841976 -0.11868941 0.40127942
0003b0 19 a9 06 3f f2 d4 69 3f 2c 2a 93 41 3f 1e 7f be
       0.5260177 0.91340554 18.395592 -0.24913882
0003c0 cf 69 c9 be d7 7d 23 be 92 8d 93 be ad 89 d9 3b
       -0.39338538 -0.15965973 -0.28818947 0.0066387267
0003d0 f0 6d ba 3e 0d 0c 2d 3f a2 9b 37 bd cc fa 22 bf
       0.36412 0.67596513 -0.044826157 -0.63663936
0003e0 99 79 42 3e a5 44 31 be 1a 3c 67 be 3c 2a bb 3e
       0.18991698 -0.17311342 -0.2258152 0.3655566
0003f0 d0 e2 6d 3f 94 f6 7d be 56 d7 d8 be a5 2c 80 3d
       0.92924213 -0.24801093 -0.42351788 0.06258515

conv5.bias f4 [64]
000000 31 2d 35 3d 6c 97 dc 3c 6d 08 f3 ba da 10 00 3d
       0.04423255 0.026927672 -0.001854194 0.03126607
000010 b3 c3 84 3d c5 bd 0e 3d e3 8c 0b 3b 5b a6 1f 3d
       0.06482639 0.034848947 0.0021293692 0.03897701
000020 36 dc 9e 3c c9 4a 08 3d 94 3c 10 bd 55 9f 1d bb
       0.019392114 0.033274446 -0.03521402 -0.0024051268
000030 ef 44 eb 3c 22 2d 2a bd 24 4e ef 3c 3a 85 dc 3c
       0.028719394 -0.04154695 0.029212065 0.026918996
000040 20 5c f0 bb ee 3f 3e 3d e1 a9 01 3a ac e0 ff bc
       -0.007335201 0.046447687 0.00049462734 -0.031235062
000050 ea dd 03 bd c2 bf 20 bd 6c 6d de bc 51 81 26 3d
       -0.032194056 -0.039245375 -0.027151786 0.04065067
000060 43 87 dc bc c8 66 85 3d 75 66 54 bc 04 4b ab bc
       -0.026919967 0.065137446 -0.012963881 -0.020909794
000070 9e 79 64 3d 4b b1 87 3c 0c 9a 82 3d 43 c6 85 bd
       0.055780046 0.016564032 0.06377038 -0.06531956
000080 1a 62 2d 3d a6 c0 5f 3c 2e 5e 9e 3c 6d 8b 91 bc
       0.042329885 0.013656771 0.019332018 -0.017766679
000090 27 47 89 bd c8 fc 1a bd 2a 89 e0 3c aa e3 95 3c
       -0.06703024 -0.037838727 0.027409155 0.018297035
0000a0 ee 9f 8f bb f9 6d 8c 3c ba 47 5e bd 06 c2 7b 3c
       -0.004383079 0.017142283 -0.054267623 0.015366083
0000b0 7d fe 17 bd 21 c8 14 bd 21 6e 01 bd b5 da e9 3c
       -0.037107933 -0.03632367 -0.031599168 0.02854667
0000c0 ad 5e 93 bc cb 99 1e bb 99 ec 17 3d 78 0b 73 bd
       -0.01798948 -0.0024200554 0.03709087 -0.05933711
0000d0 49 67 9c bc c5 3a 28 3d d8 6e 17 3c e1 9f 99 bc
       -0.019092219 0.041071672 0.009242736 -0.018752994
0000e0 46 a1 1c ba 59 ce d8 bc 24 87 5a 3c 95 d5 97 3c
       -0.00059749593 -0.026465582 0.013337884 0.018534461
0000f0 c4 56 0b bb da 45 01 3d 1e ad 5f 3d 97 d6 0b 3d
       -0.0021261433 0.031560756 0.054608457 0.034140196
