checkpoints/best_model_1809_3.pth (torch, 304673 bytes, 37 tensors)

conv1.weight f4 [16, 1, 3, 3]
00000000: 3ce9 0b3e b144 9a3b 47c2 b03d c33f a3be
00000010: 0fdc b93d 6a24 023e a250 c8be c78f f2bd
00000020: ca0f cfbd d0f4 82be d2b7 ebbe d5f1 133e
00000030: 5894 8cbe 9627 20bf fbec 2d3e 41b7 cfbd
00000040: 4202 413e 8bc7 13be 9734 873e 5190 913e
00000050: cf24 00be e340 20be 5711 883e 83c2 00be
00000060: 0f3d 5d3e ad3d 90be bda2 bf3e df1d 893d
00000070: efe6 d9bd f68b d03d 1632 863e fb37 d53c
00000080: 2454 a03e 8dd8 b53e b2b4 d03e 8965 8a3e
00000090: 4746 963e 475d c13e 35a1 643b c9cd b43d
000000a0: 0649 763e 9107 8bbe 2399 1a3e ce4d 37bd
000000b0: 3b27 d93d ca30 81be 8883 013d 0478 803d
000000c0: 9da1 6f3d 8926 403d dad5 22bd 7375 493e
000000d0: a6cf 4ebe b95e e8be c733 4d3e 1fc3 6bbb
000000e0: 205e 813e 3517 803e a10c 1b3e c854 7cbd
000000f0: 4fac 9a3e b2d0 a13d 5f7d f03d 6d79 523e
00000100: 760d 6e3e bba4 633e e55d 453e baab 913e
00000110: aa3e 843e 96d8 c73d 6d9c 493e a85e 573e
00000120: 151d 933d b90f 303d 53a5 b43d edb7 a8bd
00000130: f57a 63be 3c5c d1be 44f9 163e 1c08 f43d
00000140: a507 98be 4d2a f5bd 34dd a0be 6d8b 5bbd
00000150: 0271 c4be 0919 74be 491a e3bd 0ebe d93d
00000160: 0bdd 76bd a8e8 183e c33a 1bbd cfa0 2b3d
00000170: c7fb 07bd c9c5 0b3e f85d 003f d108 b93e
00000180: 4723 85bd f525 46bd d8e1 2d3e ab2c 11be
00000190: d5ed d93d bb7f c8bc c91a 90bd de89 7e3e
000001a0: 5c7c 783c 2e01 0cbf 5c2e 8dbe d46d 7fbe
000001b0: 7f14 c4be 7763 503e 7231 59be f489 b5be
000001c0: cbfd a63d d606 683d f86e 58be 1a74 893e
000001d0: f437 2f3e cd99 143e 4c8d 17bd 497e 7c3d
000001e0: 7229 03be 10dc bcbe 7d6d 463e b457 4dbe
000001f0: 1e69 0cbf b187 f1bb 77ae 4d3e 7608 083d
00000200: 0a92 babe c8c5 393e 7fc9 1c3d caaa d0bd
00000210: 7edc 4f3d 5902 82bd 8363 4c3d e059 d23d
00000220: b38e bfbd adf1 903e d5ce 8f3c 3b14 e93d
00000230: f4f4 a73e 364a 91be 5458 e6bd 952b 233d
0.1366319 0.0047078957 0.086308055 -0.31884584 0.09075176 0.12709203 -0.39124018 -0.118438296
-0.101104334 -0.25577402 -0.4603868 0.1444772 -0.27456927 -0.62560403 0.16984932 -0.10142375
0.18848518 -0.14431588 0.2640731 0.28430417 -0.12514041 -0.15649752 0.2657573 -0.125742
0.21605323 -0.28172055 0.37428847 0.066951506 -0.1063975 0.101829454 0.26210088 0.02602767
0.31314194 0.35516778 0.4076286 0.2703059 0.29350492 0.37766477 0.0034886126 0.08828313
0.24051294 -0.2715421 0.1509748 -0.044751935 0.10603186 -0.25232536 0.03161958 0.06272891
0.058503736 0.04691175 -0.039754726 0.1967371 -0.20196399 -0.45384768 0.20039283 -0.0035974456
0.25267124 0.25017706 0.15141536 -0.06160429 0.30209586 0.079011336 0.11742663 0.20554133
0.23247322 0.22230808 0.19274099 0.2845133 0.2582906 0.09758107 0.19688578 0.21032202
0.07183281 0.042983744 0.088205956 -0.08238206 -0.22214873 -0.40890682 0.14743525 0.11915609
-0.29693332 -0.11970959 -0.31418765 -0.053599764 -0.38367468 -0.23837675 -0.11088998 0.10631953
-0.060269397 0.14932501 -0.037897836 0.041901406 -0.033199098 0.13649668 0.50143385 0.3613954
-0.06500869 -0.048376042 0.16980684 -0.14177196 0.10641066 -0.02447497 -0.07036359 0.2485728
0.015166368 -0.546893 -0.27574432 -0.2494424 -0.38296887 0.20350443 -0.21210268 -0.35456812
0.08153876 0.056647144 -0.21136081 0.2684639 0.17111188 0.14511795 -0.036999986 0.061643872
-0.12808779 -0.36886644 0.19377704 -0.20052987 -0.54847896 -0.007370912 0.20086084 0.033211194
-0.36439544 0.18141854 0.0382781 -0.101888254 0.050747387 -0.06348104 0.04989959 0.102710485
-0.093533896 0.28309384 0.01755468 0.11380812 0.32804072 -0.2837693 -0.11247316 0.039836485

conv1.bias f4 [16]
00000000: 51e8 af3e ca41 3b3e 8a02 3fbd 9a01 993d
00000010: 63b7 46be 71df 443e ecc0 38be 6fb1 493e
00000020: ec2d f83d 6019 743e c669 183e 624e fb3d
00000030: 7710 fc3d b4ca 83be 5e93 9a3e bee9 243d
0.3435693 0.18286815 -0.04663328 0.074710086 -0.19405894 0.19225861 -0.18042344 0.19696592
0.12118134 0.23837805 0.148841 0.1227081 0.12307828 -0.25740588 0.30190557 0.040261976

conv2.weight f4 [16, 16, 3, 3]
00000000: 7991 64bc 8c11 973b 2073 a43c f35d 18be
00000010: 7986 6b3d 0ce3 93bd 7cee 8cbd 7a87 2fbb
00000020: eb4b 13bc 7261 af3d 0c7f 4fbb 46c5 633d
00000030: 1b75 543d 5e89 74bd 2f23 9abe f4bf 1c3c
00000040: e940 3c3d 36e8 cbbd 8c84 cfbb b14c c73c
00000050: 0199 74bc 68cd 843d f845 ca3b ef1b 4dbd
00000060: d6b4 bd3c 01ac fd3c 8868 87bd f8f4 0abc
00000070: e165 2f3d 72cf d9bc 6e48 0abd e22f f63c
00000080: 198d 903d ebe4 223c 5db7 ebbd c0c1 743d
00000090: 4775 7ebc 4fef 873d 7572 0f3d 3533 373c
000000a0: 5aff cf3d e1c2 0abd 6c5e 9fbd ef8e 79bd
000000b0: 833f e03b d6e2 263d 9dfc a43c 2d3e 2cbd
000000c0: ba6a 91bc 5ad6 6abb a8fd 683c c710 2bbd
000000d0: e6be fa3d 791e 85bd 1be0 a2bc d65b 9e3c
000000e0: d6c2 313d fca5 88bd 5268 0b3c de87 6c3c
000000f0: 6649 2e3d e3c1 cdbd c16c 6bbd c62c 1dbd
00000100: e42f 33bd b122 1f3d 7fc9 153d 334a b3bd
00000110: 68f8 14ba d879 033c 4caf 69bd e787 533d
00000120: 853e 823c 79de dbbd e688 b93c 6116 13be
00000130: 8f03 8bbe 8457 09be 20db 11bb 440f b43c
00000140: a438 c63d 8355 38bd 04f9 9b3c 7caa 46bd
00000150: 06d4 b9bc bbb5 4bbe adfc b2be f347 09bd
00000160: fbbb 77ba 8a20 4c3a 7482 043d e765 4f3d
00000170: f9c0 a1bc e02c e9bd 83cf f5bc bedd fdbc
00000180: 1950 a4bd f724 bcbc 009f d23c f201 3c3d
00000190: 0d68 0ebd 60d8 9a3c 93d6 25be fc0b 55bd
000001a0: baed af3d 5222 ec3b c3bd 1abc 46ea 453d
000001b0: 0c65 29bd 4a2f a13d 2868 f5bc c7a6 01be
000001c0: 4f29 d33d 6f0b f8bc 05db 003d b302 16be
000001d0: f9ff c4bc 6884 9c3c 5926 053d 8a7f a2bd
000001e0: b9b6 dbbd add6 3b3d 835a 35be d0f7 f4bd
000001f0: 2510 a03c 0558 d13b c5ea 513d abe0 28bb
00000200: ee86 5f3d ed3f f1bd b5e5 0cbb ab9a b83c
00000210: 42f5 d73c 6562 0abe d7d9 883d bbad 343c
00000220: 041e 3fbd 4572 f1bc 4dcd 943d 6cc0 20bd
00000230: 7387 d0ba 7b9c fcb9 3ebe 6ebd 847b 2d3d
00000240: 1b74 3f3d e6dd 91bc 12ee 6ebd 41f4 843c
00000250: 6226 febd 8e07 19be c541 803c 6977 52bc
00000260: 336b 83bd 5a27 80bc f7d1 1dbd 4cff 3d3d
00000270: f708 1a3e 8223 efbe dc0e 0f3e f7db 02be
00000280: 2dde 41bd 872f b6bd 5ebd 403c 24c2 593c
00000290: 532e 9dbd d78d 23bb 2397 8b3d 21ef bfbd
000002a0: 7c7e bb3c d7bf adbc 48d9 85bd c23f 5b3c
000002b0: 1807 8fbd 57b4 51bd 0b12 afbc 6cfb e23c
000002c0: 9a70 6f3d bc46 45bb d3b9 473d 9f91 ad3c
000002d0: af43 86bc 2b75 ee3c 0e52 6dbc 83f5 91bc
000002e0: 5861 953d a302 f738 d70f 903c 2b4c 4dbd
000002f0: 6ddc 88bd 1cd7 68bc ccff d53c bb49 7e3d
00000300: aee4 54bd bdd7 84bd b196 e23a 8de4 3c3c
00000310: 74bc aa3c 6457 05bd b289 203d ea16 f1bc
00000320: ae52 a2bc 8323 1ebd 5036 5ebd c2d9 2a3d
00000330: 1efd fcbd d4bc 73bc 3353 c83c a828 3cbd
00000340: b9d8 08be 06d9 073d 5706 d2bb 62fa cbbc
00000350: d10c cdbd 4395 d73c c07b 5f3d d4e5 36bd
00000360: 10a2 c13c d3fe 213d 018a 93bd fdeb c0bc
00000370: 41db 803d d561 a23d 6edd ad3c ae44 e53c
00000380: 76ca 09bb 6014 91bc c88f a3bd 5ca6 963d
00000390: e511 053d c437 08be 9cb9 a93d c241 b2bc
000003a0: a6a3 17be d46a 84bb a9b1 09bd 6960 c0bb
000003b0: 55f8 abbb 1963 383d 5e3f bfbd 5156 4fbd
000003c0: dbf8 51bd 8729 8abd cf47 ffbb fc10 d2bb
000003d0: f4c5 cc3c 4826 693d 6aed 0d3d 84af aebd
000003e0: 3063 c1bd 81e7 2ebd 4fa5 793c c7f7 2b3e
000003f0: 37eb 34bd 593a 5bbd b48f 973c 1661 c6bc
-0.013950699 0.004610246 0.020074427 -0.14879589 0.05750129 -0.0722104 -0.06881425 -0.0026783631
-0.008990268 0.08563508 -0.003166142 0.055608056 0.051869493 -0.059701316 -0.30104968 0.00956725
0.04596034 -0.099564 -0.0063329395 0.024328561 -0.014929057 0.06484491 0.0061728917 -0.050075468
0.023157518 0.030965807 -0.06611735 -0.008481257 0.04282177 -0.026588175 -0.03376048 0.03005213
0.07058162 0.009942274 -0.11509583 0.059755087 -0.015530891 0.06637441 0.035021264 0.011181642
0.10156126 -0.033877257 -0.077816814 -0.060927328 0.0068435087 0.04074367 0.020139987 -0.042051483
-0.017751087 -0.003583333 0.014220633 -0.041764047 0.12243442 -0.06499953 -0.019882252 0.0193309
0.0433987 -0.06672284 0.008508759 0.01443669 0.042550467 -0.100467466 -0.057476763 -0.038372777
-0.043746844 0.038851444 0.036569115 -0.08754387 -0.00056827674 0.008024655 -0.05705194 0.05164328
0.015898952 -0.10735793 0.022648286 -0.14364006 -0.27151152 -0.13412291 -0.0022255853 0.021979935
0.09678772 -0.045003425 0.019039638 -0.04850243 -0.022684108 -0.19893543 -0.349584 -0.03351588
-0.00094503135 0.0007786831 0.032350972 0.05063429 -0.019745337 -0.11385512 -0.030006176 -0.030989524
-0.0802309 -0.022966845 0.025710583 0.045900293 -0.0347672 0.018902004 -0.16195135 -0.052013382
0.085902646 0.0072062397 -0.009444657 0.048319124 -0.04135613 0.07870348 -0.029956892 -0.12661277
0.10310613 -0.03027889 0.031458873 -0.14649467 -0.024047839 0.019106105 0.032507274 -0.079344824
-0.10728211 0.045859028 -0.17710309 -0.11961329 0.019538948 0.0063886666 0.051249284 -0.0025768678
0.05457204 -0.11779771 -0.002149922 0.022534689 0.026362065 -0.13514097 0.06682175 0.011027749
-0.046659485 -0.029473433 0.072657205 -0.039246008 -0.0015909508 -0.00048181773 -0.058286898 0.04235412
0.046741586 -0.017806005 -0.05833251 0.01622975 -0.12409665 -0.14944288 0.015656361 -0.012845852
-0.06416931 -0.015643764 -0.038530316 0.04638605 0.15042482 -0.46706778 0.13970512 -0.12779222
-0.047331024 -0.08895784 0.011763899 0.013290916 -0.07674851 -0.002495637 0.068159364 -0.09371782
0.02288746 -0.02120964 -0.06535584 0.0133819 -0.06983775 -0.051197376 -0.021370908 0.027707778
0.058456995 -0.0030101975 0.0487612 0.021187602 -0.016389696 0.029108604 -0.014484895 -0.017817264
0.072939575 0.00011778369 0.017585678 -0.050121468 -0.06682668 -0.014211442 0.02612295 0.062082034
-0.0519759 -0.06486461 0.0017287341 0.0115291 0.020841815 -0.032554045 0.039193816 -0.029429872
-0.019814815 -0.038608085 -0.054251015 0.041711576 -0.12352966 -0.014876563 0.024453735 -0.04593721
-0.13363923 0.033165954 -0.006409447 -0.024899665 -0.1001221 0.02631629 0.054561377 -0.044652775
0.023636848 0.03954966 -0.072040565 -0.023550028 0.06291819 0.07928816 0.02122375 0.02798685
-0.0021025217 -0.01770991 -0.079864085 0.07355949 0.03248777 -0.13302523 0.08287355 -0.021759871
-0.1480852 -0.004041055 -0.033616696 -0.005870868 -0.0052481093 0.045016382 -0.09338258 -0.050619427
-0.051262718 -0.06746202 -0.0077905427 -0.006410716 0.024996735 0.056921273 0.034650244 -0.08529571
-0.09442747 -0.042701248 0.015237167 0.16793738 -0.04416963 -0.05352244 0.01850114 -0.024216216

conv2.bias f4 [16]
00000000: 5c79 903d 11e1 8f3c e22a 4cbd a7d9 d0bc
00000010: 3374 b73b cf41 6e3d 9a0e 1e3d b908 69bc
00000020: 6c70 923d 5553 29bd 07de 04bd 0f1a 5d3c
00000030: 455b 203a b347 89ba f00e 603d 3608 5e3d
0.070543975 0.017563375 -0.049845584 -0.02549441 0.005598569 0.05816823 0.038588144 -0.014223271
0.07150349 -0.041339237 -0.032438304 0.013494982 0.0006117116 -0.0010473639 0.054701746 0.05420705

bn11.weight f4 [16]
00000000: f389 693f cb56 923f 76e5 3c3f 376d 4f3f
00000010: 942e 643f 28ed 6c3f d6f5 723f 3556 813f
00000020: 300b 873f 604a 993f dd81 723f b0ab 873f
00000030: 991b 5b3f 6bb7 893f 2102 653f 4830 6b3f
0.9122612 1.1432737 0.7378763 0.81026024 0.8913357 0.9254937 0.94906366 1.0104433
1.0550289 1.1975822 0.94729406 1.059927 0.85588986 1.07591 0.89456373 0.91870546

bn11.bias f4 [16]
00000000: 40a3 12be b3b7 94bd e3c2 b63b aa80 43bd
00000010: b642 833e b1aa 28bd 8605 e63c f994 b43d
00000020: e63d 5abd 3915 6ebe fe7a a73d 5c7a 49bd
00000030: 67bd c4bc 264d 84bd a3f5 973c 04be 123d
-0.14320087 -0.072616 0.0055774315 -0.047730125 0.25636834 -0.04117841 0.028078806 0.08817477
-0.053281687 -0.23250283 0.08177756 -0.049188957 -0.024016095 -0.064600274 0.018549746 0.035825744

bn11.running_mean f4 [16]
00000000: 8e5e ac3e 7552 273e 4bee 14bd be77 ca3d
00000010: 14cb 38be 3e93 3c3e 15e5 25be 6744 653e
00000020: 2eb9 e83d 7f2e 653e 8c7c 273e 1898 df3d
00000030: 80d9 f03d 066a 8abe 67c1 9a3e fee5 3b3d
0.3366589 0.16340049 -0.036360066 0.0988612 -0.18046218 0.18415543 -0.16200669 0.22389375
0.11363445 0.22381018 0.16356105 0.109176815 0.11760235 -0.27034014 0.3022568 0.045873635

bn11.running_var f4 [16]
00000000: c89d 223a f366 3a3b 18d9 3b3a 13fc ed3a
00000010: 8d3f 9f3a 6b26 013a 435b 853a f19a 0d3b
00000020: 9d97 1c3a bb91 b93a 1f8e 8c3a bde3 923a
00000030: cbaa 283a 6ee5 ac3a 4621 fb39 6cee 403a
0.0006203321 0.002844271 0.00071658334 0.0018156789 0.0012149677 0.0004926684 0.0010174293 0.0021607245
0.000597352 0.0014157811 0.0010723508 0.0011206787 0.00064341415 0.0013190934 0.0004789924 0.00073597464

bn12.weight f4 [16]
00000000: 4f7d 7b3f 4efd 803f 0c5a 723f dc1b 713f
00000010: 718e 7a3f b7ae 753f f5d6 813f ffc6 7d3f
00000020: cbf6 803f 768e 6c3f 884a 783f 3e16 653f
00000030: 4434 873f b136 753f 657e 8c3f 33e4 803f
0.9823808 1.0077302 0.9466865 0.94183135 0.978736 0.9596972 1.0143725 0.9913177
1.0075315 0.9240488 0.96988726 0.89487064 1.0562825 0.9578658 1.0976073 1.0069641

bn12.bias f4 [16]
00000000: 30e2 8bbd 03ac 89bd abd1 b5bd 1269 4bbd
00000010: 47aa c73d 866e 98bd 427c 3c3a 1123 c23d
00000020: cc27 5c3c 8cdb c5bd bb1c 23bd f246 7b3c
00000030: c94d d1bb 690b 05bd 05f8 8ebd a623 b1ba
-0.06830251 -0.06722262 -0.088778816 -0.04966075 0.09749275 -0.07442956 0.0007190147 0.09479345
0.013437223 -0.09661016 -0.03982232 0.015336739 -0.0063874465 -0.032481585 -0.069809 -0.0013514652

bn12.running_mean f4 [16]
00000000: 452c f4be 2ecd f3be 4f83 5d3d 96c9 28be
00000010: faa9 0abd d820 11bf 3707 32bf b8ef db3e
00000020: 61a7 52be bc60 f03d 9baa a9bd c7df 753d
00000030: 246b a13e e636 04bf 4788 163f 25d4 18bf
-0.47690025 -0.47617477 0.054080304 -0.16483149 -0.03385351 -0.5669074 -0.6954226 0.42956328
-0.20571662 0.117372006 -0.082844935 0.060027864 0.31527054 -0.5164627 0.5880169 -0.59698707

bn12.running_var f4 [16]
00000000: 3bd2 773e 94b6 783e 7e36 b73e 800c 953e
00000010: b3a7 863e 6917 863e 17bf 8d3e fc48 af3e
00000020: 9a3d 763e 36c0 973e 2507 643e 5283 443e
00000030: ef3a 483e 150a dc3d a0fe b23d a5cf 993e
0.2420129 0.24288398 0.35783762 0.291111 0.2629982 0.26189736 0.27684852 0.3423537
0.24046937 0.29638833 0.2226835 0.1919072 0.19553731 0.107441105 0.08739972 0.30041233

conv3.weight f4 [32, 16, 3, 3]
00000000: 2191 71bd 1cc6 b5bd a08c 36bc 2a4b 3bbd
00000010: ad0c 42bd f5f2 d4bd 0c44 c2bd f1d0 c53b
00000020: 3776 403d 674d 81bc eab3 6a3d 14f2 b9bd
00000030: e105 9bbd c3fc cd3c bd7f f7bd 0334 95bd
00000040: acb3 033c c70f cf3c 0f08 0cbe 1269 113c
00000050: b8d2 82bc c67e 05bd 6ea1 433d c43a 98bc
00000060: 1dee a5bc dba5 5dbc 0ad7 14bb 40a4 24bb
00000070: dc01 a03d 1e1c 61bd ebcc 8bbd 30fd debd
00000080: 2b17 893c f70e c93d c2d4 94bb 61a0 083d
00000090: 7034 6dbd 1627 c8bc c678 95bc 90fb f03b
000000a0: 6f9f e63c 16be 32be 3bf9 483c 1bd9 b5bd
000000b0: 5148 c1bb 079a 69bd 5eb2 d3bb 1880 f63d
000000c0: 4a7c 133d ace5 143d 85e0 463d 12d7 eaba
000000d0: 64a4 fcbd ad0b 333c f8c5 65bd b3be 8b3d
000000e0: 8b0e 4dbc e066 07b8 c77c debd cad0 47bd
000000f0: 51ac 723c e074 d53d 8483 9ebd 8750 00bc
00000100: f232 06be 6b05 07be 2e9a 103b dcdc 993c
00000110: a125 0d3d caaa 1f3d 6c91 9d3d 6ff0 453d
00000120: 8f7e 2fbd 0c39 063d 641d 87ba e469 8e3c
00000130: a4f1 043d 6e88 3abd 6c54 873c 2fb1 a13d
00000140: 8da4 273d ef84 b6bc cd16 1bbd 5b70 aebd
00000150: 5079 bdbc 7594 0bbe b74e 093d 5d92 8bbd
00000160: 22f3 9c3d a2c8 b63d 69f6 89bd 58c2 8bbd
00000170: 2a42 ab3b 9031 583c 894d 043d cc1f 843d
00000180: e809 14bc e391 c0bd 0684 813c accd 00bd
00000190: 990f 1bbe 152c 4a3d a9eb 633d 4a04 c5bc
000001a0: ae09 01bd 5d05 74bc 4662 61bc 7966 053d
000001b0: 9ef6 9dbd 22a3 33bd 49e0 7239 2035 5f3d
000001c0: 1a9e a2bc a4ac 17bd 079e 8bbd 1d67 a0bb
000001d0: fbcc acbc ecd1 3c3d 80f3 9cbd c6cf 0dbd
000001e0: a3db b7bd a5e9 90bc dff4 54bc 5019 8dbd
000001f0: 2e36 d0bc 82d7 25bd 03c0 a83d 2882 df3d
00000200: e48d bc3c de43 f63d 1c0a 933c 645e a93d
00000210: 19e4 2fbd 87a4 fdbc 7ac0 f4bc f9de 2b3d
00000220: 8619 083d b95c 95bd 2d8a 5d3a a605 86bd
00000230: 415f 133d e00b cfbd d150 bebd 0290 d5ba
00000240: 686c b43b 348e c43c 2742 a93d d638 7cbd
00000250: f292 f1bc 86f8 c03d 7f72 b2bd ef45 d43b
00000260: 2517 10b8 82e3 bdbc 192d f9bc 0237 a53d
00000270: f1bf ed3b 9f77 d1bc 4a8a 4a3d a199 4e3d
00000280: baf7 903d f91b 683b e49a 723c 6fcc 34bd
00000290: 687b 6cbd 09a9 b13b ee35 05be 332d 283d
000002a0: 7368 abbd a004 983d 3f32 ab3d a2b7 db3c
000002b0: ed7d 0c3e e79c 9d3d 7392 ebbc ecda 443d
000002c0: 9932 eebc ceb4 643d 4f1b 60bc d645 6abd
000002d0: d4f9 51bd b998 713c dd87 323d adf0 b63d
000002e0: 16b4 783e 4387 bb3d 05e6 bb3d 5ee7 9e3c
000002f0: d751 2d3d d0b2 303d 20df d0bc a355 623d
00000300: f81d b7bd 83dc 733d 126a 4d3c 0f05 933c
00000310: 019b a2bb 86d4 9c3d 89c3 acbd 88a8 873d
00000320: c8e9 4a3d 5f7b d1bd dd9f 14be 9092 e73c
00000330: f417 dcbd 2b0f 943d e4f9 8b3a fe5e 393c
00000340: 3102 573d 58b8 86bc f354 d93d 038f 933d
00000350: 095e 573d 5c99 28bd 7145 f3bc 696a bebd
00000360: 6557 e33d d82a 77bd 81fa 643d ded2 6cbc
00000370: b47a 9bbd 54a3 fcbb 2b38 a3bb d47a 98bd
00000380: 73fb 073d 33ee b53c ca3c b6bc 1303 5bbd
00000390: fe0a 1d3d fb02 74bd afe8 a8bb c574 39bd
000003a0: b8ce 7f3d 1b0a e33c b97d 613d de2f 5e3d
000003b0: 3d42 143e a3c2 063d 383f e3bb 8459 9c3d
000003c0: 09fb ea3d 37b7 303d d67a db3b 9694 58bd
000003d0: 11e5 693d 3eb1 04bd 1ae9 02bd 3edf e2bd
000003e0: 8190 713d 53d6 0b3d 70d7 b93d 48ed 173d
000003f0: d496 84bd 5673 46bc 2f50 353d 901b 0c3d
-0.058976296 -0.08875677 -0.011141926 -0.04572598 -0.04737537 -0.10397903 -0.09485635 0.0060368706
0.04698774 -0.015783979 0.057300486 -0.09079376 -0.07569481 0.02514494 -0.12084911 -0.07285311
0.008038443 0.025276078 -0.13674949 0.008875148 -0.01596962 -0.032591604 0.047761373 -0.01858271
-0.020255143 -0.013528313 -0.002271118 -0.0025122315 0.07812855 -0.054958455 -0.068261944 -0.108881354
0.01673468 0.098173074 -0.0045419643 0.033356074 -0.057911336 -0.0244327 -0.018246066 0.0073542073
0.028152196 -0.17455325 0.012266452 -0.088793 -0.0058985134 -0.057031658 -0.006460472 0.12036151
0.036007203 0.036351845 0.048553962 -0.0017916879 -0.123360425 0.010928077 -0.056097 0.06823482
-0.012515674 -3.2282318e-05 -0.10863643 -0.0487831 0.014811591 0.10422683 -0.07739928 -0.007831699
-0.13105372 -0.1318566 0.0022064555 0.018782072 0.034459714 0.038981237 0.07693753 0.048325
-0.042845305 0.032769248 -0.0010308442 0.017384477 0.03245701 -0.045540266 0.016519748 0.07895123
0.040928412 -0.022280185 -0.03786354 -0.08517524 -0.023129135 -0.1363085 0.033522334 -0.06815026
0.076635614 0.089249864 -0.06736452 -0.068241775 0.005226393 0.01319541 0.032300506 0.06451377
-0.009035565 -0.09402826 0.015810024 -0.031446144 -0.15142669 0.049358446 0.055644665 -0.024049897
-0.031503372 -0.014893857 -0.01375634 0.03256843 -0.07713054 -0.043856747 0.00023162471 0.054494023
-0.01985078 -0.037029877 -0.06817251 -0.0048951046 -0.021093836 0.046098635 -0.076636314 -0.034621976
-0.08977439 -0.017689535 -0.012997835 -0.068895936 -0.02541646 -0.040488727 0.08239748 0.10913497
0.023016877 0.120246634 0.017949156 0.08269957 -0.04294214 -0.030962242 -0.029876936 0.04196069
0.033227466 -0.07293076 0.0008451071 -0.06544046 0.035979513 -0.10109687 -0.09292758 -0.0016293528
0.005506087 0.023993589 0.08264571 -0.06157764 -0.029489014 0.09422402 -0.08713245 0.0064780633
-3.435383e-05 -0.023179773 -0.030417012 0.080671325 0.007255547 -0.025569735 0.04944829 0.05043948
0.070785 0.0035417064 0.014807437 -0.044140276 -0.057734877 0.005421762 -0.13008854 0.04105873
-0.083695315 0.07422757 0.08359193 0.026820961 0.13719912 0.07695942 -0.028756356 0.048060343
-0.029076861 0.05583649 -0.013678386 -0.057195507 -0.051263645 0.014745885 0.0435866 0.08932624
0.24287447 0.091566585 0.09174732 0.019397434 0.042314377 0.04313928 -0.02549702 0.05525745
-0.08941263 0.05953647 0.012537496 0.017946748 -0.0049623256 0.07657723 -0.08435733 0.06623942
0.049539357 -0.10228609 -0.14514108 0.028268129 -0.10746756 0.072294556 0.0010679332 0.011314152
0.052492324 -0.016445324 0.10611906 0.07205012 0.052579913 -0.04116188 -0.029696198 -0.0929764
0.111006536 -0.060343593 0.05590296 -0.0144545715 -0.07591763 -0.0077099 -0.004981061 -0.074453026
0.033198785 0.022208309 -0.022245783 -0.05346973 0.03834056 -0.059573155 -0.005154691 -0.045277376
0.062453 0.02771478 0.05505154 0.05424487 0.14478393 0.032900464 -0.0069350265 0.07634261
0.114736624 0.043143477 0.006697993 -0.052876078 0.05710322 -0.032395594 -0.031960584 -0.11077736
0.0589757 0.034139942 0.090742946 0.037091523 -0.06474081 -0.012112459 0.044265922 0.034205973

conv3.bias f4 [32]
00000000: 8e3e 90bd 0f93 9c3c a36d acbd 3152 69bd
00000010: d152 a4bd b832 88ba f589 56bd 4c9a d4bc
00000020: 0baa c0bc 3f6f 283d 204c f03b 8255 12bd
00000030: 194f 13ba 038e 9dbc 2d1e 2fbd 83ec 04bc
00000040: 3046 3d3d 6382 243d cd4a 72bd 41f7 a33c
00000050: 0e6d a3bc b99d 9eba b8df 08bd 7b34 773c
00000060: aac8 2c3d 7cf9 d4bc db0b 84bd 6a8d 2fbd
00000070: 74e4 743d c1e7 203d 646d 5cbd d163 1c3d
-0.07043181 0.019113092 -0.08419349 -0.05696315 -0.080236085 -0.0010391092 -0.05237766 -0.02595248
-0.023518583 0.041121718 0.0073332936 -0.035726078 -0.00056193914 -0.019232756 -0.042753387 -0.008113029
0.046209514 0.04016341 -0.059153367 0.02001536 -0.019949462 -0.0012101448 -0.03341648 0.015088196
0.042183556 -0.02599787 -0.06447574 -0.042859472 0.059788182 0.039283518 -0.05381526 0.03818113

conv4.weight f4 [32, 32, 3, 3]
00000000: 4013 14bd 457b dcbc 71fd 79bd c2f9 3cbb
00000010: 7921 11bc 4389 7f3d fe66 7a3d eca4 923b
00000020: 9e7f 893d 539b 883c 77b0 74bd c58d 75bc
00000030: f7a1 b039 da8e 4ebd fc71 5d3d 26a1 373d
00000040: 0ed3 64bc ecc5 03be 7499 cb3a ca2d 233d
00000050: 21c7 cebd 39af c4bc e711 d73c 437c 47bc
00000060: 87e9 2cb9 caf8 37bd 56e5 52bd 2c1e 7cbd
00000070: de6f 8bbd 653a 2cbb 23d6 673d 1365 a33c
00000080: ff97 24bd 7f59 a03c 4356 d4bc 4b84 8abc
00000090: 205e 7dbd 96d3 0abd b9cc 4cbd 51bc 84bb
000000a0: c6fa 3d3a 2208 843d 1e0c ed3d d95d 0d3d
000000b0: 4bab 5fba 4f58 8f3c 31d0 913c 3507 003b
000000c0: 29d8 13bd bdef 433d f281 153d 7c53 bf3c
000000d0: e0b4 0cbd 614f 21bd 1e13 43bd eb75 6cbd
000000e0: f53d 93bd 0b24 7d3d 4a37 383d c1e7 9f3d
000000f0: 4f6a 1e3d 1359 723d 9ed5 413d 0e70 74bc
00000100: ed78 2f3b 29d5 3abb 7c2f 093d 45ff 8dbc
00000110: dae0 ca3b d906 853d 9796 533c 880c 2c3d
00000120: cf66 eb3c d136 a2bd 8577 be3d 68fa 9bbd
00000130: a4c7 983c ce50 4e3d a678 bc3d 1db8 563d
00000140: bb67 ab3d e22f 1abd 788b cd3d 81f8 813d
00000150: 1d99 fe3d 507d 9e3c f729 87bd 4602 23bc
00000160: 7438 b43c f00c 5e3d b600 e33b e35f 3abc
00000170: 642a 91bc a777 83bd 65aa 143d 2a86 3abd
00000180: 7a76 03bd 24b5 4c3b 7660 5bbd e332 8c3c
00000190: 020d 53bd 5e21 233d 423d 5bbc 6869 8bbd
000001a0: 52ce a9bc 4bdd c33c ce2b 0b3d a9e0 b63c
000001b0: c413 833d 3d58 8d3d d3d7 d93c 8922 f9bc
000001c0: f689 a83c f040 9c3c 76aa 203d ff7f 70bc
000001d0: 3488 ce3c 16e5 3fbd 89e9 58bd cdd3 20bd
000001e0: 49fa 01bc a811 5cbd c6ab b4bb 881d 8f3d
000001f0: d98e 9a3d e676 02bd a72e 353c 8425 5cbd
00000200: 8433 3fbd e995 cebc 8a28 dcbd 1f7e 80bd
00000210: 606a 123d e42d bebd 4fb2 833b b7ac 85bd
00000220: c089 b9bd 4142 a3bc e865 0b3d 1c5a b73b
00000230: 4dfb 7a3d b1c6 563c 000d dfbc 9190 40bc
00000240: 3015 7a3c 060c ccbc 84a3 aabb 7c62 7b3c
00000250: f02f 3ebd 2cd0 0dba 9ff1 a9bc 501f 503d
00000260: 1ba6 403c 16cc 7fbc d157 50bb bf4b 86bd
00000270: a664 ef3c abab 8ebd 48f6 0cbe a669 c9bd
00000280: 4f29 783b e776 51bd 433b 06bd c7da a73c
00000290: 39a9 91bd 23af 54bd d702 363c 0d46 c5bc
000002a0: 5a7f 53bc 18b8 ef3b 609c aa3c 3d5c 47bd
000002b0: 429a 36bd ea01 df3c 53c3 c53c 635e 993c
000002c0: 2e0e 5dbc c9c9 523d 414e 213d b5f6 db3b
000002d0: 0086 63bd 2b4c cebd 7f71 41bd d29b 19bd
000002e0: 08c2 03bd 3623 08bd c433 11bd 37b0 0c3c
000002f0: 6259 a0bd 3eec fd3b 03ff 49bd 6983 313c
00000300: 0e24 e83c e225 853d 3f6d 7e3d f199 b43c
00000310: e0ed 903d 3b6a 6abd 0ff4 e0bc 0445 05be
00000320: 8bfa 283c 9c48 8bbd 4a0e 393c 89e1 53bd
00000330: f9f5 5cbd 7a0a 2d3d 9930 0d3d 0b69 9d3b
00000340: 6679 64bd 6fe9 7e3d bd47 443d df0d 70bd
00000350: dd00 843d 206d 6b3c 42b5 403d cc2c 613d
00000360: d8a8 5bbd 9650 debb 0fdc ff3c a409 96bd
00000370: e3fc ea3a fa7d 0c3d b9c7 55bc b344 88bc
00000380: ee25 ffbc e242 02bd 0e0e 4c3d 86f0 c8bc
00000390: 8d4e 35bd e748 853d 3b17 673d 97ce f0bc
000003a0: f563 93bd b4e3 e33c bbc9 ae3d 39d4 3cbd
000003b0: ddbe 853c 7823 6a3c 7b20 8cba 7d61 553d
000003c0: eca8 4c3c fd3d c1bc dbf1 903d 2470 49bd
000003d0: d917 a1bd 38d2 6e3d d551 b83d 4a03 59bd
000003e0: b9df 9bbc 2539 c8bc 40c2 bd3d 1cad 8a3d
000003f0: 72e2 37bb 49a5 67bd 6228 53bd 0dee 57bd
-0.03615117 -0.026914248 -0.061032716 -0.002883539 -0.008858078 0.062386762 0.061133377 0.0044752266
0.06713794 0.016675627 -0.059738602 -0.014987414 0.0003369001 -0.050429203 0.054063782 0.044831418
-0.013966335 -0.1286847 0.0015533403 0.03983859 -0.100965746 -0.024009334 0.026253654 -0.012175622
-0.00016490194 -0.044914998 -0.051488243 -0.06155221 -0.06808446 -0.0026279923 0.0566007 0.019945657
-0.040184017 0.019573925 -0.025920039 -0.016908785 -0.061857343 -0.03389319 -0.049999926 -0.0040507694
0.0007247146 0.06446864 0.11574577 0.03451333 -0.00085322995 0.017498164 0.017799469 0.0019535546
-0.03609482 0.047836054 0.03650088 0.023355238 -0.034352183 -0.039382342 -0.047625653 -0.057729643
-0.07189552 0.06180195 0.044974603 0.078078754 0.038675603 0.05916698 0.04732286 -0.014919294
0.0026774958 -0.00285084 0.03349255 -0.017333636 0.006191355 0.06495447 0.012914321 0.04200414
0.028735546 -0.07920612 0.0930014 -0.076161206 0.018649884 0.05037003 0.09202699 0.052421678
0.083693944 -0.03764332 0.10036367 0.063462265 0.12431548 0.019346863 -0.06599801 -0.0099492725
0.021999575 0.054211557 0.006927575 -0.0113754 -0.017720409 -0.06419306 0.036295313 -0.045538105
-0.03209541 0.0031235898 -0.05355879 0.017114108 -0.051526077 0.039826743 -0.013381304 -0.06807214
-0.020728264 0.023909232 0.033977322 0.022323923 0.06400254 0.06901596 0.02659217 -0.030411975
0.020573597 0.019073933 0.039225064 -0.014678954 0.025211431 -0.046849333 -0.05295709 -0.03926449
-0.007933208 -0.053727776 -0.005513641 0.069880545 0.07546777 -0.03185167 0.011058486 -0.053746715
-0.04667999 -0.025217967 -0.1074992 -0.06274056 0.03574598 -0.09286097 0.004019059 -0.06527083
-0.09059477 -0.019929053 0.034032732 0.0055954587 0.061274815 0.013108895 -0.027227879 -0.011753217
0.015263841 -0.024908077 -0.005207481 0.015343305 -0.046432436 -0.0005409743 -0.020745097 0.050811112
0.011758353 -0.015612623 -0.0031790624 -0.06557416 0.029222798 -0.06966337 -0.13765824 -0.09834604
0.0037866419 -0.051138785 -0.03277136 0.020490063 -0.07112355 -0.051924836 0.0111090755 -0.024081254
-0.012908781 0.007315647 0.020826519 -0.04867195 -0.044580705 0.027222592 0.02414099 0.018721765
-0.01349215 0.05146197 0.03938127 0.0067127594 -0.055547714 -0.10073122 -0.04722738 -0.037502117
-0.032167464 -0.033236705 -0.03544976 0.008586935 -0.078295484 0.0077491095 -0.049315464 0.010834553
0.028337505 0.06501366 0.062115904 0.022046061 0.07076621 -0.057230216 -0.027460126 -0.13014609
0.01031364 -0.068009585 0.011294911 -0.05172876 -0.053945515 0.04224632 0.034470174 0.004803782
-0.055779837 0.06223434 0.047919977 -0.05860698 0.06445477 0.014369279 0.04704786 0.054974362
-0.05362782 -0.006784509 0.031232862 -0.073260576 0.0017928149 0.034299828 -0.013048106 -0.01663432
-0.031146016 -0.031802066 0.04981809 -0.024528753 -0.044264365 0.06508046 0.05641864 -0.029395385
-0.071968 0.027818538 0.08534571 -0.04610083 0.016326362 0.014290683 -0.0010690832 0.052094925
0.012491446 -0.023589129 0.0707738 -0.04917921 -0.07865877 0.05830595 0.08999983 -0.052981652
-0.019027578 -0.024441311 0.09265566 0.06771299 -0.0028058556 -0.056554113 -0.051552184 -0.052717257

conv4.bias f4 [32]
00000000: 5d32 b93c 2c32 d3bc 8b01 ae3c 440a 593c
00000010: 05f3 72bd 5ac7 9f3a 8514 873c fd8b 51bd
00000020: fe23 383d c3ea 3f3d 74ab 143d 5071 3c3d
00000030: 5625 a13c 0cd3 0bbd 5469 44bc fd1d ccbc
00000040: 1f35 613d 3b71 60bd 5d1c 2ebd 7436 d63c
00000050: 2f2b 083d b014 403d 739b 26bd e009 963c
00000060: 8191 103c 488e 51bc 19cf ccbc 1e50 2f3d
00000070: 16c1 b23c 0884 3d3c 4aa1 a1ba 7b93 e9bc
0.022607023 -0.02578076 0.02124097 0.013247076 -0.059313793 0.0012190149 0.016489277 -0.051158894
0.0449562 0.046854746 0.036296323 0.0460065 0.019671123 -0.034136817 -0.011988003 -0.024916643
0.0549823 -0.054795485 -0.042507518 0.026149012 0.033244308 0.04689473 -0.04067559 0.018315256
0.008823753 -0.01279027 -0.025001096 0.042801015 0.021820586 0.011567123 -0.0012331393 -0.028512707

bn21.weight f4 [32]
00000000: a76c 803f 0894 7e3f 97a7 7a3f a10e 813f
00000010: 1a42 7d3f e1d5 7a3f 6e1e 803f aae3 7d3f
00000020: f465 803f d9f3 803f 9bd7 7b3f 0574 803f
00000030: 5850 803f ed10 823f fad0 7c3f 674d 823f
00000040: 850b 803f 42af 833f cfb5 7b3f c652 803f
00000050: 441a 813f def6 793f d87e 7e3f 85de 7c3f
00000060: 80b7 843f 0c42 7a3f e734 803f b77b 7c3f
00000070: 4fde 7f3f ac92 803f 7ad2 803f 0ff1 803f
1.0033158 0.9944463 0.9791197 1.0082589 0.9892899 0.97982603 1.0009286 0.9917551
1.0031114 1.0074416 0.9837586 1.0035406 1.0024519 1.0161415 0.9875637 1.0179871
1.0003515 1.028786 0.9832429 1.002526 1.0086141 0.97642314 0.994123 0.9877704
1.03685 0.9775703 1.0016145 0.98626274 0.9994859 1.0044761 1.0064232 1.0073565

bn21.bias f4 [32]
00000000: 8c61 60bd 03da 57bd d502 12bd 4b7f e6bc
00000010: 6fd3 93bd c54c e1bd ceda bebd 7891 8cbd
00000020: 09c3 babd 36d2 92bd 4bb7 2fbd 7ff8 d5bc
00000030: 2b1d ccbd 1b85 83bc d00a 16bd 1618 2cbd
00000040: 17b7 b5bd c5d0 dfbc 34eb 08bd 880c 5abd
00000050: 1329 60bc 9441 0cbc 6119 acbd 9392 09be
00000060: e023 89bd e1e7 a4bc 8d69 a7bd 953d c5bd
00000070: 38fc d7bc 7a16 17bc bc14 b8bd 6576 b3bd
-0.054780528 -0.052698147 -0.035647232 -0.02813687 -0.07218062 -0.11000971 -0.093190774 -0.068636835
-0.09119231 -0.07169001 -0.04289941 -0.026119469 -0.09966501 -0.01605468 -0.036631405 -0.042015158
-0.08872812 -0.027321229 -0.033427432 -0.053234607 -0.013681668 -0.008560557 -0.08403278 -0.1343482
-0.06696296 -0.0201301 -0.08174429 -0.096308865 -0.026365384 -0.009221667 -0.0898833 -0.08762816

bn21.running_mean f4 [32]
00000000: 1565 afbf 5361 993f 55a7 18bf f2cd bebf
00000010: 954b 6dbf 721e 1d3f 886d 013f 228e a1bb
00000020: 8083 7e3f 1c28 dc3e 8f65 97bf 844c d2be
00000030: d3c8 7b3f f82b 5ebf 0776 ec3e cbc1 22bf
00000040: 69ed d73f e20c 4b3e 528b 27bf acbb b2be
00000050: f1ec f63c 696f f53e 5ec4 95be 4303 333f
00000060: 636c 5abf 7c51 39bf b04a 403f 9225 16bf
00000070: 470e 4abf 2f91 6fbf 0e4a 663e f1b4 7f3f
-1.3702723 1.1982826 -0.5963033 -1.49066 -0.92693454 0.6137458 0.50557756 -0.0049302736
0.99419403 0.4299935 -1.1827868 -0.41074002 0.9835331 -0.8678584 0.46183798 -0.63576955
1.6869327 0.19829133 -0.6544696 -0.34908807 0.03014228 0.47936562 -0.2925138 0.6992685
-0.85321635 -0.7238996 0.75113964 -0.5865108 -0.78928035 -0.9358091 0.22489187 0.9988547

bn21.running_var f4 [32]
00000000: abf3 883e fb6a c83e c582 8b3e b8ac 043f
00000010: a669 c93e a2ec 4e3e 6a69 283e 820e 253e
00000020: 9286 833e dc87 193e 3841 883e 9ec2 9e3e
00000030: e400 bc3d 1910 9b3e 3ea9 873e 3e31 993e
00000040: a2c1 cc3e 1f20 cb3d a438 4e3e ea9d 513e
00000050: e938 4c3e f8c1 5d3d a0d9 453e 469b 033e
00000060: 6eb1 2f3e 27bf 4d3e 9f27 413e 8710 723e
00000070: 8039 393e 6c67 8e3e 9ad8 7d3e ad48 373e
0.26748404 0.3914412 0.27248207 0.5182605 0.39338416 0.20207456 0.16446462 0.16118816
0.25688607 0.14993232 0.26612258 0.31007856 0.091798574 0.3028572 0.2649631 0.2992038
0.3999148 0.09918236 0.20138794 0.20470396 0.19943585 0.05414006 0.19321299 0.12852201
0.17157528 0.2009245 0.1886277 0.23639117 0.18088341 0.2781328 0.24789658 0.17898817

bn22.weight f4 [32]
00000000: 5768 7a3f 03a4 793f 9244 7e3f 0df0 7e3f
00000010: 6ced 7b3f df00 7d3f a761 813f d66f 773f
00000020: a6d5 803f 7717 7a3f c70a 7c3f 8c7d 793f
00000030: 3978 823f cb0d 7e3f ab93 7f3f 59c3 7b3f
00000040: 646d 7b3f 1aaf 803f 5281 833f 7f56 7a3f
00000050: 6e86 7f3f b9a3 7b3f 97ff 813f 934d 803f
00000060: 173c 7e3f 3ea3 7e3f 22ea 7c3f b992 7a3f
00000070: f4dc 803f 5d6f 803f e149 813f f9e1 7c3f
0.9781546 0.9751589 0.9932338 0.9958504 0.9840915 0.98829454 1.0107926 0.96655023
1.00652 0.97692055 0.98453945 0.97457194 1.0192939 0.99239796 0.998347 0.9834495
0.9821379 1.0053437 1.027384 0.9778823 0.998145 0.98296696 1.0156125 1.0023674
0.9931044 0.9946784 0.9879476 0.9788013 1.006743 1.0033985 1.0100671 0.98782307

bn22.bias f4 [32]
00000000: 26de 09be d601 d7be ac64 8f3d f9a5 77be
00000010: 60dd ecbc 63b5 35be c801 4bbe a48f 81bd
00000020: b257 e3bd d5ec cbbd 0a07 c1bd c9a9 abbd
00000030: 5e4c 773d 71a2 14bd c20a db3d 38a7 9abe
00000040: 9dd0 91bd 6036 53bd 435b a1be 1e14 1dbd
00000050: 6de2 96bd 5a35 2a3c f9ac 5dbe d822 e9bb
00000060: f082 8dbd 2fcb a5ba 4664 d6bd 19dd 3ebe
00000070: 015d ed3a 06f1 47bc a71f fabc a144 5cbd
-0.13463649 -0.41993588 0.070016235 -0.24184407 -0.028914154 -0.17744975 -0.19824898 -0.063262254
-0.11100711 -0.099572815 -0.09425171 -0.08381993 0.060375564 -0.03628773 0.10695411 -0.30205703
-0.07119868 -0.051565528 -0.3151494 -0.038349263 -0.07367406 0.010388697 -0.21648015 -0.0071147494
-0.0690974 -0.0012649054 -0.104683444 -0.1863903 0.0018109382 -0.012203461 -0.030532671 -0.053776387

bn22.running_mean f4 [32]
00000000: 558f d5be 43f0 c63e 2326 80be 1359 7f3f
00000010: dba4 0c3f ac74 91be 8e41 8dba 09e4 9e3d
00000020: efbd b13f e0cd 0240 b0fd c5be d199 20bf
00000030: 1bea 70bf b280 0dbf cea3 4abf 1d39 ed3f
00000040: c41b d53e a0c3 bbbb be8d 9d3f f318 31bf
00000050: 455b d8be f0c6 06bf 197b c63f 1f4a 4dbf
00000060: 3e85 1fbf deb6 edbf 4dd2 613f c2e1 363f
00000070: f1ea 66bf 2252 513d e059 31bf 746d 8fbe
-0.41710916 0.3885518 -0.25029096 0.9974529 0.5493905 -0.28409326 -0.0010776983 0.07758338
1.3886088 2.0438156 -0.3867011 -0.62734705 -0.94107217 -0.552745 -0.79156196 1.8533055
0.41622746 -0.0057301074 1.2308881 -0.69178694 -0.42257133 -0.52647305 1.5506316 -0.80191225
-0.62312686 -1.8571432 0.8821152 0.7143823 -0.9020224 0.05110372 -0.69277763 -0.28013194

bn22.running_var f4 [32]
00000000: ec1e 023f f45c d23e bfbc cb3e 3075 d23e
00000010: 5f33 233f 4863 a53e e246 ae3e eb45 9d3f
00000020: f815 be3e 09a9 723f 2d8e 973e 3616 ff3e
00000030: 1a10 243f 9511 a23f d324 333f 28e7 443f
00000040: 8a98 f33e b4d8 dd3e 2a4e 483f 4c9a 983f
00000050: a77d 433f 88b8 1c3f 4891 103f c625 db3f
00000060: 76d4 923f d4b0 553f 1538 033f f1cb cc3e
00000070: 6f89 d53f 0d9f ca3f 849b 2a3f f39a d83e
0.50828433 0.41086543 0.3979244 0.41105032 0.6375026 0.32302308 0.34038454 1.2286962
0.37126136 0.9478918 0.2960066 0.49821633 0.6408707 1.2661616 0.69978064 0.76915216
0.47577316 0.43329394 0.7824427 1.1922088 0.76363605 0.6121907 0.5647168 1.7120903
1.1471088 0.83472943 0.5125745 0.39999345 1.6682566 1.5829788 0.6664355 0.42305717

conv5.weight f4 [64, 32, 3, 3]
00000000: 7b5a ce3c 58f5 1bbd 4e8e 66bd 2f75 2bbb
00000010: 8689 02bd 695e 8fbd a92a d33c 8199 443d
00000020: 3541 38bb 6890 8ebc c14d 78bc 3058 cabc
00000030: f799 d83b 5836 843d fc9f d63b c8e4 adbb
00000040: ef85 1e3d de65 9e3c 72e0 c1bd 595d 54bd
00000050: 4219 6a3c 62e0 24bd 5145 a9bd 3e2a 8a3b
00000060: c333 febb 37cc 27bc 48c0 43bd 4013 a3bd
00000070: ee37 dbbc 6dd9 f8bc 60fb 03bd 198a 96bc
00000080: aefa e8bc 4ca4 da3c 75c8 2e3d 8b9d 903d
00000090: bdc7 44bd b8d4 f2bc d807 04be 9536 bdbd
000000a0: 9376 15bd cd73 9ebd 9040 95bd 1db0 12be
000000b0: f039 38be fce9 673d 2940 a83b cf4d eb3c
000000c0: 7073 3abd c8ea bdbd 4da3 c83b 7aa6 22bd
000000d0: e8b7 d3bc d6b1 b3bc 603a ebbc f3d1 893d
000000e0: 3bc7 12bd b6e2 0b3d 0cec bcbd f343 473d
000000f0: f16d 803b fbce dbbc cac8 33bc 1376 e53c
00000100: 824b fdbd 8c2f 6bbd 8357 0d3b e6d6 b83c
00000110: 20ce 88bd 4467 85bd 2ebe 05bd 2dd6 eabd
00000120: afe0 f3bc 79bc 2bbd 3107 453d b52c 0bbd
00000130: 4401 59bd ecda 66bc 52cd 4dbc d9f7 233b
00000140: 2b3e 7d3c 7534 c9bb efe3 19bd dbd1 413d
00000150: cdc6 713d 0ba0 e83d 7b20 90bc 1c18 8a3d
00000160: d45f d2bc 7dd3 263d bdbb 453c b3ba 4abd
00000170: 5ca5 663c 0ad7 ecbc e198 c2bc 1391 bebb
00000180: b7e5 523c 9ad1 e0bb e14c 88bd e380 043e
00000190: 41cd a53d 6b43 a63c 6110 363c 5676 483d
000001a0: a9a0 44bd 851d 713d 27c5 4b3d 2367 f2bc
000001b0: 578c 033d 1a32 703d d883 cabc 43a7 c13c
000001c0: d3fe 1c3d e79c 083d 260f 72bd d06f 4abc
000001d0: f4a2 fcbc 220e 15bd a9df 8cbc 7af1 f4bb
000001e0: 2eec e8bc 497e 23bc 160e 08bd f4fc e2bd
000001f0: 301a af3d 663f 12bc 00f2 573c 80a8 293c
00000200: 134c 4f3d d462 8dbd b8a7 803d 56b8 143d
00000210: d1ad 4ebd caea 13bd 34f4 973c a590 18bd
00000220: e08b 1ebd 0973 61bc 5316 163d 5532 603c
00000230: 4fb9 02bd d3fc ce3d d894 013d c4fb 07bd
00000240: ed6b 44bd fea1 3cbc 8bd5 39bc 559b 02bd
00000250: fdc1 8f3d cf21 97bc 03d5 223d b617 123c
00000260: e89e 3e3d afa2 a03d 12c4 f53c d3ec 6bbb
00000270: a89b 973c 9b82 9d3c af12 7f3d 1917 923d
00000280: 5c49 08bc ed5b b63b a6a6 063d 5407 203d
00000290: 3485 833c 73be e7bd c11a f93c 575b a63d
000002a0: 8fa5 7a3d 44fe d5bc 6c12 943c b823 853d
000002b0: 5ea1 e23c 1142 d5bc cf90 f0bb f0eb c23c
000002c0: 7280 073e 65f6 07be 59d8 e03c 9adc 493d
000002d0: 1524 d9bb 114a 5abc 31e0 623d 9eb2 8c3d
000002e0: 6219 3ebc a74b 873d 0c8d 823c 72f1 47bd
000002f0: 98c0 15bc f705 7cbd 36a6 2c3c 9f0f 32bc
00000300: 148b 1b3c ae50 91bd d62f 65bd 878b 933d
00000310: de1a 1b3c 847b ed3c b1df 983d e3e9 4c3c
00000320: 35ea 5d3c 77d4 e13c 5a59 88bc 20bf 983d
00000330: 969a 9f3d d214 f2bc 3d83 3cbd fb88 92ba
00000340: 6ac0 da3d 34c4 e23c 6492 063d 6c59 0e3d
00000350: 0802 983d 7651 123d 7ef9 373d f162 553d
00000360: 9c6e 653d 44c3 c7bb 9b26 c83c b191 0c3e
00000370: d639 3c3d c3cf 343d 751e ec3d 48c2 81bc
00000380: 269e a5bc 2da5 7f3d 875d 573d b6b0 123e
00000390: 7720 a7bc 1052 143d c3fd 4e3d a10b de3c
000003a0: 7915 dbbc 2737 363d 7337 fcbc 8105 4fbd
000003b0: acd3 39bb 3b0e 8abd e88e 28bd 679a 98bc
000003c0: 6334 d53c 3615 2c3b 2f61 c4bc 5d44 26bd
000003d0: 913f 033d 6928 2c3d 9070 38bd ed8d 993d
000003e0: 29c1 b5bb dfb0 cc3c aff4 00bd d5f3 fbbc
000003f0: 9df3 a63d 5ca7 723d 3381 653d cb88 28bd
0.025189629 -0.038075775 -0.056288056 -0.0026162376 -0.031869434 -0.07000429 0.025777178 0.047997955
-0.0028115038 -0.017402843 -0.015155257 -0.024700254 0.006610151 0.06455678 0.0065498333 -0.005306814
0.038701948 0.019335683 -0.09466638 -0.051846836 0.0142882485 -0.04025305 -0.08265174 0.0042164614
-0.0077576353 -0.01024156 -0.047790796 -0.07962656 -0.026760068 -0.030377114 -0.03222215 -0.018376397
-0.028439846 0.026689671 0.04267164 0.07061299 -0.048042048 -0.029642448 -0.12893617 -0.09238926
-0.036490034 -0.07736931 -0.07287705 -0.14324994 -0.17990851 0.05661963 0.0051346016 0.028723625
-0.045520246 -0.092732966 0.0061229826 -0.039709546 -0.02584453 -0.021935385 -0.028714359 0.06729498
-0.035834532 0.034151755 -0.0922471 0.048648786 0.003919356 -0.026832094 -0.010973165 0.028010404
-0.123679176 -0.05741839 0.0021567054 0.022563409 -0.0667994 -0.06513837 -0.032652073 -0.11466632
-0.029770223 -0.04192779 0.04810256 -0.033978183 -0.052979723 -0.014090281 -0.012561159 0.0025019555
0.0154567165 -0.0061402866 -0.03757089 0.047319274 0.05902748 0.11358651 -0.017593613 0.0674288
-0.02568046 0.040729035 0.012068686 -0.049494456 0.014077511 -0.028911132 -0.023754539 -0.005815634
0.012872151 -0.006860924 -0.066552885 0.12939791 0.0809579 0.02029582 0.0111123035 0.04894098
-0.04800478 0.058866043 0.049748566 -0.029590195 0.03211626 0.05864153 -0.024721071 0.023639327
0.038328957 0.03335276 -0.059096478 -0.01235576 -0.03083942 -0.03639043 -0.017196493 -0.0074750753
-0.028432932 -0.009978839 -0.03321656 -0.11083403 0.08549917 -0.008926248 0.013180256 0.010355115
0.05060966 -0.069036156 0.0628199 0.03630861 -0.050458733 -0.036112584 0.018549062 -0.03724732
-0.038707614 -0.013760337 0.036642384 0.013683875 -0.031915005 0.10106816 0.03163609 -0.033199087
-0.04795449 -0.011513231 -0.0113424165 -0.031886417 0.07019422 -0.018448738 0.039753925 0.008916786
0.046538264 0.078435294 0.03000072 -0.0035999313 0.01850684 0.019227317 0.062273677 0.07133312
-0.0083182715 0.0055651576 0.032873772 0.03906949 0.016054727 -0.11315622 0.030408265 0.081228904
0.061193045 -0.02612222 0.01807519 0.065009534 0.027664836 -0.02603248 -0.0073414813 0.023794144
0.13232592 -0.13277586 0.027446913 0.049282648 -0.0066266158 -0.013323323 0.055389587 0.06870006
-0.011602731 0.066062264 0.015936397 -0.048814245 -0.009140156 -0.061529126 0.010537675 -0.010867982
0.009493608 -0.070954666 -0.055953823 0.07204347 0.009466855 0.02898956 0.07464541 0.012506935
0.013544609 0.027567131 -0.016644169 0.07458329 0.07793157 -0.029550944 -0.046023596 -0.0011179739
0.10681231 0.027681448 0.032854453 0.034753248 0.074222624 0.03572222 0.04491567 0.05209631
0.05601369 -0.0060962755 0.024432471 0.13727452 0.045953594 0.04414345 0.11529247 -0.01583971
-0.020217013 0.062413383 0.05257943 0.14325222 -0.020401223 0.036211073 0.050534975 0.027105154
-0.026743637 0.04448619 -0.030788159 -0.05054236 -0.0028354926 -0.067409955 -0.04115191 -0.018628312
0.026025956 0.002625776 -0.023972122 -0.04059254 0.032043044 0.042030726 -0.045029223 0.07497773
-0.005546708 0.024986682 -0.03148335 -0.030755917 0.08151934 0.059241638 0.056031417 -0.04114608

conv5.bias f4 [64]
00000000: 5278 c4bc 2252 2ebd 60f9 6c3d 11ad 1fbd
00000010: 8db1 16bd eca4 0bbd 1b28 303d da71 683c
00000020: 2211 f13c 3f37 41bd a739 dfbc 6899 213d
00000030: 82d6 11bd 555a 71bc c222 15bd 9e4a 983c
00000040: 9540 1a3d 3a6c dc3b 494b 6abd 924a 023d
00000050: 43b4 16bc 688f 0d3d da10 183c 5b09 b13a
00000060: 92c9 3b3c 216e 0a39 d47b fc3c 7ef1 3cbd
00000070: cc41 6f3c 3e1a 283d 840b eb3b 8e4d d23c
00000080: d3bf c6bc 3b1b 14bd 8dd5 94bc fe89 0abd
00000090: 4cf2 36bd 9f73 4f3d 9fc3 1d3d ce26 aebc
000000a0: 51b4 34bd de14 983c d733 24bd 554b 923c
000000b0: 9535 2cbd 0b45 eebc 4c61 10bc 17b2 733c
000000c0: d299 78bc 76f5 3abd e78c 1cbd 6931 60bd
000000d0: a861 e3bc 0781 4abb 0bb5 a2bc 8ecf f6bc
000000e0: 5e39 74bc 0eaa 053d f9ec 91bc aa2d 273c
000000f0: 8946 0bbd 4aa9 4cbc e1e7 003b 8ad7 913c
-0.023983154 -0.042558797 0.05785501 -0.03898341 -0.03679042 -0.03409283 0.043006998 0.014187301
0.029427115 -0.047171827 -0.02724917 0.03945294 -0.03560496 -0.0147310095 -0.0364101 0.018590268
0.037659246 0.006726769 -0.057200704 0.031809397 -0.009198251 0.03456059 0.0092813615 0.0013506816
0.011461632 0.00013201732 0.030820765 -0.046128742 0.01460309 0.04104065 0.0071730036 0.025671747
-0.02426139 -0.03615878 -0.018168235 -0.033823006 -0.044664666 0.050647374 0.038516637 -0.021258738
-0.044117276 0.018564638 -0.0400885 0.017858187 -0.042043287 -0.029085657 -0.00881226 0.014874003
-0.015173392 -0.045644246 -0.038220312 -0.05473462 -0.027756527 -0.003089966 -0.019861719 -0.030128267
-0.0149062555 0.03263288 -0.017813193 0.010203758 -0.034002814 -0.0124915335 0.001966946 0.017802972

conv6.weight f4 [64, 64, 3, 3]
00000000: abcd 5d3d 7eea e13c dfd5 22bb d997 963b
00000010: daa5 5abc 9096 91bb 39bf 2fbe 8d08 0bbd
00000020: c7fb a4bd b267 9f3d 9c0b 273c c5ff 0fbb
00000030: ef98 34bd 78fa e23c 711b 17bb 5552 22be
00000040: 2c88 d3bc 1090 e43a dccc 1abe 1b16 8abd
00000050: bd91 b73c 032a 943d 0a76 afbc 0eb8 8b3c
00000060: 7194 0e3b 8a32 573c 1254 283d 70b2 633d
00000070: b6a6 0e3c a3d9 67bc d072 883d 92d1 d53c
00000080: c551 ac3c 1058 8b3c d82e ccbc 4757 f8bb
00000090: e290 413c fff0 943c 36dc 08bc e2ea 6bbb
000000a0: 9853 8f3c 9adf f5bc 456c 57bc 677b b4bc
000000b0: 4c58 22bd b192 ea3c 6f01 27bd dbf0 efbc
000000c0: d789 e73b 6217 813b 31c0 a03a 3221 a1bc
000000d0: 8bf5 55bd 4d0b 1c3d 9009 55bb bddb da3c
000000e0: f09d 5cbc d7a9 0b3d da25 f73c 5363 83bc
000000f0: 4155 41be ff51 bdbd 865a bc3c 6f6b ddbd
00000100: a4fa 51be e3a2 c7bc 921d 153d 4ded 06bb
00000110: 3ac3 173d 065d a53c bed3 953c 455c 813b
00000120: a4eb 033b ac75 59bd 15e5 07bd b19c b2bc
00000130: 72ff 893c 7f12 823b da6c 37be 5074 d9bc
00000140: ef4d 1cbd afcc 44bc b78f 5d3d 4141 d53c
00000150: 0140 0cbc 69fa 0ebd ccae b03c 9e22 a23d
00000160: ac4e e13c 298e ef3c 0d4d 51bc 6303 013d
00000170: 3181 a73c 8941 763c 8dc8 953c baee be3c
00000180: a6e1 6c3d 5428 3e3b 0f54 ae3c aad8 913c
00000190: 463e ecbb 7600 18bb f742 f63c b62d b03c
000001a0: 5827 083d 8e43 22be 95c6 263c 8e6d 59ba
000001b0: 85f7 10bd 4c3d 30bd 62e9 fdba bc86 7cbc
000001c0: fe2a 0ebd cd82 873a 3f4b 35be 6941 24bd
000001d0: feb3 1dbc 802e ffbc 2243 e9bc b9b8 0a3c
000001e0: dff2 b4bc b709 49bd 574a 9c3c 5712 163d
000001f0: 6980 ea3c 74f8 78bd 5c58 203d 773f b4bc
00000200: bfbc 48bc 0333 bf3c 00a3 ea3c cc4c ea3c
00000210: 81fe 39be 283f e6bc 9e19 823c 67d8 273d
00000220: 9e99 81bc 8ae2 1ab9 86a2 57bd 0bfb bd3c
00000230: e626 073d d619 11bd 974a 223b c26f d2bc
00000240: 8c08 77bd cf0e 3a3c 4886 c03c 2580 9d3c
00000250: d492 44bc f05d 9bbc 7771 fbbd 727e 38be
00000260: 5641 98bc e8d1 7dbb 5508 94bd 16f0 5abc
00000270: 37db 9e3c c527 b53c 9c37 d9bd b157 a43c
00000280: f059 8a3c 2fb4 cd3c 89a3 6eba a104 273b
00000290: 94b8 343c 2129 043b 19a6 583c 54e9 16bc
000002a0: 4366 aabb 8195 083d a2fb 143d 7315 b3bc
000002b0: 628b e23b 8f42 133d 69b5 41bb 15ca d2bc
000002c0: 8526 803c d70c 9c3c 5529 323c 4bb1 b0bb
000002d0: 6be7 2abd 3f3e 65bc 4aca 953c abad 693c
000002e0: 27c5 e23c 9f00 6b3c 9f39 523c a656 e23a
000002f0: dd78 ccbd a576 ad3b f176 4d3c f74a 3b3d
00000300: ab71 243c 8607 f13c 2cc1 44bc 7f1c 903d
00000310: 990e 343d 31b6 82bb d2b3 313b 45de 893c
00000320: c2ea ca38 9a6d 3a3c cdbf a6bc 473f 33bb
00000330: cacc 0d3d f704 2f3c 0b4c 503d b933 713c
00000340: 3f43 57bd 900c 04b9 6dce de3c 989b 643c
00000350: 1e9e af3c 0f5d a73c ec1d 263b f9f8 64bc
00000360: 6314 1f3d f9cf cf3c 2064 00bc 234e 3fbb
00000370: 67f1 d1bc b8af 7b3c 49a1 053d abd4 953c
00000380: 4ad9 2c3c aed0 5dbc cccf d23c 1e3d 403d
00000390: a9d8 c4bc f651 1bbd a2f2 783d 0844 ba3c
000003a0: ff57 273d d594 34bc aa56 b9bb 7d34 7f3c
000003b0: bf1f a9bc 2757 b2bd 5c3b 1a3c a72e 0abd
000003c0: 0508 1abe b3b6 fcbd dda1 b0bb 2bca 7b3a
000003d0: 621f 7dbc d520 06bc 4bcc 213a 9069 943c
000003e0: 7108 9ebb 3eee 61bb be5c 083d 88f1 053d
000003f0: ec10 613c 1d82 69bd 8600 b73c ad70 eebd
0.05415122 0.027577635 -0.0024846715 0.0045957384 -0.013345206 -0.0044429973 -0.1716279 -0.0339437
-0.08055835 0.0778345 0.010195639 -0.002197252 -0.04409116 0.027707323 -0.0023057128 -0.1585172
-0.025821768 0.0017437954 -0.1511721 -0.067424975 0.02240836 0.072345756 -0.02141859 0.017055538
0.0021755958 0.013134608 0.0410958 0.055590093 0.008706739 -0.01415101 0.06662524 0.026100907
0.021035085 0.017009765 -0.02492468 -0.0075787636 0.011814328 0.018181322 -0.008353284 -0.0035998155
0.017495915 -0.030013848 -0.013148372 -0.0220315 -0.039634988 0.028634401 -0.04077285 -0.029289654
0.0070659923 0.003939555 0.0012264309 -0.01966915 -0.05223612 0.038096715 -0.003250692 0.026716108
-0.01346539 0.03409752 0.030169416 -0.016038572 -0.18880178 -0.09244155 0.022992384 -0.10811507
-0.20505768 -0.024369663 0.036405154 -0.002058822 0.037051417 0.020185959 0.018289443 0.003947767
0.0020129466 -0.053090736 -0.033177454 -0.021803232 0.016845439 0.00396949 -0.17912617 -0.02654472
-0.03816026 -0.012011691 0.054092135 0.026032092 -0.008560182 -0.03490678 0.021567725 0.07916759
0.027503334 0.029242592 -0.012774718 0.03149737 0.020447345 0.015030273 0.018284107 0.023307193
0.057832383 0.0029015737 0.021280317 0.017803509 -0.007209572 -0.0023193634 0.030061228 0.021506172
0.033240646 -0.15846083 0.010179182 -0.0008294218 -0.035392303 -0.043027207 -0.0019371922 -0.015412983
-0.03470897 0.0010338664 -0.17704485 -0.040101442 -0.009625433 -0.031150103 -0.028474394 0.008466893
-0.022088466 -0.04908153 0.019078417 0.036638584 0.028625684 -0.06078382 0.039146766 -0.022002919
-0.012252032 0.023339754 0.028642178 0.028601073 -0.18163492 -0.028106287 0.015881356 0.04097786
-0.01582032 -0.00014770977 -0.05264523 0.023190996 0.03299608 -0.03542503 0.0024763697 -0.025688056
-0.060310885 0.01135607 0.02350153 0.019226143 -0.011997897 -0.018965691 -0.12277501 -0.18016985
-0.018585842 -0.003872985 -0.07228152 -0.013362905 0.01939164 0.02211369 -0.1060631 0.020061346
0.016888589 0.025110332 -0.0009103348 0.0025484937 0.011030335 0.0020166116 0.0132231945 -0.009210903
-0.005200179 0.033345703 0.03637279 -0.021860814 0.0069135884 0.035952147 -0.0029557592 -0.025731126
0.015643368 0.019049091 0.010874112 -0.0053922287 -0.041724604 -0.013991891 0.018284936 0.014262597
0.0276819 0.01434341 0.012831121 0.0017268255 -0.0998399 0.0052936845 0.012540565 0.04572579
0.010036866 0.029422533 -0.012008946 0.07036685 0.043959234 -0.003989004 0.0027115238 0.01682962
9.675838e-05 0.01137867 -0.02035513 -0.0027350949 0.03461913 0.010682336 0.05085377 0.014721804
-0.052554365 -0.00012593181 0.02719804 0.013953112 0.0214377 0.020430116 0.0025347425 -0.013975375
0.0388378 0.025367724 -0.007836372 -0.002919086 -0.025627805 0.015361719 0.032624517 0.018289885
0.010549853 -0.013538523 0.02573385 0.046933286 -0.024029093 -0.03791996 0.060778268 0.022737518
0.040855404 -0.011021812 -0.005656083 0.015576479 -0.02064502 -0.08708029 0.009413566 -0.033735897
-0.15042122 -0.123395346 -0.0053903894 0.00096050155 -0.015449377 -0.008186539 0.00061721046 0.018116742
-0.0048227836 -0.0034474279 0.03329157 0.032701045 0.013736945 -0.05700885 0.022339117 -0.11642585

conv6.bias f4 [64]
00000000: a254 d1bc d053 883b becc 233d 5eef 19bb
00000010: 30d2 5e3c d57d ecbc e6c4 cfbb 8bc4 52bc
00000020: 3ddb 043c 4e6d 8abc 13ef c0bc c910 46bc
00000030: d2c4 133d 17e1 0c3d e595 203d 8bf2 5c3b
00000040: 0ce9 04bd 51f9 4139 3f0c 773c 7ce5 29bd
00000050: 678e 023d f8d0 a83c 4145 b1bb b2d6 1fbd
00000060: 8a46 e63c 9ba8 fc3b 774b 91bc 869e 1fbc
00000070: 0257 b0bc 1ff7 e2bb 52d8 afbb f6d5 e03c
00000080: edba cebc d922 20bd a9bb 0c3d 8289 9fbc
00000090: 2c97 003d 3bfa 073c 333a f63c ce87 12bd
000000a0: 57a8 c53b c235 013d 3f03 f83b c804 853c
000000b0: 7fb3 a83c bb4d 25bd 484c 45bc 3d74 dc3c
000000c0: a8a1 90bb b922 babc 631f 023d c12f 6dbc
000000d0: 0ea9 84bc ec47 d9bb 9a9f 353c a339 bb3c
000000e0: 5955 153c 1ef7 22bd 0dc6 803c b130 e1bc
000000f0: 6005 103d 439f 43bc 0e57 c83c ff67 b93b
-0.025553051 0.004160382 0.03999018 -0.0023488621 0.013599917 -0.028868595 -0.006340611 -0.012864242
0.008108911 -0.016897824 -0.0235515 -0.012088963 0.036076374 0.03439435 0.03920545 0.0033713903
-0.032448813 0.00018498792 0.015078603 -0.04147862 0.031874087 0.020607457 -0.005409867 -0.03902311
0.028109808 0.007710529 -0.01773618 -0.009742385 -0.021525864 -0.006926432 -0.0053663636 0.027445775
-0.025235618 -0.039095733 0.034358654 -0.019474749 0.03139417 0.008299406 0.030057048 -0.035774045
0.0060320306 0.031545408 0.0075687463 0.016237631 0.020593403 -0.040357333 -0.012042113 0.026910895
-0.004413802 -0.022721635 0.031768214 -0.014476717 -0.016193893 -0.006630888 0.011085415 0.022854632
0.009114587 -0.03978645 0.015719438 -0.027489038 0.035161376 -0.011939826 0.024455573 0.0056581493
