checkpoints/best_model_1607_2.pth (torch, 311131 bytes, 38 tensors)

conv1.weight f4 [16, 4, 3, 3]
0.05135016 -0.005643107 0.2952334 -0.28978953 0.19334464 1.3358365 -0.12215989 0.1288385
0.23087569 -0.24325414 0.4502913 0.13117945 -2.535455 -0.5666047 1.7641256 1.1522126
0.42621106 -1.7659178 -0.27892083 0.59598374 -0.52986836 2.1312776 0.8235861 1.109588
-1.348136 0.03358386 0.009544582 -0.9746109 -0.19355339 -4.3906174 -0.1691703 -0.03913757
0.86036354 0.23002335 0.27021527 -3.41262 0.81172734 -1.8171864 0.74406236 -0.16800255
0.7515219 2.990927 0.6654049 0.243356 -1.588441 0.02164165 0.78926134 -1.5291606
-0.099575765 0.5970213 2.7457895 0.97282517 -1.2497377 0.86047363 -0.32782564 -0.6272868
2.0897114 0.8183214 0.4767331 -1.9710633 0.083348 1.7615945 -0.08198708 -1.2429948
2.0967896 -0.36658025 0.6359929 -0.08683125 -2.1433675 -0.083966374 -0.32227793 2.0975075
-1.9853687 0.29944974 -0.54430157 -0.56333995 -0.28733987 1.4862156 0.9617594 0.39609203
1.1761785 -1.266336 0.11688338 -3.33552 -0.006829119 0.010650356 -1.1474545 1.669788
0.86528003 0.23609535 -0.37939322 0.28275293 1.7498642 -0.22558004 -0.14777213 0.45596611
-1.6211731 -3.204613 0.22221164 -0.48290238 0.040465448 0.46608248 0.100290366 -0.32800394
-2.0159338 -0.53486836 -2.1573799 -0.84653074 -0.8038421 0.05316437 -4.663823 -0.4669019
-3.5603032 -3.6109402 0.8549689 -4.290549 -0.40762916 -0.49819636 0.8549712 0.15377103
0.9510005 1.302189 0.3432072 -0.3671967 -0.09929571 0.26281935 -0.38176733 0.8781471
0.008299174 -0.5235494 0.9020645 1.4614557 1.2362113 -0.09118728 -0.54633796 -0.5430664
0.30637032 -0.050648525 -1.5429432 0.6033952 0.6048495 0.57512176 0.12862666 -0.15760922
-1.7722433 -1.7607579 0.07502474 -1.2709408 1.5705248 0.12919395 0.24922647 -0.27200043
-2.429124 -0.6716731 -2.3535252 -1.0768709 0.7938066 1.8481518 -1.0497928 0.51078624
-0.52724886 -1.023359 0.113505945 1.4461381 0.8676717 -2.538657 0.73018813 0.18535161
0.25307468 -1.8222067 -0.31566483 0.9507729 1.1335075 -0.066484354 -0.045154907 0.94873047
-1.379021 0.7245792 -1.5666636 0.4319524 -0.15227892 -1.6882806 -1.1074659 -0.6260932
1.5409133 2.635918 -0.87716067 0.9166455 0.0137687 -0.36835474 -0.6294129 -1.9449654
-0.2981699 3.8019245 1.6925275 -0.0866333 0.66249555 -0.40418607 0.044872798 0.7821009
2.8418252 -0.5467826 0.9140153 2.1934965 -1.3550138 0.12016064 -0.40021262 -0.10082054
1.7790045 0.8440663 -0.6843874 2.8994875 0.39881614 -0.58282197 -0.17096207 -0.17419514
0.19973916 -3.392568 -1.202469 -0.071466915 -2.1473196 -1.0700498 -1.8197867 -2.2513294
-1.3137875 -0.06892297 0.116626695 -0.14271954 -0.0007459302 1.3098671 -0.013039817 -0.5960679
0.7453186 0.61618227 -0.17236209 0.24574152 -0.4745086 0.93109316 1.2260312 0.1430142
-0.3162664 0.97176003 0.62046844 -0.08464488 -1.9187903 -1.8060402 -2.2837996 -2.6031454
-1.9334061 -1.5008959 -2.683493 -1.0534836 -0.31010944 0.9759985 1.1656694 -0.47161335
00000000: 8c54 523d d0e9 b8bb d528 973e 4b5f 94be
00000010: 23fc 453e b1fc aa3f f72e fabd 3dee 033e
00000020: ad6a 6c3e 9d17 79be 958c e63e e853 063e
00000030: e544 22c0 010d 11bf dece e13f b47b 933f
00000040: 5638 da3e 9809 e2bf b6ce 8ebe 6492 183f
00000050: 74a5 07bf da66 0840 8ad6 523f fb06 8e3f
00000060: b88f acbf 3b8f 093d e160 1c3c 1a80 79bf
00000070: dc32 46be f07f 8cc0 fb3a 2dbe b74e 20bd
00000080: c940 5c3f 3e8b 6b3e a859 8a3e 5e68 5ac0
00000090: 5dcd 4f3f 9099 e8bf df7a 3e3f dc08 2cbe
000000a0: bd63 403f 596b 3f40 fa57 2a3f 5132 793e
000000b0: 0952 cbbf d449 b13c 080d 4a3f 89bb c3bf
000000c0: 61ee cbbd 63d6 183f 04bb 2f40 120b 793f
000000d0: 68f7 9fbf 0048 5c3f c3d8 a7be de95 20bf
000000e0: d5bd 0540 837d 513f 5c16 f43e cd4b fcbf
000000f0: 5bb2 aa3d ee7b e13f d8e8 a7bd 741a 9fbf
00000100: cd31 0640 68b0 bbbe 6ed0 223f 95d4 b1bd
00000110: ef2c 09c0 90f6 abbd 9d01 a5be 903d 0640
00000120: 9020 febf 7a51 993e 5957 0bbf 0c37 10bf
00000130: 361e 93be 503c be3f dd35 763f 93cc ca3e
00000140: 048d 963f 4c17 a2bf 8e60 ef3d 2979 55c0
00000150: cdc6 dfbb d57e 2e3c cadf 92bf 9dbb d53f
00000160: fe82 5d3f fbc2 713e d43f c2be fec4 903e
00000170: 8dfb df3f 74fe 66be 9451 17be 6474 e93e
00000180: 9a82 cfbf 6118 4dc0 738b 633e fb3e f7be
00000190: 19bf 253d 5da2 ee3e 0965 cd3d 22f0 a7be
000001a0: 0f05 01c0 22ed 08bf 8312 0ac0 3db6 58bf
000001b0: 99c8 4dbf e2c2 593d 0a3e 95c0 c40d efbe
000001c0: 02dc 63c0 a519 67c0 3edf 5a3f 2d4c 89c0
000001d0: c5b4 d0be 9813 ffbe 64df 5a3f 2776 1d3e
000001e0: c574 733f 21ae a63f dbb8 af3e 3501 bcbe
000001f0: 8d5b cbbd 4290 863e 0277 c3be 40ce 603f
00000200: 42f9 073c 5507 06bf b3ed 663f fb10 bb3f
00000210: 2c3c 9e3f 66c0 babd cedc 0bbf 6606 0bbf
00000220: 92dc 9c3e d474 4fbd 2a7f c5bf 1c78 1a3f
00000230: 6bd7 1a3f 2e3b 133f b5b6 033e 5064 21be
00000240: ded8 e2bf 8460 e1bf 92a6 993d 30ae a2bf
00000250: f506 c93f 6b4b 043e 3935 7f3e a443 8bbe
00000260: c576 1bc0 c5f2 2bbf 28a0 16c0 e8d6 89bf
00000270: e936 4b3f 3d90 ec3f 9c5f 86bf e3c2 023f
00000280: c8f9 06bf 6dfd 82bf ce75 e83d 0e1b b93f
00000290: bc1f 5e3f 5b79 22c0 9ced 3a3f d0cc 3d3e
000002a0: 0193 813e 123e e9bf d29e a1be da65 733f
000002b0: c616 913f f328 88bd 5af4 38bd 00e0 723f
000002c0: c383 b0bf 067e 393f 6f88 c8bf dd28 dd3e
000002d0: 01ef 1bbe 9419 d8bf 71c1 8dbf a547 20bf
000002e0: a63c c53f e1b2 2840 9a8d 60bf 48a9 6a3f
000002f0: 1d96 613c fe98 bcbe 3421 21bf a0f4 f8bf
00000300: baa9 98be bb52 7340 bea4 d83f cd6c b1bd
00000310: 4f99 293f 7af1 cebe 8acc 373d c437 483f
00000320: 77e0 3540 f2f9 0bbf e8fc 693f 3f62 0c40
00000330: 1871 adbf c816 f63d abe8 ccbe 007b cebd
00000340: 6bb6 e33f bb14 583f 0334 2fbf 3491 3940
00000350: a131 cc3e d233 15bf ae10 2fbe 3660 32be
00000360: 6c88 4c3e d61f 59c0 81ea 99bf 3f5d 92bd
00000370: af6d 09c0 64f7 88bf c5ee e8bf c815 10c0
00000380: 302a a8bf 7c27 8dbd fad9 ee3d 1225 12be
00000390: 878a 43ba baa9 a73f f5a4 55bc e897 18bf
000003a0: 33cd 3e3f 1fbe 1d3f b07f 30be aaa3 7b3e
000003b0: cbf2 f2be 1f5c 6e3f 97ee 9c3f 5072 123e
000003c0: abed a1be 44c5 783f 05d7 1e3f 4b5a adbd
000003d0: ec9a f5bf 532c e7bf c629 12c0 ef99 26c0
000003e0: da79 f7bf 5b1d c0bf 59be 2bc0 8dd8 86bf
000003f0: aac6 9ebe 0adb 793f a834 953f 4e77 f1be

conv1.bias f4 [16]
2.1956217 0.18669702 -1.1494797 0.1554316 -0.4621009 -0.07145145 -1.7114508 0.019485567
-2.0087023 0.15489648 1.4214313 -1.5942689 -0.61089075 -0.52444553 -0.85535675 0.027587805
00000000: 1185 0c40 812d 3f3e 2722 93bf 7629 1f3e
00000010: 7d98 ecbe 2355 92bd d210 dbbf 32a0 9f3c
00000020: 948e 00c0 2f9d 1e3e 76f1 b53f 0111 ccbf
00000030: 5663 1cbf 1042 06bf a9f8 5abf d2ff e13c

conv2.weight f4 [16, 16, 3, 3]
-0.7092667 0.14143293 1.6672783 1.2384658 -0.9381574 2.35364 2.1166978 -0.66406107
0.50401795 -0.7159339 0.47925404 -1.5852373 1.6910048 -1.3145362 1.3893695 -0.3241182
0.80204904 -0.88969034 2.1624079 -3.99579 -0.47982088 -0.28326428 -1.2405901 5.2880754
-2.435043 3.5158608 0.33496353 1.9924409 3.0948207 1.0329266 0.7574944 -2.4482815
0.20391844 2.0554438 1.6800723 1.5891219 -1.8691531 0.26662385 -1.0977166 0.99625593
1.8180714 1.4802824 1.3881962 -2.2101247 -0.122053735 0.22291568 -0.74975187 1.0232741
1.8436577 2.354002 -1.8668872 1.3507293 -0.38154155 1.1020471 -0.5512371 0.3109549
-1.0629147 -0.7387582 -0.59258527 1.8798224 -0.011749342 0.07010274 -0.2856865 0.33938998
-0.043171898 0.19985874 2.9752986 -0.08973957 1.7736146 1.0985638 0.33858114 -0.54845357
1.9767276 -0.13128811 1.1783165 1.786 0.9791246 1.922377 1.328003 0.976668
1.3182923 1.067603 0.5662452 -0.566926 0.68276083 1.8980958 0.009219606 0.050440628
0.38648066 0.35131308 0.7280062 0.7667267 -0.32785842 0.2926349 -0.018725045 -0.6986477
0.8063534 0.06936167 0.11949744 -1.260578 1.3074971 1.7904512 0.008952583 -1.5206906
0.46651515 -0.108881965 -0.864745 1.6491722 -0.4020583 0.46455547 0.34509414 0.5570784
-1.4692404 1.6755981 0.6943831 -1.0297827 0.036121894 1.2545823 -0.626299 1.3700349
-0.5353198 -3.2643826 2.7449725 0.6324323 -3.2432945 1.4800934 -0.47273132 0.030944426
1.3203584 0.48420325 -0.9409182 -4.2263927 -3.082465 -2.6448715 4.701912 2.3655248
-1.9364923 0.7784366 -0.85833585 1.9992638 1.2892854 -0.089022376 1.5471829 0.20259519
1.4092714 -1.7380118 -0.8795739 0.8641923 -1.5700123 -0.043104876 0.051667 -1.1974009
1.3528284 -0.9497069 0.54538316 -0.7007886 -2.3784533 -1.228137 0.37356254 1.4491919
0.0893521 -1.8587582 -0.25938892 -0.7452595 1.5107875 -0.5423634 -0.61928016 -1.474939
0.8374475 -1.2358667 -0.42949453 -1.2046863 -0.85460496 -0.629103 -1.3301373 -2.0612535
-0.67184484 0.8446565 -0.20418231 -0.22503838 1.4644778 1.6495454 -0.03861109 2.322826
0.3776897 0.15722081 -0.99016935 -1.0529335 0.06263176 -1.3760071 -0.5992426 -0.4566829
-1.3914413 -1.014953 -1.6717035 -1.4472269 -2.2176216 0.25368154 -1.7682467 -0.66999775
2.2774458 -1.0973445 4.3213177 -1.0422567 -0.78738576 0.67066145 -1.8967016 -0.7138824
-1.1294702 -0.09735945 -1.1213719 -1.4797286 -0.3641113 -1.4876645 -1.5746894 -0.62931955
0.0065577035 -2.5823393 0.73273516 -2.1212754 -0.70404786 -1.0997069 0.25012556 1.3749821
-1.7911729 -0.92036265 0.8764343 -1.5911528 -0.9471139 -2.152843 -2.1302373 0.039610144
1.0281382 0.12331191 0.15995495 1.2811453 -1.3457729 -1.4674008 0.99827325 0.28595433
-0.34813008 -0.5576658 0.03119815 0.4161483 0.20874593 1.4419208 -1.0878764 -0.91203827
-1.1104482 1.2523909 -0.38357 0.19796102 0.5991123 1.776912 0.13226575 1.1205208
00000000: 8192 35bf cbd3 103e 6069 d53f 0c86 9e3f
00000010: 152b 70bf 0aa2 1640 fa77 0740 e8ff 29bf
00000020: 5207 013f 7247 37bf c960 f53e 0ee9 cabf
00000030: d872 d83f b942 a8bf dcd6 b13f d2f2 a5be
00000040: 1653 4d3f bfc2 63bf e464 0a40 06bb 7fc0
00000050: 15ab f5be 0408 91be a8cb 9ebf ea37 a940
00000060: bfd7 1bc0 dd03 6140 5780 ab3e 4e08 ff3f
00000070: 8b11 4640 f036 843f 27eb 413f a5b0 1cc0
00000080: ffcf 503e 648c 0340 9c0c d73f 5968 cb3f
00000090: 6940 efbf ec82 883e fa81 8cbf a10a 7f3f
000000a0: 90b6 e83f e579 bd3f 6ab0 b13f af72 0dc0
000000b0: 4ff7 f9bd 0244 643e bdef 3fbf a5fa 823f
000000c0: fafc eb3f f8a7 1640 29f6 eebf b3e4 ac3f
000000d0: 6a59 c3be e10f 8d3f e01d 0dbf 7b35 9f3e
000000e0: 970d 88bf 421f 3dbf abb3 17bf 059e f03f
000000f0: 5080 40bc 0692 8f3d 8045 92be 86c4 ad3e
00000100: 04d5 30bd c5a7 4c3e 4b6b 3e40 61c9 b7bd
00000110: ce05 e33f bd9d 8c3f 825a ad3e 7467 0cbf
00000120: 6905 fd3f 6470 06be 13d3 963f a69b e43f
00000130: e9a7 7a3f 7310 f63f 01fc a93f ea06 7a3f
00000140: cdbd a83f 37a7 883f 72f5 103f 1022 11bf
00000150: 6ac9 2e3f cef4 f23f d50d 173c d59a 4e3d
00000160: cbe0 c53e 4fdf b33e 9d5e 3a3f 3348 443f
00000170: 0fdd a7be 3ed4 953e 4465 99bc 93da 32bf
00000180: 2d6d 4e3f 7e0d 8e3d 13bb f43d 9f5a a1bf
00000190: 115c a73f 812d e53f dbad 123c fda5 c2bf
000001a0: 13db ee3e 82fd debd ee5f 5dbf 1318 d33f
000001b0: 96da cdbe 37da ed3e 2eb0 b03e b19c 0e3f
000001c0: 1210 bcbf 007a d63f 17c3 313f ebcf 83bf
000001d0: 8df4 133d 2796 a03f 2255 20bf 4e5d af3f
000001e0: b80a 09bf a5eb 50c0 a1ad 2f40 15e7 213f
000001f0: 2392 4fc0 b373 bd3f d709 f2be 2a7f fd3c
00000200: 8101 a93f 7de9 f73e 04e0 70bf 9c3e 87c0
00000210: 1b47 45c0 9345 29c0 1076 9640 c264 1740
00000220: fbde f7bf 9f47 473f e6bb 5bbf e0e7 ff3f
00000230: 4e07 a53f 5d51 b6bd 170a c63f 1d75 4f3e
00000240: 0163 b43f 2c77 debf c12b 61bf b53b 5d3f
00000250: 2af6 c8bf bd8e 30bd c7a0 533d 6f44 99bf
00000260: 7b29 ad3f fe1f 73bf 3b9e 0b3f e266 33bf
00000270: 9438 18c0 9833 9dbf 9743 bf3e 1f7f b93f
00000280: 3cfe b63d caeb edbf a0ce 84be 54c9 3ebf
00000290: 7c61 c13f 54d8 0abf 2589 1ebf cdca bcbf
000002a0: f662 563f e130 9ebf b5e6 dbbe 2933 9abf
000002b0: 64c7 5abf e50c 21bf f041 aabf 94eb 03c0
000002c0: 06fe 2bbf 693b 583f 2b15 51be 7670 66be
000002d0: 0274 bb3f 4e24 d33f aa26 1ebd 2ea9 1440
000002e0: 8b60 c13e 7efe 203e bd7b 7dbf 86c6 86bf
000002f0: 1545 803d 0021 b0bf f767 19bf 57d2 e9be
00000300: c01a b2bf fbe9 81bf 61fa d5bf bb3e b9bf
00000310: 83ed 0dc0 8ce2 813e e855 e2bf f984 2bbf
00000320: acc1 1140 c975 8cbf 3c48 8a40 ab68 85bf
00000330: 1d92 49bf 78b0 2b3f 1ec7 f2bf ffc0 36bf
00000340: 7b92 90bf 6464 c7bd 1d89 8fbf bf67 bdbf
00000350: cc6c babe ca6b bebf 6c8f c9bf 161b 21bf
00000360: 01e2 d63b 0c45 25c0 8894 3b3f fac2 07c0
00000370: 7b3c 34bf 32c3 8cbf 7510 803e 6aff af3f
00000380: 2745 e5bf e39c 6bbf 005e 603f e5aa cbbf
00000390: 0e76 72bf 2ec8 09c0 cf55 08c0 3f3e 223d
000003a0: 089a 833f f48a fc3d 3bcb 233e 92fc a33f
000003b0: 4942 acbf cad3 bbbf d68e 7f3f 9b68 923e
000003c0: 1b3e b2be 30c3 0ebf 4393 ff3c 6411 d53e
000003d0: 7ec1 553e dc90 b83f 893f 8bbf 577b 69bf
000003e0: 2b23 8ebf 584e a03f 4963 c4be 4bb6 4a3e
000003f0: 6c5f 193f da71 e33f ac70 073e 3a6d 8f3f

conv2.bias f4 [16]
0.035081435 0.02158446 -0.15338306 0.06323908 0.055107243 -0.08077874 0.0479274 -0.09812193
-0.011787219 0.49980694 0.014265264 -0.0067173517 0.059362892 0.04920376 0.05808171 -0.41302705
00000000: 8db1 0f3d e5d1 b03c 7310 1dbe 7e83 813d
00000010: 22b8 613d 536f a5bd 854f 443d 27f4 c8bd
00000020: 2e1f 41bc b2e6 ff3e dbb8 693c 3b1d dcbb
00000030: 8126 733d e289 493d 16e7 6d3d 4878 d3be

bn11.weight f4 [16]
0.54388124 0.8374454 1.0728118 1.3924689 0.9955191 0.9352357 2.2155013 1.1662945
0.2574692 0.6001173 2.3332288 1.8556937 0.49881342 1.3392761 0.8919572 0.6052149
00000000: cd3b 0b3f d262 563f e651 893f 6c3c b23f
00000010: 57da 7e3f 9b6b 6f3f c6ca 0d40 2349 953f
00000020: 01d3 833e 4aa1 193f 9f53 1540 5f87 ed3f
00000030: 7964 ff3e 666d ab3f 4f57 643f 5def 1a3f

bn11.bias f4 [16]
-0.0399934 -0.9847373 -0.19876865 -0.36769235 -0.13695486 -0.90260404 -0.43791732 -1.0264354
0.106837824 -0.6590378 -0.98282033 -0.8102282 -0.12186304 -0.16640949 -0.28361577 -0.74030036
00000000: 1fd0 23bd be17 7cbf 028a 4bbe 2c42 bcbe
00000010: e53d 0cbe 0f11 67bf b336 e0be 3c62 83bf
00000020: cacd da3d b4b6 28bf 1d9a 7bbf 1e6b 4fbf
00000030: 5493 f9bd 4067 2abe 1636 91be 5384 3dbf

bn11.running_mean f4 [16]
2.0218349 0.50130385 -1.5391748 -0.25707436 -0.7919555 0.36735034 -2.591315 0.43218976
-2.0826066 0.39011535 1.1479658 -2.001649 -0.7514565 -0.8668309 -1.1138666 0.2441991
00000000: be65 0140 7355 003f ae03 c5bf 409f 83be
00000010: 98bd 4abf 5815 bc3e 1bd8 25c0 fa47 dd3e
00000020: 6d49 05c0 33bd c73e 8bf0 923f 041b 00c0
00000030: 745f 40bf a1e8 5dbf 2e93 8ebf 540f 7a3e

bn11.running_var f4 [16]
0.1685459 0.4015486 0.5801466 0.7144873 0.41495252 0.83692557 2.6927545 0.76785547
0.108631894 0.36366916 0.33790952 0.631531 0.14688532 0.4476706 0.2946501 0.3670631
00000000: 4c97 2c3e c797 cd3e 7d84 143f a4e8 363f
00000010: a874 d43e c140 563f 1756 2c40 2d92 443f
00000020: 667a de3d d832 ba3e 7a02 ad3e 04ac 213f
00000030: 1b69 163e 1535 e53e 61dc 963e b2ef bb3e

bn12.weight f4 [16]
0.42942667 1.1052262 1.3537905 1.9796401 0.5018923 3.293283 1.580323 1.795762
0.3463697 3.3627756 0.64190185 0.9581815 1.4907397 1.0283109 0.70694447 1.5408639
00000000: d0dd db3e 0d78 8d3f 0249 ad3f d964 fd3f
00000010: 047c 003f 26c5 5240 0648 ca3f 87db e53f
00000020: 5f57 b13e b737 5740 ae53 243f 624b 753f
00000030: 8fd0 be3f b19f 833f 50fa 343f 073b c53f

bn12.bias f4 [16]
-0.76789504 -0.45202237 -0.76664454 -0.9085679 -0.9654469 -1.971813 -0.77137876 -0.9931181
-0.068949 -3.2046719 0.0013526622 -0.5330434 -0.7129806 -0.28925645 -1.2660165 -0.85141283
00000000: c594 44bf 7a6f e7be d142 44bf e897 68bf
00000010: 8727 77bf 5e64 fcbf 1479 45bf fd3c 7ebf
00000020: 2235 8dbd 5819 4dc0 d04b b13a 8875 08bf
00000030: e685 36bf 6c19 94be d40c a2bf 31f6 59bf

bn12.running_mean f4 [16]
7.738143 -7.6798277 3.0063426 -0.21573637 -15.812642 7.8689413 1.6990159 4.006582
-15.995601 4.443926 -16.099878 -6.38813 -3.699656 -1.3737363 -7.079354 14.644908
00000000: de9e f740 26c1 f5c0 eb67 4040 ffe9 5cbe
00000010: 9500 7dc1 5ece fb40 5a79 d93f eb35 8040
00000020: fbed 7fc1 a434 8e40 8dcc 80c1 906b ccc0
00000030: 2ac7 6cc0 97d6 afbf 118a e2c0 8b51 6a41

bn12.running_var f4 [16]
30.822386 128.35748 55.655556 41.695946 32.221367 33.424614 60.667366 178.87187
17.306044 33.107628 125.60141 73.20433 89.43131 88.75816 67.502815 70.4754
00000000: 3f94 f641 845b 0043 4a9f 5e42 a6c8 2642
00000010: aee2 0042 ceb2 0542 62ab 7242 33df 3243
00000020: c772 8a41 366e 0442 ec33 fb42 9e68 9242
00000030: d5dc b242 2e84 b142 7101 8742 68f3 8c42

conv3.weight f4 [32, 16, 3, 3]
0.60103196 -0.24638483 -0.53484416 -1.4786159 0.058268443 -0.68001014 0.02388614 -1.1773216
-0.30767825 0.08319823 2.2256856 1.8595725 -0.038750246 1.2780573 -1.39142 -0.65499294
1.1406059 -2.39608 1.8348465 1.1023144 1.4163293 -0.3848977 -0.2553862 -0.9788284
1.16894 0.17666711 0.34501594 0.053856447 -0.7431608 0.65887046 1.593476 0.63094896
0.042828068 -1.5983851 0.7591686 -1.5657895 -0.40847766 0.12804557 0.21503252 -0.32447046
1.0613618 -0.47340006 -0.051204 0.50372237 0.15354782 -1.6730748 -3.0250068 -1.8448713
-2.2881618 -3.0644774 -1.9708273 -1.8999261 -2.9306638 0.42585427 0.9820959 -0.9710153
1.0225353 0.8269678 -0.19901377 -1.0183848 2.2308986 -3.091832 0.35350958 0.8914105
-1.9385456 -0.44714826 2.3116477 1.7335744 -0.5733237 1.6351604 0.83225226 -0.072384484
1.0909957 0.11042082 0.08024341 -0.99891865 2.0558267 0.8433472 0.3741486 0.78131527
1.378907 -0.7294726 0.082312874 -0.87497485 -0.84134316 0.7956591 -0.23895665 0.36629608
-0.5127912 0.73290145 0.80736595 -0.40138087 -0.7973858 -0.50243646 -0.2579872 0.0662001
-0.37259412 -0.55435956 0.44419742 -0.13757662 0.7461374 -0.13089655 -0.5305302 -1.2975357
0.1537839 -3.6927056 2.6909938 -1.6434766 -0.41827136 0.28580904 -0.92506623 -0.54037195
0.39043066 -0.055597387 -2.350656 0.35930413 0.23569483 -0.34198752 -0.9451133 -0.10212132
-0.09717814 -0.4295469 0.9734601 -7.6642694 2.1521852 -0.6378531 -0.17618237 -0.44019714
0.12661041 -1.1217197 0.56707495 -0.6419023 -0.8894989 -0.67922735 1.9676509 1.6993138
-0.6791457 -1.2184417 -1.216341 1.7019366 -1.5227836 -2.0306816 -0.083363794 0.111410394
-1.0114849 -0.47858152 -0.7937693 -0.6310561 -0.18113944 -1.0879446 -1.1733018 -2.155575
-2.9236414 -0.20507365 -0.057417803 0.3600199 -0.76059943 -1.3552562 -0.27604645 0.5123654
0.54831886 -0.9458268 0.818438 -1.1525631 -1.3927457 1.2069671 -2.1454158 1.123217
1.1047869 0.16206616 0.38543472 0.73161876 1.0490007 -0.4985009 0.09155674 -0.82756126
1.576076 -0.34218565 -0.31542388 -0.27715605 -1.5833433 -0.64197844 2.011476 -0.30002266
-0.15371658 0.6577991 0.023568042 -3.656743 -1.0179489 1.4418726 2.5218565 -1.9183095
1.6669441 1.9686044 -0.16942205 1.4550915 0.9055798 -0.6246607 -0.5077033 0.108804196
-0.4660631 1.0516919 0.65822816 1.4080365 1.8720926 -0.50267196 0.7749005 -0.89323795
0.21340899 0.80143917 0.7891295 0.15908867 -0.7405023 0.843253 0.47463015 0.07602264
-0.012232075 -2.3582337 -0.15975508 -0.065998554 -0.25438938 0.6190651 -1.2262062 -0.24462137
-1.5764927 -0.13654412 0.6616882 -1.1591117 0.58362013 -0.38862193 0.2812021 -0.021966169
0.74288386 -1.0161011 -0.4776892 -1.7519956 -0.84040457 -0.4933002 -1.4730281 2.5055835
-2.065402 1.2884982 1.0903102 0.2600141 0.96110404 -0.103746794 0.14797767 1.2820698
-0.053566985 0.72437894 0.19293985 0.46085092 0.16540755 -1.2035311 2.2344422 0.17665316
00000000: 3bdd 193f 4e4c 7cbe 8ceb 08bf 4943 bdbf
00000010: e4aa 6e3d 2515 2ebf deac c33c 79b2 96bf
00000020: 0188 9dbe d563 aa3d a271 0e40 7906 ee3f
00000030: 94b8 1ebd 6297 a33f 0d1a b2bf 9ead 27bf
00000040: 60ff 913f 6059 19c0 40dc ea3f a318 8d3f
00000050: 474a b53f 5011 c5be fbc1 82be 7f94 7abf
00000060: d39f 953f 39e8 343e eea5 b03e 9498 5c3d
00000070: c93f 3ebf bcab 283f 06f7 cb3f df85 213f
00000080: 7c6c 2f3d e297 ccbf e058 423f ca6b c8bf
00000090: fc23 d1be 611e 033e 7c31 5c3e fe20 a6be
000000a0: b4da 873f 7e61 f2be 49bb 51bd f3f3 003f
000000b0: a43b 1d3e 5127 d6bf b699 41c0 be24 ecbf
000000c0: 3e71 12c0 6620 44c0 1244 fcbf c730 f3bf
000000d0: ff8f 3bc0 9209 da3e a36a 7b3f 7594 78bf
000000e0: 70e2 823f 29b4 533f 44ca 4bbe 6f5a 82bf
000000f0: 0bc7 0e40 93e0 45c0 35ff b43e 7b33 643f
00000100: 4322 f8bf 9ef0 e4be 09f2 1340 c4e5 dd3f
00000110: 58c5 12bf f04c d13f 7c0e 553f 513e 94bd
00000120: bfa5 8b3f 5024 e23d a856 a43d 22b9 7fbf
00000130: aa92 0340 9ae5 573f 6890 bf3e 4704 483f
00000140: 0680 b03f b7be 3abf a793 a83d 5afe 5fbf
00000150: 4462 57bf 51b0 4b3f 0db1 74be 298b bb3e
00000160: 4946 03bf 6e9f 3b3f 89af 4e3f cb81 cdbe
00000170: 7a21 4cbf ad9f 00bf e616 84be eb93 873d
00000180: a8c4 bebe 82ea 0dbf d86d e33e e3e0 0cbe
00000190: dc02 3f3f bf09 06be d4d0 07bf a615 a6bf
000001a0: 8779 1d3e 4a55 6cc0 3e39 2c40 715d d2bf
000001b0: aa27 d6be 9055 923e 24d1 6cbf d155 0abf
000001c0: 87e6 c73e 16ba 63bd 2671 16c0 b6f6 b73e
000001d0: fc59 713e fd18 afbe f2f2 71bf fc24 d1bd
000001e0: 5505 c7bd 92ed dbbe ae34 793f b241 f5c0
000001f0: 67bd 0940 574a 23bf 2769 34be 8561 e1be
00000200: 29a6 013e 8394 8fbf d32b 113f b653 24bf
00000210: 33b6 63bf d8e1 2dbf fcdb fb3f 1d83 d93f
00000220: 7edc 2dbf e6f5 9bbf 10b1 9bbf 0fd9 d93f
00000230: 93ea c2bf b0f6 01c0 a3ba aabd 222b e43d
00000240: 5678 81bf a308 f5be 7734 4bbf e48c 21bf
00000250: 9e7c 39be c541 8bbf c12e 96bf f1f4 09c0
00000260: f11c 3bc0 d4fe 51be ee2e 6bbd 8754 b83e
00000270: a5b6 42bf 0979 adbf f655 8dbe 612a 033f
00000280: a05e 0c3f b521 72bf 2785 513f 3087 93bf
00000290: 7e45 b2bf e67d 9a3f 7e4e 09c0 93c5 8f3f
000002a0: a869 8d3f acf4 253e b357 c53e 5e4b 3b3f
000002b0: a845 863f 833b ffbe 1a82 bb3d 0edb 53bf
000002c0: dcbc c93f f532 afbe 3d7f a1be 66e7 8dbe
000002d0: feaa cabf b358 24bf 06bc 0040 929c 99be
000002e0: e167 1dbe 8665 283f c411 c13c 1408 6ac0
000002f0: 264c 82bf 488f b83f 1966 2140 2a8b f5bf
00000300: 6d5e d53f 3bfb fb3f f97c 2dbe 7040 ba3f
00000310: 14d4 673f c3e9 1fbf d8f8 01bf bcd4 de3d
00000320: d39f eebe d79d 863f a481 283f 8a3a b43f
00000330: bba0 ef3f 1caf 00bf e15f 463f 3eab 64bf
00000340: e387 5a3e 1e2b 4d3f 6404 4a3f 24e8 223e
00000350: 8f91 3dbf 6edf 573f b902 f33e c2b1 9b3d
00000360: 0b69 48bc 4ded 16c0 d696 23be 402a 87bd
00000370: 533f 82be 0d7b 1e3f 53f4 9cbf 067e 7abe
00000380: 83ca c9bf 39d2 0bbe 6664 293f c65d 94bf
00000390: 2168 153f 74f9 c6be b9f9 8f3e 65f2 b3bc
000003a0: a32d 3e3f 9a0f 82bf ae93 f4be 6441 e0bf
000003b0: c124 57bf d891 fcbe 2f8c bcbf 7b5b 2040
000003c0: 8c2f 04c0 82ed a43f 498f 8b3f 9120 853e
000003d0: ea0a 763f 3379 d4bd 7587 173e dd1a a43f
000003e0: 0e69 5bbd e670 393f 0692 453e a7f4 eb3e
000003f0: 9960 293e 4f0d 9abf 1a01 0f40 91e4 343e

conv3.bias f4 [32]
0.07059556 -0.035180576 -0.044088054 0.042694133 0.022533467 0.035973597 0.05689573 -0.07858469
-0.07762337 -0.00038031893 -0.06533381 0.0744035 0.056741145 0.08158721 -0.055279315 -0.14360723
-0.061895512 0.08771384 0.07838888 -0.05715548 0.04836464 0.06097334 0.03629789 -0.086194955
0.049755786 0.004515666 0.08720368 -0.06894218 -0.017180601 -0.048370272 -0.08952053 0.059054956
00000000: 6894 903d 8219 10bd ad95 34bd 0be0 2e3d
00000010: 1b98 b83c 0d59 133d 7f0b 693d 03f1 a0bd
00000020: 00f9 9ebd 8b65 c7b9 bccd 85bd dd60 983d
00000030: 6769 683d 3217 a73d 906c 62bd c60d 13be
00000040: 2686 7dbd 50a3 b33d 598a a03d dd1b 6abd
00000050: 001a 463d 2ebf 793d 19ad 143d fb86 b0bd
00000060: b9cc 4b3d 27f8 933b d897 b23d 8f31 8dbd
00000070: 55be 8cbc e81f 46bd 8a56 b7bd 9ce3 713d

conv4.weight f4 [32, 32, 3, 3]
0.3825737 -0.3851002 -0.21932779 -0.20096247 -0.2684295 0.34824583 -0.3945754 -0.367331
-0.091947675 0.24075168 0.5234775 -0.84087163 0.7531942 -0.051674344 0.35268518 -0.15746371
0.06106952 0.0078477105 0.59211016 -0.14718719 -0.026559176 0.5444778 -0.054373544 0.065558456
-0.1977312 0.9583926 0.48181888 0.95709133 -0.049478132 -0.04801339 -0.0094545605 0.10569913
0.08069055 0.038067054 -0.023439007 0.039365638 0.23375249 -0.3852968 -0.15466739 0.17819771
-0.03704503 -0.17475322 0.21561952 -0.007079541 0.21749261 -0.3335637 0.17586432 -0.53466415
0.28439793 -0.13844255 -0.38880277 0.08723732 -0.23240721 0.3623501 -0.8606194 0.44636038
1.1938558 -1.4187744 0.32390547 0.12001047 0.11155999 -0.0081642205 -0.054472227 0.53887075
0.48490855 -0.52917856 -0.5201 -0.4073991 -0.32241058 -0.2645108 0.2667388 0.42849353
0.5314661 0.19085915 -0.14995399 -0.28626412 -0.35472873 -0.18180242 -0.7108081 -0.112257786
-0.12338214 0.4720702 -0.38226834 -0.31070292 -0.15511546 -0.3228369 0.052850153 -0.0021736864
0.11828687 -0.35547552 -0.29424816 -0.18517433 0.057359878 -0.85705477 -0.4723155 0.15679054
-0.052217294 0.28606823 -0.18946472 0.13671218 0.22217645 -0.72389615 0.5227761 -0.14842847
0.1660379 -0.2489727 -0.1632153 0.43631187 -0.4046849 -0.1354742 -0.10179938 -0.248327
-0.07921334 0.4503999 -0.60202515 0.42338803 0.034713384 0.2925871 -0.06815605 -0.023866776
-0.24585564 0.066871434 -0.08215016 0.00833601 0.11048817 -0.04890678 2.3587635 0.2870987
-1.3446503 1.8124506 0.8957658 -0.57619596 -0.57585585 -0.18497014 0.3397989 0.18906055
-0.35695893 -0.36981547 0.20574859 0.10700988 0.052097503 0.030091556 -0.14286104 0.30386925
0.10683613 0.13017248 0.4341136 0.3032322 0.050058424 -0.2008627 -0.015289376 0.21359107
0.48451793 0.78251135 0.19928387 0.071277805 0.46297184 0.19774249 0.07728362 -0.042326022
0.115759514 0.08547857 -0.2516948 -0.24245921 -0.3237674 -0.28378195 -0.3144042 0.015681561
-0.47028884 -0.34069926 -0.20123056 4.276015 4.4690447 -1.209531 -2.686474 3.3856122
0.043781497 -0.4372334 -1.769104 0.21100654 -0.42599916 0.025042344 -0.14488347 0.021425335
0.1590114 -0.22951216 -0.021812566 -0.06997972 0.3397096 0.20123391 0.108536616 0.018520916
0.002940344 -0.3481723 -0.049118206 -0.63740826 0.1598471 -0.18468633 0.21955255 0.026428938
0.09469076 0.29380688 -0.15517493 -0.14048354 -0.2314286 -0.0036170399 0.13400798 3.9209018
6.0584283 -2.9698732 2.345116 0.25727874 -3.2795079 -1.0459007 -0.15104488 -0.10645636
-0.12411471 0.12238745 -0.060588088 -0.41667274 -0.16051051 -0.19622175 0.2880482 -0.2790797
0.26655945 0.28451905 0.13739482 0.06361918 0.036548883 -0.054939188 0.2162421 0.42022026
-0.4864466 -0.0077516297 -0.17570105 0.19617125 0.43086624 0.005034356 0.45140004 0.30121082
-0.035813328 -0.04231989 -0.32462063 -0.4871349 0.72054005 -0.04516409 0.31776074 -0.25959745
-0.14657052 0.21347462 0.17337444 0.07791803 -0.18915343 0.12933263 0.031343464 -0.030766794
00000000: b3e0 c33e da2b c5be 7797 60be 1bc9 4dbe
00000010: 976f 89be 474d b23e c905 cabe cf12 bcbe
00000020: 104f bcbd 9c87 763e 9f02 063f 5d43 57bf
00000030: 56d1 403f 7aa8 53bd 2793 b43e 2b3e 21be
00000040: 0824 7a3d af93 003c 8894 173f 3db8 16be
00000050: a192 d9bc e662 0b3f cbb6 5ebd 8343 863d
00000060: 0c7a 4abe 3859 753f f7b0 f63e f003 753f
00000070: 95a9 4abd b0a9 44bd 4de7 1abc c978 d83d
00000080: 1641 a53d 33ec 1b3d 2903 c0bc dd3d 213d
00000090: d05c 6f3e 9f45 c5be 2161 1ebe 7679 363e
000000a0: 88bc 17bd 82f2 32be 5dcb 5c3e 7ffb e7bb
000000b0: 62b6 5e3e dcc8 aabe c715 343e c0df 08bf
000000c0: 9b9c 913e e2c3 0dbe 2811 c7be 7ba9 b23d
000000d0: 28fc 6dbe f485 b93e 8e51 5cbf 5989 e43e
000000e0: 44d0 983f 669a b5bf f0d6 a53e 0dc8 f53d
000000f0: 9079 e43d 39c3 05bc 451e 5fbd 6ff3 093f
00000100: ef45 f83e 3f78 07bf 4625 05bf 9d96 d0be
00000110: 0013 a5be f66d 87be fd91 883e 8163 db3e
00000120: 2a0e 083f 9570 433e 8a8d 19be 3691 92be
00000130: 019f b5be 6a2a 3abe 85f7 35bf 69e7 e5bd
00000140: c7af fcbd 2fb3 f13e adb8 c3be 7414 9fbe
00000150: 96d6 1ebe e14a a5be 6779 583d 6874 0ebb
00000160: 6340 f23d e300 b6be b2a7 96be 579e 3dbe
00000170: 31f2 6a3d f167 5bbf 56d3 f1be b38d 203e
00000180: cde1 55bd 8977 923e 0a03 42be 47fe 0b3e
00000190: 3982 633e 4251 39bf a8d4 053f a2fd 17be
000001a0: d705 2a3e b3f2 7ebe e921 27be 4564 df3e
000001b0: dc32 cfbe c0b9 0abe 317c d0bd 6f49 7ebe
000001c0: 9b3a a2bd d19a e63e 521e 1abf 51c6 d83e
000001d0: 9f2f 0e3d facd 953e 6695 8bbd 4284 c3bc
000001e0: 95c1 7bbe e4f3 883d 583e a8bd c393 083c
000001f0: 9f47 e23d 7a52 48bd fbf5 1640 9afe 923e
00000200: 801d acbf 62fe e73f e850 653f 9481 13bf
00000210: 4a6b 13bf d068 3dbe 1ffa ad3e 1799 413e
00000220: 52c3 b6be 7458 bdbe c2af 523e ff27 db3d
00000230: 3164 553d 9182 f63c 2a4a 12be c094 9b3e
00000240: e7cc da3d ef4b 053e 2344 de3e 4041 9b3e
00000250: 100a 4d3d f4ae 4dbe 4a80 7abc 9eb7 5a3e
00000260: bc12 f83e aa52 483f 1211 4c3e 19fa 913d
00000270: a50a ed3e 027d 4a3e e046 9e3d 0d5e 2dbd
00000280: 5313 ed3d 630f af3d 24de 80be 3a47 78be
00000290: d7c4 a5be de4b 91be 96f9 a0be 9e76 803c
000002a0: b3c9 f0be 2270 aebe 620f 4ebe 1dd5 8840
000002b0: 6a02 8f40 e9d1 9abf 31ef 2bc0 dfad 5840
000002c0: 3a54 333d 0edd dfbe 0072 e2bf 1912 583e
000002d0: 901c dabe 9a25 cd3c 555c 14be 2f84 af3c
000002e0: e2d3 223e 3c05 6bbe 44b0 b2bc 8751 8fbd
000002f0: 6bee ad3e 4310 4e3e 7248 de3d 2db9 973c
00000300: c9b2 403b a443 b2be 2c30 49bd 302d 23bf
00000310: f5ae 233e 6a1e 3dbe 62d2 603e 8081 d83c
00000320: 3bed c13d db6d 963e 2de6 1ebe ebda 0fbe
00000330: 9efb 6cbe dc0b 6dbb 6339 093e 0ef0 7a40
00000340: a5de c140 6712 3ec0 6116 1640 0aba 833e
00000350: 75e3 51c0 13e0 85bf 82ab 1abe cb05 dabd
00000360: da2f febd 45a6 fa3d 372b 78bd 2156 d5be
00000370: de5c 24be 5bee 48be 0e7b 933e 89e3 8ebe
00000380: 7b7a 883e 7bac 913e 3ab1 0c3e c64a 823d
00000390: 48b4 153d ea07 61bd 926e 5d3e 1c27 d73e
000003a0: 870f f9be 6201 febb faea 33be 1ee1 483e
000003b0: 809a dc3e 3df7 a43b e81d e73e 4e38 9a3e
000003c0: ffb0 12bd 9f57 2dbd ad34 a6be bf69 f9be
000003d0: 5075 383f fbfd 38bd 89b1 a23e f5e9 84be
000003e0: 9516 16be 1799 5a3e 1289 313e 7d93 9f3d
000003f0: 70b1 41be c66f 043e 0162 003d a50a fcbc

conv4.bias f4 [32]
0.02320117 0.011100223 -0.003920105 0.013552428 -0.048158128 0.02552514 -0.041909467 0.029490443
-0.018425617 -0.02063003 0.015042672 -0.0053283675 -0.021875318 -0.0041593392 0.02934456 -0.035812672
-0.016511546 0.028693706 -0.03734381 -0.031631634 -0.024532905 0.017333062 -0.017084256 -0.02969166
-0.046325896 0.038118154 0.036406156 -0.031274173 -0.038401768 0.06184801 0.06008362 -0.04893621
00000000: 6110 be3c b6dd 353c 3974 80bb 010b 5e3c
00000010: 7541 45bd 191a d13c 43a9 2bbd f195 f13c
00000020: 52f1 96bc 4f00 a9bc 8a75 763c 9699 aebb
00000030: de33 b3bc 114b 88bb 0164 f03c 4fb0 12bd
00000040: 3943 87bc 100f eb3c d3f5 18bd 2c90 01bd
00000050: 3bf9 c8bc 11fe 8d3c 48f4 8bbc ed3b f3bc
00000060: 39c0 3dbd c821 1c3d 9f1e 153d 5919 00bd
00000070: 2c4b 1dbd 5754 7d3d 3e1a 763d 5671 48bd

bn21.weight f4 [32]
0.6231884 1.2156156 1.1818279 1.2676662 1.0812361 0.4984236 1.2145723 2.0179393
0.7562066 0.8049621 1.5753614 1.7394615 1.4319152 0.95740837 1.7156816 2.416182
1.0604327 0.89891005 1.2622571 0.6656748 0.80855197 1.1250994 0.73999214 0.7113756
1.9015331 1.3824755 0.78914255 0.7789979 1.5425955 1.3356857 1.1452298 0.7877374
00000000: 4689 1f3f 4b99 9b3f 2346 973f e342 a23f
00000010: f265 8a3f 6131 ff3e 1b77 9b3f eb25 0140
00000020: c196 413f ff11 4e3f 71a5 c93f ada6 de3f
00000030: ff48 b73f b718 753f 749b db3f baa2 1a40
00000040: 42bc 873f f81e 663f a491 a13f aa69 2a3f
00000050: 43fd 4e3f 4203 903f 2070 3d3f b61c 363f
00000060: 7065 f33f f5f4 b03f 3f05 4a3f 686c 473f
00000070: c573 c53f c0f7 aa3f e496 923f 29a9 493f

bn21.bias f4 [32]
-0.23679116 -0.39695194 -0.41308844 -0.4826811 -0.44797045 -0.08275495 -0.49451232 -1.2149402
-0.11577505 -1.2526718 -0.87850946 -0.9098338 -0.8128748 -0.45133868 -2.872513 -1.6834618
-0.9518794 -0.22869226 -0.47310576 -5.941844 -0.538997 -0.32131633 -0.9845359 -7.7410483
-1.0607263 -0.5212378 -0.90122193 -0.8044786 -1.0090715 -0.4913492 -0.5183917 -0.7739523
00000000: 6279 72be 493d cbbe 5480 d3be fa21 f7be
00000010: 625c e5be 6d7b a9bd b830 fdbe 2983 9bbf
00000020: 781b edbd 8d57 a0bf ffe5 60bf deea 68bf
00000030: 9018 50bf dd15 e7be 41d7 37c0 ad7b d7bf
00000040: 5eae 73bf 4e2e 6abe eb3a f2be 9623 bec0
00000050: b5fb 09bf 9383 a4be 8b0a 7cbf abb6 f7c0
00000060: e1c5 87bf d76f 05bf 7bb6 66bf 4ff2 4dbf
00000070: 4129 81bf 1f92 fbbe 52b5 04bf bd21 46bf

bn21.running_mean f4 [32]
-5.5083323 0.9120105 -8.904291 1.6988086 0.087788515 -7.281907 -0.8059435 5.0293283
-9.023856 0.23755664 -3.7255912 -7.1337056 -2.5329602 -5.4637003 2.08959 -1.601232
-4.1074324 -12.01931 -5.4908795 0.6319863 3.590027 -8.307802 -0.49337336 0.6504321
-1.0227852 1.9722489 -6.8298016 5.0340557 -7.730471 0.23853603 -1.5294614 1.2534546
00000000: 4244 b0c0 8579 693f fa77 0ec1 8f72 d93f
00000010: 77ca b33d 6205 e9c0 5052 4ebf 42f0 a040
00000020: b761 10c1 0c42 733e 1670 6ec0 5147 e4c0
00000030: 051c 22c0 a2d6 aec0 d8bb 0540 2cf5 ccbf
00000040: 1670 83c0 184f 40c1 49b5 afc0 dbc9 213f
00000050: 01c3 6540 c2ec 04c1 6f9b fcbe b882 263f
00000060: a0ea 82bf a772 fc3f bc8d dac0 fc16 a140
00000070: 0560 f7c0 ca42 743e 64c5 c3bf 3371 a03f

bn21.running_var f4 [32]
14.688017 40.47367 38.829113 24.792068 21.364141 8.482425 18.954498 12.880103
36.049576 20.963102 12.097984 11.313281 15.651119 11.423847 12.7781 11.726978
9.885468 14.840389 21.97503 7.361844 32.924187 31.642971 14.77436 6.5561414
16.043716 14.750548 22.470528 21.167675 13.439388 20.994139 20.994398 6.883427
00000000: 1e02 6b41 0ae5 2142 0351 1b42 2856 c641
00000010: c3e9 aa41 03b8 0741 d0a2 9741 e714 4e41
00000020: c432 1042 6fb4 a741 5891 4141 3303 3541
00000030: fc6a 7a41 14c8 3641 1973 4c41 b4a1 3b41
00000040: e02a 1e41 3c72 6d41 ddcc af41 3a94 eb40
00000050: 5eb2 0342 ce24 fd41 c763 6c41 e9cb d140
00000060: 8859 8041 3f02 6c41 a4c3 b341 6657 a941
00000070: bc07 5741 fff3 a741 87f4 a741 0945 dc40

bn22.weight f4 [32]
0.9117735 0.96194273 1.2075137 1.1561406 1.058307 1.7535932 0.6320971 1.2075056
1.2317064 1.2492424 2.445522 1.4135088 1.0771279 1.1739674 0.9861954 1.2189001
1.0928097 1.0037513 1.1596805 1.3238214 1.363845 1.2180444 1.2042965 1.894774
1.0631196 1.691164 1.5210565 0.8637742 1.1857395 1.2707281 1.6261085 1.2395095
00000000: fd69 693f e141 763f cf8f 9a3f 6afc 933f
00000010: 9b76 873f be75 e03f 1ed1 213f 8b8f 9a3f
00000020: 8ea8 9d3f 2de7 9f3f 6f83 1c40 dbed b43f
00000030: 54df 893f 9044 963f 4d77 7c3f eb04 9c3f
00000040: 30e1 8b3f ec7a 803f 6970 943f fb72 a93f
00000050: 7992 ae3f e1e8 9b3f 6326 9a3f f487 f23f
00000060: 4e14 883f 1078 d83f fbb1 c23f 4e20 5d3f
00000070: 50c6 973f 38a7 a23f 5324 d03f 3fa8 9e3f

bn22.bias f4 [32]
-2.333077 -0.5007434 -1.422257 -0.76180977 -0.5032549 -1.4604875 -2.1322427 -2.4460638
-2.134323 -0.9893758 -1.6584979 -0.96006143 -0.7323464 -0.66232395 -0.35703945 -0.31471348
-1.1799546 -1.8918813 -0.35941854 -0.9311276 -0.6514435 -0.9365471 -0.95521045 -2.2778196
-1.340635 -1.0350727 -0.8298081 -3.6814907 -0.8953369 -0.9590069 -1.2990366 -0.7370715
00000000: 2251 15c0 b830 00bf 840c b6bf f705 43bf
00000010: 50d5 00bf 41f1 babf aa76 08c0 4f8c 1cc0
00000020: bf98 08c0 bc47 7dbf a949 d4bf 96c6 75bf
00000030: 0e7b 3bbf 108e 29bf e0cd b6be 2022 a1be
00000040: c108 97bf 2b29 f2bf b505 b8be 615e 6ebf
00000050: 00c5 26bf 8dc1 6fbf ac88 74bf ccc7 11c0
00000060: ed99 abbf 437d 84bf 4e6e 54bf 8b9d 6bc0
00000070: cd34 65bf 7a81 75bf d546 a6bf b8b0 3cbf

bn22.running_mean f4 [32]
-0.31206718 -6.8582063 0.86815745 -16.765589 -2.7766407 -4.6589956 0.9625332 0.7005388
1.8949038 -11.594432 -10.984007 -1.248681 -12.30802 -1.6574711 -6.862105 -1.4931774
1.7191327 -0.22079039 -15.233638 1.7135445 -9.974754 -11.381682 1.9150481 -7.7181187
-9.53083 -15.23409 -14.695982 1.0577477 -2.0455978 -11.898585 -9.641269 -3.3768258
00000000: 45c7 9fbe 6d76 dbc0 913f 5e3f ed1f 86c1
00000010: 7bb4 31c0 7e16 95c0 9368 763f 8356 333f
00000020: 358c f23f cb82 39c1 7ebe 2fc1 c7d4 9fbf
00000030: a6ed 44c1 0328 d4bf 5d96 dbc0 7020 bfbf
00000040: 8a0c dc3f e016 62be fbbc 73c1 6d55 db3f
00000050: 9898 1fc1 5f1b 36c1 4c20 f53f d4fa f6c0
00000060: 487e 18c1 d5be 73c1 be22 6bc1 4764 873f
00000070: 13eb 02c0 9b60 3ec1 a342 1ac1 ea1d 58c0

bn22.running_var f4 [32]
9.633726 56.795193 17.522924 78.753716 46.224075 72.51012 18.967989 12.15604
54.759483 72.32901 115.10863 57.37266 142.605 73.08751 69.13342 60.22948
20.576723 9.870528 94.9552 29.174957 101.99961 68.33506 21.284351 54.30804
52.945095 143.2393 137.08731 12.978198 84.85253 69.555695 107.01026 51.50158
00000000: be23 1a41 472e 6342 f32e 8c41 e781 9d42
00000010: 74e5 3842 2e05 9142 71be 9741 247f 4241
00000020: b609 5b42 74a8 9042 9e37 e642 9b7d 6542
00000030: e19a 0e43 ce2c 9242 5044 8a42 fdea 7042
00000040: 219d a441 afed 1d41 10e9 bd42 5066 e941
00000050: cdff cb42 8dab 8842 5a46 aa41 6f3b 5942
00000060: c7c7 5342 433d 0f43 5a16 0943 b3a6 4f41
00000070: 7fb4 a942 841c 8b42 4105 d642 9e01 4e42

conv5.weight f4 [64, 32, 3, 3]
0.52919537 1.3897156 1.0032479 0.3855369 1.4732662 -0.4467904 -0.08459142 -0.4802783
0.22270444 0.8115387 -1.0274501 -0.9825225 0.76403093 0.5193786 -0.89226055 -0.15570092
-0.055003375 0.20617 0.7426059 1.6547313 -0.18649222 1.0749826 1.6481929 -0.5710999
-0.61596936 -0.63079464 -0.32608035 -0.8539101 -0.09562875 -0.09493728 0.5130887 0.603794
-1.0351857 1.9737319 0.8755664 -1.2609723 -0.8587577 -0.33645922 -0.82001 -1.5864418
-0.1511121 0.012436644 -1.4281881 0.2946695 -0.92450935 -2.509141 -0.6593062 -0.435339
-1.385766 0.4131304 -1.4382305 -0.807417 -0.05697592 -0.038013022 0.8406722 1.2280537
0.0152798975 0.7386076 1.3189771 -0.67881006 0.18433657 -0.44860083 0.11896877 0.45761245
1.6324804 -0.11004849 0.2711219 1.5795282 -1.0611168 -0.20261799 -0.014523483 -0.24978603
-0.7175687 0.1528029 -2.0999446 -0.6819316 1.0337979 -0.29946455 0.3230941 0.51075506
1.8972402 0.02214162 1.1602104 0.99764574 1.2770917 0.7259744 -0.02489997 0.56498027
-1.1025258 -0.43968764 -0.34412518 1.0019009 1.3937489 -0.17270009 -0.33902207 0.47167552
1.0991303 -0.8302744 -0.94895977 -0.6834042 -0.14462417 -1.3521204 0.055752113 0.3729673
-0.15418914 -0.2503321 0.331153 -1.6579618 -0.7934159 -0.3003431 -0.3980053 -0.38898352
-1.0735953 -1.5302148 -1.0099412 0.08398686 -0.040758956 0.4468116 0.45869157 1.0222423
0.4216218 0.087460116 0.25507003 0.09992335 1.2749658 -0.51034606 -0.010170635 0.98646325
0.15292709 0.7885291 0.14222205 -0.9339557 1.3927195 -0.91662914 -0.563858 -0.85642534
-0.20370288 -0.9891732 -0.83701867 0.6868895 -1.236931 0.39201048 2.5208068 -0.41470116
0.9303291 1.6186085 -0.32603842 0.37644106 1.5046172 -0.7257792 -0.5717752 0.088546835
-0.18132105 -0.45387062 1.5536928 0.5933117 -0.50513273 1.5456113 -0.47502398 -0.09723631
-0.48059312 0.07502208 -0.64826626 -0.5601257 0.05958564 0.25898978 -0.4970839 0.01937038
2.0068603 -0.51297456 -1.010583 1.3150494 1.5695136 0.26451644 1.0295849 1.2766948
-0.1356461 -0.5873705 -0.66707253 0.36653495 -0.053125385 1.3809253 1.1791975 0.056881808
0.2902822 1.1026987 -0.3273339 -0.30494747 -0.5408275 0.3920634 0.0037234991 0.7428904
0.14239997 -0.28037167 1.3681943 -0.98101103 0.3673066 -0.5184176 0.89181507 1.6423657
1.2648271 0.61695164 1.544624 0.03378197 0.4487999 -0.07776127 0.22906087 -0.094603896
-0.43085247 -1.5086471 -0.44268027 -1.6303368 -1.7670848 -0.7999671 -1.6965015 -1.8670721
1.5584495 1.2863117 -0.600317 1.0751846 -0.33550835 -0.81234914 1.9731495 -0.11879276
-0.24575165 -0.6148472 -0.60847163 -1.2172785 -0.46678275 0.6559039 -0.6655816 1.7512817
-0.3721571 -0.35548848 0.5181547 0.5229594 0.75755006 0.42332324 -0.39910567 -0.8288809
-0.17890441 1.3348882 0.7181161 0.50710696 1.3711643 0.6978451 0.5250274 1.4997914
-0.5201905 0.1948165 -0.59805924 -0.06101458 -1.4717126 -1.440028 -1.1505617 -0.13891627
00000000: 5979 073f 33e2 b13f 6d6a 803f 1865 c53e
00000010: fd93 bc3f b6c1 e4be 443e adbd 0ae7 f5be
00000020: a20c 643e 00c1 4f3f 7c83 83bf 9886 7bbf
00000030: 8897 433f fff5 043f 306b 64bf 1070 1fbe
00000040: 384b 61bd 3a1e 533e 6c1b 3e3f 3cce d33f
00000050: d1f7 3ebe 0899 893f fcf7 d23f 9a33 12bf
00000060: 2bb0 1dbf c27b 21bf 01f4 a6be da99 5abf
00000070: 02d9 c3bd 7a6e c2bd c859 033f 3e92 1a3f
00000080: f780 84bf 3fa3 fc3f 1f25 603f 8a67 a1bf
00000090: 8bd7 5bbf 6244 acbe 2dec 51bf 8610 cbbf
000000a0: 21bd 1abe 11c3 4b3c dece b6bf ecde 963e
000000b0: a5ac 6cbf c495 20c0 4bc8 28bf c1e4 debe
000000c0: c860 b1bf d485 d33e f017 b8bf e1b2 4ebf
000000d0: 955f 69bd 8bb3 1bbd 4b36 573f dd30 9d3f
000000e0: 8958 7a3c 6315 3d3f 3ed4 a83f 7fc6 2dbf
000000f0: bac2 3c3e 02af e5be e6a5 f33d 2e4c ea3e
00000100: 1ef5 d03f 1a61 e1bd 7dd0 8a3e fb2d ca3f
00000110: add2 87bf 177b 4fbe e7f3 6dbc e9c7 7fbe
00000120: 95b2 37bf 5d78 1c3e 7e65 06c0 1293 2ebf
00000130: 7d53 843f 6b53 99be 976c a53e d8c0 023f
00000140: c4d8 f23f 5862 b53c c681 943f b665 7f3f
00000150: be77 a33f 75d9 393f 06fb cbbc 8ca2 103f
00000160: 911f 8dbf bd1e e1be 2d31 b0be 4a3e 803f
00000170: 5d66 b23f 4bd8 30be 4d94 adbe 747f f13e
00000180: 4db0 8c3f dd8c 54bf 07ef 72bf 94f3 2ebf
00000190: 5c18 14be 4812 adbf 545c 643d 92f5 be3e
000001a0: c2e3 1dbe 872b 80be e38c a93e 1838 d4bf
000001b0: 4e1d 4bbf 92c6 99be 5ac7 cbbe d928 c7be
000001c0: 926b 89bf 14de c3bf c145 81bf 4e01 ac3d
000001d0: ddf2 26bd 7dc4 e43e 9fd9 ea3e d6d8 823f
000001e0: d0de d73e 4a1e b33d 8a98 823e 9da4 cc3d
000001f0: 1432 a33f 0aa6 02bf bca2 26bc db88 7c3f
00000200: eb98 1c3e 0bdd 493f a8a2 113e b917 6fbf
00000210: a244 b23f 35a8 6abf ff58 10bf b13e 5bbf
00000220: 7d97 50be 743a 7dbf db46 56bf fed7 2f3f
00000230: c153 9ebf 99b5 c83e e654 2140 b653 d4be
00000240: 0c2a 6e3f 902e cf3f 82ee a6be e2bc c03e
00000250: 4c97 c03f aacc 39bf dc5f 12bf 0b58 b53d
00000260: 3aac 39be bb61 e8be 68df c63f 47e3 173f
00000270: 6150 01bf 97d6 c53f 5836 f3be d523 c7bd
00000280: 4d10 f6be 2da5 993d c7f4 25bf 6664 0fbf
00000290: 1210 743d 4f9a 843e c881 febe a2ae 9e3c
000002a0: 6670 0040 4d52 03bf c95a 81bf 8a53 a83f
000002b0: d2e5 c83f b36e 873e 70c9 833f bc6a a33f
000002c0: d0e6 0abe ea5d 16bf 44c5 2abf 78aa bb3e
000002d0: 019a 59bd 29c2 b03f f2ef 963f e6fc 683d
000002e0: de9f 943e 3b25 8d3f 4f98 a7be 1322 9cbe
000002f0: ac73 0abf 89bc c83e f305 743b 112e 3e3f
00000300: 4cd1 113e e08c 8fbe fe20 af3f 8a23 7bbf
00000310: 9c0f bc3e 04b7 04bf fe4d 643f 0a39 d23f
00000320: dbe5 a13f 8bf0 1d3f 3db6 c53f f75e 0a3d
00000330: 1ac9 e53e 4d41 9fbd ef8e 6a3e b0bf c1bd
00000340: b298 dcbe 591b c1bf fda6 e2be e0ae d0bf
00000350: d62f e2bf a5ca 4cbf f626 d9bf 38fc eebf
00000360: 467b c73f dda5 a43f 60ae 19bf a69f 893f
00000370: c0c7 abbe 1df6 4fbf 2a90 fc3f 9e49 f3bd
00000380: 52a6 7bbe a066 1dbf ccc4 1bbf c8cf 9bbf
00000390: 26fe eebe 51e9 273f 8e63 2abf 002a e03f
000003a0: 608b bebe 9602 b6be c9a5 043f abe0 053f
000003b0: cdee 413f d3bd d83e 9457 ccbe 8a31 54bf
000003c0: b832 37be 9edd aa3f 75d6 373f c3d1 013f
000003d0: 5082 af3f faa5 323f 3268 063f 2af9 bf3f
000003e0: 342b 05bf fa7d 473e 691a 19bf 6dea 79bd
000003f0: 1461 bcbf d652 b8bf 9b45 93bf 1140 0ebe

conv5.bias f4 [64]
-0.038958877 0.024919124 -0.05237497 0.023677902 0.04822353 0.0069702123 -0.053449582 -0.035641655
0.0039944304 0.04814738 -0.023350075 0.033400115 -0.0437253 0.03745121 -0.04683305 -0.046937056
-0.017467536 -0.034454055 0.012295677 -0.052058183 0.062871896 0.02492615 -0.020192686 0.011944063
-0.039994538 -0.03737344 0.0070258975 -0.030479498 0.03954426 0.006223391 0.005862706 -0.008574133
-0.050308898 -0.01656957 -0.022043942 -0.037276193 -0.027756067 0.027652044 0.10051623 0.051075622
-0.03774982 -0.012685764 0.033283103 0.025712932 -0.02876445 0.022405574 0.0028824601 -0.027820844
0.04672173 -0.059649415 -0.05421707 0.0005636663 0.02653353 -0.04160452 -0.05610073 -0.038494032
-0.046673443 -0.017720174 -0.039411325 -0.050552193 0.037793916 0.036657743 -0.019592026 0.055506412
00000000: 5893 1fbd 3123 cc3c 2387 56bd 29f8 c13c
00000010: 0986 453d 6166 e43b f3ed 5abd fcfc 11bd
00000020: b6e3 823b 3036 453d a848 bfbc 8fce 083d
00000030: 4d19 33bd 7166 193d 03d4 3fbd 1241 40bd
00000040: 1418 8fbc b21f 0dbd cf73 493c f63a 55bd
00000050: fbc2 803d ed31 cc3c 226b a5bc 08b1 433c
00000060: 50d1 23bd e414 19bd 8039 e63b 24b0 f9bc
00000070: 29f9 213d 96ed cb3b f11b c03b 857a 0cbc
00000080: b410 4ebd e8bc 87bc 7f95 b4bc ecae 18bd
00000090: b160 e3bc 8a86 e23c 74db cd3d ac34 513d
000000a0: 8e9f 1abd f3d7 4fbc dd53 083d eda3 d23c
000000b0: 6da3 ebbc e58b b73c a8e7 3c3b 8ae8 e3bc
000000c0: 495f 3f3d f252 74bd b812 5ebd 01c3 133a
000000d0: d85c d93c 8069 2abd e1c9 65bd ebab 1dbd
000000e0: a72c 3fbd e629 91bc c56d 21bd d10f 4fbd
000000f0: cbcd 1a3d 6e26 163d 757f a0bc b15a 633d

conv6.weight f4 [64, 64, 3, 3]
-0.061142694 0.038637795 -0.0748169 -0.1252586 -0.12029014 -0.094141744 -0.026827164 -0.019024644
0.023013758 -0.06517072 -0.10949911 -0.1479751 -0.107152544 -0.0016890543 -0.057885792 -0.0012798659
0.06407074 -0.02669533 0.044616032 0.092434034 0.08040979 0.030302726 0.14613545 0.03846522
0.06584373 0.07538865 -0.040647283 -0.036444336 0.09268691 0.057861153 -0.02398886 0.048375204
0.13241698 0.072507024 0.197615 0.09151028 -0.11050588 -0.072654724 -0.09360292 -0.15611237
-0.040693004 0.04052079 -0.107015744 -0.01901845 0.06920668 0.030674974 0.09560278 0.024932282
-0.032149706 -0.017568221 -0.021355817 0.010213268 0.022009008 -0.107234664 -0.017089302 0.13849856
0.1324606 0.15985727 0.11960858 0.18107295 -0.039705276 0.02301167 0.09759403 -0.18131024
-0.16843042 -0.009938713 -0.10026151 -0.169408 -0.077506565 -0.043159552 -0.21472967 -0.13450691
-0.058705203 -0.05856029 0.055890273 -0.15487391 0.064664334 0.029896967 -0.12197354 0.07445715
0.07681741 -0.10654421 -0.08226297 -0.06490891 -0.25029945 -0.24470171 -0.22961535 -0.062232323
-0.20541644 -0.10254228 0.105895504 -0.080123276 -0.057939313 0.0982484 0.060293455 -0.10790622
0.14454941 0.08071298 -0.01672458 -0.08310404 -0.07669719 0.029980179 -0.24910288 -0.26846987
-0.19791637 -0.17934026 -0.1356566 -0.120494574 0.07852883 -0.08566545 0.10054986 -0.12057689
-0.16171837 -0.065959774 -0.015599685 -0.2242192 -0.028586773 0.02225603 0.027067095 -0.095027216
0.10433332 0.028094765 0.05225685 0.16015778 0.049847107 0.013965566 -0.019743169 -0.12235582
-0.08856279 -0.12577266 -0.06757742 -0.08439478 0.008471441 0.026349172 0.0033575175 0.046149597
-0.09308091 0.0630973 -0.056145206 -0.12734742 -0.113778204 -0.035989307 -0.15819946 -0.060501784
0.05224221 -0.1084304 -0.06288563 -0.013993303 -0.081753716 0.060045566 -0.038430806 0.0039937003
0.1897838 -0.1019883 -0.07799216 -0.15654442 -0.055949353 -0.1737588 -0.121959165 -0.07499818
-0.06853713 -0.07302578 -0.11280018 -0.16665082 -0.1948729 -0.11167755 -0.2999831 -0.28441557
0.031234993 -0.15587887 -0.11661404 0.03831287 0.008460437 -0.11044589 -0.02378045 -0.1277508
-0.025433622 0.0123908715 -0.069186814 -0.018489728 0.057507057 0.015395714 0.02284498 -0.24079074
-0.27877408 -0.15265864 -0.18205589 -0.22053114 -0.13346499 0.028777065 0.07015953 -0.049243193
-0.15154569 -0.16141713 -0.06175264 -0.1480519 -0.15998873 -0.06598357 -0.03341125 -0.12495174
-0.10731998 -0.11704207 -0.013503876 -0.04076587 0.057418082 -0.0069788718 -0.096333675 -0.0008805379
-0.042932462 0.014363418 -0.19513655 -0.21949561 -0.21711512 -0.16253476 -0.21165912 -0.11375876
0.045283265 0.076938435 0.06921538 0.041724477 0.16116206 0.04535815 0.08871213 0.16628963
-0.006925866 0.17113191 -0.08775484 0.013024012 -0.03487948 0.0417534 -0.020357976 0.14930463
0.08879484 0.12119252 0.01299065 0.002761545 -0.007597644 0.0060038697 0.0059878775 -0.23824337
0.036861923 -0.06570156 -0.12898979 -0.15379192 -0.09177796 0.048614636 -0.049761135 -0.20057157
-0.14788948 0.019293541 -0.1848043 -0.00320092 -0.13866949 -0.14758813 -0.11743753 0.045041002
00000000: c370 7abd aa42 1e3d 9a39 99bd ca43 00be
00000010: ad5a f6bd 63cd c0bd a4c4 dbbc 92d9 9bbc
00000020: 5987 bc3c 3a78 85bd 1241 e0bd c986 17be
00000030: cb72 dbbd 4263 ddba a719 6dbd 2cc1 a7ba
00000040: 8537 833d 2ab0 dabc 4dbf 363d 0e4e bd3d
00000050: e3ad a43d 6c3d f83c 88a4 153e b58d 1d3d
00000060: 14d9 863d 5d65 9a3d c47d 26bd a846 15bd
00000070: a2d2 bd3d d1ff 6c3d 4984 c4bc 1425 463d
00000080: 5198 073e 907e 943d 965b 4a3e be69 bb3d
00000090: e850 e2bd 00cc 94bd e3b2 bfbd ecdb 1fbe
000000a0: b5ad 26bd 21f9 253d 122b dbbd 95cc 9bbc
000000b0: 3bbc 8d3d 154a fb3c 64cb c33d c93e cc3c
000000c0: 69af 03bd 3beb 8fbc 65f2 aebc 8d55 273c
000000d0: 3c4c b43c d99d dbbd ddfe 8bbc 91d2 0d3e
000000e0: c0a3 073e a0b1 233e 58f5 f43d 306b 393e
000000f0: 00a2 22bd f882 bc3c 61df c73d 64a9 39be
00000100: 0679 2cbe fcd5 22bc e855 cdbd 4a79 2dbe
00000110: c3bb 9ebd 12c8 30bd 18e2 5bbe 2ebc 09be
00000120: de74 70bd eadc 6fbd 33ed 643d 4497 1ebe
00000130: bc6e 843d 7cea f43c 43cd f9bd fe7c 983d
00000140: 7252 9d3d da33 dabd 7d79 a8bd f6ee 84bd
00000150: 4027 80be 1693 7abe 4920 6bbe 52e7 7ebd
00000160: b058 52be b001 d2bd bedf d83d ac17 a4bd
00000170: c651 6dbd 7536 c93d 45f6 763d f0fd dcbd
00000180: c304 143e d94c a53d fd01 89bc 7332 aabd
00000190: 6b13 9dbd fe98 f53c d314 7fbe e274 89be
000001a0: 97aa 4abe f9a4 37be 90e9 0abe dcc5 f6bd
000001b0: b9d3 a03d 5e71 afbd 16ed cd3d 04f1 f6bd
000001c0: 8099 25be eb15 87bd d295 7fbc b899 65be
000001d0: cf2e eabc 4752 b63c d0bb dd3c a19d c2bd
000001e0: b5ac d53d fe26 e63c 470b 563d 6700 243e
000001f0: 7b2c 4c3d d4cf 643c 6dbc a1bc b095 fabd
00000200: 6860 b5bd 8cca 00be 0866 8abd 2cd7 acbd
00000210: cdcb 0a3c 38da d73c cc09 5c3b 5c07 3d3d
00000220: 34a1 bebd 2839 813d 84f8 65bd 5d67 02be
00000230: 8c04 e9bd 8669 13bd 0aff 21be b8d0 77bd
00000240: edfb 553d c210 debd 2eca 80bd 2b44 65bc
00000250: 7e6e a7bd 57f2 753d 9f69 1dbd 96dd 823b
00000260: af56 423e 3edf d0bd 5bba 9fbd 2e4d 20be
00000270: 262b 65bd d4ed 31be bac5 f9bd a598 99bd
00000280: 325d 8cbd 8a8e 95bd c803 e7bd 83a6 2abe
00000290: c38c 47be 33b7 e4bd 6397 99be eb9e 91be
000002a0: 87e0 ff3c b69e 1fbe 58d3 eebd f5ed 1c3d
000002b0: a59d 0a3c 7431 e2bd 38cf c2bc 1bd1 02be
000002c0: 2c5a d0bc 1503 4b3c d1b1 8dbd c577 97bc
000002d0: 858c 6b3d 4e3e 7c3c 6525 bb3c d991 76be
000002e0: 7abb 8ebe 8c52 1cbe dc6c 3abe ead2 61be
000002f0: 0cab 08be e1bd eb3c cdaf 8f3d 3bb3 49bd
00000300: cb2e 1bbe 884a 25be 56f0 7cbd eb9a 17be
00000310: 16d4 23be 6522 87bd 3cda 08bd b3e6 ffbd
00000320: 94ca dbbd c1b3 efbd 5c3f 5dbc 1dfa 26bd
00000330: 392f 6b3d 05af e4bb 974a c5bd e6d3 66ba
00000340: f3d9 2fbd 8b54 6b3c e0d1 47be 75c3 60be
00000350: 6d53 5ebe 836f 26be 2bbd 58be 5afa e8bd
00000360: f27a 393d e691 9d3d cbc0 8d3d 49e7 2a3d
00000370: ab07 253e 78c9 393d b5ae b53d d447 2a3e
00000380: 60f2 e2bb 343d 2f3e cfb8 b3bd aa62 553c
00000390: c9dd 0ebd 9d05 2b3d c5c5 a6bc 50e3 183e
000003a0: 12da b53d c933 f83d bcd6 543c 09fb 343b
000003b0: a8f5 f8bb 1cbc c43b f535 c43b 12f6 73be
000003c0: 87fc 163d 8a8e 86bd e615 04be a17b 1dbe
000003d0: 15f6 bbbd 2420 473d 55d2 4bbd a262 4dbe
000003e0: 5770 17be 7d0d 9e3c 573d 3dbe 87c6 51bb
000003f0: 60ff 0dbe 5821 17be 1683 f0bd ea7c 383d
