checkpoints/best_model_1906_2.pth (torch, 370843 bytes, 38 tensors)

conv1.weight f4 [16, 1, 3, 3]
00000000: e8e4 64bf b956 e1bf b9b6 02c0 9bfd 083f
00000010: 29db 66be 130e 86bf cbea 453f 0509 023e
00000020: dcc5 303d ad6e 683e c5e2 c5bf 1714 26bf
00000030: 3a28 5a3e 2929 dabf d8d3 8e3f 3906 123f
00000040: ffa8 18bf 184b 06bf 2556 c0bf 6ada b9bf
00000050: 9d07 013f 6b1b f23e 7dcf e1bf db51 b9be
00000060: 79a2 053f 5e4d d1be 1b02 8cbf 24b9 c8bf
00000070: 012e db3e 969c 463f c611 e9bf a8ef 9fbd
00000080: b649 e43e 896a d03e f215 7abf 2f39 4bbe
00000090: 3ab4 8dbf 1418 ad3e 577b febd 55e4 25c0
000000a0: 6046 0bbf 3d1c 5b3e 93c4 f2bf 2ec7 13bc
000000b0: 1c1f 163f fee7 31bf 237d 203f e11f 8ebf
000000c0: a9b0 3abf 2b13 36c0 d616 5fc0 c871 1a3f
000000d0: b811 c6bb c710 1cbf 3f0a 1c3f dbc6 0e3f
000000e0: 996d e6bf 7c2e 373e 4e06 e43e c1b8 8bbf
000000f0: f022 81bf a370 b9bf 7a18 80bf 4a1c 463f
00000100: 1721 143d cfce 95bf 36c7 26bf ebf4 5dbf
00000110: 176a fc3e 42d0 f5bf 1335 74bf cb32 6abe
00000120: 267f 923d 8899 3abe e12f 49be 5574 2f3c
00000130: 7f5c 053f ccb1 b4bd 776d 20c1 23d0 99bf
00000140: e81b f1bd 483b a63e 8c0d 1b3e 9b8e 3e3c
00000150: 2d34 483f c83a 1bbe f31a d03f 5482 c33e
00000160: e510 c13f ce74 1b40 ba30 da3e 7ab7 f0be
00000170: 28e5 69be e25d 363e cee0 8ebf 022d 963e
00000180: abd2 0b3e 87ac c1c0 2719 f7bf 91d7 62bd
00000190: e51d 28be 6f6b 8c3e f08b cf3e 8fae a9bf
000001a0: 78f2 28bf d0d4 d7be e12d aec0 5a16 e2be
000001b0: b934 b23e 764d 28be e316 02be a772 aa3e
000001c0: 18e5 18bf 6cfa a5c0 7464 7e3d c337 79be
000001d0: 5e44 7dbf b601 1fbf 5347 3cbf fc00 9ebc
000001e0: baed 97be 4ca0 1e3f 74c1 77bf f7b0 afbe
000001f0: 8dad 09c0 a563 8ec0 74ee 91bd f087 f6bf
00000200: 2414 85bf 1b7c 7ebf 304b 09c0 044a a2be
00000210: 5d9f 213c 4a7b e63d 65ee 1d3f 19df 7f3f
00000220: 74fb 383f 143b 1ebe 420f f53e fd85 173b
00000230: c4dd 3e3e 6e23 0cbf 39da 05c0 f4c5 02c0
-0.89411783 -1.7604591 -2.0424025 0.5351197 -0.2254454 -1.0473045 0.7731139 0.12698753
0.043157443 0.2269847 -1.545983 -0.64874405 0.21304408 -1.7043811 1.11584 0.57040745
-0.5963287 -0.52458334 -1.5026289 -1.451978 0.5040224 0.47286543 -1.7641445 -0.36195263
0.5220104 -0.4087934 -1.0938143 -1.56815 0.42808536 0.7758268 -1.8208549 -0.07809383
0.44587487 0.4070628 -0.97689736 -0.19846033 -1.1070626 0.33807433 -0.12425869 -2.5920613
-0.5440426 0.21397491 -1.896624 -0.009019656 0.5864122 -0.69494617 0.62690943 -1.1103479
-0.7292581 -2.84492 -3.4857688 0.60329866 -0.0060445927 -0.609631 0.60953134 0.5577218
-1.8002197 0.17888826 0.4453606 -1.0915757 -1.0088787 -1.4487499 -1.000747 0.77386916
0.03616437 -1.1703738 -0.6514772 -0.8670184 0.4929969 -1.920418 -0.95393485 -0.22870938
0.07153158 -0.1822263 -0.1964717 0.010708888 0.5209426 -0.088229746 -10.026725 -1.2016643
-0.11772901 0.32467103 0.15141886 0.0116306795 0.78204614 -0.15159142 1.6258224 0.3818537
1.5083281 2.4290042 0.426153 -0.47014982 -0.22841322 0.17809251 -1.1162355 0.29331213
0.13654582 -6.0523105 -1.9304551 -0.05538136 -0.16417654 0.27425715 0.4053645 -1.3256396
-0.6599498 -0.4215455 -5.4431005 -0.44157678 0.3480585 -0.16435799 -0.12704043 0.33290598
-0.5972457 -5.186819 0.06210752 -0.24337678 -0.98932445 -0.62111986 -0.7354633 -0.019287579
-0.29673558 0.61963344 -0.9677956 -0.343147 -2.1512177 -4.4496636 -0.071255594 -1.9260235
-1.0396771 -0.9940812 -2.145214 -0.31697094 0.009864655 0.11253984 0.61691886 0.99949795
0.72258687 -0.15452224 0.47863203 0.0023120635 0.18639284 -0.5474156 -2.0914443 -2.043332

conv1.bias f4 [16]
00000000: bfed e1bf e903 963f c02a c3bf 2b2a 2bbf
00000010: 3049 8f3f 60ab a83e da9e 59bf 41fb dbbd
00000020: 3021 223f 35c3 6a3c f143 dcbf 6382 0c3f
00000030: 7504 933d 358e 10c0 5199 4cc0 544c b13e
-1.7650679 1.1719943 -1.5247421 -0.6686122 1.119421 0.3294325 -0.85008013 -0.10741282
0.6333189 0.014328768 -1.7208234 0.54886454 0.071785845 -2.2586796 -3.1968577 0.34628546

conv2.weight f4 [16, 16, 3, 3]
00000000: 6db1 033f a114 dfbe 9375 5dbf 9dfa 2fbf
00000010: 1225 4fbf 0443 29bf b8a2 26be 3fd0 c43e
00000020: 8213 f9be 53d3 bdbe a2ba f0be 85e1 67be
00000030: a748 70be 9b24 513f 7baa c33d 668b 2a3f
00000040: 49a1 5940 5996 a03f 0c81 95bd 94f3 d8be
00000050: 156b 81be c53a e3be 7c4b eebe d50f 293d
00000060: f4d3 2f3e 73c8 ab3f 0cbe 183f 1072 5fbf
00000070: d169 5cbf dc89 e4bd 46ac 1ebf 831f 52bf
00000080: f3d9 6dbf 5252 3abf 3b10 4a3f 7bbc 183f
00000090: 3d4c 3abf 2cef b93e 971f e33e af8c 3dbf
000000a0: cd27 c2bd 0c98 393f 8b66 adbf ecd4 aabf
000000b0: 071b 87bf eabc a83f 9af8 7d3f ce00 713f
000000c0: 0bc0 d23f 5e96 8d3f 8f32 803f 4718 2b3f
000000d0: f47f bd3f ed6b 903f e521 6140 fe68 ea3f
000000e0: 73d1 d7bd 7b33 4440 f297 483e 6861 113f
000000f0: 7966 9e3e e914 2cbe e083 243f 0a97 6d40
00000100: fa6c 2540 8470 db3d aaf3 9740 73ce 4140
00000110: c7f4 5e3e b516 193f 4b15 11be 8339 623d
00000120: 3396 c33e 9b40 3c3e dd69 123f 3309 763e
00000130: 188c eb3e 902f 8c3f bb5e a73d 8bc7 753e
00000140: ff3c 393f ebd4 70bf 7b97 c6be d8de cb3e
00000150: 907e 9dbf d36f a2bd 43b3 5b3f 60f7 e4be
00000160: ca24 3dbf 668d c53e 8309 8c3f 8470 0340
00000170: 0262 563f dcb5 0040 eca6 c43f 70fb 1abc
00000180: 5080 513f 1157 6e3e 50ac c7be 456b 513f
00000190: b767 a23f 9bee 3e3f 0c26 6a3f 962c 183f
000001a0: 8df4 ac3e 9971 1d3e f52b 343f 68cc 543f
000001b0: a668 a43f a10b 1940 31a5 35bf e95f d53f
000001c0: 8b3c a9bd e5ac a13b 6a42 a63e 51de e6be
000001d0: f246 a63a 3bf1 5939 3e54 f6bd 7d8e af3e
000001e0: 7375 6ebe 5010 f5bd e1c0 323f d3c6 033e
000001f0: f5ee e43e b7fb 3a3f b002 1bbf dc40 0d3e
00000200: 820e 5140 d91c ecbe d29e 6d3e 5b4a 683f
00000210: c8d4 6b3d ef81 5e3e b500 f53d dc59 893f
00000220: 6e17 103f 2965 70bf 9a42 da3e 4773 75be
00000230: b2b0 81bf aaf7 88bf d730 ccbf 7909 4f3e
00000240: 882c 43bf 5141 4e3e d69a 74bf b19d 34bf
00000250: eb64 803e 1659 5fbf 581a 0ec0 25e1 5cc0
00000260: 04de 90bf ff4f 203e 6ed4 c23f 4e3a 36bc
00000270: 006c 84bf 1e52 a0bd af8a ac3f f12e 36c0
00000280: e73f 04be 01a1 1cbf aae7 fabf 3e2d 913f
00000290: 04ff 9f3e 859b 56c0 de34 743e a244 523e
000002a0: 86f5 52c0 c7d0 46c0 5e24 08bf 74fe 493f
000002b0: 43d8 5b3f 444c e23e 2ea1 c7be 955e 09be
000002c0: 750c 9b3f f266 763f 6c75 ba3e de23 38bf
000002d0: 8e46 133f eb74 2bbf b591 803e 8210 a7bf
000002e0: b921 e43d 26ae be3e e2fe d7be 8142 2fc0
000002f0: 7f70 12c0 f03e 9240 906f 5540 0145 3e40
00000300: 21d6 3bbf 16ba 74be 2923 8a3f 93c5 88be
00000310: d632 7ebf 2c4a 1dc0 9c11 c43e b365 cf3f
00000320: dd1f 3c3f 3ed6 643f 3e7b 493f cb61 89bd
00000330: 91b9 98be 88af 213f b4db 6f3f 40f8 76bf
00000340: ca4f 43bf 4b79 08bf d9e6 793d 1451 2ebf
00000350: 18d8 28bf 7e19 11bf b9dc 9c3f e3b2 4f3f
00000360: 696e d4be ef23 93bf 632e be3f cd01 97be
00000370: 7c04 94bf 5943 3bc0 03fd 81bf 1755 e4be
00000380: a794 643f e4b5 c2bf eee2 983e 9f9a 183f
00000390: 76fe 8cbf bfcd ba3e 7d88 b13e bf5f 2abf
000003a0: f15c ffbe 15c4 79bd 6809 8e3f 9d38 e3bf
000003b0: 642e b5bf 8c89 cabe 7b4c 62c0 4b29 88c0
000003c0: 4062 e6bd 25c4 28c0 a96b f7bf d613 de3f
000003d0: 196e 963f 45e5 423f 4eaf 26c0 2a7c 2cbe
000003e0: 8d3e 99c0 510b 11c0 9170 58c0 e643 14c0
000003f0: 276a c63f d4df 38bd 92de 8a3f 9d1a 913e
0.51442605 -0.43570426 -0.8650753 -0.6874178 -0.8091594 -0.6611788 -0.1627301 0.3844013
-0.48647696 -0.3707529 -0.4701739 -0.22644623 -0.23465215 0.8169648 0.09554001 0.66618955
3.400469 1.2545882 -0.07300004 -0.42373335 -0.2527701 -0.44380775 -0.46541965 0.041274864
0.17170697 1.3420547 0.5966499 -0.8728342 -0.86098963 -0.11159107 -0.6198162 -0.82079333
-0.9291069 -0.7278186 0.78931016 0.596626 -0.7277258 0.36315286 0.4436004 -0.7404279
-0.09480248 0.7249763 -1.3546919 -1.3346229 -1.0555123 1.3182652 0.9920746 0.9414185
1.6464857 1.1061513 1.0015429 0.6683392 1.4804673 1.1282936 3.5176938 1.8313291
-0.10537996 3.065642 0.19589213 0.56789255 0.30937555 -0.16804852 0.64263725 3.7123437
2.5847764 0.1071482 4.748494 3.0282257 0.21773063 0.59800273 -0.14168279 0.05523063
0.3820053 0.1838402 0.57192785 0.24026947 0.4600532 1.0952015 0.08172365 0.24001901
0.723587 -0.9407489 -0.38787445 0.39818454 -1.2304249 -0.07931485 0.85820407 -0.44719982
-0.7388426 0.3858444 1.0940403 2.0537424 0.837433 2.0110998 1.536344 -0.009459361
0.81836414 0.232754 -0.38998652 0.81804305 1.2687901 0.74582833 0.91464305 0.5944303
0.33780327 0.15375365 0.70379573 0.831244 1.2844436 2.3913348 -0.7095519 1.6669894
-0.08263501 0.0049339407 0.32472545 -0.4509149 0.0012685938 0.00020784598 -0.12027787 0.34288397
-0.23286991 -0.11966002 0.6982556 0.12868814 0.4471356 0.73040336 -0.60550976 0.13794273
3.2665105 -0.4611576 0.23205116 0.9073846 0.05757597 0.21729253 0.119630255 1.0730548
0.5628575 -0.9390436 0.42628938 -0.23969756 -1.0132048 -1.0700581 -1.5952405 0.20218457
-0.76239824 0.20142104 -0.9554876 -0.7055312 0.25076994 -0.8724531 -2.220358 -3.4512417
-1.1317754 0.15655516 1.5221078 -0.011122299 -1.0345459 -0.078281626 1.3479823 -2.846615
-0.12915002 -0.6118317 -1.9601948 1.1341932 0.3124925 -3.3532422 0.23848292 0.20533994
-3.2962356 -3.1064928 -0.5318049 0.7890389 0.85876864 0.4419881 -0.38990158 -0.13414986
1.2113177 0.9625083 0.3641771 -0.7192973 0.5752953 -0.6697528 0.25111166 -1.3051913
0.111392446 0.3724224 -0.42186648 -2.738434 -2.2881162 4.570183 3.3349342 2.9729617
-0.7337361 -0.23899111 1.079198 -0.26713237 -0.9929632 -2.457652 0.38294685 1.6202911
0.7348612 0.8938941 0.7870368 -0.06708106 -0.29829076 0.63158464 0.93694615 -0.9647255
-0.76293623 -0.5331008 0.06101117 -0.68092465 -0.6595473 -0.56679523 1.2254859 0.81132334
-0.41490486 -1.1495341 1.4857906 -0.2949356 -1.1563869 -2.9259856 -1.0155338 -0.44596168
0.89289325 -1.5211759 0.29860634 0.59610933 -1.1015155 0.36485097 0.34674445 -0.66552347
-0.49875596 -0.060978014 1.109662 -1.7751652 -1.4154782 -0.39558065 -3.535918 -4.2550406
-0.112492085 -2.6369717 -1.932973 1.7349803 1.1752349 0.7613109 -2.6044497 -0.1684424
-4.7888856 -2.2663157 -3.3818705 -2.3166442 1.5501145 -0.045135334 1.0849173 0.28340617

conv2.bias f4 [16]
00000000: edaf 7cbd e0cc 8bbd 28d7 283d 6b49 583c
00000010: c964 393b 94f6 513d ff61 393d 07c2 e4bc
00000020: 4aa7 2ebc 4cfd a8bc 28d1 4dbc 8222 a93d
00000030: 6834 763d e6b3 0abe 41aa ce3c 9d8e 8d3d
-0.061691213 -0.06826186 0.041220814 0.013201098 0.0028288832 0.051260546 0.045259472 -0.02792455
-0.010660002 -0.020628594 -0.012562074 0.08258535 0.060108572 -0.13545188 0.025227668 0.06911967

bn11.weight f4 [16]
00000000: fe00 e53f 630d 043f cd4b 8a3f d11c 7c3f
00000010: bdfa ea3f 5e45 d43f 1488 023f dfbf 823f
00000020: 9e81 0040 cf53 153f e078 d83f 901b e43f
00000030: 7a44 fd3f d50b e23f d834 fc3f 6318 893f
1.7890928 0.51582927 1.0804383 0.9848147 1.8357769 1.6583669 0.5098889 1.0214804
2.0079112 0.58331007 1.6911888 1.7820911 1.9786522 1.7659861 1.9703627 1.0710567

bn11.bias f4 [16]
00000000: 8f88 09bf f1e2 ad3d bcdb 8fbe eeb6 3f3b
00000010: 6dfd 0dbf a393 2cbf 4f90 593d d503 6ebe
00000020: ae51 11bf 49e7 24be 4813 19bf 303f 19bf
00000030: 521d f1be ac9a 1ebf 2d01 8ebe 48bf 2dbe
-0.53723997 0.08490551 -0.28097332 0.0029253322 -0.5546482 -0.67412776 0.05311614 -0.2324365
-0.5676526 -0.16103853 -0.59795046 -0.5986204 -0.47092682 -0.6195476 -0.27735272 -0.169675

bn11.running_mean f4 [16]
00000000: b208 eabf 4b1b 913f fefb cbbf b443 34bf
00000010: 4d0f 873f d2d2 5c3e f9d0 69bf b330 2cbe
00000020: 0935 f53e 5c57 e43d be32 ecbf 591a e23e
00000030: fd7e a2bc ac64 18c0 61be 51c0 c5f7 a03e
-1.8283904 1.1336454 -1.5936277 -0.70415807 1.0551544 0.21564797 -0.9133449 -0.16815452
0.47892025 0.11149475 -1.8452985 0.44160727 -0.019835943 -2.3811445 -3.2772448 0.31439033

bn11.running_var f4 [16]
00000000: 5d4b f13c 72d2 5a3c 0e88 c93c b8c5 7a3c
00000010: d2e8 0a3d a9ef 873d 607e b43c 64cf 9d3c
00000020: cc3e 3b3e 6da1 173d cb58 c43d ec1f 993d
00000030: a76b 7f3d 0355 8a3d e9c1 0d3d 041d c93c
0.029454881 0.013355838 0.024601009 0.015305929 0.03391344 0.066375084 0.022032917 0.01926393
0.18285674 0.037019182 0.095872484 0.07476792 0.062358525 0.06754496 0.034608755 0.024549969

bn12.weight f4 [16]
00000000: 9926 523f 94fe 833f 4a55 ca3f 9607 593f
00000010: 0cdd 2040 d3b0 a03f 728f a03f 5278 b73f
00000020: c3be 3b3f 7658 d53f 2fdb c53f 9e29 de3f
00000030: 52a6 a93f 9873 0840 2794 aa3f 2b84 743f
0.82090145 1.0312066 1.5807278 0.847772 2.5134916 1.2553962 1.2543776 1.4333594
0.73337954 1.6667621 1.5457515 1.735645 1.3253882 2.1320553 1.3326463 0.9551417

bn12.bias f4 [16]
00000000: 7fd7 10be 88d3 93bf 6e88 4abf f671 f1be
00000010: 3225 0ec0 5b0f 113f f005 1ebe eeaa 63be
00000020: 380d babe f216 c5bd ed64 79bf 2703 2abf
00000030: 29c4 8abf b017 5abf 78c4 8c3d 0947 7fbd
-0.14144705 -1.1548929 -0.79114425 -0.47157258 -2.2210202 0.56664056 -0.15431952 -0.22233173
-0.3633821 -0.09623517 -0.97419626 -0.6641106 -1.0841113 -0.85192394 0.06873411 -0.062323604

bn12.running_mean f4 [16]
00000000: ab17 b540 3320 bec0 7d45 9d3c a683 943f
00000010: e866 cb3f 061d 3cbf 472d 0dbe ba9b 52bf
00000020: e951 8540 cb94 5c40 ae5f bbbf 37c9 8f40
00000030: fcd2 c040 926b 6dbf 4198 b0c0 96eb 1c40
5.659139 -5.9414306 0.019198174 1.1602676 1.589078 -0.73481786 -0.13786803 -0.8226887
4.166249 3.4465816 -1.4638574 4.4933124 6.025755 -0.92742264 -5.5185857 2.451879

bn12.running_var f4 [16]
00000000: badd 3c42 67cf aa41 f873 8841 6711 9241
00000010: 6d22 3b41 e5f7 4542 de12 3642 c2ca 1042
00000020: 388a 5842 3618 0e42 252a 1e41 e5de a441
00000030: 87bd 0042 035a e441 4e38 8a41 5561 2842
47.21653 21.35127 17.056625 18.258497 11.695905 49.492085 45.518425 36.198006
54.13498 35.523643 9.885289 20.608835 32.185085 28.543951 17.277493 42.09505

conv3.weight f4 [32, 16, 3, 3]
00000000: 7250 27bf 6aa6 2c3e 0023 7cbe 92ff f9bd
00000010: 3fbd 54be fb8c c5be 5dff 99be 9113 423e
00000020: 9946 e5be 5bd3 cbbe 32cd 15bf 086a 9ebf
00000030: 8e2d b03f 7a4e fb3e 8063 e4be 5a5c 603f
00000040: 8968 4d3f 8095 2b3e a75b 8bbf 7998 8cbd
00000050: fad5 bc3e e520 c0bf 221e a33f db00 0540
00000060: 970a 253e c9fc a13f 10b4 fe3f efc3 f8be
00000070: 2a25 033f 73cf b0bf 25e0 1dbf 4562 a93d
00000080: 08a1 c0bf 879f 86bf 3c3a cfbe db38 8ebf
00000090: 5477 1ec0 c568 37c0 a544 583f f349 19c0
000000a0: ddbf 1bc0 8c2c a03f b8e3 d1bf 90d6 c3be
000000b0: 6aed 2040 c8be 433f 35ab f03d f202 1ebe
000000c0: b655 50bf 4acb d0bd cbed c73f d888 9fbb
000000d0: 656d 4c3f c463 213f 48bc 1fbf 78af cabf
000000e0: 0b76 79be 119e 1cbf 10a3 04c0 e986 8f3f
000000f0: 7e22 66bf f468 21bf acd7 b13e d723 67be
00000100: 239b 7f3f 3dc0 133f 3bae 69bf 1e82 333e
00000110: 9d6e 48be 4892 45be 234f 8cbb d546 0abe
00000120: f707 3ebf ad0c 8ebf 499a c23e 810a e93e
00000130: edfa fd3b 4dc4 98be b4d2 e33e ccd0 063f
00000140: 3966 093d d9f5 443e bbb0 223f 7a3e 4740
00000150: a46e 0dc0 b8e5 97bf 2761 a840 a8e2 cdbe
00000160: cafd 17bf f6b1 2640 94fb 8e3e 2c48 c1bf
00000170: 6d8e 933f 0521 853e 8b5e d9bf 4849 bf3f
00000180: 636e ca3e 531e 4bbe 54ab 933e 15e8 e5bf
00000190: 6748 da3f 05e6 383f c71d cebf 6d97 d73f
000001a0: 89ea ae3e 518e 743d cd9a 163f fdd0 a7bf
000001b0: 66bb 40bf d098 013e 790d 1e3f 4a5f 263f
000001c0: d164 8bbe d197 18be 0b9b 723f 1009 5d3e
000001d0: 88e7 d4be 9db5 d5bd 0e56 7fbf 0852 de3f
000001e0: 78f8 04c0 9742 32c0 1eea f33f fa50 783e
000001f0: 9cb9 77bf 68e2 ae3f 010a 563f d623 5b3e
00000200: f6d5 14bf 8242 853f 0b5b 733f 45c6 22c0
00000210: edbf 853f 39f2 883f b840 513f 958c 653f
00000220: dda5 02c0 f26d e8bf b28e 75bf caa3 2dbf
00000230: d697 97bf 88f1 a7bf a192 213f ea61 98bf
00000240: f54d 44bf bdd8 593f aa3b 443f 9924 efbe
00000250: 0662 b33d 6c24 83bf 07f0 0040 fc88 373f
00000260: d38d 78bd c2ad 953f 6be0 9b3f 8064 d0bf
00000270: a6a7 1b3f 7334 1640 90e9 1140 730c 5d3f
00000280: f6ae 3540 82f6 0040 26e8 963f fec4 e33e
00000290: 62c4 79bf 7109 c33f c7b7 cd3f caf0 e2bf
000002a0: 1bf4 f73e 2934 973f 5edc 703c a2b1 6ebf
000002b0: b190 52bf f5b4 b9bf 7c18 8e3e 6338 003f
000002c0: 547c 993f af1f 32be ffe9 603e 9671 b73f
000002d0: 91d8 723f 2c25 81bd e8dd 2c3e aedf 98be
000002e0: 88b0 3cbf aa4e 8cbf e92b 5ac0 3503 b2bf
000002f0: eb52 1a3f 129e 90be 3dac eebf 1bf7 97bf
00000300: b31a b03f 8aca adbf 1b64 a9bf b46a 67bb
00000310: bb42 eabf 8641 6bbe 36ae 383f 0d13 eb3d
00000320: 7c12 95bf 08bb c1be f944 edbd ba90 e73d
00000330: 4837 723f 8269 1cbf abad a1be b4c6 3b3e
00000340: 660d 8dbf b31a bbbf 4e36 80be 1ef8 74bf
00000350: 5c73 37bf 31f0 86bf 6467 8ebf 50af 2fc0
00000360: 848f e33e a39a 413f a464 b3bf 2652 583f
00000370: 975a 913f 2824 ea3d 31c6 3f3e d349 a53f
00000380: 3e08 2b3f a8a5 85bf 12d3 663f df79 86bf
00000390: e67e 8d3f 433c 963f 4429 e83e 47b7 6d3f
000003a0: 793f 00bd a823 bfbf fe14 cd3f de1c 733f
000003b0: 0ef3 f73f d9c6 2340 af2d 3d3f 0524 de3f
000003c0: 7587 cd3f 68b6 d93e a0cb 4f3f 3304 f6be
000003d0: 2bf5 aa3f 520d 963f 71da 933f 1442 1340
000003e0: 5138 363f 5f63 8abf dd6b 4f3d 5de9 d4bf
000003f0: b627 f6bf fc01 e1bf 7fb0 eebe cfcc 46c0
-0.65357125 0.16860357 -0.24622726 -0.12206949 -0.20775317 -0.38584122 -0.3007764 0.18952776
-0.44780424 -0.3980969 -0.5851623 -1.2376108 1.3763902 0.4908331 -0.44607162 0.8764092
0.80237633 0.16756248 -1.0887345 -0.06865019 0.36882 -1.5010039 1.2743571 2.0781772
0.16117321 1.2655269 1.9898701 -0.48586985 0.5122858 -1.3813308 -0.6167014 0.082706966
-1.5049143 -1.0517434 -0.40474117 -1.1111101 -2.4760332 -2.8657696 0.84479743 -2.3951385
-2.4335854 1.2513595 -1.6397619 -0.38249636 2.5144906 0.76462984 0.11751405 -0.15430811
-0.81380785 -0.10195024 1.5619444 -0.004868608 0.7985442 0.63042855 -0.6239667 -1.5834799
-0.24361436 -0.6117869 -2.0724525 1.1213046 -0.8989638 -0.6305077 0.34734857 -0.22572266
0.99846095 0.5771521 -0.9128148 0.17530105 -0.19573446 -0.19294083 -0.004281895 -0.13503583
-0.74230903 -1.1097618 0.38008335 0.45515826 0.00775086 -0.29837266 0.4449669 0.5266235
0.033544753 0.19234408 0.6355092 3.1131883 -2.209878 -1.186698 5.2618594 -0.40211987
-0.59371626 2.6046119 0.27926314 -1.510015 1.152784 0.26001754 -1.6981977 1.4944239
0.39537343 -0.19835787 0.2884165 -1.7961451 1.7053345 0.7222598 -1.6102837 1.6843086
0.3416331 0.059706036 0.5882996 -1.3110653 -0.7528595 0.1265595 0.6173931 0.6498915
-0.27225354 -0.14901663 0.94767827 0.21585488 -0.41582894 -0.104350306 -0.99740684 1.7368784
-2.0776653 -2.7853143 1.9055822 0.2424964 -0.9676759 1.3662844 0.83609015 0.21400389
-0.5813898 1.0410922 0.95060796 -2.5433514 1.0449196 1.069892 0.8173938 0.89667636
-2.0413735 -1.8158553 -0.9592086 -0.6782805 -1.1843212 -1.3120584 0.6311436 -1.1904881
-0.76681453 0.8509634 0.7665354 -0.4670761 0.08758931 -1.024549 2.01465 0.71693397
-0.06068213 1.1693652 1.2177862 -1.628067 0.60802686 2.3469512 2.2798805 0.8634712
2.8388038 2.0150456 1.1789596 0.4448623 -0.9756528 1.5237256 1.6071709 -1.7729733
0.48428425 1.1812793 0.014700977 -0.93239796 -0.8225203 -1.4508349 0.27753055 0.5008604
1.1991067 -0.17394899 0.21964262 1.4331539 0.94861704 -0.06305918 0.16881526 -0.29858154
-0.73706865 -1.0961506 -3.40893 -1.3907229 0.6028277 -0.28245598 -1.8646313 -1.1872286
1.3758148 -1.3577435 -1.3233675 -0.0035311403 -1.8301615 -0.22974214 0.72140825 0.11478243
-1.1646266 -0.37838006 -0.11585421 0.11306901 0.946156 -0.6109849 -0.3157781 0.18337518
-1.1019714 -1.4617523 -0.2504143 -0.95691097 -0.716604 -1.0542051 -1.1125302 -2.7450752
0.4444543 0.7562658 -1.4015088 0.8450035 1.1355771 0.114326775 0.18727948 1.2913154
0.6680945 -1.0441179 0.9016582 -1.0505942 1.1054351 1.173714 0.45343983 0.92857784
-0.031310532 -1.4932756 1.6022031 0.9496592 1.937105 2.5590117 0.7389783 1.7354742
1.6056963 0.42521977 0.8117008 -0.4805008 1.3356069 1.1722815 1.1551038 2.300908
0.7117968 -1.0811576 0.050639976 -1.6633717 -1.9230869 -1.757873 -0.4661903 -3.1062505

conv3.bias f4 [32]
00000000: 535f d23a 8f10 27bd 9462 3cbd 9a5b 643d
00000010: 56d4 e13c 6a1f ba3d 931f 5c3c 0e3c 933d
00000020: 04f7 653d fa49 08bd c22c 173d d588 95bd
00000030: f61c d5bb 5729 c13c 8050 7cbd 0207 e63c
00000040: bf06 92bd 2d99 8abd a5b2 743d 52df d13b
00000050: aef9 afbd 5297 953d f2e4 b9bc 3ecc 62bd
00000060: 645d 00bd b4c6 9c3d 38f6 533c 0205 693d
00000070: a8df 0e3b c05a bbbd 7870 da3c 504e 913d
0.0016050137 -0.040787276 -0.04599245 0.05575142 0.02756707 0.09088023 0.013435262 0.07189189
0.056143776 -0.033273675 0.03690792 -0.07301489 -0.0065036966 0.023579283 -0.06160021 0.028079513
-0.07130193 -0.06767497 0.05974068 0.0064047957 -0.085925445 0.07304253 -0.022692177 -0.05537056
-0.031339064 0.07655087 0.012937121 0.05688954 0.002180079 -0.091481686 0.026664957 0.07095015

conv4.weight f4 [32, 32, 3, 3]
00000000: d5de 00bf 4e8a 0e40 eef0 0a3f 3063 b33e
00000010: 92b5 7dbf a49c 4abf 6fef 0740 24ee e3bf
00000020: 7553 883f 7d2d a33f 0492 be3f 053b 1e3e
00000030: 53ca d5be 7ab4 d0be fc8e 22c0 87cf b6bf
00000040: e259 763e 5932 6cbf 7f1c a3bf 7406 fc3f
00000050: 26b1 13bf e171 223f 2ef7 04bf 1ab3 b6bf
00000060: 7c64 0540 cfe5 ad3f efa3 1f3f 0e25 d23f
00000070: 83fc d13e 16ea bf3f 87d8 893f c0e6 5bbf
00000080: 9885 29bf 0505 19bf 1649 88bf 3a8c 19c0
00000090: 3ca2 0abf 8c11 0a3f 10a1 64bf cf32 12be
000000a0: 0d4d 383f 2a30 583f f92b cbbf 3526 a2be
000000b0: 39e1 43bf 3506 be3f 7753 1f3f dadd 4dbf
000000c0: a510 683f 6a9d 2b3f 71cc 15be e64e 50bf
000000d0: eea0 d0be d4d1 95bf 501f 8ebf b89e 243f
000000e0: 0429 3ebd ceeb b2be 8fc0 7bbe b90b ee3e
000000f0: 0222 21c0 b69f febf fe67 133f 792d 07c0
00000100: 4970 db3e 5a07 29c0 b8df e4bf b01a adbe
00000110: 8832 a4bd 81e2 13c0 1264 ff3e c75f f9be
00000120: d2d3 79bc 3ba6 2e40 257c dbbd 034b 803e
00000130: 2dd1 633f a5f6 a1bf 36e8 65c0 e74b 503e
00000140: fb8e 0cbf f48d 413f 3c01 d0bf fe9c b1bf
00000150: e583 84bd 3ffd d3bf 87c0 9dbf 4ee1 273d
00000160: f238 cabf ff14 fbbc b96e 0dc0 94bc 0ac0
00000170: cb02 b6bf 7729 01c0 6377 04c0 8d93 26c0
00000180: 5fb8 eebf 0a8f 753e 364d 21c0 bb3f 9e3f
00000190: 30d9 8a3f bc76 0440 3693 033f 3a46 623f
000001a0: 014f 8c3f 69f0 933f 7928 423f fea2 ff3f
000001b0: 56e7 44c0 3f78 1ac0 2df9 cfbf 891f 49be
000001c0: 8b70 e23e a010 90bf a8c0 153e f69c a13f
000001d0: 5e96 69be 9592 49be 16d3 a2bf 7952 9abf
000001e0: cc6d 1bbf f07c d0be d3ba 8dbd 50c0 1b3f
000001f0: 37d5 2e3f 386f 193f 2a31 f33e 1195 1e3f
00000200: b9ff 27bf e90a 553f fb48 0f3f fe93 4fbf
00000210: e3de 6dbf 77f5 e9be 194f d5bd 3c76 933e
00000220: c860 9c3d a071 7bbf 0bef b13e e2d4 b53d
00000230: 47bd 1dbf 00a0 b93d 8d0f 8abf 0c54 3fbf
00000240: 0cbd 9a3f 2e4f 56bf 8371 bb3f 0869 d9be
00000250: a748 01bf 4565 513f 6346 abbf 7644 a9bf
00000260: 6f5c f1be 6729 e9bf ac27 283f 9710 b13f
00000270: 6d0e bf3e 32b8 bb3e 827a 11bf 7609 17c0
00000280: e747 05c0 3479 2dc0 9df4 06c0 0c51 78bf
00000290: 4f31 c6bf 1b5b 5d3f dbe3 a13f d709 1b3f
000002a0: 515d 533f 68c7 263f b1f2 ba3e 9698 31c0
000002b0: 575b be3e 1e26 22bf d858 0640 fdbb 70bf
000002c0: d8fc 183f f909 7bbf 366f 80be e853 9b3f
000002d0: 4bb2 663f 8828 bebe 7a6c 45bf d76b 92bf
000002e0: 065a e4bd 015a babf bddc 86bf 79df d9bf
000002f0: f73f 35c0 4cc1 473f 3d5a 2ebe 1961 86bf
00000300: d291 af3f b835 36c0 e7f4 2dbf f9fb 07c0
00000310: 3deb 43c0 1002 0bc0 4977 ef3e 0190 533f
00000320: e917 52bf c4c6 933d 1de3 b83e 4534 c23f
00000330: 7818 db3f a9e3 a5bf f708 0040 3b6a 803f
00000340: bb52 e43f ff15 933f ec87 a8bf 8875 c13f
00000350: 89c0 88bc 56ba debc 735b 253d 1fd4 8fbd
00000360: a57e 063f 2e36 ffbd 2fdf 3c3f acb1 74bf
00000370: 3d2f 123f 5600 113f 4feb b33e 2335 04bf
00000380: b215 aebd 1825 ce3f ffde 903f da26 1ebf
00000390: dd80 ecbf e47e 883f c718 273f 0f42 03bf
000003a0: 54bd a9bf 9d26 aa3c dbf9 1940 60b3 403f
000003b0: 8d55 0c40 b8dc a93f eb4d 103d f5bd 063f
000003c0: f935 b73e f5fe 2d3f 462c 87bd d0ca edbf
000003d0: 641e e8bf 9ae7 e0bf 77d5 bcbe b1bb 30bf
000003e0: 4889 fdbe 63b8 9bbe 3518 0ebf 207e 81bf
000003f0: 18d0 28bf af9e 48be e3f5 e53d 90d6 febd
-0.50340015 2.2271914 0.5427388 0.35036612 -0.9910518 -0.79145265 2.1239889 -1.780705
1.0650469 1.2748257 1.488831 0.15452202 -0.41755924 -0.40762693 -2.539977 -1.4282082
0.24057725 -0.92264324 -1.2743071 1.9689469 -0.5769218 0.63455015 -0.51939666 -1.4273407
2.084258 1.3585757 0.6235952 1.6417558 0.41012964 1.4993312 1.0769204 -0.8589897
-0.6621947 -0.59773284 -1.0647304 -2.3991838 -0.541538 0.53933024 -0.8930826 -0.14277194
0.7199257 0.8444849 -1.5872794 -0.31669775 -0.7651554 1.4845644 0.6223673 -0.80416644
0.906504 0.6703707 -0.1462877 -0.8137039 -0.4074778 -1.170466 -1.1103306 0.64304686
-0.046425834 -0.3494553 -0.24585174 0.4649332 -2.5177007 -1.989249 0.57580554 -2.1121504
0.42859104 -2.6410737 -1.7880774 -0.33809423 -0.080174506 -2.3106997 0.49881035 -0.48705885
-0.015248256 2.728896 -0.10717038 0.2505723 0.8899105 -1.2653395 -3.592298 0.20341454
-0.5490567 0.7560723 -1.6250377 -1.3876035 -0.064704694 -1.656166 -1.232438 0.04098635
-1.5798628 -0.03064966 -2.209883 -2.16776 -1.4219602 -2.0181558 -2.0697868 -2.6027558
-1.8650016 0.23980346 -2.5203376 1.2363199 1.084753 2.069747 0.513965 0.8838841
1.096161 1.1557742 0.75843006 1.9971616 -3.0766196 -2.4135892 -1.6247917 -0.19640936
0.44226488 -1.1255074 0.14624274 1.2626026 -0.22811267 -0.19684823 -1.2720668 -1.2056419
-0.6071441 -0.4072032 -0.069203995 0.6084032 0.6829409 0.5993533 0.47498447 0.6194621
-0.65624577 0.8321977 0.55970734 -0.81085193 -0.92918223 -0.45695087 -0.10415477 0.28801143
0.07635647 -0.98220253 0.34752688 0.08878495 -0.6161694 0.09063721 -1.0785996 -0.7473762
1.2088943 -0.8371457 1.4644016 -0.42462945 -0.50501484 0.8179515 -1.3380855 -1.3224018
-0.47140834 -1.821576 0.65685534 1.3833188 0.37315693 0.36663967 -0.5682756 -2.3599524
-2.0825136 -2.7105227 -2.10868 -0.9699867 -1.5483798 0.8646714 1.2647661 0.6056189
0.82564265 0.6514802 0.36513284 -2.774938 0.37179062 -0.6333941 2.0991726 -0.9403685
0.5976081 -0.9806209 -0.25084847 1.2134981 0.90115803 -0.37140298 -0.7711865 -1.143916
-0.11149983 -1.4558717 -1.0536114 -1.7021323 -2.832029 0.7802932 -0.1702661 -1.0498382
1.3716376 -2.8470287 -0.67951816 -2.1247542 -3.0612328 -2.172001 0.46770695 0.8264161
-0.82067734 0.07215646 0.36110774 1.5172201 1.7116842 -1.2960101 2.0005472 1.0032419
1.7837747 1.1491088 -1.316648 1.5113993 -0.01669337 -0.027188461 0.040370416 -0.07022881
0.52536994 -0.12461506 0.7377805 -0.95583606 0.5710333 0.5664114 0.35140464 -0.5164358
-0.08500232 1.610507 1.1318053 -0.6177803 -1.8476826 1.0663724 0.6527218 -0.5127267
-1.3260903 0.020770365 2.405875 0.75273705 2.1927216 1.3270483 0.03523056 0.526336
0.35783365 0.6796716 -0.06600241 -1.8577518 -1.8134274 -1.7570679 -0.3688161 -0.69036394
-0.495188 -0.30414113 -0.55505687 -1.0116615 -0.65942526 -0.19591783 0.1122854 -0.12443268

conv4.bias f4 [32]
00000000: c483 f9bb 427c 0bbd 0bdf d0bc 0b93 383d
00000010: 23b2 cdbb bbb6 85bd 81f3 39bd 77c1 803c
00000020: 8e62 9cbc e65a 18bd 4aa5 563d 75dd 9c3b
00000030: 634f 0e3d aab0 1e3d 64fe b63c a3e2 1b3d
00000040: c1f1 403d 185a 83bd 82ed 04bd 820c 6c3d
00000050: 29c1 023d f7c3 50bd e4de 843c d067 2bbd
00000060: f369 0cbd eb5f 083d f4ad 5cbd 2eb0 43bd
00000070: 14c5 3bbd 1db4 39bc d028 5cbc dbd6 0b3d
-0.0076145846 -0.03405405 -0.02549698 0.045062106 -0.006277339 -0.06528994 -0.04539824 0.015717251
-0.019089963 -0.037196063 0.052403726 0.004787142 0.034743678 0.0387427 0.0223381 0.038057934
0.047105554 -0.064136684 -0.032453068 0.057629116 0.031922493 -0.050968137 0.016219564 -0.04184705
-0.03428073 0.0332946 -0.053876832 -0.04777544 -0.045842245 -0.011334446 -0.013437465 0.03414045

bn21.weight f4 [32]
00000000: 9cbc d53f b0bf ac3f 72b7 e03f 6812 b63f
00000010: 01b1 d63f b34b b33f 6bfd 603f 15b7 af3f
00000020: 56bc da3f 77d0 0f40 734e 8e3f fc66 fe3f
00000030: e3bb 903f ae2b 603f 5e3d cc3f a312 963f
00000040: d0e2 773f 20d0 223f 2d92 533f 526c 8b3f
00000050: 7425 c23f ac5f 2b3f da3a 0740 47ce 953f
00000060: a299 913f b8ed 8b3f 0629 a53f e1d7 8d3f
00000070: be81 7b3f f812 a23f 219b aa3f 0a36 8c3f
1.6698184 1.3495998 1.7555983 1.4224367 1.6772767 1.4007477 0.87886685 1.3727747
1.7088726 2.2470987 1.1117691 1.9875178 1.1307338 0.8756665 1.5956228 1.1724437
0.96830463 0.63598824 0.8264492 1.0892432 1.516768 0.6694286 2.112967 1.1703576
1.137501 1.0931921 1.2903144 1.1081506 0.98244846 1.2662039 1.3328592 1.0953991

bn21.bias f4 [32]
00000000: 8d4d 4fbf 2df3 f6bf f962 ccbf c35c 4abf
00000010: 955f 60bf becb 20bf 1bcd 5fbf 9143 56bf
00000020: 548b d8be eb8f bbbf 1201 47be cc1d a8bf
00000030: e0f6 e1bf f1ef cfc0 372f 05c0 1e9b dcbf
00000040: fcb6 213d 8ff3 4d3f 28bf d3c0 17e9 95bc
00000050: 5c2b 7fbf 4627 023f 4920 80bf 3b18 c0be
00000060: ddaf 13bf 3769 e2bf 0b0c 243f 44b5 30c0
00000070: d8e9 f83e dfb4 f0bf f241 13c0 2e02 53be
-0.8097771 -1.9292961 -1.5967704 -0.79047793 -0.87645847 -0.62810886 -0.8742234 -0.8369685
-0.422938 -1.4653295 -0.19434002 -1.3134093 -1.7653465 -6.4980397 -2.0810068 -1.7234838
0.039481148 0.80449766 -6.6170845 -0.018299622 -0.99675536 0.50841177 -1.0009853 -0.37518486
-0.5769022 -1.7688359 0.64080876 -2.7610636 0.4861591 -1.8805197 -2.3009 -0.206063

bn21.running_mean f4 [32]
00000000: 5ce7 3e3c 605f 95c1 456e 4bc1 02ca 4fc0
00000010: 6487 6741 41df 7d40 4852 a641 e314 e940
00000020: 397c d8be 2c8b 99c0 a35c d1c0 93f5 17c1
00000030: e232 35c0 b039 fd3f 2edb 0ac0 f121 9940
00000040: d49c 27c1 57cf e2c1 3bb6 4140 af0c eabf
00000050: 06ee d840 ff0f e4c0 c5a0 3ec1 a4f4 be3d
00000060: 2625 8440 27b3 0442 d9ff dec1 411a 8e40
00000070: ee38 e3c0 bce6 b9c0 2935 ed3f 1af1 2b3f
0.01165184 -18.67157 -12.714421 -3.2467046 14.470554 3.9667513 20.790176 7.2837996
-0.42282274 -4.7982388 -6.542558 -9.497455 -2.8312306 1.978323 -2.1696277 4.785393
-10.475788 -28.35124 3.0267475 -1.8285121 6.7790556 -7.1269526 -11.91425 0.09324005
4.1295347 33.174953 -27.874926 4.440705 -7.1006994 -5.809416 1.8531848 0.67164767

bn21.running_var f4 [32]
00000000: f0b8 f542 b892 5542 28cc 7e42 72ef 0842
00000010: 289c 2f43 66af 1942 b889 7c42 a4c4 0943
00000020: c897 3143 cd09 5942 238b a042 ee80 d042
00000030: d73a 1a42 9ccf 0541 7a66 3b42 20ef 8f42
00000040: 590d 2543 47be 2d43 d41a 0c41 9c71 2242
00000050: e3cb 5542 63ea cb42 3732 a242 e730 1c42
00000060: 4aec c941 2b77 0143 6b58 1243 bcd2 9942
00000070: 162f 9042 9941 f041 1e8f c541 fae5 c442
122.861206 53.39328 63.69937 34.233833 175.60999 38.421288 63.13449 137.76813
177.5929 54.25957 80.27175 104.251816 38.55746 8.363186 46.850075 71.96704
165.05214 173.74327 8.75655 40.610947 53.44911 101.95779 81.098076 39.047756
25.240376 129.4655 146.34538 76.91159 72.091965 30.03203 24.694881 98.44917

bn22.weight f4 [32]
00000000: 7169 8f3f bfd2 863f 0024 943e 2713 5c3f
00000010: c621 753f fa7f 933f 1acc 643f f072 bd3e
00000020: 7cda 9f3f cc94 993f 3013 a93f eebb 893f
00000030: 10b5 aa3e 6d08 b03f 1468 623f cd17 553f
00000040: 4d12 893f a13f 7f3f 737e 523f 1e6c 423f
00000050: 1308 553f c622 a53e febf 543f f512 803f
00000060: 5434 9e3e 9508 4d3f 16e7 823f 1fe9 343f
00000070: d4e2 ec3e fa44 a73e d612 7f3f 9bb6 bb3f
1.1204053 1.0533065 0.28933716 0.85966724 0.9575466 1.152343 0.89373934 0.37001753
1.2488551 1.1998534 1.320898 1.0760477 0.33341265 1.3752571 0.8844006 0.8323944
1.070871 0.99706465 0.82224196 0.75946224 0.83215445 0.32253093 0.83105457 1.0005785
0.30899298 0.8009122 1.0226772 0.70668215 0.46266806 0.32669812 0.99638116 1.4665102

bn22.bias f4 [32]
00000000: ec82 8dbf c9f7 09c0 e09e ccc0 fa5c 8cbf
00000010: 56b7 0b3f 38d2 86bf baa9 ffbf ef8c a0c0
00000020: 9728 95bf 7777 14c0 a89a 5cc0 2097 90bf
00000030: 58ad aac0 6c86 90be 2dba 01c0 9eba 0dbe
00000040: 145f 743f e333 663e 4dd8 a93e 2be5 b5be
00000050: e1c1 b0c0 7dfc b7c0 23e9 623e 0669 0ec0
00000060: 387b bfc0 6e21 ef3e 1c80 efbf 73fa 3ebe
00000070: 2bbc 86c0 9ea6 b7c0 9630 3ebf 6ba0 abc0
-1.1055579 -2.1557486 -6.394394 -1.0965874 0.54576623 -1.0532904 -1.9973671 -5.017204
-1.1653012 -2.3197916 -3.4469395 -1.129612 -5.33366 -0.28227556 -2.0269883 -0.1384072
0.9545758 0.2248073 0.33172837 -0.35526404 -5.523667 -5.7495713 0.22159247 -2.2251601
-5.9837914 0.46705192 -1.8710971 -0.18650226 -4.2104697 -5.739089 -0.74292886 -5.3633323

bn22.running_mean f4 [32]
00000000: 567a 5ec1 83ce 0842 b3e7 f2bf acf7 8dc0
00000010: 051a 45c1 fcd2 1141 5ea1 ce41 a8e4 7ebf
00000020: 96c5 5b41 1a9c b541 d338 ad40 f087 c7c1
00000030: 897a 97bf 1ab2 cbc0 308a d841 b50f 55c1
00000040: 1c41 9fc1 d89a c6c1 b499 2fc1 e7a9 9dc1
00000050: a492 5cbf 59e4 f93d 1f4c 66c1 6c3e d741
00000060: d81b 1fc0 6142 13c1 13ea d441 2930 f2bf
00000070: fbc0 00bf e617 00c0 c984 b5c0 900e 9d41
-13.904867 34.20167 -1.8976959 -4.4364834 -12.318852 9.11401 25.828793 -0.9956765
13.735739 22.701221 5.4131866 -24.941376 -1.183427 -6.365491 27.067474 -13.316335
-19.906792 -24.825607 -10.975025 -19.70796 -0.86161256 0.12201757 -14.393584 26.90548
-2.4860744 -9.203706 26.614294 -1.8920947 -0.50294465 -2.0014586 -5.672459 19.63211

bn22.running_var f4 [32]
00000000: 0edb 3c43 5e2b ef43 3363 1542 bf82 fa42
00000010: 9433 5f43 f2b8 4d43 d9a5 c043 5ccb 3342
00000020: 8f30 8343 e561 8a43 ed32 9942 b561 0b43
00000030: 842f 4142 3607 e143 4917 d243 6697 3a43
00000040: 16ed a143 69c6 ae43 a02d 6e43 6269 4643
00000050: 369c dc41 53e6 0342 ac37 6843 815d 9b43
00000060: 7064 2542 3688 7143 bd2f 9d43 80c0 1843
00000070: b158 2b42 d8a0 2842 79e1 3943 62d3 2543
188.85568 478.3388 37.346874 125.25536 223.20148 205.72244 385.2957 44.948593
262.37936 276.7648 76.599464 139.38167 48.296402 450.05634 420.18192 186.5914
323.85223 349.55008 238.17822 198.41165 27.576275 32.974926 232.21747 310.7305
41.348083 241.53207 314.37296 152.75195 42.836613 42.157074 185.88075 165.82571

conv5.weight f4 [64, 32, 3, 3]
00000000: 66e0 eb3e 8550 f7bf 20ce a1be 5560 143e
00000010: 84ab 19bf 8dd5 2abe 3f0c 903f 4447 a13f
00000020: 02b4 a4bf 1323 bebf 4abb ae3e 6681 7bbf
00000030: fdcc d73f 8939 bb3f 08b2 acbe 3825 d33f
00000040: 6345 5c3e c674 4c3e 3f62 423e ad11 973f
00000050: 66dc e83e 7be0 573e 37f0 bf3f bc4f 1d3e
00000060: 30f9 4f3e 2a81 b83e b37d 2dba 0305 00c0
00000070: c863 68c0 b261 f9bc 5bbf 2940 a1be 8c3e
00000080: 2d42 d93f 7ee6 763f bf34 9ebd cbb0 2b3e
00000090: 8468 5fbf c772 1ebf b7e4 aebf 7493 27bf
000000a0: 4a7b 9a3f 3a7a 69bf ed0e 1340 2cf4 683f
000000b0: c2eb 903e c5e4 c6bf 68c1 00c0 356e 6bbf
000000c0: 6f17 3c3f 83f9 373f c19e c83e 5b1a 81bf
000000d0: cb42 26bf 4d46 32bf 103f 273f 0170 ddbf
000000e0: 887c 0bc0 162e bc3c 3268 b4bf 7411 8a3e
000000f0: bd79 46bf 3b08 8c3e 0848 363d c5f3 3dbc
00000100: a026 b73c 750c 76be 35af 0c3e 3b5d 403f
00000110: e406 1ebf bf1b 82be 23ec a9be afb9 873e
00000120: 3151 adbf 8005 d1bf e473 5ec0 ac64 b83f
00000130: 7d3e 7b3e e6ff 303f e5d1 953f fc13 863f
00000140: 21bf 273f f6c7 2340 a075 3dc0 af99 863f
00000150: d56d acbf af21 99bf fb16 863f 558d 1c3e
00000160: d4a4 debf 9909 1340 5b0d c3be cbe9 413e
00000170: f3f8 1abe edea 07be 822a ed3e 843b 963e
00000180: 6707 513c 75bd f93e ef07 123f defe 0ec0
00000190: c06e f0bf 2078 8abe b6fd 723f fdc0 88bf
000001a0: d0e4 543e 11f0 3fc0 36e3 913e 6ef8 c3bf
000001b0: 0418 cabe d883 743c c450 80bd d786 c63e
000001c0: 16d2 983f 6162 4dbe 4c3e eabe 1493 dcbe
000001d0: 02a9 d6be b4fd 853f ac01 a63e 7776 953f
000001e0: 4583 0cbf 8218 d3bf 60eb eabe 6bb0 1ebd
000001f0: 4260 033e b05f d13f 8b9e 2f3f c531 dd3f
00000200: 3171 f73e 86a2 c4bf 0876 91bf 245d 55c0
00000210: b7a5 febe 3ed0 ddbd 7ca8 f7bf 0984 85bf
00000220: 3c6e 813f 84a7 35bf ddce 973e ba8c 703f
00000230: 0303 4e3f 7290 f5bd 1585 86be 83f3 213f
00000240: 2d3d b93e 75c1 ae3e 1ddd 2abe 78f1 d3bd
00000250: 66da fb3d ac10 fcbe f3ba 7fbf 5d5c 81bf
00000260: c358 8d3e 299d 54bf 7c6f 9bbf de56 92bf
00000270: 5bc0 f3bf 3833 193e 2e15 b53e eb54 e0bf
00000280: 90c9 b0be c291 77bf 6707 1ac0 62c0 70bf
00000290: c93e 32c0 5652 173f 7947 d53f 95a9 96be
000002a0: 2b4e 00bf d796 38be 9992 5bbf 751f 79bf
000002b0: 913d a2bf 7f38 21bf f6e4 61be 975d 23bf
000002c0: 4bcb 4cbf 3d99 63bf 188e 8c3f a810 e53e
000002d0: 64b0 a23d 69e7 b93e 8327 bebe 0287 6cbf
000002e0: cba0 7abe b8ce 4dbf 7c3b 55bf 224a c03d
000002f0: 9658 363e 77c1 d0be bb05 163f a068 6abe
00000300: c4a7 b8be 8beb 9e3f ff4d ecbd 165b ccbe
00000310: 2916 8e3e 41a3 13be 193f 21c0 1f9b 8dbf
00000320: 4ad2 35bf 97b7 183e 4f0d 25be 64a7 ee3e
00000330: e54a 95bf 0f62 a2be 8cf3 03c0 1cbc 853f
00000340: 8a7c ae3f 7bf5 903f bedc 6c3e 1db6 8f3f
00000350: aa15 ed3f 100c 24be 3e0b 06bf 562f 50bf
00000360: 5f74 f93e 1377 e03e c8b5 1a3f a9dd 4e3f
00000370: 657b 5d3f 2c1e b1be 8d73 583e 792b 0fbf
00000380: 326f 823e c080 c8bf aabe 62bf 6295 42bf
00000390: 004d dc3e 2a78 953e d928 283f b3b1 b73d
000003a0: 7dd8 a3be 7dba 8a3f f711 9abf f460 8cc0
000003b0: ab34 4f3d 610e abbf 7ee6 3bbd 140b 92be
000003c0: 30a5 f23f b022 8e3e 38fa 483f df09 35c0
000003d0: be23 13bf 28ac dcbf 6b00 4c3d a25d fd3c
000003e0: 3544 2cbf 8880 cdbb e5a5 9c3f 788a 973f
000003f0: 40ae 26bf ad45 c2be 5875 b8be 0294 0b3e
0.4606964 -1.9321448 -0.31602573 0.14489873 -0.6002734 -0.16683026 1.1253737 1.2599874
-1.2867434 -1.4854454 0.34127265 -0.9824432 1.6859432 1.4626933 -0.33729577 1.6495733
0.21510844 0.1996642 0.1898279 1.1802269 0.4548065 0.21081726 1.4995183 0.15362448
0.20309901 0.36036044 -0.0006618157 -2.000306 -3.6310902 -0.030442093 2.6523044 0.27489188
1.697332 0.96445453 -0.07724904 0.1676666 -0.87268853 -0.61893886 -1.3663548 -0.6545937
1.2068875 -0.9120213 2.297786 0.90997577 0.2830487 -1.5538565 -2.0118046 -0.9196504
0.73473257 0.718651 0.3918362 -1.0086168 -0.6494567 -0.6963852 0.653306 -1.7299806
-2.1794758 0.022971194 -1.4094298 0.2696644 -0.7752951 0.2735003 0.044502288 -0.011593764
0.022357285 -0.2402819 0.13738711 0.7514226 -0.61729264 -0.25411794 -0.3318797 0.26508853
-1.3540403 -1.6329803 -3.4758234 1.4405723 0.24535556 0.6914047 1.170468 1.0474849
0.65526015 2.5590796 -2.9603043 1.051565 -1.3471018 -1.1963404 1.0475763 0.15288289
-1.7394052 2.2974608 -0.38096127 0.18936841 -0.15134029 -0.13273211 0.46321493 0.29342282
0.0127581125 0.48777357 0.57043356 -2.2343059 -1.8783798 -0.27044773 0.9491838 -1.0683895
0.2079041 -2.9990275 0.2849366 -1.531019 -0.39471447 0.014924012 -0.06265405 0.3877475
1.1939113 -0.2005706 -0.45750654 -0.43080962 -0.41925818 1.0468049 0.3242315 1.1676778
-0.548878 -1.6491854 -0.45882702 -0.038742464 0.12829688 1.6357327 0.6860129 1.7280813
0.48328546 -1.5362098 -1.1364145 -3.3338099 -0.49735805 -0.10830735 -1.9348292 -1.0430919
1.0111766 -0.70958734 0.29650012 0.9396473 0.80473346 -0.119904414 -0.2627341 0.63262194
0.36179486 0.3413197 -0.1668591 -0.10348791 0.122975156 -0.4923147 -0.99894637 -1.0106312
0.27606782 -0.8305231 -1.2143397 -1.143276 -1.9043077 0.14960945 0.3536772 -1.7525915
-0.3452878 -0.96706784 -2.4067018 -0.9404355 -2.785082 0.5911001 1.6662437 -0.29426256
-0.50119275 -0.18026291 -0.85770565 -0.97313625 -1.2675039 -0.6297683 -0.22059998 -0.6381468
-0.799977 -0.889057 1.0980864 0.4473927 0.079438 0.36309364 -0.3713952 -0.92393506
-0.244754 -0.8039355 -0.8329389 0.0938914 0.1780723 -0.40772602 0.58602494 -0.22891474
-0.36065495 1.2415632 -0.11538314 -0.39913243 0.27751282 -0.14417745 -2.5194762 -1.1062964
-0.71024 0.14913784 -0.16118358 0.46612084 -1.1663481 -0.31715438 -2.06174 1.0448031
1.3631756 1.1324915 0.23131081 1.1227452 1.8522236 -0.16020226 -0.52360904 -0.8132223
0.48721597 0.43840846 0.60433626 0.80806977 0.8651641 -0.34593332 0.21137829 -0.5592571
0.2547546 -1.5664291 -0.8857218 -0.7600919 0.43027496 0.2919324 0.6568733 0.0896944
-0.32001105 1.0838162 -1.2036732 -4.386835 0.050587337 -1.3363763 -0.04587411 -0.28524077
1.8956661 0.2776084 0.78506804 -2.8287275 -0.57476413 -1.7240038 0.049805086 0.030928437
-0.67291576 -0.0062714256 1.2238127 1.1839132 -0.65109634 -0.37943783 -0.36027026 0.13630679

conv5.bias f4 [64]
00000000: c54e e73c 3965 3a3c 014a 543d 6a59 9fbc
00000010: 6a7e 60bd a059 27bc f5a7 0ebd 24ee 353c
00000020: 9a64 053d 9676 ccbc 14a6 393d 4805 4ebd
00000030: 5208 9fbc fdf2 873b ccfe 68bd e0ac 6e3a
00000040: c5aa 273c a1ab 5ebd ec5e 8ebd 4ddd 10bd
00000050: b7f3 6a3b cf32 7abd 3531 18bd d4c1 b73a
00000060: 31d6 14bd 0590 2b3d 1cd4 49bd b128 30bd
00000070: 4553 2b3d 1780 823d db16 513d 220d fabc
00000080: f416 3fbd be8d b13c 0c38 27bd 1126 fabb
00000090: f465 94bb 7dcd 34bc 2ae7 89bc dc46 8c3d
000000a0: fc86 68bc f87d 28bd 074e b03c 57b1 f7bc
000000b0: 5e7f 1b3d 0cc9 07bb a01f 2fbd ff3c 51bc
000000c0: 70db 373c f584 7e3d 4d61 fd3b 84f0 75bd
000000d0: 4332 bc3c ed9a 78bd decb 86bb 28da 8e3b
000000e0: 7733 1dbb e751 093d c515 333d cae9 b7bc
000000f0: eb69 3c3d 63f7 1c3d 647a 83bd ea83 8e3c
0.028235802 0.011376672 0.051828388 -0.019451816 -0.054808058 -0.010214239 -0.034828145 0.01110414
0.032566644 -0.02495889 0.0453244 -0.050298005 -0.019413147 0.0041488395 -0.05688362 0.000910474
0.010233586 -0.054362897 -0.06951699 -0.0353673 0.0035850832 -0.06108361 -0.037156302 0.0014019557
-0.03633708 0.041885395 -0.04927455 -0.043007556 0.04182746 0.063720874 0.051047187 -0.03052384
-0.04665275 0.021674033 -0.040824935 -0.0076339324 -0.0045287553 -0.01103532 -0.01683386 0.06849453
-0.014192339 -0.04113576 0.021521581 -0.03023593 0.037963264 -0.0020719199 -0.04275477 -0.01277089
0.011221752 0.062138516 0.0077325464 -0.060043827 0.022973185 -0.060694624 -0.0041136583 0.0043595023
-0.0023986974 0.033525374 0.043721933 -0.022450346 0.04599945 0.038321864 -0.064198285 0.017396886

conv6.weight f4 [64, 64, 3, 3]
00000000: bb88 c4bd d219 06bd bfc8 903c 98bc fa3d
00000010: e110 0ebe 3866 053d 5037 89bd 8c17 9bbd
00000020: 9892 8fbd 27c9 2abe 656f 15be b868 ffbd
00000030: 4b35 39be fc99 2bbe a7de 10be 08a0 eabd
00000040: 01a1 01be 792d eebd 2fe9 babd 9d6c bcbd
00000050: 834e 5e3d b119 fbbd 8d35 d8bd 00b7 78bd
00000060: cb08 6a3c 3a48 8d3c d6c1 783d aa31 203d
00000070: 833e 713d 8ed1 b3bd 67e5 28be 171d cfbd
00000080: 8a07 e9bd 5aba cfbd 65d7 ec3c d386 e33c
00000090: 7b3a d2bd 1083 1bbe 95eb 04be 1b15 fbbd
000000a0: 1475 22be 7403 e1bd ec66 e4bd 6d86 cabd
000000b0: 24c3 04be 69c3 12be 7c20 18be 3efb 443d
000000c0: fdcd 77bd a5d1 e6bd 07c1 933b c968 593d
000000d0: ae73 49bd 55d7 94bc 2d5e 7f3d 7500 893d
000000e0: ba69 493d c275 df3d d84f cd3d a12e 4cbd
000000f0: 91ef c53d 9de5 843c 5a7b b43c 9d66 aaba
00000100: 2912 9bbd 42f1 05be 7f39 adbd ccdb e1bd
00000110: 8de5 e8bd f6aa a9bd c4e0 e3bd 5097 e6bd
00000120: 026e e3bd 2c97 06be 3af7 98bd 7cdc 14be
00000130: 0ca2 c7bd 7548 03be 3ded 22be ac80 33be
00000140: 7f92 0fbe b4a3 b7bd 79b1 a1bd 9c84 b9bd
00000150: 65c0 0ebe f315 29be e031 b7bd 242a 0bbe
00000160: 81aa 0bbe b730 00be 67de acbd 8fe2 c1bd
00000170: 20d8 bdbd df06 14be 5ed2 fcbd 1497 cdbd
00000180: 5422 9ebd 0171 2cbe 889c 833c 62e1 e1bd
00000190: a2c9 cebd cab1 9dbd b679 4fbe 3176 4abe
000001a0: 8a83 dbbd 82ce f2bd de25 f3bd 07bf a8bd
000001b0: 75fd d7bd 2c1f eebd c3ad bbbd 9d9c acbd
000001c0: a583 01be 8f55 91bd fb0d f8bd 0b4b 96bd
000001d0: 3690 f1bd 664a f7bd 6af2 0dbe aea1 ddbd
000001e0: 053f e4bd e357 1bbe 0c77 f4bd 55ad e6bd
000001f0: d4df fbbd 4b12 27be d519 81bd c6c8 04be
00000200: 707d d1bd 51d7 9dbd c93f ecbd 2477 e8bd
00000210: 60c0 debd e33e 81bd 2477 083c f52e 003e
00000220: f7b0 ddbc 0946 25bc 7878 b03d e104 073d
00000230: 6db9 d83c 8913 893d f0b5 a63d 9ce6 803d
00000240: d8b5 a8bc f25c a4bd 5305 d9bd 81a2 d7bd
00000250: 6f73 1fbe 7f30 f3bd 5c0e 82bd ac10 913b
00000260: 07d0 703c 3f44 26be bb4f eebd 4cdd ebbd
00000270: 68db 28be 7789 04be 6f58 c0bd a1fa 07be
00000280: 0e7e 3fbe c234 f9bd 48f0 573c 4730 33bc
00000290: 4702 20be 7f28 1ebe a9f1 5dbe 0c9c 1dbe
000002a0: 55b0 03be 9a36 51be 2e5f 23be 96ad 7cbe
000002b0: a3a2 62be f8df 64be 8db7 4dbe c005 16be
000002c0: 780e 46be abdd 7fbe f473 66be 0523 7cbe
000002d0: d23a d53c 4469 b7bd 1361 0cbe 62de f9bd
000002e0: 86dc 1fbe 763e 0fbe b13d 8ebd 0866 99bc
000002f0: 68bd 9fbd 557a 15be c990 48be c49c 2bbe
00000300: 64b7 29bd 1a00 12be ea9e 30be 6174 eabd
00000310: aaac 3cbd 68ee b6bc 5add 94bd ae48 abbd
00000320: 93dd dfbd 2706 a8bd 7578 f5bd a6d6 e4bd
00000330: 7fed dbbd 4881 2fbe 8135 ebbd 8524 9abd
00000340: 3af1 c2bd 528e d6bd 3dd9 16be 464a cfbd
00000350: d3e4 f7bd 6eec 95bd 96ab 883c 2331 84bd
00000360: 571f 95bd 2c89 c53c abed 1f3e 53c0 7f3d
00000370: a271 19be c24d 2bbc 391c c7bb 0f09 e1bd
00000380: f6c7 093c 0499 a43d 6dd6 29bd 39e8 21be
00000390: 181a d73c db42 5e3a 7c63 43bd 2247 a73d
000003a0: cd93 d8bc d57a 90bd 72be 0abe 6c1f 24be
000003b0: 57af 133d 68cb 42be 52fa 15be e72f 2fbe
000003c0: 6f8b de3c 3a1b b0bc 859d c73c 6900 13be
000003d0: ebf7 a1bd 02de 0cbe e981 1dbe ff10 08be
000003e0: 0377 00be 2bac 21be d88b 0dbe b9a7 a6bd
000003f0: ba38 bfbd ada7 d9bd 3578 f4bc 2a65 e6bd
-0.09596392 -0.032739468 0.017673848 0.12243003 -0.13873626 0.032568187 -0.06700003 -0.075728506
-0.070103824 -0.16678296 -0.14593275 -0.124711454 -0.18086736 -0.16757959 -0.14147435 -0.11456305
-0.12659074 -0.11629767 -0.091265075 -0.09200404 0.054274093 -0.122607596 -0.10557089 -0.060721397
0.014284323 0.017246354 0.06073173 0.039109863 0.058897506 -0.08780204 -0.1649376 -0.1011297
-0.11378391 -0.101429656 0.028911302 0.02777425 -0.102650605 -0.15186715 -0.12980492 -0.12259885
-0.15864974 -0.10986987 -0.11152443 -0.09888921 -0.12965065 -0.14332356 -0.14856142 0.048091166
-0.06049918 -0.11270455 0.0045090946 0.053078447 -0.049182586 -0.018169085 0.062345672 0.0668954
0.049173094 0.109111324 0.100249946 -0.049849156 0.09664834 0.01622277 0.022031475 -0.0013000552
-0.07571823 -0.13080314 -0.08458232 -0.11028251 -0.11371908 -0.08284561 -0.11126855 -0.11259329
-0.11104967 -0.13143605 -0.0746903 -0.14537233 -0.09747705 -0.12820609 -0.15910812 -0.17529553
-0.14020728 -0.08966771 -0.07895178 -0.09058496 -0.1394058 -0.16512279 -0.0894506 -0.13590294
-0.13639261 -0.12518583 -0.084408574 -0.09467041 -0.09269738 -0.14455746 -0.12344812 -0.100385815
-0.07721391 -0.16839983 0.01606585 -0.110293165 -0.10097052 -0.07699926 -0.20261273 -0.19771649
-0.107184485 -0.118557945 -0.11872457 -0.082395606 -0.1054639 -0.11627039 -0.09164002 -0.08428309
-0.12647875 -0.07096397 -0.121120416 -0.07338532 -0.11795084 -0.12074737 -0.13862005 -0.108218536
-0.111448325 -0.15170245 -0.11936769 -0.11263529 -0.12298551 -0.16315572 -0.06303755 -0.12967214
-0.102290034 -0.07707084 -0.115356036 -0.11350849 -0.10876536 -0.06310823 0.008329187 0.12517913
-0.027061922 -0.010087498 0.086167276 0.032963637 0.026455605 0.06693179 0.081401706 0.06293985
-0.020594522 -0.080255404 -0.10596719 -0.10529042 -0.15571378 -0.11874484 -0.06350395 0.0044270363
0.014698035 -0.16236971 -0.11636301 -0.115168184 -0.16489947 -0.12943064 -0.09391867 -0.13279201
-0.1870043 -0.12168266 0.013179846 -0.010936803 -0.15625869 -0.15445136 -0.21674217 -0.15391558
-0.12860234 -0.20430985 -0.15954277 -0.24675593 -0.22132353 -0.22351062 -0.2008955 -0.14650631
-0.19341457 -0.24986903 -0.2250517 -0.24622734 0.026029024 -0.08955625 -0.13708906 -0.12200619
-0.15611467 -0.1398867 -0.069453605 -0.01872541 -0.07799798 -0.14597447 -0.19586481 -0.1675902
-0.04143466 -0.14257851 -0.17248121 -0.11447979 -0.046063103 -0.022330478 -0.07268782 -0.08363472
-0.10930934 -0.082042985 -0.11985866 -0.111737534 -0.10738658 -0.1713916 -0.114848144 -0.07526497
-0.095186666 -0.10476364 -0.14731307 -0.101215884 -0.12104192 -0.07320486 0.016683381 -0.064546846
-0.07281368 0.02411326 0.15618007 0.062439274 -0.14984754 -0.010455551 -0.0060763624 -0.10988056
0.008409491 0.08036998 -0.041464258 -0.15811242 0.02625756 0.000847859 -0.047702298 0.081678644
-0.026437664 -0.07054678 -0.13549212 -0.16027611 0.03605589 -0.19022906 -0.14646271 -0.17108117
0.027166096 -0.021497358 0.024367103 -0.14355625 -0.07908615 -0.13756564 -0.15381588 -0.13287733
-0.125454 -0.15788333 -0.13822877 -0.08137459 -0.093369916 -0.10627685 -0.029842475 -0.11249764

conv6.bias f4 [64]
00000000: 99e1 8cbc 223b 10bd f009 9f3b 3f4b 9d3c
00000010: 89c0 bd3c 437c 37bc 2d80 343c 70c8 2a3b
00000020: 314b 963c f6c2 213d e2fa 863c b28f 673b
00000030: ab18 0cbd 3a64 3ebd f55f 9cba 709f 33bc
00000040: aec3 5fbc c4b0 a0bc 64b0 78bc 6e4f fdb9
00000050: a00b 0fbd 303a 27bc 0825 42bb 71ac 33bd
00000060: 59db 0e3d 2c32 8cbc 3926 09bd 0331 3a3d
00000070: fd99 b8bc 6e5b f7bb 8479 7e3c 1580 003d
00000080: 36ce 453c 8b71 673d d5e9 d6bc b1f0 683b
00000090: 8856 173d e5b9 c33c 5470 1fbc 7ba1 b13c
000000a0: 7ad4 32bd 56e1 163d 89b9 a0ba 4d5c 94bc
000000b0: e9ae 163d 520a a3bc d75c 693c 57d5 323c
000000c0: 0def 353d 3be4 253c 91d8 e03c 20eb 093c
000000d0: 0963 62bd ee6b 78bc 0793 ce3c 0818 d43b
000000e0: fdaf 71bb 2748 08bd b541 17bd 076d 30bc
000000f0: 986f 13bb 7981 323c df53 9fbb d934 f73c
-0.017197417 -0.035212643 0.0048534796 0.01920092 0.023163097 -0.01119906 0.011016888 0.0026059411
0.018346401 0.03949257 0.016477052 0.0035333452 -0.034203213 -0.046482302 -0.0011930453 -0.010963306
-0.0136574935 -0.019615538 -0.015178774 -0.000483151 -0.034923196 -0.010206744 -0.0029624123 -0.043865625
0.034877155 -0.017113768 -0.033483718 0.045456897 -0.022534365 -0.007548741 0.015531901 0.03137215
0.01207309 0.056504767 -0.026234547 0.0035543854 0.036947757 0.023892352 -0.009731371 0.021683445
-0.043659665 0.03683599 -0.0012262325 -0.018110419 0.0367879 -0.019902382 0.014243326 0.010915122
0.04441743 0.010125215 0.027447017 0.008417875 -0.05527023 -0.015162451 0.025216592 0.0064725913
-0.0036878579 -0.033271935 -0.036927897 -0.010768182 -0.0022496935 0.0108951265 -0.004862293 0.030176567

bn31.weight f4 [64]
00000000: 9e1a 873f 0b76 ca3f cded 6f3f effc 4340
00000010: 5183 1340 2fec aa3f d5b4 333f 2fd9 f53f
00000020: 6f26 fc3f ad10 983f 2f7f b63f 88f6 5a3f
00000030: 969a dd3f 8339 fa3f a655 cd3f fb12 893f
00000040: b29c 1240 962e f33f 2106 b83f a1c5 0b40
00000050: a0ac 0c40 3f9b 033f 98ee f63f 2001 0640
00000060: c44b 843f 7e10 503f 71c2 1b3f 6a19 de3f
00000070: 8d75 923f 3ab7 b43e 6bed 963f c0d7 723f
00000080: 4b1a 8e3f f82d c53f f10b 873f 8107 883f
00000090: 009d 0840 f1f8 203f 41d8 ce3f bc19 573f
000000a0: d628 8e3f 81b6 3f3f 38b6 c43f 0bf3 1540
000000b0: a3ed 623f 81e4 e83f ba79 8f3f be52 803f
000000c0: c112 7d3f e14b e23f ceb7 993f fb50 5b3f
000000d0: a3f6 823f bc4a fa3e 41b7 d53f 0540 c03f
000000e0: 602a 9a3f 938b 023f 013e df3f de9a fb3f
000000f0: c253 6a3f f604 6d3f c8f8 db3f b275 0040
1.0554998 1.5817274 0.9372223 3.0623128 2.30489 1.3353328 0.701978 1.9206904
1.9699229 1.1880089 1.4257563 0.85532427 1.7312801 1.9548801 1.6041763 1.0708917
2.290814 1.8998592 1.437687 2.1839373 2.1980362 0.5140876 1.9291563 2.0938187
1.0335622 0.81275165 0.6084357 1.7351506 1.1442124 0.3529604 1.1791204 0.9486046
1.1101774 1.5404654 1.0550519 1.062729 2.1345825 0.62879854 1.6159745 0.8402364
1.1106212 0.74887854 1.5368109 2.3429592 0.88643855 1.8194734 1.1209023 1.0025251
0.9885674 1.7679406 1.2009218 0.8567044 1.0231518 0.48885143 1.669655 1.5019537
1.2044182 0.50994223 1.7440797 1.9656637 0.91534054 0.92585695 1.7185297 2.0071836
