checkpoints/best_model1_open.pth (torch, 430024 bytes, 26 tensors)

conv1.weight f4 [16, 1, 3, 3]
0.20567295 0.089071035 0.13218832 -0.21079394 -0.046199523 -0.16218583 -0.06232671 -0.27593058
-0.06425528 -0.71843755 -0.2754539 1.2888252 -0.108928636 0.68143266 1.2710078 0.51246876
3.6254644 0.87416786 -0.6603943 0.037417527 -0.10883659 0.019769868 0.08550844 0.23589998
5.0538435 1.4223275 0.1996442 -0.32127443 -0.06486764 -0.5066734 0.47502655 -0.29757884
-0.6203346 0.53083813 -0.7242516 0.23530078 -0.12807932 -0.5143033 -0.09542301 -0.47780052
-2.0733693 0.22146963 -0.6504474 0.08623234 0.33774602 -0.010833737 -0.1560258 -0.2884715
0.0323127 -0.060107946 -0.36955667 0.17912589 0.15187101 0.221688 -1.1290922 0.29691023
0.10489341 -2.7416584 0.4712026 1.2810804 -0.6799585 0.9712012 -0.11894542 -0.12020923
0.11835095 -0.13536058 -0.1692478 -0.2631134 0.1343543 0.2762861 0.27700502 0.25243774
-0.24136977 0.49205986 0.11906747 1.5219823 2.4876828 1.2080281 -0.5549714 -0.64076567
-0.3521858 -0.05322779 0.36515984 0.025195455 -0.31779364 6.7552357 0.4730053 -0.49458632
0.2535666 0.45387226 -0.46470374 -0.3188928 -0.20564723 -1.8951015 -2.1603525 -0.49160093
0.24484757 -2.386622 -0.07378459 0.65354705 0.4142727 0.3418655 1.60626 4.5548325
-0.65515 -0.7330302 0.3142979 0.12780172 -0.2201327 0.2116424 0.07649223 0.19573632
-0.03414451 -0.1542096 -0.12499457 -0.0802652 -0.26022762 -0.65296435 -0.21896794 -0.25769004
-0.30000365 0.3248177 -0.2893147 -0.33390585 -0.3499508 -0.29688558 -0.8033062 -0.7217786
0.08052165 -1.2072635 0.20584995 -0.45261565 0.6330738 1.2551799 1.0022669 -0.12096427
0.20520562 0.09568596 0.26421127 -1.2275033 0.17771095 0.51008576 -4.2777114 0.20032625
00000000: ee9b 523e e06a b63d 605c 073e 5eda 57be
00000010: b63b 3dbd 0b14 26be 4b4a 7fbd c646 8dbe
00000020: 4698 83bd 86eb 37bf 4b08 8dbe 39f8 a43f
00000030: fa15 dfbd 5f72 2e3f 62b0 a23f 2731 033f
00000040: 9c07 6840 77c9 5f3f 9a0f 29bf 1f43 193d
00000050: b8e5 debd 6bf4 a13c 0d1f af3d c48f 713e
00000060: 16b9 a140 d40e b63f 876f 4c3e 157e a4be
00000070: 53d9 84bd 59b5 01bf ae36 f33e 415c 98be
00000080: 40ce 1ebf 02e5 073f 8e68 39bf b0f2 703e
00000090: 3a27 03be 62a9 03bf 246d c3bd 45a2 f4be
000000a0: 15b2 04c0 efc8 623e b983 26bf 959a b03d
000000b0: 0ced ac3e fd7f 31bc 3ac5 1fbe 89b2 93be
000000c0: 525a 043d c033 76bd 8836 bdbe c76c 373e
000000d0: 1384 1b3e 2e02 633e 1886 90bf 9e04 983e
000000e0: 5bd2 d63d 5577 2fc0 7841 f13e 71fa a33f
000000f0: c311 2ebf a4a0 783f a899 f3bd 4230 f6bd
00000100: fc61 f23d f79b 0abe 4c4f 2dbe cdb6 86be
00000110: 2c94 093e 5f75 8d3e 9ad3 8d3e 853f 813e
00000120: a329 77be 45ef fb3e a5d9 f33d 51d0 c23f
00000130: 3236 1f40 aaa0 9a3f 9b12 0ebf 3809 24bf
00000140: b251 b4be 6205 5abd 3bf6 ba3e b366 ce3c
00000150: d9b5 a2be e42a d840 c02d f23e 6b3a fdbe
00000160: 7bd3 813e f261 e83e a6ed edbe eb45 a3be
00000170: 3095 52be b092 f2bf 3743 0ac0 1eb3 fbbe
00000180: 52b9 7a3e 6abe 18c0 601c 97bd dc4e 273f
00000190: 8d1b d43e ff08 af3e ed99 cd3f 30c1 9140
000001a0: e9b7 27bf dea7 3bbf a8eb a03e 74de 023e
000001b0: 776a 61be c9b8 583e f5a7 9c3d 1a6f 483e
000001c0: 1ddb 0bbd 1fe9 1dbe 27fd ffbd 1562 a4bd
000001d0: 8e3c 85be ac28 27bf 2239 60be f3ef 83be
000001e0: 149a 99be 814e a63e 0e21 94be b5f5 aabe
000001f0: c02c b3be 6301 98be 7aa5 4dbf 7bc6 38bf
00000200: 89e8 a43d 9c87 9abf 54ca 523e 3dbd e7be
00000210: 2011 223f bca9 a03f 484a 803f 1dbc f7bd
00000220: 6c21 523e 00f7 c33d b346 873e d41e 9dbf
00000230: dcf9 353e fb94 023f 03e3 88c0 5322 4d3e

conv1.bias f4 [16]
-0.3328321 0.99065095 2.807713 -0.54346037 -0.29214925 -0.20209986 0.305044 -0.32933572
0.8772075 0.68687844 1.8853275 0.093147606 -0.20074463 -0.23828329 1.6262794 0.043298885
00000000: f868 aabe 4d9b 7d3f 92b1 3340 3820 0bbf
00000010: 9694 95be 44f3 4ebe ba2e 9c3e b19e a8be
00000020: ac90 603f 44d7 2f3f 6952 f13f 2cc4 be3d
00000030: 0090 4dbe 8900 74be ec29 d03f 2c5a 313d

conv2.weight f4 [16, 16, 3, 3]
0.47059494 0.4938741 0.44879964 0.4933906 0.48158652 0.41349763 0.42620084 0.44405872
0.37388986 -0.8890153 -1.5894194 -1.7001667 -1.2101421 -1.0436159 -0.71725345 -0.7871509
-0.6030805 -1.5471295 -1.1647025 -1.6290536 -1.8640196 0.37876192 -0.78385234 -0.6855919
0.6481717 -0.30681348 -0.15840775 0.4354544 0.65567255 0.5263291 0.6042309 0.16338396
0.39880118 -0.09388268 0.39307025 0.17218904 -0.23938623 -0.3528589 0.16980442 0.20542054
-0.13199455 -0.32851356 -0.030958321 -0.57158566 -0.17161508 0.637202 0.5238789 0.3573256
0.70439583 0.772544 0.66609424 0.6262874 0.5837392 0.65660053 -0.12525736 -0.83159244
-0.6088997 -0.30093 1.1300994 0.1287372 -1.0541613 0.73259246 1.0941898 0.8196748
1.0213542 1.1454936 1.0340394 1.0862856 1.0715694 0.9371857 0.8667651 0.9271847
0.11782165 -0.76370347 -1.4841933 -0.92879975 -1.7792653 -1.7596987 0.42428932 -1.4421573
-0.6013188 -0.44661075 -0.19663793 -0.41138965 -0.70372325 -0.37871975 -0.3545817 -1.0913799
-0.4914703 -0.8195813 0.8455646 0.8747137 0.9590923 1.0496948 1.1423975 1.2971312
0.8376203 1.7755209 1.7825131 -0.8295411 -0.12160343 -0.5911699 -1.3061833 -1.3569016
-1.4442476 -1.3088937 -1.7949175 -1.409711 -0.35153547 -0.4297398 -0.3470856 -0.2735925
-0.22141455 -0.115160406 -0.26710638 0.017787693 -0.0985868 0.33212733 0.5437963 0.40941116
0.29045057 0.5351382 0.3012354 0.36266285 0.43104625 0.54043424 -0.36269182 -0.11010367
0.18211009 0.0028966614 0.112151854 0.7932745 -0.18942308 0.05223218 0.6776696 -0.39954522
-1.8481263 -2.249134 -0.42015794 -0.92236686 -1.1195457 0.9934627 -0.9400365 -0.5458603
0.5645842 0.75175273 0.8385533 0.31701207 0.55286366 0.48145825 0.4359506 0.75645316
0.72134715 -1.1208305 -1.1574464 -0.8698135 -1.9572406 -1.8497936 0.216844 -2.860737
-1.0149057 0.6925764 -0.1895228 0.33877712 -1.2422452 -2.0519898 -1.8242668 -1.1878358
-3.740979 -2.6709104 0.124800876 0.36584982 0.47553942 0.9087679 -0.08661186 0.42032
0.35961795 0.12647499 0.5354495 0.8355286 0.011619518 -1.1302066 -0.65350777 -0.5054556
0.046620604 0.14800814 -0.4086566 0.13014242 0.8050808 -0.0769439 -0.5810996 -0.57394373
0.04955183 -0.27644253 -0.40980047 -0.17902146 -0.53450435 -0.6114178 -1.6067517 0.3715619
0.053983737 -0.64508986 -0.8241609 -0.0066821133 -1.003173 -0.55329674 0.66113096 1.5490106
1.277403 1.3783953 1.2752948 0.92175704 0.9655437 0.88286453 0.7682146 0.7825544
-0.07538402 0.12988758 -1.4426316 0.012106244 -0.44132844 -2.3118439 -0.95430166 -0.7914995
-0.7530521 0.009897291 -0.04545301 0.083782405 -0.23904417 0.24348535 0.13475445 -0.34272617
0.5356082 0.988541 -0.54204035 0.4231652 1.0278773 -0.59168184 0.61724186 0.26300558
0.921222 0.40240163 -0.4195809 0.75324506 0.027237043 -0.8430058 -0.0019438458 0.45116585
-1.223163 -0.411318 -1.2024248 0.17669076 -0.5797607 -1.0322179 -1.0582122 -0.5218845
00000000: d2f1 f03e 11dd fc3e 11c9 e53e b19d fc3e
00000010: 8292 f63e f6b5 d33e ff36 da3e aa5b e33e
00000020: 7e6e bf3e 8296 63bf 1872 cbbf 109f d9bf
00000030: f0e5 9abf 3595 85bf ec9d 37bf b982 49bf
00000040: 7c63 1abf 5708 c6bf f914 95bf d484 d0bf
00000050: 3298 eebf 15ed c13e 8caa 48bf f382 2fbf
00000060: 95ee 253f a816 9dbe a435 22be e1f3 de3e
00000070: 28da 273f 81bd 063f e0ae 1a3f 204e 273e
00000080: ab2f cc3e 9045 c0bd 8140 c93e 5352 303e
00000090: aa21 75be eca9 b4be 36e1 2d3e c359 523e
000000a0: 9429 07be ee32 a8be 4e9c fdbc 7053 12bf
000000b0: ddbb 2fbe ac1f 233f ed1c 063f 62f3 b63e
000000c0: 4953 343f 72c5 453f 2785 2a3f 5f54 203f
000000d0: ef6f 153f f916 283f 7743 00be 3ee3 54bf
000000e0: dae0 1bbf 7f13 9abe 19a7 903f afd3 033e
000000f0: c2ee 86bf 2e8b 3b3f 690e 8c3f 35d6 513f
00000100: bcbb 823f 899f 923f 675b 843f 680b 8b3f
00000110: 3029 893f 67eb 6f3f 51e4 5d3f fa5b 6d3f
00000120: 7a4c f13d 1282 43bf 0cfa bdbf d2c5 6dbf
00000130: f7be e3bf cf3d e1bf 733c d93e 9c98 b8bf
00000140: 07f0 19bf 2aaa e4be 745b 49be aaa1 d2be
00000150: 3527 34bf 8ee7 c1be bc8b b5be 56b2 8bbf
00000160: ffa1 fbbe 14d0 51bf ec76 583f 3ded 5f3f
00000170: 1387 753f 665c 863f 153a 923f 6508 a63f
00000180: 496e 563f 4544 e33f 6429 e43f ce5c 54bf
00000190: 380b f9bd e956 17bf 0431 a7bf f4ae adbf
000001a0: 1bdd b8bf d489 a7bf dbbf e5bf 6971 b4bf
000001b0: 75fc b3be db06 dcbe 34b5 b1be 5114 8cbe
000001c0: 7fba 62be 38d9 ebbd 2bc2 88be 7fb7 913c
000001d0: e0e7 c9bd 980c aa3e 3c36 0b3f 579e d13e
000001e0: f0b5 943e d1fe 083f 873b 9a3e f2ae b93e
000001f0: 18b2 dc3e e659 0a3f beb2 b9be 087e e1bd
00000200: 117b 3a3e ead5 3d3b dfaf e53d 0a14 4b3f
00000210: 20f8 41be 69f1 553d c17b 2d3f 3191 ccbe
00000220: 678f ecbf d0f1 0fc0 f11e d7be 3c20 6cbf
00000230: 464d 8fbf 9253 7e3f 3ba6 70bf 80bd 0bbf
00000240: 9788 103f de72 403f 6eab 563f 684f a23e
00000250: 7988 0d3f b281 f63e eb34 df3e eaa6 413f
00000260: 35aa 383f 6077 8fbf 3427 94bf 19ac 5ebf
00000270: dc86 fabf 09c6 ecbf 5b0c 5e3e 5116 37c0
00000280: 6ee8 81bf b04c 313f 4412 42be 3274 ad3e
00000290: e401 9fbf cd53 03c0 9381 e9bf 010b 98bf
000002a0: 336c 6fc0 32f0 2ac0 9a97 ff3d ab50 bb3e
000002b0: e779 f33e 03a5 683f 8f61 b1bd 2f34 d73e
000002c0: d81f b83e a982 013e 3813 093f 34e5 553f
000002d0: ca5f 3e3c 9caa 90bf 494c 27bf 8a65 01bf
000002e0: 3ff5 3e3d 728f 173e 703b d1be 0e44 053e
000002f0: c619 4e3f c394 9dbd f2c2 14bf faed 12bf
00000300: dcf6 4a3d e089 8dbe 5ed1 d1be 6751 37be
00000310: 47d5 08bf e085 1cbf 0aaa cdbf 5d3d be3e
00000320: 0d1e 5d3d 9c24 25bf 35fc 52bf a1f5 dabb
00000330: f967 80bf dba4 0dbf e13f 293f fb45 c63f
00000340: f181 a33f 426f b03f dc3c a33f 45f8 6b3f
00000350: df2d 773f 6903 623f b6a9 443f 7c55 483f
00000360: f062 9abd 4001 053e 27a8 b8bf 4559 463c
00000370: cdf5 e1be 40f5 13c0 1d4d 74bf b69f 4abf
00000380: 06c8 40bf 3f28 223c ef2c 3abd 1c96 ab3d
00000390: ffc7 74be 3954 793e 12fd 093e ce79 afbe
000003a0: 9e1d 093f 0611 7d3f 28c3 0abf 1ca9 d83e
000003b0: 7c91 833f 7678 17bf 9003 1e3f aba8 863e
000003c0: 34d5 6b3f 9607 ce3e 4fd3 d6be abd4 403f
000003d0: 3820 df3c 3acf 57bf a4c8 feba 36ff e63e
000003e0: 9b90 9cbf 4698 d2be 0ee9 99bf 6cee 343e
000003f0: 326b 14bf b71f 84bf 7f73 87bf 399a 05bf

conv2.bias f4 [16]
-0.71304184 -0.6936489 0.15283053 -1.5874478 0.75745505 -0.5254302 -1.2995121 -0.3107908
-0.14075683 1.9342659 -0.29135305 1.1671576 -0.54325414 0.0987014 -0.4397193 -0.025971917
00000000: e989 36bf f992 31bf 9b7f 1c3e 7d31 cbbf
00000010: 93e8 413f 9882 06bf 6a56 a6bf f91f 9fbe
00000020: 8f22 10be 0696 f73f 3a2c 95be 6c65 953f
00000030: b412 0bbf f623 ca3d e322 e1be 0fc3 d4bc

bn1.weight f4 [16]
0.89562875 1.6711712 2.5282438 0.059370898 1.6556692 0.43422478 1.850702 0.7936978
0.84702456 0.26181325 2.0974855 0.6740402 0.7322094 0.3660515 1.6857184 1.6331242
00000000: ed47 653f f0e8 d53f bfce 2140 e62e 733d
00000010: f8ec d33f b652 de3e cee3 ec3f c72f 4b3f
00000020: 9ad6 583f 630c 863e 343d 0640 e68d 2c3f
00000030: 1372 3b3f 1a6b bb3e 9fc5 d73f 370a d13f

bn1.bias f4 [16]
0.007841357 1.1326399 0.867453 -0.16704479 0.6544083 0.10177886 -1.1236526 -0.15725213
0.45430627 -1.1111727 1.4594059 -0.020949049 0.4415165 -0.25037172 1.9378326 -0.94969136
00000000: 0979 003c 58fa 903f 6611 5e3f ca0d 2bbe
00000010: 4d87 273f 6f71 d03d d9d3 8fbf b406 21be
00000020: d59a e83e e83a 8ebf d0cd ba3f 579d abbc
00000030: 730e e23e b930 80be e60a f83f f91e 73bf

bn1.running_mean f4 [16]
9.460801 0.74422246 2.4046094 6e-45 4.920969 0.0479224 0.1393292 1.367156
2.7310972 21.466915 3.563432 14.98507 0.44643924 19.240137 0.9632014 10.846664
00000000: 715f 1741 5d85 3e3f 1fe5 1940 0400 0000
00000010: 9478 9d40 474a 443d 50ac 0e3e f8fe ae3f
00000020: 4cca 2e40 3ebc ab41 450f 6440 d9c2 6f41
00000030: af93 e43e cdeb 9941 5e94 763f f08b 2d41

bn1.running_var f4 [16]
63.854115 4.303849 11.843237 6e-45 46.208466 0.80937964 0.0046638264 5.826142
20.20201 181.7683 202.96417 134.08842 10.984715 153.06085 5.6884103 916.52765
00000000: 9d6a 7f42 22b9 8940 e67d 3d41 0400 0000
00000010: 78d5 3842 8133 4f3f 03d3 983b c16f ba40
00000020: b79d a141 afc4 3543 d4f6 4a43 a316 0643
00000030: 65c1 2f41 940f 1943 7507 b640 c521 6544

conv3.weight f4 [32, 16, 3, 3]
0.32227248 0.63025415 0.21715954 0.9398809 0.054427795 0.0950241 0.11914239 0.16693707
-0.21704392 -0.74840015 -0.21936357 -0.35097083 -0.5072481 -0.4766069 -0.19261888 -0.5486526
-0.23011029 -0.8497483 -0.40616912 -0.5156127 -0.036451068 -0.66096705 -0.555206 0.06484006
-0.7107716 -0.41811842 -0.44507682 0.82533896 0.19288266 0.3523373 0.8256712 0.5066502
0.3950365 0.54449433 0.71977097 0.099285066 -0.5953542 -0.020620625 -0.16206288 -0.928607
-0.6420392 -0.40146902 -0.20845062 -0.3699822 -0.45740288 -0.7792185 -0.44751728 -0.5226905
-0.61104 0.016845593 0.14605792 -0.6948137 -0.44014177 -0.04069878 0.4761162 0.87749344
0.48501343 0.5940345 1.2832289 0.8414374 0.2953999 0.16855876 -0.28675678 -0.082267106
0.4317501 0.25627425 -0.003132687 0.0689543 -0.23241794 -0.7087482 -0.19793084 -0.5508028
-0.32898673 0.32124457 -0.026815012 -0.16027723 -0.49881378 -0.03214961 -0.20809402 -0.44942406
-0.07566421 0.59372056 0.8948897 0.761156 0.69349504 0.82359624 0.11319611 0.23982418
1.1598785 0.62270445 0.15566182 -0.3790854 -0.44113168 -0.8454519 -0.46823934 -0.45298934
-0.49815103 -0.71924406 -0.9062119 0.30807343 0.07764461 0.2594419 -0.8258797 -0.008322266
0.58413386 -0.61935866 0.13807738 0.4640275 0.11087911 -0.27410126 -0.09125583 -0.7694799
-0.598361 -0.079596385 -0.35289797 -0.66697156 -0.42087138 0.3624899 -0.043295246 -0.21200547
0.08291533 0.24798048 -0.13386522 0.27163503 0.17645429 0.30442104 -0.3316664 -0.35677537
-0.41747046 -0.4659031 -0.52649075 -0.13181667 -0.7398179 -1.036659 -0.7627979 0.40852207
0.008907318 0.19724548 -0.13694489 -0.13043892 -0.05567356 0.28069443 0.2749594 0.101572044
-0.21874905 0.7087925 0.19776632 0.29108483 0.16438802 -0.2598652 0.6426603 -0.21370365
0.05194805 -0.8543099 -0.19365765 -0.4937948 -0.72725266 -0.7093975 -0.51239 -0.65520805
-0.78816074 -0.63920635 -0.6851245 -0.0779336 -0.33952647 -0.31813332 -0.40448427 -0.5371397
-0.56968266 -0.2657791 -0.3935995 0.2893945 0.114186175 0.24288675 0.5391287 0.58473146
0.05193534 0.43545523 0.5614326 0.042293802 -0.52483624 0.0720276 -0.891056 -0.5510824
-0.48068723 -0.31117237 -0.26100636 -0.6191715 -0.51885885 -0.46480182 0.014907263 -0.54107726
-0.2031303 -0.29961687 -0.69738203 -0.5403258 0.08257383 0.12831861 0.11907269 0.041671477
-0.11337465 0.46710804 0.49966043 -0.13162653 0.15009286 -0.48415345 0.33696085 0.1878252
-0.27361253 -0.57601446 -0.10471084 -0.09774663 -0.56023496 -0.45311257 -0.7708975 -0.2730556
-0.23729229 0.62335145 0.13197893 -0.06129856 0.3068827 -0.085494004 -1.0742042 -0.15806809
0.2817323 0.11301183 0.48005486 -0.32554787 0.08114358 0.13008283 -0.07410169 0.48321965
1.182946 0.43091556 0.069836035 -0.42161876 -0.4475808 -0.4235533 -0.37845722 -0.2517366
-0.58749604 -1.008685 -0.72574085 0.2472999 -0.036600795 -0.39927426 -0.34255162 0.36333436
0.40732387 0.035873327 0.9791039 -0.05795887 -0.10213529 -0.107973985 -0.45306483 -0.14099038
00000000: e600 a53e 5658 213f 125f 5e3e 099c 703f
00000010: aeef 5e3d ff9b c23d ed00 f43d 8df1 2a3e
00000020: c340 5ebe 2797 3fbf d8a0 60be 73b2 b3be
00000030: 03db 01bf d205 f4be e23d 45be 7f74 0cbf
00000040: 08a2 6bbe 1b89 59bf 66f5 cfbe 32ff 03bf
00000050: b74d 15bd 2335 29bf fb21 0ebf deca 843d
00000060: 21f5 35bf 9e13 d6be 1ce1 e3be 6a49 533f
00000070: 0883 453e 8e65 b43e 305f 533f d4b3 013f
00000080: 3942 ca3e fb63 0b3f e942 383f f855 cb3d
00000090: 2269 18bf 96ec a8bc d0f3 25be 30b9 6dbf
000000a0: ae5c 24bf 598d cdbe 1474 55be 4f6e bdbe
000000b0: b630 eabe dd7a 47bf fc20 e5be 0bcf 05bf
000000c0: 1e6d 1cbf c5ff 893c 3590 153e 50df 31bf
000000d0: 435a e1be c4b3 26bd 81c5 f33e 69a3 603f
000000e0: ae53 f83e a512 183f d840 a43f 7168 573f
000000f0: a83e 973e ab9a 2c3e c9d1 92be a87b a8bd
00000100: 590e dd3e 6136 833e c44d 4dbb e937 8d3d
00000110: f8fe 6dbe 8670 35bf 62ae 4abe 6a01 0dbf
00000120: f370 a8be 2b7a a43e 28ab dbbc b71f 24be
00000130: 8564 ffbe 4faf 03bd 9916 55be e91a e6be
00000140: d6f5 9abd 12fe 173f 7e17 653f 1fdb 423f
00000150: e488 313f 34d7 523f 5dd3 e73d 7894 753e
00000160: e676 943f 8f69 1f3f d065 1f3e 7b17 c2be
00000170: 03dc e1be 896f 58bf 11bd efbe 38ee e7be
00000180: a70d ffbe 6120 38bf 81fd 67bf cdbb 9d3e
00000190: 2304 9f3d 92d5 843e da6c 53bf 1d5a 08bc
000001a0: cc89 153f 4a8e 1ebf 2864 0d3e 0395 ed3e
000001b0: 9614 e33d 0057 8cbe 56e4 babd a2fc 44bf
000001c0: 302e 19bf 6e03 a3bd 0baf b4be a6be 2abf
000001d0: 747c d7be 4798 b93e 5b56 31bd f617 59be
000001e0: 83cf a93d 98ee 7d3e f713 09be bf13 8b3e
000001f0: 6fb0 343e 13dd 9b3e 2ed0 a9be 43ab b6be
00000200: b0be d5be da8a eebe 19c8 06bf f3fa 06be
00000210: b564 3dbf 3eb1 84bf b946 43bf ce29 d13e
00000220: 00f0 113c b8fa 493e 483b 0cbe c891 05be
00000230: f509 64bd 2eb7 8f3e 7ac7 8c3e 0105 d03d
00000240: c0ff 5fbe 6d73 353f 4183 4a3e 1209 953e
00000250: 5555 283e 0d0d 85be 6385 243f 21d5 5abe
00000260: 7ac7 543d 0eb4 5abf 314e 46be acd2 fcbe
00000270: 3b2d 3abf 139b 35bf fe2b 03bf b7bb 27bf
00000280: e7c4 49bf 07a3 23bf 5264 2fbf a79b 9fbd
00000290: 6ad6 adbe 5fe2 a2be 9018 cfbe fd81 09bf
000002a0: b9d6 11bf 3314 88be e085 c9be 842b 943e
000002b0: 71da e93d 4eb7 783e 5704 0a3f f6b0 153f
000002c0: 27ba 543d fdf3 de3e 0cba 0f3f 443c 2d3d
000002d0: ab5b 06bf 3583 933d 3f1c 64bf bc13 0dbf
000002e0: a31c f6be fc51 9fbe a0a2 85be 0682 1ebf
000002f0: efd3 04bf 81fa edbe 983d 743c 0a84 0abf
00000300: 6401 50be 6267 99be a187 32bf cb52 0abf
00000310: 781c a93d f465 033e 62dc f33d b6af 2a3d
00000320: f830 e8bd c928 ef3e 7ed3 ff3e 1bc9 06be
00000330: f1b1 193e f6e2 f7be 2286 ac3e 4055 403e
00000340: f116 8cbe af75 13bf a372 d6bd 632f c8bd
00000350: 8f6b 0fbf 5ffe e7be 8a59 45bf f2cd 8bbe
00000360: c0fc 72be f693 1f3f 7c25 073e 3314 7bbd
00000370: bb1f 9d3e 7b17 afbd 867f 89bf 9adc 21be
00000380: 373f 903e bf72 e73d c0c9 f53e 36ae a6be
00000390: 9b2e a63d 6f34 053e a0c2 97bd 9168 f73e
000003a0: c66a 973f f7a0 dc3e 3206 8f3d 6ade d7be
000003b0: 5029 e5be fadb d8be 25c5 c1be 9fe3 80be
000003c0: 2466 16bf 971c 81bf 27ca 39bf 2f3c 7d3e
000003d0: b7ea 15bd ad6d ccbe ed62 afbe f606 ba3e
000003e0: c18c d03e e9ef 123d 8ea6 7a3f 4866 6dbd
000003f0: 4f2c d1bd 7721 ddbd 1df8 e7be c85f 10be

conv3.bias f4 [32]
-1.1692677 -0.87781745 -0.959428 -0.51196975 -0.84358233 -0.69951063 -0.5762404 -0.94174224
-0.9802567 -0.8834204 -1.1545612 -0.57344246 -0.8357556 -0.936989 -0.7809346 -0.75988543
-0.8376773 -1.1394762 0.63221747 -0.4894848 -0.69637656 -1.344236 -0.9846235 -0.82853484
-0.9133226 -0.54606104 -0.9323732 -0.6806709 -1.0681288 -0.65647864 -0.6935237 -0.5166561
00000000: 90aa 95bf a5b8 60bf 139d 75bf 7310 03bf
00000010: 03f5 57bf 2113 33bf 7e84 13bf 0516 71bf
00000020: 1af2 7abf d727 62bf a9c8 93bf 20cd 12bf
00000030: 14f4 55bf 83de 6fbf 54eb 47bf da87 42bf
00000040: 0572 56bf 5bda 91bf 01d9 213f c09d fabe
00000050: bc45 32bf ed0f acbf 4910 7cbf dc1a 54bf
00000060: 83cf 69bf a8ca 0bbf 03b0 6ebf 7340 2ebf
00000070: 72b8 88bf fc0e 28bf c58a 31bf 9343 04bf

conv4.weight f4 [32, 32, 3, 3]
-1.4751714 -6.3144855 -8.552871 -4.445318 -5.1103034 -13.102961 -4.5572286 -1.923379
-3.1954474 1.2029951 -0.3243384 -0.058459908 0.8726079 0.6738168 1.2000846 1.0839196
1.3906262 0.32531336 2.1878004 0.10244639 0.28594092 2.3814676 0.802703 0.0037582368
0.7688818 1.3584825 0.8374705 2.2514982 0.49529237 1.391427 2.1321375 -0.7774418
2.7553012 2.1063402 1.5919052 2.1843996 0.8462368 0.58581656 0.68548435 -0.3258744
-0.9889021 0.31680602 -0.44063953 -0.40469635 0.46946922 -0.16244854 -0.96587366 -0.7829015
-0.008778889 -0.345919 1.4056304 0.06604977 -0.39789316 -0.0841454 -0.16372119 -0.14115441
0.3097991 0.4595361 0.27057844 -0.1938523 1.3732399 0.83742625 0.2778143 1.8944616
-0.035787012 1.240431 1.4959943 -1.4688984 3.3148203 1.548637 1.2727438 1.88238
0.8331561 1.7401422 1.7242544 0.8337843 1.7105737 0.57345474 0.050580207 0.39666593
0.24998933 -0.32381228 0.1891263 0.5311523 -0.0651715 0.4030111 0.18945812 -0.5904753
-0.29728368 0.20536034 -1.5390837 -0.9809017 -0.33745646 -0.1905307 -0.08586226 1.0845351
1.0006944 0.6651307 -0.42457685 0.8418965 -0.283385 0.76161706 1.2229785 0.48852172
2.8600016 1.801017 2.0965745 2.233529 1.9998122 0.34994236 1.2171906 2.139247
0.12893574 3.4577081 1.9685688 1.6887286 2.105305 1.7352397 0.12601261 1.3196499
1.4129372 -1.0544672 3.4338906 1.8237672 1.2610366 2.0358713 0.6501343 0.43497977
-0.35615543 1.3679109 0.20383452 -0.9569974 0.6862781 -0.45073012 0.53592837 1.5271956
-0.86801445 0.03903552 1.8027833 -2.0297823 1.5329595 1.0744917 1.1361041 1.3087084
1.7102425 -0.052508704 1.2381622 1.6644309 -2.0020301 3.5481515 1.8407178 1.2578628
2.2571 1.727594 -0.035128787 1.2646371 1.5654167 -1.3900903 3.4515388 1.7057292
1.357371 2.152279 -1.4816884 0.16190167 -0.6891011 -0.11897015 0.6311954 0.34406036
-0.54491156 0.23336786 -0.497573 1.718208 -0.18069044 1.2113472 1.5944206 -0.8045023
3.5498953 1.5960807 1.1112329 2.049756 -0.64839023 -0.17843549 0.7836054 -0.037378974
-0.7436727 0.6723307 -0.808453 -0.9870102 -0.33141476 2.2857845 0.6802574 0.5573588
1.1101469 1.4866259 2.5373597 2.2329159 2.2105682 0.7639059 1.4329138 1.1939571
0.43988186 1.6997472 -1.1120335 0.8738062 0.015509349 -0.055126466 0.1743994 -0.90193933
0.720411 1.615969 -0.5359763 0.2273107 1.7032014 2.123312 2.9431765 1.5414935
-1.3527163 -0.87045336 0.18488689 -0.9861169 0.03089553 1.6080556 -1.4890848 -1.808642
-1.4827864 -0.4536089 0.4154193 0.2596398 -0.62284595 0.8631273 -0.4549543 0.0108918
-0.20980978 -0.58784604 1.7720692 0.3843555 1.0628269 1.470976 0.6917967 -0.112453386
-0.35927925 1.7461305 1.6370928 1.3015348 -0.008079472 0.6167388 1.042379 1.966048
1.9142804 1.2554559 1.5496258 1.1056174 -0.2610052 -0.70524853 -0.49617565 -1.0873766
00000000: 6bd2 bcbf 4410 cac0 8fd8 08c1 0c40 8ec0
00000010: 9b87 a3c0 baa5 51c1 d1d4 91c0 4831 f6bf
00000020: 3682 4cc0 befb 993f af0f a6be a873 6fbd
00000030: 3b63 5f3f 427f 2c3f 5f9c 993f e1bd 8a3f
00000040: 0a00 b23f 798f a63e ec04 0c40 6acf d13d
00000050: d966 923e f769 1840 f27d 4d3f c04c 763b
00000060: 70d5 443f c1e2 ad3f 7764 563f 8c18 1040
00000070: f696 fd3e 481a b23f f174 0840 6d06 47bf
00000080: db56 3040 47ce 0640 8dc3 cb3f 34cd 0b40
00000090: faa2 583f 13f8 153f e77b 2f3f 02d9 a6be
000000a0: b028 7dbf 6634 a23e 819b e1be 5c34 cfbe
000000b0: 455e f03e e958 26be 7f43 77bf 3c6c 48bf
000000c0: 54d5 0fbc 4c1c b1be b2eb b33f 1a45 873d
000000d0: a7b8 cbbe 6c54 acbd 87a6 27be c88a 10be
000000e0: fd9d 9e3e 5148 eb3e 4289 8a3e 3881 46be
000000f0: 53c6 af3f 9161 563f ad3d 8e3e b87d f23f
00000100: 6795 12bd 71c6 9e3f be7c bf3f dd04 bcbf
00000110: 0426 5440 bd39 c63f 45e9 a23f d4f1 f03f
00000120: b849 553f fbbc de3f 5eb4 dc3f e372 553f
00000130: 14f4 da3f eecd 123f 312d 4f3d cc17 cb3e
00000140: 34fd 7f3e b9ca a5be 53aa 413e 99f9 073f
00000150: a378 85bd 7957 ce3e 4f01 423e 6429 17bf
00000160: 9135 98be fb49 523e b200 c5bf 601c 7bbf
00000170: 18c7 acbe 7b1a 43be 8dd8 afbd 0cd2 8a3f
00000180: c116 803f 0146 2a3f 2362 d9be 8786 573f
00000190: d717 91be 56f9 423f 8f8a 9c3f 851f fa3e
000001a0: 440a 3740 ba87 e63f 472e 0640 24f2 0e40
000001b0: d9f9 ff3f a52b b33e e7cc 9b3f 6ce9 0840
000001c0: bb07 043e 174b 5d40 10fa fb3f 4228 d83f
000001d0: 51bd 0640 561c de3f 7309 013e 4aea a83f
000001e0: 20db b43f c8f8 86bf ddc4 5b40 3471 e93f
000001f0: a669 a13f b74b 0240 346f 263f abb5 de3e
00000200: 015a b6be b417 af3f ffb9 503e c8fd 74bf
00000210: ecaf 2f3f 19c6 e6be 9a32 093f 257b c33f
00000220: 3236 5ebf b6e3 1f3d 9ac1 e63f f4e7 01c0
00000230: 0438 c43f f288 893f dc6b 913f c283 a73f
00000240: 3ae9 da3f 5e13 57bd 197c 9e3f 120c d53f
00000250: 4321 00c0 ea14 6340 a49c eb3f a601 a13f
00000260: 5474 1040 cd21 dd3f 34e3 0fbd a1df a13f
00000270: 935f c83f 7bee b1bf 03e6 5c40 5655 da3f
00000280: 55be ad3f f0be 0940 f7a7 bdbf 8dc9 253e
00000290: ee68 30bf 9fa6 f3bd 0696 213f ae28 b03e
000002a0: 537f 0bbf fcf7 6e3e e3c1 febe 3dee db3f
000002b0: ea06 39be 6d0d 9b3f f915 cc3f ddf3 4dbf
000002c0: 7c31 6340 5f4c cc3f e13c 8e3f 342f 0340
000002d0: e7fc 25bf cbb7 36be 5d9a 483f b21a 19bd
000002e0: 5661 3ebf dd1d 2c3f c7f6 4ebf b3ac 7cbf
000002f0: 32af a9be 4b4a 1240 5925 2e3f 11af 0e3f
00000300: 4b19 8e3f c249 be3f 1a64 2240 18e8 0e40
00000310: f379 0d40 568f 433f b869 b73f 96d3 983f
00000320: 3238 e13e 5191 d93f 1d57 8ebf c3b1 5f3f
00000330: ed1a 7e3c 4acc 61bd c295 323e 7fe5 66bf
00000340: db6c 383f 12d8 ce3f be35 09bf 23c4 683e
00000350: 8102 da3f 58e4 0740 015d 3c40 a94f c53f
00000360: cf25 adbf 08d6 5ebf fd52 3d3e 2872 7cbf
00000370: 9f18 fd3c c4d4 cd3f 559a bebf 9581 e7bf
00000380: f2cb bdbf 6d3f e8be d7b1 d43e 82ef 843e
00000390: d572 1fbf e9f5 5c3f c5ef e8be 8573 323c
000003a0: 60d8 56be 147d 16bf 2ad3 e23f 3eca c43e
000003b0: b60a 883f f148 bc3f 9719 313f f64d e6bd
000003c0: 73f3 b7be 3481 df3f 428c d13f b198 a63f
000003d0: c35f 04bc 98e2 1d3f ad6c 853f 76a7 fb3f
000003e0: 2407 f53f c7b2 a03f 235a c63f df84 8d3f
000003f0: 79a2 85be 2b8b 34bf bc0a febe 282f 8bbf

conv4.bias f4 [32]
2.3139653 2.9920883 6.85565 1.7875916 -1.5146704 -1.2558643 -0.60663795 1.544811
-0.6701123 -0.8774204 -1.8238233 2.7205207 0.40857944 -1.043524 -1.214796 3.0011797
1.0009614 -0.0082973875 -2.4793534 0.5355723 -0.95581865 1.7168117 -1.8919588 -0.65375406
-1.1080589 -2.2750895 6.563804 3.2413568 -2.3584707 -2.4027243 -0.36975276 -0.56339294
00000000: 0218 1440 607e 3f40 7c61 db40 cdcf e43f
00000010: b8e0 c1bf 29c0 a0bf a04c 1bbf 5ebc c53f
00000020: 7b8c 2bbf a09e 60bf 0b73 e9bf 031d 2e40
00000030: 5331 d13e 3292 85bf 6f7e 9bbf 5413 4040
00000040: 811f 803f c4f1 07bc baad 1ec0 441b 093f
00000050: 88b0 74bf 7cc0 db3f b52b f2bf 6d5c 27bf
00000060: e0d4 8dbf 119b 11c0 af0a d240 6472 4f40
00000070: 2ff1 16c0 3cc6 19c0 3c50 bdbe 853a 10bf

bn2.weight f4 [32]
-0.4590003 0.26958892 0.25467005 0.22617881 -0.010934858 0.18611102 -0.11157602 0.20362706
-0.42572156 -0.08460749 -0.22602327 0.21883251 0.4426215 0.429087 0.10306893 0.29271966
0.33054453 0.778551 0.025680548 0.2747056 -0.37451804 0.24266896 -0.19518709 -0.059195533
0.10878896 -0.045527715 0.37685302 0.5103396 -0.02384572 0.061140586 0.046627946 -0.2627226
00000000: 1602 ebbe 8f07 8a3e 1d64 823e 6b9b 673e
00000010: 1e28 33bc e393 3e3e f881 e4bd 9d83 503e
00000020: 2df8 d9be b146 adbd a572 67be a115 603e
00000030: 499f e23e 4bb1 db3e ce15 d33d 5adf 953e
00000040: 223d a93e 1e4f 473f 0360 d23c 36a6 8c3e
00000050: d4c0 bfbe 367e 783e 20df 47be 0477 72bd
00000060: bfcc de3d 457b 3abd e1f2 c03e 9ea5 023f
00000070: 1958 c3bc 8d6e 7a3d f2fc 3e3d 9483 86be

bn2.bias f4 [32]
8.507516e-05 -0.04754025 -0.041699816 -0.045730907 -5.4021264e-05 0.00028188422 -1.6687294e-05 -0.044057492
0.00035226057 -8.2173836e-05 -3.0925497e-05 -0.04021969 -0.086175896 -0.09644904 -2.5658575e-05 -0.05687338
-0.06955991 -0.17196994 3.3223e-05 -0.058939412 -0.00013232608 -0.055345308 -0.00014702136 3.4682987e-05
1.3259668e-05 -0.000155842 -0.08648568 -0.11670399 4.22401e-05 -0.00013487377 -0.00913921 3.1331408e-06
00000000: 616a b238 91b9 42bd 6dcd 2abd 5550 3bbd
00000010: e494 62b8 dcc9 9339 b1fb 8bb7 a175 34bd
00000020: 9daf b839 be54 acb8 00b6 01b8 67bd 24bd
00000030: fd7c b0bd 1387 c5bd 5f3d d7b7 10f4 68bd
00000040: 6d75 8ebd e318 30be ed58 0b38 746a 71bd
00000050: 03c1 0ab9 c3b1 62bd bf29 1ab9 9378 1138
00000060: d775 5e37 8569 23b9 671f b1bd 8002 efbd
00000070: f62a 3138 e76c 0db9 a0bc 15bc f342 5236

bn2.running_mean f4 [32]
6e-45 3.9830687 6.9271617 6.8264494 6e-45 6e-45 6e-45 11.55883
6e-45 6e-45 6e-45 4.8464646 4.580952 11.881206 6e-45 6.3516183
8.274593 9.96258 8.874169 12.063153 6e-45 10.900791 6e-45 6e-45
6e-45 6e-45 8.58458 5.452062 6e-45 6e-45 1.3980533 6e-45
00000000: 0400 0000 99ea 7e40 4fab dd40 4672 da40
00000010: 0400 0000 0400 0000 0400 0000 f8f0 3841
00000020: 0400 0000 0400 0000 0400 0000 3d16 9b40
00000030: 2997 9240 6b19 3e41 0400 0000 7540 cb40
00000040: bc64 0441 ba66 1f41 99fc 0d41 ad02 4141
00000050: 0400 0000 a469 2e41 0400 0000 0400 0000
00000060: 0400 0000 0400 0000 715a 0941 4b77 ae40
00000070: 0400 0000 0400 0000 69f3 b23f 0400 0000

bn2.running_var f4 [32]
6e-45 0.08853139 0.20414771 0.53708744 6e-45 6e-45 6e-45 2.8849206
6e-45 6e-45 6e-45 0.17567107 0.35850936 2.942666 6e-45 0.35500747
1.3108317 2.7335184 127.63848 3.693511 6e-45 2.1289158 6e-45 6e-45
6e-45 6e-45 0.3219533 0.24655803 6e-45 6e-45 0.062845364 6e-45
00000000: 0400 0000 f24f b53d 190c 513e 907e 093f
00000010: 0400 0000 0400 0000 0400 0000 8aa2 3840
00000020: 0400 0000 0400 0000 0400 0000 1ee3 333e
00000030: 8a8e b73e a454 3c40 0400 0000 8ac3 b53e
00000040: 55c9 a73f f7f1 2e40 e746 ff42 7c62 6c40
00000050: 0400 0000 2840 0840 0400 0000 0400 0000
00000060: 0400 0000 0400 0000 10d7 a43e b579 7c3e
00000070: 0400 0000 0400 0000 12b5 803d 0400 0000

conv5.weight f4 [64, 32, 3, 3]
0.058355577 0.043535877 0.013167609 -0.00080271484 -0.00022813387 0.04444352 0.051907104 0.0045331325
0.052179884 0.017437438 0.03203709 0.013021283 0.033200625 0.052065507 0.012795524 0.024735965
0.043235447 -0.049895737 -0.047888488 -0.021069476 0.04883752 0.057799093 0.01495876 -0.005513419
0.009223051 -0.030470977 0.023569845 -0.039487813 -0.029690348 -0.054428604 -0.013961719 0.037406944
-0.029951813 0.050910126 -0.05834318 -0.035258584 0.042568866 0.045603283 -0.02684727 0.039202858
-0.055306718 0.02795495 -0.052559648 -0.038521692 -0.04985699 0.039662566 -0.018795991 0.03510359
0.026223445 -0.00062585965 -0.009445362 -0.0068984204 -0.058292914 0.04201294 0.0037444877 -0.008370477
-0.013622564 -0.032140743 -0.0114654675 0.0062035173 0.042495556 0.021615854 -0.038126145 0.021539927
0.04751295 0.014221717 0.050978173 0.036189083 -0.041143507 -0.002463912 0.049679164 0.04544575
-0.03221844 0.047514953 0.03378934 0.05026143 -0.0066667534 -0.051305085 -0.04866318 0.02087445
0.035651058 -0.0035332968 -0.00026844032 0.0063620177 -0.050342407 -0.038834963 0.05107195 0.054627422
0.048507713 -0.035549343 -0.034310162 -0.017903918 -0.043660056 -0.0028477993 0.031452417 0.0018080507
0.033052366 0.032080293 0.007199293 0.04233654 0.051291443 -0.02462951 0.0062721325 -0.053448386
-0.0012847413 0.036066957 0.044172145 -0.015542388 -0.03797885 -0.056439225 -0.01711058 0.03765151
0.049940053 0.05637285 -0.056129854 -0.030532926 -0.02590922 -0.04981954 -0.01134355 -0.0008306863
-0.014766619 -0.04735197 0.019121338 0.036013246 -0.04440795 0.0047796844 -0.023845408 -0.03604613
-0.014971474 0.020633593 0.016815813 0.05428647 -0.04042997 -0.013811375 0.0149674 0.03539623
-0.0019271435 0.043044414 -0.041145273 0.02196615 -0.009811772 -0.043761387 -0.004738128 0.0150066875
-0.026558295 0.0009021533 -0.009900997 -0.04879062 0.009703434 0.002936364 -0.04386622 -0.031759266
0.010606276 -0.042989027 0.026061399 -0.021003805 -0.02552345 0.01321369 -0.054486934 -0.052655462
0.034311082 -0.05862557 0.038569137 -0.052809853 0.013456962 -0.008746482 0.040379707 0.01925504
-0.05754187 -0.01443002 -0.05591647 -0.0033437905 -0.010260931 0.035886012 0.028906865 -0.048495308
0.018369999 0.058244113 0.052403755 -0.013969524 -0.03634537 -0.058099404 0.049904045 0.011556237
0.05359522 -0.03337739 0.020640837 -0.029348185 0.011250771 -0.044163737 -0.013289864 0.002203339
-0.040635925 0.028497817 0.054023445 0.042049505 -0.035183817 0.040825944 -0.03394723 -0.012520459
0.036694437 0.016563458 -0.021361645 0.02601904 0.0018429342 0.006280674 0.03342649 -0.039049722
-0.024589455 -0.043847747 0.026042812 -0.050688054 0.009466105 0.017006787 0.03733684 -0.057025086
-0.009393008 -0.038578838 0.048849925 -0.032676514 0.0111444695 0.03146016 0.023349648 0.04366852
-0.0006903022 0.017596196 -0.044056594 -0.014410934 0.010306626 0.043640904 -0.036673587 0.043894853
0.049556322 0.007336839 -0.006142229 -0.008231862 -0.015022479 0.009455084 -0.04524038 -0.04209789
-0.0116225695 -0.020479428 0.0016781681 -0.05001186 0.039612778 0.014098795 -0.04357097 0.058704264
0.045673057 -0.029834328 0.03344108 0.018666727 0.05191624 -0.013067616 0.049289595 0.012083698
00000000: 4206 6f3d ad52 323d f5bc 573c 486d 52ba
00000010: 3837 6fb9 690a 363d 8b9c 543d ac8a 943b
00000020: 93ba 553d f5d8 8e3c 5339 033d 3857 553c
00000030: 61fd 073d a442 553d 51a4 513c 14a3 ca3c
00000040: a717 313d 795f 4cbd b826 44bd e599 acbc
00000050: da09 483d bebe 6c3d 9615 753c e9a9 b4bb
00000060: 481c 173c 459e f9bc 8c15 c13c f9bd 21bd
00000070: 2c39 f3bc 87f0 5ebd b2bf 64bc 0638 193d
00000080: 815d f5bc 2387 503d 42f9 6ebd 4e6b 10bd
00000090: b15c 2e3d 82ca 3a3d ceee dbbc 2d93 203d
000000a0: 4c89 62bd c801 e53c c948 57bd ecc8 1dbd
000000b0: d836 4cbd 3775 223d 0dfa 99bc c8c8 0f3d
000000c0: 8dd2 d63c bb10 24ba b8c0 1abc 250c e2bb
000000d0: 8dc4 6ebd c315 2c3d 1466 753b 5324 09bc
000000e0: 2d31 5fbc 03a6 03bd a8d9 3bbc e046 cb3b
000000f0: d20f 2e3d bb13 b13c 292a 1cbd 8074 b03c
00000100: f09c 423d 3402 693c 7dce 503d 013b 143d
00000110: 1886 28bd 9579 21bb 617c 4b3d 5325 3a3d
00000120: 7cf7 03bd 0a9f 423d b166 0a3d eede 4d3d
00000130: c874 dabb 4825 52bd 0b53 47bd e500 ab3c
00000140: d806 123d e28e 67bb 73bd 8cb9 7978 d03b
00000150: d733 4ebd 6911 1fbd d230 513d 01c1 5f3d
00000160: 06b0 463d 309c 11bd d088 0cbd 3dab 92bc
00000170: e3d4 32bd 25a2 3abb 40d4 003d 1dfc ec3a
00000180: eb61 073d a066 033d 0ce8 eb3b 1469 2d3d
00000190: fa16 523d d3c3 c9bc 7686 cd3b b2ec 5abd
000001a0: c464 a8ba f2ba 133d daed 343d 80a5 7ebc
000001b0: b68f 1bbd d12c 67bd 7d2b 8cbc 7838 1a3d
000001c0: f18d 4c3d 38e7 663d 6be8 65bd 3020 fabc
000001d0: 933f d4bc 930f 4cbd 4cda 39bc 6ac2 59ba
000001e0: b0ef 71bc 24f4 41bd 5aa4 9c3c a082 133d
000001f0: 1ce5 35bd e69e 9c3b 7257 c3bc 1ba5 13bd
00000200: ea4a 75bc c807 a93c 51c1 893c 7d5b 5e3d
00000210: e599 25bd 1b49 62bc d339 753c a3fb 103d
00000220: 3598 fcba 574f 303d f287 28bd 5bf2 b33c
00000230: 8ec1 20bc 243f 33bd 4c42 9bbb 9cde 753c
00000240: c890 d9bc 7c7e 6c3a cb37 22bc acd8 47bd
00000250: 27fb 1e3c 0370 403b 11ad 33bd 0116 02bd
00000260: f2c5 2d3c 4315 30bd b77e d53c 2c10 acbc
00000270: 8e16 d1bc 3c7e 583c b12d 5fbd 41ad 57bd
00000280: c789 0c3d 5e21 70bd acfa 1d3d 254f 58bd
00000290: 977a 5c3c 684d 0fbc 3165 253d bfbc 9d3c
000002a0: 06b1 6bbd e46b 6cbc ab08 65bd 7f23 5bbb
000002b0: 771d 28bc 36fd 123d 17ce ec3c 04a3 46bd
000002c0: ae7c 963c 6191 6e3d 52a5 563d 6ee0 64bc
000002d0: e2de 14bd a4f9 6dbd 2f68 4c3d 5f56 3d3c
000002e0: a986 5b3d bbb6 08bd f916 a93c 9b6b f0bc
000002f0: 2755 383c 09e5 34bd bbbd 59bc e565 103b
00000300: db71 26bd 4174 e93c b047 5d3d 1a3c 2c3d
00000310: e81c 10bd 1b39 273d 400c 0bbd 9c22 4dbc
00000320: e84c 163d 17b0 873c 9efe aebc e225 d53c
00000330: 9c8e f13a 1dce cd3b 37ea 083d 9af2 1fbd
00000340: d36f c9bc b299 33bd bc57 d53c 479e 4fbd
00000350: b917 1b3c d151 8b3c 84ee 183d 2393 69bd
00000360: 22e5 19bc d804 1ebd dc16 483d cfd7 05bd
00000370: 4b97 363c 5edc 003d c347 bf3c c3dd 323d
00000380: 65f5 34ba e625 903c b074 34bd d71b 6cbc
00000390: 1fdd 283c cec0 323d 0b37 16bd 17cb 333d
000003a0: 92fb 4a3d de69 f03b c044 c9bb efde 06bc
000003b0: d820 76bc 7fe9 1a3c fa4d 39bd d66e 2cbd
000003c0: 976c 3ebc 79c4 a7bc faf5 db3a 3cd9 4cbd
000003d0: 0241 223d a2fe 663c 7977 32bd e273 703d
000003e0: ac13 3b3d 1f67 f4bc 84f9 083d f7ea 983c
000003f0: 20a6 543d 8e19 56bc e3e3 493d b4fa 453c

conv5.bias f4 [64]
0.023794474 -0.0140691735 0.0376719 0.05046066 -0.043622985 0.037517194 0.052754115 -0.04128664
0.048246622 0.016795231 -0.05008606 -0.0057987603 0.044087354 0.048551723 -0.041454826 -0.0042311572
-0.018195854 0.036585797 -0.00084654056 -0.024483476 0.013581351 -0.038446516 -0.02878339 0.012679662
0.04966863 0.033864338 -0.018966869 0.03835857 -0.051606767 -0.023434624 -0.0046938877 0.011896081
-0.01259338 0.023425372 -0.04727579 0.044662483 0.040860265 -0.019664856 -0.03899259 0.052195042
-0.01652849 0.030415976 -0.049048163 -0.05874899 -0.011686584 0.011503968 -0.019452568 0.020035136
0.03106142 0.030922946 -0.032747082 -0.045432717 -0.04991514 0.042729206 -0.040735077 0.014090633
-0.0074742166 -0.022016075 0.03771073 -0.04574893 -0.024679579 -0.011478427 0.016758943 0.037709553
00000000: a1ec c23c 6482 66bc da4d 1a3d d6af 4e3d
00000010: 04ae 32bd a1ab 193d b314 583d 2e1c 29bd
00000020: 409e 453d 2796 893c 0a27 4dbd 8703 bebb
00000030: f194 343d 2cde 463d 89cc 29bd 85a5 8abb
00000040: 790f 95bc fdda 153d 60ea 5dba 9291 c8bc
00000050: 5184 5e3c 187a 1dbd 25cb ebbc 5bbe 4f3c
00000060: 5571 4b3d 55b5 0a3d 6860 9bbc e01d 1d3d
00000070: 9e61 53bd f8f9 bfbc 2fcf 99bb c8e7 423c
00000080: 7754 4ebc 91e6 bf3c 42a4 41bd 02f0 363d
00000090: 185d 273d 3118 a1bc b2b6 1fbd 78ca 553d
000000a0: c266 87bc ed2a f93c bae6 48bd c8a2 70bd
000000b0: 1679 3fbc 247b 3c3c fe5a 9fbc ba20 a43c
000000c0: 8574 fe3c 1e52 fd3c ce21 06bd a817 3abd
000000d0: d173 4cbd d204 2f3d d3d9 26bd 66dc 663c
000000e0: 46ea f4bb 0e5b b4bc 9176 1a3d 3b63 3bbd
000000f0: d42c cabc 0310 3cbc 0d4a 893c 5575 1a3d

conv6.weight f4 [64, 64, 3, 3]
0.0082813455 0.03749816 0.014602199 0.013161888 0.0399076 -0.024285942 -0.003381292 0.0038309097
-0.006128644 -0.035149273 -0.024767324 0.038981773 -0.010863761 0.034662068 0.014213811 -0.029167926
-0.039599266 -0.007534852 -0.024873838 0.0023429594 -0.022256827 0.029712182 -0.031162849 -0.028489038
0.014404292 0.039411455 -0.010994832 -0.0402424 -0.02089576 -0.03593209 0.009064233 0.00030743083
0.018620571 -0.012472695 0.04046562 0.0027056239 0.011781132 -0.019624606 0.019843018 0.006653284
0.012644848 -0.010035704 -0.0010869454 -0.028792039 -0.003359601 0.028841835 -0.021964878 -0.0010427784
0.012222251 0.039559614 -0.020966168 -0.023961406 0.020177683 0.024888575 0.019777086 -0.005221203
0.022381317 -0.014528697 0.0005452236 0.025152734 -0.035700336 0.04082693 -0.004021178 0.035045266
0.004396558 -0.033774555 -0.017537272 0.0048473924 0.025799885 0.027249962 -0.014833471 0.014865592
0.0007984042 0.0055523417 0.017850881 -0.00384897 0.037430655 -0.024074515 0.036531877 0.027010273
0.032085355 0.021769047 0.03545245 0.021035105 -0.02069737 0.021349072 0.010836115 0.03504189
-0.012227654 -0.034315553 0.029340273 -0.038461924 0.037230384 -0.029528683 -0.015576631 0.012214443
0.016456574 -0.004553984 0.03423226 0.009182195 -0.00092453265 0.024324846 -0.010537039 0.010791769
-0.024789995 -0.012005508 -0.021552917 0.03674587 0.021205505 -0.023181658 -0.011802018 0.00050062936
0.030152833 0.023345983 -0.017545488 0.0065866215 -0.0021904856 0.0014739584 0.040841095 -0.0008594791
0.015103951 -0.006850223 -0.017660812 0.040367812 0.0017958333 -0.03467929 0.03978739 -0.00528343
0.019615173 0.032731406 0.03173217 0.037540555 -0.014982825 0.022182565 -0.009522364 0.010973066
0.025989797 -0.020338362 0.03945671 0.01194275 0.001062428 -0.018983698 0.007073055 0.030736154
0.021994323 -0.0353364 -0.036220636 -0.015581812 -0.009314647 0.00399448 0.0041264645 0.014658223
-0.01663126 0.02288801 0.007989591 0.0050172163 -0.027444985 -0.0230892 0.021368455 -0.02146786
-0.017199647 -0.014987151 -0.014408882 -0.014803077 -0.013150707 -0.012091741 -0.020584365 0.01236784
-0.032444756 -0.037534676 0.023792665 0.04022155 0.031247806 -0.0022771508 0.029132372 0.02450045
-0.0068525923 0.001661107 0.03701549 0.002129659 0.006888658 0.020373385 0.03406986 -0.004638816
-0.0047241 -0.019997215 0.0024130493 0.013625925 0.040440276 -0.040061858 0.018471267 0.02809411
0.025618818 0.023483505 -0.012588471 -0.033140328 0.0008102755 -0.020243471 0.012035127 -0.032321423
0.017499935 0.015153041 0.023078745 0.021958103 -0.015874188 0.023304801 -0.003207634 0.0049836636
-0.013941616 0.0203462 -0.00619333 -0.028980082 -0.039229494 0.02541558 -0.004682839 0.0024724952
0.032620113 -0.022403926 -0.0010878693 -0.007978633 -0.0033710997 0.023334771 0.03800064 0.019486016
-0.00062299275 -0.01280877 -0.023842465 -0.01848821 -0.0056682182 0.03648471 -0.018747058 0.008832365
0.01286304 -0.031854644 0.03520041 0.007612909 -0.03748618 -0.013512696 -0.023203826 0.018326512
0.019365843 0.025991455 0.0031702619 -0.036814727 0.008480033 0.031689174 -0.013464129 0.0056496463
0.013508196 -0.014602363 -0.013678978 0.01675891 0.03546224 0.03363622 -0.00017279884 -0.03830617
00000000: 7bae 073c ac97 193d 103e 6f3c f6a4 573c
00000010: 2776 233d 50f3 c6bc ab98 5dbb 0010 7b3b
00000020: cbd2 c8bb aff8 0fbd d8e4 cabc 5aab 1f3d
00000030: ebfd 31bc d0f9 0d3d 0be1 683c 93f1 eebc
00000040: d732 22bd ebe6 f6bb 38c4 cbbc 568c 193b
00000050: f353 b6bc f666 f33c 3b49 ffbc d861 e9bc
00000060: fbff 6b3c e86d 213d ab23 34bc 37d5 24bd
00000070: 962d abbc 872d 13bd 2682 143c ab2e a139
00000080: 2b8a 983c 465a 4cbc 47bf 253d d650 313b
00000090: a605 413c c8c3 a0bc d38d a23c cb03 da3b
000000a0: 562c 4f3c cb6c 24bc d677 8eba 48dd ebbc
000000b0: c02c 5cbb b645 ec3c b0ef b3bc d6ad 88ba
000000c0: d63f 483c 4309 223d 3ec1 abbc b64a c4bc
000000d0: ab4b a53c 20e3 cb3c 8e03 a23c a016 abbb
000000e0: 0659 b73c c609 6ebc 56ed 0e3a 1b0d ce3c
000000f0: 843a 12bd 243a 273d 16c4 83bb a08b 0f3d
00000100: 0011 903b 3057 0abd 53aa 8fbc e0d6 9e3b
00000110: 485a d33c 503b df3c 1608 73bc d08e 733c
00000120: 004c 513a 6bf0 b53b 033c 923c 003f 7cbb
00000130: e350 193d eb37 c5bc 73a2 153d a644 dd3c
00000140: ef6b 033d 0055 b23c 9736 113d d051 ac3c
00000150: 888d a9bc 40e4 ae3c f689 313c 1688 0f3d
00000160: 8056 48bc 778e 0cbd 035b f03c 408a 1dbd
00000170: e37e 183d 23e6 f1bc 2035 7fbc 161f 483c
00000180: f0cf 863c 9639 95bb 2037 0c3d eb70 163c
00000190: 565c 72ba e644 c73c 8ba3 2cbc f6cf 303c
000001a0: 6314 cbbc c0b2 44bc be8f b0bc d682 163d
000001b0: 2bb7 ad3c 76e7 bdbc 405d 41bc ab3c 033a
000001c0: 1303 f73c 1340 bf3c 8ebb 8fbc 96d4 d73b
000001d0: 408e 0fbb d631 c13a fe48 273d ab4e 61ba
000001e0: 9076 773c d677 e0bb 68ad 90bc b858 253d
000001f0: 2b62 eb3a df0b 0ebd 1af8 223d a020 adbb
00000200: 00b0 a03c 5e11 063d 98f9 013d 20c4 193d
00000210: 867a 75bc 36b8 b53c b003 1cbc 60c8 333c
00000220: 8ee8 d43c a39c a6bc 5c9d 213d 86ab 433c
00000230: 2b41 8b3a b383 9bbc 16c5 e73b 63ca fb3c
00000240: 702d b43c e7bc 10bd 175c 14bd db4a 7fbc
00000250: 769c 18bc 20e4 823b 4b37 873b 0b29 703c
00000260: 483e 88bc a37f bb3c c6e6 023c 7667 a43b
00000270: 4ed4 e0bc 9025 bdbc e60c af3c 5edd afbc
00000280: 46e6 8cbc ab8c 75bc 3b13 6cbc 9b88 72bc
00000290: 1076 57bc 701c 46bc 8ba0 a8bc 7ba2 4a3c
000002a0: cbe4 04bd f6bd 19bd d6e8 c23c 5abf 243d
000002b0: 66fb ff3c 403c 15bb 03a7 ee3c 2bb5 c83c
000002c0: b68b e0bb 80b9 d93a 8e9d 173d c091 0b3b
000002d0: 40ba e13b 16e6 a63c d68c 0b3d 3601 98bb
000002e0: a0cc 9abb 33d1 a3bc 4024 1e3b 463f 5f3c
000002f0: b4a4 253d e717 24bd 0e51 973c 9e25 e63c
00000300: 8ede d13c 7b60 c03c e03f 4ebc 27be 07bd
00000310: ab68 543a a3d5 a5bc fb2e 453c 7863 04bd
00000320: 065c 8f3c 7644 783c a30f bd3c 7be1 b33c
00000330: 960a 82bc b6e9 be3c 2b37 52bb 004e a33b
00000340: 606b 64bc 13ad a63c 6bf1 cabb a367 edbc
00000350: 1baf 20bd 5634 d03c 8072 99bb 9609 223b
00000360: ab9c 053d 7088 b7bc d696 8eba d0b8 02bc
00000370: abed 5cbb 9028 bf3c 8fa6 1b3d 23a1 9f3c
00000380: 5650 23ba e0db 51bc 4651 c3bc 9674 97bc
00000390: 76bc b9bb fe70 153d 6e93 99bc a0b5 103c
000003a0: 80bf 523c 047a 02bd 4e2e 103d b675 f93b
000003b0: 1c8b 19bd 5b64 5dbc f315 bebc 7b21 963c
000003c0: 1ea5 9e3c 08ec d43c 2bc4 4f3b 0acb 16bd
000003d0: d6ef 0a3c 82cc 013d a698 5cbc ab20 b93b
000003e0: 7b51 5d3c c03e 6fbc cb1d 60bc fb49 893c
000003f0: db40 113d 22c6 093d 5631 35b9 eee6 1cbd

conv6.bias f4 [64]
0.023962766 0.0048811687 -0.02928568 0.040880334 -0.004953499 -0.02496796 -0.03042145 0.0064492226
-0.003467103 -0.03738354 -0.03709468 -0.03636293 0.016770875 -0.01769434 -0.03763598 0.03839711
-0.01988948 -0.03179398 0.02938129 -0.04123993 -0.041053932 0.017089527 -0.035179466 0.027914276
-0.00958545 0.025769582 -0.011722555 0.022288298 0.018069327 0.023948949 0.005524268 0.008510366
0.03586428 0.02531997 0.020487424 -0.03119303 -0.019855857 0.0029096357 -0.039652463 -0.012614071
0.011750972 0.033343785 0.00045805675 -0.03321811 -0.036538567 -0.004209812 -0.034809392 0.005221571
0.034737177 -0.028720345 0.018426513 0.029362168 -0.034387037 0.008464923 -0.029859196 -0.040865898
-0.019701123 0.021618467 0.015259455 -0.035530057 -0.028923541 0.0352408 -0.031321883 0.0058951825
00000000: 904d c43c 36f2 9f3b 86e8 efbc 2372 273d
00000010: f650 a2bb 9b89 ccbc 6836 f9bc 0054 d33b
00000020: 5638 63bb 7c1f 19bd 97f0 17bd 4cf1 14bd
00000030: 1363 893c b8f3 90bc 2f28 1abd 4a46 1d3d
00000040: 43ef a2bc 683a 02bd 08b1 f03c 33eb 28bd
00000050: 2b28 28bd 56ff 8b3c 5818 10bd 7bac e43c
00000060: 4b0c 1dbc bb1a d33c f60f 40bc f395 b63c
00000070: 2006 943c 9630 c43c eb04 b53b 106f 0b3c
00000080: 6ce6 123d d36b cf3c 3ed5 a73c 8688 ffbc
00000090: c0a8 a2bc 96af 3e3b 9f6a 22bd 40ab 4ebc
000000a0: 2687 403c 7e93 083d 5627 f039 b70f 08bd
000000b0: 77a9 15bd 76f2 89bb 4b94 0ebd b619 ab3b
000000c0: 9248 0e3d ee46 ebbc 33f3 963c ee88 f03c
000000d0: 6cd9 0cbd 76b0 0a3c 469b f4bc 0063 27bd
000000e0: 4064 a1bc 3619 b13c cb02 7a3c f787 11bd
000000f0: 10f1 ecbc a858 103d 604b 00bd 602c c13b

bn3.weight f4 [64]
1.0 1.0 1.0 1.0 1.0 1.0 1.0 1.0
1.0 1.0 1.0 1.0 1.0 1.0 1.0 1.0
1.0 1.0 1.0 1.0 1.0 1.0 1.0 1.0
1.0 1.0 1.0 1.0 1.0 1.0 1.0 1.0
1.0 1.0 1.0 1.0 1.0 1.0 1.0 1.0
1.0 1.0 1.0 1.0 1.0 1.0 1.0 1.0
1.0 1.0 1.0 1.0 1.0 1.0 1.0 1.0
1.0 1.0 1.0 1.0 1.0 1.0 1.0 1.0
00000000: 0000 803f 0000 803f 0000 803f 0000 803f
00000010: 0000 803f 0000 803f 0000 803f 0000 803f
00000020: 0000 803f 0000 803f 0000 803f 0000 803f
00000030: 0000 803f 0000 803f 0000 803f 0000 803f
00000040: 0000 803f 0000 803f 0000 803f 0000 803f
00000050: 0000 803f 0000 803f 0000 803f 0000 803f
00000060: 0000 803f 0000 803f 0000 803f 0000 803f
00000070: 0000 803f 0000 803f 0000 803f 0000 803f
00000080: 0000 803f 0000 803f 0000 803f 0000 803f
00000090: 0000 803f 0000 803f 0000 803f 0000 803f
000000a0: 0000 803f 0000 803f 0000 803f 0000 803f
000000b0: 0000 803f 0000 803f 0000 803f 0000 803f
000000c0: 0000 803f 0000 803f 0000 803f 0000 803f
000000d0: 0000 803f 0000 803f 0000 803f 0000 803f
000000e0: 0000 803f 0000 803f 0000 803f 0000 803f
000000f0: 0000 803f 0000 803f 0000 803f 0000 803f

bn3.bias f4 [64]
0.0 0.0 0.0 0.0 0.0 0.0 0.0 0.0
0.0 0.0 0.0 0.0 0.0 0.0 0.0 0.0
0.0 0.0 0.0 0.0 0.0 0.0 0.0 0.0
0.0 0.0 0.0 0.0 0.0 0.0 0.0 0.0
0.0 0.0 0.0 0.0 0.0 0.0 0.0 0.0
0.0 0.0 0.0 0.0 0.0 0.0 0.0 0.0
0.0 0.0 0.0 0.0 0.0 0.0 0.0 0.0
0.0 0.0 0.0 0.0 0.0 0.0 0.0 0.0
00000000: 0000 0000 0000 0000 0000 0000 0000 0000
00000010: 0000 0000 0000 0000 0000 0000 0000 0000
00000020: 0000 0000 0000 0000 0000 0000 0000 0000
00000030: 0000 0000 0000 0000 0000 0000 0000 0000
00000040: 0000 0000 0000 0000 0000 0000 0000 0000
00000050: 0000 0000 0000 0000 0000 0000 0000 0000
00000060: 0000 0000 0000 0000 0000 0000 0000 0000
00000070: 0000 0000 0000 0000 0000 0000 0000 0000
00000080: 0000 0000 0000 0000 0000 0000 0000 0000
00000090: 0000 0000 0000 0000 0000 0000 0000 0000
000000a0: 0000 0000 0000 0000 0000 0000 0000 0000
000000b0: 0000 0000 0000 0000 0000 0000 0000 0000
000000c0: 0000 0000 0000 0000 0000 0000 0000 0000
000000d0: 0000 0000 0000 0000 0000 0000 0000 0000
000000e0: 0000 0000 0000 0000 0000 0000 0000 0000
000000f0: 0000 0000 0000 0000 0000 0000 0000 0000

bn3.running_mean f4 [64]
0.0 0.0 0.0 0.0 0.0 0.0 0.0 0.0
0.0 0.0 0.0 0.0 0.0 0.0 0.0 0.0
0.0 0.0 0.0 0.0 0.0 0.0 0.0 0.0
0.0 0.0 0.0 0.0 0.0 0.0 0.0 0.0
0.0 0.0 0.0 0.0 0.0 0.0 0.0 0.0
0.0 0.0 0.0 0.0 0.0 0.0 0.0 0.0
0.0 0.0 0.0 0.0 0.0 0.0 0.0 0.0
0.0 0.0 0.0 0.0 0.0 0.0 0.0 0.0
00000000: 0000 0000 0000 0000 0000 0000 0000 0000
00000010: 0000 0000 0000 0000 0000 0000 0000 0000
00000020: 0000 0000 0000 0000 0000 0000 0000 0000
00000030: 0000 0000 0000 0000 0000 0000 0000 0000
00000040: 0000 0000 0000 0000 0000 0000 0000 0000
00000050: 0000 0000 0000 0000 0000 0000 0000 0000
00000060: 0000 0000 0000 0000 0000 0000 0000 0000
00000070: 0000 0000 0000 0000 0000 0000 0000 0000
00000080: 0000 0000 0000 0000 0000 0000 0000 0000
00000090: 0000 0000 0000 0000 0000 0000 0000 0000
000000a0: 0000 0000 0000 0000 0000 0000 0000 0000
000000b0: 0000 0000 0000 0000 0000 0000 0000 0000
000000c0: 0000 0000 0000 0000 0000 0000 0000 0000
000000d0: 0000 0000 0000 0000 0000 0000 0000 0000
000000e0: 0000 0000 0000 0000 0000 0000 0000 0000
000000f0: 0000 0000 0000 0000 0000 0000 0000 0000

bn3.running_var f4 [64]
1.0 1.0 1.0 1.0 1.0 1.0 1.0 1.0
1.0 1.0 1.0 1.0 1.0 1.0 1.0 1.0
1.0 1.0 1.0 1.0 1.0 1.0 1.0 1.0
1.0 1.0 1.0 1.0 1.0 1.0 1.0 1.0
1.0 1.0 1.0 1.0 1.0 1.0 1.0 1.0
1.0 1.0 1.0 1.0 1.0 1.0 1.0 1.0
1.0 1.0 1.0 1.0 1.0 1.0 1.0 1.0
1.0 1.0 1.0 1.0 1.0 1.0 1.0 1.0
00000000: 0000 803f 0000 803f 0000 803f 0000 803f
00000010: 0000 803f 0000 803f 0000 803f 0000 803f
00000020: 0000 803f 0000 803f 0000 803f 0000 803f
00000030: 0000 803f 0000 803f 0000 803f 0000 803f
00000040: 0000 803f 0000 803f 0000 803f 0000 803f
00000050: 0000 803f 0000 803f 0000 803f 0000 803f
00000060: 0000 803f 0000 803f 0000 803f 0000 803f
00000070: 0000 803f 0000 803f 0000 803f 0000 803f
00000080: 0000 803f 0000 803f 0000 803f 0000 803f
00000090: 0000 803f 0000 803f 0000 803f 0000 803f
000000a0: 0000 803f 0000 803f 0000 803f 0000 803f
000000b0: 0000 803f 0000 803f 0000 803f 0000 803f
000000c0: 0000 803f 0000 803f 0000 803f 0000 803f
000000d0: 0000 803f 0000 803f 0000 803f 0000 803f
000000e0: 0000 803f 0000 803f 0000 803f 0000 803f
000000f0: 0000 803f 0000 803f 0000 803f 0000 803f
