checkpoints/best_model_1809_2.pth (torch, 304673 bytes, 37 tensors)

conv1.weight f4 [16, 1, 3, 3]
00000000: f42d cbbd 3342 423e bafc 553d fce0 443e
00000010: 4b37 56bc 2275 973e 548d 043e 5912 ba3e
00000020: 3d48 963d bcf0 2ebd 6cd8 91be 4516 b8bc
00000030: 61bd 9d3d c7ce 0cbe 1a39 53bd 8fcd 123d
00000040: c14d 063d 45d0 78be bf63 6ebe 8e7e babe
00000050: bf92 a73d 8b82 ee3d ac64 0fbe b98d 82be
00000060: eecd 9bbe 48d7 7b3e 4d8d c4be 6030 41bd
00000070: 270e 8ebe e7a6 adbe 8f7c 94be c2be 4abe
00000080: 22ec 0ebe 4590 b2bd f679 023e 2625 acbd
00000090: 8032 103e 7bc1 a3bd 938a 0c3e 96fe 123b
000000a0: 783d 463e 94ed 2c3e 9421 2ebe ab29 243e
000000b0: 828f 1bbe 328f 5dbd aa39 6d3e a6cc 5bbd
000000c0: e1e3 9dbd 3fc0 83be 2d02 753e 11a7 80be
000000d0: 0181 953d 7b92 693c 342b 78be fa82 b4be
000000e0: d353 adbe fd9c e6bb 5369 4d3e e85f c9be
000000f0: 19b2 cabd 4375 ffbd c653 b9be c43d 38be
00000100: 9ca4 a7be 545e 83bd 8ca9 21be f14f 9eba
00000110: b4bd 923e 4964 4a3e 0887 883e 4b41 72be
00000120: 297c 5c3e 4041 3b3e f44c 223e 22ec 843d
00000130: 8f7b 223e d096 553e 7f73 203e c558 aabb
00000140: 33f2 5fbe 4b7b 6c3e 1831 9d3e 0ecd 43be
00000150: e993 553d 8303 033e 5b52 1b3e a907 513e
00000160: 0a5a d0bd 523e 2b3e 81b6 2ebe 3324 a6be
00000170: 77fc 973d bafd 0cbe 828c 0fbe 4ba3 a8be
00000180: b1a4 993d 6d33 083e 2fbc f3bd 6a58 26be
00000190: b97c 873e 2509 8cbe 9be9 203e a9cb 7fbe
000001a0: bc88 723d ad39 39be d2f8 79be 97c2 dabd
000001b0: 065f 813d 7bb6 38bd 1cad 98be 2d33 063e
000001c0: 8c9d 123c 5e3c 163d 9696 2c3d 2c75 c9bc
000001d0: f502 0abe 372a 253e 842e 2d3c 874c 383e
000001e0: ea88 bcbd a1bd 9ebe b318 623e 11ee a2be
000001f0: 6721 2dbe d5bb d2bc 95db 173d 244c 02be
00000200: 4de9 053c ca8d 72bd 25d1 513d 29c9 afbe
00000210: 0042 2a3e 9705 8c3e 43eb 0ebe b66d cb3d
00000220: 301e c63d 31cc 433d 8221 7b3e 5436 423e
00000230: 2f4f b2bd e3af acbd 7f5e 4cb9 4352 a4be
-0.09920874 0.18970565 0.052242972 0.1922645 -0.013074706 0.29581553 0.12944537 0.36342123
0.07337997 -0.04271005 -0.2848543 -0.022471556 0.07702137 -0.13750754 -0.05156813 0.035840567
0.032788996 -0.24298199 -0.23280238 -0.3642468 0.081822865 0.11645993 -0.14003247 -0.2549875
-0.3043055 0.24593842 -0.38389054 -0.047165275 -0.27745172 -0.339164 -0.2900128 -0.19799331
-0.13957265 -0.087189235 0.12741837 -0.08405523 0.14081764 -0.07995888 0.13724737 0.0022429577
0.19359386 0.16887504 -0.17004997 0.1603152 -0.15191463 -0.05409164 0.23166528 -0.053661965
-0.0770948 -0.2573261 0.23926611 -0.25127462 0.07299996 0.014256115 -0.2423523 -0.35256177
-0.33853015 -0.0070377574 0.20059709 -0.39330983 -0.09897251 -0.12473538 -0.36196727 -0.17992312
-0.32742774 -0.06414476 -0.15787333 -0.0012078268 0.28660357 0.19764818 0.2666552 -0.2365772
0.21531738 0.1828661 0.15849668 0.06490351 0.15867446 0.20858312 0.15669058 -0.0051985704
-0.21869735 0.23093908 0.30701518 -0.19121191 0.05214301 0.12794308 0.15168135 0.20413078
-0.101734236 0.16722992 -0.17061807 -0.32449493 0.07421201 -0.13768664 -0.14018443 -0.32937083
0.075021155 0.13300867 -0.119011275 -0.16244665 0.26462343 -0.27350727 0.15714113 -0.24980034
0.05921243 -0.18088408 -0.24411324 -0.10681646 0.063169524 -0.045095902 -0.29819572 0.1310546
0.008948695 0.036678664 0.042135797 -0.024592005 -0.1347769 0.16129385 0.010570172 0.17997943
-0.09205802 -0.3100405 0.22079735 -0.31822255 -0.16907273 -0.02572433 0.037074644 -0.12724358
0.008173299 -0.05921725 0.051224846 -0.3433316 0.1662674 0.27348015 -0.13956933 0.09933035
0.096737266 0.047802154 0.24524501 0.18966037 -0.08706509 -0.08431985 -0.00019490159 -0.3209401

conv1.bias f4 [16]
00000000: 5646 0fbc 042f afbe 6574 d2bd 82c1 773e
00000010: 8bba 23be f1d0 a23d c023 02bc 7a2c 7dbe
00000020: 939b 873e 63e9 4b3d 67bd 31be 54cd 88bd
00000030: eb8a 213d 3830 bc3d d1fd 95be 10cc 1fbe
-0.008744797 -0.34215558 -0.10276107 0.24194911 -0.15989129 0.07950009 -0.007943094 -0.24723998
0.2648588 0.04978312 -0.17357408 -0.06679788 0.039439123 0.091888845 -0.2929521 -0.15605187

conv2.weight f4 [16, 16, 3, 3]
00000000: 73fc 813d efb5 9e3c f1cd 64bd dc58 0abd
00000010: d9f8 9bbc 3230 1dbd afb8 723c b628 ebbc
00000020: e50c 8dbc ae5b 41bd 49c2 773d 5d35 333d
00000030: 307e 7e3d 2081 f33d c509 70bb b9bd 4bbc
00000040: 814f a23c 8d3e 24bb dbd6 5dbd 82b8 033d
00000050: c55d 723d b8c4 94bd 4fa1 dd3c e02b ea3d
00000060: 10c5 00bd f785 4b3d 9a79 41bd f239 9f3d
00000070: d945 823d 3e86 27bd 8179 2b3d 6b3a cb3d
00000080: e488 5d3c af67 20bd b296 9b3d f781 913c
00000090: 4799 8a3d 4342 ecbc d4bd 1b3d 06b7 af3d
000000a0: 60c9 7dbd 3d34 383d fde7 b33c 0003 45bc
000000b0: 8863 cbbc 0046 763b fc61 0ebc 7b50 b0bb
000000c0: bd44 e63c d9b5 89bc 5b57 2dbd e539 edbc
000000d0: feff 303d 505d 523d 1abb 92bd 9fa4 bebd
000000e0: 236b b93d 8096 6a3d 4ad1 193d ebca c63d
000000f0: 5ff9 9c3d e16f 64bd 15b5 48bd da5f 193c
00000100: a9ff 3cbd 0bcc ecba 0dc7 56bd bf9a 5a3d
00000110: fb8f ac3c e7f0 183d a5cf c7bb b5d6 9d3b
00000120: 08f7 3cbd fb61 cfbc c6d9 42bd 638d e83c
00000130: 5332 54bd d691 6c3d ec73 3dbd f583 f6bc
00000140: 6c57 85bc 0071 9ebd 7945 37bd 16b4 1cbd
00000150: 9268 353c ba75 72bd e3be 8cbc 61fb 053d
00000160: 7aba 1b3d ba0c a63b 61f1 a0bc 076a 65bc
00000170: 4914 da3d e118 8a3c 77ae b53d 8fcf 053e
00000180: d983 10bd a288 013d a889 46bc 4abc 8a3c
00000190: e83f eabc 4cbb 143d 3e58 0abd 38fe 62bd
000001a0: 96ae a53d 6706 1c3d 8fea 45bd 6c8c 04bd
000001b0: 04d8 03bd c575 393d 9477 70bc 001e 853d
000001c0: c156 083c b8de 0f3d dcbc f3bb 9821 91bd
000001d0: 752c ac3c 359d 1b3d 6c75 383c abb1 56bc
000001e0: dcf1 293d c84e df3c 208d dc3c cb32 d5bc
000001f0: 5a4e 1cbd 2249 6abd 06fe 113d 9e7b 603d
00000200: 320d 4a3d ea65 893d cb09 d9bb 822d 0cbd
00000210: 6c31 29bc 82d2 e3bc 46aa b33c 3765 c73d
00000220: af8b c8bb 7c32 983d 6616 a53d 91f8 74bd
00000230: c8b5 3439 2b6d 99bd 88ea 1ebd c7ab 153d
00000240: 9efe dfbc 9d6e 65bd 9dd7 00bd eb45 903d
00000250: 33d1 88bc cf07 d3bd 5716 5d3d dd90 64bc
00000260: 2a02 a2bd b273 c7bb 6182 3fbd 975f bd3d
00000270: cd8c 9abd e578 ad3d 6506 383d 5d3e 97bd
00000280: 2a21 893d 964e c2b8 5178 c4bb cc0c 9abc
00000290: 01ca 423c b857 a83d 6ec8 80bd 64f3 853d
000002a0: 026d 923d 68c5 8f3d a38f 2a3d fe47 8c3c
000002b0: 1cd1 833d dd4a 1b3d ef33 793d 855d 543d
000002c0: c2d8 c3bb 8004 8a3d e711 65bd 84c3 ad38
000002d0: 47b9 54bd 5478 973d 4d0e 33bc f769 0bbb
000002e0: ea2b fabc 8b11 003d f9d2 d83c 8361 8cbd
000002f0: 3062 aabd 4017 943d 3d9d 5c3c a306 353c
00000300: 2e8b 68bc f597 37bc 7eda 8b3d 380a 80bc
00000310: 8c62 853d 7691 e33c c058 a63d 20a3 1fbd
00000320: b880 943d deb0 9e3c 2bf7 63bd 9154 953c
00000330: ce12 42bd dea7 85bd 97ca 843d fdb0 6bbd
00000340: 1400 623d a415 e23b ceaa 1c3d fe08 6e3d
00000350: ff2b 953c c30c e2bc 6d28 073d b96c 873d
00000360: f3d2 bbbc e321 92bd 0470 823c 94ae 20bd
00000370: 9537 873d fb95 e8ba 63c6 80bd fcb2 943d
00000380: 1a20 803d f9fa 02bd bcd1 dc3c 21a3 a53d
00000390: fad3 a5bc a8e9 823d 1e3e efbc ed5b 163c
000003a0: d901 61bd fa8d 44bd 50d6 9fbc 1a03 86bd
000003b0: a33e ad3d a430 94bd 252f 2abd 8f1c 833c
000003c0: c1d8 00bc b1b8 c9bb 7236 93bb 8438 a2ba
000003d0: c23e 963d ccb8 fdb9 c382 4d3b 21f5 803d
000003e0: 5117 fc3c 1eca 6abd fbff b5ba 93b7 5cbc
000003f0: 12ac ac3d 7eac 3cbd 3a28 8d3d 815f f8ba
0.06346979 0.019373862 -0.055860464 -0.03377615 -0.019039558 -0.03837604 0.01481454 -0.028705936
-0.017218063 -0.047206573 0.06048802 0.043752063 0.06213206 0.11889863 -0.0036626917 -0.01243537
0.019813301 -0.0025061697 -0.05415998 0.032158382 0.059171457 -0.072640836 0.027054457 0.1143415
-0.031437933 0.049688306 -0.04723511 0.07774724 0.06360979 -0.040899508 0.041863922 0.09923252
0.013521407 -0.03916138 0.07597102 0.017762167 0.067675166 -0.02884019 0.03802283 0.08579831
-0.061959624 0.044971693 0.021961207 -0.012024641 -0.024827734 0.0037578344 -0.0086903535 -0.005380688
0.028108949 -0.016810345 -0.042319637 -0.02895827 0.043212883 0.05135852 -0.07164593 -0.09308743
0.09053638 0.057272434 0.03755311 0.09706672 0.07664751 -0.05577076 -0.04900082 0.009361232
-0.046142254 -0.0018066181 -0.052435923 0.053370234 0.021064749 0.037339117 -0.006097751 0.004816855
-0.046134025 -0.025315275 -0.047570966 0.028387731 -0.051805805 0.057756267 -0.04625313 -0.030092219
-0.016277038 -0.07736397 -0.04474399 -0.03825768 0.011072295 -0.059194304 -0.017180866 0.032710437
0.038019635 0.005067435 -0.019646348 -0.01400233 0.106484 0.016857566 0.08871167 0.13067459
-0.03528199 0.031624444 -0.012117781 0.016935486 -0.028594926 0.036311433 -0.03377556 -0.055418223
0.0808994 0.038092043 -0.048319396 -0.03236048 -0.03218843 0.04527833 -0.014676947 0.06499863
0.008321465 0.03512451 -0.0074382853 -0.070864856 0.021017293 0.03799172 0.011258464 -0.013103883
0.04149042 0.027259246 0.026922762 -0.026025197 -0.03816066 -0.05719865 0.035642646 0.05480539
0.04932899 0.06708892 -0.006623482 -0.034223087 -0.0103267245 -0.027810339 0.021931779 0.09736102
-0.006120167 0.07431504 0.08060913 -0.059807364 0.00017233856 -0.07491525 -0.038797885 0.036540773
-0.02734309 -0.056013692 -0.031455625 0.07044586 -0.016701316 -0.10304224 0.053976383 -0.013950554
-0.07910569 -0.00608679 -0.0467552 0.09246748 -0.07546387 0.084703244 0.044927973 -0.07384942
0.06695779 -9.265279e-05 -0.005995788 -0.01880493 0.011888982 0.08219856 -0.06288229 0.06540564
0.07149698 0.07020074 0.04164089 0.017124172 0.06436369 0.037913192 0.060840543 0.051847
-0.0059767673 0.067391396 -0.055925276 8.2857005e-05 -0.051934507 0.07395998 -0.010928703 -0.0021272877
-0.030538518 0.03126673 0.026467787 -0.068545364 -0.08319509 0.07230997 0.013465223 0.011048946
-0.014193339 -0.011205663 0.068287835 -0.015629873 0.06512937 0.027779322 0.081223965 -0.038973927
0.07251114 0.019371446 -0.05565564 0.018228801 -0.047381215 -0.06526159 0.064839534 -0.057541836
0.055175856 0.0068995524 0.03824883 0.058114044 0.018209456 -0.027593976 0.032997537 0.06612534
-0.022927737 -0.0713537 0.015922554 -0.03922899 0.06602398 -0.0017744893 -0.06287839 0.07260701
0.06256123 -0.031977627 0.026955478 0.08087755 -0.02024268 0.06392223 -0.029204424 0.00917719
-0.054933403 -0.047986962 -0.019511372 -0.0654356 0.08459213 -0.0723584 -0.041548867 0.016004829
-0.007864178 -0.00615605 -0.0044925744 -0.0012376462 0.07336189 -0.00048393605 0.0031358458 0.06296755
0.030772837 -0.05732166 -0.0013885492 -0.013471502 0.08431257 -0.04606294 0.06892438 -0.0018949361

conv2.bias f4 [16]
00000000: 8bad 9abd 094b 5c3d f1f8 143d dccd 02bb
00000010: f4f1 443d 3f5d 73bc ed18 553d 2f30 8abd
00000020: 80d8 1239 8ddc 58bd 26c3 9c3d 6510 11bd
00000030: 86aa 633d ef79 aabd 5523 1abd b615 5d3d
-0.07552632 0.053782497 0.03637022 -0.0019959128 0.048082307 -0.014853775 0.052025724 -0.067474715
0.00014004298 -0.05294471 0.07654409 -0.035416026 0.055582546 -0.08324038 -0.03763135 0.053975783

bn11.weight f4 [16]
00000000: 7fa4 7e3f 1888 853f 55ea 7e3f cf6a 833f
00000010: 3525 7a3f ebc9 763f fb2c 823f 1b95 743f
00000020: 2f93 7f3f 4b13 7b3f 65fb 853f 7b22 813f
00000030: dd44 823f 3cc2 863f 4660 7f3f 827c 813f
0.9946975 1.0432158 0.9957631 1.026697 0.97713023 0.9640185 1.0169977 0.95540017
0.9983396 0.98076314 1.0467345 1.0088648 1.0177265 1.0528026 0.99756277 1.0116122

bn11.bias f4 [16]
00000000: e84c df3c 4b0d 333b 4047 e9bb ff63 0d3c
00000010: d33f d53b 78a2 323c b2a2 08bc aa04 7abc
00000020: e9bd 283c 835d 163c aa7a c6bc bbec 57bc
00000030: b87c 7c3c 7ca5 4b3c be92 d53c fce4 893b
0.027258351 0.0027321156 -0.0071190894 0.008629798 0.0065078526 0.010902993 -0.008339571 -0.015259901
0.010299184 0.009177568 -0.024228413 -0.013179 0.015410595 0.012429591 0.026070949 0.0042082053

bn11.running_mean f4 [16]
00000000: a1d6 043c 50d7 b3be d297 f6bd 172d 643e
00000010: e8e1 1dbe bb89 9e3d 363f 05bd 1c3b 80be
00000020: 0952 8e3e 6186 813d 3a7c 3fbe 7561 9ebd
00000030: 5693 143d a3bd b13d 2cf1 96be 2d2b 1dbe
0.008107812 -0.35125208 -0.12040676 0.22282825 -0.15418208 0.07741114 -0.032530986 -0.25045097
0.27796963 0.06324459 -0.18699732 -0.07733432 0.036273323 0.086787485 -0.29480875 -0.15348502

bn11.running_var f4 [16]
00000000: edb8 683a 137b c239 7d6e 893a 7f72 b43a
00000010: e399 9839 b260 7e39 de9a e43a f2eb 313a
00000020: 89d0 613a c019 4a3a a6eb 783a d14f f339
00000030: 2a4a 5739 31be 393a 5200 e539 f8e2 1a3a
0.0008877654 0.0003709426 0.0010485199 0.0013767033 0.00029106354 0.0002425935 0.0017441174 0.0006787173
0.0008614143 0.00077095255 0.00094955636 0.0004640804 0.00020531626 0.00070855307 0.00043678522 0.0005908455

bn12.weight f4 [16]
00000000: 5336 853f 46fd 7d3f 706a 7d3f 763c 803f
00000010: 6e5d 7f3f 8139 863f fe83 783f dc51 7f3f
00000020: a504 7c3f c650 823f 0ad4 823f d98d 7e3f
00000030: 0537 833f bd5d 803f d28d 7c3f eef8 7d3f
1.0407203 0.9921459 0.98990536 1.0018451 0.9975194 1.0486299 0.97076404 0.9973428
0.98444587 1.01809 1.0220959 0.9943519 1.0251166 1.0028607 0.986539 0.9920796

bn12.bias f4 [16]
00000000: a3f4 bb3c e341 c93b 3959 3b3c 2518 da3c
00000010: ee5f c13b 0e4e 503d d033 c63c 8084 513c
00000020: e870 e2bc f75b 093c c989 9dbb 2078 4b3c
00000030: dac8 02bc e4a3 ec3c e3af da3b a585 17bd
0.0229438 0.0061418875 0.011434847 0.026622841 0.0059013283 0.05085569 0.024194628 0.012787938
-0.027641729 0.0083837425 -0.004807685 0.012418777 -0.007982457 0.028886743 0.0066737994 -0.036992688

bn12.running_mean f4 [16]
00000000: da6f 573e 6a66 843e a3d8 743e 035e 663e
00000010: 3e6b da3d 1c60 29bd 3674 01bc d437 09bf
00000020: 977e 553e 83e8 41bf 263b 9abe c5bd 90be
00000030: 81fc 47be a520 43be 6df4 a5be d9c9 323f
0.21038762 0.25859386 0.23910765 0.224968 0.10664986 -0.041351423 -0.007901242 -0.5360081
0.20849071 -0.7574541 -0.30123252 -0.28269783 -0.19529916 -0.19055422 -0.32413045 0.69839245

bn12.running_var f4 [16]
00000000: 5db2 e43d b949 e33d 9c3a 0e3e 0bb5 c63d
00000010: 436b b43d b02a bc3d c9a4 f73d 1b73 5b3e
00000020: 758d da3d 6811 293e 6c66 933e 68bf a53e
00000030: 11c9 853d b367 eb3d e42d 053e ba10 0a3e
0.111668326 0.11098046 0.13889545 0.097025 0.08809521 0.091878295 0.12091977 0.21430628
0.10671512 0.16510546 0.2878908 0.32372594 0.06532491 0.114943884 0.13005787 0.13482943

conv3.weight f4 [32, 16, 3, 3]
00000000: 663c b53d c2a2 0ebd eea2 5d3d 070a ce3d
00000010: 7725 003e 1a00 153d 00ee 153b ed4f 9ebd
00000020: 95e2 d43d 56f4 eabc 1238 7e3c 490f 2c39
00000030: ad74 933c 25a4 033c ccb7 cd3d 75fd e13b
00000040: 466f 2fbd ee97 b2bb 9b9c 983d cd24 a73d
00000050: 9b7a 713d 12c3 583d e214 acbb d4c2 3c3d
00000060: a218 3d3d bb3e 483d 0e53 9e3c ecad e4bc
00000070: 396b 07bd 9564 04bc f993 48bc 1cfe 5dbd
00000080: 5acb 15bd 6fc5 63bb a173 873d ac90 f13d
00000090: 8da3 953d 0286 1d3d b08c 6f3d 1730 02bd
000000a0: 8e0b 3e3d 6671 61bd d580 cdbc 9b12 fb3c
000000b0: c10c 893d 30da 2abd 6dd9 3ebb 3c1d 7a3d
000000c0: 6a9a 71bd 8781 8abc ef44 013d f654 0ebd
000000d0: c1d5 16bc 081e cb3d f39e f6bb a65a d43c
000000e0: bded 01bd 5a6c 49bb f9a8 b9bc 699e 923d
000000f0: 4e9d 103d fa7c 68bc 1189 8b3d 1174 8f3d
00000100: ec0e 9e3d 7e39 2bbd 9378 8bbd 23ad 8c3c
00000110: 96d3 4a3d 1dbf 84bd e806 53bd bd1f 853d
00000120: 9464 cabb d343 0abd 4876 493d e113 b4bc
00000130: e890 9e3d 4ef0 28bd ca12 e83c 2a30 993b
00000140: c934 66bd 7217 573d dc3f 0abd b965 57bd
00000150: 8411 0d3d 08ad 903d d78e 383d fa8b 0dbd
00000160: 2b1d 733d 51b8 9fbd 389e 02bd c454 14bc
00000170: 0b93 303c fab1 13bd f0a8 c23d 9e0a 8c3c
00000180: 8401 5fbd 60d4 a7bc 8331 3ebd 97b7 9ebc
00000190: a165 3d3d 907d 343d c549 d2bc 3661 c43b
000001a0: c0a5 06bd 9399 603c b364 6b3d d562 8b3d
000001b0: 1e66 2a3c 4bd9 6fba b812 bcbc 584f 2dbd
000001c0: 5841 e2bc 4ed7 103d 89b3 c43c f447 593d
000001d0: ffea db3a dff2 213d 7b59 dabc 9e42 b03c
000001e0: 9dcc b6bb bd6f efbc 24cf 99bd 8bd6 a5bd
000001f0: 5c5e e03b 1b04 443d 3975 bd3c 2b12 9d3d
00000200: 8429 fcbc 3542 313d 20fb 3cbd a60f a03c
00000210: e048 b63d a508 02bd 28a1 41bd df58 0f3d
00000220: 1d24 933d b291 18bd 8aa4 d73d b6bd e83b
00000230: f349 90bd c409 8d3d 5c70 423d ca59 92bc
00000240: 93a6 d5bd b5b9 ff3c 0c95 1ebd d46c 4cbd
00000250: 2ec2 01bd 9e12 eb3c 9d6a 07bd 9989 edbc
00000260: 6b9e e0bc 3036 81bd e6b5 bfbd c56b a7bd
00000270: 2298 ccbd b76d 543d e1e2 37bc 1bac b7bd
00000280: 91bc 63bc 0996 81bd 0ce6 adbd 16ff 1d3d
00000290: d069 463d d00f e3bc 452e 33bd 8622 9e3d
000002a0: b38d debc f1b0 a13c 8504 68bd bb3b d33c
000002b0: ac5d 493b 8605 8c3d 3cea 21bd cadd ff3c
000002c0: 533f a0bc 65e2 943d d869 c4bc 661f 87ba
000002d0: 973a d13c 9889 f4bc c5c2 943d 0dd7 99bd
000002e0: 0ca8 eabc 2f3d 89bc c45f 36bc b61f 8638
000002f0: feed 2b3d 7d70 d7bc 0c45 233d a691 20bd
00000300: 69fc c7bd f6ed f9bc ce37 d63c be0d f33c
00000310: 9cf2 563d 768b 8c3c cde5 7abd 4213 d03c
00000320: b9d3 cabb c114 c13a 5bff 45bd d1ef f5ba
00000330: 1800 c03b 5467 6b3d ef25 37bd be85 5d3d
00000340: c108 81bc 9145 6cbd bda2 45bd 0e1c 3dbd
00000350: dde5 05bd 49f1 7b3d 3aa4 473d 3608 6b3d
00000360: 987c 4abd 0fa0 14bd 26f9 143d 3d2e 063d
00000370: d61a 773d 2cd7 f93c dd22 873d b2dc 943d
00000380: 60aa 833d 5716 3bbb aa3c eb3c 9b5c 1f3d
00000390: 5f28 74bd 7dd0 f13c 8a52 fe3b 796e 8d3d
000003a0: 47e5 c2bb 624e 8fbc 1485 93bd dd13 b2bd
000003b0: 8b02 16bd 64a5 dabd a3ec 3e3d 2055 a03c
000003c0: 25c2 86bc f834 653d 40a1 d7bc ec23 17bd
000003d0: e5fe b23c 0b12 74bd 9866 173d 72cc 71bd
000003e0: 73c3 803c 10bb 4e3d c97a 91bd 883b 883d
000003f0: 89a2 17bd 1074 89bd 41fc 8b3d e0f4 323c
0.08849411 -0.034823187 0.05411046 0.10060506 0.12514292 0.03637705 0.0022877455 -0.077300884
0.103947796 -0.028680962 0.015516298 0.00016408892 0.017999971 0.008034741 0.10044822 0.0068966695
-0.042830728 -0.0054502403 0.07451745 0.08161316 0.058954816 0.05292041 -0.005251513 0.04608424
0.04616607 0.04888795 0.019326713 -0.027914964 -0.03306124 -0.008080621 -0.012242311 -0.054197416
-0.036570884 -0.003475513 0.06613851 0.11795172 0.073065855 0.038457878 0.05848378 -0.031784143
0.04639774 -0.055039786 -0.025085846 0.03064852 0.06691886 -0.041711986 -0.0029121295 0.061063036
-0.05898515 -0.016907467 0.03155988 -0.034748994 -0.009206236 0.099178374 -0.0075262724 0.02592213
-0.031720866 -0.0030734749 -0.02266358 0.071591206 0.035306267 -0.014189953 0.06813253 0.0700456
0.0771769 -0.041802876 -0.06810107 0.017172402 0.04951819 -0.064817645 -0.05152026 0.06500194
-0.0061765406 -0.03375609 0.049185067 -0.021982135 0.077424824 -0.041244797 0.028329272 0.004674931
-0.056202684 0.052512594 -0.033752307 -0.052587245 0.034440532 0.07064253 0.045058098 -0.03455732
0.05935399 -0.077988274 -0.03188917 -0.009053413 0.010777245 -0.036058404 0.095048785 0.017094906
-0.054444805 -0.02048701 -0.046433937 -0.019374652 0.0462395 0.04406506 -0.025669942 0.0059930338
-0.032872915 0.01370849 0.05746908 0.0680596 0.010400323 -0.00091495056 -0.022958145 -0.042311996
-0.027619049 0.03536158 0.02401139 0.053047135 0.0016778408 0.03953826 -0.026653996 0.02151614
-0.005578591 -0.029228086 -0.07510212 -0.080975614 0.006847186 0.047855478 0.023127185 0.07669481
-0.030781515 0.04327603 -0.04613793 0.019538712 0.089006186 -0.031746525 -0.04727283 0.034996863
0.071846224 -0.03724832 0.1052943 0.0071026934 -0.07045355 0.06886628 0.047470436 -0.01786508
-0.10432162 0.031216482 -0.03871636 -0.049908474 -0.031679325 0.0286954 -0.03306066 -0.028996276
-0.02741929 -0.063091636 -0.09360866 -0.08174852 -0.099899545 0.051862445 -0.011223526 -0.089683734
-0.013899938 -0.06327445 -0.084911436 0.038573347 0.048440754 -0.0277175 -0.043745298 0.077214286
-0.027167177 0.019737693 -0.056644935 0.025785318 0.0030725999 0.06836991 -0.039530024 0.031233687
-0.019561445 0.07269744 -0.023976251 -0.001030904 0.025540633 -0.029850766 0.07263712 -0.07511721
-0.028644584 -0.016752807 -0.011131231 6.3955245e-05 0.041975014 -0.026298756 0.03986077 -0.0392014
-0.0976494 -0.030508976 0.026149657 0.029669639 0.052477464 0.017156344 -0.06125431 0.025399808
-0.00618979 0.0014730917 -0.04833923 -0.0018763487 0.005859386 0.05747159 -0.04471391 0.054082625
-0.015751245 -0.05768353 -0.048250902 -0.046169333 -0.032689918 0.061509404 0.048740603 0.057380877
-0.049435228 -0.036285456 0.03637042 0.03275894 0.060328327 0.03049811 0.065984465 0.07268657
0.06428981 -0.002854725 0.02871545 0.038906675 -0.059608813 0.02951836 0.0077613043 0.069058366
-0.005947742 -0.01749343 -0.07203117 -0.08695195 -0.03662352 -0.10676077 0.046612393 0.01957184
-0.016449997 0.055958718 -0.026322007 -0.036899492 0.021850059 -0.05958752 0.036963075 -0.059032865
0.015718197 0.050471365 -0.071034975 0.0665198 -0.03702024 -0.0671159 0.06835223 0.010922641

conv3.bias f4 [32]
00000000: 5fce 143d efc1 cd3c 578d c2bc 7136 79bd
00000010: 10c2 b23c 1ba9 353d e145 8d3d b07b bebc
00000020: 1f02 d33c 8498 7c3d 09d2 eeba 4ba4 12bc
00000030: 9879 b1bc bbe3 143d 58bb 4abc b843 4c3d
00000040: e542 20bd 4cad 9c3a c57a 2ebd 11c0 9ebb
00000050: 4b35 acbd 3d63 b1bc c4b3 bf3c 59a8 803d
00000060: 6fd7 a0bc 13c8 543d c9a2 213c e662 3f3d
00000070: 28d1 9b3d 63c5 01bd 08b7 a6bd fee4 883d
0.036329623 0.025116889 -0.023749037 -0.060842935 0.021821052 0.044350725 0.06898094 -0.023252338
0.025757847 0.061668888 -0.0018220554 -0.008950303 -0.021664426 0.036349993 -0.012373768 0.04986927
-0.039126296 0.0011953502 -0.04259755 -0.0048446734 -0.08408602 -0.021653766 0.023401149 0.0628211
-0.019633977 0.05194862 0.009865471 0.046725176 0.07608253 -0.031682383 -0.08140379 0.06684302

conv4.weight f4 [32, 32, 3, 3]
00000000: 0b89 37bd 6dea bebc 3a0e 2a3d e882 86bd
00000010: a821 b8bc 1466 f5bc abe6 413b 8404 34bd
00000020: b145 1e3d 0994 963c 84c6 2abd d8d6 36bd
00000030: b902 143d d26d b83c 445a 6cbd c2ec 3dba
00000040: 4c9b cabc 886c 01bd ed7e f7bb 6862 0b3d
00000050: 38c2 f5bc 3d2a 11bd 0908 66bd afcd 893c
00000060: 4bea e53c 82fb 2bbd 4a55 753b 989b 3e3b
00000070: 3eca 44ba a00e 8d3c 93fc 86ba 7120 ceba
00000080: 7206 ed3c 1acf 84bd 954d 0ebd c8b6 e7bb
00000090: 43d4 463c 28da 873b 3132 12bd 53ce f93c
000000a0: 82c0 63bc af90 453d d24d 73bd d18e 44bd
000000b0: f5a9 ef3c 069b 943a be04 2dbd c1fb 14bd
000000c0: c96f caba 8bb0 84bd a8c6 81bd dc15 99bd
000000d0: e802 3f3c 115c 13bd a469 193d 448e 00bd
000000e0: d05d 15bc 4a69 f93c 2e8a 04bd 796f 2b3d
000000f0: 3eb5 453d 86ec 42bd 8884 03bd 7c38 df3c
00000100: 3ea2 9cbc eb0a eabc 6fc7 df38 6e35 633c
00000110: f340 6cbd d710 73bd 8814 6e3c e7f9 53bd
00000120: 43e2 76bc ddfb 923c 18d6 2e3d 93dc 163d
00000130: fcb3 193d 26ca 24bc 0b10 c639 1d7d adbb
00000140: 9ac3 693d 2bb6 243d 727d fb3c 018f 5a3c
00000150: 5ae8 45bd b043 08bc fa9a 74bb 7790 37bd
00000160: 5d72 803c f949 2fbc 219a 21bd 0784 063b
00000170: aec3 26bd 915f f43c 4b0a 5e3c 141a 173d
00000180: fb38 203d 6a4d 413d 59ec babc 405f 6dbc
00000190: 4dce 763c 6c29 bbbc 0f9f 0cbd 03f5 483d
000001a0: e0b2 34bc 25be 193d ed7d 5dbc fae2 393d
000001b0: 21db d73c 5143 1b3c 6b23 da3c 2135 70bd
000001c0: cf16 92bc e28c ae3c 27b0 1dbd 953d 3fbd
000001d0: ef14 1dbd 9347 86bc dfe4 81bd 2da6 02bd
000001e0: 8ef0 c4bb 9b40 e2bb 2c0e 33bd af70 503d
000001f0: e500 683c dd3f 52bd 5bac 313d 5073 053d
00000200: 35ca 11bc 34b5 f4bc ba47 4b3d 8a51 803c
00000210: f500 6abc 5770 3bbd 5328 78bc 16ef 753d
00000220: 467c 633d da69 763d ec97 7b3d 16a6 9c3c
00000230: 1dfb 59bb d94b 293c 6c5e 853d 358f 113d
00000240: 1652 e33b 989b 0bbc 5951 2637 378c 3e3d
00000250: 3f4a d1bc 12b4 4c3d 6feb 563d 09db 4dbd
00000260: 8515 86bc b269 f53c ec77 e7bc 6384 ba3b
00000270: 8519 53bd 0057 52bc ae0e f8bc 6bac a33b
00000280: 7515 e73c 2d07 edbc cbad 48bd 5016 cfbc
00000290: a185 8cbc 9c76 863c 0c8a 863c 95b7 25bd
000002a0: 3b78 28bd a223 853a 923c 9eb8 3785 0d3d
000002b0: 5f09 d83c a547 e73c 83ab 3c3d 4a09 db3c
000002c0: 6f3c 433d 8207 533d ccc0 463d 4404 7b3d
000002d0: 0be8 e13b bbe1 033d a737 f93c 42c3 553d
000002e0: d1b1 403d 3efb 333d 10f2 b0bc e7f3 be3c
000002f0: d8d5 0bbd 9bc7 31bc 8be4 4dbc 7265 0a3d
00000300: e881 2ebc 3fce dfbc da80 3ebc cddd ad3b
00000310: ebee 1cbd f375 903a d675 1ebd 66ac 47bc
00000320: d475 053c bec4 37bd e9df 0e3c 01c4 a2bb
00000330: 9871 de3c c3e9 183d 3d44 43bb 9796 1ebd
00000340: 8c48 f53c 0081 11bd f339 36ba cf8e 59bd
00000350: edf2 9bbc 3ab2 1f3c c270 9b3c e380 14bd
00000360: 6d46 d73c 787b c43c 27b1 903c 2018 66bd
00000370: 6fda 7abd fb1a e5bc 6453 73bd 66db 0e3d
00000380: 4162 21bd b926 673c 644b a33c cc90 6bbc
00000390: ed28 2ebc 0dbf 0dbd 9b70 6b3c 3b22 ab3c
000003a0: bc52 5a3c 9c71 8dbc d1ac 983b afac 62bb
000003b0: e8c8 1bbc f0cf 6abd 1f9d d8bc 8600 013b
000003c0: b3e3 2f3d ec4e 4d3c b962 0abd bf8c aebb
000003d0: 79ea 0d3d 3681 f6bc b0ed 7a3b 2ad8 6fbc
000003e0: 6a5c 48bd 3bc7 4d3d cadf ef3c 018c 043d
000003f0: f25c f7bc 0e6f 7a3c 4a65 e1bc 49e9 dbbc
-0.04480843 -0.023305142 0.041517474 -0.06567937 -0.022476986 -0.029955901 0.0029586952 -0.04394962
0.03864068 0.018381136 -0.041693226 -0.044638485 0.03613541 0.022513304 -0.05770327 -0.00072450575
-0.024732254 -0.031597644 -0.0075529725 0.034029394 -0.029999837 -0.035440672 -0.056160007 0.01682171
0.028065821 -0.041987903 0.003743487 0.002908444 -0.0007506943 0.017218888 -0.0010298662 -0.0015726221
0.028933737 -0.06484814 -0.034741957 -0.00707135 0.012135568 0.0041458793 -0.035692398 0.03049389
-0.013900878 0.048233684 -0.059400387 -0.047987763 0.029255847 0.0011337704 -0.04224085 -0.036372904
-0.0015444692 -0.064789854 -0.06336719 -0.074748725 0.011658408 -0.035976473 0.037454262 -0.031385675
-0.009116605 0.030445714 -0.03235834 0.041854355 0.04826855 -0.047588848 -0.032108814 0.027248614
-0.019120332 -0.02856966 0.00010670616 0.013867719 -0.057679128 -0.05934223 0.014531262 -0.051751997
-0.015068593 0.017942363 0.042684644 0.03683145 0.037525162 -0.010057962 0.00037777456 -0.0052944557
0.057071306 0.04021279 0.030699465 0.013339759 -0.04831729 -0.008316919 -0.0037323819 -0.044815507
0.015679533 -0.010698789 -0.03945363 0.0020525472 -0.04071396 0.029830726 0.013552259 0.036890104
0.03911684 0.04719297 -0.022817777 -0.014488041 0.015063834 -0.0228469 -0.034331378 0.049061786
-0.011028975 0.03753485 -0.013518793 0.045382477 0.026349606 0.009476499 0.026628217 -0.058644418
-0.017833142 0.021307413 -0.03849807 -0.04668959 -0.038350042 -0.016391551 -0.06342482 -0.03189676
-0.0060101217 -0.006904674 -0.043714687 0.050888713 0.0141603695 -0.051330436 0.04337726 0.032580674
-0.008898308 -0.02987156 0.04962895 0.01566388 -0.014282455 -0.045761432 -0.015146333 0.060042463
0.05553844 0.06015954 0.06142418 0.019122165 -0.0033261247 0.010333025 0.0651215 0.035536963
0.0069372756 -0.008520983 9.913311e-06 0.046520438 -0.025548099 0.049976416 0.05247062 -0.050257716
-0.016367683 0.029957626 -0.028255425 0.0056920513 -0.05153801 -0.012838125 -0.030280437 0.004994919
0.028208474 -0.028934086 -0.048993867 -0.025279194 -0.017153563 0.01641398 0.016423248 -0.04045828
-0.041130286 0.0010157714 -7.545309e-05 0.03455087 0.026371656 0.028232405 0.046062004 0.026737828
0.047665056 0.051520832 0.04852371 0.061283365 0.0068941168 0.032197695 0.030422045 0.052188165
0.04704458 0.043940775 -0.0215998 0.023309661 -0.034139484 -0.010850812 -0.012566696 0.033788152
-0.010651089 -0.027320025 -0.0116274 0.0053059817 -0.038313787 0.001102148 -0.038686596 -0.012187099
0.008145768 -0.044865362 0.0087203765 -0.004967213 0.027153775 0.037332308 -0.0029795312 -0.038717832
0.02994182 -0.035523415 -0.0006951384 -0.05311471 -0.019036734 0.009747082 0.018974666 -0.03625573
0.026278699 0.023984656 0.017662598 -0.05617535 -0.06124347 -0.027966967 -0.0594057 0.034877203
-0.039400343 0.014108353 0.01993341 -0.014377784 -0.010629875 -0.03460603 0.014370109 0.020890346
0.0133253895 -0.017266087 0.004659273 -0.003458779 -0.009508349 -0.05732721 -0.026442109 0.001968415
0.04294176 0.0125310235 -0.033785556 -0.005326837 0.03464744 -0.03009091 0.0038288645 -0.01463894
-0.048916258 0.05023883 0.029281516 0.03236008 -0.030195687 0.015285267 -0.027514119 -0.026844637

conv4.bias f4 [32]
00000000: 7a4e 36bd 8823 963b 16c2 053d 20de 5e3d
00000010: 197d 6dbd 8906 1d3d 3e3e e43c a8b5 19bd
00000020: b1d0 fe3b 18bc 54bd 6eb3 153d 1c0e a13c
00000030: 8c75 053d 49f5 a13c 2647 82bb 4b49 40bc
00000040: 6e4d 723d f826 37bd 097b c43c 4f70 a63c
00000050: e457 17bd d2bb 46bd 9f77 b33b 83f1 ad3c
00000060: 77cb 64bd 0225 61bd b0dc 4e3d 3390 4d3d
00000070: d2b1 533d 8466 51bd 7487 44bc 5b3f f4bc
-0.044508435 0.0045818724 0.032655798 0.054411054 -0.05798063 0.03833631 0.02786171 -0.037526757
0.007776343 -0.051937193 0.03654807 0.019660048 0.032582805 0.019770281 -0.0039757667 -0.011736224
0.059155874 -0.044714898 0.023984449 0.020317225 -0.036949053 -0.048518963 0.0054769064 0.021233326
-0.0558581 -0.054966934 0.050503433 0.050186347 0.051683255 -0.051123157 -0.011995185 -0.029815366

bn21.weight f4 [32]
00000000: c166 7c3f 3c51 7e3f 62e4 7a3f cb69 813f
00000010: b96c 823f e8bb 813f ac9e 803f 8a38 803f
00000020: 59b1 803f b864 803f 9dd3 7e3f b758 813f
00000030: 562f 7b3f 4650 803f 3c90 793f 4600 853f
00000040: 5506 803f 3802 7b3f c0cb 823f 3a99 7e3f
00000050: 1ef5 7b3f 6625 813f 69e3 7a3f 020d 813f
00000060: 4b3d 813f f73a 7b3f bd7e 763f 6664 7f3f
00000070: bb2b 813f 2db8 803f 99d3 7e3f 4d1b 7f3f
0.9859429 0.99342704 0.98004735 1.011041 1.018943 1.013547 1.0048423 1.0017254
1.0054122 1.0030737 0.99541646 1.0105199 0.98119104 1.0024498 0.9748571 1.0390708
1.0001932 0.9805026 1.021843 0.99452555 0.98420894 1.0089538 0.9800325 1.0082095
1.009683 0.9813685 0.9628714 0.9976257 1.009147 1.0056206 0.9954162 0.9965103

bn21.bias f4 [32]
00000000: bf9a 503a 7ed4 f23a 114f 98bc f64e 29ba
00000010: 7feb b8bb e46b 3e3c 46ff dbbb 9e39 3bbc
00000020: cfe6 9f3b d09c 033c 5311 d03b 9781 debb
00000030: 1bdd d1bc 5073 ccbc 15ca 8dbc 962b 6f3c
00000040: b6e1 0abd 6ee5 26bd 9754 b0bc af2d 3b3c
00000050: 88de 323c f632 94bb 6f56 f1bc bb7b 493c
00000060: a3c7 f0bb 605e c5bb 4a80 d7bc 3a12 aebc
00000070: cf6b 773b a14a 883c 9f4d b7bc cc81 0ebb
0.0007957629 0.0018526462 -0.01859239 -0.00064586045 -0.0056433077 0.011622403 -0.0067137806 -0.011427311
0.0048798095 0.0080329925 0.0063497215 -0.0067903507 -0.025618127 -0.024957329 -0.017308274 0.014597794
-0.03390666 -0.040746145 -0.02152471 0.011424466 0.010917313 -0.0045226766 -0.02946016 0.012297566
-0.0073480173 -0.0060232133 -0.02630629 -0.021248925 0.0037753468 0.016637148 -0.02237588 -0.0021744845

bn21.running_mean f4 [32]
00000000: d163 ed3f 3338 69bf 6646 a13f a40d a8bf
00000010: fcec 99bf 9d09 9c3f bd58 6fbf b63c d53f
00000020: 951e 9f3e 7dfa 8fbe 5f94 ac3f 1884 83bf
00000030: c3c8 8cbf 6257 a2bf 9047 483f 079f a73e
00000040: b655 fcbc 5d22 34bf 2bbb 79bf 9dfb ad3e
00000050: e936 053d 4002 713f cd4b 05c0 096e 5d3f
00000060: 2bcd ccbe 351c 2abf e0cf 36be c1d9 15bf
00000070: f730 84bf 228e 543f dd2c 3b3f c915 2fbf
1.8546087 -0.9110138 1.2599609 -1.3129163 -1.2025447 1.2190434 -0.9349478 1.6659153
0.3107802 -0.28120795 1.3482779 -1.0274687 -1.0998768 -1.2682917 0.78234196 0.32738516
-0.030802589 -0.70364934 -0.9755122 0.33981028 0.03252307 0.9414406 -2.0827515 0.86496025
-0.4000028 -0.6644929 -0.17852736 -0.5853539 -1.0327443 0.8302938 0.7311533 -0.68392617

bn21.running_var f4 [32]
00000000: 86cc 963f 21bd 1d3f 9157 373f 823f 1a3f
00000010: 2964 e03e 125f e13e b809 a83e 6d9f 823f
00000020: 31de 863d cd88 f03d b517 2a3f bd06 0d3f
00000030: b6f0 e33e 2d01 313f 70eb c73e 70c8 bf3d
00000040: 0bfb 673e 16dc bf3e 2fc4 e23e d52f c13d
00000050: d3ce fb3d fac3 f23e e06b b13f a485 2c3e
00000060: c71b 113e da1c 323e 359e 4b3e 1914 cb3e
00000070: e7f0 eb3e 573f 693e 79e3 ca3e 433e c73e
1.1781166 0.6161671 0.7161799 0.60253155 0.43826416 0.44017845 0.32819915 1.0204903
0.065853484 0.11744843 0.66442424 0.55088407 0.44519585 0.6914242 0.39046812 0.09364402
0.22654359 0.374726 0.442903 0.09432951 0.12295308 0.47415143 1.3861046 0.16847855
0.14170752 0.17393818 0.1988457 0.3966377 0.4608223 0.22778068 0.39626673 0.3891469

bn22.weight f4 [32]
00000000: e91c 823f 0d5a 7e3f e48f 7c3f a350 7f3f
00000010: fadc 783f b71b 7b3f 6341 813f c8c5 803f
00000020: 64b5 7e3f 333d 803f 8b4e 7f3f 14ce 7c3f
00000030: c99e 803f 4681 803f 9169 7e3f db11 833f
00000040: 72d3 803f a26e 803f 12dc 803f 3aa3 813f
00000050: 4fc7 7b3f 10ea 7d3f a5f0 813f 1322 813f
00000060: d99a 7e3f 4160 813f 55b7 813f d8d9 803f
00000070: 21cd 7b3f 5150 803f 4d93 7f3f 533d 7f3f
1.0165073 0.99356157 0.9865706 0.99732417 0.97212183 0.98089164 1.009808 1.0060358
0.9949553 1.0018677 0.9972922 0.9875195 1.0048457 1.0039451 0.9937983 1.0239824
1.0064528 1.0033762 1.006716 1.0127938 0.98350996 0.99185276 1.0151564 1.0088524
0.9945503 1.0107499 1.0134073 1.0066481 0.98359877 1.0024511 0.9983414 0.9970295

bn22.bias f4 [32]
00000000: 734a dabc f322 083c f5e9 553b 6478 c83b
00000010: b8f4 efbc 63b5 973c c2e2 cabd acf4 85bd
00000020: d4c6 5fbc 1bc5 07bd f232 4cbc cea5 9fbd
00000030: 4604 8dbb ec3c 163d a24b 4cbd 3c22 393d
00000040: d5da 32bd 7791 113c 4e87 5fbc 9a30 043d
00000050: 8a2d 26bc b67b ea3c dd86 c0bb eab2 4b3c
00000060: bab5 533c 4aac 9cbb 3331 a1ba 047d a23b
00000070: 7e2c d63b 8cc9 49bc 2518 6dbd 4406 bd3b
-0.026646828 0.008309114 0.003264067 0.0061178673 -0.029291496 0.01851911 -0.09906532 -0.06540808
-0.013658244 -0.03314696 -0.012463318 -0.077952966 -0.004303488 0.036679193 -0.049876817 0.045198664
-0.043665726 0.008884779 -0.013643099 0.032272913 -0.010142693 0.028623443 -0.005875452 0.012432793
0.012921745 -0.0047812806 -0.0012297988 0.0049587507 0.0065360656 -0.012316119 -0.057884354 0.005768569

bn22.running_mean f4 [32]
00000000: b14f bbbe 540f f8be b580 ca3c 5328 19be
00000010: f55f 96be ca86 1ebf eca5 d13e 366b 4b3f
00000020: b4a9 eabe 8706 06be 549f 3e3f 5e04 2f3e
00000030: 8d93 d5be c35b b5be f5ad 84be f5b0 2fbf
00000040: 1fa3 1c3f 95fb 1ebe 5c8e 36bd 2fde ebbe
00000050: f18b 9a3e f9a3 993d 7be2 96be a83d 5fbf
00000060: 4433 10bf cfd2 1e3f c236 afbc a24b 183f
00000070: ba5b c0be ba6f 453f 64e9 0b3e 1cb3 b03d
-0.36584237 -0.48449194 0.024719575 -0.14956789 -0.29370084 -0.6192442 0.409469 0.79460466
-0.45832598 -0.13088427 0.74461865 0.1709151 -0.41714135 -0.3542157 -0.2591397 -0.6862939
0.61186403 -0.15525658 -0.04456936 -0.4606795 0.30184892 0.075019784 -0.29469666 -0.87203455
-0.56328225 0.6204042 -0.021388415 0.59490407 -0.37569982 0.77123606 0.1366325 0.086279124

bn22.running_var f4 [32]
00000000: 9ec9 603e e2b8 213f d71a db3e 0204 aa3e
00000010: 2ac5 8e3e 5976 9a3e 6430 ac3e 5c0f ef3e
00000020: 7a97 573f 60b5 643e b2a7 1b3e 52a6 2f3e
00000030: 7202 103f 0218 2c3f 85f3 ea3e d240 e53e
00000040: e889 fe3e 15f0 8e3e 4351 1d3e f136 593f
00000050: faef 723e ce4b 443e d942 ed3e 53dd d43e
00000060: e73b 293f d43d 9b3e 762d 8f3e 1e9f e13e
00000070: 8508 8c3f 9562 dc3e a7ee b73e fa3c 803f
0.21951911 0.63172734 0.42793915 0.33206183 0.278848 0.30168417 0.3363067 0.46691406
0.8421551 0.22334814 0.1520069 0.1715329 0.5625373 0.67224133 0.45888916 0.44776016
0.4971459 0.27917543 0.1536303 0.8484946 0.23724356 0.19169542 0.46340063 0.41575107
0.6610703 0.3032061 0.2796437 0.4406671 1.09401 0.43043962 0.35924265 1.0018609

conv5.weight f4 [64, 32, 3, 3]
00000000: 1bf1 6b3d 6168 fcbc 066f a83b 8e1c 863b
00000010: 43fc d43c b35f 95bb 78e6 843d cc5c 33bc
00000020: 6ede d1bc 2128 1fbd a3e9 cdbc c6e8 1c3d
00000030: 82aa 19bd 694f 093d e064 e43c 822a b6bc
00000040: 1974 973c c5af 173d 90fa 02bc 7bed d93c
00000050: bdd3 8cbd fe17 1f3d d739 7d3b eb2a 9dbb
00000060: ad65 223d 88cd 8b3c f3ac 9ebc 92de f23c
00000070: 3a0f 843d 1ae3 8b3b aa9e 813c 64aa e7bc
00000080: 3647 cfbc 64c4 8a3b 5c36 88bc ff7a 06bd
00000090: cb7b 15bd d03b 123d 3b14 4dbd 78c6 773c
000000a0: df0a 07bc 30d4 593b 8c1c e43b d60c f5bb
000000b0: 0909 6bbc 3e84 36bd 46ba 083d bf44 15bd
000000c0: ad06 223c 3811 743c 36e6 123c bcd3 07bd
000000d0: 0b40 d2bc c6fe 02bb 27da a9bb 8a50 06bd
000000e0: 2a57 343d fc40 b83c 380a c23c d42f 10bd
000000f0: 38a2 0cbd e6a4 103d e27d 5dbc 6b4c 1ebd
00000100: 145e 04bd 4c52 0b3d 1323 6e3d 34bb 1a3d
00000110: b3a3 793c 4032 edbc 99ef eebc 8885 b1bb
00000120: cf67 4a3d 8d4b 033d ab46 a9bc 9782 26bc
00000130: b2f9 ca3b 2897 e43b 021c 533d a213 78bd
00000140: bf33 4a3d 165f f2bc a33d bcbc 9632 80bc
00000150: 878a 443d 9e89 1ebc 6c8d 823c b4ae 63bd
00000160: c2f6 17bc 3bbc 213c 0bf8 383c f00f 9f3c
00000170: da9e c13b 35e8 523d b4cd a03c 47a8 62bd
00000180: 5487 663b c279 b3bc 0ad0 f23c 5707 5d3c
00000190: c69a e13c d646 243b d756 c43c 3427 d5bc
000001a0: edbb cbbb 6c71 733d 6b13 08bd 2806 1f3d
000001b0: bbea 103d ebe6 333d a018 2e3c 748f e83c
000001c0: bc4e 8f3b aecc 9ebc f65f edbb 6eb3 f2bc
000001d0: 8552 5a3d aa28 65bd 4abf 6b3d a44a c53c
000001e0: faf9 96bb 9d4d 64bc 20d1 4f3d c23b e93a
000001f0: 1f26 e3bc e06b 8d3d 203b ee3c 5bb1 42bd
00000200: f916 7a3d 69ce 623d a53c 263d 137a 103d
00000210: 77b8 edbc 25ac debc 1507 563d 7dcb 14bd
00000220: 1b14 2e3d e8b6 e13b 5a12 1fbd b2d9 e83c
00000230: 9ec7 5c3d 6741 f2bc 4bbb 0f3d df8d 773c
00000240: b6f8 46bd 0ede 2d3d 7c96 2cbc 78fb 1ebd
00000250: 343a 68bd 0a51 65bd f0e1 acbc c0a8 c63c
00000260: fea2 4c3d 634c 5b3c 121f 89ba 0408 953c
00000270: 032d 4abc dbee 333d df9c 313c d130 9abd
00000280: 420c 683d 4854 e43c e30b 2fbc 3794 043d
00000290: 35e0 44bb a644 9bbb ad27 0ebd 0ba0 3d3c
000002a0: dc0e 84bd 2d80 a4bc 9e13 2fbd 4f21 3f3d
000002b0: 39e1 8cb9 362c 8cbc a41f 0d3b a8ec 623c
000002c0: 3ef6 5c3c 7fda 1bbd 98df 113d 5596 e83c
000002d0: c400 183d d5ab 5c3d 2320 69bd b56e e3bc
000002e0: d092 d23b b608 a03b 567b 703b ecab 3b3d
000002f0: 609c 013d 922f ee3c f3a2 ef39 4ea8 71ba
00000300: b434 8bbc 2551 f53b 0fc1 72bd bb83 05bd
00000310: 9906 713d 332b 203c d04a 7e3b ce0a 303b
00000320: 99d6 a1bc b904 1d3a cf2f 873d d562 133d
00000330: 143e 35bd 46b0 1d3d 3ad5 123d d3a7 13bd
00000340: 2018 01bb ba72 efbc 7af8 14bd 36c0 e0bc
00000350: 3d1e 05b7 3668 173c 66a0 94bc 453d 81bd
00000360: 6e18 733c deeb 9b3d 3626 88bc 0ccb b83b
00000370: 6cb7 1dbd 5b19 16bb 3697 63bc 44f9 763d
00000380: 8119 8bbd 63fc 0dbd 7eb8 fb3c 41d8 d6bc
00000390: cd30 2dbd b9db 78bd bd42 69bd 0745 113d
000003a0: 6bfc 11bc cb8c a7bb b897 e4bc 30d8 3c3d
000003b0: dead 773c f1f5 403c 3633 e73c 4449 90bc
000003c0: e24b 323c 5676 24bb d055 263c 612a 41bd
000003d0: 5145 2dbd 05e2 18bd 4271 97bc 34b1 98bc
000003e0: e2a9 b5bd 61ca a23c 69fc 65bb e4ea a6bc
000003f0: dfd1 513c 021f 473d 818b 52bc 194f 113d
0.057602983 -0.03081149 0.005140188 0.0040927595 0.025999194 -0.0045585274 0.06489271 -0.0109474175
-0.025618758 -0.03885663 -0.02513582 0.038307928 -0.037516125 0.033522997 0.027880132 -0.022237066
0.018487977 0.03703286 -0.007994309 0.026602497 -0.06876323 0.03884124 0.0038639212 -0.004796376
0.039647747 0.017065778 -0.019369578 0.029647145 0.06448217 0.004269016 0.015822727 -0.02827949
-0.02530251 0.0042348374 -0.016627483 -0.032832142 -0.03649501 0.035701573 -0.05006812 0.015123002
-0.008242338 0.0033238046 0.006961411 -0.007478337 -0.014345416 -0.04455971 0.03338077 -0.036442515
0.009889287 0.014896683 0.008966019 -0.03316091 -0.025665304 -0.0019988283 -0.0051834765 -0.03279165
0.04402844 0.022491924 0.023686513 -0.035201862 -0.03433439 0.03531351 -0.013518782 -0.038647097
-0.032316282 0.03401403 0.058138918 0.037776187 0.015236783 -0.028954625 -0.029166983 -0.0054175295
0.049415406 0.032054473 -0.02066358 -0.010162971 0.006194317 0.006976027 0.051540382 -0.0605656
0.049365755 -0.029586356 -0.02297861 -0.015649121 0.047983672 -0.009676365 0.015936576 -0.05558653
-0.00927514 0.009871538 0.011289607 0.01941678 0.005908829 0.05149098 0.019629337 -0.055336263
0.0035175877 -0.021908645 0.029640216 0.0134905195 0.027539622 0.0025066636 0.02396719 -0.02601967
-0.006217471 0.05943434 -0.033221643 0.03882423 0.035380106 0.043921392 0.010625988 0.028388716
0.0043733995 -0.019384708 -0.0072441055 -0.029626574 0.053301353 -0.055946983 0.057555474 0.024083443
-0.0046074362 -0.01393452 0.050736547 0.0017794298 -0.027728138 0.06905341 0.029080927 -0.04753242
0.061057065 0.05537263 0.04058518 0.03527267 -0.029018624 -0.027181694 0.052252848 -0.036326874
0.042499643 0.006888259 -0.03883586 0.028424118 0.053901307 -0.029572202 0.035090726 0.015109508
-0.048577033 0.042448096 -0.010533925 -0.038814038 -0.05669613 -0.055985488 -0.02110383 0.024250388
0.04996013 0.013384911 -0.001046153 0.018192299 -0.012339833 0.043928962 0.010840624 -0.07528842
0.056652315 0.02787222 -0.010683986 0.03236791 -0.0030040864 -0.004738408 -0.034705807 0.011573802
-0.06448147 -0.02008065 -0.042743318 0.046662625 -0.00026870685 -0.017110925 0.0021533752 0.013850369
0.013486443 -0.03805017 0.035613626 0.028391996 0.037110105 0.05387481 -0.056915414 -0.02776275
0.006426193 0.004883851 0.0036694608 0.045818254 0.03164327 0.029075418 0.0004570704 -0.00092185
-0.016992904 0.00748648 -0.059266146 -0.03259633 0.058844183 0.0097759245 0.0038801916 0.002686191
-0.019755648 0.00059897784 0.06600916 0.035982925 -0.044248655 0.038498186 0.03584788 -0.03604872
-0.0019698218 -0.02922951 -0.03636978 -0.027435403 -7.934458e-06 0.009241154 -0.01814289 -0.06310514
0.014837367 0.076133475 -0.016619783 0.0056394394 -0.038505003 -0.0022903297 -0.013891032 0.060296312
-0.06791974 -0.034664523 0.030727621 -0.026226165 -0.04228287 -0.06075642 -0.056948412 0.03546622
-0.008910279 -0.0051132194 -0.027904376 0.04610461 0.015117137 0.011777387 0.028222661 -0.01761306
0.01088235 -0.0025094948 0.010152295 -0.047159556 -0.042302433 -0.037324924 -0.018486623 -0.018639185
-0.08870293 0.019871892 -0.0035093075 -0.020375676 0.012806385 0.048613556 -0.012850643 0.035475824

conv5.bias f4 [64]
00000000: 0ae5 593d ddf8 283d 2e24 b03b 8a4f 1fb9
00000010: c98f 87bb 8f99 2bbd 5965 94bc 6ae4 69bd
00000020: 78f5 413d d34a 49bd 5cee fdbb ea75 263b
00000030: 779c c1bc 63be babc 179c 8a3c 003b 97bc
00000040: a89f 453d b5b3 05bd b502 cdb8 d75d adbc
00000050: 9b3b 0fbd 1c8c 48bd e0a3 f93c 0100 f63c
00000060: e13c f03c a770 65bc 649a a13c b4db 493d
00000070: 5b15 45bc a811 59bd 3fc9 93bc 7c67 0dbd
00000080: b506 dd3a d309 80bc 08a0 4abc 2e43 03bd
00000090: 0a94 323d 1dd2 2bbc 02c7 97bc 5dc4 9d3c
000000a0: 68a0 943c 323e 463c 5ef7 c3ba 6a88 6c3c
000000b0: 650f 673d 2cb2 bfbc d67e d3bc e232 55bc
000000c0: f18f 4b3c fbc2 343d 1cc5 4dbd a1ef 38b9
000000d0: 08da 30bc 2742 ac3c c3ca 033c 654d 61bd
000000e0: b698 8dbc 2f63 3dbd 90f1 1dbd fdea fb3c
000000f0: 3702 40bd 3ca9 77bc 7f2c 31bd c834 5d3d
0.053196944 0.04125296 0.0053754067 -0.00015193052 -0.0041370136 -0.04189449 -0.018114733 -0.0571026
0.047353238 -0.049143624 -0.007749362 0.0025399872 -0.023634179 -0.022795862 0.016920133 -0.01846075
0.048247963 -0.032642085 -9.775666e-05 -0.02116291 -0.034968954 -0.048961744 0.03047365 0.030029299
0.029325904 -0.014003909 0.01972694 0.04928179 -0.012029017 -0.052995354 -0.018040298 -0.03452252
0.0016862961 -0.015629685 -0.012367256 -0.03204649 0.043598212 -0.010487107 -0.018527512 0.019258672
0.018142894 0.012099789 -0.001495104 0.0144368205 0.056411166 -0.023400389 -0.025817316 -0.01301262
0.012424455 0.04413126 -0.050236806 -0.00017636876 -0.01079417 0.021027638 0.008043948 -0.05500545
-0.017284732 -0.046237167 -0.03856045 0.0307517 -0.046877112 -0.015116032 -0.043255325 0.054005414

conv6.weight f4 [64, 64, 3, 3]
00000000: b866 f4bc 8441 39bc 3839 99bc dff8 34bb
00000010: 8fd8 323b f887 0f3d d50d d23b 3537 1abc
00000020: 09f0 c13c a8ce aaba 304c 40bd f594 b23c
00000030: 3ca3 c23c 39de 8e3c 5671 c73c 2f7f 143d
00000040: 50bf a4bc b9a2 d6bc f50a f1bc 990d 67bc
00000050: 8fac ad3c cc4a febb 88bd 973c 2287 21bc
00000060: 0383 60bc b55f e1bc 411b 1fbb 8c85 1dbd
00000070: af4e 6c3c d740 91bc 0242 00bc bf6d fbbb
00000080: a1af 8b3c cd49 203c 8ff0 253c ff71 3bbc
00000090: b9a4 dfbc 6a05 a7bc 4395 9a3a 2768 833c
000000a0: ffc8 063c db1b 98bc 1eec 6b3c 2e28 d8bc
000000b0: 71e5 fb3c 01e3 12bc 103e babc 0d61 61bc
000000c0: 419e 1f3c 536f 103d ae72 ab3c 5e1e 41bc
000000d0: bdd9 2abd d880 bfbc 92a3 673c 68da 41bd
000000e0: 58f1 a73c a850 e03c 7f99 63bd a266 92bd
000000f0: 0883 2b3c 77f5 02bc f2c0 403c 5729 55bd
00000100: b2d7 02bd 2105 913c f74e aebb f60f 2eba
00000110: cfca 4d3b 84c7 073d 5c8b f03c 4007 f8bc
00000120: 0931 ea3c 70ed f3bc e1ec f0ba c44b eb3a
00000130: 7f29 02bc 0067 a8bc 0abd c33c ff13 2c3c
00000140: f078 a8bc 6dac c8bc 7aa4 1ebd a4d9 383c
00000150: a338 20bd 5e24 3f3c 9501 c03a dcae 163d
00000160: 802c 193d 8e1a cabc ddf8 18bc 84de 2f3c
00000170: 5741 d4bc aede c63c 52dc 45bd 6d90 a3bc
00000180: 8167 593c 7f47 8fbc 91fa f13c c7fd b6bc
00000190: 7d38 93bc ecd1 d9bc 76a0 e3bc 1053 9c3c
000001a0: 85b7 5abc 4d12 a9bc 8a33 a33c 071d 7a3c
000001b0: a18a 23bc 5848 edbb 816a a8bb f56e cfbb
000001c0: 53ab a83c 1b77 cabc 5176 d73c 220f 103d
000001d0: 8b04 d9bc 39f0 973b 3b7d e2bc 3ef5 5d3b
000001e0: 9983 bdbb 94f9 823c 2448 a93a 266d 1e3d
000001f0: 8b9c 393b 2956 a23b e8f7 0f3d 06c4 dabc
00000200: 0269 383d 6921 18bd ecd3 26bc 8f97 fd3c
00000210: caf3 563a 2712 e63c 20fe 89bc 4cde bbbc
00000220: 4d65 37bd 5507 06bd c77b 9b3c 1e29 b13b
00000230: 3813 ce3b 86c1 65bc 9d31 2c3c 41cd 173c
00000240: 0352 fdbc ac6d 2d3d 1815 103d 521f 943c
00000250: 843f 903a f7f0 593c b368 da3c 822d 8d3c
00000260: 3182 083d 3b84 47bd 25a7 d9bc ab9f 4ebc
00000270: 8531 22bc a61c cdbc f309 05bd 873c 36bc
00000280: 0d54 8ebc 3fad 973c 8086 91bb 4eb9 abbc
00000290: 3f14 e0bb 4eb9 943c cb8f 423c 1615 723c
000002a0: d29e 11bc e8fe 9d3c 977a ca3b 9ca1 01bd
000002b0: 0198 58bd 74a2 06bd 0c98 33bd 8ef9 a2bc
000002c0: 54ff 7ebc 7985 71bc 0e6d 21bd 6242 963c
000002d0: be19 093d 2ffe 08bc bb9f 92bc a982 103d
000002e0: 964e 803c 0854 c43c 8389 073c ece4 93bc
000002f0: 46c7 cabc d625 313d 4521 aabc 185d 9e3b
00000300: c23c 8cbb 0ff8 a4bc 2360 4b3d 02d6 c43c
00000310: c86d ffbc 6b01 953c d481 1abd c8eb 29bd
00000320: b900 fe3c 665b 563c 5740 0a3d 6e14 863c
00000330: 36c7 8d3c 2cc2 f23b 849f 1f3d 5e59 2c3d
00000340: b57c fb3c fe04 763c 3efd b63c db69 f03c
00000350: fb1e 2e3c bf63 043d c33b 9ebc f927 08bc
00000360: 41c6 6b3c 11a8 0abd 8953 7d3c 1839 f63c
00000370: 8e1d 51bc 75f9 f7bc 3258 e2bb 44e0 a13c
00000380: e517 533c f385 2a3c 5bde 6fbc b742 01bd
00000390: 6b9e d53c 15d1 c53c df0b a13b 12d2 393d
000003a0: a1f7 94bb adce 8d3c 5184 213c e756 b83b
000003b0: dcde 353d c590 19bd 8178 fcbc 2c96 0ebd
000003c0: 92a2 5439 e0f2 f03c d707 c1bc 8711 3abd
000003d0: 5df5 913c f576 abbc bac9 d53b 210b 543a
000003e0: 642f e9bc 9c96 513c 7722 b63c 5755 793a
000003f0: ae93 3dbc 993f ab3c d2d8 1f3c f602 17bd
-0.029834136 -0.011307124 -0.018704042 -0.002761416 0.0027289724 0.03504178 0.0064103403 -0.009412576
0.023674028 -0.0013031559 -0.046947658 0.021799544 0.023759477 0.017439948 0.024346035 0.036254104
-0.020110756 -0.02620064 -0.02942417 -0.014102363 0.021200446 -0.0077603813 0.018522993 -0.009858878
-0.013703111 -0.027511457 -0.002427772 -0.03845744 0.0144230565 -0.017731113 -0.0078282375 -0.007672995
0.01705152 0.0097832205 0.010128154 -0.011440753 -0.027300226 -0.020388324 0.0011793751 0.016040875
0.008226632 -0.01856797 0.014399556 -0.026386347 0.030749055 -0.008965255 -0.022734672 -0.013756049
0.0097423205 0.035262417 0.020928707 -0.011787025 -0.041711558 -0.023376867 0.014138119 -0.04732743
0.020500824 0.02738221 -0.055566307 -0.07148482 0.010468252 -0.007993094 0.011764752 -0.052041378
-0.031943984 0.017702641 -0.005319472 -0.00066399516 0.00314014 0.033149257 0.029363327 -0.030276895
0.028587835 -0.029776305 -0.0018381142 0.0017951657 -0.007944464 -0.020556927 0.023893852 0.010502814
-0.02056548 -0.024496282 -0.038731076 0.011282358 -0.039116513 0.011666385 0.0014648909 0.036787853
0.037395954 -0.024670865 -0.009336677 0.010734204 -0.025910063 0.024276104 -0.048305817 -0.019966329
0.013269306 -0.017490147 0.029538425 -0.022337807 -0.017971272 -0.026589356 -0.027786475 0.019082576
-0.0133494185 -0.02063861 0.019922037 0.01526571 -0.009981782 -0.00724129 -0.0051396494 -0.006330366
0.020589506 -0.024714997 0.026301535 0.03517068 -0.026491424 0.004636791 -0.027647605 0.00338681
-0.00578351 0.015988149 0.0012915176 0.03867831 0.0028322067 0.0049541187 0.03514853 -0.0267048
0.04502202 -0.037141237 -0.010182362 0.030956058 0.00081997795 0.028084828 -0.016844809 -0.022933148
-0.044774342 -0.032721836 0.01897992 0.005406513 0.006288912 -0.01402319 0.010509876 0.009265245
-0.030922895 0.04234092 0.035176367 0.018081341 0.0011005257 0.013302079 0.026661253 0.017233614
0.033327285 -0.04871009 -0.026568959 -0.01261131 -0.009899502 -0.025038075 -0.03248019 -0.011122829
-0.017374063 0.018515227 -0.0044410825 -0.020962384 -0.006838351 0.018154766 0.011875103 0.014775535
-0.008887963 0.019286588 0.0061791646 -0.031648263 -0.052879337 -0.03286977 -0.043846175 -0.019894388
-0.015563805 -0.014741295 -0.039410643 0.0183422 0.033471815 -0.008361383 -0.017898431 0.035280857
0.015662473 0.02396585 0.008272531 -0.018053494 -0.024753224 0.043248974 -0.020767817 0.004832875
-0.004279704 -0.020137815 0.04965223 0.024027828 -0.031180277 0.018189153 -0.03772147 -0.041484624
0.031006204 0.0130833145 0.033752766 0.016367164 0.017306905 0.007408401 0.038970485 0.042077415
0.030699113 0.015015839 0.022337552 0.02934735 0.0106275035 0.032321688 -0.019315606 -0.0083103115
0.014390529 -0.033851687 0.015461811 0.030056521 -0.012763394 -0.030270318 -0.0069074864 0.019760258
0.012884115 0.010407913 -0.014640416 -0.031557765 0.026076516 0.02414755 0.004914745 0.045366354
-0.004546121 0.017310465 0.009858207 0.005625594 0.04440199 -0.03749158 -0.03081918 -0.034811184
0.00020278458 0.029412687 -0.023563309 -0.04542687 0.017817194 -0.020930747 0.006524292 0.00080888165
-0.02846498 0.012792256 0.022233231 0.0009511313 -0.011570854 0.02090435 0.009756284 -0.03686806

conv6.bias f4 [64]
00000000: 352a 00bc ba45 113b 6305 c73c 910d e63c
00000010: 9e73 c8bc 15cc ec3c 5d2c 263d d09c 063d
00000020: 4a65 a4bb 9527 b13c bdff cb3c 6cde 7f3b
00000030: 50b4 7bbc 4b78 12bd 08cb 17bd 1239 083d
00000040: 3a59 9dbc a329 373c cebb ecbc 22ff 8d3c
00000050: dd35 c1bc ae26 abbc e9e7 b4bc 6ab3 1bbb
00000060: bd85 62bb 14f7 c2bc e514 c3ba 37f5 0bbd
00000070: faea c2bc 6be0 b43c a4df b13c 19b1 26bd
00000080: 7b67 fb3a 763b b4bc 8b52 98bc 7c60 363c
00000090: 5ae9 dbbc b88f f7bb bd81 1e3c 85d2 6f3c
000000a0: 151d fbbc 1a8a 10bd 4b71 e6bc b0de 453c
000000b0: 4603 223d 8246 01bc 4f01 90bc 596e 9bbc
000000c0: 13b0 ffbc 1220 4cbc ee6e 68bb ab20 02bd
000000d0: 9027 0c3d c688 273d 5a5a 03bd 2448 99bc
000000e0: ea64 53bc 54b3 7abc a3ab a0bc 38db 22bd
000000f0: 40b2 a73c 27ce b1bc 6e93 cb3c fd38 caba
-0.007822563 0.0022166804 0.02429456 0.02808264 -0.024469193 0.028905908 0.040569652 0.03286439
-0.0050169574 0.02162532 0.024902219 0.0039042486 -0.015362814 -0.03575925 -0.03705886 0.03325755
-0.019207586 0.011179361 -0.028898146 0.01733357 -0.023585254 -0.020892467 -0.02208324 -0.0023758062
-0.0034564578 -0.023799457 -0.0014883546 -0.034169402 -0.023793686 0.022079667 0.021713085 -0.040696237
0.001918062 -0.02200101 -0.018594047 0.011131402 -0.02684467 -0.0075549744 0.009674487 0.014637594
-0.030653516 -0.035287954 -0.028130194 0.012077019 0.039553903 -0.0078903455 -0.017578749 -0.018973516
-0.031211888 -0.012458818 -0.003546651 -0.031769436 0.034217417 0.04090192 -0.032068588 -0.018711157
-0.012902478 -0.015301544 -0.019613093 -0.039759845 0.020470738 -0.021704746 0.024850573 -0.0015428361
