checkpoints/best_model_0409_1.pth (torch, 304673 bytes, 37 tensors)

conv1.weight f4 [16, 1, 3, 3]
000000 a6 e4 f7 bc 4d 41 ea bd 9e 61 6c c0 66 1e 9a 3e
       -0.030260395 -0.114382364 -3.693458 0.30101317
000010 5a 76 46 3d 1f a9 6b c0 c8 6c e4 3e 79 39 1d 3f
       0.048452713 -3.6821973 0.44614244 0.6141582
000020 65 8f 1c bf 00 58 d1 3e b6 c7 f1 3e 8e ad 5f 3e
       -0.611563 0.4088745 0.4722268 0.2184355
000030 e9 57 bd 3e 72 04 bc bf ab ee 93 3a 48 1c a9 bf
       0.36981133 -1.4688857 0.0011286339 -1.3211756
000040 cf ec 0e c1 91 40 44 be 44 f0 a5 be 2e 44 c4 be
       -8.932815 -0.19165255 -0.3240987 -0.38333267
000050 99 ff c7 3e 6c c4 16 c0 c7 0f 40 c0 6d 5c 99 3e
       0.39062193 -2.3557386 -3.000963 0.29953328
000060 f0 5f 77 3f 73 71 90 3e f8 78 dd 3f 2e 83 4c be
       0.96630764 0.28211555 1.7302542 -0.19971916
000070 78 4b 17 bf df a3 9d bf af 96 00 40 5c 4b 51 40
       -0.5909953 -1.2315634 2.009197 3.2702246
000080 36 f9 05 be 6c 29 84 3e 78 48 c4 3f cc fb c5 be
       -0.13083348 0.25812852 1.5334616 -0.38668668
000090 1d 56 ad 3e f9 9d ef be 47 e9 8c c0 ba 68 e8 3e
       0.33854762 -0.4680021 -4.403476 0.453924
0000a0 e4 4c 11 bf 0a 61 17 c1 02 d3 a9 3e 35 74 a0 3d
       -0.5675795 -9.461191 0.331688 0.07834665
0000b0 6d 00 2e bf 94 f6 c9 3e bd 8f 80 3f fd 24 6d 3e
       -0.679694 0.39445937 1.0043865 0.23158641
0000c0 25 b0 ae 3e 35 e4 d3 be e6 50 cc bf 49 ff 43 3e
       0.34118763 -0.41385046 -1.5962188 0.19140352
0000d0 a4 6b e0 bf 27 3f 85 c0 41 b3 65 3f 38 6d b4 be
       -1.7532849 -4.163959 0.89726645 -0.35239577
0000e0 fb 36 ad c0 88 32 1f bf 08 46 94 3f 8a d9 d1 bf
       -5.4129615 -0.6218648 1.1583872 -1.6394513
0000f0 ac b0 02 bf ed 7a c3 3d ed f7 c2 3e cc d1 e2 bf
       -0.5105083 0.095449306 0.38079777 -1.7720275
000100 0b f5 86 3f 61 61 5c 3f bf 61 60 c0 db 01 7f 3f
       1.0543531 0.8608609 -3.505966 0.99612206
000110 44 05 88 bd 27 39 ef bf a5 a3 96 3f fc e4 49 be
       -0.06641629 -1.8689317 1.176869 -0.19716257
000120 1b 63 36 be 02 88 d1 3d 01 ea cd 3d e6 c3 d2 be
       -0.17811243 0.102310196 0.10054398 -0.41165084
000130 16 73 9d 3f b6 d3 1d 3f 44 c3 8e c0 c3 60 8b c0
       1.2300746 0.6165117 -4.461336 -4.3555617
000140 84 f5 94 bf 2e 92 3a 3f e8 6a 69 3f 40 89 34 3e
       -1.1637425 0.728793 0.9117875 0.17630482
000150 79 1d 05 c0 f7 f4 61 c0 8b b9 bb bf 87 48 6c 3f
       -2.0799239 -3.5305765 -1.4665998 0.9229817
000160 6b 0c 0f c0 62 a7 44 bd c4 17 34 bf 45 c2 f6 c0
       -2.235133 -0.04801119 -0.70348763 -7.7112145
000170 ef 23 68 3e c3 9c 3f c0 81 5f ca c0 e9 4f a4 3e
       0.22669958 -2.993943 -6.324158 0.32092217
000180 43 f6 17 be 3f b8 4c 3e 7a ad 33 bd 2d fd 19 c1
       -0.14840035 0.1999216 -0.043866612 -9.6243105
000190 85 9f 26 c0 ab 74 40 bf bf 72 8c bf 05 6b b2 3e
       -2.6034863 -0.7517802 -1.0972518 0.34847274
0001a0 29 02 16 3f 3c 15 03 be 44 b4 d0 3e 6c 69 8c 3e
       0.58597046 -0.12801069 0.40762532 0.2742418
0001b0 fe 56 dc 3d c7 6e e8 3e b7 17 02 3e a7 7f 99 bf
       0.1075878 0.45397016 0.12704359 -1.1992081
0001c0 a0 ac 8c bf 2b ca 9e c0 cc bf b3 bd b9 8f 0d 3f
       -1.0990181 -4.9621787 -0.08776817 0.5529743
0001d0 9f 1d 1d 3e 8b f4 c4 3e d7 7b a6 3f 5f c0 35 3f
       0.15343331 0.3846782 1.3006543 0.7099666
0001e0 78 ec f2 3e fc 55 1f 40 22 d4 06 40 c9 48 ea 3e
       0.47446036 2.489623 2.1066976 0.45758656
0001f0 5a c9 c2 3f aa e6 d3 3f 5d a0 18 be 9b de e0 bf
       1.5217698 1.6554768 -0.14904924 -1.7567934
000200 cf 04 e5 3e 7d 23 fb be 0d c8 06 c1 b1 a3 71 3d
       0.4473023 -0.49050513 -8.4238405 0.058994
000210 65 7a 82 3e b5 dd 1e bf 54 53 51 3e cd 2c 90 bf
       0.25484005 -0.6205705 0.20441943 -1.1263672
000220 c4 cf 83 3f ec de 25 3d e4 e7 ac 3f c8 fa 2a c0
       1.029778 0.040495798 1.3508267 -2.6715565
000230 2c 70 1b c0 8f e1 21 bf 10 7b dd 3e b2 4d 26 c0
       -2.4287214 -0.632348 0.43257952 -2.5984921

conv1.bias f4 [16]
000000 b0 2c 69 be 97 66 03 c0 d1 31 e6 3e d6 ba 17 3f
       -0.22770953 -2.0531366 0.44959882 0.59269464
000010 3d 24 04 bf dc 02 96 bd 36 3c af bd af 8b 03 be
       -0.51617795 -0.07324764 -0.08556406 -0.12846254
000020 90 d0 bb 3b da 56 56 bf 2d 7f 29 3e 04 2a e8 be
       0.0057316497 -0.83726275 0.1655242 -0.45344555
000030 6a d3 72 3f 73 0a 47 3f 62 15 12 c0 59 ef c2 be
       0.9485384 0.7775032 -2.282555 -0.38073233

conv2.weight f4 [16, 16, 3, 3]
000000 0e af 0e 3e ba 06 25 3f 67 10 68 be 07 23 ba 3e
       0.13933966 0.6446339 -0.22662507 0.3635485
000010 68 ea 3d bf 3c 61 6c 3f b8 2d bb 3f e2 12 fc 3e
       -0.741858 0.9233587 1.4623327 0.49233156
000020 83 28 62 3f 02 2c 10 3e 6a 4a 2d 3f 7d 47 18 3f
       0.88343066 0.14079288 0.6769167 0.5948408
000030 23 2a 07 40 f2 e7 59 3e 76 73 68 3e cb 57 8d 3f
       2.1119468 0.21279886 0.22700295 1.1042417
000040 2e fd 58 3e 6d fc 9b 3f fd e6 9f 3f 2e 76 91 bf
       0.2119033 1.2186409 1.2492367 -1.136419
000050 f2 4a a0 3b 9e ac e6 3f f7 da c3 bf 2a 10 ed 3f
       0.0048917467 1.8021429 -1.5301198 1.8520558
000060 c7 e1 e0 3e cb 6e a0 be 97 ef f5 be ec 9b b7 be
       0.43922254 -0.31334528 -0.48034355 -0.35861146
000070 46 ba 19 bd 36 34 aa bf d4 1f a7 3f 38 e9 92 3f
       -0.03753116 -1.3297184 1.3056588 1.1477423
000080 bb 6f 0c be 47 73 46 3f 2d 33 39 bd ac 23 42 3f
       -0.13714497 0.7751965 -0.04521482 0.7583568
000090 be ab 5f 3f c0 c5 9c bd 39 a0 a9 3e 55 45 fe 3f
       0.8737143 -0.07654905 0.33130053 1.9864908
0000a0 b4 06 95 3f 37 f9 21 be 75 cf c3 3f b5 f5 c9 3e
       1.1642671 -0.15817724 1.5297686 0.39445272
0000b0 36 40 54 3e 12 e3 bb 3f e3 33 25 3f 77 c3 18 bf
       0.2072762 1.4678671 0.645323 -0.59673256
0000c0 95 72 b0 be 6b 9f ef 3e 79 3a 03 3e 61 9d 57 3f
       -0.3446242 0.46801314 0.12815274 0.84224516
0000d0 9b 30 eb be cd 59 15 bf 0c fb d6 bd 1b 3a 54 bf
       -0.4593552 -0.5834015 -0.10497102 -0.8290116
0000e0 1f 2d 82 3e 0e 41 be 3e fd 03 38 3e 42 13 1e 3f
       0.2542505 0.37159008 0.17970271 0.61748135
0000f0 75 ef 90 3e ae 15 06 3f 84 71 cf 3d 49 ac 11 40
       0.2830769 0.5237683 0.10129073 2.2761405
000100 06 23 17 be 03 e1 f3 3e 9d ce 7b 3f c0 e0 91 3c
       -0.14759454 0.47632608 0.9836214 0.017807364
000110 e8 ab c0 be 97 d4 84 bf 24 4b 8f 3f 71 bc 31 3f
       -0.37631154 -1.0377377 1.1194806 0.69428164
000120 fa a4 38 3f 83 02 ff be e4 2f 38 3f 56 c3 a4 3f
       0.72126734 -0.49806604 0.71948075 1.2872112
000130 42 0f a0 bf 32 02 dc 3d 73 a0 30 3f 67 c3 ae bd
       -1.2504656 0.10742606 0.68994826 -0.08533364
000140 3e 1d 81 3f 96 d9 f2 3e 47 76 99 bf b4 5f 40 be
       1.0087049 0.4743163 -1.198922 -0.18786508
000150 b5 42 0d bf 0b bb a2 3f 32 ed 18 bf 85 c5 04 3e
       -0.5517991 1.2713331 -0.5973693 0.12965973
000160 79 51 b1 3f 0a 30 37 bf ff af d3 3f 46 ec 0e 40
       1.3852988 -0.71557677 1.6538085 2.233171
000170 89 8c 22 40 4b 77 12 40 ff 64 82 40 ec a1 15 40
       2.5398276 2.288531 4.0748286 2.338008
000180 cc 44 f8 3f 67 05 3f 40 6e d6 51 40 eb 7e 23 40
       1.9395995 2.9847047 3.2787127 2.5546215
000190 2e 03 37 bf 46 48 d5 be 38 f9 5a bf de d4 20 40
       -0.71489227 -0.41656703 -0.8553653 2.5129924
0001a0 6c 53 92 3f e3 31 fb 3e eb 1c 87 3f 9a c4 a3 3f
       1.1431708 0.49061498 1.05557 1.2794373
0001b0 32 8e 0c be 31 67 c3 3e e1 d7 2d be ed 39 39 3e
       -0.13726118 0.38164666 -0.16976883 0.18088503
0001c0 c8 2b 3c bd 45 c2 fd 3e 5e 2c 02 3f 69 c5 6d 3f
       -0.04594019 0.49562278 0.5084895 0.9287935
0001d0 e1 56 cb be 3b 0b 99 3f f4 e8 9a 3f 2d 04 8a 3e
       -0.3971472 1.1956552 1.2102342 0.2695631
0001e0 70 f5 bd be ec f0 34 3f ce 44 b2 3e 7a 37 49 3e
       -0.37101316 0.7068012 0.3481812 0.19650069
0001f0 70 c1 82 3f e6 5a 86 3f 1f 33 23 bf be df 90 3e
       1.0215282 1.049649 -0.6374988 0.28295702
000200 ef 96 01 be 4b 37 b5 3f 8b 6b 08 bf 28 e0 97 3f
       -0.12655233 1.4157499 -0.532891 1.1865282
000210 dd 58 ad 3f 1e 58 f0 3e d7 1b d3 3f 56 e1 ee 3f
       1.3542744 0.46942228 1.6492871 1.8662517
000220 15 a3 6b 3c ad 4f d8 3e 37 6f 25 40 7d c1 9e 3f
       0.0143821435 0.42248288 2.584913 1.2402798
000230 12 1f af 3f 35 3a 3a bf 58 13 9c 3e 20 c7 85 be
       1.3681357 -0.72745067 0.30483508 -0.26128483
000240 95 88 86 be 68 3a 8a 3f fd 7b a7 3e 1b a8 f3 3f
       -0.2627608 1.0799074 0.32711783 1.9035677
000250 6b 58 28 40 3a 25 80 3f 24 c5 cd be ed 6f 66 40
       2.6303966 1.0011361 -0.4018947 3.6005814
000260 44 9b 29 3f 80 fb d2 3e 49 44 91 3f eb 5e 91 bd
       0.6625254 0.41207504 1.1348964 -0.07098182
000270 cf 3c 6d be 0d 23 a7 3f 3b e6 e2 3f da 6c ce be
       -0.23167728 1.3057572 1.7726511 -0.40317422
000280 14 64 40 3e 6f fd fc be b3 e5 30 be 6b 81 9c 3f
       0.18788177 -0.49412104 -0.17275123 1.2226995
000290 d5 5e 40 c0 a7 be da 3f a9 3b 8d bd 47 0e 51 40
       -3.005788 1.7089432 -0.06896145 3.2664964
0002a0 de e1 50 bf 72 d5 f4 3d 58 f2 c6 be d4 78 b1 bd
       -0.81594646 0.11954774 -0.3885677 -0.08665624
0002b0 f8 a7 cf be d3 04 20 3f a4 42 33 3f 32 4d 46 bf
       -0.40557837 0.6250736 0.7002356 -0.7746154
0002c0 2c ad ac bf 97 6e 32 3e 35 92 c9 3e d6 53 7a bf
       -1.3490348 0.17424999 0.3936936 -0.97784173
0002d0 f0 b8 0b 3f ba a3 89 bf d5 57 13 bf 6c 0d 80 3e
       0.5457907 -1.075309 -0.57555896 0.2501024
0002e0 e9 19 07 3f 19 0c 0b 3e 16 9f 7e 3d ca b3 03 3f
       0.5277391 0.13578834 0.062163435 0.5144621
0002f0 c0 0b 98 3c 38 94 47 3f 22 b1 e8 3e a6 a6 6c 3d
       0.01856029 0.7796054 0.45447642 0.057776116
000300 5e 4e b6 be de cc 25 be 27 4d 5a bf 8f 49 3b 3f
       -0.35606664 -0.16191432 -0.85273975 0.73159117
000310 7e 31 82 bf 55 c8 ce be 87 ef c6 be fc 18 38 3e
       -1.0171354 -0.40387216 -0.3885462 0.17978281
000320 a6 68 23 3e 2e 25 1c bf 64 d6 13 be d8 e9 d0 3f
       0.15957889 -0.6099423 -0.14437252 1.6321363
000330 2a df 22 3f b9 b1 d9 be a8 a8 cc 3e 12 0a 93 3e
       0.6362177 -0.42518404 0.39972425 0.2871862
000340 17 2e 58 bc af 19 08 3f 16 1b c3 be 7f f4 82 bf
       -0.013194582 0.5316419 -0.38106602 -1.0230864
000350 24 36 fc be 95 60 42 c0 6f 56 e7 be 1a d5 49 c0
       -0.49260056 -3.037145 -0.4518313 -3.1536317
000360 fa 62 23 3e 22 c8 fc 3e 6b d5 18 3f bc c5 a7 bd
       0.15955725 0.4937144 0.5970065 -0.08192012
000370 8a 8f ef be f3 32 03 40 47 89 bd be 31 06 c5 bc
       -0.467892 2.0499847 -0.37018797 -0.024050804
000380 78 7c 08 3f 4f 83 14 3f bf 30 1d be 5e 37 b3 bf
       0.53314924 0.5801286 -0.15350626 -1.4001272
000390 8a b6 60 bf b4 9a b4 3f 28 95 8e bf 01 4b 23 3e
       -0.8777853 1.4109712 -1.1139269 0.1594658
0003a0 ff d5 09 3c 0f 1c c1 3e 49 bf 04 40 ed ca 09 40
       0.008412837 0.3771672 2.0741751 2.1530106
0003b0 ef 85 b2 3c 2c 5f fe 3f 29 4a d4 3f 98 eb bf 3f
       0.02179238 1.9872794 1.6585132 1.4993773
0003c0 d2 a6 f9 3f 89 19 ef 3f 26 88 c2 3f 35 2b b1 be
       1.9504035 1.8679668 1.5197799 -0.34603277
0003d0 8f 25 95 3e d8 75 a7 bf bb a2 ff 3d 86 e2 2f bf
       0.29130217 -1.3082838 0.1248221 -0.6870502
0003e0 90 33 23 bf 53 81 8a bd 6f 8f a8 be 77 28 87 bf
       -0.63750553 -0.06762948 -0.3292193 -1.0559224
0003f0 a9 b3 ab 3e d1 79 22 3e 87 b9 92 3e 9e b4 4e 3f
       0.33535507 0.15866782 0.2865717 0.8074435

conv2.bias f4 [16]
000000 4d ad cb 3c 9d 06 a3 bb 7c 23 a5 bc b4 53 b9 3d
       0.02486291 -0.0049751536 -0.020158522 0.09049168
000010 0e af ca 3c e2 f5 90 3d 8e f0 c8 3c 21 4a b8 bc
       0.024741676 0.070781484 0.024528768 -0.022496285
000020 db b0 60 bd 6a 77 73 3c 54 b1 78 bd 45 af 3d 3b
       -0.054856163 0.0148600135 -0.06071599 0.002894358
000030 4e 32 4d 3d 73 f7 55 3d 28 82 a4 bd f6 cc 2f 3d
       0.050096802 0.05223794 -0.08032638 0.042920075

bn11.weight f4 [16]
000000 0d 71 95 3f 89 2c b6 3f 38 b9 f6 3e b3 01 36 3e
       1.1675125 1.4232341 0.48188186 0.17774086
000010 ca 81 06 40 18 a6 47 3f ef 8b 4b 3f f6 b1 d2 3e
       2.1016717 0.77987814 0.79510397 0.41151398
000020 fa 73 a2 3f c4 64 58 3f 39 c3 0c 40 89 75 05 40
       1.2691643 0.84528756 2.1994154 2.0852988
000030 33 5c b1 3f b2 c7 73 3f bf f2 04 40 25 04 1e 3f
       1.3856262 0.95226586 2.077316 0.61725074

bn11.bias f4 [16]
000000 6f 0f db 3d f0 f3 cb 3b 58 2a 76 3e 7b fc bd 3c
       0.10696303 0.006224148 0.2403959 0.023191681
000010 56 17 31 bf 4f 4f 5a be 4f d3 de bd 9d ae 1f be
       -0.6917623 -0.21319316 -0.10880148 -0.15593953
000020 14 e6 50 be 00 e4 ce be 36 de 45 bf 07 7d 28 bf
       -0.20400268 -0.40408325 -0.7729219 -0.65815777
000030 2d 11 b0 be a1 25 80 3e e8 58 c4 bd 36 62 a3 be
       -0.34388104 0.2502871 -0.0958727 -0.31910866

bn11.running_mean f4 [16]
000000 c4 d1 a5 be bd 1b 0d c0 da 83 d5 3e 10 38 28 3f
       -0.323866 -2.204818 0.41702157 0.65710545
000010 47 4a 37 bf 8a b2 20 be 5c a4 2d be 79 d7 33 be
       -0.71597713 -0.15693107 -0.1695723 -0.17562665
000020 e1 5e ef bd 84 7c 6e bf 46 15 a5 bd ca 06 22 bf
       -0.116880186 -0.93158746 -0.08060698 -0.6329161
000030 87 59 5d 3f a8 99 6f 3f 4e a0 1b c0 4a 5c f3 be
       0.8646473 0.93593836 -2.4316592 -0.47531348

bn11.running_var f4 [16]
000000 56 ed 98 3d 52 19 25 3e d9 2e 32 3d dd ea 27 3d
       0.07467143 0.1612294 0.04350171 0.040995467
000010 94 81 8b 3e 9d 8a 52 3d 54 f3 86 3d 36 80 f3 3c
       0.27247298 0.051401723 0.0658938 0.029724222
000020 64 eb d7 3d 9d 66 46 3d dc 2c bc 3e 09 a9 70 3e
       0.10542944 0.048437703 0.36752975 0.23501982
000030 e5 c2 36 3d 2c 94 9b 3d f0 2a 28 3e 98 d9 1e 3d
       0.04461946 0.07596621 0.1642263 0.038781732

bn12.weight f4 [16]
000000 6f 39 7f 3f 99 4e db 3f 2b ad a9 3f 92 21 ca 3f
       0.9969701 1.7133361 1.3255972 1.5791495
000010 a0 88 24 40 4a 67 a6 3f ee f0 a6 3f 8d f7 f1 3f
       2.570839 1.3000271 1.3042276 1.8903672
000020 cf 56 22 40 7e 36 6d 3f a7 53 e9 3f 10 c0 08 40
       2.5365484 0.92661273 1.8228654 2.1367226
000030 11 62 ab 3f df c6 ce 3f d2 b1 ae 3f 98 39 a0 3f
       1.3389302 1.6154441 1.3648016 1.2517576

bn12.bias f4 [16]
000000 47 2a 6a be a7 2a ca 3f df 1c 25 bf 56 c6 80 bd
       -0.2286769 1.5794266 -0.6449718 -0.062878296
000010 f3 b3 dc bf 71 5b c8 be 32 f3 70 bd f6 34 8f 3e
       -1.7242416 -0.39132264 -0.05882568 0.27970093
000020 4d b8 38 bf ca 4c b4 bb b8 1c 3a bf 62 86 da be
       -0.7215622 -0.005502318 -0.7270007 -0.4268065
000030 04 c2 93 bd 34 01 14 bf 88 5b a5 be e0 5d 1a 3f
       -0.0721474 -0.57814336 -0.32296395 0.6029949

bn12.running_mean f4 [16]
000000 29 e0 35 41 49 0c f8 40 2d 5e 32 c0 03 a8 03 c1
       11.367227 7.7514997 -2.786998 -8.2285185
000010 f1 ca b0 40 35 1d 95 c0 62 18 13 bf 09 20 ac bf
       5.524773 -4.6598153 -0.5745908 -1.3447276
000020 38 7d 71 c0 6b 4d b3 bf 7f a1 d4 3f 44 72 37 c0
       -3.7732677 -1.4008001 1.6611785 -2.8663492
000030 5f 77 3b 40 0a 41 b9 3e 3a 9a f8 3e 0e 6b 54 40
       2.9291608 0.36182433 0.48555166 3.319034

bn12.running_var f4 [16]
000000 8d fa 62 41 95 e0 52 42 6b 26 20 41 9c 19 b7 41
       14.18617 52.71932 10.009379 22.887505
000010 6b 33 b3 41 9b b5 21 41 83 9c d3 41 d7 3f f6 41
       22.400106 10.106837 26.451422 30.781172
000020 b9 3f 21 42 90 63 31 41 d2 3a 1c 42 1e 48 aa 41
       40.31223 11.086807 39.05744 21.285213
000030 48 57 85 41 08 64 bb 41 9a 0e 98 41 ff 68 c1 41
       16.667618 23.423843 19.00713 24.176268

conv3.weight f4 [32, 16, 3, 3]
000000 39 b7 4e 3f aa 10 4a 3f ac 06 6d 3f 76 89 fa 3d
       0.80748326 0.7893168 0.92588305 0.1223325
000010 07 dc ad 3f 44 c4 cc 3e 7f 8c 5f 3f 78 4d f1 3f
       1.3582772 0.3999349 0.87323755 1.8851767
000020 1a 73 a2 3e 51 c1 71 3f 36 62 25 40 1a cc ae bf
       0.3172844 0.944356 2.5841193 -1.3656037
000030 5e 6d 84 3f 67 ae 82 3f 3d d4 59 3e de a9 58 3f
       1.0345876 1.0209473 0.21272369 0.84634197
000040 18 ad 29 3e 54 89 6f 3f 8e da 14 3f b0 46 92 be
       0.16569936 0.9356892 0.5814599 -0.28569555
000050 7a 9e 92 3e 16 dd 46 be 61 bd 96 3e 62 f3 a9 3d
       0.28636533 -0.19420275 0.2944136 0.08298375
000060 ff b4 d4 bf cb 97 c2 3e 40 70 d9 3e c0 45 bc 3f
       -1.6617736 0.38006434 0.42468452 1.4708786
000070 39 27 d3 be 4c ce d5 3e eb b9 5c 3f e2 1b c2 3f
       -0.41240862 0.41758955 0.8622119 1.5164759
000080 bf ad 54 be 43 2b c9 3e 90 1c 1e 3f d0 8f 7e 3f
       -0.20769404 0.3929082 0.6176233 0.9943819
000090 b8 69 8f 3f a3 0f 76 41 df 1e 54 3f 12 96 08 bf
       1.1204138 15.378818 0.82859606 -0.5335399
0000a0 e8 d7 37 3f 6c ff ee 3e 71 2a 9b be bd d8 48 41
       0.7181382 0.46679246 -0.30305818 12.552915
0000b0 73 7a 4d 3f 2f b3 df bf 43 8f 51 bf 02 a5 42 c0
       0.8026497 -1.7476557 -0.81859225 -3.0413213
0000c0 8a 76 ad 3f 9b c3 82 be 6e e7 36 3f 4b 08 70 bf
       1.35518 -0.2553986 0.71446884 -0.93762654
0000d0 0b f6 1d 3f ec 26 e3 be 33 0f cf 3f be e2 87 3f
       0.61703557 -0.44365633 1.6176513 1.0616071
0000e0 c4 5c e3 be e4 92 32 3d b7 45 d9 bf 71 4a 1e bf
       -0.44406712 0.043597117 -1.69744 -0.6183234
0000f0 a9 79 36 bf 40 5c 34 c0 2f c0 ee 3d 7e 7d 94 40
       -0.7127939 -2.8181305 0.1165775 4.640319
000100 4c 15 13 3e 69 f5 0e 40 9c 0b 38 3f 80 57 8e 3e
       0.14363593 2.2337286 0.71892715 0.27801132
000110 33 ef ff 3e be 3f 15 40 d1 e9 93 3e 20 31 fa 3f
       0.49987182 2.3320155 0.28889325 1.9546242
000120 e3 26 0f be d6 65 6b bf a0 49 d3 bd 98 06 02 40
       -0.13979678 -0.91952264 -0.10316777 2.0316525
000130 7c 9d 65 40 ab 4d 29 3f ca e1 3d bf 22 8b 8a bf
       3.587737 0.66134137 -0.7417265 -1.082371
000140 f3 5e 28 bf 3d f2 29 bf c8 3f 90 bf a0 b4 17 3f
       -0.6576988 -0.6638525 -1.1269464 0.59259987
000150 35 9a 0e be 34 eb c8 3d 91 5a a1 bd 1e a6 bc bd
       -0.13926013 0.098104864 -0.07878602 -0.09211372
000160 fa 45 a2 3f 32 ba d8 be f9 a4 e2 3e 72 5b 34 3f
       1.2677605 -0.42329556 0.4426649 0.70452034
000170 5d fe 8f 3e 4b 25 1e c0 c2 ea ac be 4b ad 93 3f
       0.2812375 -2.4710262 -0.33772856 1.153726
000180 44 eb d9 bf 95 83 b3 3e bf a6 50 3e 6b 44 fb bc
       -1.7024922 0.35061327 0.20376109 -0.030672273
000190 d6 90 d0 3f 36 b1 b0 bf b7 18 47 c0 4b 4d 97 3e
       1.62942 -1.380408 -3.1108835 0.29551157
0001a0 90 79 8b bf 3b 5e 2d bf c9 32 c1 3e d6 40 f8 bd
       -1.0896473 -0.6772191 0.37734058 -0.121217415
0001b0 d8 9d 6e 3f e8 c7 88 3f 32 82 55 bf f3 96 c9 3f
       0.932096 1.0686007 -0.8340179 1.5749191
0001c0 9b 43 0e c0 69 3a 45 3f 2b f1 6c bf 07 02 f7 be
       -2.2228763 0.7704225 -0.92555493 -0.48243734
0001d0 fd f9 22 3f a2 58 1f bf d6 86 a8 bf 2d dd 44 bf
       0.636627 -0.6224462 -1.3166149 -0.7689999
0001e0 8b de 73 bf fb 07 dc be 0d ac ae bf 79 10 1b 3f
       -0.9526145 -0.4297484 -1.3646256 0.6057201
0001f0 0b d8 04 3e 17 15 49 3d ab bb 10 bf 29 26 39 3f
       0.12973039 0.04909238 -0.5653636 0.7232385
000200 25 33 ea 3f 7d 24 22 c0 eb 4d 2b bf 4f e6 b3 be
       1.8296858 -2.533477 -0.6691577 -0.3513665
000210 e6 43 ef 3e 75 07 16 bf 4d 83 1f 3e 9c 2c 8f 3f
       0.4673149 -0.5860513 0.15577431 1.1185489
000220 16 94 0d bf 25 8e 8e 3e 51 12 bc be 6f 63 89 3f
       -0.55304086 0.27842823 -0.36732724 1.073347
000230 7c c4 0f 40 a6 a4 cc 3e 8b 98 e3 be f0 05 f0 be
       2.2463675 0.39969367 -0.4445232 -0.4687953
000240 af bd 1c 3f 73 e5 16 be a3 ac 17 3f 96 24 94 be
       0.61226934 -0.14735965 0.592478 -0.28934163
000250 df df 2d 3f 8a 71 6e 3f 5c 73 dd 3e df e1 f5 3e
       0.67919725 0.93141997 0.43252075 0.48023888
000260 01 42 bc 3e 2d da b9 3e 3f c0 27 bf d0 9d 82 3e
       0.36769107 0.36299267 -0.6552772 0.25511026
000270 48 63 2c be 18 d9 67 be d1 02 0b c0 fb 1f 22 3e
       -0.16834748 -0.22641408 -2.172047 0.15832512
000280 99 1a 84 bf cc a4 86 bf 3f 4c ec 3f 17 6b ed 3f
       -1.0320617 -1.0519042 1.8460768 1.8548306
000290 9d 2b 88 bf b0 b6 29 bf e4 ef 5b be d8 62 09 c0
       -1.063831 -0.66294384 -0.2147823 -2.146658
0002a0 29 6f ff be 02 0a 2e 3f ca 6e 83 3f d1 14 d5 be
       -0.49889496 0.6798402 1.0268185 -0.41617444
0002b0 5c 8b 81 be 26 30 47 bf f9 01 d2 bf b4 e9 c4 be
       -0.25301635 -0.77807844 -1.6406852 -0.3845955
0002c0 63 b8 c1 be 4e c7 1d be be c8 99 bf 1e 72 98 bf
       -0.37835988 -0.1540806 -1.2014387 -1.1909826
0002d0 ad fc 78 3d d8 e4 94 be 5b 90 d0 3d 4a f7 b7 bf
       0.060787845 -0.29080844 0.101837836 -1.4372342
0002e0 8f 90 64 bf e6 06 a9 bd 8c 34 36 be 26 af c1 be
       -0.8928308 -0.08253269 -0.17793483 -0.3782894
0002f0 70 80 59 bf 07 80 c0 bf 90 54 4d bf c7 f8 a9 bf
       -0.84961605 -1.5039071 -0.8020716 -1.3279046
000300 2d a6 60 3f 3e bd 0b 3f 93 db 05 40 2b b3 31 bf
       0.87753564 0.54585636 2.0915267 -0.69414014
000310 be 52 1d 40 6a eb 89 bf 49 12 97 3f be a2 1d 3f
       2.4581752 -1.0774968 1.1802455 0.6157645
000320 0c bf 8f 3f 5e a7 4a 3f 45 b0 36 3f 47 0a 5c bf
       1.1230178 0.7916163 0.71362716 -0.8595318
000330 2d 2f 60 be 4c b6 d7 bf 5c 58 86 3e 31 e6 12 40
       -0.21892996 -1.6852508 0.26239288 2.2952998
000340 70 11 87 bf 16 8b e4 3d ec 60 ca be 30 11 0b bc
       -1.0552197 0.11159341 -0.3952707 -0.008487985
000350 2b 8f e0 bf 14 55 d9 be c2 7b 29 c0 03 e8 a4 c0
       -1.7543691 -0.42447722 -2.6481786 -5.1533217
000360 23 ab 64 be 0e 5a 7b bf 15 09 5b bf fd 0c ee be
       -0.22330908 -0.9818429 -0.85560733 -0.46494284
000370 d5 31 6d c0 60 31 c2 3f 6b e9 62 bf bc 90 fd 3e
       -3.7061665 1.5171318 -0.8863742 0.49524486
000380 71 4d 97 bf d4 90 e7 3f a6 91 c9 3e 95 6e 05 c0
       -1.1820508 1.8091073 0.39368933 -2.0848744
000390 13 35 93 3f 74 33 98 bf 6f 15 b7 3f 13 f3 e8 bd
       1.1500572 -1.1890702 1.4303416 -0.11374488
0003a0 3a 85 cb bd cb f7 bf 3f ed 51 ae 3f 7c 13 0a 3e
       -0.0993752 1.4997495 1.3618752 0.13483995
0003b0 7e e5 f1 3d f2 1b 9f 40 17 ce fe 3f f9 8d 61 be
       0.1181135 4.9721613 1.9906644 -0.22026815
0003c0 6d cb 33 3f 1c 2e df bf 98 c2 03 40 71 5a 0c be
       0.7023228 -1.7435946 2.058752 -0.13706376
0003d0 93 b7 9c be 78 03 f0 bc 5d 77 0a c0 27 c7 fe 3e
       -0.30608806 -0.029298529 -2.1635354 0.49761316
0003e0 f6 b7 99 be 3d 60 07 be 81 79 e2 bf 8e 8e 79 bf
       -0.30023164 -0.13220306 -1.769333 -0.97483146
0003f0 fa 4a e7 3f 07 8c 6f be 16 08 74 be fc 84 8c 3f
       1.8069756 -0.2339326 -0.2383121 1.0978084

conv3.bias f4 [32]
000000 a8 37 23 bd c1 83 0b 3c 1c 97 b0 bc eb 31 90 bd
       -0.039848 0.008515299 -0.02155643 -0.07040771
000010 10 7f 52 bd be 92 bb 3d a7 e3 9d 3d d0 78 3b bd
       -0.051390707 0.09158848 0.07709437 -0.045769513
000020 69 db 74 bc a0 b7 11 bd f6 b9 2b bd c3 a7 92 bd
       -0.01494489 -0.03557551 -0.041925393 -0.07160904
000030 37 9e 65 bd b5 06 1e 3c a0 5e 6a 3a db 64 8e 3c
       -0.05605909 0.009645154 0.0008940492 0.017382076
000040 ce 18 5b bd e5 d0 72 3d 82 7c 97 bd c6 ee 56 bd
       -0.053490452 0.05928125 -0.07396795 -0.052473806
000050 12 82 c9 3c 05 5e 8e 3c fd 28 8a bd cd 2e 3c 3d
       0.024598155 0.017378816 -0.06746099 0.04594307
000060 ad a5 3a bb 32 a4 13 3d a1 b1 94 bd b2 e6 21 bd
       -0.0028480098 0.03604526 -0.072604425 -0.03952665
000070 25 6b b9 bb a4 6b 58 3d ef cd 47 3d a0 06 9e bd
       -0.0056585246 0.05283703 0.048780378 -0.07716107

conv4.weight f4 [32, 32, 3, 3]
000000 86 ca 00 c0 0f d7 4e bf c8 00 a1 bf 71 18 c9 bf
       -2.012361 -0.80796903 -1.2578363 -1.5710584
000010 48 04 58 bf f8 18 db 3f 12 39 06 bf 81 fe 5e 3f
       -0.8438153 1.7116995 -0.5243083 0.8710709
000020 92 76 13 40 4c 5e d6 be 76 ea f9 be 64 11 a1 3f
       2.304112 -0.41868818 -0.48811692 1.2583432
000030 23 f6 c0 bf c8 48 e1 3e e7 c3 df 3f 37 29 59 bf
       -1.5075115 0.4400084 1.748166 -0.84828514
000040 c3 c1 0a 3f c1 4c 44 3e 47 14 c1 3f 92 6f ed 3f
       0.54201907 0.19169904 1.5084313 1.8549674
000050 40 7f 00 40 c3 5f 86 3e 9a 56 af bf 43 79 fa 3e
       2.0077667 0.26244935 -1.3698304 0.4892064
000060 a8 4f 1f bd df f0 31 3e 53 6a 96 3f fb 3d 0c 3d
       -0.038894325 0.17377041 1.1751198 0.034238797
000070 53 40 28 bf 84 2a 14 3d 57 31 a5 3e e6 12 73 be
       -0.6572315 0.03617336 0.32264206 -0.23737678
000080 a1 3e a6 3e 8a 20 88 3e d0 cb 1f be 6e 98 e9 3e
       0.32469657 0.26587325 -0.15605092 0.45624107
000090 ad 6a 6a bf 00 48 a4 be 24 9f 22 3f c6 b7 8d 3f
       -0.91569024 -0.32086182 0.6352408 1.1071708
0000a0 3f f8 c6 be 27 c1 09 3f f5 2d 3a 3f 93 7a cd 3e
       -0.38861272 0.5381035 0.72726375 0.4013258
0000b0 58 93 4f 3f 6d e0 95 3f 05 08 62 3f 00 f9 f8 3e
       0.81084204 1.1709114 0.88293487 0.48627472
0000c0 4c 83 a3 bc 78 04 70 bf 64 44 89 3f 33 cf 56 3f
       -0.019960068 -0.9375682 1.0723996 0.8390991
0000d0 4b 12 5d bf 22 56 d0 3e 95 a2 da 3e f2 43 9e bf
       -0.8635604 0.40690714 0.42702165 -1.2364485
0000e0 02 d9 0a 3f d6 31 ce 3d 7a ea 66 bf 2e 83 98 be
       0.5423738 0.10068099 -0.9020153 -0.29787582
0000f0 4a ff 1f 3f 8f 34 7d 3f 5f 96 06 40 b5 6b 06 40
       0.62498915 0.98908323 2.102928 2.100324
000100 b7 ef 32 3f a9 54 0a be e0 bd 13 3d 98 da 39 c0
       0.69897026 -0.13508858 0.03606975 -2.903967
000110 9c e4 64 3f 0e e8 6f bf af 0b b1 3f 09 63 f3 3d
       0.8941133 -0.9371346 1.383169 0.11884124
000120 26 5a bd bc b9 7a bf 3f 3f 97 31 40 fe 88 f8 bd
       -0.023114275 1.4959327 2.7748563 -0.12135504
000130 7a d0 02 3d 40 16 a1 be 68 b4 67 3f c4 14 64 3f
       0.0319371 -0.31462288 0.90509653 0.89094186
000140 33 fe f2 3e e2 cd 18 bf 6e b4 ff 3f f2 cf 51 bf
       0.47459564 -0.5968915 1.9976938 -0.81957924
000150 88 42 f8 3c 44 b2 09 3f 2e f7 b3 3f 23 c9 5e bf
       0.030305162 0.53787637 1.4059808 -0.8702566
000160 84 88 2b 40 55 be 2c 40 71 76 37 bf 36 2d 7f 3f
       2.6802073 2.699117 -0.716651 0.9967836
000170 c3 57 d9 3f 53 74 e4 bf f8 fa 07 3f 6a 89 81 40
       1.6979908 -1.7847999 0.5311732 4.048024
000180 c0 87 58 bf b9 aa e0 3e 8b d2 56 3f 02 94 b1 3d
       -0.8458214 0.4388025 0.83915013 0.086708084
000190 da be 97 3f 61 cf 84 3f 5e f5 ff 3f f3 4e 45 c0
       1.1855118 1.0375787 1.9996755 -3.0829437
0001a0 90 aa 47 3e ea 0c a8 be da 3c 57 3f ac e0 1d 3f
       0.19498658 -0.32822353 0.8407723 0.6167095
0001b0 4d da 8d 3e bb 5f 06 3f 94 29 95 bf 64 9a ea be
       0.27705613 0.52489823 -1.1653314 -0.45820916
0001c0 fd 9f 88 3f 2d 11 71 3f a3 81 0d 3f b2 19 e1 be
       1.0673825 0.94166833 0.55275935 -0.43964916
0001d0 57 bb 85 be f8 b6 8a 3e 71 e0 26 3f 45 13 6d 3e
       -0.2611949 0.2709272 0.6518622 0.23151882
0001e0 72 d0 a9 3f f6 52 cf bf b1 10 38 bf 57 ac 00 3f
       1.3266737 -1.6197193 -0.7190047 0.5026297
0001f0 4e dd 09 3f 2b d1 9b 3f 95 39 82 3f fb cc a2 3f
       0.5385331 1.2173208 1.0173823 1.2718805
000200 61 7f 8c 3f 8f cc 90 3e 8e 17 ea 3e e9 4c b8 3e
       1.0976373 0.28281066 0.45721096 0.35996178
000210 07 35 0c 3f f7 1c 8f bf a4 77 56 3d 95 39 af 3f
       0.54768413 -1.1180714 0.052360192 1.3689448
000220 9f 5b 37 3d f0 14 ab be 59 98 95 3d d1 2a b8 be
       0.04476511 -0.33414412 0.07304449 -0.35970166
000230 06 e6 21 3f d0 c4 03 3f a5 e9 c8 be c0 7c 88 3e
       0.6324161 0.5147219 -0.39240757 0.26657677
000240 6d 75 c8 3d 26 b5 88 bf f6 80 de be 3f 8e 14 bf
       0.09788022 -1.0680282 -0.43457764 -0.5802955
000250 d6 86 24 be 32 3f 80 bf 31 67 4f 3f 4c f3 8e 3f
       -0.16067061 -1.0019286 0.8101683 1.1167998
000260 ed c2 13 3f 88 8c 8c 3f d7 fd 34 3e da a1 30 bf
       0.5771931 1.0980387 0.17674957 -0.68996966
000270 42 f5 1d 3f f1 c5 7c 3d 7e 09 1b 3f fa cb a0 3f
       0.6170236 0.06171221 0.6056136 1.2562249
000280 7b 24 6a bf 7d 3a 67 3f ed 50 dd 3e 9b 44 64 40
       -0.91461915 0.9032362 0.43225804 3.5666873
000290 a9 d9 bb bd ab 48 0d 40 22 e0 23 40 c2 d0 85 be
       -0.09172375 2.2075603 2.560555 -0.26135832
0002a0 bc 2f c3 bd ad b3 f2 be ea f9 1f 3f 5c 83 0e bf
       -0.09530589 -0.47402707 0.62490714 -0.5566919
0002b0 94 3b 88 3f d3 e0 fc bf 7e bc 18 bf 0f 90 aa 3f
       1.0643182 -1.9756111 -0.59662616 1.3325213
0002c0 3e 40 f5 3f 5d b7 14 bc be b2 da bd 57 a2 2f be
       1.916023 -0.00907692 -0.106786236 -0.17151771
0002d0 a8 8f 22 bf 75 c2 b2 3f bf 09 38 bf b7 c1 7e bf
       -0.6350045 1.3965594 -0.7188987 -0.99514335
0002e0 af 3a 34 c0 6e 23 5d 3f 48 1a c6 be 7c 86 50 bf
       -2.8160818 0.86382186 -0.38691926 -0.81455207
0002f0 47 56 61 3f 90 9f d2 3f e5 e0 5c 3d cf fa da 3f
       0.88022274 1.6454945 0.053925414 1.7107791
000300 01 e0 6e bf 24 24 19 bf 02 72 31 3e 7b 82 16 3e
       -0.9331055 -0.5982077 0.17328647 0.14698212
000310 39 af 45 40 e2 29 8f 3e 51 64 1a 3c 99 13 11 40
       3.0888197 0.27961642 0.009423331 2.2668211
000320 f3 5f de 3f 0a cc 27 c0 db 82 3a bf 36 d4 9e 3e
       1.7373031 -2.6218286 -0.7285592 0.3102128
000330 a4 da a1 be c5 4e a5 3f 8b fb 8b bf a6 f6 db bf
       -0.31612122 1.2914664 -1.093614 -1.7184646
000340 7e 6f 04 c0 53 af 16 c0 aa 74 37 bd 36 94 a4 bf
       -2.069305 -2.354451 -0.044788994 -1.285773
000350 96 11 86 bf ef 8d c2 bf 90 94 df be 80 b3 5b 3f
       -1.0474117 -1.5199565 -0.43668032 0.8582077
000360 ca 34 4d 3f 1b 14 be 3f 6a b6 9f 3f 3f 14 f3 bc
       0.80158675 1.4849886 1.2477543 -0.02967274
000370 9b 23 29 40 ee 37 a9 bf 4a d3 01 40 ec 3d 3e 3d
       2.6427982 -1.3220193 2.028521 0.046445772
000380 3d c6 db bc 51 0c 4c 3f 77 98 07 3b b9 33 60 3f
       -0.026827926 0.79706293 0.0020690241 0.8757892
000390 29 a7 2b 3f ad be 5d 3d 80 6b a4 3c fd c4 2b 3e
       0.6705194 0.05413692 0.020070791 0.16774364
0003a0 6d 19 e8 3f 40 3b 1b 3e aa f8 03 40 db da b8 3f
       1.8132759 0.15159321 2.0620522 1.4441789
0003b0 a4 48 7b 3f 26 7e 79 3f b2 a7 a9 bd f2 ba d0 3f
       0.98157716 0.9745811 -0.082839385 1.6307051
0003c0 65 dd 25 3f 2e 06 b0 3e 3c 8b 64 bf 84 6d 4d bf
       0.64790946 0.34379715 -0.89274955 -0.8024523
0003d0 4a 7b 44 40 73 0c 20 bf dc 38 f7 3f ef e2 d2 bf
       3.070025 -0.62518996 1.9314227 -1.6475505
0003e0 1e cb 52 c0 f5 e2 bf 3f 4e a4 8e bf 10 8a 52 be
       -3.2936473 1.4991137 -1.1143892 -0.20560479
0003f0 a8 25 8e 3e ed a8 a0 3f c1 19 42 3f 58 10 d9 3e
       0.27763104 1.2551552 0.7582055 0.42395282

conv4.bias f4 [32]
000000 c5 63 ce bc f5 6a 0b 3d dd f9 34 bd 5c 7c 20 bd
       -0.025194058 0.03403755 -0.0441836 -0.0391811
000010 2e 3e 40 3d a2 6b 90 bb e8 8f 35 3d 5f 44 41 3d
       0.0469343 -0.004407362 0.044326693 0.047184344
000020 18 23 41 bd 75 fa 00 bd 6a 94 6b bd 22 6a 6b bd
       -0.04715261 -0.031488854 -0.057514586 -0.057474263
000030 28 5e ba bc dc a2 7e 3d f3 26 40 3d 2c 5b 39 3d
       -0.022749975 0.062167034 0.046912145 0.045252964
000040 42 93 5c 3d 19 48 3c 3c 12 1d aa 3c b2 33 37 bb
       0.053851373 0.011491799 0.020765815 -0.0027954397
000050 ad b6 95 3b 6b d5 53 bd fd 2f 0f 3c 3a d4 13 ba
       0.004568896 -0.051717203 0.008739469 -0.0005639229
000060 4d 86 06 bc 00 b1 d7 bc 98 36 6a bd 0f d2 43 3d
       -0.008210731 -0.026329517 -0.05718097 0.04780775
000070 48 60 e3 bc 07 5e ea bc 8b ea 4b 3d f9 76 7d 3d
       -0.027755871 -0.028609289 0.049784224 0.06188104

bn21.weight f4 [32]
000000 54 0b 10 40 23 e4 fe 3f e0 ab 31 40 0e 94 ad 3f
       2.2506914 1.9913372 2.7761154 1.3560808
000010 d3 b2 dd 3f 42 41 aa 3f a1 17 b8 3f 0b 10 c1 3f
       1.7320198 1.3301165 1.4382211 1.5083021
000020 ac 48 fb 3f 9a 11 17 40 26 00 c9 3f e2 46 9a 3f
       1.9631553 2.3604493 1.570317 1.2052882
000030 d8 ae d6 3f 3a 22 a7 3f 49 26 9e 3f b8 58 fb 3f
       1.6772108 1.305732 1.2355434 1.963645
000040 ef d5 cb 3f 16 46 be 3f 45 a9 b1 3f df 7e c2 3f
       1.5924662 1.4865139 1.3879782 1.5194968
000050 8d b2 92 3f c0 bc 14 40 89 7a ca 3f 98 6c f1 3f
       1.1460739 2.3240204 1.5818645 1.8861265
000060 b6 38 ee 3f ce d3 d6 3f 63 58 b3 3f 33 8a c2 3f
       1.8611057 1.6783388 1.4011348 1.5198425
000070 a2 33 e1 3f 4d 75 0a 40 3f 01 b1 3f c5 6d 89 3f
       1.7593882 2.1634095 1.3828505 1.0736624

bn21.bias f4 [32]
000000 81 73 a7 bf ff 3f 76 bf 44 27 0e c0 8d 52 41 be
       -1.3082124 -0.961914 -2.2211466 -0.18879147
000010 d6 95 81 be 69 ef 66 be 7a 5d 0a be 87 39 3a be
       -0.25309628 -0.22552265 -0.13512221 -0.18186007
000020 f5 86 62 bf 8c f6 5d bf 21 b2 ec be c1 81 50 be
       -0.8848718 -0.86704326 -0.46229652 -0.20361997
000030 a8 58 d6 3e 11 4a 1d bf 36 55 45 bf bb 99 b6 bd
       0.41864514 -0.6144114 -0.77083147 -0.089160405
000040 e6 fc 1d 3f a0 0f ab bf 5f 80 14 bf 82 b6 15 bd
       0.6171402 -1.3364143 -0.5800838 -0.036551006
000050 1c 03 d1 be 76 ef 42 bf 9f e1 f7 3e a6 b6 4f bf
       -0.40822685 -0.7614664 0.48414323 -0.81138074
000060 ef d2 9c be 74 e2 be 3e 3f 9f da be d7 ab a2 bf
       -0.3062968 0.37282145 -0.4269962 -1.2708691
000070 ae d3 19 3f 0f d7 5d bf 54 97 40 bf 23 00 51 bf
       0.6008862 -0.8665628 -0.7523091 -0.81640834

bn21.running_mean f4 [32]
000000 38 4d 81 42 10 38 92 c2 e3 90 05 c2 d9 07 eb bf
       64.65082 -73.1095 -33.39149 -1.836177
000010 7c 28 f3 41 bb 7d a8 41 f8 fe 52 41 07 c0 1d 41
       30.394768 21.061392 13.187248 9.859382
000020 51 a1 44 c2 c0 32 b7 c0 30 35 fa c1 94 05 12 42
       -49.157536 -5.724945 -31.27597 36.505447
000030 bc 15 bd c1 1b ad bd 40 c3 c3 d8 40 ba 32 3a 42
       -23.635612 5.927381 6.7738967 46.549538
000040 08 4a 24 c2 8e 92 48 42 7d e0 f4 40 e8 61 e3 c1
       -41.072296 50.14312 7.6524034 -28.422806
000050 c5 78 e1 40 c5 bb 1c 42 73 21 5e c2 fe 64 c2 41
       7.0459924 39.18337 -55.532665 24.299313
000060 f8 ec a4 40 98 59 0a c2 04 53 4d 41 f7 f2 6d c1
       5.153927 -34.587494 12.8327675 -14.871818
000070 29 67 bf c1 e4 a3 83 42 c6 12 ed 3f d1 60 9d 41
       -23.925371 65.8201 1.8521354 19.672274

bn21.running_var f4 [32]
000000 08 4c 9a 43 6d 46 23 44 e5 ae 82 43 8a aa 0e 43
       308.594 653.1004 261.36636 142.66617
000010 76 34 1b 44 77 b4 ce 43 b9 07 58 43 7f c2 2a 43
       620.8197 413.40988 216.03017 170.75975
000020 8d fd 05 44 e0 8c 5e 43 a4 6f 10 43 96 42 e5 42
       535.96173 222.5503 144.4361 114.63005
000030 35 7c ea 43 ec 81 e2 42 ee c8 bd 42 2f 67 17 44
       468.97037 113.25375 94.89244 605.61224
000040 f1 38 22 44 8d d0 27 44 a5 01 b1 42 5e c4 4a 43
       648.8897 671.2586 88.50321 202.76706
000050 bf 0b b8 42 61 66 15 44 20 1f 1a 44 0c 47 4a 43
       92.02294 597.5997 616.4863 202.27753
000060 5d 7d c9 42 d5 2b f4 43 68 2a d6 43 c5 44 af 42
       100.74485 488.34244 428.3313 87.634315
000070 1f fd d3 43 57 f0 0d 44 7f fe 3a 43 2e e5 43 43
       423.9775 567.7553 186.99413 195.89523

bn22.weight f4 [32]
000000 fa c9 b0 3f 6f 2d 06 40 32 92 db 3f 52 91 b3 3f
       1.3811638 2.096523 1.715399 1.4028723
000010 01 ed 00 40 22 ec b4 3f 6f 5f 7b 3f e9 11 a9 3f
       2.0144656 1.4134562 0.98192495 1.3208591
000020 80 6d bc 3f 8b 13 a5 3f 9d ba e0 bb a5 96 2e 3f
       1.4720917 1.2896589 -0.0068581835 0.68198615
000030 4a b3 05 40 45 f5 a1 3f 0b a2 1c 40 58 93 e2 3f
       2.089068 1.2652975 2.4473903 1.7701216
000040 15 e3 97 3f 40 9f 05 40 4b 43 73 3f c0 20 ce 3f
       1.1866175 2.0878448 0.95024556 1.6103745
000050 3d 4f ca 3f 24 49 fe 3f fe 63 b9 3f c2 a4 81 3f
       1.5805432 1.9866071 1.448364 1.0128405
000060 47 9d d3 3f 84 60 84 3f e1 68 50 3f 26 02 8f 3f
       1.6532372 1.0341954 0.8141003 1.1172531
000070 6b 1c d4 3f 52 38 92 3f f8 83 07 40 ab 06 9b 3f
       1.6571172 1.1423438 2.1174297 1.211141

bn22.bias f4 [32]
000000 6c 59 d7 bf 7b 6b 9f bf 25 5d 96 bc 5b 63 2a bf
       -1.6824164 -1.2454675 -0.018354962 -0.66557854
000010 e5 59 fb bd f1 8e e5 bf 40 8d 64 bf f7 a1 b1 be
       -0.122730054 -1.7934247 -0.8927803 -0.34693882
000020 6f 5f 1a bf 07 d9 d5 be 32 65 8d be ec d5 aa bf
       -0.6030187 -0.4176714 -0.27616268 -1.3346534
000030 03 a1 d8 be 78 83 0c bf ef e8 6d 3d 93 23 8c be
       -0.42310342 -0.54888105 0.05808347 -0.2737089
000040 b5 91 1e c0 e7 f5 44 bf 22 82 29 bf ce a9 cf be
       -2.4776433 -0.7693772 -0.6621419 -0.40559238
000050 f7 8a e6 be b8 88 17 3f 19 12 e1 bf c6 95 b5 bf
       -0.45027897 0.5919299 -1.7583648 -1.4186332
000060 65 1a b6 bf 17 db ca bf 83 61 70 bf 2b 74 5c bf
       -1.4226805 -1.5848111 -0.9389879 -0.8611476
000070 60 22 0e 3e 72 39 27 c0 bc 82 d5 be 52 91 04 be
       0.138803 -2.6128812 -0.41701305 -0.1294606

bn22.running_mean f4 [32]
000000 96 6a 19 42 6a cc f6 c1 77 6e 0c c2 9a 69 e6 c1
       38.354088 -30.849812 -35.107876 -28.801563
000010 fb ab 3a c1 61 51 92 42 b8 6a a8 c1 d9 88 5a c1
       -11.666987 73.15894 -21.052109 -13.65841
000020 ac ef c0 c1 c0 4c a1 c1 af 53 8f c0 7c ff 14 42
       -24.117027 -20.162476 -4.4789653 37.249496
000030 70 b5 b6 c1 6f e2 01 41 ac e0 09 c1 0f 3c 49 c2
       -22.838593 8.117782 -8.617352 -50.30865
000040 89 a0 19 42 68 3b 4b c2 8e c3 48 42 a6 11 65 c2
       38.406773 -50.808014 50.19097 -57.267235
000050 da cd b0 c1 51 1b 66 c2 b2 7f 7d 42 f6 20 0d 42
       -22.100513 -57.526676 63.374702 35.28219
000060 41 31 84 42 a1 b6 2c 42 90 dd 23 3d e1 5d 76 41
       66.0962 43.17835 0.04000622 15.39792
000070 81 9c cf 41 1c b3 2c 42 e2 11 d6 c1 c8 0d 90 c1
       25.951418 43.17491 -26.758732 -18.00673

bn22.running_var f4 [32]
000000 da 4d 15 44 3b f8 25 44 ea cb 3c 44 8e 0b f3 44
       597.21643 663.8786 755.18616 1944.3611
000010 19 72 a0 44 0f af 5f 44 f1 56 a4 44 ca 62 12 44
       1283.5656 894.7353 1314.7169 585.5436
000020 40 9c 9d 45 ac d2 7a 44 24 79 2b 43 7f 66 fe 43
       5043.5312 1003.29175 171.4732 508.80075
000030 2d aa ad 44 e0 63 d4 44 52 75 55 45 53 93 d1 45
       1389.318 1699.1211 3415.3325 6706.4155
000040 70 02 4c 44 52 a0 86 44 a1 f7 68 44 2c 4b a6 44
       816.0381 1077.01 931.8692 1330.3491
000050 45 81 ce 44 62 35 96 44 cd ec 21 44 d4 2e fe 43
       1652.0397 1201.6682 647.7 508.36584
000060 23 92 50 44 b1 5a 4c 44 77 74 0e 44 45 80 bd 43
       834.2834 817.41705 569.81976 379.0021
000070 1f ea 7c 44 74 2c 7b 44 8f 78 18 44 9c 79 0d 44
       1011.65814 1004.6946 609.8837 565.90015

conv5.weight f4 [64, 32, 3, 3]
000000 e1 17 81 bf c1 72 d0 3f 8d 22 03 40 6d 01 04 3f
       -1.0085412 1.628502 2.0489838 0.51564676
000010 da 79 f7 3f e5 98 13 3f af 1b 80 3f f4 f9 32 3f
       1.9334061 0.57655174 1.0008448 0.6991265
000020 53 b5 b3 bd 47 23 cf bf 50 48 cc bf a9 c9 15 bf
       -0.08774819 -1.6182641 -1.5959568 -0.58510834
000030 01 86 e2 bf bf b0 ab bf ad 82 02 3e 4b 9c 85 be
       -1.7697145 -1.3413314 0.12745161 -0.26095805
000040 ba c3 5a bf ec 05 ff 3c 5a cc f6 3c 44 5c 3c bf
       -0.85454905 0.031130753 0.03012674 -0.73578286
000050 64 10 1d 3f 80 ca 9d be ad 4d 37 be 54 59 89 3f
       0.61353135 -0.30818558 -0.17900725 1.0730386
000060 0b bc 0e 3f 4b 46 33 3f 9d bb ce 3f f8 1e 08 bf
       0.5575568 0.70029134 1.6151005 -0.53172255
000070 10 6c 2f 3e 83 3c 19 bf 07 2e 84 bf a7 ca a2 be
       0.17131066 -0.5985796 -1.0326546 -0.31795236
000080 d3 b1 89 3d d2 f6 69 bf 55 31 24 bf 54 4c 32 bf
       0.067233704 -0.9139224 -0.64137775 -0.6964772
000090 c5 bc 0c 40 ce d3 60 3f bf 3e 54 3f cd 56 65 40
       2.1990216 0.8782319 0.8290824 3.583423
0000a0 77 84 d0 3f 17 cf 8a 3f 7e cf f5 3f 85 a2 b3 3f
       1.6290425 1.0844449 1.9203947 1.4033972
0000b0 6c 0f c2 3f 42 86 77 3f d2 47 62 3f b3 5d 51 40
       1.5160956 0.96689236 0.8839084 3.271344
0000c0 c2 66 c4 3f 0c 31 c3 3f 90 18 24 40 9f 82 28 40
       1.5343859 1.5249343 2.5639992 2.6329725
0000d0 63 9c f2 3f 42 59 f7 3f 3a d4 94 3f 3b 05 c5 3e
       1.8953975 1.9324114 1.1627266 0.38480553
0000e0 d2 3a 42 be b8 ce f8 3e b0 2d ca bc 58 01 7a bf
       -0.1896775 0.48595214 -0.024679989 -0.976583
0000f0 b5 db 7c 3f 79 d6 53 3e 9f 0e a3 3e 4a af 39 be
       0.98772746 0.20687284 0.31847093 -0.18133274
000100 fd 22 85 3e 29 0f 90 3e f8 41 4e 3f a2 49 c2 3c
       0.26003256 0.28136566 0.8056941 0.023716751
000110 08 6e 84 bf a2 f1 73 bf 2a ff 32 3f 4a 7b b7 3e
       -1.0346079 -0.9529058 0.699206 0.3583625
000120 19 ac ad bd 9e c1 3e bf c1 4f 12 bf c3 9d c4 be
       -0.08480091 -0.74514186 -0.57152945 -0.38401613
000130 3b c3 14 3e 86 01 3b bf 33 92 b5 be de f1 88 be
       0.145276 -0.730492 -0.35463104 -0.2674703
000140 10 0e df be 96 57 67 3f e7 29 bf be a1 ea be be
       -0.43565416 0.9036802 -0.37336656 -0.37288383
000150 e7 1a 68 bf ad e9 45 bf d2 7c 34 bf fd 46 3e bf
       -0.9066605 -0.77309686 -0.7050296 -0.7432707
000160 c0 4b 21 bd 1e 78 3a bf e3 3e 50 bc 2f 22 a8 be
       -0.03937888 -0.72839534 -0.012710306 -0.3283858
000170 6b 50 74 3e 97 49 e6 bd c4 2f 1b be c0 e1 90 3d
       0.23858802 -0.11244505 -0.1515494 0.070743084
000180 b0 4d 85 3e d6 f7 95 be e9 db 9d bd d5 69 88 bf
       0.26035833 -0.29290646 -0.0770796 -1.0657297
000190 27 9d cd 3e fd 61 04 3f c0 3f c5 3f 37 03 ba 3f
       0.4015896 0.5171202 1.541008 1.4532231
0001a0 58 af 08 3f 02 0b 71 3f ad 8a c4 bb c1 a2 1c 3f
       0.53392553 0.9415742 -0.0059979768 0.6118584
0001b0 f7 89 d5 3f ad a6 96 3f fd 5e dc 3f 29 88 2c 40
       1.6682729 1.1769615 1.7216488 2.6958106
0001c0 de 89 ed 3f 09 dc 08 bf 92 d9 6b 40 b5 dd 29 3f
       1.8557699 -0.53460747 3.6851544 0.66353923
0001d0 05 93 78 3f c3 aa 98 3e e3 d8 fc 3f 2f 54 78 bf
       0.97099334 0.2981778 1.9753689 -0.97003454
0001e0 58 38 a9 3f 9c 58 cb 3f b6 5c 32 bf 18 b1 dc 3e
       1.322032 1.5886416 -0.69672716 0.43103862
0001f0 00 34 e4 3d 0b f9 3e 3f f6 cf fc 3f 25 85 2f 3f
       0.11142731 0.7459876 1.9750965 0.6856254
000200 5a 64 ba 3f 76 d5 7e 40 b1 3f 16 40 01 75 e7 3f
       1.4561875 3.9817786 2.3476374 1.8082582
000210 ca 30 47 40 9d 97 00 3e 0b 83 f8 3f 46 5e a5 be
       3.1123528 0.12557836 1.9414991 -0.32298487
000220 24 eb a8 be fd 09 48 be 49 67 86 bf dd 02 70 bf
       -0.32991898 -0.1953506 -1.050027 -0.9375437
000230 71 af 9b be 45 7d 7e bf 8e 62 94 bf 7f 88 94 bf
       -0.3040729 -0.99409896 -1.1592577 -1.1604155
000240 04 f8 bf bf 66 5f c6 bf 4f 38 e8 bf 2a 1c f5 3e
       -1.4997563 -1.5497863 -1.8142184 0.4787305
000250 53 30 f0 bf e7 d0 46 c0 e2 52 db bf 1d 72 90 bf
       -1.8764747 -3.1065004 -1.7134669 -1.1284825
000260 f7 87 1f bd 6a ba 75 3f 59 eb 0a 3f 73 7f d2 3e
       -0.038948026 0.9598757 0.5426536 0.4111286
000270 bf bb 92 3d 41 d8 a8 bf 0a 78 00 40 ac 20 fd 3f
       0.07164716 -1.3190995 2.0073266 1.9775596
000280 4b cf 6b be 89 f4 04 40 23 29 19 bf fc 8d 07 bd
       -0.23028295 2.0774252 -0.59828395 -0.03309439
000290 fe c6 6c 3f 56 5e 9d 3f ea 85 31 3d 3b 45 7b be
       0.9249114 1.2294414 0.0433406 -0.24538128
0002a0 8e 7f 90 3e 63 a6 f5 3e b5 b6 b4 3f 19 93 8f bf
       0.28222317 0.47978505 1.4118258 -1.1216766
0002b0 48 0a a4 be 15 2d 1a bf d8 66 73 bf be bf 2e bf
       -0.32039094 -0.6022504 -0.950788 -0.68261325
0002c0 c2 af 86 bf 19 a5 b3 3d c6 9c e4 3e 2d c3 b9 bf
       -1.0522387 0.08771724 0.4465086 -1.4512688
0002d0 3b 4d c2 3e 31 2e 11 bf 61 08 c8 bf de cc 70 be
       0.37949547 -0.5671111 -1.5627557 -0.2351565
0002e0 1b e6 9f 3e 1d f2 7b bf 2b 4f 20 bf f0 fc 92 bf
       0.31230244 -0.9841631 -0.626208 -1.148344
0002f0 99 bb 33 3f b0 0d 8b 3f a4 d3 e5 3e 1d 85 b4 3f
       0.70208126 1.0863552 0.4488803 1.4103123
000300 19 41 35 bb c0 5c b9 3f ba 3e 05 3f 7c 35 65 3f
       -0.002765721 1.448143 0.5204884 0.89534736
000310 c3 cc 55 3e 6b 7c 24 be d6 ec ba 3e fb a2 15 bf
       0.20878892 -0.16063087 0.36508816 -0.58451813
000320 98 46 ee 3e 7d 83 0d 3e e8 01 30 3f 2b a4 01 bf
       0.46538234 0.1381969 0.6875291 -0.50641125
000330 f3 35 29 3e 6d ed b6 be 82 28 27 3f de 5f 81 bf
       0.16524486 -0.35728016 0.65296185 -1.0107381
000340 0f 2f 22 40 c2 a2 95 3f 3a de de 3f 4a b5 46 40
       2.5341222 1.1690295 1.7411568 3.104815
000350 9d 27 83 3f b1 1a 03 40 0a cc 76 3f ab ef 19 3f
       1.0246464 2.048504 0.9640509 0.6013133
000360 75 1a ac 3f a8 a7 4a 3e 31 cd 0a 3f db 3f 26 3e
       1.3445574 0.19790518 0.5421935 0.16235296
000370 48 85 4c 3f ee 8c 5e 3f 5d c9 18 bf 54 34 35 3e
       0.7989087 0.8693379 -0.59682256 0.17695743
000380 64 a6 91 3f 91 bb ac bf 3a b2 d1 be 72 7b ac 3f
       1.1378903 -1.3494741 -0.4095629 1.3475173
000390 21 fd ac 3f b3 8d d3 3f a3 23 9d be 4f 9e 90 3f
       1.3514749 1.6527618 -0.3069125 1.1298312
0003a0 69 ef f6 3d f7 ea 88 3f 3b 00 36 3f 8c fa 36 3f
       0.120573826 1.0696706 0.710941 0.71476054
0003b0 06 c4 3d c0 46 43 1e be 50 df 8e bd 0e a5 a3 be
       -2.9650893 -0.1545535 -0.06976187 -0.31961864
0003c0 89 99 0a c0 8e 5a 35 bf 68 fc a8 3f d6 85 f3 be
       -2.165621 -0.708413 1.3202028 -0.47563046
0003d0 1e fe 07 c0 fb 24 a1 3e a0 4c d3 be 64 3a c2 be
       -2.124885 0.31473526 -0.41269398 -0.37935174
0003e0 66 1f 00 bf 04 36 2c bf 9f cf e7 be f8 15 55 3f
       -0.5004791 -0.6726992 -0.4527559 0.83236647
0003f0 eb e0 14 40 4c c0 6c 3f cf 84 8d be e9 46 22 40
       2.326228 0.9248092 -0.27640387 2.535578

conv5.bias f4 [64]
000000 d2 c3 06 bd c9 39 0c 3c 3f 0e 23 3d 6c df b6 bc
       -0.032901593 0.008558699 0.039808508 -0.022323333
000010 25 68 43 3d 5e 24 4c 3c 84 59 1a bd c0 e8 84 bd
       0.04770674 0.0124598425 -0.037683025 -0.06489706
000020 a3 67 a4 b9 d5 a5 2e 3d 8b 7d f0 bc d6 46 4c 3c
       -0.00031357733 0.04263862 -0.029356739 0.0124680605
000030 6e 5f 7b 3d af cb d5 3c 8a 97 85 3a dc a0 40 bd
       0.061370306 0.0260981 0.0010192257 -0.047028407
000040 5f 0a 8a 3c 7f e0 df 3c cc 29 60 bd 30 28 23 3d
       0.016850648 0.027328728 -0.05472736 0.039833248
000050 b0 f4 68 3d 08 34 07 bd 81 cf 03 3d 11 69 86 bc
       0.056873977 -0.033008605 0.032180313 -0.016407521
000060 d7 55 c9 3b 2a 46 30 3d f5 d4 0a 3d 1a 24 24 bd
       0.006144266 0.043035664 0.033894498 -0.04007349
000070 76 b6 1d 3d 00 16 60 3d 70 c0 4b bc e5 da a1 bc
       0.038504086 0.05470848 -0.012436017 -0.019757697
000080 f8 36 84 3c bb a4 a5 bb b3 50 2b bd 08 9b 20 38
       0.016139492 -0.005055038 -0.041825008 3.8291357e-05
000090 c8 1e 33 3d 92 85 08 bd ad c2 f7 3c b1 29 77 3d
       0.043730527 -0.033330508 0.030244196 0.060342494
0000a0 8a ff 32 3d 57 b3 73 bb 9b cd 11 3d 78 9d c7 bc
       0.043700732 -0.0037185752 0.03559647 -0.02436708
0000b0 2b 98 6e bb e3 cd 60 3d bd ed 47 3d 5b 44 84 3c
       -0.0036406617 0.05488385 0.04881071 0.016145876
0000c0 be 87 55 3d 69 f1 cc bc c2 ea 35 bd d0 06 3d 3d
       0.052131407 -0.025017457 -0.044413336 0.046149075
0000d0 c6 67 b1 3b d5 95 cf bb 55 c9 1d 3d 8a 73 e9 bc
       0.005413982 -0.006335 0.038522083 -0.028497476
0000e0 32 0f 74 3d d2 d3 53 bc 2d 24 6e 3c f7 0e 53 bd
       0.059584804 -0.01292892 0.014534992 -0.051527943
0000f0 1a 65 53 3d 8a 94 22 3d 29 ae 69 3d 27 6f 61 3d
       0.05161009 0.03969244 0.057050858 0.055037644
