checkpoints/best_model_0206_1.pth (torch, 168602 bytes, 20 tensors)

conv1.weight f4 [16, 1, 3, 3]
000000 61 69 ad be 02 8b e8 3e 1b 6d a8 3e 36 df 20 c0
       -0.3386946 0.45418555 0.3289574 -2.5136237
000010 93 c3 06 bf 19 8a 1d 3f ca 9e 2d bf 98 2e 14 c0
       -0.5264217 0.61538845 -0.6782042 -2.3153439
000020 0f d2 8b 3d 8f 6e a5 bd 0f ef ab bd 97 b8 af bd
       0.06827175 -0.08077728 -0.08395206 -0.085801296
000030 4b e1 81 3e 6f 19 75 be 70 aa 5e 3e 49 bd 57 3c
       0.25367197 -0.23935483 0.21744704 0.013167688
000040 ad ab a4 be bb 7b b7 bd 16 d9 96 be 00 79 6a 3c
       -0.32162228 -0.089591466 -0.29462498 0.014311075
000050 5b 2d 80 be 6e a6 59 3e d0 c4 f4 3d 3e 9c 6f 3e
       -0.25034603 0.21254894 0.119516015 0.23399445
000060 00 70 b2 3d 46 97 87 3d f0 fe e6 3d 2a b6 2d 3e
       0.087127686 0.0662065 0.11279094 0.16964021
000070 07 f8 07 c0 00 21 aa bd cd 4a 01 3f db df d1 c0
       -2.1245134 -0.083070755 0.5050476 -6.558576
000080 95 ec b8 bf a7 21 89 3e 85 bc db bf 43 2b fe bc
       -1.4447199 0.26783487 -1.7166907 -0.031026488
000090 86 2c 2d 3e 26 f7 6c 3e 06 76 39 be 64 77 90 be
       0.16911516 0.23141155 -0.18111429 -0.28216088
0000a0 ee 66 86 be 20 9a 33 be 2e 24 32 be 57 30 9e be
       -0.26250404 -0.17539263 -0.17396614 -0.30896255
0000b0 a6 01 4c be 3e 17 c3 3a 16 ae cf 3e 6c eb 97 3e
       -0.19922504 0.0014884246 0.40562505 0.296718
0000c0 74 fb 74 3e 6e 91 c4 3e 11 a5 cb bd 50 7f 1b be
       0.23924047 0.38392204 -0.09943593 -0.15185285
0000d0 8f 9d 20 bf 9c d0 7d c0 e2 6d 01 c0 0c e4 98 3e
       -0.62740415 -3.9658575 -2.0223317 0.29861486
0000e0 9b 5f 30 3f 68 25 8d 3d fe be b9 3f bb e5 50 3f
       0.6889588 0.068919 1.4511411 0.8160054
0000f0 d9 7e c7 bf e8 43 d9 3e 3b bd 45 3f 9b 5e a0 bd
       -1.5585586 0.4243462 0.7724187 -0.078305446
000100 72 24 87 be a2 a9 80 3e 20 9b 6a bd 1e 85 11 be
       -0.26394993 0.2512942 -0.057276845 -0.14210936
000110 10 68 88 bd 8b 64 db bd 6b bf 16 3e 33 16 5f be
       -0.06660473 -0.107125364 0.14721458 -0.21785812
000120 f1 0d 95 3e 0c 95 05 3f 22 d1 16 3e 7c 4f ad bf
       0.291122 0.5218055 0.14728215 -1.3539882
000130 7a 20 e0 bf a9 da 1f c0 42 3e d2 3e 22 00 02 3f
       -1.7509911 -2.497721 0.41063124 0.5078145
000140 98 ab 5f bf a7 99 f5 bd 3a 69 82 3d 6e ef ac bd
       -0.87371206 -0.119921975 0.063677266 -0.08444105
000150 2e 07 c4 bd b9 78 8d 3e 87 da 95 be ab e3 a7 be
       -0.09571682 0.27631167 -0.29268286 -0.32790884
000160 a5 04 5f 3e c9 99 94 bd 8a bc 40 bd 5b 14 9f 3e
       0.21779115 -0.07255895 -0.047054805 0.31070217
000170 f0 20 bd 3b 84 73 b8 3d 02 1e c3 3c 66 17 f7 be
       0.0057717487 0.09006408 0.02381802 -0.4826004
000180 0c f8 c1 be d6 d2 b9 be fc 02 36 bd e4 a4 a2 3d
       -0.37884557 -0.36293668 -0.04443644 0.07941607
000190 17 85 32 3d 7d d7 5d 3d 16 19 8a 3e 6c 31 ff 3d
       0.043583956 0.054160584 0.26972264 0.12460598
0001a0 fe d8 8c be be 26 eb 3d 15 b3 89 3e 54 8c 17 be
       -0.27509302 0.11481999 0.2689444 -0.14799625
0001b0 39 e6 0c 3e 00 22 3f be b2 11 5c be bb e8 0a be
       0.13759698 -0.18665314 -0.21491125 -0.13565342
0001c0 4e ed aa be 29 55 c2 be 3f cd 26 3e a3 75 a2 be
       -0.33384174 -0.37955597 0.16289233 -0.31730375
0001d0 b4 6b 54 be 1b cb 00 be 88 2e 30 3e 18 b0 a5 be
       -0.2074421 -0.12577479 0.1720525 -0.3236091
0001e0 93 67 91 be 8b 4b 4b 3e c0 2d ea bc be a9 30 be
       -0.28399333 0.19853036 -0.028586268 -0.17252252
0001f0 4b 35 5c 3d f0 c1 84 3e 0e 27 21 be d0 3b ac 3d
       0.05376176 0.25929213 -0.15737554 0.08409846
000200 20 2f 9a 3d be 23 3c be 18 4c 31 3e eb 13 39 be
       0.0752852 -0.1837301 0.17314184 -0.18074004
000210 90 5c e8 bd 56 23 6d bb 2e c6 9f 3e 21 59 77 3d
       -0.1134578 -0.0036184392 0.31205887 0.060387734
000220 37 78 80 be 7c f7 b4 bc a5 29 3d be e2 97 fe 3d
       -0.25091717 -0.022090666 -0.18472917 0.12431313
000230 7f 6c 76 3e fa 0c c7 bc 69 c5 49 3e 2e 37 f2 bc
       0.24064825 -0.02429818 0.19704212 -0.029567327

conv1.bias f4 [16]
000000 57 b1 1a 40 e8 4a 6a be 1b 43 a2 be 3d 52 9b 40
       2.417074 -0.22880137 -0.31691822 4.853789
000010 ca c3 88 be eb 1e 8b 3d 64 47 d9 bd b8 25 5c be
       -0.26711875 0.067930065 -0.1060932 -0.21498764
000020 ab ab db 3f dd d5 78 be 9a 87 95 be 47 1d 96 be
       1.7161764 -0.24300332 -0.29205018 -0.29319212
000030 25 be 06 be 2a 11 9b be 58 5f 99 be b5 e1 b0 be
       -0.13158472 -0.30286533 -0.29955554 -0.345472

bn1.weight f4 [16]
000000 e6 cd af 3f 4b 6b b4 3f 00 00 80 3f c2 07 4c 40
       1.373471 1.4095243 1.0 3.1879735
000010 00 00 80 3f 74 19 27 3f 3a 82 f1 3e 00 00 80 3f
       1.0 0.65273213 0.47169667 1.0
000020 2c 69 9e 3f 14 1d 87 3f eb 41 a2 3f 20 3e 88 3f
       1.2375846 1.0555749 1.2676367 1.0643959
000030 a2 68 98 3f 00 00 80 3f 00 00 80 3f 68 76 6f 3f
       1.1906931 1.0 1.0 0.9354005

bn1.bias f4 [16]
000000 75 b9 df be b2 28 84 ba e1 3f a4 3f 0d 8b 58 3d
       -0.4369618 -0.0010082929 1.2831994 0.052866984
000010 fc e1 68 bf f5 a5 96 be b5 95 7a 3d de c3 fb be
       -0.90969825 -0.2942349 0.061177928 -0.49172872
000020 29 2a 67 bd 0e 9e 0a bd de b3 0e 3b 2d 5c b9 bb
       -0.05643669 -0.03384214 0.002177469 -0.00565674
000030 2c b8 aa 3a 81 01 01 bf 93 89 01 bf ab db d7 3b
       0.0013024858 -0.5039292 -0.50600547 0.0065874658

bn1.running_mean f4 [16]
000000 1d 39 16 40 04 00 00 00 00 00 00 00 1d 4d 96 40
       2.347236 6e-45 0.0 4.6969132
000010 00 00 00 00 6a 8a 61 3d e3 c2 96 3c 00 00 00 00
       0.0 0.055063643 0.018403476 0.0
000020 cd 4a d3 3f 31 73 4a 29 04 00 00 00 04 00 00 00
       1.6507202 4.4952923e-14 6e-45 6e-45
000030 04 00 00 00 00 00 00 00 00 00 00 00 04 00 00 00
       6e-45 0.0 0.0 6e-45

bn1.running_var f4 [16]
000000 f7 8b 08 3d 04 00 00 00 04 00 00 00 e4 0b 0c 3e
       0.033336606 6e-45 6e-45 0.13676411
000010 04 00 00 00 bd 37 ad 3a 7a 7c cb 3b 04 00 00 00
       6e-45 0.0013215464 0.006209907 6e-45
000020 4e 81 dd 3c c2 48 ad 24 04 00 00 00 04 00 00 00
       0.027039196 7.515005e-17 6e-45 6e-45
000030 04 00 00 00 04 00 00 00 04 00 00 00 04 00 00 00
       6e-45 6e-45 6e-45 6e-45

conv3.weight f4 [32, 16, 3, 3]
000000 ab 2a 7e 3c 73 52 63 bc 45 8d e8 3c 56 69 d4 bc
       0.0155131025 -0.013874638 0.028387675 -0.025929134
000010 5b 5a b0 bd 4a ae 56 bd 75 4a 26 bd f7 09 b8 bd
       -0.08610984 -0.05241231 -0.04059835 -0.08986276
000020 85 26 02 bd 75 6a 57 3d 98 05 e0 3c fe 48 0e 3d
       -0.031775016 0.05259176 0.027346417 0.03473758
000030 92 82 28 3e db 66 9c 3d 9e 9e 99 3d b6 15 94 3e
       0.16456059 0.076368056 0.07500957 0.28922814
000040 db 03 60 3e db 75 7d 3e 53 2c 54 be 89 1b eb bd
       0.2187647 0.2475199 -0.20720033 -0.11479861
000050 92 00 c2 bd 15 6f 1d be 4a bf 61 be 0d 85 6c be
       -0.09472765 -0.15374406 -0.22045627 -0.2309763
000060 83 29 92 bd 5c b9 c8 bd 14 5b 2d bc bb 0f ed bd
       -0.07136824 -0.098009795 -0.010580797 -0.11575266
000070 46 5b a0 bd 5f 3e 13 be 98 4c 3c bd c8 7b af bd
       -0.07829909 -0.14379261 -0.045971483 -0.08568531
000080 8c cf 8d bc 05 79 15 be 3b 0d 38 bd 9b 32 7b b9
       -0.01731088 -0.14596947 -0.044934493 -0.00023956077
000090 8b 61 c1 3d be a3 0e 3d 33 26 f7 3c 26 81 e7 3d
       0.09442433 0.034824125 0.030169582 0.1130393
0000a0 ad 1e b8 3d 9b 00 32 3d 16 27 d8 3d fe 6f fb 3c
       0.08990226 0.04345761 0.1055433 0.03069305
0000b0 9f d2 07 3e 67 f3 bf bc 88 a2 9a bd 43 74 e0 bc
       0.1326394 -0.023431493 -0.075505316 -0.027399188
0000c0 d0 70 93 bd 47 08 aa 3c 25 8d a8 3b 28 14 93 bd
       -0.07199252 0.0207559 0.005143779 -0.07181579
0000d0 ff f7 17 bc a7 1f 74 bd 1a b2 fd bc 6f 13 a8 bc
       -0.0092754355 -0.0596005 -0.030968715 -0.02051708
0000e0 01 13 26 bd c4 40 4c bd a9 96 03 be b0 2b 9e bb
       -0.040545467 -0.049866453 -0.12850441 -0.0048269853
0000f0 37 45 de bd 83 da 51 bd 22 03 6b 3c bb 53 7d 3d
       -0.108530454 -0.05123378 0.014344009 0.06184743
000100 00 83 5e 3a 9a 96 da 3d 20 39 99 3c 45 d1 a9 3d
       0.00084881485 0.10673256 0.018703997 0.08291868
000110 9f 29 15 3e 60 d4 ce 3d e1 af 0e 3e 86 93 3c 3c
       0.14566658 0.10099101 0.1393428 0.011509782
000120 7d d5 5b bd 67 f0 1b bd ee 40 d2 bd 77 c8 d1 bd
       -0.053670395 -0.038071062 -0.102662906 -0.10243314
000130 00 36 8d bc b0 b3 a3 bd c2 25 98 3c 92 4b 3e bd
       -0.017237663 -0.07993257 0.018572692 -0.04645879
000140 7c a9 8b bc af b5 7f bc 42 d4 22 3c cf 12 7f 3b
       -0.01704859 -0.015607282 0.0099383015 0.0038921123
000150 51 f1 e0 3d 81 36 cd 3d 5c e9 ad bd 49 83 4f 3d
       0.109835275 0.100201614 -0.084917754 0.050662313
000160 61 eb bc 3d b9 77 5b 3e 3b b5 84 3d 81 27 b0 3d
       0.092245825 0.2143239 0.064798795 0.08601285
000170 d3 78 04 3e 71 4b 09 3d a3 b6 05 3e 18 f9 49 3d
       0.12936716 0.033519212 0.13057952 0.04930982
000180 d5 95 4c 3e 2e 34 15 3e fe ab 95 3e 82 8d a9 3d
       0.19979031 0.14570686 0.29232782 0.082789436
000190 f6 b3 6d 3d 66 19 a4 3c d3 96 32 3e 06 b1 10 3e
       0.058032952 0.020031642 0.17440347 0.14130029
0001a0 88 48 87 3d 22 a2 93 3d 97 9d 44 3e c1 da 12 3e
       0.06605631 0.07208659 0.19200741 0.1434126
0001b0 19 1b 51 bc 51 90 07 3e 80 46 9a bc 94 a2 35 3d
       -0.012762808 0.13238646 -0.018832445 0.0443445
0001c0 f7 e2 34 3e d2 f3 38 3b 68 cc c6 3c e5 7d da 3d
       0.17664705 0.00282215 0.02426739 0.10668544
0001d0 29 d7 0a 3e e9 74 0b 3e bd c1 ce 3d e1 6f ae bc
       0.1355864 0.13618816 0.100955464 -0.021293582
0001e0 bd 0f a3 3d f7 0b 0f 3d 71 e8 01 3e 17 75 10 bc
       0.07961986 0.03492352 0.12686326 -0.008816979
0001f0 44 c7 4c 3d a2 7d f9 bc 7c db b5 bc d9 95 c5 bc
       0.049994722 -0.030455414 -0.022199385 -0.024119304
000200 97 07 96 3d bd 13 14 3d 57 8e 2c 3e 84 26 dd 3c
       0.073256664 0.036151636 0.16851173 0.026995905
000210 7b 3e e8 3d f0 9f e5 3d aa c9 95 3d 7a 0f 72 3c
       0.11340042 0.11212146 0.07313855 0.014774198
000220 a8 cb a6 3b 00 ff 6d bc ba d1 c1 bc 55 15 41 bd
       0.0050901957 -0.014526129 -0.023659576 -0.047139484
000230 65 99 2e bd 19 ff 90 bd fa a5 d4 bd 64 4a 89 bd
       -0.042626757 -0.07079906 -0.1038322 -0.06703642
000240 99 60 04 be 77 2a 73 bd a1 65 19 be 6a 6a a6 be
       -0.12927474 -0.05936667 -0.14980175 -0.32503062
000250 81 ac 71 3c 52 7d 25 3e 8b 16 68 be 22 fa 8e be
       0.014750601 0.16161087 -0.2266485 -0.2792521
000260 67 1d 48 3d 08 85 d0 3c ae fd 54 3e 15 60 42 3e
       0.048856165 0.02545406 0.20799896 0.18981965
000270 81 b4 30 3e c7 a0 98 3e f0 14 71 3e 7a c4 ae 3e
       0.17256357 0.29810163 0.23543143 0.34134275
000280 b6 f1 55 3e ff 44 69 3e 9a d7 0b be f3 c7 12 be
       0.20892987 0.22780226 -0.13656464 -0.14334087
000290 c3 51 75 bd 2d e0 95 be 9a 71 69 be 76 e1 0c be
       -0.059892427 -0.29272595 -0.22797242 -0.13757882
0002a0 5a 75 be be 34 13 b7 be 1d 13 69 be 86 bc da 3b
       -0.37198907 -0.35756838 -0.22761197 0.006675306
0002b0 49 16 05 be 5a 18 65 bd 2a 38 5b be d3 24 88 be
       -0.12996782 -0.055931427 -0.21408144 -0.26590595
0002c0 e1 66 5e be 06 5e b1 be 1e 52 13 be 0b d8 36 be
       -0.21718933 -0.34642047 -0.14386794 -0.17855851
0002d0 f1 d9 60 3e 2e c0 7f 3e d3 55 d7 3d c8 2c a3 3e
       0.21958138 0.24975654 0.105144165 0.31870103
0002e0 bb 9b 8b 3e 83 48 8a 3e 61 97 ad 3e 0f 07 bc 3e
       0.2726725 0.27008447 0.33904555 0.36724135
0002f0 35 31 4c 3e 08 a1 27 3d 36 94 1f be 7d 01 09 3d
       0.19940646 0.040925056 -0.15583882 0.033448685
000300 dc a8 d9 3c 3c e9 b8 bd 6c 5b 91 3d 90 ee ae bd
       0.026569776 -0.09028861 0.070975155 -0.08541596
000310 7f a4 6b be 05 0e 29 be d6 b2 d0 bd c7 a9 28 3c
       -0.23011969 -0.16509254 -0.1019036 0.010294384
000320 52 1c 8c bd 69 eb 4b be a5 20 21 be 1c 5e 63 3d
       -0.06841339 -0.1991402 -0.15735109 0.05550967
000330 7a b2 c9 bd 93 c3 d7 bd e9 1b e0 3c 34 81 84 3e
       -0.09848495 -0.1053535 0.027357059 0.25879824
000340 21 54 28 3e d7 ec d7 3c 3a c8 a7 3e 4a 95 95 3e
       0.16438343 0.026358051 0.32769948 0.2921546
000350 56 73 15 3e 53 3e cb 3e 86 84 cd 3e 99 40 43 3e
       0.14594778 0.39695987 0.4014017 0.19067611
000360 4f e6 28 be 40 c0 21 be ef 26 23 be 59 9a 82 be
       -0.16494106 -0.15795994 -0.1593282 -0.25508383
000370 96 16 82 be 05 a2 7f be a7 79 99 be f3 c7 2e bd
       -0.25407857 -0.2496415 -0.29975626 -0.042671155
000380 02 b2 5f be cf 0d 1b 3d d6 07 08 3e 7e eb 31 3d
       -0.21845248 0.037854966 0.13284239 0.043437473
000390 06 4e 57 3e 51 9b 40 3e 0f fe 46 3e ee 5c f4 3d
       0.21025857 0.18809249 0.19432853 0.119317874
0003a0 6b 57 3a 3d 41 1e 44 3e c9 5c d5 3d 33 e2 e3 3d
       0.045493525 0.19152166 0.10418088 0.111271285
0003b0 8a 76 ac 3d 95 1f 7f 3e 1c 34 96 3e 53 c6 5f 3e
       0.08421047 0.24914391 0.2933663 0.21852998
0003c0 ef f0 ae 3e 27 e1 9a 3e 6f 8d 57 3e 53 dc 7a 3e
       0.34168193 0.30249903 0.21050046 0.2449811
0003d0 b2 f7 6c 3e e6 52 ac 3c 75 e7 a9 3e 6b 2b cb 3e
       0.23141363 0.021035623 0.331844 0.39681563
0003e0 10 3e 17 3e 5b 6b aa 3e d5 2c c0 3e 3c 3f 72 3e
       0.14769769 0.3328503 0.37534204 0.23656934
0003f0 ef 45 0e 3e f4 73 8e 3e 62 34 5b 3c 48 75 8d 3d
       0.13893865 0.2782284 0.013379188 0.06907135

conv3.bias f4 [32]
000000 c8 8c 09 be cd f9 b2 be 22 74 96 40 da 6a 95 3c
       -0.1343261 -0.34956208 4.7016764 0.018239427
000010 ea 13 e9 bd 32 8a d0 bc b0 99 a7 ba cd 18 43 3e
       -0.113807514 -0.025456522 -0.0012786891 0.1905243
000020 2b 4c de bd 06 e3 c4 be 52 d5 c1 3c e2 ca 16 bd
       -0.10854372 -0.38454455 0.02366129 -0.036814578
000030 8a b1 f3 bd e3 ec b1 be b8 8c db 3f 45 01 dd 3f
       -0.11899097 -0.34751043 1.7152319 1.7266012
000040 be 56 bb 3c 56 29 74 3d 09 0a 9c be 01 ca 4d be
       0.02286851 0.059609734 -0.30476406 -0.2009659
000050 7a ed 8d 40 26 97 3c be 09 37 0e 40 30 a4 f6 3e
       4.435239 -0.18417034 2.222109 0.4817214
000060 42 68 27 41 d5 9c 94 bd bc 8c 8b bc 94 98 1e be
       10.462954 -0.07256476 -0.01703488 -0.15487891
000070 9c 50 18 be 9e 74 38 be 2d 21 98 3f 76 6a 20 be
       -0.148745 -0.18013236 1.1885124 -0.15665612

bn2.weight f4 [32]
000000 0f f3 84 3f 26 77 57 3f 85 e9 db 3e d0 2d 84 3f
       1.0386676 0.8416618 0.429516 1.0326481
000010 ff 15 82 3f f8 4b 8b 3f b1 3d 96 3f 95 e2 83 3e
       1.0162963 1.0882559 1.1737577 0.25758806
000020 0d 05 a2 3f 40 94 41 3f e3 fe 79 3f 5a 2f 6a 3f
       1.2657791 0.75616837 0.9765455 0.914785
000030 de fc 8a 3f 5d 73 5e 3f 3a a3 d3 3e 18 f6 07 3f
       1.0858419 0.8689478 0.4133547 0.53109884
000040 2f 27 4a 3e fc ac a3 3e 6e 90 4e 3f b8 61 71 3f
       0.1974151 0.31967914 0.8068913 0.9428973
000050 f8 7f e1 3e a6 8c 10 be 5a 9b 83 3e a1 c7 d3 be
       0.44042945 -0.14116153 0.2570446 -0.41363242
000060 f8 45 13 3f f6 d9 9b 3f 73 2c 8d 3f 64 97 50 3f
       0.5752864 1.2175891 1.102919 0.81481004
000070 ef fe 61 3f c5 ff e7 bd 44 6a a1 3e bb e7 56 3f
       0.8827962 -0.11328081 0.31526387 0.8394734

bn2.bias f4 [32]
000000 0a 67 79 40 7f 8a 5b 40 a9 ba 75 bf 20 14 6b 40
       3.896914 3.4303281 -0.95987946 3.6731033
000010 5f 81 87 40 26 c9 5e 40 58 f7 16 c0 3a 58 02 40
       4.2345424 3.4810271 -2.3588467 2.036635
000020 a4 94 6d c0 40 64 5a 40 49 b4 6c 40 df 15 7d 40
       -3.7121973 3.4123688 3.6985037 3.95446
000030 c2 0f 3f 40 5f dd 63 40 0d 31 a4 3c 92 57 2e bc
       2.9853368 3.5603864 0.02004292 -0.010640996
000040 b7 23 10 40 1b 24 89 bf 00 e7 65 bc b5 13 40 c0
       2.2521799 -1.0714144 -0.0140321255 -3.0012028
000050 db d6 68 3f 68 6d 62 c0 38 d8 57 40 8d 00 3d 40
       0.90952843 -3.5379276 3.372572 2.9531586
000060 e8 a8 c3 3f c9 e9 41 c0 0d 21 46 40 2d 93 8b 40
       1.5285921 -3.029894 3.0957673 4.361716
000070 39 c8 8a 40 34 52 c3 3c c1 f6 c2 3f 0b 58 87 40
       4.3369412 0.023842908 1.5231553 4.2294974

bn2.running_mean f4 [32]
000000 04 00 00 00 04 00 00 00 39 08 2b 42 04 00 00 00
       6e-45 6e-45 42.75803 6e-45
000010 04 00 00 00 04 00 00 00 04 00 00 00 71 67 d5 42
       6e-45 6e-45 6e-45 106.702034
000020 04 00 00 00 04 00 00 00 04 00 00 00 04 00 00 00
       6e-45 6e-45 6e-45 6e-45
000030 04 00 00 00 04 00 00 00 e6 a7 11 42 aa 2b fe 41
       6e-45 6e-45 36.413963 31.77132
000040 64 b7 e7 42 ac 42 bb 42 04 00 00 00 04 00 00 00
       115.858185 93.63022 6e-45 6e-45
000050 cc 95 4a 42 04 00 00 00 d5 9d 87 42 2f c1 ed 40
       50.646286 6e-45 67.808266 7.429832
000060 ef fa 98 42 04 00 00 00 04 00 00 00 04 00 00 00
       76.490105 6e-45 6e-45 6e-45
000070 04 00 00 00 04 00 00 00 d6 ca 67 42 04 00 00 00
       6e-45 6e-45 57.948082 6e-45

bn2.running_var f4 [32]
000000 04 00 00 00 04 00 00 00 27 56 f4 42 04 00 00 00
       6e-45 6e-45 122.16827 6e-45
000010 04 00 00 00 04 00 00 00 04 00 00 00 d5 e7 00 43
       6e-45 6e-45 6e-45 128.9056
000020 04 00 00 00 04 00 00 00 04 00 00 00 04 00 00 00
       6e-45 6e-45 6e-45 6e-45
000030 04 00 00 00 04 00 00 00 1d 4d 76 42 84 28 35 43
       6e-45 6e-45 61.575306 181.15826
000040 42 9b 21 43 bf fa c9 42 04 00 00 00 04 00 00 00
       161.60648 100.98974 6e-45 6e-45
000050 f3 fc f6 42 04 00 00 00 74 16 d6 42 f1 ec 02 43
       123.49404 6e-45 107.04385 130.92555
000060 e5 02 8f 43 04 00 00 00 04 00 00 00 04 00 00 00
       286.0226 6e-45 6e-45 6e-45
000070 04 00 00 00 04 00 00 00 7f 0a 79 42 04 00 00 00
       6e-45 6e-45 62.26025 6e-45

conv5.weight f4 [64, 32, 3, 3]
000000 f1 31 03 be f7 1c 2e be 61 22 d5 bd 23 f4 22 be
       -0.1281202 -0.17003237 -0.10406948 -0.15913443
000010 73 21 25 be 77 2f ba bd 18 97 99 bd 44 da 2b be
       -0.16126041 -0.090910845 -0.07499522 -0.1678248
000020 24 5c 08 be 9b b9 77 be cb b8 51 be 5c da 27 be
       -0.13316399 -0.24191897 -0.20480649 -0.16391891
000030 1e 56 45 be 8e 87 38 be 7c 3f db bd ce 0a cf bd
       -0.19271132 -0.1802046 -0.10705468 -0.10109483
000040 3f 56 32 be 8d 21 71 bd 88 2d 0d be aa fb 33 be
       -0.17415713 -0.058869887 -0.137869 -0.17576471
000050 57 12 3a be fa bf 2a be 53 d5 5d be b5 42 67 be
       -0.18171059 -0.16674796 -0.21663408 -0.2258404
000060 79 44 42 be a6 7e 1d be 41 fc 12 be 63 b6 55 be
       -0.18971433 -0.15380344 -0.1435404 -0.20870356
000070 ac dc 44 be b8 70 45 be d9 b6 0b be cc 41 80 be
       -0.19224805 -0.1928128 -0.1364397 -0.250502
000080 9d 98 24 be 38 a7 37 be c5 03 33 be 04 a8 48 be
       -0.16073842 -0.17934883 -0.17481907 -0.19595343
000090 15 ff 3f be a1 e2 46 be 38 d9 45 be 86 a6 47 be
       -0.1874965 -0.1942239 -0.19321144 -0.19497117
0000a0 06 f2 21 be 56 c7 02 be fd 48 e0 bd c6 48 cc bd
       -0.15814981 -0.12771353 -0.109514214 -0.09974818
0000b0 3a b8 26 be d2 75 ee bd 22 62 7a bd 54 fb 5d bd
       -0.16281214 -0.11643566 -0.061128743 -0.054194763
0000c0 2a 34 71 be 63 ad f0 bd bf ec 8d bd 2b bd d5 bd
       -0.23555055 -0.11751821 -0.06929921 -0.104364716
0000d0 dc 44 87 bd a3 e3 f4 bc 11 c2 23 3e 93 56 14 3e
       -0.06604931 -0.029893702 0.15991999 0.1448615
0000e0 e4 72 6f 3e 3c 45 44 3e 43 91 2f 3e 8f b1 4f 3e
       0.23383671 0.19167036 0.17145257 0.20282577
0000f0 62 18 36 3e 46 11 26 3e 02 50 64 3e d6 b0 37 be
       0.17782739 0.16217527 0.22296146 -0.17938551
000100 47 69 2a be d4 d9 73 be 3f e0 4e be 0d 9f 2b be
       -0.16641723 -0.23813564 -0.2020273 -0.16759892
000110 6c 0e 3e be 48 c1 d2 bd cd c9 08 be 38 2f 18 be
       -0.18560189 -0.10290772 -0.13358231 -0.14861763
000120 22 d0 05 3e 07 24 33 3e a4 32 40 3e d0 34 2d 3e
       0.13067678 0.17494212 0.18769318 0.16914678
000130 64 93 6f 3e dd df 8f 3e 05 05 a0 3c 76 c7 0f 3e
       0.23396069 0.28100482 0.019533643 0.14040932
000140 c9 3a 3c 3e 92 91 57 be 4f 7a 36 be be e4 42 be
       0.183818 -0.21051624 -0.17820095 -0.1903257
000150 1d 95 73 be cc 8f f8 bd f5 e7 85 bd aa 7a b8 bd
       -0.23787351 -0.12136802 -0.06538383 -0.09007771
000160 a7 b5 68 bd 72 1c 94 bd 10 86 28 be a8 62 46 be
       -0.056813862 -0.07231988 -0.16457391 -0.19373572
000170 11 58 f3 bd f0 18 49 be a2 d5 14 be d2 f0 d9 bd
       -0.11882032 -0.19638419 -0.1453462 -0.10641636
000180 e8 3e 2f be 9e 86 20 be d4 4a f0 bd b9 8b 65 be
       -0.1711384 -0.15676352 -0.11733022 -0.22416581
000190 e4 b9 33 be cd 01 5b be fd 94 34 be da cd ee bd
       -0.1755138 -0.21387406 -0.1763496 -0.11660357
0001a0 c0 61 24 be b6 c8 ea bd f8 46 b7 bd 06 f7 22 be
       -0.16052914 -0.11464064 -0.08949083 -0.15914544
0001b0 44 44 da bd 86 35 f2 bd 42 0e 0d be eb bd 67 be
       -0.10657552 -0.11826615 -0.1377497 -0.22631042
0001c0 b1 59 b4 bd 93 7a 8f bd cb 32 23 be f8 bd 36 be
       -0.0880617 -0.07005801 -0.15937345 -0.17845905
0001d0 8d 4b b7 bd a4 b3 e7 bd a3 1f 12 be 00 50 6a bd
       -0.08949957 -0.113135606 -0.14269881 -0.0572052
0001e0 89 df 41 be d7 99 4d be e1 41 66 bd 1d b7 24 be
       -0.18932928 -0.20078216 -0.05621517 -0.16085477
0001f0 3c ff a7 bd 00 5b 13 be 6c 9b 4e be 56 a5 03 be
       -0.08202979 -0.14390182 -0.20176476 -0.1285604
000200 79 cd 4a be 8f d3 4c be 08 bb 40 be a3 e3 32 be
       -0.19804944 -0.20002578 -0.18821347 -0.17469649
000210 31 c6 1f be fc 35 17 be 1c dc 84 bd 2a b1 1e be
       -0.15602948 -0.14766687 -0.06487295 -0.1549727
000220 ad 98 3d be f8 27 23 be 1d 11 70 be c7 03 75 be
       -0.18515272 -0.15933216 -0.23444028 -0.23927222
000230 e3 96 18 be 4d 22 90 bd 94 7b 23 be fe e5 ee bd
       -0.14901309 -0.07037792 -0.1596511 -0.11664961
000240 bb ad 6c be 6c 52 15 be 24 53 3b be 32 7c 7b be
       -0.23113148 -0.14582223 -0.18293434 -0.24559096
000250 0f 9f 34 be 9b b7 34 be 1d 4f d9 bd 43 ad 19 be
       -0.17638801 -0.17648165 -0.10610793 -0.150075
000260 f2 0e 09 be 5f 76 4f be f1 31 43 be dd 40 4d be
       -0.13384607 -0.20259999 -0.1906202 -0.20044275
000270 f9 eb 3d be d9 19 69 be 1d 4f 2e be c7 42 3b be
       -0.18547048 -0.22763766 -0.17022367 -0.18287192
000280 ae b0 60 be 57 b7 e4 bd 68 00 7b be d5 15 ef bc
       -0.21942398 -0.11167782 -0.24511874 -0.029185215
000290 ba 4b 2b 3c 66 b7 f2 bd c7 17 12 be 60 c8 3d 3e
       0.010455066 -0.11851387 -0.14266883 0.18533468
0002a0 b9 2c d9 bd 37 76 c2 bd ca 0c 48 bc 2d 3b c9 3d
       -0.10604233 -0.09495204 -0.01221008 0.0982574
0002b0 0f a3 2d 3e 57 11 20 3e c4 b6 0a 3e b9 a3 2a 3e
       0.16956733 0.15631615 0.13546282 0.16664018
0002c0 68 41 2d 3e 23 2b e3 3d e8 70 f2 3d 98 81 47 3e
       0.16919482 0.11092212 0.118379414 0.1948303
0002d0 8e c6 57 be f0 c1 6c be 94 36 7b be 11 1d fe bd
       -0.21071836 -0.23120856 -0.24532539 -0.12407888
0002e0 bd 0d 94 be 99 36 13 be 55 39 42 be 50 0e 16 be
       -0.2891673 -0.14376296 -0.18967183 -0.14653897
0002f0 56 d3 50 be e9 34 f1 3d b7 5e 01 3e 70 ce 23 3e
       -0.20393118 0.1177767 0.12633787 0.15996718
000300 61 74 c5 3d 5b 22 30 3e f7 f5 07 3e f2 d3 af 3d
       0.09641338 0.17200606 0.13277422 0.08585347
000310 48 d2 58 3d b6 eb 28 3d 5b fe 54 be 2c 2e 1e be
       0.052934915 0.041240416 -0.20800154 -0.154473
000320 89 32 65 be 5d e2 6b be 05 2b 40 be c7 92 38 be
       -0.22382559 -0.2303557 -0.1876641 -0.18024741
000330 f5 62 c6 bd 95 21 91 bd dc 9e 34 be b4 fe 70 be
       -0.09686843 -0.070864834 -0.17638725 -0.23534662
000340 b4 56 6e be 61 bb 10 be 1d 77 6d be 3a 2e 41 be
       -0.23275262 -0.1413398 -0.2318997 -0.1886529
000350 71 8b 54 be f6 cb 31 be 14 90 fb bd 5c 79 c1 bd
       -0.20756318 -0.17362961 -0.1228334 -0.094469756
000360 0a 10 72 be e9 0a f8 bd 65 30 10 be 6f ae 17 be
       -0.23638931 -0.12111456 -0.14080961 -0.14812635
000370 4d 1e 5d be 1d fe 3c be c6 21 c4 bd ed 3d ca bd
       -0.2159359 -0.18456312 -0.09576754 -0.09875093
000380 43 c4 2e be ef 26 42 3e d6 8e 4f 3e bf 57 23 3e
       -0.17067055 0.18960164 0.20269331 0.15951441
000390 e6 5b 4a 3e 6b 2a 41 3e c1 54 4f 3e 7e 05 da 3d
       0.19761619 0.18863837 0.20247175 0.10645579
0003a0 78 b0 c1 3d a1 3a 1f 3e 09 0d 77 be 95 c7 19 be
       0.09457487 0.15549709 -0.24126066 -0.15017541
0003b0 19 af 13 be 5f 05 32 be c9 25 2e be c0 27 4a be
       -0.14422263 -0.17384861 -0.17006601 -0.19741726
0003c0 6d 5d 29 be 91 41 c3 bd 4b 7f 28 be 61 0c 2f be
       -0.16539545 -0.0953399 -0.16454808 -0.17094566
0003d0 bf 8a 2b be 49 fa 3c be 48 ef 6c be e0 e6 87 be
       -0.16752146 -0.18454851 -0.23138154 -0.2654333
0003e0 19 ff 53 be fe 9c 22 be 78 9e 07 be 8f 8e ba bd
       -0.20702781 -0.158802 -0.13244045 -0.09109222
0003f0 59 ea 1a be 76 0c eb bd c0 3c d8 bd b8 f6 58 be
       -0.15128459 -0.11476986 -0.10558462 -0.21187866

conv5.bias f4 [64]
000000 85 84 8e be 10 58 8c be 89 a1 75 bd 34 9e 4b 3e
       -0.2783548 -0.27410936 -0.059968505 0.19884568
000010 4d 53 f7 bd 4d e0 9e bd dd 43 0f be 46 73 b1 3b
       -0.12076435 -0.07757626 -0.13990732 0.005415353
000020 b9 cd cf be ea 8d 1b be f1 df a7 be e7 49 7f be
       -0.4058664 -0.15190855 -0.3278804 -0.24930535
000030 a9 86 2c bb 4f 42 91 3d 82 79 80 be 16 18 91 be
       -0.002632538 0.070927255 -0.25092703 -0.2833869
000040 79 d1 9a be 36 67 3c be 9f 4f 99 be 53 75 b2 be
       -0.3023794 -0.18398747 -0.2994356 -0.34855136
000050 bb 4f 5e be aa 6f a2 be 16 17 4d be 81 73 23 3f
       -0.21710102 -0.31725818 -0.20028338 0.6384812
000060 a4 a3 5b be 05 fa 8d 3e ed 2c 39 be b6 2b 5d be
       -0.21449143 0.27729812 -0.18083544 -0.21598706
000070 bb b9 23 bd 54 e4 33 be 42 54 16 3e d7 c9 d4 bd
       -0.03997205 -0.17567569 0.1468058 -0.103900604
000080 de 5e 83 be b8 b4 a1 be 17 ba b3 be 2a c4 06 bd
       -0.25658315 -0.3158319 -0.35102913 -0.03290192
000090 28 ab 10 bc dd 11 93 3d 59 36 07 3d 86 de 14 be
       -0.008829869 0.071811415 0.033010814 -0.14538011
0000a0 7f 29 c5 3c 19 d6 ce bd 96 58 61 3e bc 08 57 be
       0.024067638 -0.1009943 0.22006449 -0.20999426
0000b0 91 91 0e be 34 89 64 be e7 e7 73 be 4d a0 13 40
       -0.13922717 -0.22317964 -0.23818932 2.306659
0000c0 ff 66 6b be 88 aa 8d 3d af e3 ba be e5 be 3c be
       -0.22988509 0.06917292 -0.36501834 -0.18432195
0000d0 fe b3 04 40 76 91 96 be 4b dc ba be 12 58 95 bd
       2.0734859 -0.29407853 -0.36496195 -0.07292189
0000e0 c0 3d 97 3e 10 33 a1 3d f4 9a 86 bd 44 69 cf be
       0.295393 0.078710675 -0.06572524 -0.4051
0000f0 6d 89 47 be c4 25 30 be dd 0d 80 be bf 16 92 be
       -0.19486018 -0.17201906 -0.25010577 -0.2853298

bn3.weight f4 [64]
000000 42 bb 1a 3f 8b 9b 3b 3f 5c 64 3a 3f 91 50 c5 3e
       0.6044198 0.73284215 0.72809386 0.3853803
000010 7c ea 26 3f 7f 55 6b 3f d2 33 51 3f 64 0e 51 3f
       0.65201545 0.9192733 0.81719697 0.81662583
000020 f5 4b 23 3f 3c 0c 53 3f 75 cb 2a 3f 8f 8f 5f 3f
       0.63787776 0.82440543 0.667167 0.8732843
000030 67 4e 43 3f 3d c3 5c 3f d8 64 3b 3f fb 02 68 3f
       0.7629151 0.8623541 0.7320075 0.9062955
000040 2f fd 23 3f 71 90 26 3f 13 6f 45 3f c6 f9 60 3f
       0.640582 0.6506415 0.7712261 0.87881124
000050 89 4c 0d 3f ae 85 1b 3f b3 54 02 3f 01 d7 ee 3d
       0.5519491 0.60750854 0.5091049 0.116621025
000060 bf 7c 2a 3f ff ff 05 3f bb 47 2b 3f 5e c3 3b 3f
       0.665966 0.52343744 0.66906327 0.7334498
000070 ca 58 41 3f 0b 84 34 3f 4e 66 fa 3e 62 7e 67 3f
       0.75526106 0.7051398 0.48906177 0.9042722
000080 fb 77 27 3f c0 e0 3c 3f e3 54 05 3f ec 0a 09 3f
       0.6541745 0.7378044 0.5208265 0.5353229
000090 a3 29 33 3f 59 f4 80 3e ec 81 de 3e 76 3c 27 3f
       0.6998541 0.25186422 0.43458498 0.6532663
0000a0 4f ad c6 3e a3 9b 27 3f 04 e6 cb 3e 7b ab 25 3f
       0.388041 0.6547186 0.39823925 0.64714783
0000b0 39 58 19 3f 2b 7c f8 3e 8d 34 1d 3f 77 71 62 3d
       0.5990024 0.48532233 0.6140831 0.05528399
0000c0 42 a3 32 3f 68 4f 84 3e 7a 93 34 3f 03 0a 15 3f
       0.6978036 0.25841832 0.7053753 0.582184
0000d0 4f 7e 37 3d 12 09 37 3f c9 f8 34 3f 79 e5 b3 3e
       0.04479819 0.71498215 0.70692116 0.3513601
0000e0 61 20 d0 3e f0 35 ef 3e 73 b3 d6 3e 49 23 2f 3f
       0.40649703 0.4672084 0.41933784 0.68413216
0000f0 f0 70 25 3f d4 56 2f 3f 84 2d 1f 3f 7d ce 33 3f
       0.64625454 0.68491864 0.62178826 0.7023695

bn3.bias f4 [64]
000000 cf 6f 89 b8 a4 67 96 b8 b1 0a 3a 39 79 65 12 be
       -6.553495e-05 -7.171862e-05 0.00017742325 -0.14296521
000010 81 33 3f 39 65 7d f4 38 f6 a5 b2 b9 57 1b 35 b9
       0.00018234366 0.00011658183 -0.00034074456 -0.0001727169
000020 7a eb f2 b8 2e 21 f9 39 a1 09 74 37 65 ac 7a 38
       -0.0001158332 0.00047517702 1.4545775e-05 5.97652e-05
000030 0f 57 ac 38 2e c6 c0 b9 1d e7 19 39 50 02 16 3a
       8.217815e-05 -0.0003676875 0.00014677313 0.00057223905
000040 a1 21 72 37 24 e4 70 b9 59 a4 01 3a 20 43 8c 38
       1.4432154e-05 -0.00022973173 0.0004945449 6.688223e-05
000050 bf 60 e4 b9 42 e0 f6 38 2b 56 41 be eb 31 06 bd
       -0.0004355963 0.000117719654 -0.18880527 -0.03276245
000060 cb dd 87 36 2d a1 46 be c7 13 08 3a 68 e0 c0 39
       4.0491336e-06 -0.19397421 0.00051909353 0.0003678829
000070 6c be d8 39 40 55 85 b8 c8 0f 39 be 2e c6 7d 38
       0.00041340606 -6.357813e-05 -0.18072426 6.050447e-05
000080 15 b2 fb b9 37 1d 41 39 e2 1c b4 37 8b 47 4b be
       -0.00048007132 0.00018416798 2.1471122e-05 -0.1985151
000090 63 0f 0c b9 cf c2 bd bd 5d fe 24 be 45 ae 0c ba
       -0.00013357172 -0.092656724 -0.16112657 -0.00053665444
0000a0 fc 68 16 be 30 ea 06 38 53 4c 03 be 6b 5a b5 b9
       -0.14688486 3.2166194e-05 -0.12822084 -0.00034590377
0000b0 25 7e 84 38 18 57 3f b9 fa 96 ff b9 7d f5 37 bc
       6.317747e-05 -0.00018247624 -0.00048749876 -0.011227963
0000c0 25 f5 8f b8 c1 13 c3 bd 77 38 0a 38 3a b1 b4 38
       -6.864433e-05 -0.09525252 3.295435e-05 8.61608e-05
0000d0 1a 82 19 bc 00 e2 9e 39 d2 5a 23 b9 91 25 06 be
       -0.009369398 0.00030304492 -0.00015578725 -0.13100268
0000e0 8e 94 1a be d7 cf 30 be 9d b9 09 be 66 e2 cd 39
       -0.15095732 -0.17266785 -0.13449712 0.00039269327
0000f0 13 01 fe 38 4e c8 ea 38 b8 9a 70 39 fa b5 d0 b9
       0.00012111864 0.00011195299 0.00022945821 -0.00039808435

bn3.running_mean f4 [64]
000000 04 00 00 00 04 00 00 00 04 00 00 00 c9 5d dc 44
       6e-45 6e-45 6e-45 1762.9308
000010 04 00 00 00 04 00 00 00 04 00 00 00 04 00 00 00
       6e-45 6e-45 6e-45 6e-45
000020 04 00 00 00 04 00 00 00 04 00 00 00 04 00 00 00
       6e-45 6e-45 6e-45 6e-45
000030 04 00 00 00 04 00 00 00 04 00 00 00 04 00 00 00
       6e-45 6e-45 6e-45 6e-45
000040 04 00 00 00 04 00 00 00 04 00 00 00 04 00 00 00
       6e-45 6e-45 6e-45 6e-45
000050 04 00 00 00 04 00 00 00 1f 16 d4 44 47 ff 12 44
       6e-45 6e-45 1696.6913 587.9887
000060 04 00 00 00 0f 58 df 44 04 00 00 00 04 00 00 00
       6e-45 1786.7518 6e-45 6e-45
000070 04 00 00 00 04 00 00 00 31 f0 d6 44 04 00 00 00
       6e-45 6e-45 1719.506 6e-45
000080 04 00 00 00 04 00 00 00 04 00 00 00 f6 14 fd 44
       6e-45 6e-45 6e-45 2024.655
000090 04 00 00 00 b4 f7 a6 44 07 8b 8b 44 04 00 00 00
       6e-45 1335.7407 1116.3446 6e-45
0000a0 63 91 94 44 04 00 00 00 bb c9 8d 44 04 00 00 00
       1188.5433 6e-45 1134.3041 6e-45
0000b0 04 00 00 00 04 00 00 00 04 00 00 00 0b e3 13 44
       6e-45 6e-45 6e-45 591.54755
0000c0 04 00 00 00 4c 21 ad 44 04 00 00 00 04 00 00 00
       6e-45 1385.0405 6e-45 6e-45
0000d0 09 48 1d 44 04 00 00 00 04 00 00 00 81 f9 c1 44
       629.12555 6e-45 6e-45 1551.797
0000e0 8c b3 b2 44 35 00 c0 44 2e 4c c6 44 04 00 00 00
       1429.6108 1536.0065 1586.3806 6e-45
0000f0 04 00 00 00 04 00 00 00 04 00 00 00 04 00 00 00
       6e-45 6e-45 6e-45 6e-45

bn3.running_var f4 [64]
000000 04 00 00 00 04 00 00 00 04 00 00 00 e5 9d 54 47
       6e-45 6e-45 6e-45 54429.895
000010 04 00 00 00 04 00 00 00 04 00 00 00 04 00 00 00
       6e-45 6e-45 6e-45 6e-45
000020 04 00 00 00 04 00 00 00 04 00 00 00 04 00 00 00
       6e-45 6e-45 6e-45 6e-45
000030 04 00 00 00 04 00 00 00 04 00 00 00 04 00 00 00
       6e-45 6e-45 6e-45 6e-45
000040 04 00 00 00 04 00 00 00 04 00 00 00 04 00 00 00
       6e-45 6e-45 6e-45 6e-45
000050 04 00 00 00 04 00 00 00 62 3c 50 47 47 e5 17 46
       6e-45 6e-45 53308.383 9721.319
000060 04 00 00 00 98 18 50 47 04 00 00 00 04 00 00 00
       6e-45 53272.594 6e-45 6e-45
000070 04 00 00 00 04 00 00 00 8e 39 50 47 04 00 00 00
       6e-45 6e-45 53305.555 6e-45
000080 04 00 00 00 04 00 00 00 04 00 00 00 0e 11 99 47
       6e-45 6e-45 6e-45 78370.11
000090 04 00 00 00 a6 41 ec 46 04 50 bd 46 04 00 00 00
       6e-45 30240.824 24232.008 6e-45
0000a0 b5 19 b8 46 04 00 00 00 26 60 d3 46 04 00 00 00
       23564.854 6e-45 27056.074 6e-45
0000b0 04 00 00 00 04 00 00 00 04 00 00 00 74 1b 12 46
       6e-45 6e-45 6e-45 9350.863
0000c0 04 00 00 00 fe 6d 03 47 04 00 00 00 04 00 00 00
       6e-45 33645.992 6e-45 6e-45
0000d0 68 a4 24 46 04 00 00 00 04 00 00 00 3a 1d 22 47
       10537.102 6e-45 6e-45 41501.227
0000e0 b1 6e 1b 47 9f fc 2c 47 cd 7a 45 47 04 00 00 00
       39790.69 44284.62 50554.8 6e-45
0000f0 04 00 00 00 04 00 00 00 04 00 00 00 04 00 00 00
       6e-45 6e-45 6e-45 6e-45

fc1.weight f4 [1, 16384]
000000 be 16 e4 3b 87 13 3d 3c 3b 19 95 bc 07 f0 10 bc
       0.006960719 0.0115403 -0.018200507 -0.0088462895
000010 31 5f 6c 3c 8c e7 83 bc 55 b4 40 3c c4 49 32 3c
       0.014426992 -0.016101621 0.0117617445 0.010881845
000020 c2 79 98 bb dd 8b d3 bc 19 05 29 3c 1d 08 cc 3c
       -0.0046531865 -0.025823528 0.010316157 0.024906212
000030 ab a0 0c bd a9 32 cb 3c c8 a7 65 bc f8 25 3e 3c
       -0.034332912 0.02480443 -0.014017053 0.011605732
000040 3d 7b ad 3c ef 4a 2f bc db aa 86 3c a0 6d 88 bb
       0.021176929 -0.010699018 0.016438892 -0.004163459
000050 28 d2 89 3c 34 65 8c bc 42 3f 03 3d da 6f dd bb
       0.016823843 -0.017138101 0.03204275 -0.0067577185
000060 a1 74 57 bb 4a 61 a9 bc c2 da 9b 3b b8 3b 6a 3c
       -0.0032875913 -0.020676274 0.0047563026 0.014296465
000070 cd c2 d0 3c 5d 49 7b bc 60 fa 9e 3b 7f 43 30 bc
       0.025483513 -0.015337315 0.0048516244 -0.01075828
000080 ef 1a 4f b9 ad 88 e4 3b 00 08 13 3b 7e 46 ef ba
       -0.00019751092 0.006974301 0.0022435188 -0.0018255261
000090 2c 46 c6 3c 27 f2 58 bc 1a f1 aa 3b 96 63 4f bb
       0.024203382 -0.013241327 0.00521673 -0.0031645051
0000a0 eb 9d 04 bc 78 06 6d 3c ae 8f 38 bc 39 87 89 b8
       -0.008094291 0.014466874 -0.011264725 -6.557856e-05
0000b0 e2 d7 34 3c 1d b2 06 bd 21 4c 81 3c 13 79 12 3b
       0.011037799 -0.032884706 0.015783371 0.0022349998
0000c0 ce 46 a8 bc 16 5d 8d bc 44 09 09 bd 6e cb 87 3b
       -0.020541575 -0.0172563 -0.033456102 0.0041441238
0000d0 3f e6 57 3c 36 ea d3 3b 91 7b 80 bc fa ee 88 bb
       0.013177454 0.006467129 -0.015683921 -0.004178879
0000e0 9d 06 10 bc 86 1a f2 3c 4c 86 be 3c 41 f8 0e 3c
       -0.008790639 0.029553663 0.023257397 0.0087261805
0000f0 08 5a 25 bc 1a 4d 66 bc 3d 98 a4 3c ce 3d 22 bb
       -0.010092266 -0.014056468 0.020092124 -0.0024756077
000100 4b 53 85 3c ce dc fb bb e3 3c 39 3c 77 fc 1b bc
       0.016275069 -0.007686234 0.01130602 -0.0095206415
000110 03 61 6c 3b 7a a9 00 bd 6d 95 e7 3c a7 68 36 3c
       0.0036068566 -0.031411625 0.028269494 0.0111333495
000120 c3 d0 12 3d 27 4c 5a bb 3a 69 02 ba 20 00 25 3c
       0.035843622 -0.003330955 -0.00049747864 0.010070831
000130 81 0c 01 3b e4 2f 86 3c bd 39 a8 bb 07 30 5c bc
       0.001969129 0.016380258 -0.005133836 -0.013439185
000140 fc ad 39 3d 54 96 9c ba 32 b0 41 bc e5 6a f6 3c
       0.04533194 -0.0011946657 -0.011821793 0.030080268
000150 42 57 ad 3b 02 dd 3f 3c d5 85 e2 3b 98 72 01 bd
       0.005289943 0.011710407 0.0069129267 -0.031603426
000160 85 be 35 bc ef 1c 0c 3c 9c d2 4b 3c 8a 12 bc 3a
       -0.011092787 0.00855182 0.01244035 0.0014348787
000170 ca 16 5a 3c 0d 54 37 3d 93 0d 23 3c 82 03 0b bc
       0.013311097 0.04475789 0.009951967 -0.008484723
000180 14 9c be bb 8b de dc bc 24 37 88 bb 26 f3 80 3c
       -0.005816946 -0.026961586 -0.004156964 0.015740942
000190 30 62 32 bc ae 16 d5 bc af cf aa bc 2e 15 8a bb
       -0.010887668 -0.026011791 -0.020850984 -0.0042139506
0001a0 c2 79 26 3b da 2c 0c 3c 48 6d 1d bd 29 de 72 3c
       0.0025402163 0.008555615 -0.038434297 0.014823475
0001b0 a9 03 f9 3b c7 71 17 3d e5 c7 2c bd b7 c1 99 3c
       0.0075993133 0.03697374 -0.04218282 0.018769128
0001c0 94 f5 ab 3c e4 c5 0a 3c 11 88 4d bc 58 fe 06 3d
       0.020991124 0.008470032 -0.012544648 0.032957405
0001d0 b4 90 e0 3c de 9a 2e 3c 18 39 f4 3c 7c 33 55 bc
       0.02741275 0.01065704 0.02981238 -0.013012763
0001e0 6d 92 42 3b a5 df 95 3c 02 f5 1e bc 88 7d ad bb
       0.0029689327 0.018295119 -0.009701969 -0.0052945055
0001f0 ac 8e 8c 3c 9d ad 1c 3c 63 06 58 3c 10 71 03 bb
       0.017157875 0.009562877 0.013185116 -0.0020056404
000200 e7 0c 80 3b 14 d7 82 bc d6 df b8 3b 2a 41 17 bd
       0.003907788 -0.015971698 0.0056419177 -0.03692738
000210 b3 25 a8 bc a5 8d d9 bc e1 06 94 3c fb b0 ed ba
       -0.020525789 -0.0265568 0.018069686 -0.0018134409
000220 5c d4 12 3c 76 b4 93 ba a2 e9 a4 3c cc df 34 bc
       0.008961763 -0.0011268992 0.020130936 -0.011039685
000230 aa 4d 86 bc 7a 43 4c bc d9 ad ca bc 19 3d bd bc
       -0.016394455 -0.01246726 -0.0247411 -0.023100423
000240 73 20 67 bc f7 d8 b5 3c 4c 45 b5 ba f1 86 1d 3c
       -0.014106858 0.022198183 -0.0013829856 0.009614692
000250 e2 39 08 3d 39 c6 09 39 32 99 ca bb 72 18 c4 3c
       0.033258326 0.00013139182 -0.006182813 0.023937438
000260 ff 76 07 bd 73 f6 ed ba 89 a5 10 3c 91 75 6c bc
       -0.033072468 -0.0018155113 0.008828529 -0.014432327
000270 33 b1 44 3c e0 59 2f 3c cf 83 d8 bb 78 2d 0d bc
       0.012005138 0.01070258 -0.0066075097 -0.008616798
000280 9b 08 92 3c cf b6 af bc 14 7b e1 bc c3 2f 86 3a
       0.017826369 -0.021449475 -0.027524509 0.0010237623
000290 8f c0 29 bc 63 46 8b 3c cb d4 e7 bc 5d e1 7c bc
       -0.010360851 0.017001336 -0.02829971 -0.01543459
0002a0 7d 35 06 bd 57 1e 5d 39 c2 aa bf bc f0 ab 99 bc
       -0.032765854 0.00021087505 -0.023396853 -0.018758744
0002b0 53 f8 8f bc 1b bb de 3b fe 30 94 3c 06 b3 67 3c
       -0.017574465 0.006797207 0.018089768 0.014141804
0002c0 ec 47 68 ba bb c4 2c bd 3f eb 84 3b 21 62 4e 3c
       -0.0008860815 -0.042179804 0.004056364 0.012596638
0002d0 b9 27 3e 3c b2 90 20 3c 32 18 93 bb f6 d6 81 3b
       0.01160615 0.009800123 -0.0044889683 0.003962393
0002e0 60 5c 49 3c 9e 03 f2 bb 2c eb b1 bb e1 32 f6 3b
       0.01229009 -0.007385685 -0.005429646 0.0075133895
0002f0 29 57 a5 3c 05 aa a6 3c 9e 81 4b 3c 9c 06 04 3d
       0.020183163 0.020344744 0.01242104 0.032232866
000300 e9 a3 60 3c 63 79 b6 bc 0a ae 04 bd 2e d4 18 bb
       0.013710954 -0.022274679 -0.03239254 -0.0023319828
000310 dd 9b 03 3c a4 d7 bc 3b e4 4c 9a bc a0 35 78 bc
       0.008032766 0.005763011 -0.018835492 -0.015149504
000320 47 d9 00 3d 6a 64 c0 bb d3 15 74 3c ae 42 cb bb
       0.03145721 -0.0058713453 0.014897781 -0.006203017
000330 29 4b a4 3b bf 12 87 3b 5b 37 15 3c a9 fe 10 bd
       0.0050138426 0.0041221078 0.009107436 -0.035399113
000340 9d bc b6 3b ee 05 74 bb b2 39 c8 bc 04 8e b8 bb
       0.0055766837 -0.003723498 -0.024441574 -0.005632164
000350 69 fa a1 3c 6a b3 0d 3c 01 2e 73 bb bb f5 c8 bb
       0.019772725 0.008648733 -0.0037106278 -0.006132809
000360 6c 2f 0c 3c f9 6f b1 bc fe 7e a4 bb d2 f9 56 bb
       0.008556228 -0.021659838 -0.0050200215 -0.0032802713
000370 53 22 c2 bb 80 43 ba bc b4 91 14 bc 71 22 1c bc
       -0.005924502 -0.022737265 -0.009067941 -0.009529696
000380 86 27 25 bc 3c 5c 4a bc fd 01 90 bc f0 83 b3 bc
       -0.010080224 -0.012351092 -0.017579073 -0.021913499
000390 7c 8b 0c 3d 79 bb bb 3b 20 ee 19 3b 78 aa d8 bc
       0.03431271 0.0057291356 0.002348788 -0.026448473
0003a0 d5 18 b2 bb f6 c5 e8 ba db b5 e2 3b f9 12 3d bb
       -0.005435089 -0.0017759192 0.0069186515 -0.002885042
0003b0 b4 be 75 3c 3d 01 93 bc a7 66 47 bc 56 a5 ab 3c
       0.01499908 -0.017944926 -0.01217047 0.020952862
0003c0 b5 af 80 bc cc 90 0f bb 74 5b 02 bd 47 99 32 bc
       -0.015708784 -0.0021906374 -0.031825498 -0.010900802
0003d0 0d e9 ba 3c 12 d3 9a bc 0d 30 89 bc bf b9 db 3c
       0.022816205 -0.018899474 -0.016746545 0.02682197
0003e0 7c 54 b9 3c 81 8a 87 bc 59 9b 07 3c c8 0f 45 bb
       0.022623293 -0.016545536 0.008276784 -0.003006922
0003f0 19 9f f4 ba 57 28 d2 ba 44 15 54 bc d9 5d 80 3c
       -0.0018663137 -0.0016033751 -0.012944523 0.01566975

fc2.weight f4 [1, 256]
000000 e4 2a 96 bc 7c 05 43 3d 00 51 55 ba 88 c8 f7 bc
       -0.018330999 0.047612652 -0.0008137375 -0.030246988
000010 40 8c 12 bd 14 ee af bc 88 ca 27 bc c0 a9 c0 bb
       -0.035778284 -0.02147583 -0.010241158 -0.005879611
000020 30 28 1f 3c 90 fd ee bb 98 b9 0f 3d 42 a6 19 bd
       0.009714171 -0.0072934106 0.035089105 -0.03751207
000030 40 18 85 3a 06 e3 69 3d 08 fe 2d bd d8 de 20 bc
       0.0010154322 0.057101272 -0.04247859 -0.009818755
000040 08 23 76 3d 16 3c 19 3d b0 db d0 3b 40 e0 6c 3b
       0.060092002 0.037410818 0.006373845 0.0036144406
000050 5e 14 73 bd 60 c2 dc bc b2 f6 51 bd 10 21 5c bd
       -0.059345596 -0.026948154 -0.051260658 -0.05374247
000060 00 38 05 3c a8 98 dc bc 74 21 36 3d 98 0a 71 bc
       0.008131027 -0.02692826 0.044465497 -0.014711998
000070 14 f2 05 3d c0 e5 a1 bb 7c 04 78 3d 52 c8 28 3d
       0.032701567 -0.0049407184 0.06055115 0.041206665
000080 dc 9b 85 3c dc f8 c0 3c ac 66 86 3c 78 d2 03 3d
       0.016309671 0.023556165 0.01640638 0.03218314
000090 68 2e 62 3c 54 74 fa 3c c8 3d 2e bc 78 b2 17 bd
       0.013805009 0.030573048 -0.010634847 -0.037035435
0000a0 60 28 3f bd 26 33 39 3d dc cb 2b 3d ea 77 1b bd
       -0.046669364 0.045214795 0.041942462 -0.037956156
0000b0 0c 2f 09 bd 34 74 a6 bc f8 8e 58 3c 70 6e 31 3d
       -0.033492133 -0.020319082 0.01321768 0.043318212
0000c0 c0 20 4b bc 24 21 4a bd 10 70 ce bc 30 a6 a5 3b
       -0.012397945 -0.04934801 -0.02519992 0.0050552115
0000d0 e0 cc e7 bc aa 7f 35 bd d8 36 b2 3c 88 7d 1f 3c
       -0.028295934 -0.044311203 0.021754667 0.009734519
0000e0 22 f0 5e bd 00 ff ff ba 50 fc b1 bc e4 f3 36 3d
       -0.054428227 -0.0019530952 -0.021726757 0.044666186
0000f0 94 15 67 bd b8 e8 42 bc 58 6f e1 3c fa c6 1c 3d
       -0.056417063 -0.011896305 0.027518913 0.038275696
000100 f4 1f eb 3c d8 e6 78 3d 30 d3 7a bc d8 33 4b bd
       0.02870176 0.060767025 -0.01530914 -0.04960999
000110 e8 81 53 bd cc 1c 1d bd 82 fd 12 bd 06 82 1c bd
       -0.05163756 -0.03835754 -0.035886295 -0.038209938
000120 20 04 70 bc 60 8f 72 bc 2a 17 45 bd f4 46 29 bd
       -0.014649421 -0.014804691 -0.048117794 -0.04132743
000130 92 11 09 3d a8 5c 1a 3d 14 42 66 3d ce 6b 72 3d
       0.033464022 0.03768602 0.05621536 0.05918484
000140 ac a4 92 bc d2 b9 1d 3d 78 7f c6 3c 80 86 2f 3b
       -0.017900787 0.03850729 0.024230704 0.002678305
000150 28 cc 70 bd 14 e2 35 bd ac 81 7e 3d aa af 64 3d
       -0.05878845 -0.044405058 0.062135383 0.05583159
000160 98 29 50 3c 80 0d 19 ba 74 ca f4 3c 58 46 17 bd
       0.012705229 -0.00058384985 0.029881693 -0.03693232
000170 94 ad 91 3c 60 01 5d 3b fe 92 2c bd 1a 07 11 bd
       0.017782964 0.0033722743 -0.04213237 -0.035407163
000180 08 0f be 3c e8 6a 2f 3d 20 d3 17 bd 34 fe 8f 3c
       0.023200527 0.042826563 -0.03706658 0.017577268
000190 0e f3 07 bd ae 94 6f 3d 96 3f 0c bd ea c5 2c bd
       -0.03319078 0.0584914 -0.034240328 -0.042180933
0001a0 22 64 2c 3d dc 87 71 3d 80 a6 ec ba 88 c2 bc bc
       0.04208768 0.058967456 -0.0018054992 -0.023041978
0001b0 d2 46 13 3d d6 fb 7d bd e0 8b 48 3c 18 c5 21 3c
       0.03595621 -0.062007748 0.01224038 0.009873651
0001c0 c4 4c e1 3c 8c b1 35 3d 00 88 12 bb 44 ee 13 bd
       0.027502425 0.044358775 -0.0022358894 -0.0361159
0001d0 20 fe b0 bb 5a 8d 03 bd 92 3b 2a 3d 48 7b c2 3c
       -0.005401388 -0.032117225 0.041560717 0.023740426
0001e0 b8 c1 24 bd c0 90 57 3c 44 93 eb bc 70 ba 63 3c
       -0.040223807 0.01315707 -0.028756745 0.013899431
0001f0 40 8d 9e 3a 04 40 9a 3c 1c 5a 59 3d d0 69 4f bc
       0.0012096539 0.018829353 0.05306445 -0.012659505
000200 60 02 4f 3c 9e 07 55 bd 80 69 51 ba 30 f8 67 bd
       0.012634844 -0.052009217 -0.0007988438 -0.056633174
000210 30 09 87 bc c0 7b a7 bc b0 e3 2e bc b8 98 2b bd
       -0.016483873 -0.02044475 -0.010674402 -0.04189369
000220 ec 56 79 3d 3c ae b4 bc 98 f6 df bc 1c a0 33 bd
       0.06087391 -0.022055738 -0.027339265 -0.043853864
000230 76 e8 7e 3d c6 de 15 bd 10 87 cb bb c6 9d 0b 3d
       0.06223341 -0.036589406 -0.006211169 0.03408601
000240 00 1e a8 bc 18 7d 4d bc ce 28 49 bd c0 8f a3 bb
       -0.020522118 -0.012542032 -0.04911118 -0.0049915016
000250 c0 0c bd bb 50 df 80 bc 0e df 35 3d e0 71 1c 3d
       -0.005769342 -0.015731484 0.044402175 0.038194537
000260 30 25 f5 bb f6 b5 59 bd 18 a4 df 3c 2c 13 59 3d
       -0.0074812397 -0.053152047 0.027299926 0.0529968
000270 ec 46 28 3d 7c 2a ff 3c 60 ee ed 3c 0c 60 f6 3c
       0.04108326 0.031148188 0.02904433 0.030075096
000280 fc 63 86 bc f6 c4 43 bd d2 d8 78 bd 80 eb 88 3b
       -0.016405098 -0.04779526 -0.06075365 0.0041784644
000290 52 a1 2d bd f8 dd 3e bc 64 25 75 3d a0 d5 a6 3b
       -0.042390175 -0.011649601 0.05985011 0.005091384
0002a0 4c 1d ae 3c f2 e8 7b 3d a0 bd fb bc 36 c9 4e bd
       0.021254204 0.06150145 -0.030730069 -0.05048486
0002b0 f0 53 a1 3b 76 f1 55 bd 5e 1b 01 3d 06 04 3f bd
       0.004923336 -0.05223223 0.03152024 -0.046634696
0002c0 8c 28 6b bd a0 95 a6 bb fc cc 90 bc ae 25 76 bd
       -0.057411715 -0.0050837547 -0.01767587 -0.060094528
0002d0 ee 36 33 bd 2c 71 11 3d a0 96 d6 3c 18 7e 59 bc
       -0.043753557 0.03550832 0.02619487 -0.013274692
0002e0 08 4d 34 3c 34 8a 0d 3d 18 1d 3c bd 68 bb 2a 3d
       0.011004694 0.03455563 -0.045926183 0.04168263
0002f0 b0 a4 bd 3b d8 ed ca bc 36 32 25 bd e8 b0 10 3c
       0.0057874545 -0.024771616 -0.040331088 0.00883124
000300 70 38 9b 3b 0e c5 5c bd 8c b8 de bc a8 af 76 bd
       0.0047369525 -0.053898863 -0.027187608 -0.060226113
000310 9a c6 57 3d f4 59 9a 3c e8 f5 47 bd 70 89 d6 3c
       0.052679636 0.018841721 -0.0488185 0.026188582
000320 ac fe 72 3d 90 f5 7d bd 20 1d fd bb 6c 63 4d bd
       0.059324905 -0.062001765 -0.0077244192 -0.050143644
000330 00 69 63 3b bc f7 f5 3c 9c c1 33 bd 62 a7 43 3d
       0.0034700036 0.030025356 -0.043885812 0.04776705
000340 60 9b a6 3b ca f6 4b 3d 7a 52 31 3d e0 04 be 3b
       0.00508444 0.049795903 0.043291546 0.005798921
000350 64 ed e4 bc dc e9 32 3d 9c db ad 3c 14 48 5b bd
       -0.027945228 0.043680057 0.021222882 -0.053535536
000360 34 aa 48 3d 4e 6e 6d bd 74 d0 b1 bc 12 30 4d bd
       0.048990443 -0.057966523 -0.021705844 -0.05009467
000370 98 4f 6b 3c 90 23 ba 3b c0 77 74 bb 0a aa 0d bd
       0.014362238 0.005680509 -0.0037302822 -0.03458599
000380 44 54 d5 bc 80 f5 a8 bb 40 57 1c bb 82 9b 46 3d
       -0.026041158 -0.005156219 -0.0023855716 0.048488148
000390 60 a6 77 bd b8 08 11 3d 10 58 4a bc be 76 6d bd
       -0.060461402 0.035408705 -0.012350097 -0.05797457
0003a0 e4 a0 81 bc 92 79 71 3d 54 67 d0 bc 38 de 71 3d
       -0.015823789 0.05895383 -0.025439896 0.059049815
0003b0 80 b5 87 ba 50 8f 61 3d 42 74 61 3d ba 36 78 3d
       -0.0010353774 0.055068314 0.055042513 0.060599066
0003c0 22 c8 21 3d b8 7f 28 bc 20 9b 04 3b dc 8a 36 3d
       0.039497502 -0.010284357 0.0020234063 0.04456602
0003d0 0e 26 4e 3d f6 d2 60 bd f0 e8 55 bc 26 ef 0c bd
       0.05032926 -0.054888688 -0.013056025 -0.034407757
0003e0 ee a7 13 3d f4 54 3e 3d 30 a6 31 bc 72 2e 32 3d
       0.036048822 0.046467736 -0.010842845 0.043501325
0003f0 00 d8 83 bc 0c c3 5a bd e0 bb d0 3c 30 a3 4d bd
       -0.016094208 -0.053408667 0.02548021 -0.050204456
