checkpoints/best_model_3007_1.pth (torch, 863622 bytes, 44 tensors)

conv1.weight f4 [16, 1, 3, 3]
0	0x3f288ea3	0.65842646
1	0x3e4c2e73	0.19939594
2	0x3e152d32	0.14568022
3	0x3e42efff	0.19036864
4	0xbf892b4f	-1.0716342
5	0xbf02ab9f	-0.51043123
6	0xbe148a10	-0.14505792
7	0xbf701aa0	-0.93790627
8	0x3ce98249	0.028504508
9	0x3f3e4460	0.7432308
10	0x3ec04a91	0.3755689
11	0xbd385d34	-0.04501076
12	0x3f77faeb	0.96867245
13	0x3fb3e08f	1.4052905
14	0xbe661388	-0.22468388
15	0x3ecc35d7	0.39884827
16	0x3d0827d6	0.033241116
17	0x3da57c27	0.08080321
18	0x3eddd241	0.43324474
19	0x3c5e836c	0.013581138
20	0xbfa46f57	-1.2846478
21	0x3f24a2c5	0.64310867
22	0x3e1da67d	0.15395541
23	0xbfd4a097	-1.6611508
24	0x3e14a0c1	0.14514448
25	0x3c0a82c7	0.008454031
26	0xbf0b6e75	-0.5446542
27	0xbf007f2e	-0.5019406
28	0xbf8a26fd	-1.0793148
29	0x3ebe11f2	0.37123066
30	0xbf9d2c1d	-1.2279087
31	0xbf700831	-0.937625
32	0xbdc9393a	-0.09825368
33	0x3e18475c	0.14870971
34	0x3eb50d98	0.35361934
35	0x3c8439b8	0.016140804
36	0x3f04273d	0.5162237
37	0x3e6cd4eb	0.23128097
38	0xbf6fa4f3	-0.9361107
39	0xbeed95eb	-0.4640344
40	0xbf608ae5	-0.87711936
41	0xbf27fb2d	-0.6561764
42	0x3db501be	0.08838223
43	0x3edafb2a	0.42769748
44	0x3d2d67ec	0.042335436
45	0x3df391c1	0.11893035
46	0xbe9cf1a8	-0.3065312
47	0x3e89dd47	0.26926634
48	0xbf1150e0	-0.5676403
49	0xc0930b2f	-4.595115
50	0x3e548125	0.2075239
51	0x3decccdc	0.11562511
52	0xbec9cd96	-0.39414662
53	0xbd6c1653	-0.057638478
54	0x3e68ea83	0.22745709
55	0x3dff317a	0.12460609
56	0xbcfe98d2	-0.03107873
57	0xbf85cabd	-1.0452496
58	0x3f0b4abf	0.5441093
59	0x3d474844	0.048652902
60	0xbffff529	-1.9996692
61	0x3e9ed049	0.31018284
62	0x3cfd641b	0.030931523
63	0xbf16d153	-0.58913153
64	0xbfb31df1	-1.3993512
65	0xbc9f519f	-0.0194481
66	0xbe1ade96	-0.15123972
67	0xc0062a07	-2.0963151
68	0xbe1a8953	-0.15091448
69	0x3e9b8822	0.303773
70	0xbe2d26b0	-0.1690929
71	0x3e7cb879	0.24679746
72	0x3ed10008	0.40820336
73	0xbedc003a	-0.42968923
74	0x3e957fd6	0.29199094
75	0xbf322132	-0.695819
76	0xbf8c2fe0	-1.095211
77	0x3eb7069b	0.35747227
78	0xbf48c007	-0.7841801
79	0xbf11e170	-0.56984615
80	0x3d4b4f74	0.04963632
81	0xbf1410e5	-0.5783828
82	0xbf4cc3a6	-0.79986036
83	0xbe02f363	-0.12788157
84	0xbf7ff644	-0.99985147
85	0xbf872eeb	-1.0561193
86	0xbed1aab6	-0.40950555
87	0xbdb99c39	-0.09063
88	0xbee457a1	-0.44598106
89	0x3edc1954	0.42988074
90	0x3ecb98db	0.39765057
91	0x3f7dd1d3	0.9914829
92	0x3e952897	0.2913253
93	0x3f1a0bf2	0.6017448
94	0x3fad20bc	1.3525615
95	0x3d806a10	0.0627023
96	0xbd3d8ca4	-0.046276703
97	0xbe24e4b6	-0.16102871
98	0xbeaa3529	-0.33243683
99	0x3e5b665a	0.21425763
100	0x3f07ca1a	0.5304276
101	0x3e361438	0.1778115
102	0xbacb353c	-0.0015503536
103	0x3e132c8c	0.14372462
104	0x3ea2f294	0.31825697
105	0xbfa36afc	-1.2767024
106	0xbf9d738f	-1.2300891
107	0xbf78d6d3	-0.97202796
108	0x3de0a4b8	0.109689176
109	0x3f1569bc	0.5836446
110	0x3db8a1da	0.09015246
111	0x3eab5dbd	0.33469954
112	0xbe8bd0b5	-0.27307668
113	0xbfa3693e	-1.2766492
114	0x3dc9aabf	0.0984702
115	0xbeb01598	-0.34391475
116	0xbf8d52b7	-1.1040868
117	0xbe7c2f04	-0.2462731
118	0xbef98eff	-0.4874191
119	0xbe881f48	-0.26586366
120	0x3e73dab8	0.23813903
121	0x3d380409	0.044925723
122	0x3e94add8	0.29038882
123	0xbe65ccd5	-0.22441418
124	0xc01f0647	-2.4847581
125	0x3e8196d5	0.25310388
126	0xbf1e8787	-0.6192555
127	0xbe3a4b5e	-0.18192813
128	0xbe3737cc	-0.17892379
129	0x3e8e4019	0.27783278
130	0x3f99b98a	1.2009747
131	0x3f5f6ee2	0.8727857
132	0xbec594b7	-0.38590023
133	0x3f907f35	1.128882
134	0xbdb86798	-0.09004134
135	0xbf033632	-0.5125457
136	0xbf9fca96	-1.2483699
137	0xbf98c118	-1.1933928
138	0xbca85b8d	-0.020551467
139	0x3e3bf4d4	0.18355113
140	0xbeafd904	-0.34345257
141	0x3dacd098	0.084382236
142	0x3ef05037	0.469362
143	0xbbf255ce	-0.0073954826

conv1.bias f4 [16]
0	0xbf84cbe0	-1.0374718
1	0x3c9e5b03	0.019330507
2	0x3e7155ff	0.23567961
3	0xbefce113	-0.49390468
4	0xbf4a7342	-0.7908212
5	0xbf220a25	-0.6329673
6	0x3f8f92e7	1.1216706
7	0xbed61e4b	-0.41819987
8	0xbeb7f520	-0.35929203
9	0x3fbe8413	1.4884056
10	0xbe43c48b	-0.19117944
11	0xbf5cccb3	-0.86249846
12	0xbe3578b0	-0.1772182
13	0xbe507ddc	-0.20360512
14	0xbec50ff9	-0.3848875
15	0xbe8e5b5b	-0.27804074

bn1.weight f4 [16]
0	0x3f4f2a23	0.8092367
1	0x3f83d67f	1.0299834
2	0x400e6103	2.2246711
3	0x3fd4c1da	1.6621659
4	0x3f7fdee0	0.99949455
5	0x3fb01da3	1.3759044
6	0x3f935e75	1.1513201
7	0x3facc7d2	1.349848
8	0x3fb0c664	1.3810544
9	0x3fcb4028	1.5878954
10	0x3f1a6a9e	0.60318935
11	0x3fd4a422	1.6612589
12	0x3f8e6cb2	1.1126921
13	0x3f5e01db	0.8672158
14	0x3f0f8273	0.56058425
15	0x3f84be3e	1.0370557

bn1.bias f4 [16]
0	0xbe997d96	-0.29978627
1	0xbceb749e	-0.02874213
2	0x3cbc0b3a	0.022954572
3	0xbe867edf	-0.2626867
4	0xbe6f6c92	-0.2338126
5	0x3d168388	0.03674653
6	0xbe997b7d	-0.29977027
7	0xbee180a8	-0.4404347
8	0xbeccd5a0	-0.40006733
9	0xbda18574	-0.07886782
10	0xbd46786e	-0.048454694
11	0x3b9dd1bc	0.004816262
12	0xbec9b9c1	-0.3939953
13	0xbda07f25	-0.07836751
14	0xbe86ad40	-0.26304054
15	0xbeac73c4	-0.33682072

bn1.running_mean f4 [16]
0	0xbf873029	-1.0561572
1	0x3d948347	0.07251602
2	0x3e555490	0.2083304
3	0xbf0a1468	-0.5393739
4	0xbf50249f	-0.8130588
5	0xbf34dbc2	-0.70647824
6	0x3f8c655c	1.0968432
7	0xbef20bd0	-0.47274637
8	0xbec9c2fd	-0.39406577
9	0x3fb740b6	1.4316623
10	0xbe15da48	-0.14634049
11	0xbf6455cb	-0.8919341
12	0xbe4f5a46	-0.2024928
13	0xbe782ea3	-0.2423654
14	0xbeb674e9	-0.3563607
15	0xbea348d3	-0.31891498

bn1.running_var f4 [16]
0	0x3b8950ea	0.004190554
1	0x3c78c85c	0.015184488
2	0x3c5b4934	0.013384152
3	0x3c6e1a16	0.014532587
4	0x3ba8d94d	0.0051528574
5	0x3d2dfb05	0.04247572
6	0x3be81514	0.007082591
7	0x3cb5daae	0.022199001
8	0x3c0d184b	0.008611749
9	0x3c86b486	0.016443502
10	0x3c5f13f5	0.013615598
11	0x3c3ab8ef	0.011396631
12	0x3bda1279	0.006655034
13	0x3c2ce2e7	0.010552145
14	0x3bc1de70	0.005916409
15	0x3c12bbfd	0.008955953

conv2.weight f4 [32, 16, 3, 3]
0	0xbe8d215f	-0.27564523
1	0x3f092dcf	0.53585523
2	0x3e8fb5a9	0.28068283
3	0x3e4243c6	0.18971166
4	0x3d4240d3	0.047425102
5	0xbe7ab954	-0.2448476
6	0xbf3e7b07	-0.74406475
7	0xbe0a5aeb	-0.13511245
8	0xbcca19ca	-0.0246705
9	0xbf934999	-1.1506835
10	0xbdd41fbd	-0.10357616
11	0xbf07447e	-0.52838886
12	0xbebcfd78	-0.3691213
13	0x3dde05dd	0.10840962
14	0x3d901502	0.07035257
15	0x3ef5c4c5	0.48001686
16	0xbbe2b8da	-0.0069190087
17	0xbf560c1c	-0.8361223
18	0xbe7f4463	-0.24928431
19	0xbf282ef3	-0.6569664
20	0x3c064c80	0.00819695
21	0x3fc35c89	1.5262614
22	0x3e9a5ed7	0.30150482
23	0xbe01f160	-0.12689734
24	0xbeaf67e2	-0.34258944
25	0x3e042563	0.12904887
26	0xbe014138	-0.12622535
27	0x3dfc3e26	0.123165414
28	0xbf275a6b	-0.6537234
29	0xbf1eb8d3	-0.6200077
30	0xbe9c2220	-0.30494785
31	0x4081d827	4.057636
32	0x3e51a913	0.20474653
33	0x3e24cf01	0.1609459
34	0x3de8ea12	0.1137277
35	0x3d601a93	0.054712843
36	0xbe83683f	-0.2566547
37	0xbe937f49	-0.28808048
38	0x3f0763ba	0.52886546
39	0x3f305e0c	0.68893504
40	0xbed87be2	-0.42282015
41	0xbcbc4aab	-0.022984823
42	0xbb9073d3	-0.0044083386
43	0x3e088612	0.13332394
44	0xbea9bd6a	-0.33152324
45	0xbe593622	-0.21212056
46	0x3e8c3265	0.27382198
47	0x3ecce9cb	0.4002212
48	0xbd202f81	-0.039107803
49	0x40548f91	3.3212626
50	0x3f639ffc	0.8891599
51	0xbd9d415a	-0.076784804
52	0xbc44d128	-0.012012757
53	0x3da419af	0.08012711
54	0x3e0943f6	0.13404831
55	0x3f084599	0.532312
56	0xbea171a2	-0.31532007
57	0x3e2da57f	0.16957663
58	0xbf644bdd	-0.8917826
59	0x3eb56ee9	0.3543618
60	0xbe8ad9af	-0.27119204
61	0x3f7bb0d6	0.98316705
62	0xbc95866a	-0.01825257
63	0x3d862791	0.065505154
64	0x3f06f0e7	0.5271134
65	0xbd61dcb8	-0.055142134
66	0x3c876c6d	0.016531194
67	0x4074c139	3.8242934
68	0x3ed474f4	0.41495478
69	0xbdcb184a	-0.09916742
70	0x3f37e0b9	0.71827275
71	0xbd6feb8c	-0.058574244
72	0x3d68ae6f	0.056806978
73	0xbea63ce2	-0.32468325
74	0xbe3d0e58	-0.18462503
75	0x3e8abb75	0.27096143
76	0x3ff4902a	1.9106495
77	0x3eabf53a	0.3358553
78	0xbe878db3	-0.26475295
79	0x3f3b299d	0.7311037
80	0xbd050b6a	-0.03248159
81	0xbe84e402	-0.25955206
82	0xbe980e49	-0.296984
83	0xbdddcb42	-0.10829784
84	0xbde606c3	-0.112317584
85	0x4038209a	2.8769898
86	0x3f2499af	0.64297
87	0xbeb0694f	-0.34455344
88	0xbed0c655	-0.40776315
89	0xbed74958	-0.42048144
90	0xbf19feb5	-0.6015428
91	0xbd0107c5	-0.03150155
92	0xbe70e37e	-0.23524281
93	0xbeb6d4ab	-0.35709128
94	0x3d62a3c7	0.05533197
95	0xbc90ec4b	-0.017690798
96	0x3e0e5cc4	0.13902575
97	0xbe94ac19	-0.2903755
98	0xbf0f689d	-0.56019
99	0x3ead93b8	0.33901763
100	0x3f910f9e	1.1332891
101	0x3dc48137	0.09594958
102	0x3ec20fba	0.37902623
103	0x3f3ae967	0.73012394
104	0x3e63c02d	0.22241278
105	0xbeb1187e	-0.34589
106	0xbed3da2d	-0.41377392
107	0xbf2ad3f9	-0.66729695
108	0x3e421122	0.18951848
109	0x3e0bcd61	0.13652565
110	0x3e67f659	0.22652568
111	0x3e83e04e	0.25757068
112	0xbdbab458	-0.09116429
113	0xbe3b0112	-0.18262127
114	0x3d9f18e9	0.07768423
115	0xbd026d55	-0.03184255
116	0x3eca9799	0.39568785
117	0xbedeb5cb	-0.43498072
118	0x3f399fd0	0.7250948
119	0x3e077ea3	0.13231902
120	0x3ea6b3c8	0.32559037
121	0x3f9b2947	1.2121972
122	0x3f58c8c8	0.8468137
123	0xba9ff80a	-0.0012204659
124	0xbf0ae26f	-0.5425176
125	0xbe30fe82	-0.17284587
126	0x3f08517a	0.53249323
127	0x3f0388d3	0.5138065
128	0xbe3e9737	-0.18612371
129	0xbd88ca5b	-0.06679221
130	0x3d8f6c53	0.07003083
131	0x3ecd6bb2	0.40121228
132	0x3f083fc9	0.5322233
133	0x3eff53b4	0.49868548
134	0xbeefc353	-0.46828708
135	0x3d8c7962	0.068590894
136	0x3e798a63	0.24369197
137	0xbec221d2	-0.37916428
138	0x3eecd8cc	0.46259153
139	0x3f5fe7e9	0.8746324
140	0x3e27f526	0.1640211
141	0x3e026218	0.12732732
142	0x3ea09ac7	0.31368086
143	0xbe935c7f	-0.28781506
144	0x3e857ed2	0.2607332
145	0x3e318846	0.1733714
146	0xbd0f664b	-0.035009664
147	0xbc842905	-0.01613284
148	0x3f29229f	0.6606845
149	0x3f6ec364	0.9326689
150	0xbe84784d	-0.25873032
151	0x3e58e64e	0.21181604
152	0x3ecbc92e	0.39801925
153	0xbe7d03d1	-0.24708487
154	0xbeffdb66	-0.49972075
155	0xbef4d0d2	-0.47815567
156	0x3f0378db	0.51356286
157	0xbee756d1	-0.45183423
158	0x3e9398f4	0.2882763
159	0xbe942f47	-0.2894232
160	0x3bdedfa5	0.006801563
161	0xbed21d6f	-0.4103808
162	0xbea90a44	-0.33015645
163	0x3ac5df48	0.001509645
164	0xbec5b1a5	-0.38612095
165	0xbe135574	-0.14388067
166	0xbbf469d9	-0.007458907
167	0xbfd7f076	-1.6870258
168	0xbf1d12f6	-0.6135706
169	0x3ea099b9	0.3136728
170	0xbdd4c1db	-0.103885375
171	0xbe848b95	-0.25887743
172	0xbef66526	-0.48124045
173	0x3e37411e	0.17895934
174	0xbf211918	-0.62928915
175	0xbe0ab864	-0.13546902
176	0xbf961cf7	-1.1727589
177	0xbde8ffc9	-0.11376912
178	0xbdf6abf2	-0.12044515
179	0x3edf384d	0.43597642
180	0xbebe0a96	-0.3711745
181	0x3f05bd94	0.522424
182	0x3ee35190	0.44398165
183	0xbf0d9cd1	-0.5531741
184	0xbfe9e61d	-1.827335
185	0xc0278ffb	-2.6181629
186	0x3d430cdd	0.04761969
187	0x3d813cf6	0.063104555
188	0xbf8a54b2	-1.0807097
189	0xbe50c36c	-0.20387048
190	0x3f4f7148	0.8103223
191	0x3f3f7df5	0.7480157
192	0x3e3ef65d	0.18648668
193	0x3f897c54	1.0741067
194	0xbf8b4c9a	-1.0882752
195	0xbdb35aa2	-0.08757521
196	0xbf298e52	-0.6623279
197	0x3f358f46	0.7092174
198	0xbeaa17fe	-0.3322143
199	0xbf0487a9	-0.517695
200	0xbf823948	-1.0173731
201	0x3dca0576	0.09864323
202	0x3e281fff	0.16418456
203	0xbe626dd0	-0.22112203
204	0x3e221e67	0.1583191
205	0x3f67c41d	0.9053362
206	0xbf4ecb75	-0.807792
207	0x3de6c2e4	0.11267641
208	0xbf4241fd	-0.7588194
209	0xbfa3e6ce	-1.2804811
210	0xbf0af717	-0.5428328
211	0xbf244500	-0.64167786
212	0xbfd5576c	-1.6667304
213	0xbd9bf669	-0.076153584
214	0x3ea7960e	0.3273167
215	0x3fb3b61d	1.4039952
216	0xbdc8d752	-0.09806694
217	0xbec6a4e5	-0.3879768
218	0x3f699460	0.9124203
219	0x3e5eb39b	0.21748202
220	0x3f79a1ed	0.97512704
221	0xbf1797cc	-0.59216
222	0x3eccefcb	0.40026698
223	0xbf757ffa	-0.958984
224	0xbedbc5d1	-0.4292436
225	0xbef6f32e	-0.48232406
226	0xbc268c0d	-0.010165227
227	0xbecff7ca	-0.40618736
228	0xbf5c80a3	-0.86133784
229	0x3f9844a6	1.189595
230	0xbf2554ee	-0.6458272
231	0xbe615b40	-0.22007465
232	0xbf7ec997	-0.9952635
233	0xbc9ce0e9	-0.019150214
234	0xbe128983	-0.14310269
235	0x3eb15d7f	0.34641644
236	0xbf70124f	-0.93777937
237	0xbe72a3ea	-0.23695341
238	0xbf1b0340	-0.60551834
239	0xbea119f5	-0.31465116
240	0x3e46795c	0.19382232
241	0xbefc1e59	-0.49241903
242	0xbfb68c58	-1.426158
243	0xbee26711	-0.44219258
244	0xbdfa69aa	-0.12227185
245	0xbf22c5db	-0.63583153
246	0x3e9589fe	0.29206842
247	0x3f0169c6	0.5055202
248	0xbdcd54ca	-0.10025938
249	0x3e7d3e00	0.24730682
250	0xbf892486	-1.0714271
251	0x3e45df6d	0.19323511
252	0xbcb89e47	-0.02253641
253	0xbcbdbb5a	-0.023160625
254	0xbf9d69f2	-1.2297957
255	0xbe78ae91	-0.24285342

conv2.bias f4 [32]
0	0xbd949ddd	-0.072566725
1	0x3dbf31bb	0.09335657
2	0x3da46fba	0.08029123
3	0x3c1d1619	0.009587788
4	0xbcfe58ca	-0.031048197
5	0xbd5d032f	-0.053958114
6	0x3d52971c	0.05141364
7	0xbd0dad65	-0.03458919
8	0xbd910ef1	-0.07082928
9	0x3cf245d5	0.029574314
10	0x3d76f84f	0.0602954
11	0x3db5732c	0.08859858
12	0xbd7b2cbd	-0.061321963
13	0xbbb13054	-0.0054073725
14	0x3b3fca8c	0.0029265014
15	0xbc50b676	-0.012738815
16	0xbdafc4e5	-0.085824765
17	0xbbae606b	-0.0053215525
18	0x3c4b1653	0.012395459
19	0x3d68f927	0.056878235
20	0xbbdde2cb	-0.0067714206
21	0xbda8ce5c	-0.08242485
22	0x3c9c70ef	0.01909682
23	0x3d78945a	0.060688354
24	0x3d5f23ea	0.05447761
25	0xbbc138f5	-0.0058966824
26	0xbc990bae	-0.018682327
27	0xbd67fd71	-0.056638185
28	0x3d7db1cd	0.061937142
29	0x3d128958	0.035775512
30	0x3d3c8ab5	0.04603072
31	0xbd2f61f7	-0.042818036

bn2.weight f4 [32]
0	0x3f8e1a26	1.110173
1	0x3f6e254b	0.93025655
2	0x3f6fa695	0.9361356
3	0x3f96354c	1.1735015
4	0x3f4f6bfc	0.81024146
5	0x404da1d2	3.2130017
6	0x3ffa5777	1.9557942
7	0x3fb0fd11	1.382723
8	0x3fad3416	1.353152
9	0x39e3005a	0.00043297076
10	0x3f6414ea	0.8909441
11	0x3f71523f	0.9426612
12	0x3f879475	1.059218
13	0x3f6ab199	0.9167724
14	0x3f74b9bf	0.95595926
15	0x3f4a4daa	0.79024756
16	0x3f215a9e	0.63028896
17	0x3f789a4d	0.97110444
18	0x3f460b41	0.7736092
19	0x3ee186cf	0.44048163
20	0x3f5d596b	0.86464566
21	0x40452abc	3.0807333
22	0x3f7e7d7a	0.9941021
23	0x3f57acf2	0.8424827
24	0x3f620ca5	0.88300544
25	0x3f810ac2	1.0081408
26	0x3fb897f3	1.4421371
27	0x3f76051e	0.9610156
28	0x3f4492f5	0.7678674
29	0x3f74e78b	0.95665807
30	0x3f88cc26	1.0687301
31	0x40006961	2.0064318

bn2.bias f4 [32]
0	0xbf1519a2	-0.5824224
1	0xbda095f7	-0.078411035
2	0xbec39ce1	-0.38205627
3	0xbf08fbca	-0.535092
4	0xbf32b868	-0.6981263
5	0x3e6c893c	0.23099226
6	0xbf0cdc50	-0.5502367
7	0xbe2eadfe	-0.1705856
8	0xbe46b353	-0.19404344
9	0xbdd420f7	-0.1035785
10	0xbef73794	-0.4828459
11	0xbe363ba1	-0.17796184
12	0xbebcbf03	-0.3686448
13	0xbf04ff4f	-0.5195207
14	0xbf281901	-0.6566315
15	0xbf18d870	-0.5970526
16	0xbe0ec95d	-0.13944001
17	0xbf4ab0e9	-0.79176193
18	0xbf26467e	-0.6495131
19	0xbdfc420d	-0.12317286
20	0xbf02023e	-0.5078467
21	0xbe8d74fb	-0.27628312
22	0x3e78bea0	0.24291468
23	0xbef4984a	-0.47772437
24	0xbeee4e25	-0.46543995
25	0xbe6bc2a5	-0.2302347
26	0xbf100892	-0.5626308
27	0xbf11afc7	-0.5690884
28	0xbe7817eb	-0.24227874
29	0xbf2f114f	-0.68385786
30	0xbf34fae9	-0.7069536
31	0x3c85a31f	0.016313134

bn2.running_mean f4 [32]
0	0x409d8b44	4.92325
1	0xc0732a77	-3.7994668
2	0x40217846	2.522966
3	0x40550953	3.328694
4	0x3f430be0	0.76189995
5	0xc0d1803b	-6.546903
6	0xc0a6f76d	-5.2177033
7	0xc06fb84a	-3.745623
8	0x3fa3bdae	1.2792261
9	0x3daf813b	0.08569571
10	0x40b807f5	5.7509713
11	0x40083ca4	2.1287012
12	0xbe781cff	-0.24229811
13	0x3e156ae9	0.14591564
14	0x40b3b401	5.615723
15	0xbe803386	-0.2503931
16	0xbfc9a183	-1.5752414
17	0x3f8a2b47	1.0794457
18	0x4092d9c1	4.5890813
19	0x4085ee09	4.185307
20	0x3f113a5b	0.5672967
21	0x4086ea9c	4.216139
22	0x3eb5ef50	0.35534143
23	0x408eef33	4.466699
24	0x3fee8945	1.8635641
25	0xbf076974	-0.52895284
26	0xc0c00306	-6.000369
27	0xbea6710c	-0.32508123
28	0x3fd3e874	1.6555314
29	0x4027811a	2.6172547
30	0xbf2cf0cb	-0.6755492
31	0xc08c55ff	-4.3854976

bn2.running_var f4 [32]
0	0x4100d592	8.052141
1	0x403d0cef	2.9539144
2	0x4172eb43	15.182437
3	0x40efee82	7.4978647
4	0x402ec4a2	2.7307515
5	0x425013d2	52.019356
6	0x40b23dd8	5.5700493
7	0x40829701	4.080933
8	0x413a6f83	11.652225
9	0x41098b0b	8.596446
10	0x411260a1	9.148591
11	0x40caccf2	6.3375177
12	0x41048f42	8.284975
13	0x405b00c8	3.4219227
14	0x410fddb4	8.991627
15	0x409253aa	4.572713
16	0x40c03fea	6.007802
17	0x40901946	4.503085
18	0x414eb072	12.918077
19	0x414b0b59	12.69027
20	0x40fd70e0	7.9200287
21	0x4022ab1c	2.5416937
22	0x41116110	9.086197
23	0x41353513	11.325458
24	0x41343896	11.263815
25	0x40b285c5	5.5788293
26	0x41183eef	9.515365
27	0x409b4fef	4.8535075
28	0x4047a0fe	3.1192012
29	0x4087c2fa	4.242551
30	0x40d1098e	6.5324163
31	0x41d870e5	27.055124

conv3.weight f4 [64, 32, 3, 3]
0	0xbf437ead	-0.76365167
1	0xbd0babc6	-0.034099363
2	0xbf424497	-0.7588591
3	0xbd99f16c	-0.07516751
4	0xbe887477	-0.26651356
5	0xbe8db914	-0.27680266
6	0xbf5df74f	-0.8670549
7	0x3ec154ea	0.37760097
8	0xbf712761	-0.9420071
9	0x3f371f8c	0.7153251
10	0xbf72da5b	-0.94864434
11	0x3f5883f4	0.84576344
12	0x3dda0dfd	0.10647199
13	0xbeda3f6d	-0.42626515
14	0x3f62d55f	0.8860683
15	0x3f5c4c1c	0.86053634
16	0x3f0b200e	0.54345787
17	0x3f646068	0.89209604
18	0x3eae71c5	0.34071174
19	0x3f1e0ac7	0.61735195
20	0x3f2bab97	0.670587
21	0x3f032f0f	0.5124368
22	0xbd678ea5	-0.05653252
23	0x3e2da36c	0.16956872
24	0x3ec39615	0.3820044
25	0x3df95393	0.12174144
26	0xbe8062cf	-0.25075385
27	0xbeeddd27	-0.46457788
28	0xbf3015cb	-0.68783253
29	0xbf823af7	-1.0174245
30	0xbe06a77d	-0.13149829
31	0xbf567c22	-0.8378316
32	0xbe61cb6f	-0.2205026
33	0xbf17b1cf	-0.5925569
34	0xbdd21ccb	-0.10259398
35	0xbf1d41c3	-0.6142847
36	0x3ecb952e	0.39762253
37	0x3dc0e4c6	0.09418635
38	0x3e73d61b	0.23812144
39	0x3d8def1b	0.069303714
40	0xbed27835	-0.41107336
41	0xbf289f93	-0.6586849
42	0x3cb07a1c	0.021542601
43	0x3e132aca	0.14371791
44	0x3eee4c10	0.46542406
45	0xbf0bdefc	-0.5463712
46	0x3e871501	0.26383212
47	0xbec4cb99	-0.38436583
48	0xbd08a03f	-0.033355948
49	0xbeab48d7	-0.3345401
50	0x3bbe3249	0.0058043343
51	0xbea0d251	-0.3141046
52	0xbdc909e7	-0.09816342
53	0xbe4c6ec7	-0.19964133
54	0x3e28eeec	0.16497391
55	0x3e73fe79	0.23827542
56	0x3e8533c4	0.26016057
57	0x3ea64929	0.32477692
58	0xbe850aab	-0.25984702
59	0xbc4cb675	-0.012494673
60	0x3f1b1554	0.6057942
61	0x3f8943e4	1.0723844
62	0xbe617600	-0.2201767
63	0xbede4de5	-0.43418804
64	0x3e809c93	0.25119457
65	0x3e013159	0.12616481
66	0xbefebaec	-0.49751985
67	0x3efd5178	0.49476218
68	0x3ec58c01	0.38583377
69	0x3dc4b965	0.09605674
70	0x3f14a926	0.580706
71	0x3ed66d86	0.41880435
72	0x3f932065	1.1494261
73	0x3dd3e26d	0.10345922
74	0x3f80fc9f	1.0077094
75	0x3cc6381a	0.024196673
76	0xbeb2a333	-0.34890136
77	0x3e554476	0.20826897
78	0x3f716a63	0.9430296
79	0xbe80f7d1	-0.2518907
80	0x3efdbfc4	0.49560368
81	0xbdfdde55	-0.12395922
82	0x3f737392	0.9509822
83	0x3e5c4c66	0.21513519
84	0x3e9a8159	0.3017681
85	0xbc892e50	-0.016745716
86	0x3e4cfb4c	0.20017737
87	0xbd93c132	-0.072145835
88	0x3eac5938	0.33661819
89	0xbe1a371e	-0.15060088
90	0xbe8e98e1	-0.27851012
91	0xbf09a6b3	-0.5376999
92	0x3d2dc0a6	0.042420052
93	0xbdfdec1f	-0.12398552
94	0xbe1efb4f	-0.15525554
95	0x3e7357b0	0.23763919
96	0xbe29bdf7	-0.16576372
97	0x3f1542f1	0.5830527
98	0xbf782554	-0.9693196
99	0xbf33f828	-0.7030053
100	0x3ef55478	0.47916007
101	0xbe74b67e	-0.2389774
102	0xbf4c0d5e	-0.79707897
103	0xbed448ff	-0.41461942
104	0x3f557d3e	0.8339423
105	0xbdd1e951	-0.1024958
106	0x3ecb1569	0.39664772
107	0x3f25995a	0.6468712
108	0x3e8b36fc	0.27190387
109	0x3f53cb12	0.82731736
110	0x3f336375	0.70073634
111	0x3f076678	0.5289073
112	0x3ebc84c2	0.36820036
113	0x3f264758	0.6495261
114	0x3f25d44c	0.64777064
115	0x3ecb15dc	0.39665115
116	0xbe4df36d	-0.20112391
117	0x3e39ba75	0.18137534
118	0xbead5637	-0.3385484
119	0x3ee77b22	0.4521113
120	0x3f09ccaf	0.5382795
121	0xbdf7318c	-0.12069997
122	0x3f8e4756	1.111552
123	0x3c88402a	0.016632158
124	0x3e6f0e37	0.23345266
125	0x3eb638f6	0.35590333
126	0xbcf5ee14	-0.030020751
127	0xbf3c9fe3	-0.7368147
128	0x3e9cd8e2	0.30634218
129	0xbf19fb11	-0.6014872
130	0xbf067796	-0.52526224
131	0xbebedd0b	-0.37278017
132	0xbdee1e67	-0.116268925
133	0xbf320586	-0.6953968
134	0x3f0a4869	0.5401674
135	0x3ec5f54a	0.38663703
136	0x3f3dcbfe	0.7413939
137	0x3effdd29	0.4997342
138	0x3e88deef	0.26732585
139	0x3e3bd1fa	0.18341818
140	0x3e11c257	0.14234291
141	0x3ee52f4d	0.4476265
142	0x3f5e81d4	0.8691685
143	0x3f0e2606	0.5552677
144	0xbf1ddf2c	-0.6166866
145	0x3eb3c37e	0.35110086
146	0x3f0ae27f	0.54251856
147	0x3e0d95f9	0.13826741
148	0x3de35720	0.11100602
149	0x3d95f43c	0.07321975
150	0x3ef9ff52	0.48827606
151	0x3f45683e	0.77112186
152	0x3cb5252f	0.022112457
153	0x3ef5113a	0.47864705
154	0xbe8b7f84	-0.27245724
155	0x3d9d2f34	0.07675019
156	0x3effc4bf	0.49954793
157	0x3f43e46b	0.76520413
158	0x3f9310fd	1.148956
159	0x3ea896d8	0.32927585
160	0x3ea527d0	0.32256937
161	0x3d133f46	0.035949014
162	0xbd8cc62c	-0.06873736
163	0xbf3b81f8	-0.7324519
164	0xbe048327	-0.12940656
165	0xbe928851	-0.28619626
166	0x3d3e9c7b	0.04653595
167	0xbd5320d7	-0.05154499
168	0xbe213069	-0.15741123
169	0x3ec45cdb	0.38352093
170	0xbe8238f2	-0.2543407
171	0xbe69a52e	-0.22816917
172	0x3f691cd8	0.9105964
173	0x3e52ac5f	0.20573567
174	0x3d944298	0.07239264
175	0xbd7414d5	-0.05959018
176	0x3e0945ce	0.13405535
177	0xbc8b8c28	-0.017034605
178	0x3f852139	1.0400764
179	0x3c44e43b	0.012017305
180	0x3d9eba19	0.07750339
181	0xbf1ca1ae	-0.61184204
182	0x3f1211d5	0.5705846
183	0x3ecd7333	0.40126953
184	0xbef660f8	-0.48120856
185	0x3e53a0cf	0.20666812
186	0x3f8964d3	1.0733894
187	0x3ee4c797	0.44683525
188	0x3e05386c	0.13009804
189	0xbf1f026c	-0.6211307
190	0xbde104ae	-0.10987221
191	0xbf0e06a7	-0.554789
192	0xbf394ba5	-0.7238105
193	0xc00143b9	-2.0197585
194	0xbf000527	-0.5000786
195	0xbf549db0	-0.8305311
196	0xbe50974c	-0.20370215
197	0xbe47de5c	-0.19518417
198	0x3f13cfe1	0.57739073
199	0x3e59e9ce	0.21280596
200	0x3f599d96	0.8500608
201	0xbff76ef8	-1.933074
202	0xbd803f3c	-0.06262061
203	0xbfe1312a	-1.7593129
204	0x3f698dcc	0.9123199
205	0xbe3a1c9d	-0.18174978
206	0x3e58e590	0.21181321
207	0xbecea8a0	-0.40363026
208	0x3fa13d11	1.2596761
209	0xbf0a1547	-0.53938717
210	0xbe9d79d1	-0.30757
211	0x3e518376	0.20460305
212	0xbd8413d1	-0.06449092
213	0xbf71fa6b	-0.9452273
214	0x3fb1015b	1.3828539
215	0x3e4e438b	0.20142953
216	0xbe19269f	-0.14956139
217	0x3ef627aa	0.48077136
218	0x3e61983b	0.22030728
219	0x3eb26eab	0.34850058
220	0xbf4ac38f	-0.7920465
221	0x3f0d4303	0.55180377
222	0x3e8156ba	0.2526148
223	0x3f2ddd0c	0.67915416
224	0x3f872c5c	1.0560412
225	0x3e8d3150	0.27576685
226	0x3dfa349a	0.12217064
227	0x3f0435c1	0.5164452
228	0x3e898d4b	0.2686561
229	0x3f3a0155	0.7265828
230	0x3f2b90a3	0.67017573
231	0xbd52758e	-0.05138164
232	0x3e841965	0.25800624
233	0x3c665237	0.0140576875
234	0x3e66318e	0.22479841
235	0x3e1a7748	0.15084565
236	0x3e0cea1f	0.13761185
237	0xbeeb1420	-0.45913792
238	0xbe3651db	-0.17804663
239	0xbea1dd62	-0.31614214
240	0x3e9a7f96	0.30175465
241	0xbf058c2f	-0.5216703
242	0x3e2e5a36	0.170266
243	0x3f1028dd	0.5631235
244	0x3cbea188	0.023270383
245	0x3cc8389b	0.024441054
246	0xbeccdb5e	-0.40011114
247	0xbe133a73	-0.14377765
248	0x3e37974c	0.17928809
249	0x3fa7deb1	1.3114835
250	0x3ed47f8d	0.41503564
251	0x3f62f263	0.886511
252	0x3e2ce961	0.16885902
253	0xbf3109fe	-0.6915587
254	0xbf5986e8	-0.84971476
255	0xbe8077e3	-0.25091466

conv3.bias f4 [64]
0	0xbce1e700	-0.02757597
1	0x3d3c69e4	0.045999423
2	0xbd38773c	-0.045035586
3	0x3d4c4f78	0.049880475
4	0x3d446241	0.047945265
5	0x3a8cb1b6	0.0010734114
6	0xbd1a88db	-0.03772817
7	0xbd288cb2	-0.041149803
8	0xbcf85000	-0.030311584
9	0xbcdf6230	-0.0272685
10	0xbc46b935	-0.012129118
11	0x3c3405b6	0.01098769
12	0xbd2fe78a	-0.042945422
13	0x3c9013da	0.017587591
14	0xbd2794ea	-0.0409135
15	0x3bde3513	0.0067812293
16	0xbc677862	-0.014127823
17	0xbc147a9d	-0.009062436
18	0xbd3aafb5	-0.045577724
19	0x3c96be92	0.018401418
20	0xbce11902	-0.027477745
21	0xbcefa274	-0.029252268
22	0x3cc5b308	0.02413322
23	0x3c448b67	0.011996127
24	0x3bc4a9e7	0.0060016993
25	0xbcc4fd9a	-0.024046708
26	0xbbcc437b	-0.0062336302
27	0xbc792c5c	-0.01520833
28	0x3b01dab1	0.0019814188
29	0xbd88b3a8	-0.06674892
30	0xbc946557	-0.018114729
31	0xbc7fa339	-0.01560288
32	0x3d282e08	0.041059524
33	0x3cce9e42	0.025221948
34	0xbd5df847	-0.054191854
35	0xbcaf3897	-0.021389289
36	0xbd523ae9	-0.051325712
37	0xbd3f2a1c	-0.046671018
38	0xbd1b6704	-0.03794004
39	0x3c87c4df	0.016573368
40	0xbcbb281a	-0.02284627
41	0xbd6e7523	-0.05821718
42	0x3d5c95e8	0.0538539
43	0xbd449449	-0.04799298
44	0xbce63324	-0.028100558
45	0x3d2d09be	0.04224562
46	0xbc34d1d3	-0.011036354
47	0x3d2d2b53	0.042277645
48	0x3d299c24	0.041408673
49	0x3d2f31dc	0.04277216
50	0xbb2051f7	-0.0024462917
51	0x3d331847	0.043724325
52	0x3cfe4a60	0.031041324
53	0xbb3d79e5	-0.0028911766
54	0xbcc1ac89	-0.023641841
55	0x3d608613	0.054815363
56	0x3a427e16	0.0007419301
57	0x3c0eea16	0.008722803
58	0x3d4c73e7	0.04991522
59	0xbd52812f	-0.05139273
60	0xbcf06340	-0.029344201
61	0x3c38c17f	0.011276602
62	0xbd28b8b8	-0.041191787
63	0xbac877fc	-0.0015294547

bn3.weight f4 [64]
0	0x3f0f9638	0.5608859
1	0x3fa2b8cb	1.2712644
2	0x3f6a62e9	0.91557175
3	0x3f858f2f	1.0434321
4	0x3f9733bc	1.1812663
5	0x3f136f04	0.5759127
6	0x3f828170	1.0195751
7	0x3f794f8b	0.97387
8	0x3f9c9db7	1.2235631
9	0x3ee2d5e0	0.443038
10	0x3fa2c4b2	1.2716277
11	0x3f509003	0.81469744
12	0x3f891171	1.0708448
13	0x3f9c7d77	1.2225789
14	0x3f020ebe	0.50803745
15	0x3f3dd7c4	0.7415736
16	0x3f9dc66d	1.232618
17	0x3f84be90	1.0370655
18	0x3fac4485	1.345841
19	0x3f18d848	0.5970502
20	0x3f7d4150	0.98927784
21	0x3f9b8fc6	1.2153251
22	0x3f9da4e8	1.231595
23	0x3f87cf96	1.0610225
24	0x3f89b943	1.0759662
25	0x3f8d761e	1.1051672
26	0x3f07f45c	0.5310724
27	0x3f9a5b58	1.2059126
28	0x3f407a87	0.7518696
29	0x3ef5b5e4	0.47990334
30	0x3f9711ba	1.1802285
31	0x3f12e1e3	0.57375926
32	0x3f5a198b	0.85195225
33	0x3f9b8636	1.2150333
34	0x3f46fad6	0.77726495
35	0x3f8b19ac	1.086721
36	0x3f9581ec	1.1680274
37	0x3fc28f48	1.5199976
38	0x3fc956f6	1.5729663
39	0x3f8d7ef5	1.1054369
40	0x3f7c841a	0.9863907
41	0x3f1f02c3	0.6211359
42	0x3f1931e7	0.5984177
43	0x3f78bdd3	0.9716465
44	0x3f7a2f6c	0.9772861
45	0x3f293453	0.66095465
46	0x3fa813b1	1.3131009
47	0x3f5842eb	0.8447711
48	0x3f824e92	1.0180228
49	0x3f922e95	1.1420466
50	0x3f3907ab	0.72277325
51	0x3f942e46	1.1576622
52	0x3f4d6707	0.8023533
53	0x3f87aafe	1.0599058
54	0x3fae92a0	1.3638496
55	0x3f8fea01	1.1243287
56	0x3f6cca89	0.92496544
57	0x3f81c137	1.013709
58	0x3ef43833	0.47699127
59	0x3f9e4ab4	1.2366548
60	0x3f778640	0.96689224
61	0x3f81fe9f	1.0155829
62	0x3f822e47	1.0170373
63	0x3f8fa8cb	1.1223387

bn3.bias f4 [64]
0	0xbf971388	-1.1802835
1	0x3e50b1a7	0.20380269
2	0xbf51a9fd	-0.81900007
3	0xbd43ff8c	-0.04785113
4	0xbeedb88c	-0.4642986
5	0xbf6845c6	-0.90731466
6	0xbf80faf6	-1.0076587
7	0xbf6ce22b	-0.92532605
8	0xbfd5ad9f	-1.669361
9	0xbf5337de	-0.8250712
10	0xbed105e7	-0.40824816
11	0xbf320b1d	-0.6954821
12	0xbf05182d	-0.51990014
13	0x3edd2c66	0.43197936
14	0xbf84c29b	-1.0371889
15	0xbf415757	-0.75523895
16	0xbf33b9cf	-0.70205396
17	0xbf3cc7c4	-0.7374232
18	0xbdb640d0	-0.08899081
19	0xbf42b890	-0.7606287
20	0xbe732832	-0.23745802
21	0x3e18812a	0.14893022
22	0xbe90ddff	-0.2829437
23	0xbe81821b	-0.25294575
24	0x3e308fd7	0.1724237
25	0xbf55094f	-0.8321733
26	0xbf7da8d6	-0.9908575
27	0xbd9b2213	-0.075748585
28	0xbf8ca3f5	-1.0987536
29	0xbf552a67	-0.83267826
30	0xbe9e818e	-0.30958217
31	0xbf49862b	-0.7872035
32	0xbfa5f14c	-1.2964263
33	0xbf4dd9c3	-0.80410403
34	0xbf43c2a4	-0.76468873
35	0xbf77ff5d	-0.9687403
36	0xbf00e32d	-0.5034664
37	0x3e0b1f25	0.135861
38	0xbf520981	-0.8204575
39	0xbcd9863a	-0.026553262
40	0x3bca3c2f	0.006171725
41	0xbf9d7cbb	-1.230369
42	0xbf7725a7	-0.9654183
43	0xbec20123	-0.37891492
44	0xbf4a1fdf	-0.7895488
45	0xbf636fb2	-0.8884231
46	0xbf6d2ae7	-0.9264359
47	0xbb41c7d8	-0.002956858
48	0xbf3962db	-0.72416466
49	0xbf2f754b	-0.6853835
50	0xbe1fcf86	-0.15606508
51	0xbef81f93	-0.4846159
52	0xbf3b3046	-0.73120534
53	0xbdc11465	-0.09427718
54	0xbf567b57	-0.8378195
55	0xbf1b6e57	-0.6071524
56	0xbf4eead2	-0.8082706
57	0xbee46972	-0.44611698
58	0xbf97adac	-1.1849875
59	0xbf909518	-1.12955
60	0xbec3a866	-0.38214415
61	0x3e51e7e6	0.20498618
62	0xbf7688c3	-0.9630243
63	0xbdc1c607	-0.09461599

bn3.running_mean f4 [64]
0	0xc001813a	-2.0235124
1	0xc141930c	-12.0984
2	0xc11dd8e7	-9.865455
3	0xc0b2df4b	-5.5897574
4	0x413af267	11.68418
5	0xc09c5390	-4.8852005
6	0xc191a4dc	-18.205498
7	0xc1235c7a	-10.210077
8	0xbf8c602a	-1.0966847
9	0xc09375bd	-4.6081223
10	0xc0870fea	-4.2206926
11	0xc0e0f56b	-7.0299582
12	0xc1086153	-8.523761
13	0xc079624f	-3.8966253
14	0xbf86979a	-1.0515015
15	0xbe956b04	-0.2918321
16	0xbd2bd243	-0.041948568
17	0x415727a2	13.447176
18	0xbfcfd9e8	-1.6238375
19	0xc11c7ea9	-9.780923
20	0xc0857076	-4.169978
21	0xc0ea0165	-7.31267
22	0xc1792d07	-15.573493
23	0xc0da899c	-6.829298
24	0xc0f97144	-7.7950764
25	0xc18352d5	-16.415445
26	0xc0977f63	-4.7343
27	0xc03a6735	-2.9125493
28	0xc0770595	-3.8597157
29	0xbf5cf9e3	-0.86318797
30	0x403a2f56	2.9091392
31	0xc0611c78	-3.5173626
32	0xbe8b2f9c	-0.2718476
33	0xc04a2254	-3.1583452
34	0xc076f5db	-3.8587558
35	0xc183e97f	-16.489012
36	0xc0e1fb91	-7.061959
37	0xc1740bad	-15.252851
38	0xc18f8ef5	-17.944803
39	0x3ff67399	1.9254028
40	0xc0b153b1	-5.541466
41	0xc084af70	-4.1464157
42	0xc0881fbc	-4.253874
43	0xc135aa3f	-11.354064
44	0xc0db35f8	-6.850338
45	0xc0a2d9f9	-5.089108
46	0x3f1c6ece	0.61106575
47	0xc1168445	-9.407292
48	0xc129b2c8	-10.606148
49	0xc184a3ae	-16.579922
50	0xc12e373c	-10.888485
51	0x40bf0863	5.969774
52	0xbfa22545	-1.2667624
53	0xbff1c874	-1.8889298
54	0xc03d79ad	-2.9605515
55	0xc179545a	-15.583094
56	0x3f340f06	0.70335424
57	0xc17936d3	-15.575885
58	0x404330df	3.0498579
59	0xc1194ec0	-9.581726
60	0x40b87e28	5.7654
61	0xc0a2cb0a	-5.087285
62	0xc0ada8c6	-5.426852
63	0xc1683d8a	-14.515024

bn3.running_var f4 [64]
0	0x428f98b7	71.79827
1	0x42d9f550	108.979126
2	0x4281150b	64.5411
3	0x42582580	54.03662
4	0x425e1fd9	55.5311
5	0x431273a6	146.45175
6	0x42d5e054	106.93814
7	0x41fa0963	31.254583
8	0x41a1af82	20.210697
9	0x43040f52	132.05984
10	0x42116bcf	36.35528
11	0x42906618	72.1994
12	0x42568a7d	53.635242
13	0x431b9067	155.56407
14	0x42aa68d2	85.20473
15	0x42f57869	122.735176
16	0x4296e7bd	75.452614
17	0x4245aa83	49.416515
18	0x41df6bb2	27.927586
19	0x42531e73	52.779736
20	0x41c870fb	25.055166
21	0x42033145	32.798115
22	0x429e3e7e	79.122055
23	0x424194a3	48.395153
24	0x41aab9ec	21.340782
25	0x432dd8c7	173.84679
26	0x42b6fe9a	91.49727
27	0x41b7de02	22.983402
28	0x4297cddc	75.90207
29	0x42e6fe60	115.496826
30	0x41f1df9f	30.23419
31	0x4320015c	160.00531
32	0x42004726	32.06948
33	0x4185158b	16.635519
34	0x430528fe	133.16013
35	0x434ba854	203.65753
36	0x41d8a8c7	27.08241
37	0x4317fddc	151.99164
38	0x42dbb4be	109.85301
39	0x428ef402	71.47658
40	0x42429551	48.645817
41	0x4267b264	57.92421
42	0x42d6f5fc	107.48044
43	0x425176d7	52.366055
44	0x425de333	55.471874
45	0x426f242f	59.785336
46	0x4244e0af	49.219418
47	0x4296f8f5	75.486244
48	0x421bd89f	38.961544
49	0x43276a88	167.41614
50	0x43246eb6	164.43246
51	0x41ca18c2	25.262089
52	0x4312db48	146.85657
53	0x41b175af	22.182463
54	0x419fa376	19.954815
55	0x435755d1	215.33522
56	0x41dbfabe	27.497433
57	0x42fdec64	126.9617
58	0x42651ecd	57.28008
59	0x41f979f7	31.184553
60	0x41e59f87	28.702894
61	0x41b4f3e4	22.619087
62	0x422b399b	42.806255
63	0x4359f041	217.93849

conv4.weight f4 [128, 64, 3, 3]
0	0x3f8a2714	1.0793176
1	0x3f1a5b3d	0.6029547
2	0xbc3a6ec9	-0.011378952
3	0x3fc81030	1.562994
4	0xbea6bf21	-0.32567695
5	0xbf406232	-0.75149834
6	0x3ed63a96	0.41841573
7	0xbf1a8d06	-0.60371435
8	0xbf505a02	-0.8138734
9	0x3d761211	0.060075823
10	0xbf22e20f	-0.6362619
11	0xbe3c2b9a	-0.18376008
12	0xbe9b108b	-0.3028606
13	0xc003c35f	-2.0587995
14	0xbfb56097	-1.4170102
15	0xbf19e714	-0.6011822
16	0xbf9a1f46	-1.2040794
17	0xbf2cb81e	-0.6746844
18	0x3f3267db	0.6968972
19	0xbeab4090	-0.33447695
20	0xbf3c6187	-0.73586315
21	0xbe19adfc	-0.15007776
22	0xbe90c06d	-0.2827181
23	0xbf0a0a97	-0.5392241
24	0xbcca7453	-0.02471367
25	0x3e256819	0.16152991
26	0x3f372b4e	0.7155045
27	0xbe14f75f	-0.1454749
28	0xbc3d472e	-0.011552615
29	0xbf56f2bf	-0.8396415
30	0xbf16c84b	-0.5889937
31	0xbf4e52d5	-0.8059514
32	0xbf2943d6	-0.66119134
33	0xbec3fecc	-0.38280332
34	0xbf27e4a2	-0.6558324
35	0xbf9e5c55	-1.2371927
36	0x3e229a61	0.15879203
37	0x3ed35bc6	0.41280955
38	0x3eeedd2b	0.46653113
39	0x3ed0ef4c	0.4080757
40	0x3f4bf707	0.7967381
41	0x3f5ca8c7	0.86195034
42	0x3e8a017d	0.2695426
43	0x3f1ff515	0.6248334
44	0x3f0e4942	0.5558053
45	0x3f129258	0.5725455
46	0x3ecc5021	0.39904884
47	0x3e8aeabd	0.27132216
48	0x3f2957cd	0.661496
49	0xbfab4b61	-1.3382379
50	0xbf22cc26	-0.63592756
51	0x3f033a7c	0.51261115
52	0xbf88f871	-1.0700818
53	0xbf4f4179	-0.8095928
54	0xbfa6db18	-1.3035612
55	0xbf7a07ba	-0.9766804
56	0xbfb0486b	-1.37721
57	0xbee932f5	-0.4554669
58	0xbe191d33	-0.14952545
59	0xbeab6abf	-0.33479878
60	0xbf8acf19	-1.0844451
61	0xbed7b7f3	-0.4213253
62	0xbf8b1797	-1.0866574
63	0x3f8a460e	1.0802629
64	0xbdc20913	-0.09474387
65	0xbdb78269	-0.08960421
66	0x3e541bfd	0.20713802
67	0xbedfb50c	-0.43692815
68	0xbedfa1dd	-0.4367818
69	0x3f8e33d1	1.1109563
70	0x3e8a2e92	0.26988655
71	0xbf0c7e60	-0.5488033
72	0xbee5b0d6	-0.44861478
73	0x3f0b84ce	0.5449952
74	0xbe87dd54	-0.26536047
75	0xbf9b647c	-1.214004
76	0xbe0a74b8	-0.13521087
77	0x3d29498a	0.041329898
78	0x3f247c22	0.6425191
79	0xbf14e61c	-0.5816362
80	0xbf52e563	-0.82381266
81	0x3f0b52bb	0.5442311
82	0xbd2345dd	-0.03986155
83	0x3da0c5d9	0.078502364
84	0x3f4cc1ca	0.799832
85	0xbfb934a7	-1.4469193
86	0xbf1bd858	-0.6087699
87	0x3eee5fae	0.46557373
88	0xbfa4d577	-1.2877644
89	0xbf87d7d6	-1.0612743
90	0x3f5d8c4f	0.8654222
91	0x3fbae6f8	1.4601736
92	0xbdef4d0a	-0.11684616
93	0x3f2bb99e	0.67080104
94	0x3ec99a4d	0.39375535
95	0x3d88ddef	0.066829555
96	0x3f2b0a91	0.66813
97	0x3ecb4288	0.39699197
98	0x3d6f653a	0.058446147
99	0x3e00c63a	0.12575617
100	0x3f3de8c8	0.7418332
101	0x3ede57ba	0.43426305
102	0x3dbf727d	0.09348009
103	0xbf12c39e	-0.5732974
104	0x3e9840f7	0.29737064
105	0xbe82b795	-0.25530687
106	0xbfee3859	-1.8610946
107	0x3e81d734	0.253595
108	0xbf7f68d8	-0.99769354
109	0xbf7ee415	-0.99566776
110	0xbf7d6955	-0.9898885
111	0xbe8b3d4b	-0.271952
112	0xbe896c6d	-0.26840535
113	0xbef1c646	-0.47221583
114	0xbf1a9a95	-0.60392123
115	0xbf3a168c	-0.72690654
116	0xbf3917bc	-0.7230184
117	0xbedfbc2a	-0.43698245
118	0x3e29a0f7	0.1656531
119	0xbd5841bb	-0.05279706
120	0x3ec2f9ec	0.380813
121	0x3f456d44	0.7711985
122	0x3ea757da	0.32684213
123	0x3dbfa462	0.093575254
124	0x3eb587b5	0.354551
125	0x3ea0274f	0.3127999
126	0x3f8a7b51	1.0818883
127	0x3f06f431	0.52716357
128	0x3ebfe4ef	0.3747935
129	0x3f9e4be4	1.236691
130	0xbf41305c	-0.75464416
131	0xbf61985c	-0.88123107
132	0x3f384a27	0.7198815
133	0xbfc53484	-1.5406651
134	0xbf8f4d60	-1.1195488
135	0x3efb35dd	0.49064532
136	0x3eed1913	0.46308193
137	0x3e25c485	0.16188248
138	0x3f635b8a	0.8881155
139	0xbf73bd56	-0.9521078
140	0xbeb9ebce	-0.36312717
141	0x3eb96fe4	0.36218178
142	0xbf6aad07	-0.9167027
143	0xbf473e80	-0.7782974
144	0x3f4f2beb	0.8092639
145	0x3f10e931	0.5660582
146	0x3e57d39c	0.21076816
147	0x3f188ff8	0.5959468
148	0x3d94a0c0	0.07257223
149	0x3c90a8ed	0.017658675
150	0xbe106264	-0.14100033
151	0xbdab58fe	-0.08366583
152	0xbec95a94	-0.39326918
153	0x3ecba2bb	0.3977259
154	0x3e10415d	0.14087434
155	0x3e4a6a40	0.19767094
156	0xbd26d419	-0.040729616
157	0x3f8c8f86	1.09813
158	0x3ecf90f7	0.40540287
159	0xbe8928d5	-0.26788965
160	0x3e6361c2	0.2220526
161	0x3d03c214	0.03216751
162	0x3ea82635	0.3284165
163	0xbb148cf2	-0.0022667018
164	0x3e5c699d	0.21524663
165	0x3eb22571	0.3479419
166	0xbe8b1a98	-0.27168727
167	0x3d4db224	0.050218716
168	0x3e15095d	0.14554353
169	0xbe10f33b	-0.14155285
170	0x3ce98af7	0.028508646
171	0x3f26f276	0.65213716
172	0x3f05dcd0	0.5229006
173	0xbea9ff0e	-0.33202404
174	0xbe230445	-0.15919597
175	0xbf3af30c	-0.7302711
176	0xbe690198	-0.22754514
177	0x3eee473d	0.46538725
178	0xbf81027d	-1.0078884
179	0xbd3266c5	-0.04355504
180	0x3f4f6fbc	0.8102987
181	0xbd12efa4	-0.03587307
182	0x3e029a6d	0.12754221
183	0x3d00db54	0.031459168
184	0x3df6d6fa	0.12052722
185	0x3e9fffdd	0.31249896
186	0x3ef98839	0.48736742
187	0xbe12800c	-0.14306659
188	0x3f0d29b3	0.5514175
189	0xbee27e58	-0.44237018
190	0xbe7b40b5	-0.24536403
191	0xbf3a3054	-0.7272999
192	0x3e81dc76	0.2536351
193	0xbec65695	-0.38737932
194	0xbf36346c	-0.7117374
195	0x3da8bfdd	0.0823972
196	0x3db80e1c	0.08987066
197	0xbdd1a519	-0.10236568
198	0xbdefbc0d	-0.1170579
199	0xbe19066f	-0.1494386
200	0x3dfbc005	0.12292484
201	0x3eca724b	0.39540324
202	0xbf886d98	-1.0658445
203	0xbf6c8a73	-0.92398757
204	0xbdd2108f	-0.102570646
205	0xbf319a85	-0.69376403
206	0xbed0ade6	-0.40757674
207	0x3e9027ad	0.2815527
208	0x3f1f1a7a	0.62149775
209	0x3f1c0166	0.60939634
210	0x3f508e4f	0.81467146
211	0x3f7b5a67	0.9818482
212	0x3d6b1413	0.05739219
213	0x3f4ddcb6	0.80414903
214	0x3f549582	0.8304063
215	0x3ef0a1f1	0.4699855
216	0x3f050dcd	0.51974183
217	0x3f301610	0.68783665
218	0x3f154cbd	0.5832022
219	0x3e99290e	0.29914135
220	0xbe915139	-0.2838228
221	0xbee3bbe1	-0.44479278
222	0xbed8590f	-0.42255446
223	0xbf2d85e2	-0.67782414
224	0x3d002239	0.031282637
225	0xbe82c8d7	-0.25543854
226	0xbdbdfa4e	-0.092762575
227	0x3d926a87	0.07149225
228	0x3e7d8dfe	0.24761197
229	0x3e9f79f9	0.31147745
230	0x3e9289a1	0.28620628
231	0x3dc7fe48	0.09765297
232	0x3e03602a	0.12829652
233	0x3e5afbc8	0.2138511
234	0x3f07e19b	0.5307862
235	0xbe6e14e7	-0.23250161
236	0x3e3cb00b	0.1842653
237	0x3f4a010d	0.78907853
238	0xbfc558a5	-1.5417677
239	0xbf6c3875	-0.92273647
240	0x3ea4ef2a	0.32213718
241	0xbfa2b38d	-1.2711045
242	0xbf7fe180	-0.9995346
243	0xbddc1d79	-0.10747809
244	0x3f5822b4	0.8442795
245	0x3eda8b04	0.42684186
246	0x3f554ebc	0.83323264
247	0x3edb60fb	0.42847428
248	0x3f32d969	0.6986299
249	0x3f013418	0.50470114
250	0x3f6da6db	0.92832726
251	0x3f8193f5	1.0123278
252	0x3e8fa917	0.28058693
253	0x3e25e9a8	0.16202414
254	0xbe05416c	-0.13013238
255	0x3f56d90e	0.8392495

conv4.bias f4 [128]
0	0xbd21023b	-0.039308768
1	0xbc1d8262	-0.009613605
2	0x3d0383c9	0.032108102
3	0xbcd41505	-0.02588893
4	0xbb7ecb28	-0.0038878415
5	0x3ce93157	0.02846591
6	0x3c5d4937	0.013506225
7	0xbc6c4803	-0.014421466
8	0xbc8aa7ba	-0.016925681
9	0x3ca4221d	0.020035798
10	0x3cefcd0d	0.02927258
11	0x3d0f5751	0.03499538
12	0x3cc030aa	0.023460705
13	0xbc0a592a	-0.00844411
14	0x3d134c6a	0.035961546
15	0x3c2b16ab	0.010442416
16	0x3c35b5af	0.01109068
17	0xbc085b3f	-0.008322536
18	0x3cc74f51	0.024329813
19	0x3d3931ca	0.0452135
20	0xbd0ebf53	-0.03485043
21	0x3c6ee4ce	0.0145809185
22	0xbc8e8c7a	-0.017400969
23	0x3bb8bbf7	0.0056376415
24	0xbca45c09	-0.020063417
25	0x3c3a0ee8	0.011356093
26	0xbc4f24f3	-0.012643087
27	0x3ca352dc	0.019936971
28	0xbc766e38	-0.015040927
29	0xbd243a21	-0.0400945
30	0xbc9a4397	-0.018831057
31	0xbc872192	-0.0164955
32	0xbcb97eaa	-0.022643406
33	0x3cf3226e	0.029679503
34	0x3d012027	0.031524803
35	0x3c988332	0.018617246
36	0xbd099062	-0.03358496
37	0xbd34468e	-0.0440126
38	0xbb567fe1	-0.003273003
39	0xbd1e2803	-0.038612377
40	0x3b5b8038	0.0033493172
41	0xbbd56514	-0.0065122936
42	0x3c441e24	0.011970077
43	0x39ffe9dc	0.0004881163
44	0xbcfea1aa	-0.031082947
45	0xbc0feb4f	-0.008784129
46	0xbb59fed2	-0.0033263457
47	0x3b0e48a5	0.002171078
48	0x3c389cc4	0.011267845
49	0x3d0de485	0.03464176
50	0x3d04ed12	0.03245265
51	0xbb097595	-0.0020974625
52	0x3bff4f5c	0.007791443
53	0xbc7a91aa	-0.015293518
54	0x3ce3fd02	0.027830604
55	0xbc6796b7	-0.014135054
56	0xbcdedd69	-0.027205186
57	0xbb887751	-0.0041646142
58	0x3c9c9790	0.01911524
59	0x3ca9514c	0.020668648
60	0x3b286d66	0.0025699972
61	0x3c9a02bf	0.018800138
62	0xbc94eaf5	-0.018178442
63	0x3ce78d69	0.028265672
64	0xbcae33de	-0.021264967
65	0xbcbce247	-0.023057116
66	0xbca50b86	-0.020147096
67	0x3cc8221f	0.024430333
68	0xbc065da6	-0.008201038
69	0x3c42294d	0.011850667
70	0xbcc6d3c5	-0.024270901
71	0x3b51dacd	0.0032021285
72	0x3d2fb404	0.042896286
73	0x3d098924	0.033578053
74	0x3d29ef7e	0.041488163
75	0xbca6b444	-0.02034963
76	0xbb901d01	-0.004397989
77	0xbd276621	-0.040868882
78	0x3c78d2ce	0.0151869785
79	0xbb2066b1	-0.0024475271
80	0xbc924628	-0.017855719
81	0x3ce58e5a	0.02802198
82	0x3ccc4d45	0.024939189
83	0xbc1394fc	-0.009007689
84	0xbd28cde5	-0.04121198
85	0x3d2290b0	0.039688766
86	0xbd000b7e	-0.03126096
87	0xbd0b3fe5	-0.03399648
88	0xbd02bc07	-0.031917598
89	0x3c6543db	0.013993229
90	0xbcdc893f	-0.026920913
91	0xbc2debe9	-0.010615327
92	0xbd0a7b0d	-0.033808757
93	0x3cdcbef8	0.02694653
94	0x3b739363	0.0037166707
95	0xbc4cc575	-0.012498249
96	0x3bdd9ccd	0.006763077
97	0x3a4851d7	0.00076415896
98	0x3b9d0d84	0.004792871
99	0x3ce3d32c	0.027810656
100	0xbc5a314e	-0.013317419
101	0x3c87a5f9	0.016558634
102	0x3d3c197b	0.045922738
103	0x3c98dce5	0.018660018
104	0xbca84899	-0.02054243
105	0xbcbc3a71	-0.022977086
106	0x3cfc2cea	0.030783135
107	0x3c65e454	0.014031488
108	0x3ccdd09e	0.02512389
109	0xbaebfab4	-0.0018003793
110	0xbc352070	-0.011055097
111	0x3ca65d47	0.02030815
112	0xbc52a6c5	-0.012857144
113	0xbc026593	-0.0079587875
114	0x3bcda481	0.006275714
115	0x3d322593	0.043492865
116	0x3d13e5c3	0.03610779
117	0x3cd29fab	0.025710901
118	0x3c5e5075	0.013568987
119	0xbb604739	-0.003422214
120	0x3bc6d2b4	0.0060675982
121	0xbc530f2e	-0.012882037
122	0x3ce40f74	0.0278394
123	0xbd0c45b9	-0.03424618
124	0xbcd49bf5	-0.025953272
125	0xbcb3c0e5	-0.021942565
126	0xbd25afad	-0.04045074
127	0xbc976959	-0.01848285

bn4.weight f4 [128]
0	0x3f889881	1.067154
1	0x3f5b97d7	0.85778564
2	0x3f7b4c95	0.9816373
3	0x3f8bfee1	1.0937158
4	0x3f729db7	0.94771904
5	0x3f82795f	1.019329
6	0x3f3ccae1	0.7374707
7	0x3f760169	0.960959
8	0x3f333193	0.6999752
9	0x3f1bd48e	0.6087121
10	0x3f87796e	1.0583932
11	0x3f8f705c	1.1206164
12	0x3fac1a0e	1.3445451
13	0x3f40c3ca	0.7529875
14	0x3f5e09b6	0.8673357
15	0x3ee879da	0.45405465
16	0x3f907eb3	1.1288666
17	0x3f48284e	0.781865
18	0x3f297255	0.6619008
19	0x3f208e81	0.62717444
20	0x3f928cb3	1.1449188
21	0x3f5e0a02	0.8673402
22	0x3f36e7fe	0.7144774
23	0x3f47e096	0.78077066
24	0x3faed051	1.3657323
25	0x3f6c1fcd	0.92236024
26	0x3f38e1b0	0.7221937
27	0x3f8dddaa	1.1083272
28	0x3f482d6c	0.7819431
29	0x3f28b06f	0.65894216
30	0x3f1cf2c3	0.61307925
31	0x3f8ebc6e	1.1151254
32	0x3ee6c450	0.4507165
33	0x3f42fcc3	0.76166934
34	0x3f5fd314	0.87431455
35	0x3f753002	0.9577638
36	0x3f3b8ae4	0.73258805
37	0x3fbb7f40	1.4648209
38	0x3f93c45b	1.1544298
39	0x3f9dc947	1.232705
40	0x3f6ba23a	0.92044413
41	0x3f01aa35	0.5065034
42	0x3f6bb196	0.9206785
43	0x3f9f4825	1.2443892
44	0x3f0a40b2	0.5400497
45	0x3fa6bc4e	1.3026216
46	0x3f98ddf7	1.1942738
47	0x3f49070a	0.78526366
48	0x3fac2938	1.3450079
49	0x3f42a328	0.76030207
50	0x3f9ae7cd	1.210199
51	0x3f63e508	0.8902135
52	0x3f38eb16	0.7223371
53	0x3f33ba15	0.70205814
54	0x3f642d65	0.89131767
55	0x3f6124ba	0.87946665
56	0x3f81da89	1.0144817
57	0x3f3d8936	0.7403749
58	0x3fa2b04d	1.2710053
59	0x3f02085e	0.5079402
60	0x3f8358e7	1.0261506
61	0x3f45868c	0.7715843
62	0x3f58726a	0.8454958
63	0x3fa62e86	1.2982948
64	0x3f43b004	0.76440454
65	0x3f920093	1.1406425
66	0x3f54f555	0.83186847
67	0x3f63bc64	0.88959336
68	0x3f17bc1a	0.59271395
69	0x3f187d39	0.59566075
70	0x3f6de035	0.9292024
71	0x3fa8fdee	1.3202493
72	0x3f7ba8c9	0.9830442
73	0x3f4c70c0	0.7985954
74	0x3f1dc4a7	0.6162819
75	0x3f8437bb	1.0329508
76	0x3f5d31e1	0.86404234
77	0x3f7f4e46	0.9972881
78	0x3f340f18	0.7033553
79	0x3f56024a	0.8359724
80	0x3f64d0bd	0.8938101
81	0x3f92c0b5	1.146506
82	0x3f2072ef	0.62675375
83	0x3f6c0b8d	0.92205125
84	0x3f3e6b8b	0.7438285
85	0x3f42387d	0.75867444
86	0x3fcaebaf	1.5853175
87	0x3f166dd1	0.58761317
88	0x3f9c00e4	1.2187772
89	0x3f8c618c	1.0967269
90	0x3f44e311	0.76908976
91	0x3f8d81c7	1.105523
92	0x3f32e94a	0.6988722
93	0x3f44130e	0.76591575
94	0x3f6a62f0	0.91557217
95	0x3ef2be09	0.4741061
96	0x3f008325	0.5020011
97	0x3f7d092c	0.9884212
98	0x3f188684	0.59580255
99	0x3f267915	0.65028507
100	0x3f946f02	1.1596377
101	0x3f0b4f49	0.54417855
102	0x3f763315	0.96171695
103	0x3fa7d04d	1.3110443
104	0x3f52df5d	0.82372075
105	0x3f912b7d	1.1341397
106	0x3fcc6cd0	1.5970707
107	0x3f53646a	0.82575095
108	0x3f085783	0.5325853
109	0x3fa041ce	1.2520082
110	0x3f3571be	0.7087668
111	0x3f7b5e91	0.9819117
112	0x3f908344	1.1290059
113	0x3f63e491	0.8902064
114	0x3f3b7204	0.7322085
115	0x3fa4e1a4	1.288136
116	0x3f86743b	1.0504221
117	0x3f791c4f	0.9730882
118	0x3f11cff9	0.56957966
119	0x3fab5895	1.3386408
120	0x3fd48a72	1.660475
121	0x3f15b3f0	0.5847769
122	0x3f808efe	1.0043638
123	0x3f0f899b	0.56069344
124	0x3f4b2b81	0.79363257
125	0x3f537161	0.8259488
126	0x3f5d96d9	0.865583
127	0x3f2ed1ea	0.68289053

bn4.bias f4 [128]
0	0xbe67f8cf	-0.22653507
1	0xbf8d7ccd	-1.1053711
2	0xbe6e30d6	-0.23260817
3	0xbf5d5b34	-0.8646729
4	0xbf56b004	-0.8386233
5	0xbe157de4	-0.14598805
6	0xbf1c698f	-0.6109857
7	0xbf92a749	-1.1457301
8	0xbe879a1a	-0.26484758
9	0xbfd6f897	-1.6794614
10	0x3e12410a	0.14282623
11	0xbf811048	-1.0083094
12	0xbf3182b4	-0.6934006
13	0xbe8f60ae	-0.28003448
14	0xbf95a148	-1.1689844
15	0xbf7863b5	-0.9702714
16	0xbfa5f33a	-1.2964852
17	0xbf82fa06	-1.0232551
18	0xbf985cb2	-1.1903288
19	0xbf89852c	-1.0743766
20	0xbce3899f	-0.027775584
21	0xbfa69db4	-1.3016877
22	0xc004dc6c	-2.0759535
23	0xbf9806c0	-1.187706
24	0xbf3ba4e6	-0.7329849
25	0xbf8d607c	-1.104507
26	0xbfa485cb	-1.285333
27	0x3cd61c4d	0.026136542
28	0xbf9fd123	-1.2485698
29	0xbf8faf6a	-1.1225407
30	0xbf89d65a	-1.076854
31	0xbe8ecbfc	-0.27890003
32	0xbfadaa21	-1.3567544
33	0xbf0df70a	-0.55455077
34	0xbf522499	-0.82087094
35	0xbf874b89	-1.0569927
36	0xbeb32799	-0.34991148
37	0xbec06987	-0.3758051
38	0xbfaddd47	-1.3583153
39	0xbfd20010	-1.6406269
40	0xbfa2ca5b	-1.2718004
41	0xbf79e47a	-0.9761425
42	0xbf8b7e0f	-1.0897845
43	0xbf58ee64	-0.84738755
44	0xbf897b2a	-1.0740712
45	0xbf7e2132	-0.992694
46	0xbf2b6a90	-0.66959476
47	0xbf94b4d1	-1.1617681
48	0xbf62797d	-0.88466626
49	0xbf93e3e7	-1.1553925
50	0xbee207b7	-0.4414651
51	0xbfa40c28	-1.281621
52	0xbfa7d387	-1.3111428
53	0xbf9b26d7	-1.2121228
54	0xbeaca5aa	-0.33720142
55	0xbfd83adc	-1.6892962
56	0xbf9681b0	-1.1758327
57	0xbf9ce7ac	-1.2258201
58	0xbf6dfcfb	-0.9296414
59	0xbe8b0a37	-0.2715623
60	0xbf80f61b	-1.0075105
61	0xbf90550f	-1.1275958
62	0xbeeba44a	-0.4602378
63	0xbf7a8b82	-0.9786912
64	0xbf4cc0b7	-0.7998156
65	0xbf1d0054	-0.61328626
66	0xbfa2bc76	-1.2713764
67	0xbf92db10	-1.1473103
68	0xbf8e85be	-1.1134565
69	0xbf9482c7	-1.160241
70	0xbf1441b6	-0.57912767
71	0xbfe945a0	-1.8224373
72	0xbf42b593	-0.7605831
73	0xbf661390	-0.898736
74	0xbf8f1008	-1.1176767
75	0xbf5d8cc1	-0.865429
76	0xbe80455e	-0.25052923
77	0xbf4808fb	-0.78138703
78	0xbfb8c3bd	-1.4434735
79	0xbeda5e1b	-0.42649922
80	0xbeb256fb	-0.34831986
81	0xbf024eda	-0.5090157
82	0xbf94dee4	-1.1630521
83	0xbe3af911	-0.18259074
84	0xbed27ab5	-0.41109243
85	0xbf09baac	-0.53800464
86	0xbeda3b96	-0.42623585
87	0xbf8bd467	-1.0924195
88	0xbf99ce0d	-1.2016007
89	0xbce8c059	-0.028412031
90	0xbfae678e	-1.3625352
91	0x3cb3fa67	0.021969987
92	0xbf78d7b3	-0.9720413
93	0xbf8f0a0c	-1.1174941
94	0xbf09c90e	-0.5382241
95	0xbf80181b	-1.0007356
96	0xbf985908	-1.190217
97	0xbf002ced	-0.5006855
98	0xbf899472	-1.0748427
99	0xbf9302ef	-1.148527
100	0xbf11093f	-0.56654733
101	0xbf8605e5	-1.0470549
102	0xbf0afaa2	-0.54288685
103	0xbf8baa40	-1.0911331
104	0xbf9e7b1b	-1.2381319
105	0xbe0798de	-0.13241908
106	0xbe94b09c	-0.29040992
107	0xbf0ab42b	-0.54181165
108	0xbfc8c99f	-1.568653
109	0xbfc907e7	-1.5705537
110	0xbf905532	-1.1276
111	0xbe966988	-0.2937739
112	0x3e0ceb57	0.1376165
113	0xbe998b43	-0.2998906
114	0xbe55cf99	-0.20879973
115	0xbf18c926	-0.5968193
116	0xbd519ca0	-0.05117476
117	0xbf15d63a	-0.5853001
118	0xbf560287	-0.83597606
119	0xbf814ac8	-1.0100946
120	0xbf7d989b	-0.9906098
121	0xbf891fd1	-1.0712835
122	0xbfa94f77	-1.3227376
123	0xbf922fe8	-1.142087
124	0xbf97c84d	-1.1858002
125	0xbfc51b3a	-1.5398934
126	0xbf271f4d	-0.65282136
127	0xbff1dc58	-1.8895369
