checkpoints/best_model_1709_6.pth (torch, 304673 bytes, 37 tensors)

conv1.weight f4 [16, 1, 3, 3]
000000 a5 5b a6 be 43 dc 16 bd a5 ee 83 be e0 e0 32 3e
       -0.32491794 -0.03683115 -0.2576801 0.17468596
000010 64 11 b4 3d d7 d5 80 3e ed ca 26 3c 2e c8 e7 3d
       0.087923795 0.25163147 0.010180217 0.11317478
000020 81 a4 a3 3e 31 99 a4 3d 34 f8 c6 bd 64 6a 3e 3e
       0.31961444 0.080370314 -0.0971531 0.18595272
000030 e2 ad 8b be cc 8b 77 be cc 36 c9 bd e1 5f 28 3c
       -0.272811 -0.24174422 -0.09824905 0.010276766
000040 ac a5 0b ba ce 01 a7 3c 6a 7b b6 3d 79 f2 cf bc
       -0.0005327116 0.020386603 0.08910258 -0.025384175
000050 f8 3a 8f bd 0e f9 64 be 66 a1 2e be 41 f1 e0 3c
       -0.06993669 -0.22360632 -0.17053756 0.027458789
000060 90 31 28 be 3b 00 f9 3d ec d9 f1 3d f1 b8 77 be
       -0.16425157 0.12158247 0.118091434 -0.24191643
000070 79 39 cc 3d c5 68 6e 3e 7d f9 b1 be 28 17 d1 be
       0.099718995 0.23282154 -0.34760657 -0.4083798
000080 58 e9 0e be 58 4e 8a 3d f6 c2 bd be 29 45 56 3d
       -0.13956201 0.06753224 -0.37062806 0.05231205
000090 43 f8 eb be 71 64 90 bd eb 3d 0b 3e fc fd 44 3d
       -0.46087846 -0.07050408 0.13597839 0.04809378
0000a0 eb 42 af be e9 b7 f4 3d 71 39 fb bd c4 18 6d 3e
       -0.34230742 0.119491406 -0.122668155 0.23153979
0000b0 27 ea 98 be 0c 36 32 be d6 c2 51 3e b4 56 a2 be
       -0.29866144 -0.1740343 0.2048448 -0.31706774
0000c0 73 48 9d 3d ec d1 a9 3e b1 46 e7 be 61 cb e0 3c
       0.07679834 0.3316797 -0.4517112 0.027440729
0000d0 e0 8f d3 3d 6d 07 8b be 2a 9b 36 3d 54 f6 8f 3d
       0.10330176 -0.27154103 0.04458157 0.07029405
0000e0 bd fa 7e 3e 73 b2 a3 3e a1 10 62 3e 4d 41 cc bd
       0.24900337 0.31972083 0.22076656 -0.09973393
0000f0 c0 2a 57 be 85 28 08 3e 21 1b 20 3e 51 25 03 be
       -0.21012402 0.13296707 0.15635349 -0.12807204
000100 5c 71 34 be 8a 8e 10 3e e9 03 61 be 09 9d ad be
       -0.17621368 0.14116874 -0.21974148 -0.3390887
000110 44 d1 a8 3d 32 b2 bc bd bc a4 11 be 13 8b 8c be
       0.08243039 -0.092136756 -0.14222997 -0.27449855
000120 69 73 0d be 97 fd 6b be 1f 81 11 be 28 1c 2b bd
       -0.13813557 -0.23045956 -0.14209412 -0.0417749
000130 f2 a7 ab be fd 1d cd 3c a8 a1 c2 bc c2 01 40 bc
       -0.3352657 0.025038714 -0.023758724 -0.011719169
000140 6e 29 1c bd dd bc 00 3e a0 db 5a 3d fe 25 ce 3b
       -0.038125448 0.12572046 0.053432107 0.00629115
000150 b9 9e 5a 3d 30 5f 44 3c d1 a7 7f 3e 19 9e c6 3d
       0.053374026 0.011985585 0.2496636 0.096981235
000160 4e c7 a1 3e 7e 1f 91 3e 99 e9 36 3d 60 d8 09 3e
       0.3159737 0.2834434 0.04465637 0.13461447
000170 d4 6b 63 3e 90 cb 76 3c 7a 98 96 be f8 a8 64 bd
       0.22209102 0.0150631815 -0.29413205 -0.055825204
000180 23 b0 73 be 09 bb d4 be a5 26 a2 bd 0e d0 6b 3c
       -0.2379766 -0.41548946 -0.07917527 0.014392866
000190 66 13 1b 3e 9e 4f 63 bd 8f e4 4e be 29 cf 1a 3e
       0.15144119 -0.05549585 -0.20204376 0.15118088
0001a0 c2 89 76 3e 81 62 ec bd ca 42 0c be b4 89 c0 be
       0.24075988 -0.11542226 -0.13697353 -0.3760506
0001b0 09 46 ba bc 73 44 a5 be 4f 01 44 be 73 07 71 3e
       -0.022738473 -0.32278785 -0.19141124 0.23537998
0001c0 f8 0c 0d 3c 98 5a 91 bc 0b b1 9e bd 42 3d a2 3d
       0.008609049 -0.017743394 -0.07748612 0.0792184
0001d0 81 eb 6e 3e 8a ff 4f 3e 0c 8f 8f 3d 06 85 44 bd
       0.23332025 0.20312324 0.07009706 -0.047978424
0001e0 19 bd 2c bc d8 47 91 3e 89 fb 55 3e d2 2d 8c 3d
       -0.010543131 0.28375125 0.20896734 0.06844677
0001f0 7c c7 13 3d 48 14 50 be 89 47 19 3e f6 24 1b 3e
       0.036078915 -0.20320237 0.14968695 0.15150818
000200 a4 31 16 3d 88 11 da 3d 6d bc 12 be 00 bf 9e be
       0.036668435 0.10647875 -0.14329691 -0.31005096
000210 fc 2a f1 bd 9b b7 8f be 50 46 8b be 48 70 b0 be
       -0.11775777 -0.28069767 -0.27202082 -0.34460664
000220 3a e3 b8 be e6 6c 8d be 7b 0b f1 be ec e1 c1 bb
       -0.3611086 -0.27622145 -0.4707907 -0.0059168246
000230 2b 9b 91 be 1f ae 3a be a7 d9 84 3e c1 00 87 3e
       -0.28438696 -0.18230484 0.25947306 0.26367763

conv1.bias f4 [16]
000000 99 ab 47 ba dc 75 b7 bd d1 60 3b 3d fc a9 85 be
       -0.00076168176 -0.08958027 0.04574663 -0.2610625
000010 2b 3e 60 3e c5 da 98 bd a8 5e 91 3e 8b 15 54 3e
       0.21898715 -0.07463602 0.2839253 0.20711343
000020 d0 97 a7 3e 74 12 7d be 0f 45 d5 bd ac 1e 8e be
       0.3273301 -0.2471407 -0.104135625 -0.27757776
000030 d9 3f 76 be 32 4e bb 3d c6 d0 9d bd 7a 69 05 3e
       -0.24047793 0.09145774 -0.07705836 0.13028517

conv2.weight f4 [16, 16, 3, 3]
000000 9d b3 8c bd a3 3e c3 3d 72 50 b4 3d d4 ef b5 3c
       -0.06870196 0.095334314 0.08804406 0.022209086
000010 76 ba 5e bd bc f3 8a 3d 26 c5 26 bd bc 52 8d 3c
       -0.05437704 0.0678477 -0.04071536 0.017251365
000020 a8 02 0f bc 65 4b bb 3d 4d 3f 56 3d 7e aa 0b 3e
       -0.008728661 0.0914524 0.052306462 0.13639256
000030 c1 34 c3 bc c5 65 96 bd 30 fd 87 ba 05 9e 9b 3c
       -0.023828866 -0.0734363 -0.0010375138 0.018996248
000040 73 e3 1d 3d 55 39 c2 bb 2b 49 71 bd da 89 3a 3b
       0.03854699 -0.0059272447 -0.05890767 0.0028463514
000050 17 ad 28 bd 0c e6 07 bd 83 0b da ba 16 d2 ae bd
       -0.041180696 -0.033178374 -0.0016635511 -0.085361645
000060 81 31 45 bd 87 51 7d 3d bb eb b7 3d 36 64 8e 3d
       -0.048142914 0.06184533 0.08980509 0.069527075
000070 7b 69 37 bd 7e 12 87 3d 4f b5 f5 bc 86 ed 36 3d
       -0.04477833 0.06595324 -0.029993681 0.044660114
000080 ab e9 b0 bd 45 09 2d 3d 2c 7f 1f 3d 20 fb be b9
       -0.08638319 0.04224517 0.03893964 -0.00036426727
000090 7e 69 7a 3d d0 be b2 3d 0a ff 3d bd cc 7e 1f bd
       0.06113576 0.08727801 -0.046385802 -0.038939282
0000a0 12 12 a3 bb ac 51 d6 bd 79 6a 19 3c 23 03 b8 3b
       -0.0049765194 -0.104647964 0.009363764 0.0056156083
0000b0 65 b7 09 bd ab e9 8b 3d e1 ea dc 3c e6 27 50 3d
       -0.033622164 0.06831678 0.026967468 0.0508193
0000c0 99 13 bd 3d f3 59 57 bd 46 68 a7 3d b3 31 54 3c
       0.092322536 -0.052576017 0.081741855 0.012951302
0000d0 40 45 da 3b 65 64 7c 3d 53 b2 31 3d f9 c9 8f bc
       0.0066610873 0.06161918 0.043382954 -0.017552363
0000e0 e7 56 ef 3c 07 17 a4 bd c0 3f 10 bd 52 14 49 bd
       0.029216243 -0.080122046 -0.035217047 -0.049091645
0000f0 5b 67 85 bc f4 87 85 3d ce 86 22 3d fd 2e b3 3d
       -0.016284635 0.065200716 0.03967934 0.08749197
000100 fc 10 9f bd 6d 56 21 3d c0 08 e1 3d 98 0c 99 3b
       -0.077669114 0.039389063 0.10987997 0.0046706907
000110 29 b1 b0 bd 63 2e 6e 3d f7 ec 66 bb b1 75 62 bd
       -0.086275406 0.058149707 -0.0035236457 -0.05528802
000120 35 49 d1 3d 8f 93 f6 3c b6 d0 05 3d 13 5b 8f bd
       0.10219041 0.030099658 0.032669745 -0.06999793
000130 bd a2 9b bc 6f 1e dd bd d6 ea 7f bd da ea 5e bd
       -0.018998498 -0.1079682 -0.062479816 -0.05442319
000140 53 bf 52 3d ca 26 89 3d 9f 54 50 bc 50 2e 29 3d
       0.051451992 0.066968516 -0.012715488 0.041303933
000150 33 4d 22 bc ed 15 de 3d fd 6b cd 3c 86 3c 83 3d
       -0.009906101 0.10844026 0.025075907 0.06408028
000160 1f a2 4d 3c 9f a6 d4 bc 97 d3 a7 bd 40 c1 e5 3b
       0.01255086 -0.025958357 -0.081946544 0.0070115626
000170 b6 b3 90 bd 72 6e 8f bd db 8a 91 bd dd d9 dc 3c
       -0.07065527 -0.07003488 -0.07106563 0.026959354
000180 6c ee b1 3a eb b3 fb bc 94 1f 01 3d 2f f4 5b bb
       0.0013575084 -0.03072544 0.031524256 -0.0033562293
000190 7a 5e 92 bd 55 cb 1c 3d 73 55 e1 3c 17 a6 53 bd
       -0.07146926 0.03827985 0.027506566 -0.051672067
0001a0 28 30 5e bd 10 2e 94 3c 5d 73 1f 3d 5a 2f 3f 3d
       -0.054245144 0.01808837 0.03892838 0.046676017
0001b0 34 a4 3f 3d 15 3a 69 3c 90 8d b7 3d 81 bf a2 bc
       0.046787456 0.014235039 0.08962548 -0.019866707
0001c0 9a b9 84 bc ff 9d a4 bc bd 5a 91 3d 3c cb cf bc
       -0.016201783 -0.02009487 0.07097385 -0.025365464
0001d0 a1 1b 0d 3d 29 92 bb 3c d6 7e 69 bd 76 2f ab 3d
       0.034450177 0.022896843 -0.057005726 0.08358662
0001e0 ac 9d 4c bd a9 d3 6a 3d b4 cd 14 3d 6d d2 64 3d
       -0.049955055 0.05733076 0.036328986 0.05586474
0001f0 10 d8 60 3c 51 1d 38 3d e1 51 57 bd d1 5c 2d bd
       0.013723388 0.044949833 -0.05256832 -0.042324845
000200 bf 3d 36 bd 91 95 63 bc 8d 7e 15 bb ff 19 c5 3c
       -0.04449248 -0.01389064 -0.0022811026 0.024060247
000210 1b 62 aa bb 29 a5 91 3d c3 ab dc bb 3d 6b 86 3d
       -0.0051996834 0.0711158 -0.006734343 0.06563423
000220 c7 ab 6d 3d 96 d4 9c 3c eb 3a 2f 3b d3 cc 6a bc
       0.058025148 0.019144338 0.0026737999 -0.01433106
000230 9a 5a ff bc 88 0f 56 bd 79 91 90 3d f6 7a be bd
       -0.031171132 -0.052260906 0.07058997 -0.09300797
000240 44 e0 35 bd e2 c2 3b bd 55 e0 db 3c 45 37 f4 bc
       -0.04440333 -0.04584015 0.026840368 -0.02981151
000250 08 1a af ba 56 31 5a bd 25 91 61 3d bb 1d 93 bd
       -0.0013359198 -0.053269707 0.05507006 -0.07183405
000260 96 b8 ea 3b 51 7c 2d bd 80 4d 77 bd 98 27 d1 3d
       0.0071631176 -0.042354885 -0.060376644 0.1021263
000270 ec bd 4f 3d 9b 4b 67 bd ed fa e4 bd 1e 7c 9a 3d
       0.050718233 -0.056468587 -0.11180673 0.07543205
000280 f5 45 b2 3d d0 79 93 bc fa 3a 88 3d 89 0d b6 3d
       0.087047495 -0.01800242 0.06651874 0.088893004
000290 88 30 44 bd 92 d3 67 3a b9 a3 9e bc 76 a5 f0 bd
       -0.047897846 0.0008843477 -0.019365178 -0.11750309
0002a0 93 3b 16 bb 17 f9 16 bd 29 eb d0 bc a3 f2 58 3c
       -0.0022923693 -0.036858644 -0.025502758 0.013241443
0002b0 ef 44 62 3d 06 db 9b 3c 27 88 e7 3b 4e ce 94 3d
       0.05524152 0.019025337 0.007065791 0.07265912
0002c0 10 d3 15 be 39 6c f9 3c f9 db 1d bd 08 cb f0 3b
       -0.14631295 0.030447112 -0.03853986 0.007348422
0002d0 9d d6 57 bb 8d 41 f2 3c 9e 27 b5 3d 1d 7d b9 3c
       -0.0032934316 0.029572273 0.08845447 0.022642666
0002e0 8f 88 95 3d 63 6b 32 bd e5 ac ca bb 8d 44 68 3d
       0.07301437 -0.043559443 -0.0061851614 0.056706
0002f0 09 2b 07 bd 39 50 b4 bc 34 67 e5 bc 6d 3a 06 3e
       -0.033000026 -0.02201091 -0.028003313 0.13108225
000300 1e 98 b2 bb 48 e2 1e be 82 55 ee 3d e8 a2 a5 3c
       -0.0054502627 -0.15516007 0.11637403 0.020219281
000310 f3 fb 07 bc 2d b9 d5 3c c4 0c 44 3d fb 63 88 bd
       -0.0082998155 0.026089275 0.047863737 -0.06659695
000320 ca e3 5b bd 4f 30 26 bd 93 27 46 3b 5c 24 c8 bc
       -0.053684033 -0.040573414 0.003023599 -0.0244314
000330 17 5f 02 3c 60 d2 a7 bb a4 09 8a 3d 27 b3 30 3c
       0.0079572415 -0.005121514 0.0674012 0.010784901
000340 09 56 41 bc 0d af 6c 3c 8f a4 0b 3d 74 ba 5b bc
       -0.011800298 0.014446032 0.034092482 -0.013411153
000350 08 5c ed bd 06 22 80 bd fc 19 a4 3d 3f 79 19 bc
       -0.11589819 -0.062564895 0.080127686 -0.009367286
000360 12 83 9c 3c 99 6b 0c bd b5 f8 d2 bc 25 a8 1c 3d
       0.019105468 -0.0342823 -0.025753358 0.038246293
000370 08 5f d9 3c b0 59 ec bd 8d cb c8 3b 29 e6 8d 3d
       0.026534572 -0.11540544 0.006127781 0.06928665
000380 77 8c ed 3c 93 29 7d bd a9 11 9d 3c 94 3c 34 bd
       0.028997643 -0.061807226 0.01917346 -0.044003084
000390 a3 7b 8d 3c 0e a1 23 bd ba 83 2a 3c a8 0e 2a 3c
       0.017270869 -0.039948516 0.010407383 0.010379471
0003a0 22 de 36 bd af 21 87 bd 9c 4e ea 3c f0 f7 bf 3d
       -0.044645436 -0.065982215 0.028601937 0.09373462
0003b0 cb 08 b4 bd b6 da 94 bc 3e 5b 42 3c 2d 13 c3 bd
       -0.087907396 -0.018170696 0.011862574 -0.09525142
0003c0 74 07 9e bc f7 85 97 bc 05 30 59 bd 4c 3d 32 3d
       -0.019290663 -0.018496497 -0.05302431 0.04351549
0003d0 73 bf 40 bd ad 95 1c be 82 45 df 3b 32 03 85 3d
       -0.04705758 -0.15291472 0.006813706 0.0649475
0003e0 03 df f7 bc 7b c8 49 bb 6b 33 68 3d a3 5f ab 3d
       -0.030257707 -0.0030789662 0.05668966 0.08367851
0003f0 c8 8f 0f bc db 59 58 3d df c2 5b bd cc 11 de bc
       -0.008762307 0.052820068 -0.05365264 -0.027108096

conv2.bias f4 [16]
000000 9a 61 a0 bd f2 98 f1 bc 6b 2a 85 bd 83 39 39 3d
       -0.07831116 -0.029491875 -0.06502231 0.045220863
000010 a4 29 3f 3d c8 0f 2a bd 01 73 46 bb 9a c9 0d bd
       0.04667057 -0.041518956 -0.003028095 -0.03461609
000020 e6 50 07 3d 88 e9 24 bc 34 cb 66 bd e0 44 2b bd
       0.033036135 -0.010065444 -0.056346133 -0.04181373
000030 95 f8 e9 3b d8 59 82 3c 14 06 fd 3c 23 91 02 bd
       0.007140229 0.015911981 0.030886687 -0.031876694

bn11.weight f4 [16]
000000 23 8c 77 3f 5e dc 85 3f 33 a9 7d 3f ea 5f 8c 3f
       0.96698207 1.0457876 0.990863 1.0966771
000010 9b 68 7f 3f c4 c0 80 3f 94 05 6e 3f c0 3d 87 3f
       0.9976899 1.0058827 0.9297726 1.056572
000020 93 4b 90 3f 3b f8 79 3f 41 42 7a 3f 5a 43 7b 3f
       1.1273063 0.97644395 0.97757345 0.98149645
000030 fd 48 64 3f 60 5c 79 3f af 13 81 3f 01 16 89 3f
       0.8917387 0.9740658 1.0084132 1.070984

bn11.bias f4 [16]
000000 d9 88 fe 3c 81 07 ef bd d5 3b a5 bd e6 84 aa bd
       0.031071113 -0.11671353 -0.08068053 -0.083261296
000010 bb a8 6d bd ae 65 e7 3c 28 f0 2d bb 8f b9 b5 bd
       -0.058022242 0.028246727 -0.002654085 -0.08873283
000020 91 68 41 3c 32 d7 e3 3d fe 1e 16 be 92 b3 9e bd
       0.011804716 0.111250296 -0.1466026 -0.07749094
000030 53 f1 1c bd dc 4a 08 3e 0a 79 06 3d ec ad b4 bd
       -0.038316082 0.13309807 0.032830276 -0.088222355

bn11.running_mean f4 [16]
000000 76 4b 81 3b 74 2b c3 bd 3a af 2a 3d da 42 8d be
       0.003945763 -0.095297724 0.041671015 -0.27590066
000010 0a e5 54 3e 4b 19 a7 bd 3e df 97 3e 87 1b 43 3e
       0.20790496 -0.08159121 0.29662508 0.1905347
000020 e9 b6 a0 3e c8 a1 6b be 59 b7 e8 bd 7a 70 90 be
       0.3138955 -0.23010933 -0.11363096 -0.28210813
000030 3a 79 77 be c8 26 cd 3d 2f d1 b1 bd 58 92 e1 3d
       -0.24167338 0.100171626 -0.08682477 0.11014241

bn11.running_var f4 [16]
000000 12 d9 06 3a 1a 6e c5 39 6b ad 74 39 91 38 bc 3a
       0.00051440403 0.000376568 0.00023334257 0.001436012
000010 b9 b4 6b 3a 9b 4c 84 3a 54 79 3a 3a b4 de 9f 3a
       0.00089914683 0.0010093631 0.0007113416 0.0012197108
000020 94 be 51 3a a6 9b 5d 3a 8d e8 69 3a bf 58 e0 39
       0.00080011156 0.00084536744 0.00089228974 0.0004279073
000030 9b 6f a4 39 3a f7 0b 3a 82 8f 49 3a 81 09 21 3b
       0.0003136367 0.0005339269 0.0007688926 0.0024572315

bn12.weight f4 [16]
000000 ee 76 77 3f bc 9c 89 3f 0b 48 82 3f b8 66 74 3f
       0.9666585 1.0750957 1.0178236 0.95469236
000010 50 5c 73 3f 84 f0 79 3f a5 86 75 3f 7a d8 7c 3f
       0.9506273 0.9763262 0.95908576 0.9876782
000020 8d 10 8a 3f a4 2e 84 3f d5 89 80 3f 1b bc 70 3f
       1.0786301 1.0326734 1.0042063 0.94037026
000030 b3 d3 7c 3f d8 89 75 3f 4f c1 81 3f 8b 68 7b 3f
       0.9876053 0.9591346 1.0137118 0.98206395

bn12.bias f4 [16]
000000 c4 2a 41 bb a2 36 81 3d 5b 25 21 3d 58 41 fe bc
       -0.0029474953 0.063092485 0.039342266 -0.031037018
000010 c8 7b d0 bc 5f d6 02 3c 5e 40 cb bc c5 76 0a b9
       -0.025449648 0.00798568 -0.024810966 -0.0001320495
000020 bc b4 6f 3d 1e 44 9a 3c 73 b7 11 3d e5 9c 17 3d
       0.05852197 0.018831309 0.03557534 0.03701486
000030 59 69 84 3d 41 14 aa 3a b4 f0 13 3d 3e 90 07 3e
       0.06465406 0.0012976007 0.036118224 0.13238618

bn12.running_mean f4 [16]
000000 e6 ec 36 3e fe 1d 6a be d6 53 09 3f 15 40 06 3f
       0.17863807 -0.22863004 0.5364355 0.5244153
000010 80 27 42 bc f6 21 5a 3c bd 63 cd be 67 38 41 be
       -0.011850238 0.013313761 -0.40115157 -0.18869172
000020 02 7f 09 bf a1 6b 81 3d 86 ff 18 3e a2 bb 11 3f
       -0.53709424 0.06319357 0.14941224 0.5692693
000030 69 cf 61 bd 2d 29 b7 be c7 85 69 3d 6d 1f e7 3d
       -0.055129442 -0.35773602 0.057012346 0.11285291

bn12.running_var f4 [16]
000000 b2 4d 0b 3e 13 3f f6 3d 59 10 3d 3e e8 cd 0e 3e
       0.13603857 0.12023749 0.18463267 0.13945735
000010 9c e3 a0 3d a6 e0 14 3e 10 a9 8f 3e 26 c1 02 3e
       0.07855913 0.14538822 0.28058672 0.12768993
000020 be b8 fa 3d af ff 35 3e 57 bc 39 3e 64 44 41 3e
       0.12242268 0.17773317 0.18138252 0.18873745
000030 15 44 9a 3e 1f e4 3b 3e 0a 7d 0b 3e 24 e8 72 3e
       0.30130067 0.1834874 0.13621917 0.23721367

conv3.weight f4 [32, 16, 3, 3]
000000 11 ba 95 bc 03 f4 1a 3b dd 19 fd bd 78 96 93 bd
       -0.0182772 0.0023643977 -0.12358449 -0.07206434
000010 bb c8 96 3d 5e 3d 68 bd 5d f9 81 3d 6b e2 b8 3d
       0.07362505 -0.05669915 0.063463904 0.09027561
000020 a8 86 2e 3c 4b df c7 bc 71 98 23 bc c7 ed 80 3d
       0.010652222 -0.024398467 -0.009985075 0.062953524
000030 5f 2b 4c bd c4 0c 23 3d 3a 50 20 bd 96 d7 ec 3a
       -0.04984605 0.039807096 -0.03913901 0.0018069621
000040 1c ed e8 3c c4 f2 cb 3c 55 3d d2 bd de 97 b3 3d
       0.028433375 0.024896033 -0.102656044 0.08769201
000050 56 56 39 3d cb 6b 80 3d 88 05 8a bd f1 fe 52 3d
       0.045248352 0.0627056 -0.06739336 0.051512662
000060 04 0c e8 bb 06 44 92 3c b7 ce ae bc 7a 65 09 bc
       -0.0070815105 0.017854702 -0.021338804 -0.00838601
000070 ca cf 12 bd cb e1 02 3d 7d 57 42 bc 04 de 8b bc
       -0.035842694 0.031953614 -0.011861679 -0.017073639
000080 b7 cd 07 3d 5c 16 0d 3d 8a 8a c3 3c a7 17 23 3d
       0.03315517 0.03444515 0.023869772 0.03981748
000090 24 ff 99 bd a8 4b 3a 3c dc 01 4e 3d 98 96 4e 3d
       -0.07519367 0.011370577 0.050294742 0.050436586
0000a0 4b 44 44 3c ed c7 19 3d bd 5b 1d 3d 36 87 b6 3c
       0.011979173 0.03754418 0.038417567 0.02228127
0000b0 95 ec f6 3c da cb 3b bd 6a eb 41 b9 97 6f 11 3d
       0.030142108 -0.045848705 -0.00018493613 0.03550681
0000c0 a7 08 12 bd 86 c8 3c bd 9b 1d 1f bd 5a 3e 0f 3d
       -0.035652783 -0.04608967 -0.038846593 0.034971572
0000d0 99 da 29 b9 f3 02 76 bd 25 92 fa 3c c9 dd d8 bd
       -0.0001619853 -0.060061406 0.030587265 -0.10589177
0000e0 e2 cf ab bc 58 73 68 bb f7 a2 83 bd fa 68 92 3b
       -0.02097315 -0.003546914 -0.064275675 0.0044680806
0000f0 50 4a 4a bd fe 80 ef bc 11 e6 b1 bd a8 d0 3a 3c
       -0.049387276 -0.029236313 -0.0868646 0.011402287
000100 15 67 08 bd 75 77 ae 3c 1f e2 00 bd 29 8c 09 3d
       -0.03330143 0.021297196 -0.031465646 0.033580933
000110 54 bf fd bc c5 0e 0e bd eb 47 79 3d 03 21 9f 3c
       -0.030975021 -0.034682054 0.060859602 0.01942492
000120 b3 de 1d be 7a 34 1c 3d b2 6e b2 bd d0 2d df bb
       -0.15416984 0.038135983 -0.0871252 -0.006810881
000130 90 5b 87 3c 34 ff 06 3d 3f 49 ab bd af 14 6d bd
       0.016523153 0.032958224 -0.0836358 -0.057881054
000140 3a 65 25 3c 58 8f a1 bd e9 07 74 bc 00 1e 76 bd
       0.010094935 -0.07888669 -0.014894464 -0.060087204
000150 0f b0 d6 ba 19 81 cd bd f3 61 89 3d ee bc d6 3d
       -0.0016379374 -0.10034389 0.067081355 0.10485254
000160 03 87 2c 3d 1b 5e 64 bd 70 c3 b7 3b 78 8c 8c 3d
       0.042120945 -0.05575381 0.0056080148 0.0686273
000170 02 ac 1c bb 06 3c ba 3d bc 4a d2 3c 41 1b 01 3e
       -0.0023906236 0.0909348 0.025670402 0.12608053
000180 ef bc 33 3d 7a 1a 93 3d a4 e7 07 bd 0e a1 5b 3c
       0.043881353 0.071827844 -0.033179894 0.013405098
000190 a2 54 a9 3d f4 93 18 bc 2d 1c 8b 3c 9e 23 58 3d
       0.082680956 -0.0093126185 0.016981209 0.052768342
0001a0 3d c9 c6 bc 88 0c 03 39 50 1e 5c 3d 1e 19 bc 3b
       -0.02426588 0.00012497802 0.053739846 0.005740299
0001b0 c4 c5 0d 3d 9e 31 cf 3c 14 9c 11 bc a2 10 12 3d
       0.034612432 0.025292214 -0.00888731 0.035660394
0001c0 9f 04 c2 3c be 3b 8c 3c d9 d3 87 3d 80 10 03 3d
       0.023683844 0.017118331 0.066322036 0.031998158
0001d0 75 7d 1c bd 5e 0b a9 3d 15 ed 40 bd 8c 94 f2 bc
       -0.038205583 0.08254121 -0.0471011 -0.029611848
0001e0 a5 59 e5 3c 6e c6 03 3d 54 af c9 bc 6f 67 48 bd
       0.027996847 0.03217166 -0.024619736 -0.048926767
0001f0 5d eb 6a bc ba 99 4e 3d a6 00 c1 bd e1 32 cd bc
       -0.014338342 0.050439574 -0.09423952 -0.025048675
000200 4c 55 8b bd 82 86 33 3c 5f 4b 15 bd 40 01 e4 3d
       -0.068033785 0.010957362 -0.036448833 0.11133051
000210 a3 99 8b bd 0f 02 05 3e 5b 5c 8d bb 2d ca 37 bd
       -0.06816413 0.12989067 -0.004313988 -0.044870544
000220 32 2a a8 bb 70 9e 4c 3d d6 14 5f bc 73 f5 9d bb
       -0.005131983 0.049955785 -0.0136158075 -0.0048205196
000230 46 57 63 3d a4 2f d0 3d 71 9e bc 3c ad 8e 7f 3d
       0.055503152 0.10165337 0.02302477 0.062391926
000240 2f d8 96 bb e6 33 ad bc 9a 35 02 bb 9e c4 f3 bd
       -0.004603408 -0.021142911 -0.0019868375 -0.11902736
000250 5d 04 8c 3d 3e 25 e1 bb 5a 20 a5 3c a9 06 66 3c
       0.0683677 -0.0068708947 0.020157028 0.014039674
000260 ec b9 73 bc ff 40 b2 3d 6b 55 d1 3c 58 40 07 bd
       -0.01487587 0.08703803 0.025553426 -0.033020347
000270 a2 cd 41 3d 46 be 07 bc b9 12 ee 3b 62 47 22 3d
       0.047315247 -0.008285111 0.0072654155 0.039618857
000280 43 9b 1a 3d 80 3d 98 3d 59 59 ec 3c 54 ad ab 3c
       0.037745725 0.07433605 0.028851198 0.020956673
000290 54 3c 4c bd f0 d1 d2 bd 80 73 3a bd 50 cd cc 3b
       -0.04986222 -0.10293949 -0.045520306 0.006250061
0002a0 5c 67 23 3c 32 9c 88 3c 7c 45 56 3d 7e 88 4d bd
       0.009973373 0.016676042 0.05231236 -0.050178997
0002b0 b5 89 5c 3d ae e3 66 3c a2 a6 cf 3d 4a 5e 88 bd
       0.053842265 0.014092369 0.101392046 -0.06658609
0002c0 f9 66 66 3d c6 27 2a bd c0 70 14 3c ae 26 61 3d
       0.056250546 -0.041541837 0.009060085 0.05496853
0002d0 42 44 22 bd e4 4d 90 3c 82 56 e3 bc bd 00 2a 3d
       -0.039615877 0.017615266 -0.027751211 0.04150461
0002e0 63 f1 8a bc c0 d4 20 3d 12 9d 94 3c 3e 95 d1 3d
       -0.016960805 0.039265394 0.018141303 0.10233544
0002f0 99 4c bc bd c4 9b 53 bc 76 ad 24 3d b0 87 86 bd
       -0.09194297 -0.012915555 0.040204488 -0.06568849
000300 b0 eb a3 3d 4b d6 2a bc 44 5c 20 bd da 01 3a bd
       0.08003938 -0.010427068 -0.03915049 -0.045411922
000310 b2 80 05 bd 61 70 b1 bc b1 6f 2b 3d c3 74 09 bc
       -0.032593437 -0.021660032 0.041854564 -0.008389655
000320 b0 d3 40 3b 5d 53 2c bc 08 48 68 3d 4d 96 83 3d
       0.002942305 -0.010517922 0.05670932 0.06425152
000330 d5 86 3e 3d 7b d4 0d bb 34 61 ee 3c 11 93 88 3d
       0.046515305 -0.002164154 0.029099084 0.06668676
000340 05 44 7d 3d 61 01 87 3d f1 59 9f bd 82 6a af bc
       0.061832447 0.0659206 -0.07780827 -0.021413092
000350 1f fa 46 3d 75 f7 b2 3d 96 1a 77 3d 71 44 fa 3c
       0.048578378 0.08738605 0.06032809 0.030550214
000360 18 63 e2 3d 80 24 88 3c cf 20 97 3c 25 d8 cc bc
       0.11054057 0.016618967 0.018448262 -0.02500541
000370 41 ec 21 3d fa 59 7f bd 47 c1 d1 3a 85 fd b1 3d
       0.03953195 -0.062341668 0.0016003036 0.08690933
000380 73 a5 2e 3d d0 d1 b6 3c 4d 5b 61 bd de 6b 33 bd
       0.042638253 0.022316843 -0.05501871 -0.043804042
000390 c1 df 76 3d 01 ba 88 bb 67 61 89 3d a6 7c 6f 3b
       0.060271982 -0.004172564 0.06708031 0.0036542802
0003a0 f7 9d cc 3d 97 34 ae bc b5 92 9f bd 7f 8a 89 bc
       0.09991067 -0.021265311 -0.07791654 -0.016789673
0003b0 92 fc 9d bb ba 9b 29 bc f2 15 76 3d f2 e3 a8 3d
       -0.0048213685 -0.0103520695 0.060079522 0.08246602
0003c0 1e 1c ab 3d f3 8b c3 3b c9 d7 6c 3d 1b a3 53 3d
       0.08354972 0.005967611 0.057822976 0.05166922
0003d0 64 46 c5 3a 28 36 37 3d 15 48 ec 3b e2 29 a6 3d
       0.0015050885 0.04472938 0.0072107413 0.08113457
0003e0 b2 81 2f bc 9c 99 73 3d d8 d7 c9 bd 33 59 78 3d
       -0.010712074 0.059472665 -0.09855622 0.060631942
0003f0 b5 1d 40 bd dc 7e 7e bd 8c 45 c9 3c 20 c4 17 3d
       -0.04690333 -0.0621327 0.024569295 0.037052274

conv3.bias f4 [32]
000000 a6 9c 3a 3d c6 aa e5 bc e7 2c 39 bd 9d 55 9b 3d
       0.045559548 -0.028035533 -0.045208838 0.07584689
000010 27 f9 67 3d c7 64 8c 3d 83 70 af 3c 47 de 63 3d
       0.056634095 0.06855159 0.021415954 0.055631902
000020 2c 1c 98 bd 99 17 56 3d 7c ec 25 3d 0a 80 3f bc
       -0.07427248 0.0522686 0.040508732 -0.011688242
000030 64 9f 23 3d 2b 77 5e bd b5 77 0b bc 1e e4 33 bd
       0.03994693 -0.054312866 -0.008512427 -0.04391872
000040 a7 89 83 bb 3e 87 08 bd a6 b4 98 bd 39 57 15 3d
       -0.004014212 -0.033332102 -0.07456331 0.036460135
000050 7e 67 01 3a 3e 77 a9 bc be 01 2b bd a7 48 f7 bc
       0.0004936381 -0.020686742 -0.04174971 -0.03018601
000060 fe de 9e bd 3d e2 21 bd cd 9b 1d 3b 7c 71 0b bd
       -0.07757376 -0.0395224 0.0024049163 -0.034043774
000070 5b ab 95 3a 6b aa 4a bc 22 97 54 bd 50 dc 60 3d
       0.0011418866 -0.012369732 -0.051901944 0.054897606

conv4.weight f4 [32, 32, 3, 3]
000000 43 df d7 bb f2 e4 29 bc 63 91 10 3d 9c 94 1b bc
       -0.006587894 -0.010369526 0.0352949 -0.00949588
000010 1b 6e 67 bc e3 a2 c6 3c 58 61 94 bb 62 00 ae bc
       -0.014125372 0.024247592 -0.004528206 -0.021240417
000020 05 9f 05 3d 9a d1 15 bd f4 6d 4d 3d 05 8f da 3b
       0.032622356 -0.036576845 0.050153688 0.0066698813
000030 05 e0 85 3b 08 97 1f 3c 73 10 66 3c 61 5c 46 3d
       0.004085543 0.0097405985 0.014042008 0.048427943
000040 40 92 eb 3c eb 56 ae bd 13 d5 56 3d 3f 6a 6e 3c
       0.02875626 -0.08512672 0.052449297 0.014551698
000050 e7 1b 37 3c 31 38 23 bd db 5f 9a bb 85 8b 22 3c
       0.011176086 -0.03984851 -0.004711134 0.009920959
000060 e6 fc 3f bc 42 6b 65 3d 37 db 29 bc 81 08 8d 3b
       -0.0117180105 0.056010492 -0.010367206 0.0043039923
000070 21 07 ba 3c dc 5a 87 3c fd 0f 34 bd 03 41 07 bd
       0.022708477 0.016522817 -0.04396056 -0.033020984
000080 1c 78 af 3c 79 c4 74 3c 1c 54 53 bc a4 3a 77 bd
       0.021419577 0.014939421 -0.012898471 -0.06035866
000090 4d 83 32 bc b3 15 6d 3d be 37 50 3d 46 ea e9 bc
       -0.010895562 0.057882022 0.05083441 -0.028554093
0000a0 eb 7a 90 3d 01 ce 12 bd c4 ce 71 3d 22 0a ee 3c
       0.07054695 -0.035840992 0.059035078 0.029057566
0000b0 01 19 3f 3c f6 af 19 3d 8c 11 91 3c 06 b7 4c 3c
       0.011663676 0.037521325 0.017708562 0.012494808
0000c0 58 41 63 bb 8d 48 46 bc 60 36 2f bd a7 ef f0 bc
       -0.00346764 -0.012102258 -0.042776465 -0.02941115
0000d0 c5 42 50 3b 30 87 a2 3b 03 9c 8d 3c e3 ab 34 3d
       0.003177808 0.0049599633 0.017286306 0.044109236
0000e0 39 14 b0 3c 55 0b ef 3c 0b a2 fb 3c d3 24 2b 3d
       0.021494018 0.029180208 0.030716917 0.041783165
0000f0 93 c7 9f bb 16 e3 23 3d 51 c7 c1 3c 67 f3 c1 bc
       -0.004876086 0.040011488 0.023654612 -0.023675634
000100 ee d6 a8 bc 01 d7 0f 3d 5d f8 18 3d 0f e7 8b 3d
       -0.020610299 0.035117153 0.037346233 0.0683118
000110 f4 ee ae 3c 78 37 2c 3b 37 2a 91 3c f3 65 e1 3c
       0.021354176 0.002627818 0.017720325 0.027514433
000120 e3 0e d4 bc 6b 0d de bc 89 6a f7 bb 74 89 91 3c
       -0.025886005 -0.027106008 -0.007550542 0.017765738
000130 94 b1 85 ba 6c a1 9e bd 07 19 ae bc bf a5 19 bd
       -0.0010200017 -0.077456325 -0.021252168 -0.037511583
000140 60 ec 29 bd 22 88 85 3c f4 67 8e 3d 7f e8 63 3d
       -0.04148519 0.016300265 0.06953421 0.055641647
000150 9f e6 15 bc a1 41 3f bc d4 76 bd bc 82 79 3e 3d
       -0.009149223 -0.011673362 -0.02312795 0.046502598
000160 0a ef 79 3d 43 27 18 ba 11 e2 81 3c c4 37 90 3c
       0.06101898 -0.00058041903 0.015854867 0.017604716
000170 a1 4c 60 bc 2f 19 d9 3c 48 42 46 bb b3 06 4a bd
       -0.013690145 0.026501266 -0.003025191 -0.049322795
000180 90 a7 15 3d 60 e6 1c bc 9e b0 5d bd 38 f3 8f 3c
       0.036536753 -0.00957641 -0.054123513 0.01757203
000190 45 f1 82 3c a9 77 fc 3b c0 69 d1 bd 95 47 6e bd
       0.015984187 0.0077046943 -0.10225248 -0.058173735
0001a0 f5 96 84 3d 9b e1 45 3d 63 3f 89 3d c1 06 70 3d
       0.06474105 0.048310857 0.06701543 0.05860019
0001b0 7d b3 ca 3c cc 18 bb 3c 5d 6c 20 bd aa 3d b2 3b
       0.02474379 0.022838973 -0.039165843 0.00543948
0001c0 21 ff 2a 3d 25 0c ba bc d4 0f 11 3d 6b 18 c3 3c
       0.041747216 -0.02271087 0.035415486 0.023815354
0001d0 da f0 11 3d 26 0e 02 3c 61 59 6c bb 2d a2 12 bd
       0.035630085 0.007937944 -0.0036064016 -0.035799194
0001e0 07 03 e0 3c e9 97 fa bc d9 49 b4 3b 42 dd 32 3b
       0.027345194 -0.030590015 0.0055019674 0.0027292524
0001f0 43 12 a3 3c 76 9c a3 bd 58 ef 8d bc fd bf bf 3c
       0.019906169 -0.07988827 -0.017326042 0.023406977
000200 79 73 af 3c da 3f 22 3d 43 a0 4c 3c d7 14 79 3b
       0.021417366 0.039611675 0.012489381 0.0038006806
000210 a1 16 b4 3c 79 a8 6b 3c 03 0e 3a bd 7d 06 8e bd
       0.021983447 0.014383429 -0.04542352 -0.06934831
000220 12 49 38 bc 3d 9b 33 bc 09 9c 2e bc 6e be 71 bc
       -0.01124789 -0.010962305 -0.010657319 -0.014754875
000230 62 33 1e 3b ba d0 6a bb 55 b5 8d 3c b5 72 93 bb
       0.0024139513 -0.0035829977 0.01729838 -0.004499758
000240 66 8c 8d 3d 56 bb 3a 3c 8b 5e 27 3d bb 36 98 3c
       0.069115445 0.011397203 0.040861648 0.018580785
000250 80 e6 eb 3b 13 b9 ad 3d 5c c7 80 3d c8 57 a7 3d
       0.0071991086 0.08482566 0.06288025 0.0817104
000260 5f 48 87 3d d1 74 26 3a 2f b8 f4 3c e4 53 1e 3d
       0.066056006 0.00063498045 0.029872982 0.038654223
000270 10 ca 3e bd 2a f7 1d bd 9c df 91 3c 70 57 65 3b
       -0.04657942 -0.038565792 0.01780682 0.0034994744
000280 ea e9 87 3d 46 2d 87 3d 1e 3c 94 bd a1 b2 10 bd
       0.066364124 0.06600432 -0.07238029 -0.035326604
000290 7d bc da 3c d6 e0 d1 bd d0 f2 78 3b 8f 6e 57 bd
       0.026701206 -0.10247962 0.0037986524 -0.05259567
0002a0 ec 5f 96 3c 1c 3e 80 3c c2 c3 86 bd c8 b2 37 3b
       0.018356286 0.015654616 -0.065803066 0.0028030146
0002b0 c9 ee b0 3b 7f 62 dc bc 74 04 68 bd 44 9a 04 3c
       0.005399559 -0.026902435 -0.05664487 0.00809342
0002c0 7d b6 c5 bc 2c 72 f3 bc 15 0b 7b 3d 1c 89 ab bd
       -0.024134869 -0.029717527 0.061289866 -0.08375761
0002d0 a3 6c b3 3c 51 b9 42 ba 69 21 4f 3c d3 d3 56 bd
       0.021902388 -0.0007428127 0.012642243 -0.052448105
0002e0 02 1a d0 bc c7 6d c5 bb 5b 29 9c bb a4 b8 0b 3b
       -0.025403026 -0.0060250494 -0.004765672 0.0021319771
0002f0 07 5c 8d bd 56 94 f4 bc 89 78 ae bb 78 a7 67 3c
       -0.069023184 -0.029855888 -0.0053244275 0.014139049
000300 be a8 6a 3c 24 e4 c8 bb 14 5f 0f 3d ed 82 92 3c
       0.014322458 -0.006130712 0.035002783 0.017884696
000310 e3 b1 84 bc 3c 0d 4c bd 46 d1 b6 3c 98 d5 4a 3d
       -0.016198104 -0.04981731 0.022316586 0.049520105
000320 22 e4 4a 3c 59 54 c7 3c 36 b0 55 3c 3a 89 20 3d
       0.012383493 0.024332212 0.0130425 0.03919337
000330 75 a4 12 3d 62 22 43 3c df e3 6a bc d5 43 a5 bb
       0.03580137 0.011910053 -0.014336555 -0.0050434866
000340 74 9a 0c bd 1b 25 96 bd 78 b3 66 bd f2 bd 13 3d
       -0.034326985 -0.07331296 -0.0563235 0.036069818
000350 01 d0 1b bd 60 d1 cb bb 26 62 9f bc 85 35 7f bc
       -0.038040165 -0.006220028 -0.01945598 -0.015576725
000360 45 25 9a 3c 8e 74 9e 3c b7 ee a3 bc c5 da d2 3c
       0.0188166 0.019342687 -0.020011289 0.025739083
000370 39 df 69 3c 0c b3 83 3b 30 02 8a 3d bd 8e 6c 3d
       0.014274412 0.004019147 0.067386985 0.057753313
000380 0a ae b7 bc c0 8f e0 3c ba 25 08 bd 7f d4 59 3d
       -0.022421855 0.027412295 -0.033239104 0.053181168
000390 93 fd fe 3c e9 4f 7b bc f0 7f 58 bd 09 c9 01 3d
       0.031126773 -0.015338876 -0.052856386 0.031685863
0003a0 ad 04 0a bd 66 c6 52 bd 1a f0 2f 3c 8a be bf 3c
       -0.033695865 -0.05145874 0.010738397 0.023406286
0003b0 e2 86 37 3d 73 1a 93 3c c6 3a f9 3c f2 35 57 bc
       0.04480637 0.017956948 0.030423533 -0.01313542
0003c0 f2 e1 fc 3b 6c 7b 6d 3d 3c 5b e6 3c a2 bc 0a bd
       0.0077173645 0.057979032 0.028119676 -0.0338713
0003d0 78 db 21 3d a3 2e 97 bd 0c 44 21 bd 65 bb 55 bd
       0.039515942 -0.07381942 -0.039371535 -0.052180666
0003e0 60 65 9e bd 81 86 10 3d 70 a4 07 bd 10 23 37 bd
       -0.077341795 0.035284523 -0.033115804 -0.044711173
0003f0 75 a6 87 bd ef 73 7e 3c c3 bf 73 bd b1 5d cf bc
       -0.06623546 0.01553057 -0.05950905 -0.02531323

conv4.bias f4 [32]
000000 cf eb 80 bc a3 87 df 3b 3d cd 41 3d 48 10 6c 3d
       -0.015737442 0.006821589 0.04731487 0.057632715
000010 9f 78 ab 39 0b b2 54 bc 16 01 3a 3b f5 33 e5 3c
       0.0003270553 -0.012981902 0.0028381995 0.027978877
000020 15 ac 8d 3b 29 a5 23 3d 24 8a 1d 3c bc 1e 2b 3d
       0.0043234923 0.03995243 0.009615455 0.041777357
000030 8e 50 02 bd 5e e9 1b bd 95 49 09 bd 28 96 c7 3b
       -0.031815104 -0.038064353 -0.03351744 0.006090898
000040 ba a3 50 3d 27 8c 17 bd 96 50 88 3c dd e0 e4 3b
       0.05093739 -0.036998894 0.016639989 0.0069848136
000050 3d 09 59 3d 87 5a 75 3b cf 0a 6e bd 03 b4 ee bc
       0.052987326 0.0037437992 -0.058115777 -0.02913857
000060 50 59 84 bc bf d9 3a bc bb 0d 10 bd 04 da 6a bd
       -0.016155869 -0.011404454 -0.035169344 -0.057336822
000070 cd d0 e3 3c ee f5 f0 3a fb 4f fd bb 09 d8 44 3d
       0.027809525 0.001838384 -0.0077304817 0.04805759

bn21.weight f4 [32]
000000 d7 5d 75 3f ef 14 7d 3f 0a d7 82 3f ae 88 7a 3f
       0.95846313 0.9886007 1.0221875 0.97864807
000010 06 29 78 3f bd 06 79 3f a5 cf 71 3f be a8 7c 3f
       0.96937597 0.97275907 0.94457465 0.9869498
000020 a2 0e 73 3f d7 76 83 3f 7b 1a 7f 3f 08 39 83 3f
       0.949442 1.0270642 0.9964978 1.025178
000030 c0 be 82 3f 4b 45 81 3f 42 e0 78 3f fa 1a 7c 3f
       1.0214462 1.0099272 0.9721719 0.9847866
000040 fe 60 7f 3f 4d 9d 83 3f 16 27 88 3f 0e 86 7d 3f
       0.99757373 1.0282379 1.0636928 0.99032676
000050 fe e6 7d 3f 5b 91 78 3f bb 96 82 3f 38 d0 7c 3f
       0.9918059 0.97096795 1.0202249 0.98755217
000060 2e 87 76 3f 01 18 80 3f 96 be 85 3f e6 51 77 3f
       0.9630002 1.0007325 1.0448787 0.9660934
000070 0f 56 82 3f b9 0b 7c 3f 23 3d 80 3f 0c 79 7f 3f
       1.0182513 0.9845539 1.0018657 0.9979408

bn21.bias f4 [32]
000000 58 66 45 bd d5 13 9d bd 7d d4 b5 ba 3e 9b 2c bc
       -0.048193306 -0.07669798 -0.001387253 -0.0105350595
000010 e2 a9 fb bc 68 8f 72 bd 0d d5 73 bc 88 2d 03 bc
       -0.030720655 -0.059218794 -0.014882338 -0.008006461
000020 80 8b 57 bc db 31 7b 3a 5d fc 2e bd 04 5e 17 bc
       -0.013155818 0.0009582319 -0.04272114 -0.009238724
000030 fe 8b 9e b9 57 06 d4 bc a4 d1 b5 bd 9e cf 93 3c
       -0.0003024041 -0.02588193 -0.088778764 0.018043336
000040 0e 06 1f bd 20 aa 8d bb 92 50 19 3c e5 09 df bb
       -0.038824134 -0.004323259 0.009357588 -0.0068065994
000050 88 d1 84 bc a2 30 98 bd 32 42 c1 3c 64 d3 04 3c
       -0.016213194 -0.07431151 0.023591135 0.00810704
000060 18 d1 75 bd fc ec a6 bc a0 56 d8 3c a7 5a a1 3c
       -0.06001386 -0.020376675 0.026408494 0.019696547
000070 70 c8 05 3a 18 a9 5a bd c8 cc b0 bd e1 ec 20 bc
       0.0005103415 -0.053383917 -0.08632809 -0.009822101

bn21.running_mean f4 [32]
000000 02 45 75 3f 81 1a d1 3f 17 f9 9a 3e 72 6f 7c 3f
       0.9580842 1.6336213 0.30268165 0.9860755
000010 92 90 c8 3f b6 72 9b 3f 5d 3c a9 3f b0 6d 1f 3f
       1.5669119 1.2144382 1.3221546 0.62276745
000020 00 03 e1 3f 02 cf 4c bf ab eb 3f 3f 97 e7 48 bf
       1.757904 -0.8000337 0.74968976 -0.7847838
000030 87 b2 a7 bf 48 97 c8 3e 52 df 9d 3f 5c 43 aa 3f
       -1.3101357 0.39177918 1.2333777 1.3301806
000040 d9 aa 9d be 00 c0 23 bf 09 10 76 bf db 40 2b 3f
       -0.3079441 -0.63964844 -0.9611822 0.66895837
000050 d5 ff 98 3f 91 d4 05 3f f5 bd 22 3f dc 60 26 3f
       1.1953074 0.52277476 0.635711 0.64991546
000060 ab 29 15 bf c7 02 77 3f 56 88 b6 bf c8 ee b7 3e
       -0.58266705 0.9648861 -1.4260356 0.35924363
000070 e0 e4 cb be 16 3f 44 3f e4 0f 7f 3f 73 47 9a bf
       -0.39823055 0.7665876 0.9963362 -1.2053055

bn21.running_var f4 [32]
000000 2e 12 cf 3e 87 9c 18 3f 59 4e fb 3d 2a 2b ec 3e
       0.40443558 0.5961384 0.12270803 0.46126682
000010 fb 21 00 3f 89 87 16 3f 67 e5 01 3f 86 fe 52 3e
       0.5005185 0.5880056 0.50740665 0.20604905
000020 8c 38 48 3f e6 3b 88 3e 1d 14 15 3e c9 ef cb 3e
       0.78211284 0.266082 0.14558454 0.3983138
000030 bf 66 43 3f 59 4a 43 3e 4a 8c 10 3f d1 64 72 3e
       0.76328653 0.1907133 0.56464064 0.23671271
000040 ed b0 16 3e ee 13 50 3e e6 29 bf 3e 00 ad 3f 3e
       0.1471593 0.20320103 0.37336653 0.18718338
000050 6b 80 03 3f cc 9d 8a 3e 03 70 d8 3e ca a3 6d 3e
       0.51367825 0.27073514 0.42272958 0.23207012
000060 a6 08 59 3e f6 17 a8 3e 76 b7 21 3f 0c 8d 43 3e
       0.21194705 0.3283078 0.63170564 0.19096774
000070 e8 e0 07 3e 5c fb 04 3e 16 cc 73 3e f9 25 d0 3e
       0.13269389 0.12986511 0.23808321 0.4065397

bn22.weight f4 [32]
000000 7b 24 76 3f ae 05 81 3f 1e 5f 7f 3f c8 ce 79 3f
       0.96149415 1.0079858 0.9975451 0.9758115
000010 5e dc 83 3f cf 0d 82 3f c6 02 7e 3f bf eb 80 3f
       1.0301626 1.0160464 0.9922298 1.0071944
000020 80 a6 7e 3f 7a e1 7e 3f dd 0c 82 3f 2d 1f 7e 3f
       0.9947281 0.995628 1.0160176 0.9926632
000030 df 1b 82 3f 43 84 7e 3f a9 ff 76 3f c6 e4 78 3f
       1.0164756 0.99420565 0.96483856 0.9722408
000040 b0 23 82 3f 70 3d 81 3f ec 1f 84 3f 4f 32 7e 3f
       1.0167141 1.0096874 1.0322242 0.99295515
000050 fc 66 78 3f 05 da 7d 3f 58 0d 7e 3f 64 c2 7b 3f
       0.9703214 0.99160796 0.9923911 0.9834349
000060 b3 93 7f 3f cb 04 81 3f 3a 08 7f 3f 0f fd 7c 3f
       0.99834746 1.0079588 0.9962193 0.98823637
000070 ed 46 80 3f 37 29 81 3f 18 11 7b 3f 58 83 7b 3f
       1.0021645 1.0090703 0.9807296 0.9824729

bn22.bias f4 [32]
000000 c7 7f 4b bd 02 3b 4c be 2e dc d6 3c 58 27 36 bd
       -0.049682405 -0.19944385 0.026228037 -0.044471115
000010 9f ad 3f bd 19 76 7e ba d9 b2 83 3c 3e 45 8e be
       -0.046796437 -0.0009706929 0.016076492 -0.27787203
000020 a9 e8 20 bc 12 80 dd 3c 5b d9 bf 3d 49 52 62 bc
       -0.0098210955 0.027038608 0.09367629 -0.013813564
000030 4b a1 2f bc 62 04 3d be 2c 97 7b bc 60 b4 a3 3c
       -0.010719608 -0.18458703 -0.015355866 0.01998347
000040 81 5a e6 bc f7 e2 95 bc c6 ab 2c 3d ee 8a cd bc
       -0.028119328 -0.018296702 0.042156003 -0.02509066
000050 2b 54 11 bd 2b f2 ed 3a 81 cd 1e bd 43 54 eb bd
       -0.03548066 0.0018153837 -0.038770203 -0.11490681
000060 5a 64 77 3c 00 09 05 bc 27 99 8f bd 87 3b ff bc
       0.015099609 -0.008119822 -0.07011633 -0.031156315
000070 67 90 58 be 83 5c 94 bc cb 40 e9 3a 99 ea ba bd
       -0.21148835 -0.01811052 0.0017795799 -0.09126777

bn22.running_mean f4 [32]
000000 32 5b bd 3e fe b8 a2 3c 3a 6d 9b bf 5b 7a 5c bd
       0.3698364 0.019863602 -1.2142708 -0.053827625
000010 2a 43 59 3e a9 69 32 bf 9b 20 b7 be bc ae 20 be
       0.21217027 -0.69692475 -0.35767063 -0.15691656
000020 53 ec 29 bf 5d e9 f1 bd a8 8f a7 bf 49 44 a3 be
       -0.6637623 -0.11812089 -1.3090715 -0.31888035
000030 f2 54 9b 3d e4 33 7b 3f 71 a1 0e bf e2 8f e5 bf
       0.075845614 0.98126054 -0.5571509 -1.7934535
000040 14 b6 6b 3f e2 94 72 be ab 23 d7 bf fe 13 c2 3f
       0.92074704 -0.23689607 -1.680776 1.5162351
000050 23 f3 c9 3e 98 e3 09 be dc 73 8d be 40 84 a6 3f
       0.3944331 -0.13465726 -0.27627456 1.300911
000060 a1 4f 43 bf a8 99 d1 be b4 a0 b5 be 0d 27 00 3e
       -0.7629338 -0.40937543 -0.3547417 0.12514897
000070 4f 9c 80 bd 56 13 20 bf 47 53 05 3d 36 f3 8f 3f
       -0.062798135 -0.62529504 0.032550123 1.1246097

bn22.running_var f4 [32]
000000 f9 0f 9b 3e 1b 9d b3 3e 75 62 47 3f 84 18 11 3f
       0.30285624 0.350808 0.7788461 0.5667803
000010 03 8c 0f 3f a2 f3 7b 3f b8 f3 8b 3f 2b f6 52 3e
       0.56073016 0.9841863 1.0933752 0.20601718
000020 b2 b2 c3 3e 73 58 82 3f 88 29 a3 3f a2 0f 89 3f
       0.3822227 1.0183243 1.2747049 1.0707896
000030 f1 14 86 3f 3f c0 e2 3e 98 55 47 3f 02 a7 a1 3f
       1.0475141 0.44287297 0.7786498 1.2629092
000040 c4 d4 12 3f 9f 00 9e 3f 03 39 07 3f ef 83 00 3f
       0.57355905 1.234394 0.5282137 0.50201315
000050 bc aa 1e 3f 89 fb c8 3f 4e d6 8a 3e 55 b8 13 3f
       0.6197927 1.5701762 0.27116627 0.57703143
000060 79 71 95 3f 65 8f e5 3e a8 fc 98 3e 97 07 66 3f
       1.1675254 0.44835964 0.2988026 0.8985533
000070 11 70 83 3e b3 3b c6 3f 8b f4 0e 3f 77 b9 d9 3e
       0.25671437 1.5486969 0.5584189 0.4252431

conv5.weight f4 [64, 32, 3, 3]
000000 de ff bb 3c 6d d3 dd bc 9d f4 50 bd 6b dd e5 bb
       0.022949155 -0.027078355 -0.05101453 -0.0070149205
000010 c7 08 20 bd 8b fe 21 3b 79 ee 2c bc fa 23 0c 3c
       -0.03907087 0.002471837 -0.010554903 0.008553499
000020 5b b6 ab bb 3b dd f7 3d 05 1b d8 3c af f7 23 3d
       -0.0052402443 0.12102743 0.026380071 0.04003113
000030 b5 93 e9 3c 6c 02 08 bd d5 89 90 3c 30 3d 86 bc
       0.028512815 -0.033205435 0.017643848 -0.016386598
000040 f1 1e 65 bc 2b 7f 1c 3d 20 56 95 3d c7 1c 68 3d
       -0.013984428 0.038207214 0.07291818 0.05666807
000050 c0 dd ab bc 31 16 4a 3c 37 84 94 3d 03 72 16 3d
       -0.020979762 0.012334392 0.072517805 0.036729824
000060 1e c2 de 3b 7f a7 c4 3c df dd 4e 3d 56 6f 60 3c
       0.006798043 0.02400565 0.05050456 0.01369842
000070 6d 1e 01 3c 52 9e 62 bc 97 3f 13 bc fe 25 68 bc
       0.007880789 -0.013831692 -0.008987329 -0.014169214
000080 d1 5d 6f 3d 20 28 f9 bc 07 63 31 bd c5 b6 5a 3d
       0.05843908 -0.03041464 -0.04330733 0.05339696
000090 97 a9 9d 3d 6e e6 93 3d 39 6c 35 bd 9e ea 4c bd
       0.07698362 0.07221685 -0.044292662 -0.050028436
0000a0 8a 72 a7 bc ed 85 7a 3a 08 6a e8 3b 3a fd 16 bd
       -0.020440359 0.00095566997 0.007092718 -0.03686259
0000b0 73 6f be 3c ed 08 04 bd 04 74 56 bd 54 5f 3e bd
       0.023246503 -0.032235075 -0.052356735 -0.04647763
0000c0 cb 54 46 bc 4a bb 13 3d 55 b6 61 bd 02 0b 1d 3d
       -0.012105177 0.036067285 -0.055105526 0.038340576
0000d0 11 fc 27 3d 1e 36 0e bd fc 85 bc 3c 7f 08 bd bc
       0.041011874 -0.03471958 0.023013107 -0.02307534
0000e0 85 7b ad bc 12 81 c8 bb f6 60 14 3d e0 bf b5 3c
       -0.021177063 -0.006118902 0.03622528 0.02218622
0000f0 f9 a1 c6 3c 54 63 fa bb e1 40 88 3c 95 66 b9 3d
       0.024247156 -0.0076412354 0.0166325 0.09052769
000100 64 cc de 3c 5a b5 70 3c ad 00 9b bb a2 ef c0 3c
       0.02719707 0.014691675 -0.004730305 0.023551766
000110 11 ab 15 bc de 27 4e 3d 3a 5e 22 3d 6e 28 20 3d
       -0.009135024 0.05033099 0.039640643 0.039101057
000120 b7 c8 0d 3d 36 22 9f 3c 96 ea 4c 3d 1b c9 03 3d
       0.034615245 0.019425493 0.050028406 0.03217421
000130 b8 3c 14 3c 12 0f 53 3b f0 a4 af 3d 8a 38 ca bb
       0.00904768 0.0032205028 0.08576381 -0.0061712908
000140 fd cb 86 3d 79 8b 83 3d ab 50 6e bd 74 ee 18 bd
       0.065818764 0.06423087 -0.0581824 -0.03733678
000150 0b 7e eb 3c bf 1d 64 bd 34 54 a1 bc 10 47 85 bc
       0.028746625 -0.05569243 -0.019693471 -0.016269237
000160 fc a4 a5 bb ab 17 01 3d 7f b0 6e 3c 67 95 02 bd
       -0.005055068 0.031516712 0.014568447 -0.031880762
000170 86 8f 12 bd 5e a8 07 3d 1e 19 10 bd 7c 12 bc bc
       -0.035781406 0.03311955 -0.035180204 -0.022958033
000180 eb 96 57 bd 80 bc 4b bd a8 bb 77 3c fc 01 26 bb
       -0.05263416 -0.049740314 0.015120424 -0.0025330773
000190 db 87 23 bd 7a bc 2a bd a9 0e 03 3c 59 ee 53 bd
       -0.039924484 -0.04168365 0.007999101 -0.051740978
0001a0 83 df 1b 3d db f0 cc bc 1d ed 2d 3c 02 b4 4a bc
       0.038054954 -0.025017193 0.010615614 -0.012372019
0001b0 2e 68 2b bd 62 13 06 bd 71 88 43 3d 57 19 81 bd
       -0.0418474 -0.03273333 0.047737543 -0.06303661
0001c0 ca de 5d 3d 12 a5 5b bc df 94 5c bb a7 7f 03 bd
       0.054167546 -0.013406055 -0.003365807 -0.03210416
0001d0 b5 7e b2 bc ba 7d f9 3c 31 ce fe bc e5 12 66 bc
       -0.021788934 0.030455459 -0.03110418 -0.014042591
0001e0 26 ad 49 3d dd 40 a0 bd 2f d2 07 3d 56 67 c8 3c
       0.049237393 -0.07824872 0.03315943 0.024463337
0001f0 42 14 9b bb 11 4f 51 bd fd 9f ef 3c 9d 99 ff 3c
       -0.0047326395 -0.051100794 0.029251093 0.031201178
000200 42 3a 03 bd 1d 50 70 bc a7 df 09 bb 80 6d 9a bc
       -0.03203798 -0.014667538 -0.0021037848 -0.018851042
000210 0f 8d 5b bd e2 a2 14 3c 71 05 a2 3c 5e b3 5d bd
       -0.05360132 0.009072037 0.019777985 -0.054126136
000220 6a 7f b4 ba 36 2c c8 bc b2 cd c9 3c 62 ea 5f 3c
       -0.0013770883 -0.024435144 0.024634216 0.013666721
000230 9b 9e 20 bc 83 a4 a1 bb f3 2d 05 bd e3 98 13 bd
       -0.0098034395 -0.0049329414 -0.032514524 -0.036034476
000240 50 22 6e bc cc f9 c2 3c 98 6a 9f 3c 56 3f 47 3d
       -0.014534548 0.023800753 0.019460008 0.048644386
000250 97 df 74 3d 24 4c 8e bd 1c 4e cd bc d5 1e ad 3c
       0.059783544 -0.069481164 -0.02506166 0.021132866
000260 bf b3 41 3c f1 12 30 3c 13 ee e9 3c bb de e3 3c
       0.01182264 0.0107467035 0.028555905 0.027816167
000270 02 05 4d 3d 13 82 99 bc 55 43 f1 3c bb 56 31 3b
       0.050053604 -0.018738782 0.029451052 0.0027059752
000280 16 60 68 3d 1a 3a 0e 3c 81 31 b5 3c 4c c6 a5 3b
       0.05673226 0.008680845 0.022118332 0.005059039
000290 7b 9b 20 3d 6f 02 9c 3b fd af cc b9 3f f3 84 bc
       0.039210778 0.0047610323 -0.00039041034 -0.01622927
0002a0 bc 6c 05 3b dc f9 4f bd 44 33 8c ba 3d 1d fe 3c
       0.0020359 -0.050775394 -0.0010696431 0.031019801
0002b0 83 35 e7 3b 0c 14 2e 3b 03 b7 8d 3c 8c 28 32 bd
       0.0070559396 0.0026562242 0.01729918 -0.0434957
0002c0 93 47 8f 3c 8c 86 be bc 1d 7d a5 b9 1b fd 4c 3d
       0.017490184 -0.023257516 -0.0003156447 0.050046068
0002d0 66 51 92 3d b9 c6 5a bd e3 68 54 3d 5e 5d d6 bc
       0.07144432 -0.053412173 0.05185784 -0.026167568
0002e0 bd 69 a7 3c d8 8f 39 3d 3d f4 4e 3c bc f5 28 bc
       0.020436162 0.045303196 0.012631473 -0.010312494
0002f0 35 cb 4a bd e1 fb 33 3d 98 3f 7a bd 4b 0e 34 bd
       -0.0495102 0.043941382 -0.061095804 -0.043958943
000300 25 96 7d bc a0 da aa bd 25 5f 27 bd ac 7f 70 3c
       -0.015477692 -0.08342481 -0.04086222 0.014678877
000310 e5 4e a2 3c 09 45 76 bd 61 92 16 3d 9b d5 2e 3d
       0.01981301 -0.06012443 0.03676069 0.04268418
000320 c7 a3 22 3c b4 d1 c1 bc 79 7a 40 3d 20 35 f5 3c
       0.009926743 -0.023659565 0.0469918 0.029932559
000330 24 ea 64 3c 00 d5 4e 3d d9 f3 00 bc 81 0b d3 3c
       0.013971839 0.0504961 -0.007870638 0.025762321
000340 09 44 37 bc a0 a5 64 bd af 8b ac bc 84 f7 02 bc
       -0.011185654 -0.055822015 -0.0210627 -0.007993583
000350 e4 67 05 3d ba 22 85 bc 77 5c 0d bd 46 45 55 bd
       0.03256978 -0.01625191 -0.03451201 -0.052068017
000360 48 5a 3e bd fe a3 e6 3c 76 9b ec 3c eb 8b bf bd
       -0.046472818 0.02815437 0.028882723 -0.09352859
000370 41 fb 70 bd 7c 31 82 ba 34 e4 35 3c fb 9f 12 bd
       -0.058833364 -0.000993296 0.011101771 -0.0357971
000380 1e 2e 38 3c 03 9a e1 bb 59 c3 92 bd 3c fc 06 bb
       0.011241464 -0.0068848147 -0.07166166 -0.002059712
000390 99 74 b1 3c 8f f1 a5 bc 38 41 21 3d aa 90 57 bc
       0.021662043 -0.020256786 0.039368838 -0.013157049
0003a0 9a ec e9 3b 7a 58 c4 bb 2e 0d 83 3d 80 70 bd bc
       0.007138801 -0.0059919925 0.06398998 -0.023124933
0003b0 3f a3 a5 3c bf 08 42 bd 54 00 40 bd fd 6c 07 bd
       0.020219443 -0.047371622 -0.046875313 -0.033062924
0003c0 80 5f 14 bd a1 da 48 3d 26 c9 10 3d 32 db 67 3d
       -0.03622389 0.049036626 0.03534808 0.056605525
0003d0 cd bd 25 bd e8 34 83 bc 2d 77 4a bd 68 09 c3 bc
       -0.04046421 -0.016016439 -0.04943006 -0.023808196
0003e0 44 ee 92 3b 07 15 3c 3d 63 87 50 bd 7b 85 6c bc
       0.00448397 0.04591849 -0.050910365 -0.014436121
0003f0 f5 88 40 3d 73 20 52 bd 3a 01 e4 b9 2b 5a eb 3c
       0.047005612 -0.051300477 -0.00043488463 0.028729519

conv5.bias f4 [64]
000000 c4 66 1f 3d 3b 39 6e 3d 78 89 3e bd 93 33 15 ba
       0.038916364 0.058160048 -0.04651782 -0.0005691584
000010 31 4c 4b 3d 60 ce 99 3c c6 42 13 bd a1 e3 72 3d
       0.04963321 0.018775165 -0.035952352 0.059299115
000020 ec 10 a1 3b 04 b4 1c 3c ae 30 1d bd 5d 9e f3 3b
       0.0049153473 0.009564403 -0.038376503 0.00743465
000030 ba 73 ef bb 90 18 bb 3c 90 0b 65 3d 23 3e 2d 3c
       -0.007307497 0.02283886 0.05591923 0.010573897
000040 d5 93 bc bc 50 c1 93 3c 58 94 e2 bc 3f 7f 51 bd
       -0.02301971 0.018036515 -0.027658626 -0.051146742
000050 d1 5f 3a 3c a9 54 60 bd 21 27 95 3c e3 33 23 bd
       0.0113753835 -0.05476824 0.018207135 -0.039844405
000060 e1 31 18 bd 09 1e 47 3c c1 29 60 bd 20 b2 9c bb
       -0.037156943 0.012153157 -0.05472732 -0.0047819763
000070 84 08 05 3d a5 0d 46 3d 70 b5 38 bd 6c 3d 52 bd
       0.032478824 0.048352856 -0.045094907 -0.051328108
000080 94 67 64 3d 4e 3e 89 bc 86 2d f3 bc 05 97 91 3c
       0.055762842 -0.016753342 -0.029684793 0.017772207
000090 4b c9 5a bc e0 cf 49 bd d4 a8 37 bd ad 87 b4 b9
       -0.013353656 -0.04927051 -0.04483874 -0.00034433362
0000a0 02 13 2a bd 04 62 c9 ba 7f 03 9d bc 6b 44 3c 3d
       -0.041522034 -0.0015364294 -0.019166706 0.045963686
0000b0 ba d0 ea 3c 86 4f 46 3b 7d 2e 6e bd a3 f4 64 bd
       0.028663982 0.0030259802 -0.058149803 -0.055897366
0000c0 d5 3d 4c bd 64 e5 fe bc 52 50 3e bd 2d 6d 56 bc
       -0.049863655 -0.031115241 -0.04646332 -0.013087553
0000d0 de 04 30 bc 42 da 34 3c a8 63 00 3d ee eb 4d 3b
       -0.010743348 0.011038365 0.03134504 0.0031421143
0000e0 b4 be 2d bb 9f e2 54 3d b5 83 36 bc a3 7c 2e 3d
       -0.0026511373 0.051973935 -0.0111398 0.04259933
0000f0 5d 59 60 3d 31 14 25 3c d4 93 6e 3a b5 64 d2 3c
       0.054772723 0.010075615 0.00091010076 0.025682786
