checkpoints/best_model_0707_3.pth (torch, 370843 bytes, 38 tensors)

conv1.weight f4 [16, 1, 3, 3]
000000 8b 11 32 bc 2b f6 38 c0 64 6e a0 bf 23 4f a7 bd
       -0.01086844 -2.890025 -1.2533689 -0.08169391
000010 2b 58 85 bf 3c 08 cd 3e b6 0f ff 3e ea 3f ae 3d
       -1.0417532 0.40045345 0.49816674 0.085082844
000020 34 0c 8a be cf f4 0e 3f 10 e2 1b bf ba 55 71 3e
       -0.26962435 0.558423 -0.6089182 0.23567858
000030 46 e9 26 3f fa 98 8e 3e 60 72 bd be b5 ac 22 40
       0.65199697 0.27851087 -0.37001324 2.5417912
000040 ea 46 04 40 58 3b 8c 3f de cb 07 be f2 d5 2e bc
       2.0668283 1.095561 -0.13261363 -0.010671126
000050 5e 6b 92 3d b9 67 37 bf 70 b3 32 3f 3b dc 42 bd
       0.07149385 -0.71642643 0.6980505 -0.04757331
000060 28 75 af bf 28 f9 a6 bf db 40 0d c0 55 7f 45 bf
       -1.3707628 -1.3044786 -2.2070835 -0.7714742
000070 38 f4 4f c0 ef 52 73 3e 61 43 02 3f ed e5 66 bf
       -3.249281 0.23762105 0.5088406 -0.9019459
000080 ab 7e e1 3d fe ac d0 3d 55 1c 33 bf f3 cf 8b 3e
       0.11010488 0.10189246 -0.69965106 0.2730709
000090 14 e3 1e bf cf 8b e6 be f9 c0 c3 be a0 69 0c 3f
       -0.62065244 -0.4502854 -0.38233164 0.5484867
0000a0 24 90 4a bf da ba e9 bf b3 d0 e6 3e 3d 0a 75 bf
       -0.7912619 -1.8260148 0.450811 -0.9571875
0000b0 59 6e 15 bf 07 d6 11 3f c0 93 dd 3d 47 b4 03 3f
       -0.583715 0.56967205 0.10819197 0.51446956
0000c0 70 a4 84 bf ed fd 91 bf 0c 44 a8 3e 50 f9 9b bf
       -1.0362682 -1.1405617 0.32864416 -1.2185459
0000d0 ee 96 e8 bf 47 46 37 3e 7a 67 b3 bd 04 68 83 be
       -1.817106 0.17897902 -0.08759971 -0.25665295
0000e0 66 81 45 bf 88 ac ca bf 7e 05 98 bf d0 18 66 bf
       -0.7715057 -1.5833902 -1.1876676 -0.8988161
0000f0 ac 58 19 3f 33 3d 91 3d f8 e2 1c 3f 84 a3 4b c0
       0.5990093 0.07091751 0.61283827 -3.1818552
000100 d1 e8 89 bf 3c e2 c8 3e 03 ee f7 bf 3c df 0e 3f
       -1.0774175 0.39235103 -1.936951 0.5580938
000110 10 14 94 be 79 76 c4 be 91 1c 58 bf 0a 38 30 bf
       -0.28921556 -0.38371637 -0.8441859 -0.6883551
000120 2f b1 c3 bf 66 9d 9a bf f3 8c ad 3e 83 92 62 bf
       -1.5288447 -1.2079284 0.33896598 -0.8850481
000130 47 fa 56 bf 57 47 0e 3f 2e b5 15 3f bb 9a fc 3e
       -0.8397564 0.55577606 0.58479583 0.493368
000140 c2 c3 51 be 68 41 1a 3f 1e 08 0a bf 74 ac 20 bf
       -0.20484832 0.6025605 -0.53918636 -0.6276314
000150 3f 20 c2 be b9 7d d0 3e 3a 53 d9 bc 30 f9 0c c0
       -0.37915227 0.4072092 -0.026528943 -2.2027092
000160 1b cd 9f be 93 ff a1 3e a6 4f 27 3d 49 06 a1 3d
       -0.3121117 0.316403 0.040847443 0.07862527
000170 ec fc c9 bf 6c 12 eb bd 02 9a 15 3d 7f b3 c5 c0
       -1.5780311 -0.11478123 0.036523826 -6.178161
000180 d8 45 f0 3d ff 23 b2 3e e8 e4 92 3b e9 89 c0 3e
       0.11732072 0.34793088 0.004482854 0.37605217
000190 06 a1 05 3f e5 1c 93 bf 65 de 4c 3e 62 40 f4 bd
       0.5219883 -1.1493193 0.20006712 -0.119263425
0001a0 4c 48 ff bf 4e 3f f2 be 53 71 77 bf 50 0c 9e 3e
       -1.9943938 -0.47313923 -0.96657294 0.3086877
0001b0 15 8f 8b bf 38 7c cd bf 2c f9 60 bf 60 58 f6 3e
       -1.090304 -1.6053534 -0.87880206 0.481143
0001c0 ea 28 1c bf 65 db ab 3e 2a 16 0a 3f 1c b1 03 bf
       -0.6099993 0.33565822 0.5394007 -0.5144212
0001d0 56 30 69 bf 8a a1 19 c0 cc 6f 97 bf 72 e6 20 3c
       -0.9108938 -2.4004846 -1.1830993 0.009820567
0001e0 13 52 c2 bf 5e f3 d9 3e 1c ff 65 3c f0 02 52 be
       -1.5181297 0.42568487 0.014037874 -0.20508933
0001f0 ad 6b e2 3e 4f 17 27 3e d5 fc 09 3b e7 0c e8 3c
       0.44222775 0.16317485 0.002105524 0.028326465
000200 0d 7c 6f bd 8e c7 84 3d 0c 65 24 3c bd 82 02 bc
       -0.058467913 0.064833745 0.010033857 -0.007965741
000210 83 b1 ad c0 e3 10 ae bf 4b ff b1 3d 76 98 7a bf
       -5.427919 -1.3598903 0.086912714 -0.97888887
000220 2e 2b 0e 3f b8 98 b0 bd 73 8c 16 c0 c3 f4 8a bf
       0.55534637 -0.08622879 -2.3523223 -1.0855945
000230 2b d0 9c bf 47 c7 90 be 82 ac 05 3e 31 e1 22 bf
       -1.2251028 -0.28277037 0.13054088 -0.63624865

conv1.bias f4 [16]
000000 67 33 55 bf 99 28 8a 3f 2f 7b b6 be 68 ab 97 be
       -0.8328156 1.079364 -0.35640857 -0.2962296
000010 e0 26 0b 3e 9b be 43 3e 77 84 a7 3e 78 3a 92 be
       0.13589048 0.19115679 0.3271825 -0.28560233
000020 b2 d3 dc bd d4 76 0e bb 74 b5 bf 3f 14 36 f2 3c
       -0.10782565 -0.0021738308 1.497725 0.029566802
000030 b6 7f bb 3f 70 eb 40 bf 60 9c 7f 3f 80 f6 a5 bf
       1.4648349 -0.7535925 0.99847984 -1.2965851

conv2.weight f4 [16, 16, 3, 3]
000000 df 1b e4 3c 24 ee 65 be 04 ce ce be 4e f5 79 bf
       0.027845321 -0.22454125 -0.40391552 -0.9763993
000010 bb 62 d4 3e 99 d8 93 3f 2e 10 75 3e 06 6e 28 40
       0.41481575 1.1550475 0.23931953 2.6317153
000020 fd 00 a9 3e e8 0b 17 3f ad 9c 99 3f a5 87 ac 3d
       0.33008566 0.5900254 1.2000939 0.0842431
000030 a6 6f cc bf f8 ad 2f 3f 86 c2 bc be dc b9 b2 bf
       -1.5971572 0.6862483 -0.3686716 -1.396297
000040 6a cd b2 be a8 03 40 bf 61 e9 06 40 75 cc a1 3f
       -0.34922343 -0.7500558 2.1079943 1.264052
000050 f4 9b f4 3e a5 27 92 be e4 0f 9d bf 0c f9 f7 3e
       0.47775233 -0.2854587 -1.2270474 0.48432195
000060 ab ab 66 bf b4 8c 34 bf 01 47 3a bf d7 81 d6 bd
       -0.90105695 -0.70527196 -0.72764593 -0.10473984
000070 98 f3 89 3d dd 69 ba 3d 03 43 5c 3f 52 a4 3e 3d
       0.06735915 0.09102223 0.8603975 0.046543427
000080 80 c3 23 be 97 b2 98 be fa d5 11 40 f7 d0 40 3f
       -0.15992546 -0.29823753 2.278685 0.75318855
000090 0c 23 94 3e eb e1 d0 be 90 86 14 3f 47 78 de 3f
       0.2893299 -0.40797362 0.58017826 1.7380456
0000a0 fa 95 41 3e 29 08 ee bd 4d 08 90 3e 74 35 04 bf
       0.18904868 -0.1162265 0.28131333 -0.51644063
0000b0 f4 fb 75 bf 50 34 3e be 33 92 80 be 2e 65 ea bf
       -0.96087575 -0.18574643 -0.2511154 -1.8312128
0000c0 75 eb 8d 3e ef a1 ad bf 19 0a 03 3e ed 05 36 bf
       0.27718702 -1.3565043 0.1279682 -0.7110279
0000d0 a8 b3 d6 3e 17 75 6c 3d d1 ea f9 3e 39 1a a8 bf
       0.41933942 0.057728853 0.48811963 -1.3133003
0000e0 9a d5 02 3f a9 73 cd 3f ba 45 93 3e 2c b5 5b 3f
       0.5110718 1.6050922 0.28764135 0.8582332
0000f0 73 e5 86 3d ae 7b 7d bf 59 20 36 be 13 cb af be
       0.06586733 -0.99016845 -0.17785777 -0.3433462
000100 e4 b2 88 3e e6 fc a3 3b 44 dd 3d bf 80 88 4d be
       0.26698983 0.005004513 -0.7416575 -0.20071602
000110 65 8c 16 40 d8 4a 8f 3e 39 94 b5 3e ba 15 7f 3f
       2.352319 0.2798679 0.35464647 0.9964253
000120 c4 c4 1c bf 00 c8 27 3e bd 10 15 3e 90 b6 4b 3d
       -0.6123774 0.16384888 0.14557166 0.049734652
000130 c3 2a d2 bd 2e 0f b5 3e 9f dd 1a 3e 34 b8 1c 3f
       -0.102620624 0.35363144 0.15123604 0.6121857
000140 71 23 68 be 2c 74 6f bf 85 88 27 3f a8 09 a8 3e
       -0.2266977 -0.9353664 0.6544269 0.32819867
000150 89 b6 13 bf 39 50 b9 be f5 a1 10 be cb 99 ce be
       -0.577004 -0.36194018 -0.14124282 -0.4035171
000160 34 2d b1 3d c0 cf a3 bf 9c 87 74 3f 94 30 27 3a
       0.086512 -1.2797775 0.95519423 0.0006377783
000170 89 6a 70 bf fa 36 8d 40 0f 3d 9a be 9a 8e 31 3d
       -0.9391256 4.412961 -0.3012471 0.043348886
000180 3a 63 0c 40 d5 06 88 bf d4 ee 11 bf 4f 6a 24 bf
       2.1935563 -1.0627085 -0.5700505 -0.64224714
000190 fb e9 ca be 05 7c 15 c0 84 57 ac 3f c3 c5 9c be
       -0.39631638 -2.3356946 1.3464208 -0.3061963
0001a0 db 1e c2 be c2 fd 1e bd 99 28 85 3e 74 a6 5d bf
       -0.37914166 -0.03881622 0.26007536 -0.8658211
0001b0 d8 99 a2 be 73 bd 3b be 14 91 04 3f 61 86 04 bf
       -0.31757998 -0.18333988 0.5178387 -0.51767546
0001c0 38 dc 0e 3f d8 76 fd 3d 6e 34 27 3f 11 30 b7 3e
       0.5580478 0.12376183 0.65314376 0.3577886
0001d0 d0 69 9d be bf 0d 24 bf d9 6b 86 3e b0 b2 6c bf
       -0.3074479 -0.64083475 0.26254156 -0.92460155
0001e0 24 0c 1d bf b6 18 44 bf 99 bb 29 3f c1 ba cc 3e
       -0.6134665 -0.76600206 0.66301876 0.39986232
0001f0 de 41 a6 3e 5f d5 b8 3f 80 de 05 3f f0 d5 2c 40
       0.32472128 1.4440116 0.52292633 2.7005577
000200 72 f7 79 40 08 c0 31 be 7a 82 ea 3c 0b 20 09 40
       3.9057279 -0.1735841 0.02862667 2.1425807
000210 14 a9 c6 bf d7 ed 59 bf 1a d1 4f 3f b2 a5 bf 3d
       -1.5520349 -0.8512854 0.8117844 0.09357776
000220 1e d9 bf be 67 df b0 3e a7 e6 cf 3e ad a5 0f 40
       -0.37470335 0.34545442 0.4060566 2.244487
000230 e1 b0 bb 3f 2d 86 4b 3f d0 be 91 bd 47 75 83 3e
       1.4663354 0.7950161 -0.07116473 0.25675413
000240 8a e3 1a 3f e3 83 1d bf 2e 3c b2 bf be 33 1a 3f
       0.6050345 -0.6152937 -1.3924615 0.602352
000250 89 5c e9 be 20 b7 b9 3d 81 90 ad 3d 69 8d 94 3f
       -0.4557841 0.090681314 0.084748276 1.1605655
000260 26 89 73 3f 74 db 3b 3e 1f b2 06 c0 9b 9a ba bf
       0.95131147 0.18345433 -2.1046216 -1.4578432
000270 9c ad 36 3e 92 d8 7c bf e6 ab 4b bf a6 50 60 3f
       0.17839664 -0.9876796 -0.7955917 0.8762306
000280 07 39 5e 3f 62 55 7f be c0 fc 73 3e 76 0c 93 3f
       0.86805767 -0.24934915 0.23826885 1.1488178
000290 2c 17 4f 3f 2c 6f 05 3e e7 14 b9 3e 68 ec 04 3f
       0.8089473 0.1303069 0.3614876 0.5192323
0002a0 79 e5 b0 be f0 21 18 bd e1 c1 e5 3f 5a 20 f7 3f
       -0.34550074 -0.03714174 1.7949792 1.9306748
0002b0 7c 4d 1b be 52 51 a1 3f 22 cd d9 3e 91 04 21 3e
       -0.15166277 1.2602942 0.42539316 0.15724398
0002c0 d1 73 f4 3e f2 ea d5 be 07 52 87 bf a8 7f 54 3f
       0.4774461 -0.41780812 -1.0571908 0.8300729
0002d0 81 ab 01 40 fd 56 ba bd 5d 83 b9 3e 5a ff c5 be
       2.0260928 -0.09098623 0.36233035 -0.3867138
0002e0 a6 1f 29 bd b0 c5 c3 3e 23 b5 1f bf 2a 1a c4 3e
       -0.041289948 0.3823676 -0.6238577 0.38301212
0002f0 f2 bb 1f 3e 47 77 58 3f ed 3a 1d 3f 4f 5a 39 3f
       0.15599039 0.84557 0.6141804 0.72403425
000300 f4 c5 9c 3d ef 8d 49 3f 6a b8 65 3f 54 6e c0 3f
       0.07654944 0.787322 0.8973452 1.503367
000310 f1 a1 32 3f 8b b2 f9 3e 48 2b 17 bf 61 59 41 bd
       0.6977835 0.4876903 -0.59050417 -0.04720438
000320 51 38 4f bf 59 6d 4f 3f c4 2c fe 3d 67 46 5a 3e
       -0.80945307 0.81026226 0.12410882 0.21315919
000330 54 2b 19 3f 50 89 6d 3f a0 14 7b be 30 0e 16 3e
       0.5983174 0.9278765 -0.24519587 0.1465385
000340 c2 21 a5 3f 0f 9e 83 3f b4 75 c8 3e 92 7e d9 3e
       1.2900927 1.0282611 0.391523 0.42479378
000350 44 9b 2f 3f 6b 27 dd bd 1d 62 a9 3d e9 99 34 3f
       0.6859629 -0.10798534 0.08270667 0.7054735
000360 21 ca a7 bf 4f b8 54 3d d8 7d 5d bf df 87 1b 3f
       -1.310856 0.051933583 -0.8652015 0.607542
000370 e7 6f 00 be 23 4a 68 3f 37 e4 3c 3e d8 ca 4f 3f
       -0.12542687 0.90738124 0.18446432 0.8116889
000380 af 0e 09 3f a3 bb 9f 3e 1c e2 12 3f 2c c6 1a 3f
       0.5353803 0.31197843 0.57376266 0.60458636
000390 9e 6a eb 3e 19 21 e0 3e 32 c1 52 3f f4 89 df 3e
       0.4597978 0.43775252 0.8232604 0.43659937
0003a0 e6 62 a6 be 6b c8 76 3e be 8c dc bd 63 32 48 3d
       -0.3249733 0.24099891 -0.10769032 0.048876178
0003b0 3b 88 31 bf bb 64 fc 3e ff b0 a1 3f a8 6c df 3f
       -0.69348496 0.492956 1.263214 1.7455034
0003c0 8b f3 69 be ab 24 1e 3f 8c 57 72 3e c1 0d e6 3e
       -0.2284681 0.617747 0.23666209 0.44932368
0003d0 a6 52 e4 3e eb b6 72 3f af 45 3f 3f d7 2b 3a 3f
       0.44594306 0.9481036 0.74715704 0.72723144
0003e0 98 bf 5d 3f 48 ae 83 bf ce e4 03 bf cc fb 3f bf
       0.86620474 -1.0287561 -0.51521003 -0.74993587
0003f0 f5 fe 96 3f 3a a8 c7 3d 36 74 c3 3d 1b cc 01 be
       1.1796557 0.097488835 0.0954365 -0.12675516

conv2.bias f4 [16]
000000 6c db f5 bc 03 89 19 bd d0 a8 ac bc 91 6d c3 bc
       -0.030011855 -0.03748418 -0.02107659 -0.023855956
000010 27 e6 92 bc 9f c9 6f 3d f5 07 27 be b1 99 38 3d
       -0.01793201 0.05854189 -0.16311629 0.045068447
000020 72 6f 0b 3d e1 f0 e4 bc ae a5 64 bd 82 25 d7 3d
       0.03404183 -0.027946891 -0.055822067 0.10505201
000030 1e 1c 4e bc ad ea 1c 3d 40 95 ef 3d ac 88 a8 bd
       -0.012579946 0.03830974 0.11698389 -0.08229193

bn11.weight f4 [16]
000000 a4 78 c6 3f fb 74 5d 3f 48 3a c2 3f b0 f7 f8 3f
       1.5505567 0.86506623 1.5174036 1.9450588
000010 06 e3 9b 3f f2 9c eb 3f 7d 8f 9a 3f 6b c6 cb 3f
       1.2178657 1.8407271 1.2075039 1.5919927
000020 8e d8 80 3f b3 86 26 3f 3d 93 0c 40 46 4d 83 3f
       1.0066087 0.65049285 2.1964867 1.0257957
000030 cc 64 86 3f 0d cc d6 3f ab 43 d1 3f 5b 3a c9 3f
       1.0499511 1.6781021 1.6348776 1.5720934

bn11.bias f4 [16]
000000 65 29 e6 be fa 0e 6a 3d 67 a2 10 bf b6 3a 0f bf
       -0.44953457 0.05714319 -0.56497806 -0.5594896
000010 83 23 8a be 94 8d ed be 79 ed b7 be 19 29 b5 be
       -0.26980218 -0.46397078 -0.35923365 -0.35382918
000020 46 fa fb bc db 15 ee bc 9f 8a 16 bf 25 fc 40 bd
       -0.030758988 -0.029063156 -0.5880527 -0.047115464
000030 8e 18 4c be 08 89 c0 be 9b 58 03 bf 43 a3 42 be
       -0.19931242 -0.37604547 -0.51307076 -0.19007592

bn11.running_mean f4 [16]
000000 b1 62 66 bf 44 50 96 3f 9b 2b db be 09 43 b8 be
       -0.8999434 1.1743245 -0.42806706 -0.35988644
000010 74 8d 8e 3d 8e 3d 10 3e b1 38 8e 3e 0a a5 c7 be
       0.06960574 0.14085981 0.27777627 -0.38993102
000020 3d c6 18 be c2 f5 22 bd c0 60 b2 3f 5a 44 8a bc
       -0.14919372 -0.039785154 1.3935776 -0.016878296
000030 73 a1 b3 3f e0 bb 50 bf c7 51 66 3f 2f b5 b0 bf
       1.4033645 -0.81536674 0.8996853 -1.3805293

bn11.running_var f4 [16]
000000 eb 83 e7 3c c2 d0 21 3d 92 eb bc 3c 48 56 da 3c
       0.028261146 0.039505728 0.023061547 0.02665247
000010 d4 0f a7 3c 02 ca b6 3c cd ba 78 3c 30 d3 3b 3d
       0.02039329 0.022313122 0.0151812555 0.0458557
000020 6f 30 7c 3c 92 15 2c 3c 93 0f a4 3d 25 5a 6d 3c
       0.015392407 0.01050319 0.08010783 0.014486824
000030 a5 38 8a 3c 23 d8 d1 3c e2 66 80 3d f3 11 ea 3c
       0.016872713 0.025615757 0.06269623 0.028573012

bn12.weight f4 [16]
000000 c9 f0 9f 3f 6d fe 97 3f c9 59 74 3f 58 e9 5a 3f
       1.2495357 1.187452 0.954495 0.85512304
000010 8b c4 9e 3f 99 4e 6c 3f 44 28 a2 3f fc 5a c3 3f
       1.240373 0.9230743 1.2668538 1.5262141
000020 fe 1e 4e 3f 48 54 73 3f 4b 80 87 3f ed b3 b1 3f
       0.8051604 0.9505048 1.0586027 1.3883034
000030 2c 22 97 3f 86 3e a3 3f 57 39 8e 3f 7f 64 9b 3f
       1.1807303 1.2753456 1.1111249 1.2140044

bn12.bias f4 [16]
000000 d5 30 87 be 14 00 61 bf 1f e0 56 bf 1b 03 12 bf
       -0.26404443 -0.87890744 -0.8393573 -0.5703599
000010 f5 35 57 3e 4c 20 5c bf 79 82 a4 bf 7d b3 9c 3d
       0.21016677 -0.8598678 -1.2852317 0.07651422
000020 11 89 27 be 61 82 40 3d 53 bc 8f bf 9e c3 8a bf
       -0.1636088 0.04699934 -1.1229347 -1.0840948
000030 2d a7 93 bf 80 61 13 bf ae 1a 4b bf b9 3e 1f 3e
       -1.1535393 -0.5757065 -0.79337585 0.1555127

bn12.running_mean f4 [16]
000000 2e 25 13 40 bb f4 c8 40 a9 c8 00 c0 47 23 56 3f
       2.2991443 6.2798743 -2.0122473 0.8364758
000010 da 64 5d c1 e2 c8 61 c0 05 ec 85 40 b3 53 82 bf
       -13.837122 -3.527886 4.185061 -1.0181793
000020 17 6f ba 40 9f 48 f8 3e 81 e6 e2 40 b3 bd 76 40
       5.826061 0.48492905 7.0906377 3.8553283
000030 ef 95 52 c0 e4 f5 a6 bf b9 45 38 c0 69 3a 0c bf
       -3.2904012 -1.304379 -2.8792555 -0.54776627

bn12.running_var f4 [16]
000000 48 21 70 41 5a 43 33 42 08 72 ec 40 b5 b9 79 41
       15.008125 44.815773 7.38892 15.607839
000010 8f ea 52 42 71 b0 40 41 9d 49 0f 41 fd c3 77 41
       52.72906 12.0430765 8.955472 15.485349
000020 16 32 ec 41 6b 70 57 41 64 bb bc 41 81 f2 95 41
       29.524456 13.464946 23.5915 18.74341
000030 af 5e 3d 41 82 cd 98 41 b6 81 38 41 76 37 e3 41
       11.835616 19.100346 11.531668 28.40208

conv3.weight f4 [32, 16, 3, 3]
000000 77 7a b7 3e 0a 97 a5 be 9f 11 7e bd 52 d4 04 3e
       0.3583562 -0.32341796 -0.062028524 0.12971619
000010 b7 1f 9b 3e 9d c3 6f 3e 74 dc f0 be ed f0 6d be
       0.30297634 0.23414464 -0.47043192 -0.23236437
000020 b1 6c a5 bf 85 a5 a7 3f b7 f4 50 3f 44 c6 19 3d
       -1.2923795 1.3097388 0.81623405 0.037542596
000030 76 7d 75 3f f8 25 8b be 89 45 5f 3f 09 8b b6 3f
       0.95894563 -0.27177405 0.8721548 1.426118
000040 f0 d5 04 40 92 57 98 3f 19 49 76 bf 86 a7 e2 be
       2.0755577 1.1901724 -0.9620529 -0.44268435
000050 65 f3 05 bf 9f e0 a7 3d f5 bc b7 bd 87 ee 7b be
       -0.52324516 0.0819714 -0.089715876 -0.2460271
000060 a3 6f 77 bf 42 78 92 bf aa bd ad 3e 96 1a 39 3f
       -0.9665472 -1.144295 0.33933765 0.7230619
000070 bc 88 cd 3d 4c de ae be 4b c8 8e 3f 9f d4 3a be
       0.10035846 -0.34153974 1.1154875 -0.18245171
000080 e0 54 45 bf fd c5 86 3e d8 94 a5 3e 4f fe 8f 3e
       -0.77082634 0.26322928 0.3234012 0.2812371
000090 79 fd b3 bf 8a 9b cc bf 43 e1 18 bf 02 4e c5 bd
       -1.4061729 -1.5984967 -0.5971872 -0.096340194
0000a0 75 b5 05 3f e6 72 d7 3c ec d8 6f 3e b2 0f 89 be
       0.52230006 0.026299905 0.23422593 -0.26769787
0000b0 19 85 4d be 43 be 05 3f 7d bc 6c bf c1 3a 31 bf
       -0.20070304 0.5224344 -0.9247511 -0.69230276
0000c0 d5 7d 1f 3f c3 b1 c9 bf 37 5b cc bc 68 86 33 be
       0.6230138 -1.5757374 -0.024945838 -0.1753174
0000d0 3f b8 c8 be 42 f0 04 3f 49 6d f7 3f d0 d4 03 3f
       -0.3920307 0.51929104 1.9330226 0.514966
0000e0 32 ee a0 3f 36 c2 13 bc fc 62 d3 be e9 ff 60 3f
       1.2572691 -0.009018471 -0.41286457 0.8789049
0000f0 7f 4a c4 3e b3 7b 82 3f 27 76 55 3f 85 be 94 3f
       0.38338086 1.0194 0.8338341 1.1620642
000100 99 d2 00 40 39 39 4d 3f f7 28 c1 3e ef 87 17 40
       2.0128539 0.8016544 0.37726566 2.3676717
000110 71 ed 2c 3f fb 90 13 3f 5a ab 03 40 e3 fc 52 3e
       0.67549807 0.576431 2.0573335 0.20604281
000120 40 ab 95 3f c6 95 46 3d 92 82 82 3f 83 e4 49 3f
       1.1692886 0.04848268 1.0196097 0.78864306
000130 64 24 a2 3e bf 06 1f bf 69 8f 02 3f 87 55 86 3e
       0.3166839 -0.6211967 0.51000077 0.26237127
000140 ad 90 bc be d2 b5 8f be f5 f1 af be 34 0f b2 3f
       -0.3682913 -0.28068405 -0.34364286 1.391089
000150 9f 42 e8 bd 85 3a a4 3f 73 bb 62 3e 4c b8 b4 3e
       -0.11340832 1.2830359 0.22141819 0.35296857
000160 bf d3 75 3f 0f ce 20 bf 55 22 e8 3f 67 85 bc 3f
       0.96026224 -0.6281442 1.8135477 1.4728211
000170 8e 64 1e 3f 08 00 98 3f 52 8f a4 3f 83 b7 1b 3e
       0.61872184 1.187501 1.2856238 0.15206723
000180 fa 7e a7 3d 63 44 08 40 12 55 4f 3f b8 72 88 3f
       0.08178516 2.129174 0.8098918 1.0660009
000190 e2 34 35 3e d3 6b 08 3f 49 b4 f7 3e 43 70 93 3f
       0.17695954 0.53289527 0.48379734 1.1518635
0001a0 e7 b0 e8 be ff 5a 0c be d8 74 cb 3e ca 4d 17 c0
       -0.45447466 -0.13706587 0.39737582 -2.3641229
0001b0 31 4f 46 be 23 ab 5d bf 89 fe 25 3f 52 91 ee 3e
       -0.19366147 -0.8658926 0.64841515 0.46595246
0001c0 e7 14 b5 bf 95 26 2c bf 3e e1 39 3f cb b6 be bf
       -1.4147004 -0.6724637 0.7260932 -1.4899534
0001d0 2e f9 9b be 06 5b b6 be 41 66 e6 3d e4 3b 83 3e
       -0.30463547 -0.3561632 0.11249972 0.2563163
0001e0 2f 3d 0b bf 62 d2 7e 3f 3a 7d 26 3e cd 02 c0 3e
       -0.54390234 0.9953977 0.16258708 0.37502137
0001f0 59 b6 6a 3f c6 2f 95 be 2b ae d0 3c 68 05 ca be
       0.9168449 -0.2913801 0.025473675 -0.3945725
000200 7c 97 ec 3e a6 af 86 3f 60 6a 5a 3e d7 00 2a 3e
       0.46209323 1.0522354 0.21329641 0.16601883
000210 d2 69 39 bf c7 75 05 be 4a 26 84 be 9a a3 8c 3f
       -0.72427094 -0.1303321 -0.25810462 1.0987427
000220 82 3a 96 3e bb 68 0e bf 74 ca 56 bf a9 f3 09 40
       0.29341513 -0.55628556 -0.8390267 2.1554968
000230 1c 58 a4 be ee 5f 10 3f 79 0f 19 3f f8 ad 63 be
       -0.32098472 0.5639638 0.59789234 -0.22234333
000240 4e 12 15 be 04 9e 82 3d 36 e4 8d bf db 5e 8a be
       -0.14557764 0.06377795 -1.108527 -0.27025494
000250 40 65 e1 be 77 5a 9a bf 2b 00 9a bf 67 65 6e 3c
       -0.4402256 -1.2058858 -1.2031301 0.014550543
000260 b3 17 d2 3d 6d 56 81 be 12 01 21 be 59 e8 3c c0
       0.102584265 -0.2526125 -0.15723065 -2.9516814
000270 5b 7f 9d 3e dc f9 e4 3e 51 bd ee bf b6 55 21 be
       0.30761227 0.44721878 -1.8651525 -0.15755352
000280 d9 48 d5 be 59 af 7c be d9 09 22 bf 6a 68 e7 be
       -0.4165714 -0.24676265 -0.63296276 -0.4519685
000290 1c 02 e3 bf ed 3f 19 3f d5 29 0f 3f ab 3b 6c bf
       -1.7735019 0.5986317 0.55923206 -0.92278546
0002a0 0f bf d0 be 1f f0 c1 bf f9 fe 9c bf 68 97 b5 be
       -0.40770766 -1.5151404 -1.2265311 -0.35467076
0002b0 2e 52 a8 bf 6b 00 00 3c 4d 6b 92 bd a1 1f 35 bf
       -1.3150079 0.0078126 -0.07149372 -0.70751387
0002c0 4a 4b 3d 3f db 3b e8 3e 8b e1 1f bf 49 58 1b 3e
       0.73943007 0.45358166 -0.62453526 0.15170397
0002d0 10 d1 64 3f f5 9f 4e 3f 76 54 ba bf be f2 53 3f
       0.89381504 0.80712825 -1.4557025 0.8279227
0002e0 84 1b 82 bf 91 58 10 c0 37 e1 67 3f 43 86 af 3e
       -1.0164647 -2.2554057 0.90578026 0.3428212
0002f0 25 36 84 bf 01 aa b3 be ae b2 f4 3f d0 55 ae 3f
       -1.0329024 -0.3509064 1.9117029 1.3619938
000300 8e 70 0e 3f 7c 60 12 be 68 3a 40 3f 03 5b d8 be
       0.55640495 -0.14294618 0.7508912 -0.42256936
000310 79 84 03 40 b7 4c 26 3f 37 3f 48 3e 59 ba 05 c0
       2.0549605 0.6496081 0.19555365 -2.0894988
000320 ac 0d 81 c0 2c 72 0e 3f e5 87 5c bf a4 e7 82 c0
       -4.032919 0.5564296 -0.8614486 -4.0907764
000330 e9 26 88 3e d1 7f 08 c0 70 6c 60 c0 ea 0e 2e be
       0.26592186 -2.1328013 -3.5066185 -0.16997877
000340 00 41 fb be 55 5d 73 3f f1 b1 1e 3e 25 ff d1 be
       -0.4907303 0.9506429 0.15497567 -0.41014972
000350 b7 7c ab 3e 12 08 a4 bd 52 46 fc be 75 26 aa 3d
       0.33493587 -0.08009352 -0.492724 0.08308116
000360 85 c0 9b 3c 7f fc 76 be 9d c7 39 3e 56 de f7 3e
       0.019012699 -0.24119757 0.18142553 0.48411816
000370 22 72 3f 3f f9 eb 45 bf fc d1 21 3c 85 3d c5 3e
       0.7478353 -0.7731319 0.009876724 0.38523498
000380 57 60 4c 3e 18 44 14 3f 87 5a 0d bf ed 56 a6 3f
       0.19958626 0.579164 -0.5521626 1.2995278
000390 1d 0d 28 3f 5e eb 0b 40 ce d2 4c 3e 0a a4 83 3f
       0.6564501 2.1862407 0.2000229 1.0284436
0003a0 db 97 a3 3e b8 1f 94 3e fc 91 81 bd 5b 55 b9 be
       0.31951794 0.2893045 -0.063266724 -0.36197934
0003b0 e4 22 fa bf 47 0a e7 be 4e c2 81 be 22 f7 5f 3e
       -1.9541898 -0.45125028 -0.25343555 0.21871617
0003c0 a8 42 88 3e a5 62 5c 3e 73 78 b8 bf f8 30 d1 bf
       0.26613355 0.21522005 -1.4411758 -1.6343069
0003d0 1f 70 33 c0 5c ae 47 c0 c1 00 70 be e4 4f 5e bf
       -2.8037183 -3.120017 -0.23437788 -0.86840653
0003e0 ac 3d ad bf 94 93 0c bf 0b d6 b3 bf 67 c7 d0 bf
       -1.3534446 -0.54912686 -1.4049696 -1.6310853
0003f0 9f 60 f7 3f fe 0a 54 be c5 86 6a bf 97 43 9b bf
       1.9326361 -0.20707318 -0.9161189 -1.2130002

conv3.bias f4 [32]
000000 c6 9f a3 bc 85 e1 92 3b e6 8e 7d 3d c3 b3 a8 bd
       -0.019973647 0.0044824504 0.061903857 -0.08237412
000010 41 f0 8b 3d 7f dc 85 3d f7 df 9c bd ac f7 93 bd
       0.06832934 0.06536197 -0.076599054 -0.07224974
000020 41 84 51 bc dd 05 74 bd f5 d8 fd 3c 56 b7 09 bd
       -0.012787879 -0.059575904 0.030987242 -0.03362211
000030 d4 62 3c bd 63 3a 01 3d 51 92 86 bc 31 58 53 3d
       -0.045992687 0.031549823 -0.016427191 0.051597778
000040 60 13 4b 3d d8 bd 76 3d 07 45 88 bc 05 0f 9b bd
       0.049579024 0.060239643 -0.016634477 -0.07571224
000050 df 10 db bc e6 a0 3b 3d c3 0e 2d bd df b8 1e bd
       -0.026741443 0.04580774 -0.042250406 -0.038750526
000060 64 ac 94 3d b0 e7 0e 3c 26 38 7f 3d b8 ae fe 3c
       0.072594434 0.008722231 0.062309407 0.031089172
000070 ee 3a 7e bd ee 2c 98 bd a2 9d e3 3c 8a dc 6d 3d
       -0.06206792 -0.07430445 0.027785126 0.05807165

conv4.weight f4 [32, 32, 3, 3]
000000 38 22 89 bf 5a aa b5 3e 01 a9 83 bf 4e 72 23 c0
       -1.0713568 0.3548153 -1.0285951 -2.5538516
000010 12 cc e6 bf 17 2f 08 c0 43 9b 8f 3e a9 31 ac 3f
       -1.8031027 -2.1278741 0.28048143 1.3452655
000020 52 fa ae bf 3c 36 89 bf 28 88 8b 3f f0 ea b2 3e
       -1.3670142 -1.0719676 1.0900927 0.34944868
000030 0c c4 1f 3e 2b d3 6f bf 39 00 9d bf 7c df d3 3e
       0.1560213 -0.9368159 -1.2265693 0.41381443
000040 69 57 15 3f 7e 11 f3 be cb fb 7c 3f d7 94 21 40
       0.583365 -0.47474283 0.98821706 2.5247095
000050 8b 73 13 3f 40 40 0f 40 ba 07 c3 3f 84 c4 d0 3f
       0.5759818 2.2382965 1.5236733 1.6309972
000060 96 84 1e 3f cc cb 4d 3f 36 cc 94 3f 20 13 19 40
       0.6192106 0.80389094 1.162482 2.3917923
000070 33 62 81 bd 96 f3 f4 3e e5 a1 6e 3e 37 bc 50 be
       -0.06317558 0.4784209 0.23303945 -0.20384298
000080 24 d4 0e c0 60 ec b0 3e de e4 cb 3f 82 1c 97 3e
       -2.231698 0.3455534 1.592922 0.29513937
000090 f1 95 ba bf 90 52 8a bf fa 71 e9 3e 5c 94 24 be
       -1.4577008 -1.0806446 0.4559477 -0.1607222
0000a0 5b 06 57 3f 73 01 84 be 83 5c 57 bf c0 00 fd be
       0.8399407 -0.25782356 -0.84125537 -0.49414635
0000b0 d4 56 92 be fa 7c 42 bf 70 e6 ee 3f 9b ae 07 40
       -0.2858187 -0.7597195 1.8664074 2.120032
0000c0 1f 59 61 bb 0a d1 b5 3f 04 e5 3f bf 06 62 ab 3d
       -0.0034385396 1.4204419 -0.74958825 0.08368306
0000d0 92 3a 8a 3f dc 3f e3 bf 48 ea fe bf 13 31 84 3e
       1.0799124 -1.7753863 -1.9915247 0.2581869
0000e0 24 22 c6 3e 7d f0 d3 be 99 d5 09 3f ba a5 19 be
       0.38697922 -0.41394415 0.5384155 -0.15004626
0000f0 9d c0 64 bf 66 d1 41 bf 8a 52 19 bf 38 c8 05 3e
       -0.89356405 -0.7571014 -0.5989157 0.13064659
000100 2a fa aa 3f 9d 35 be 3f 04 b8 60 c0 6d e0 31 be
       1.3357594 1.4860111 -3.5112314 -0.17370768
000110 89 86 0f 3f f2 8c 9b bf 6d 15 9f be aa 63 ae bd
       0.5606466 -1.2152388 -0.31071034 -0.08515103
000120 bf b7 25 be ba df 9b bf 5f 1a 8c 3d 9c 6c 49 bf
       -0.16183375 -1.2177651 0.068409674 -0.7868135
000130 00 00 dc 3e 57 b4 b4 be 2a 0b 4b bf 3b 39 8a 3f
       0.4296875 -0.35293838 -0.7931391 1.0798715
000140 5d f0 b5 be 8f 33 2f 3f dc 19 96 be 09 8b 7a 3f
       -0.35534945 0.6843805 -0.29316604 0.978684
000150 6e f1 b3 3e e9 00 bd 3e 97 1d b0 3f 36 22 31 bf
       0.35145134 0.36914757 1.375903 -0.69192827
000160 e5 b5 bd be c9 7e 42 3f fe 3b b0 bc 34 1e 1d 3f
       -0.37052837 0.7597471 -0.021512982 0.6137421
000170 7c ea 92 be bf 9c 94 3f 6c 57 d6 3d cc 36 8a bf
       -0.28694522 1.1610335 0.10465893 -1.0797973
000180 a9 38 30 be b8 c3 03 3f b2 5e 82 bf 2b 28 68 bf
       -0.17209114 0.5147052 -1.0185149 -0.9068629
000190 d1 20 85 3e d5 d9 cd 3d e5 da 0b bf b8 10 c2 3d
       0.260016 0.10051314 -0.5463088 0.09475845
0001a0 1e d2 17 c0 81 52 7d 3f d6 34 3d 3d 51 28 b0 bf
       -2.3721995 0.98954016 0.046192966 -1.3762304
0001b0 93 d5 32 3f 93 f9 d4 3f 49 70 59 be f9 7c 33 3f
       0.6985714 1.6638664 -0.2123424 0.7011257
0001c0 03 ec 8d 3f c2 cf 27 3e c5 1f ef be 62 7c 2a be
       1.108765 0.16387847 -0.46703926 -0.16649011
0001d0 ef 5c ba 3e ed 33 21 c0 22 cc 10 c0 b0 0f 43 c0
       0.36399028 -2.5187943 -2.2624593 -3.0478325
0001e0 b5 df f7 be 2e 7d d3 3e 03 c6 9d bf e4 d9 e5 bf
       -0.48412862 0.41306442 -1.2326053 -1.795712
0001f0 38 a4 2b c0 32 ee 75 bf 95 7e f2 bf ed 21 46 40
       -2.681898 -0.9606658 -1.894488 3.0958207
000200 87 05 8e 3f cd d6 3d 3e 99 6b d1 3f 5f 8a 79 bd
       1.1095437 0.18538971 1.6360961 -0.060922977
000210 30 09 1d be 03 64 b9 3c 04 91 bb bf 31 8f 67 be
       -0.15335536 0.022630697 -1.465363 -0.22613217
000220 2f 7a db be 1b 14 96 bf e9 10 c8 be 41 33 8e bf
       -0.42866656 -1.1724886 -0.390754 -1.1109391
000230 e8 6c 10 bf 55 be 48 bf f0 d1 e0 be a2 d7 f8 bf
       -0.5641618 -0.78415424 -0.4391017 -1.9440806
000240 d4 1c d4 3f 2e 62 41 3f 49 53 fb 3e 90 d9 f8 3f
       1.6571298 0.75540435 0.4908698 1.9441395
000250 1f 24 63 3f fd 32 b7 3f 3b dd 86 3c 37 42 85 3f
       0.8872699 1.4312435 0.016462913 1.0410832
000260 0e 13 b9 bd 57 39 47 be 4c 66 1a bf fb 35 9a be
       -0.090368375 -0.19455467 -0.6031234 -0.3011931
000270 b6 1f 0b bf 9e 4a 78 bf 00 3c 55 bf 24 67 53 3f
       -0.5434526 -0.96988857 -0.8329468 0.82579255
000280 e6 05 86 3f 36 38 08 40 d4 53 1c 3e 4f ba 38 3f
       1.047055 2.1284308 0.15266353 0.72159284
000290 49 3e 47 bf 62 2b 12 3f e6 1f 79 3f 26 d3 15 3e
       -0.77829415 0.57097447 0.973143 0.14631328
0002a0 1d a7 93 3f 26 32 d0 bd 71 f0 4e c0 47 66 47 c0
       1.1535374 -0.10165815 -3.2334254 -3.1156175
0002b0 34 6f 09 3f 5b d2 5a bf f1 ab 61 c0 44 f6 cd 3e
       0.5368531 -0.85477227 -3.5261195 0.40226948
0002c0 95 a2 2d 3d 05 5d 34 c0 f2 d0 1a 3f 6d 78 99 be
       0.04239138 -2.8181775 0.60475075 -0.2997469
0002d0 08 d9 ec bd b9 a4 94 3e ff c2 1b 3f 71 28 94 be
       -0.11564833 0.29031923 0.60844415 -0.28937104
0002e0 81 7d 91 3d 0f 4d e2 3d 52 b4 79 3f ef 35 42 3f
       0.07104016 0.11049854 0.9754077 0.75863546
0002f0 1e 7a fa 3f 10 09 2d bc 53 cd 36 bf 3a 0e 0f bf
       1.9568517 -0.010561243 -0.7140705 -0.55881083
000300 7a ac 35 be 37 56 d3 be 74 0b 65 bf c4 fa 0c 3e
       -0.17741576 -0.41276714 -0.894706 0.13767534
000310 bb dc 6c 3e 3b af 14 3f 9f a6 a4 bf 0b 41 75 bf
       0.23131077 0.5807988 -1.2863349 -0.9580237
000320 b7 79 25 3f 8d 91 2a bf 94 e7 20 bd e5 fe 04 bf
       0.6463885 -0.6662834 -0.03928335 -0.5195144
000330 49 34 4a bf 6d fa 87 bf cb 4b 72 bf 92 09 5c 3c
       -0.7898603 -1.0623299 -0.946469 0.013430016
000340 e7 1d 57 3f c9 8a c6 3e 3f d3 65 be ea 86 bc 3c
       0.8403 0.3877776 -0.22443865 0.02301355
000350 36 5d b0 3f 4f 5f b4 3f 58 3c a3 bf f8 db a1 c0
       1.3778446 1.4091586 -1.275279 -5.0581017
000360 1a 76 36 bf 36 c7 1d be 8a 14 a8 be d8 60 f6 be
       -0.7127396 -0.15408024 -0.3282817 -0.4812076
000370 46 39 0b c0 a8 f2 bc bf f9 73 83 3f 7f 70 ad bd
       -2.1753707 -1.4761553 1.0269767 -0.084687226
000380 8a 18 8b 3e 27 de 16 3f 10 ee f8 3e 96 25 97 be
       0.2716716 0.5893273 0.48619127 -0.29520863
000390 ae 72 d3 3e 66 0f 07 bf 51 d9 2a bf fe 81 24 c0
       0.4129843 -0.5275787 -0.6673785 -2.570434
0003a0 69 16 66 bf ff a2 9f bf 8e 75 b0 bf ee 04 99 bf
       -0.89877945 -1.2471617 -1.3785875 -1.195463
0003b0 e3 5e 92 bf 75 f8 43 be 4f ae d4 be 7f aa 85 be
       -1.1435207 -0.19137748 -0.41539237 -0.2610664
0003c0 0a 99 b0 3d 9a cf 37 3d 57 ee 92 bf c9 27 9c 3e
       0.0862294 0.04487572 -1.1478986 0.30499104
0003d0 7b c9 e0 3c ae 9d 37 be 7a 37 84 be b2 b9 81 be
       0.027439823 -0.17931244 -0.25823575 -0.25336987
0003e0 bc bd 9f 3e 58 90 2e bf 7c 3b 22 be d8 1e b2 bf
       0.31199443 -0.68189 -0.15843004 -1.3915663
0003f0 f1 5f 5c c0 ce 79 06 c0 c3 14 0c c0 a7 45 6e bf
       -3.4433558 -2.1011844 -2.1887672 -0.9307503

conv4.bias f4 [32]
000000 36 03 a8 3c 66 3a 24 bd 77 ad d5 ba 79 c4 84 3b
       0.020509344 -0.040094756 -0.0016302307 0.0040517417
000010 9a 74 bd bd 6a fd a5 bc 08 ab 37 bb 54 8b 03 bc
       -0.092507556 -0.020262439 -0.0028025527 -0.008028824
000020 ee ac 2c bd 96 53 4f bc e3 a5 cf bc 06 3c 48 3c
       -0.042157106 -0.012654206 -0.025347656 0.012221342
000030 6f bd b1 3c 71 a4 83 3d 42 6a 92 bd a6 08 13 3c
       0.021696774 0.06427849 -0.07149173 0.00897423
000040 d5 93 5f bd 7e 82 48 3b 89 30 81 3d cc 2f d4 3c
       -0.054584343 0.0030595358 0.063080855 0.025901698
000050 84 1b 46 3d 3c ea 08 bd 55 f7 65 3d 4b 33 c3 3c
       0.048366085 -0.03342651 0.056144077 0.02382817
000060 bb b6 39 3d 7f 49 48 3d 8e d1 47 3d d9 ac 8f 3c
       0.04534028 0.048898216 0.04878383 0.017538475
000070 9b b9 99 3d f6 f5 fd bc d2 dc cd bc 71 9d 91 bc
       0.075061046 -0.031001072 -0.02512971 -0.01777527

bn21.weight f4 [32]
000000 71 29 8a 3f f3 11 79 3f 07 4d b3 3f f5 09 a5 3f
       1.0793897 0.97293013 1.4007882 1.2893664
000010 d0 9d 3f 3f f2 ab 8f 3f ff 84 96 3f c1 e7 97 3f
       0.7485018 1.1224349 1.1759337 1.1867601
000020 db 0b 97 3f 6d 9c 91 3f 78 be 80 3f 60 a5 9f 3f
       1.1800493 1.1375862 1.0058126 1.2472343
000030 c0 2e 63 3f 00 14 9b 3f ce d2 9a 3f 3b 21 a4 3f
       0.8874321 1.2115479 1.2095582 1.2822641
000040 68 79 9d 3f 1c 40 83 3f c8 4e 10 3f 20 68 b6 3f
       1.2302675 1.025394 0.5637021 1.4250526
000050 08 65 a0 3f ef 1a 75 3f d6 62 c1 3e 00 f2 31 3f
       1.2530832 0.9574422 0.37770718 0.6950989
000060 07 5d 44 3f 56 1e c9 3f 45 57 8c 3f 1a b2 5e 3f
       0.7670445 1.5712383 1.0964133 0.8699051
000070 dc 97 97 3f 56 a9 aa 3f 52 ae 85 3f 8e 5f 84 3f
       1.1843219 1.3332927 1.0443823 1.0341661

bn21.bias f4 [32]
000000 af d3 81 bf 15 b4 df 3c a7 ed a0 bf 46 5d b4 bf
       -1.0142726 0.02730755 -1.2572526 -1.4090965
000010 30 d1 f3 3e c0 f1 a7 bf a0 80 57 bf 45 9e 30 bf
       0.47620535 -1.3120651 -0.8418064 -0.689915
000020 0f c1 c4 be f2 6a 98 be 28 b6 47 be d3 1b cb be
       -0.38428542 -0.29769093 -0.19503081 -0.39669666
000030 29 e7 22 bf 75 b0 c0 bf a3 d4 10 bf 13 39 ab be
       -0.6363397 -1.505385 -0.5657446 -0.33441982
000040 76 bc 93 bf 0f db fb be e3 f6 83 c0 33 18 9e bf
       -1.1541889 -0.49190566 -4.1238875 -1.2351135
000050 a8 c2 9b be f4 b3 c8 be 1a 79 9d 3e 81 8b 8c c0
       -0.30421948 -0.39199793 0.30756456 -4.3920293
000060 da fd 4e 3e b5 15 9e bf 11 8e 51 be 2e 0a aa bd
       0.20214024 -1.2350374 -0.2046435 -0.08302723
000070 59 f4 93 bf 4a 2b c4 bf f7 e5 1c bf ae 10 b2 be
       -1.1558944 -1.5325711 -0.612884 -0.3477835

bn21.running_mean f4 [32]
000000 38 da 37 41 80 0d c3 c0 16 e5 09 c1 25 cd c1 c0
       11.490776 -6.095398 -8.618429 -6.056292
000010 c4 3a 60 c0 99 ce 9b 41 77 b9 42 c1 d0 54 92 40
       -3.5035868 19.475878 -12.1702795 4.572853
000020 6a 4b 03 c1 b2 8b 49 41 6b 71 7b c1 68 f0 ab 40
       -8.205912 12.596605 -15.71519 5.3730965
000030 77 fe df 40 6f 50 bf c0 fa ae 47 41 aa 83 89 c1
       6.9998126 -5.9785686 12.480219 -17.18929
000040 3d 3d 0b c0 6b b8 ba c0 97 1f ba 40 84 6a 28 c1
       -2.1756127 -5.835012 5.816356 -10.526005
000050 06 28 b7 3e b7 55 f4 c0 bf 15 3e c1 40 1a 87 40
       0.35772723 -7.635463 -11.880309 4.2219543
000060 92 72 9d c1 74 2e 0f c0 75 16 47 c0 e4 4c e8 c1
       -19.680943 -2.2372103 -3.1107457 -29.037544
000070 9f ed 9d 41 0c 32 3f c0 dc b6 83 40 7a a8 1c 41
       19.741026 -2.9874296 4.1160717 9.791132

bn21.running_var f4 [32]
000000 ee 1e ac 42 7f 5f e4 41 c6 a8 4e 42 7d 27 7b 42
       86.06041 28.546629 51.664818 62.788563
000010 f4 67 47 42 74 7d 49 42 84 75 ca 41 23 49 2a 42
       49.851517 50.372513 25.30738 42.571423
000020 1b 69 42 42 f6 89 86 42 6a aa 7c 41 31 0d a1 41
       48.602642 67.269455 15.791605 20.131441
000030 c9 42 f2 41 f7 2e ce 41 0c c9 18 42 72 71 1b 42
       30.28261 25.772932 38.196335 38.860786
000040 13 e9 94 42 e0 a0 78 42 58 02 59 40 b6 a7 60 42
       74.45522 62.157104 3.390768 56.16378
000050 c5 27 87 42 47 2a e8 42 ab 21 2f 42 f3 0f 81 40
       67.577675 116.08257 43.78288 4.033197
000060 59 f9 5f 42 9f d2 18 42 cf 8b 94 42 55 04 a7 42
       55.993504 38.205685 74.27306 83.50846
000070 9c 86 ff 42 e8 ce 40 42 93 60 e3 41 d3 f8 6a 42
       127.76291 48.202057 28.422155 58.742992

bn22.weight f4 [32]
000000 1a 0a 7e 3f 92 df 8e 3f 05 61 88 3f 3b c6 a6 3f
       0.99234164 1.1161978 1.0654608 1.3029245
000010 74 23 d1 3f b6 b0 95 3f b6 33 8f 3f 3a 67 90 3f
       1.6338944 1.1694553 1.1187656 1.1281502
000020 59 5a ac 3f 52 04 8a 3f 70 7f 5d 3f 7f 60 a4 3f
       1.3465072 1.0782568 0.8652258 1.2841948
000030 41 b5 76 3f 9f ff 92 3f 6e 32 72 3f ae 37 a0 3f
       0.9637032 1.1484259 0.946082 1.2516992
000040 61 b2 89 3f e6 a2 9d 3f d5 52 57 3f 2a 00 8f 3f
       1.0757562 1.2315338 0.84110767 1.1171925
000050 a7 ee a5 3f 0c f0 96 3f 5d 88 0b 3f e5 02 8c 3f
       1.2963456 1.1792006 0.5450495 1.0938383
000060 87 b1 a5 3f 24 43 9b 3f 5d 23 d0 3f e8 84 8e 3f
       1.2944802 1.2129865 1.6260792 1.113431
000070 19 0b 6b 3f 58 5d ba 3f 96 2a 87 3f 52 51 3f 3f
       0.9181381 1.4559736 1.0559871 0.7473346

bn22.bias f4 [32]
000000 2a dd cf 3c d0 d6 1f c0 a5 74 60 bf 9e ab 1e bf
       0.025374014 -2.497486 -0.87677985 -0.6198062
000010 24 6c 3d c0 8c 0a fe bf b2 f4 53 bf 5b 40 87 bf
       -2.9597254 -1.9846969 -0.8279525 -1.0566515
000020 86 12 9c bf 50 58 2a be de 31 f6 be a9 11 0c bf
       -1.2193153 -0.16635251 -0.4808492 -0.5471445
000030 be 90 89 3d 03 f5 61 bf fb c6 2d bf 36 38 e8 bf
       0.067170605 -0.88264483 -0.67881745 -1.8142154
000040 28 93 16 bf 87 a1 62 be d2 d3 81 c0 ac 04 12 be
       -0.5881829 -0.2213193 -4.057107 -0.14259595
000050 3d 9a d6 bf 51 33 77 bf 9a 5d 7a c0 d3 01 78 bf
       -1.676582 -0.9656268 -3.911963 -0.96877784
000060 83 93 a3 bf 1d 57 9d bf 66 9b de bf ee 58 ac bf
       -1.2779392 -1.229221 -1.7391174 -1.3464639
000070 89 d6 f7 bf 6b aa 9e 3e 52 1c 9f bf d8 9b 16 bf
       -1.9362346 0.30989394 -1.2430518 -0.5883155

bn22.running_mean f4 [32]
000000 70 24 38 c1 d2 da a5 40 31 ac 76 c0 87 f3 a8 40
       -11.508896 5.1829615 -3.8542597 5.2797275
000010 5f b2 16 41 84 92 de 3f d5 55 82 c1 fc 4b cc c0
       9.418548 1.7388463 -16.29191 -6.3842754
000020 ea 26 94 c0 29 9a 0c c1 5b a1 55 c0 44 fb 41 c1
       -4.6297503 -8.787637 -3.3379734 -12.123844
000030 3c de 3c c1 09 f3 d7 40 bc 71 99 c1 a5 51 5c be
       -11.804256 6.7484174 -19.180534 -0.2151552
000040 1b 14 6d bf b1 8c 5d c0 25 f9 1d bf d4 07 6c c0
       -0.92608804 -3.4617121 -0.6170829 -3.6879778
000050 c0 05 21 c1 8a 2a 1c c1 93 19 87 bf 98 ae 41 40
       -10.063904 -9.7603855 -1.055468 3.0262814
000060 f7 cf 16 c1 57 fa 26 c1 15 14 1e 3f db 1d e0 40
       -9.425773 -10.436118 0.6174939 7.0036445
000070 da 2d c4 3e d9 65 82 c1 9e 7b 3d 40 9b 59 e9 be
       0.38316232 -16.29973 2.96067 -0.45576176

bn22.running_var f4 [32]
000000 85 60 a1 42 6e 46 b1 42 04 d1 e8 42 93 9b 21 43
       80.688515 88.63756 116.40823 161.60771
000010 a8 33 33 42 6c 7d 0b 42 03 3b f4 42 6b 68 62 42
       44.800446 34.872482 122.11526 56.60197
000020 68 71 37 43 25 7d 36 43 84 2d d1 42 90 c3 b9 42
       183.443 182.48885 104.5889 92.88196
000030 f9 b5 03 43 df d2 9b 42 63 72 19 43 e4 d0 2d 42
       131.71083 77.91186 153.44682 43.453995
000040 70 45 be 42 8d ed 29 43 4d 5f 6b 41 99 a5 86 42
       95.13562 169.92793 14.710767 67.32343
000050 26 5e 3f 42 a1 ae b1 42 3a 6d 28 41 01 69 93 42
       47.84194 88.84107 10.526667 73.705086
000060 d8 70 7f 42 5c ac 87 42 58 9f 59 42 9e 2e 88 42
       63.8602 67.83664 54.40561 68.09105
000070 e1 5c 45 42 42 26 12 43 34 91 8c 42 84 bf d2 42
       49.340702 146.14944 70.2836 105.374054

conv5.weight f4 [64, 32, 3, 3]
000000 4a a8 01 bf f2 53 ac be 4c e6 20 3f 9b 1d 65 3f
       -0.50647414 -0.33657795 0.62851405 0.894983
000010 43 1a 54 3f 73 47 25 bf c3 40 1c bf ab 41 4e bf
       0.8285257 -0.6456215 -0.6103632 -0.8056895
000020 a6 bc 98 be 41 7c d0 3c 35 94 91 bf 95 d5 89 bc
       -0.29831427 0.025449874 -1.1373354 -0.016825477
000030 fa fc 2b 3f af 9b 96 40 2e 36 33 bf de 37 59 bf
       0.67182887 4.7065043 -0.70004547 -0.8485087
000040 af 36 bd bf a7 08 d2 3e 35 9e 6e 3f 48 47 44 3f
       -1.4782313 0.41022226 0.93210155 0.76671267
000050 63 00 54 3f 54 e5 1c 3d 3b 17 8e 3f 44 50 ce 3e
       0.8281309 0.03830464 1.1100839 0.40295613
000060 68 07 9c 3e 4f f8 97 3e 42 56 10 3e 51 51 29 3d
       0.304744 0.29681632 0.14095405 0.041337315
000070 a5 de 69 3e f8 91 1a bf 8e f7 11 3f 3b 97 fe 3f
       0.22838838 -0.6037898 0.57018363 1.9889902
000080 5d db 82 bf 87 27 b5 be 29 45 b7 bb cc 32 9c ba
       -1.0223194 -0.3538172 -0.0055929613 -0.0011916994
000090 f1 a9 d8 be 97 d7 18 bf ba 2d 58 bf af f5 1b 3f
       -0.42317155 -0.59703964 -0.84444773 0.6092176
0000a0 4e e4 a3 40 05 05 46 bf eb ec 3c bf 94 a2 a9 bf
       5.121619 -0.7735141 -0.7379901 -1.325274
0000b0 a4 d0 26 be f9 f3 b4 3d 72 05 cc be 02 a2 bb 3e
       -0.16290528 0.088355966 -0.39847904 0.3664704
0000c0 79 e6 0e be 30 80 3b 40 60 6d 78 bf 33 30 25 bf
       -0.13955106 2.929699 -0.97041893 -0.6452667
0000d0 cc 50 e7 bf e2 f0 a5 3d 48 53 c0 bc 55 3e 87 3e
       -1.8071532 0.081025854 -0.023477212 0.26414743
0000e0 34 1e 25 3e c5 58 02 bf 17 23 be 3d 41 b9 99 3e
       0.16124803 -0.509167 0.092840366 0.3002415
0000f0 3b d3 4d 3f da 0a 80 3d fc 97 01 bf e8 38 1a be
       0.8040044 0.0625207 -0.50622535 -0.1506077
000100 56 1f 30 be 64 61 21 3e 62 f8 55 3f ab 8c dc 3d
       -0.17199454 0.15759808 0.8358213 0.10769018
000110 e0 b8 25 3f 50 0c 9b bd 97 aa 23 3f 13 d7 ac 3d
       0.6473522 -0.07570708 0.63932174 0.0843946
000120 5f a2 86 3e e2 b3 8f bd 54 a0 24 bf 8c 5b 0b 3d
       0.26295754 -0.07016732 -0.6430714 0.034022853
000130 2a 9a e9 be bb fb 07 40 76 e4 c5 3d 05 b8 14 be
       -0.4562543 2.1247394 0.09662716 -0.14523323
000140 e0 a4 41 bf 49 53 8a bd 59 0a 88 be 53 01 96 be
       -0.75642204 -0.06754167 -0.26570395 -0.29297885
000150 48 68 95 bd 2c 5d d2 be f2 50 71 3e f6 6f de be
       -0.07295281 -0.4108671 0.23566034 -0.43444794
000160 fa 7c c3 be 14 91 c9 be 9d 5b 8e 3e 92 bb 00 3c
       -0.38181287 -0.39368498 0.2780427 0.00785722
000170 00 8a e0 bd ab 1f 15 3e 9a cb e1 be 19 83 87 3e
       -0.109638214 0.14562862 -0.44100648 0.26467207
000180 8f 0a 1d bd 3e 3d 0e 3e db 57 9a be a1 83 5f be
       -0.038340148 0.1389055 -0.30145153 -0.21827556
000190 34 1a 9c bd a5 e8 5b be 94 d4 b6 3e 4d 03 c1 3e
       -0.07622185 -0.21475466 0.3570906 0.3769783
0001a0 4f 9c 0b bf ee b0 41 be 0b 3b 96 3e 35 e1 46 be
       -0.54535383 -0.1891515 0.2934192 -0.19421847
0001b0 3a 31 38 3f 55 f2 4d 3f 43 f7 0c bf 77 2f 3b 3e
       0.71950114 0.80447894 -0.5506479 0.18279825
0001c0 8a c3 b0 3e f1 38 79 3f 7b ea 51 3f a2 d3 0a 3f
       0.34524184 0.9735251 0.81998414 0.54229176
0001d0 69 1c 51 3f 20 86 d7 3e f1 d4 01 bf a3 73 84 3f
       0.81683975 0.42094517 -0.5071555 1.034779
0001e0 fb 85 f1 3e 82 46 82 3f 00 b7 d4 bf 36 24 a5 ba
       0.4717253 1.0177767 -1.6618347 -0.0012599293
0001f0 39 14 b2 3c ea c8 4b be 61 68 82 3e 3a 81 c1 be
       0.021738159 -0.19900861 0.2547026 -0.37793905
000200 47 bd 8a 3e 82 e3 f7 3d 3e 9a 50 3e 76 66 50 3f
       0.27097532 0.121039405 0.20371339 0.81406343
000210 36 da 35 3e 0a 87 db be 41 46 58 be 38 f8 22 bf
       0.17759022 -0.42876464 -0.2112055 -0.6366
000220 10 53 f6 be 9b da 29 be 41 01 09 3f fd c7 31 3e
       -0.48110247 -0.16587298 0.5351754 0.17361446
000230 d1 73 1c bf da 34 9b be 39 63 2a 3f 1a 67 b7 be
       -0.6111422 -0.3031376 0.6655765 -0.35820848
000240 ad 26 bd 3c 95 c0 e3 3e 40 83 16 be 81 97 5b be
       0.023089731 0.44482866 -0.14698505 -0.21444513
000250 79 03 1b 3e 1e 0b 42 bc 04 2d 3c bf ee 2e 4c 3e
       0.15138043 -0.011843471 -0.7350619 0.19939777
000260 f5 a5 72 bd fa 37 03 3f 22 b1 22 3d e6 67 b8 3c
       -0.0592403 0.5125729 0.03971971 0.02251048
000270 e6 96 1d 3f e4 b9 b8 3e 2f 98 09 3e 70 88 5f be
       0.6155838 0.36079323 0.1343696 -0.2182939
000280 60 2e 59 3c 6b 05 a9 3d 60 f2 1c 3f 18 65 c0 3f
       0.013255686 0.082529865 0.61307335 1.5030851
000290 8c 01 3f 3e 77 72 2e 3f f4 98 81 40 48 37 06 3f
       0.18652934 0.6814341 4.049921 0.524281
0002a0 22 52 8a 3d a7 d1 a1 be e2 16 25 be a9 e9 f8 be
       0.06753947 -0.31605265 -0.1612201 -0.4861577
0002b0 19 8c d8 3e 34 94 01 3f 41 82 34 be 18 63 be bd
       0.42294386 0.50616765 -0.17627813 -0.092962444
0002c0 5c b4 c7 bd 29 90 a1 be 9b e3 2c be 19 06 11 3f
       -0.09751198 -0.31555298 -0.168837 0.5664993
0002d0 46 07 fc bd 3e e6 75 bf 72 1f 37 40 76 63 50 3e
       -0.12306075 -0.96054447 2.8612943 0.20350441
0002e0 42 79 87 bf 10 04 8e be 0c 24 bb 3f b7 d1 98 be
       -1.058388 -0.27737474 1.4620376 -0.298475
0002f0 4f 4f 69 bf 9d f5 c5 3e 18 3f 73 be 98 72 fc be
       -0.9113664 0.3866395 -0.23754537 -0.49306178
000300 1d ee 1c 3e 72 88 11 3f e1 15 b8 3d fc 6b 03 be
       0.15325208 0.56848824 0.08988548 -0.12834162
000310 7a a4 dc be 49 8e ee 3e 49 76 1b 3f b4 06 a2 3f
       -0.43094236 0.4659293 0.60727364 1.2658296
000320 25 5b 13 bf 78 2d dc 3e 18 3b a5 40 70 eb 56 3f
       -0.5756095 0.4300344 5.1634636 0.83953
000330 0f 31 c7 3d 07 36 82 bf 02 2b 1f bf 4a 93 8e 3e
       0.09726154 -1.0172738 -0.62175 0.27846748
000340 83 75 35 3f 83 a2 78 be af 61 30 3e 81 f0 57 3e
       0.70882434 -0.24280743 0.17224763 0.21087839
000350 24 ff f8 3d d1 82 08 be 4c 6c 70 3e ab 79 d3 bd
       0.12158039 -0.13331152 0.23478812 -0.10325941
000360 ba 32 09 3e 32 48 d4 3e 91 ff 34 bf 80 95 43 3e
       0.13398257 0.4146133 -0.70702463 0.19099998
000370 a0 ea 4c bd 2d 32 ea 3d b0 b1 14 bd 2a e8 ea 3e
       -0.050028443 0.114353515 -0.03630227 0.45880252
000380 0e 51 c6 3e e9 f3 c0 bd 50 c7 0d 3f d9 a1 f2 3e
       0.38733715 -0.09421522 0.5538225 0.47389105
000390 83 af 4d 3c e8 52 f3 be ae 28 35 3f 0d 78 f3 3e
       0.012554052 -0.4752419 0.707652 0.4755253
0003a0 f1 71 ad bc e7 08 ff 3e 75 89 47 be 6b d2 c2 bf
       -0.021172496 0.4981148 -0.1948603 -1.5220464
0003b0 e5 fe 21 3f 49 42 a1 3d e7 f4 57 40 3e 4e 34 3d
       0.63279563 0.07873971 3.3743227 0.04401993
0003c0 2a 0c 27 bf 77 2c a9 bf df 8e 58 be d6 02 12 bf
       -0.65252936 -1.3216695 -0.21148251 -0.5703558
0003d0 70 a5 d3 be da a5 eb 3f a2 e4 83 3d 32 d3 c3 bf
       -0.41337156 1.8409989 0.064400926 -1.5298827
0003e0 f3 0d 5d be 34 76 d6 be 53 9c 92 3e e1 44 a5 3d
       -0.21587352 -0.41887057 0.2863489 0.08069778
0003f0 72 74 97 3e 2b eb ca 3e cc 54 3a bf 5e 6a ba bd
       0.29581028 0.39632544 -0.7278564 -0.09102319

conv5.bias f4 [64]
000000 e5 ab bb bc c6 ec a1 3c fa 0b e5 3c a4 7b 0f bd
       -0.022909114 0.019766223 0.027959812 -0.035030022
000010 f6 48 fc 3c cf 38 36 3c 1d ed 2a 3d 5b 2b bd bb
       0.03079651 0.011121943 0.041730035 -0.0057729906
000020 21 00 eb 3c 66 02 1a 3c 60 c9 9c 3c 0c 98 59 3c
       0.028686585 0.009399986 0.019138992 0.01328088
000030 80 81 76 3d b2 20 99 3b 9d 1d 97 bc 73 00 4c 3d
       0.060182095 0.004673087 -0.018446738 0.049805116
000040 43 eb 07 bd 2b 93 24 bd 22 c9 86 3d b4 97 2b bd
       -0.033183347 -0.040179413 0.06581332 -0.041892722
000050 a5 f6 09 3c 7f ee 0b 3c 23 ee 83 bc 09 78 06 3c
       0.008420621 0.008540749 -0.016104763 0.00820733
000060 36 65 da bc 61 43 f6 3c e9 f9 eb 3c ac ce 24 3b
       -0.02665959 0.030061426 0.02880569 0.00251476
000070 7b 7b 2c bb 8f 66 47 3b 74 54 06 3b 28 3a 24 bb
       -0.0026318717 0.003042612 0.0020497115 -0.0025059078
000080 eb ba 27 bd 3c 90 21 bc d8 0d 2d 3b 8b f9 32 bc
       -0.040949743 -0.009861048 0.0026405957 -0.0109237535
000090 5b 8f 2e bd ee f6 b9 bb 42 f5 b3 bc f4 f2 de bc
       -0.042617183 -0.0056751883 -0.021967534 -0.027215458
0000a0 50 54 af bb c0 11 4c bd 53 11 4f 3c 93 1d 2b bd
       -0.005350627 -0.049821615 0.012638408 -0.04177625
0000b0 02 92 00 bd 27 66 64 bc 0d f4 1e 3d ad 0b 2f bc
       -0.031389244 -0.013940371 0.038806964 -0.010683936
0000c0 0f 0a 0d ba 89 cb 20 bd 8a d2 28 bd 7b 88 11 bd
       -0.0005380222 -0.039256606 -0.04121641 -0.03553055
0000d0 3b 14 85 bd 3d c5 0e 3d 22 9a 91 bc 48 f0 6c bc
       -0.06497999 0.03485607 -0.017773692 -0.014461584
0000e0 2f 21 6e 3d 96 ad 40 3d d6 ca 32 3d bf 0d 98 3c
       0.058137115 0.047040544 0.04365047 0.018561242
0000f0 e3 cb 26 3d 75 c2 4c 3d 95 35 c2 bb 53 1d 8a 3c
       0.040721785 0.049990136 -0.0059267976 0.016859686
