checkpoints/best_model_1709_2.pth (torch, 304673 bytes, 37 tensors)

conv1.weight f4 [16, 1, 3, 3]
000000 78 b9 50 3e 1e ba 48 3c 85 a1 16 be df 6d e1 bd
       0.2038325 0.012251405 -0.14710052 -0.110072844
000010 b2 32 1f 3e 03 18 d8 be d6 bb 93 3e 2f 4d bb 3a
       0.15546682 -0.4220582 0.28854245 0.001428997
000020 76 82 46 be 7d f2 61 be c3 1d 27 be 37 73 e2 3d
       -0.19385704 -0.22065158 -0.16319947 0.11057132
000030 e3 ef 44 be f5 80 68 3d 73 c2 3a 3d ac 38 67 be
       -0.19232135 0.056763608 0.045595597 -0.22580212
000040 1a 47 e7 bc 10 01 4d 3e b3 e1 2c be b0 aa 91 bd
       -0.028232146 0.20019937 -0.16882972 -0.07112634
000050 1e 1a 8d 3e 84 83 95 bd 43 75 ca be 0d 83 94 3e
       0.27558988 -0.07300475 -0.3954259 0.29006234
000060 46 f2 40 3e 8e dc 67 be d8 08 ae be 16 e8 50 bd
       0.1884242 -0.22642729 -0.33991122 -0.051002584
000070 b7 8c fe be f6 44 8f be 38 76 ad be 47 3b b1 bc
       -0.49716732 -0.279823 -0.33879256 -0.021634711
000080 ad ec eb 3d d4 ff 0c 3e c5 00 fc bc 7d 80 af 3b
       0.11519752 0.13769466 -0.030762086 0.005355893
000090 9b df 74 3e 07 14 15 3e 5a ac ba 3c 7d 47 62 3e
       0.23913424 0.14558421 0.022787262 0.22097583
0000a0 d5 42 1e 3d 47 cb 87 3d 80 c3 9c 3b 62 c3 eb 3d
       0.038637955 0.06630569 0.0047840476 0.11511876
0000b0 3c 04 af 3e 43 43 ed 3d 37 7e 85 3e 89 a0 8d 3e
       0.34182918 0.11585095 0.26072857 0.2766154
0000c0 3a bc 08 3e 11 31 cb bd eb 26 86 3e 8a f5 14 3e
       0.13353053 -0.09921468 0.26201567 0.1454679
0000d0 8d d0 96 3e 16 4a 39 3e 75 28 09 3e a3 cb 0d 3c
       0.29455987 0.18094668 0.1339434 0.008654508
0000e0 46 81 cd 3c 75 08 58 3e 10 a3 b2 3d 0b 78 b7 3e
       0.025086056 0.21096976 0.08722508 0.35833773
0000f0 4d 5e a8 3d 8a 8c 1d be 8f 6d ab 3e 45 a5 26 be
       0.082211114 -0.15385643 0.33482024 -0.16273983
000100 5f e1 66 3e c7 71 81 3e d3 1c c1 3c 9b c9 e5 3e
       0.2254691 0.25282118 0.023573315 0.44880375
000110 0f 87 7b 3d 5d e6 5f be d2 30 8d 3e 30 9b 5e 3d
       0.0614081 -0.2186522 0.2757631 0.054347217
000120 76 72 f6 3d 61 ca 91 3e c4 11 9c bc af db 3d be
       0.120335504 0.28474715 -0.01905144 -0.18540834
000130 40 52 5c 3d be e3 f1 3c 30 a5 11 3d 16 ce 32 3e
       0.053789377 0.029527541 0.035557926 0.17461428
000140 82 76 8b 3e c8 f0 37 3d 71 2c 80 3e 44 5c 6b be
       0.27238852 0.04490736 0.25033906 -0.22984415
000150 f2 6d 90 bc d2 e1 b6 3d 4f 54 34 3e fb 96 97 be
       -0.017630551 0.089297906 0.17610286 -0.29607376
000160 a4 76 e2 be fe 89 04 3e 35 8a b7 3d 0c 17 78 bd
       -0.4423114 0.12943265 0.08961908 -0.060568854
000170 44 d6 61 be ca 22 fb 3d 84 20 d5 bd e5 ed ce be
       -0.22054392 0.12262495 -0.104065925 -0.40415874
000180 43 6c f7 bd 2f 88 22 be 76 f8 08 3d 0e 87 b4 be
       -0.12081196 -0.15872262 0.033440076 -0.3525929
000190 bd a1 c2 3d 77 f5 9a bc a2 69 d0 bd 41 46 f7 bd
       0.095035054 -0.018915875 -0.10176398 -0.12073947
0001a0 1b 45 6c 3e 28 fd 91 3c 31 6d ff 3c bb 0f 00 3e
       0.23073237 0.01782091 0.031179996 0.12506
0001b0 e3 a4 0f 3d 99 5a 83 3e 09 2d ee bd 90 5f dc 3d
       0.035069358 0.25655058 -0.116296835 0.107604146
0001c0 6f eb 26 3e 8d c2 3a be ac 35 16 3e 60 b3 4f be
       0.16300748 -0.18238278 0.14668912 -0.2028327
0001d0 09 d6 7a be 3a 70 77 be e9 38 69 be f7 3f c2 3d
       -0.2449571 -0.24163905 -0.22775616 0.094848566
0001e0 94 68 0b be 93 1e 46 3e 4c cf 8a 3e e8 24 ab be
       -0.13614112 0.193476 0.2711128 -0.33426595
0001f0 ec 47 41 3e b5 9a 95 3e 53 ee 80 be 21 9f 06 3e
       0.18875092 0.29219595 -0.25181827 0.1314664
000200 6b 01 7d 3e 8b 2c bf be 79 3b 65 be dd bb 97 be
       0.24707572 -0.3733867 -0.22385968 -0.29635516
000210 b1 b1 54 bd 1b 2e 0c 3e 83 58 22 3c c6 95 88 bd
       -0.051927272 0.13689463 0.009908798 -0.06669192
000220 3e 87 c1 be 07 f5 e1 bb 48 10 8a be 68 d8 8a 3d
       -0.37798494 -0.0068956646 -0.26965547 0.067795575
000230 b5 0f 1f 3d a2 15 68 3e c4 e3 f6 3d 59 78 0f bd
       0.03883334 0.22664502 0.120551616 -0.03502688

conv1.bias f4 [16]
000000 cb c6 49 bd 08 83 b5 3d 52 ee 10 bd c0 17 5d be
       -0.04926185 0.08862883 -0.03538353 -0.21591091
000010 f7 71 6c 3e 24 74 8e 3e b3 8e 86 bd bf 0e 82 be
       0.23090349 0.27822983 -0.065701865 -0.25401875
000020 3c 98 06 3d ae 2d 71 3e ec 5f db 3d ed 03 7e 3e
       0.032860026 0.23552582 0.10711655 0.24806185
000030 30 53 cf bd 02 b5 6f be 3f d6 90 3e ba 96 3c 3e
       -0.10123289 -0.23408893 0.28288457 0.18416873

conv2.weight f4 [16, 16, 3, 3]
000000 ec 5a 79 3c a1 86 4a 3d 97 23 3b bd 8a 8c 97 bd
       0.015219431 0.0494448 -0.045688238 -0.073998526
000010 f4 fc e0 3b 3e aa 38 3d 19 59 ee bc 7c ec 47 bd
       0.006866092 0.04508423 -0.02909522 -0.048809513
000020 04 df 05 bd 1a d9 59 bd 22 08 66 bd 1e 20 b3 bd
       -0.032683387 -0.05318556 -0.0561601 -0.0874636
000030 98 32 19 3d e4 32 1e bc 9f 63 56 bd 5e ac bc 3b
       0.037401766 -0.009655688 -0.0523411 0.0057578525
000040 a1 13 b7 bc 72 b1 f0 bd e7 4b 45 3c f1 e9 5b bd
       -0.022348227 -0.11752595 0.012042022 -0.0536899
000050 50 f8 b0 3d 8e 77 ef bc 91 22 6f bd 95 d1 a8 3c
       0.08641112 -0.029231813 -0.058382574 0.020607749
000060 c2 c7 48 3c e5 bf 3c 3c 3e fe 3a be 56 98 e3 bc
       0.012254657 0.011520361 -0.18261048 -0.0277826
000070 9d e1 4f bd f7 11 8a 3d b7 c7 fe 3c 76 8c 3f bd
       -0.05075227 0.06741708 0.03110109 -0.046764813
000080 3a 50 a6 3d 5b d0 92 3d 02 68 5a bd d4 fc a5 bb
       0.08120771 0.07168647 -0.053321846 -0.00506554
000090 68 e6 3a bc 50 b1 1c bd 5a eb 67 bd 74 0a 72 3d
       -0.011407472 -0.038255036 -0.056620933 0.059092
0000a0 1d 12 50 3d c7 77 67 3d 55 5d 7b bc ba 8e 8c bd
       0.050798524 0.056510713 -0.015342076 -0.068631604
0000b0 58 3d 6a bd 4c a8 71 bd ca 15 51 bd 07 4b 97 bd
       -0.05718741 -0.05899839 -0.05104617 -0.07387357
0000c0 a0 44 48 3d fc 3f 62 bd 6e 5e 54 bb 05 bb b6 bd
       0.04889357 -0.0552368 -0.0032404917 -0.0892239
0000d0 9d 6a 5b bd b8 b1 be 3d d7 7d 2a 3c d4 4d 2d 3a
       -0.05356847 0.09311241 0.010405979 0.00066110236
0000e0 fb 6e 9c bd 08 22 4e 3d d0 e5 f1 bc f0 d9 3b 3d
       -0.07638355 0.050325423 -0.029528528 0.04586214
0000f0 55 eb a4 3a 4e 18 6e bc 60 d1 0e 3d 3f a9 c4 3d
       0.0012582341 -0.014532162 0.034867644 0.09602594
000100 2b bc a4 3d 9a 9e b0 bd 56 dd 28 3d 5f f8 86 3d
       0.08043703 -0.08624001 0.041226707 0.06590342
000110 60 7a 92 3c c6 46 32 3d 90 d8 ff bb 87 65 8f 3d
       0.017880619 0.043524526 -0.0078077987 0.07001787
000120 f8 f6 5f 3d 91 6e 8e bd 45 55 85 bd 73 bf 22 bd
       0.054678887 -0.069546826 -0.065104045 -0.03973336
000130 21 cf 0b 3d 32 ce 97 bd 0a 46 9c 3d d9 0f a4 3d
       0.03413308 -0.074123755 0.076305464 0.08010835
000140 da d1 60 3d 90 78 28 3c 60 08 d8 3d 28 3b c5 3d
       0.05488763 0.010282651 0.105484724 0.09630424
000150 dd e5 58 bd e9 bf 3d bc d5 ca f3 bd 95 3e cb 3c
       -0.05295359 -0.0115813995 -0.119039215 0.024810115
000160 63 21 6e 3c 15 53 94 3c 11 56 01 be 14 0d 3a bd
       0.014534327 0.018106023 -0.12630488 -0.04542263
000170 f4 1d 1e bd ab 6b 9e bd 48 5c 6e 3d 8e 57 ea 3d
       -0.038602784 -0.0773538 0.058193475 0.11442481
000180 18 58 cf bc 6a 5b f5 bd ec c7 b2 bd 41 19 48 3d
       -0.025310561 -0.119803265 -0.08729538 0.04885221
000190 26 61 17 bc 21 14 24 bd fc 12 53 3d 95 c4 81 3c
       -0.009239471 -0.04005826 0.051531777 0.015840808
0001a0 d7 e7 32 bd d4 71 81 3b 17 a5 91 3d d2 9a 95 3c
       -0.04367813 0.003950337 0.071115665 0.0182623
0001b0 52 6d 01 be 64 de 9c bc 18 5f 10 3e 94 73 5f 3d
       -0.12639359 -0.019149013 0.14098775 0.054553583
0001c0 f5 7c 39 bc 1a b0 08 3d 18 74 29 3d 47 7b 50 bd
       -0.011321296 0.03337107 0.04137048 -0.050898816
0001d0 ad c9 79 3d 2f 0b 19 bc ff e5 ac 3b be ae e8 ba
       0.06098335 -0.009341045 0.005276441 -0.0017752273
0001e0 d5 00 87 bd 6f 0c 9f 3a 33 98 11 ba 2d 8e d4 bc
       -0.065919556 0.0012134443 -0.00055539905 -0.025946701
0001f0 33 3e ab bc 51 a6 ab bc 40 7f 23 bd b9 4a f7 3b
       -0.020903682 -0.02095333 -0.039916277 0.0075467494
000200 63 63 1b 3d 99 ff 29 3d 33 6f 07 3d 20 a5 07 bd
       0.03793658 0.041503523 0.033065032 -0.03311646
000210 be be 01 3e f5 56 51 3c 2a 9f c9 bd 90 df d1 3c
       0.12670419 0.01277708 -0.09844811 0.025619298
000220 fe 88 70 3d 3f 03 8b bd 50 24 e0 bc a8 66 59 bd
       0.058724396 -0.067877285 -0.027361065 -0.053076416
000230 fc 10 34 bd 63 ba a7 3c d7 40 a1 3d e1 5a 28 3d
       -0.04396151 0.020474618 0.07873695 0.041102294
000240 e1 d6 36 bd 94 24 28 bd 07 e0 8b 3d a9 e4 28 bb
       -0.04463852 -0.04105051 0.06829839 -0.0025771058
000250 a1 09 69 bd bc a1 83 bc 19 ee 86 bd ea 2e cc bc
       -0.05689395 -0.016068332 -0.06588382 -0.024924714
000260 7e 75 3d 3a a4 61 53 3d ac 31 a2 bd 31 34 0f bd
       0.00072272855 0.05160679 -0.079196304 -0.034961883
000270 f7 14 15 3d 45 d9 43 bd a5 7b 1e bd 03 b0 3b bb
       0.036396947 -0.047814626 -0.038692135 -0.0028638847
000280 e9 63 46 bd 35 b2 25 bd 68 6a ca bc ec 31 a1 bc
       -0.048435125 -0.040453155 -0.024708942 -0.019677125
000290 17 22 1b bd 7b c4 02 3c ad e2 8a 3c c1 da 83 3c
       -0.037874307 0.007981415 0.01695379 0.01609552
0002a0 dc 14 28 3a 9a 7c 69 3a 5c 17 9b bd 1f d2 44 bd
       0.00064117997 0.00089068117 -0.07572815 -0.04805195
0002b0 c9 81 c9 bd 23 ff d0 bc 9e ef 8f bd 30 e3 5b bd
       -0.09839208 -0.025512284 -0.07028125 -0.05368346
0002c0 8f 91 0c bd 05 8b 5b bc 50 6d 6d 3d 67 cc 59 bd
       -0.034318503 -0.013399844 0.057965577 -0.05317345
0002d0 8c 49 83 bc 07 00 9e 3d cc 92 2c 3d 17 e4 d1 bc
       -0.01602628 0.07714849 0.042132184 -0.025621457
0002e0 36 56 5f bd 7d 45 22 bd cd 3c 3f 3d 74 ee 37 3d
       -0.054525577 -0.03961705 0.046688844 0.04490514
0002f0 b9 06 f7 3c be 33 c2 3c d9 24 d5 bc 16 73 84 bd
       0.030154573 0.023706313 -0.026018547 -0.064672634
000300 52 81 0a bc d1 b2 b0 3d ea bf fc bc a7 08 45 3d
       -0.008453684 0.086278565 -0.03085323 0.048103955
000310 b8 62 1f 3d 31 be 0c be 3f ed 1c 3d 4c ad 9a 3d
       0.038912505 -0.13744427 0.038312193 0.07552585
000320 07 a3 59 bd 19 08 33 bd 80 65 4a bd 1d cd 46 bd
       -0.05313399 -0.043708894 -0.049413204 -0.048535455
000330 13 48 96 3c 39 54 ee 3c eb c5 10 be 39 4f 5b 3d
       0.018344915 0.029092895 -0.14138 0.05354235
000340 09 d4 f5 bb fe fc a0 3c 40 90 74 bd 31 0d da bc
       -0.007502083 0.019651886 -0.05970788 -0.026617618
000350 28 1d 0b 3d 29 06 83 bd fd 94 5a 3d 87 b8 9c bd
       0.033963352 -0.06397659 0.053364743 -0.07652383
000360 20 b3 ae bc 83 b7 88 3b 8f fc 58 3c 65 b5 69 3d
       -0.021325648 0.004172267 0.013243808 0.057057757
000370 e2 81 83 3d 4a fc dd 3c 5b 78 c0 3c fb 81 4b bd
       0.064212576 0.02709784 0.02349489 -0.049684506
000380 ed 37 f6 bc b4 5f 62 bd 19 1a 08 3d 78 6e 50 3d
       -0.030055964 -0.05526705 0.033228014 0.0508866
000390 96 9a 98 3d dc 85 88 3d 48 8f a8 bc 59 ae c0 3d
       0.0745136 0.06666157 -0.020576134 0.09408254
0003a0 92 a1 61 3d 10 c4 f2 3d 30 6f 93 bd ee ff 9a bd
       0.055085726 0.11853802 -0.07198942 -0.07568346
0003b0 7c 5d 35 3d 18 09 18 bc 56 64 48 bc 3c cd 7e 3d
       0.044278607 -0.009279512 -0.012230953 0.062207446
0003c0 ec 1a 13 3d 59 6e 27 bd 82 fd e1 bd fc 51 87 3a
       0.035914347 -0.04087672 -0.11034681 0.0010324116
0003d0 7b d8 3f 3d 61 c6 89 3b 81 4a 33 3d dd d5 5e 3d
       0.04683731 0.004204557 0.043772224 0.054403175
0003e0 52 5a 2e bc 4e 1d c1 bc 02 c1 75 3c 6e 3e 01 3d
       -0.010641651 -0.023573544 0.01499963 0.03155368
0003f0 8b 09 b6 3c 69 0c 90 3d 6d 46 dd 3c 31 aa a8 bd
       0.022221347 0.07033617 0.02701112 -0.082355864

conv2.bias f4 [16]
000000 ff c2 9f 3d 27 ff 35 bd 2a ad b0 bc 37 6a d3 3c
       0.078008644 -0.044432785 -0.021566946 0.025807483
000010 44 5a 97 3c 5d 5d 97 bd e4 1d 17 bc be 47 82 3d
       0.01847566 -0.073908545 -0.009223435 0.0636134
000020 65 6f 5e bd 7e 59 47 bd 86 97 84 bc 4e 3c ac bc
       -0.054305453 -0.04866933 -0.016185533 -0.02102485
000030 20 b9 d1 3b 11 88 44 3d 73 51 7b bd 4f f4 47 3d
       0.0064002424 0.047981326 -0.061356973 0.048816975

bn11.weight f4 [16]
000000 ce 90 6b 3f 55 f5 85 3f 7d 42 83 3f ff e9 8f 3f
       0.9201783 1.0465494 1.0254666 1.1243285
000010 22 5a 74 3f 4b fc 7c 3f c6 e5 77 3f f8 ad 81 3f
       0.9545003 0.9882247 0.9683498 1.0131216
000020 9c 78 75 3f 42 1c 7a 3f 29 d0 92 3f 56 a6 7d 3f
       0.9588716 0.9769937 1.1469775 0.99081933
000030 fd e2 7f 3f 78 41 7e 3f 90 82 87 3f 00 09 83 3f
       0.9995573 0.9931865 1.058672 1.0237122

bn11.bias f4 [16]
000000 ba d9 40 3c a1 50 90 bd 12 69 9f 3d b0 98 35 bd
       0.01177066 -0.07046629 0.077837124 -0.044335067
000010 20 ad 48 3c 05 72 26 bd e2 75 24 3d 2f 1c 99 3d
       0.0122483075 -0.04063608 0.040151484 0.07476079
000020 8f 0e e4 3d 07 18 95 3c 34 b6 9c bc 01 f5 41 bd
       0.11135589 0.018199934 -0.01912985 -0.047352795
000030 72 a0 00 bd 64 e9 06 3d dd 25 86 bc 73 f1 5a 3d
       -0.031403013 0.032937422 -0.016375476 0.05345292

bn11.running_mean f4 [16]
000000 c8 da 55 bd 16 8b a9 3d 42 6c 2f bd c1 1d 6b be
       -0.0522106 0.08278482 -0.042827852 -0.22960569
000010 b2 d8 7d 3e da e5 99 3e e9 c3 4d bd ed 07 76 be
       0.24789694 0.30058175 -0.050235663 -0.24026461
000020 de 9a 33 3d a1 b9 6c 3e ca 62 c3 3d 82 b0 7c 3e
       0.043848865 0.23117687 0.09540327 0.24676707
000030 55 66 d0 bd bc 40 6e be e3 e7 8b 3e 7c 1a 38 3e
       -0.10175768 -0.23266882 0.27325353 0.17978853

bn11.running_var f4 [16]
000000 d2 df 38 3a 4b 44 11 3a 49 70 7b 3a 04 52 95 3a
       0.0007052395 0.00055414875 0.0009591622 0.001139224
000010 dd 94 65 3a 93 6e aa 3a 3d e8 53 3a 40 68 7f 3a
       0.0008757839 0.0013002924 0.00080836174 0.00097430125
000020 2c 01 e1 39 a6 32 3e 3a 1a 9d 37 3a 30 89 cd 39
       0.00042916217 0.0007255472 0.0007004306 0.0003920286
000030 69 c7 0f 3a 9b 57 56 3a 05 1f 48 3a 15 70 0c 3a
       0.00054847315 0.00081765064 0.0007634017 0.00053572777

bn12.weight f4 [16]
000000 9b 2f 7e 3f 07 61 7e 3f 1d 21 7c 3f 1c af 82 3f
       0.9929139 0.993668 0.98488027 1.0209689
000010 f0 a2 78 3f 1e ae 88 3f ba 32 7e 3f e2 20 84 3f
       0.9712362 1.0678136 0.9929615 1.0322535
000020 fb d7 83 3f 23 be 76 3f eb 26 80 3f d2 4b 7c 3f
       1.0300287 0.96383876 1.0011877 0.9855319
000030 19 dd 81 3f 22 10 69 3f 2b 39 7d 3f 10 38 7b 3f
       1.0145599 0.9104024 0.98915356 0.9813242

bn12.bias f4 [16]
000000 6c 34 40 3c 55 e1 fd 3c e3 88 61 3c 32 ec dc 3c
       0.011731248 0.030991236 0.0137655465 0.026968095
000010 a7 7f 55 bd c9 30 66 ba 25 b5 fb bb a8 b1 84 3d
       -0.052123692 -0.0008781073 -0.007681506 0.06479198
000020 ef ba d5 3c 2f 53 20 3c 04 2c 06 3c 34 0a a6 3c
       0.026090113 0.0097854575 0.008189205 0.020268537
000030 4d d7 f4 3c 11 0a ae 3c 64 68 5a 3c 9f 42 7e 3d
       0.02988782 0.021245034 0.013330553 0.062075254

bn12.running_mean f4 [16]
000000 73 2a bc bd 7f 35 91 be 52 07 f2 be 3a 76 fc 3e
       -0.09187784 -0.28361127 -0.4727121 0.4930895
000010 1d 09 3e 3d 46 4b 3f bf 6c 03 16 bf 33 aa 8e 3d
       0.04639541 -0.74724233 -0.5859897 0.06966057
000020 3c e9 c6 be d4 78 26 be f9 e0 5a 3d 15 cf 33 3e
       -0.3884982 -0.1625703 0.053437207 0.17559464
000030 f8 45 77 3c c6 b9 8a be 78 fb 11 3d ab 30 28 3e
       0.015092365 -0.2709486 0.03564021 0.16424815

bn12.running_var f4 [16]
000000 1e 88 54 3e a4 b2 7d 3e ed 2d 8a 3e 04 96 95 3d
       0.2075505 0.24775177 0.26988164 0.07304004
000010 21 e6 02 3e 97 6e 84 3e 49 6e 9a 3e c6 c5 4c 3e
       0.127831 0.25865623 0.30162266 0.1999732
000020 75 53 53 3e 93 e3 7c 3e 3c a5 f3 3d bf f8 8d 3e
       0.20637305 0.24696188 0.1189675 0.2772884
000030 8f 92 80 3e 78 89 12 3e 02 c4 81 3e 0a 76 ac 3e
       0.25111815 0.14310253 0.25344855 0.33683807

conv3.weight f4 [32, 16, 3, 3]
000000 19 39 22 3d 5e 41 31 bd a3 d5 eb 3c 1f d3 0b bd
       0.039605234 -0.04327523 0.028788393 -0.034136888
000010 ca a1 0c 3e 6f 10 73 3d 7e 22 4a 3d 02 f7 42 3d
       0.13733593 0.059341844 0.0493493 0.047598846
000020 c6 97 cb bc 54 00 05 3d 7a b1 b1 bd bf 18 a1 3d
       -0.024852645 0.032471016 -0.08676429 0.07866048
000030 f4 28 aa 3c 66 1f 08 3d b9 1b c0 3a 6d 3f c8 3d
       0.020771481 0.03323307 0.00146567 0.097777225
000040 81 9c 19 3b 14 f1 2c bc 03 d3 04 3e 5e c6 10 3d
       0.002343923 -0.010555524 0.1297112 0.035345428
000050 ee 5a 44 3d 98 97 24 bd ed 9d 18 3d 12 84 28 bd
       0.04793828 -0.040183634 0.037259985 -0.041141577
000060 26 5b f9 3b 3e af 7e 3d b7 6c bc 3d 89 d2 20 3c
       0.0076097427 0.062178843 0.09200423 0.0098158205
000070 22 cd 24 3b bf d4 99 bd f4 7f 02 be 99 bd 81 bd
       0.0025146683 -0.07511281 -0.12744123 -0.06334991
000080 1f a5 fd bd 7a 39 95 bd 13 2a 3d bd f6 92 10 bd
       -0.1238501 -0.072863534 -0.046182703 -0.035296403
000090 f7 30 5b bd b0 6a 6b 3d ee b5 e0 3b ae 69 ac bc
       -0.053513493 0.057474792 0.006857625 -0.021046486
0000a0 6a d2 92 3c 52 b4 28 bd e7 b6 18 bd 01 d8 58 bc
       0.017922599 -0.04118759 -0.037283804 -0.013235093
0000b0 08 77 97 bc 05 71 de 3d 79 8a 47 bd 07 99 25 3d
       -0.018489376 0.108614005 -0.048716042 0.04042914
0000c0 35 ff e9 bb d5 76 6e bd d8 ed c0 3b 5e 07 36 3d
       -0.0071410188 -0.058218796 0.005887728 0.04444062
0000d0 7f c3 e5 bc 43 ad c6 bc 8f ec 8c bb 3f 41 14 bd
       -0.028047321 -0.02425254 -0.004300661 -0.036195036
0000e0 19 3f d9 3c e3 8e 1e 3d 33 ce b3 bc fe 2c 76 bd
       0.026519345 0.038710486 -0.02194891 -0.0601015
0000f0 50 40 3c 3d f1 2b 5b 3c 7f 1b 9b ba 7c f5 a4 3d
       0.04595977 0.013377176 -0.0011833756 0.08054635
000100 c8 99 0c 3d 2d dd 3a 3d 12 96 e4 3c 8d 1d e4 3d
       0.034326345 0.045621086 0.02790359 0.11138449
000110 ae ea 14 3d a5 c3 10 bd bf 77 33 3b 1b 8d 0e bd
       0.03635662 -0.03534283 0.0027384607 -0.034802537
000120 09 78 05 3d 69 4e d6 3d 79 a3 e2 3c 82 75 25 bd
       0.032585178 0.10464174 0.02766584 -0.040395267
000130 4c a4 4a bd 25 a2 1c 39 6f dc bb 3d fe 67 10 3d
       -0.049473092 0.00014937723 0.09172904 0.035255425
000140 5e 22 5a bd 5d f3 8a bd 5b f7 b5 bc b7 4f 51 bd
       -0.05325543 -0.06784699 -0.022212675 -0.051101413
000150 49 b9 57 3c 92 b8 ff 3c 97 77 a6 3d e9 c4 12 3d
       0.013166734 0.03121594 0.08128279 0.03583232
000160 12 c0 5e 3d 40 80 b5 bc 72 a1 93 3c 92 21 45 bd
       0.05438239 -0.02215588 0.018021319 -0.04812772
000170 36 0f a5 3c d1 08 04 3c e8 18 21 3d 41 22 c7 3d
       0.020148855 0.008058743 0.039330393 0.0972333
000180 8f c8 34 bd 60 2a 9c bc b4 05 0e bd 2e 95 63 bd
       -0.04413658 -0.019063175 -0.034673408 -0.05556219
000190 b8 1b 3e bc bb 05 35 bd f4 4f 51 3d c8 55 78 bd
       -0.011603288 -0.044194918 0.05110164 -0.060628682
0001a0 23 3c 1f 3c e9 b4 a0 3d 42 d6 03 3c da 6e 09 bd
       0.009718928 0.07847006 0.0080466885 -0.033552982
0001b0 30 74 92 bd 1d c1 8e bd dd 20 6b bd 63 a2 1f 3d
       -0.07151067 -0.06970427 -0.057404388 0.038973223
0001c0 10 62 d1 bd 2f a7 14 bd 19 fa 89 3d 94 85 9d 3d
       -0.10223782 -0.03629225 0.067371555 0.07691494
0001d0 b7 88 82 3d 53 e1 0c 3d 35 51 1a bc 5b d5 30 3d
       0.063737325 0.034394573 -0.009418775 0.04317222
0001e0 f8 6a 0d 38 a4 1d cc 3c 0f 47 26 bd 16 41 81 3c
       3.3716642e-05 0.024916478 -0.04059511 0.015778106
0001f0 e5 9d 96 3d 3e ea 87 3d 74 b8 12 3d 9a 30 c4 3c
       0.07354335 0.06636475 0.03582044 0.023948956
000200 dd 90 22 3b 8e 4f cf bb b9 87 44 3d 4a 3b cb bd
       0.0024805584 -0.0063266223 0.047980998 -0.09923418
000210 8a 94 22 3c ce 26 48 3d 70 57 65 3c f2 93 53 3d
       0.00992311 0.048865132 0.0139978975 0.051654764
000220 b3 98 66 3d c6 0c 13 3d 66 79 94 bd 38 4d 2e bc
       0.05629797 0.035900854 -0.072497174 -0.010638528
000230 97 dc 1d 3c cc c5 42 3d 02 87 e1 3b 15 92 1e 3d
       0.009635112 0.047551915 0.0068825493 0.038713533
000240 db c7 25 3c e4 57 60 3d 02 ed 81 bc fa 33 9a 3d
       0.01011845 0.05477132 -0.015860084 0.07529445
000250 25 4e df bc 83 f1 64 3d e7 11 86 bb e4 7b 09 bc
       -0.027258942 0.055894386 -0.0040914896 -0.008391354
000260 0e 5e 1a 3d 9e 2a 0d bd ec 21 85 3c 06 1b 2b bd
       0.037687354 -0.03446447 0.016251527 -0.04177382
000270 9b b1 05 3d 56 f9 0e bc b9 b7 b7 3c ea f4 85 bd
       0.03264008 -0.0087264385 0.022426473 -0.06540854
000280 bb 9b 43 bd 41 38 39 bd 77 e7 31 bd 86 41 89 bd
       -0.047755938 -0.045219664 -0.043433633 -0.06701951
000290 99 02 29 bc 5c 8b 3b bc 58 d1 86 bd 4d 4c 4f 3d
       -0.010315561 -0.0114468 -0.06582898 0.050609875
0002a0 f1 ec 8d bc 9c 62 47 bd 79 6a 91 bd f4 47 6c bb
       -0.017324897 -0.048678026 -0.07100386 -0.003605363
0002b0 42 2f d7 bc 95 30 c8 3b e8 9f 60 bd e2 ee 9a bd
       -0.026267651 0.006109307 -0.05484 -0.075650945
0002c0 43 2e 9d 3c c0 23 05 bd 70 05 19 bd 0c 8e b9 bd
       0.019187098 -0.032504797 -0.0373587 -0.090602964
0002d0 57 af 8b bd ad d4 3f bd 10 cc 14 3c ab f1 3e bc
       -0.06820553 -0.046833683 0.009081855 -0.011654298
0002e0 67 89 7c bd fb 2a 3a 3d e8 3d 0d 3d 8f 00 8d bd
       -0.061654475 0.045451146 0.034482867 -0.06884872
0002f0 50 f2 42 3c 60 7d 3e 3d ce d6 00 3c b6 15 58 3d
       0.011898592 0.046506286 0.007863713 0.05275508
000300 86 90 2a 3d 76 fa 92 3c c1 ea d5 bc 9e 03 36 3d
       0.041641735 0.017941695 -0.026112916 0.044437043
000310 9c f9 82 3d 54 32 1f bd 4e 70 26 bd 5e 78 86 3c
       0.063952655 -0.038866356 -0.040634446 0.016414817
000320 58 94 64 3c e5 24 62 3d 45 3e 3c 3d f1 7b 4b 3d
       0.0139513835 0.055210967 0.045957822 0.049678747
000330 44 3d 10 bd b7 83 3e 3c 28 bd c9 bc 8b 45 92 bd
       -0.035214677 0.011628083 -0.02462633 -0.071421705
000340 05 9a 54 bd 1d 90 44 bd 61 16 82 bc 82 9a bf bd
       -0.051904697 -0.047989 -0.015879812 -0.09355642
000350 ec 1d 3b 3d 5c e4 cd 3a 40 ac 58 3d 30 9e 3b bd
       0.045682833 0.0015708315 0.052898645 -0.045805156
000360 73 af 02 3d 2f ae 7d 3d a2 d1 aa 3c 47 1f a9 3c
       0.031905603 0.061933693 0.020851914 0.020644797
000370 13 7f 00 3e 53 91 be 3c 52 89 d5 3b b2 6d 3d 3d
       0.12548475 0.023262655 0.006516614 0.04624719
000380 07 07 2f 3d df c8 84 3d 56 ea 85 3d 42 03 72 bd
       0.04273131 0.064836256 0.06538837 -0.05908514
000390 65 18 6e bd 87 0b 1e bd d1 6f 70 bd ca 57 7c 3d
       -0.058128733 -0.038585212 -0.058700386 0.06160716
0003a0 1d ec f6 bc cc 77 42 39 20 8e b1 3d 58 e6 c5 3c
       -0.030141884 0.0001854591 0.08669686 0.024157688
0003b0 f1 d3 c6 ba 8d a4 f8 3c d6 18 12 bd 5c a3 70 bd
       -0.0015169365 0.030351901 -0.035668217 -0.05874954
0003c0 b6 b0 54 3d 6a 94 87 3c 5c 33 c9 bd c0 9a 63 bd
       0.051926337 0.016550262 -0.09824249 -0.055567503
0003d0 42 b2 83 bc df f4 b3 3c 4b ca 9e bc 96 5e 08 bc
       -0.01607621 0.02196735 -0.01938357 -0.008323332
0003e0 a5 0e c7 bd 6e 77 66 bd 2f be 41 3d 42 46 88 3c
       -0.0971959 -0.05626624 0.047300514 0.016635064
0003f0 53 dc 8a bd 03 ff 26 3d b3 1e 8d 3d 12 35 53 3d
       -0.06780305 0.040770542 0.06890621 0.051564284

conv3.bias f4 [32]
000000 5d 57 52 3d f5 0a 46 3d cc 4e b7 3c 5a f7 92 3c
       0.051352847 0.048350293 0.02237644 0.017940212
000010 10 75 c9 bc 19 09 3f ba 90 99 08 bc 47 00 88 bc
       -0.024591953 -0.00072874274 -0.008337393 -0.016601695
000020 f4 b4 6c 3d ad 64 aa bc 53 ef 9c 3d ef 26 9d 3b
       0.057789758 -0.02079996 0.07662835 0.004795901
000030 22 e0 31 3d 17 75 73 3d b4 11 7a bd 1f 18 d5 bc
       0.04342664 0.059437837 -0.06105204 -0.026012478
000040 13 3c df 3c 16 3c 9f bd 27 ab ab bc df cc 7b bd
       0.027250325 -0.07775132 -0.020955635 -0.061474677
000050 2f 22 1d bc 2f 77 70 bd 03 d1 11 3c 4e 6f a7 3d
       -0.00959067 -0.058707412 0.00889993 0.081755266
000060 f7 90 9b bd 75 c0 0f bc 3f f8 97 bd 61 14 40 3d
       -0.07596009 -0.008773913 -0.07420396 0.046894435
000070 3d 0f 78 bd 6c a5 75 bd 20 b6 1f 3d 49 d2 2b bd
       -0.060561407 -0.05997221 0.038992047 -0.04194859

conv4.weight f4 [32, 32, 3, 3]
000000 11 6f 19 bd 87 39 43 bd 06 47 37 3d f8 30 1c 3d
       -0.037459437 -0.047662284 0.044745468 0.038132638
000010 b5 52 c3 3c 38 0a 28 bd 50 30 23 bd ac fa 47 bc
       0.023843149 -0.04102537 -0.039840996 -0.012205761
000020 05 f0 b1 bc a8 54 63 3c aa e8 7f 3c 80 11 01 bc
       -0.021720896 0.013875164 0.015619436 -0.0078777075
000030 6f 19 7b bc 85 0a 81 bc 9e c2 01 3d e7 c3 84 bd
       -0.015325888 -0.015752086 0.031679742 -0.06482678
000040 a5 28 c7 bc 7d 55 fb bc d5 98 38 3d b0 69 eb 3b
       -0.024311373 -0.030680412 0.045067627 0.00718423
000050 d5 1a 69 bc 1e 08 9c ba cc e0 f9 bc ce 5b 25 3c
       -0.014227589 -0.0011904275 -0.0305027 0.010092689
000060 28 f0 08 3b ff 06 5c 3d 05 00 b0 3c 90 27 31 bd
       0.0020895097 0.05371761 0.021484384 -0.04325062
000070 ce 73 0b 3c 70 b0 1f 3d f7 29 be 3b d6 1b bc bc
       0.008511497 0.038986623 0.0058033424 -0.022962492
000080 7d 76 7e bc 40 e3 4f 3c da 66 a8 3a 0f 36 01 bc
       -0.0155311795 0.012688458 0.0012848035 -0.007886424
000090 6c 80 4e bd 7a de 01 3d 15 60 a4 bc 67 f4 77 3d
       -0.05041544 0.03170631 -0.020065347 0.060535815
0000a0 55 ac c4 3c 9b 87 51 bc 95 a1 ff 3b b5 c1 8b 3c
       0.024007956 -0.0127886785 0.0078012445 0.01706014
0000b0 2e 7b 28 3a 34 74 94 3c 5c 70 bc 3c a6 5e 91 bd
       0.00064270466 0.018121816 0.023002796 -0.07098131
0000c0 a2 8c b5 3c ef f7 8e bd 40 83 89 bd fe ba 44 bd
       0.022161786 -0.06980883 -0.06714487 -0.048029892
0000d0 72 d4 91 3b be ee 01 bd 69 f7 82 bd f9 71 1a 3d
       0.0044503743 -0.031721823 -0.06394846 0.03770635
0000e0 90 59 28 bb ca 38 64 bd 54 7d 5e bd ec a1 c3 3c
       -0.002568815 -0.05571822 -0.05431874 0.023880921
0000f0 83 bb 99 bd 55 b9 4f bd 83 98 92 bd 7e 0d d0 bb
       -0.07506468 -0.050713856 -0.071579956 -0.0063492646
000100 ba 16 5a bd e2 73 e1 3c d7 69 a4 3b 4e 79 33 3c
       -0.05324433 0.027521078 0.0050175 0.010954214
000110 bc a7 7b bd 62 f6 bd bc be 85 6e bd e6 9c 1f 3b
       -0.06143926 -0.023188774 -0.058233015 0.0024354993
000120 6a 3b 85 3d 8c ac 8c bd 94 44 f2 bb cd 94 00 bd
       0.06505473 -0.06868848 -0.007393429 -0.031391907
000130 a9 51 23 bd 8e 5f e3 bc c9 fd 71 bd 40 67 a3 bc
       -0.0398728 -0.027755525 -0.05907992 -0.019946694
000140 65 1c 5a bd 67 9a 5a 3b 4d 31 30 3c 3f df 5f 3d
       -0.053249735 0.003335619 0.010753942 0.054656263
000150 48 e6 1d bd f7 c8 26 3c 64 0a de bc 44 d7 ab bc
       -0.03854969 0.01017975 -0.027104564 -0.02097667
000160 4a e7 b9 3c 37 43 a2 3c 86 30 5b 3c 3c 01 c7 3c
       0.022693295 0.019807441 0.013378268 0.02429258
000170 0b 9c 00 3d 0b ba b9 bb af 9b 2e 3d b0 34 53 3b
       0.031398814 -0.00566793 0.04262894 0.003222745
000180 61 3d 08 bb 7c dc b0 bc a5 4c 4d 3c 3f 4c 38 3d
       -0.0020788538 -0.02158951 0.0125304805 0.04499459
000190 6a 39 b5 bb 29 b1 3a 3c a1 09 e2 bc de 6f 6c 3b
       -0.005530526 0.011394777 -0.027592482 0.003607742
0001a0 7a c0 ad 3c 11 e6 74 3c 9f 72 16 3c 16 dd 21 bd
       0.021209944 0.01494743 0.009182601 -0.039517485
0001b0 4c 27 0a 3d 71 84 9d 3b 8c de 97 bb 47 ca 15 bc
       0.033728883 0.004807048 -0.004634684 -0.009142465
0001c0 c4 be bc 3c 37 d9 ec bc 1b 40 68 3d c5 55 57 3c
       0.023040183 -0.02891217 0.05670176 0.013143008
0001d0 76 11 a7 3c 13 b1 25 3d e0 f7 60 3d 34 0e 01 3b
       0.020394068 0.040452074 0.054923892 0.0019692304
0001e0 16 68 16 bc 0d 30 71 3b 1b 9c e1 3c 08 74 43 3d
       -0.009180089 0.0036802322 0.027540257 0.047718078
0001f0 35 1d 19 3c 9c 35 2d 3d c9 49 11 3d 6b cf 0a bc
       0.009345342 0.042287454 0.035470758 -0.008472304
000200 c9 90 0f 3d 42 41 05 bd d0 0c 16 bd 9a d5 29 bd
       0.035050187 -0.032532938 -0.036633313 -0.041463472
000210 21 d4 9d 3c 5c 49 8b bd 5a e3 8b bd a6 ce 5e bc
       0.01926619 -0.068011016 -0.06830473 -0.0135990735
000220 b8 35 6b 3d ae b6 c4 3c 24 d6 bf bc 10 eb 2a 3d
       0.057424277 0.02401289 -0.02341754 0.04172808
000230 82 a6 06 3d 27 7b 09 bc 37 22 24 bb da e1 4b 3d
       0.032873638 -0.008391178 -0.0025044808 0.049775936
000240 3f 35 75 3c 52 53 ae bc 24 92 71 3c 47 75 9d 3b
       0.014966308 -0.021279965 0.014744315 0.0048052403
000250 15 fe 51 bc 5f 29 17 bd 8b 56 01 3d 63 e7 e2 3c
       -0.0128169255 -0.03690469 0.031576674 0.027698224
000260 91 be 43 bc f6 28 a3 3c 60 42 64 bb 2c e4 ea bc
       -0.01194729 0.019916993 -0.0034829602 -0.028673254
000270 94 5c df 3b fb dd 01 3c cd c5 16 3d 6a c5 f0 3c
       0.006816456 0.007926459 0.03680973 0.02939101
000280 fe 22 b2 bb fd 77 83 bc 4c 5c 18 bc 80 09 5b bc
       -0.0054363003 -0.016048426 -0.009299349 -0.013368964
000290 ca 41 1d 3d 0b 61 86 bc c1 e5 8c 3c 7b 25 10 3c
       0.03839282 -0.016403696 0.017199399 0.008797999
0002a0 9c 1c c9 3c ac 14 b4 bc 98 7f 11 3d f4 83 cc 3c
       0.024549775 -0.021982513 0.035522074 0.024965264
0002b0 be e4 36 bd 98 be 66 bd 3c b3 fe 3c 01 21 0a 3c
       -0.04465174 -0.056334108 0.031091325 0.00843072
0002c0 06 47 dd 3c 27 da 13 bd d2 18 24 3d cd 37 62 3d
       0.027011406 -0.03609672 0.040062733 0.055228997
0002d0 7c a3 9b 3c 1b 18 69 3c dc 2f d7 bb 6b 2c a9 bc
       0.018998854 0.014226939 -0.0065669846 -0.020651063
0002e0 b3 86 6d bc 22 cf 98 bc d2 41 1a 3c 43 80 77 bd
       -0.014497447 -0.018653456 0.009415107 -0.060425054
0002f0 9f 01 8a ba 23 4d 0a 3d 6e 93 6d bc e5 bc 6e 3d
       -0.0010529048 0.03376497 -0.014500482 0.058285613
000300 ef d0 bf 3b 49 ec f5 bc 5a e7 79 3c f4 11 0b 3d
       0.0058537642 -0.030019896 0.015252912 0.03395267
000310 22 5a 82 3c 9d 0a f9 bb 4e 2c 79 3c 95 ac e3 bb
       0.01591212 -0.007600142 0.015208317 -0.0069480636
000320 a4 fc 0f bd b4 9a 2d bd ce 7e 1a 3d af 6a 03 3d
       -0.035153046 -0.042383865 0.037718587 0.032084163
000330 a4 f5 02 3c 7e 9c 0e 3d 83 10 0c 3c 1d 16 1d 3d
       0.007993136 0.03481721 0.008548859 0.038351167
000340 4a 5a 1e bd 12 1e 14 3d 21 c4 0a 3d da 1e a7 bc
       -0.038660325 0.03616149 0.03387845 -0.020400453
000350 d9 14 16 bd 68 7f 14 3d a0 e1 43 ba 21 75 ae 3b
       -0.036640976 0.036254317 -0.00074722804 0.0053240214
000360 38 e9 05 3d 06 44 49 3c 3f 47 20 bd b6 92 de 3b
       0.032693118 0.012284284 -0.039130446 0.0067923917
000370 78 da 55 3c 33 ff d5 3c b6 07 a3 bc 81 f3 c7 bc
       0.013052575 0.026122665 -0.019901138 -0.024408104
000380 37 07 40 bd e9 44 ea bc 47 ba 14 3d 8f 2c 4d bc
       -0.04688188 -0.028597312 0.03631046 -0.012522831
000390 ed ff 92 ba 9d 86 eb 3c b2 d6 9d 3c 32 4b e2 bb
       -0.0011215188 0.028750712 0.019267414 -0.0069059366
0003a0 87 ce 30 3b dc 3c 3b 3c 40 c9 5c bd 11 4c 19 3d
       0.0026978569 0.011428084 -0.053902864 0.03742606
0003b0 e9 84 02 38 d4 92 f2 bb 03 84 bf 3c 93 0b 81 3b
       3.1118198e-05 -0.007402757 0.023378378 0.0039381473
0003c0 c2 c5 35 bd 49 46 03 3d ca 70 4f bb ef d1 e0 bc
       -0.04437805 0.03204945 -0.003165292 -0.027443854
0003d0 c6 7c f4 bc 43 08 2c 3d 99 67 03 3d b8 c2 a3 3b
       -0.029844653 0.042000066 0.03208122 0.0049975775
0003e0 87 7b 1c 3d 88 d9 3b bd 38 af 28 3b d6 fd f3 3c
       0.038203742 -0.04586175 0.0025739204 0.029784124
0003f0 12 fa 2d 3d 94 b2 20 3c 37 60 1d 3c 23 13 3e bd
       0.042474814 0.009808201 0.009605459 -0.04640497

conv4.bias f4 [32]
000000 b5 4a 37 bd 68 55 f3 3c cb 03 a6 bc 09 12 43 bd
       -0.04474898 0.02970381 -0.02026548 -0.04762462
000010 86 3b 57 3d 6c ed e8 3c 7c 8f 69 3d 24 84 40 3d
       0.052547 0.028433524 0.057021603 0.04700102
000020 0b 45 2e 3d c9 d3 01 3b ae 09 1d 3d 88 6d 5a 3c
       0.042546313 0.0019810072 0.03833931 0.013331778
000030 4d 05 fa 3c 6c 2a 62 3d 21 87 91 bb cf 4a c1 bc
       0.030520106 0.055216238 -0.0044411574 -0.023595242
000040 d6 58 67 bc 6e 82 67 bd 38 f2 cd 3c ba a2 4b bd
       -0.014120301 -0.05652087 0.025139913 -0.049715735
000050 9f 4f 0c 3d ad aa 34 bd 3d 6f 6b bd bb 3c f5 3c
       0.03425562 -0.04410808 -0.057479132 0.029936185
000060 8f ea c9 3c 69 e4 80 3b 2f e7 04 3c 81 7b 10 3c
       0.024647979 0.0039334786 0.008111759 0.008818508
000070 4a ea 45 bb 93 c0 5f 3d 50 ad 7f 3c 60 e7 54 3a
       -0.0030199462 0.054627012 0.015605286 0.0008121636

bn21.weight f4 [32]
000000 21 f7 71 3f 45 9a 7f 3f 03 0f 7d 3f c3 de 7c 3f
       0.94517714 0.9984477 0.9885103 0.9877741
000010 85 74 80 3f 7c 89 7e 3f f6 81 81 3f 6c 02 81 3f
       1.0035559 0.99428535 1.0117786 1.0078864
000020 12 14 83 3f 1f 72 81 3f db 2b 79 3f 10 aa 7e 3f
       1.02405 1.0112952 0.97332543 0.99478245
000030 fa ec 76 3f 2e 4f 7a 3f a9 3a 82 3f bf ba 80 3f
       0.9645535 0.9777707 1.0174152 1.005699
000040 11 97 81 3f fb 3a 7e 3f 8a 8b 80 3f 22 2b 80 3f
       1.0124227 0.9930875 1.0042584 1.0013163
000050 04 cd 82 3f 53 a4 7b 3f 55 7b 7d 3f a9 bc 7c 3f
       1.0218816 0.98297614 0.99016315 0.9872537
000060 3d ce 79 3f 1f 0d 80 3f 6c cb 7e 3f d6 7d 81 3f
       0.9758032 1.0004004 0.9952915 1.0116527
000070 0b 7f 82 3f 2b 85 83 3f ab 5d 81 3f 1c 20 81 3f
       1.019502 1.0275015 1.010671 1.0087924

bn21.bias f4 [32]
000000 57 a3 c9 3a 84 63 70 bb 7c 40 a8 bc 65 ac 3e bc
       0.0015383762 -0.003668041 -0.020538561 -0.011637782
000010 11 a9 e1 3c d7 b6 e8 bc cd 7c 83 3c df 83 5b bc
       0.027546437 -0.028407497 0.01605072 -0.01339814
000020 46 d9 0b 3c 48 a2 5d 3c 4e 02 96 3c be 61 d5 bc
       0.008535689 0.01352746 0.018311646 -0.026047584
000030 e3 94 90 3b 0f ee b9 3c 35 d6 da 3b a4 7f 97 3b
       0.00441228 0.022696523 0.0066783675 0.0046233702
000040 9e 7f c0 ba 3e bc 77 3c 23 5f d3 3a 59 35 d5 3b
       -0.001468647 0.015120564 0.0016126375 0.0065066037
000050 aa 77 85 bb 07 55 11 be 1d 11 a8 bc 85 40 3c bc
       -0.004073103 -0.14192592 -0.020515973 -0.011489992
000060 61 e5 b4 bc 2c de 5c bd db 1e d8 bc c9 08 17 3d
       -0.022082033 -0.053922817 -0.0263819 0.036873613
000070 6d 1f e3 bc 33 77 ae 3a 50 f3 08 3d ae 42 42 3b
       -0.027724946 0.0013310671 0.033435166 0.0029641795

bn21.running_mean f4 [32]
000000 be 1e 2b 3f 1c c5 6d bf c2 fd 6e bf 81 78 e6 3e
       0.66843784 -0.9287889 -0.93355954 0.45013812
000010 01 e7 89 3f d0 84 e7 bf af aa 7c bf bb 9a 1f bf
       1.0773622 -1.8087406 -0.9869794 -0.62345475
000020 59 4b c9 bf e0 46 a0 3f e0 60 14 3f f4 e5 93 bf
       -1.5726119 1.2521629 0.5796032 -1.1554551
000030 ef c8 a9 3f 89 5b c1 3e 16 98 ab bf 4d 65 3f 3f
       1.3264445 0.37765148 -1.3405788 0.7476395
000040 4f da 71 3f de bc 25 3f a3 32 61 3f 3f e3 d9 3f
       0.9447374 0.64741313 0.8796789 1.7022475
000050 84 ed ca bf 81 a5 19 3f fe 42 15 3f e9 70 84 3f
       -1.5853734 0.60018164 0.58305347 1.0346957
000060 84 f5 59 bf f2 a3 00 3f 47 c8 8e 3f 72 f1 b8 3f
       -0.8514025 0.5025016 1.115487 1.4448683
000070 5d c7 ad 3b 57 b5 84 bf 9d 74 e8 3f f9 f8 a5 bf
       0.005303307 -1.036784 1.8160588 -1.2966605

bn21.running_var f4 [32]
000000 94 bc cf 3d 68 fb df 3e 6a 33 d1 3e fe db c5 3d
       0.1014339 0.43746495 0.40859538 0.09661101
000010 86 fc 77 3e 21 14 89 3f 02 c9 06 3e c9 04 8a 3e
       0.24217424 1.0709268 0.13162616 0.26956776
000020 be 07 4d 3f 2f 33 b9 3e f4 e1 68 3d 59 78 bf 3e
       0.8008994 0.36171862 0.05685611 0.37396505
000030 0d 52 a8 3e b0 0f e2 3d ef 79 02 3f f4 2b 58 3e
       0.328751 0.110381484 0.50967306 0.21110517
000040 16 ca bf 3d a4 4e 95 3d e9 a0 46 3e f1 1e 69 3f
       0.09364717 0.0729039 0.1939732 0.9106284
000050 b9 1d 41 3f c9 d3 ea 3d 4e 67 d7 3d c8 90 cc 3e
       0.7543598 0.11466176 0.10517751 0.3995421
000060 52 61 18 3e 45 0b 34 3e 1c a9 88 3e dc 8c 13 3f
       0.14880875 0.17582424 0.2669152 0.5763681
000070 99 25 fc 3d fb 7f a0 3e 31 44 51 3f 6d 7e c9 3e
       0.12311859 0.3134764 0.81744677 0.39354268

bn22.weight f4 [32]
000000 87 97 7e 3f 92 e2 71 3f 8c 44 7f 3f bc 09 7d 3f
       0.9944996 0.94486344 0.9971397 0.9884298
000010 ec 0a 83 3f 54 4b 80 3f ad d3 80 3f b0 c6 7e 3f
       1.0237708 1.0022988 1.0064598 0.99521923
000020 62 ce 83 3f 5c 0a 7f 3f 60 cb 81 3f 00 4d 78 3f
       1.0297358 0.9962518 1.014019 0.9699249
000030 6f c8 7e 3f fe ce 7e 3f 9e 71 81 3f f4 90 7f 3f
       0.9952459 0.99534595 1.0112798 0.99830556
000040 c8 04 81 3f b0 9a 80 3f 67 d6 7c 3f c9 9e 80 3f
       1.0079584 1.0047207 0.9876465 1.0048457
000050 0a dc 7a 3f 31 65 7f 3f 4c d2 80 3f 9a 4e 80 3f
       0.97992 0.9976378 1.0064178 1.0023987
000060 84 49 80 3f 00 45 7b 3f 6c fe 82 3f 2d e5 80 3f
       1.0022435 0.9815216 1.0233893 1.0069939
000070 b1 50 80 3f 62 84 7f 3f 5d 22 80 3f 97 dc 7d 3f
       1.0024625 0.99811375 1.0010487 0.9916472

bn22.bias f4 [32]
000000 a5 8c eb bc 63 48 27 be e3 2d 34 bd cf 9b 2a bb
       -0.028753588 -0.16336207 -0.043989073 -0.002603281
000010 7e cc e2 bd db 20 5d bd 01 cb 1a 3d 3c 14 0e 3c
       -0.1107416 -0.05398641 0.037791256 0.008671816
000020 f7 7c 81 3c 6e b3 f4 bc 34 16 05 3d 1d 13 18 3d
       0.015806658 -0.029870715 0.032491878 0.037127603
000030 9e 62 b7 3c 62 59 42 bd d5 6a c1 bb 58 97 f4 bb
       0.022385892 -0.047448523 -0.005902628 -0.0074643306
000040 14 03 04 3d 9b 03 e1 3c 98 ca 1e be 11 2e 04 3d
       0.032229498 0.02746754 -0.15506971 0.032270495
000050 f8 77 39 bc 2c c0 2a bc 4c 03 18 bc cf 90 20 3c
       -0.011320107 -0.010421794 -0.00927813 0.00980015
000060 d5 d7 2b 3d 53 80 10 3d 01 cc a8 3c 09 52 21 bd
       0.04195388 0.03527863 0.02060509 -0.039384875
000070 4c 68 9f 3c 1f fc e4 3a dd ce 34 bc 3f b5 63 bc
       0.019458912 0.0017470157 -0.011035648 -0.013898193

bn22.running_mean f4 [32]
000000 54 9f 44 3d e9 57 6f 3f 58 76 0d bd 60 c3 b1 3e
       0.04800351 0.93493515 -0.03453669 0.34719372
000010 0a 8f b0 3e 8e 63 16 3e 8a a0 11 be 01 90 d5 ba
       0.3448413 0.14686415 -0.14221397 -0.0016293527
000020 f4 73 0b 3f df 0f 93 3e ad 19 51 bf c2 43 f8 be
       0.54473805 0.28723046 -0.81679803 -0.48489195
000030 8c 77 85 bf d5 4c 1c 3f 3e e1 1b be 98 fe 1c 3e
       -1.0427108 0.61054736 -0.15222642 0.15331495
000040 ff dc 69 be 9b 17 36 bf e0 3e a5 3f 34 08 83 be
       -0.2283821 -0.7112977 1.2909813 -0.25592196
000050 34 e7 5b bf a5 d1 a0 bd 20 c1 e3 3d 59 e1 10 3f
       -0.8589966 -0.078524865 0.1112082 0.56593853
000060 c1 50 cd be bd be 4f be 0f 0f 5d be da 0c b3 3f
       -0.40100673 -0.20287605 -0.21587776 1.3988297
000070 84 11 fd be bd 6b 6e be f6 dd 65 3d 49 d1 b5 3e
       -0.49427426 -0.23283286 0.05611988 0.35511234

bn22.running_var f4 [32]
000000 3b a9 38 3f bc 5e 94 3e 03 a3 7c 3e e6 46 8d 3f
       0.72133225 0.28978527 0.24671559 1.1037261
000010 ca b1 78 3e 4f d1 4d 3e b0 28 92 3e aa 86 90 3e
       0.24286571 0.20099376 0.28546667 0.2822774
000020 f2 75 8c 3e 36 03 2e 3f d9 c2 9c 3f a9 ab 9d 3e
       0.27433735 0.6797365 1.2246963 0.3079503
000030 3e 54 a6 3e 0a 25 3e 3f 2d 1c e8 3e 96 83 50 3f
       0.32486147 0.7427527 0.45333996 0.81450784
000040 8d 5a 11 3f c1 01 fe 3e 46 2b e0 3e cb fe 1c 3f
       0.56778795 0.49610713 0.43783015 0.61326283
000050 ac 27 25 3f ed b4 10 3f 34 fe 39 3f c0 22 0d 3f
       0.6451366 0.5652607 0.7265351 0.5513115
000060 64 13 60 3f c3 bb e7 3e ff fe 83 3f e7 d8 28 3f
       0.8752959 0.45260438 1.0312194 0.65955967
000070 0f c4 86 3f 18 4d 84 3f c7 bb 4d 3f 45 19 48 3f
       1.0528582 1.0336027 0.8036465 0.7816356

conv5.weight f4 [64, 32, 3, 3]
000000 82 a4 71 3c 59 08 9b 3c 6f f8 4e 3d 10 18 48 3b
       0.014748694 0.018924879 0.050529893 0.003053192
000010 66 04 10 bd 62 31 f5 3c e0 12 1e 3b 11 a7 3e 3d
       -0.035160445 0.029930774 0.0024120137 0.046546046
000020 37 d5 23 3d 82 f1 c1 39 64 39 e6 bc eb d3 31 3c
       0.03999826 0.00036991766 -0.028103538 0.010853748
000030 91 52 20 3c ad 6d fb 3c 00 f0 b0 3c 25 c5 06 3c
       0.00978531 0.030691946 0.021598816 0.008225714
000040 2b 27 26 3d e3 a3 7d 3c f5 77 6e bc 0d 12 76 bd
       0.040564697 0.015480968 -0.014554967 -0.06007581
000050 4c 77 0d 3d 1b 00 f6 3b 3b ea 3c 3c 7c 5d 30 bd
       0.0345376 0.007507337 0.011530454 -0.043057904
000060 55 26 fe 3c 08 f8 5b bd 30 d8 ce 3c bb 1a 25 bd
       0.031024138 -0.053703338 0.02524957 -0.040308695
000070 6e 3e ed 3c e9 2a 12 bd b5 4d 45 3d 15 37 5c 3d
       0.028960433 -0.035685454 0.04816981 0.053763468
000080 2c 0c 83 3d 82 2e 3f bd 18 ee e0 bc 74 cb cf 3b
       0.06398806 -0.046675213 -0.027457282 0.006341392
000090 2f 6d 88 bd 88 44 4d 3c c5 4b 52 3d ac 11 28 3c
       -0.0666145 0.012528546 0.05134179 0.01025812
0000a0 04 f9 f0 3c 59 6d 89 bb 23 0e 06 bd 71 23 3d 3d
       0.029415615 -0.0041939435 -0.032728326 0.046176378
0000b0 60 6a ab bb ba 11 9e 3c 79 de 1c ba a3 a3 48 3d
       -0.0052311867 0.019295562 -0.0005984079 0.04898418
0000c0 a5 61 88 bc a2 4f 65 bc 6a a8 54 bd 86 c4 7c 3c
       -0.016648123 -0.013996037 -0.051918425 0.015427714
0000d0 71 ae 46 3d 85 44 41 bc e8 7f 1a 3d ed f3 b9 3c
       0.048506204 -0.0117961215 0.037719637 0.02269932
0000e0 14 84 34 bd de bf 20 bd e5 e8 7d 3d d8 c6 84 bc
       -0.044071272 -0.03924548 0.061989684 -0.016208097
0000f0 27 85 d5 3c f4 a8 7a 3c 20 a5 1b 3d 69 07 ba 3c
       0.026064469 0.015299071 0.037999272 0.022708612
000100 75 3d 3f bc 22 a0 b8 bc 70 80 ec 39 e1 c3 3c bd
       -0.011672367 -0.022537295 0.0004510912 -0.046085242
000110 a4 cb 39 bc 52 b5 e1 3b e9 61 27 bb a5 0a f2 3b
       -0.011340056 0.00688807 -0.0025540537 0.007386523
000120 54 1b 1d bd 9f 6d 18 3d c6 c5 0e bd 5c f5 17 3d
       -0.03835614 0.037213918 -0.03485658 0.037099227
000130 18 a2 1a bd 5d 74 90 3b ed f7 83 3c f8 4e 1a bd
       -0.03775224 0.004408403 0.016109431 -0.037672967
000140 40 37 51 3c 34 a5 a3 3c 15 53 8c 3c 13 2c 2b bc
       0.01276952 0.019976236 0.01712946 -0.01044752
000150 cc d0 11 bd fd 5c 1a bd f8 47 c2 3b f5 5b 09 3d
       -0.035599515 -0.037686337 0.0059289895 0.033534963
000160 d6 30 34 3d 05 db 3b bd fd 9f e3 3c 9e f0 1a 3a
       0.043991886 -0.04586317 0.02778625 0.00059104885
000170 dd 55 d2 bc b3 e8 3f 3c fe 62 60 3d f4 e3 0e bc
       -0.025675708 0.011713195 0.054781906 -0.00872134
000180 60 e7 71 bc 68 a2 22 3d 5d da 0e bc 20 1a c6 3c
       -0.014764637 0.039705664 -0.008719054 0.02418238
000190 75 b3 c9 bc 4c 32 df 3c 0c 71 4e bd c0 c2 2c bd
       -0.024621705 0.027245663 -0.05040078 -0.042177916
0001a0 83 40 b7 3b f5 cf 1a bd a2 49 24 bd 68 f0 8a 3d
       0.005592407 -0.03779598 -0.040109284 0.06784135
0001b0 a8 96 a3 3c 35 1d 9b bd 1a f8 a0 3a 10 a3 38 3d
       0.0199693 -0.0757393 0.0012280971 0.045077384
0001c0 60 00 8e bc ce ac 28 bb 7f a9 0c 3d 51 87 ef bc
       -0.017334163 -0.0025737765 0.03434133 -0.029239329
0001d0 e8 e4 68 3c 98 be 6c bd 29 3a 13 3d 1a 24 86 bb
       0.014214732 -0.057798952 0.035944138 -0.004093659
0001e0 81 65 1a 3d 86 e3 06 3c 26 e9 6a 3d d3 a0 a5 3b
       0.037694458 0.008232957 0.057351254 0.005054572
0001f0 57 f3 44 bd a2 54 a0 bb 9e 63 28 bd c9 64 17 3c
       -0.04808363 -0.0048929015 -0.041110627 0.009240338
000200 20 46 99 3c 5a 18 85 bc e4 70 2c 3c 99 02 f4 3c
       0.018710196 -0.016246963 0.010524962 0.029786395
000210 e3 d7 1c bd ad 54 f9 bc b4 a7 07 3d f6 7d a4 bc
       -0.038291823 -0.030435884 0.03311892 -0.020079594
000220 2d 42 28 bd e3 8d b4 3c 60 dc 68 bd 1f b8 f8 3c
       -0.041078735 0.022040313 -0.05685079 0.030361233
000230 aa e7 d5 3a 0c 22 fe bb 77 dc a2 3c a1 c6 ee 3c
       0.0016319652 -0.0077555235 0.019880516 0.029147448
000240 90 4d ad 3c ff 05 88 3b ed fb 3e bc bc 91 3a bd
       0.021155149 0.0041511054 -0.0116567435 -0.04554914
000250 b1 c9 87 3d c9 46 82 bc 0a 50 64 bd cf 75 bc bc
       0.066302665 -0.015902894 -0.055740394 -0.023005394
000260 b2 06 f9 bc b4 85 08 bd 33 25 7c bc 67 9c 2d bc
       -0.0303987 -0.033330634 -0.015389728 -0.010596371
000270 54 0f 0b 3a df 03 f4 bc a7 55 61 bb 83 a8 cb bb
       0.0005304713 -0.029787002 -0.0034383328 -0.0062151565
000280 dc 0a 6e 3d dc 8a 8c 3d d3 81 87 bd 06 79 54 ba
       0.058115825 0.06862423 -0.06616559 -0.0008105192
000290 b0 4e 37 3d 71 eb bc 3c bb 00 80 3c 74 e6 e5 bb
       0.044752777 0.023061486 0.015625348 -0.0070159975
0002a0 0b 61 4c bd 70 36 37 bd f5 8f 30 3d 31 9a 4c bd
       -0.049897235 -0.04472965 0.043106038 -0.049951736
0002b0 98 b9 37 3c c8 8b 1f 3d 10 13 22 bd 85 57 68 bc
       0.011213683 0.038951665 -0.03956896 -0.0141810225
0002c0 20 df e4 3b 01 b2 23 bd e9 81 21 3d a0 56 08 3d
       0.0069846064 -0.03996468 0.039430533 0.033285737
0002d0 f2 44 20 bc 5e 1d c5 3c d6 09 b7 bc 6c 1d f3 bc
       -0.009782063 0.024061855 -0.022343557 -0.029677115
0002e0 aa 7d a7 bc b7 64 3e 3d 64 76 6f 3c 8a 13 83 3d
       -0.020445663 0.046482768 0.014615629 0.06400211
0002f0 2f 32 3b 3d 22 a1 2d bd da c4 2f bd 7d f8 8f 3d
       0.045702156 -0.042389996 -0.04291234 0.07029817
000300 80 da 3c bd 00 6f 42 3c af cb 8d 3c f7 e6 94 bb
       -0.046106815 0.011867285 0.017309038 -0.0045441347
000310 8c 87 62 3d 47 77 ef 3c a1 b7 a4 39 04 01 70 bc
       0.05530505 0.02923168 0.00031417332 -0.01464868
000320 b4 6b 06 3d cf bb af bc 36 60 a2 3a d3 ad 9f bc
       0.032817557 -0.021451859 0.0012388292 -0.019492066
000330 eb 67 fe bc 2c 9e 6c 3d 2d c3 5d 3b 9c 18 61 bd
       -0.031055411 0.057768032 0.0033838258 -0.05495511
000340 38 e2 cf bc 74 49 71 3c 83 dc 27 3d 3a 88 df 3c
       -0.025376424 0.014726985 0.04098178 0.027286638
000350 53 9f 2c bd 72 02 9f bc 9b ef 1f bd ef d3 34 3c
       -0.04214413 -0.019410346 -0.039046865 0.011036857
000360 f6 1c 16 3c bd ad 8d 3c 61 09 54 3d 70 b0 79 3b
       0.009162178 0.017294759 0.051766757 0.003809955
000370 29 fc 2c 3d 6a fc 52 3d 10 b6 f2 3c 6d 48 f6 3c
       0.042232666 0.051510252 0.02962783 0.030063832
000380 ee e0 2c 3c bf 1a 03 bd 21 a1 1f 3d 89 85 c9 3b
       0.010551674 -0.03200793 0.038972024 0.006149952
000390 8d ee c5 3c b8 92 1e bd 46 2c 11 bd aa 65 2f bd
       0.024161601 -0.03871414 -0.035442613 -0.042821564
0003a0 33 cb 67 3d 2c 3d 24 3c 4a 4a 92 bc 4e 34 28 3d
       0.05659027 0.01002435 -0.01785769 0.041065507
0003b0 62 c6 4f bc f0 20 fd bc f4 1e a0 bc 0d 27 6b 3b
       -0.0126815755 -0.030899495 -0.01954601 0.003588143
0003c0 5c 53 b5 bc c1 b8 68 bd 3c ab 81 ba 28 48 4f bd
       -0.022134475 -0.05681682 -0.0009892951 -0.050605923
0003d0 97 d9 b2 3a e1 26 e4 3c fc 89 1d bd b7 b2 00 bd
       0.0013645169 0.02785057 -0.03846167 -0.031420436
0003e0 0f b5 11 bc 38 a4 63 bc a5 c8 40 3d bb df fb 3c
       -0.008893265 -0.013894133 0.04706635 0.030746331
0003f0 ba b0 67 bd 1d 0e 6e bd 42 cf 53 3d 14 16 2e bd
       -0.056565024 -0.05811893 0.05171133 -0.042501524

conv5.bias f4 [64]
000000 fc 09 a8 bb 91 3e 4b 3b 89 c4 6d bd c6 9c 5c bd
       -0.0051281434 0.0031012634 -0.05804876 -0.05386045
000010 0c a8 76 bc 91 c9 18 3c e2 37 3e bd 9b 72 2e bc
       -0.015054714 0.009325401 -0.046440013 -0.010647441
000020 2b c9 9c 3b b1 3c 1b bd 2c bb 7c 3c 7c 51 50 3d
       0.0047847233 -0.037899677 0.015425485 0.05085896
000030 b2 9a 17 3c 90 82 6c 3d a1 75 4a 3d 4b 01 41 bd
       0.009253191 0.0577417 0.049428586 -0.047120374
000040 f8 a0 32 bd 0d 47 18 bd 0c 95 57 bc 3f 50 11 3d
       -0.043610543 -0.037177134 -0.013158094 0.03547692
000050 b1 f3 6b bd c0 a1 4e 3d 10 50 49 3d 33 61 53 bd
       -0.05760545 0.050447226 0.04914862 -0.05160637
000060 27 c3 a0 bb 92 fa 08 3c 62 fa 41 3d 06 fc 2c bd
       -0.0049060765 0.008360522 0.047357924 -0.042232536
000070 2a 3a da 3c 26 dc ad 3b b6 38 63 3d fc 9c 3d bd
       0.026639063 0.0053057848 0.055474006 -0.04629229
000080 61 ad 29 bd 5a f2 cf bc 5f 05 db bc 21 aa 34 bd
       -0.041425113 -0.025384117 -0.02673596 -0.04410756
000090 ac ff 3e 3d 17 47 29 3d 69 12 b5 3b b1 82 cf 3c
       0.046630546 0.041327562 0.0055258763 0.025330873
0000a0 bc b0 17 bb 82 17 50 bd d1 18 04 3c 90 14 a4 bc
       -0.0023146113 -0.05080367 0.008062557 -0.020029336
0000b0 ca 49 6f bd cf f7 ca bc 3a 79 5d bd a8 c4 04 3d
       -0.05841998 -0.024776367 -0.05407069 0.03241411
0000c0 aa d1 50 bc 19 2c 65 3d bd 5e ff bc 46 93 62 3d
       -0.0127453 0.055950258 -0.031173104 0.055316232
0000d0 53 42 6d 3d dd b1 6d bd a9 d6 11 bd ba 09 33 3b
       0.05792458 -0.05803095 -0.035605107 0.002731903
0000e0 5c 8f d2 3c 0a 4e 47 3c 34 b9 69 3d 3a 0b ec 3c
       0.025703125 0.012164602 0.05706139 0.028813947
0000f0 af d5 61 b9 3d bf 58 bc 7a 4d 71 bc 03 6a 82 3b
       -0.00021537275 -0.0132291885 -0.0147279445 0.0039799227
